…
  top: "label"
  include {
    phase: TRAIN
  }
  transform_param {
    scale: 0.022
    mean_value: 73
    mean_value: 82
    mean_value: 72
    resize_param {
      prob: 1
      resize_mode: WARP
      height: 256
      width: 512
    }
  }
  image_data_param {
    source: "/workspace/Vitis-AI-Tutorials/files/Segment/workspace/data/signate/signate_calibration.txt"
    batch_size: 1
    shuffle: true
    new_height: 256
    new_width: 512
    root_folder: "/workspace/Vitis-AI-Tutorials/files/Segment/workspace/data/signate/seg_train_images/"
  }
}
layer {
  name: "conv1/7x7_s2"
  type: "Convolution"
  bottom: "data"
  top: "conv1/7x7_s2_raw"
  param {
    lr_mult: 1
    decay_mult: 1
  }
  convolution_param {
    num_output: 64
    pad: 3
    kernel_size: 7
    stride: 2
    weight_filler {
      type: "msra"
    }
    bias_filler {
      type: "constant"
      value: 0.2
    }
  }
}
layer {
  name: "conv1/7x7_s2_BatchNorm"
  type: "BatchNorm"
  bottom: "conv1/7x7_s2_raw"
  top: "conv1/7x7_s2"
  param {
    lr_mult: 1
    decay_mult: 0
  }
  param {
    lr_mult: 1
    decay_mult: 0
  }
  param {
    lr_mult: 0
    decay_mult: 0
  }
  param {
    lr_mult: 0
    decay_mult: 0
  }
  batch_norm_param {
    use_global_stats: false
    eps: 1e-05
    scale_filler {
      type: "constant"
      value: 1
    }
    bias_filler {
      type: "constant"
      value: 0
    }
  }
}
layer {
  name: "conv1/relu_7x7"
  type: "ReLU"
  bottom: "conv1/7x7_s2"
  top: "conv1/7x7_s2"
}
layer {
  name: "pool1/3x3_s2"
  type: "Pooling"
  bottom: "conv1/7x7_s2"
  top: "pool1/3x3_s2"
  pooling_param {
    pool: MAX
    kernel_size: 3
    stride: 2
  }
}
layer {
  name: "conv2/3x3_reduce"
  type: "Convolution"
  bottom: "pool1/3x3_s2"
  top: "conv2/3x3_reduce_raw"
  param {
    lr_mult: 1
    decay_mult: 1
  }
  convolution_param {
    num_output: 64
    kernel_size: 1
    weight_filler {
      type: "msra"
    }
    bias_filler {
      type: "constant"
      value: 0.2
    }
  }
}
layer {
  name: "conv2/3x3_reduce_BatchNorm"
  type: "BatchNorm"
  bottom: "conv2/3x3_reduce_raw"
  top: "conv2/3x3_reduce"
  param {
    lr_mult: 1
    decay_mult: 0
  }
  param {
    lr_mult: 1
    decay_mult: 0
  }
  param {
    lr_mult: 0
    decay_mult: 0
  }
  param {
    lr_mult: 0
    decay_mult: 0
  }
  batch_norm_param {
    use_global_stats: false
    eps: 1e-05
    scale_filler {
      type: "constant"
      value: 1
    }
    bias_filler {
      type: "constant"
      value: 0
    }
  }
}
layer {
  name: "conv2/relu_3x3_reduce"
  type: "ReLU"
  bottom: "conv2/3x3_reduce"
  top: "conv2/3x3_reduce"
}
layer {
  name: "conv2/3x3"
  type: "Convolution"
  bottom: "conv2/3x3_reduce"
  top: "conv2/3x3_raw"
  param {
    lr_mult: 1
    decay_mult: 1
  }
  convolution_param {
    num_output: 192
    pad: 1
    kernel_size: 3
    weight_filler {
      type: "msra"
    }
    bias_filler {
      type: "constant"
      value: 0.2
    }
  }
}
layer {
  name: "conv2/3x3_BatchNorm"
  type: "BatchNorm"
  bottom: "conv2/3x3_raw"
  top: "conv2/3x3"
  param {
    lr_mult: 1
    decay_mult: 0
  }
  param {
    lr_mult: 1
    decay_mult: 0
  }
  param {
    lr_mult: 0
    decay_mult: 0
  }
  param {
    lr_mult: 0
    decay_mult: 0
  }
  batch_norm_param {
    use_global_stats: false
    eps: 1e-05
    scale_filler {
      type: "constant"
      value: 1
    }
    bias_filler {
      type: "constant"
      value: 0
    }
  }
}
layer {
  name: "conv2/relu_3x3"
  type: "ReLU"
  bottom: "conv2/3x3"
  top: "conv2/3x3"
}
layer {
  name: "pool2/3x3_s2"
  type: "Pooling"
  bottom: "conv2/3x3"
  top: "pool2/3x3_s2"
  pooling_param {
    pool: MAX
    kernel_size: 3
    stride: 2
  }
}
layer {
  name: "inception_3a/1x1"
  type: "Convolution"
  bottom: "pool2/3x3_s2"
  top: "inception_3a/1x1_raw"
  param {
    lr_mult: 1
    decay_mult: 1
  }
  convolution_param {
    num_output: 64
    kernel_size: 1
    weight_filler {
      type: "msra"
    }
    bias_filler {
      type: "constant"
      value: 0.2
    }
  }
}
layer {
  name: "inception_3a/1x1_BatchNorm"
  type: "BatchNorm"
  bottom: "inception_3a/1x1_raw"
  top: "inception_3a/1x1"
  param {
    lr_mult: 1
    decay_mult: 0
  }
  param {
    lr_mult: 1
    decay_mult: 0
  }
  param {
    lr_mult: 0
    decay_mult: 0
  }
  param {
    lr_mult: 0
    decay_mult: 0
  }
  batch_norm_param {
    use_global_stats: false
    eps: 1e-05
    scale_filler {
      type: "constant"
      value: 1
    }
    bias_filler {
      type: "constant"
      value: 0
    }
  }
}
layer {
  name: "inception_3a/relu_1x1"
  type: "ReLU"
  bottom: "inception_3a/1x1"
  top: "inception_3a/1x1"
}
layer {
  name: "inception_3a/3x3_reduce"
  type: "Convolution"
  bottom: "pool2/3x3_s2"
  top: "inception_3a/3x3_reduce_raw"
  param {
    lr_mult: 1
    decay_mult: 1
  }
  convolution_param {
    num_output: 96
    kernel_size: 1
    weight_filler {
      type: "msra"
    }
    bias_filler {
      type: "constant"
      value: 0.2
    }
  }
}
layer {
  name: "inception_3a/3x3_reduce_BatchNorm"
  type: "BatchNorm"
  bottom: "inception_3a/3x3_reduce_raw"
  top: "inception_3a/3x3_reduce"
  param {
    lr_mult: 1
    decay_mult: 0
  }
  param {
    lr_mult: 1
    decay_mult: 0
  }
  param {
    lr_mult: 0
    decay_mult: 0
  }
  param {
    lr_mult: 0
    decay_mult: 0
  }
  batch_norm_param {
    use_global_stats: false
    eps: 1e-05
    scale_filler {
      type: "constant"
      value: 1
    }
    bias_filler {
      type: "constant"
      value: 0
    }
  }
}
layer {
  name: "inception_3a/relu_3x3_reduce"
  type: "ReLU"
  bottom: "inception_3a/3x3_reduce"
  top: "inception_3a/3x3_reduce"
}
layer {
  name: "inception_3a/3x3"
  type: "Convolution"
  bottom: "inception_3a/3x3_reduce"
  top: "inception_3a/3x3_raw"
  param {
    lr_mult: 1
    decay_mult: 1
  }
  convolution_param {
    num_output: 128
    pad: 1
    kernel_size: 3
    weight_filler {
      type: "msra"
    }
    bias_filler {
      type: "constant"
      value: 0.2
    }
  }
}
layer {
  name: "inception_3a/3x3_BatchNorm"
  type: "BatchNorm"
  bottom: "inception_3a/3x3_raw"
  top: "inception_3a/3x3"
  param {
    lr_mult: 1
    decay_mult: 0
  }
  param {
    lr_mult: 1
    decay_mult: 0
  }
  param {
    lr_mult: 0
    decay_mult: 0
  }
  param {
    lr_mult: 0
    decay_mult: 0
  }
  batch_norm_param {
    use_global_stats: false
    eps: 1e-05
    scale_filler {
      type: "constant"
      value: 1
    }
    bias_filler {
      type: "constant"
      value: 0
    }
  }
}
layer {
  name: "inception_3a/relu_3x3"
  type: "ReLU"
  bottom: "inception_3a/3x3"
  top: "inception_3a/3x3"
}
layer {
  name: "inception_3a/5x5_reduce"
  type: "Convolution"
  bottom: "pool2/3x3_s2"
  top: "inception_3a/5x5_reduce_raw"
  param {
    lr_mult: 1
    decay_mult: 1
  }
  convolution_param {
    num_output: 16
    kernel_size: 1
    weight_filler {
      type: "msra"
    }
    bias_filler {
      type: "constant"
      value: 0.2
    }
  }
}
layer {
  name: "inception_3a/5x5_reduce_BatchNorm"
  type: "BatchNorm"
  bottom: "inception_3a/5x5_reduce_raw"
  top: "inception_3a/5x5_reduce"
  param {
    lr_mult: 1
    decay_mult: 0
  }
  param {
    lr_mult: 1
    decay_mult: 0
  }
  param {
    lr_mult: 0
    decay_mult: 0
  }
  param {
    lr_mult: 0
    decay_mult: 0
  }
  batch_norm_param {
    use_global_stats: false
    eps: 1e-05
    scale_filler {
      type: "constant"
      value: 1
    }
    bias_filler {
      type: "constant"
      value: 0
    }
  }
}
layer {
  name: "inception_3a/relu_5x5_reduce"
  type: "ReLU"
  bottom: "inception_3a/5x5_reduce"
  top: "inception_3a/5x5_reduce"
}
layer {
  name: "inception_3a/5x5"
  type: "Convolution"
  bottom: "inception_3a/5x5_reduce"
  top: "inception_3a/5x5_raw"
  param {
    lr_mult: 1
    decay_mult: 1
  }
  convolution_param {
    num_output: 32
    pad: 2
    kernel_size: 5
    weight_filler {
      type: "msra"
    }
    bias_filler {
      type: "constant"
      value: 0.2
    }
  }
}
layer {
  name: "inception_3a/5x5_BatchNorm"
  type: "BatchNorm"
  bottom: "inception_3a/5x5_raw"
  top: "inception_3a/5x5"
  param {
    lr_mult: 1
    decay_mult: 0
  }
  param {
    lr_mult: 1
    decay_mult: 0
  }
  param {
    lr_mult: 0
    decay_mult: 0
  }
  param {
    lr_mult: 0
    decay_mult: 0
  }
  batch_norm_param {
    use_global_stats: false
    eps: 1e-05
    scale_filler {
      type: "constant"
      value: 1
    }
    bias_filler {
      type: "constant"
      value: 0
    }
  }
}
layer {
  name: "inception_3a/relu_5x5"
  type: "ReLU"
  bottom: "inception_3a/5x5"
  top: "inception_3a/5x5"
}
layer {
  name: "inception_3a/pool"
  type: "Pooling"
  bottom: "pool2/3x3_s2"
  top: "inception_3a/pool"
  pooling_param {
    pool: MAX
    kernel_size: 3
    stride: 1
    pad: 1
  }
}
layer {
  name: "inception_3a/pool_proj"
  type: "Convolution"
  bottom: "inception_3a/pool"
  top: "inception_3a/pool_proj_raw"
  param {
    lr_mult: 1
    decay_mult: 1
  }
  convolution_param {
    num_output: 32
    kernel_size: 1
    weight_filler {
      type: "msra"
    }
    bias_filler {
      type: "constant"
      value: 0.2
    }
  }
}
layer {
  name: "inception_3a/pool_proj_BatchNorm"
  type: "BatchNorm"
  bottom: "inception_3a/pool_proj_raw"
  top: "inception_3a/pool_proj"
  param {
    lr_mult: 1
    decay_mult: 0
  }
  param {
    lr_mult: 1
    decay_mult: 0
  }
  param {
    lr_mult: 0
    decay_mult: 0
  }
  param {
    lr_mult: 0
    decay_mult: 0
  }
  batch_norm_param {
    use_global_stats: false
    eps: 1e-05
    scale_filler {
      type: "constant"
      value: 1
    }
    bias_filler {
      type: "constant"
      value: 0
    }
  }
}
layer {
  name: "inception_3a/relu_pool_proj"
  type: "ReLU"
  bottom: "inception_3a/pool_proj"
  top: "inception_3a/pool_proj"
}
layer {
  name: "inception_3a/output"
  type: "Concat"
  bottom: "inception_3a/1x1"
  bottom: "inception_3a/3x3"
  bottom: "inception_3a/5x5"
  bottom: "inception_3a/pool_proj"
  top: "inception_3a/output"
}
layer {
  name: "inception_3b/1x1"
  type: "Convolution"
  bottom: "inception_3a/output"
  top: "inception_3b/1x1_raw"
  param {
    lr_mult: 1
    decay_mult: 1
  }
  convolution_param {
    num_output: 128
    kernel_size: 1
    weight_filler {
      type: "msra"
    }
    bias_filler {
      type: "constant"
      value: 0.2
    }
  }
}
layer {
  name: "inception_3b/1x1_BatchNorm"
  type: "BatchNorm"
  bottom: "inception_3b/1x1_raw"
  top: "inception_3b/1x1"
  param {
    lr_mult: 1
    decay_mult: 0
  }
  param {
    lr_mult: 1
    decay_mult: 0
  }
  param {
    lr_mult: 0
    decay_mult: 0
  }
  param {
    lr_mult: 0
    decay_mult: 0
  }
  batch_norm_param {
    use_global_stats: false
    eps: 1e-05
    scale_filler {
      type: "constant"
      value: 1
    }
    bias_filler {
      type: "constant"
      value: 0
    }
  }
}
layer {
  name: "inception_3b/relu_1x1"
  type: "ReLU"
  bottom: "inception_3b/1x1"
  top: "inception_3b/1x1"
}
layer {
  name: "inception_3b/3x3_reduce"
  type: "Convolution"
  bottom: "inception_3a/output"
  top: "inception_3b/3x3_reduce_raw"
  param {
    lr_mult: 1
    decay_mult: 1
  }
  convolution_param {
    num_output: 128
    kernel_size: 1
    weight_filler {
      type: "msra"
    }
    bias_filler {
      type: "constant"
      value: 0.2
    }
  }
}
layer {
  name: "inception_3b/3x3_reduce_BatchNorm"
  type: "BatchNorm"
  bottom: "inception_3b/3x3_reduce_raw"
  top: "inception_3b/3x3_reduce"
  param {
    lr_mult: 1
    decay_mult: 0
  }
  param {
    lr_mult: 1
    decay_mult: 0
  }
  param {
    lr_mult: 0
    decay_mult: 0
  }
  param {
    lr_mult: 0
    decay_mult: 0
  }
  batch_norm_param {
    use_global_stats: false
    eps: 1e-05
    scale_filler {
      type: "constant"
      value: 1
    }
    bias_filler {
      type: "constant"
      value: 0
    }
  }
}
layer {
  name: "inception_3b/relu_3x3_reduce"
  type: "ReLU"
  bottom: "inception_3b/3x3_reduce"
  top: "inception_3b/3x3_reduce"
}
layer {
  name: "inception_3b/3x3"
  type: "Convolution"
  bottom: "inception_3b/3x3_reduce"
  top: "inception_3b/3x3_raw"
  param {
    lr_mult: 1
    decay_mult: 1
  }
  convolution_param {
    num_output: 192
    pad: 1
    kernel_size: 3
    weight_filler {
      type: "msra"
    }
    bias_filler {
      type: "constant"
      value: 0.2
    }
  }
}
layer {
  name: "inception_3b/3x3_BatchNorm"
  type: "BatchNorm"
  bottom: "inception_3b/3x3_raw"
  top: "inception_3b/3x3"
  param {
    lr_mult: 1
    decay_mult: 0
  }
  param {
    lr_mult: 1
    decay_mult: 0
  }
  param {
    lr_mult: 0
    decay_mult: 0
  }
  param {
    lr_mult: 0
    decay_mult: 0
  }
  batch_norm_param {
    use_global_stats: false
    eps: 1e-05
    scale_filler {
      type: "constant"
      value: 1
    }
    bias_filler {
      type: "constant"
      value: 0
    }
  }
}
layer {
  name: "inception_3b/relu_3x3"
  type: "ReLU"
  bottom: "inception_3b/3x3"
  top: "inception_3b/3x3"
}
layer {
  name: "inception_3b/5x5_reduce"
  type: "Convolution"
  bottom: "inception_3a/output"
  top: "inception_3b/5x5_reduce_raw"
  param {
    lr_mult: 1
    decay_mult: 1
  }
  convolution_param {
    num_output: 32
    kernel_size: 1
    weight_filler {
      type: "msra"
    }
    bias_filler {
      type: "constant"
      value: 0.2
    }
  }
}
layer {
  name: "inception_3b/5x5_reduce_BatchNorm"
  type: "BatchNorm"
  bottom: "inception_3b/5x5_reduce_raw"
  top: "inception_3b/5x5_reduce"
  param {
    lr_mult: 1
    decay_mult: 0
  }
  param {
    lr_mult: 1
    decay_mult: 0
  }
  param {
    lr_mult: 0
    decay_mult: 0
  }
  param {
    lr_mult: 0
    decay_mult: 0
  }
  batch_norm_param {
    use_global_stats: false
    eps: 1e-05
    scale_filler {
      type: "constant"
      value: 1
    }
    bias_filler {
      type: "constant"
      value: 0
    }
  }
}
layer {
  name: "inception_3b/relu_5x5_reduce"
  type: "ReLU"
  bottom: "inception_3b/5x5_reduce"
  top: "inception_3b/5x5_reduce"
}
layer {
  name: "inception_3b/5x5"
  type: "Convolution"
  bottom: "inception_3b/5x5_reduce"
  top: "inception_3b/5x5_raw"
  param {
    lr_mult: 1
    decay_mult: 1
  }
  convolution_param {
    num_output: 96
    pad: 2
    kernel_size: 5
    weight_filler {
      type: "msra"
    }
    bias_filler {
      type: "constant"
      value: 0.2
    }
  }
}
layer {
  name: "inception_3b/5x5_BatchNorm"
  type: "BatchNorm"
  bottom: "inception_3b/5x5_raw"
  top: "inception_3b/5x5"
  param {
    lr_mult: 1
    decay_mult: 0
  }
  param {
    lr_mult: 1
    decay_mult: 0
  }
  param {
    lr_mult: 0
    decay_mult: 0
  }
  param {
    lr_mult: 0
    decay_mult: 0
  }
  batch_norm_param {
    use_global_stats: false
    eps: 1e-05
    scale_filler {
      type: "constant"
      value: 1
    }
    bias_filler {
      type: "constant"
      value: 0
    }
  }
}
layer {
  name: "inception_3b/relu_5x5"
  type: "ReLU"
  bottom: "inception_3b/5x5"
  top: "inception_3b/5x5"
}
layer {
  name: "inception_3b/pool"
  type: "Pooling"
  bottom: "inception_3a/output"
  top: "inception_3b/pool"
  pooling_param {
    pool: MAX
    kernel_size: 3
    stride: 1
    pad: 1
  }
}
layer {
  name: "inception_3b/pool_proj"
  type: "Convolution"
  bottom: "inception_3b/pool"
  top: "inception_3b/pool_proj_raw"
  param {
    lr_mult: 1
    decay_mult: 1
  }
  convolution_param {
    num_output: 64
    kernel_size: 1
    weight_filler {
      type: "msra"
    }
    bias_filler {
      type: "constant"
      value: 0.2
    }
  }
}
layer {
  name: "inception_3b/pool_proj_BatchNorm"
  type: "BatchNorm"
  bottom: "inception_3b/pool_proj_raw"
  top: "inception_3b/pool_proj"
  param {
    lr_mult: 1
    decay_mult: 0
  }
  param {
    lr_mult: 1
    decay_mult: 0
  }
  param {
    lr_mult: 0
    decay_mult: 0
  }
  param {
    lr_mult: 0
    decay_mult: 0
  }
  batch_norm_param {
    use_global_stats: false
    eps: 1e-05
    scale_filler {
      type: "constant"
      value: 1
    }
    bias_filler {
      type: "constant"
      value: 0
    }
  }
}
layer {
  name: "inception_3b/relu_pool_proj"
  type: "ReLU"
  bottom: "inception_3b/pool_proj"
  top: "inception_3b/pool_proj"
}
layer {
  name: "inception_3b/output"
  type: "Concat"
  bottom: "inception_3b/1x1"
  bottom: "inception_3b/3x3"
  bottom: "inception_3b/5x5"
  bottom: "inception_3b/pool_proj"
  top: "inception_3b/output"
}
layer {
  name: "pool3/3x3_s2"
  type: "Pooling"
  bottom: "inception_3b/output"
  top: "pool3/3x3_s2"
  pooling_param {
    pool: MAX
    kernel_size: 3
    stride: 2
  }
}
layer {
  name: "inception_4a/1x1"
  type: "Convolution"
  bottom: "pool3/3x3_s2"
  top: "inception_4a/1x1_raw"
  param {
    lr_mult: 1
    decay_mult: 1
  }
  convolution_param {
    num_output: 192
    kernel_size: 1
    weight_filler {
      type: "msra"
    }
    bias_filler {
      type: "constant"
      value: 0.2
    }
  }
}
layer {
  name: "inception_4a/1x1_BatchNorm"
  type: "BatchNorm"
  bottom: "inception_4a/1x1_raw"
  top: "inception_4a/1x1"
  param {
    lr_mult: 1
    decay_mult: 0
  }
  param {
    lr_mult: 1
    decay_mult: 0
  }
  param {
    lr_mult: 0
    decay_mult: 0
  }
  param {
    lr_mult: 0
    decay_mult: 0
  }
  batch_norm_param {
    use_global_stats: false
    eps: 1e-05
    scale_filler {
      type: "constant"
      value: 1
    }
    bias_filler {
      type: "constant"
      value: 0
    }
  }
}
layer {
  name: "inception_4a/relu_1x1"
  type: "ReLU"
  bottom: "inception_4a/1x1"
  top: "inception_4a/1x1"
}
layer {
  name: "inception_4a/3x3_reduce"
  type: "Convolution"
  bottom: "pool3/3x3_s2"
  top: "inception_4a/3x3_reduce_raw"
  param {
    lr_mult: 1
    decay_mult: 1
  }
  convolution_param {
    num_output: 96
    kernel_size: 1
    weight_filler {
      type: "msra"
    }
    bias_filler {
      type: "constant"
      value: 0.2
    }
  }
}
layer {
  name: "inception_4a/3x3_reduce_BatchNorm"
  type: "BatchNorm"
  bottom: "inception_4a/3x3_reduce_raw"
  top: "inception_4a/3x3_reduce"
  param {
    lr_mult: 1
    decay_mult: 0
  }
  param {
    lr_mult: 1
    decay_mult: 0
  }
  param {
    lr_mult: 0
    decay_mult: 0
  }
  param {
    lr_mult: 0
    decay_mult: 0
  }
  batch_norm_param {
    use_global_stats: false
    eps: 1e-05
    scale_filler {
      type: "constant"
      value: 1
    }
    bias_filler {
      type: "constant"
      value: 0
    }
  }
}
layer {
  name: "inception_4a/relu_3x3_reduce"
  type: "ReLU"
  bottom: "inception_4a/3x3_reduce"
  top: "inception_4a/3x3_reduce"
}
layer {
  name: "inception_4a/3x3"
  type: "Convolution"
  bottom: "inception_4a/3x3_reduce"
  top: "inception_4a/3x3_raw"
  param {
    lr_mult: 1
    decay_mult: 1
  }
  convolution_param {
    num_output: 208
    pad: 1
    kernel_size: 3
    weight_filler {
      type: "msra"
    }
    bias_filler {
      type: "constant"
      value: 0.2
    }
  }
}
layer {
  name: "inception_4a/3x3_BatchNorm"
  type: "BatchNorm"
  bottom: "inception_4a/3x3_raw"
  top: "inception_4a/3x3"
  param {
    lr_mult: 1
    decay_mult: 0
  }
  param {
    lr_mult: 1
    decay_mult: 0
  }
  param {
    lr_mult: 0
    decay_mult: 0
  }
  param {
    lr_mult: 0
    decay_mult: 0
  }
  batch_norm_param {
    use_global_stats: false
    eps: 1e-05
    scale_filler {
      type: "constant"
      value: 1
    }
    bias_filler {
      type: "constant"
      value: 0
    }
  }
}
layer {
  name: "inception_4a/relu_3x3"
  type: "ReLU"
  bottom: "inception_4a/3x3"
  top: "inception_4a/3x3"
}
layer {
  name: "inception_4a/5x5_reduce"
  type: "Convolution"
  bottom: "pool3/3x3_s2"
  top: "inception_4a/5x5_reduce_raw"
  param {
    lr_mult: 1
    decay_mult: 1
  }
  convolution_param {
    num_output: 16
    kernel_size: 1
    weight_filler {
      type: "msra"
    }
    bias_filler {
      type: "constant"
      value: 0.2
    }
  }
}
layer {
  name: "inception_4a/5x5_reduce_BatchNorm"
  type: "BatchNorm"
  bottom: "inception_4a/5x5_reduce_raw"
  top: "inception_4a/5x5_reduce"
  param {
    lr_mult: 1
    decay_mult: 0
  }
  param {
    lr_mult: 1
    decay_mult: 0
  }
  param {
    lr_mult: 0
    decay_mult: 0
  }
  param {
    lr_mult: 0
    decay_mult: 0
  }
  batch_norm_param {
    use_global_stats: false
    eps: 1e-05
    scale_filler {
      type: "constant"
      value: 1
    }
    bias_filler {
      type: "constant"
      value: 0
    }
  }
}
layer {
  name: "inception_4a/relu_5x5_reduce"
  type: "ReLU"
  bottom: "inception_4a/5x5_reduce"
  top: "inception_4a/5x5_reduce"
}
layer {
  name: "inception_4a/5x5"
  type: "Convolution"
  bottom: "inception_4a/5x5_reduce"
  top: "inception_4a/5x5_raw"
  param {
    lr_mult: 1
    decay_mult: 1
  }
  convolution_param {
    num_output: 48
    pad: 2
    kernel_size: 5
    weight_filler {
      type: "msra"
    }
    bias_filler {
      type: "constant"
      value: 0.2
    }
  }
}
layer {
  name: "inception_4a/5x5_BatchNorm"
  type: "BatchNorm"
  bottom: "inception_4a/5x5_raw"
  top: "inception_4a/5x5"
  param {
    lr_mult: 1
    decay_mult: 0
  }
  param {
    lr_mult: 1
    decay_mult: 0
  }
  param {
    lr_mult: 0
    decay_mult: 0
  }
  param {
    lr_mult: 0
    decay_mult: 0
  }
  batch_norm_param {
    use_global_stats: false
    eps: 1e-05
    scale_filler {
      type: "constant"
      value: 1
    }
    bias_filler {
      type: "constant"
      value: 0
    }
  }
}
layer {
  name: "inception_4a/relu_5x5"
  type: "ReLU"
  bottom: "inception_4a/5x5"
  top: "inception_4a/5x5"
}
layer {
  name: "inception_4a/pool"
  type: "Pooling"
  bottom: "pool3/3x3_s2"
  top: "inception_4a/pool"
  pooling_param {
    pool: MAX
    kernel_size: 3
    stride: 1
    pad: 1
  }
}
layer {
  name: "inception_4a/pool_proj"
  type: "Convolution"
  bottom: "inception_4a/pool"
  top: "inception_4a/pool_proj_raw"
  param {
    lr_mult: 1
    decay_mult: 1
  }
  convolution_param {
    num_output: 64
    kernel_size: 1
    weight_filler {
      type: "msra"
    }
    bias_filler {
      type: "constant"
      value: 0.2
    }
  }
}
layer {
  name: "inception_4a/pool_proj_BatchNorm"
  type: "BatchNorm"
  bottom: "inception_4a/pool_proj_raw"
  top: "inception_4a/pool_proj"
  param {
    lr_mult: 1
    decay_mult: 0
  }
  param {
    lr_mult: 1
    decay_mult: 0
  }
  param {
    lr_mult: 0
    decay_mult: 0
  }
  param {
    lr_mult: 0
    decay_mult: 0
  }
  batch_norm_param {
    use_global_stats: false
    eps: 1e-05
    scale_filler {
      type: "constant"
      value: 1
    }
    bias_filler {
      type: "constant"
      value: 0
    }
  }
}
layer {
  name: "inception_4a/relu_pool_proj"
  type: "ReLU"
  bottom: "inception_4a/pool_proj"
  top: "inception_4a/pool_proj"
}
layer {
  name: "inception_4a/output"
  type: "Concat"
  bottom: "inception_4a/1x1"
  bottom: "inception_4a/3x3"
  bottom: "inception_4a/5x5"
  bottom: "inception_4a/pool_proj"
  top: "inception_4a/output"
}
layer {
  name: "inception_4b/1x1"
  type: "Convolution"
  bottom: "inception_4a/output"
  top: "inception_4b/1x1_raw"
  param {
    lr_mult: 1
    decay_mult: 1
  }
  convolution_param {
    num_output: 160
    kernel_size: 1
    weight_filler {
      type: "msra"
    }
    bias_filler {
      type: "constant"
      value: 0.2
    }
  }
}
layer {
  name: "inception_4b/1x1_BatchNorm"
  type: "BatchNorm"
  bottom: "inception_4b/1x1_raw"
  top: "inception_4b/1x1"
  param {
    lr_mult: 1
    decay_mult: 0
  }
  param {
    lr_mult: 1
    decay_mult: 0
  }
  param {
    lr_mult: 0
    decay_mult: 0
  }
  param {
    lr_mult: 0
    decay_mult: 0
  }
  batch_norm_param {
    use_global_stats: false
    eps: 1e-05
    scale_filler {
      type: "constant"
      value: 1
    }
    bias_filler {
      type: "constant"
      value: 0
    }
  }
}
layer {
  name: "inception_4b/relu_1x1"
  type: "ReLU"
  bottom: "inception_4b/1x1"
  top: "inception_4b/1x1"
}
layer {
  name: "inception_4b/3x3_reduce"
  type: "Convolution"
  bottom: "inception_4a/output"
  top: "inception_4b/3x3_reduce_raw"
  param {
    lr_mult: 1
    decay_mult: 1
  }
  convolution_param {
    num_output: 112
    kernel_size: 1
    weight_filler {
      type: "msra"
    }
    bias_filler {
      type: "constant"
      value: 0.2
    }
  }
}
layer {
  name: "inception_4b/3x3_reduce_BatchNorm"
  type: "BatchNorm"
  bottom: "inception_4b/3x3_reduce_raw"
  top: "inception_4b/3x3_reduce"
  param {
    lr_mult: 1
    decay_mult: 0
  }
  param {
    lr_mult: 1
    decay_mult: 0
  }
  param {
    lr_mult: 0
    decay_mult: 0
  }
  param {
    lr_mult: 0
    decay_mult: 0
  }
  batch_norm_param {
    use_global_stats: false
    eps: 1e-05
    scale_filler {
      type: "constant"
      value: 1
    }
    bias_filler {
      type: "constant"
      value: 0
    }
  }
}
layer {
  name: "inception_4b/relu_3x3_reduce"
  type: "ReLU"
  bottom: "inception_4b/3x3_reduce"
  top: "inception_4b/3x3_reduce"
}
layer {
  name: "inception_4b/3x3"
  type: "Convolution"
  bottom: "inception_4b/3x3_reduce"
  top: "inception_4b/3x3_raw"
  param {
    lr_mult: 1
    decay_mult: 1
  }
  convolution_param {
    num_output: 224
    pad: 1
    kernel_size: 3
    weight_filler {
      type: "msra"
    }
    bias_filler {
      type: "constant"
      value: 0.2
    }
  }
}
layer {
  name: "inception_4b/3x3_BatchNorm"
  type: "BatchNorm"
  bottom: "inception_4b/3x3_raw"
  top: "inception_4b/3x3"
  param {
    lr_mult: 1
    decay_mult: 0
  }
  param {
    lr_mult: 1
    decay_mult: 0
  }
  param {
    lr_mult: 0
    decay_mult: 0
  }
  param {
    lr_mult: 0
    decay_mult: 0
  }
  batch_norm_param {
    use_global_stats: false
    eps: 1e-05
    scale_filler {
      type: "constant"
      value: 1
    }
    bias_filler {
      type: "constant"
      value: 0
    }
  }
}
layer {
  name: "inception_4b/relu_3x3"
  type: "ReLU"
  bottom: "inception_4b/3x3"
  top: "inception_4b/3x3"
}
layer {
  name: "inception_4b/5x5_reduce"
  type: "Convolution"
  bottom: "inception_4a/output"
  top: "inception_4b/5x5_reduce_raw"
  param {
    lr_mult: 1
    decay_mult: 1
  }
  convolution_param {
    num_output: 24
    kernel_size: 1
    weight_filler {
      type: "msra"
    }
    bias_filler {
      type: "constant"
      value: 0.2
    }
  }
}
layer {
  name: "inception_4b/5x5_reduce_BatchNorm"
  type: "BatchNorm"
  bottom: "inception_4b/5x5_reduce_raw"
  top: "inception_4b/5x5_reduce"
  param {
    lr_mult: 1
    decay_mult: 0
  }
  param {
    lr_mult: 1
    decay_mult: 0
  }
  param {
    lr_mult: 0
    decay_mult: 0
  }
  param {
    lr_mult: 0
    decay_mult: 0
  }
  batch_norm_param {
    use_global_stats: false
    eps: 1e-05
    scale_filler {
      type: "constant"
      value: 1
    }
    bias_filler {
      type: "constant"
      value: 0
    }
  }
}
layer {
  name: "inception_4b/relu_5x5_reduce"
  type: "ReLU"
  bottom: "inception_4b/5x5_reduce"
  top: "inception_4b/5x5_reduce"
}
layer {
  name: "inception_4b/5x5"
  type: "Convolution"
  bottom: "inception_4b/5x5_reduce"
  top: "inception_4b/5x5_raw"
  param {
    lr_mult: 1
    decay_mult: 1
  }
  convolution_param {
    num_output: 64
    pad: 2
    kernel_size: 5
    weight_filler {
      type: "msra"
    }
    bias_filler {
      type: "constant"
      value: 0.2
    }
  }
}
layer {
  name: "inception_4b/5x5_BatchNorm"
  type: "BatchNorm"
  bottom: "inception_4b/5x5_raw"
  top: "inception_4b/5x5"
  param {
    lr_mult: 1
    decay_mult: 0
  }
  param {
    lr_mult: 1
    decay_mult: 0
  }
  param {
    lr_mult: 0
    decay_mult: 0
  }
  param {
    lr_mult: 0
    decay_mult: 0
  }
  batch_norm_param {
    use_global_stats: false
    eps: 1e-05
    scale_filler {
      type: "constant"
      value: 1
    }
    bias_filler {
      type: "constant"
      value: 0
    }
  }
}
layer {
  name: "inception_4b/relu_5x5"
  type: "ReLU"
  bottom: "inception_4b/5x5"
  top: "inception_4b/5x5"
}
layer {
  name: "inception_4b/pool"
  type: "Pooling"
  bottom: "inception_4a/output"
  top: "inception_4b/pool"
  pooling_param {
    pool: MAX
    kernel_size: 3
    stride: 1
    pad: 1
  }
}
layer {
  name: "inception_4b/pool_proj"
  type: "Convolution"
  bottom: "inception_4b/pool"
  top: "inception_4b/pool_proj_raw"
  param {
    lr_mult: 1
    decay_mult: 1
  }
  convolution_param {
    num_output: 64
    kernel_size: 1
    weight_filler {
      type: "msra"
    }
    bias_filler {
      type: "constant"
      value: 0.2
    }
  }
}
layer {
  name: "inception_4b/pool_proj_BatchNorm"
  type: "BatchNorm"
  bottom: "inception_4b/pool_proj_raw"
  top: "inception_4b/pool_proj"
  param {
    lr_mult: 1
    decay_mult: 0
  }
  param {
    lr_mult: 1
    decay_mult: 0
  }
  param {
    lr_mult: 0
    decay_mult: 0
  }
  param {
    lr_mult: 0
    decay_mult: 0
  }
  batch_norm_param {
    use_global_stats: false
    eps: 1e-05
    scale_filler {
      type: "constant"
      value: 1
    }
    bias_filler {
      type: "constant"
      value: 0
    }
  }
}
layer {
  name: "inception_4b/relu_pool_proj"
  type: "ReLU"
  bottom: "inception_4b/pool_proj"
  top: "inception_4b/pool_proj"
}
layer {
  name: "inception_4b/output"
  type: "Concat"
  bottom: "inception_4b/1x1"
  bottom: "inception_4b/3x3"
  bottom: "inception_4b/5x5"
  bottom: "inception_4b/pool_proj"
  top: "inception_4b/output"
}
layer {
  name: "inception_4c/1x1"
  type: "Convolution"
  bottom: "inception_4b/output"
  top: "inception_4c/1x1_raw"
  param {
    lr_mult: 1
    decay_mult: 1
  }
  convolution_param {
    num_output: 128
    kernel_size: 1
    weight_filler {
      type: "msra"
    }
    bias_filler {
      type: "constant"
      value: 0.2
    }
  }
}
layer {
  name: "inception_4c/1x1_BatchNorm"
  type: "BatchNorm"
  bottom: "inception_4c/1x1_raw"
  top: "inception_4c/1x1"
  param {
    lr_mult: 1
    decay_mult: 0
  }
  param {
    lr_mult: 1
    decay_mult: 0
  }
  param {
    lr_mult: 0
    decay_mult: 0
  }
  param {
    lr
I1119 07:50:23.126642 22704 layer_factory.hpp:77] Creating layer data
I1119 07:50:23.126678 22704 net.cpp:94] Creating Layer data
I1119 07:50:23.126689 22704 net.cpp:409] data -> data
I1119 07:50:23.126703 22704 net.cpp:409] data -> label
I1119 07:50:23.126730 22704 image_data_layer.cpp:41] Opening file /workspace/Vitis-AI-Tutorials/files/Segment/workspace/data/signate/signate_calibration.txt
I1119 07:50:23.127768 22704 image_data_layer.cpp:51] Shuffling data
I1119 07:50:23.128090 22704 image_data_layer.cpp:56] A total of 2018 images.
I1119 07:50:23.171412 22704 image_data_layer.cpp:84] output data size: 1,3,256,512
I1119 07:50:23.188076 22704 internal_thread.cpp:27] Starting internal thread(s) on GPU 0
I1119 07:50:23.188171 22704 net.cpp:144] Setting up data
I1119 07:50:23.188176 22704 net.cpp:151] Top shape: 1 3 256 512 (393216)
I1119 07:50:23.188185 22704 net.cpp:151] Top shape: 1 (1)
I1119 07:50:23.188189 22704 net.cpp:159] Memory required for data: 1572868
I1119 07:50:23.188192 22704 layer_factory.hpp:77] Creating layer conv1/7x7_s2
I1119 07:50:23.188217 22704 net.cpp:94] Creating Layer conv1/7x7_s2
I1119 07:50:23.188221 22704 net.cpp:435] conv1/7x7_s2 <- data
I1119 07:50:23.188228 22704 net.cpp:409] conv1/7x7_s2 -> conv1/7x7_s2_raw
I1119 07:50:23.188809 22704 net.cpp:144] Setting up conv1/7x7_s2
I1119 07:50:23.188838 22704 net.cpp:151] Top shape: 1 64 128 256 (2097152)
I1119 07:50:23.188864 22704 net.cpp:159] Memory required for data: 9961476
I1119 07:50:23.188918 22704 layer_factory.hpp:77] Creating layer conv1/7x7_s2_BatchNorm
I1119 07:50:23.188947 22704 net.cpp:94] Creating Layer conv1/7x7_s2_BatchNorm
I1119 07:50:23.188971 22704 net.cpp:435] conv1/7x7_s2_BatchNorm <- conv1/7x7_s2_raw
I1119 07:50:23.189004 22704 net.cpp:409] conv1/7x7_s2_BatchNorm -> conv1/7x7_s2
I1119 07:50:23.189779 22704 net.cpp:144] Setting up conv1/7x7_s2_BatchNorm
I1119 07:50:23.189808 22704 net.cpp:151] Top shape: 1 64 128 256 (2097152)
I1119 07:50:23.189833 22704 net.cpp:159] Memory required for data: 18350084
I1119 07:50:23.189864 22704 layer_factory.hpp:77] Creating layer conv1/relu_7x7
I1119 07:50:23.189891 22704 net.cpp:94] Creating Layer conv1/relu_7x7
I1119 07:50:23.189914 22704 net.cpp:435] conv1/relu_7x7 <- conv1/7x7_s2
I1119 07:50:23.189939 22704 net.cpp:396] conv1/relu_7x7 -> conv1/7x7_s2 (in-place)
I1119 07:50:23.189973 22704 net.cpp:144] Setting up conv1/relu_7x7
I1119 07:50:23.189996 22704 net.cpp:151] Top shape: 1 64 128 256 (2097152)
I1119 07:50:23.190021 22704 net.cpp:159] Memory required for data: 26738692
I1119 07:50:23.190044 22704 layer_factory.hpp:77] Creating layer pool1/3x3_s2
I1119 07:50:23.190071 22704 net.cpp:94] Creating Layer pool1/3x3_s2
I1119 07:50:23.190093 22704 net.cpp:435] pool1/3x3_s2 <- conv1/7x7_s2
I1119 07:50:23.190119 22704 net.cpp:409] pool1/3x3_s2 -> pool1/3x3_s2
I1119 07:50:23.190181 22704 net.cpp:144] Setting up pool1/3x3_s2
I1119 07:50:23.190204 22704 net.cpp:151] Top shape: 1 64 64 128 (524288)
I1119 07:50:23.190228 22704 net.cpp:159] Memory required for data: 28835844
I1119 07:50:23.190249 22704 layer_factory.hpp:77] Creating layer conv2/3x3_reduce
I1119 07:50:23.190276 22704 net.cpp:94] Creating Layer conv2/3x3_reduce
I1119 07:50:23.190299 22704 net.cpp:435] conv2/3x3_reduce <- pool1/3x3_s2
I1119 07:50:23.190310 22704 net.cpp:409] conv2/3x3_reduce -> conv2/3x3_reduce_raw
I1119 07:50:23.190516 22704 net.cpp:144] Setting up conv2/3x3_reduce
I1119 07:50:23.190521 22704 net.cpp:151] Top shape: 1 64 64 128 (524288)
I1119 07:50:23.190526 22704 net.cpp:159] Memory required for data: 30932996
I1119 07:50:23.190531 22704 layer_factory.hpp:77] Creating layer conv2/3x3_reduce_BatchNorm
I1119 07:50:23.190536 22704 net.cpp:94] Creating Layer conv2/3x3_reduce_BatchNorm
I1119 07:50:23.190538 22704 net.cpp:435] conv2/3x3_reduce_BatchNorm <- conv2/3x3_reduce_raw
I1119 07:50:23.190542 22704 net.cpp:409] conv2/3x3_reduce_BatchNorm -> conv2/3x3_reduce
I1119 07:50:23.190980 22704 net.cpp:144] Setting up conv2/3x3_reduce_BatchNorm
I1119 07:50:23.190986 22704 net.cpp:151] Top shape: 1 64 64 128 (524288)
I1119 07:50:23.190990 22704 net.cpp:159] Memory required for data: 33030148
I1119 07:50:23.190997 22704 layer_factory.hpp:77] Creating layer conv2/relu_3x3_reduce
I1119 07:50:23.191001 22704 net.cpp:94] Creating Layer conv2/relu_3x3_reduce
I1119 07:50:23.191004 22704 net.cpp:435] conv2/relu_3x3_reduce <- conv2/3x3_reduce
I1119 07:50:23.191007 22704 net.cpp:396] conv2/relu_3x3_reduce -> conv2/3x3_reduce (in-place)
I1119 07:50:23.191011 22704 net.cpp:144] Setting up conv2/relu_3x3_reduce
I1119 07:50:23.191013 22704 net.cpp:151] Top shape: 1 64 64 128 (524288)
I1119 07:50:23.191017 22704 net.cpp:159] Memory required for data: 35127300
I1119 07:50:23.191020 22704 layer_factory.hpp:77] Creating layer conv2/3x3
I1119 07:50:23.191025 22704 net.cpp:94] Creating Layer conv2/3x3
I1119 07:50:23.191027 22704 net.cpp:435] conv2/3x3 <- conv2/3x3_reduce
I1119 07:50:23.191031 22704 net.cpp:409] conv2/3x3 -> conv2/3x3_raw
I1119 07:50:23.192062 22704 net.cpp:144] Setting up conv2/3x3
I1119 07:50:23.192068 22704 net.cpp:151] Top shape: 1 192 64 128 (1572864)
I1119 07:50:23.192071 22704 net.cpp:159] Memory required for data: 41418756
I1119 07:50:23.192076 22704 layer_factory.hpp:77] Creating layer conv2/3x3_BatchNorm
I1119 07:50:23.192081 22704 net.cpp:94] Creating Layer conv2/3x3_BatchNorm
I1119 07:50:23.192083 22704 net.cpp:435] conv2/3x3_BatchNorm <- conv2/3x3_raw
I1119 07:50:23.192087 22704 net.cpp:409] conv2/3x3_BatchNorm -> conv2/3x3
I1119 07:50:23.192543 22704 net.cpp:144] Setting up conv2/3x3_BatchNorm
I1119 07:50:23.192549 22704 net.cpp:151] Top shape: 1 192 64 128 (1572864)
I1119 07:50:23.192553 22704 net.cpp:159] Memory required for data: 47710212
I1119 07:50:23.192561 22704 layer_factory.hpp:77] Creating layer conv2/relu_3x3
I1119 07:50:23.192564 22704 net.cpp:94] Creating Layer conv2/relu_3x3
I1119 07:50:23.192567 22704 net.cpp:435] conv2/relu_3x3 <- conv2/3x3
I1119 07:50:23.192570 22704 net.cpp:396] conv2/relu_3x3 -> conv2/3x3 (in-place)
I1119 07:50:23.192574 22704 net.cpp:144] Setting up conv2/relu_3x3
I1119 07:50:23.192576 22704 net.cpp:151] Top shape: 1 192 64 128 (1572864)
I1119 07:50:23.192579 22704 net.cpp:159] Memory required for data: 54001668
I1119 07:50:23.192581 22704 layer_factory.hpp:77] Creating layer conv2/3x3_conv2/relu_3x3_0_split
I1119 07:50:23.192589 22704 net.cpp:94] Creating Layer conv2/3x3_conv2/relu_3x3_0_split
I1119 07:50:23.192591 22704 net.cpp:435] conv2/3x3_conv2/relu_3x3_0_split <- conv2/3x3
I1119 07:50:23.192595 22704 net.cpp:409] conv2/3x3_conv2/relu_3x3_0_split -> conv2/3x3_conv2/relu_3x3_0_split_0
I1119 07:50:23.192600 22704 net.cpp:409] conv2/3x3_conv2/relu_3x3_0_split -> conv2/3x3_conv2/relu_3x3_0_split_1
I1119 07:50:23.192621 22704 net.cpp:144] Setting up conv2/3x3_conv2/relu_3x3_0_split
I1119 07:50:23.192623 22704 net.cpp:151] Top shape: 1 192 64 128 (1572864)
I1119 07:50:23.192627 22704 net.cpp:151] Top shape: 1 192 64 128 (1572864)
I1119 07:50:23.192631 22704 net.cpp:159] Memory required for data: 66584580
I1119 07:50:23.192632 22704 layer_factory.hpp:77] Creating layer pool2/3x3_s2
I1119 07:50:23.192636 22704 net.cpp:94] Creating Layer pool2/3x3_s2
I1119 07:50:23.192639 22704 net.cpp:435] pool2/3x3_s2 <- conv2/3x3_conv2/relu_3x3_0_split_0
I1119 07:50:23.192642 22704 net.cpp:409] pool2/3x3_s2 -> pool2/3x3_s2
I1119 07:50:23.192663 22704 net.cpp:144] Setting up pool2/3x3_s2
I1119 07:50:23.192665 22704 net.cpp:151] Top shape: 1 192 32 64 (393216)
I1119 07:50:23.192668 22704 net.cpp:159] Memory required for data: 68157444
I1119 07:50:23.192672 22704 layer_factory.hpp:77] Creating layer pool2/3x3_s2_pool2/3x3_s2_0_split
I1119 07:50:23.192674 22704 net.cpp:94] Creating Layer pool2/3x3_s2_pool2/3x3_s2_0_split
I1119 07:50:23.192677 22704 net.cpp:435] pool2/3x3_s2_pool2/3x3_s2_0_split <- pool2/3x3_s2
I1119 07:50:23.192680 22704 net.cpp:409] pool2/3x3_s2_pool2/3x3_s2_0_split -> pool2/3x3_s2_pool2/3x3_s2_0_split_0
I1119 07:50:23.192684 22704 net.cpp:409] pool2/3x3_s2_pool2/3x3_s2_0_split -> pool2/3x3_s2_pool2/3x3_s2_0_split_1
I1119 07:50:23.192688 22704 net.cpp:409] pool2/3x3_s2_pool2/3x3_s2_0_split -> pool2/3x3_s2_pool2/3x3_s2_0_split_2
I1119 07:50:23.192692 22704 net.cpp:409] pool2/3x3_s2_pool2/3x3_s2_0_split -> pool2/3x3_s2_pool2/3x3_s2_0_split_3
I1119 07:50:23.192729 22704 net.cpp:144] Setting up pool2/3x3_s2_pool2/3x3_s2_0_split
I1119 07:50:23.192732 22704 net.cpp:151] Top shape: 1 192 32 64 (393216)
I1119 07:50:23.192735 22704 net.cpp:151] Top shape: 1 192 32 64 (393216)
I1119 07:50:23.192739 22704 net.cpp:151] Top shape: 1 192 32 64 (393216)
I1119 07:50:23.192742 22704 net.cpp:151] Top shape: 1 192 32 64 (393216)
I1119 07:50:23.192745 22704 net.cpp:159] Memory required for data: 74448900
I1119 07:50:23.192747 22704 layer_factory.hpp:77] Creating layer inception_3a/1x1
I1119 07:50:23.192754 22704 net.cpp:94] Creating Layer inception_3a/1x1
I1119 07:50:23.192755 22704 net.cpp:435] inception_3a/1x1 <- pool2/3x3_s2_pool2/3x3_s2_0_split_0
I1119 07:50:23.192759 22704 net.cpp:409] inception_3a/1x1 -> inception_3a/1x1_raw
I1119 07:50:23.192994 22704 net.cpp:144] Setting up inception_3a/1x1
I1119 07:50:23.193001 22704 net.cpp:151] Top shape: 1 64 32 64 (131072)
I1119 07:50:23.193002 22704 net.cpp:159] Memory required for data: 74973188
I1119 07:50:23.193006 22704 layer_factory.hpp:77] Creating layer inception_3a/1x1_BatchNorm
I1119 07:50:23.193012 22704 net.cpp:94] Creating Layer inception_3a/1x1_BatchNorm
I1119 07:50:23.193014 22704 net.cpp:435] inception_3a/1x1_BatchNorm <- inception_3a/1x1_raw
I1119 07:50:23.193018 22704 net.cpp:409] inception_3a/1x1_BatchNorm -> inception_3a/1x1
I1119 07:50:23.193389 22704 net.cpp:144] Setting up inception_3a/1x1_BatchNorm
I1119 07:50:23.193393 22704 net.cpp:151] Top shape: 1 64 32 64 (131072)
I1119 07:50:23.193397 22704 net.cpp:159] Memory required for data: 75497476
I1119 07:50:23.193403 22704 layer_factory.hpp:77] Creating layer inception_3a/relu_1x1
I1119 07:50:23.193408 22704 net.cpp:94] Creating Layer inception_3a/relu_1x1
I1119 07:50:23.193409 22704 net.cpp:435] inception_3a/relu_1x1 <- inception_3a/1x1
I1119 07:50:23.193413 22704 net.cpp:396] inception_3a/relu_1x1 -> inception_3a/1x1 (in-place)
I1119 07:50:23.193416 22704 net.cpp:144] Setting up inception_3a/relu_1x1
I1119 07:50:23.193418 22704 net.cpp:151] Top shape: 1 64 32 64 (131072)
I1119 07:50:23.193421 22704 net.cpp:159] Memory required for data: 76021764
I1119 07:50:23.193423 22704 layer_factory.hpp:77] Creating layer inception_3a/3x3_reduce
I1119 07:50:23.193429 22704 net.cpp:94] Creating Layer inception_3a/3x3_reduce
I1119 07:50:23.193431 22704 net.cpp:435] inception_3a/3x3_reduce <- pool2/3x3_s2_pool2/3x3_s2_0_split_1
I1119 07:50:23.193435 22704 net.cpp:409] inception_3a/3x3_reduce -> inception_3a/3x3_reduce_raw
I1119 07:50:23.193684 22704 net.cpp:144] Setting up inception_3a/3x3_reduce
I1119 07:50:23.193688 22704 net.cpp:151] Top shape: 1 96 32 64 (196608)
I1119 07:50:23.193691 22704 net.cpp:159] Memory required for data: 76808196
I1119 07:50:23.193696 22704 layer_factory.hpp:77] Creating layer inception_3a/3x3_reduce_BatchNorm
I1119 07:50:23.193699 22704 net.cpp:94] Creating Layer inception_3a/3x3_reduce_BatchNorm
I1119 07:50:23.193702 22704 net.cpp:435] inception_3a/3x3_reduce_BatchNorm <- inception_3a/3x3_reduce_raw
I1119 07:50:23.193706 22704 net.cpp:409] inception_3a/3x3_reduce_BatchNorm -> inception_3a/3x3_reduce
I1119 07:50:23.194078 22704 net.cpp:144] Setting up inception_3a/3x3_reduce_BatchNorm
I1119 07:50:23.194085 22704 net.cpp:151] Top shape: 1 96 32 64 (196608)
I1119 07:50:23.194092 22704 net.cpp:159] Memory required for data: 77594628
I1119 07:50:23.194103 22704 layer_factory.hpp:77] Creating layer inception_3a/relu_3x3_reduce
I1119 07:50:23.194108 22704 net.cpp:94] Creating Layer inception_3a/relu_3x3_reduce
I1119 07:50:23.194110 22704 net.cpp:435] inception_3a/relu_3x3_reduce <- inception_3a/3x3_reduce
I1119 07:50:23.194114 22704 net.cpp:396] inception_3a/relu_3x3_reduce -> inception_3a/3x3_reduce (in-place)
I1119 07:50:23.194119 22704 net.cpp:144] Setting up inception_3a/relu_3x3_reduce
I1119 07:50:23.194124 22704 net.cpp:151] Top shape: 1 96 32 64 (196608)
I1119 07:50:23.194128 22704 net.cpp:159] Memory required for data: 78381060
I1119 07:50:23.194130 22704 layer_factory.hpp:77] Creating layer inception_3a/3x3
I1119 07:50:23.194136 22704 net.cpp:94] Creating Layer inception_3a/3x3
I1119 07:50:23.194140 22704 net.cpp:435] inception_3a/3x3 <- inception_3a/3x3_reduce
I1119 07:50:23.194144 22704 net.cpp:409] inception_3a/3x3 -> inception_3a/3x3_raw
I1119 07:50:23.194886 22704 net.cpp:144] Setting up inception_3a/3x3
I1119 07:50:23.194891 22704 net.cpp:151] Top shape: 1 128 32 64 (262144)
I1119 07:50:23.194895 22704 net.cpp:159] Memory required for data: 79429636
I1119 07:50:23.194900 22704 layer_factory.hpp:77] Creating layer inception_3a/3x3_BatchNorm
I1119 07:50:23.194907 22704 net.cpp:94] Creating Layer inception_3a/3x3_BatchNorm
I1119 07:50:23.194911 22704 net.cpp:435] inception_3a/3x3_BatchNorm <- inception_3a/3x3_raw
I1119 07:50:23.194916 22704 net.cpp:409] inception_3a/3x3_BatchNorm -> inception_3a/3x3
I1119 07:50:23.195237 22704 net.cpp:144] Setting up inception_3a/3x3_BatchNorm
I1119 07:50:23.195243 22704 net.cpp:151] Top shape: 1 128 32 64 (262144)
I1119 07:50:23.195247 22704 net.cpp:159] Memory required for data: 80478212
I1119 07:50:23.195255 22704 layer_factory.hpp:77] Creating layer inception_3a/relu_3x3
I1119 07:50:23.195259 22704 net.cpp:94] Creating Layer inception_3a/relu_3x3
I1119 07:50:23.195262 22704 net.cpp:435] inception_3a/relu_3x3 <- inception_3a/3x3
I1119 07:50:23.195266 22704 net.cpp:396] inception_3a/relu_3x3 -> inception_3a/3x3 (in-place)
I1119 07:50:23.195271 22704 net.cpp:144] Setting up inception_3a/relu_3x3
I1119 07:50:23.195273 22704 net.cpp:151] Top shape: 1 128 32 64 (262144)
I1119 07:50:23.195277 22704 net.cpp:159] Memory required for data: 81526788
I1119 07:50:23.195279 22704 layer_factory.hpp:77] Creating layer inception_3a/5x5_reduce
I1119 07:50:23.195286 22704 net.cpp:94] Creating Layer inception_3a/5x5_reduce
I1119 07:50:23.195289 22704 net.cpp:435] inception_3a/5x5_reduce <- pool2/3x3_s2_pool2/3x3_s2_0_split_2
I1119 07:50:23.195293 22704 net.cpp:409] inception_3a/5x5_reduce -> inception_3a/5x5_reduce_raw
I1119 07:50:23.195452 22704 net.cpp:144] Setting up inception_3a/5x5_reduce
I1119 07:50:23.195457 22704 net.cpp:151] Top shape: 1 16 32 64 (32768)
I1119 07:50:23.195461 22704 net.cpp:159] Memory required for data: 81657860
I1119 07:50:23.195466 22704 layer_factory.hpp:77] Creating layer inception_3a/5x5_reduce_BatchNorm
I1119 07:50:23.195472 22704 net.cpp:94] Creating Layer inception_3a/5x5_reduce_BatchNorm
I1119 07:50:23.195474 22704 net.cpp:435] inception_3a/5x5_reduce_BatchNorm <- inception_3a/5x5_reduce_raw
I1119 07:50:23.195478 22704 net.cpp:409] inception_3a/5x5_reduce_BatchNorm -> inception_3a/5x5_reduce
I1119 07:50:23.195852 22704 net.cpp:144] Setting up inception_3a/5x5_reduce_BatchNorm
I1119 07:50:23.195858 22704 net.cpp:151] Top shape: 1 16 32 64 (32768)
I1119 07:50:23.195863 22704 net.cpp:159] Memory required for data: 81788932
I1119 07:50:23.195870 22704 layer_factory.hpp:77] Creating layer inception_3a/relu_5x5_reduce
I1119 07:50:23.195874 22704 net.cpp:94] Creating Layer inception_3a/relu_5x5_reduce
I1119 07:50:23.195878 22704 net.cpp:435] inception_3a/relu_5x5_reduce <- inception_3a/5x5_reduce
I1119 07:50:23.195881 22704 net.cpp:396] inception_3a/relu_5x5_reduce -> inception_3a/5x5_reduce (in-place)
I1119 07:50:23.195885 22704 net.cpp:144] Setting up inception_3a/relu_5x5_reduce
I1119 07:50:23.195888 22704 net.cpp:151] Top shape: 1 16 32 64 (32768)
I1119 07:50:23.195892 22704 net.cpp:159] Memory required for data: 81920004
I1119 07:50:23.195895 22704 layer_factory.hpp:77] Creating layer inception_3a/5x5
I1119 07:50:23.195901 22704 net.cpp:94] Creating Layer inception_3a/5x5
I1119 07:50:23.195904 22704 net.cpp:435] inception_3a/5x5 <- inception_3a/5x5_reduce
I1119 07:50:23.195909 22704 net.cpp:409] inception_3a/5x5 -> inception_3a/5x5_raw
I1119 07:50:23.196126 22704 net.cpp:144] Setting up inception_3a/5x5
I1119 07:50:23.196131 22704 net.cpp:151] Top shape: 1 32 32 64 (65536)
I1119 07:50:23.196135 22704 net.cpp:159] Memory required for data: 82182148
I1119 07:50:23.196141 22704 layer_factory.hpp:77] Creating layer inception_3a/5x5_BatchNorm
I1119 07:50:23.196146 22704 net.cpp:94] Creating Layer inception_3a/5x5_BatchNorm
I1119 07:50:23.196149 22704 net.cpp:435] inception_3a/5x5_BatchNorm <- inception_3a/5x5_raw
I1119 07:50:23.196154 22704 net.cpp:409] inception_3a/5x5_BatchNorm -> inception_3a/5x5
I1119 07:50:23.196559 22704 net.cpp:144] Setting up inception_3a/5x5_BatchNorm
I1119 07:50:23.196568 22704 net.cpp:151] Top shape: 1 32 32 64 (65536)
I1119 07:50:23.196575 22704 net.cpp:159] Memory required for data: 82444292
I1119 07:50:23.196583 22704 layer_factory.hpp:77] Creating layer inception_3a/relu_5x5
I1119 07:50:23.196590 22704 net.cpp:94] Creating Layer inception_3a/relu_5x5
I1119 07:50:23.196593 22704 net.cpp:435] inception_3a/relu_5x5 <- inception_3a/5x5
I1119 07:50:23.196597 22704 net.cpp:396] inception_3a/relu_5x5 -> inception_3a/5x5 (in-place)
I1119 07:50:23.196604 22704 net.cpp:144] Setting up inception_3a/relu_5x5
I1119 07:50:23.196607 22704 net.cpp:151] Top shape: 1 32 32 64 (65536)
I1119 07:50:23.196611 22704 net.cpp:159] Memory required for data: 82706436
I1119 07:50:23.196614 22704 layer_factory.hpp:77] Creating layer inception_3a/pool
I1119 07:50:23.196619 22704 net.cpp:94] Creating Layer inception_3a/pool
I1119 07:50:23.196622 22704 net.cpp:435] inception_3a/pool <- pool2/3x3_s2_pool2/3x3_s2_0_split_3
I1119 07:50:23.196626 22704 net.cpp:409] inception_3a/pool -> inception_3a/pool
I1119 07:50:23.196652 22704 net.cpp:144] Setting up inception_3a/pool
I1119 07:50:23.196656 22704 net.cpp:151] Top shape: 1 192 32 64 (393216)
I1119 07:50:23.196660 22704 net.cpp:159] Memory required for data: 84279300
I1119 07:50:23.196662 22704 layer_factory.hpp:77] Creating layer inception_3a/pool_proj
I1119 07:50:23.196668 22704 net.cpp:94] Creating Layer inception_3a/pool_proj
I1119 07:50:23.196672 22704 net.cpp:435] inception_3a/pool_proj <- inception_3a/pool
I1119 07:50:23.196676 22704 net.cpp:409] inception_3a/pool_proj -> inception_3a/pool_proj_raw
I1119 07:50:23.196858 22704 net.cpp:144] Setting up inception_3a/pool_proj
I1119 07:50:23.196867 22704 net.cpp:151] Top shape: 1 32 32 64 (65536)
I1119 07:50:23.196873 22704 net.cpp:159] Memory required for data: 84541444
I1119 07:50:23.196879 22704 layer_factory.hpp:77] Creating layer inception_3a/pool_proj_BatchNorm
I1119 07:50:23.196887 22704 net.cpp:94] Creating Layer inception_3a/pool_proj_BatchNorm
I1119 07:50:23.196889 22704 net.cpp:435] inception_3a/pool_proj_BatchNorm <- inception_3a/pool_proj_raw
I1119 07:50:23.196893 22704 net.cpp:409] inception_3a/pool_proj_BatchNorm -> inception_3a/pool_proj
I1119 07:50:23.197288 22704 net.cpp:144] Setting up inception_3a/pool_proj_BatchNorm
I1119 07:50:23.197293 22704 net.cpp:151] Top shape: 1 32 32 64 (65536)
I1119 07:50:23.197297 22704 net.cpp:159] Memory required for data: 84803588
I1119 07:50:23.197306 22704 layer_factory.hpp:77] Creating layer inception_3a/relu_pool_proj
I1119 07:50:23.197311 22704 net.cpp:94] Creating Layer inception_3a/relu_pool_proj
I1119 07:50:23.197315 22704 net.cpp:435] inception_3a/relu_pool_proj <- inception_3a/pool_proj
I1119 07:50:23.197319 22704 net.cpp:396] inception_3a/relu_pool_proj -> inception_3a/pool_proj (in-place)
I1119 07:50:23.197324 22704 net.cpp:144] Setting up inception_3a/relu_pool_proj
I1119 07:50:23.197329 22704 net.cpp:151] Top shape: 1 32 32 64 (65536)
I1119 07:50:23.197332 22704 net.cpp:159] Memory required for data: 85065732
I1119 07:50:23.197335 22704 layer_factory.hpp:77] Creating layer inception_3a/output
I1119 07:50:23.197342 22704 net.cpp:94] Creating Layer inception_3a/output
I1119 07:50:23.197345 22704 net.cpp:435] inception_3a/output <- inception_3a/1x1
I1119 07:50:23.197348 22704 net.cpp:435] inception_3a/output <- inception_3a/3x3
I1119 07:50:23.197351 22704 net.cpp:435] inception_3a/output <- inception_3a/5x5
I1119 07:50:23.197355 22704 net.cpp:435] inception_3a/output <- inception_3a/pool_proj
I1119 07:50:23.197358 22704 net.cpp:409] inception_3a/output -> inception_3a/output
I1119 07:50:23.197373 22704 net.cpp:144] Setting up inception_3a/output
I1119 07:50:23.197377 22704 net.cpp:151] Top shape: 1 256 32 64 (524288)
I1119 07:50:23.197381 22704 net.cpp:159] Memory required for data: 87162884
I1119 07:50:23.197383 22704 layer_factory.hpp:77] Creating layer inception_3a/output_inception_3a/output_0_split
I1119 07:50:23.197387 22704 net.cpp:94] Creating Layer inception_3a/output_inception_3a/output_0_split
I1119 07:50:23.197391 22704 net.cpp:435] inception_3a/output_inception_3a/output_0_split <- inception_3a/output
I1119 07:50:23.197394 22704 net.cpp:409] inception_3a/output_inception_3a/output_0_split -> inception_3a/output_inception_3a/output_0_split_0
I1119 07:50:23.197398 22704 net.cpp:409] inception_3a/output_inception_3a/output_0_split -> inception_3a/output_inception_3a/output_0_split_1
I1119 07:50:23.197404 22704 net.cpp:409] inception_3a/output_inception_3a/output_0_split -> inception_3a/output_inception_3a/output_0_split_2
I1119 07:50:23.197410 22704 net.cpp:409] inception_3a/output_inception_3a/output_0_split -> inception_3a/output_inception_3a/output_0_split_3
I1119 07:50:23.197444 22704 net.cpp:144] Setting up inception_3a/output_inception_3a/output_0_split
I1119 07:50:23.197448 22704 net.cpp:151] Top shape: 1 256 32 64 (524288)
I1119 07:50:23.197450 22704 net.cpp:151] Top shape: 1 256 32 64 (524288)
I1119 07:50:23.197454 22704 net.cpp:151] Top shape: 1 256 32 64 (524288)
I1119 07:50:23.197458 22704 net.cpp:151] Top shape: 1 256 32 64 (524288)
I1119 07:50:23.197461 22704 net.cpp:159] Memory required for data: 95551492
I1119 07:50:23.197464 22704 layer_factory.hpp:77] Creating layer inception_3b/1x1
I1119 07:50:23.197471 22704 net.cpp:94] Creating Layer inception_3b/1x1
I1119 07:50:23.197475 22704 net.cpp:435] inception_3b/1x1 <- inception_3a/output_inception_3a/output_0_split_0
I1119 07:50:23.197479 22704 net.cpp:409] inception_3b/1x1 -> inception_3b/1x1_raw
I1119 07:50:23.197795 22704 net.cpp:144] Setting up inception_3b/1x1
I1119 07:50:23.197800 22704 net.cpp:151] Top shape: 1 128 32 64 (262144)
I1119 07:50:23.197803 22704 net.cpp:159] Memory required for data: 96600068
I1119 07:50:23.197811 22704 layer_factory.hpp:77] Creating layer inception_3b/1x1_BatchNorm
I1119 07:50:23.197818 22704 net.cpp:94] Creating Layer inception_3b/1x1_BatchNorm
I1119 07:50:23.197820 22704 net.cpp:435] inception_3b/1x1_BatchNorm <- inception_3b/1x1_raw
I1119 07:50:23.197824 22704 net.cpp:409] inception_3b/1x1_BatchNorm -> inception_3b/1x1
I1119 07:50:23.198145 22704 net.cpp:144] Setting up inception_3b/1x1_BatchNorm
I1119 07:50:23.198150 22704 net.cpp:151] Top shape: 1 128 32 64 (262144)
I1119 07:50:23.198154 22704 net.cpp:159] Memory required for data: 97648644
I1119 07:50:23.198163 22704 layer_factory.hpp:77] Creating layer inception_3b/relu_1x1
I1119 07:50:23.198168 22704 net.cpp:94] Creating Layer inception_3b/relu_1x1
I1119 07:50:23.198169 22704 net.cpp:435] inception_3b/relu_1x1 <- inception_3b/1x1
I1119 07:50:23.198173 22704 net.cpp:396] inception_3b/relu_1x1 -> inception_3b/1x1 (in-place)
I1119 07:50:23.198180 22704 net.cpp:144] Setting up inception_3b/relu_1x1
I1119 07:50:23.198184 22704 net.cpp:151] Top shape: 1 128 32 64 (262144)
I1119 07:50:23.198187 22704 net.cpp:159] Memory required for data: 98697220
I1119 07:50:23.198190 22704 layer_factory.hpp:77] Creating layer inception_3b/3x3_reduce
I1119 07:50:23.198195 22704 net.cpp:94] Creating Layer inception_3b/3x3_reduce
I1119 07:50:23.198199 22704 net.cpp:435] inception_3b/3x3_reduce <- inception_3a/output_inception_3a/output_0_split_1
I1119 07:50:23.198204 22704 net.cpp:409] inception_3b/3x3_reduce -> inception_3b/3x3_reduce_raw
I1119 07:50:23.198583 22704 net.cpp:144] Setting up inception_3b/3x3_reduce
I1119 07:50:23.198593 22704 net.cpp:151] Top shape: 1 128 32 64 (262144)
I1119 07:50:23.198597 22704 net.cpp:159] Memory required for data: 99745796
I1119 07:50:23.198602 22704 layer_factory.hpp:77] Creating layer inception_3b/3x3_reduce_BatchNorm
I1119 07:50:23.198609 22704 net.cpp:94] Creating Layer inception_3b/3x3_reduce_BatchNorm
I1119 07:50:23.198612 22704 net.cpp:435] inception_3b/3x3_reduce_BatchNorm <- inception_3b/3x3_reduce_raw
I1119 07:50:23.198616 22704 net.cpp:409] inception_3b/3x3_reduce_BatchNorm -> inception_3b/3x3_reduce
I1119 07:50:23.198951 22704 net.cpp:144] Setting up inception_3b/3x3_reduce_BatchNorm
I1119 07:50:23.198958 22704 net.cpp:151] Top shape: 1 128 32 64 (262144)
I1119 07:50:23.198961 22704 net.cpp:159] Memory required for data: 100794372
I1119 07:50:23.198968 22704 layer_factory.hpp:77] Creating layer inception_3b/relu_3x3_reduce
I1119 07:50:23.198971 22704 net.cpp:94] Creating Layer inception_3b/relu_3x3_reduce
I1119 07:50:23.198974 22704 net.cpp:435] inception_3b/relu_3x3_reduce <- inception_3b/3x3_reduce
I1119 07:50:23.198978 22704 net.cpp:396] inception_3b/relu_3x3_reduce -> inception_3b/3x3_reduce (in-place)
I1119 07:50:23.198984 22704 net.cpp:144] Setting up inception_3b/relu_3x3_reduce
I1119 07:50:23.198990 22704 net.cpp:151] Top shape: 1 128 32 64 (262144)
I1119 07:50:23.198994 22704 net.cpp:159] Memory required for data: 101842948
I1119 07:50:23.198997 22704 layer_factory.hpp:77] Creating layer inception_3b/3x3
I1119 07:50:23.199003 22704 net.cpp:94] Creating Layer inception_3b/3x3
I1119 07:50:23.199009 22704 net.cpp:435] inception_3b/3x3 <- inception_3b/3x3_reduce
I1119 07:50:23.199013 22704 net.cpp:409] inception_3b/3x3 -> inception_3b/3x3_raw
I1119 07:50:23.201112 22704 net.cpp:144] Setting up inception_3b/3x3
I1119 07:50:23.201119 22704 net.cpp:151] Top shape: 1 192 32 64 (393216)
I1119 07:50:23.201123 22704 net.cpp:159] Memory required for data: 103415812
I1119 07:50:23.201128 22704 layer_factory.hpp:77] Creating layer inception_3b/3x3_BatchNorm
I1119 07:50:23.201135 22704 net.cpp:94] Creating Layer inception_3b/3x3_BatchNorm
I1119 07:50:23.201139 22704 net.cpp:435] inception_3b/3x3_BatchNorm <- inception_3b/3x3_raw
I1119 07:50:23.201145 22704 net.cpp:409] inception_3b/3x3_BatchNorm -> inception_3b/3x3
I1119 07:50:23.201551 22704 net.cpp:144] Setting up inception_3b/3x3_BatchNorm
I1119 07:50:23.201558 22704 net.cpp:151] Top shape: 1 192 32 64 (393216)
I1119 07:50:23.201561 22704 net.cpp:159] Memory required for data: 104988676
I1119 07:50:23.201568 22704 layer_factory.hpp:77] Creating layer inception_3b/relu_3x3
I1119 07:50:23.201573 22704 net.cpp:94] Creating Layer inception_3b/relu_3x3
I1119 07:50:23.201576 22704 net.cpp:435] inception_3b/relu_3x3 <- inception_3b/3x3
I1119 07:50:23.201581 22704 net.cpp:396] inception_3b/relu_3x3 -> inception_3b/3x3 (in-place)
I1119 07:50:23.201586 22704 net.cpp:144] Setting up inception_3b/relu_3x3
I1119 07:50:23.201587 22704 net.cpp:151] Top shape: 1 192 32 64 (393216)
I1119 07:50:23.201591 22704 net.cpp:159] Memory required for data: 106561540
I1119 07:50:23.201594 22704 layer_factory.hpp:77] Creating layer inception_3b/5x5_reduce
I1119 07:50:23.201601 22704 net.cpp:94] Creating Layer inception_3b/5x5_reduce
I1119 07:50:23.201606 22704 net.cpp:435] inception_3b/5x5_reduce <- inception_3a/output_inception_3a/output_0_split_2
I1119 07:50:23.201609 22704 net.cpp:409] inception_3b/5x5_reduce -> inception_3b/5x5_reduce_raw
I1119 07:50:23.201813 22704 net.cpp:144] Setting up inception_3b/5x5_reduce
I1119 07:50:23.201818 22704 net.cpp:151] Top shape: 1 32 32 64 (65536)
I1119 07:50:23.201822 22704 net.cpp:159] Memory required for data: 106823684
I1119 07:50:23.201825 22704 layer_factory.hpp:77] Creating layer inception_3b/5x5_reduce_BatchNorm
I1119 07:50:23.201833 22704 net.cpp:94] Creating Layer inception_3b/5x5_reduce_BatchNorm
I1119 07:50:23.201838 22704 net.cpp:435] inception_3b/5x5_reduce_BatchNorm <- inception_3b/5x5_reduce_raw
I1119 07:50:23.201843 22704 net.cpp:409] inception_3b/5x5_reduce_BatchNorm -> inception_3b/5x5_reduce
I1119 07:50:23.202723 22704 net.cpp:144] Setting up inception_3b/5x5_reduce_BatchNorm
I1119 07:50:23.202729 22704 net.cpp:151] Top shape: 1 32 32 64 (65536)
I1119 07:50:23.202733 22704 net.cpp:159] Memory required for data: 107085828
I1119 07:50:23.202812 22704 layer_factory.hpp:77] Creating layer inception_3b/relu_5x5_reduce
I1119 07:50:23.202821 22704 net.cpp:94] Creating Layer inception_3b/relu_5x5_reduce
I1119 07:50:23.202823 22704 net.cpp:435] inception_3b/relu_5x5_reduce <- inception_3b/5x5_reduce
I1119 07:50:23.202826 22704 net.cpp:396] inception_3b/relu_5x5_reduce -> inception_3b/5x5_reduce (in-place)
I1119 07:50:23.202831 22704 net.cpp:144] Setting up inception_3b/relu_5x5_reduce
I1119 07:50:23.202836 22704 net.cpp:151] Top shape: 1 32 32 64 (65536)
I1119 07:50:23.202841 22704 net.cpp:159] Memory required for data: 107347972
I1119 07:50:23.202842 22704 layer_factory.hpp:77] Creating layer inception_3b/5x5
I1119 07:50:23.202849 22704 net.cpp:94] Creating Layer inception_3b/5x5
I1119 07:50:23.202852 22704 net.cpp:435] inception_3b/5x5 <- inception_3b/5x5_reduce
I1119 07:50:23.202854 22704 net.cpp:409] inception_3b/5x5 -> inception_3b/5x5_raw
I1119 07:50:23.203578 22704 net.cpp:144] Setting up inception_3b/5x5
I1119 07:50:23.203606 22704 net.cpp:151] Top shape: 1 96 32 64 (196608)
I1119 07:50:23.203631 22704 net.cpp:159] Memory required for data: 108134404
I1119 07:50:23.203656 22704 layer_factory.hpp:77] Creating layer inception_3b/5x5_BatchNorm
I1119 07:50:23.203682 22704 net.cpp:94] Creating Layer inception_3b/5x5_BatchNorm
I1119 07:50:23.203704 22704 net.cpp:435] inception_3b/5x5_BatchNorm <- inception_3b/5x5_raw
I1119 07:50:23.203730 22704 net.cpp:409] inception_3b/5x5_BatchNorm -> inception_3b/5x5
I1119 07:50:23.204249 22704 net.cpp:144] Setting up inception_3b/5x5_BatchNorm
I1119 07:50:23.204273 22704 net.cpp:151] Top shape: 1 96 32 64 (196608)
I1119 07:50:23.204298 22704 net.cpp:159] Memory required for data: 108920836
I1119 07:50:23.204326 22704 layer_factory.hpp:77] Creating layer inception_3b/relu_5x5
I1119 07:50:23.204350 22704 net.cpp:94] Creating Layer inception_3b/relu_5x5
I1119 07:50:23.204372 22704 net.cpp:435] inception_3b/relu_5x5 <- inception_3b/5x5
I1119 07:50:23.204397 22704 net.cpp:396] inception_3b/relu_5x5 -> inception_3b/5x5 (in-place)
I1119 07:50:23.204423 22704 net.cpp:144] Setting up inception_3b/relu_5x5
I1119 07:50:23.204447 22704 net.cpp:151] Top shape: 1 96 32 64 (196608)
I1119 07:50:23.204469 22704 net.cpp:159] Memory required for data: 109707268
I1119 07:50:23.204491 22704 layer_factory.hpp:77] Creating layer inception_3b/pool
I1119 07:50:23.204516 22704 net.cpp:94] Creating Layer inception_3b/pool
I1119 07:50:23.204540 22704 net.cpp:435] inception_3b/pool <- inception_3a/output_inception_3a/output_0_split_3
I1119 07:50:23.204571 22704 net.cpp:409] inception_3b/pool -> inception_3b/pool
I1119 07:50:23.204625 22704 net.cpp:144] Setting up inception_3b/pool
I1119 07:50:23.204633 22704 net.cpp:151] Top shape: 1 256 32 64 (524288)
I1119 07:50:23.204638 22704 net.cpp:159] Memory required for data: 111804420
I1119 07:50:23.204640 22704 layer_factory.hpp:77] Creating layer inception_3b/pool_proj
I1119 07:50:23.204648 22704 net.cpp:94] Creating Layer inception_3b/pool_proj
I1119 07:50:23.204649 22704 net.cpp:435] inception_3b/pool_proj <- inception_3b/pool
I1119 07:50:23.204654 22704 net.cpp:409] inception_3b/pool_proj -> inception_3b/pool_proj_raw
I1119 07:50:23.204959 22704 net.cpp:144] Setting up inception_3b/pool_proj
I1119 07:50:23.204964 22704 net.cpp:151] Top shape: 1 64 32 64 (131072)
I1119 07:50:23.204967 22704 net.cpp:159] Memory required for data: 112328708
I1119 07:50:23.204972 22704 layer_factory.hpp:77] Creating layer inception_3b/pool_proj_BatchNorm
I1119 07:50:23.204983 22704 net.cpp:94] Creating Layer inception_3b/pool_proj_BatchNorm
I1119 07:50:23.204986 22704 net.cpp:435] inception_3b/pool_proj_BatchNorm <- inception_3b/pool_proj_raw
I1119 07:50:23.204990 22704 net.cpp:409] inception_3b/pool_proj_BatchNorm -> inception_3b/pool_proj
I1119 07:50:23.205441 22704 net.cpp:144] Setting up inception_3b/pool_proj_BatchNorm
I1119 07:50:23.205446 22704 net.cpp:151] Top shape: 1 64 32 64 (131072)
I1119 07:50:23.205449 22704 net.cpp:159] Memory required for data: 112852996
I1119 07:50:23.205456 22704 layer_factory.hpp:77] Creating layer inception_3b/relu_pool_proj
I1119 07:50:23.205459 22704 net.cpp:94] Creating Layer inception_3b/relu_pool_proj
I1119 07:50:23.205462 22704 net.cpp:435] inception_3b/relu_pool_proj <- inception_3b/pool_proj
I1119 07:50:23.205466 22704 net.cpp:396] inception_3b/relu_pool_proj -> inception_3b/pool_proj (in-place)
I1119 07:50:23.205471 22704 net.cpp:144] Setting up inception_3b/relu_pool_proj
I1119 07:50:23.205472 22704 net.cpp:151] Top shape: 1 64 32 64 (131072)
I1119 07:50:23.205476 22704 net.cpp:159] Memory required for data: 113377284
I1119 07:50:23.205478 22704 layer_factory.hpp:77] Creating layer inception_3b/output
I1119 07:50:23.205482 22704 net.cpp:94] Creating Layer inception_3b/output
I1119 07:50:23.205483 22704 net.cpp:435] inception_3b/output <- inception_3b/1x1
I1119 07:50:23.205487 22704 net.cpp:435] inception_3b/output <- inception_3b/3x3
I1119 07:50:23.205488 22704 net.cpp:435] inception_3b/output <- inception_3b/5x5
I1119 07:50:23.205492 22704 net.cpp:435] inception_3b/output <- inception_3b/pool_proj
I1119 07:50:23.205494 22704 net.cpp:409] inception_3b/output -> inception_3b/output
I1119 07:50:23.205508 22704 net.cpp:144] Setting up inception_3b/output
I1119 07:50:23.205510 22704 net.cpp:151] Top shape: 1 480 32 64 (983040)
I1119 07:50:23.205513 22704 net.cpp:159] Memory required for data: 117309444
I1119 07:50:23.205515 22704 layer_factory.hpp:77] Creating layer inception_3b/output_inception_3b/output_0_split
I1119 07:50:23.205519 22704 net.cpp:94] Creating Layer inception_3b/output_inception_3b/output_0_split
I1119 07:50:23.205523 22704 net.cpp:435] inception_3b/output_inception_3b/output_0_split <- inception_3b/output
I1119 07:50:23.205525 22704 net.cpp:409] inception_3b/output_inception_3b/output_0_split -> inception_3b/output_inception_3b/output_0_split_0
I1119 07:50:23.205528 22704 net.cpp:409] inception_3b/output_inception_3b/output_0_split -> inception_3b/output_inception_3b/output_0_split_1
I1119 07:50:23.205549 22704 net.cpp:144] Setting up inception_3b/output_inception_3b/output_0_split
I1119 07:50:23.205551 22704 net.cpp:151] Top shape: 1 480 32 64 (983040)
I1119 07:50:23.205555 22704 net.cpp:151] Top shape: 1 480 32 64 (983040)
I1119 07:50:23.205559 22704 net.cpp:159] Memory required for data: 125173764
I1119 07:50:23.205560 22704 layer_factory.hpp:77] Creating layer pool3/3x3_s2
I1119 07:50:23.205564 22704 net.cpp:94] Creating Layer pool3/3x3_s2
I1119 07:50:23.205565 22704 net.cpp:435] pool3/3x3_s2 <- inception_3b/output_inception_3b/output_0_split_0
I1119 07:50:23.205569 22704 net.cpp:409] pool3/3x3_s2 -> pool3/3x3_s2
I1119 07:50:23.205590 22704 net.cpp:144] Setting up pool3/3x3_s2
I1119 07:50:23.205591 22704 net.cpp:151] Top shape: 1 480 16 32 (245760)
I1119 07:50:23.205595 22704 net.cpp:159] Memory required for data: 126156804
I1119 07:50:23.205596 22704 layer_factory.hpp:77] Creating layer pool3/3x3_s2_pool3/3x3_s2_0_split
I1119 07:50:23.205600 22704 net.cpp:94] Creating Layer pool3/3x3_s2_pool3/3x3_s2_0_split
I1119 07:50:23.205602 22704 net.cpp:435] pool3/3x3_s2_pool3/3x3_s2_0_split <- pool3/3x3_s2
I1119 07:50:23.205605 22704 net.cpp:409] pool3/3x3_s2_pool3/3x3_s2_0_split -> pool3/3x3_s2_pool3/3x3_s2_0_split_0
I1119 07:50:23.205610 22704 net.cpp:409] pool3/3x3_s2_pool3/3x3_s2_0_split -> pool3/3x3_s2_pool3/3x3_s2_0_split_1
I1119 07:50:23.205612 22704 net.cpp:409] pool3/3x3_s2_pool3/3x3_s2_0_split -> pool3/3x3_s2_pool3/3x3_s2_0_split_2
I1119 07:50:23.205616 22704 net.cpp:409] pool3/3x3_s2_pool3/3x3_s2_0_split -> pool3/3x3_s2_pool3/3x3_s2_0_split_3
I1119 07:50:23.205651 22704 net.cpp:144] Setting up pool3/3x3_s2_pool3/3x3_s2_0_split
I1119 07:50:23.205653 22704 net.cpp:151] Top shape: 1 480 16 32 (245760)
I1119 07:50:23.205657 22704 net.cpp:151] Top shape: 1 480 16 32 (245760)
I1119 07:50:23.205659 22704 net.cpp:151] Top shape: 1 480 16 32 (245760)
I1119 07:50:23.205662 22704 net.cpp:151] Top shape: 1 480 16 32 (245760)
I1119 07:50:23.205664 22704 net.cpp:159] Memory required for data: 130088964
I1119 07:50:23.205667 22704 layer_factory.hpp:77] Creating layer inception_4a/1x1
I1119 07:50:23.205672 22704 net.cpp:94] Creating Layer inception_4a/1x1
I1119 07:50:23.205674 22704 net.cpp:435] inception_4a/1x1 <- pool3/3x3_s2_pool3/3x3_s2_0_split_0
I1119 07:50:23.205678 22704 net.cpp:409] inception_4a/1x1 -> inception_4a/1x1_raw
I1119 07:50:23.207468 22704 net.cpp:144] Setting up inception_4a/1x1
I1119 07:50:23.207476 22704 net.cpp:151] Top shape: 1 192 16 32 (98304)
I1119 07:50:23.207480 22704 net.cpp:159] Memory required for data: 130482180
I1119 07:50:23.207485 22704 layer_factory.hpp:77] Creating layer inception_4a/1x1_BatchNorm
I1119 07:50:23.207491 22704 net.cpp:94] Creating Layer inception_4a/1x1_BatchNorm
I1119 07:50:23.207494 22704 net.cpp:435] inception_4a/1x1_BatchNorm <- inception_4a/1x1_raw
I1119 07:50:23.207499 22704 net.cpp:409] inception_4a/1x1_BatchNorm -> inception_4a/1x1
I1119 07:50:23.207882 22704 net.cpp:144] Setting up inception_4a/1x1_BatchNorm
I1119 07:50:23.207886 22704 net.cpp:151] Top shape: 1 192 16 32 (98304)
I1119 07:50:23.207890 22704 net.cpp:159] Memory required for data: 130875396
I1119 07:50:23.207897 22704 layer_factory.hpp:77] Creating layer inception_4a/relu_1x1
I1119 07:50:23.207901 22704 net.cpp:94] Creating Layer inception_4a/relu_1x1
I1119 07:50:23.207903 22704 net.cpp:435] inception_4a/relu_1x1 <- inception_4a/1x1
I1119 07:50:23.207906 22704 net.cpp:396] inception_4a/relu_1x1 -> inception_4a/1x1 (in-place)
I1119 07:50:23.207909 22704 net.cpp:144] Setting up inception_4a/relu_1x1
I1119 07:50:23.207911 22704 net.cpp:151] Top shape: 1 192 16 32 (98304)
I1119 07:50:23.207913 22704 net.cpp:159] Memory required for data: 131268612
I1119 07:50:23.207916 22704 layer_factory.hpp:77] Creating layer inception_4a/3x3_reduce
I1119 07:50:23.207919 22704 net.cpp:94] Creating Layer inception_4a/3x3_reduce
I1119 07:50:23.207921 22704 net.cpp:435] inception_4a/3x3_reduce <- pool3/3x3_s2_pool3/3x3_s2_0_split_1
I1119 07:50:23.207924 22704 net.cpp:409] inception_4a/3x3_reduce -> inception_4a/3x3_reduce_raw
I1119 07:50:23.208330 22704 net.cpp:144] Setting up inception_4a/3x3_reduce
I1119 07:50:23.208334 22704 net.cpp:151] Top shape: 1 96 16 32 (49152)
I1119 07:50:23.208338 22704 net.cpp:159] Memory required for data: 131465220
I1119 07:50:23.208343 22704 layer_factory.hpp:77] Creating layer inception_4a/3x3_reduce_BatchNorm
I1119 07:50:23.208353 22704 net.cpp:94] Creating Layer inception_4a/3x3_reduce_BatchNorm
I1119 07:50:23.208359 22704 net.cpp:435] inception_4a/3x3_reduce_BatchNorm <- inception_4a/3x3_reduce_raw
I1119 07:50:23.208364 22704 net.cpp:409] inception_4a/3x3_reduce_BatchNorm -> inception_4a/3x3_reduce
I1119 07:50:23.208811 22704 net.cpp:144] Setting up inception_4a/3x3_reduce_BatchNorm
I1119 07:50:23.208822 22704 net.cpp:151] Top shape: 1 96 16 32 (49152)
I1119 07:50:23.208828 22704 net.cpp:159] Memory required for data: 131661828
I1119 07:50:23.208837 22704 layer_factory.hpp:77] Creating layer inception_4a/relu_3x3_reduce
I1119 07:50:23.208844 22704 net.cpp:94] Creating Layer inception_4a/relu_3x3_reduce
I1119 07:50:23.208847 22704 net.cpp:435] inception_4a/relu_3x3_reduce <- inception_4a/3x3_reduce
I1119 07:50:23.208851 22704 net.cpp:396] inception_4a/relu_3x3_reduce -> inception_4a/3x3_reduce (in-place)
I1119 07:50:23.208858 22704 net.cpp:144] Setting up inception_4a/relu_3x3_reduce
I1119 07:50:23.208861 22704 net.cpp:151] Top shape: 1 96 16 32 (49152)
I1119 07:50:23.208865 22704 net.cpp:159] Memory required for data: 131858436
I1119 07:50:23.208868 22704 layer_factory.hpp:77] Creating layer inception_4a/3x3
I1119 07:50:23.208876 22704 net.cpp:94] Creating Layer inception_4a/3x3
I1119 07:50:23.208880 22704 net.cpp:435] inception_4a/3x3 <- inception_4a/3x3_reduce
I1119 07:50:23.208884 22704 net.cpp:409] inception_4a/3x3 -> inception_4a/3x3_raw
I1119 07:50:23.210033 22704 net.cpp:144] Setting up inception_4a/3x3
I1119 07:50:23.210039 22704 net.cpp:151] Top shape: 1 208 16 32 (106496)
I1119 07:50:23.210043 22704 net.cpp:159] Memory required for data: 132284420
I1119 07:50:23.210048 22704 layer_factory.hpp:77] Creating layer inception_4a/3x3_BatchNorm
I1119 07:50:23.210054 22704 net.cpp:94] Creating Layer inception_4a/3x3_BatchNorm
I1119 07:50:23.210058 22704 net.cpp:435] inception_4a/3x3_BatchNorm <- inception_4a/3x3_raw
I1119 07:50:23.210062 22704 net.cpp:409] inception_4a/3x3_BatchNorm -> inception_4a/3x3
I1119 07:50:23.210464 22704 net.cpp:144] Setting up inception_4a/3x3_BatchNorm
I1119 07:50:23.210469 22704 net.cpp:151] Top shape: 1 208 16 32 (106496)
I1119 07:50:23.210474 22704 net.cpp:159] Memory required for data: 132710404
I1119 07:50:23.210481 22704 layer_factory.hpp:77] Creating layer inception_4a/relu_3x3
I1119 07:50:23.210486 22704 net.cpp:94] Creating Layer inception_4a/relu_3x3
I1119 07:50:23.210489 22704 net.cpp:435] inception_4a/relu_3x3 <- inception_4a/3x3
I1119 07:50:23.210494 22704 net.cpp:396] inception_4a/relu_3x3 -> inception_4a/3x3 (in-place)
I1119 07:50:23.210500 22704 net.cpp:144] Setting up inception_4a/relu_3x3
I1119 07:50:23.210503 22704 net.cpp:151] Top shape: 1 208 16 32 (106496)
I1119 07:50:23.210507 22704 net.cpp:159] Memory required for data: 133136388
I1119 07:50:23.210510 22704 layer_factory.hpp:77] Creating layer inception_4a/5x5_reduce
I1119 07:50:23.210515 22704 net.cpp:94] Creating Layer inception_4a/5x5_reduce
I1119 07:50:23.210520 22704 net.cpp:435] inception_4a/5x5_reduce <- pool3/3x3_s2_pool3/3x3_s2_0_split_2
I1119 07:50:23.210525 22704 net.cpp:409] inception_4a/5x5_reduce -> inception_4a/5x5_reduce_raw
I1119 07:50:23.210722 22704 net.cpp:144] Setting up inception_4a/5x5_reduce
I1119 07:50:23.210726 22704 net.cpp:151] Top shape: 1 16 16 32 (8192)
I1119 07:50:23.210731 22704 net.cpp:159] Memory required for data: 133169156
I1119 07:50:23.210736 22704 layer_factory.hpp:77] Creating layer inception_4a/5x5_reduce_BatchNorm
I1119 07:50:23.210741 22704 net.cpp:94] Creating Layer inception_4a/5x5_reduce_BatchNorm
I1119 07:50:23.210745 22704 net.cpp:435] inception_4a/5x5_reduce_BatchNorm <- inception_4a/5x5_reduce_raw
I1119 07:50:23.210749 22704 net.cpp:409] inception_4a/5x5_reduce_BatchNorm -> inception_4a/5x5_reduce
I1119 07:50:23.211134 22704 net.cpp:144] Setting up inception_4a/5x5_reduce_BatchNorm
I1119 07:50:23.211139 22704 net.cpp:151] Top shape: 1 16 16 32 (8192)
I1119 07:50:23.211143 22704 net.cpp:159] Memory required for data: 133201924
I1119 07:50:23.211156 22704 layer_factory.hpp:77] Creating layer inception_4a/relu_5x5_reduce
I1119 07:50:23.211161 22704 net.cpp:94] Creating Layer inception_4a/relu_5x5_reduce
I1119 07:50:23.211164 22704 net.cpp:435] inception_4a/relu_5x5_reduce <- inception_4a/5x5_reduce
I1119 07:50:23.211169 22704 net.cpp:396] inception_4a/relu_5x5_reduce -> inception_4a/5x5_reduce (in-place)
I1119 07:50:23.211172 22704 net.cpp:144] Setting up inception_4a/relu_5x5_reduce
I1119 07:50:23.211175 22704 net.cpp:151] Top shape: 1 16 16 32 (8192)
I1119 07:50:23.211179 22704 net.cpp:159] Memory required for data: 133234692
I1119 07:50:23.211181 22704 layer_factory.hpp:77] Creating layer inception_4a/5x5
I1119 07:50:23.211187 22704 net.cpp:94] Creating Layer inception_4a/5x5
I1119 07:50:23.211191 22704 net.cpp:435] inception_4a/5x5 <- inception_4a/5x5_reduce
I1119 07:50:23.211195 22704 net.cpp:409] inception_4a/5x5 -> inception_4a/5x5_raw
I1119 07:50:23.211463 22704 net.cpp:144] Setting up inception_4a/5x5
I1119 07:50:23.211467 22704 net.cpp:151] Top shape: 1 48 16 32 (24576)
I1119 07:50:23.211472 22704 net.cpp:159] Memory required for data: 133332996
I1119 07:50:23.211477 22704 layer_factory.hpp:77] Creating layer inception_4a/5x5_BatchNorm
I1119 07:50:23.211483 22704 net.cpp:94] Creating Layer inception_4a/5x5_BatchNorm
I1119 07:50:23.211486 22704 net.cpp:435] inception_4a/5x5_BatchNorm <- inception_4a/5x5_raw
I1119 07:50:23.211490 22704 net.cpp:409] inception_4a/5x5_BatchNorm -> inception_4a/5x5
I1119 07:50:23.212252 22704 net.cpp:144] Setting up inception_4a/5x5_BatchNorm
I1119 07:50:23.212258 22704 net.cpp:151] Top shape: 1 48 16 32 (24576)
I1119 07:50:23.212262 22704 net.cpp:159] Memory required for data: 133431300
I1119 07:50:23.212270 22704 layer_factory.hpp:77] Creating layer inception_4a/relu_5x5
I1119 07:50:23.212273 22704 net.cpp:94] Creating Layer inception_4a/relu_5x5
I1119 07:50:23.212276 22704 net.cpp:435] inception_4a/relu_5x5 <- inception_4a/5x5
I1119 07:50:23.212280 22704 net.cpp:396] inception_4a/relu_5x5 -> inception_4a/5x5 (in-place)
I1119 07:50:23.212285 22704 net.cpp:144] Setting up inception_4a/relu_5x5
I1119 07:50:23.212289 22704 net.cpp:151] Top shape: 1 48 16 32 (24576)
I1119 07:50:23.212293 22704 net.cpp:159] Memory required for data: 133529604
I1119 07:50:23.212296 22704 layer_factory.hpp:77] Creating layer inception_4a/pool
I1119 07:50:23.212301 22704 net.cpp:94] Creating Layer inception_4a/pool
I1119 07:50:23.212306 22704 net.cpp:435] inception_4a/pool <- pool3/3x3_s2_pool3/3x3_s2_0_split_3
I1119 07:50:23.212309 22704 net.cpp:409] inception_4a/pool -> inception_4a/pool
I1119 07:50:23.212333 22704 net.cpp:144] Setting up inception_4a/pool
I1119 07:50:23.212337 22704 net.cpp:151] Top shape: 1 480 16 32 (245760)
I1119 07:50:23.212342 22704 net.cpp:159] Memory required for data: 134512644
I1119 07:50:23.212343 22704 layer_factory.hpp:77] Creating layer inception_4a/pool_proj
I1119 07:50:23.212350 22704 net.cpp:94] Creating Layer inception_4a/pool_proj
I1119 07:50:23.212353 22704 net.cpp:435] inception_4a/pool_proj <- inception_4a/pool
I1119 07:50:23.212358 22704 net.cpp:409] inception_4a/pool_proj -> inception_4a/pool_proj_raw
I1119 07:50:23.213486 22704 net.cpp:144] Setting up inception_4a/pool_proj
I1119 07:50:23.213495 22704 net.cpp:151] Top shape: 1 64 16 32 (32768)
I1119 07:50:23.213502 22704 net.cpp:159] Memory required for data: 134643716
I1119 07:50:23.213531 22704 layer_factory.hpp:77] Creating layer inception_4a/pool_proj_BatchNorm
I1119 07:50:23.213542 22704 net.cpp:94] Creating Layer inception_4a/pool_proj_BatchNorm
I1119 07:50:23.213546 22704 net.cpp:435] inception_4a/pool_proj_BatchNorm <- inception_4a/pool_proj_raw
I1119 07:50:23.213551 22704 net.cpp:409] inception_4a/pool_proj_BatchNorm -> inception_4a/pool_proj
I1119 07:50:23.214040 22704 net.cpp:144] Setting up inception_4a/pool_proj_BatchNorm
I1119 07:50:23.214049 22704 net.cpp:151] Top shape: 1 64 16 32 (32768)
I1119 07:50:23.214056 22704 net.cpp:159] Memory required for data: 134774788
I1119 07:50:23.214064 22704 layer_factory.hpp:77] Creating layer inception_4a/relu_pool_proj
I1119 07:50:23.214072 22704 net.cpp:94] Creating Layer inception_4a/relu_pool_proj
I1119 07:50:23.214076 22704 net.cpp:435] inception_4a/relu_pool_proj <- inception_4a/pool_proj
I1119 07:50:23.214079 22704 net.cpp:396] inception_4a/relu_pool_proj -> inception_4a/pool_proj (in-place)
I1119 07:50:23.214087 22704 net.cpp:144] Setting up inception_4a/relu_pool_proj
I1119 07:50:23.214089 22704 net.cpp:151] Top shape: 1 64 16 32 (32768)
I1119 07:50:23.214092 22704 net.cpp:159] Memory required for data: 134905860
I1119 07:50:23.214095 22704 layer_factory.hpp:77] Creating layer inception_4a/output
I1119 07:50:23.214099 22704 net.cpp:94] Creating Layer inception_4a/output
I1119 07:50:23.214102 22704 net.cpp:435] inception_4a/output <- inception_4a/1x1
I1119 07:50:23.214105 22704 net.cpp:435] inception_4a/output <- inception_4a/3x3
I1119 07:50:23.214107 22704 net.cpp:435] inception_4a/output <- inception_4a/5x5
I1119 07:50:23.214110 22704 net.cpp:435] inception_4a/output <- inception_4a/pool_proj
I1119 07:50:23.214114 22704 net.cpp:409] inception_4a/output -> inception_4a/output
I1119 07:50:23.214141 22704 net.cpp:144] Setting up inception_4a/output
I1119 07:50:23.214149 22704 net.cpp:151] Top shape: 1 512 16 32 (262144)
I1119 07:50:23.214154 22704 net.cpp:159] Memory required for data: 135954436
I1119 07:50:23.214156 22704 layer_factory.hpp:77] Creating layer inception_4a/output_inception_4a/output_0_split
I1119 07:50:23.214162 22704 net.cpp:94] Creating Layer inception_4a/output_inception_4a/output_0_split
I1119 07:50:23.214165 22704 net.cpp:435] inception_4a/output_inception_4a/output_0_split <- inception_4a/output
I1119 07:50:23.214170 22704 net.cpp:409] inception_4a/output_inception_4a/output_0_split -> inception_4a/output_inception_4a/output_0_split_0
I1119 07:50:23.214176 22704 net.cpp:409] inception_4a/output_inception_4a/output_0_split -> inception_4a/output_inception_4a/output_0_split_1
I1119 07:50:23.214180 22704 net.cpp:409] inception_4a/output_inception_4a/output_0_split -> inception_4a/output_inception_4a/output_0_split_2
I1119 07:50:23.214184 22704 net.cpp:409] inception_4a/output_inception_4a/output_0_split -> inception_4a/output_inception_4a/output_0_split_3
I1119 07:50:23.214226 22704 net.cpp:144] Setting up inception_4a/output_inception_4a/output_0_split
I1119 07:50:23.214228 22704 net.cpp:151] Top shape: 1 512 16 32 (262144)
I1119 07:50:23.214231 22704 net.cpp:151] Top shape: 1 512 16 32 (262144)
I1119 07:50:23.214233 22704 net.cpp:151] Top shape: 1 512 16 32 (262144)
I1119 07:50:23.214236 22704 net.cpp:151] Top shape: 1 512 16 32 (262144)
I1119 07:50:23.214238 22704 net.cpp:159] Memory required for data: 140148740
I1119 07:50:23.214241 22704 layer_factory.hpp:77] Creating layer inception_4b/1x1
I1119 07:50:23.214248 22704 net.cpp:94] Creating Layer inception_4b/1x1
I1119 07:50:23.214251 22704 net.cpp:435] inception_4b/1x1 <- inception_4a/output_inception_4a/output_0_split_0
I1119 07:50:23.214253 22704 net.cpp:409] inception_4b/1x1 -> inception_4b/1x1_raw
I1119 07:50:23.214846 22704 net.cpp:144] Setting up inception_4b/1x1
I1119 07:50:23.214854 22704 net.cpp:151] Top shape: 1 160 16 32 (81920)
I1119 07:50:23.214860 22704 net.cpp:159] Memory required for data: 140476420
I1119 07:50:23.214866 22704 layer_factory.hpp:77] Creating layer inception_4b/1x1_BatchNorm
I1119 07:50:23.214874 22704 net.cpp:94] Creating Layer inception_4b/1x1_BatchNorm
I1119 07:50:23.214876 22704 net.cpp:435] inception_4b/1x1_BatchNorm <- inception_4b/1x1_raw
I1119 07:50:23.214881 22704 net.cpp:409] inception_4b/1x1_BatchNorm -> inception_4b/1x1
I1119 07:50:23.215356 22704 net.cpp:144] Setting up inception_4b/1x1_BatchNorm
I1119 07:50:23.215365 22704 net.cpp:151] Top shape: 1 160 16 32 (81920)
I1119 07:50:23.215373 22704 net.cpp:159] Memory required for data: 140804100
I1119 07:50:23.215381 22704 layer_factory.hpp:77] Creating layer inception_4b/relu_1x1
I1119 07:50:23.215386 22704 net.cpp:94] Creating Layer inception_4b/relu_1x1
I1119 07:50:23.215389 22704 net.cpp:435] inception_4b/relu_1x1 <- inception_4b/1x1
I1119 07:50:23.215394 22704 net.cpp:396] inception_4b/relu_1x1 -> inception_4b/1x1 (in-place)
I1119 07:50:23.215399 22704 net.cpp:144] Setting up inception_4b/relu_1x1
I1119 07:50:23.215404 22704 net.cpp:151] Top shape: 1 160 16 32 (81920)
I1119 07:50:23.215407 22704 net.cpp:159] Memory required for data: 141131780
I1119 07:50:23.215409 22704 layer_factory.hpp:77] Creating layer inception_4b/3x3_reduce
I1119 07:50:23.215416 22704 net.cpp:94] Creating Layer inception_4b/3x3_reduce
I1119 07:50:23.215418 22704 net.cpp:435] inception_4b/3x3_reduce <- inception_4a/output_inception_4a/output_0_split_1
I1119 07:50:23.215423 22704 net.cpp:409] inception_4b/3x3_reduce -> inception_4b/3x3_reduce_raw
I1119 07:50:23.215901 22704 net.cpp:144] Setting up inception_4b/3x3_reduce
I1119 07:50:23.215906 22704 net.cpp:151] Top shape: 1 112 16 32 (57344)
I1119 07:50:23.215910 22704 net.cpp:159] Memory required for data: 141361156
I1119 07:50:23.215915 22704 layer_factory.hpp:77] Creating layer inception_4b/3x3_reduce_BatchNorm
I1119 07:50:23.215921 22704 net.cpp:94] Creating Layer inception_4b/3x3_reduce_BatchNorm
I1119 07:50:23.215925 22704 net.cpp:435] inception_4b/3x3_reduce_BatchNorm <- inception_4b/3x3_reduce_raw
I1119 07:50:23.215929 22704 net.cpp:409] inception_4b/3x3_reduce_BatchNorm -> inception_4b/3x3_reduce
I1119 07:50:23.216331 22704 net.cpp:144] Setting up inception_4b/3x3_reduce_BatchNorm
I1119 07:50:23.216336 22704 net.cpp:151] Top shape: 1 112 16 32 (57344)
I1119 07:50:23.216341 22704 net.cpp:159] Memory required for data: 141590532
I1119 07:50:23.216348 22704 layer_factory.hpp:77] Creating layer inception_4b/relu_3x3_reduce
I1119 07:50:23.216353 22704 net.cpp:94] Creating Layer inception_4b/relu_3x3_reduce
I1119 07:50:23.216356 22704 net.cpp:435] inception_4b/relu_3x3_reduce <- inception_4b/3x3_reduce
I1119 07:50:23.216361 22704 net.cpp:396] inception_4b/relu_3x3_reduce -> inception_4b/3x3_reduce (in-place)
I1119 07:50:23.216367 22704 net.cpp:144] Setting up inception_4b/relu_3x3_reduce
I1119 07:50:23.216369 22704 net.cpp:151] Top shape: 1 112 16 32 (57344)
I1119 07:50:23.216373 22704 net.cpp:159] Memory required for data: 141819908
I1119 07:50:23.216377 22704 layer_factory.hpp:77] Creating layer inception_4b/3x3
I1119 07:50:23.216382 22704 net.cpp:94] Creating Layer inception_4b/3x3
I1119 07:50:23.216385 22704 net.cpp:435] inception_4b/3x3 <- inception_4b/3x3_reduce
I1119 07:50:23.216390 22704 net.cpp:409] inception_4b/3x3 -> inception_4b/3x3_raw
I1119 07:50:23.218478 22704 net.cpp:144] Setting up inception_4b/3x3
I1119 07:50:23.218485 22704 net.cpp:151] Top shape: 1 224 16 32 (114688)
I1119 07:50:23.218489 22704 net.cpp:159] Memory required for data: 142278660
I1119 07:50:23.218495 22704 layer_factory.hpp:77] Creating layer inception_4b/3x3_BatchNorm
I1119 07:50:23.218502 22704 net.cpp:94] Creating Layer inception_4b/3x3_BatchNorm
I1119 07:50:23.218504 22704 net.cpp:435] inception_4b/3x3_BatchNorm <- inception_4b/3x3_raw
I1119 07:50:23.218509 22704 net.cpp:409] inception_4b/3x3_BatchNorm -> inception_4b/3x3
I1119 07:50:23.219611 22704 net.cpp:144] Setting up inception_4b/3x3_BatchNorm
I1119 07:50:23.219621 22704 net.cpp:151] Top shape: 1 224 16 32 (114688)
I1119 07:50:23.219628 22704 net.cpp:159] Memory required for data: 142737412
I1119 07:50:23.219637 22704 layer_factory.hpp:77] Creating layer inception_4b/relu_3x3
I1119 07:50:23.219643 22704 net.cpp:94] Creating Layer inception_4b/relu_3x3
I1119 07:50:23.219647 22704 net.cpp:435] inception_4b/relu_3x3 <- inception_4b/3x3
I1119 07:50:23.219652 22704 net.cpp:396] inception_4b/relu_3x3 -> inception_4b/3x3 (in-place)
I1119 07:50:23.219660 22704 net.cpp:144] Setting up inception_4b/relu_3x3
I1119 07:50:23.219663 22704 net.cpp:151] Top shape: 1 224 16 32 (114688)
I1119 07:50:23.219667 22704 net.cpp:159] Memory required for data: 143196164
I1119 07:50:23.219669 22704 layer_factory.hpp:77] Creating layer inception_4b/5x5_reduce
I1119 07:50:23.219676 22704 net.cpp:94] Creating Layer inception_4b/5x5_reduce
I1119 07:50:23.219681 22704 net.cpp:435] inception_4b/5x5_reduce <- inception_4a/output_inception_4a/output_0_split_2
I1119 07:50:23.219686 22704 net.cpp:409] inception_4b/5x5_reduce -> inception_4b/5x5_reduce_raw
I1119 07:50:23.219925 22704 net.cpp:144] Setting up inception_4b/5x5_reduce
I1119 07:50:23.219930 22704 net.cpp:151] Top shape: 1 24 16 32 (12288)
I1119 07:50:23.219934 22704 net.cpp:159] Memory required for data: 143245316
I1119 07:50:23.219938 22704 layer_factory.hpp:77] Creating layer inception_4b/5x5_reduce_BatchNorm
I1119 07:50:23.219944 22704 net.cpp:94] Creating Layer inception_4b/5x5_reduce_BatchNorm
I1119 07:50:23.219947 22704 net.cpp:435] inception_4b/5x5_reduce_BatchNorm <- inception_4b/5x5_reduce_raw
I1119 07:50:23.219951 22704 net.cpp:409] inception_4b/5x5_reduce_BatchNorm -> inception_4b/5x5_reduce
I1119 07:50:23.220350 22704 net.cpp:144] Setting up inception_4b/5x5_reduce_BatchNorm
I1119 07:50:23.220355 22704 net.cpp:151] Top shape: 1 24 16 32 (12288)
I1119 07:50:23.220360 22704 net.cpp:159] Memory required for data: 143294468
I1119 07:50:23.220367 22704 layer_factory.hpp:77] Creating layer inception_4b/relu_5x5_reduce
I1119 07:50:23.220372 22704 net.cpp:94] Creating Layer inception_4b/relu_5x5_reduce
I1119 07:50:23.220374 22704 net.cpp:435] inception_4b/relu_5x5_reduce <- inception_4b/5x5_reduce
I1119 07:50:23.220378 22704 net.cpp:396] inception_4b/relu_5x5_reduce -> inception_4b/5x5_reduce (in-place)
I1119 07:50:23.220383 22704 net.cpp:144] Setting up inception_4b/relu_5x5_reduce
I1119 07:50:23.220386 22704 net.cpp:151] Top shape: 1 24 16 32 (12288)
I1119 07:50:23.220391 22704 net.cpp:159] Memory required for data: 143343620
I1119 07:50:23.220392 22704 layer_factory.hpp:77] Creating layer inception_4b/5x5
I1119 07:50:23.220399 22704 net.cpp:94] Creating Layer inception_4b/5x5
I1119 07:50:23.220402 22704 net.cpp:435] inception_4b/5x5 <- inception_4b/5x5_reduce
I1119 07:50:23.220407 22704 net.cpp:409] inception_4b/5x5 -> inception_4b/5x5_raw
I1119 07:50:23.220770 22704 net.cpp:144] Setting up inception_4b/5x5
I1119 07:50:23.220775 22704 net.cpp:151] Top shape: 1 64 16 32 (32768)
I1119 07:50:23.220778 22704 net.cpp:159] Memory required for data: 143474692
I1119 07:50:23.220783 22704 layer_factory.hpp:77] Creating layer inception_4b/5x5_BatchNorm
I1119 07:50:23.220790 22704 net.cpp:94] Creating Layer inception_4b/5x5_BatchNorm
I1119 07:50:23.220794 22704 net.cpp:435] inception_4b/5x5_BatchNorm <- inception_4b/5x5_raw
I1119 07:50:23.220798 22704 net.cpp:409] inception_4b/5x5_BatchNorm -> inception_4b/5x5
I1119 07:50:23.221215 22704 net.cpp:144] Setting up inception_4b/5x5_BatchNorm
I1119 07:50:23.221220 22704 net.cpp:151] Top shape: 1 64 16 32 (32768)
I1119 07:50:23.221225 22704 net.cpp:159] Memory required for data: 143605764
I1119 07:50:23.221232 22704 layer_factory.hpp:77] Creating layer inception_4b/relu_5x5
I1119 07:50:23.221237 22704 net.cpp:94] Creating Layer inception_4b/relu_5x5
I1119 07:50:23.221240 22704 net.cpp:435] inception_4b/relu_5x5 <- inception_4b/5x5
I1119 07:50:23.221243 22704 net.cpp:396] inception_4b/relu_5x5 -> inception_4b/5x5 (in-place)
I1119 07:50:23.221248 22704 net.cpp:144] Setting up inception_4b/relu_5x5
I1119 07:50:23.221251 22704 net.cpp:151] Top shape: 1 64 16 32 (32768)
I1119 07:50:23.221256 22704 net.cpp:159] Memory required for data: 143736836
I1119 07:50:23.221258 22704 layer_factory.hpp:77] Creating layer inception_4b/pool
I1119 07:50:23.221264 22704 net.cpp:94] Creating Layer inception_4b/pool
I1119 07:50:23.221268 22704 net.cpp:435] inception_4b/pool <- inception_4a/output_inception_4a/output_0_split_3
I1119 07:50:23.221273 22704 net.cpp:409] inception_4b/pool -> inception_4b/pool
I1119 07:50:23.221297 22704 net.cpp:144] Setting up inception_4b/pool
I1119 07:50:23.221300 22704 net.cpp:151] Top shape: 1 512 16 32 (262144)
I1119 07:50:23.221304 22704 net.cpp:159] Memory required for data: 144785412
I1119 07:50:23.221307 22704 layer_factory.hpp:77] Creating layer inception_4b/pool_proj
I1119 07:50:23.221312 22704 net.cpp:94] Creating Layer inception_4b/pool_proj
I1119 07:50:23.221316 22704 net.cpp:435] inception_4b/pool_proj <- inception_4b/pool
I1119 07:50:23.221320 22704 net.cpp:409] inception_4b/pool_proj -> inception_4b/pool_proj_raw
I1119 07:50:23.222098 22704 net.cpp:144] Setting up inception_4b/pool_proj
I1119 07:50:23.222105 22704 net.cpp:151] Top shape: 1 64 16 32 (32768)
I1119 07:50:23.222108 22704 net.cpp:159] Memory required for data: 144916484
I1119 07:50:23.222115 22704 layer_factory.hpp:77] Creating layer inception_4b/pool_proj_BatchNorm
I1119 07:50:23.222121 22704 net.cpp:94] Creating Layer inception_4b/pool_proj_BatchNorm
I1119 07:50:23.222123 22704 net.cpp:435] inception_4b/pool_proj_BatchNorm <- inception_4b/pool_proj_raw
I1119 07:50:23.222128 22704 net.cpp:409] inception_4b/pool_proj_BatchNorm -> inception_4b/pool_proj
I1119 07:50:23.222518 22704 net.cpp:144] Setting up inception_4b/pool_proj_BatchNorm
I1119 07:50:23.222523 22704 net.cpp:151] Top shape: 1 64 16 32 (32768)
I1119 07:50:23.222527 22704 net.cpp:159] Memory required for data: 145047556
I1119 07:50:23.222535 22704 layer_factory.hpp:77] Creating layer inception_4b/relu_pool_proj
I1119 07:50:23.222540 22704 net.cpp:94] Creating Layer inception_4b/relu_pool_proj
I1119 07:50:23.222543 22704 net.cpp:435] inception_4b/relu_pool_proj <- inception_4b/pool_proj
I1119 07:50:23.222546 22704 net.cpp:396] inception_4b/relu_pool_proj -> inception_4b/pool_proj (in-place)
I1119 07:50:23.222553 22704 net.cpp:144] Setting up inception_4b/relu_pool_proj
I1119 07:50:23.222556 22704 net.cpp:151] Top shape: 1 64 16 32 (32768)
I1119 07:50:23.222560 22704 net.cpp:159] Memory required for data: 145178628
I1119 07:50:23.222563 22704 layer_factory.hpp:77] Creating layer inception_4b/output
I1119 07:50:23.222568 22704 net.cpp:94] Creating Layer inception_4b/output
I1119 07:50:23.222571 22704 net.cpp:435] inception_4b/output <- inception_4b/1x1
I1119 07:50:23.222575 22704 net.cpp:435] inception_4b/output <- inception_4b/3x3
I1119 07:50:23.222579 22704 net.cpp:435] inception_4b/output <- inception_4b/5x5
I1119 07:50:23.222580 22704 net.cpp:435] inception_4b/output <- inception_4b/pool_proj
I1119 07:50:23.222584 22704 net.cpp:409] inception_4b/output -> inception_4b/output
I1119 07:50:23.222601 22704 net.cpp:144] Setting up inception_4b/output
I1119 07:50:23.222604 22704 net.cpp:151] Top shape: 1 512 16 32 (262144)
I1119 07:50:23.222609 22704 net.cpp:159] Memory required for data: 146227204
I1119 07:50:23.222611 22704 layer_factory.hpp:77] Creating layer inception_4b/output_inception_4b/output_0_split
I1119 07:50:23.222615 22704 net.cpp:94] Creating Layer inception_4b/output_inception_4b/output_0_split
I1119 07:50:23.222618 22704 net.cpp:435] inception_4b/output_inception_4b/output_0_split <- inception_4b/output
I1119 07:50:23.222622 22704 net.cpp:409] inception_4b/output_inception_4b/output_0_split -> inception_4b/output_inception_4b/output_0_split_0
I1119 07:50:23.222630 22704 net.cpp:409] inception_4b/output_inception_4b/output_0_split -> inception_4b/output_inception_4b/output_0_split_1
I1119 07:50:23.222635 22704 net.cpp:409] inception_4b/output_inception_4b/output_0_split -> inception_4b/output_inception_4b/output_0_split_2
I1119 07:50:23.222640 22704 net.cpp:409] inception_4b/output_inception_4b/output_0_split -> inception_4b/output_inception_4b/output_0_split_3
I1119 07:50:23.222676 22704 net.cpp:144] Setting up inception_4b/output_inception_4b/output_0_split
I1119 07:50:23.222678 22704 net.cpp:151] Top shape: 1 512 16 32 (262144)
I1119 07:50:23.222682 22704 net.cpp:151] Top shape: 1 512 16 32 (262144)
I1119 07:50:23.222687 22704 net.cpp:151] Top shape: 1 512 16 32 (262144)
I1119 07:50:23.222690 22704 net.cpp:151] Top shape: 1 512 16 32 (262144)
I1119 07:50:23.222694 22704 net.cpp:159] Memory required for data: 150421508
I1119 07:50:23.222697 22704 layer_factory.hpp:77] Creating layer inception_4c/1x1
I1119 07:50:23.222703 22704 net.cpp:94] Creating Layer inception_4c/1x1
I1119 07:50:23.222707 22704 net.cpp:435] inception_4c/1x1 <- inception_4b/output_inception_4b/output_0_split_0
I1119 07:50:23.222712 22704 net.cpp:409] inception_4c/1x1 -> inception_4c/1x1_raw
I1119 07:50:23.224395 22704 net.cpp:144] Setting up inception_4c/1x1
I1119 07:50:23.224474 22704 net.cpp:151] Top shape: 1 128 16 32 (65536)
I1119 07:50:23.224531 22704 net.cpp:159] Memory required for data: 150683652
I1119 07:50:23.224592 22704 layer_factory.hpp:77] Creating layer inception_4c/1x1_BatchNorm
I1119 07:50:23.224664 22704 net.cpp:94] Creating Layer inception_4c/1x1_BatchNorm
I1119 07:50:23.224674 22704 net.cpp:435] inception_4c/1x1_BatchNorm <- inception_4c/1x1_raw
I1119 07:50:23.224680 22704 net.cpp:409] inception_4c/1x1_BatchNorm -> inception_4c/1x1
I1119 07:50:23.225139 22704 net.cpp:144] Setting up inception_4c/1x1_BatchNorm
I1119 07:50:23.225145 22704 net.cpp:151] Top shape: 1 128 16 32 (65536)
I1119 07:50:23.225150 22704 net.cpp:159] Memory required for data: 150945796
I1119 07:50:23.225158 22704 layer_factory.hpp:77] Creating layer inception_4c/relu_1x1
I1119 07:50:23.225162 22704 net.cpp:94] Creating Layer inception_4c/relu_1x1
I1119 07:50:23.225165 22704 net.cpp:435] inception_4c/relu_1x1 <- inception_4c/1x1
I1119 07:50:23.225168 22704 net.cpp:396] inception_4c/relu_1x1 -> inception_4c/1x1 (in-place)
I1119 07:50:23.225173 22704 net.cpp:144] Setting up inception_4c/relu_1x1
I1119 07:50:23.225178 22704 net.cpp:151] Top shape: 1 128 16 32 (65536)
I1119 07:50:23.225180 22704 net.cpp:159] Memory required for data: 151207940
I1119 07:50:23.225183 22704 layer_factory.hpp:77] Creating layer inception_4c/3x3_reduce
I1119 07:50:23.225189 22704 net.cpp:94] Creating Layer inception_4c/3x3_reduce
I1119 07:50:23.225193 22704 net.cpp:435] inception_4c/3x3_reduce <- inception_4b/output_inception_4b/output_0_split_1
I1119 07:50:23.225198 22704 net.cpp:409] inception_4c/3x3_reduce -> inception_4c/3x3_reduce_raw
I1119 07:50:23.225920 22704 net.cpp:144] Setting up inception_4c/3x3_reduce
I1119 07:50:23.225944 22704 net.cpp:151] Top shape: 1 128 16 32 (65536)
I1119 07:50:23.225967 22704 net.cpp:159] Memory required for data: 151470084
I1119 07:50:23.225993 22704 layer_factory.hpp:77] Creating layer inception_4c/3x3_reduce_BatchNorm
I1119 07:50:23.226018 22704 net.cpp:94] Creating Layer inception_4c/3x3_reduce_BatchNorm
I1119 07:50:23.226042 22704 net.cpp:435] inception_4c/3x3_reduce_BatchNorm <- inception_4c/3x3_reduce_raw
I1119 07:50:23.226066 22704 net.cpp:409] inception_4c/3x3_reduce_BatchNorm -> inception_4c/3x3_reduce
I1119 07:50:23.226512 22704 net.cpp:144] Setting up inception_4c/3x3_reduce_BatchNorm
I1119 07:50:23.226521 22704 net.cpp:151] Top shape: 1 128 16 32 (65536)
I1119 07:50:23.226526 22704 net.cpp:159] Memory required for data: 151732228
I1119 07:50:23.226533 22704 layer_factory.hpp:77] Creating layer inception_4c/relu_3x3_reduce
I1119 07:50:23.226539 22704 net.cpp:94] Creating Layer inception_4c/relu_3x3_reduce
I1119 07:50:23.226544 22704 net.cpp:435] inception_4c/relu_3x3_reduce <- inception_4c/3x3_reduce
I1119 07:50:23.226548 22704 net.cpp:396] inception_4c/relu_3x3_reduce -> inception_4c/3x3_reduce (in-place)
I1119 07:50:23.226553 22704 net.cpp:144] Setting up inception_4c/relu_3x3_reduce
I1119 07:50:23.226557 22704 net.cpp:151] Top shape: 1 128 16 32 (65536)
I1119 07:50:23.226560 22704 net.cpp:159] Memory required for data: 151994372
I1119 07:50:23.226563 22704 layer_factory.hpp:77] Creating layer inception_4c/3x3
I1119 07:50:23.226569 22704 net.cpp:94] Creating Layer inception_4c/3x3
I1119 07:50:23.226572 22704 net.cpp:435] inception_4c/3x3 <- inception_4c/3x3_reduce
I1119 07:50:23.226577 22704 net.cpp:409] inception_4c/3x3 -> inception_4c/3x3_raw
I1119 07:50:23.229522 22704 net.cpp:144] Setting up inception_4c/3x3
I1119 07:50:23.229538 22704 net.cpp:151] Top shape: 1 256 16 32 (131072)
I1119 07:50:23.229544 22704 net.cpp:159] Memory required for data: 152518660
I1119 07:50:23.229552 22704 layer_factory.hpp:77] Creating layer inception_4c/3x3_BatchNorm
I1119 07:50:23.229562 22704 net.cpp:94] Creating Layer inception_4c/3x3_BatchNorm
I1119 07:50:23.229566 22704 net.cpp:435] inception_4c/3x3_BatchNorm <- inception_4c/3x3_raw
I1119 07:50:23.229573 22704 net.cpp:409] inception_4c/3x3_BatchNorm -> inception_4c/3x3
I1119 07:50:23.230167 22704 net.cpp:144] Setting up inception_4c/3x3_BatchNorm
I1119 07:50:23.230175 22704 net.cpp:151] Top shape: 1 256 16 32 (131072)
I1119 07:50:23.230178 22704 net.cpp:159] Memory required for data: 153042948
I1119 07:50:23.230185 22704 layer_factory.hpp:77] Creating layer inception_4c/relu_3x3
I1119 07:50:23.230543 22704 net.cpp:94] Creating Layer inception_4c/relu_3x3
I1119 07:50:23.230551 22704 net.cpp:435] inception_4c/relu_3x3 <- inception_4c/3x3
I1119 07:50:23.230556 22704 net.cpp:396] inception_4c/relu_3x3 -> inception_4c/3x3 (in-place)
I1119 07:50:23.230561 22704 net.cpp:144] Setting up inception_4c/relu_3x3
I1119 07:50:23.230563 22704 net.cpp:151] Top shape: 1 256 16 32 (131072)
I1119 07:50:23.230566 22704 net.cpp:159] Memory required for data: 153567236
I1119 07:50:23.230568 22704 layer_factory.hpp:77] Creating layer inception_4c/5x5_reduce
I1119 07:50:23.230574 22704 net.cpp:94] Creating Layer inception_4c/5x5_reduce
I1119 07:50:23.230576 22704 net.cpp:435] inception_4c/5x5_reduce <- inception_4b/output_inception_4b/output_0_split_2
I1119 07:50:23.230579 22704 net.cpp:409] inception_4c/5x5_reduce -> inception_4c/5x5_reduce_raw
I1119 07:50:23.230839 22704 net.cpp:144] Setting up inception_4c/5x5_reduce
I1119 07:50:23.230842 22704 net.cpp:151] Top shape: 1 24 16 32 (12288)
I1119 07:50:23.230845 22704 net.cpp:159] Memory required for data: 153616388
I1119 07:50:23.230849 22704 layer_factory.hpp:77] Creating layer inception_4c/5x5_reduce_BatchNorm
I1119 07:50:23.230854 22704 net.cpp:94] Creating Layer inception_4c/5x5_reduce_BatchNorm
I1119 07:50:23.230855 22704 net.cpp:435] inception_4c/5x5_reduce_BatchNorm <- inception_4c/5x5_reduce_raw
I1119 07:50:23.230859 22704 net.cpp:409] inception_4c/5x5_reduce_BatchNorm -> inception_4c/5x5_reduce
I1119 07:50:23.231254 22704 net.cpp:144] Setting up inception_4c/5x5_reduce_BatchNorm
I1119 07:50:23.231259 22704 net.cpp:151] Top shape: 1 24 16 32 (12288)
I1119 07:50:23.231262 22704 net.cpp:159] Memory required for data: 153665540
I1119 07:50:23.231267 22704 layer_factory.hpp:77] Creating layer inception_4c/relu_5x5_reduce
I1119 07:50:23.231271 22704 net.cpp:94] Creating Layer inception_4c/relu_5x5_reduce
I1119 07:50:23.231272 22704 net.cpp:435] inception_4c/relu_5x5_reduce <- inception_4c/5x5_reduce
I1119 07:50:23.231274 22704 net.cpp:396] inception_4c/relu_5x5_reduce -> inception_4c/5x5_reduce (in-place)
I1119 07:50:23.231278 22704 net.cpp:144] Setting up inception_4c/relu_5x5_reduce
I1119 07:50:23.231279 22704 net.cpp:151] Top shape: 1 24 16 32 (12288)
I1119 07:50:23.231282 22704 net.cpp:159] Memory required for data: 153714692
I1119 07:50:23.231283 22704 layer_factory.hpp:77] Creating layer inception_4c/5x5
I1119 07:50:23.231288 22704 net.cpp:94] Creating Layer inception_4c/5x5
I1119 07:50:23.231290 22704 net.cpp:435] inception_4c/5x5 <- inception_4c/5x5_reduce
I1119 07:50:23.231293 22704 net.cpp:409] inception_4c/5x5 -> inception_4c/5x5_raw
I1119 07:50:23.231679 22704 net.cpp:144] Setting up inception_4c/5x5
I1119 07:50:23.231688 22704 net.cpp:151] Top shape: 1 64 16 32 (32768)
I1119 07:50:23.231693 22704 net.cpp:159] Memory required for data: 153845764
I1119 07:50:23.231698 22704 layer_factory.hpp:77] Creating layer inception_4c/5x5_BatchNorm
I1119 07:50:23.231703 22704 net.cpp:94] Creating Layer inception_4c/5x5_BatchNorm
I1119 07:50:23.231705 22704 net.cpp:435] inception_4c/5x5_BatchNorm <- inception_4c/5x5_raw
I1119 07:50:23.231709 22704 net.cpp:409] inception_4c/5x5_BatchNorm -> inception_4c/5x5
I1119 07:50:23.232143 22704 net.cpp:144] Setting up inception_4c/5x5_BatchNorm
I1119 07:50:23.232148 22704 net.cpp:151] Top shape: 1 64 16 32 (32768)
I1119 07:50:23.232151 22704 net.cpp:159] Memory required for data: 153976836
I1119 07:50:23.232157 22704 layer_factory.hpp:77] Creating layer inception_4c/relu_5x5
I1119 07:50:23.232161 22704 net.cpp:94] Creating Layer inception_4c/relu_5x5
I1119 07:50:23.232162 22704 net.cpp:435] inception_4c/relu_5x5 <- inception_4c/5x5
I1119 07:50:23.232165 22704 net.cpp:396] inception_4c/relu_5x5 -> inception_4c/5x5 (in-place)
I1119 07:50:23.232169 22704 net.cpp:144] Setting up inception_4c/relu_5x5
I1119 07:50:23.232172 22704 net.cpp:151] Top shape: 1 64 16 32 (32768)
I1119 07:50:23.232173 22704 net.cpp:159] Memory required for data: 154107908
I1119 07:50:23.232175 22704 layer_factory.hpp:77] Creating layer inception_4c/pool
I1119 07:50:23.232179 22704 net.cpp:94] Creating Layer inception_4c/pool
I1119 07:50:23.232182 22704 net.cpp:435] inception_4c/pool <- inception_4b/output_inception_4b/output_0_split_3
I1119 07:50:23.232185 22704 net.cpp:409] inception_4c/pool -> inception_4c/pool
I1119 07:50:23.232208 22704 net.cpp:144] Setting up inception_4c/pool
I1119 07:50:23.232211 22704 net.cpp:151] Top shape: 1 512 16 32 (262144)
I1119 07:50:23.232214 22704 net.cpp:159] Memory required for data: 155156484
I1119 07:50:23.232216 22704 layer_factory.hpp:77] Creating layer inception_4c/pool_proj
I1119 07:50:23.232221 22704 net.cpp:94] Creating Layer inception_4c/pool_proj
I1119 07:50:23.232224 22704 net.cpp:435] inception_4c/pool_proj <- inception_4c/pool
I1119 07:50:23.232228 22704 net.cpp:409] inception_4c/pool_proj -> inception_4c/pool_proj_raw
I1119 07:50:23.232586 22704 net.cpp:144] Setting up inception_4c/pool_proj
I1119 07:50:23.232594 22704 net.cpp:151] Top shape: 1 64 16 32 (32768)
I1119 07:50:23.232596 22704 net.cpp:159] Memory required for data: 155287556
I1119 07:50:23.232600 22704 layer_factory.hpp:77] Creating layer inception_4c/pool_proj_BatchNorm
I1119 07:50:23.232606 22704 net.cpp:94] Creating Layer inception_4c/pool_proj_BatchNorm
I1119 07:50:23.232609 22704 net.cpp:435] inception_4c/pool_proj_BatchNorm <- inception_4c/pool_proj_raw
I1119 07:50:23.232611 22704 net.cpp:409] inception_4c/pool_proj_BatchNorm -> inception_4c/pool_proj
I1119 07:50:23.233026 22704 net.cpp:144] Setting up inception_4c/pool_proj_BatchNorm
I1119 07:50:23.233031 22704 net.cpp:151] Top shape: 1 64 16 32 (32768)
I1119 07:50:23.233033 22704 net.cpp:159] Memory required for data: 155418628
I1119 07:50:23.233038 22704 layer_factory.hpp:77] Creating layer inception_4c/relu_pool_proj
I1119 07:50:23.233042 22704 net.cpp:94] Creating Layer inception_4c/relu_pool_proj
I1119 07:50:23.233044 22704 net.cpp:435] inception_4c/relu_pool_proj <- inception_4c/pool_proj
I1119 07:50:23.233047 22704 net.cpp:396] inception_4c/relu_pool_proj -> inception_4c/pool_proj (in-place)
I1119 07:50:23.233050 22704 net.cpp:144] Setting up inception_4c/relu_pool_proj
I1119 07:50:23.233052 22704 net.cpp:151] Top shape: 1 64 16 32 (32768)
I1119 07:50:23.233054 22704 net.cpp:159] Memory required for data: 155549700
I1119 07:50:23.233057 22704 layer_factory.hpp:77] Creating layer inception_4c/output
I1119 07:50:23.233059 22704 net.cpp:94] Creating Layer inception_4c/output
I1119 07:50:23.233062 22704 net.cpp:435] inception_4c/output <- inception_4c/1x1
I1119 07:50:23.233063 22704 net.cpp:435] inception_4c/output <- inception_4c/3x3
I1119 07:50:23.233067 22704 net.cpp:435] inception_4c/output <- inception_4c/5x5
I1119 07:50:23.233068 22704 net.cpp:435] inception_4c/output <- inception_4c/pool_proj
I1119 07:50:23.233072 22704 net.cpp:409] inception_4c/output -> inception_4c/output
I1119 07:50:23.233083 22704 net.cpp:144] Setting up inception_4c/output
I1119 07:50:23.233085 22704 net.cpp:151] Top shape: 1 512 16 32 (262144)
I1119 07:50:23.233088 22704 net.cpp:159] Memory required for data: 156598276
I1119 07:50:23.233089 22704 layer_factory.hpp:77] Creating layer inception_4c/output_inception_4c/output_0_split
I1119 07:50:23.233094 22704 net.cpp:94] Creating Layer inception_4c/output_inception_4c/output_0_split
I1119 07:50:23.233095 22704 net.cpp:435] inception_4c/output_inception_4c/output_0_split <- inception_4c/output
I1119 07:50:23.233098 22704 net.cpp:409] inception_4c/output_inception_4c/output_0_split -> inception_4c/output_inception_4c/output_0_split_0
I1119 07:50:23.233103 22704 net.cpp:409] inception_4c/output_inception_4c/output_0_split -> inception_4c/output_inception_4c/output_0_split_1
I1119 07:50:23.233105 22704 net.cpp:409] inception_4c/output_inception_4c/output_0_split -> inception_4c/output_inception_4c/output_0_split_2
I1119 07:50:23.233108 22704 net.cpp:409] inception_4c/output_inception_4c/output_0_split -> inception_4c/output_inception_4c/output_0_split_3
I1119 07:50:23.233139 22704 net.cpp:144] Setting up inception_4c/output_inception_4c/output_0_split
I1119 07:50:23.233142 22704 net.cpp:151] Top shape: 1 512 16 32 (262144)
I1119 07:50:23.233144 22704 net.cpp:151] Top shape: 1 512 16 32 (262144)
I1119 07:50:23.233147 22704 net.cpp:151] Top shape: 1 512 16 32 (262144)
I1119 07:50:23.233150 22704 net.cpp:151] Top shape: 1 512 16 32 (262144)
I1119 07:50:23.233151 22704 net.cpp:159] Memory required for data: 160792580
I1119 07:50:23.233153 22704 layer_factory.hpp:77] Creating layer inception_4d/1x1
I1119 07:50:23.233158 22704 net.cpp:94] Creating Layer inception_4d/1x1
I1119 07:50:23.233160 22704 net.cpp:435] inception_4d/1x1 <- inception_4c/output_inception_4c/output_0_split_0
I1119 07:50:23.233162 22704 net.cpp:409] inception_4d/1x1 -> inception_4d/1x1_raw
I1119 07:50:23.234412 22704 net.cpp:144] Setting up inception_4d/1x1
I1119 07:50:23.234421 22704 net.cpp:151] Top shape: 1 112 16 32 (57344)
I1119 07:50:23.234423 22704 net.cpp:159] Memory required for data: 161021956
I1119 07:50:23.234427 22704 layer_factory.hpp:77] Creating layer inception_4d/1x1_BatchNorm
I1119 07:50:23.234432 22704 net.cpp:94] Creating Layer inception_4d/1x1_BatchNorm
I1119 07:50:23.234434 22704 net.cpp:435] inception_4d/1x1_BatchNorm <- inception_4d/1x1_raw
I1119 07:50:23.234437 22704 net.cpp:409] inception_4d/1x1_BatchNorm -> inception_4d/1x1
I1119 07:50:23.234838 22704 net.cpp:144] Setting up inception_4d/1x1_BatchNorm
I1119 07:50:23.234843 22704 net.cpp:151] Top shape: 1 112 16 32 (57344)
I1119 07:50:23.234845 22704 net.cpp:159] Memory required for data: 161251332
I1119 07:50:23.234851 22704 layer_factory.hpp:77] Creating layer inception_4d/relu_1x1
I1119 07:50:23.234854 22704 net.cpp:94] Creating Layer inception_4d/relu_1x1
I1119 07:50:23.234856 22704 net.cpp:435] inception_4d/relu_1x1 <- inception_4d/1x1
I1119 07:50:23.234858 22704 net.cpp:396] inception_4d/relu_1x1 -> inception_4d/1x1 (in-place)
I1119 07:50:23.234863 22704 net.cpp:144] Setting up inception_4d/relu_1x1
I1119 07:50:23.234864 22704 net.cpp:151] Top shape: 1 112 16 32 (57344)
I1119 07:50:23.234866 22704 net.cpp:159] Memory required for data: 161480708
I1119 07:50:23.234869 22704 layer_factory.hpp:77] Creating layer inception_4d/3x3_reduce
I1119 07:50:23.234872 22704 net.cpp:94] Creating Layer inception_4d/3x3_reduce
I1119 07:50:23.234874 22704 net.cpp:435] inception_4d/3x3_reduce <- inception_4c/output_inception_4c/output_0_split_1
I1119 07:50:23.234877 22704 net.cpp:409] inception_4d/3x3_reduce -> inception_4d/3x3_reduce_raw
I1119 07:50:23.235710 22704 net.cpp:144] Setting up inception_4d/3x3_reduce
I1119 07:50:23.235715 22704 net.cpp:151] Top shape: 1 144 16 32 (73728)
I1119 07:50:23.235719 22704 net.cpp:159] Memory required for data: 161775620
I1119 07:50:23.235723 22704 layer_factory.hpp:77] Creating layer inception_4d/3x3_reduce_BatchNorm
I1119 07:50:23.235728 22704 net.cpp:94] Creating Layer inception_4d/3x3_reduce_BatchNorm
I1119 07:50:23.235730 22704 net.cpp:435] inception_4d/3x3_reduce_BatchNorm <- inception_4d/3x3_reduce_raw
I1119 07:50:23.235733 22704 net.cpp:409] inception_4d/3x3_reduce_BatchNorm -> inception_4d/3x3_reduce
I1119 07:50:23.236126 22704 net.cpp:144] Setting up inception_4d/3x3_reduce_BatchNorm
I1119 07:50:23.236131 22704 net.cpp:151] Top shape: 1 144 16 32 (73728)
I1119 07:50:23.236135 22704 net.cpp:159] Memory required for data: 162070532
I1119 07:50:23.236140 22704 layer_factory.hpp:77] Creating layer inception_4d/relu_3x3_reduce
I1119 07:50:23.236145 22704 net.cpp:94] Creating Layer inception_4d/relu_3x3_reduce
I1119 07:50:23.236147 22704 net.cpp:435] inception_4d/relu_3x3_reduce <- inception_4d/3x3_reduce
I1119 07:50:23.236150 22704 net.cpp:396] inception_4d/relu_3x3_reduce -> inception_4d/3x3_reduce (in-place)
I1119 07:50:23.236155 22704 net.cpp:144] Setting up inception_4d/relu_3x3_reduce
I1119 07:50:23.236156 22704 net.cpp:151] Top shape: 1 144 16 32 (73728)
I1119 07:50:23.236160 22704 net.cpp:159] Memory required for data: 162365444
I1119 07:50:23.236160 22704 layer_factory.hpp:77] Creating layer inception_4d/3x3
I1119 07:50:23.236166 22704 net.cpp:94] Creating Layer inception_4d/3x3
I1119 07:50:23.236168 22704 net.cpp:435] inception_4d/3x3 <- inception_4d/3x3_reduce
I1119 07:50:23.236171 22704 net.cpp:409] inception_4d/3x3 -> inception_4d/3x3_raw
I1119 07:50:23.240476 22704 net.cpp:144] Setting up inception_4d/3x3
I1119 07:50:23.240485 22704 net.cpp:151] Top shape: 1 288 16 32 (147456)
I1119 07:50:23.240489 22704 net.cpp:159] Memory required for data: 162955268
I1119 07:50:23.240495 22704 layer_factory.hpp:77] Creating layer inception_4d/3x3_BatchNorm
I1119 07:50:23.240504 22704 net.cpp:94] Creating Layer inception_4d/3x3_BatchNorm
I1119 07:50:23.240509 22704 net.cpp:435] inception_4d/3x3_BatchNorm <- inception_4d/3x3_raw
I1119 07:50:23.240512 22704 net.cpp:409] inception_4d/3x3_BatchNorm -> inception_4d/3x3
I1119 07:50:23.240931 22704 net.cpp:144] Setting up inception_4d/3x3_BatchNorm
I1119 07:50:23.240936 22704 net.cpp:151] Top shape: 1 288 16 32 (147456)
I1119 07:50:23.240939 22704 net.cpp:159] Memory required for data: 163545092
I1119 07:50:23.240945 22704 layer_factory.hpp:77] Creating layer inception_4d/relu_3x3
I1119 07:50:23.240950 22704 net.cpp:94] Creating Layer inception_4d/relu_3x3
I1119 07:50:23.240952 22704 net.cpp:435] inception_4d/relu_3x3 <- inception_4d/3x3
I1119 07:50:23.240955 22704 net.cpp:396] inception_4d/relu_3x3 -> inception_4d/3x3 (in-place)
I1119 07:50:23.240958 22704 net.cpp:144] Setting up inception_4d/relu_3x3
I1119 07:50:23.240960 22704 net.cpp:151] Top shape: 1 288 16 32 (147456)
I1119 07:50:23.240962 22704 net.cpp:159] Memory required for data: 164134916
I1119 07:50:23.240964 22704 layer_factory.hpp:77] Creating layer inception_4d/5x5_reduce
I1119 07:50:23.240969 22704 net.cpp:94] Creating Layer inception_4d/5x5_reduce
I1119 07:50:23.240972 22704 net.cpp:435] inception_4d/5x5_reduce <- inception_4c/output_inception_4c/output_0_split_2
I1119 07:50:23.240979 22704 net.cpp:409] inception_4d/5x5_reduce -> inception_4d/5x5_reduce_raw
I1119 07:50:23.241299 22704 net.cpp:144] Setting up inception_4d/5x5_reduce
I1119 07:50:23.241329 22704 net.cpp:151] Top shape: 1 32 16 32 (16384)
I1119 07:50:23.241362 22704 net.cpp:159] Memory required for data: 164200452
I1119 07:50:23.241392 22704 layer_factory.hpp:77] Creating layer inception_4d/5x5_reduce_BatchNorm
I1119 07:50:23.241425 22704 net.cpp:94] Creating Layer inception_4d/5x5_reduce_BatchNorm
I1119 07:50:23.241452 22704 net.cpp:435] inception_4d/5x5_reduce_BatchNorm <- inception_4d/5x5_reduce_raw
I1119 07:50:23.241482 22704 net.cpp:409] inception_4d/5x5_reduce_BatchNorm -> inception_4d/5x5_reduce
I1119 07:50:23.242018 22704 net.cpp:144] Setting up inception_4d/5x5_reduce_BatchNorm
I1119 07:50:23.242048 22704 net.cpp:151] Top shape: 1 32 16 32 (16384)
I1119 07:50:23.242076 22704 net.cpp:159] Memory required for data: 164265988
I1119 07:50:23.242115 22704 layer_factory.hpp:77] Creating layer inception_4d/relu_5x5_reduce
I1119 07:50:23.242143 22704 net.cpp:94] Creating Layer inception_4d/relu_5x5_reduce
I1119 07:50:23.242169 22704 net.cpp:435] inception_4d/relu_5x5_reduce <- inception_4d/5x5_reduce
I1119 07:50:23.242197 22704 net.cpp:396] inception_4d/relu_5x5_reduce -> inception_4d/5x5_reduce (in-place)
I1119 07:50:23.242228 22704 net.cpp:144] Setting up inception_4d/relu_5x5_reduce
I1119 07:50:23.242252 22704 net.cpp:151] Top shape: 1 32 16 32 (16384)
I1119 07:50:23.242280 22704 net.cpp:159] Memory required for data: 164331524
I1119 07:50:23.242305 22704 layer_factory.hpp:77] Creating layer inception_4d/5x5
I1119 07:50:23.242334 22704 net.cpp:94] Creating Layer inception_4d/5x5
I1119 07:50:23.242360 22704 net.cpp:435] inception_4d/5x5 <- inception_4d/5x5_reduce
I1119 07:50:23.242389 22704 net.cpp:409] inception_4d/5x5 -> inception_4d/5x5_raw
I1119 07:50:23.243018 22704 net.cpp:144] Setting up inception_4d/5x5
I1119 07:50:23.243049 22704 net.cpp:151] Top shape: 1 64 16 32 (32768)
I1119 07:50:23.243077 22704 net.cpp:159] Memory required for data: 164462596
I1119 07:50:23.243113 22704 layer_factory.hpp:77] Creating layer inception_4d/5x5_BatchNorm
I1119 07:50:23.243144 22704 net.cpp:94] Creating Layer inception_4d/5x5_BatchNorm
I1119 07:50:23.243181 22704 net.cpp:435] inception_4d/5x5_BatchNorm <- inception_4d/5x5_raw
I1119 07:50:23.243212 22704 net.cpp:409] inception_4d/5x5_BatchNorm -> inception_4d/5x5
I1119 07:50:23.243742 22704 net.cpp:144] Setting up inception_4d/5x5_BatchNorm
I1119 07:50:23.243752 22704 net.cpp:151] Top shape: 1 64 16 32 (32768)
I1119 07:50:23.243755 22704 net.cpp:159] Memory required for data: 164593668
I1119 07:50:23.243763 22704 layer_factory.hpp:77] Creating layer inception_4d/relu_5x5
I1119 07:50:23.243767 22704 net.cpp:94] Creating Layer inception_4d/relu_5x5
I1119 07:50:23.243770 22704 net.cpp:435] inception_4d/relu_5x5 <- inception_4d/5x5
I1119 07:50:23.243774 22704 net.cpp:396] inception_4d/relu_5x5 -> inception_4d/5x5 (in-place)
I1119 07:50:23.243778 22704 net.cpp:144] Setting up inception_4d/relu_5x5
I1119 07:50:23.243780 22704 net.cpp:151] Top shape: 1 64 16 32 (32768)
I1119 07:50:23.243784 22704 net.cpp:159] Memory required for data: 164724740
I1119 07:50:23.243786 22704 layer_factory.hpp:77] Creating layer inception_4d/pool
I1119 07:50:23.243791 22704 net.cpp:94] Creating Layer inception_4d/pool
I1119 07:50:23.243793 22704 net.cpp:435] inception_4d/pool <- inception_4c/output_inception_4c/output_0_split_3
I1119 07:50:23.243798 22704 net.cpp:409] inception_4d/pool -> inception_4d/pool
I1119 07:50:23.243821 22704 net.cpp:144] Setting up inception_4d/pool
I1119 07:50:23.243825 22704 net.cpp:151] Top shape: 1 512 16 32 (262144)
I1119 07:50:23.243829 22704 net.cpp:159] Memory required for data: 165773316
I1119 07:50:23.243831 22704 layer_factory.hpp:77] Creating layer inception_4d/pool_proj
I1119 07:50:23.243837 22704 net.cpp:94] Creating Layer inception_4d/pool_proj
I1119 07:50:23.243840 22704 net.cpp:435] inception_4d/pool_proj <- inception_4d/pool
I1119 07:50:23.243844 22704 net.cpp:409] inception_4d/pool_proj -> inception_4d/pool_proj_raw
I1119 07:50:23.244289 22704 net.cpp:144] Setting up inception_4d/pool_proj
I1119 07:50:23.244294 22704 net.cpp:151] Top shape: 1 64 16 32 (32768)
I1119 07:50:23.244298 22704 net.cpp:159] Memory required for data: 165904388
I1119 07:50:23.244302 22704 layer_factory.hpp:77] Creating layer inception_4d/pool_proj_BatchNorm
I1119 07:50:23.244308 22704 net.cpp:94] Creating Layer inception_4d/pool_proj_BatchNorm
I1119 07:50:23.244310 22704 net.cpp:435] inception_4d/pool_proj_BatchNorm <- inception_4d/pool_proj_raw
I1119 07:50:23.244314 22704 net.cpp:409] inception_4d/pool_proj_BatchNorm -> inception_4d/pool_proj
I1119 07:50:23.244796 22704 net.cpp:144] Setting up inception_4d/pool_proj_BatchNorm
I1119 07:50:23.244801 22704 net.cpp:151] Top shape: 1 64 16 32 (32768)
I1119 07:50:23.244805 22704 net.cpp:159] Memory required for data: 166035460
I1119 07:50:23.244812 22704 layer_factory.hpp:77] Creating layer inception_4d/relu_pool_proj
I1119 07:50:23.244817 22704 net.cpp:94] Creating Layer inception_4d/relu_pool_proj
I1119 07:50:23.244819 22704 net.cpp:435] inception_4d/relu_pool_proj <- inception_4d/pool_proj
I1119 07:50:23.244822 22704 net.cpp:396] inception_4d/relu_pool_proj -> inception_4d/pool_proj (in-place)
I1119 07:50:23.244827 22704 net.cpp:144] Setting up inception_4d/relu_pool_proj
I1119 07:50:23.244828 22704 net.cpp:151] Top shape: 1 64 16 32 (32768)
I1119 07:50:23.244832 22704 net.cpp:159] Memory required for data: 166166532
I1119 07:50:23.244834 22704 layer_factory.hpp:77] Creating layer inception_4d/output
I1119 07:50:23.244838 22704 net.cpp:94] Creating Layer inception_4d/output
I1119 07:50:23.244841 22704 net.cpp:435] inception_4d/output <- inception_4d/1x1
I1119 07:50:23.244844 22704 net.cpp:435] inception_4d/output <- inception_4d/3x3
I1119 07:50:23.244846 22704 net.cpp:435] inception_4d/output <- inception_4d/5x5
I1119 07:50:23.244849 22704 net.cpp:435] inception_4d/output <- inception_4d/pool_proj
I1119 07:50:23.244853 22704 net.cpp:409] inception_4d/output -> inception_4d/output
I1119 07:50:23.244869 22704 net.cpp:144] Setting up inception_4d/output
I1119 07:50:23.244872 22704 net.cpp:151] Top shape: 1 528 16 32 (270336)
I1119 07:50:23.244876 22704 net.cpp:159] Memory required for data: 167247876
I1119 07:50:23.244879 22704 layer_factory.hpp:77] Creating layer inception_4d/output_inception_4d/output_0_split
I1119 07:50:23.244884 22704 net.cpp:94] Creating Layer inception_4d/output_inception_4d/output_0_split
I1119 07:50:23.244885 22704 net.cpp:435] inception_4d/output_inception_4d/output_0_split <- inception_4d/output
I1119 07:50:23.244889 22704 net.cpp:409] inception_4d/output_inception_4d/output_0_split -> inception_4d/output_inception_4d/output_0_split_0
I1119 07:50:23.244894 22704 net.cpp:409] inception_4d/output_inception_4d/output_0_split -> inception_4d/output_inception_4d/output_0_split_1
I1119 07:50:23.244897 22704 net.cpp:409] inception_4d/output_inception_4d/output_0_split -> inception_4d/output_inception_4d/output_0_split_2
I1119 07:50:23.244901 22704 net.cpp:409] inception_4d/output_inception_4d/output_0_split -> inception_4d/output_inception_4d/output_0_split_3
I1119 07:50:23.244940 22704 net.cpp:144] Setting up inception_4d/output_inception_4d/output_0_split
I1119 07:50:23.244944 22704 net.cpp:151] Top shape: 1 528 16 32 (270336)
I1119 07:50:23.244947 22704 net.cpp:151] Top shape: 1 528 16 32 (270336)
I1119 07:50:23.244951 22704 net.cpp:151] Top shape: 1 528 16 32 (270336)
I1119 07:50:23.244954 22704 net.cpp:151] Top shape: 1 528 16 32 (270336)
I1119 07:50:23.244957 22704 net.cpp:159] Memory required for data: 171573252
I1119 07:50:23.244959 22704 layer_factory.hpp:77] Creating layer inception_4e/1x1
I1119 07:50:23.244966 22704 net.cpp:94] Creating Layer inception_4e/1x1
I1119 07:50:23.244967 22704 net.cpp:435] inception_4e/1x1 <- inception_4d/output_inception_4d/output_0_split_0
I1119 07:50:23.244971 22704 net.cpp:409] inception_4e/1x1 -> inception_4e/1x1_raw
I1119 07:50:23.246721 22704 net.cpp:144] Setting up inception_4e/1x1
I1119 07:50:23.246731 22704 net.cpp:151] Top shape: 1 256 16 32 (131072)
I1119 07:50:23.246733 22704 net.cpp:159] Memory required for data: 172097540
I1119 07:50:23.246738 22704 layer_factory.hpp:77] Creating layer inception_4e/1x1_BatchNorm
I1119 07:50:23.246743 22704 net.cpp:94] Creating Layer inception_4e/1x1_BatchNorm
I1119 07:50:23.246745 22704 net.cpp:435] inception_4e/1x1_BatchNorm <- inception_4e/1x1_raw
I1119 07:50:23.246749 22704 net.cpp:409] inception_4e/1x1_BatchNorm -> inception_4e/1x1
I1119 07:50:23.247121 22704 net.cpp:144] Setting up inception_4e/1x1_BatchNorm
I1119 07:50:23.247126 22704 net.cpp:151] Top shape: 1 256 16 32 (131072)
I1119 07:50:23.247129 22704 net.cpp:159] Memory required for data: 172621828
I1119 07:50:23.247135 22704 layer_factory.hpp:77] Creating layer inception_4e/relu_1x1
I1119 07:50:23.247138 22704 net.cpp:94] Creating Layer inception_4e/relu_1x1
I1119 07:50:23.247140 22704 net.cpp:435] inception_4e/relu_1x1 <- inception_4e/1x1
I1119 07:50:23.247143 22704 net.cpp:396] inception_4e/relu_1x1 -> inception_4e/1x1 (in-place)
I1119 07:50:23.247148 22704 net.cpp:144] Setting up inception_4e/relu_1x1
I1119 07:50:23.247148 22704 net.cpp:151] Top shape: 1 256 16 32 (131072)
I1119 07:50:23.247150 22704 net.cpp:159] Memory required for data: 173146116
I1119 07:50:23.247153 22704 layer_factory.hpp:77] Creating layer inception_4e/3x3_reduce
I1119 07:50:23.247157 22704 net.cpp:94] Creating Layer inception_4e/3x3_reduce
I1119 07:50:23.247159 22704 net.cpp:435] inception_4e/3x3_reduce <- inception_4d/output_inception_4d/output_0_split_1
I1119 07:50:23.247164 22704 net.cpp:409] inception_4e/3x3_reduce -> inception_4e/3x3_reduce_raw
I1119 07:50:23.247792 22704 net.cpp:144] Setting up inception_4e/3x3_reduce
I1119 07:50:23.247797 22704 net.cpp:151] Top shape: 1 160 16 32 (81920)
I1119 07:50:23.247800 22704 net.cpp:159] Memory required for data: 173473796
I1119 07:50:23.247804 22704 layer_factory.hpp:77] Creating layer inception_4e/3x3_reduce_BatchNorm
I1119 07:50:23.247812 22704 net.cpp:94] Creating Layer inception_4e/3x3_reduce_BatchNorm
I1119 07:50:23.247813 22704 net.cpp:435] inception_4e/3x3_reduce_BatchNorm <- inception_4e/3x3_reduce_raw
I1119 07:50:23.247817 22704 net.cpp:409] inception_4e/3x3_reduce_BatchNorm -> inception_4e/3x3_reduce
I1119 07:50:23.248203 22704 net.cpp:144] Setting up inception_4e/3x3_reduce_BatchNorm
I1119 07:50:23.248208 22704 net.cpp:151] Top shape: 1 160 16 32 (81920)
I1119 07:50:23.248211 22704 net.cpp:159] Memory required for data: 173801476
I1119 07:50:23.248219 22704 layer_factory.hpp:77] Creating layer inception_4e/relu_3x3_reduce
I1119 07:50:23.248221 22704 net.cpp:94] Creating Layer inception_4e/relu_3x3_reduce
I1119 07:50:23.248224 22704 net.cpp:435] inception_4e/relu_3x3_reduce <- inception_4e/3x3_reduce
I1119 07:50:23.248226 22704 net.cpp:396] inception_4e/relu_3x3_reduce -> inception_4e/3x3_reduce (in-place)
I1119 07:50:23.248230 22704 net.cpp:144] Setting up inception_4e/relu_3x3_reduce
I1119 07:50:23.248232 22704 net.cpp:151] Top shape: 1 160 16 32 (81920)
I1119 07:50:23.248234 22704 net.cpp:159] Memory required for data: 174129156
I1119 07:50:23.248236 22704 layer_factory.hpp:77] Creating layer inception_4e/3x3
I1119 07:50:23.248245 22704 net.cpp:94] Creating Layer inception_4e/3x3
I1119 07:50:23.248250 22704 net.cpp:435] inception_4e/3x3 <- inception_4e/3x3_reduce
I1119 07:50:23.248255 22704 net.cpp:409] inception_4e/3x3 -> inception_4e/3x3_raw
I1119 07:50:23.253837 22704 net.cpp:144] Setting up inception_4e/3x3
I1119 07:50:23.253854 22704 net.cpp:151] Top shape: 1 320 16 32 (163840)
I1119 07:50:23.253861 22704 net.cpp:159] Memory required for data: 174784516
I1119 07:50:23.253870 22704 layer_factory.hpp:77] Creating layer inception_4e/3x3_BatchNorm
I1119 07:50:23.253880 22704 net.cpp:94] Creating Layer inception_4e/3x3_BatchNorm
I1119 07:50:23.253885 22704 net.cpp:435] inception_4e/3x3_BatchNorm <- inception_4e/3x3_raw
I1119 07:50:23.253891 22704 net.cpp:409] inception_4e/3x3_BatchNorm -> inception_4e/3x3
I1119 07:50:23.254333 22704 net.cpp:144] Setting up inception_4e/3x3_BatchNorm
I1119 07:50:23.254336 22704 net.cpp:151] Top shape: 1 320 16 32 (163840)
I1119 07:50:23.254339 22704 net.cpp:159] Memory required for data: 175439876
I1119 07:50:23.254345 22704 layer_factory.hpp:77] Creating layer inception_4e/relu_3x3
I1119 07:50:23.254349 22704 net.cpp:94] Creating Layer inception_4e/relu_3x3
I1119 07:50:23.254353 22704 net.cpp:435] inception_4e/relu_3x3 <- inception_4e/3x3
I1119 07:50:23.254355 22704 net.cpp:396] inception_4e/relu_3x3 -> inception_4e/3x3 (in-place)
I1119 07:50:23.254360 22704 net.cpp:144] Setting up inception_4e/relu_3x3
I1119 07:50:23.254362 22704 net.cpp:151] Top shape: 1 320 16 32 (163840)
I1119 07:50:23.254365 22704 net.cpp:159] Memory required for data: 176095236
I1119 07:50:23.254367 22704 layer_factory.hpp:77] Creating layer inception_4e/5x5_reduce
I1119 07:50:23.254374 22704 net.cpp:94] Creating Layer inception_4e/5x5_reduce
I1119 07:50:23.254376 22704 net.cpp:435] inception_4e/5x5_reduce <- inception_4d/output_inception_4d/output_0_split_2
I1119 07:50:23.254380 22704 net.cpp:409] inception_4e/5x5_reduce -> inception_4e/5x5_reduce_raw
I1119 07:50:23.254642 22704 net.cpp:144] Setting up inception_4e/5x5_reduce
I1119 07:50:23.254645 22704 net.cpp:151] Top shape: 1 32 16 32 (16384)
I1119 07:50:23.254648 22704 net.cpp:159] Memory required for data: 176160772
I1119 07:50:23.254653 22704 layer_factory.hpp:77] Creating layer inception_4e/5x5_reduce_BatchNorm
I1119 07:50:23.254659 22704 net.cpp:94] Creating Layer inception_4e/5x5_reduce_BatchNorm
I1119 07:50:23.254662 22704 net.cpp:435] inception_4e/5x5_reduce_BatchNorm <- inception_4e/5x5_reduce_raw
I1119 07:50:23.254665 22704 net.cpp:409] inception_4e/5x5_reduce_BatchNorm -> inception_4e/5x5_reduce
I1119 07:50:23.255084 22704 net.cpp:144] Setting up inception_4e/5x5_reduce_BatchNorm
I1119 07:50:23.255089 22704 net.cpp:151] Top shape: 1 32 16 32 (16384)
I1119 07:50:23.255092 22704 net.cpp:159] Memory required for data: 176226308
I1119 07:50:23.255100 22704 layer_factory.hpp:77] Creating layer inception_4e/relu_5x5_reduce
I1119 07:50:23.255102 22704 net.cpp:94] Creating Layer inception_4e/relu_5x5_reduce
I1119 07:50:23.255105 22704 net.cpp:435] inception_4e/relu_5x5_reduce <- inception_4e/5x5_reduce
I1119 07:50:23.255108 22704 net.cpp:396] inception_4e/relu_5x5_reduce -> inception_4e/5x5_reduce (in-place)
I1119 07:50:23.255112 22704 net.cpp:144] Setting up inception_4e/relu_5x5_reduce
I1119 07:50:23.255115 22704 net.cpp:151] Top shape: 1 32 16 32 (16384)
I1119 07:50:23.255117 22704 net.cpp:159] Memory required for data: 176291844
I1119 07:50:23.255120 22704 layer_factory.hpp:77] Creating layer inception_4e/5x5
I1119 07:50:23.255125 22704 net.cpp:94] Creating Layer inception_4e/5x5
I1119 07:50:23.255125 22704 net.cpp:435] inception_4e/5x5 <- inception_4e/5x5_reduce
I1119 07:50:23.255128 22704 net.cpp:409] inception_4e/5x5 -> inception_4e/5x5_raw
I1119 07:50:23.255841 22704 net.cpp:144] Setting up inception_4e/5x5
I1119 07:50:23.255846 22704 net.cpp:151] Top shape: 1 128 16 32 (65536)
I1119 07:50:23.255848 22704 net.cpp:159] Memory required for data: 176553988
I1119 07:50:23.255851 22704 layer_factory.hpp:77] Creating layer inception_4e/5x5_BatchNorm
I1119 07:50:23.255856 22704 net.cpp:94] Creating Layer inception_4e/5x5_BatchNorm
I1119 07:50:23.255859 22704 net.cpp:435] inception_4e/5x5_BatchNorm <- inception_4e/5x5_raw
I1119 07:50:23.255863 22704 net.cpp:409] inception_4e/5x5_BatchNorm -> inception_4e/5x5
I1119 07:50:23.256191 22704 net.cpp:144] Setting up inception_4e/5x5_BatchNorm
I1119 07:50:23.256196 22704 net.cpp:151] Top shape: 1 128 16 32 (65536)
I1119 07:50:23.256199 22704 net.cpp:159] Memory required for data: 176816132
I1119 07:50:23.256206 22704 layer_factory.hpp:77] Creating layer inception_4e/relu_5x5
I1119 07:50:23.256211 22704 net.cpp:94] Creating Layer inception_4e/relu_5x5
I1119 07:50:23.256212 22704 net.cpp:435] inception_4e/relu_5x5 <- inception_4e/5x5
I1119 07:50:23.256214 22704 net.cpp:396] inception_4e/relu_5x5 -> inception_4e/5x5 (in-place)
I1119 07:50:23.256218 22704 net.cpp:144] Setting up inception_4e/relu_5x5
I1119 07:50:23.256220 22704 net.cpp:151] Top shape: 1 128 16 32 (65536)
I1119 07:50:23.256223 22704 net.cpp:159] Memory required for data: 177078276
I1119 07:50:23.256225 22704 layer_factory.hpp:77] Creating layer inception_4e/pool
I1119 07:50:23.256232 22704 net.cpp:94] Creating Layer inception_4e/pool
I1119 07:50:23.256233 22704 net.cpp:435] inception_4e/pool <- inception_4d/output_inception_4d/output_0_split_3
I1119 07:50:23.256237 22704 net.cpp:409] inception_4e/pool -> inception_4e/pool
I1119 07:50:23.256260 22704 net.cpp:144] Setting up inception_4e/pool
I1119 07:50:23.256263 22704 net.cpp:151] Top shape: 1 528 16 32 (270336)
I1119 07:50:23.256266 22704 net.cpp:159] Memory required for data: 178159620
I1119 07:50:23.256268 22704 layer_factory.hpp:77] Creating layer inception_4e/pool_proj
I1119 07:50:23.256274 22704 net.cpp:94] Creating Layer inception_4e/pool_proj
I1119 07:50:23.256276 22704 net.cpp:435] inception_4e/pool_proj <- inception_4e/pool
I1119 07:50:23.256280 22704 net.cpp:409] inception_4e/pool_proj -> inception_4e/pool_proj_raw
I1119 07:50:23.256880 22704 net.cpp:144] Setting up inception_4e/pool_proj
I1119 07:50:23.256916 22704 net.cpp:151] Top shape: 1 128 16 32 (65536)
I1119 07:50:23.256948 22704 net.cpp:159] Memory required for data: 178421764
I1119 07:50:23.256983 22704 layer_factory.hpp:77] Creating layer inception_4e/pool_proj_BatchNorm
I1119 07:50:23.257019 22704 net.cpp:94] Creating Layer inception_4e/pool_proj_BatchNorm
I1119 07:50:23.257048 22704 net.cpp:435] inception_4e/pool_proj_BatchNorm <- inception_4e/pool_proj_raw
I1119 07:50:23.257081 22704 net.cpp:409] inception_4e/pool_proj_BatchNorm -> inception_4e/pool_proj
I1119 07:50:23.257551 22704 net.cpp:144] Setting up inception_4e/pool_proj_BatchNorm
I1119 07:50:23.257575 22704 net.cpp:151] Top shape: 1 128 16 32 (65536)
I1119 07:50:23.257599 22704 net.cpp:159] Memory required for data: 178683908
I1119 07:50:23.257627 22704 layer_factory.hpp:77] Creating layer inception_4e/relu_pool_proj
I1119 07:50:23.257652 22704 net.cpp:94] Creating Layer inception_4e/relu_pool_proj
I1119 07:50:23.257673 22704 net.cpp:435] inception_4e/relu_pool_proj <- inception_4e/pool_proj
I1119 07:50:23.257697 22704 net.cpp:396] inception_4e/relu_pool_proj -> inception_4e/pool_proj (in-place)
I1119 07:50:23.257730 22704 net.cpp:144] Setting up inception_4e/relu_pool_proj
I1119 07:50:23.257752 22704 net.cpp:151] Top shape: 1 128 16 32 (65536)
I1119 07:50:23.257776 22704 net.cpp:159] Memory required for data: 178946052
I1119 07:50:23.257798 22704 layer_factory.hpp:77] Creating layer inception_4e/output
I1119 07:50:23.257824 22704 net.cpp:94] Creating Layer inception_4e/output
I1119 07:50:23.257848 22704 net.cpp:435] inception_4e/output <- inception_4e/1x1
I1119 07:50:23.257872 22704 net.cpp:435] inception_4e/output <- inception_4e/3x3
I1119 07:50:23.257896 22704 net.cpp:435] inception_4e/output <- inception_4e/5x5
I1119 07:50:23.257920 22704 net.cpp:435] inception_4e/output <- inception_4e/pool_proj
I1119 07:50:23.257951 22704 net.cpp:409] inception_4e/output -> inception_4e/output
I1119 07:50:23.257998 22704 net.cpp:144] Setting up inception_4e/output
I1119 07:50:23.258023 22704 net.cpp:151] Top shape: 1 832 16 32 (425984)
I1119 07:50:23.258046 22704 net.cpp:159] Memory required for data: 180649988
I1119 07:50:23.258069 22704 layer_factory.hpp:77] Creating layer inception_4e/output_inception_4e/output_0_split
I1119 07:50:23.258093 22704 net.cpp:94] Creating Layer inception_4e/output_inception_4e/output_0_split
I1119 07:50:23.258116 22704 net.cpp:435] inception_4e/output_inception_4e/output_0_split <- inception_4e/output
I1119 07:50:23.258141 22704 net.cpp:409] inception_4e/output_inception_4e/output_0_split -> inception_4e/output_inception_4e/output_0_split_0
I1119 07:50:23.258168 22704 net.cpp:409] inception_4e/output_inception_4e/output_0_split -> inception_4e/output_inception_4e/output_0_split_1
I1119 07:50:23.258224 22704 net.cpp:144] Setting up inception_4e/output_inception_4e/output_0_split
I1119 07:50:23.258246 22704 net.cpp:151] Top shape: 1 832 16 32 (425984)
I1119 07:50:23.258271 22704 net.cpp:151] Top shape: 1 832 16 32 (425984)
I1119 07:50:23.258296 22704 net.cpp:159] Memory required for data: 184057860
I1119 07:50:23.258316 22704 layer_factory.hpp:77] Creating layer pool4/3x3_s2
I1119 07:50:23.258342 22704 net.cpp:94] Creating Layer pool4/3x3_s2
I1119 07:50:23.258364 22704 net.cpp:435] pool4/3x3_s2 <- inception_4e/output_inception_4e/output_0_split_0
I1119 07:50:23.258388 22704 net.cpp:409] pool4/3x3_s2 -> pool4/3x3_s2
I1119 07:50:23.258442 22704 net.cpp:144] Setting up pool4/3x3_s2
I1119 07:50:23.258466 22704 net.cpp:151] Top shape: 1 832 8 16 (106496)
I1119 07:50:23.258489 22704 net.cpp:159] Memory required for data: 184483844
I1119 07:50:23.258509 22704 layer_factory.hpp:77] Creating layer pool4/3x3_s2_pool4/3x3_s2_0_split
I1119 07:50:23.258533 22704 net.cpp:94] Creating Layer pool4/3x3_s2_pool4/3x3_s2_0_split
I1119 07:50:23.258553 22704 net.cpp:435] pool4/3x3_s2_pool4/3x3_s2_0_split <- pool4/3x3_s2
I1119 07:50:23.258579 22704 net.cpp:409] pool4/3x3_s2_pool4/3x3_s2_0_split -> pool4/3x3_s2_pool4/3x3_s2_0_split_0
I1119 07:50:23.258605 22704 net.cpp:409] pool4/3x3_s2_pool4/3x3_s2_0_split -> pool4/3x3_s2_pool4/3x3_s2_0_split_1
I1119 07:50:23.258632 22704 net.cpp:409] pool4/3x3_s2_pool4/3x3_s2_0_split -> pool4/3x3_s2_pool4/3x3_s2_0_split_2
I1119 07:50:23.258661 22704 net.cpp:409] pool4/3x3_s2_pool4/3x3_s2_0_split -> pool4/3x3_s2_pool4/3x3_s2_0_split_3
I1119 07:50:23.258713 22704 net.cpp:144] Setting up pool4/3x3_s2_pool4/3x3_s2_0_split
I1119 07:50:23.258718 22704 net.cpp:151] Top shape: 1 832 8 16 (106496)
I1119 07:50:23.258721 22704 net.cpp:151] Top shape: 1 832 8 16 (106496)
I1119 07:50:23.258724 22704 net.cpp:151] Top shape: 1 832 8 16 (106496)
I1119 07:50:23.258728 22704 net.cpp:151] Top shape: 1 832 8 16 (106496)
I1119 07:50:23.258730 22704 net.cpp:159] Memory required for data: 186187780
I1119 07:50:23.258733 22704 layer_factory.hpp:77] Creating layer inception_5a/1x1
I1119 07:50:23.258739 22704 net.cpp:94] Creating Layer inception_5a/1x1
I1119 07:50:23.258742 22704 net.cpp:435] inception_5a/1x1 <- pool4/3x3_s2_pool4/3x3_s2_0_split_0
I1119 07:50:23.258747 22704 net.cpp:409] inception_5a/1x1 -> inception_5a/1x1_raw
I1119 07:50:23.261056 22704 net.cpp:144] Setting up inception_5a/1x1
I1119 07:50:23.261066 22704 net.cpp:151] Top shape: 1 256 8 16 (32768)
I1119 07:50:23.261070 22704 net.cpp:159] Memory required for data: 186318852
I1119 07:50:23.261075 22704 layer_factory.hpp:77] Creating layer inception_5a/1x1_BatchNorm
I1119 07:50:23.261085 22704 net.cpp:94] Creating Layer inception_5a/1x1_BatchNorm
I1119 07:50:23.261091 22704 net.cpp:435] inception_5a/1x1_BatchNorm <- inception_5a/1x1_raw
I1119 07:50:23.261097 22704 net.cpp:409] inception_5a/1x1_BatchNorm -> inception_5a/1x1
I1119 07:50:23.261538 22704 net.cpp:144] Setting up inception_5a/1x1_BatchNorm
I1119 07:50:23.261548 22704 net.cpp:151] Top shape: 1 256 8 16 (32768)
I1119 07:50:23.261552 22704 net.cpp:159] Memory required for data: 186449924
I1119 07:50:23.261560 22704 layer_factory.hpp:77] Creating layer inception_5a/relu_1x1
I1119 07:50:23.261566 22704 net.cpp:94] Creating Layer inception_5a/relu_1x1
I1119 07:50:23.261569 22704 net.cpp:435] inception_5a/relu_1x1 <- inception_5a/1x1
I1119 07:50:23.261574 22704 net.cpp:396] inception_5a/relu_1x1 -> inception_5a/1x1 (in-place)
I1119 07:50:23.261580 22704 net.cpp:144] Setting up inception_5a/relu_1x1
I1119 07:50:23.261582 22704 net.cpp:151] Top shape: 1 256 8 16 (32768)
I1119 07:50:23.261586 22704 net.cpp:159] Memory required for data: 186580996
I1119 07:50:23.261588 22704 layer_factory.hpp:77] Creating layer inception_5a/3x3_reduce
I1119 07:50:23.261595 22704 net.cpp:94] Creating Layer inception_5a/3x3_reduce
I1119 07:50:23.261598 22704 net.cpp:435] inception_5a/3x3_reduce <- pool4/3x3_s2_pool4/3x3_s2_0_split_1
I1119 07:50:23.261603 22704 net.cpp:409] inception_5a/3x3_reduce -> inception_5a/3x3_reduce_raw
I1119 07:50:23.264319 22704 net.cpp:144] Setting up inception_5a/3x3_reduce
I1119 07:50:23.264335 22704 net.cpp:151] Top shape: 1 160 8 16 (20480)
I1119 07:50:23.264343 22704 net.cpp:159] Memory required for data: 186662916
I1119 07:50:23.264350 22704 layer_factory.hpp:77] Creating layer inception_5a/3x3_reduce_BatchNorm
I1119 07:50:23.264360 22704 net.cpp:94] Creating Layer inception_5a/3x3_reduce_BatchNorm
I1119 07:50:23.264367 22704 net.cpp:435] inception_5a/3x3_reduce_BatchNorm <- inception_5a/3x3_reduce_raw
I1119 07:50:23.264375 22704 net.cpp:409] inception_5a/3x3_reduce_BatchNorm -> inception_5a/3x3_reduce
I1119 07:50:23.264928 22704 net.cpp:144] Setting up inception_5a/3x3_reduce_BatchNorm
I1119 07:50:23.264935 22704 net.cpp:151] Top shape: 1 160 8 16 (20480)
I1119 07:50:23.264938 22704 net.cpp:159] Memory required for data: 186744836
I1119 07:50:23.264945 22704 layer_factory.hpp:77] Creating layer inception_5a/relu_3x3_reduce
I1119 07:50:23.264951 22704 net.cpp:94] Creating Layer inception_5a/relu_3x3_reduce
I1119 07:50:23.264955 22704 net.cpp:435] inception_5a/relu_3x3_reduce <- inception_5a/3x3_reduce
I1119 07:50:23.264961 22704 net.cpp:396] inception_5a/relu_3x3_reduce -> inception_5a/3x3_reduce (in-place)
I1119 07:50:23.264966 22704 net.cpp:144] Setting up inception_5a/relu_3x3_reduce
I1119 07:50:23.264969 22704 net.cpp:151] Top shape: 1 160 8 16 (20480)
I1119 07:50:23.264982 22704 net.cpp:159] Memory required for data: 186826756
I1119 07:50:23.264986 22704 layer_factory.hpp:77] Creating layer inception_5a/3x3
I1119 07:50:23.264992 22704 net.cpp:94] Creating Layer inception_5a/3x3
I1119 07:50:23.264995 22704 net.cpp:435] inception_5a/3x3 <- inception_5a/3x3_reduce
I1119 07:50:23.264999 22704 net.cpp:409] inception_5a/3x3 -> inception_5a/3x3_raw
I1119 07:50:23.272009 22704 net.cpp:144] Setting up inception_5a/3x3
I1119 07:50:23.272089 22704 net.cpp:151] Top shape: 1 320 8 16 (40960)
I1119 07:50:23.272145 22704 net.cpp:159] Memory required for data: 186990596
I1119 07:50:23.272203 22704 layer_factory.hpp:77] Creating layer inception_5a/3x3_BatchNorm
I1119 07:50:23.272262 22704 net.cpp:94] Creating Layer inception_5a/3x3_BatchNorm
I1119 07:50:23.272281 22704 net.cpp:435] inception_5a/3x3_BatchNorm <- inception_5a/3x3_raw
I1119 07:50:23.272294 22704 net.cpp:409] inception_5a/3x3_BatchNorm -> inception_5a/3x3
I1119 07:50:23.273300 22704 net.cpp:144] Setting up inception_5a/3x3_BatchNorm
I1119 07:50:23.273311 22704 net.cpp:151] Top shape: 1 320 8 16 (40960)
I1119 07:50:23.273319 22704 net.cpp:159] Memory required for data: 187154436
I1119 07:50:23.273334 22704 layer_factory.hpp:77] Creating layer inception_5a/relu_3x3
I1119 07:50:23.273342 22704 net.cpp:94] Creating Layer inception_5a/relu_3x3
I1119 07:50:23.273347 22704 net.cpp:435] inception_5a/relu_3x3 <- inception_5a/3x3
I1119 07:50:23.273355 22704 net.cpp:396] inception_5a/relu_3x3 -> inception_5a/3x3 (in-place)
I1119 07:50:23.273365 22704 net.cpp:144] Setting up inception_5a/relu_3x3
I1119 07:50:23.273371 22704 net.cpp:151] Top shape: 1 320 8 16 (40960)
I1119 07:50:23.273377 22704 net.cpp:159] Memory required for data: 187318276
I1119 07:50:23.273381 22704 layer_factory.hpp:77] Creating layer inception_5a/5x5_reduce
I1119 07:50:23.273393 22704 net.cpp:94] Creating Layer inception_5a/5x5_reduce
I1119 07:50:23.273399 22704 net.cpp:435] inception_5a/5x5_reduce <- pool4/3x3_s2_pool4/3x3_s2_0_split_2
I1119 07:50:23.273407 22704 net.cpp:409] inception_5a/5x5_reduce -> inception_5a/5x5_reduce_raw
I1119 07:50:23.274199 22704 net.cpp:144] Setting up inception_5a/5x5_reduce
I1119 07:50:23.274242 22704 net.cpp:151] Top shape: 1 32 8 16 (4096)
I1119 07:50:23.274293 22704 net.cpp:159] Memory required for data: 187334660
I1119 07:50:23.274344 22704 layer_factory.hpp:77] Creating layer inception_5a/5x5_reduce_BatchNorm
I1119 07:50:23.274394 22704 net.cpp:94] Creating Layer inception_5a/5x5_reduce_BatchNorm
I1119 07:50:23.274441 22704 net.cpp:435] inception_5a/5x5_reduce_BatchNorm <- inception_5a/5x5_reduce_raw
I1119 07:50:23.274493 22704 net.cpp:409] inception_5a/5x5_reduce_BatchNorm -> inception_5a/5x5_reduce
I1119 07:50:23.275420 22704 net.cpp:144] Setting up inception_5a/5x5_reduce_BatchNorm
I1119 07:50:23.275434 22704 net.cpp:151] Top shape: 1 32 8 16 (4096)
I1119 07:50:23.275441 22704 net.cpp:159] Memory required for data: 187351044
I1119 07:50:23.275454 22704 layer_factory.hpp:77] Creating layer inception_5a/relu_5x5_reduce
I1119 07:50:23.275460 22704 net.cpp:94] Creating Layer inception_5a/relu_5x5_reduce
I1119 07:50:23.275465 22704 net.cpp:435] inception_5a/relu_5x5_reduce <- inception_5a/5x5_reduce
I1119 07:50:23.275472 22704 net.cpp:396] inception_5a/relu_5x5_reduce -> inception_5a/5x5_reduce (in-place)
I1119 07:50:23.275482 22704 net.cpp:144] Setting up inception_5a/relu_5x5_reduce
I1119 07:50:23.275487 22704 net.cpp:151] Top shape: 1 32 8 16 (4096)
I1119 07:50:23.275493 22704 net.cpp:159] Memory required for data: 187367428
I1119 07:50:23.275501 22704 layer_factory.hpp:77] Creating layer inception_5a/5x5
I1119 07:50:23.275511 22704 net.cpp:94] Creating Layer inception_5a/5x5
I1119 07:50:23.275516 22704 net.cpp:435] inception_5a/5x5 <- inception_5a/5x5_reduce
I1119 07:50:23.275524 22704 net.cpp:409] inception_5a/5x5 -> inception_5a/5x5_raw
I1119 07:50:23.276939 22704 net.cpp:144] Setting up inception_5a/5x5
I1119 07:50:23.276953 22704 net.cpp:151] Top shape: 1 128 8 16 (16384)
I1119 07:50:23.276962 22704 net.cpp:159] Memory required for data: 187432964
I1119 07:50:23.276971 22704 layer_factory.hpp:77] Creating layer inception_5a/5x5_BatchNorm
I1119 07:50:23.277006 22704 net.cpp:94] Creating Layer inception_5a/5x5_BatchNorm
I1119 07:50:23.277014 22704 net.cpp:435] inception_5a/5x5_BatchNorm <- inception_5a/5x5_raw
I1119 07:50:23.277022 22704 net.cpp:409] inception_5a/5x5_BatchNorm -> inception_5a/5x5
I1119 07:50:23.277494 22704 net.cpp:144] Setting up inception_5a/5x5_BatchNorm
I1119 07:50:23.277498 22704 net.cpp:151] Top shape: 1 128 8 16 (16384)
I1119 07:50:23.277503 22704 net.cpp:159] Memory required for data: 187498500
I1119 07:50:23.277509 22704 layer_factory.hpp:77] Creating layer inception_5a/relu_5x5
I1119 07:50:23.277513 22704 net.cpp:94] Creating Layer inception_5a/relu_5x5
I1119 07:50:23.277515 22704 net.cpp:435] inception_5a/relu_5x5 <- inception_5a/5x5
I1119 07:50:23.277519 22704 net.cpp:396] inception_5a/relu_5x5 -> inception_5a/5x5 (in-place)
I1119 07:50:23.277523 22704 net.cpp:144] Setting up inception_5a/relu_5x5
I1119 07:50:23.277525 22704 net.cpp:151] Top shape: 1 128 8 16 (16384)
I1119 07:50:23.277529 22704 net.cpp:159] Memory required for data: 187564036
I1119 07:50:23.277531 22704 layer_factory.hpp:77] Creating layer inception_5a/pool
I1119 07:50:23.277535 22704 net.cpp:94] Creating Layer inception_5a/pool
I1119 07:50:23.277537 22704 net.cpp:435] inception_5a/pool <- pool4/3x3_s2_pool4/3x3_s2_0_split_3
I1119 07:50:23.277540 22704 net.cpp:409] inception_5a/pool -> inception_5a/pool
I1119 07:50:23.277561 22704 net.cpp:144] Setting up inception_5a/pool
I1119 07:50:23.277565 22704 net.cpp:151] Top shape: 1 832 8 16 (106496)
I1119 07:50:23.277566 22704 net.cpp:159] Memory required for data: 187990020
I1119 07:50:23.277568 22704 layer_factory.hpp:77] Creating layer inception_5a/pool_proj
I1119 07:50:23.277573 22704 net.cpp:94] Creating Layer inception_5a/pool_proj
I1119 07:50:23.277576 22704 net.cpp:435] inception_5a/pool_proj <- inception_5a/pool
I1119 07:50:23.277580 22704 net.cpp:409] inception_5a/pool_proj -> inception_5a/pool_proj_raw
I1119 07:50:23.278964 22704 net.cpp:144] Setting up inception_5a/pool_proj
I1119 07:50:23.278970 22704 net.cpp:151] Top shape: 1 128 8 16 (16384)
I1119 07:50:23.278972 22704 net.cpp:159] Memory required for data: 188055556
I1119 07:50:23.278977 22704 layer_factory.hpp:77] Creating layer inception_5a/pool_proj_BatchNorm
I1119 07:50:23.278982 22704 net.cpp:94] Creating Layer inception_5a/pool_proj_BatchNorm
I1119 07:50:23.278986 22704 net.cpp:435] inception_5a/pool_proj_BatchNorm <- inception_5a/pool_proj_raw
I1119 07:50:23.278990 22704 net.cpp:409] inception_5a/pool_proj_BatchNorm -> inception_5a/pool_proj
I1119 07:50:23.279350 22704 net.cpp:144] Setting up inception_5a/pool_proj_BatchNorm
I1119 07:50:23.279354 22704 net.cpp:151] Top shape: 1 128 8 16 (16384)
I1119 07:50:23.279356 22704 net.cpp:159] Memory required for data: 188121092
I1119 07:50:23.279363 22704 layer_factory.hpp:77] Creating layer inception_5a/relu_pool_proj
I1119 07:50:23.279366 22704 net.cpp:94] Creating Layer inception_5a/relu_pool_proj
I1119 07:50:23.279369 22704 net.cpp:435] inception_5a/relu_pool_proj <- inception_5a/pool_proj
I1119 07:50:23.279372 22704 net.cpp:396] inception_5a/relu_pool_proj -> inception_5a/pool_proj (in-place)
I1119 07:50:23.279376 22704 net.cpp:144] Setting up inception_5a/relu_pool_proj
I1119 07:50:23.279378 22704 net.cpp:151] Top shape: 1 128 8 16 (16384)
I1119 07:50:23.279381 22704 net.cpp:159] Memory required for data: 188186628
I1119 07:50:23.279383 22704 layer_factory.hpp:77] Creating layer inception_5a/output
I1119 07:50:23.279387 22704 net.cpp:94] Creating Layer inception_5a/output
I1119 07:50:23.279389 22704 net.cpp:435] inception_5a/output <- inception_5a/1x1
I1119 07:50:23.279392 22704 net.cpp:435] inception_5a/output <- inception_5a/3x3
I1119 07:50:23.279395 22704 net.cpp:435] inception_5a/output <- inception_5a/5x5
I1119 07:50:23.279397 22704 net.cpp:435] inception_5a/output <- inception_5a/pool_proj
I1119 07:50:23.279400 22704 net.cpp:409] inception_5a/output -> inception_5a/output
I1119 07:50:23.279414 22704 net.cpp:144] Setting up inception_5a/output
I1119 07:50:23.279415 22704 net.cpp:151] Top shape: 1 832 8 16 (106496)
I1119 07:50:23.279418 22704 net.cpp:159] Memory required for data: 188612612
I1119 07:50:23.279420 22704 layer_factory.hpp:77] Creating layer inception_5a/output_inception_5a/output_0_split
I1119 07:50:23.279424 22704 net.cpp:94] Creating Layer inception_5a/output_inception_5a/output_0_split
I1119 07:50:23.279426 22704 net.cpp:435] inception_5a/output_inception_5a/output_0_split <- inception_5a/output
I1119 07:50:23.279430 22704 net.cpp:409] inception_5a/output_inception_5a/output_0_split -> inception_5a/output_inception_5a/output_0_split_0
I1119 07:50:23.279433 22704 net.cpp:409] inception_5a/output_inception_5a/output_0_split -> inception_5a/output_inception_5a/output_0_split_1
I1119 07:50:23.279436 22704 net.cpp:409] inception_5a/output_inception_5a/output_0_split -> inception_5a/output_inception_5a/output_0_split_2
I1119 07:50:23.279439 22704 net.cpp:409] inception_5a/output_inception_5a/output_0_split -> inception_5a/output_inception_5a/output_0_split_3
I1119 07:50:23.279472 22704 net.cpp:144] Setting up inception_5a/output_inception_5a/output_0_split
I1119 07:50:23.279475 22704 net.cpp:151] Top shape: 1 832 8 16 (106496)
I1119 07:50:23.279477 22704 net.cpp:151] Top shape: 1 832 8 16 (106496)
I1119 07:50:23.279480 22704 net.cpp:151] Top shape: 1 832 8 16 (106496)
I1119 07:50:23.279482 22704 net.cpp:151] Top shape: 1 832 8 16 (106496)
I1119 07:50:23.279485 22704 net.cpp:159] Memory required for data: 190316548
I1119 07:50:23.279487 22704 layer_factory.hpp:77] Creating layer inception_5b/1x1
I1119 07:50:23.279492 22704 net.cpp:94] Creating Layer inception_5b/1x1
I1119 07:50:23.279495 22704 net.cpp:435] inception_5b/1x1 <- inception_5a/output_inception_5a/output_0_split_0
I1119 07:50:23.279497 22704 net.cpp:409] inception_5b/1x1 -> inception_5b/1x1_raw
I1119 07:50:23.283130 22704 net.cpp:144] Setting up inception_5b/1x1
I1119 07:50:23.283151 22704 net.cpp:151] Top shape: 1 384 8 16 (49152)
I1119 07:50:23.283160 22704 net.cpp:159] Memory required for data: 190513156
I1119 07:50:23.283171 22704 layer_factory.hpp:77] Creating layer inception_5b/1x1_BatchNorm
I1119 07:50:23.283183 22704 net.cpp:94] Creating Layer inception_5b/1x1_BatchNorm
I1119 07:50:23.283190 22704 net.cpp:435] inception_5b/1x1_BatchNorm <- inception_5b/1x1_raw
I1119 07:50:23.283196 22704 net.cpp:409] inception_5b/1x1_BatchNorm -> inception_5b/1x1
I1119 07:50:23.283574 22704 net.cpp:144] Setting up inception_5b/1x1_BatchNorm
I1119 07:50:23.283581 22704 net.cpp:151] Top shape: 1 384 8 16 (49152)
I1119 07:50:23.283584 22704 net.cpp:159] Memory required for data: 190709764
I1119 07:50:23.283592 22704 layer_factory.hpp:77] Creating layer inception_5b/relu_1x1
I1119 07:50:23.283598 22704 net.cpp:94] Creating Layer inception_5b/relu_1x1
I1119 07:50:23.283602 22704 net.cpp:435] inception_5b/relu_1x1 <- inception_5b/1x1
I1119 07:50:23.283607 22704 net.cpp:396] inception_5b/relu_1x1 -> inception_5b/1x1 (in-place)
I1119 07:50:23.283612 22704 net.cpp:144] Setting up inception_5b/relu_1x1
I1119 07:50:23.283615 22704 net.cpp:151] Top shape: 1 384 8 16 (49152)
I1119 07:50:23.283619 22704 net.cpp:159] Memory required for data: 190906372
I1119 07:50:23.283622 22704 layer_factory.hpp:77] Creating layer inception_5b/3x3_reduce
I1119 07:50:23.283629 22704 net.cpp:94] Creating Layer inception_5b/3x3_reduce
I1119 07:50:23.283633 22704 net.cpp:435] inception_5b/3x3_reduce <- inception_5a/output_inception_5a/output_0_split_1
I1119 07:50:23.283638 22704 net.cpp:409] inception_5b/3x3_reduce -> inception_5b/3x3_reduce_raw
I1119 07:50:23.284734 22704 net.cpp:144] Setting up inception_5b/3x3_reduce
I1119 07:50:23.284744 22704 net.cpp:151] Top shape: 1 192 8 16 (24576)
I1119 07:50:23.284750 22704 net.cpp:159] Memory required for data: 191004676
I1119 07:50:23.284755 22704 layer_factory.hpp:77] Creating layer inception_5b/3x3_reduce_BatchNorm
I1119 07:50:23.284762 22704 net.cpp:94] Creating Layer inception_5b/3x3_reduce_BatchNorm
…
I1119 07:50:23.598315 22704 net.cpp:159] Memory required for data: 167378948
I1119 07:50:23.598325 22704 layer_factory.hpp:77] Creating layer inception_4e/relu_1x1
I1119 07:50:23.598332 22704 net.cpp:94] Creating Layer inception_4e/relu_1x1
I1119 07:50:23.598338 22704 net.cpp:435] inception_4e/relu_1x1 <- inception_4e/1x1
I1119 07:50:23.598345 22704 net.cpp:396] inception_4e/relu_1x1 -> inception_4e/1x1 (in-place)
I1119 07:50:23.598352 22704 net.cpp:144] Setting up inception_4e/relu_1x1
I1119 07:50:23.598354 22704 net.cpp:151] Top shape: 1 256 16 32 (131072)
I1119 07:50:23.598357 22704 net.cpp:159] Memory required for data: 167903236
I1119 07:50:23.598361 22704 layer_factory.hpp:77] Creating layer inception_4e/3x3_reduce
I1119 07:50:23.598369 22704 net.cpp:94] Creating Layer inception_4e/3x3_reduce
I1119 07:50:23.598372 22704 net.cpp:435] inception_4e/3x3_reduce <- inception_4d/output_inception_4d/output_fixed_0_split_1
I1119 07:50:23.598377 22704 net.cpp:409] inception_4e/3x3_reduce -> inception_4e/3x3_reduce
I1119 07:50:23.599146 22704 layer_factory.hpp:77] Creating layer inception_4e/3x3_reduce
I1119 07:50:23.599838 22704 net.cpp:144] Setting up inception_4e/3x3_reduce
I1119 07:50:23.599844 22704 net.cpp:151] Top shape: 1 160 16 32 (81920)
I1119 07:50:23.599849 22704 net.cpp:159] Memory required for data: 168230916
I1119 07:50:23.599859 22704 layer_factory.hpp:77] Creating layer inception_4e/relu_3x3_reduce
I1119 07:50:23.599869 22704 net.cpp:94] Creating Layer inception_4e/relu_3x3_reduce
I1119 07:50:23.599874 22704 net.cpp:435] inception_4e/relu_3x3_reduce <- inception_4e/3x3_reduce
I1119 07:50:23.599879 22704 net.cpp:396] inception_4e/relu_3x3_reduce -> inception_4e/3x3_reduce (in-place)
I1119 07:50:23.599887 22704 net.cpp:144] Setting up inception_4e/relu_3x3_reduce
I1119 07:50:23.599889 22704 net.cpp:151] Top shape: 1 160 16 32 (81920)
I1119 07:50:23.599891 22704 net.cpp:159] Memory required for data: 168558596
I1119 07:50:23.599893 22704 layer_factory.hpp:77] Creating layer inception_4e/3x3_reduce_fixed
I1119 07:50:23.599898 22704 net.cpp:94] Creating Layer inception_4e/3x3_reduce_fixed
I1119 07:50:23.599900 22704 net.cpp:435] inception_4e/3x3_reduce_fixed <- inception_4e/3x3_reduce
I1119 07:50:23.599903 22704 net.cpp:396] inception_4e/3x3_reduce_fixed -> inception_4e/3x3_reduce (in-place)
I1119 07:50:23.599925 22704 net.cpp:144] Setting up inception_4e/3x3_reduce_fixed
I1119 07:50:23.599926 22704 net.cpp:151] Top shape: 1 160 16 32 (81920)
I1119 07:50:23.599929 22704 net.cpp:159] Memory required for data: 168886276
I1119 07:50:23.599931 22704 layer_factory.hpp:77] Creating layer inception_4e/3x3
I1119 07:50:23.599937 22704 net.cpp:94] Creating Layer inception_4e/3x3
I1119 07:50:23.599939 22704 net.cpp:435] inception_4e/3x3 <- inception_4e/3x3_reduce
I1119 07:50:23.599942 22704 net.cpp:409] inception_4e/3x3 -> inception_4e/3x3
I1119 07:50:23.605491 22704 layer_factory.hpp:77] Creating layer inception_4e/3x3
I1119 07:50:23.610085 22704 net.cpp:144] Setting up inception_4e/3x3
I1119 07:50:23.610105 22704 net.cpp:151] Top shape: 1 320 16 32 (163840)
I1119 07:50:23.610117 22704 net.cpp:159] Memory required for data: 169541636
I1119 07:50:23.610127 22704 layer_factory.hpp:77] Creating layer inception_4e/relu_3x3
I1119 07:50:23.610136 22704 net.cpp:94] Creating Layer inception_4e/relu_3x3
I1119 07:50:23.610141 22704 net.cpp:435] inception_4e/relu_3x3 <- inception_4e/3x3
I1119 07:50:23.610146 22704 net.cpp:396] inception_4e/relu_3x3 -> inception_4e/3x3 (in-place)
I1119 07:50:23.610155 22704 net.cpp:144] Setting up inception_4e/relu_3x3
I1119 07:50:23.610157 22704 net.cpp:151] Top shape: 1 320 16 32 (163840)
I1119 07:50:23.610159 22704 net.cpp:159] Memory required for data: 170196996
I1119 07:50:23.610162 22704 layer_factory.hpp:77] Creating layer inception_4e/5x5_reduce
I1119 07:50:23.610169 22704 net.cpp:94] Creating Layer inception_4e/5x5_reduce
I1119 07:50:23.610177 22704 net.cpp:435] inception_4e/5x5_reduce <- inception_4d/output_inception_4d/output_fixed_0_split_2
I1119 07:50:23.610181 22704 net.cpp:409] inception_4e/5x5_reduce -> inception_4e/5x5_reduce
I1119 07:50:23.610452 22704 layer_factory.hpp:77] Creating layer inception_4e/5x5_reduce
I1119 07:50:23.610838 22704 net.cpp:144] Setting up inception_4e/5x5_reduce
I1119 07:50:23.610846 22704 net.cpp:151] Top shape: 1 32 16 32 (16384)
I1119 07:50:23.610850 22704 net.cpp:159] Memory required for data: 170262532
I1119 07:50:23.610857 22704 layer_factory.hpp:77] Creating layer inception_4e/relu_5x5_reduce
I1119 07:50:23.610862 22704 net.cpp:94] Creating Layer inception_4e/relu_5x5_reduce
I1119 07:50:23.610865 22704 net.cpp:435] inception_4e/relu_5x5_reduce <- inception_4e/5x5_reduce
I1119 07:50:23.610870 22704 net.cpp:396] inception_4e/relu_5x5_reduce -> inception_4e/5x5_reduce (in-place)
I1119 07:50:23.610877 22704 net.cpp:144] Setting up inception_4e/relu_5x5_reduce
I1119 07:50:23.610880 22704 net.cpp:151] Top shape: 1 32 16 32 (16384)
I1119 07:50:23.610882 22704 net.cpp:159] Memory required for data: 170328068
I1119 07:50:23.610884 22704 layer_factory.hpp:77] Creating layer inception_4e/5x5_reduce_fixed
I1119 07:50:23.610889 22704 net.cpp:94] Creating Layer inception_4e/5x5_reduce_fixed
I1119 07:50:23.610891 22704 net.cpp:435] inception_4e/5x5_reduce_fixed <- inception_4e/5x5_reduce
I1119 07:50:23.610898 22704 net.cpp:396] inception_4e/5x5_reduce_fixed -> inception_4e/5x5_reduce (in-place)
I1119 07:50:23.610935 22704 net.cpp:144] Setting up inception_4e/5x5_reduce_fixed
I1119 07:50:23.610940 22704 net.cpp:151] Top shape: 1 32 16 32 (16384)
I1119 07:50:23.610944 22704 net.cpp:159] Memory required for data: 170393604
I1119 07:50:23.610949 22704 layer_factory.hpp:77] Creating layer inception_4e/5x5
I1119 07:50:23.610956 22704 net.cpp:94] Creating Layer inception_4e/5x5
I1119 07:50:23.610961 22704 net.cpp:435] inception_4e/5x5 <- inception_4e/5x5_reduce
I1119 07:50:23.610966 22704 net.cpp:409] inception_4e/5x5 -> inception_4e/5x5
I1119 07:50:23.612372 22704 layer_factory.hpp:77] Creating layer inception_4e/5x5
I1119 07:50:23.613229 22704 net.cpp:144] Setting up inception_4e/5x5
I1119 07:50:23.613238 22704 net.cpp:151] Top shape: 1 128 16 32 (65536)
I1119 07:50:23.613245 22704 net.cpp:159] Memory required for data: 170655748
I1119 07:50:23.613252 22704 layer_factory.hpp:77] Creating layer inception_4e/relu_5x5
I1119 07:50:23.613258 22704 net.cpp:94] Creating Layer inception_4e/relu_5x5
I1119 07:50:23.613263 22704 net.cpp:435] inception_4e/relu_5x5 <- inception_4e/5x5
I1119 07:50:23.613268 22704 net.cpp:396] inception_4e/relu_5x5 -> inception_4e/5x5 (in-place)
I1119 07:50:23.613274 22704 net.cpp:144] Setting up inception_4e/relu_5x5
I1119 07:50:23.613276 22704 net.cpp:151] Top shape: 1 128 16 32 (65536)
I1119 07:50:23.613279 22704 net.cpp:159] Memory required for data: 170917892
I1119 07:50:23.613281 22704 layer_factory.hpp:77] Creating layer inception_4e/pool
I1119 07:50:23.613286 22704 net.cpp:94] Creating Layer inception_4e/pool
I1119 07:50:23.613289 22704 net.cpp:435] inception_4e/pool <- inception_4d/output_inception_4d/output_fixed_0_split_3
I1119 07:50:23.613292 22704 net.cpp:409] inception_4e/pool -> inception_4e/pool
I1119 07:50:23.613315 22704 net.cpp:144] Setting up inception_4e/pool
I1119 07:50:23.613319 22704 net.cpp:151] Top shape: 1 528 16 32 (270336)
I1119 07:50:23.613322 22704 net.cpp:159] Memory required for data: 171999236
I1119 07:50:23.613324 22704 layer_factory.hpp:77] Creating layer inception_4e/pool_proj
I1119 07:50:23.613330 22704 net.cpp:94] Creating Layer inception_4e/pool_proj
I1119 07:50:23.613332 22704 net.cpp:435] inception_4e/pool_proj <- inception_4e/pool
I1119 07:50:23.613335 22704 net.cpp:409] inception_4e/pool_proj -> inception_4e/pool_proj
I1119 07:50:23.614459 22704 layer_factory.hpp:77] Creating layer inception_4e/pool_proj
I1119 07:50:23.615007 22704 net.cpp:144] Setting up inception_4e/pool_proj
I1119 07:50:23.615011 22704 net.cpp:151] Top shape: 1 128 16 32 (65536)
I1119 07:50:23.615015 22704 net.cpp:159] Memory required for data: 172261380
I1119 07:50:23.615020 22704 layer_factory.hpp:77] Creating layer inception_4e/relu_pool_proj
I1119 07:50:23.615022 22704 net.cpp:94] Creating Layer inception_4e/relu_pool_proj
I1119 07:50:23.615025 22704 net.cpp:435] inception_4e/relu_pool_proj <- inception_4e/pool_proj
I1119 07:50:23.615028 22704 net.cpp:396] inception_4e/relu_pool_proj -> inception_4e/pool_proj (in-place)
I1119 07:50:23.615032 22704 net.cpp:144] Setting up inception_4e/relu_pool_proj
I1119 07:50:23.615034 22704 net.cpp:151] Top shape: 1 128 16 32 (65536)
I1119 07:50:23.615037 22704 net.cpp:159] Memory required for data: 172523524
I1119 07:50:23.615038 22704 layer_factory.hpp:77] Creating layer inception_4e/output
I1119 07:50:23.615042 22704 net.cpp:94] Creating Layer inception_4e/output
I1119 07:50:23.615044 22704 net.cpp:435] inception_4e/output <- inception_4e/1x1
I1119 07:50:23.615046 22704 net.cpp:435] inception_4e/output <- inception_4e/3x3
I1119 07:50:23.615048 22704 net.cpp:435] inception_4e/output <- inception_4e/5x5
I1119 07:50:23.615051 22704 net.cpp:435] inception_4e/output <- inception_4e/pool_proj
I1119 07:50:23.615054 22704 net.cpp:409] inception_4e/output -> inception_4e/output
I1119 07:50:23.615067 22704 net.cpp:144] Setting up inception_4e/output
I1119 07:50:23.615070 22704 net.cpp:151] Top shape: 1 832 16 32 (425984)
I1119 07:50:23.615072 22704 net.cpp:159] Memory required for data: 174227460
I1119 07:50:23.615075 22704 layer_factory.hpp:77] Creating layer inception_4e/output_fixed
I1119 07:50:23.615082 22704 net.cpp:94] Creating Layer inception_4e/output_fixed
I1119 07:50:23.615083 22704 net.cpp:435] inception_4e/output_fixed <- inception_4e/output
I1119 07:50:23.615085 22704 net.cpp:396] inception_4e/output_fixed -> inception_4e/output (in-place)
I1119 07:50:23.615108 22704 net.cpp:144] Setting up inception_4e/output_fixed
I1119 07:50:23.615109 22704 net.cpp:151] Top shape: 1 832 16 32 (425984)
I1119 07:50:23.615113 22704 net.cpp:159] Memory required for data: 175931396
I1119 07:50:23.615116 22704 layer_factory.hpp:77] Creating layer inception_4e/output_inception_4e/output_fixed_0_split
I1119 07:50:23.615121 22704 net.cpp:94] Creating Layer inception_4e/output_inception_4e/output_fixed_0_split
I1119 07:50:23.615123 22704 net.cpp:435] inception_4e/output_inception_4e/output_fixed_0_split <- inception_4e/output
I1119 07:50:23.615126 22704 net.cpp:409] inception_4e/output_inception_4e/output_fixed_0_split -> inception_4e/output_inception_4e/output_fixed_0_split_0
I1119 07:50:23.615129 22704 net.cpp:409] inception_4e/output_inception_4e/output_fixed_0_split -> inception_4e/output_inception_4e/output_fixed_0_split_1
I1119 07:50:23.615149 22704 net.cpp:144] Setting up inception_4e/output_inception_4e/output_fixed_0_split
I1119 07:50:23.615152 22704 net.cpp:151] Top shape: 1 832 16 32 (425984)
I1119 07:50:23.615154 22704 net.cpp:151] Top shape: 1 832 16 32 (425984)
I1119 07:50:23.615157 22704 net.cpp:159] Memory required for data: 179339268
I1119 07:50:23.615159 22704 layer_factory.hpp:77] Creating layer pool4/3x3_s2
I1119 07:50:23.615164 22704 net.cpp:94] Creating Layer pool4/3x3_s2
I1119 07:50:23.615164 22704 net.cpp:435] pool4/3x3_s2 <- inception_4e/output_inception_4e/output_fixed_0_split_0
I1119 07:50:23.615168 22704 net.cpp:409] pool4/3x3_s2 -> pool4/3x3_s2
I1119 07:50:23.615190 22704 net.cpp:144] Setting up pool4/3x3_s2
I1119 07:50:23.615193 22704 net.cpp:151] Top shape: 1 832 8 16 (106496)
I1119 07:50:23.615196 22704 net.cpp:159] Memory required for data: 179765252
I1119 07:50:23.615198 22704 layer_factory.hpp:77] Creating layer pool4/3x3_s2_pool4/3x3_s2_0_split
I1119 07:50:23.615202 22704 net.cpp:94] Creating Layer pool4/3x3_s2_pool4/3x3_s2_0_split
I1119 07:50:23.615204 22704 net.cpp:435] pool4/3x3_s2_pool4/3x3_s2_0_split <- pool4/3x3_s2
I1119 07:50:23.615207 22704 net.cpp:409] pool4/3x3_s2_pool4/3x3_s2_0_split -> pool4/3x3_s2_pool4/3x3_s2_0_split_0
I1119 07:50:23.615211 22704 net.cpp:409] pool4/3x3_s2_pool4/3x3_s2_0_split -> pool4/3x3_s2_pool4/3x3_s2_0_split_1
I1119 07:50:23.615213 22704 net.cpp:409] pool4/3x3_s2_pool4/3x3_s2_0_split -> pool4/3x3_s2_pool4/3x3_s2_0_split_2
I1119 07:50:23.615218 22704 net.cpp:409] pool4/3x3_s2_pool4/3x3_s2_0_split -> pool4/3x3_s2_pool4/3x3_s2_0_split_3
I1119 07:50:23.615252 22704 net.cpp:144] Setting up pool4/3x3_s2_pool4/3x3_s2_0_split
I1119 07:50:23.615255 22704 net.cpp:151] Top shape: 1 832 8 16 (106496)
I1119 07:50:23.615258 22704 net.cpp:151] Top shape: 1 832 8 16 (106496)
I1119 07:50:23.615262 22704 net.cpp:151] Top shape: 1 832 8 16 (106496)
I1119 07:50:23.615264 22704 net.cpp:151] Top shape: 1 832 8 16 (106496)
I1119 07:50:23.615267 22704 net.cpp:159] Memory required for data: 181469188
I1119 07:50:23.615269 22704 layer_factory.hpp:77] Creating layer inception_5a/1x1
I1119 07:50:23.615275 22704 net.cpp:94] Creating Layer inception_5a/1x1
I1119 07:50:23.615278 22704 net.cpp:435] inception_5a/1x1 <- pool4/3x3_s2_pool4/3x3_s2_0_split_0
I1119 07:50:23.615283 22704 net.cpp:409] inception_5a/1x1 -> inception_5a/1x1
I1119 07:50:23.617630 22704 layer_factory.hpp:77] Creating layer inception_5a/1x1
I1119 07:50:23.620499 22704 net.cpp:144] Setting up inception_5a/1x1
I1119 07:50:23.620520 22704 net.cpp:151] Top shape: 1 256 8 16 (32768)
I1119 07:50:23.620530 22704 net.cpp:159] Memory required for data: 181600260
I1119 07:50:23.620540 22704 layer_factory.hpp:77] Creating layer inception_5a/relu_1x1
I1119 07:50:23.620550 22704 net.cpp:94] Creating Layer inception_5a/relu_1x1
I1119 07:50:23.620556 22704 net.cpp:435] inception_5a/relu_1x1 <- inception_5a/1x1
I1119 07:50:23.620565 22704 net.cpp:396] inception_5a/relu_1x1 -> inception_5a/1x1 (in-place)
I1119 07:50:23.620574 22704 net.cpp:144] Setting up inception_5a/relu_1x1
I1119 07:50:23.620577 22704 net.cpp:151] Top shape: 1 256 8 16 (32768)
I1119 07:50:23.620581 22704 net.cpp:159] Memory required for data: 181731332
I1119 07:50:23.620584 22704 layer_factory.hpp:77] Creating layer inception_5a/3x3_reduce
I1119 07:50:23.620594 22704 net.cpp:94] Creating Layer inception_5a/3x3_reduce
I1119 07:50:23.620597 22704 net.cpp:435] inception_5a/3x3_reduce <- pool4/3x3_s2_pool4/3x3_s2_0_split_1
I1119 07:50:23.620602 22704 net.cpp:409] inception_5a/3x3_reduce -> inception_5a/3x3_reduce
I1119 07:50:23.621606 22704 layer_factory.hpp:77] Creating layer inception_5a/3x3_reduce
I1119 07:50:23.623327 22704 net.cpp:144] Setting up inception_5a/3x3_reduce
I1119 07:50:23.623340 22704 net.cpp:151] Top shape: 1 160 8 16 (20480)
I1119 07:50:23.623349 22704 net.cpp:159] Memory required for data: 181813252
I1119 07:50:23.623360 22704 layer_factory.hpp:77] Creating layer inception_5a/relu_3x3_reduce
I1119 07:50:23.623369 22704 net.cpp:94] Creating Layer inception_5a/relu_3x3_reduce
I1119 07:50:23.623375 22704 net.cpp:435] inception_5a/relu_3x3_reduce <- inception_5a/3x3_reduce
I1119 07:50:23.623383 22704 net.cpp:396] inception_5a/relu_3x3_reduce -> inception_5a/3x3_reduce (in-place)
I1119 07:50:23.623391 22704 net.cpp:144] Setting up inception_5a/relu_3x3_reduce
I1119 07:50:23.623394 22704 net.cpp:151] Top shape: 1 160 8 16 (20480)
I1119 07:50:23.623399 22704 net.cpp:159] Memory required for data: 181895172
I1119 07:50:23.623400 22704 layer_factory.hpp:77] Creating layer inception_5a/3x3_reduce_fixed
I1119 07:50:23.623407 22704 net.cpp:94] Creating Layer inception_5a/3x3_reduce_fixed
I1119 07:50:23.623410 22704 net.cpp:435] inception_5a/3x3_reduce_fixed <- inception_5a/3x3_reduce
I1119 07:50:23.623415 22704 net.cpp:396] inception_5a/3x3_reduce_fixed -> inception_5a/3x3_reduce (in-place)
I1119 07:50:23.623440 22704 net.cpp:144] Setting up inception_5a/3x3_reduce_fixed
I1119 07:50:23.623443 22704 net.cpp:151] Top shape: 1 160 8 16 (20480)
I1119 07:50:23.623447 22704 net.cpp:159] Memory required for data: 181977092
I1119 07:50:23.623451 22704 layer_factory.hpp:77] Creating layer inception_5a/3x3
I1119 07:50:23.623459 22704 net.cpp:94] Creating Layer inception_5a/3x3
I1119 07:50:23.623462 22704 net.cpp:435] inception_5a/3x3 <- inception_5a/3x3_reduce
I1119 07:50:23.623467 22704 net.cpp:409] inception_5a/3x3 -> inception_5a/3x3
I1119 07:50:23.628368 22704 layer_factory.hpp:77] Creating layer inception_5a/3x3
I1119 07:50:23.632885 22704 net.cpp:144] Setting up inception_5a/3x3
I1119 07:50:23.632903 22704 net.cpp:151] Top shape: 1 320 8 16 (40960)
I1119 07:50:23.632910 22704 net.cpp:159] Memory required for data: 182140932
I1119 07:50:23.632920 22704 layer_factory.hpp:77] Creating layer inception_5a/relu_3x3
I1119 07:50:23.632926 22704 net.cpp:94] Creating Layer inception_5a/relu_3x3
I1119 07:50:23.632931 22704 net.cpp:435] inception_5a/relu_3x3 <- inception_5a/3x3
I1119 07:50:23.632936 22704 net.cpp:396] inception_5a/relu_3x3 -> inception_5a/3x3 (in-place)
I1119 07:50:23.632942 22704 net.cpp:144] Setting up inception_5a/relu_3x3
I1119 07:50:23.632944 22704 net.cpp:151] Top shape: 1 320 8 16 (40960)
I1119 07:50:23.632947 22704 net.cpp:159] Memory required for data: 182304772
I1119 07:50:23.632949 22704 layer_factory.hpp:77] Creating layer inception_5a/5x5_reduce
I1119 07:50:23.632958 22704 net.cpp:94] Creating Layer inception_5a/5x5_reduce
I1119 07:50:23.632961 22704 net.cpp:435] inception_5a/5x5_reduce <- pool4/3x3_s2_pool4/3x3_s2_0_split_2
I1119 07:50:23.632966 22704 net.cpp:409] inception_5a/5x5_reduce -> inception_5a/5x5_reduce
I1119 07:50:23.633276 22704 layer_factory.hpp:77] Creating layer inception_5a/5x5_reduce
I1119 07:50:23.633649 22704 net.cpp:144] Setting up inception_5a/5x5_reduce
I1119 07:50:23.633653 22704 net.cpp:151] Top shape: 1 32 8 16 (4096)
I1119 07:50:23.633656 22704 net.cpp:159] Memory required for data: 182321156
I1119 07:50:23.633661 22704 layer_factory.hpp:77] Creating layer inception_5a/relu_5x5_reduce
I1119 07:50:23.633664 22704 net.cpp:94] Creating Layer inception_5a/relu_5x5_reduce
I1119 07:50:23.633667 22704 net.cpp:435] inception_5a/relu_5x5_reduce <- inception_5a/5x5_reduce
I1119 07:50:23.633671 22704 net.cpp:396] inception_5a/relu_5x5_reduce -> inception_5a/5x5_reduce (in-place)
I1119 07:50:23.633674 22704 net.cpp:144] Setting up inception_5a/relu_5x5_reduce
I1119 07:50:23.633677 22704 net.cpp:151] Top shape: 1 32 8 16 (4096)
I1119 07:50:23.633680 22704 net.cpp:159] Memory required for data: 182337540
I1119 07:50:23.633682 22704 layer_factory.hpp:77] Creating layer inception_5a/5x5_reduce_fixed
I1119 07:50:23.633687 22704 net.cpp:94] Creating Layer inception_5a/5x5_reduce_fixed
I1119 07:50:23.633689 22704 net.cpp:435] inception_5a/5x5_reduce_fixed <- inception_5a/5x5_reduce
I1119 07:50:23.633692 22704 net.cpp:396] inception_5a/5x5_reduce_fixed -> inception_5a/5x5_reduce (in-place)
I1119 07:50:23.633714 22704 net.cpp:144] Setting up inception_5a/5x5_reduce_fixed
I1119 07:50:23.633718 22704 net.cpp:151] Top shape: 1 32 8 16 (4096)
I1119 07:50:23.633720 22704 net.cpp:159] Memory required for data: 182353924
I1119 07:50:23.633723 22704 layer_factory.hpp:77] Creating layer inception_5a/5x5
I1119 07:50:23.633728 22704 net.cpp:94] Creating Layer inception_5a/5x5
I1119 07:50:23.633729 22704 net.cpp:435] inception_5a/5x5 <- inception_5a/5x5_reduce
I1119 07:50:23.633733 22704 net.cpp:409] inception_5a/5x5 -> inception_5a/5x5
I1119 07:50:23.634440 22704 layer_factory.hpp:77] Creating layer inception_5a/5x5
I1119 07:50:23.637075 22704 net.cpp:144] Setting up inception_5a/5x5
I1119 07:50:23.637097 22704 net.cpp:151] Top shape: 1 128 8 16 (16384)
I1119 07:50:23.637106 22704 net.cpp:159] Memory required for data: 182419460
I1119 07:50:23.637118 22704 layer_factory.hpp:77] Creating layer inception_5a/relu_5x5
I1119 07:50:23.637128 22704 net.cpp:94] Creating Layer inception_5a/relu_5x5
I1119 07:50:23.637135 22704 net.cpp:435] inception_5a/relu_5x5 <- inception_5a/5x5
I1119 07:50:23.637141 22704 net.cpp:396] inception_5a/relu_5x5 -> inception_5a/5x5 (in-place)
I1119 07:50:23.637151 22704 net.cpp:144] Setting up inception_5a/relu_5x5
I1119 07:50:23.637153 22704 net.cpp:151] Top shape: 1 128 8 16 (16384)
I1119 07:50:23.637158 22704 net.cpp:159] Memory required for data: 182484996
I1119 07:50:23.637161 22704 layer_factory.hpp:77] Creating layer inception_5a/pool
I1119 07:50:23.637168 22704 net.cpp:94] Creating Layer inception_5a/pool
I1119 07:50:23.637172 22704 net.cpp:435] inception_5a/pool <- pool4/3x3_s2_pool4/3x3_s2_0_split_3
I1119 07:50:23.637178 22704 net.cpp:409] inception_5a/pool -> inception_5a/pool
I1119 07:50:23.637213 22704 net.cpp:144] Setting up inception_5a/pool
I1119 07:50:23.637220 22704 net.cpp:151] Top shape: 1 832 8 16 (106496)
I1119 07:50:23.637225 22704 net.cpp:159] Memory required for data: 182910980
I1119 07:50:23.637228 22704 layer_factory.hpp:77] Creating layer inception_5a/pool_proj
I1119 07:50:23.637238 22704 net.cpp:94] Creating Layer inception_5a/pool_proj
I1119 07:50:23.637243 22704 net.cpp:435] inception_5a/pool_proj <- inception_5a/pool
I1119 07:50:23.637248 22704 net.cpp:409] inception_5a/pool_proj -> inception_5a/pool_proj
I1119 07:50:23.638409 22704 layer_factory.hpp:77] Creating layer inception_5a/pool_proj
I1119 07:50:23.641197 22704 net.cpp:144] Setting up inception_5a/pool_proj
I1119 07:50:23.641211 22704 net.cpp:151] Top shape: 1 128 8 16 (16384)
I1119 07:50:23.641219 22704 net.cpp:159] Memory required for data: 182976516
I1119 07:50:23.641237 22704 layer_factory.hpp:77] Creating layer inception_5a/relu_pool_proj
I1119 07:50:23.641245 22704 net.cpp:94] Creating Layer inception_5a/relu_pool_proj
I1119 07:50:23.641250 22704 net.cpp:435] inception_5a/relu_pool_proj <- inception_5a/pool_proj
I1119 07:50:23.641258 22704 net.cpp:396] inception_5a/relu_pool_proj -> inception_5a/pool_proj (in-place)
I1119 07:50:23.641265 22704 net.cpp:144] Setting up inception_5a/relu_pool_proj
I1119 07:50:23.641269 22704 net.cpp:151] Top shape: 1 128 8 16 (16384)
I1119 07:50:23.641273 22704 net.cpp:159] Memory required for data: 183042052
I1119 07:50:23.641275 22704 layer_factory.hpp:77] Creating layer inception_5a/output
I1119 07:50:23.641280 22704 net.cpp:94] Creating Layer inception_5a/output
I1119 07:50:23.641283 22704 net.cpp:435] inception_5a/output <- inception_5a/1x1
I1119 07:50:23.641286 22704 net.cpp:435] inception_5a/output <- inception_5a/3x3
I1119 07:50:23.641290 22704 net.cpp:435] inception_5a/output <- inception_5a/5x5
I1119 07:50:23.641294 22704 net.cpp:435] inception_5a/output <- inception_5a/pool_proj
I1119 07:50:23.641296 22704 net.cpp:409] inception_5a/output -> inception_5a/output
I1119 07:50:23.641314 22704 net.cpp:144] Setting up inception_5a/output
I1119 07:50:23.641317 22704 net.cpp:151] Top shape: 1 832 8 16 (106496)
I1119 07:50:23.641321 22704 net.cpp:159] Memory required for data: 183468036
I1119 07:50:23.641324 22704 layer_factory.hpp:77] Creating layer inception_5a/output_fixed
I1119 07:50:23.641330 22704 net.cpp:94] Creating Layer inception_5a/output_fixed
I1119 07:50:23.641335 22704 net.cpp:435] inception_5a/output_fixed <- inception_5a/output
I1119 07:50:23.641338 22704 net.cpp:396] inception_5a/output_fixed -> inception_5a/output (in-place)
I1119 07:50:23.641367 22704 net.cpp:144] Setting up inception_5a/output_fixed
I1119 07:50:23.641371 22704 net.cpp:151] Top shape: 1 832 8 16 (106496)
I1119 07:50:23.641374 22704 net.cpp:159] Memory required for data: 183894020
I1119 07:50:23.641378 22704 layer_factory.hpp:77] Creating layer inception_5a/output_inception_5a/output_fixed_0_split
I1119 07:50:23.641383 22704 net.cpp:94] Creating Layer inception_5a/output_inception_5a/output_fixed_0_split
I1119 07:50:23.641386 22704 net.cpp:435] inception_5a/output_inception_5a/output_fixed_0_split <- inception_5a/output
I1119 07:50:23.641391 22704 net.cpp:409] inception_5a/output_inception_5a/output_fixed_0_split -> inception_5a/output_inception_5a/output_fixed_0_split_0
I1119 07:50:23.641396 22704 net.cpp:409] inception_5a/output_inception_5a/output_fixed_0_split -> inception_5a/output_inception_5a/output_fixed_0_split_1
I1119 07:50:23.641400 22704 net.cpp:409] inception_5a/output_inception_5a/output_fixed_0_split -> inception_5a/output_inception_5a/output_fixed_0_split_2
I1119 07:50:23.641404 22704 net.cpp:409] inception_5a/output_inception_5a/output_fixed_0_split -> inception_5a/output_inception_5a/output_fixed_0_split_3
I1119 07:50:23.641450 22704 net.cpp:144] Setting up inception_5a/output_inception_5a/output_fixed_0_split
I1119 07:50:23.641454 22704 net.cpp:151] Top shape: 1 832 8 16 (106496)
I1119 07:50:23.641458 22704 net.cpp:151] Top shape: 1 832 8 16 (106496)
I1119 07:50:23.641461 22704 net.cpp:151] Top shape: 1 832 8 16 (106496)
I1119 07:50:23.641465 22704 net.cpp:151] Top shape: 1 832 8 16 (106496)
I1119 07:50:23.641469 22704 net.cpp:159] Memory required for data: 185597956
I1119 07:50:23.641470 22704 layer_factory.hpp:77] Creating layer inception_5b/1x1
I1119 07:50:23.641479 22704 net.cpp:94] Creating Layer inception_5b/1x1
I1119 07:50:23.641481 22704 net.cpp:435] inception_5b/1x1 <- inception_5a/output_inception_5a/output_fixed_0_split_0
I1119 07:50:23.641486 22704 net.cpp:409] inception_5b/1x1 -> inception_5b/1x1
I1119 07:50:23.645743 22704 layer_factory.hpp:77] Creating layer inception_5b/1x1
I1119 07:50:23.649497 22704 net.cpp:144] Setting up inception_5b/1x1
I1119 07:50:23.649511 22704 net.cpp:151] Top shape: 1 384 8 16 (49152)
I1119 07:50:23.649518 22704 net.cpp:159] Memory required for data: 185794564
I1119 07:50:23.649528 22704 layer_factory.hpp:77] Creating layer inception_5b/relu_1x1
I1119 07:50:23.649533 22704 net.cpp:94] Creating Layer inception_5b/relu_1x1
I1119 07:50:23.649538 22704 net.cpp:435] inception_5b/relu_1x1 <- inception_5b/1x1
I1119 07:50:23.649541 22704 net.cpp:396] inception_5b/relu_1x1 -> inception_5b/1x1 (in-place)
I1119 07:50:23.649549 22704 net.cpp:144] Setting up inception_5b/relu_1x1
I1119 07:50:23.649549 22704 net.cpp:151] Top shape: 1 384 8 16 (49152)
I1119 07:50:23.649552 22704 net.cpp:159] Memory required for data: 185991172
I1119 07:50:23.649554 22704 layer_factory.hpp:77] Creating layer inception_5b/3x3_reduce
I1119 07:50:23.649561 22704 net.cpp:94] Creating Layer inception_5b/3x3_reduce
I1119 07:50:23.649564 22704 net.cpp:435] inception_5b/3x3_reduce <- inception_5a/output_inception_5a/output_fixed_0_split_1
I1119 07:50:23.649567 22704 net.cpp:409] inception_5b/3x3_reduce -> inception_5b/3x3_reduce
I1119 07:50:23.650550 22704 layer_factory.hpp:77] Creating layer inception_5b/3x3_reduce
I1119 07:50:23.652740 22704 net.cpp:144] Setting up inception_5b/3x3_reduce
I1119 07:50:23.652756 22704 net.cpp:151] Top shape: 1 192 8 16 (24576)
I1119 07:50:23.652765 22704 net.cpp:159] Memory required for data: 186089476
I1119 07:50:23.652781 22704 layer_factory.hpp:77] Creating layer inception_5b/relu_3x3_reduce
I1119 07:50:23.652791 22704 net.cpp:94] Creating Layer inception_5b/relu_3x3_reduce
I1119 07:50:23.652798 22704 net.cpp:435] inception_5b/relu_3x3_reduce <- inception_5b/3x3_reduce
I1119 07:50:23.652806 22704 net.cpp:396] inception_5b/relu_3x3_reduce -> inception_5b/3x3_reduce (in-place)
I1119 07:50:23.652813 22704 net.cpp:144] Setting up inception_5b/relu_3x3_reduce
I1119 07:50:23.652819 22704 net.cpp:151] Top shape: 1 192 8 16 (24576)
I1119 07:50:23.652823 22704 net.cpp:159] Memory required for data: 186187780
I1119 07:50:23.652825 22704 layer_factory.hpp:77] Creating layer inception_5b/3x3_reduce_fixed
I1119 07:50:23.652833 22704 net.cpp:94] Creating Layer inception_5b/3x3_reduce_fixed
I1119 07:50:23.652835 22704 net.cpp:435] inception_5b/3x3_reduce_fixed <- inception_5b/3x3_reduce
I1119 07:50:23.652838 22704 net.cpp:396] inception_5b/3x3_reduce_fixed -> inception_5b/3x3_reduce (in-place)
I1119 07:50:23.653232 22704 net.cpp:144] Setting up inception_5b/3x3_reduce_fixed
I1119 07:50:23.653239 22704 net.cpp:151] Top shape: 1 192 8 16 (24576)
I1119 07:50:23.653244 22704 net.cpp:159] Memory required for data: 186286084
I1119 07:50:23.653249 22704 layer_factory.hpp:77] Creating layer inception_5b/3x3
I1119 07:50:23.653337 22704 net.cpp:94] Creating Layer inception_5b/3x3
I1119 07:50:23.653347 22704 net.cpp:435] inception_5b/3x3 <- inception_5b/3x3_reduce
I1119 07:50:23.653352 22704 net.cpp:409] inception_5b/3x3 -> inception_5b/3x3
I1119 07:50:23.659651 22704 layer_factory.hpp:77] Creating layer inception_5b/3x3
I1119 07:50:23.665010 22704 net.cpp:144] Setting up inception_5b/3x3
I1119 07:50:23.665072 22704 net.cpp:151] Top shape: 1 384 8 16 (49152)
I1119 07:50:23.665088 22704 net.cpp:159] Memory required for data: 186482692
I1119 07:50:23.665102 22704 layer_factory.hpp:77] Creating layer inception_5b/relu_3x3
I1119 07:50:23.665112 22704 net.cpp:94] Creating Layer inception_5b/relu_3x3
I1119 07:50:23.665117 22704 net.cpp:435] inception_5b/relu_3x3 <- inception_5b/3x3
I1119 07:50:23.665123 22704 net.cpp:396] inception_5b/relu_3x3 -> inception_5b/3x3 (in-place)
I1119 07:50:23.665132 22704 net.cpp:144] Setting up inception_5b/relu_3x3
I1119 07:50:23.665135 22704 net.cpp:151] Top shape: 1 384 8 16 (49152)
I1119 07:50:23.665138 22704 net.cpp:159] Memory required for data: 186679300
I1119 07:50:23.665141 22704 layer_factory.hpp:77] Creating layer inception_5b/5x5_reduce
I1119 07:50:23.665151 22704 net.cpp:94] Creating Layer inception_5b/5x5_reduce
I1119 07:50:23.665159 22704 net.cpp:435] inception_5b/5x5_reduce <- inception_5a/output_inception_5a/output_fixed_0_split_2
I1119 07:50:23.665164 22704 net.cpp:409] inception_5b/5x5_reduce -> inception_5b/5x5_reduce
I1119 07:50:23.665648 22704 layer_factory.hpp:77] Creating layer inception_5b/5x5_reduce
I1119 07:50:23.666090 22704 net.cpp:144] Setting up inception_5b/5x5_reduce
I1119 07:50:23.666095 22704 net.cpp:151] Top shape: 1 48 8 16 (6144)
I1119 07:50:23.666098 22704 net.cpp:159] Memory required for data: 186703876
I1119 07:50:23.666105 22704 layer_factory.hpp:77] Creating layer inception_5b/relu_5x5_reduce
I1119 07:50:23.666107 22704 net.cpp:94] Creating Layer inception_5b/relu_5x5_reduce
I1119 07:50:23.666110 22704 net.cpp:435] inception_5b/relu_5x5_reduce <- inception_5b/5x5_reduce
I1119 07:50:23.666112 22704 net.cpp:396] inception_5b/relu_5x5_reduce -> inception_5b/5x5_reduce (in-place)
I1119 07:50:23.666116 22704 net.cpp:144] Setting up inception_5b/relu_5x5_reduce
I1119 07:50:23.666118 22704 net.cpp:151] Top shape: 1 48 8 16 (6144)
I1119 07:50:23.666121 22704 net.cpp:159] Memory required for data: 186728452
I1119 07:50:23.666122 22704 layer_factory.hpp:77] Creating layer inception_5b/5x5_reduce_fixed
I1119 07:50:23.666126 22704 net.cpp:94] Creating Layer inception_5b/5x5_reduce_fixed
I1119 07:50:23.666128 22704 net.cpp:435] inception_5b/5x5_reduce_fixed <- inception_5b/5x5_reduce
I1119 07:50:23.666131 22704 net.cpp:396] inception_5b/5x5_reduce_fixed -> inception_5b/5x5_reduce (in-place)
I1119 07:50:23.666150 22704 net.cpp:144] Setting up inception_5b/5x5_reduce_fixed
I1119 07:50:23.666153 22704 net.cpp:151] Top shape: 1 48 8 16 (6144)
I1119 07:50:23.666155 22704 net.cpp:159] Memory required for data: 186753028
I1119 07:50:23.666158 22704 layer_factory.hpp:77] Creating layer inception_5b/5x5
I1119 07:50:23.666162 22704 net.cpp:94] Creating Layer inception_5b/5x5
I1119 07:50:23.666164 22704 net.cpp:435] inception_5b/5x5 <- inception_5b/5x5_reduce
I1119 07:50:23.666167 22704 net.cpp:409] inception_5b/5x5 -> inception_5b/5x5
I1119 07:50:23.667183 22704 layer_factory.hpp:77] Creating layer inception_5b/5x5
I1119 07:50:23.670524 22704 net.cpp:144] Setting up inception_5b/5x5
I1119 07:50:23.670545 22704 net.cpp:151] Top shape: 1 128 8 16 (16384)
I1119 07:50:23.670553 22704 net.cpp:159] Memory required for data: 186818564
I1119 07:50:23.670563 22704 layer_factory.hpp:77] Creating layer inception_5b/relu_5x5
I1119 07:50:23.670572 22704 net.cpp:94] Creating Layer inception_5b/relu_5x5
I1119 07:50:23.670576 22704 net.cpp:435] inception_5b/relu_5x5 <- inception_5b/5x5
I1119 07:50:23.670583 22704 net.cpp:396] inception_5b/relu_5x5 -> inception_5b/5x5 (in-place)
I1119 07:50:23.670588 22704 net.cpp:144] Setting up inception_5b/relu_5x5
I1119 07:50:23.670590 22704 net.cpp:151] Top shape: 1 128 8 16 (16384)
I1119 07:50:23.670593 22704 net.cpp:159] Memory required for data: 186884100
I1119 07:50:23.670594 22704 layer_factory.hpp:77] Creating layer inception_5b/pool
I1119 07:50:23.670600 22704 net.cpp:94] Creating Layer inception_5b/pool
I1119 07:50:23.670603 22704 net.cpp:435] inception_5b/pool <- inception_5a/output_inception_5a/output_fixed_0_split_3
I1119 07:50:23.670608 22704 net.cpp:409] inception_5b/pool -> inception_5b/pool
I1119 07:50:23.670630 22704 net.cpp:144] Setting up inception_5b/pool
I1119 07:50:23.670634 22704 net.cpp:151] Top shape: 1 832 8 16 (106496)
I1119 07:50:23.670635 22704 net.cpp:159] Memory required for data: 187310084
I1119 07:50:23.670637 22704 layer_factory.hpp:77] Creating layer inception_5b/pool_proj
I1119 07:50:23.670644 22704 net.cpp:94] Creating Layer inception_5b/pool_proj
I1119 07:50:23.670646 22704 net.cpp:435] inception_5b/pool_proj <- inception_5b/pool
I1119 07:50:23.670650 22704 net.cpp:409] inception_5b/pool_proj -> inception_5b/pool_proj
I1119 07:50:23.671705 22704 layer_factory.hpp:77] Creating layer inception_5b/pool_proj
I1119 07:50:23.673367 22704 net.cpp:144] Setting up inception_5b/pool_proj
I1119 07:50:23.673377 22704 net.cpp:151] Top shape: 1 128 8 16 (16384)
I1119 07:50:23.673383 22704 net.cpp:159] Memory required for data: 187375620
I1119 07:50:23.673394 22704 layer_factory.hpp:77] Creating layer inception_5b/relu_pool_proj
I1119 07:50:23.673399 22704 net.cpp:94] Creating Layer inception_5b/relu_pool_proj
I1119 07:50:23.673403 22704 net.cpp:435] inception_5b/relu_pool_proj <- inception_5b/pool_proj
I1119 07:50:23.673409 22704 net.cpp:396] inception_5b/relu_pool_proj -> inception_5b/pool_proj (in-place)
I1119 07:50:23.673415 22704 net.cpp:144] Setting up inception_5b/relu_pool_proj
I1119 07:50:23.673418 22704 net.cpp:151] Top shape: 1 128 8 16 (16384)
I1119 07:50:23.673419 22704 net.cpp:159] Memory required for data: 187441156
I1119 07:50:23.673421 22704 layer_factory.hpp:77] Creating layer inception_5b/output
I1119 07:50:23.673425 22704 net.cpp:94] Creating Layer inception_5b/output
I1119 07:50:23.673427 22704 net.cpp:435] inception_5b/output <- inception_5b/1x1
I1119 07:50:23.673429 22704 net.cpp:435] inception_5b/output <- inception_5b/3x3
I1119 07:50:23.673431 22704 net.cpp:435] inception_5b/output <- inception_5b/5x5
I1119 07:50:23.673434 22704 net.cpp:435] inception_5b/output <- inception_5b/pool_proj
I1119 07:50:23.673437 22704 net.cpp:409] inception_5b/output -> inception_5b/output
I1119 07:50:23.673449 22704 net.cpp:144] Setting up inception_5b/output
I1119 07:50:23.673452 22704 net.cpp:151] Top shape: 1 1024 8 16 (131072)
I1119 07:50:23.673454 22704 net.cpp:159] Memory required for data: 187965444
I1119 07:50:23.673456 22704 layer_factory.hpp:77] Creating layer inception_5b/output_fixed
I1119 07:50:23.673461 22704 net.cpp:94] Creating Layer inception_5b/output_fixed
I1119 07:50:23.673463 22704 net.cpp:435] inception_5b/output_fixed <- inception_5b/output
I1119 07:50:23.673465 22704 net.cpp:396] inception_5b/output_fixed -> inception_5b/output (in-place)
I1119 07:50:23.673486 22704 net.cpp:144] Setting up inception_5b/output_fixed
I1119 07:50:23.673489 22704 net.cpp:151] Top shape: 1 1024 8 16 (131072)
I1119 07:50:23.673491 22704 net.cpp:159] Memory required for data: 188489732
I1119 07:50:23.673494 22704 layer_factory.hpp:77] Creating layer p5
I1119 07:50:23.673501 22704 net.cpp:94] Creating Layer p5
I1119 07:50:23.673504 22704 net.cpp:435] p5 <- inception_5b/output
I1119 07:50:23.673507 22704 net.cpp:409] p5 -> p5
I1119 07:50:23.673820 22704 layer_factory.hpp:77] Creating layer p5
I1119 07:50:23.674211 22704 net.cpp:144] Setting up p5
I1119 07:50:23.674216 22704 net.cpp:151] Top shape: 1 32 8 16 (4096)
I1119 07:50:23.674218 22704 net.cpp:159] Memory required for data: 188506116
I1119 07:50:23.674222 22704 layer_factory.hpp:77] Creating layer p5_fixed
I1119 07:50:23.674226 22704 net.cpp:94] Creating Layer p5_fixed
I1119 07:50:23.674228 22704 net.cpp:435] p5_fixed <- p5
I1119 07:50:23.674232 22704 net.cpp:396] p5_fixed -> p5 (in-place)
I1119 07:50:23.674248 22704 net.cpp:144] Setting up p5_fixed
I1119 07:50:23.674252 22704 net.cpp:151] Top shape: 1 32 8 16 (4096)
I1119 07:50:23.674254 22704 net.cpp:159] Memory required for data: 188522500
I1119 07:50:23.674257 22704 layer_factory.hpp:77] Creating layer latlayer_4f
I1119 07:50:23.674261 22704 net.cpp:94] Creating Layer latlayer_4f
I1119 07:50:23.674263 22704 net.cpp:435] latlayer_4f <- inception_4e/output_inception_4e/output_fixed_0_split_1
I1119 07:50:23.674266 22704 net.cpp:409] latlayer_4f -> latlayer_4f
I1119 07:50:23.674564 22704 layer_factory.hpp:77] Creating layer latlayer_4f
I1119 07:50:23.674918 22704 net.cpp:144] Setting up latlayer_4f
I1119 07:50:23.674922 22704 net.cpp:151] Top shape: 1 32 16 32 (16384)
I1119 07:50:23.674926 22704 net.cpp:159] Memory required for data: 188588036
I1119 07:50:23.674930 22704 layer_factory.hpp:77] Creating layer latlayer_4f_fixed
I1119 07:50:23.674934 22704 net.cpp:94] Creating Layer latlayer_4f_fixed
I1119 07:50:23.674937 22704 net.cpp:435] latlayer_4f_fixed <- latlayer_4f
I1119 07:50:23.674939 22704 net.cpp:396] latlayer_4f_fixed -> latlayer_4f (in-place)
I1119 07:50:23.674960 22704 net.cpp:144] Setting up latlayer_4f_fixed
I1119 07:50:23.674963 22704 net.cpp:151] Top shape: 1 32 16 32 (16384)
I1119 07:50:23.674966 22704 net.cpp:159] Memory required for data: 188653572
I1119 07:50:23.674969 22704 layer_factory.hpp:77] Creating layer upsample_p5
I1119 07:50:23.674974 22704 net.cpp:94] Creating Layer upsample_p5
I1119 07:50:23.674976 22704 net.cpp:435] upsample_p5 <- p5
I1119 07:50:23.674979 22704 net.cpp:409] upsample_p5 -> upsample_p5
I1119 07:50:23.675156 22704 layer_factory.hpp:77] Creating layer upsample_p5
I1119 07:50:23.675379 22704 net.cpp:144] Setting up upsample_p5
I1119 07:50:23.675384 22704 net.cpp:151] Top shape: 1 32 16 32 (16384)
I1119 07:50:23.675385 22704 net.cpp:159] Memory required for data: 188719108
I1119 07:50:23.675388 22704 layer_factory.hpp:77] Creating layer upsample_p5_fixed
I1119 07:50:23.675391 22704 net.cpp:94] Creating Layer upsample_p5_fixed
I1119 07:50:23.675393 22704 net.cpp:435] upsample_p5_fixed <- upsample_p5
I1119 07:50:23.675396 22704 net.cpp:396] upsample_p5_fixed -> upsample_p5 (in-place)
I1119 07:50:23.675429 22704 net.cpp:144] Setting up upsample_p5_fixed
I1119 07:50:23.675437 22704 net.cpp:151] Top shape: 1 32 16 32 (16384)
I1119 07:50:23.675443 22704 net.cpp:159] Memory required for data: 188784644
I1119 07:50:23.675447 22704 layer_factory.hpp:77] Creating layer add_p4
I1119 07:50:23.675452 22704 net.cpp:94] Creating Layer add_p4
I1119 07:50:23.675457 22704 net.cpp:435] add_p4 <- upsample_p5
I1119 07:50:23.675462 22704 net.cpp:435] add_p4 <- latlayer_4f
I1119 07:50:23.675465 22704 net.cpp:409] add_p4 -> add_p4
I1119 07:50:23.675484 22704 net.cpp:144] Setting up add_p4
I1119 07:50:23.675487 22704 net.cpp:151] Top shape: 1 32 16 32 (16384)
I1119 07:50:23.675490 22704 net.cpp:159] Memory required for data: 188850180
I1119 07:50:23.675493 22704 layer_factory.hpp:77] Creating layer add_p4_fixed
I1119 07:50:23.675496 22704 net.cpp:94] Creating Layer add_p4_fixed
I1119 07:50:23.675499 22704 net.cpp:435] add_p4_fixed <- add_p4
I1119 07:50:23.675503 22704 net.cpp:396] add_p4_fixed -> add_p4 (in-place)
I1119 07:50:23.675536 22704 net.cpp:144] Setting up add_p4_fixed
I1119 07:50:23.675542 22704 net.cpp:151] Top shape: 1 32 16 32 (16384)
I1119 07:50:23.675546 22704 net.cpp:159] Memory required for data: 188915716
I1119 07:50:23.675550 22704 layer_factory.hpp:77] Creating layer toplayer_p4
I1119 07:50:23.675556 22704 net.cpp:94] Creating Layer toplayer_p4
I1119 07:50:23.675559 22704 net.cpp:435] toplayer_p4 <- add_p4
I1119 07:50:23.675563 22704 net.cpp:409] toplayer_p4 -> p4
I1119 07:50:23.675734 22704 layer_factory.hpp:77] Creating layer toplayer_p4
I1119 07:50:23.676005 22704 net.cpp:144] Setting up toplayer_p4
I1119 07:50:23.676009 22704 net.cpp:151] Top shape: 1 32 16 32 (16384)
I1119 07:50:23.676012 22704 net.cpp:159] Memory required for data: 188981252
I1119 07:50:23.676017 22704 layer_factory.hpp:77] Creating layer p4_fixed
I1119 07:50:23.676019 22704 net.cpp:94] Creating Layer p4_fixed
I1119 07:50:23.676021 22704 net.cpp:435] p4_fixed <- p4
I1119 07:50:23.676023 22704 net.cpp:396] p4_fixed -> p4 (in-place)
I1119 07:50:23.676045 22704 net.cpp:144] Setting up p4_fixed
I1119 07:50:23.676048 22704 net.cpp:151] Top shape: 1 32 16 32 (16384)
I1119 07:50:23.676050 22704 net.cpp:159] Memory required for data: 189046788
I1119 07:50:23.676054 22704 layer_factory.hpp:77] Creating layer latlayer_3d
I1119 07:50:23.676057 22704 net.cpp:94] Creating Layer latlayer_3d
I1119 07:50:23.676060 22704 net.cpp:435] latlayer_3d <- inception_3b/output_inception_3b/output_fixed_0_split_1
I1119 07:50:23.676064 22704 net.cpp:409] latlayer_3d -> latlayer_3d
I1119 07:50:23.676259 22704 layer_factory.hpp:77] Creating layer latlayer_3d
I1119 07:50:23.676544 22704 net.cpp:144] Setting up latlayer_3d
I1119 07:50:23.676549 22704 net.cpp:151] Top shape: 1 32 32 64 (65536)
I1119 07:50:23.676551 22704 net.cpp:159] Memory required for data: 189308932
I1119 07:50:23.676555 22704 layer_factory.hpp:77] Creating layer latlayer_3d_fixed
I1119 07:50:23.676558 22704 net.cpp:94] Creating Layer latlayer_3d_fixed
I1119 07:50:23.676560 22704 net.cpp:435] latlayer_3d_fixed <- latlayer_3d
I1119 07:50:23.676563 22704 net.cpp:396] latlayer_3d_fixed -> latlayer_3d (in-place)
I1119 07:50:23.676582 22704 net.cpp:144] Setting up latlayer_3d_fixed
I1119 07:50:23.676585 22704 net.cpp:151] Top shape: 1 32 32 64 (65536)
I1119 07:50:23.676587 22704 net.cpp:159] Memory required for data: 189571076
I1119 07:50:23.676590 22704 layer_factory.hpp:77] Creating layer upsample_p4
I1119 07:50:23.676594 22704 net.cpp:94] Creating Layer upsample_p4
I1119 07:50:23.676595 22704 net.cpp:435] upsample_p4 <- p4
I1119 07:50:23.676597 22704 net.cpp:409] upsample_p4 -> upsample_p4
I1119 07:50:23.676767 22704 layer_factory.hpp:77] Creating layer upsample_p4
I1119 07:50:23.677016 22704 net.cpp:144] Setting up upsample_p4
I1119 07:50:23.677021 22704 net.cpp:151] Top shape: 1 32 32 64 (65536)
I1119 07:50:23.677022 22704 net.cpp:159] Memory required for data: 189833220
I1119 07:50:23.677026 22704 layer_factory.hpp:77] Creating layer upsample_p4_fixed
I1119 07:50:23.677029 22704 net.cpp:94] Creating Layer upsample_p4_fixed
I1119 07:50:23.677031 22704 net.cpp:435] upsample_p4_fixed <- upsample_p4
I1119 07:50:23.677034 22704 net.cpp:396] upsample_p4_fixed -> upsample_p4 (in-place)
I1119 07:50:23.677053 22704 net.cpp:144] Setting up upsample_p4_fixed
I1119 07:50:23.677055 22704 net.cpp:151] Top shape: 1 32 32 64 (65536)
I1119 07:50:23.677058 22704 net.cpp:159] Memory required for data: 190095364
I1119 07:50:23.677060 22704 layer_factory.hpp:77] Creating layer add_p3
I1119 07:50:23.677063 22704 net.cpp:94] Creating Layer add_p3
I1119 07:50:23.677065 22704 net.cpp:435] add_p3 <- upsample_p4
I1119 07:50:23.677067 22704 net.cpp:435] add_p3 <- latlayer_3d
I1119 07:50:23.677070 22704 net.cpp:409] add_p3 -> add_p3
I1119 07:50:23.677080 22704 net.cpp:144] Setting up add_p3
I1119 07:50:23.677083 22704 net.cpp:151] Top shape: 1 32 32 64 (65536)
I1119 07:50:23.677084 22704 net.cpp:159] Memory required for data: 190357508
I1119 07:50:23.677086 22704 layer_factory.hpp:77] Creating layer add_p3_fixed
I1119 07:50:23.677089 22704 net.cpp:94] Creating Layer add_p3_fixed
I1119 07:50:23.677091 22704 net.cpp:435] add_p3_fixed <- add_p3
I1119 07:50:23.677093 22704 net.cpp:396] add_p3_fixed -> add_p3 (in-place)
I1119 07:50:23.677110 22704 net.cpp:144] Setting up add_p3_fixed
I1119 07:50:23.677114 22704 net.cpp:151] Top shape: 1 32 32 64 (65536)
I1119 07:50:23.677116 22704 net.cpp:159] Memory required for data: 190619652
I1119 07:50:23.677119 22704 layer_factory.hpp:77] Creating layer toplayer_p3
I1119 07:50:23.677124 22704 net.cpp:94] Creating Layer toplayer_p3
I1119 07:50:23.677124 22704 net.cpp:435] toplayer_p3 <- add_p3
I1119 07:50:23.677127 22704 net.cpp:409] toplayer_p3 -> p3
I1119 07:50:23.677420 22704 layer_factory.hpp:77] Creating layer toplayer_p3
I1119 07:50:23.677664 22704 net.cpp:144] Setting up toplayer_p3
I1119 07:50:23.677666 22704 net.cpp:151] Top shape: 1 32 32 64 (65536)
I1119 07:50:23.677670 22704 net.cpp:159] Memory required for data: 190881796
I1119 07:50:23.677673 22704 layer_factory.hpp:77] Creating layer p3_fixed
I1119 07:50:23.677676 22704 net.cpp:94] Creating Layer p3_fixed
I1119 07:50:23.677678 22704 net.cpp:435] p3_fixed <- p3
I1119 07:50:23.677680 22704 net.cpp:396] p3_fixed -> p3 (in-place)
I1119 07:50:23.677701 22704 net.cpp:144] Setting up p3_fixed
I1119 07:50:23.677703 22704 net.cpp:151] Top shape: 1 32 32 64 (65536)
I1119 07:50:23.677706 22704 net.cpp:159] Memory required for data: 191143940
I1119 07:50:23.677708 22704 layer_factory.hpp:77] Creating layer latlayer_2c
I1119 07:50:23.677713 22704 net.cpp:94] Creating Layer latlayer_2c
I1119 07:50:23.677716 22704 net.cpp:435] latlayer_2c <- conv2/3x3_conv2/3x3_fixed_0_split_1
I1119 07:50:23.677718 22704 net.cpp:409] latlayer_2c -> latlayer_2c
I1119 07:50:23.677847 22704 layer_factory.hpp:77] Creating layer latlayer_2c
I1119 07:50:23.678093 22704 net.cpp:144] Setting up latlayer_2c
I1119 07:50:23.678099 22704 net.cpp:151] Top shape: 1 32 64 128 (262144)
I1119 07:50:23.678102 22704 net.cpp:159] Memory required for data: 192192516
I1119 07:50:23.678105 22704 layer_factory.hpp:77] Creating layer latlayer_2c_fixed
I1119 07:50:23.678109 22704 net.cpp:94] Creating Layer latlayer_2c_fixed
I1119 07:50:23.678112 22704 net.cpp:435] latlayer_2c_fixed <- latlayer_2c
I1119 07:50:23.678114 22704 net.cpp:396] latlayer_2c_fixed -> latlayer_2c (in-place)
I1119 07:50:23.678134 22704 net.cpp:144] Setting up latlayer_2c_fixed
I1119 07:50:23.678140 22704 net.cpp:151] Top shape: 1 32 64 128 (262144)
I1119 07:50:23.678143 22704 net.cpp:159] Memory required for data: 193241092
I1119 07:50:23.678145 22704 layer_factory.hpp:77] Creating layer upsample_p3
I1119 07:50:23.678149 22704 net.cpp:94] Creating Layer upsample_p3
I1119 07:50:23.678151 22704 net.cpp:435] upsample_p3 <- p3
I1119 07:50:23.678153 22704 net.cpp:409] upsample_p3 -> upsample_p3
I1119 07:50:23.678328 22704 layer_factory.hpp:77] Creating layer upsample_p3
I1119 07:50:23.678597 22704 net.cpp:144] Setting up upsample_p3
I1119 07:50:23.678604 22704 net.cpp:151] Top shape: 1 32 64 128 (262144)
I1119 07:50:23.678607 22704 net.cpp:159] Memory required for data: 194289668
I1119 07:50:23.678611 22704 layer_factory.hpp:77] Creating layer upsample_p3_fixed
I1119 07:50:23.678615 22704 net.cpp:94] Creating Layer upsample_p3_fixed
I1119 07:50:23.678617 22704 net.cpp:435] upsample_p3_fixed <- upsample_p3
I1119 07:50:23.678620 22704 net.cpp:396] upsample_p3_fixed -> upsample_p3 (in-place)
I1119 07:50:23.678643 22704 net.cpp:144] Setting up upsample_p3_fixed
I1119 07:50:23.678647 22704 net.cpp:151] Top shape: 1 32 64 128 (262144)
I1119 07:50:23.678648 22704 net.cpp:159] Memory required for data: 195338244
I1119 07:50:23.678653 22704 layer_factory.hpp:77] Creating layer add_p2
I1119 07:50:23.678656 22704 net.cpp:94] Creating Layer add_p2
I1119 07:50:23.678658 22704 net.cpp:435] add_p2 <- upsample_p3
I1119 07:50:23.678660 22704 net.cpp:435] add_p2 <- latlayer_2c
I1119 07:50:23.678663 22704 net.cpp:409] add_p2 -> add_p2
I1119 07:50:23.678675 22704 net.cpp:144] Setting up add_p2
I1119 07:50:23.678678 22704 net.cpp:151] Top shape: 1 32 64 128 (262144)
I1119 07:50:23.678680 22704 net.cpp:159] Memory required for data: 196386820
I1119 07:50:23.678683 22704 layer_factory.hpp:77] Creating layer add_p2_fixed
I1119 07:50:23.678684 22704 net.cpp:94] Creating Layer add_p2_fixed
I1119 07:50:23.678686 22704 net.cpp:435] add_p2_fixed <- add_p2
I1119 07:50:23.678689 22704 net.cpp:396] add_p2_fixed -> add_p2 (in-place)
I1119 07:50:23.678709 22704 net.cpp:144] Setting up add_p2_fixed
I1119 07:50:23.678711 22704 net.cpp:151] Top shape: 1 32 64 128 (262144)
I1119 07:50:23.678714 22704 net.cpp:159] Memory required for data: 197435396
I1119 07:50:23.678717 22704 layer_factory.hpp:77] Creating layer toplayer_p2
I1119 07:50:23.678722 22704 net.cpp:94] Creating Layer toplayer_p2
I1119 07:50:23.678726 22704 net.cpp:435] toplayer_p2 <- add_p2
I1119 07:50:23.678730 22704 net.cpp:409] toplayer_p2 -> pred
I1119 07:50:23.678849 22704 layer_factory.hpp:77] Creating layer toplayer_p2
I1119 07:50:23.679121 22704 net.cpp:144] Setting up toplayer_p2
I1119 07:50:23.679126 22704 net.cpp:151] Top shape: 1 5 256 512 (655360)
I1119 07:50:23.679128 22704 net.cpp:159] Memory required for data: 200056836
I1119 07:50:23.679133 22704 layer_factory.hpp:77] Creating layer pred_fixed
I1119 07:50:23.679137 22704 net.cpp:94] Creating Layer pred_fixed
I1119 07:50:23.679139 22704 net.cpp:435] pred_fixed <- pred
I1119 07:50:23.679142 22704 net.cpp:396] pred_fixed -> pred (in-place)
I1119 07:50:23.679160 22704 net.cpp:144] Setting up pred_fixed
I1119 07:50:23.679163 22704 net.cpp:151] Top shape: 1 5 256 512 (655360)
I1119 07:50:23.679167 22704 net.cpp:159] Memory required for data: 202678276
I1119 07:50:23.679168 22704 layer_factory.hpp:77] Creating layer score
I1119 07:50:23.679173 22704 net.cpp:94] Creating Layer score
I1119 07:50:23.679175 22704 net.cpp:435] score <- pred
I1119 07:50:23.679178 22704 net.cpp:409] score -> score
I1119 07:50:23.679216 22704 net.cpp:144] Setting up score
I1119 07:50:23.679219 22704 net.cpp:151] Top shape: 1 5 256 512 (655360)
I1119 07:50:23.679221 22704 net.cpp:159] Memory required for data: 205299716
I1119 07:50:23.679224 22704 net.cpp:222] score does not need backward computation.
I1119 07:50:23.679225 22704 net.cpp:222] pred_fixed does not need backward computation.
I1119 07:50:23.679226 22704 net.cpp:222] toplayer_p2 does not need backward computation.
I1119 07:50:23.679229 22704 net.cpp:222] add_p2_fixed does not need backward computation.
…
