…
  name: "data"
  type: "ImageData"
  top: "data"
  top: "label"
  include {
    phase: TRAIN
  }
  transform_param {
    scale: 1
    mean_value: 104
    mean_value: 117
    mean_value: 123
    resize_param {
      prob: 1
      resize_mode: WARP
      height: 320
      width: 640
    }
  }
  image_data_param {
    source: "/workspace/Vitis-AI-Tutorials/data/bdd100k/seg/calib_files.txt"
    batch_size: 1
    shuffle: true
    new_height: 320
    new_width: 640
    root_folder: "/workspace/Vitis-AI-Tutorials/data/bdd100k/seg/images/train/"
  }
}
layer {
  name: "conv1/7x7_s2"
  type: "Convolution"
  bottom: "data"
  top: "conv1/7x7_s2_raw"
  param {
    lr_mult: 1
    decay_mult: 1
  }
  convolution_param {
    num_output: 64
    pad: 3
    kernel_size: 7
    stride: 2
    weight_filler {
      type: "msra"
    }
    bias_filler {
      type: "constant"
      value: 0.2
    }
  }
}
layer {
  name: "conv1/7x7_s2_BatchNorm"
  type: "BatchNorm"
  bottom: "conv1/7x7_s2_raw"
  top: "conv1/7x7_s2"
  param {
    lr_mult: 1
    decay_mult: 0
  }
  param {
    lr_mult: 1
    decay_mult: 0
  }
  param {
    lr_mult: 0
    decay_mult: 0
  }
  param {
    lr_mult: 0
    decay_mult: 0
  }
  batch_norm_param {
    use_global_stats: false
    eps: 1e-05
    scale_filler {
      type: "constant"
      value: 1
    }
    bias_filler {
      type: "constant"
      value: 0
    }
  }
}
layer {
  name: "conv1/relu_7x7"
  type: "ReLU"
  bottom: "conv1/7x7_s2"
  top: "conv1/7x7_s2"
}
layer {
  name: "pool1/3x3_s2"
  type: "Pooling"
  bottom: "conv1/7x7_s2"
  top: "pool1/3x3_s2"
  pooling_param {
    pool: MAX
    kernel_size: 3
    stride: 2
  }
}
layer {
  name: "conv2/3x3_reduce"
  type: "Convolution"
  bottom: "pool1/3x3_s2"
  top: "conv2/3x3_reduce_raw"
  param {
    lr_mult: 1
    decay_mult: 1
  }
  convolution_param {
    num_output: 64
    kernel_size: 1
    weight_filler {
      type: "msra"
    }
    bias_filler {
      type: "constant"
      value: 0.2
    }
  }
}
layer {
  name: "conv2/3x3_reduce_BatchNorm"
  type: "BatchNorm"
  bottom: "conv2/3x3_reduce_raw"
  top: "conv2/3x3_reduce"
  param {
    lr_mult: 1
    decay_mult: 0
  }
  param {
    lr_mult: 1
    decay_mult: 0
  }
  param {
    lr_mult: 0
    decay_mult: 0
  }
  param {
    lr_mult: 0
    decay_mult: 0
  }
  batch_norm_param {
    use_global_stats: false
    eps: 1e-05
    scale_filler {
      type: "constant"
      value: 1
    }
    bias_filler {
      type: "constant"
      value: 0
    }
  }
}
layer {
  name: "conv2/relu_3x3_reduce"
  type: "ReLU"
  bottom: "conv2/3x3_reduce"
  top: "conv2/3x3_reduce"
}
layer {
  name: "conv2/3x3"
  type: "Convolution"
  bottom: "conv2/3x3_reduce"
  top: "conv2/3x3_raw"
  param {
    lr_mult: 1
    decay_mult: 1
  }
  convolution_param {
    num_output: 192
    pad: 1
    kernel_size: 3
    weight_filler {
      type: "msra"
    }
    bias_filler {
      type: "constant"
      value: 0.2
    }
  }
}
layer {
  name: "conv2/3x3_BatchNorm"
  type: "BatchNorm"
  bottom: "conv2/3x3_raw"
  top: "conv2/3x3"
  param {
    lr_mult: 1
    decay_mult: 0
  }
  param {
    lr_mult: 1
    decay_mult: 0
  }
  param {
    lr_mult: 0
    decay_mult: 0
  }
  param {
    lr_mult: 0
    decay_mult: 0
  }
  batch_norm_param {
    use_global_stats: false
    eps: 1e-05
    scale_filler {
      type: "constant"
      value: 1
    }
    bias_filler {
      type: "constant"
      value: 0
    }
  }
}
layer {
  name: "conv2/relu_3x3"
  type: "ReLU"
  bottom: "conv2/3x3"
  top: "conv2/3x3"
}
layer {
  name: "pool2/3x3_s2"
  type: "Pooling"
  bottom: "conv2/3x3"
  top: "pool2/3x3_s2"
  pooling_param {
    pool: MAX
    kernel_size: 3
    stride: 2
  }
}
layer {
  name: "inception_3a/1x1"
  type: "Convolution"
  bottom: "pool2/3x3_s2"
  top: "inception_3a/1x1_raw"
  param {
    lr_mult: 1
    decay_mult: 1
  }
  convolution_param {
    num_output: 64
    kernel_size: 1
    weight_filler {
      type: "msra"
    }
    bias_filler {
      type: "constant"
      value: 0.2
    }
  }
}
layer {
  name: "inception_3a/1x1_BatchNorm"
  type: "BatchNorm"
  bottom: "inception_3a/1x1_raw"
  top: "inception_3a/1x1"
  param {
    lr_mult: 1
    decay_mult: 0
  }
  param {
    lr_mult: 1
    decay_mult: 0
  }
  param {
    lr_mult: 0
    decay_mult: 0
  }
  param {
    lr_mult: 0
    decay_mult: 0
  }
  batch_norm_param {
    use_global_stats: false
    eps: 1e-05
    scale_filler {
      type: "constant"
      value: 1
    }
    bias_filler {
      type: "constant"
      value: 0
    }
  }
}
layer {
  name: "inception_3a/relu_1x1"
  type: "ReLU"
  bottom: "inception_3a/1x1"
  top: "inception_3a/1x1"
}
layer {
  name: "inception_3a/3x3_reduce"
  type: "Convolution"
  bottom: "pool2/3x3_s2"
  top: "inception_3a/3x3_reduce_raw"
  param {
    lr_mult: 1
    decay_mult: 1
  }
  convolution_param {
    num_output: 96
    kernel_size: 1
    weight_filler {
      type: "msra"
    }
    bias_filler {
      type: "constant"
      value: 0.2
    }
  }
}
layer {
  name: "inception_3a/3x3_reduce_BatchNorm"
  type: "BatchNorm"
  bottom: "inception_3a/3x3_reduce_raw"
  top: "inception_3a/3x3_reduce"
  param {
    lr_mult: 1
    decay_mult: 0
  }
  param {
    lr_mult: 1
    decay_mult: 0
  }
  param {
    lr_mult: 0
    decay_mult: 0
  }
  param {
    lr_mult: 0
    decay_mult: 0
  }
  batch_norm_param {
    use_global_stats: false
    eps: 1e-05
    scale_filler {
      type: "constant"
      value: 1
    }
    bias_filler {
      type: "constant"
      value: 0
    }
  }
}
layer {
  name: "inception_3a/relu_3x3_reduce"
  type: "ReLU"
  bottom: "inception_3a/3x3_reduce"
  top: "inception_3a/3x3_reduce"
}
layer {
  name: "inception_3a/3x3"
  type: "Convolution"
  bottom: "inception_3a/3x3_reduce"
  top: "inception_3a/3x3_raw"
  param {
    lr_mult: 1
    decay_mult: 1
  }
  convolution_param {
    num_output: 128
    pad: 1
    kernel_size: 3
    weight_filler {
      type: "msra"
    }
    bias_filler {
      type: "constant"
      value: 0.2
    }
  }
}
layer {
  name: "inception_3a/3x3_BatchNorm"
  type: "BatchNorm"
  bottom: "inception_3a/3x3_raw"
  top: "inception_3a/3x3"
  param {
    lr_mult: 1
    decay_mult: 0
  }
  param {
    lr_mult: 1
    decay_mult: 0
  }
  param {
    lr_mult: 0
    decay_mult: 0
  }
  param {
    lr_mult: 0
    decay_mult: 0
  }
  batch_norm_param {
    use_global_stats: false
    eps: 1e-05
    scale_filler {
      type: "constant"
      value: 1
    }
    bias_filler {
      type: "constant"
      value: 0
    }
  }
}
layer {
  name: "inception_3a/relu_3x3"
  type: "ReLU"
  bottom: "inception_3a/3x3"
  top: "inception_3a/3x3"
}
layer {
  name: "inception_3a/5x5_reduce"
  type: "Convolution"
  bottom: "pool2/3x3_s2"
  top: "inception_3a/5x5_reduce_raw"
  param {
    lr_mult: 1
    decay_mult: 1
  }
  convolution_param {
    num_output: 16
    kernel_size: 1
    weight_filler {
      type: "msra"
    }
    bias_filler {
      type: "constant"
      value: 0.2
    }
  }
}
layer {
  name: "inception_3a/5x5_reduce_BatchNorm"
  type: "BatchNorm"
  bottom: "inception_3a/5x5_reduce_raw"
  top: "inception_3a/5x5_reduce"
  param {
    lr_mult: 1
    decay_mult: 0
  }
  param {
    lr_mult: 1
    decay_mult: 0
  }
  param {
    lr_mult: 0
    decay_mult: 0
  }
  param {
    lr_mult: 0
    decay_mult: 0
  }
  batch_norm_param {
    use_global_stats: false
    eps: 1e-05
    scale_filler {
      type: "constant"
      value: 1
    }
    bias_filler {
      type: "constant"
      value: 0
    }
  }
}
layer {
  name: "inception_3a/relu_5x5_reduce"
  type: "ReLU"
  bottom: "inception_3a/5x5_reduce"
  top: "inception_3a/5x5_reduce"
}
layer {
  name: "inception_3a/5x5"
  type: "Convolution"
  bottom: "inception_3a/5x5_reduce"
  top: "inception_3a/5x5_raw"
  param {
    lr_mult: 1
    decay_mult: 1
  }
  convolution_param {
    num_output: 32
    pad: 2
    kernel_size: 5
    weight_filler {
      type: "msra"
    }
    bias_filler {
      type: "constant"
      value: 0.2
    }
  }
}
layer {
  name: "inception_3a/5x5_BatchNorm"
  type: "BatchNorm"
  bottom: "inception_3a/5x5_raw"
  top: "inception_3a/5x5"
  param {
    lr_mult: 1
    decay_mult: 0
  }
  param {
    lr_mult: 1
    decay_mult: 0
  }
  param {
    lr_mult: 0
    decay_mult: 0
  }
  param {
    lr_mult: 0
    decay_mult: 0
  }
  batch_norm_param {
    use_global_stats: false
    eps: 1e-05
    scale_filler {
      type: "constant"
      value: 1
    }
    bias_filler {
      type: "constant"
      value: 0
    }
  }
}
layer {
  name: "inception_3a/relu_5x5"
  type: "ReLU"
  bottom: "inception_3a/5x5"
  top: "inception_3a/5x5"
}
layer {
  name: "inception_3a/pool"
  type: "Pooling"
  bottom: "pool2/3x3_s2"
  top: "inception_3a/pool"
  pooling_param {
    pool: MAX
    kernel_size: 3
    stride: 1
    pad: 1
  }
}
layer {
  name: "inception_3a/pool_proj"
  type: "Convolution"
  bottom: "inception_3a/pool"
  top: "inception_3a/pool_proj_raw"
  param {
    lr_mult: 1
    decay_mult: 1
  }
  convolution_param {
    num_output: 32
    kernel_size: 1
    weight_filler {
      type: "msra"
    }
    bias_filler {
      type: "constant"
      value: 0.2
    }
  }
}
layer {
  name: "inception_3a/pool_proj_BatchNorm"
  type: "BatchNorm"
  bottom: "inception_3a/pool_proj_raw"
  top: "inception_3a/pool_proj"
  param {
    lr_mult: 1
    decay_mult: 0
  }
  param {
    lr_mult: 1
    decay_mult: 0
  }
  param {
    lr_mult: 0
    decay_mult: 0
  }
  param {
    lr_mult: 0
    decay_mult: 0
  }
  batch_norm_param {
    use_global_stats: false
    eps: 1e-05
    scale_filler {
      type: "constant"
      value: 1
    }
    bias_filler {
      type: "constant"
      value: 0
    }
  }
}
layer {
  name: "inception_3a/relu_pool_proj"
  type: "ReLU"
  bottom: "inception_3a/pool_proj"
  top: "inception_3a/pool_proj"
}
layer {
  name: "inception_3a/output"
  type: "Concat"
  bottom: "inception_3a/1x1"
  bottom: "inception_3a/3x3"
  bottom: "inception_3a/5x5"
  bottom: "inception_3a/pool_proj"
  top: "inception_3a/output"
}
layer {
  name: "inception_3b/1x1"
  type: "Convolution"
  bottom: "inception_3a/output"
  top: "inception_3b/1x1_raw"
  param {
    lr_mult: 1
    decay_mult: 1
  }
  convolution_param {
    num_output: 128
    kernel_size: 1
    weight_filler {
      type: "msra"
    }
    bias_filler {
      type: "constant"
      value: 0.2
    }
  }
}
layer {
  name: "inception_3b/1x1_BatchNorm"
  type: "BatchNorm"
  bottom: "inception_3b/1x1_raw"
  top: "inception_3b/1x1"
  param {
    lr_mult: 1
    decay_mult: 0
  }
  param {
    lr_mult: 1
    decay_mult: 0
  }
  param {
    lr_mult: 0
    decay_mult: 0
  }
  param {
    lr_mult: 0
    decay_mult: 0
  }
  batch_norm_param {
    use_global_stats: false
    eps: 1e-05
    scale_filler {
      type: "constant"
      value: 1
    }
    bias_filler {
      type: "constant"
      value: 0
    }
  }
}
layer {
  name: "inception_3b/relu_1x1"
  type: "ReLU"
  bottom: "inception_3b/1x1"
  top: "inception_3b/1x1"
}
layer {
  name: "inception_3b/3x3_reduce"
  type: "Convolution"
  bottom: "inception_3a/output"
  top: "inception_3b/3x3_reduce_raw"
  param {
    lr_mult: 1
    decay_mult: 1
  }
  convolution_param {
    num_output: 128
    kernel_size: 1
    weight_filler {
      type: "msra"
    }
    bias_filler {
      type: "constant"
      value: 0.2
    }
  }
}
layer {
  name: "inception_3b/3x3_reduce_BatchNorm"
  type: "BatchNorm"
  bottom: "inception_3b/3x3_reduce_raw"
  top: "inception_3b/3x3_reduce"
  param {
    lr_mult: 1
    decay_mult: 0
  }
  param {
    lr_mult: 1
    decay_mult: 0
  }
  param {
    lr_mult: 0
    decay_mult: 0
  }
  param {
    lr_mult: 0
    decay_mult: 0
  }
  batch_norm_param {
    use_global_stats: false
    eps: 1e-05
    scale_filler {
      type: "constant"
      value: 1
    }
    bias_filler {
      type: "constant"
      value: 0
    }
  }
}
layer {
  name: "inception_3b/relu_3x3_reduce"
  type: "ReLU"
  bottom: "inception_3b/3x3_reduce"
  top: "inception_3b/3x3_reduce"
}
layer {
  name: "inception_3b/3x3"
  type: "Convolution"
  bottom: "inception_3b/3x3_reduce"
  top: "inception_3b/3x3_raw"
  param {
    lr_mult: 1
    decay_mult: 1
  }
  convolution_param {
    num_output: 192
    pad: 1
    kernel_size: 3
    weight_filler {
      type: "msra"
    }
    bias_filler {
      type: "constant"
      value: 0.2
    }
  }
}
layer {
  name: "inception_3b/3x3_BatchNorm"
  type: "BatchNorm"
  bottom: "inception_3b/3x3_raw"
  top: "inception_3b/3x3"
  param {
    lr_mult: 1
    decay_mult: 0
  }
  param {
    lr_mult: 1
    decay_mult: 0
  }
  param {
    lr_mult: 0
    decay_mult: 0
  }
  param {
    lr_mult: 0
    decay_mult: 0
  }
  batch_norm_param {
    use_global_stats: false
    eps: 1e-05
    scale_filler {
      type: "constant"
      value: 1
    }
    bias_filler {
      type: "constant"
      value: 0
    }
  }
}
layer {
  name: "inception_3b/relu_3x3"
  type: "ReLU"
  bottom: "inception_3b/3x3"
  top: "inception_3b/3x3"
}
layer {
  name: "inception_3b/5x5_reduce"
  type: "Convolution"
  bottom: "inception_3a/output"
  top: "inception_3b/5x5_reduce_raw"
  param {
    lr_mult: 1
    decay_mult: 1
  }
  convolution_param {
    num_output: 32
    kernel_size: 1
    weight_filler {
      type: "msra"
    }
    bias_filler {
      type: "constant"
      value: 0.2
    }
  }
}
layer {
  name: "inception_3b/5x5_reduce_BatchNorm"
  type: "BatchNorm"
  bottom: "inception_3b/5x5_reduce_raw"
  top: "inception_3b/5x5_reduce"
  param {
    lr_mult: 1
    decay_mult: 0
  }
  param {
    lr_mult: 1
    decay_mult: 0
  }
  param {
    lr_mult: 0
    decay_mult: 0
  }
  param {
    lr_mult: 0
    decay_mult: 0
  }
  batch_norm_param {
    use_global_stats: false
    eps: 1e-05
    scale_filler {
      type: "constant"
      value: 1
    }
    bias_filler {
      type: "constant"
      value: 0
    }
  }
}
layer {
  name: "inception_3b/relu_5x5_reduce"
  type: "ReLU"
  bottom: "inception_3b/5x5_reduce"
  top: "inception_3b/5x5_reduce"
}
layer {
  name: "inception_3b/5x5"
  type: "Convolution"
  bottom: "inception_3b/5x5_reduce"
  top: "inception_3b/5x5_raw"
  param {
    lr_mult: 1
    decay_mult: 1
  }
  convolution_param {
    num_output: 96
    pad: 2
    kernel_size: 5
    weight_filler {
      type: "msra"
    }
    bias_filler {
      type: "constant"
      value: 0.2
    }
  }
}
layer {
  name: "inception_3b/5x5_BatchNorm"
  type: "BatchNorm"
  bottom: "inception_3b/5x5_raw"
  top: "inception_3b/5x5"
  param {
    lr_mult: 1
    decay_mult: 0
  }
  param {
    lr_mult: 1
    decay_mult: 0
  }
  param {
    lr_mult: 0
    decay_mult: 0
  }
  param {
    lr_mult: 0
    decay_mult: 0
  }
  batch_norm_param {
    use_global_stats: false
    eps: 1e-05
    scale_filler {
      type: "constant"
      value: 1
    }
    bias_filler {
      type: "constant"
      value: 0
    }
  }
}
layer {
  name: "inception_3b/relu_5x5"
  type: "ReLU"
  bottom: "inception_3b/5x5"
  top: "inception_3b/5x5"
}
layer {
  name: "inception_3b/pool"
  type: "Pooling"
  bottom: "inception_3a/output"
  top: "inception_3b/pool"
  pooling_param {
    pool: MAX
    kernel_size: 3
    stride: 1
    pad: 1
  }
}
layer {
  name: "inception_3b/pool_proj"
  type: "Convolution"
  bottom: "inception_3b/pool"
  top: "inception_3b/pool_proj_raw"
  param {
    lr_mult: 1
    decay_mult: 1
  }
  convolution_param {
    num_output: 64
    kernel_size: 1
    weight_filler {
      type: "msra"
    }
    bias_filler {
      type: "constant"
      value: 0.2
    }
  }
}
layer {
  name: "inception_3b/pool_proj_BatchNorm"
  type: "BatchNorm"
  bottom: "inception_3b/pool_proj_raw"
  top: "inception_3b/pool_proj"
  param {
    lr_mult: 1
    decay_mult: 0
  }
  param {
    lr_mult: 1
    decay_mult: 0
  }
  param {
    lr_mult: 0
    decay_mult: 0
  }
  param {
    lr_mult: 0
    decay_mult: 0
  }
  batch_norm_param {
    use_global_stats: false
    eps: 1e-05
    scale_filler {
      type: "constant"
      value: 1
    }
    bias_filler {
      type: "constant"
      value: 0
    }
  }
}
layer {
  name: "inception_3b/relu_pool_proj"
  type: "ReLU"
  bottom: "inception_3b/pool_proj"
  top: "inception_3b/pool_proj"
}
layer {
  name: "inception_3b/output"
  type: "Concat"
  bottom: "inception_3b/1x1"
  bottom: "inception_3b/3x3"
  bottom: "inception_3b/5x5"
  bottom: "inception_3b/pool_proj"
  top: "inception_3b/output"
}
layer {
  name: "pool3/3x3_s2"
  type: "Pooling"
  bottom: "inception_3b/output"
  top: "pool3/3x3_s2"
  pooling_param {
    pool: MAX
    kernel_size: 3
    stride: 2
  }
}
layer {
  name: "inception_4a/1x1"
  type: "Convolution"
  bottom: "pool3/3x3_s2"
  top: "inception_4a/1x1_raw"
  param {
    lr_mult: 1
    decay_mult: 1
  }
  convolution_param {
    num_output: 192
    kernel_size: 1
    weight_filler {
      type: "msra"
    }
    bias_filler {
      type: "constant"
      value: 0.2
    }
  }
}
layer {
  name: "inception_4a/1x1_BatchNorm"
  type: "BatchNorm"
  bottom: "inception_4a/1x1_raw"
  top: "inception_4a/1x1"
  param {
    lr_mult: 1
    decay_mult: 0
  }
  param {
    lr_mult: 1
    decay_mult: 0
  }
  param {
    lr_mult: 0
    decay_mult: 0
  }
  param {
    lr_mult: 0
    decay_mult: 0
  }
  batch_norm_param {
    use_global_stats: false
    eps: 1e-05
    scale_filler {
      type: "constant"
      value: 1
    }
    bias_filler {
      type: "constant"
      value: 0
    }
  }
}
layer {
  name: "inception_4a/relu_1x1"
  type: "ReLU"
  bottom: "inception_4a/1x1"
  top: "inception_4a/1x1"
}
layer {
  name: "inception_4a/3x3_reduce"
  type: "Convolution"
  bottom: "pool3/3x3_s2"
  top: "inception_4a/3x3_reduce_raw"
  param {
    lr_mult: 1
    decay_mult: 1
  }
  convolution_param {
    num_output: 96
    kernel_size: 1
    weight_filler {
      type: "msra"
    }
    bias_filler {
      type: "constant"
      value: 0.2
    }
  }
}
layer {
  name: "inception_4a/3x3_reduce_BatchNorm"
  type: "BatchNorm"
  bottom: "inception_4a/3x3_reduce_raw"
  top: "inception_4a/3x3_reduce"
  param {
    lr_mult: 1
    decay_mult: 0
  }
  param {
    lr_mult: 1
    decay_mult: 0
  }
  param {
    lr_mult: 0
    decay_mult: 0
  }
  param {
    lr_mult: 0
    decay_mult: 0
  }
  batch_norm_param {
    use_global_stats: false
    eps: 1e-05
    scale_filler {
      type: "constant"
      value: 1
    }
    bias_filler {
      type: "constant"
      value: 0
    }
  }
}
layer {
  name: "inception_4a/relu_3x3_reduce"
  type: "ReLU"
  bottom: "inception_4a/3x3_reduce"
  top: "inception_4a/3x3_reduce"
}
layer {
  name: "inception_4a/3x3"
  type: "Convolution"
  bottom: "inception_4a/3x3_reduce"
  top: "inception_4a/3x3_raw"
  param {
    lr_mult: 1
    decay_mult: 1
  }
  convolution_param {
    num_output: 208
    pad: 1
    kernel_size: 3
    weight_filler {
      type: "msra"
    }
    bias_filler {
      type: "constant"
      value: 0.2
    }
  }
}
layer {
  name: "inception_4a/3x3_BatchNorm"
  type: "BatchNorm"
  bottom: "inception_4a/3x3_raw"
  top: "inception_4a/3x3"
  param {
    lr_mult: 1
    decay_mult: 0
  }
  param {
    lr_mult: 1
    decay_mult: 0
  }
  param {
    lr_mult: 0
    decay_mult: 0
  }
  param {
    lr_mult: 0
    decay_mult: 0
  }
  batch_norm_param {
    use_global_stats: false
    eps: 1e-05
    scale_filler {
      type: "constant"
      value: 1
    }
    bias_filler {
      type: "constant"
      value: 0
    }
  }
}
layer {
  name: "inception_4a/relu_3x3"
  type: "ReLU"
  bottom: "inception_4a/3x3"
  top: "inception_4a/3x3"
}
layer {
  name: "inception_4a/5x5_reduce"
  type: "Convolution"
  bottom: "pool3/3x3_s2"
  top: "inception_4a/5x5_reduce_raw"
  param {
    lr_mult: 1
    decay_mult: 1
  }
  convolution_param {
    num_output: 16
    kernel_size: 1
    weight_filler {
      type: "msra"
    }
    bias_filler {
      type: "constant"
      value: 0.2
    }
  }
}
layer {
  name: "inception_4a/5x5_reduce_BatchNorm"
  type: "BatchNorm"
  bottom: "inception_4a/5x5_reduce_raw"
  top: "inception_4a/5x5_reduce"
  param {
    lr_mult: 1
    decay_mult: 0
  }
  param {
    lr_mult: 1
    decay_mult: 0
  }
  param {
    lr_mult: 0
    decay_mult: 0
  }
  param {
    lr_mult: 0
    decay_mult: 0
  }
  batch_norm_param {
    use_global_stats: false
    eps: 1e-05
    scale_filler {
      type: "constant"
      value: 1
    }
    bias_filler {
      type: "constant"
      value: 0
    }
  }
}
layer {
  name: "inception_4a/relu_5x5_reduce"
  type: "ReLU"
  bottom: "inception_4a/5x5_reduce"
  top: "inception_4a/5x5_reduce"
}
layer {
  name: "inception_4a/5x5"
  type: "Convolution"
  bottom: "inception_4a/5x5_reduce"
  top: "inception_4a/5x5_raw"
  param {
    lr_mult: 1
    decay_mult: 1
  }
  convolution_param {
    num_output: 48
    pad: 2
    kernel_size: 5
    weight_filler {
      type: "msra"
    }
    bias_filler {
      type: "constant"
      value: 0.2
    }
  }
}
layer {
  name: "inception_4a/5x5_BatchNorm"
  type: "BatchNorm"
  bottom: "inception_4a/5x5_raw"
  top: "inception_4a/5x5"
  param {
    lr_mult: 1
    decay_mult: 0
  }
  param {
    lr_mult: 1
    decay_mult: 0
  }
  param {
    lr_mult: 0
    decay_mult: 0
  }
  param {
    lr_mult: 0
    decay_mult: 0
  }
  batch_norm_param {
    use_global_stats: false
    eps: 1e-05
    scale_filler {
      type: "constant"
      value: 1
    }
    bias_filler {
      type: "constant"
      value: 0
    }
  }
}
layer {
  name: "inception_4a/relu_5x5"
  type: "ReLU"
  bottom: "inception_4a/5x5"
  top: "inception_4a/5x5"
}
layer {
  name: "inception_4a/pool"
  type: "Pooling"
  bottom: "pool3/3x3_s2"
  top: "inception_4a/pool"
  pooling_param {
    pool: MAX
    kernel_size: 3
    stride: 1
    pad: 1
  }
}
layer {
  name: "inception_4a/pool_proj"
  type: "Convolution"
  bottom: "inception_4a/pool"
  top: "inception_4a/pool_proj_raw"
  param {
    lr_mult: 1
    decay_mult: 1
  }
  convolution_param {
    num_output: 64
    kernel_size: 1
    weight_filler {
      type: "msra"
    }
    bias_filler {
      type: "constant"
      value: 0.2
    }
  }
}
layer {
  name: "inception_4a/pool_proj_BatchNorm"
  type: "BatchNorm"
  bottom: "inception_4a/pool_proj_raw"
  top: "inception_4a/pool_proj"
  param {
    lr_mult: 1
    decay_mult: 0
  }
  param {
    lr_mult: 1
    decay_mult: 0
  }
  param {
    lr_mult: 0
    decay_mult: 0
  }
  param {
    lr_mult: 0
    decay_mult: 0
  }
  batch_norm_param {
    use_global_stats: false
    eps: 1e-05
    scale_filler {
      type: "constant"
      value: 1
    }
    bias_filler {
      type: "constant"
      value: 0
    }
  }
}
layer {
  name: "inception_4a/relu_pool_proj"
  type: "ReLU"
  bottom: "inception_4a/pool_proj"
  top: "inception_4a/pool_proj"
}
layer {
  name: "inception_4a/output"
  type: "Concat"
  bottom: "inception_4a/1x1"
  bottom: "inception_4a/3x3"
  bottom: "inception_4a/5x5"
  bottom: "inception_4a/pool_proj"
  top: "inception_4a/output"
}
layer {
  name: "inception_4b/1x1"
  type: "Convolution"
  bottom: "inception_4a/output"
  top: "inception_4b/1x1_raw"
  param {
    lr_mult: 1
    decay_mult: 1
  }
  convolution_param {
    num_output: 160
    kernel_size: 1
    weight_filler {
      type: "msra"
    }
    bias_filler {
      type: "constant"
      value: 0.2
    }
  }
}
layer {
  name: "inception_4b/1x1_BatchNorm"
  type: "BatchNorm"
  bottom: "inception_4b/1x1_raw"
  top: "inception_4b/1x1"
  param {
    lr_mult: 1
    decay_mult: 0
  }
  param {
    lr_mult: 1
    decay_mult: 0
  }
  param {
    lr_mult: 0
    decay_mult: 0
  }
  param {
    lr_mult: 0
    decay_mult: 0
  }
  batch_norm_param {
    use_global_stats: false
    eps: 1e-05
    scale_filler {
      type: "constant"
      value: 1
    }
    bias_filler {
      type: "constant"
      value: 0
    }
  }
}
layer {
  name: "inception_4b/relu_1x1"
  type: "ReLU"
  bottom: "inception_4b/1x1"
  top: "inception_4b/1x1"
}
layer {
  name: "inception_4b/3x3_reduce"
  type: "Convolution"
  bottom: "inception_4a/output"
  top: "inception_4b/3x3_reduce_raw"
  param {
    lr_mult: 1
    decay_mult: 1
  }
  convolution_param {
    num_output: 112
    kernel_size: 1
    weight_filler {
      type: "msra"
    }
    bias_filler {
      type: "constant"
      value: 0.2
    }
  }
}
layer {
  name: "inception_4b/3x3_reduce_BatchNorm"
  type: "BatchNorm"
  bottom: "inception_4b/3x3_reduce_raw"
  top: "inception_4b/3x3_reduce"
  param {
    lr_mult: 1
    decay_mult: 0
  }
  param {
    lr_mult: 1
    decay_mult: 0
  }
  param {
    lr_mult: 0
    decay_mult: 0
  }
  param {
    lr_mult: 0
    decay_mult: 0
  }
  batch_norm_param {
    use_global_stats: false
    eps: 1e-05
    scale_filler {
      type: "constant"
      value: 1
    }
    bias_filler {
      type: "constant"
      value: 0
    }
  }
}
layer {
  name: "inception_4b/relu_3x3_reduce"
  type: "ReLU"
  bottom: "inception_4b/3x3_reduce"
  top: "inception_4b/3x3_reduce"
}
layer {
  name: "inception_4b/3x3"
  type: "Convolution"
  bottom: "inception_4b/3x3_reduce"
  top: "inception_4b/3x3_raw"
  param {
    lr_mult: 1
    decay_mult: 1
  }
  convolution_param {
    num_output: 224
    pad: 1
    kernel_size: 3
    weight_filler {
      type: "msra"
    }
    bias_filler {
      type: "constant"
      value: 0.2
    }
  }
}
layer {
  name: "inception_4b/3x3_BatchNorm"
  type: "BatchNorm"
  bottom: "inception_4b/3x3_raw"
  top: "inception_4b/3x3"
  param {
    lr_mult: 1
    decay_mult: 0
  }
  param {
    lr_mult: 1
    decay_mult: 0
  }
  param {
    lr_mult: 0
    decay_mult: 0
  }
  param {
    lr_mult: 0
    decay_mult: 0
  }
  batch_norm_param {
    use_global_stats: false
    eps: 1e-05
    scale_filler {
      type: "constant"
      value: 1
    }
    bias_filler {
      type: "constant"
      value: 0
    }
  }
}
layer {
  name: "inception_4b/relu_3x3"
  type: "ReLU"
  bottom: "inception_4b/3x3"
  top: "inception_4b/3x3"
}
layer {
  name: "inception_4b/5x5_reduce"
  type: "Convolution"
  bottom: "inception_4a/output"
  top: "inception_4b/5x5_reduce_raw"
  param {
    lr_mult: 1
    decay_mult: 1
  }
  convolution_param {
    num_output: 24
    kernel_size: 1
    weight_filler {
      type: "msra"
    }
    bias_filler {
      type: "constant"
      value: 0.2
    }
  }
}
layer {
  name: "inception_4b/5x5_reduce_BatchNorm"
  type: "BatchNorm"
  bottom: "inception_4b/5x5_reduce_raw"
  top: "inception_4b/5x5_reduce"
  param {
    lr_mult: 1
    decay_mult: 0
  }
  param {
    lr_mult: 1
    decay_mult: 0
  }
  param {
    lr_mult: 0
    decay_mult: 0
  }
  param {
    lr_mult: 0
    decay_mult: 0
  }
  batch_norm_param {
    use_global_stats: false
    eps: 1e-05
    scale_filler {
      type: "constant"
      value: 1
    }
    bias_filler {
      type: "constant"
      value: 0
    }
  }
}
layer {
  name: "inception_4b/relu_5x5_reduce"
  type: "ReLU"
  bottom: "inception_4b/5x5_reduce"
  top: "inception_4b/5x5_reduce"
}
layer {
  name: "inception_4b/5x5"
  type: "Convolution"
  bottom: "inception_4b/5x5_reduce"
  top: "inception_4b/5x5_raw"
  param {
    lr_mult: 1
    decay_mult: 1
  }
  convolution_param {
    num_output: 64
    pad: 2
    kernel_size: 5
    weight_filler {
      type: "msra"
    }
    bias_filler {
      type: "constant"
      value: 0.2
    }
  }
}
layer {
  name: "inception_4b/5x5_BatchNorm"
  type: "BatchNorm"
  bottom: "inception_4b/5x5_raw"
  top: "inception_4b/5x5"
  param {
    lr_mult: 1
    decay_mult: 0
  }
  param {
    lr_mult: 1
    decay_mult: 0
  }
  param {
    lr_mult: 0
    decay_mult: 0
  }
  param {
    lr_mult: 0
    decay_mult: 0
  }
  batch_norm_param {
    use_global_stats: false
    eps: 1e-05
    scale_filler {
      type: "constant"
      value: 1
    }
    bias_filler {
      type: "constant"
      value: 0
    }
  }
}
layer {
  name: "inception_4b/relu_5x5"
  type: "ReLU"
  bottom: "inception_4b/5x5"
  top: "inception_4b/5x5"
}
layer {
  name: "inception_4b/pool"
  type: "Pooling"
  bottom: "inception_4a/output"
  top: "inception_4b/pool"
  pooling_param {
    pool: MAX
    kernel_size: 3
    stride: 1
    pad: 1
  }
}
layer {
  name: "inception_4b/pool_proj"
  type: "Convolution"
  bottom: "inception_4b/pool"
  top: "inception_4b/pool_proj_raw"
  param {
    lr_mult: 1
    decay_mult: 1
  }
  convolution_param {
    num_output: 64
    kernel_size: 1
    weight_filler {
      type: "msra"
    }
    bias_filler {
      type: "constant"
      value: 0.2
    }
  }
}
layer {
  name: "inception_4b/pool_proj_BatchNorm"
  type: "BatchNorm"
  bottom: "inception_4b/pool_proj_raw"
  top: "inception_4b/pool_proj"
  param {
    lr_mult: 1
    decay_mult: 0
  }
  param {
    lr_mult: 1
    decay_mult: 0
  }
  param {
    lr_mult: 0
    decay_mult: 0
  }
  param {
    lr_mult: 0
    decay_mult: 0
  }
  batch_norm_param {
    use_global_stats: false
    eps: 1e-05
    scale_filler {
      type: "constant"
      value: 1
    }
    bias_filler {
      type: "constant"
      value: 0
    }
  }
}
layer {
  name: "inception_4b/relu_pool_proj"
  type: "ReLU"
  bottom: "inception_4b/pool_proj"
  top: "inception_4b/pool_proj"
}
layer {
  name: "inception_4b/output"
  type: "Concat"
  bottom: "inception_4b/1x1"
  bottom: "inception_4b/3x3"
  bottom: "inception_4b/5x5"
  bottom: "inception_4b/pool_proj"
  top: "inception_4b/output"
}
layer {
  name: "inception_4c/1x1"
  type: "Convolution"
  bottom: "inception_4b/output"
  top: "inception_4c/1x1_raw"
  param {
    lr_mult: 1
    decay_mult: 1
  }
  convolution_param {
    num_output: 128
    kernel_size: 1
    weight_filler {
      type: "msra"
    }
    bias_filler {
      type: "constant"
      value: 0.2
    }
  }
}
layer {
  name: "inception_4c/1x1_BatchNorm"
  type: "BatchNorm"
  bottom: "inception_4c/1x1_raw"
  top: "inception_4c/1x1"
  param {
    lr_mult: 1
    decay_mult: 0
  }
  param {
    lr_mult: 1
    decay_mult: 0
  }
  param {
    lr_mult: 0
    decay_mult: 0
  }
  param {
    lr_mult: 0
    decay_mult: 0
  }
  batch_norm_param {
 
I0102 22:44:42.682072 10809 layer_factory.hpp:77] Creating layer data
I0102 22:44:42.682090 10809 net.cpp:94] Creating Layer data
I0102 22:44:42.682092 10809 net.cpp:409] data -> data
I0102 22:44:42.682099 10809 net.cpp:409] data -> label
I0102 22:44:42.682114 10809 image_data_layer.cpp:41] Opening file /workspace/Vitis-AI-Tutorials/data/bdd100k/seg/calib_files.txt
I0102 22:44:42.683725 10809 image_data_layer.cpp:51] Shuffling data
I0102 22:44:42.683939 10809 image_data_layer.cpp:56] A total of 7000 images.
I0102 22:44:42.703964 10809 image_data_layer.cpp:84] output data size: 1,3,320,640
I0102 22:44:42.716866 10809 internal_thread.cpp:27] Starting internal thread(s) on GPU 0
I0102 22:44:42.716965 10809 net.cpp:144] Setting up data
I0102 22:44:42.716970 10809 net.cpp:151] Top shape: 1 3 320 640 (614400)
I0102 22:44:42.716981 10809 net.cpp:151] Top shape: 1 (1)
I0102 22:44:42.716985 10809 net.cpp:159] Memory required for data: 2457604
I0102 22:44:42.716990 10809 layer_factory.hpp:77] Creating layer conv1/7x7_s2
I0102 22:44:42.717015 10809 net.cpp:94] Creating Layer conv1/7x7_s2
I0102 22:44:42.717020 10809 net.cpp:435] conv1/7x7_s2 <- data
I0102 22:44:42.717025 10809 net.cpp:409] conv1/7x7_s2 -> conv1/7x7_s2_raw
I0102 22:44:42.717646 10809 net.cpp:144] Setting up conv1/7x7_s2
I0102 22:44:42.717651 10809 net.cpp:151] Top shape: 1 64 160 320 (3276800)
I0102 22:44:42.717654 10809 net.cpp:159] Memory required for data: 15564804
I0102 22:44:42.717676 10809 layer_factory.hpp:77] Creating layer conv1/7x7_s2_BatchNorm
I0102 22:44:42.717684 10809 net.cpp:94] Creating Layer conv1/7x7_s2_BatchNorm
I0102 22:44:42.717686 10809 net.cpp:435] conv1/7x7_s2_BatchNorm <- conv1/7x7_s2_raw
I0102 22:44:42.717689 10809 net.cpp:409] conv1/7x7_s2_BatchNorm -> conv1/7x7_s2
I0102 22:44:42.718214 10809 net.cpp:144] Setting up conv1/7x7_s2_BatchNorm
I0102 22:44:42.718219 10809 net.cpp:151] Top shape: 1 64 160 320 (3276800)
I0102 22:44:42.718222 10809 net.cpp:159] Memory required for data: 28672004
I0102 22:44:42.718231 10809 layer_factory.hpp:77] Creating layer conv1/relu_7x7
I0102 22:44:42.718237 10809 net.cpp:94] Creating Layer conv1/relu_7x7
I0102 22:44:42.718241 10809 net.cpp:435] conv1/relu_7x7 <- conv1/7x7_s2
I0102 22:44:42.718245 10809 net.cpp:396] conv1/relu_7x7 -> conv1/7x7_s2 (in-place)
I0102 22:44:42.718250 10809 net.cpp:144] Setting up conv1/relu_7x7
I0102 22:44:42.718252 10809 net.cpp:151] Top shape: 1 64 160 320 (3276800)
I0102 22:44:42.718255 10809 net.cpp:159] Memory required for data: 41779204
I0102 22:44:42.718257 10809 layer_factory.hpp:77] Creating layer pool1/3x3_s2
I0102 22:44:42.718261 10809 net.cpp:94] Creating Layer pool1/3x3_s2
I0102 22:44:42.718263 10809 net.cpp:435] pool1/3x3_s2 <- conv1/7x7_s2
I0102 22:44:42.718267 10809 net.cpp:409] pool1/3x3_s2 -> pool1/3x3_s2
I0102 22:44:42.718300 10809 net.cpp:144] Setting up pool1/3x3_s2
I0102 22:44:42.718303 10809 net.cpp:151] Top shape: 1 64 80 160 (819200)
I0102 22:44:42.718307 10809 net.cpp:159] Memory required for data: 45056004
I0102 22:44:42.718308 10809 layer_factory.hpp:77] Creating layer conv2/3x3_reduce
I0102 22:44:42.718314 10809 net.cpp:94] Creating Layer conv2/3x3_reduce
I0102 22:44:42.718317 10809 net.cpp:435] conv2/3x3_reduce <- pool1/3x3_s2
I0102 22:44:42.718320 10809 net.cpp:409] conv2/3x3_reduce -> conv2/3x3_reduce_raw
I0102 22:44:42.718524 10809 net.cpp:144] Setting up conv2/3x3_reduce
I0102 22:44:42.718529 10809 net.cpp:151] Top shape: 1 64 80 160 (819200)
I0102 22:44:42.718533 10809 net.cpp:159] Memory required for data: 48332804
I0102 22:44:42.718538 10809 layer_factory.hpp:77] Creating layer conv2/3x3_reduce_BatchNorm
I0102 22:44:42.718544 10809 net.cpp:94] Creating Layer conv2/3x3_reduce_BatchNorm
I0102 22:44:42.718547 10809 net.cpp:435] conv2/3x3_reduce_BatchNorm <- conv2/3x3_reduce_raw
I0102 22:44:42.718559 10809 net.cpp:409] conv2/3x3_reduce_BatchNorm -> conv2/3x3_reduce
I0102 22:44:42.718964 10809 net.cpp:144] Setting up conv2/3x3_reduce_BatchNorm
I0102 22:44:42.718968 10809 net.cpp:151] Top shape: 1 64 80 160 (819200)
I0102 22:44:42.718971 10809 net.cpp:159] Memory required for data: 51609604
I0102 22:44:42.718977 10809 layer_factory.hpp:77] Creating layer conv2/relu_3x3_reduce
I0102 22:44:42.718981 10809 net.cpp:94] Creating Layer conv2/relu_3x3_reduce
I0102 22:44:42.718982 10809 net.cpp:435] conv2/relu_3x3_reduce <- conv2/3x3_reduce
I0102 22:44:42.718986 10809 net.cpp:396] conv2/relu_3x3_reduce -> conv2/3x3_reduce (in-place)
I0102 22:44:42.718988 10809 net.cpp:144] Setting up conv2/relu_3x3_reduce
I0102 22:44:42.718989 10809 net.cpp:151] Top shape: 1 64 80 160 (819200)
I0102 22:44:42.718992 10809 net.cpp:159] Memory required for data: 54886404
I0102 22:44:42.718993 10809 layer_factory.hpp:77] Creating layer conv2/3x3
I0102 22:44:42.719000 10809 net.cpp:94] Creating Layer conv2/3x3
I0102 22:44:42.719002 10809 net.cpp:435] conv2/3x3 <- conv2/3x3_reduce
I0102 22:44:42.719007 10809 net.cpp:409] conv2/3x3 -> conv2/3x3_raw
I0102 22:44:42.719753 10809 net.cpp:144] Setting up conv2/3x3
I0102 22:44:42.719756 10809 net.cpp:151] Top shape: 1 192 80 160 (2457600)
I0102 22:44:42.719759 10809 net.cpp:159] Memory required for data: 64716804
I0102 22:44:42.719764 10809 layer_factory.hpp:77] Creating layer conv2/3x3_BatchNorm
I0102 22:44:42.719770 10809 net.cpp:94] Creating Layer conv2/3x3_BatchNorm
I0102 22:44:42.719772 10809 net.cpp:435] conv2/3x3_BatchNorm <- conv2/3x3_raw
I0102 22:44:42.719776 10809 net.cpp:409] conv2/3x3_BatchNorm -> conv2/3x3
I0102 22:44:42.720124 10809 net.cpp:144] Setting up conv2/3x3_BatchNorm
I0102 22:44:42.720129 10809 net.cpp:151] Top shape: 1 192 80 160 (2457600)
I0102 22:44:42.720131 10809 net.cpp:159] Memory required for data: 74547204
I0102 22:44:42.720137 10809 layer_factory.hpp:77] Creating layer conv2/relu_3x3
I0102 22:44:42.720140 10809 net.cpp:94] Creating Layer conv2/relu_3x3
I0102 22:44:42.720142 10809 net.cpp:435] conv2/relu_3x3 <- conv2/3x3
I0102 22:44:42.720145 10809 net.cpp:396] conv2/relu_3x3 -> conv2/3x3 (in-place)
I0102 22:44:42.720149 10809 net.cpp:144] Setting up conv2/relu_3x3
I0102 22:44:42.720149 10809 net.cpp:151] Top shape: 1 192 80 160 (2457600)
I0102 22:44:42.720152 10809 net.cpp:159] Memory required for data: 84377604
I0102 22:44:42.720153 10809 layer_factory.hpp:77] Creating layer conv2/3x3_conv2/relu_3x3_0_split
I0102 22:44:42.720161 10809 net.cpp:94] Creating Layer conv2/3x3_conv2/relu_3x3_0_split
I0102 22:44:42.720163 10809 net.cpp:435] conv2/3x3_conv2/relu_3x3_0_split <- conv2/3x3
I0102 22:44:42.720166 10809 net.cpp:409] conv2/3x3_conv2/relu_3x3_0_split -> conv2/3x3_conv2/relu_3x3_0_split_0
I0102 22:44:42.720170 10809 net.cpp:409] conv2/3x3_conv2/relu_3x3_0_split -> conv2/3x3_conv2/relu_3x3_0_split_1
I0102 22:44:42.720186 10809 net.cpp:144] Setting up conv2/3x3_conv2/relu_3x3_0_split
I0102 22:44:42.720189 10809 net.cpp:151] Top shape: 1 192 80 160 (2457600)
I0102 22:44:42.720191 10809 net.cpp:151] Top shape: 1 192 80 160 (2457600)
I0102 22:44:42.720193 10809 net.cpp:159] Memory required for data: 104038404
I0102 22:44:42.720196 10809 layer_factory.hpp:77] Creating layer pool2/3x3_s2
I0102 22:44:42.720198 10809 net.cpp:94] Creating Layer pool2/3x3_s2
I0102 22:44:42.720201 10809 net.cpp:435] pool2/3x3_s2 <- conv2/3x3_conv2/relu_3x3_0_split_0
I0102 22:44:42.720203 10809 net.cpp:409] pool2/3x3_s2 -> pool2/3x3_s2
I0102 22:44:42.720218 10809 net.cpp:144] Setting up pool2/3x3_s2
I0102 22:44:42.720221 10809 net.cpp:151] Top shape: 1 192 40 80 (614400)
I0102 22:44:42.720223 10809 net.cpp:159] Memory required for data: 106496004
I0102 22:44:42.720224 10809 layer_factory.hpp:77] Creating layer pool2/3x3_s2_pool2/3x3_s2_0_split
I0102 22:44:42.720227 10809 net.cpp:94] Creating Layer pool2/3x3_s2_pool2/3x3_s2_0_split
I0102 22:44:42.720229 10809 net.cpp:435] pool2/3x3_s2_pool2/3x3_s2_0_split <- pool2/3x3_s2
I0102 22:44:42.720232 10809 net.cpp:409] pool2/3x3_s2_pool2/3x3_s2_0_split -> pool2/3x3_s2_pool2/3x3_s2_0_split_0
I0102 22:44:42.720237 10809 net.cpp:409] pool2/3x3_s2_pool2/3x3_s2_0_split -> pool2/3x3_s2_pool2/3x3_s2_0_split_1
I0102 22:44:42.720240 10809 net.cpp:409] pool2/3x3_s2_pool2/3x3_s2_0_split -> pool2/3x3_s2_pool2/3x3_s2_0_split_2
I0102 22:44:42.720244 10809 net.cpp:409] pool2/3x3_s2_pool2/3x3_s2_0_split -> pool2/3x3_s2_pool2/3x3_s2_0_split_3
I0102 22:44:42.720273 10809 net.cpp:144] Setting up pool2/3x3_s2_pool2/3x3_s2_0_split
I0102 22:44:42.720276 10809 net.cpp:151] Top shape: 1 192 40 80 (614400)
I0102 22:44:42.720279 10809 net.cpp:151] Top shape: 1 192 40 80 (614400)
I0102 22:44:42.720284 10809 net.cpp:151] Top shape: 1 192 40 80 (614400)
I0102 22:44:42.720288 10809 net.cpp:151] Top shape: 1 192 40 80 (614400)
I0102 22:44:42.720290 10809 net.cpp:159] Memory required for data: 116326404
I0102 22:44:42.720293 10809 layer_factory.hpp:77] Creating layer inception_3a/1x1
I0102 22:44:42.720299 10809 net.cpp:94] Creating Layer inception_3a/1x1
I0102 22:44:42.720300 10809 net.cpp:435] inception_3a/1x1 <- pool2/3x3_s2_pool2/3x3_s2_0_split_0
I0102 22:44:42.720304 10809 net.cpp:409] inception_3a/1x1 -> inception_3a/1x1_raw
I0102 22:44:42.720511 10809 net.cpp:144] Setting up inception_3a/1x1
I0102 22:44:42.720515 10809 net.cpp:151] Top shape: 1 64 40 80 (204800)
I0102 22:44:42.720518 10809 net.cpp:159] Memory required for data: 117145604
I0102 22:44:42.720525 10809 layer_factory.hpp:77] Creating layer inception_3a/1x1_BatchNorm
I0102 22:44:42.720530 10809 net.cpp:94] Creating Layer inception_3a/1x1_BatchNorm
I0102 22:44:42.720532 10809 net.cpp:435] inception_3a/1x1_BatchNorm <- inception_3a/1x1_raw
I0102 22:44:42.720536 10809 net.cpp:409] inception_3a/1x1_BatchNorm -> inception_3a/1x1
I0102 22:44:42.720881 10809 net.cpp:144] Setting up inception_3a/1x1_BatchNorm
I0102 22:44:42.720885 10809 net.cpp:151] Top shape: 1 64 40 80 (204800)
I0102 22:44:42.720888 10809 net.cpp:159] Memory required for data: 117964804
I0102 22:44:42.720893 10809 layer_factory.hpp:77] Creating layer inception_3a/relu_1x1
I0102 22:44:42.720897 10809 net.cpp:94] Creating Layer inception_3a/relu_1x1
I0102 22:44:42.720901 10809 net.cpp:435] inception_3a/relu_1x1 <- inception_3a/1x1
I0102 22:44:42.720903 10809 net.cpp:396] inception_3a/relu_1x1 -> inception_3a/1x1 (in-place)
I0102 22:44:42.720906 10809 net.cpp:144] Setting up inception_3a/relu_1x1
I0102 22:44:42.720908 10809 net.cpp:151] Top shape: 1 64 40 80 (204800)
I0102 22:44:42.720911 10809 net.cpp:159] Memory required for data: 118784004
I0102 22:44:42.720913 10809 layer_factory.hpp:77] Creating layer inception_3a/3x3_reduce
I0102 22:44:42.720919 10809 net.cpp:94] Creating Layer inception_3a/3x3_reduce
I0102 22:44:42.720921 10809 net.cpp:435] inception_3a/3x3_reduce <- pool2/3x3_s2_pool2/3x3_s2_0_split_1
I0102 22:44:42.720924 10809 net.cpp:409] inception_3a/3x3_reduce -> inception_3a/3x3_reduce_raw
I0102 22:44:42.721160 10809 net.cpp:144] Setting up inception_3a/3x3_reduce
I0102 22:44:42.721164 10809 net.cpp:151] Top shape: 1 96 40 80 (307200)
I0102 22:44:42.721168 10809 net.cpp:159] Memory required for data: 120012804
I0102 22:44:42.721171 10809 layer_factory.hpp:77] Creating layer inception_3a/3x3_reduce_BatchNorm
I0102 22:44:42.721176 10809 net.cpp:94] Creating Layer inception_3a/3x3_reduce_BatchNorm
I0102 22:44:42.721179 10809 net.cpp:435] inception_3a/3x3_reduce_BatchNorm <- inception_3a/3x3_reduce_raw
I0102 22:44:42.721182 10809 net.cpp:409] inception_3a/3x3_reduce_BatchNorm -> inception_3a/3x3_reduce
I0102 22:44:42.721544 10809 net.cpp:144] Setting up inception_3a/3x3_reduce_BatchNorm
I0102 22:44:42.721549 10809 net.cpp:151] Top shape: 1 96 40 80 (307200)
I0102 22:44:42.721551 10809 net.cpp:159] Memory required for data: 121241604
I0102 22:44:42.721557 10809 layer_factory.hpp:77] Creating layer inception_3a/relu_3x3_reduce
I0102 22:44:42.721560 10809 net.cpp:94] Creating Layer inception_3a/relu_3x3_reduce
I0102 22:44:42.721562 10809 net.cpp:435] inception_3a/relu_3x3_reduce <- inception_3a/3x3_reduce
I0102 22:44:42.721565 10809 net.cpp:396] inception_3a/relu_3x3_reduce -> inception_3a/3x3_reduce (in-place)
I0102 22:44:42.721568 10809 net.cpp:144] Setting up inception_3a/relu_3x3_reduce
I0102 22:44:42.721570 10809 net.cpp:151] Top shape: 1 96 40 80 (307200)
I0102 22:44:42.721572 10809 net.cpp:159] Memory required for data: 122470404
I0102 22:44:42.721575 10809 layer_factory.hpp:77] Creating layer inception_3a/3x3
I0102 22:44:42.721580 10809 net.cpp:94] Creating Layer inception_3a/3x3
I0102 22:44:42.721582 10809 net.cpp:435] inception_3a/3x3 <- inception_3a/3x3_reduce
I0102 22:44:42.721585 10809 net.cpp:409] inception_3a/3x3 -> inception_3a/3x3_raw
I0102 22:44:42.723023 10809 net.cpp:144] Setting up inception_3a/3x3
I0102 22:44:42.723031 10809 net.cpp:151] Top shape: 1 128 40 80 (409600)
I0102 22:44:42.723033 10809 net.cpp:159] Memory required for data: 124108804
I0102 22:44:42.723038 10809 layer_factory.hpp:77] Creating layer inception_3a/3x3_BatchNorm
I0102 22:44:42.723042 10809 net.cpp:94] Creating Layer inception_3a/3x3_BatchNorm
I0102 22:44:42.723044 10809 net.cpp:435] inception_3a/3x3_BatchNorm <- inception_3a/3x3_raw
I0102 22:44:42.723048 10809 net.cpp:409] inception_3a/3x3_BatchNorm -> inception_3a/3x3
I0102 22:44:42.723354 10809 net.cpp:144] Setting up inception_3a/3x3_BatchNorm
I0102 22:44:42.723358 10809 net.cpp:151] Top shape: 1 128 40 80 (409600)
I0102 22:44:42.723361 10809 net.cpp:159] Memory required for data: 125747204
I0102 22:44:42.723366 10809 layer_factory.hpp:77] Creating layer inception_3a/relu_3x3
I0102 22:44:42.723369 10809 net.cpp:94] Creating Layer inception_3a/relu_3x3
I0102 22:44:42.723371 10809 net.cpp:435] inception_3a/relu_3x3 <- inception_3a/3x3
I0102 22:44:42.723373 10809 net.cpp:396] inception_3a/relu_3x3 -> inception_3a/3x3 (in-place)
I0102 22:44:42.723376 10809 net.cpp:144] Setting up inception_3a/relu_3x3
I0102 22:44:42.723378 10809 net.cpp:151] Top shape: 1 128 40 80 (409600)
I0102 22:44:42.723381 10809 net.cpp:159] Memory required for data: 127385604
I0102 22:44:42.723381 10809 layer_factory.hpp:77] Creating layer inception_3a/5x5_reduce
I0102 22:44:42.723387 10809 net.cpp:94] Creating Layer inception_3a/5x5_reduce
I0102 22:44:42.723387 10809 net.cpp:435] inception_3a/5x5_reduce <- pool2/3x3_s2_pool2/3x3_s2_0_split_2
I0102 22:44:42.723390 10809 net.cpp:409] inception_3a/5x5_reduce -> inception_3a/5x5_reduce_raw
I0102 22:44:42.723554 10809 net.cpp:144] Setting up inception_3a/5x5_reduce
I0102 22:44:42.723557 10809 net.cpp:151] Top shape: 1 16 40 80 (51200)
I0102 22:44:42.723560 10809 net.cpp:159] Memory required for data: 127590404
I0102 22:44:42.723563 10809 layer_factory.hpp:77] Creating layer inception_3a/5x5_reduce_BatchNorm
I0102 22:44:42.723567 10809 net.cpp:94] Creating Layer inception_3a/5x5_reduce_BatchNorm
I0102 22:44:42.723569 10809 net.cpp:435] inception_3a/5x5_reduce_BatchNorm <- inception_3a/5x5_reduce_raw
I0102 22:44:42.723572 10809 net.cpp:409] inception_3a/5x5_reduce_BatchNorm -> inception_3a/5x5_reduce
I0102 22:44:42.723917 10809 net.cpp:144] Setting up inception_3a/5x5_reduce_BatchNorm
I0102 22:44:42.723922 10809 net.cpp:151] Top shape: 1 16 40 80 (51200)
I0102 22:44:42.723924 10809 net.cpp:159] Memory required for data: 127795204
I0102 22:44:42.723929 10809 layer_factory.hpp:77] Creating layer inception_3a/relu_5x5_reduce
I0102 22:44:42.723932 10809 net.cpp:94] Creating Layer inception_3a/relu_5x5_reduce
I0102 22:44:42.723934 10809 net.cpp:435] inception_3a/relu_5x5_reduce <- inception_3a/5x5_reduce
I0102 22:44:42.723937 10809 net.cpp:396] inception_3a/relu_5x5_reduce -> inception_3a/5x5_reduce (in-place)
I0102 22:44:42.723939 10809 net.cpp:144] Setting up inception_3a/relu_5x5_reduce
I0102 22:44:42.723942 10809 net.cpp:151] Top shape: 1 16 40 80 (51200)
I0102 22:44:42.723943 10809 net.cpp:159] Memory required for data: 128000004
I0102 22:44:42.723945 10809 layer_factory.hpp:77] Creating layer inception_3a/5x5
I0102 22:44:42.723949 10809 net.cpp:94] Creating Layer inception_3a/5x5
I0102 22:44:42.723951 10809 net.cpp:435] inception_3a/5x5 <- inception_3a/5x5_reduce
I0102 22:44:42.723954 10809 net.cpp:409] inception_3a/5x5 -> inception_3a/5x5_raw
I0102 22:44:42.724150 10809 net.cpp:144] Setting up inception_3a/5x5
I0102 22:44:42.724154 10809 net.cpp:151] Top shape: 1 32 40 80 (102400)
I0102 22:44:42.724156 10809 net.cpp:159] Memory required for data: 128409604
I0102 22:44:42.724160 10809 layer_factory.hpp:77] Creating layer inception_3a/5x5_BatchNorm
I0102 22:44:42.724164 10809 net.cpp:94] Creating Layer inception_3a/5x5_BatchNorm
I0102 22:44:42.724165 10809 net.cpp:435] inception_3a/5x5_BatchNorm <- inception_3a/5x5_raw
I0102 22:44:42.724169 10809 net.cpp:409] inception_3a/5x5_BatchNorm -> inception_3a/5x5
I0102 22:44:42.724517 10809 net.cpp:144] Setting up inception_3a/5x5_BatchNorm
I0102 22:44:42.724521 10809 net.cpp:151] Top shape: 1 32 40 80 (102400)
I0102 22:44:42.724524 10809 net.cpp:159] Memory required for data: 128819204
I0102 22:44:42.724529 10809 layer_factory.hpp:77] Creating layer inception_3a/relu_5x5
I0102 22:44:42.724531 10809 net.cpp:94] Creating Layer inception_3a/relu_5x5
I0102 22:44:42.724534 10809 net.cpp:435] inception_3a/relu_5x5 <- inception_3a/5x5
I0102 22:44:42.724536 10809 net.cpp:396] inception_3a/relu_5x5 -> inception_3a/5x5 (in-place)
I0102 22:44:42.724539 10809 net.cpp:144] Setting up inception_3a/relu_5x5
I0102 22:44:42.724540 10809 net.cpp:151] Top shape: 1 32 40 80 (102400)
I0102 22:44:42.724542 10809 net.cpp:159] Memory required for data: 129228804
I0102 22:44:42.724545 10809 layer_factory.hpp:77] Creating layer inception_3a/pool
I0102 22:44:42.724547 10809 net.cpp:94] Creating Layer inception_3a/pool
I0102 22:44:42.724550 10809 net.cpp:435] inception_3a/pool <- pool2/3x3_s2_pool2/3x3_s2_0_split_3
I0102 22:44:42.724552 10809 net.cpp:409] inception_3a/pool -> inception_3a/pool
I0102 22:44:42.724570 10809 net.cpp:144] Setting up inception_3a/pool
I0102 22:44:42.724572 10809 net.cpp:151] Top shape: 1 192 40 80 (614400)
I0102 22:44:42.724575 10809 net.cpp:159] Memory required for data: 131686404
I0102 22:44:42.724577 10809 layer_factory.hpp:77] Creating layer inception_3a/pool_proj
I0102 22:44:42.724581 10809 net.cpp:94] Creating Layer inception_3a/pool_proj
I0102 22:44:42.724582 10809 net.cpp:435] inception_3a/pool_proj <- inception_3a/pool
I0102 22:44:42.724586 10809 net.cpp:409] inception_3a/pool_proj -> inception_3a/pool_proj_raw
I0102 22:44:42.724746 10809 net.cpp:144] Setting up inception_3a/pool_proj
I0102 22:44:42.724750 10809 net.cpp:151] Top shape: 1 32 40 80 (102400)
I0102 22:44:42.724752 10809 net.cpp:159] Memory required for data: 132096004
I0102 22:44:42.724756 10809 layer_factory.hpp:77] Creating layer inception_3a/pool_proj_BatchNorm
I0102 22:44:42.724759 10809 net.cpp:94] Creating Layer inception_3a/pool_proj_BatchNorm
I0102 22:44:42.724761 10809 net.cpp:435] inception_3a/pool_proj_BatchNorm <- inception_3a/pool_proj_raw
I0102 22:44:42.724764 10809 net.cpp:409] inception_3a/pool_proj_BatchNorm -> inception_3a/pool_proj
I0102 22:44:42.725106 10809 net.cpp:144] Setting up inception_3a/pool_proj_BatchNorm
I0102 22:44:42.725111 10809 net.cpp:151] Top shape: 1 32 40 80 (102400)
I0102 22:44:42.725113 10809 net.cpp:159] Memory required for data: 132505604
I0102 22:44:42.725118 10809 layer_factory.hpp:77] Creating layer inception_3a/relu_pool_proj
I0102 22:44:42.725122 10809 net.cpp:94] Creating Layer inception_3a/relu_pool_proj
I0102 22:44:42.725124 10809 net.cpp:435] inception_3a/relu_pool_proj <- inception_3a/pool_proj
I0102 22:44:42.725126 10809 net.cpp:396] inception_3a/relu_pool_proj -> inception_3a/pool_proj (in-place)
I0102 22:44:42.725131 10809 net.cpp:144] Setting up inception_3a/relu_pool_proj
I0102 22:44:42.725131 10809 net.cpp:151] Top shape: 1 32 40 80 (102400)
I0102 22:44:42.725134 10809 net.cpp:159] Memory required for data: 132915204
I0102 22:44:42.725136 10809 layer_factory.hpp:77] Creating layer inception_3a/output
I0102 22:44:42.725142 10809 net.cpp:94] Creating Layer inception_3a/output
I0102 22:44:42.725144 10809 net.cpp:435] inception_3a/output <- inception_3a/1x1
I0102 22:44:42.725147 10809 net.cpp:435] inception_3a/output <- inception_3a/3x3
I0102 22:44:42.725148 10809 net.cpp:435] inception_3a/output <- inception_3a/5x5
I0102 22:44:42.725150 10809 net.cpp:435] inception_3a/output <- inception_3a/pool_proj
I0102 22:44:42.725153 10809 net.cpp:409] inception_3a/output -> inception_3a/output
I0102 22:44:42.725164 10809 net.cpp:144] Setting up inception_3a/output
I0102 22:44:42.725167 10809 net.cpp:151] Top shape: 1 256 40 80 (819200)
I0102 22:44:42.725168 10809 net.cpp:159] Memory required for data: 136192004
I0102 22:44:42.725170 10809 layer_factory.hpp:77] Creating layer inception_3a/output_inception_3a/output_0_split
I0102 22:44:42.725173 10809 net.cpp:94] Creating Layer inception_3a/output_inception_3a/output_0_split
I0102 22:44:42.725175 10809 net.cpp:435] inception_3a/output_inception_3a/output_0_split <- inception_3a/output
I0102 22:44:42.725178 10809 net.cpp:409] inception_3a/output_inception_3a/output_0_split -> inception_3a/output_inception_3a/output_0_split_0
I0102 22:44:42.725181 10809 net.cpp:409] inception_3a/output_inception_3a/output_0_split -> inception_3a/output_inception_3a/output_0_split_1
I0102 22:44:42.725184 10809 net.cpp:409] inception_3a/output_inception_3a/output_0_split -> inception_3a/output_inception_3a/output_0_split_2
I0102 22:44:42.725188 10809 net.cpp:409] inception_3a/output_inception_3a/output_0_split -> inception_3a/output_inception_3a/output_0_split_3
I0102 22:44:42.725215 10809 net.cpp:144] Setting up inception_3a/output_inception_3a/output_0_split
I0102 22:44:42.725217 10809 net.cpp:151] Top shape: 1 256 40 80 (819200)
I0102 22:44:42.725220 10809 net.cpp:151] Top shape: 1 256 40 80 (819200)
I0102 22:44:42.725222 10809 net.cpp:151] Top shape: 1 256 40 80 (819200)
I0102 22:44:42.725225 10809 net.cpp:151] Top shape: 1 256 40 80 (819200)
I0102 22:44:42.725227 10809 net.cpp:159] Memory required for data: 149299204
I0102 22:44:42.725229 10809 layer_factory.hpp:77] Creating layer inception_3b/1x1
I0102 22:44:42.725234 10809 net.cpp:94] Creating Layer inception_3b/1x1
I0102 22:44:42.725235 10809 net.cpp:435] inception_3b/1x1 <- inception_3a/output_inception_3a/output_0_split_0
I0102 22:44:42.725239 10809 net.cpp:409] inception_3b/1x1 -> inception_3b/1x1_raw
I0102 22:44:42.725538 10809 net.cpp:144] Setting up inception_3b/1x1
I0102 22:44:42.725540 10809 net.cpp:151] Top shape: 1 128 40 80 (409600)
I0102 22:44:42.725543 10809 net.cpp:159] Memory required for data: 150937604
I0102 22:44:42.725548 10809 layer_factory.hpp:77] Creating layer inception_3b/1x1_BatchNorm
I0102 22:44:42.725551 10809 net.cpp:94] Creating Layer inception_3b/1x1_BatchNorm
I0102 22:44:42.725553 10809 net.cpp:435] inception_3b/1x1_BatchNorm <- inception_3b/1x1_raw
I0102 22:44:42.725556 10809 net.cpp:409] inception_3b/1x1_BatchNorm -> inception_3b/1x1
I0102 22:44:42.725863 10809 net.cpp:144] Setting up inception_3b/1x1_BatchNorm
I0102 22:44:42.725867 10809 net.cpp:151] Top shape: 1 128 40 80 (409600)
I0102 22:44:42.725870 10809 net.cpp:159] Memory required for data: 152576004
I0102 22:44:42.725875 10809 layer_factory.hpp:77] Creating layer inception_3b/relu_1x1
I0102 22:44:42.725878 10809 net.cpp:94] Creating Layer inception_3b/relu_1x1
I0102 22:44:42.725880 10809 net.cpp:435] inception_3b/relu_1x1 <- inception_3b/1x1
I0102 22:44:42.725883 10809 net.cpp:396] inception_3b/relu_1x1 -> inception_3b/1x1 (in-place)
I0102 22:44:42.725885 10809 net.cpp:144] Setting up inception_3b/relu_1x1
I0102 22:44:42.725888 10809 net.cpp:151] Top shape: 1 128 40 80 (409600)
I0102 22:44:42.725889 10809 net.cpp:159] Memory required for data: 154214404
I0102 22:44:42.725891 10809 layer_factory.hpp:77] Creating layer inception_3b/3x3_reduce
I0102 22:44:42.725895 10809 net.cpp:94] Creating Layer inception_3b/3x3_reduce
I0102 22:44:42.725898 10809 net.cpp:435] inception_3b/3x3_reduce <- inception_3a/output_inception_3a/output_0_split_1
I0102 22:44:42.725899 10809 net.cpp:409] inception_3b/3x3_reduce -> inception_3b/3x3_reduce_raw
I0102 22:44:42.726197 10809 net.cpp:144] Setting up inception_3b/3x3_reduce
I0102 22:44:42.726200 10809 net.cpp:151] Top shape: 1 128 40 80 (409600)
I0102 22:44:42.726202 10809 net.cpp:159] Memory required for data: 155852804
I0102 22:44:42.726205 10809 layer_factory.hpp:77] Creating layer inception_3b/3x3_reduce_BatchNorm
I0102 22:44:42.726209 10809 net.cpp:94] Creating Layer inception_3b/3x3_reduce_BatchNorm
I0102 22:44:42.726212 10809 net.cpp:435] inception_3b/3x3_reduce_BatchNorm <- inception_3b/3x3_reduce_raw
I0102 22:44:42.726214 10809 net.cpp:409] inception_3b/3x3_reduce_BatchNorm -> inception_3b/3x3_reduce
I0102 22:44:42.726516 10809 net.cpp:144] Setting up inception_3b/3x3_reduce_BatchNorm
I0102 22:44:42.726519 10809 net.cpp:151] Top shape: 1 128 40 80 (409600)
I0102 22:44:42.726522 10809 net.cpp:159] Memory required for data: 157491204
I0102 22:44:42.726527 10809 layer_factory.hpp:77] Creating layer inception_3b/relu_3x3_reduce
I0102 22:44:42.726531 10809 net.cpp:94] Creating Layer inception_3b/relu_3x3_reduce
I0102 22:44:42.726532 10809 net.cpp:435] inception_3b/relu_3x3_reduce <- inception_3b/3x3_reduce
I0102 22:44:42.726534 10809 net.cpp:396] inception_3b/relu_3x3_reduce -> inception_3b/3x3_reduce (in-place)
I0102 22:44:42.726537 10809 net.cpp:144] Setting up inception_3b/relu_3x3_reduce
I0102 22:44:42.726539 10809 net.cpp:151] Top shape: 1 128 40 80 (409600)
I0102 22:44:42.726541 10809 net.cpp:159] Memory required for data: 159129604
I0102 22:44:42.726543 10809 layer_factory.hpp:77] Creating layer inception_3b/3x3
I0102 22:44:42.726547 10809 net.cpp:94] Creating Layer inception_3b/3x3
I0102 22:44:42.726554 10809 net.cpp:435] inception_3b/3x3 <- inception_3b/3x3_reduce
I0102 22:44:42.726557 10809 net.cpp:409] inception_3b/3x3 -> inception_3b/3x3_raw
I0102 22:44:42.728602 10809 net.cpp:144] Setting up inception_3b/3x3
I0102 22:44:42.728611 10809 net.cpp:151] Top shape: 1 192 40 80 (614400)
I0102 22:44:42.728615 10809 net.cpp:159] Memory required for data: 161587204
I0102 22:44:42.728618 10809 layer_factory.hpp:77] Creating layer inception_3b/3x3_BatchNorm
I0102 22:44:42.728623 10809 net.cpp:94] Creating Layer inception_3b/3x3_BatchNorm
I0102 22:44:42.728626 10809 net.cpp:435] inception_3b/3x3_BatchNorm <- inception_3b/3x3_raw
I0102 22:44:42.728628 10809 net.cpp:409] inception_3b/3x3_BatchNorm -> inception_3b/3x3
I0102 22:44:42.728996 10809 net.cpp:144] Setting up inception_3b/3x3_BatchNorm
I0102 22:44:42.729001 10809 net.cpp:151] Top shape: 1 192 40 80 (614400)
I0102 22:44:42.729003 10809 net.cpp:159] Memory required for data: 164044804
I0102 22:44:42.729008 10809 layer_factory.hpp:77] Creating layer inception_3b/relu_3x3
I0102 22:44:42.729012 10809 net.cpp:94] Creating Layer inception_3b/relu_3x3
I0102 22:44:42.729013 10809 net.cpp:435] inception_3b/relu_3x3 <- inception_3b/3x3
I0102 22:44:42.729015 10809 net.cpp:396] inception_3b/relu_3x3 -> inception_3b/3x3 (in-place)
I0102 22:44:42.729019 10809 net.cpp:144] Setting up inception_3b/relu_3x3
I0102 22:44:42.729020 10809 net.cpp:151] Top shape: 1 192 40 80 (614400)
I0102 22:44:42.729023 10809 net.cpp:159] Memory required for data: 166502404
I0102 22:44:42.729025 10809 layer_factory.hpp:77] Creating layer inception_3b/5x5_reduce
I0102 22:44:42.729029 10809 net.cpp:94] Creating Layer inception_3b/5x5_reduce
I0102 22:44:42.729032 10809 net.cpp:435] inception_3b/5x5_reduce <- inception_3a/output_inception_3a/output_0_split_2
I0102 22:44:42.729035 10809 net.cpp:409] inception_3b/5x5_reduce -> inception_3b/5x5_reduce_raw
I0102 22:44:42.729220 10809 net.cpp:144] Setting up inception_3b/5x5_reduce
I0102 22:44:42.729224 10809 net.cpp:151] Top shape: 1 32 40 80 (102400)
I0102 22:44:42.729228 10809 net.cpp:159] Memory required for data: 166912004
I0102 22:44:42.729230 10809 layer_factory.hpp:77] Creating layer inception_3b/5x5_reduce_BatchNorm
I0102 22:44:42.729234 10809 net.cpp:94] Creating Layer inception_3b/5x5_reduce_BatchNorm
I0102 22:44:42.729236 10809 net.cpp:435] inception_3b/5x5_reduce_BatchNorm <- inception_3b/5x5_reduce_raw
I0102 22:44:42.729238 10809 net.cpp:409] inception_3b/5x5_reduce_BatchNorm -> inception_3b/5x5_reduce
I0102 22:44:42.729614 10809 net.cpp:144] Setting up inception_3b/5x5_reduce_BatchNorm
I0102 22:44:42.729620 10809 net.cpp:151] Top shape: 1 32 40 80 (102400)
I0102 22:44:42.729624 10809 net.cpp:159] Memory required for data: 167321604
I0102 22:44:42.729630 10809 layer_factory.hpp:77] Creating layer inception_3b/relu_5x5_reduce
I0102 22:44:42.729633 10809 net.cpp:94] Creating Layer inception_3b/relu_5x5_reduce
I0102 22:44:42.729635 10809 net.cpp:435] inception_3b/relu_5x5_reduce <- inception_3b/5x5_reduce
I0102 22:44:42.729638 10809 net.cpp:396] inception_3b/relu_5x5_reduce -> inception_3b/5x5_reduce (in-place)
I0102 22:44:42.729642 10809 net.cpp:144] Setting up inception_3b/relu_5x5_reduce
I0102 22:44:42.729645 10809 net.cpp:151] Top shape: 1 32 40 80 (102400)
I0102 22:44:42.729646 10809 net.cpp:159] Memory required for data: 167731204
I0102 22:44:42.729648 10809 layer_factory.hpp:77] Creating layer inception_3b/5x5
I0102 22:44:42.729653 10809 net.cpp:94] Creating Layer inception_3b/5x5
I0102 22:44:42.729655 10809 net.cpp:435] inception_3b/5x5 <- inception_3b/5x5_reduce
I0102 22:44:42.729658 10809 net.cpp:409] inception_3b/5x5 -> inception_3b/5x5_raw
I0102 22:44:42.730935 10809 net.cpp:144] Setting up inception_3b/5x5
I0102 22:44:42.730942 10809 net.cpp:151] Top shape: 1 96 40 80 (307200)
I0102 22:44:42.730945 10809 net.cpp:159] Memory required for data: 168960004
I0102 22:44:42.730949 10809 layer_factory.hpp:77] Creating layer inception_3b/5x5_BatchNorm
I0102 22:44:42.730954 10809 net.cpp:94] Creating Layer inception_3b/5x5_BatchNorm
I0102 22:44:42.730957 10809 net.cpp:435] inception_3b/5x5_BatchNorm <- inception_3b/5x5_raw
I0102 22:44:42.730959 10809 net.cpp:409] inception_3b/5x5_BatchNorm -> inception_3b/5x5
I0102 22:44:42.731346 10809 net.cpp:144] Setting up inception_3b/5x5_BatchNorm
I0102 22:44:42.731350 10809 net.cpp:151] Top shape: 1 96 40 80 (307200)
I0102 22:44:42.731353 10809 net.cpp:159] Memory required for data: 170188804
I0102 22:44:42.731359 10809 layer_factory.hpp:77] Creating layer inception_3b/relu_5x5
I0102 22:44:42.731361 10809 net.cpp:94] Creating Layer inception_3b/relu_5x5
I0102 22:44:42.731364 10809 net.cpp:435] inception_3b/relu_5x5 <- inception_3b/5x5
I0102 22:44:42.731365 10809 net.cpp:396] inception_3b/relu_5x5 -> inception_3b/5x5 (in-place)
I0102 22:44:42.731369 10809 net.cpp:144] Setting up inception_3b/relu_5x5
I0102 22:44:42.731370 10809 net.cpp:151] Top shape: 1 96 40 80 (307200)
I0102 22:44:42.731372 10809 net.cpp:159] Memory required for data: 171417604
I0102 22:44:42.731374 10809 layer_factory.hpp:77] Creating layer inception_3b/pool
I0102 22:44:42.731379 10809 net.cpp:94] Creating Layer inception_3b/pool
I0102 22:44:42.731380 10809 net.cpp:435] inception_3b/pool <- inception_3a/output_inception_3a/output_0_split_3
I0102 22:44:42.731384 10809 net.cpp:409] inception_3b/pool -> inception_3b/pool
I0102 22:44:42.731400 10809 net.cpp:144] Setting up inception_3b/pool
I0102 22:44:42.731403 10809 net.cpp:151] Top shape: 1 256 40 80 (819200)
I0102 22:44:42.731405 10809 net.cpp:159] Memory required for data: 174694404
I0102 22:44:42.731407 10809 layer_factory.hpp:77] Creating layer inception_3b/pool_proj
I0102 22:44:42.731411 10809 net.cpp:94] Creating Layer inception_3b/pool_proj
I0102 22:44:42.731413 10809 net.cpp:435] inception_3b/pool_proj <- inception_3b/pool
I0102 22:44:42.731416 10809 net.cpp:409] inception_3b/pool_proj -> inception_3b/pool_proj_raw
I0102 22:44:42.731643 10809 net.cpp:144] Setting up inception_3b/pool_proj
I0102 22:44:42.731647 10809 net.cpp:151] Top shape: 1 64 40 80 (204800)
I0102 22:44:42.731649 10809 net.cpp:159] Memory required for data: 175513604
I0102 22:44:42.731653 10809 layer_factory.hpp:77] Creating layer inception_3b/pool_proj_BatchNorm
I0102 22:44:42.731657 10809 net.cpp:94] Creating Layer inception_3b/pool_proj_BatchNorm
I0102 22:44:42.731658 10809 net.cpp:435] inception_3b/pool_proj_BatchNorm <- inception_3b/pool_proj_raw
I0102 22:44:42.731662 10809 net.cpp:409] inception_3b/pool_proj_BatchNorm -> inception_3b/pool_proj
I0102 22:44:42.732049 10809 net.cpp:144] Setting up inception_3b/pool_proj_BatchNorm
I0102 22:44:42.732055 10809 net.cpp:151] Top shape: 1 64 40 80 (204800)
I0102 22:44:42.732061 10809 net.cpp:159] Memory required for data: 176332804
I0102 22:44:42.732070 10809 layer_factory.hpp:77] Creating layer inception_3b/relu_pool_proj
I0102 22:44:42.732074 10809 net.cpp:94] Creating Layer inception_3b/relu_pool_proj
I0102 22:44:42.732077 10809 net.cpp:435] inception_3b/relu_pool_proj <- inception_3b/pool_proj
I0102 22:44:42.732081 10809 net.cpp:396] inception_3b/relu_pool_proj -> inception_3b/pool_proj (in-place)
I0102 22:44:42.732087 10809 net.cpp:144] Setting up inception_3b/relu_pool_proj
I0102 22:44:42.732089 10809 net.cpp:151] Top shape: 1 64 40 80 (204800)
I0102 22:44:42.732100 10809 net.cpp:159] Memory required for data: 177152004
I0102 22:44:42.732102 10809 layer_factory.hpp:77] Creating layer inception_3b/output
I0102 22:44:42.732107 10809 net.cpp:94] Creating Layer inception_3b/output
I0102 22:44:42.732110 10809 net.cpp:435] inception_3b/output <- inception_3b/1x1
I0102 22:44:42.732113 10809 net.cpp:435] inception_3b/output <- inception_3b/3x3
I0102 22:44:42.732116 10809 net.cpp:435] inception_3b/output <- inception_3b/5x5
I0102 22:44:42.732118 10809 net.cpp:435] inception_3b/output <- inception_3b/pool_proj
I0102 22:44:42.732122 10809 net.cpp:409] inception_3b/output -> inception_3b/output
I0102 22:44:42.732340 10809 net.cpp:144] Setting up inception_3b/output
I0102 22:44:42.732355 10809 net.cpp:151] Top shape: 1 480 40 80 (1536000)
I0102 22:44:42.732363 10809 net.cpp:159] Memory required for data: 183296004
I0102 22:44:42.732374 10809 layer_factory.hpp:77] Creating layer inception_3b/output_inception_3b/output_0_split
I0102 22:44:42.732384 10809 net.cpp:94] Creating Layer inception_3b/output_inception_3b/output_0_split
I0102 22:44:42.732391 10809 net.cpp:435] inception_3b/output_inception_3b/output_0_split <- inception_3b/output
I0102 22:44:42.732399 10809 net.cpp:409] inception_3b/output_inception_3b/output_0_split -> inception_3b/output_inception_3b/output_0_split_0
I0102 22:44:42.732411 10809 net.cpp:409] inception_3b/output_inception_3b/output_0_split -> inception_3b/output_inception_3b/output_0_split_1
I0102 22:44:42.732465 10809 net.cpp:144] Setting up inception_3b/output_inception_3b/output_0_split
I0102 22:44:42.732470 10809 net.cpp:151] Top shape: 1 480 40 80 (1536000)
I0102 22:44:42.732482 10809 net.cpp:151] Top shape: 1 480 40 80 (1536000)
I0102 22:44:42.732489 10809 net.cpp:159] Memory required for data: 195584004
I0102 22:44:42.732494 10809 layer_factory.hpp:77] Creating layer pool3/3x3_s2
I0102 22:44:42.732502 10809 net.cpp:94] Creating Layer pool3/3x3_s2
I0102 22:44:42.732508 10809 net.cpp:435] pool3/3x3_s2 <- inception_3b/output_inception_3b/output_0_split_0
I0102 22:44:42.732515 10809 net.cpp:409] pool3/3x3_s2 -> pool3/3x3_s2
I0102 22:44:42.732566 10809 net.cpp:144] Setting up pool3/3x3_s2
I0102 22:44:42.732573 10809 net.cpp:151] Top shape: 1 480 20 40 (384000)
I0102 22:44:42.732581 10809 net.cpp:159] Memory required for data: 197120004
I0102 22:44:42.732589 10809 layer_factory.hpp:77] Creating layer pool3/3x3_s2_pool3/3x3_s2_0_split
I0102 22:44:42.732596 10809 net.cpp:94] Creating Layer pool3/3x3_s2_pool3/3x3_s2_0_split
I0102 22:44:42.732604 10809 net.cpp:435] pool3/3x3_s2_pool3/3x3_s2_0_split <- pool3/3x3_s2
I0102 22:44:42.732612 10809 net.cpp:409] pool3/3x3_s2_pool3/3x3_s2_0_split -> pool3/3x3_s2_pool3/3x3_s2_0_split_0
I0102 22:44:42.732622 10809 net.cpp:409] pool3/3x3_s2_pool3/3x3_s2_0_split -> pool3/3x3_s2_pool3/3x3_s2_0_split_1
I0102 22:44:42.732632 10809 net.cpp:409] pool3/3x3_s2_pool3/3x3_s2_0_split -> pool3/3x3_s2_pool3/3x3_s2_0_split_2
I0102 22:44:42.732641 10809 net.cpp:409] pool3/3x3_s2_pool3/3x3_s2_0_split -> pool3/3x3_s2_pool3/3x3_s2_0_split_3
I0102 22:44:42.732728 10809 net.cpp:144] Setting up pool3/3x3_s2_pool3/3x3_s2_0_split
I0102 22:44:42.732735 10809 net.cpp:151] Top shape: 1 480 20 40 (384000)
I0102 22:44:42.732744 10809 net.cpp:151] Top shape: 1 480 20 40 (384000)
I0102 22:44:42.732753 10809 net.cpp:151] Top shape: 1 480 20 40 (384000)
I0102 22:44:42.732760 10809 net.cpp:151] Top shape: 1 480 20 40 (384000)
I0102 22:44:42.732769 10809 net.cpp:159] Memory required for data: 203264004
I0102 22:44:42.732774 10809 layer_factory.hpp:77] Creating layer inception_4a/1x1
I0102 22:44:42.732786 10809 net.cpp:94] Creating Layer inception_4a/1x1
I0102 22:44:42.732792 10809 net.cpp:435] inception_4a/1x1 <- pool3/3x3_s2_pool3/3x3_s2_0_split_0
I0102 22:44:42.732802 10809 net.cpp:409] inception_4a/1x1 -> inception_4a/1x1_raw
I0102 22:44:42.734252 10809 net.cpp:144] Setting up inception_4a/1x1
I0102 22:44:42.734266 10809 net.cpp:151] Top shape: 1 192 20 40 (153600)
I0102 22:44:42.734274 10809 net.cpp:159] Memory required for data: 203878404
I0102 22:44:42.734285 10809 layer_factory.hpp:77] Creating layer inception_4a/1x1_BatchNorm
I0102 22:44:42.734295 10809 net.cpp:94] Creating Layer inception_4a/1x1_BatchNorm
I0102 22:44:42.734302 10809 net.cpp:435] inception_4a/1x1_BatchNorm <- inception_4a/1x1_raw
I0102 22:44:42.734308 10809 net.cpp:409] inception_4a/1x1_BatchNorm -> inception_4a/1x1
I0102 22:44:42.735118 10809 net.cpp:144] Setting up inception_4a/1x1_BatchNorm
I0102 22:44:42.735131 10809 net.cpp:151] Top shape: 1 192 20 40 (153600)
I0102 22:44:42.735137 10809 net.cpp:159] Memory required for data: 204492804
I0102 22:44:42.735148 10809 layer_factory.hpp:77] Creating layer inception_4a/relu_1x1
I0102 22:44:42.735155 10809 net.cpp:94] Creating Layer inception_4a/relu_1x1
I0102 22:44:42.735159 10809 net.cpp:435] inception_4a/relu_1x1 <- inception_4a/1x1
I0102 22:44:42.735167 10809 net.cpp:396] inception_4a/relu_1x1 -> inception_4a/1x1 (in-place)
I0102 22:44:42.735179 10809 net.cpp:144] Setting up inception_4a/relu_1x1
I0102 22:44:42.735184 10809 net.cpp:151] Top shape: 1 192 20 40 (153600)
I0102 22:44:42.735193 10809 net.cpp:159] Memory required for data: 205107204
I0102 22:44:42.735196 10809 layer_factory.hpp:77] Creating layer inception_4a/3x3_reduce
I0102 22:44:42.735208 10809 net.cpp:94] Creating Layer inception_4a/3x3_reduce
I0102 22:44:42.735213 10809 net.cpp:435] inception_4a/3x3_reduce <- pool3/3x3_s2_pool3/3x3_s2_0_split_1
I0102 22:44:42.735220 10809 net.cpp:409] inception_4a/3x3_reduce -> inception_4a/3x3_reduce_raw
I0102 22:44:42.735949 10809 net.cpp:144] Setting up inception_4a/3x3_reduce
I0102 22:44:42.735956 10809 net.cpp:151] Top shape: 1 96 20 40 (76800)
I0102 22:44:42.735965 10809 net.cpp:159] Memory required for data: 205414404
I0102 22:44:42.735973 10809 layer_factory.hpp:77] Creating layer inception_4a/3x3_reduce_BatchNorm
I0102 22:44:42.735981 10809 net.cpp:94] Creating Layer inception_4a/3x3_reduce_BatchNorm
I0102 22:44:42.735987 10809 net.cpp:435] inception_4a/3x3_reduce_BatchNorm <- inception_4a/3x3_reduce_raw
I0102 22:44:42.735996 10809 net.cpp:409] inception_4a/3x3_reduce_BatchNorm -> inception_4a/3x3_reduce
I0102 22:44:42.736644 10809 net.cpp:144] Setting up inception_4a/3x3_reduce_BatchNorm
I0102 22:44:42.736650 10809 net.cpp:151] Top shape: 1 96 20 40 (76800)
I0102 22:44:42.736660 10809 net.cpp:159] Memory required for data: 205721604
I0102 22:44:42.736671 10809 layer_factory.hpp:77] Creating layer inception_4a/relu_3x3_reduce
I0102 22:44:42.736677 10809 net.cpp:94] Creating Layer inception_4a/relu_3x3_reduce
I0102 22:44:42.736682 10809 net.cpp:435] inception_4a/relu_3x3_reduce <- inception_4a/3x3_reduce
I0102 22:44:42.736690 10809 net.cpp:396] inception_4a/relu_3x3_reduce -> inception_4a/3x3_reduce (in-place)
I0102 22:44:42.736698 10809 net.cpp:144] Setting up inception_4a/relu_3x3_reduce
I0102 22:44:42.736703 10809 net.cpp:151] Top shape: 1 96 20 40 (76800)
I0102 22:44:42.736711 10809 net.cpp:159] Memory required for data: 206028804
I0102 22:44:42.736716 10809 layer_factory.hpp:77] Creating layer inception_4a/3x3
I0102 22:44:42.736727 10809 net.cpp:94] Creating Layer inception_4a/3x3
I0102 22:44:42.736732 10809 net.cpp:435] inception_4a/3x3 <- inception_4a/3x3_reduce
I0102 22:44:42.736739 10809 net.cpp:409] inception_4a/3x3 -> inception_4a/3x3_raw
I0102 22:44:42.739720 10809 net.cpp:144] Setting up inception_4a/3x3
I0102 22:44:42.739734 10809 net.cpp:151] Top shape: 1 208 20 40 (166400)
I0102 22:44:42.739742 10809 net.cpp:159] Memory required for data: 206694404
I0102 22:44:42.739753 10809 layer_factory.hpp:77] Creating layer inception_4a/3x3_BatchNorm
I0102 22:44:42.739763 10809 net.cpp:94] Creating Layer inception_4a/3x3_BatchNorm
I0102 22:44:42.739784 10809 net.cpp:435] inception_4a/3x3_BatchNorm <- inception_4a/3x3_raw
I0102 22:44:42.739790 10809 net.cpp:409] inception_4a/3x3_BatchNorm -> inception_4a/3x3
I0102 22:44:42.740463 10809 net.cpp:144] Setting up inception_4a/3x3_BatchNorm
I0102 22:44:42.740470 10809 net.cpp:151] Top shape: 1 208 20 40 (166400)
I0102 22:44:42.740475 10809 net.cpp:159] Memory required for data: 207360004
I0102 22:44:42.740487 10809 layer_factory.hpp:77] Creating layer inception_4a/relu_3x3
I0102 22:44:42.740494 10809 net.cpp:94] Creating Layer inception_4a/relu_3x3
I0102 22:44:42.740500 10809 net.cpp:435] inception_4a/relu_3x3 <- inception_4a/3x3
I0102 22:44:42.740505 10809 net.cpp:396] inception_4a/relu_3x3 -> inception_4a/3x3 (in-place)
I0102 22:44:42.740514 10809 net.cpp:144] Setting up inception_4a/relu_3x3
I0102 22:44:42.740518 10809 net.cpp:151] Top shape: 1 208 20 40 (166400)
I0102 22:44:42.740525 10809 net.cpp:159] Memory required for data: 208025604
I0102 22:44:42.740530 10809 layer_factory.hpp:77] Creating layer inception_4a/5x5_reduce
I0102 22:44:42.740538 10809 net.cpp:94] Creating Layer inception_4a/5x5_reduce
I0102 22:44:42.740545 10809 net.cpp:435] inception_4a/5x5_reduce <- pool3/3x3_s2_pool3/3x3_s2_0_split_2
I0102 22:44:42.740551 10809 net.cpp:409] inception_4a/5x5_reduce -> inception_4a/5x5_reduce_raw
I0102 22:44:42.740876 10809 net.cpp:144] Setting up inception_4a/5x5_reduce
I0102 22:44:42.740882 10809 net.cpp:151] Top shape: 1 16 20 40 (12800)
I0102 22:44:42.740890 10809 net.cpp:159] Memory required for data: 208076804
I0102 22:44:42.740898 10809 layer_factory.hpp:77] Creating layer inception_4a/5x5_reduce_BatchNorm
I0102 22:44:42.740906 10809 net.cpp:94] Creating Layer inception_4a/5x5_reduce_BatchNorm
I0102 22:44:42.740911 10809 net.cpp:435] inception_4a/5x5_reduce_BatchNorm <- inception_4a/5x5_reduce_raw
I0102 22:44:42.740919 10809 net.cpp:409] inception_4a/5x5_reduce_BatchNorm -> inception_4a/5x5_reduce
I0102 22:44:42.741559 10809 net.cpp:144] Setting up inception_4a/5x5_reduce_BatchNorm
I0102 22:44:42.741565 10809 net.cpp:151] Top shape: 1 16 20 40 (12800)
I0102 22:44:42.741571 10809 net.cpp:159] Memory required for data: 208128004
I0102 22:44:42.741590 10809 layer_factory.hpp:77] Creating layer inception_4a/relu_5x5_reduce
I0102 22:44:42.741595 10809 net.cpp:94] Creating Layer inception_4a/relu_5x5_reduce
I0102 22:44:42.741600 10809 net.cpp:435] inception_4a/relu_5x5_reduce <- inception_4a/5x5_reduce
I0102 22:44:42.741607 10809 net.cpp:396] inception_4a/relu_5x5_reduce -> inception_4a/5x5_reduce (in-place)
I0102 22:44:42.741614 10809 net.cpp:144] Setting up inception_4a/relu_5x5_reduce
I0102 22:44:42.741617 10809 net.cpp:151] Top shape: 1 16 20 40 (12800)
I0102 22:44:42.741623 10809 net.cpp:159] Memory required for data: 208179204
I0102 22:44:42.741627 10809 layer_factory.hpp:77] Creating layer inception_4a/5x5
I0102 22:44:42.741639 10809 net.cpp:94] Creating Layer inception_4a/5x5
I0102 22:44:42.741643 10809 net.cpp:435] inception_4a/5x5 <- inception_4a/5x5_reduce
I0102 22:44:42.741650 10809 net.cpp:409] inception_4a/5x5 -> inception_4a/5x5_raw
I0102 22:44:42.742071 10809 net.cpp:144] Setting up inception_4a/5x5
I0102 22:44:42.742077 10809 net.cpp:151] Top shape: 1 48 20 40 (38400)
I0102 22:44:42.742082 10809 net.cpp:159] Memory required for data: 208332804
I0102 22:44:42.742089 10809 layer_factory.hpp:77] Creating layer inception_4a/5x5_BatchNorm
I0102 22:44:42.742094 10809 net.cpp:94] Creating Layer inception_4a/5x5_BatchNorm
I0102 22:44:42.742098 10809 net.cpp:435] inception_4a/5x5_BatchNorm <- inception_4a/5x5_raw
I0102 22:44:42.742103 10809 net.cpp:409] inception_4a/5x5_BatchNorm -> inception_4a/5x5
I0102 22:44:42.742769 10809 net.cpp:144] Setting up inception_4a/5x5_BatchNorm
I0102 22:44:42.742777 10809 net.cpp:151] Top shape: 1 48 20 40 (38400)
I0102 22:44:42.742784 10809 net.cpp:159] Memory required for data: 208486404
I0102 22:44:42.742795 10809 layer_factory.hpp:77] Creating layer inception_4a/relu_5x5
I0102 22:44:42.742803 10809 net.cpp:94] Creating Layer inception_4a/relu_5x5
I0102 22:44:42.742807 10809 net.cpp:435] inception_4a/relu_5x5 <- inception_4a/5x5
I0102 22:44:42.742813 10809 net.cpp:396] inception_4a/relu_5x5 -> inception_4a/5x5 (in-place)
I0102 22:44:42.742820 10809 net.cpp:144] Setting up inception_4a/relu_5x5
I0102 22:44:42.742827 10809 net.cpp:151] Top shape: 1 48 20 40 (38400)
I0102 22:44:42.742832 10809 net.cpp:159] Memory required for data: 208640004
I0102 22:44:42.742835 10809 layer_factory.hpp:77] Creating layer inception_4a/pool
I0102 22:44:42.742843 10809 net.cpp:94] Creating Layer inception_4a/pool
I0102 22:44:42.742851 10809 net.cpp:435] inception_4a/pool <- pool3/3x3_s2_pool3/3x3_s2_0_split_3
I0102 22:44:42.742856 10809 net.cpp:409] inception_4a/pool -> inception_4a/pool
I0102 22:44:42.742893 10809 net.cpp:144] Setting up inception_4a/pool
I0102 22:44:42.742899 10809 net.cpp:151] Top shape: 1 480 20 40 (384000)
I0102 22:44:42.742904 10809 net.cpp:159] Memory required for data: 210176004
I0102 22:44:42.742909 10809 layer_factory.hpp:77] Creating layer inception_4a/pool_proj
I0102 22:44:42.742918 10809 net.cpp:94] Creating Layer inception_4a/pool_proj
I0102 22:44:42.742923 10809 net.cpp:435] inception_4a/pool_proj <- inception_4a/pool
I0102 22:44:42.742928 10809 net.cpp:409] inception_4a/pool_proj -> inception_4a/pool_proj_raw
I0102 22:44:42.743500 10809 net.cpp:144] Setting up inception_4a/pool_proj
I0102 22:44:42.743510 10809 net.cpp:151] Top shape: 1 64 20 40 (51200)
I0102 22:44:42.743515 10809 net.cpp:159] Memory required for data: 210380804
I0102 22:44:42.743521 10809 layer_factory.hpp:77] Creating layer inception_4a/pool_proj_BatchNorm
I0102 22:44:42.743527 10809 net.cpp:94] Creating Layer inception_4a/pool_proj_BatchNorm
I0102 22:44:42.743531 10809 net.cpp:435] inception_4a/pool_proj_BatchNorm <- inception_4a/pool_proj_raw
I0102 22:44:42.743536 10809 net.cpp:409] inception_4a/pool_proj_BatchNorm -> inception_4a/pool_proj
I0102 22:44:42.744246 10809 net.cpp:144] Setting up inception_4a/pool_proj_BatchNorm
I0102 22:44:42.744257 10809 net.cpp:151] Top shape: 1 64 20 40 (51200)
I0102 22:44:42.744263 10809 net.cpp:159] Memory required for data: 210585604
I0102 22:44:42.744274 10809 layer_factory.hpp:77] Creating layer inception_4a/relu_pool_proj
I0102 22:44:42.744279 10809 net.cpp:94] Creating Layer inception_4a/relu_pool_proj
I0102 22:44:42.744283 10809 net.cpp:435] inception_4a/relu_pool_proj <- inception_4a/pool_proj
I0102 22:44:42.744288 10809 net.cpp:396] inception_4a/relu_pool_proj -> inception_4a/pool_proj (in-place)
I0102 22:44:42.744297 10809 net.cpp:144] Setting up inception_4a/relu_pool_proj
I0102 22:44:42.744298 10809 net.cpp:151] Top shape: 1 64 20 40 (51200)
I0102 22:44:42.744302 10809 net.cpp:159] Memory required for data: 210790404
I0102 22:44:42.744305 10809 layer_factory.hpp:77] Creating layer inception_4a/output
I0102 22:44:42.744310 10809 net.cpp:94] Creating Layer inception_4a/output
I0102 22:44:42.744313 10809 net.cpp:435] inception_4a/output <- inception_4a/1x1
I0102 22:44:42.744318 10809 net.cpp:435] inception_4a/output <- inception_4a/3x3
I0102 22:44:42.744320 10809 net.cpp:435] inception_4a/output <- inception_4a/5x5
I0102 22:44:42.744324 10809 net.cpp:435] inception_4a/output <- inception_4a/pool_proj
I0102 22:44:42.744328 10809 net.cpp:409] inception_4a/output -> inception_4a/output
I0102 22:44:42.744349 10809 net.cpp:144] Setting up inception_4a/output
I0102 22:44:42.744352 10809 net.cpp:151] Top shape: 1 512 20 40 (409600)
I0102 22:44:42.744357 10809 net.cpp:159] Memory required for data: 212428804
I0102 22:44:42.744359 10809 layer_factory.hpp:77] Creating layer inception_4a/output_inception_4a/output_0_split
I0102 22:44:42.744365 10809 net.cpp:94] Creating Layer inception_4a/output_inception_4a/output_0_split
I0102 22:44:42.744369 10809 net.cpp:435] inception_4a/output_inception_4a/output_0_split <- inception_4a/output
I0102 22:44:42.744372 10809 net.cpp:409] inception_4a/output_inception_4a/output_0_split -> inception_4a/output_inception_4a/output_0_split_0
I0102 22:44:42.744379 10809 net.cpp:409] inception_4a/output_inception_4a/output_0_split -> inception_4a/output_inception_4a/output_0_split_1
I0102 22:44:42.744383 10809 net.cpp:409] inception_4a/output_inception_4a/output_0_split -> inception_4a/output_inception_4a/output_0_split_2
I0102 22:44:42.744388 10809 net.cpp:409] inception_4a/output_inception_4a/output_0_split -> inception_4a/output_inception_4a/output_0_split_3
I0102 22:44:42.744437 10809 net.cpp:144] Setting up inception_4a/output_inception_4a/output_0_split
I0102 22:44:42.744441 10809 net.cpp:151] Top shape: 1 512 20 40 (409600)
I0102 22:44:42.744446 10809 net.cpp:151] Top shape: 1 512 20 40 (409600)
I0102 22:44:42.744449 10809 net.cpp:151] Top shape: 1 512 20 40 (409600)
I0102 22:44:42.744453 10809 net.cpp:151] Top shape: 1 512 20 40 (409600)
I0102 22:44:42.744457 10809 net.cpp:159] Memory required for data: 218982404
I0102 22:44:42.744460 10809 layer_factory.hpp:77] Creating layer inception_4b/1x1
I0102 22:44:42.744468 10809 net.cpp:94] Creating Layer inception_4b/1x1
I0102 22:44:42.744472 10809 net.cpp:435] inception_4b/1x1 <- inception_4a/output_inception_4a/output_0_split_0
I0102 22:44:42.744477 10809 net.cpp:409] inception_4b/1x1 -> inception_4b/1x1_raw
I0102 22:44:42.746618 10809 net.cpp:144] Setting up inception_4b/1x1
I0102 22:44:42.746630 10809 net.cpp:151] Top shape: 1 160 20 40 (128000)
I0102 22:44:42.746637 10809 net.cpp:159] Memory required for data: 219494404
I0102 22:44:42.746645 10809 layer_factory.hpp:77] Creating layer inception_4b/1x1_BatchNorm
I0102 22:44:42.746654 10809 net.cpp:94] Creating Layer inception_4b/1x1_BatchNorm
I0102 22:44:42.746659 10809 net.cpp:435] inception_4b/1x1_BatchNorm <- inception_4b/1x1_raw
I0102 22:44:42.746665 10809 net.cpp:409] inception_4b/1x1_BatchNorm -> inception_4b/1x1
I0102 22:44:42.747323 10809 net.cpp:144] Setting up inception_4b/1x1_BatchNorm
I0102 22:44:42.747329 10809 net.cpp:151] Top shape: 1 160 20 40 (128000)
I0102 22:44:42.747335 10809 net.cpp:159] Memory required for data: 220006404
I0102 22:44:42.747344 10809 layer_factory.hpp:77] Creating layer inception_4b/relu_1x1
I0102 22:44:42.747350 10809 net.cpp:94] Creating Layer inception_4b/relu_1x1
I0102 22:44:42.747354 10809 net.cpp:435] inception_4b/relu_1x1 <- inception_4b/1x1
I0102 22:44:42.747359 10809 net.cpp:396] inception_4b/relu_1x1 -> inception_4b/1x1 (in-place)
I0102 22:44:42.747365 10809 net.cpp:144] Setting up inception_4b/relu_1x1
I0102 22:44:42.747370 10809 net.cpp:151] Top shape: 1 160 20 40 (128000)
I0102 22:44:42.747373 10809 net.cpp:159] Memory required for data: 220518404
I0102 22:44:42.747376 10809 layer_factory.hpp:77] Creating layer inception_4b/3x3_reduce
I0102 22:44:42.747385 10809 net.cpp:94] Creating Layer inception_4b/3x3_reduce
I0102 22:44:42.747387 10809 net.cpp:435] inception_4b/3x3_reduce <- inception_4a/output_inception_4a/output_0_split_1
I0102 22:44:42.747392 10809 net.cpp:409] inception_4b/3x3_reduce -> inception_4b/3x3_reduce_raw
I0102 22:44:42.747915 10809 net.cpp:144] Setting up inception_4b/3x3_reduce
I0102 22:44:42.747920 10809 net.cpp:151] Top shape: 1 112 20 40 (89600)
I0102 22:44:42.747921 10809 net.cpp:159] Memory required for data: 220876804
I0102 22:44:42.747925 10809 layer_factory.hpp:77] Creating layer inception_4b/3x3_reduce_BatchNorm
I0102 22:44:42.747929 10809 net.cpp:94] Creating Layer inception_4b/3x3_reduce_BatchNorm
I0102 22:44:42.747931 10809 net.cpp:435] inception_4b/3x3_reduce_BatchNorm <- inception_4b/3x3_reduce_raw
I0102 22:44:42.747934 10809 net.cpp:409] inception_4b/3x3_reduce_BatchNorm -> inception_4b/3x3_reduce
I0102 22:44:42.748306 10809 net.cpp:144] Setting up inception_4b/3x3_reduce_BatchNorm
I0102 22:44:42.748311 10809 net.cpp:151] Top shape: 1 112 20 40 (89600)
I0102 22:44:42.748313 10809 net.cpp:159] Memory required for data: 221235204
I0102 22:44:42.748318 10809 layer_factory.hpp:77] Creating layer inception_4b/relu_3x3_reduce
I0102 22:44:42.748323 10809 net.cpp:94] Creating Layer inception_4b/relu_3x3_reduce
I0102 22:44:42.748325 10809 net.cpp:435] inception_4b/relu_3x3_reduce <- inception_4b/3x3_reduce
I0102 22:44:42.748327 10809 net.cpp:396] inception_4b/relu_3x3_reduce -> inception_4b/3x3_reduce (in-place)
I0102 22:44:42.748330 10809 net.cpp:144] Setting up inception_4b/relu_3x3_reduce
I0102 22:44:42.748332 10809 net.cpp:151] Top shape: 1 112 20 40 (89600)
I0102 22:44:42.748334 10809 net.cpp:159] Memory required for data: 221593604
I0102 22:44:42.748337 10809 layer_factory.hpp:77] Creating layer inception_4b/3x3
I0102 22:44:42.748340 10809 net.cpp:94] Creating Layer inception_4b/3x3
I0102 22:44:42.748342 10809 net.cpp:435] inception_4b/3x3 <- inception_4b/3x3_reduce
I0102 22:44:42.748345 10809 net.cpp:409] inception_4b/3x3 -> inception_4b/3x3_raw
I0102 22:44:42.751135 10809 net.cpp:144] Setting up inception_4b/3x3
I0102 22:44:42.751147 10809 net.cpp:151] Top shape: 1 224 20 40 (179200)
I0102 22:44:42.751152 10809 net.cpp:159] Memory required for data: 222310404
I0102 22:44:42.751157 10809 layer_factory.hpp:77] Creating layer inception_4b/3x3_BatchNorm
I0102 22:44:42.751164 10809 net.cpp:94] Creating Layer inception_4b/3x3_BatchNorm
I0102 22:44:42.751168 10809 net.cpp:435] inception_4b/3x3_BatchNorm <- inception_4b/3x3_raw
I0102 22:44:42.751173 10809 net.cpp:409] inception_4b/3x3_BatchNorm -> inception_4b/3x3
I0102 22:44:42.751695 10809 net.cpp:144] Setting up inception_4b/3x3_BatchNorm
I0102 22:44:42.751703 10809 net.cpp:151] Top shape: 1 224 20 40 (179200)
I0102 22:44:42.751705 10809 net.cpp:159] Memory required for data: 223027204
I0102 22:44:42.751713 10809 layer_factory.hpp:77] Creating layer inception_4b/relu_3x3
I0102 22:44:42.751718 10809 net.cpp:94] Creating Layer inception_4b/relu_3x3
I0102 22:44:42.751719 10809 net.cpp:435] inception_4b/relu_3x3 <- inception_4b/3x3
I0102 22:44:42.751724 10809 net.cpp:396] inception_4b/relu_3x3 -> inception_4b/3x3 (in-place)
I0102 22:44:42.751729 10809 net.cpp:144] Setting up inception_4b/relu_3x3
I0102 22:44:42.751732 10809 net.cpp:151] Top shape: 1 224 20 40 (179200)
I0102 22:44:42.751734 10809 net.cpp:159] Memory required for data: 223744004
I0102 22:44:42.751736 10809 layer_factory.hpp:77] Creating layer inception_4b/5x5_reduce
I0102 22:44:42.751742 10809 net.cpp:94] Creating Layer inception_4b/5x5_reduce
I0102 22:44:42.751749 10809 net.cpp:435] inception_4b/5x5_reduce <- inception_4a/output_inception_4a/output_0_split_2
I0102 22:44:42.751751 10809 net.cpp:409] inception_4b/5x5_reduce -> inception_4b/5x5_reduce_raw
I0102 22:44:42.751965 10809 net.cpp:144] Setting up inception_4b/5x5_reduce
I0102 22:44:42.751971 10809 net.cpp:151] Top shape: 1 24 20 40 (19200)
I0102 22:44:42.751972 10809 net.cpp:159] Memory required for data: 223820804
I0102 22:44:42.751976 10809 layer_factory.hpp:77] Creating layer inception_4b/5x5_reduce_BatchNorm
I0102 22:44:42.751979 10809 net.cpp:94] Creating Layer inception_4b/5x5_reduce_BatchNorm
I0102 22:44:42.751982 10809 net.cpp:435] inception_4b/5x5_reduce_BatchNorm <- inception_4b/5x5_reduce_raw
I0102 22:44:42.751984 10809 net.cpp:409] inception_4b/5x5_reduce_BatchNorm -> inception_4b/5x5_reduce
I0102 22:44:42.752383 10809 net.cpp:144] Setting up inception_4b/5x5_reduce_BatchNorm
I0102 22:44:42.752388 10809 net.cpp:151] Top shape: 1 24 20 40 (19200)
I0102 22:44:42.752391 10809 net.cpp:159] Memory required for data: 223897604
I0102 22:44:42.752398 10809 layer_factory.hpp:77] Creating layer inception_4b/relu_5x5_reduce
I0102 22:44:42.752403 10809 net.cpp:94] Creating Layer inception_4b/relu_5x5_reduce
I0102 22:44:42.752405 10809 net.cpp:435] inception_4b/relu_5x5_reduce <- inception_4b/5x5_reduce
I0102 22:44:42.752408 10809 net.cpp:396] inception_4b/relu_5x5_reduce -> inception_4b/5x5_reduce (in-place)
I0102 22:44:42.752413 10809 net.cpp:144] Setting up inception_4b/relu_5x5_reduce
I0102 22:44:42.752415 10809 net.cpp:151] Top shape: 1 24 20 40 (19200)
I0102 22:44:42.752418 10809 net.cpp:159] Memory required for data: 223974404
I0102 22:44:42.752420 10809 layer_factory.hpp:77] Creating layer inception_4b/5x5
I0102 22:44:42.752425 10809 net.cpp:94] Creating Layer inception_4b/5x5
I0102 22:44:42.752426 10809 net.cpp:435] inception_4b/5x5 <- inception_4b/5x5_reduce
I0102 22:44:42.752429 10809 net.cpp:409] inception_4b/5x5 -> inception_4b/5x5_raw
I0102 22:44:42.752787 10809 net.cpp:144] Setting up inception_4b/5x5
I0102 22:44:42.752791 10809 net.cpp:151] Top shape: 1 64 20 40 (51200)
I0102 22:44:42.752794 10809 net.cpp:159] Memory required for data: 224179204
I0102 22:44:42.752797 10809 layer_factory.hpp:77] Creating layer inception_4b/5x5_BatchNorm
I0102 22:44:42.752801 10809 net.cpp:94] Creating Layer inception_4b/5x5_BatchNorm
I0102 22:44:42.752804 10809 net.cpp:435] inception_4b/5x5_BatchNorm <- inception_4b/5x5_raw
I0102 22:44:42.752806 10809 net.cpp:409] inception_4b/5x5_BatchNorm -> inception_4b/5x5
I0102 22:44:42.753181 10809 net.cpp:144] Setting up inception_4b/5x5_BatchNorm
I0102 22:44:42.753185 10809 net.cpp:151] Top shape: 1 64 20 40 (51200)
I0102 22:44:42.753188 10809 net.cpp:159] Memory required for data: 224384004
I0102 22:44:42.753193 10809 layer_factory.hpp:77] Creating layer inception_4b/relu_5x5
I0102 22:44:42.753196 10809 net.cpp:94] Creating Layer inception_4b/relu_5x5
I0102 22:44:42.753198 10809 net.cpp:435] inception_4b/relu_5x5 <- inception_4b/5x5
I0102 22:44:42.753201 10809 net.cpp:396] inception_4b/relu_5x5 -> inception_4b/5x5 (in-place)
I0102 22:44:42.753204 10809 net.cpp:144] Setting up inception_4b/relu_5x5
I0102 22:44:42.753206 10809 net.cpp:151] Top shape: 1 64 20 40 (51200)
I0102 22:44:42.753207 10809 net.cpp:159] Memory required for data: 224588804
I0102 22:44:42.753209 10809 layer_factory.hpp:77] Creating layer inception_4b/pool
I0102 22:44:42.753213 10809 net.cpp:94] Creating Layer inception_4b/pool
I0102 22:44:42.753216 10809 net.cpp:435] inception_4b/pool <- inception_4a/output_inception_4a/output_0_split_3
I0102 22:44:42.753219 10809 net.cpp:409] inception_4b/pool -> inception_4b/pool
I0102 22:44:42.753237 10809 net.cpp:144] Setting up inception_4b/pool
I0102 22:44:42.753240 10809 net.cpp:151] Top shape: 1 512 20 40 (409600)
I0102 22:44:42.753242 10809 net.cpp:159] Memory required for data: 226227204
I0102 22:44:42.753244 10809 layer_factory.hpp:77] Creating layer inception_4b/pool_proj
I0102 22:44:42.753248 10809 net.cpp:94] Creating Layer inception_4b/pool_proj
I0102 22:44:42.753250 10809 net.cpp:435] inception_4b/pool_proj <- inception_4b/pool
I0102 22:44:42.753252 10809 net.cpp:409] inception_4b/pool_proj -> inception_4b/pool_proj_raw
I0102 22:44:42.753566 10809 net.cpp:144] Setting up inception_4b/pool_proj
I0102 22:44:42.753569 10809 net.cpp:151] Top shape: 1 64 20 40 (51200)
I0102 22:44:42.753572 10809 net.cpp:159] Memory required for data: 226432004
I0102 22:44:42.753576 10809 layer_factory.hpp:77] Creating layer inception_4b/pool_proj_BatchNorm
I0102 22:44:42.753579 10809 net.cpp:94] Creating Layer inception_4b/pool_proj_BatchNorm
I0102 22:44:42.753582 10809 net.cpp:435] inception_4b/pool_proj_BatchNorm <- inception_4b/pool_proj_raw
I0102 22:44:42.753583 10809 net.cpp:409] inception_4b/pool_proj_BatchNorm -> inception_4b/pool_proj
I0102 22:44:42.753957 10809 net.cpp:144] Setting up inception_4b/pool_proj_BatchNorm
I0102 22:44:42.753960 10809 net.cpp:151] Top shape: 1 64 20 40 (51200)
I0102 22:44:42.753963 10809 net.cpp:159] Memory required for data: 226636804
I0102 22:44:42.753968 10809 layer_factory.hpp:77] Creating layer inception_4b/relu_pool_proj
I0102 22:44:42.753973 10809 net.cpp:94] Creating Layer inception_4b/relu_pool_proj
I0102 22:44:42.753974 10809 net.cpp:435] inception_4b/relu_pool_proj <- inception_4b/pool_proj
I0102 22:44:42.753978 10809 net.cpp:396] inception_4b/relu_pool_proj -> inception_4b/pool_proj (in-place)
I0102 22:44:42.753980 10809 net.cpp:144] Setting up inception_4b/relu_pool_proj
I0102 22:44:42.753983 10809 net.cpp:151] Top shape: 1 64 20 40 (51200)
I0102 22:44:42.753984 10809 net.cpp:159] Memory required for data: 226841604
I0102 22:44:42.753986 10809 layer_factory.hpp:77] Creating layer inception_4b/output
I0102 22:44:42.753989 10809 net.cpp:94] Creating Layer inception_4b/output
I0102 22:44:42.753991 10809 net.cpp:435] inception_4b/output <- inception_4b/1x1
I0102 22:44:42.753993 10809 net.cpp:435] inception_4b/output <- inception_4b/3x3
I0102 22:44:42.753995 10809 net.cpp:435] inception_4b/output <- inception_4b/5x5
I0102 22:44:42.753998 10809 net.cpp:435] inception_4b/output <- inception_4b/pool_proj
I0102 22:44:42.753999 10809 net.cpp:409] inception_4b/output -> inception_4b/output
I0102 22:44:42.754010 10809 net.cpp:144] Setting up inception_4b/output
I0102 22:44:42.754014 10809 net.cpp:151] Top shape: 1 512 20 40 (409600)
I0102 22:44:42.754015 10809 net.cpp:159] Memory required for data: 228480004
I0102 22:44:42.754017 10809 layer_factory.hpp:77] Creating layer inception_4b/output_inception_4b/output_0_split
I0102 22:44:42.754020 10809 net.cpp:94] Creating Layer inception_4b/output_inception_4b/output_0_split
I0102 22:44:42.754022 10809 net.cpp:435] inception_4b/output_inception_4b/output_0_split <- inception_4b/output
I0102 22:44:42.754025 10809 net.cpp:409] inception_4b/output_inception_4b/output_0_split -> inception_4b/output_inception_4b/output_0_split_0
I0102 22:44:42.754029 10809 net.cpp:409] inception_4b/output_inception_4b/output_0_split -> inception_4b/output_inception_4b/output_0_split_1
I0102 22:44:42.754031 10809 net.cpp:409] inception_4b/output_inception_4b/output_0_split -> inception_4b/output_inception_4b/output_0_split_2
I0102 22:44:42.754034 10809 net.cpp:409] inception_4b/output_inception_4b/output_0_split -> inception_4b/output_inception_4b/output_0_split_3
I0102 22:44:42.754063 10809 net.cpp:144] Setting up inception_4b/output_inception_4b/output_0_split
I0102 22:44:42.754065 10809 net.cpp:151] Top shape: 1 512 20 40 (409600)
I0102 22:44:42.754068 10809 net.cpp:151] Top shape: 1 512 20 40 (409600)
I0102 22:44:42.754070 10809 net.cpp:151] Top shape: 1 512 20 40 (409600)
I0102 22:44:42.754072 10809 net.cpp:151] Top shape: 1 512 20 40 (409600)
I0102 22:44:42.754076 10809 net.cpp:159] Memory required for data: 235033604
I0102 22:44:42.754076 10809 layer_factory.hpp:77] Creating layer inception_4c/1x1
I0102 22:44:42.754081 10809 net.cpp:94] Creating Layer inception_4c/1x1
I0102 22:44:42.754082 10809 net.cpp:435] inception_4c/1x1 <- inception_4b/output_inception_4b/output_0_split_0
I0102 22:44:42.754086 10809 net.cpp:409] inception_4c/1x1 -> inception_4c/1x1_raw
I0102 22:44:42.754591 10809 net.cpp:144] Setting up inception_4c/1x1
I0102 22:44:42.754595 10809 net.cpp:151] Top shape: 1 128 20 40 (102400)
I0102 22:44:42.754597 10809 net.cpp:159] Memory required for data: 235443204
I0102 22:44:42.754601 10809 layer_factory.hpp:77] Creating layer inception_4c/1x1_BatchNorm
I0102 22:44:42.754606 10809 net.cpp:94] Creating Layer inception_4c/1x1_BatchNorm
I0102 22:44:42.754607 10809 net.cpp:435] inception_4c/1x1_BatchNorm <- inception_4c/1x1_raw
I0102 22:44:42.754611 10809 net.cpp:409] inception_4c/1x1_BatchNorm -> inception_4c/1x1
I0102 22:44:42.754951 10809 net.cpp:144] Setting up inception_4c/1x1_BatchNorm
I0102 22:44:42.754954 10809 net.cpp:151] Top shape: 1 128 20 40 (102400)
I0102 22:44:42.754957 10809 net.cpp:159] Memory required for data: 235852804
I0102 22:44:42.754962 10809 layer_factory.hpp:77] Creating layer inception_4c/relu_1x1
I0102 22:44:42.754966 10809 net.cpp:94] Creating Layer inception_4c/relu_1x1
I0102 22:44:42.754967 10809 net.cpp:435] inception_4c/relu_1x1 <- inception_4c/1x1
I0102 22:44:42.754971 10809 net.cpp:396] inception_4c/relu_1x1 -> inception_4c/1x1 (in-place)
I0102 22:44:42.754973 10809 net.cpp:144] Setting up inception_4c/relu_1x1
I0102 22:44:42.754976 10809 net.cpp:151] Top shape: 1 128 20 40 (102400)
I0102 22:44:42.754977 10809 net.cpp:159] Memory required for data: 236262404
I0102 22:44:42.754979 10809 layer_factory.hpp:77] Creating layer inception_4c/3x3_reduce
I0102 22:44:42.754983 10809 net.cpp:94] Creating Layer inception_4c/3x3_reduce
I0102 22:44:42.754984 10809 net.cpp:435] inception_4c/3x3_reduce <- inception_4b/output_inception_4b/output_0_split_1
I0102 22:44:42.754987 10809 net.cpp:409] inception_4c/3x3_reduce -> inception_4c/3x3_reduce_raw
I0102 22:44:42.756238 10809 net.cpp:144] Setting up inception_4c/3x3_reduce
I0102 22:44:42.756245 10809 net.cpp:151] Top shape: 1 128 20 40 (102400)
I0102 22:44:42.756248 10809 net.cpp:159] Memory required for data: 236672004
I0102 22:44:42.756253 10809 layer_factory.hpp:77] Creating layer inception_4c/3x3_reduce_BatchNorm
I0102 22:44:42.756258 10809 net.cpp:94] Creating Layer inception_4c/3x3_reduce_BatchNorm
I0102 22:44:42.756259 10809 net.cpp:435] inception_4c/3x3_reduce_BatchNorm <- inception_4c/3x3_reduce_raw
I0102 22:44:42.756263 10809 net.cpp:409] inception_4c/3x3_reduce_BatchNorm -> inception_4c/3x3_reduce
I0102 22:44:42.756588 10809 net.cpp:144] Setting up inception_4c/3x3_reduce_BatchNorm
I0102 22:44:42.756592 10809 net.cpp:151] Top shape: 1 128 20 40 (102400)
I0102 22:44:42.756595 10809 net.cpp:159] Memory required for data: 237081604
I0102 22:44:42.756600 10809 layer_factory.hpp:77] Creating layer inception_4c/relu_3x3_reduce
I0102 22:44:42.756603 10809 net.cpp:94] Creating Layer inception_4c/relu_3x3_reduce
I0102 22:44:42.756605 10809 net.cpp:435] inception_4c/relu_3x3_reduce <- inception_4c/3x3_reduce
I0102 22:44:42.756608 10809 net.cpp:396] inception_4c/relu_3x3_reduce -> inception_4c/3x3_reduce (in-place)
I0102 22:44:42.756611 10809 net.cpp:144] Setting up inception_4c/relu_3x3_reduce
I0102 22:44:42.756613 10809 net.cpp:151] Top shape: 1 128 20 40 (102400)
I0102 22:44:42.756615 10809 net.cpp:159] Memory required for data: 237491204
I0102 22:44:42.756618 10809 layer_factory.hpp:77] Creating layer inception_4c/3x3
I0102 22:44:42.756621 10809 net.cpp:94] Creating Layer inception_4c/3x3
I0102 22:44:42.756623 10809 net.cpp:435] inception_4c/3x3 <- inception_4c/3x3_reduce
I0102 22:44:42.756626 10809 net.cpp:409] inception_4c/3x3 -> inception_4c/3x3_raw
I0102 22:44:42.759025 10809 net.cpp:144] Setting up inception_4c/3x3
I0102 22:44:42.759032 10809 net.cpp:151] Top shape: 1 256 20 40 (204800)
I0102 22:44:42.759035 10809 net.cpp:159] Memory required for data: 238310404
I0102 22:44:42.759040 10809 layer_factory.hpp:77] Creating layer inception_4c/3x3_BatchNorm
I0102 22:44:42.759045 10809 net.cpp:94] Creating Layer inception_4c/3x3_BatchNorm
I0102 22:44:42.759047 10809 net.cpp:435] inception_4c/3x3_BatchNorm <- inception_4c/3x3_raw
I0102 22:44:42.759052 10809 net.cpp:409] inception_4c/3x3_BatchNorm -> inception_4c/3x3
I0102 22:44:42.759374 10809 net.cpp:144] Setting up inception_4c/3x3_BatchNorm
I0102 22:44:42.759379 10809 net.cpp:151] Top shape: 1 256 20 40 (204800)
I0102 22:44:42.759382 10809 net.cpp:159] Memory required for data: 239129604
I0102 22:44:42.759387 10809 layer_factory.hpp:77] Creating layer inception_4c/relu_3x3
I0102 22:44:42.759390 10809 net.cpp:94] Creating Layer inception_4c/relu_3x3
I0102 22:44:42.759392 10809 net.cpp:435] inception_4c/relu_3x3 <- inception_4c/3x3
I0102 22:44:42.759394 10809 net.cpp:396] inception_4c/relu_3x3 -> inception_4c/3x3 (in-place)
I0102 22:44:42.759398 10809 net.cpp:144] Setting up inception_4c/relu_3x3
I0102 22:44:42.759399 10809 net.cpp:151] Top shape: 1 256 20 40 (204800)
I0102 22:44:42.759402 10809 net.cpp:159] Memory required for data: 239948804
I0102 22:44:42.759403 10809 layer_factory.hpp:77] Creating layer inception_4c/5x5_reduce
I0102 22:44:42.759408 10809 net.cpp:94] Creating Layer inception_4c/5x5_reduce
I0102 22:44:42.759410 10809 net.cpp:435] inception_4c/5x5_reduce <- inception_4b/output_inception_4b/output_0_split_2
I0102 22:44:42.759413 10809 net.cpp:409] inception_4c/5x5_reduce -> inception_4c/5x5_reduce_raw
I0102 22:44:42.759629 10809 net.cpp:144] Setting up inception_4c/5x5_reduce
I0102 22:44:42.759631 10809 net.cpp:151] Top shape: 1 24 20 40 (19200)
I0102 22:44:42.759634 10809 net.cpp:159] Memory required for data: 240025604
I0102 22:44:42.759637 10809 layer_factory.hpp:77] Creating layer inception_4c/5x5_reduce_BatchNorm
I0102 22:44:42.759641 10809 net.cpp:94] Creating Layer inception_4c/5x5_reduce_BatchNorm
I0102 22:44:42.759644 10809 net.cpp:435] inception_4c/5x5_reduce_BatchNorm <- inception_4c/5x5_reduce_raw
I0102 22:44:42.759646 10809 net.cpp:409] inception_4c/5x5_reduce_BatchNorm -> inception_4c/5x5_reduce
I0102 22:44:42.760037 10809 net.cpp:144] Setting up inception_4c/5x5_reduce_BatchNorm
I0102 22:44:42.760046 10809 net.cpp:151] Top shape: 1 24 20 40 (19200)
I0102 22:44:42.760049 10809 net.cpp:159] Memory required for data: 240102404
I0102 22:44:42.760056 10809 layer_factory.hpp:77] Creating layer inception_4c/relu_5x5_reduce
I0102 22:44:42.760058 10809 net.cpp:94] Creating Layer inception_4c/relu_5x5_reduce
I0102 22:44:42.760061 10809 net.cpp:435] inception_4c/relu_5x5_reduce <- inception_4c/5x5_reduce
I0102 22:44:42.760063 10809 net.cpp:396] inception_4c/relu_5x5_reduce -> inception_4c/5x5_reduce (in-place)
I0102 22:44:42.760067 10809 net.cpp:144] Setting up inception_4c/relu_5x5_reduce
I0102 22:44:42.760069 10809 net.cpp:151] Top shape: 1 24 20 40 (19200)
I0102 22:44:42.760071 10809 net.cpp:159] Memory required for data: 240179204
I0102 22:44:42.760073 10809 layer_factory.hpp:77] Creating layer inception_4c/5x5
I0102 22:44:42.760078 10809 net.cpp:94] Creating Layer inception_4c/5x5
I0102 22:44:42.760080 10809 net.cpp:435] inception_4c/5x5 <- inception_4c/5x5_reduce
I0102 22:44:42.760083 10809 net.cpp:409] inception_4c/5x5 -> inception_4c/5x5_raw
I0102 22:44:42.760426 10809 net.cpp:144] Setting up inception_4c/5x5
I0102 22:44:42.760432 10809 net.cpp:151] Top shape: 1 64 20 40 (51200)
I0102 22:44:42.760434 10809 net.cpp:159] Memory required for data: 240384004
I0102 22:44:42.760437 10809 layer_factory.hpp:77] Creating layer inception_4c/5x5_BatchNorm
I0102 22:44:42.760442 10809 net.cpp:94] Creating Layer inception_4c/5x5_BatchNorm
I0102 22:44:42.760443 10809 net.cpp:435] inception_4c/5x5_BatchNorm <- inception_4c/5x5_raw
I0102 22:44:42.760447 10809 net.cpp:409] inception_4c/5x5_BatchNorm -> inception_4c/5x5
I0102 22:44:42.760865 10809 net.cpp:144] Setting up inception_4c/5x5_BatchNorm
I0102 22:44:42.760872 10809 net.cpp:151] Top shape: 1 64 20 40 (51200)
I0102 22:44:42.760876 10809 net.cpp:159] Memory required for data: 240588804
I0102 22:44:42.760882 10809 layer_factory.hpp:77] Creating layer inception_4c/relu_5x5
I0102 22:44:42.760885 10809 net.cpp:94] Creating Layer inception_4c/relu_5x5
I0102 22:44:42.760888 10809 net.cpp:435] inception_4c/relu_5x5 <- inception_4c/5x5
I0102 22:44:42.760890 10809 net.cpp:396] inception_4c/relu_5x5 -> inception_4c/5x5 (in-place)
I0102 22:44:42.760895 10809 net.cpp:144] Setting up inception_4c/relu_5x5
I0102 22:44:42.760896 10809 net.cpp:151] Top shape: 1 64 20 40 (51200)
I0102 22:44:42.760898 10809 net.cpp:159] Memory required for data: 240793604
I0102 22:44:42.760900 10809 layer_factory.hpp:77] Creating layer inception_4c/pool
I0102 22:44:42.760905 10809 net.cpp:94] Creating Layer inception_4c/pool
I0102 22:44:42.760907 10809 net.cpp:435] inception_4c/pool <- inception_4b/output_inception_4b/output_0_split_3
I0102 22:44:42.760910 10809 net.cpp:409] inception_4c/pool -> inception_4c/pool
I0102 22:44:42.761106 10809 net.cpp:144] Setting up inception_4c/pool
I0102 22:44:42.761109 10809 net.cpp:151] Top shape: 1 512 20 40 (409600)
I0102 22:44:42.761112 10809 net.cpp:159] Memory required for data: 242432004
I0102 22:44:42.761113 10809 layer_factory.hpp:77] Creating layer inception_4c/pool_proj
I0102 22:44:42.761118 10809 net.cpp:94] Creating Layer inception_4c/pool_proj
I0102 22:44:42.761121 10809 net.cpp:435] inception_4c/pool_proj <- inception_4c/pool
I0102 22:44:42.761123 10809 net.cpp:409] inception_4c/pool_proj -> inception_4c/pool_proj_raw
I0102 22:44:42.761435 10809 net.cpp:144] Setting up inception_4c/pool_proj
I0102 22:44:42.761440 10809 net.cpp:151] Top shape: 1 64 20 40 (51200)
I0102 22:44:42.761441 10809 net.cpp:159] Memory required for data: 242636804
I0102 22:44:42.761445 10809 layer_factory.hpp:77] Creating layer inception_4c/pool_proj_BatchNorm
I0102 22:44:42.761449 10809 net.cpp:94] Creating Layer inception_4c/pool_proj_BatchNorm
I0102 22:44:42.761451 10809 net.cpp:435] inception_4c/pool_proj_BatchNorm <- inception_4c/pool_proj_raw
I0102 22:44:42.761453 10809 net.cpp:409] inception_4c/pool_proj_BatchNorm -> inception_4c/pool_proj
I0102 22:44:42.761839 10809 net.cpp:144] Setting up inception_4c/pool_proj_BatchNorm
I0102 22:44:42.761843 10809 net.cpp:151] Top shape: 1 64 20 40 (51200)
I0102 22:44:42.761847 10809 net.cpp:159] Memory required for data: 242841604
I0102 22:44:42.761852 10809 layer_factory.hpp:77] Creating layer inception_4c/relu_pool_proj
I0102 22:44:42.761854 10809 net.cpp:94] Creating Layer inception_4c/relu_pool_proj
I0102 22:44:42.761857 10809 net.cpp:435] inception_4c/relu_pool_proj <- inception_4c/pool_proj
I0102 22:44:42.761859 10809 net.cpp:396] inception_4c/relu_pool_proj -> inception_4c/pool_proj (in-place)
I0102 22:44:42.761862 10809 net.cpp:144] Setting up inception_4c/relu_pool_proj
I0102 22:44:42.761864 10809 net.cpp:151] Top shape: 1 64 20 40 (51200)
I0102 22:44:42.761867 10809 net.cpp:159] Memory required for data: 243046404
I0102 22:44:42.761868 10809 layer_factory.hpp:77] Creating layer inception_4c/output
I0102 22:44:42.761871 10809 net.cpp:94] Creating Layer inception_4c/output
I0102 22:44:42.761873 10809 net.cpp:435] inception_4c/output <- inception_4c/1x1
I0102 22:44:42.761875 10809 net.cpp:435] inception_4c/output <- inception_4c/3x3
I0102 22:44:42.761878 10809 net.cpp:435] inception_4c/output <- inception_4c/5x5
I0102 22:44:42.761878 10809 net.cpp:435] inception_4c/output <- inception_4c/pool_proj
I0102 22:44:42.761883 10809 net.cpp:409] inception_4c/output -> inception_4c/output
I0102 22:44:42.761894 10809 net.cpp:144] Setting up inception_4c/output
I0102 22:44:42.761896 10809 net.cpp:151] Top shape: 1 512 20 40 (409600)
I0102 22:44:42.761899 10809 net.cpp:159] Memory required for data: 244684804
I0102 22:44:42.761900 10809 layer_factory.hpp:77] Creating layer inception_4c/output_inception_4c/output_0_split
I0102 22:44:42.761904 10809 net.cpp:94] Creating Layer inception_4c/output_inception_4c/output_0_split
I0102 22:44:42.761906 10809 net.cpp:435] inception_4c/output_inception_4c/output_0_split <- inception_4c/output
I0102 22:44:42.761909 10809 net.cpp:409] inception_4c/output_inception_4c/output_0_split -> inception_4c/output_inception_4c/output_0_split_0
I0102 22:44:42.761911 10809 net.cpp:409] inception_4c/output_inception_4c/output_0_split -> inception_4c/output_inception_4c/output_0_split_1
I0102 22:44:42.761914 10809 net.cpp:409] inception_4c/output_inception_4c/output_0_split -> inception_4c/output_inception_4c/output_0_split_2
I0102 22:44:42.761917 10809 net.cpp:409] inception_4c/output_inception_4c/output_0_split -> inception_4c/output_inception_4c/output_0_split_3
I0102 22:44:42.761946 10809 net.cpp:144] Setting up inception_4c/output_inception_4c/output_0_split
I0102 22:44:42.761950 10809 net.cpp:151] Top shape: 1 512 20 40 (409600)
I0102 22:44:42.761952 10809 net.cpp:151] Top shape: 1 512 20 40 (409600)
I0102 22:44:42.761955 10809 net.cpp:151] Top shape: 1 512 20 40 (409600)
I0102 22:44:42.761956 10809 net.cpp:151] Top shape: 1 512 20 40 (409600)
I0102 22:44:42.761960 10809 net.cpp:159] Memory required for data: 251238404
I0102 22:44:42.761960 10809 layer_factory.hpp:77] Creating layer inception_4d/1x1
I0102 22:44:42.761965 10809 net.cpp:94] Creating Layer inception_4d/1x1
I0102 22:44:42.761967 10809 net.cpp:435] inception_4d/1x1 <- inception_4c/output_inception_4c/output_0_split_0
I0102 22:44:42.761970 10809 net.cpp:409] inception_4d/1x1 -> inception_4d/1x1_raw
I0102 22:44:42.762419 10809 net.cpp:144] Setting up inception_4d/1x1
I0102 22:44:42.762423 10809 net.cpp:151] Top shape: 1 112 20 40 (89600)
I0102 22:44:42.762425 10809 net.cpp:159] Memory required for data: 251596804
I0102 22:44:42.762428 10809 layer_factory.hpp:77] Creating layer inception_4d/1x1_BatchNorm
I0102 22:44:42.762432 10809 net.cpp:94] Creating Layer inception_4d/1x1_BatchNorm
I0102 22:44:42.762434 10809 net.cpp:435] inception_4d/1x1_BatchNorm <- inception_4d/1x1_raw
I0102 22:44:42.762437 10809 net.cpp:409] inception_4d/1x1_BatchNorm -> inception_4d/1x1
I0102 22:44:42.762827 10809 net.cpp:144] Setting up inception_4d/1x1_BatchNorm
I0102 22:44:42.762832 10809 net.cpp:151] Top shape: 1 112 20 40 (89600)
I0102 22:44:42.762835 10809 net.cpp:159] Memory required for data: 251955204
I0102 22:44:42.762840 10809 layer_factory.hpp:77] Creating layer inception_4d/relu_1x1
I0102 22:44:42.762843 10809 net.cpp:94] Creating Layer inception_4d/relu_1x1
I0102 22:44:42.762845 10809 net.cpp:435] inception_4d/relu_1x1 <- inception_4d/1x1
I0102 22:44:42.762847 10809 net.cpp:396] inception_4d/relu_1x1 -> inception_4d/1x1 (in-place)
I0102 22:44:42.762851 10809 net.cpp:144] Setting up inception_4d/relu_1x1
I0102 22:44:42.762852 10809 net.cpp:151] Top shape: 1 112 20 40 (89600)
I0102 22:44:42.762856 10809 net.cpp:159] Memory required for data: 252313604
I0102 22:44:42.762856 10809 layer_factory.hpp:77] Creating layer inception_4d/3x3_reduce
I0102 22:44:42.762861 10809 net.cpp:94] Creating Layer inception_4d/3x3_reduce
I0102 22:44:42.762862 10809 net.cpp:435] inception_4d/3x3_reduce <- inception_4c/output_inception_4c/output_0_split_1
I0102 22:44:42.762866 10809 net.cpp:409] inception_4d/3x3_reduce -> inception_4d/3x3_reduce_raw
I0102 22:44:42.764236 10809 net.cpp:144] Setting up inception_4d/3x3_reduce
I0102 22:44:42.764246 10809 net.cpp:151] Top shape: 1 144 20 40 (115200)
I0102 22:44:42.764250 10809 net.cpp:159] Memory required for data: 252774404
I0102 22:44:42.764256 10809 layer_factory.hpp:77] Creating layer inception_4d/3x3_reduce_BatchNorm
I0102 22:44:42.764261 10809 net.cpp:94] Creating Layer inception_4d/3x3_reduce_BatchNorm
I0102 22:44:42.764263 10809 net.cpp:435] inception_4d/3x3_reduce_BatchNorm <- inception_4d/3x3_reduce_raw
I0102 22:44:42.764268 10809 net.cpp:409] inception_4d/3x3_reduce_BatchNorm -> inception_4d/3x3_reduce
I0102 22:44:42.764658 10809 net.cpp:144] Setting up inception_4d/3x3_reduce_BatchNorm
I0102 22:44:42.764663 10809 net.cpp:151] Top shape: 1 144 20 40 (115200)
I0102 22:44:42.764667 10809 net.cpp:159] Memory required for data: 253235204
I0102 22:44:42.764672 10809 layer_factory.hpp:77] Creating layer inception_4d/relu_3x3_reduce
I0102 22:44:42.764676 10809 net.cpp:94] Creating Layer inception_4d/relu_3x3_reduce
I0102 22:44:42.764679 10809 net.cpp:435] inception_4d/relu_3x3_reduce <- inception_4d/3x3_reduce
I0102 22:44:42.764683 10809 net.cpp:396] inception_4d/relu_3x3_reduce -> inception_4d/3x3_reduce (in-place)
I0102 22:44:42.764688 10809 net.cpp:144] Setting up inception_4d/relu_3x3_reduce
I0102 22:44:42.764688 10809 net.cpp:151] Top shape: 1 144 20 40 (115200)
I0102 22:44:42.764691 10809 net.cpp:159] Memory required for data: 253696004
I0102 22:44:42.764693 10809 layer_factory.hpp:77] Creating layer inception_4d/3x3
I0102 22:44:42.764698 10809 net.cpp:94] Creating Layer inception_4d/3x3
I0102 22:44:42.764701 10809 net.cpp:435] inception_4d/3x3 <- inception_4d/3x3_reduce
I0102 22:44:42.764704 10809 net.cpp:409] inception_4d/3x3 -> inception_4d/3x3_raw
I0102 22:44:42.767648 10809 net.cpp:144] Setting up inception_4d/3x3
I0102 22:44:42.767663 10809 net.cpp:151] Top shape: 1 288 20 40 (230400)
I0102 22:44:42.767668 10809 net.cpp:159] Memory required for data: 254617604
I0102 22:44:42.767675 10809 layer_factory.hpp:77] Creating layer inception_4d/3x3_BatchNorm
I0102 22:44:42.767688 10809 net.cpp:94] Creating Layer inception_4d/3x3_BatchNorm
I0102 22:44:42.767690 10809 net.cpp:435] inception_4d/3x3_BatchNorm <- inception_4d/3x3_raw
I0102 22:44:42.767695 10809 net.cpp:409] inception_4d/3x3_BatchNorm -> inception_4d/3x3
I0102 22:44:42.768090 10809 net.cpp:144] Setting up inception_4d/3x3_BatchNorm
I0102 22:44:42.768095 10809 net.cpp:151] Top shape: 1 288 20 40 (230400)
I0102 22:44:42.768098 10809 net.cpp:159] Memory required for data: 255539204
I0102 22:44:42.768103 10809 layer_factory.hpp:77] Creating layer inception_4d/relu_3x3
I0102 22:44:42.768107 10809 net.cpp:94] Creating Layer inception_4d/relu_3x3
I0102 22:44:42.768110 10809 net.cpp:435] inception_4d/relu_3x3 <- inception_4d/3x3
I0102 22:44:42.768111 10809 net.cpp:396] inception_4d/relu_3x3 -> inception_4d/3x3 (in-place)
I0102 22:44:42.768115 10809 net.cpp:144] Setting up inception_4d/relu_3x3
I0102 22:44:42.768117 10809 net.cpp:151] Top shape: 1 288 20 40 (230400)
I0102 22:44:42.768119 10809 net.cpp:159] Memory required for data: 256460804
I0102 22:44:42.768121 10809 layer_factory.hpp:77] Creating layer inception_4d/5x5_reduce
I0102 22:44:42.768128 10809 net.cpp:94] Creating Layer inception_4d/5x5_reduce
I0102 22:44:42.768131 10809 net.cpp:435] inception_4d/5x5_reduce <- inception_4c/output_inception_4c/output_0_split_2
I0102 22:44:42.768136 10809 net.cpp:409] inception_4d/5x5_reduce -> inception_4d/5x5_reduce_raw
I0102 22:44:42.768395 10809 net.cpp:144] Setting up inception_4d/5x5_reduce
I0102 22:44:42.768400 10809 net.cpp:151] Top shape: 1 32 20 40 (25600)
I0102 22:44:42.768404 10809 net.cpp:159] Memory required for data: 256563204
I0102 22:44:42.768407 10809 layer_factory.hpp:77] Creating layer inception_4d/5x5_reduce_BatchNorm
I0102 22:44:42.768411 10809 net.cpp:94] Creating Layer inception_4d/5x5_reduce_BatchNorm
I0102 22:44:42.768414 10809 net.cpp:435] inception_4d/5x5_reduce_BatchNorm <- inception_4d/5x5_reduce_raw
I0102 22:44:42.768417 10809 net.cpp:409] inception_4d/5x5_reduce_BatchNorm -> inception_4d/5x5_reduce
I0102 22:44:42.768806 10809 net.cpp:144] Setting up inception_4d/5x5_reduce_BatchNorm
I0102 22:44:42.768812 10809 net.cpp:151] Top shape: 1 32 20 40 (25600)
I0102 22:44:42.768815 10809 net.cpp:159] Memory required for data: 256665604
I0102 22:44:42.768827 10809 layer_factory.hpp:77] Creating layer inception_4d/relu_5x5_reduce
I0102 22:44:42.768831 10809 net.cpp:94] Creating Layer inception_4d/relu_5x5_reduce
I0102 22:44:42.768833 10809 net.cpp:435] inception_4d/relu_5x5_reduce <- inception_4d/5x5_reduce
I0102 22:44:42.768836 10809 net.cpp:396] inception_4d/relu_5x5_reduce -> inception_4d/5x5_reduce (in-place)
I0102 22:44:42.768841 10809 net.cpp:144] Setting up inception_4d/relu_5x5_reduce
I0102 22:44:42.768842 10809 net.cpp:151] Top shape: 1 32 20 40 (25600)
I0102 22:44:42.768846 10809 net.cpp:159] Memory required for data: 256768004
I0102 22:44:42.768847 10809 layer_factory.hpp:77] Creating layer inception_4d/5x5
I0102 22:44:42.768852 10809 net.cpp:94] Creating Layer inception_4d/5x5
I0102 22:44:42.768853 10809 net.cpp:435] inception_4d/5x5 <- inception_4d/5x5_reduce
I0102 22:44:42.768857 10809 net.cpp:409] inception_4d/5x5 -> inception_4d/5x5_raw
I0102 22:44:42.769290 10809 net.cpp:144] Setting up inception_4d/5x5
I0102 22:44:42.769294 10809 net.cpp:151] Top shape: 1 64 20 40 (51200)
I0102 22:44:42.769299 10809 net.cpp:159] Memory required for data: 256972804
I0102 22:44:42.769301 10809 layer_factory.hpp:77] Creating layer inception_4d/5x5_BatchNorm
I0102 22:44:42.769306 10809 net.cpp:94] Creating Layer inception_4d/5x5_BatchNorm
I0102 22:44:42.769309 10809 net.cpp:435] inception_4d/5x5_BatchNorm <- inception_4d/5x5_raw
I0102 22:44:42.769312 10809 net.cpp:409] inception_4d/5x5_BatchNorm -> inception_4d/5x5
I0102 22:44:42.769716 10809 net.cpp:144] Setting up inception_4d/5x5_BatchNorm
I0102 22:44:42.769723 10809 net.cpp:151] Top shape: 1 64 20 40 (51200)
I0102 22:44:42.769727 10809 net.cpp:159] Memory required for data: 257177604
I0102 22:44:42.769733 10809 layer_factory.hpp:77] Creating layer inception_4d/relu_5x5
I0102 22:44:42.769737 10809 net.cpp:94] Creating Layer inception_4d/relu_5x5
I0102 22:44:42.769738 10809 net.cpp:435] inception_4d/relu_5x5 <- inception_4d/5x5
I0102 22:44:42.769742 10809 net.cpp:396] inception_4d/relu_5x5 -> inception_4d/5x5 (in-place)
I0102 22:44:42.769747 10809 net.cpp:144] Setting up inception_4d/relu_5x5
I0102 22:44:42.769748 10809 net.cpp:151] Top shape: 1 64 20 40 (51200)
I0102 22:44:42.769750 10809 net.cpp:159] Memory required for data: 257382404
I0102 22:44:42.769752 10809 layer_factory.hpp:77] Creating layer inception_4d/pool
I0102 22:44:42.769757 10809 net.cpp:94] Creating Layer inception_4d/pool
I0102 22:44:42.769758 10809 net.cpp:435] inception_4d/pool <- inception_4c/output_inception_4c/output_0_split_3
I0102 22:44:42.769762 10809 net.cpp:409] inception_4d/pool -> inception_4d/pool
I0102 22:44:42.769784 10809 net.cpp:144] Setting up inception_4d/pool
I0102 22:44:42.769788 10809 net.cpp:151] Top shape: 1 512 20 40 (409600)
I0102 22:44:42.769790 10809 net.cpp:159] Memory required for data: 259020804
I0102 22:44:42.769793 10809 layer_factory.hpp:77] Creating layer inception_4d/pool_proj
I0102 22:44:42.769798 10809 net.cpp:94] Creating Layer inception_4d/pool_proj
I0102 22:44:42.769800 10809 net.cpp:435] inception_4d/pool_proj <- inception_4d/pool
I0102 22:44:42.769804 10809 net.cpp:409] inception_4d/pool_proj -> inception_4d/pool_proj_raw
I0102 22:44:42.770882 10809 net.cpp:144] Setting up inception_4d/pool_proj
I0102 22:44:42.770889 10809 net.cpp:151] Top shape: 1 64 20 40 (51200)
I0102 22:44:42.770892 10809 net.cpp:159] Memory required for data: 259225604
I0102 22:44:42.770896 10809 layer_factory.hpp:77] Creating layer inception_4d/pool_proj_BatchNorm
I0102 22:44:42.770901 10809 net.cpp:94] Creating Layer inception_4d/pool_proj_BatchNorm
I0102 22:44:42.770905 10809 net.cpp:435] inception_4d/pool_proj_BatchNorm <- inception_4d/pool_proj_raw
I0102 22:44:42.770910 10809 net.cpp:409] inception_4d/pool_proj_BatchNorm -> inception_4d/pool_proj
I0102 22:44:42.771294 10809 net.cpp:144] Setting up inception_4d/pool_proj_BatchNorm
I0102 22:44:42.771298 10809 net.cpp:151] Top shape: 1 64 20 40 (51200)
I0102 22:44:42.771301 10809 net.cpp:159] Memory required for data: 259430404
I0102 22:44:42.771306 10809 layer_factory.hpp:77] Creating layer inception_4d/relu_pool_proj
I0102 22:44:42.771311 10809 net.cpp:94] Creating Layer inception_4d/relu_pool_proj
I0102 22:44:42.771312 10809 net.cpp:435] inception_4d/relu_pool_proj <- inception_4d/pool_proj
I0102 22:44:42.771317 10809 net.cpp:396] inception_4d/relu_pool_proj -> inception_4d/pool_proj (in-place)
I0102 22:44:42.771320 10809 net.cpp:144] Setting up inception_4d/relu_pool_proj
I0102 22:44:42.771322 10809 net.cpp:151] Top shape: 1 64 20 40 (51200)
I0102 22:44:42.771324 10809 net.cpp:159] Memory required for data: 259635204
I0102 22:44:42.771327 10809 layer_factory.hpp:77] Creating layer inception_4d/output
I0102 22:44:42.771328 10809 net.cpp:94] Creating Layer inception_4d/output
I0102 22:44:42.771332 10809 net.cpp:435] inception_4d/output <- inception_4d/1x1
I0102 22:44:42.771333 10809 net.cpp:435] inception_4d/output <- inception_4d/3x3
I0102 22:44:42.771335 10809 net.cpp:435] inception_4d/output <- inception_4d/5x5
I0102 22:44:42.771337 10809 net.cpp:435] inception_4d/output <- inception_4d/pool_proj
I0102 22:44:42.771339 10809 net.cpp:409] inception_4d/output -> inception_4d/output
I0102 22:44:42.771351 10809 net.cpp:144] Setting up inception_4d/output
I0102 22:44:42.771354 10809 net.cpp:151] Top shape: 1 528 20 40 (422400)
I0102 22:44:42.771356 10809 net.cpp:159] Memory required for data: 261324804
I0102 22:44:42.771358 10809 layer_factory.hpp:77] Creating layer inception_4d/output_inception_4d/output_0_split
I0102 22:44:42.771363 10809 net.cpp:94] Creating Layer inception_4d/output_inception_4d/output_0_split
I0102 22:44:42.771364 10809 net.cpp:435] inception_4d/output_inception_4d/output_0_split <- inception_4d/output
I0102 22:44:42.771368 10809 net.cpp:409] inception_4d/output_inception_4d/output_0_split -> inception_4d/output_inception_4d/output_0_split_0
I0102 22:44:42.771371 10809 net.cpp:409] inception_4d/output_inception_4d/output_0_split -> inception_4d/output_inception_4d/output_0_split_1
I0102 22:44:42.771375 10809 net.cpp:409] inception_4d/output_inception_4d/output_0_split -> inception_4d/output_inception_4d/output_0_split_2
I0102 22:44:42.771379 10809 net.cpp:409] inception_4d/output_inception_4d/output_0_split -> inception_4d/output_inception_4d/output_0_split_3
I0102 22:44:42.771410 10809 net.cpp:144] Setting up inception_4d/output_inception_4d/output_0_split
I0102 22:44:42.771412 10809 net.cpp:151] Top shape: 1 528 20 40 (422400)
I0102 22:44:42.771415 10809 net.cpp:151] Top shape: 1 528 20 40 (422400)
I0102 22:44:42.771417 10809 net.cpp:151] Top shape: 1 528 20 40 (422400)
I0102 22:44:42.771421 10809 net.cpp:151] Top shape: 1 528 20 40 (422400)
I0102 22:44:42.771425 10809 net.cpp:159] Memory required for data: 268083204
I0102 22:44:42.771426 10809 layer_factory.hpp:77] Creating layer inception_4e/1x1
I0102 22:44:42.771432 10809 net.cpp:94] Creating Layer inception_4e/1x1
I0102 22:44:42.771435 10809 net.cpp:435] inception_4e/1x1 <- inception_4d/output_inception_4d/output_0_split_0
I0102 22:44:42.771440 10809 net.cpp:409] inception_4e/1x1 -> inception_4e/1x1_raw
I0102 22:44:42.772269 10809 net.cpp:144] Setting up inception_4e/1x1
I0102 22:44:42.772274 10809 net.cpp:151] Top shape: 1 256 20 40 (204800)
I0102 22:44:42.772276 10809 net.cpp:159] Memory required for data: 268902404
I0102 22:44:42.772280 10809 layer_factory.hpp:77] Creating layer inception_4e/1x1_BatchNorm
I0102 22:44:42.772285 10809 net.cpp:94] Creating Layer inception_4e/1x1_BatchNorm
I0102 22:44:42.772289 10809 net.cpp:435] inception_4e/1x1_BatchNorm <- inception_4e/1x1_raw
I0102 22:44:42.772292 10809 net.cpp:409] inception_4e/1x1_BatchNorm -> inception_4e/1x1
I0102 22:44:42.772637 10809 net.cpp:144] Setting up inception_4e/1x1_BatchNorm
I0102 22:44:42.772640 10809 net.cpp:151] Top shape: 1 256 20 40 (204800)
I0102 22:44:42.772644 10809 net.cpp:159] Memory required for data: 269721604
I0102 22:44:42.772650 10809 layer_factory.hpp:77] Creating layer inception_4e/relu_1x1
I0102 22:44:42.772651 10809 net.cpp:94] Creating Layer inception_4e/relu_1x1
I0102 22:44:42.772653 10809 net.cpp:435] inception_4e/relu_1x1 <- inception_4e/1x1
I0102 22:44:42.772656 10809 net.cpp:396] inception_4e/relu_1x1 -> inception_4e/1x1 (in-place)
I0102 22:44:42.772660 10809 net.cpp:144] Setting up inception_4e/relu_1x1
I0102 22:44:42.772661 10809 net.cpp:151] Top shape: 1 256 20 40 (204800)
I0102 22:44:42.772665 10809 net.cpp:159] Memory required for data: 270540804
I0102 22:44:42.772666 10809 layer_factory.hpp:77] Creating layer inception_4e/3x3_reduce
I0102 22:44:42.772670 10809 net.cpp:94] Creating Layer inception_4e/3x3_reduce
I0102 22:44:42.772673 10809 net.cpp:435] inception_4e/3x3_reduce <- inception_4d/output_inception_4d/output_0_split_1
I0102 22:44:42.772676 10809 net.cpp:409] inception_4e/3x3_reduce -> inception_4e/3x3_reduce_raw
I0102 22:44:42.773262 10809 net.cpp:144] Setting up inception_4e/3x3_reduce
I0102 22:44:42.773265 10809 net.cpp:151] Top shape: 1 160 20 40 (128000)
I0102 22:44:42.773267 10809 net.cpp:159] Memory required for data: 271052804
I0102 22:44:42.773272 10809 layer_factory.hpp:77] Creating layer inception_4e/3x3_reduce_BatchNorm
I0102 22:44:42.773277 10809 net.cpp:94] Creating Layer inception_4e/3x3_reduce_BatchNorm
I0102 22:44:42.773279 10809 net.cpp:435] inception_4e/3x3_reduce_BatchNorm <- inception_4e/3x3_reduce_raw
I0102 22:44:42.773283 10809 net.cpp:409] inception_4e/3x3_reduce_BatchNorm -> inception_4e/3x3_reduce
I0102 22:44:42.773663 10809 net.cpp:144] Setting up inception_4e/3x3_reduce_BatchNorm
I0102 22:44:42.773666 10809 net.cpp:151] Top shape: 1 160 20 40 (128000)
I0102 22:44:42.773669 10809 net.cpp:159] Memory required for data: 271564804
I0102 22:44:42.773677 10809 layer_factory.hpp:77] Creating layer inception_4e/relu_3x3_reduce
I0102 22:44:42.773682 10809 net.cpp:94] Creating Layer inception_4e/relu_3x3_reduce
I0102 22:44:42.773684 10809 net.cpp:435] inception_4e/relu_3x3_reduce <- inception_4e/3x3_reduce
I0102 22:44:42.773689 10809 net.cpp:396] inception_4e/relu_3x3_reduce -> inception_4e/3x3_reduce (in-place)
I0102 22:44:42.773692 10809 net.cpp:144] Setting up inception_4e/relu_3x3_reduce
I0102 22:44:42.773694 10809 net.cpp:151] Top shape: 1 160 20 40 (128000)
I0102 22:44:42.773697 10809 net.cpp:159] Memory required for data: 272076804
I0102 22:44:42.773700 10809 layer_factory.hpp:77] Creating layer inception_4e/3x3
I0102 22:44:42.773705 10809 net.cpp:94] Creating Layer inception_4e/3x3
I0102 22:44:42.773710 10809 net.cpp:435] inception_4e/3x3 <- inception_4e/3x3_reduce
I0102 22:44:42.773713 10809 net.cpp:409] inception_4e/3x3 -> inception_4e/3x3_raw
I0102 22:44:42.777680 10809 net.cpp:144] Setting up inception_4e/3x3
I0102 22:44:42.777693 10809 net.cpp:151] Top shape: 1 320 20 40 (256000)
I0102 22:44:42.777698 10809 net.cpp:159] Memory required for data: 273100804
I0102 22:44:42.777705 10809 layer_factory.hpp:77] Creating layer inception_4e/3x3_BatchNorm
I0102 22:44:42.777714 10809 net.cpp:94] Creating Layer inception_4e/3x3_BatchNorm
I0102 22:44:42.777716 10809 net.cpp:435] inception_4e/3x3_BatchNorm <- inception_4e/3x3_raw
I0102 22:44:42.777720 10809 net.cpp:409] inception_4e/3x3_BatchNorm -> inception_4e/3x3
I0102 22:44:42.778126 10809 net.cpp:144] Setting up inception_4e/3x3_BatchNorm
I0102 22:44:42.778131 10809 net.cpp:151] Top shape: 1 320 20 40 (256000)
I0102 22:44:42.778133 10809 net.cpp:159] Memory required for data: 274124804
I0102 22:44:42.778139 10809 layer_factory.hpp:77] Creating layer inception_4e/relu_3x3
I0102 22:44:42.778142 10809 net.cpp:94] Creating Layer inception_4e/relu_3x3
I0102 22:44:42.778146 10809 net.cpp:435] inception_4e/relu_3x3 <- inception_4e/3x3
I0102 22:44:42.778148 10809 net.cpp:396] inception_4e/relu_3x3 -> inception_4e/3x3 (in-place)
I0102 22:44:42.778153 10809 net.cpp:144] Setting up inception_4e/relu_3x3
I0102 22:44:42.778156 10809 net.cpp:151] Top shape: 1 320 20 40 (256000)
I0102 22:44:42.778158 10809 net.cpp:159] Memory required for data: 275148804
I0102 22:44:42.778160 10809 layer_factory.hpp:77] Creating layer inception_4e/5x5_reduce
I0102 22:44:42.778167 10809 net.cpp:94] Creating Layer inception_4e/5x5_reduce
I0102 22:44:42.778168 10809 net.cpp:435] inception_4e/5x5_reduce <- inception_4d/output_inception_4d/output_0_split_2
I0102 22:44:42.778172 10809 net.cpp:409] inception_4e/5x5_reduce -> inception_4e/5x5_reduce_raw
I0102 22:44:42.778421 10809 net.cpp:144] Setting up inception_4e/5x5_reduce
I0102 22:44:42.778425 10809 net.cpp:151] Top shape: 1 32 20 40 (25600)
I0102 22:44:42.778429 10809 net.cpp:159] Memory required for data: 275251204
I0102 22:44:42.778431 10809 layer_factory.hpp:77] Creating layer inception_4e/5x5_reduce_BatchNorm
I0102 22:44:42.778435 10809 net.cpp:94] Creating Layer inception_4e/5x5_reduce_BatchNorm
I0102 22:44:42.778437 10809 net.cpp:435] inception_4e/5x5_reduce_BatchNorm <- inception_4e/5x5_reduce_raw
I0102 22:44:42.778440 10809 net.cpp:409] inception_4e/5x5_reduce_BatchNorm -> inception_4e/5x5_reduce
I0102 22:44:42.778848 10809 net.cpp:144] Setting up inception_4e/5x5_reduce_BatchNorm
I0102 22:44:42.778856 10809 net.cpp:151] Top shape: 1 32 20 40 (25600)
I0102 22:44:42.778859 10809 net.cpp:159] Memory required for data: 275353604
I0102 22:44:42.778867 10809 layer_factory.hpp:77] Creating layer inception_4e/relu_5x5_reduce
I0102 22:44:42.778870 10809 net.cpp:94] Creating Layer inception_4e/relu_5x5_reduce
I0102 22:44:42.778872 10809 net.cpp:435] inception_4e/relu_5x5_reduce <- inception_4e/5x5_reduce
I0102 22:44:42.778875 10809 net.cpp:396] inception_4e/relu_5x5_reduce -> inception_4e/5x5_reduce (in-place)
I0102 22:44:42.778880 10809 net.cpp:144] Setting up inception_4e/relu_5x5_reduce
I0102 22:44:42.778882 10809 net.cpp:151] Top shape: 1 32 20 40 (25600)
I0102 22:44:42.778885 10809 net.cpp:159] Memory required for data: 275456004
I0102 22:44:42.778887 10809 layer_factory.hpp:77] Creating layer inception_4e/5x5
I0102 22:44:42.778893 10809 net.cpp:94] Creating Layer inception_4e/5x5
I0102 22:44:42.778895 10809 net.cpp:435] inception_4e/5x5 <- inception_4e/5x5_reduce
I0102 22:44:42.778899 10809 net.cpp:409] inception_4e/5x5 -> inception_4e/5x5_raw
I0102 22:44:42.780596 10809 net.cpp:144] Setting up inception_4e/5x5
I0102 22:44:42.780606 10809 net.cpp:151] Top shape: 1 128 20 40 (102400)
I0102 22:44:42.780611 10809 net.cpp:159] Memory required for data: 275865604
I0102 22:44:42.780617 10809 layer_factory.hpp:77] Creating layer inception_4e/5x5_BatchNorm
I0102 22:44:42.780623 10809 net.cpp:94] Creating Layer inception_4e/5x5_BatchNorm
I0102 22:44:42.780627 10809 net.cpp:435] inception_4e/5x5_BatchNorm <- inception_4e/5x5_raw
I0102 22:44:42.780633 10809 net.cpp:409] inception_4e/5x5_BatchNorm -> inception_4e/5x5
I0102 22:44:42.781255 10809 net.cpp:144] Setting up inception_4e/5x5_BatchNorm
I0102 22:44:42.781261 10809 net.cpp:151] Top shape: 1 128 20 40 (102400)
I0102 22:44:42.781265 10809 net.cpp:159] Memory required for data: 276275204
I0102 22:44:42.781271 10809 layer_factory.hpp:77] Creating layer inception_4e/relu_5x5
I0102 22:44:42.781275 10809 net.cpp:94] Creating Layer inception_4e/relu_5x5
I0102 22:44:42.781276 10809 net.cpp:435] inception_4e/relu_5x5 <- inception_4e/5x5
I0102 22:44:42.781280 10809 net.cpp:396] inception_4e/relu_5x5 -> inception_4e/5x5 (in-place)
I0102 22:44:42.781284 10809 net.cpp:144] Setting up inception_4e/relu_5x5
I0102 22:44:42.781286 10809 net.cpp:151] Top shape: 1 128 20 40 (102400)
I0102 22:44:42.781289 10809 net.cpp:159] Memory required for data: 276684804
I0102 22:44:42.781291 10809 layer_factory.hpp:77] Creating layer inception_4e/pool
I0102 22:44:42.781294 10809 net.cpp:94] Creating Layer inception_4e/pool
I0102 22:44:42.781296 10809 net.cpp:435] inception_4e/pool <- inception_4d/output_inception_4d/output_0_split_3
I0102 22:44:42.781299 10809 net.cpp:409] inception_4e/pool -> inception_4e/pool
I0102 22:44:42.781319 10809 net.cpp:144] Setting up inception_4e/pool
I0102 22:44:42.781320 10809 net.cpp:151] Top shape: 1 528 20 40 (422400)
I0102 22:44:42.781323 10809 net.cpp:159] Memory required for data: 278374404
I0102 22:44:42.781325 10809 layer_factory.hpp:77] Creating layer inception_4e/pool_proj
I0102 22:44:42.781329 10809 net.cpp:94] Creating Layer inception_4e/pool_proj
I0102 22:44:42.781332 10809 net.cpp:435] inception_4e/pool_proj <- inception_4e/pool
I0102 22:44:42.781334 10809 net.cpp:409] inception_4e/pool_proj -> inception_4e/pool_proj_raw
I0102 22:44:42.781827 10809 net.cpp:144] Setting up inception_4e/pool_proj
I0102 22:44:42.781832 10809 net.cpp:151] Top shape: 1 128 20 40 (102400)
I0102 22:44:42.781834 10809 net.cpp:159] Memory required for data: 278784004
I0102 22:44:42.781838 10809 layer_factory.hpp:77] Creating layer inception_4e/pool_proj_BatchNorm
I0102 22:44:42.781841 10809 net.cpp:94] Creating Layer inception_4e/pool_proj_BatchNorm
I0102 22:44:42.781843 10809 net.cpp:435] inception_4e/pool_proj_BatchNorm <- inception_4e/pool_proj_raw
I0102 22:44:42.781847 10809 net.cpp:409] inception_4e/pool_proj_BatchNorm -> inception_4e/pool_proj
I0102 22:44:42.782199 10809 net.cpp:144] Setting up inception_4e/pool_proj_BatchNorm
I0102 22:44:42.782205 10809 net.cpp:151] Top shape: 1 128 20 40 (102400)
I0102 22:44:42.782209 10809 net.cpp:159] Memory required for data: 279193604
I0102 22:44:42.782215 10809 layer_factory.hpp:77] Creating layer inception_4e/relu_pool_proj
I0102 22:44:42.782218 10809 net.cpp:94] Creating Layer inception_4e/relu_pool_proj
I0102 22:44:42.782222 10809 net.cpp:435] inception_4e/relu_pool_proj <- inception_4e/pool_proj
I0102 22:44:42.782223 10809 net.cpp:396] inception_4e/relu_pool_proj -> inception_4e/pool_proj (in-place)
I0102 22:44:42.782228 10809 net.cpp:144] Setting up inception_4e/relu_pool_proj
I0102 22:44:42.782229 10809 net.cpp:151] Top shape: 1 128 20 40 (102400)
I0102 22:44:42.782232 10809 net.cpp:159] Memory required for data: 279603204
I0102 22:44:42.782233 10809 layer_factory.hpp:77] Creating layer inception_4e/output
I0102 22:44:42.782236 10809 net.cpp:94] Creating Layer inception_4e/output
I0102 22:44:42.782238 10809 net.cpp:435] inception_4e/output <- inception_4e/1x1
I0102 22:44:42.782240 10809 net.cpp:435] inception_4e/output <- inception_4e/3x3
I0102 22:44:42.782243 10809 net.cpp:435] inception_4e/output <- inception_4e/5x5
I0102 22:44:42.782244 10809 net.cpp:435] inception_4e/output <- inception_4e/pool_proj
I0102 22:44:42.782248 10809 net.cpp:409] inception_4e/output -> inception_4e/output
I0102 22:44:42.782259 10809 net.cpp:144] Setting up inception_4e/output
I0102 22:44:42.782261 10809 net.cpp:151] Top shape: 1 832 20 40 (665600)
I0102 22:44:42.782263 10809 net.cpp:159] Memory required for data: 282265604
I0102 22:44:42.782265 10809 layer_factory.hpp:77] Creating layer inception_4e/output_inception_4e/output_0_split
I0102 22:44:42.782269 10809 net.cpp:94] Creating Layer inception_4e/output_inception_4e/output_0_split
I0102 22:44:42.782270 10809 net.cpp:435] inception_4e/output_inception_4e/output_0_split <- inception_4e/output
I0102 22:44:42.782274 10809 net.cpp:409] inception_4e/output_inception_4e/output_0_split -> inception_4e/output_inception_4e/output_0_split_0
I0102 22:44:42.782276 10809 net.cpp:409] inception_4e/output_inception_4e/output_0_split -> inception_4e/output_inception_4e/output_0_split_1
I0102 22:44:42.782294 10809 net.cpp:144] Setting up inception_4e/output_inception_4e/output_0_split
I0102 22:44:42.782295 10809 net.cpp:151] Top shape: 1 832 20 40 (665600)
I0102 22:44:42.782297 10809 net.cpp:151] Top shape: 1 832 20 40 (665600)
I0102 22:44:42.782299 10809 net.cpp:159] Memory required for data: 287590404
I0102 22:44:42.782301 10809 layer_factory.hpp:77] Creating layer pool4/3x3_s2
I0102 22:44:42.782305 10809 net.cpp:94] Creating Layer pool4/3x3_s2
I0102 22:44:42.782306 10809 net.cpp:435] pool4/3x3_s2 <- inception_4e/output_inception_4e/output_0_split_0
I0102 22:44:42.782310 10809 net.cpp:409] pool4/3x3_s2 -> pool4/3x3_s2
I0102 22:44:42.782326 10809 net.cpp:144] Setting up pool4/3x3_s2
I0102 22:44:42.782331 10809 net.cpp:151] Top shape: 1 832 10 20 (166400)
I0102 22:44:42.782333 10809 net.cpp:159] Memory required for data: 288256004
I0102 22:44:42.782335 10809 layer_factory.hpp:77] Creating layer pool4/3x3_s2_pool4/3x3_s2_0_split
I0102 22:44:42.782337 10809 net.cpp:94] Creating Layer pool4/3x3_s2_pool4/3x3_s2_0_split
I0102 22:44:42.782339 10809 net.cpp:435] pool4/3x3_s2_pool4/3x3_s2_0_split <- pool4/3x3_s2
I0102 22:44:42.782342 10809 net.cpp:409] pool4/3x3_s2_pool4/3x3_s2_0_split -> pool4/3x3_s2_pool4/3x3_s2_0_split_0
I0102 22:44:42.782346 10809 net.cpp:409] pool4/3x3_s2_pool4/3x3_s2_0_split -> pool4/3x3_s2_pool4/3x3_s2_0_split_1
I0102 22:44:42.782348 10809 net.cpp:409] pool4/3x3_s2_pool4/3x3_s2_0_split -> pool4/3x3_s2_pool4/3x3_s2_0_split_2
I0102 22:44:42.782351 10809 net.cpp:409] pool4/3x3_s2_pool4/3x3_s2_0_split -> pool4/3x3_s2_pool4/3x3_s2_0_split_3
I0102 22:44:42.782395 10809 net.cpp:144] Setting up pool4/3x3_s2_pool4/3x3_s2_0_split
I0102 22:44:42.782404 10809 net.cpp:151] Top shape: 1 832 10 20 (166400)
I0102 22:44:42.782409 10809 net.cpp:151] Top shape: 1 832 10 20 (166400)
I0102 22:44:42.782413 10809 net.cpp:151] Top shape: 1 832 10 20 (166400)
I0102 22:44:42.782415 10809 net.cpp:151] Top shape: 1 832 10 20 (166400)
I0102 22:44:42.782418 10809 net.cpp:159] Memory required for data: 290918404
I0102 22:44:42.782421 10809 layer_factory.hpp:77] Creating layer inception_5a/1x1
I0102 22:44:42.782428 10809 net.cpp:94] Creating Layer inception_5a/1x1
I0102 22:44:42.782431 10809 net.cpp:435] inception_5a/1x1 <- pool4/3x3_s2_pool4/3x3_s2_0_split_0
I0102 22:44:42.782435 10809 net.cpp:409] inception_5a/1x1 -> inception_5a/1x1_raw
I0102 22:44:42.784562 10809 net.cpp:144] Setting up inception_5a/1x1
I0102 22:44:42.784569 10809 net.cpp:151] Top shape: 1 256 10 20 (51200)
I0102 22:44:42.784574 10809 net.cpp:159] Memory required for data: 291123204
I0102 22:44:42.784579 10809 layer_factory.hpp:77] Creating layer inception_5a/1x1_BatchNorm
I0102 22:44:42.784584 10809 net.cpp:94] Creating Layer inception_5a/1x1_BatchNorm
I0102 22:44:42.784587 10809 net.cpp:435] inception_5a/1x1_BatchNorm <- inception_5a/1x1_raw
I0102 22:44:42.784591 10809 net.cpp:409] inception_5a/1x1_BatchNorm -> inception_5a/1x1
I0102 22:44:42.784955 10809 net.cpp:144] Setting up inception_5a/1x1_BatchNorm
I0102 22:44:42.784960 10809 net.cpp:151] Top shape: 1 256 10 20 (51200)
I0102 22:44:42.784961 10809 net.cpp:159] Memory required for data: 291328004
I0102 22:44:42.784967 10809 layer_factory.hpp:77] Creating layer inception_5a/relu_1x1
I0102 22:44:42.784970 10809 net.cpp:94] Creating Layer inception_5a/relu_1x1
I0102 22:44:42.784973 10809 net.cpp:435] inception_5a/relu_1x1 <- inception_5a/1x1
I0102 22:44:42.784976 10809 net.cpp:396] inception_5a/relu_1x1 -> inception_5a/1x1 (in-place)
I0102 22:44:42.784981 10809 net.cpp:144] Setting up inception_5a/relu_1x1
I0102 22:44:42.784983 10809 net.cpp:151] Top shape: 1 256 10 20 (51200)
I0102 22:44:42.784986 10809 net.cpp:159] Memory required for data: 291532804
I0102 22:44:42.784988 10809 layer_factory.hpp:77] Creating layer inception_5a/3x3_reduce
I0102 22:44:42.784994 10809 net.cpp:94] Creating Layer inception_5a/3x3_reduce
I0102 22:44:42.784997 10809 net.cpp:435] inception_5a/3x3_reduce <- pool4/3x3_s2_pool4/3x3_s2_0_split_1
I0102 22:44:42.785001 10809 net.cpp:409] inception_5a/3x3_reduce -> inception_5a/3x3_reduce_raw
I0102 22:44:42.786660 10809 net.cpp:144] Setting up inception_5a/3x3_reduce
I0102 22:44:42.786669 10809 net.cpp:151] Top shape: 1 160 10 20 (32000)
I0102 22:44:42.786672 10809 net.cpp:159] Memory required for data: 291660804
I0102 22:44:42.786679 10809 layer_factory.hpp:77] Creating layer inception_5a/3x3_reduce_BatchNorm
I0102 22:44:42.786684 10809 net.cpp:94] Creating Layer inception_5a/3x3_reduce_BatchNorm
I0102 22:44:42.786689 10809 net.cpp:435] inception_5a/3x3_reduce_BatchNorm <- inception_5a/3x3_reduce_raw
I0102 22:44:42.786693 10809 net.cpp:409] inception_5a/3x3_reduce_BatchNorm -> inception_5a/3x3_reduce
I0102 22:44:42.787093 10809 net.cpp:144] Setting up inception_5a/3x3_reduce_BatchNorm
I0102 22:44:42.787097 10809 net.cpp:151] Top shape: 1 160 10 20 (32000)
I0102 22:44:42.787099 10809 net.cpp:159] Memory required for data: 291788804
I0102 22:44:42.787106 10809 layer_factory.hpp:77] Creating layer inception_5a/relu_3x3_reduce
I0102 22:44:42.787111 10809 net.cpp:94] Creating Layer inception_5a/relu_3x3_reduce
I0102 22:44:42.787113 10809 net.cpp:435] inception_5a/relu_3x3_reduce <- inception_5a/3x3_reduce
I0102 22:44:42.787115 10809 net.cpp:396] inception_5a/relu_3x3_reduce -> inception_5a/3x3_reduce (in-place)
I0102 22:44:42.787119 10809 net.cpp:144] Setting up inception_5a/relu_3x3_reduce
I0102 22:44:42.787120 10809 net.cpp:151] Top shape: 1 160 10 20 (32000)
I0102 22:44:42.787123 10809 net.cpp:159] Memory required for data: 291916804
I0102 22:44:42.787125 10809 layer_factory.hpp:77] Creating layer inception_5a/3x3
I0102 22:44:42.787129 10809 net.cpp:94] Creating Layer inception_5a/3x3
I0102 22:44:42.787132 10809 net.cpp:435] inception_5a/3x3 <- inception_5a/3x3_reduce
I0102 22:44:42.787134 10809 net.cpp:409] inception_5a/3x3 -> inception_5a/3x3_raw
I0102 22:44:42.791039 10809 net.cpp:144] Setting up inception_5a/3x3
I0102 22:44:42.791051 10809 net.cpp:151] Top shape: 1 320 10 20 (64000)
I0102 22:44:42.791056 10809 net.cpp:159] Memory required for data: 292172804
I0102 22:44:42.791061 10809 layer_factory.hpp:77] Creating layer inception_5a/3x3_BatchNorm
I0102 22:44:42.791069 10809 net.cpp:94] Creating Layer inception_5a/3x3_BatchNorm
I0102 22:44:42.791072 10809 net.cpp:435] inception_5a/3x3_BatchNorm <- inception_5a/3x3_raw
I0102 22:44:42.791077 10809 net.cpp:409] inception_5a/3x3_BatchNorm -> inception_5a/3x3
I0102 22:44:42.791481 10809 net.cpp:144] Setting up inception_5a/3x3_BatchNorm
I0102 22:44:42.791488 10809 net.cpp:151] Top shape: 1 320 10 20 (64000)
I0102 22:44:42.791491 10809 net.cpp:159] Memory required for data: 292428804
I0102 22:44:42.791496 10809 layer_factory.hpp:77] Creating layer inception_5a/relu_3x3
I0102 22:44:42.791501 10809 net.cpp:94] Creating Layer inception_5a/relu_3x3
I0102 22:44:42.791502 10809 net.cpp:435] inception_5a/relu_3x3 <- inception_5a/3x3
I0102 22:44:42.791504 10809 net.cpp:396] inception_5a/relu_3x3 -> inception_5a/3x3 (in-place)
I0102 22:44:42.791508 10809 net.cpp:144] Setting up inception_5a/relu_3x3
I0102 22:44:42.791510 10809 net.cpp:151] Top shape: 1 320 10 20 (64000)
I0102 22:44:42.791512 10809 net.cpp:159] Memory required for data: 292684804
I0102 22:44:42.791514 10809 layer_factory.hpp:77] Creating layer inception_5a/5x5_reduce
I0102 22:44:42.791520 10809 net.cpp:94] Creating Layer inception_5a/5x5_reduce
I0102 22:44:42.791524 10809 net.cpp:435] inception_5a/5x5_reduce <- pool4/3x3_s2_pool4/3x3_s2_0_split_2
I0102 22:44:42.791528 10809 net.cpp:409] inception_5a/5x5_reduce -> inception_5a/5x5_reduce_raw
I0102 22:44:42.791844 10809 net.cpp:144] Setting up inception_5a/5x5_reduce
I0102 22:44:42.791849 10809 net.cpp:151] Top shape: 1 32 10 20 (6400)
I0102 22:44:42.791852 10809 net.cpp:159] Memory required for data: 292710404
I0102 22:44:42.791857 10809 layer_factory.hpp:77] Creating layer inception_5a/5x5_reduce_BatchNorm
I0102 22:44:42.791863 10809 net.cpp:94] Creating Layer inception_5a/5x5_reduce_BatchNorm
I0102 22:44:42.791865 10809 net.cpp:435] inception_5a/5x5_reduce_BatchNorm <- inception_5a/5x5_reduce_raw
I0102 22:44:42.791873 10809 net.cpp:409] inception_5a/5x5_reduce_BatchNorm -> inception_5a/5x5_reduce
I0102 22:44:42.792335 10809 net.cpp:144] Setting up inception_5a/5x5_reduce_BatchNorm
I0102 22:44:42.792343 10809 net.cpp:151] Top shape: 1 32 10 20 (6400)
I0102 22:44:42.792351 10809 net.cpp:159] Memory required for data: 292736004
I0102 22:44:42.792359 10809 layer_factory.hpp:77] Creating layer inception_5a/relu_5x5_reduce
I0102 22:44:42.792363 10809 net.cpp:94] Creating Layer inception_5a/relu_5x5_reduce
I0102 22:44:42.792366 10809 net.cpp:435] inception_5a/relu_5x5_reduce <- inception_5a/5x5_reduce
I0102 22:44:42.792371 10809 net.cpp:396] inception_5a/relu_5x5_reduce -> inception_5a/5x5_reduce (in-place)
I0102 22:44:42.792380 10809 net.cpp:144] Setting up inception_5a/relu_5x5_reduce
I0102 22:44:42.792382 10809 net.cpp:151] Top shape: 1 32 10 20 (6400)
I0102 22:44:42.792385 10809 net.cpp:159] Memory required for data: 292761604
I0102 22:44:42.792388 10809 layer_factory.hpp:77] Creating layer inception_5a/5x5
I0102 22:44:42.792393 10809 net.cpp:94] Creating Layer inception_5a/5x5
I0102 22:44:42.792395 10809 net.cpp:435] inception_5a/5x5 <- inception_5a/5x5_reduce
I0102 22:44:42.792398 10809 net.cpp:409] inception_5a/5x5 -> inception_5a/5x5_raw
I0102 22:44:42.793110 10809 net.cpp:144] Setting up inception_5a/5x5
I0102 22:44:42.793114 10809 net.cpp:151] Top shape: 1 128 10 20 (25600)
I0102 22:44:42.793118 10809 net.cpp:159] Memory required for data: 292864004
I0102 22:44:42.793120 10809 layer_factory.hpp:77] Creating layer inception_5a/5x5_BatchNorm
I0102 22:44:42.793124 10809 net.cpp:94] Creating Layer inception_5a/5x5_BatchNorm
I0102 22:44:42.793126 10809 net.cpp:435] inception_5a/5x5_BatchNorm <- inception_5a/5x5_raw
I0102 22:44:42.793129 10809 net.cpp:409] inception_5a/5x5_BatchNorm -> inception_5a/5x5
I0102 22:44:42.793457 10809 net.cpp:144] Setting up inception_5a/5x5_BatchNorm
I0102 22:44:42.793460 10809 net.cpp:151] Top shape: 1 128 10 20 (25600)
I0102 22:44:42.793463 10809 net.cpp:159] Memory required for data: 292966404
I0102 22:44:42.793468 10809 layer_factory.hpp:77] Creating layer inception_5a/relu_5x5
I0102 22:44:42.793473 10809 net.cpp:94] Creating Layer inception_5a/relu_5x5
I0102 22:44:42.793475 10809 net.cpp:435] inception_5a/relu_5x5 <- inception_5a/5x5
I0102 22:44:42.793478 10809 net.cpp:396] inception_5a/relu_5x5 -> inception_5a/5x5 (in-place)
I0102 22:44:42.793480 10809 net.cpp:144] Setting up inception_5a/relu_5x5
I0102 22:44:42.793483 10809 net.cpp:151] Top shape: 1 128 10 20 (25600)
I0102 22:44:42.793484 10809 net.cpp:159] Memory required for data: 293068804
I0102 22:44:42.793486 10809 layer_factory.hpp:77] Creating layer inception_5a/pool
I0102 22:44:42.793490 10809 net.cpp:94] Creating Layer inception_5a/pool
I0102 22:44:42.793493 10809 net.cpp:435] inception_5a/pool <- pool4/3x3_s2_pool4/3x3_s2_0_split_3
I0102 22:44:42.793495 10809 net.cpp:409] inception_5a/pool -> inception_5a/pool
I0102 22:44:42.793514 10809 net.cpp:144] Setting up inception_5a/pool
I0102 22:44:42.793515 10809 net.cpp:151] Top shape: 1 832 10 20 (166400)
I0102 22:44:42.793517 10809 net.cpp:159] Memory required for data: 293734404
I0102 22:44:42.793519 10809 layer_factory.hpp:77] Creating layer inception_5a/pool_proj
I0102 22:44:42.793524 10809 net.cpp:94] Creating Layer inception_5a/pool_proj
I0102 22:44:42.793525 10809 net.cpp:435] inception_5a/pool_proj <- inception_5a/pool
I0102 22:44:42.793527 10809 net.cpp:409] inception_5a/pool_proj -> inception_5a/pool_proj_raw
I0102 22:44:42.795089 10809 net.cpp:144] Setting up inception_5a/pool_proj
I0102 22:44:42.795099 10809 net.cpp:151] Top shape: 1 128 10 20 (25600)
I0102 22:44:42.795101 10809 net.cpp:159] Memory required for data: 293836804
I0102 22:44:42.795106 10809 layer_factory.hpp:77] Creating layer inception_5a/pool_proj_BatchNorm
I0102 22:44:42.795112 10809 net.cpp:94] Creating Layer inception_5a/pool_proj_BatchNorm
I0102 22:44:42.795114 10809 net.cpp:435] inception_5a/pool_proj_BatchNorm <- inception_5a/pool_proj_raw
I0102 22:44:42.795118 10809 net.cpp:409] inception_5a/pool_proj_BatchNorm -> inception_5a/pool_proj
I0102 22:44:42.795506 10809 net.cpp:144] Setting up inception_5a/pool_proj_BatchNorm
I0102 22:44:42.795511 10809 net.cpp:151] Top shape: 1 128 10 20 (25600)
I0102 22:44:42.795513 10809 net.cpp:159] Memory required for data: 293939204
I0102 22:44:42.795518 10809 layer_factory.hpp:77] Creating layer inception_5a/relu_pool_proj
I0102 22:44:42.795521 10809 net.cpp:94] Creating Layer inception_5a/relu_pool_proj
I0102 22:44:42.795524 10809 net.cpp:435] inception_5a/relu_pool_proj <- inception_5a/pool_proj
I0102 22:44:42.795526 10809 net.cpp:396] inception_5a/relu_pool_proj -> inception_5a/pool_proj (in-place)
I0102 22:44:42.795529 10809 net.cpp:144] Setting up inception_5a/relu_pool_proj
I0102 22:44:42.795531 10809 net.cpp:151] Top shape: 1 128 10 20 (25600)
I0102 22:44:42.795533 10809 net.cpp:159] Memory required for data: 294041604
I0102 22:44:42.795536 10809 layer_factory.hpp:77] Creating layer inception_5a/output
I0102 22:44:42.795538 10809 net.cpp:94] Creating Layer inception_5a/output
I0102 22:44:42.795540 10809 net.cpp:435] inception_5a/output <- inception_5a/1x1
I0102 22:44:42.795542 10809 net.cpp:435] inception_5a/output <- inception_5a/3x3
I0102 22:44:42.795544 10809 net.cpp:435] inception_5a/output <- inception_5a/5x5
I0102 22:44:42.795547 10809 net.cpp:435] inception_5a/output <- inception_5a/pool_proj
I0102 22:44:42.795549 10809 net.cpp:409] inception_5a/output -> inception_5a/output
I0102 22:44:42.795562 10809 net.cpp:144] Setting up inception_5a/output
I0102 22:44:42.795564 10809 net.cpp:151] Top shape: 1 832 10 20 (166400)
I0102 22:44:42.795567 10809 net.cpp:159] Memory required for data: 294707204
I0102 22:44:42.795568 10809 layer_factory.hpp:77] Creating layer inception_5a/output_inception_5a/output_0_split
I0102 22:44:42.795572 10809 net.cpp:94] Creating Layer inception_5a/output_inception_5a/output_0_split
I0102 22:44:42.795573 10809 net.cpp:435] inception_5a/output_inception_5a/output_0_split <- inception_5a/output
I0102 22:44:42.795576 10809 net.cpp:409] inception_5a/output_inception_5a/output_0_split -> inception_5a/output_inception_5a/output_0_split_0
I0102 22:44:42.795579 10809 net.cpp:409] inception_5a/output_inception_5a/output_0_split -> inception_5a/output_inception_5a/output_0_split_1
I0102 22:44:42.795583 10809 net.cpp:409] inception_5a/output_inception_5a/output_0_split -> inception_5a/output_inception_5a/output_0_split_2
I0102 22:44:42.795585 10809 net.cpp:409] inception_5a/output_inception_5a/output_0_split -> inception_5a/output_inception_5a/output_0_split_3
I0102 22:44:42.795620 10809 net.cpp:144] Setting up inception_5a/output_inception_5a/output_0_split
I0102 22:44:42.795624 10809 net.cpp:151] Top shape: 1 832 10 20 (166400)
I0102 22:44:42.795626 10809 net.cpp:151] Top shape: 1 832 10 20 (166400)
I0102 22:44:42.795629 10809 net.cpp:151] Top shape: 1 832 10 20 (166400)
I0102 22:44:42.795631 10809 net.cpp:151] Top shape: 1 832 10 20 (166400)
I0102 22:44:42.795634 10809 net.cpp:159] Memory required for data: 297369604
I0102 22:44:42.795636 10809 layer_factory.hpp:77] Creating layer inception_5b/1x1
I0102 22:44:42.795641 10809 net.cpp:94] Creating Layer inception_5b/1x1
I0102 22:44:42.795644 10809 net.cpp:435] inception_5b/1x1 <- inception_5a/output_inception_5a/output_0_split_0
I0102 22:44:42.795646 10809 net.cpp:409] inception_5b/1x1 -> inception_5b/1x1_raw
I0102 22:44:42.798118 10809 net.cpp:144] Setting up inception_5b/1x1
I0102 22:44:42.798125 10809 net.cpp:151] Top shape: 1 384 10 20 (76800)
I0102 22:44:42.798128 10809 net.cpp:159] Memory required for data: 297676804
I0102 22:44:42.798132 10809 layer_factory.hpp:77] Creating layer inception_5b/1x1_BatchNorm
I0102 22:44:42.798137 10809 net.cpp:94] Creating Layer inception_5b/1x1_BatchNorm
I0102 22:44:42.798139 10809 net.cpp:435] inception_5b/1x1_BatchNorm <- inception_5b/1x1_raw
I0102 22:44:42.798142 10809 net.cpp:409] inception_5b/1x1_BatchNorm -> inception_5b/1x1
I0102 22:44:42.798485 10809 net.cpp:144] Setting up inception_5b/1x1_BatchNorm
I0102 22:44:42.798489 10809 net.cpp:151] Top shape: 1 384 10 20 (76800)
I0102 22:44:42.798492 10809 net.cpp:159] Memory required for data: 297984004
I0102 22:44:42.798497 10809 layer_factory.hpp:77] Creating layer inception_5b/relu_1x1
I0102 22:44:42.798501 10809 net.cpp:94] Creating Layer inception_5b/relu_1x1
I0102 22:44:42.798503 10809 net.cpp:435] inception_5b/relu_1x1 <- inception_5b/1x1
I0102 22:44:42.798507 10809 net.cpp:396] inception_5b/relu_1x1 -> inception_5b/1x1 (in-place)
I0102 22:44:42.798511 10809 net.cpp:144] Setting up inception_5b/relu_1x1
I0102 22:44:42.798513 10809 net.cpp:151] Top shape: 1 384 10 20 (76800)
I0102 22:44:42.798516 10809 net.cpp:159] Memory required for data: 298291204
I0102 22:44:42.798517 10809 layer_factory.hpp:77] Creating layer inception_5b/3x3_reduce
I0102 22:44:42.798521 10809 net.cpp:94] Creating Layer inception_5b/3x3_reduce
I0102 22:44:42.798524 10809 net.cpp:435] inception_5b/3x3_reduce <- inception_5a/output_inception_5a/output_0_split_1
I0102 22:44:42.798528 10809 net.cpp:409] inception_5b/3x3_reduce -> inception_5b/3x3_reduce_raw
I0102 22:44:42.800271 10809 net.cpp:144] Setting up inception_5b/3x3_reduce
I0102 22:44:42.800279 10809 net.cpp:151] Top shape: 1 192 10 20 (38400)
I0102 22:44:42.800283 10809 net.cpp:159] Memory required for data: 298444804
I0102 22:44:42.800287 10809 layer_factory.hpp:77] Creating layer inception_5b/3x3_reduce_BatchNorm
…
I0102 22:44:43.056864 10809 layer_factory.hpp:77] Creating layer inception_4e/relu_1x1
I0102 22:44:43.056866 10809 net.cpp:94] Creating Layer inception_4e/relu_1x1
I0102 22:44:43.056869 10809 net.cpp:435] inception_4e/relu_1x1 <- inception_4e/1x1
I0102 22:44:43.056872 10809 net.cpp:396] inception_4e/relu_1x1 -> inception_4e/1x1 (in-place)
I0102 22:44:43.056877 10809 net.cpp:144] Setting up inception_4e/relu_1x1
I0102 22:44:43.056879 10809 net.cpp:151] Top shape: 1 256 20 40 (204800)
I0102 22:44:43.056881 10809 net.cpp:159] Memory required for data: 262348804
I0102 22:44:43.056883 10809 layer_factory.hpp:77] Creating layer inception_4e/3x3_reduce
I0102 22:44:43.056887 10809 net.cpp:94] Creating Layer inception_4e/3x3_reduce
I0102 22:44:43.056890 10809 net.cpp:435] inception_4e/3x3_reduce <- inception_4d/output_inception_4d/output_fixed_0_split_1
I0102 22:44:43.056893 10809 net.cpp:409] inception_4e/3x3_reduce -> inception_4e/3x3_reduce
I0102 22:44:43.057444 10809 layer_factory.hpp:77] Creating layer inception_4e/3x3_reduce
I0102 22:44:43.058166 10809 net.cpp:144] Setting up inception_4e/3x3_reduce
I0102 22:44:43.058171 10809 net.cpp:151] Top shape: 1 160 20 40 (128000)
I0102 22:44:43.058173 10809 net.cpp:159] Memory required for data: 262860804
I0102 22:44:43.058178 10809 layer_factory.hpp:77] Creating layer inception_4e/relu_3x3_reduce
I0102 22:44:43.058184 10809 net.cpp:94] Creating Layer inception_4e/relu_3x3_reduce
I0102 22:44:43.058187 10809 net.cpp:435] inception_4e/relu_3x3_reduce <- inception_4e/3x3_reduce
I0102 22:44:43.058190 10809 net.cpp:396] inception_4e/relu_3x3_reduce -> inception_4e/3x3_reduce (in-place)
I0102 22:44:43.058193 10809 net.cpp:144] Setting up inception_4e/relu_3x3_reduce
I0102 22:44:43.058195 10809 net.cpp:151] Top shape: 1 160 20 40 (128000)
I0102 22:44:43.058197 10809 net.cpp:159] Memory required for data: 263372804
I0102 22:44:43.058199 10809 layer_factory.hpp:77] Creating layer inception_4e/3x3_reduce_fixed
I0102 22:44:43.058202 10809 net.cpp:94] Creating Layer inception_4e/3x3_reduce_fixed
I0102 22:44:43.058204 10809 net.cpp:435] inception_4e/3x3_reduce_fixed <- inception_4e/3x3_reduce
I0102 22:44:43.058207 10809 net.cpp:396] inception_4e/3x3_reduce_fixed -> inception_4e/3x3_reduce (in-place)
I0102 22:44:43.058225 10809 net.cpp:144] Setting up inception_4e/3x3_reduce_fixed
I0102 22:44:43.058228 10809 net.cpp:151] Top shape: 1 160 20 40 (128000)
I0102 22:44:43.058230 10809 net.cpp:159] Memory required for data: 263884804
I0102 22:44:43.058233 10809 layer_factory.hpp:77] Creating layer inception_4e/3x3
I0102 22:44:43.058238 10809 net.cpp:94] Creating Layer inception_4e/3x3
I0102 22:44:43.058239 10809 net.cpp:435] inception_4e/3x3 <- inception_4e/3x3_reduce
I0102 22:44:43.058243 10809 net.cpp:409] inception_4e/3x3 -> inception_4e/3x3
I0102 22:44:43.062069 10809 layer_factory.hpp:77] Creating layer inception_4e/3x3
I0102 22:44:43.066512 10809 net.cpp:144] Setting up inception_4e/3x3
I0102 22:44:43.066525 10809 net.cpp:151] Top shape: 1 320 20 40 (256000)
I0102 22:44:43.066532 10809 net.cpp:159] Memory required for data: 264908804
I0102 22:44:43.066542 10809 layer_factory.hpp:77] Creating layer inception_4e/relu_3x3
I0102 22:44:43.066557 10809 net.cpp:94] Creating Layer inception_4e/relu_3x3
I0102 22:44:43.066565 10809 net.cpp:435] inception_4e/relu_3x3 <- inception_4e/3x3
I0102 22:44:43.066570 10809 net.cpp:396] inception_4e/relu_3x3 -> inception_4e/3x3 (in-place)
I0102 22:44:43.066576 10809 net.cpp:144] Setting up inception_4e/relu_3x3
I0102 22:44:43.066577 10809 net.cpp:151] Top shape: 1 320 20 40 (256000)
I0102 22:44:43.066581 10809 net.cpp:159] Memory required for data: 265932804
I0102 22:44:43.066582 10809 layer_factory.hpp:77] Creating layer inception_4e/5x5_reduce
I0102 22:44:43.066589 10809 net.cpp:94] Creating Layer inception_4e/5x5_reduce
I0102 22:44:43.066592 10809 net.cpp:435] inception_4e/5x5_reduce <- inception_4d/output_inception_4d/output_fixed_0_split_2
I0102 22:44:43.066596 10809 net.cpp:409] inception_4e/5x5_reduce -> inception_4e/5x5_reduce
I0102 22:44:43.066804 10809 layer_factory.hpp:77] Creating layer inception_4e/5x5_reduce
I0102 22:44:43.067077 10809 net.cpp:144] Setting up inception_4e/5x5_reduce
I0102 22:44:43.067080 10809 net.cpp:151] Top shape: 1 32 20 40 (25600)
I0102 22:44:43.067083 10809 net.cpp:159] Memory required for data: 266035204
I0102 22:44:43.067087 10809 layer_factory.hpp:77] Creating layer inception_4e/relu_5x5_reduce
I0102 22:44:43.067090 10809 net.cpp:94] Creating Layer inception_4e/relu_5x5_reduce
I0102 22:44:43.067092 10809 net.cpp:435] inception_4e/relu_5x5_reduce <- inception_4e/5x5_reduce
I0102 22:44:43.067095 10809 net.cpp:396] inception_4e/relu_5x5_reduce -> inception_4e/5x5_reduce (in-place)
I0102 22:44:43.067097 10809 net.cpp:144] Setting up inception_4e/relu_5x5_reduce
I0102 22:44:43.067099 10809 net.cpp:151] Top shape: 1 32 20 40 (25600)
I0102 22:44:43.067102 10809 net.cpp:159] Memory required for data: 266137604
I0102 22:44:43.067104 10809 layer_factory.hpp:77] Creating layer inception_4e/5x5_reduce_fixed
I0102 22:44:43.067108 10809 net.cpp:94] Creating Layer inception_4e/5x5_reduce_fixed
I0102 22:44:43.067109 10809 net.cpp:435] inception_4e/5x5_reduce_fixed <- inception_4e/5x5_reduce
I0102 22:44:43.067112 10809 net.cpp:396] inception_4e/5x5_reduce_fixed -> inception_4e/5x5_reduce (in-place)
I0102 22:44:43.067131 10809 net.cpp:144] Setting up inception_4e/5x5_reduce_fixed
I0102 22:44:43.067132 10809 net.cpp:151] Top shape: 1 32 20 40 (25600)
I0102 22:44:43.067135 10809 net.cpp:159] Memory required for data: 266240004
I0102 22:44:43.067137 10809 layer_factory.hpp:77] Creating layer inception_4e/5x5
I0102 22:44:43.067142 10809 net.cpp:94] Creating Layer inception_4e/5x5
I0102 22:44:43.067143 10809 net.cpp:435] inception_4e/5x5 <- inception_4e/5x5_reduce
I0102 22:44:43.067147 10809 net.cpp:409] inception_4e/5x5 -> inception_4e/5x5
I0102 22:44:43.068660 10809 layer_factory.hpp:77] Creating layer inception_4e/5x5
I0102 22:44:43.069402 10809 net.cpp:144] Setting up inception_4e/5x5
I0102 22:44:43.069406 10809 net.cpp:151] Top shape: 1 128 20 40 (102400)
I0102 22:44:43.069411 10809 net.cpp:159] Memory required for data: 266649604
I0102 22:44:43.069417 10809 layer_factory.hpp:77] Creating layer inception_4e/relu_5x5
I0102 22:44:43.069422 10809 net.cpp:94] Creating Layer inception_4e/relu_5x5
I0102 22:44:43.069424 10809 net.cpp:435] inception_4e/relu_5x5 <- inception_4e/5x5
I0102 22:44:43.069427 10809 net.cpp:396] inception_4e/relu_5x5 -> inception_4e/5x5 (in-place)
I0102 22:44:43.069432 10809 net.cpp:144] Setting up inception_4e/relu_5x5
I0102 22:44:43.069433 10809 net.cpp:151] Top shape: 1 128 20 40 (102400)
I0102 22:44:43.069435 10809 net.cpp:159] Memory required for data: 267059204
I0102 22:44:43.069437 10809 layer_factory.hpp:77] Creating layer inception_4e/pool
I0102 22:44:43.069442 10809 net.cpp:94] Creating Layer inception_4e/pool
I0102 22:44:43.069444 10809 net.cpp:435] inception_4e/pool <- inception_4d/output_inception_4d/output_fixed_0_split_3
I0102 22:44:43.069447 10809 net.cpp:409] inception_4e/pool -> inception_4e/pool
I0102 22:44:43.069468 10809 net.cpp:144] Setting up inception_4e/pool
I0102 22:44:43.069470 10809 net.cpp:151] Top shape: 1 528 20 40 (422400)
I0102 22:44:43.069473 10809 net.cpp:159] Memory required for data: 268748804
I0102 22:44:43.069475 10809 layer_factory.hpp:77] Creating layer inception_4e/pool_proj
I0102 22:44:43.069479 10809 net.cpp:94] Creating Layer inception_4e/pool_proj
I0102 22:44:43.069481 10809 net.cpp:435] inception_4e/pool_proj <- inception_4e/pool
I0102 22:44:43.069484 10809 net.cpp:409] inception_4e/pool_proj -> inception_4e/pool_proj
I0102 22:44:43.069924 10809 layer_factory.hpp:77] Creating layer inception_4e/pool_proj
I0102 22:44:43.071166 10809 net.cpp:144] Setting up inception_4e/pool_proj
I0102 22:44:43.071172 10809 net.cpp:151] Top shape: 1 128 20 40 (102400)
I0102 22:44:43.071177 10809 net.cpp:159] Memory required for data: 269158404
I0102 22:44:43.071182 10809 layer_factory.hpp:77] Creating layer inception_4e/relu_pool_proj
I0102 22:44:43.071185 10809 net.cpp:94] Creating Layer inception_4e/relu_pool_proj
I0102 22:44:43.071187 10809 net.cpp:435] inception_4e/relu_pool_proj <- inception_4e/pool_proj
I0102 22:44:43.071190 10809 net.cpp:396] inception_4e/relu_pool_proj -> inception_4e/pool_proj (in-place)
I0102 22:44:43.071193 10809 net.cpp:144] Setting up inception_4e/relu_pool_proj
I0102 22:44:43.071195 10809 net.cpp:151] Top shape: 1 128 20 40 (102400)
I0102 22:44:43.071198 10809 net.cpp:159] Memory required for data: 269568004
I0102 22:44:43.071199 10809 layer_factory.hpp:77] Creating layer inception_4e/output
I0102 22:44:43.071203 10809 net.cpp:94] Creating Layer inception_4e/output
I0102 22:44:43.071205 10809 net.cpp:435] inception_4e/output <- inception_4e/1x1
I0102 22:44:43.071208 10809 net.cpp:435] inception_4e/output <- inception_4e/3x3
I0102 22:44:43.071209 10809 net.cpp:435] inception_4e/output <- inception_4e/5x5
I0102 22:44:43.071211 10809 net.cpp:435] inception_4e/output <- inception_4e/pool_proj
I0102 22:44:43.071213 10809 net.cpp:409] inception_4e/output -> inception_4e/output
I0102 22:44:43.071228 10809 net.cpp:144] Setting up inception_4e/output
I0102 22:44:43.071229 10809 net.cpp:151] Top shape: 1 832 20 40 (665600)
I0102 22:44:43.071233 10809 net.cpp:159] Memory required for data: 272230404
I0102 22:44:43.071233 10809 layer_factory.hpp:77] Creating layer inception_4e/output_fixed
I0102 22:44:43.071238 10809 net.cpp:94] Creating Layer inception_4e/output_fixed
I0102 22:44:43.071239 10809 net.cpp:435] inception_4e/output_fixed <- inception_4e/output
I0102 22:44:43.071242 10809 net.cpp:396] inception_4e/output_fixed -> inception_4e/output (in-place)
I0102 22:44:43.071260 10809 net.cpp:144] Setting up inception_4e/output_fixed
I0102 22:44:43.071262 10809 net.cpp:151] Top shape: 1 832 20 40 (665600)
I0102 22:44:43.071264 10809 net.cpp:159] Memory required for data: 274892804
I0102 22:44:43.071267 10809 layer_factory.hpp:77] Creating layer inception_4e/output_inception_4e/output_fixed_0_split
I0102 22:44:43.071270 10809 net.cpp:94] Creating Layer inception_4e/output_inception_4e/output_fixed_0_split
I0102 22:44:43.071272 10809 net.cpp:435] inception_4e/output_inception_4e/output_fixed_0_split <- inception_4e/output
I0102 22:44:43.071275 10809 net.cpp:409] inception_4e/output_inception_4e/output_fixed_0_split -> inception_4e/output_inception_4e/output_fixed_0_split_0
I0102 22:44:43.071278 10809 net.cpp:409] inception_4e/output_inception_4e/output_fixed_0_split -> inception_4e/output_inception_4e/output_fixed_0_split_1
I0102 22:44:43.071295 10809 net.cpp:144] Setting up inception_4e/output_inception_4e/output_fixed_0_split
I0102 22:44:43.071297 10809 net.cpp:151] Top shape: 1 832 20 40 (665600)
I0102 22:44:43.071300 10809 net.cpp:151] Top shape: 1 832 20 40 (665600)
I0102 22:44:43.071302 10809 net.cpp:159] Memory required for data: 280217604
I0102 22:44:43.071305 10809 layer_factory.hpp:77] Creating layer pool4/3x3_s2
I0102 22:44:43.071307 10809 net.cpp:94] Creating Layer pool4/3x3_s2
I0102 22:44:43.071310 10809 net.cpp:435] pool4/3x3_s2 <- inception_4e/output_inception_4e/output_fixed_0_split_0
I0102 22:44:43.071312 10809 net.cpp:409] pool4/3x3_s2 -> pool4/3x3_s2
I0102 22:44:43.071331 10809 net.cpp:144] Setting up pool4/3x3_s2
I0102 22:44:43.071333 10809 net.cpp:151] Top shape: 1 832 10 20 (166400)
I0102 22:44:43.071336 10809 net.cpp:159] Memory required for data: 280883204
I0102 22:44:43.071338 10809 layer_factory.hpp:77] Creating layer pool4/3x3_s2_pool4/3x3_s2_0_split
I0102 22:44:43.071341 10809 net.cpp:94] Creating Layer pool4/3x3_s2_pool4/3x3_s2_0_split
I0102 22:44:43.071342 10809 net.cpp:435] pool4/3x3_s2_pool4/3x3_s2_0_split <- pool4/3x3_s2
I0102 22:44:43.071346 10809 net.cpp:409] pool4/3x3_s2_pool4/3x3_s2_0_split -> pool4/3x3_s2_pool4/3x3_s2_0_split_0
I0102 22:44:43.071348 10809 net.cpp:409] pool4/3x3_s2_pool4/3x3_s2_0_split -> pool4/3x3_s2_pool4/3x3_s2_0_split_1
I0102 22:44:43.071352 10809 net.cpp:409] pool4/3x3_s2_pool4/3x3_s2_0_split -> pool4/3x3_s2_pool4/3x3_s2_0_split_2
I0102 22:44:43.071355 10809 net.cpp:409] pool4/3x3_s2_pool4/3x3_s2_0_split -> pool4/3x3_s2_pool4/3x3_s2_0_split_3
I0102 22:44:43.071384 10809 net.cpp:144] Setting up pool4/3x3_s2_pool4/3x3_s2_0_split
I0102 22:44:43.071388 10809 net.cpp:151] Top shape: 1 832 10 20 (166400)
I0102 22:44:43.071389 10809 net.cpp:151] Top shape: 1 832 10 20 (166400)
I0102 22:44:43.071393 10809 net.cpp:151] Top shape: 1 832 10 20 (166400)
I0102 22:44:43.071394 10809 net.cpp:151] Top shape: 1 832 10 20 (166400)
I0102 22:44:43.071398 10809 net.cpp:159] Memory required for data: 283545604
I0102 22:44:43.071399 10809 layer_factory.hpp:77] Creating layer inception_5a/1x1
I0102 22:44:43.071403 10809 net.cpp:94] Creating Layer inception_5a/1x1
I0102 22:44:43.071405 10809 net.cpp:435] inception_5a/1x1 <- pool4/3x3_s2_pool4/3x3_s2_0_split_0
I0102 22:44:43.071408 10809 net.cpp:409] inception_5a/1x1 -> inception_5a/1x1
I0102 22:44:43.072607 10809 layer_factory.hpp:77] Creating layer inception_5a/1x1
I0102 22:44:43.074633 10809 net.cpp:144] Setting up inception_5a/1x1
I0102 22:44:43.074640 10809 net.cpp:151] Top shape: 1 256 10 20 (51200)
I0102 22:44:43.074645 10809 net.cpp:159] Memory required for data: 283750404
I0102 22:44:43.074649 10809 layer_factory.hpp:77] Creating layer inception_5a/relu_1x1
I0102 22:44:43.074652 10809 net.cpp:94] Creating Layer inception_5a/relu_1x1
I0102 22:44:43.074656 10809 net.cpp:435] inception_5a/relu_1x1 <- inception_5a/1x1
I0102 22:44:43.074658 10809 net.cpp:396] inception_5a/relu_1x1 -> inception_5a/1x1 (in-place)
I0102 22:44:43.074662 10809 net.cpp:144] Setting up inception_5a/relu_1x1
I0102 22:44:43.074664 10809 net.cpp:151] Top shape: 1 256 10 20 (51200)
I0102 22:44:43.074666 10809 net.cpp:159] Memory required for data: 283955204
I0102 22:44:43.074668 10809 layer_factory.hpp:77] Creating layer inception_5a/3x3_reduce
I0102 22:44:43.074673 10809 net.cpp:94] Creating Layer inception_5a/3x3_reduce
I0102 22:44:43.074676 10809 net.cpp:435] inception_5a/3x3_reduce <- pool4/3x3_s2_pool4/3x3_s2_0_split_1
I0102 22:44:43.074678 10809 net.cpp:409] inception_5a/3x3_reduce -> inception_5a/3x3_reduce
I0102 22:44:43.076220 10809 layer_factory.hpp:77] Creating layer inception_5a/3x3_reduce
I0102 22:44:43.077888 10809 net.cpp:144] Setting up inception_5a/3x3_reduce
I0102 22:44:43.077894 10809 net.cpp:151] Top shape: 1 160 10 20 (32000)
I0102 22:44:43.077898 10809 net.cpp:159] Memory required for data: 284083204
I0102 22:44:43.077904 10809 layer_factory.hpp:77] Creating layer inception_5a/relu_3x3_reduce
I0102 22:44:43.077908 10809 net.cpp:94] Creating Layer inception_5a/relu_3x3_reduce
I0102 22:44:43.077913 10809 net.cpp:435] inception_5a/relu_3x3_reduce <- inception_5a/3x3_reduce
I0102 22:44:43.077915 10809 net.cpp:396] inception_5a/relu_3x3_reduce -> inception_5a/3x3_reduce (in-place)
I0102 22:44:43.077919 10809 net.cpp:144] Setting up inception_5a/relu_3x3_reduce
I0102 22:44:43.077921 10809 net.cpp:151] Top shape: 1 160 10 20 (32000)
I0102 22:44:43.077924 10809 net.cpp:159] Memory required for data: 284211204
I0102 22:44:43.077925 10809 layer_factory.hpp:77] Creating layer inception_5a/3x3_reduce_fixed
I0102 22:44:43.077930 10809 net.cpp:94] Creating Layer inception_5a/3x3_reduce_fixed
I0102 22:44:43.077931 10809 net.cpp:435] inception_5a/3x3_reduce_fixed <- inception_5a/3x3_reduce
I0102 22:44:43.077934 10809 net.cpp:396] inception_5a/3x3_reduce_fixed -> inception_5a/3x3_reduce (in-place)
I0102 22:44:43.077955 10809 net.cpp:144] Setting up inception_5a/3x3_reduce_fixed
I0102 22:44:43.077956 10809 net.cpp:151] Top shape: 1 160 10 20 (32000)
I0102 22:44:43.077960 10809 net.cpp:159] Memory required for data: 284339204
I0102 22:44:43.077961 10809 layer_factory.hpp:77] Creating layer inception_5a/3x3
I0102 22:44:43.077966 10809 net.cpp:94] Creating Layer inception_5a/3x3
I0102 22:44:43.077968 10809 net.cpp:435] inception_5a/3x3 <- inception_5a/3x3_reduce
I0102 22:44:43.077971 10809 net.cpp:409] inception_5a/3x3 -> inception_5a/3x3
I0102 22:44:43.081774 10809 layer_factory.hpp:77] Creating layer inception_5a/3x3
I0102 22:44:43.086026 10809 net.cpp:144] Setting up inception_5a/3x3
I0102 22:44:43.086038 10809 net.cpp:151] Top shape: 1 320 10 20 (64000)
I0102 22:44:43.086045 10809 net.cpp:159] Memory required for data: 284595204
I0102 22:44:43.086053 10809 layer_factory.hpp:77] Creating layer inception_5a/relu_3x3
I0102 22:44:43.086058 10809 net.cpp:94] Creating Layer inception_5a/relu_3x3
I0102 22:44:43.086062 10809 net.cpp:435] inception_5a/relu_3x3 <- inception_5a/3x3
I0102 22:44:43.086068 10809 net.cpp:396] inception_5a/relu_3x3 -> inception_5a/3x3 (in-place)
I0102 22:44:43.086074 10809 net.cpp:144] Setting up inception_5a/relu_3x3
I0102 22:44:43.086076 10809 net.cpp:151] Top shape: 1 320 10 20 (64000)
I0102 22:44:43.086078 10809 net.cpp:159] Memory required for data: 284851204
I0102 22:44:43.086081 10809 layer_factory.hpp:77] Creating layer inception_5a/5x5_reduce
I0102 22:44:43.086087 10809 net.cpp:94] Creating Layer inception_5a/5x5_reduce
I0102 22:44:43.086089 10809 net.cpp:435] inception_5a/5x5_reduce <- pool4/3x3_s2_pool4/3x3_s2_0_split_2
I0102 22:44:43.086093 10809 net.cpp:409] inception_5a/5x5_reduce -> inception_5a/5x5_reduce
I0102 22:44:43.086374 10809 layer_factory.hpp:77] Creating layer inception_5a/5x5_reduce
I0102 22:44:43.086730 10809 net.cpp:144] Setting up inception_5a/5x5_reduce
I0102 22:44:43.086735 10809 net.cpp:151] Top shape: 1 32 10 20 (6400)
I0102 22:44:43.086737 10809 net.cpp:159] Memory required for data: 284876804
I0102 22:44:43.086741 10809 layer_factory.hpp:77] Creating layer inception_5a/relu_5x5_reduce
I0102 22:44:43.086743 10809 net.cpp:94] Creating Layer inception_5a/relu_5x5_reduce
I0102 22:44:43.086746 10809 net.cpp:435] inception_5a/relu_5x5_reduce <- inception_5a/5x5_reduce
I0102 22:44:43.086748 10809 net.cpp:396] inception_5a/relu_5x5_reduce -> inception_5a/5x5_reduce (in-place)
I0102 22:44:43.086751 10809 net.cpp:144] Setting up inception_5a/relu_5x5_reduce
I0102 22:44:43.086753 10809 net.cpp:151] Top shape: 1 32 10 20 (6400)
I0102 22:44:43.086755 10809 net.cpp:159] Memory required for data: 284902404
I0102 22:44:43.086757 10809 layer_factory.hpp:77] Creating layer inception_5a/5x5_reduce_fixed
I0102 22:44:43.086761 10809 net.cpp:94] Creating Layer inception_5a/5x5_reduce_fixed
I0102 22:44:43.086763 10809 net.cpp:435] inception_5a/5x5_reduce_fixed <- inception_5a/5x5_reduce
I0102 22:44:43.086766 10809 net.cpp:396] inception_5a/5x5_reduce_fixed -> inception_5a/5x5_reduce (in-place)
I0102 22:44:43.086786 10809 net.cpp:144] Setting up inception_5a/5x5_reduce_fixed
I0102 22:44:43.086789 10809 net.cpp:151] Top shape: 1 32 10 20 (6400)
I0102 22:44:43.086792 10809 net.cpp:159] Memory required for data: 284928004
I0102 22:44:43.086794 10809 layer_factory.hpp:77] Creating layer inception_5a/5x5
I0102 22:44:43.086798 10809 net.cpp:94] Creating Layer inception_5a/5x5
I0102 22:44:43.086800 10809 net.cpp:435] inception_5a/5x5 <- inception_5a/5x5_reduce
I0102 22:44:43.086803 10809 net.cpp:409] inception_5a/5x5 -> inception_5a/5x5
I0102 22:44:43.087471 10809 layer_factory.hpp:77] Creating layer inception_5a/5x5
I0102 22:44:43.088204 10809 net.cpp:144] Setting up inception_5a/5x5
I0102 22:44:43.088207 10809 net.cpp:151] Top shape: 1 128 10 20 (25600)
I0102 22:44:43.088210 10809 net.cpp:159] Memory required for data: 285030404
I0102 22:44:43.088215 10809 layer_factory.hpp:77] Creating layer inception_5a/relu_5x5
I0102 22:44:43.088217 10809 net.cpp:94] Creating Layer inception_5a/relu_5x5
I0102 22:44:43.088220 10809 net.cpp:435] inception_5a/relu_5x5 <- inception_5a/5x5
I0102 22:44:43.088222 10809 net.cpp:396] inception_5a/relu_5x5 -> inception_5a/5x5 (in-place)
I0102 22:44:43.088225 10809 net.cpp:144] Setting up inception_5a/relu_5x5
I0102 22:44:43.088227 10809 net.cpp:151] Top shape: 1 128 10 20 (25600)
I0102 22:44:43.088229 10809 net.cpp:159] Memory required for data: 285132804
I0102 22:44:43.088232 10809 layer_factory.hpp:77] Creating layer inception_5a/pool
I0102 22:44:43.088235 10809 net.cpp:94] Creating Layer inception_5a/pool
I0102 22:44:43.088238 10809 net.cpp:435] inception_5a/pool <- pool4/3x3_s2_pool4/3x3_s2_0_split_3
I0102 22:44:43.088240 10809 net.cpp:409] inception_5a/pool -> inception_5a/pool
I0102 22:44:43.088263 10809 net.cpp:144] Setting up inception_5a/pool
I0102 22:44:43.088265 10809 net.cpp:151] Top shape: 1 832 10 20 (166400)
I0102 22:44:43.088268 10809 net.cpp:159] Memory required for data: 285798404
I0102 22:44:43.088269 10809 layer_factory.hpp:77] Creating layer inception_5a/pool_proj
I0102 22:44:43.088274 10809 net.cpp:94] Creating Layer inception_5a/pool_proj
I0102 22:44:43.088275 10809 net.cpp:435] inception_5a/pool_proj <- inception_5a/pool
I0102 22:44:43.088279 10809 net.cpp:409] inception_5a/pool_proj -> inception_5a/pool_proj
I0102 22:44:43.089879 10809 layer_factory.hpp:77] Creating layer inception_5a/pool_proj
I0102 22:44:43.090632 10809 net.cpp:144] Setting up inception_5a/pool_proj
I0102 22:44:43.090636 10809 net.cpp:151] Top shape: 1 128 10 20 (25600)
I0102 22:44:43.090641 10809 net.cpp:159] Memory required for data: 285900804
I0102 22:44:43.090648 10809 layer_factory.hpp:77] Creating layer inception_5a/relu_pool_proj
I0102 22:44:43.090652 10809 net.cpp:94] Creating Layer inception_5a/relu_pool_proj
I0102 22:44:43.090654 10809 net.cpp:435] inception_5a/relu_pool_proj <- inception_5a/pool_proj
I0102 22:44:43.090657 10809 net.cpp:396] inception_5a/relu_pool_proj -> inception_5a/pool_proj (in-place)
I0102 22:44:43.090662 10809 net.cpp:144] Setting up inception_5a/relu_pool_proj
I0102 22:44:43.090663 10809 net.cpp:151] Top shape: 1 128 10 20 (25600)
I0102 22:44:43.090667 10809 net.cpp:159] Memory required for data: 286003204
I0102 22:44:43.090667 10809 layer_factory.hpp:77] Creating layer inception_5a/output
I0102 22:44:43.090672 10809 net.cpp:94] Creating Layer inception_5a/output
I0102 22:44:43.090674 10809 net.cpp:435] inception_5a/output <- inception_5a/1x1
I0102 22:44:43.090677 10809 net.cpp:435] inception_5a/output <- inception_5a/3x3
I0102 22:44:43.090679 10809 net.cpp:435] inception_5a/output <- inception_5a/5x5
I0102 22:44:43.090682 10809 net.cpp:435] inception_5a/output <- inception_5a/pool_proj
I0102 22:44:43.090684 10809 net.cpp:409] inception_5a/output -> inception_5a/output
I0102 22:44:43.090698 10809 net.cpp:144] Setting up inception_5a/output
I0102 22:44:43.090700 10809 net.cpp:151] Top shape: 1 832 10 20 (166400)
I0102 22:44:43.090703 10809 net.cpp:159] Memory required for data: 286668804
I0102 22:44:43.090705 10809 layer_factory.hpp:77] Creating layer inception_5a/output_fixed
I0102 22:44:43.090709 10809 net.cpp:94] Creating Layer inception_5a/output_fixed
I0102 22:44:43.090711 10809 net.cpp:435] inception_5a/output_fixed <- inception_5a/output
I0102 22:44:43.090714 10809 net.cpp:396] inception_5a/output_fixed -> inception_5a/output (in-place)
I0102 22:44:43.090732 10809 net.cpp:144] Setting up inception_5a/output_fixed
I0102 22:44:43.090735 10809 net.cpp:151] Top shape: 1 832 10 20 (166400)
I0102 22:44:43.090739 10809 net.cpp:159] Memory required for data: 287334404
I0102 22:44:43.090740 10809 layer_factory.hpp:77] Creating layer inception_5a/output_inception_5a/output_fixed_0_split
I0102 22:44:43.090744 10809 net.cpp:94] Creating Layer inception_5a/output_inception_5a/output_fixed_0_split
I0102 22:44:43.090746 10809 net.cpp:435] inception_5a/output_inception_5a/output_fixed_0_split <- inception_5a/output
I0102 22:44:43.090750 10809 net.cpp:409] inception_5a/output_inception_5a/output_fixed_0_split -> inception_5a/output_inception_5a/output_fixed_0_split_0
I0102 22:44:43.090754 10809 net.cpp:409] inception_5a/output_inception_5a/output_fixed_0_split -> inception_5a/output_inception_5a/output_fixed_0_split_1
I0102 22:44:43.090756 10809 net.cpp:409] inception_5a/output_inception_5a/output_fixed_0_split -> inception_5a/output_inception_5a/output_fixed_0_split_2
I0102 22:44:43.090759 10809 net.cpp:409] inception_5a/output_inception_5a/output_fixed_0_split -> inception_5a/output_inception_5a/output_fixed_0_split_3
I0102 22:44:43.090790 10809 net.cpp:144] Setting up inception_5a/output_inception_5a/output_fixed_0_split
I0102 22:44:43.090792 10809 net.cpp:151] Top shape: 1 832 10 20 (166400)
I0102 22:44:43.090795 10809 net.cpp:151] Top shape: 1 832 10 20 (166400)
I0102 22:44:43.090798 10809 net.cpp:151] Top shape: 1 832 10 20 (166400)
I0102 22:44:43.090801 10809 net.cpp:151] Top shape: 1 832 10 20 (166400)
I0102 22:44:43.090803 10809 net.cpp:159] Memory required for data: 289996804
I0102 22:44:43.090806 10809 layer_factory.hpp:77] Creating layer inception_5b/1x1
I0102 22:44:43.090809 10809 net.cpp:94] Creating Layer inception_5b/1x1
I0102 22:44:43.090811 10809 net.cpp:435] inception_5b/1x1 <- inception_5a/output_inception_5a/output_fixed_0_split_0
I0102 22:44:43.090814 10809 net.cpp:409] inception_5b/1x1 -> inception_5b/1x1
I0102 22:44:43.094008 10809 layer_factory.hpp:77] Creating layer inception_5b/1x1
I0102 22:44:43.097206 10809 net.cpp:144] Setting up inception_5b/1x1
I0102 22:44:43.097214 10809 net.cpp:151] Top shape: 1 384 10 20 (76800)
I0102 22:44:43.097220 10809 net.cpp:159] Memory required for data: 290304004
I0102 22:44:43.097229 10809 layer_factory.hpp:77] Creating layer inception_5b/relu_1x1
I0102 22:44:43.097236 10809 net.cpp:94] Creating Layer inception_5b/relu_1x1
I0102 22:44:43.097241 10809 net.cpp:435] inception_5b/relu_1x1 <- inception_5b/1x1
I0102 22:44:43.097245 10809 net.cpp:396] inception_5b/relu_1x1 -> inception_5b/1x1 (in-place)
I0102 22:44:43.097252 10809 net.cpp:144] Setting up inception_5b/relu_1x1
I0102 22:44:43.097256 10809 net.cpp:151] Top shape: 1 384 10 20 (76800)
I0102 22:44:43.097259 10809 net.cpp:159] Memory required for data: 290611204
I0102 22:44:43.097261 10809 layer_factory.hpp:77] Creating layer inception_5b/3x3_reduce
I0102 22:44:43.097266 10809 net.cpp:94] Creating Layer inception_5b/3x3_reduce
I0102 22:44:43.097270 10809 net.cpp:435] inception_5b/3x3_reduce <- inception_5a/output_inception_5a/output_fixed_0_split_1
I0102 22:44:43.097272 10809 net.cpp:409] inception_5b/3x3_reduce -> inception_5b/3x3_reduce
I0102 22:44:43.098273 10809 layer_factory.hpp:77] Creating layer inception_5b/3x3_reduce
I0102 22:44:43.099323 10809 net.cpp:144] Setting up inception_5b/3x3_reduce
I0102 22:44:43.099328 10809 net.cpp:151] Top shape: 1 192 10 20 (38400)
I0102 22:44:43.099330 10809 net.cpp:159] Memory required for data: 290764804
I0102 22:44:43.099334 10809 layer_factory.hpp:77] Creating layer inception_5b/relu_3x3_reduce
I0102 22:44:43.099337 10809 net.cpp:94] Creating Layer inception_5b/relu_3x3_reduce
I0102 22:44:43.099339 10809 net.cpp:435] inception_5b/relu_3x3_reduce <- inception_5b/3x3_reduce
I0102 22:44:43.099342 10809 net.cpp:396] inception_5b/relu_3x3_reduce -> inception_5b/3x3_reduce (in-place)
I0102 22:44:43.099346 10809 net.cpp:144] Setting up inception_5b/relu_3x3_reduce
I0102 22:44:43.099347 10809 net.cpp:151] Top shape: 1 192 10 20 (38400)
I0102 22:44:43.099350 10809 net.cpp:159] Memory required for data: 290918404
I0102 22:44:43.099352 10809 layer_factory.hpp:77] Creating layer inception_5b/3x3_reduce_fixed
I0102 22:44:43.099356 10809 net.cpp:94] Creating Layer inception_5b/3x3_reduce_fixed
I0102 22:44:43.099359 10809 net.cpp:435] inception_5b/3x3_reduce_fixed <- inception_5b/3x3_reduce
I0102 22:44:43.099360 10809 net.cpp:396] inception_5b/3x3_reduce_fixed -> inception_5b/3x3_reduce (in-place)
I0102 22:44:43.099380 10809 net.cpp:144] Setting up inception_5b/3x3_reduce_fixed
I0102 22:44:43.099383 10809 net.cpp:151] Top shape: 1 192 10 20 (38400)
I0102 22:44:43.099385 10809 net.cpp:159] Memory required for data: 291072004
I0102 22:44:43.099388 10809 layer_factory.hpp:77] Creating layer inception_5b/3x3
I0102 22:44:43.099393 10809 net.cpp:94] Creating Layer inception_5b/3x3
I0102 22:44:43.099395 10809 net.cpp:435] inception_5b/3x3 <- inception_5b/3x3_reduce
I0102 22:44:43.099397 10809 net.cpp:409] inception_5b/3x3 -> inception_5b/3x3
I0102 22:44:43.104692 10809 layer_factory.hpp:77] Creating layer inception_5b/3x3
I0102 22:44:43.110203 10809 net.cpp:144] Setting up inception_5b/3x3
I0102 22:44:43.110216 10809 net.cpp:151] Top shape: 1 384 10 20 (76800)
I0102 22:44:43.110222 10809 net.cpp:159] Memory required for data: 291379204
I0102 22:44:43.110231 10809 layer_factory.hpp:77] Creating layer inception_5b/relu_3x3
I0102 22:44:43.110237 10809 net.cpp:94] Creating Layer inception_5b/relu_3x3
I0102 22:44:43.110244 10809 net.cpp:435] inception_5b/relu_3x3 <- inception_5b/3x3
I0102 22:44:43.110249 10809 net.cpp:396] inception_5b/relu_3x3 -> inception_5b/3x3 (in-place)
I0102 22:44:43.110255 10809 net.cpp:144] Setting up inception_5b/relu_3x3
I0102 22:44:43.110256 10809 net.cpp:151] Top shape: 1 384 10 20 (76800)
I0102 22:44:43.110260 10809 net.cpp:159] Memory required for data: 291686404
I0102 22:44:43.110261 10809 layer_factory.hpp:77] Creating layer inception_5b/5x5_reduce
I0102 22:44:43.110267 10809 net.cpp:94] Creating Layer inception_5b/5x5_reduce
I0102 22:44:43.110270 10809 net.cpp:435] inception_5b/5x5_reduce <- inception_5a/output_inception_5a/output_fixed_0_split_2
I0102 22:44:43.110275 10809 net.cpp:409] inception_5b/5x5_reduce -> inception_5b/5x5_reduce
I0102 22:44:43.110630 10809 layer_factory.hpp:77] Creating layer inception_5b/5x5_reduce
I0102 22:44:43.111052 10809 net.cpp:144] Setting up inception_5b/5x5_reduce
I0102 22:44:43.111055 10809 net.cpp:151] Top shape: 1 48 10 20 (9600)
I0102 22:44:43.111058 10809 net.cpp:159] Memory required for data: 291724804
I0102 22:44:43.111063 10809 layer_factory.hpp:77] Creating layer inception_5b/relu_5x5_reduce
I0102 22:44:43.111065 10809 net.cpp:94] Creating Layer inception_5b/relu_5x5_reduce
I0102 22:44:43.111068 10809 net.cpp:435] inception_5b/relu_5x5_reduce <- inception_5b/5x5_reduce
I0102 22:44:43.111070 10809 net.cpp:396] inception_5b/relu_5x5_reduce -> inception_5b/5x5_reduce (in-place)
I0102 22:44:43.111074 10809 net.cpp:144] Setting up inception_5b/relu_5x5_reduce
I0102 22:44:43.111075 10809 net.cpp:151] Top shape: 1 48 10 20 (9600)
I0102 22:44:43.111078 10809 net.cpp:159] Memory required for data: 291763204
I0102 22:44:43.111080 10809 layer_factory.hpp:77] Creating layer inception_5b/5x5_reduce_fixed
I0102 22:44:43.111084 10809 net.cpp:94] Creating Layer inception_5b/5x5_reduce_fixed
I0102 22:44:43.111085 10809 net.cpp:435] inception_5b/5x5_reduce_fixed <- inception_5b/5x5_reduce
I0102 22:44:43.111088 10809 net.cpp:396] inception_5b/5x5_reduce_fixed -> inception_5b/5x5_reduce (in-place)
I0102 22:44:43.111109 10809 net.cpp:144] Setting up inception_5b/5x5_reduce_fixed
I0102 22:44:43.111111 10809 net.cpp:151] Top shape: 1 48 10 20 (9600)
I0102 22:44:43.111114 10809 net.cpp:159] Memory required for data: 291801604
I0102 22:44:43.111116 10809 layer_factory.hpp:77] Creating layer inception_5b/5x5
I0102 22:44:43.111120 10809 net.cpp:94] Creating Layer inception_5b/5x5
I0102 22:44:43.111122 10809 net.cpp:435] inception_5b/5x5 <- inception_5b/5x5_reduce
I0102 22:44:43.111126 10809 net.cpp:409] inception_5b/5x5 -> inception_5b/5x5
I0102 22:44:43.112692 10809 layer_factory.hpp:77] Creating layer inception_5b/5x5
I0102 22:44:43.114333 10809 net.cpp:144] Setting up inception_5b/5x5
I0102 22:44:43.114338 10809 net.cpp:151] Top shape: 1 128 10 20 (25600)
I0102 22:44:43.114342 10809 net.cpp:159] Memory required for data: 291904004
I0102 22:44:43.114346 10809 layer_factory.hpp:77] Creating layer inception_5b/relu_5x5
I0102 22:44:43.114349 10809 net.cpp:94] Creating Layer inception_5b/relu_5x5
I0102 22:44:43.114352 10809 net.cpp:435] inception_5b/relu_5x5 <- inception_5b/5x5
I0102 22:44:43.114354 10809 net.cpp:396] inception_5b/relu_5x5 -> inception_5b/5x5 (in-place)
I0102 22:44:43.114358 10809 net.cpp:144] Setting up inception_5b/relu_5x5
I0102 22:44:43.114360 10809 net.cpp:151] Top shape: 1 128 10 20 (25600)
I0102 22:44:43.114362 10809 net.cpp:159] Memory required for data: 292006404
I0102 22:44:43.114364 10809 layer_factory.hpp:77] Creating layer inception_5b/pool
I0102 22:44:43.114368 10809 net.cpp:94] Creating Layer inception_5b/pool
I0102 22:44:43.114370 10809 net.cpp:435] inception_5b/pool <- inception_5a/output_inception_5a/output_fixed_0_split_3
I0102 22:44:43.114374 10809 net.cpp:409] inception_5b/pool -> inception_5b/pool
I0102 22:44:43.114396 10809 net.cpp:144] Setting up inception_5b/pool
I0102 22:44:43.114398 10809 net.cpp:151] Top shape: 1 832 10 20 (166400)
I0102 22:44:43.114401 10809 net.cpp:159] Memory required for data: 292672004
I0102 22:44:43.114403 10809 layer_factory.hpp:77] Creating layer inception_5b/pool_proj
I0102 22:44:43.114408 10809 net.cpp:94] Creating Layer inception_5b/pool_proj
I0102 22:44:43.114409 10809 net.cpp:435] inception_5b/pool_proj <- inception_5b/pool
I0102 22:44:43.114413 10809 net.cpp:409] inception_5b/pool_proj -> inception_5b/pool_proj
I0102 22:44:43.115072 10809 layer_factory.hpp:77] Creating layer inception_5b/pool_proj
I0102 22:44:43.116829 10809 net.cpp:144] Setting up inception_5b/pool_proj
I0102 22:44:43.116835 10809 net.cpp:151] Top shape: 1 128 10 20 (25600)
I0102 22:44:43.116838 10809 net.cpp:159] Memory required for data: 292774404
I0102 22:44:43.116844 10809 layer_factory.hpp:77] Creating layer inception_5b/relu_pool_proj
I0102 22:44:43.116847 10809 net.cpp:94] Creating Layer inception_5b/relu_pool_proj
I0102 22:44:43.116850 10809 net.cpp:435] inception_5b/relu_pool_proj <- inception_5b/pool_proj
I0102 22:44:43.116853 10809 net.cpp:396] inception_5b/relu_pool_proj -> inception_5b/pool_proj (in-place)
I0102 22:44:43.116856 10809 net.cpp:144] Setting up inception_5b/relu_pool_proj
I0102 22:44:43.116858 10809 net.cpp:151] Top shape: 1 128 10 20 (25600)
I0102 22:44:43.116860 10809 net.cpp:159] Memory required for data: 292876804
I0102 22:44:43.116863 10809 layer_factory.hpp:77] Creating layer inception_5b/output
I0102 22:44:43.116865 10809 net.cpp:94] Creating Layer inception_5b/output
I0102 22:44:43.116868 10809 net.cpp:435] inception_5b/output <- inception_5b/1x1
I0102 22:44:43.116870 10809 net.cpp:435] inception_5b/output <- inception_5b/3x3
I0102 22:44:43.116873 10809 net.cpp:435] inception_5b/output <- inception_5b/5x5
I0102 22:44:43.116874 10809 net.cpp:435] inception_5b/output <- inception_5b/pool_proj
I0102 22:44:43.116876 10809 net.cpp:409] inception_5b/output -> inception_5b/output
I0102 22:44:43.116890 10809 net.cpp:144] Setting up inception_5b/output
I0102 22:44:43.116894 10809 net.cpp:151] Top shape: 1 1024 10 20 (204800)
I0102 22:44:43.116895 10809 net.cpp:159] Memory required for data: 293696004
I0102 22:44:43.116897 10809 layer_factory.hpp:77] Creating layer inception_5b/output_fixed
I0102 22:44:43.116901 10809 net.cpp:94] Creating Layer inception_5b/output_fixed
I0102 22:44:43.116904 10809 net.cpp:435] inception_5b/output_fixed <- inception_5b/output
I0102 22:44:43.116906 10809 net.cpp:396] inception_5b/output_fixed -> inception_5b/output (in-place)
I0102 22:44:43.116925 10809 net.cpp:144] Setting up inception_5b/output_fixed
I0102 22:44:43.116927 10809 net.cpp:151] Top shape: 1 1024 10 20 (204800)
I0102 22:44:43.116930 10809 net.cpp:159] Memory required for data: 294515204
I0102 22:44:43.116932 10809 layer_factory.hpp:77] Creating layer p5
I0102 22:44:43.116936 10809 net.cpp:94] Creating Layer p5
I0102 22:44:43.116938 10809 net.cpp:435] p5 <- inception_5b/output
I0102 22:44:43.116941 10809 net.cpp:409] p5 -> p5
I0102 22:44:43.117230 10809 layer_factory.hpp:77] Creating layer p5
I0102 22:44:43.117609 10809 net.cpp:144] Setting up p5
I0102 22:44:43.117612 10809 net.cpp:151] Top shape: 1 32 10 20 (6400)
I0102 22:44:43.117615 10809 net.cpp:159] Memory required for data: 294540804
I0102 22:44:43.117619 10809 layer_factory.hpp:77] Creating layer p5_fixed
I0102 22:44:43.117621 10809 net.cpp:94] Creating Layer p5_fixed
I0102 22:44:43.117624 10809 net.cpp:435] p5_fixed <- p5
I0102 22:44:43.117626 10809 net.cpp:396] p5_fixed -> p5 (in-place)
I0102 22:44:43.117645 10809 net.cpp:144] Setting up p5_fixed
I0102 22:44:43.117647 10809 net.cpp:151] Top shape: 1 32 10 20 (6400)
I0102 22:44:43.117650 10809 net.cpp:159] Memory required for data: 294566404
I0102 22:44:43.117652 10809 layer_factory.hpp:77] Creating layer latlayer_4f
I0102 22:44:43.117656 10809 net.cpp:94] Creating Layer latlayer_4f
I0102 22:44:43.117660 10809 net.cpp:435] latlayer_4f <- inception_4e/output_inception_4e/output_fixed_0_split_1
I0102 22:44:43.117662 10809 net.cpp:409] latlayer_4f -> latlayer_4f
I0102 22:44:43.117913 10809 layer_factory.hpp:77] Creating layer latlayer_4f
I0102 22:44:43.118264 10809 net.cpp:144] Setting up latlayer_4f
I0102 22:44:43.118268 10809 net.cpp:151] Top shape: 1 32 20 40 (25600)
I0102 22:44:43.118270 10809 net.cpp:159] Memory required for data: 294668804
I0102 22:44:43.118274 10809 layer_factory.hpp:77] Creating layer latlayer_4f_fixed
I0102 22:44:43.118278 10809 net.cpp:94] Creating Layer latlayer_4f_fixed
I0102 22:44:43.118281 10809 net.cpp:435] latlayer_4f_fixed <- latlayer_4f
I0102 22:44:43.118284 10809 net.cpp:396] latlayer_4f_fixed -> latlayer_4f (in-place)
I0102 22:44:43.118306 10809 net.cpp:144] Setting up latlayer_4f_fixed
I0102 22:44:43.118309 10809 net.cpp:151] Top shape: 1 32 20 40 (25600)
I0102 22:44:43.118311 10809 net.cpp:159] Memory required for data: 294771204
I0102 22:44:43.118314 10809 layer_factory.hpp:77] Creating layer upsample_p5
I0102 22:44:43.118319 10809 net.cpp:94] Creating Layer upsample_p5
I0102 22:44:43.118319 10809 net.cpp:435] upsample_p5 <- p5
I0102 22:44:43.118322 10809 net.cpp:409] upsample_p5 -> upsample_p5
I0102 22:44:43.118495 10809 layer_factory.hpp:77] Creating layer upsample_p5
I0102 22:44:43.118741 10809 net.cpp:144] Setting up upsample_p5
I0102 22:44:43.118746 10809 net.cpp:151] Top shape: 1 32 20 40 (25600)
I0102 22:44:43.118748 10809 net.cpp:159] Memory required for data: 294873604
I0102 22:44:43.118752 10809 layer_factory.hpp:77] Creating layer upsample_p5_fixed
I0102 22:44:43.118754 10809 net.cpp:94] Creating Layer upsample_p5_fixed
I0102 22:44:43.118757 10809 net.cpp:435] upsample_p5_fixed <- upsample_p5
I0102 22:44:43.118759 10809 net.cpp:396] upsample_p5_fixed -> upsample_p5 (in-place)
I0102 22:44:43.118779 10809 net.cpp:144] Setting up upsample_p5_fixed
I0102 22:44:43.118782 10809 net.cpp:151] Top shape: 1 32 20 40 (25600)
I0102 22:44:43.118784 10809 net.cpp:159] Memory required for data: 294976004
I0102 22:44:43.118788 10809 layer_factory.hpp:77] Creating layer add_p4
I0102 22:44:43.118791 10809 net.cpp:94] Creating Layer add_p4
I0102 22:44:43.118793 10809 net.cpp:435] add_p4 <- upsample_p5
I0102 22:44:43.118795 10809 net.cpp:435] add_p4 <- latlayer_4f
I0102 22:44:43.118798 10809 net.cpp:409] add_p4 -> add_p4
I0102 22:44:43.118810 10809 net.cpp:144] Setting up add_p4
I0102 22:44:43.118813 10809 net.cpp:151] Top shape: 1 32 20 40 (25600)
I0102 22:44:43.118815 10809 net.cpp:159] Memory required for data: 295078404
I0102 22:44:43.118816 10809 layer_factory.hpp:77] Creating layer add_p4_fixed
I0102 22:44:43.118819 10809 net.cpp:94] Creating Layer add_p4_fixed
I0102 22:44:43.118821 10809 net.cpp:435] add_p4_fixed <- add_p4
I0102 22:44:43.118824 10809 net.cpp:396] add_p4_fixed -> add_p4 (in-place)
I0102 22:44:43.118840 10809 net.cpp:144] Setting up add_p4_fixed
I0102 22:44:43.118844 10809 net.cpp:151] Top shape: 1 32 20 40 (25600)
I0102 22:44:43.118845 10809 net.cpp:159] Memory required for data: 295180804
I0102 22:44:43.118849 10809 layer_factory.hpp:77] Creating layer toplayer_p4
I0102 22:44:43.118852 10809 net.cpp:94] Creating Layer toplayer_p4
I0102 22:44:43.118854 10809 net.cpp:435] toplayer_p4 <- add_p4
I0102 22:44:43.118857 10809 net.cpp:409] toplayer_p4 -> p4
I0102 22:44:43.119029 10809 layer_factory.hpp:77] Creating layer toplayer_p4
I0102 22:44:43.119282 10809 net.cpp:144] Setting up toplayer_p4
I0102 22:44:43.119287 10809 net.cpp:151] Top shape: 1 32 20 40 (25600)
I0102 22:44:43.119289 10809 net.cpp:159] Memory required for data: 295283204
I0102 22:44:43.119293 10809 layer_factory.hpp:77] Creating layer p4_fixed
I0102 22:44:43.119297 10809 net.cpp:94] Creating Layer p4_fixed
I0102 22:44:43.119299 10809 net.cpp:435] p4_fixed <- p4
I0102 22:44:43.119302 10809 net.cpp:396] p4_fixed -> p4 (in-place)
I0102 22:44:43.119323 10809 net.cpp:144] Setting up p4_fixed
I0102 22:44:43.119324 10809 net.cpp:151] Top shape: 1 32 20 40 (25600)
I0102 22:44:43.119326 10809 net.cpp:159] Memory required for data: 295385604
I0102 22:44:43.119329 10809 layer_factory.hpp:77] Creating layer latlayer_3d
I0102 22:44:43.119333 10809 net.cpp:94] Creating Layer latlayer_3d
I0102 22:44:43.119336 10809 net.cpp:435] latlayer_3d <- inception_3b/output_inception_3b/output_fixed_0_split_1
I0102 22:44:43.119339 10809 net.cpp:409] latlayer_3d -> latlayer_3d
I0102 22:44:43.119539 10809 layer_factory.hpp:77] Creating layer latlayer_3d
I0102 22:44:43.119834 10809 net.cpp:144] Setting up latlayer_3d
I0102 22:44:43.119838 10809 net.cpp:151] Top shape: 1 32 40 80 (102400)
I0102 22:44:43.119841 10809 net.cpp:159] Memory required for data: 295795204
I0102 22:44:43.119844 10809 layer_factory.hpp:77] Creating layer latlayer_3d_fixed
I0102 22:44:43.119848 10809 net.cpp:94] Creating Layer latlayer_3d_fixed
I0102 22:44:43.119850 10809 net.cpp:435] latlayer_3d_fixed <- latlayer_3d
I0102 22:44:43.119853 10809 net.cpp:396] latlayer_3d_fixed -> latlayer_3d (in-place)
I0102 22:44:43.119874 10809 net.cpp:144] Setting up latlayer_3d_fixed
I0102 22:44:43.119876 10809 net.cpp:151] Top shape: 1 32 40 80 (102400)
I0102 22:44:43.119879 10809 net.cpp:159] Memory required for data: 296204804
I0102 22:44:43.119881 10809 layer_factory.hpp:77] Creating layer upsample_p4
I0102 22:44:43.119884 10809 net.cpp:94] Creating Layer upsample_p4
I0102 22:44:43.119886 10809 net.cpp:435] upsample_p4 <- p4
I0102 22:44:43.119889 10809 net.cpp:409] upsample_p4 -> upsample_p4
I0102 22:44:43.120065 10809 layer_factory.hpp:77] Creating layer upsample_p4
I0102 22:44:43.120301 10809 net.cpp:144] Setting up upsample_p4
I0102 22:44:43.120306 10809 net.cpp:151] Top shape: 1 32 40 80 (102400)
I0102 22:44:43.120307 10809 net.cpp:159] Memory required for data: 296614404
I0102 22:44:43.120311 10809 layer_factory.hpp:77] Creating layer upsample_p4_fixed
I0102 22:44:43.120313 10809 net.cpp:94] Creating Layer upsample_p4_fixed
I0102 22:44:43.120316 10809 net.cpp:435] upsample_p4_fixed <- upsample_p4
I0102 22:44:43.120318 10809 net.cpp:396] upsample_p4_fixed -> upsample_p4 (in-place)
I0102 22:44:43.120337 10809 net.cpp:144] Setting up upsample_p4_fixed
I0102 22:44:43.120338 10809 net.cpp:151] Top shape: 1 32 40 80 (102400)
I0102 22:44:43.120342 10809 net.cpp:159] Memory required for data: 297024004
I0102 22:44:43.120343 10809 layer_factory.hpp:77] Creating layer add_p3
I0102 22:44:43.120347 10809 net.cpp:94] Creating Layer add_p3
I0102 22:44:43.120348 10809 net.cpp:435] add_p3 <- upsample_p4
I0102 22:44:43.120352 10809 net.cpp:435] add_p3 <- latlayer_3d
I0102 22:44:43.120353 10809 net.cpp:409] add_p3 -> add_p3
I0102 22:44:43.120364 10809 net.cpp:144] Setting up add_p3
I0102 22:44:43.120368 10809 net.cpp:151] Top shape: 1 32 40 80 (102400)
I0102 22:44:43.120369 10809 net.cpp:159] Memory required for data: 297433604
I0102 22:44:43.120371 10809 layer_factory.hpp:77] Creating layer add_p3_fixed
I0102 22:44:43.120374 10809 net.cpp:94] Creating Layer add_p3_fixed
I0102 22:44:43.120375 10809 net.cpp:435] add_p3_fixed <- add_p3
I0102 22:44:43.120378 10809 net.cpp:396] add_p3_fixed -> add_p3 (in-place)
I0102 22:44:43.120395 10809 net.cpp:144] Setting up add_p3_fixed
I0102 22:44:43.120398 10809 net.cpp:151] Top shape: 1 32 40 80 (102400)
I0102 22:44:43.120400 10809 net.cpp:159] Memory required for data: 297843204
I0102 22:44:43.120404 10809 layer_factory.hpp:77] Creating layer toplayer_p3
I0102 22:44:43.120409 10809 net.cpp:94] Creating Layer toplayer_p3
I0102 22:44:43.120411 10809 net.cpp:435] toplayer_p3 <- add_p3
I0102 22:44:43.120414 10809 net.cpp:409] toplayer_p3 -> p3
I0102 22:44:43.120564 10809 layer_factory.hpp:77] Creating layer toplayer_p3
I0102 22:44:43.120805 10809 net.cpp:144] Setting up toplayer_p3
I0102 22:44:43.120808 10809 net.cpp:151] Top shape: 1 32 40 80 (102400)
I0102 22:44:43.120811 10809 net.cpp:159] Memory required for data: 298252804
I0102 22:44:43.120815 10809 layer_factory.hpp:77] Creating layer p3_fixed
I0102 22:44:43.120817 10809 net.cpp:94] Creating Layer p3_fixed
I0102 22:44:43.120820 10809 net.cpp:435] p3_fixed <- p3
I0102 22:44:43.120822 10809 net.cpp:396] p3_fixed -> p3 (in-place)
I0102 22:44:43.120841 10809 net.cpp:144] Setting up p3_fixed
I0102 22:44:43.120843 10809 net.cpp:151] Top shape: 1 32 40 80 (102400)
I0102 22:44:43.120846 10809 net.cpp:159] Memory required for data: 298662404
I0102 22:44:43.120848 10809 layer_factory.hpp:77] Creating layer latlayer_2c
I0102 22:44:43.120852 10809 net.cpp:94] Creating Layer latlayer_2c
I0102 22:44:43.120855 10809 net.cpp:435] latlayer_2c <- conv2/3x3_conv2/3x3_fixed_0_split_1
I0102 22:44:43.120858 10809 net.cpp:409] latlayer_2c -> latlayer_2c
I0102 22:44:43.121022 10809 layer_factory.hpp:77] Creating layer latlayer_2c
I0102 22:44:43.121256 10809 net.cpp:144] Setting up latlayer_2c
I0102 22:44:43.121260 10809 net.cpp:151] Top shape: 1 32 80 160 (409600)
I0102 22:44:43.121263 10809 net.cpp:159] Memory required for data: 300300804
I0102 22:44:43.121268 10809 layer_factory.hpp:77] Creating layer latlayer_2c_fixed
I0102 22:44:43.121271 10809 net.cpp:94] Creating Layer latlayer_2c_fixed
I0102 22:44:43.121273 10809 net.cpp:435] latlayer_2c_fixed <- latlayer_2c
I0102 22:44:43.121277 10809 net.cpp:396] latlayer_2c_fixed -> latlayer_2c (in-place)
I0102 22:44:43.121295 10809 net.cpp:144] Setting up latlayer_2c_fixed
I0102 22:44:43.121297 10809 net.cpp:151] Top shape: 1 32 80 160 (409600)
I0102 22:44:43.121300 10809 net.cpp:159] Memory required for data: 301939204
I0102 22:44:43.121304 10809 layer_factory.hpp:77] Creating layer upsample_p3
I0102 22:44:43.121307 10809 net.cpp:94] Creating Layer upsample_p3
I0102 22:44:43.121309 10809 net.cpp:435] upsample_p3 <- p3
I0102 22:44:43.121312 10809 net.cpp:409] upsample_p3 -> upsample_p3
I0102 22:44:43.121480 10809 layer_factory.hpp:77] Creating layer upsample_p3
I0102 22:44:43.121697 10809 net.cpp:144] Setting up upsample_p3
I0102 22:44:43.121701 10809 net.cpp:151] Top shape: 1 32 80 160 (409600)
I0102 22:44:43.121703 10809 net.cpp:159] Memory required for data: 303577604
I0102 22:44:43.121706 10809 layer_factory.hpp:77] Creating layer upsample_p3_fixed
I0102 22:44:43.121709 10809 net.cpp:94] Creating Layer upsample_p3_fixed
I0102 22:44:43.121711 10809 net.cpp:435] upsample_p3_fixed <- upsample_p3
I0102 22:44:43.121713 10809 net.cpp:396] upsample_p3_fixed -> upsample_p3 (in-place)
I0102 22:44:43.121752 10809 net.cpp:144] Setting up upsample_p3_fixed
I0102 22:44:43.121754 10809 net.cpp:151] Top shape: 1 32 80 160 (409600)
I0102 22:44:43.121757 10809 net.cpp:159] Memory required for data: 305216004
I0102 22:44:43.121759 10809 layer_factory.hpp:77] Creating layer add_p2
I0102 22:44:43.121762 10809 net.cpp:94] Creating Layer add_p2
I0102 22:44:43.121764 10809 net.cpp:435] add_p2 <- upsample_p3
I0102 22:44:43.121767 10809 net.cpp:435] add_p2 <- latlayer_2c
I0102 22:44:43.121768 10809 net.cpp:409] add_p2 -> add_p2
I0102 22:44:43.121779 10809 net.cpp:144] Setting up add_p2
I0102 22:44:43.121781 10809 net.cpp:151] Top shape: 1 32 80 160 (409600)
I0102 22:44:43.121783 10809 net.cpp:159] Memory required for data: 306854404
I0102 22:44:43.121785 10809 layer_factory.hpp:77] Creating layer add_p2_fixed
I0102 22:44:43.121788 10809 net.cpp:94] Creating Layer add_p2_fixed
I0102 22:44:43.121789 10809 net.cpp:435] add_p2_fixed <- add_p2
I0102 22:44:43.121793 10809 net.cpp:396] add_p2_fixed -> add_p2 (in-place)
I0102 22:44:43.121809 10809 net.cpp:144] Setting up add_p2_fixed
I0102 22:44:43.121810 10809 net.cpp:151] Top shape: 1 32 80 160 (409600)
I0102 22:44:43.121814 10809 net.cpp:159] Memory required for data: 308492804
I0102 22:44:43.121815 10809 layer_factory.hpp:77] Creating layer toplayer_p2
I0102 22:44:43.121820 10809 net.cpp:94] Creating Layer toplayer_p2
I0102 22:44:43.121822 10809 net.cpp:435] toplayer_p2 <- add_p2
I0102 22:44:43.121824 10809 net.cpp:409] toplayer_p2 -> pred
I0102 22:44:43.121935 10809 layer_factory.hpp:77] Creating layer toplayer_p2
I0102 22:44:43.122267 10809 net.cpp:144] Setting up toplayer_p2
I0102 22:44:43.122270 10809 net.cpp:151] Top shape: 1 5 320 640 (1024000)
I0102 22:44:43.122273 10809 net.cpp:159] Memory required for data: 312588804
I0102 22:44:43.122277 10809 layer_factory.hpp:77] Creating layer pred_fixed
I0102 22:44:43.122279 10809 net.cpp:94] Creating Layer pred_fixed
I0102 22:44:43.122282 10809 net.cpp:435] pred_fixed <- pred
I0102 22:44:43.122284 10809 net.cpp:396] pred_fixed -> pred (in-place)
I0102 22:44:43.122303 10809 net.cpp:144] Setting up pred_fixed
I0102 22:44:43.122304 10809 net.cpp:151] Top shape: 1 5 320 640 (1024000)
I0102 22:44:43.122308 10809 net.cpp:159] Memory required for data: 316684804
I0102 22:44:43.122309 10809 layer_factory.hpp:77] Creating layer score
I0102 22:44:43.122313 10809 net.cpp:94] Creating Layer score
I0102 22:44:43.122314 10809 net.cpp:435] score <- pred
I0102 22:44:43.122318 10809 net.cpp:409] score -> score
I0102 22:44:43.122349 10809 net.cpp:144] Setting up score
I0102 22:44:43.122352 10809 net.cpp:151] Top shape: 1 5 320 640 (1024000)
I0102 22:44:43.122355 10809 net.cpp:159] Memory required for data: 320780804
I0102 22:44:43.122357 10809 net.cpp:222] score does not need backward computation.
I0102 22:44:43.122359 10809 net.cpp:222] pred_fixed does not need backward computation.
I0102 22:44:43.122360 10809 net.cpp:222] toplayer_p2 does not need backward computation.
I0102 22:44:43.122362 10809 net.cpp:222] add_p2_fixed does not need backward computation.
…
