…
  top: "label"
  include {
    phase: TRAIN
  }
  transform_param {
    scale: 1
    mean_value: 104
    mean_value: 117
    mean_value: 123
    resize_param {
      prob: 1
      resize_mode: WARP
      height: 480
      width: 960
    }
  }
  image_data_param {
    source: "/workspace/Vitis-AI-Tutorials/files/Segment/workspace/data/signate/signate_test_calibration.txt"
    batch_size: 1
    shuffle: true
    new_height: 480
    new_width: 960
    root_folder: "/workspace/Vitis-AI-Tutorials/files/Segment/workspace/data/signate/seg_test_images/"
  }
}
layer {
  name: "conv1/7x7_s2"
  type: "Convolution"
  bottom: "data"
  top: "conv1/7x7_s2_raw"
  param {
    lr_mult: 1
    decay_mult: 1
  }
  convolution_param {
    num_output: 64
    pad: 3
    kernel_size: 7
    stride: 2
    weight_filler {
      type: "msra"
    }
    bias_filler {
      type: "constant"
      value: 0.2
    }
  }
}
layer {
  name: "conv1/7x7_s2_BatchNorm"
  type: "BatchNorm"
  bottom: "conv1/7x7_s2_raw"
  top: "conv1/7x7_s2"
  param {
    lr_mult: 1
    decay_mult: 0
  }
  param {
    lr_mult: 1
    decay_mult: 0
  }
  param {
    lr_mult: 0
    decay_mult: 0
  }
  param {
    lr_mult: 0
    decay_mult: 0
  }
  batch_norm_param {
    use_global_stats: false
    eps: 1e-05
    scale_filler {
      type: "constant"
      value: 1
    }
    bias_filler {
      type: "constant"
      value: 0
    }
  }
}
layer {
  name: "conv1/relu_7x7"
  type: "ReLU"
  bottom: "conv1/7x7_s2"
  top: "conv1/7x7_s2"
}
layer {
  name: "pool1/3x3_s2"
  type: "Pooling"
  bottom: "conv1/7x7_s2"
  top: "pool1/3x3_s2"
  pooling_param {
    pool: MAX
    kernel_size: 3
    stride: 2
  }
}
layer {
  name: "conv2/3x3_reduce"
  type: "Convolution"
  bottom: "pool1/3x3_s2"
  top: "conv2/3x3_reduce_raw"
  param {
    lr_mult: 1
    decay_mult: 1
  }
  convolution_param {
    num_output: 64
    kernel_size: 1
    weight_filler {
      type: "msra"
    }
    bias_filler {
      type: "constant"
      value: 0.2
    }
  }
}
layer {
  name: "conv2/3x3_reduce_BatchNorm"
  type: "BatchNorm"
  bottom: "conv2/3x3_reduce_raw"
  top: "conv2/3x3_reduce"
  param {
    lr_mult: 1
    decay_mult: 0
  }
  param {
    lr_mult: 1
    decay_mult: 0
  }
  param {
    lr_mult: 0
    decay_mult: 0
  }
  param {
    lr_mult: 0
    decay_mult: 0
  }
  batch_norm_param {
    use_global_stats: false
    eps: 1e-05
    scale_filler {
      type: "constant"
      value: 1
    }
    bias_filler {
      type: "constant"
      value: 0
    }
  }
}
layer {
  name: "conv2/relu_3x3_reduce"
  type: "ReLU"
  bottom: "conv2/3x3_reduce"
  top: "conv2/3x3_reduce"
}
layer {
  name: "conv2/3x3"
  type: "Convolution"
  bottom: "conv2/3x3_reduce"
  top: "conv2/3x3_raw"
  param {
    lr_mult: 1
    decay_mult: 1
  }
  convolution_param {
    num_output: 192
    pad: 1
    kernel_size: 3
    weight_filler {
      type: "msra"
    }
    bias_filler {
      type: "constant"
      value: 0.2
    }
  }
}
layer {
  name: "conv2/3x3_BatchNorm"
  type: "BatchNorm"
  bottom: "conv2/3x3_raw"
  top: "conv2/3x3"
  param {
    lr_mult: 1
    decay_mult: 0
  }
  param {
    lr_mult: 1
    decay_mult: 0
  }
  param {
    lr_mult: 0
    decay_mult: 0
  }
  param {
    lr_mult: 0
    decay_mult: 0
  }
  batch_norm_param {
    use_global_stats: false
    eps: 1e-05
    scale_filler {
      type: "constant"
      value: 1
    }
    bias_filler {
      type: "constant"
      value: 0
    }
  }
}
layer {
  name: "conv2/relu_3x3"
  type: "ReLU"
  bottom: "conv2/3x3"
  top: "conv2/3x3"
}
layer {
  name: "pool2/3x3_s2"
  type: "Pooling"
  bottom: "conv2/3x3"
  top: "pool2/3x3_s2"
  pooling_param {
    pool: MAX
    kernel_size: 3
    stride: 2
  }
}
layer {
  name: "inception_3a/1x1"
  type: "Convolution"
  bottom: "pool2/3x3_s2"
  top: "inception_3a/1x1_raw"
  param {
    lr_mult: 1
    decay_mult: 1
  }
  convolution_param {
    num_output: 64
    kernel_size: 1
    weight_filler {
      type: "msra"
    }
    bias_filler {
      type: "constant"
      value: 0.2
    }
  }
}
layer {
  name: "inception_3a/1x1_BatchNorm"
  type: "BatchNorm"
  bottom: "inception_3a/1x1_raw"
  top: "inception_3a/1x1"
  param {
    lr_mult: 1
    decay_mult: 0
  }
  param {
    lr_mult: 1
    decay_mult: 0
  }
  param {
    lr_mult: 0
    decay_mult: 0
  }
  param {
    lr_mult: 0
    decay_mult: 0
  }
  batch_norm_param {
    use_global_stats: false
    eps: 1e-05
    scale_filler {
      type: "constant"
      value: 1
    }
    bias_filler {
      type: "constant"
      value: 0
    }
  }
}
layer {
  name: "inception_3a/relu_1x1"
  type: "ReLU"
  bottom: "inception_3a/1x1"
  top: "inception_3a/1x1"
}
layer {
  name: "inception_3a/3x3_reduce"
  type: "Convolution"
  bottom: "pool2/3x3_s2"
  top: "inception_3a/3x3_reduce_raw"
  param {
    lr_mult: 1
    decay_mult: 1
  }
  convolution_param {
    num_output: 96
    kernel_size: 1
    weight_filler {
      type: "msra"
    }
    bias_filler {
      type: "constant"
      value: 0.2
    }
  }
}
layer {
  name: "inception_3a/3x3_reduce_BatchNorm"
  type: "BatchNorm"
  bottom: "inception_3a/3x3_reduce_raw"
  top: "inception_3a/3x3_reduce"
  param {
    lr_mult: 1
    decay_mult: 0
  }
  param {
    lr_mult: 1
    decay_mult: 0
  }
  param {
    lr_mult: 0
    decay_mult: 0
  }
  param {
    lr_mult: 0
    decay_mult: 0
  }
  batch_norm_param {
    use_global_stats: false
    eps: 1e-05
    scale_filler {
      type: "constant"
      value: 1
    }
    bias_filler {
      type: "constant"
      value: 0
    }
  }
}
layer {
  name: "inception_3a/relu_3x3_reduce"
  type: "ReLU"
  bottom: "inception_3a/3x3_reduce"
  top: "inception_3a/3x3_reduce"
}
layer {
  name: "inception_3a/3x3"
  type: "Convolution"
  bottom: "inception_3a/3x3_reduce"
  top: "inception_3a/3x3_raw"
  param {
    lr_mult: 1
    decay_mult: 1
  }
  convolution_param {
    num_output: 128
    pad: 1
    kernel_size: 3
    weight_filler {
      type: "msra"
    }
    bias_filler {
      type: "constant"
      value: 0.2
    }
  }
}
layer {
  name: "inception_3a/3x3_BatchNorm"
  type: "BatchNorm"
  bottom: "inception_3a/3x3_raw"
  top: "inception_3a/3x3"
  param {
    lr_mult: 1
    decay_mult: 0
  }
  param {
    lr_mult: 1
    decay_mult: 0
  }
  param {
    lr_mult: 0
    decay_mult: 0
  }
  param {
    lr_mult: 0
    decay_mult: 0
  }
  batch_norm_param {
    use_global_stats: false
    eps: 1e-05
    scale_filler {
      type: "constant"
      value: 1
    }
    bias_filler {
      type: "constant"
      value: 0
    }
  }
}
layer {
  name: "inception_3a/relu_3x3"
  type: "ReLU"
  bottom: "inception_3a/3x3"
  top: "inception_3a/3x3"
}
layer {
  name: "inception_3a/5x5_reduce"
  type: "Convolution"
  bottom: "pool2/3x3_s2"
  top: "inception_3a/5x5_reduce_raw"
  param {
    lr_mult: 1
    decay_mult: 1
  }
  convolution_param {
    num_output: 16
    kernel_size: 1
    weight_filler {
      type: "msra"
    }
    bias_filler {
      type: "constant"
      value: 0.2
    }
  }
}
layer {
  name: "inception_3a/5x5_reduce_BatchNorm"
  type: "BatchNorm"
  bottom: "inception_3a/5x5_reduce_raw"
  top: "inception_3a/5x5_reduce"
  param {
    lr_mult: 1
    decay_mult: 0
  }
  param {
    lr_mult: 1
    decay_mult: 0
  }
  param {
    lr_mult: 0
    decay_mult: 0
  }
  param {
    lr_mult: 0
    decay_mult: 0
  }
  batch_norm_param {
    use_global_stats: false
    eps: 1e-05
    scale_filler {
      type: "constant"
      value: 1
    }
    bias_filler {
      type: "constant"
      value: 0
    }
  }
}
layer {
  name: "inception_3a/relu_5x5_reduce"
  type: "ReLU"
  bottom: "inception_3a/5x5_reduce"
  top: "inception_3a/5x5_reduce"
}
layer {
  name: "inception_3a/5x5"
  type: "Convolution"
  bottom: "inception_3a/5x5_reduce"
  top: "inception_3a/5x5_raw"
  param {
    lr_mult: 1
    decay_mult: 1
  }
  convolution_param {
    num_output: 32
    pad: 2
    kernel_size: 5
    weight_filler {
      type: "msra"
    }
    bias_filler {
      type: "constant"
      value: 0.2
    }
  }
}
layer {
  name: "inception_3a/5x5_BatchNorm"
  type: "BatchNorm"
  bottom: "inception_3a/5x5_raw"
  top: "inception_3a/5x5"
  param {
    lr_mult: 1
    decay_mult: 0
  }
  param {
    lr_mult: 1
    decay_mult: 0
  }
  param {
    lr_mult: 0
    decay_mult: 0
  }
  param {
    lr_mult: 0
    decay_mult: 0
  }
  batch_norm_param {
    use_global_stats: false
    eps: 1e-05
    scale_filler {
      type: "constant"
      value: 1
    }
    bias_filler {
      type: "constant"
      value: 0
    }
  }
}
layer {
  name: "inception_3a/relu_5x5"
  type: "ReLU"
  bottom: "inception_3a/5x5"
  top: "inception_3a/5x5"
}
layer {
  name: "inception_3a/pool"
  type: "Pooling"
  bottom: "pool2/3x3_s2"
  top: "inception_3a/pool"
  pooling_param {
    pool: MAX
    kernel_size: 3
    stride: 1
    pad: 1
  }
}
layer {
  name: "inception_3a/pool_proj"
  type: "Convolution"
  bottom: "inception_3a/pool"
  top: "inception_3a/pool_proj_raw"
  param {
    lr_mult: 1
    decay_mult: 1
  }
  convolution_param {
    num_output: 32
    kernel_size: 1
    weight_filler {
      type: "msra"
    }
    bias_filler {
      type: "constant"
      value: 0.2
    }
  }
}
layer {
  name: "inception_3a/pool_proj_BatchNorm"
  type: "BatchNorm"
  bottom: "inception_3a/pool_proj_raw"
  top: "inception_3a/pool_proj"
  param {
    lr_mult: 1
    decay_mult: 0
  }
  param {
    lr_mult: 1
    decay_mult: 0
  }
  param {
    lr_mult: 0
    decay_mult: 0
  }
  param {
    lr_mult: 0
    decay_mult: 0
  }
  batch_norm_param {
    use_global_stats: false
    eps: 1e-05
    scale_filler {
      type: "constant"
      value: 1
    }
    bias_filler {
      type: "constant"
      value: 0
    }
  }
}
layer {
  name: "inception_3a/relu_pool_proj"
  type: "ReLU"
  bottom: "inception_3a/pool_proj"
  top: "inception_3a/pool_proj"
}
layer {
  name: "inception_3a/output"
  type: "Concat"
  bottom: "inception_3a/1x1"
  bottom: "inception_3a/3x3"
  bottom: "inception_3a/5x5"
  bottom: "inception_3a/pool_proj"
  top: "inception_3a/output"
}
layer {
  name: "inception_3b/1x1"
  type: "Convolution"
  bottom: "inception_3a/output"
  top: "inception_3b/1x1_raw"
  param {
    lr_mult: 1
    decay_mult: 1
  }
  convolution_param {
    num_output: 128
    kernel_size: 1
    weight_filler {
      type: "msra"
    }
    bias_filler {
      type: "constant"
      value: 0.2
    }
  }
}
layer {
  name: "inception_3b/1x1_BatchNorm"
  type: "BatchNorm"
  bottom: "inception_3b/1x1_raw"
  top: "inception_3b/1x1"
  param {
    lr_mult: 1
    decay_mult: 0
  }
  param {
    lr_mult: 1
    decay_mult: 0
  }
  param {
    lr_mult: 0
    decay_mult: 0
  }
  param {
    lr_mult: 0
    decay_mult: 0
  }
  batch_norm_param {
    use_global_stats: false
    eps: 1e-05
    scale_filler {
      type: "constant"
      value: 1
    }
    bias_filler {
      type: "constant"
      value: 0
    }
  }
}
layer {
  name: "inception_3b/relu_1x1"
  type: "ReLU"
  bottom: "inception_3b/1x1"
  top: "inception_3b/1x1"
}
layer {
  name: "inception_3b/3x3_reduce"
  type: "Convolution"
  bottom: "inception_3a/output"
  top: "inception_3b/3x3_reduce_raw"
  param {
    lr_mult: 1
    decay_mult: 1
  }
  convolution_param {
    num_output: 128
    kernel_size: 1
    weight_filler {
      type: "msra"
    }
    bias_filler {
      type: "constant"
      value: 0.2
    }
  }
}
layer {
  name: "inception_3b/3x3_reduce_BatchNorm"
  type: "BatchNorm"
  bottom: "inception_3b/3x3_reduce_raw"
  top: "inception_3b/3x3_reduce"
  param {
    lr_mult: 1
    decay_mult: 0
  }
  param {
    lr_mult: 1
    decay_mult: 0
  }
  param {
    lr_mult: 0
    decay_mult: 0
  }
  param {
    lr_mult: 0
    decay_mult: 0
  }
  batch_norm_param {
    use_global_stats: false
    eps: 1e-05
    scale_filler {
      type: "constant"
      value: 1
    }
    bias_filler {
      type: "constant"
      value: 0
    }
  }
}
layer {
  name: "inception_3b/relu_3x3_reduce"
  type: "ReLU"
  bottom: "inception_3b/3x3_reduce"
  top: "inception_3b/3x3_reduce"
}
layer {
  name: "inception_3b/3x3"
  type: "Convolution"
  bottom: "inception_3b/3x3_reduce"
  top: "inception_3b/3x3_raw"
  param {
    lr_mult: 1
    decay_mult: 1
  }
  convolution_param {
    num_output: 192
    pad: 1
    kernel_size: 3
    weight_filler {
      type: "msra"
    }
    bias_filler {
      type: "constant"
      value: 0.2
    }
  }
}
layer {
  name: "inception_3b/3x3_BatchNorm"
  type: "BatchNorm"
  bottom: "inception_3b/3x3_raw"
  top: "inception_3b/3x3"
  param {
    lr_mult: 1
    decay_mult: 0
  }
  param {
    lr_mult: 1
    decay_mult: 0
  }
  param {
    lr_mult: 0
    decay_mult: 0
  }
  param {
    lr_mult: 0
    decay_mult: 0
  }
  batch_norm_param {
    use_global_stats: false
    eps: 1e-05
    scale_filler {
      type: "constant"
      value: 1
    }
    bias_filler {
      type: "constant"
      value: 0
    }
  }
}
layer {
  name: "inception_3b/relu_3x3"
  type: "ReLU"
  bottom: "inception_3b/3x3"
  top: "inception_3b/3x3"
}
layer {
  name: "inception_3b/5x5_reduce"
  type: "Convolution"
  bottom: "inception_3a/output"
  top: "inception_3b/5x5_reduce_raw"
  param {
    lr_mult: 1
    decay_mult: 1
  }
  convolution_param {
    num_output: 32
    kernel_size: 1
    weight_filler {
      type: "msra"
    }
    bias_filler {
      type: "constant"
      value: 0.2
    }
  }
}
layer {
  name: "inception_3b/5x5_reduce_BatchNorm"
  type: "BatchNorm"
  bottom: "inception_3b/5x5_reduce_raw"
  top: "inception_3b/5x5_reduce"
  param {
    lr_mult: 1
    decay_mult: 0
  }
  param {
    lr_mult: 1
    decay_mult: 0
  }
  param {
    lr_mult: 0
    decay_mult: 0
  }
  param {
    lr_mult: 0
    decay_mult: 0
  }
  batch_norm_param {
    use_global_stats: false
    eps: 1e-05
    scale_filler {
      type: "constant"
      value: 1
    }
    bias_filler {
      type: "constant"
      value: 0
    }
  }
}
layer {
  name: "inception_3b/relu_5x5_reduce"
  type: "ReLU"
  bottom: "inception_3b/5x5_reduce"
  top: "inception_3b/5x5_reduce"
}
layer {
  name: "inception_3b/5x5"
  type: "Convolution"
  bottom: "inception_3b/5x5_reduce"
  top: "inception_3b/5x5_raw"
  param {
    lr_mult: 1
    decay_mult: 1
  }
  convolution_param {
    num_output: 96
    pad: 2
    kernel_size: 5
    weight_filler {
      type: "msra"
    }
    bias_filler {
      type: "constant"
      value: 0.2
    }
  }
}
layer {
  name: "inception_3b/5x5_BatchNorm"
  type: "BatchNorm"
  bottom: "inception_3b/5x5_raw"
  top: "inception_3b/5x5"
  param {
    lr_mult: 1
    decay_mult: 0
  }
  param {
    lr_mult: 1
    decay_mult: 0
  }
  param {
    lr_mult: 0
    decay_mult: 0
  }
  param {
    lr_mult: 0
    decay_mult: 0
  }
  batch_norm_param {
    use_global_stats: false
    eps: 1e-05
    scale_filler {
      type: "constant"
      value: 1
    }
    bias_filler {
      type: "constant"
      value: 0
    }
  }
}
layer {
  name: "inception_3b/relu_5x5"
  type: "ReLU"
  bottom: "inception_3b/5x5"
  top: "inception_3b/5x5"
}
layer {
  name: "inception_3b/pool"
  type: "Pooling"
  bottom: "inception_3a/output"
  top: "inception_3b/pool"
  pooling_param {
    pool: MAX
    kernel_size: 3
    stride: 1
    pad: 1
  }
}
layer {
  name: "inception_3b/pool_proj"
  type: "Convolution"
  bottom: "inception_3b/pool"
  top: "inception_3b/pool_proj_raw"
  param {
    lr_mult: 1
    decay_mult: 1
  }
  convolution_param {
    num_output: 64
    kernel_size: 1
    weight_filler {
      type: "msra"
    }
    bias_filler {
      type: "constant"
      value: 0.2
    }
  }
}
layer {
  name: "inception_3b/pool_proj_BatchNorm"
  type: "BatchNorm"
  bottom: "inception_3b/pool_proj_raw"
  top: "inception_3b/pool_proj"
  param {
    lr_mult: 1
    decay_mult: 0
  }
  param {
    lr_mult: 1
    decay_mult: 0
  }
  param {
    lr_mult: 0
    decay_mult: 0
  }
  param {
    lr_mult: 0
    decay_mult: 0
  }
  batch_norm_param {
    use_global_stats: false
    eps: 1e-05
    scale_filler {
      type: "constant"
      value: 1
    }
    bias_filler {
      type: "constant"
      value: 0
    }
  }
}
layer {
  name: "inception_3b/relu_pool_proj"
  type: "ReLU"
  bottom: "inception_3b/pool_proj"
  top: "inception_3b/pool_proj"
}
layer {
  name: "inception_3b/output"
  type: "Concat"
  bottom: "inception_3b/1x1"
  bottom: "inception_3b/3x3"
  bottom: "inception_3b/5x5"
  bottom: "inception_3b/pool_proj"
  top: "inception_3b/output"
}
layer {
  name: "pool3/3x3_s2"
  type: "Pooling"
  bottom: "inception_3b/output"
  top: "pool3/3x3_s2"
  pooling_param {
    pool: MAX
    kernel_size: 3
    stride: 2
  }
}
layer {
  name: "inception_4a/1x1"
  type: "Convolution"
  bottom: "pool3/3x3_s2"
  top: "inception_4a/1x1_raw"
  param {
    lr_mult: 1
    decay_mult: 1
  }
  convolution_param {
    num_output: 192
    kernel_size: 1
    weight_filler {
      type: "msra"
    }
    bias_filler {
      type: "constant"
      value: 0.2
    }
  }
}
layer {
  name: "inception_4a/1x1_BatchNorm"
  type: "BatchNorm"
  bottom: "inception_4a/1x1_raw"
  top: "inception_4a/1x1"
  param {
    lr_mult: 1
    decay_mult: 0
  }
  param {
    lr_mult: 1
    decay_mult: 0
  }
  param {
    lr_mult: 0
    decay_mult: 0
  }
  param {
    lr_mult: 0
    decay_mult: 0
  }
  batch_norm_param {
    use_global_stats: false
    eps: 1e-05
    scale_filler {
      type: "constant"
      value: 1
    }
    bias_filler {
      type: "constant"
      value: 0
    }
  }
}
layer {
  name: "inception_4a/relu_1x1"
  type: "ReLU"
  bottom: "inception_4a/1x1"
  top: "inception_4a/1x1"
}
layer {
  name: "inception_4a/3x3_reduce"
  type: "Convolution"
  bottom: "pool3/3x3_s2"
  top: "inception_4a/3x3_reduce_raw"
  param {
    lr_mult: 1
    decay_mult: 1
  }
  convolution_param {
    num_output: 96
    kernel_size: 1
    weight_filler {
      type: "msra"
    }
    bias_filler {
      type: "constant"
      value: 0.2
    }
  }
}
layer {
  name: "inception_4a/3x3_reduce_BatchNorm"
  type: "BatchNorm"
  bottom: "inception_4a/3x3_reduce_raw"
  top: "inception_4a/3x3_reduce"
  param {
    lr_mult: 1
    decay_mult: 0
  }
  param {
    lr_mult: 1
    decay_mult: 0
  }
  param {
    lr_mult: 0
    decay_mult: 0
  }
  param {
    lr_mult: 0
    decay_mult: 0
  }
  batch_norm_param {
    use_global_stats: false
    eps: 1e-05
    scale_filler {
      type: "constant"
      value: 1
    }
    bias_filler {
      type: "constant"
      value: 0
    }
  }
}
layer {
  name: "inception_4a/relu_3x3_reduce"
  type: "ReLU"
  bottom: "inception_4a/3x3_reduce"
  top: "inception_4a/3x3_reduce"
}
layer {
  name: "inception_4a/3x3"
  type: "Convolution"
  bottom: "inception_4a/3x3_reduce"
  top: "inception_4a/3x3_raw"
  param {
    lr_mult: 1
    decay_mult: 1
  }
  convolution_param {
    num_output: 208
    pad: 1
    kernel_size: 3
    weight_filler {
      type: "msra"
    }
    bias_filler {
      type: "constant"
      value: 0.2
    }
  }
}
layer {
  name: "inception_4a/3x3_BatchNorm"
  type: "BatchNorm"
  bottom: "inception_4a/3x3_raw"
  top: "inception_4a/3x3"
  param {
    lr_mult: 1
    decay_mult: 0
  }
  param {
    lr_mult: 1
    decay_mult: 0
  }
  param {
    lr_mult: 0
    decay_mult: 0
  }
  param {
    lr_mult: 0
    decay_mult: 0
  }
  batch_norm_param {
    use_global_stats: false
    eps: 1e-05
    scale_filler {
      type: "constant"
      value: 1
    }
    bias_filler {
      type: "constant"
      value: 0
    }
  }
}
layer {
  name: "inception_4a/relu_3x3"
  type: "ReLU"
  bottom: "inception_4a/3x3"
  top: "inception_4a/3x3"
}
layer {
  name: "inception_4a/5x5_reduce"
  type: "Convolution"
  bottom: "pool3/3x3_s2"
  top: "inception_4a/5x5_reduce_raw"
  param {
    lr_mult: 1
    decay_mult: 1
  }
  convolution_param {
    num_output: 16
    kernel_size: 1
    weight_filler {
      type: "msra"
    }
    bias_filler {
      type: "constant"
      value: 0.2
    }
  }
}
layer {
  name: "inception_4a/5x5_reduce_BatchNorm"
  type: "BatchNorm"
  bottom: "inception_4a/5x5_reduce_raw"
  top: "inception_4a/5x5_reduce"
  param {
    lr_mult: 1
    decay_mult: 0
  }
  param {
    lr_mult: 1
    decay_mult: 0
  }
  param {
    lr_mult: 0
    decay_mult: 0
  }
  param {
    lr_mult: 0
    decay_mult: 0
  }
  batch_norm_param {
    use_global_stats: false
    eps: 1e-05
    scale_filler {
      type: "constant"
      value: 1
    }
    bias_filler {
      type: "constant"
      value: 0
    }
  }
}
layer {
  name: "inception_4a/relu_5x5_reduce"
  type: "ReLU"
  bottom: "inception_4a/5x5_reduce"
  top: "inception_4a/5x5_reduce"
}
layer {
  name: "inception_4a/5x5"
  type: "Convolution"
  bottom: "inception_4a/5x5_reduce"
  top: "inception_4a/5x5_raw"
  param {
    lr_mult: 1
    decay_mult: 1
  }
  convolution_param {
    num_output: 48
    pad: 2
    kernel_size: 5
    weight_filler {
      type: "msra"
    }
    bias_filler {
      type: "constant"
      value: 0.2
    }
  }
}
layer {
  name: "inception_4a/5x5_BatchNorm"
  type: "BatchNorm"
  bottom: "inception_4a/5x5_raw"
  top: "inception_4a/5x5"
  param {
    lr_mult: 1
    decay_mult: 0
  }
  param {
    lr_mult: 1
    decay_mult: 0
  }
  param {
    lr_mult: 0
    decay_mult: 0
  }
  param {
    lr_mult: 0
    decay_mult: 0
  }
  batch_norm_param {
    use_global_stats: false
    eps: 1e-05
    scale_filler {
      type: "constant"
      value: 1
    }
    bias_filler {
      type: "constant"
      value: 0
    }
  }
}
layer {
  name: "inception_4a/relu_5x5"
  type: "ReLU"
  bottom: "inception_4a/5x5"
  top: "inception_4a/5x5"
}
layer {
  name: "inception_4a/pool"
  type: "Pooling"
  bottom: "pool3/3x3_s2"
  top: "inception_4a/pool"
  pooling_param {
    pool: MAX
    kernel_size: 3
    stride: 1
    pad: 1
  }
}
layer {
  name: "inception_4a/pool_proj"
  type: "Convolution"
  bottom: "inception_4a/pool"
  top: "inception_4a/pool_proj_raw"
  param {
    lr_mult: 1
    decay_mult: 1
  }
  convolution_param {
    num_output: 64
    kernel_size: 1
    weight_filler {
      type: "msra"
    }
    bias_filler {
      type: "constant"
      value: 0.2
    }
  }
}
layer {
  name: "inception_4a/pool_proj_BatchNorm"
  type: "BatchNorm"
  bottom: "inception_4a/pool_proj_raw"
  top: "inception_4a/pool_proj"
  param {
    lr_mult: 1
    decay_mult: 0
  }
  param {
    lr_mult: 1
    decay_mult: 0
  }
  param {
    lr_mult: 0
    decay_mult: 0
  }
  param {
    lr_mult: 0
    decay_mult: 0
  }
  batch_norm_param {
    use_global_stats: false
    eps: 1e-05
    scale_filler {
      type: "constant"
      value: 1
    }
    bias_filler {
      type: "constant"
      value: 0
    }
  }
}
layer {
  name: "inception_4a/relu_pool_proj"
  type: "ReLU"
  bottom: "inception_4a/pool_proj"
  top: "inception_4a/pool_proj"
}
layer {
  name: "inception_4a/output"
  type: "Concat"
  bottom: "inception_4a/1x1"
  bottom: "inception_4a/3x3"
  bottom: "inception_4a/5x5"
  bottom: "inception_4a/pool_proj"
  top: "inception_4a/output"
}
layer {
  name: "inception_4b/1x1"
  type: "Convolution"
  bottom: "inception_4a/output"
  top: "inception_4b/1x1_raw"
  param {
    lr_mult: 1
    decay_mult: 1
  }
  convolution_param {
    num_output: 160
    kernel_size: 1
    weight_filler {
      type: "msra"
    }
    bias_filler {
      type: "constant"
      value: 0.2
    }
  }
}
layer {
  name: "inception_4b/1x1_BatchNorm"
  type: "BatchNorm"
  bottom: "inception_4b/1x1_raw"
  top: "inception_4b/1x1"
  param {
    lr_mult: 1
    decay_mult: 0
  }
  param {
    lr_mult: 1
    decay_mult: 0
  }
  param {
    lr_mult: 0
    decay_mult: 0
  }
  param {
    lr_mult: 0
    decay_mult: 0
  }
  batch_norm_param {
    use_global_stats: false
    eps: 1e-05
    scale_filler {
      type: "constant"
      value: 1
    }
    bias_filler {
      type: "constant"
      value: 0
    }
  }
}
layer {
  name: "inception_4b/relu_1x1"
  type: "ReLU"
  bottom: "inception_4b/1x1"
  top: "inception_4b/1x1"
}
layer {
  name: "inception_4b/3x3_reduce"
  type: "Convolution"
  bottom: "inception_4a/output"
  top: "inception_4b/3x3_reduce_raw"
  param {
    lr_mult: 1
    decay_mult: 1
  }
  convolution_param {
    num_output: 112
    kernel_size: 1
    weight_filler {
      type: "msra"
    }
    bias_filler {
      type: "constant"
      value: 0.2
    }
  }
}
layer {
  name: "inception_4b/3x3_reduce_BatchNorm"
  type: "BatchNorm"
  bottom: "inception_4b/3x3_reduce_raw"
  top: "inception_4b/3x3_reduce"
  param {
    lr_mult: 1
    decay_mult: 0
  }
  param {
    lr_mult: 1
    decay_mult: 0
  }
  param {
    lr_mult: 0
    decay_mult: 0
  }
  param {
    lr_mult: 0
    decay_mult: 0
  }
  batch_norm_param {
    use_global_stats: false
    eps: 1e-05
    scale_filler {
      type: "constant"
      value: 1
    }
    bias_filler {
      type: "constant"
      value: 0
    }
  }
}
layer {
  name: "inception_4b/relu_3x3_reduce"
  type: "ReLU"
  bottom: "inception_4b/3x3_reduce"
  top: "inception_4b/3x3_reduce"
}
layer {
  name: "inception_4b/3x3"
  type: "Convolution"
  bottom: "inception_4b/3x3_reduce"
  top: "inception_4b/3x3_raw"
  param {
    lr_mult: 1
    decay_mult: 1
  }
  convolution_param {
    num_output: 224
    pad: 1
    kernel_size: 3
    weight_filler {
      type: "msra"
    }
    bias_filler {
      type: "constant"
      value: 0.2
    }
  }
}
layer {
  name: "inception_4b/3x3_BatchNorm"
  type: "BatchNorm"
  bottom: "inception_4b/3x3_raw"
  top: "inception_4b/3x3"
  param {
    lr_mult: 1
    decay_mult: 0
  }
  param {
    lr_mult: 1
    decay_mult: 0
  }
  param {
    lr_mult: 0
    decay_mult: 0
  }
  param {
    lr_mult: 0
    decay_mult: 0
  }
  batch_norm_param {
    use_global_stats: false
    eps: 1e-05
    scale_filler {
      type: "constant"
      value: 1
    }
    bias_filler {
      type: "constant"
      value: 0
    }
  }
}
layer {
  name: "inception_4b/relu_3x3"
  type: "ReLU"
  bottom: "inception_4b/3x3"
  top: "inception_4b/3x3"
}
layer {
  name: "inception_4b/5x5_reduce"
  type: "Convolution"
  bottom: "inception_4a/output"
  top: "inception_4b/5x5_reduce_raw"
  param {
    lr_mult: 1
    decay_mult: 1
  }
  convolution_param {
    num_output: 24
    kernel_size: 1
    weight_filler {
      type: "msra"
    }
    bias_filler {
      type: "constant"
      value: 0.2
    }
  }
}
layer {
  name: "inception_4b/5x5_reduce_BatchNorm"
  type: "BatchNorm"
  bottom: "inception_4b/5x5_reduce_raw"
  top: "inception_4b/5x5_reduce"
  param {
    lr_mult: 1
    decay_mult: 0
  }
  param {
    lr_mult: 1
    decay_mult: 0
  }
  param {
    lr_mult: 0
    decay_mult: 0
  }
  param {
    lr_mult: 0
    decay_mult: 0
  }
  batch_norm_param {
    use_global_stats: false
    eps: 1e-05
    scale_filler {
      type: "constant"
      value: 1
    }
    bias_filler {
      type: "constant"
      value: 0
    }
  }
}
layer {
  name: "inception_4b/relu_5x5_reduce"
  type: "ReLU"
  bottom: "inception_4b/5x5_reduce"
  top: "inception_4b/5x5_reduce"
}
layer {
  name: "inception_4b/5x5"
  type: "Convolution"
  bottom: "inception_4b/5x5_reduce"
  top: "inception_4b/5x5_raw"
  param {
    lr_mult: 1
    decay_mult: 1
  }
  convolution_param {
    num_output: 64
    pad: 2
    kernel_size: 5
    weight_filler {
      type: "msra"
    }
    bias_filler {
      type: "constant"
      value: 0.2
    }
  }
}
layer {
  name: "inception_4b/5x5_BatchNorm"
  type: "BatchNorm"
  bottom: "inception_4b/5x5_raw"
  top: "inception_4b/5x5"
  param {
    lr_mult: 1
    decay_mult: 0
  }
  param {
    lr_mult: 1
    decay_mult: 0
  }
  param {
    lr_mult: 0
    decay_mult: 0
  }
  param {
    lr_mult: 0
    decay_mult: 0
  }
  batch_norm_param {
    use_global_stats: false
    eps: 1e-05
    scale_filler {
      type: "constant"
      value: 1
    }
    bias_filler {
      type: "constant"
      value: 0
    }
  }
}
layer {
  name: "inception_4b/relu_5x5"
  type: "ReLU"
  bottom: "inception_4b/5x5"
  top: "inception_4b/5x5"
}
layer {
  name: "inception_4b/pool"
  type: "Pooling"
  bottom: "inception_4a/output"
  top: "inception_4b/pool"
  pooling_param {
    pool: MAX
    kernel_size: 3
    stride: 1
    pad: 1
  }
}
layer {
  name: "inception_4b/pool_proj"
  type: "Convolution"
  bottom: "inception_4b/pool"
  top: "inception_4b/pool_proj_raw"
  param {
    lr_mult: 1
    decay_mult: 1
  }
  convolution_param {
    num_output: 64
    kernel_size: 1
    weight_filler {
      type: "msra"
    }
    bias_filler {
      type: "constant"
      value: 0.2
    }
  }
}
layer {
  name: "inception_4b/pool_proj_BatchNorm"
  type: "BatchNorm"
  bottom: "inception_4b/pool_proj_raw"
  top: "inception_4b/pool_proj"
  param {
    lr_mult: 1
    decay_mult: 0
  }
  param {
    lr_mult: 1
    decay_mult: 0
  }
  param {
    lr_mult: 0
    decay_mult: 0
  }
  param {
    lr_mult: 0
    decay_mult: 0
  }
  batch_norm_param {
    use_global_stats: false
    eps: 1e-05
    scale_filler {
      type: "constant"
      value: 1
    }
    bias_filler {
      type: "constant"
      value: 0
    }
  }
}
layer {
  name: "inception_4b/relu_pool_proj"
  type: "ReLU"
  bottom: "inception_4b/pool_proj"
  top: "inception_4b/pool_proj"
}
layer {
  name: "inception_4b/output"
  type: "Concat"
  bottom: "inception_4b/1x1"
  bottom: "inception_4b/3x3"
  bottom: "inception_4b/5x5"
  bottom: "inception_4b/pool_proj"
  top: "inception_4b/output"
}
layer {
  name: "inception_4c/1x1"
  type: "Convolution"
  bottom: "inception_4b/output"
  top: "inception_4c/1x1_raw"
  param {
    lr_mult: 1
    decay_mult: 1
  }
  convolution_param {
    num_output: 128
    kernel_size: 1
    weight_filler {
      type: "msra"
    }
    bias_filler {
      type: "constant"
      value: 0.2
    }
  }
}
layer {
  name: "inception_4c/1x1_BatchNorm"
  type: "BatchNorm"
  bottom: "inception_4c/1x1_raw"
  top: "inception_4c/1x1"
  param {
    lr_mult: 1
    decay_mult: 0
  }
  param {
    lr_mult: 1
    decay_mult: 0
  }
  param {
    lr_mult: 0
    decay_mult: 0
  }
  param {
   
I1221 09:00:40.632333 27951 layer_factory.hpp:77] Creating layer data
I1221 09:00:40.632350 27951 net.cpp:94] Creating Layer data
I1221 09:00:40.632354 27951 net.cpp:409] data -> data
I1221 09:00:40.632364 27951 net.cpp:409] data -> label
I1221 09:00:40.632372 27951 image_data_layer.cpp:41] Opening file /workspace/Vitis-AI-Tutorials/files/Segment/workspace/data/signate/signate_test_calibration.txt
I1221 09:00:40.632833 27951 image_data_layer.cpp:51] Shuffling data
I1221 09:00:40.632951 27951 image_data_layer.cpp:56] A total of 649 images.
I1221 09:00:40.678606 27951 image_data_layer.cpp:84] output data size: 1,3,480,960
I1221 09:00:40.699412 27951 internal_thread.cpp:27] Starting internal thread(s) on GPU 0
I1221 09:00:40.699501 27951 net.cpp:144] Setting up data
I1221 09:00:40.699506 27951 net.cpp:151] Top shape: 1 3 480 960 (1382400)
I1221 09:00:40.699517 27951 net.cpp:151] Top shape: 1 (1)
I1221 09:00:40.699520 27951 net.cpp:159] Memory required for data: 5529604
I1221 09:00:40.699525 27951 layer_factory.hpp:77] Creating layer conv1/7x7_s2
I1221 09:00:40.699544 27951 net.cpp:94] Creating Layer conv1/7x7_s2
I1221 09:00:40.699549 27951 net.cpp:435] conv1/7x7_s2 <- data
I1221 09:00:40.699556 27951 net.cpp:409] conv1/7x7_s2 -> conv1/7x7_s2_raw
I1221 09:00:40.700173 27951 net.cpp:144] Setting up conv1/7x7_s2
I1221 09:00:40.700183 27951 net.cpp:151] Top shape: 1 64 240 480 (7372800)
I1221 09:00:40.700191 27951 net.cpp:159] Memory required for data: 35020804
I1221 09:00:40.700212 27951 layer_factory.hpp:77] Creating layer conv1/7x7_s2_BatchNorm
I1221 09:00:40.700222 27951 net.cpp:94] Creating Layer conv1/7x7_s2_BatchNorm
I1221 09:00:40.700225 27951 net.cpp:435] conv1/7x7_s2_BatchNorm <- conv1/7x7_s2_raw
I1221 09:00:40.700229 27951 net.cpp:409] conv1/7x7_s2_BatchNorm -> conv1/7x7_s2
I1221 09:00:40.700850 27951 net.cpp:144] Setting up conv1/7x7_s2_BatchNorm
I1221 09:00:40.700856 27951 net.cpp:151] Top shape: 1 64 240 480 (7372800)
I1221 09:00:40.700861 27951 net.cpp:159] Memory required for data: 64512004
I1221 09:00:40.700871 27951 layer_factory.hpp:77] Creating layer conv1/relu_7x7
I1221 09:00:40.700878 27951 net.cpp:94] Creating Layer conv1/relu_7x7
I1221 09:00:40.700882 27951 net.cpp:435] conv1/relu_7x7 <- conv1/7x7_s2
I1221 09:00:40.700886 27951 net.cpp:396] conv1/relu_7x7 -> conv1/7x7_s2 (in-place)
I1221 09:00:40.700896 27951 net.cpp:144] Setting up conv1/relu_7x7
I1221 09:00:40.700898 27951 net.cpp:151] Top shape: 1 64 240 480 (7372800)
I1221 09:00:40.700901 27951 net.cpp:159] Memory required for data: 94003204
I1221 09:00:40.700903 27951 layer_factory.hpp:77] Creating layer pool1/3x3_s2
I1221 09:00:40.700909 27951 net.cpp:94] Creating Layer pool1/3x3_s2
I1221 09:00:40.700911 27951 net.cpp:435] pool1/3x3_s2 <- conv1/7x7_s2
I1221 09:00:40.700915 27951 net.cpp:409] pool1/3x3_s2 -> pool1/3x3_s2
I1221 09:00:40.700940 27951 net.cpp:144] Setting up pool1/3x3_s2
I1221 09:00:40.700943 27951 net.cpp:151] Top shape: 1 64 120 240 (1843200)
I1221 09:00:40.700947 27951 net.cpp:159] Memory required for data: 101376004
I1221 09:00:40.700949 27951 layer_factory.hpp:77] Creating layer conv2/3x3_reduce
I1221 09:00:40.700956 27951 net.cpp:94] Creating Layer conv2/3x3_reduce
I1221 09:00:40.700958 27951 net.cpp:435] conv2/3x3_reduce <- pool1/3x3_s2
I1221 09:00:40.700963 27951 net.cpp:409] conv2/3x3_reduce -> conv2/3x3_reduce_raw
I1221 09:00:40.701134 27951 net.cpp:144] Setting up conv2/3x3_reduce
I1221 09:00:40.701138 27951 net.cpp:151] Top shape: 1 64 120 240 (1843200)
I1221 09:00:40.701143 27951 net.cpp:159] Memory required for data: 108748804
I1221 09:00:40.701148 27951 layer_factory.hpp:77] Creating layer conv2/3x3_reduce_BatchNorm
I1221 09:00:40.701154 27951 net.cpp:94] Creating Layer conv2/3x3_reduce_BatchNorm
I1221 09:00:40.701159 27951 net.cpp:435] conv2/3x3_reduce_BatchNorm <- conv2/3x3_reduce_raw
I1221 09:00:40.701162 27951 net.cpp:409] conv2/3x3_reduce_BatchNorm -> conv2/3x3_reduce
I1221 09:00:40.701582 27951 net.cpp:144] Setting up conv2/3x3_reduce_BatchNorm
I1221 09:00:40.701587 27951 net.cpp:151] Top shape: 1 64 120 240 (1843200)
I1221 09:00:40.701591 27951 net.cpp:159] Memory required for data: 116121604
I1221 09:00:40.701598 27951 layer_factory.hpp:77] Creating layer conv2/relu_3x3_reduce
I1221 09:00:40.701604 27951 net.cpp:94] Creating Layer conv2/relu_3x3_reduce
I1221 09:00:40.701608 27951 net.cpp:435] conv2/relu_3x3_reduce <- conv2/3x3_reduce
I1221 09:00:40.701612 27951 net.cpp:396] conv2/relu_3x3_reduce -> conv2/3x3_reduce (in-place)
I1221 09:00:40.701617 27951 net.cpp:144] Setting up conv2/relu_3x3_reduce
I1221 09:00:40.701620 27951 net.cpp:151] Top shape: 1 64 120 240 (1843200)
I1221 09:00:40.701624 27951 net.cpp:159] Memory required for data: 123494404
I1221 09:00:40.701627 27951 layer_factory.hpp:77] Creating layer conv2/3x3
I1221 09:00:40.701632 27951 net.cpp:94] Creating Layer conv2/3x3
I1221 09:00:40.701637 27951 net.cpp:435] conv2/3x3 <- conv2/3x3_reduce
I1221 09:00:40.701640 27951 net.cpp:409] conv2/3x3 -> conv2/3x3_raw
I1221 09:00:40.703776 27951 net.cpp:144] Setting up conv2/3x3
I1221 09:00:40.703792 27951 net.cpp:151] Top shape: 1 192 120 240 (5529600)
I1221 09:00:40.703801 27951 net.cpp:159] Memory required for data: 145612804
I1221 09:00:40.703810 27951 layer_factory.hpp:77] Creating layer conv2/3x3_BatchNorm
I1221 09:00:40.703821 27951 net.cpp:94] Creating Layer conv2/3x3_BatchNorm
I1221 09:00:40.703826 27951 net.cpp:435] conv2/3x3_BatchNorm <- conv2/3x3_raw
I1221 09:00:40.703833 27951 net.cpp:409] conv2/3x3_BatchNorm -> conv2/3x3
I1221 09:00:40.704694 27951 net.cpp:144] Setting up conv2/3x3_BatchNorm
I1221 09:00:40.704702 27951 net.cpp:151] Top shape: 1 192 120 240 (5529600)
I1221 09:00:40.704710 27951 net.cpp:159] Memory required for data: 167731204
I1221 09:00:40.704725 27951 layer_factory.hpp:77] Creating layer conv2/relu_3x3
I1221 09:00:40.704732 27951 net.cpp:94] Creating Layer conv2/relu_3x3
I1221 09:00:40.704737 27951 net.cpp:435] conv2/relu_3x3 <- conv2/3x3
I1221 09:00:40.704744 27951 net.cpp:396] conv2/relu_3x3 -> conv2/3x3 (in-place)
I1221 09:00:40.704754 27951 net.cpp:144] Setting up conv2/relu_3x3
I1221 09:00:40.704759 27951 net.cpp:151] Top shape: 1 192 120 240 (5529600)
I1221 09:00:40.704766 27951 net.cpp:159] Memory required for data: 189849604
I1221 09:00:40.704771 27951 layer_factory.hpp:77] Creating layer conv2/3x3_conv2/relu_3x3_0_split
I1221 09:00:40.704783 27951 net.cpp:94] Creating Layer conv2/3x3_conv2/relu_3x3_0_split
I1221 09:00:40.704788 27951 net.cpp:435] conv2/3x3_conv2/relu_3x3_0_split <- conv2/3x3
I1221 09:00:40.704794 27951 net.cpp:409] conv2/3x3_conv2/relu_3x3_0_split -> conv2/3x3_conv2/relu_3x3_0_split_0
I1221 09:00:40.704802 27951 net.cpp:409] conv2/3x3_conv2/relu_3x3_0_split -> conv2/3x3_conv2/relu_3x3_0_split_1
I1221 09:00:40.704841 27951 net.cpp:144] Setting up conv2/3x3_conv2/relu_3x3_0_split
I1221 09:00:40.704846 27951 net.cpp:151] Top shape: 1 192 120 240 (5529600)
I1221 09:00:40.704855 27951 net.cpp:151] Top shape: 1 192 120 240 (5529600)
I1221 09:00:40.704860 27951 net.cpp:159] Memory required for data: 234086404
I1221 09:00:40.704864 27951 layer_factory.hpp:77] Creating layer pool2/3x3_s2
I1221 09:00:40.704875 27951 net.cpp:94] Creating Layer pool2/3x3_s2
I1221 09:00:40.704880 27951 net.cpp:435] pool2/3x3_s2 <- conv2/3x3_conv2/relu_3x3_0_split_0
I1221 09:00:40.704886 27951 net.cpp:409] pool2/3x3_s2 -> pool2/3x3_s2
I1221 09:00:40.704926 27951 net.cpp:144] Setting up pool2/3x3_s2
I1221 09:00:40.704931 27951 net.cpp:151] Top shape: 1 192 60 120 (1382400)
I1221 09:00:40.704938 27951 net.cpp:159] Memory required for data: 239616004
I1221 09:00:40.704942 27951 layer_factory.hpp:77] Creating layer pool2/3x3_s2_pool2/3x3_s2_0_split
I1221 09:00:40.704948 27951 net.cpp:94] Creating Layer pool2/3x3_s2_pool2/3x3_s2_0_split
I1221 09:00:40.704953 27951 net.cpp:435] pool2/3x3_s2_pool2/3x3_s2_0_split <- pool2/3x3_s2
I1221 09:00:40.704959 27951 net.cpp:409] pool2/3x3_s2_pool2/3x3_s2_0_split -> pool2/3x3_s2_pool2/3x3_s2_0_split_0
I1221 09:00:40.704967 27951 net.cpp:409] pool2/3x3_s2_pool2/3x3_s2_0_split -> pool2/3x3_s2_pool2/3x3_s2_0_split_1
I1221 09:00:40.704975 27951 net.cpp:409] pool2/3x3_s2_pool2/3x3_s2_0_split -> pool2/3x3_s2_pool2/3x3_s2_0_split_2
I1221 09:00:40.704983 27951 net.cpp:409] pool2/3x3_s2_pool2/3x3_s2_0_split -> pool2/3x3_s2_pool2/3x3_s2_0_split_3
I1221 09:00:40.705049 27951 net.cpp:144] Setting up pool2/3x3_s2_pool2/3x3_s2_0_split
I1221 09:00:40.705054 27951 net.cpp:151] Top shape: 1 192 60 120 (1382400)
I1221 09:00:40.705060 27951 net.cpp:151] Top shape: 1 192 60 120 (1382400)
I1221 09:00:40.705067 27951 net.cpp:151] Top shape: 1 192 60 120 (1382400)
I1221 09:00:40.705075 27951 net.cpp:151] Top shape: 1 192 60 120 (1382400)
I1221 09:00:40.705080 27951 net.cpp:159] Memory required for data: 261734404
I1221 09:00:40.705085 27951 layer_factory.hpp:77] Creating layer inception_3a/1x1
I1221 09:00:40.705096 27951 net.cpp:94] Creating Layer inception_3a/1x1
I1221 09:00:40.705101 27951 net.cpp:435] inception_3a/1x1 <- pool2/3x3_s2_pool2/3x3_s2_0_split_0
I1221 09:00:40.705107 27951 net.cpp:409] inception_3a/1x1 -> inception_3a/1x1_raw
I1221 09:00:40.705600 27951 net.cpp:144] Setting up inception_3a/1x1
I1221 09:00:40.705607 27951 net.cpp:151] Top shape: 1 64 60 120 (460800)
I1221 09:00:40.705613 27951 net.cpp:159] Memory required for data: 263577604
I1221 09:00:40.705621 27951 layer_factory.hpp:77] Creating layer inception_3a/1x1_BatchNorm
I1221 09:00:40.705631 27951 net.cpp:94] Creating Layer inception_3a/1x1_BatchNorm
I1221 09:00:40.705636 27951 net.cpp:435] inception_3a/1x1_BatchNorm <- inception_3a/1x1_raw
I1221 09:00:40.705642 27951 net.cpp:409] inception_3a/1x1_BatchNorm -> inception_3a/1x1
I1221 09:00:40.706521 27951 net.cpp:144] Setting up inception_3a/1x1_BatchNorm
I1221 09:00:40.706532 27951 net.cpp:151] Top shape: 1 64 60 120 (460800)
I1221 09:00:40.706538 27951 net.cpp:159] Memory required for data: 265420804
I1221 09:00:40.706586 27951 layer_factory.hpp:77] Creating layer inception_3a/relu_1x1
I1221 09:00:40.706598 27951 net.cpp:94] Creating Layer inception_3a/relu_1x1
I1221 09:00:40.706602 27951 net.cpp:435] inception_3a/relu_1x1 <- inception_3a/1x1
I1221 09:00:40.706609 27951 net.cpp:396] inception_3a/relu_1x1 -> inception_3a/1x1 (in-place)
I1221 09:00:40.706616 27951 net.cpp:144] Setting up inception_3a/relu_1x1
I1221 09:00:40.706620 27951 net.cpp:151] Top shape: 1 64 60 120 (460800)
I1221 09:00:40.706626 27951 net.cpp:159] Memory required for data: 267264004
I1221 09:00:40.706630 27951 layer_factory.hpp:77] Creating layer inception_3a/3x3_reduce
I1221 09:00:40.706640 27951 net.cpp:94] Creating Layer inception_3a/3x3_reduce
I1221 09:00:40.706643 27951 net.cpp:435] inception_3a/3x3_reduce <- pool2/3x3_s2_pool2/3x3_s2_0_split_1
I1221 09:00:40.706650 27951 net.cpp:409] inception_3a/3x3_reduce -> inception_3a/3x3_reduce_raw
I1221 09:00:40.707233 27951 net.cpp:144] Setting up inception_3a/3x3_reduce
I1221 09:00:40.707242 27951 net.cpp:151] Top shape: 1 96 60 120 (691200)
I1221 09:00:40.707248 27951 net.cpp:159] Memory required for data: 270028804
I1221 09:00:40.707255 27951 layer_factory.hpp:77] Creating layer inception_3a/3x3_reduce_BatchNorm
I1221 09:00:40.707264 27951 net.cpp:94] Creating Layer inception_3a/3x3_reduce_BatchNorm
I1221 09:00:40.707269 27951 net.cpp:435] inception_3a/3x3_reduce_BatchNorm <- inception_3a/3x3_reduce_raw
I1221 09:00:40.707278 27951 net.cpp:409] inception_3a/3x3_reduce_BatchNorm -> inception_3a/3x3_reduce
I1221 09:00:40.707803 27951 net.cpp:144] Setting up inception_3a/3x3_reduce_BatchNorm
I1221 09:00:40.707809 27951 net.cpp:151] Top shape: 1 96 60 120 (691200)
I1221 09:00:40.707813 27951 net.cpp:159] Memory required for data: 272793604
I1221 09:00:40.707823 27951 layer_factory.hpp:77] Creating layer inception_3a/relu_3x3_reduce
I1221 09:00:40.707828 27951 net.cpp:94] Creating Layer inception_3a/relu_3x3_reduce
I1221 09:00:40.707831 27951 net.cpp:435] inception_3a/relu_3x3_reduce <- inception_3a/3x3_reduce
I1221 09:00:40.707834 27951 net.cpp:396] inception_3a/relu_3x3_reduce -> inception_3a/3x3_reduce (in-place)
I1221 09:00:40.707839 27951 net.cpp:144] Setting up inception_3a/relu_3x3_reduce
I1221 09:00:40.707844 27951 net.cpp:151] Top shape: 1 96 60 120 (691200)
I1221 09:00:40.707847 27951 net.cpp:159] Memory required for data: 275558404
I1221 09:00:40.707849 27951 layer_factory.hpp:77] Creating layer inception_3a/3x3
I1221 09:00:40.707855 27951 net.cpp:94] Creating Layer inception_3a/3x3
I1221 09:00:40.707859 27951 net.cpp:435] inception_3a/3x3 <- inception_3a/3x3_reduce
I1221 09:00:40.707862 27951 net.cpp:409] inception_3a/3x3 -> inception_3a/3x3_raw
I1221 09:00:40.708973 27951 net.cpp:144] Setting up inception_3a/3x3
I1221 09:00:40.708981 27951 net.cpp:151] Top shape: 1 128 60 120 (921600)
I1221 09:00:40.708983 27951 net.cpp:159] Memory required for data: 279244804
I1221 09:00:40.708988 27951 layer_factory.hpp:77] Creating layer inception_3a/3x3_BatchNorm
I1221 09:00:40.708993 27951 net.cpp:94] Creating Layer inception_3a/3x3_BatchNorm
I1221 09:00:40.708997 27951 net.cpp:435] inception_3a/3x3_BatchNorm <- inception_3a/3x3_raw
I1221 09:00:40.709000 27951 net.cpp:409] inception_3a/3x3_BatchNorm -> inception_3a/3x3
I1221 09:00:40.709430 27951 net.cpp:144] Setting up inception_3a/3x3_BatchNorm
I1221 09:00:40.709435 27951 net.cpp:151] Top shape: 1 128 60 120 (921600)
I1221 09:00:40.709439 27951 net.cpp:159] Memory required for data: 282931204
I1221 09:00:40.709444 27951 layer_factory.hpp:77] Creating layer inception_3a/relu_3x3
I1221 09:00:40.709447 27951 net.cpp:94] Creating Layer inception_3a/relu_3x3
I1221 09:00:40.709450 27951 net.cpp:435] inception_3a/relu_3x3 <- inception_3a/3x3
I1221 09:00:40.709452 27951 net.cpp:396] inception_3a/relu_3x3 -> inception_3a/3x3 (in-place)
I1221 09:00:40.709456 27951 net.cpp:144] Setting up inception_3a/relu_3x3
I1221 09:00:40.709458 27951 net.cpp:151] Top shape: 1 128 60 120 (921600)
I1221 09:00:40.709460 27951 net.cpp:159] Memory required for data: 286617604
I1221 09:00:40.709462 27951 layer_factory.hpp:77] Creating layer inception_3a/5x5_reduce
I1221 09:00:40.709467 27951 net.cpp:94] Creating Layer inception_3a/5x5_reduce
I1221 09:00:40.709470 27951 net.cpp:435] inception_3a/5x5_reduce <- pool2/3x3_s2_pool2/3x3_s2_0_split_2
I1221 09:00:40.709471 27951 net.cpp:409] inception_3a/5x5_reduce -> inception_3a/5x5_reduce_raw
I1221 09:00:40.709626 27951 net.cpp:144] Setting up inception_3a/5x5_reduce
I1221 09:00:40.709631 27951 net.cpp:151] Top shape: 1 16 60 120 (115200)
I1221 09:00:40.709635 27951 net.cpp:159] Memory required for data: 287078404
I1221 09:00:40.709637 27951 layer_factory.hpp:77] Creating layer inception_3a/5x5_reduce_BatchNorm
I1221 09:00:40.709642 27951 net.cpp:94] Creating Layer inception_3a/5x5_reduce_BatchNorm
I1221 09:00:40.709645 27951 net.cpp:435] inception_3a/5x5_reduce_BatchNorm <- inception_3a/5x5_reduce_raw
I1221 09:00:40.709647 27951 net.cpp:409] inception_3a/5x5_reduce_BatchNorm -> inception_3a/5x5_reduce
I1221 09:00:40.710012 27951 net.cpp:144] Setting up inception_3a/5x5_reduce_BatchNorm
I1221 09:00:40.710016 27951 net.cpp:151] Top shape: 1 16 60 120 (115200)
I1221 09:00:40.710019 27951 net.cpp:159] Memory required for data: 287539204
I1221 09:00:40.710024 27951 layer_factory.hpp:77] Creating layer inception_3a/relu_5x5_reduce
I1221 09:00:40.710028 27951 net.cpp:94] Creating Layer inception_3a/relu_5x5_reduce
I1221 09:00:40.710031 27951 net.cpp:435] inception_3a/relu_5x5_reduce <- inception_3a/5x5_reduce
I1221 09:00:40.710032 27951 net.cpp:396] inception_3a/relu_5x5_reduce -> inception_3a/5x5_reduce (in-place)
I1221 09:00:40.710036 27951 net.cpp:144] Setting up inception_3a/relu_5x5_reduce
I1221 09:00:40.710037 27951 net.cpp:151] Top shape: 1 16 60 120 (115200)
I1221 09:00:40.710039 27951 net.cpp:159] Memory required for data: 288000004
I1221 09:00:40.710041 27951 layer_factory.hpp:77] Creating layer inception_3a/5x5
I1221 09:00:40.710045 27951 net.cpp:94] Creating Layer inception_3a/5x5
I1221 09:00:40.710047 27951 net.cpp:435] inception_3a/5x5 <- inception_3a/5x5_reduce
I1221 09:00:40.710052 27951 net.cpp:409] inception_3a/5x5 -> inception_3a/5x5_raw
I1221 09:00:40.710261 27951 net.cpp:144] Setting up inception_3a/5x5
I1221 09:00:40.710265 27951 net.cpp:151] Top shape: 1 32 60 120 (230400)
I1221 09:00:40.710268 27951 net.cpp:159] Memory required for data: 288921604
I1221 09:00:40.710271 27951 layer_factory.hpp:77] Creating layer inception_3a/5x5_BatchNorm
I1221 09:00:40.710275 27951 net.cpp:94] Creating Layer inception_3a/5x5_BatchNorm
I1221 09:00:40.710278 27951 net.cpp:435] inception_3a/5x5_BatchNorm <- inception_3a/5x5_raw
I1221 09:00:40.710280 27951 net.cpp:409] inception_3a/5x5_BatchNorm -> inception_3a/5x5
I1221 09:00:40.710664 27951 net.cpp:144] Setting up inception_3a/5x5_BatchNorm
I1221 09:00:40.710667 27951 net.cpp:151] Top shape: 1 32 60 120 (230400)
I1221 09:00:40.710670 27951 net.cpp:159] Memory required for data: 289843204
I1221 09:00:40.710675 27951 layer_factory.hpp:77] Creating layer inception_3a/relu_5x5
I1221 09:00:40.710678 27951 net.cpp:94] Creating Layer inception_3a/relu_5x5
I1221 09:00:40.710680 27951 net.cpp:435] inception_3a/relu_5x5 <- inception_3a/5x5
I1221 09:00:40.710682 27951 net.cpp:396] inception_3a/relu_5x5 -> inception_3a/5x5 (in-place)
I1221 09:00:40.710685 27951 net.cpp:144] Setting up inception_3a/relu_5x5
I1221 09:00:40.710687 27951 net.cpp:151] Top shape: 1 32 60 120 (230400)
I1221 09:00:40.710690 27951 net.cpp:159] Memory required for data: 290764804
I1221 09:00:40.710691 27951 layer_factory.hpp:77] Creating layer inception_3a/pool
I1221 09:00:40.710695 27951 net.cpp:94] Creating Layer inception_3a/pool
I1221 09:00:40.710696 27951 net.cpp:435] inception_3a/pool <- pool2/3x3_s2_pool2/3x3_s2_0_split_3
I1221 09:00:40.710700 27951 net.cpp:409] inception_3a/pool -> inception_3a/pool
I1221 09:00:40.710717 27951 net.cpp:144] Setting up inception_3a/pool
I1221 09:00:40.710719 27951 net.cpp:151] Top shape: 1 192 60 120 (1382400)
I1221 09:00:40.710722 27951 net.cpp:159] Memory required for data: 296294404
I1221 09:00:40.710723 27951 layer_factory.hpp:77] Creating layer inception_3a/pool_proj
I1221 09:00:40.710727 27951 net.cpp:94] Creating Layer inception_3a/pool_proj
I1221 09:00:40.710729 27951 net.cpp:435] inception_3a/pool_proj <- inception_3a/pool
I1221 09:00:40.710732 27951 net.cpp:409] inception_3a/pool_proj -> inception_3a/pool_proj_raw
I1221 09:00:40.711532 27951 net.cpp:144] Setting up inception_3a/pool_proj
I1221 09:00:40.711539 27951 net.cpp:151] Top shape: 1 32 60 120 (230400)
I1221 09:00:40.711541 27951 net.cpp:159] Memory required for data: 297216004
I1221 09:00:40.711545 27951 layer_factory.hpp:77] Creating layer inception_3a/pool_proj_BatchNorm
I1221 09:00:40.711550 27951 net.cpp:94] Creating Layer inception_3a/pool_proj_BatchNorm
I1221 09:00:40.711552 27951 net.cpp:435] inception_3a/pool_proj_BatchNorm <- inception_3a/pool_proj_raw
I1221 09:00:40.711555 27951 net.cpp:409] inception_3a/pool_proj_BatchNorm -> inception_3a/pool_proj
I1221 09:00:40.711938 27951 net.cpp:144] Setting up inception_3a/pool_proj_BatchNorm
I1221 09:00:40.711942 27951 net.cpp:151] Top shape: 1 32 60 120 (230400)
I1221 09:00:40.711946 27951 net.cpp:159] Memory required for data: 298137604
I1221 09:00:40.711951 27951 layer_factory.hpp:77] Creating layer inception_3a/relu_pool_proj
I1221 09:00:40.711956 27951 net.cpp:94] Creating Layer inception_3a/relu_pool_proj
I1221 09:00:40.711958 27951 net.cpp:435] inception_3a/relu_pool_proj <- inception_3a/pool_proj
I1221 09:00:40.711961 27951 net.cpp:396] inception_3a/relu_pool_proj -> inception_3a/pool_proj (in-place)
I1221 09:00:40.711964 27951 net.cpp:144] Setting up inception_3a/relu_pool_proj
I1221 09:00:40.711966 27951 net.cpp:151] Top shape: 1 32 60 120 (230400)
I1221 09:00:40.711968 27951 net.cpp:159] Memory required for data: 299059204
I1221 09:00:40.711969 27951 layer_factory.hpp:77] Creating layer inception_3a/output
I1221 09:00:40.711977 27951 net.cpp:94] Creating Layer inception_3a/output
I1221 09:00:40.711979 27951 net.cpp:435] inception_3a/output <- inception_3a/1x1
I1221 09:00:40.711982 27951 net.cpp:435] inception_3a/output <- inception_3a/3x3
I1221 09:00:40.711983 27951 net.cpp:435] inception_3a/output <- inception_3a/5x5
I1221 09:00:40.711985 27951 net.cpp:435] inception_3a/output <- inception_3a/pool_proj
I1221 09:00:40.711988 27951 net.cpp:409] inception_3a/output -> inception_3a/output
I1221 09:00:40.711999 27951 net.cpp:144] Setting up inception_3a/output
I1221 09:00:40.712002 27951 net.cpp:151] Top shape: 1 256 60 120 (1843200)
I1221 09:00:40.712004 27951 net.cpp:159] Memory required for data: 306432004
I1221 09:00:40.712007 27951 layer_factory.hpp:77] Creating layer inception_3a/output_inception_3a/output_0_split
I1221 09:00:40.712010 27951 net.cpp:94] Creating Layer inception_3a/output_inception_3a/output_0_split
I1221 09:00:40.712011 27951 net.cpp:435] inception_3a/output_inception_3a/output_0_split <- inception_3a/output
I1221 09:00:40.712014 27951 net.cpp:409] inception_3a/output_inception_3a/output_0_split -> inception_3a/output_inception_3a/output_0_split_0
I1221 09:00:40.712018 27951 net.cpp:409] inception_3a/output_inception_3a/output_0_split -> inception_3a/output_inception_3a/output_0_split_1
I1221 09:00:40.712020 27951 net.cpp:409] inception_3a/output_inception_3a/output_0_split -> inception_3a/output_inception_3a/output_0_split_2
I1221 09:00:40.712025 27951 net.cpp:409] inception_3a/output_inception_3a/output_0_split -> inception_3a/output_inception_3a/output_0_split_3
I1221 09:00:40.712054 27951 net.cpp:144] Setting up inception_3a/output_inception_3a/output_0_split
I1221 09:00:40.712055 27951 net.cpp:151] Top shape: 1 256 60 120 (1843200)
I1221 09:00:40.712059 27951 net.cpp:151] Top shape: 1 256 60 120 (1843200)
I1221 09:00:40.712061 27951 net.cpp:151] Top shape: 1 256 60 120 (1843200)
I1221 09:00:40.712064 27951 net.cpp:151] Top shape: 1 256 60 120 (1843200)
I1221 09:00:40.712067 27951 net.cpp:159] Memory required for data: 335923204
I1221 09:00:40.712069 27951 layer_factory.hpp:77] Creating layer inception_3b/1x1
I1221 09:00:40.712074 27951 net.cpp:94] Creating Layer inception_3b/1x1
I1221 09:00:40.712075 27951 net.cpp:435] inception_3b/1x1 <- inception_3a/output_inception_3a/output_0_split_0
I1221 09:00:40.712077 27951 net.cpp:409] inception_3b/1x1 -> inception_3b/1x1_raw
I1221 09:00:40.712368 27951 net.cpp:144] Setting up inception_3b/1x1
I1221 09:00:40.712370 27951 net.cpp:151] Top shape: 1 128 60 120 (921600)
I1221 09:00:40.712373 27951 net.cpp:159] Memory required for data: 339609604
I1221 09:00:40.712378 27951 layer_factory.hpp:77] Creating layer inception_3b/1x1_BatchNorm
I1221 09:00:40.712383 27951 net.cpp:94] Creating Layer inception_3b/1x1_BatchNorm
I1221 09:00:40.712385 27951 net.cpp:435] inception_3b/1x1_BatchNorm <- inception_3b/1x1_raw
I1221 09:00:40.712388 27951 net.cpp:409] inception_3b/1x1_BatchNorm -> inception_3b/1x1
I1221 09:00:40.712697 27951 net.cpp:144] Setting up inception_3b/1x1_BatchNorm
I1221 09:00:40.712702 27951 net.cpp:151] Top shape: 1 128 60 120 (921600)
I1221 09:00:40.712704 27951 net.cpp:159] Memory required for data: 343296004
I1221 09:00:40.712709 27951 layer_factory.hpp:77] Creating layer inception_3b/relu_1x1
I1221 09:00:40.712713 27951 net.cpp:94] Creating Layer inception_3b/relu_1x1
I1221 09:00:40.712715 27951 net.cpp:435] inception_3b/relu_1x1 <- inception_3b/1x1
I1221 09:00:40.712718 27951 net.cpp:396] inception_3b/relu_1x1 -> inception_3b/1x1 (in-place)
I1221 09:00:40.712720 27951 net.cpp:144] Setting up inception_3b/relu_1x1
I1221 09:00:40.712723 27951 net.cpp:151] Top shape: 1 128 60 120 (921600)
I1221 09:00:40.712726 27951 net.cpp:159] Memory required for data: 346982404
I1221 09:00:40.712728 27951 layer_factory.hpp:77] Creating layer inception_3b/3x3_reduce
I1221 09:00:40.712733 27951 net.cpp:94] Creating Layer inception_3b/3x3_reduce
I1221 09:00:40.712735 27951 net.cpp:435] inception_3b/3x3_reduce <- inception_3a/output_inception_3a/output_0_split_1
I1221 09:00:40.712738 27951 net.cpp:409] inception_3b/3x3_reduce -> inception_3b/3x3_reduce_raw
I1221 09:00:40.713027 27951 net.cpp:144] Setting up inception_3b/3x3_reduce
I1221 09:00:40.713029 27951 net.cpp:151] Top shape: 1 128 60 120 (921600)
I1221 09:00:40.713032 27951 net.cpp:159] Memory required for data: 350668804
I1221 09:00:40.713035 27951 layer_factory.hpp:77] Creating layer inception_3b/3x3_reduce_BatchNorm
I1221 09:00:40.713039 27951 net.cpp:94] Creating Layer inception_3b/3x3_reduce_BatchNorm
I1221 09:00:40.713042 27951 net.cpp:435] inception_3b/3x3_reduce_BatchNorm <- inception_3b/3x3_reduce_raw
I1221 09:00:40.713044 27951 net.cpp:409] inception_3b/3x3_reduce_BatchNorm -> inception_3b/3x3_reduce
I1221 09:00:40.713358 27951 net.cpp:144] Setting up inception_3b/3x3_reduce_BatchNorm
I1221 09:00:40.713362 27951 net.cpp:151] Top shape: 1 128 60 120 (921600)
I1221 09:00:40.713366 27951 net.cpp:159] Memory required for data: 354355204
I1221 09:00:40.713371 27951 layer_factory.hpp:77] Creating layer inception_3b/relu_3x3_reduce
I1221 09:00:40.713373 27951 net.cpp:94] Creating Layer inception_3b/relu_3x3_reduce
I1221 09:00:40.713376 27951 net.cpp:435] inception_3b/relu_3x3_reduce <- inception_3b/3x3_reduce
I1221 09:00:40.713377 27951 net.cpp:396] inception_3b/relu_3x3_reduce -> inception_3b/3x3_reduce (in-place)
I1221 09:00:40.713382 27951 net.cpp:144] Setting up inception_3b/relu_3x3_reduce
I1221 09:00:40.713383 27951 net.cpp:151] Top shape: 1 128 60 120 (921600)
I1221 09:00:40.713387 27951 net.cpp:159] Memory required for data: 358041604
I1221 09:00:40.713387 27951 layer_factory.hpp:77] Creating layer inception_3b/3x3
I1221 09:00:40.713392 27951 net.cpp:94] Creating Layer inception_3b/3x3
I1221 09:00:40.713394 27951 net.cpp:435] inception_3b/3x3 <- inception_3b/3x3_reduce
I1221 09:00:40.713397 27951 net.cpp:409] inception_3b/3x3 -> inception_3b/3x3_raw
I1221 09:00:40.715250 27951 net.cpp:144] Setting up inception_3b/3x3
I1221 09:00:40.715256 27951 net.cpp:151] Top shape: 1 192 60 120 (1382400)
I1221 09:00:40.715260 27951 net.cpp:159] Memory required for data: 363571204
I1221 09:00:40.715265 27951 layer_factory.hpp:77] Creating layer inception_3b/3x3_BatchNorm
I1221 09:00:40.715270 27951 net.cpp:94] Creating Layer inception_3b/3x3_BatchNorm
I1221 09:00:40.715274 27951 net.cpp:435] inception_3b/3x3_BatchNorm <- inception_3b/3x3_raw
I1221 09:00:40.715277 27951 net.cpp:409] inception_3b/3x3_BatchNorm -> inception_3b/3x3
I1221 09:00:40.715656 27951 net.cpp:144] Setting up inception_3b/3x3_BatchNorm
I1221 09:00:40.715660 27951 net.cpp:151] Top shape: 1 192 60 120 (1382400)
I1221 09:00:40.715663 27951 net.cpp:159] Memory required for data: 369100804
I1221 09:00:40.715668 27951 layer_factory.hpp:77] Creating layer inception_3b/relu_3x3
I1221 09:00:40.715672 27951 net.cpp:94] Creating Layer inception_3b/relu_3x3
I1221 09:00:40.715674 27951 net.cpp:435] inception_3b/relu_3x3 <- inception_3b/3x3
I1221 09:00:40.715677 27951 net.cpp:396] inception_3b/relu_3x3 -> inception_3b/3x3 (in-place)
I1221 09:00:40.715680 27951 net.cpp:144] Setting up inception_3b/relu_3x3
I1221 09:00:40.715682 27951 net.cpp:151] Top shape: 1 192 60 120 (1382400)
I1221 09:00:40.715683 27951 net.cpp:159] Memory required for data: 374630404
I1221 09:00:40.715685 27951 layer_factory.hpp:77] Creating layer inception_3b/5x5_reduce
I1221 09:00:40.715690 27951 net.cpp:94] Creating Layer inception_3b/5x5_reduce
I1221 09:00:40.715692 27951 net.cpp:435] inception_3b/5x5_reduce <- inception_3a/output_inception_3a/output_0_split_2
I1221 09:00:40.715695 27951 net.cpp:409] inception_3b/5x5_reduce -> inception_3b/5x5_reduce_raw
I1221 09:00:40.715873 27951 net.cpp:144] Setting up inception_3b/5x5_reduce
I1221 09:00:40.715876 27951 net.cpp:151] Top shape: 1 32 60 120 (230400)
I1221 09:00:40.715879 27951 net.cpp:159] Memory required for data: 375552004
I1221 09:00:40.715883 27951 layer_factory.hpp:77] Creating layer inception_3b/5x5_reduce_BatchNorm
I1221 09:00:40.715886 27951 net.cpp:94] Creating Layer inception_3b/5x5_reduce_BatchNorm
I1221 09:00:40.715888 27951 net.cpp:435] inception_3b/5x5_reduce_BatchNorm <- inception_3b/5x5_reduce_raw
I1221 09:00:40.715890 27951 net.cpp:409] inception_3b/5x5_reduce_BatchNorm -> inception_3b/5x5_reduce
I1221 09:00:40.716257 27951 net.cpp:144] Setting up inception_3b/5x5_reduce_BatchNorm
I1221 09:00:40.716261 27951 net.cpp:151] Top shape: 1 32 60 120 (230400)
I1221 09:00:40.716264 27951 net.cpp:159] Memory required for data: 376473604
I1221 09:00:40.716269 27951 layer_factory.hpp:77] Creating layer inception_3b/relu_5x5_reduce
I1221 09:00:40.716274 27951 net.cpp:94] Creating Layer inception_3b/relu_5x5_reduce
I1221 09:00:40.716275 27951 net.cpp:435] inception_3b/relu_5x5_reduce <- inception_3b/5x5_reduce
I1221 09:00:40.716279 27951 net.cpp:396] inception_3b/relu_5x5_reduce -> inception_3b/5x5_reduce (in-place)
I1221 09:00:40.716281 27951 net.cpp:144] Setting up inception_3b/relu_5x5_reduce
I1221 09:00:40.716282 27951 net.cpp:151] Top shape: 1 32 60 120 (230400)
I1221 09:00:40.716284 27951 net.cpp:159] Memory required for data: 377395204
I1221 09:00:40.716286 27951 layer_factory.hpp:77] Creating layer inception_3b/5x5
I1221 09:00:40.716290 27951 net.cpp:94] Creating Layer inception_3b/5x5
I1221 09:00:40.716292 27951 net.cpp:435] inception_3b/5x5 <- inception_3b/5x5_reduce
I1221 09:00:40.716295 27951 net.cpp:409] inception_3b/5x5 -> inception_3b/5x5_raw
I1221 09:00:40.716818 27951 net.cpp:144] Setting up inception_3b/5x5
I1221 09:00:40.716822 27951 net.cpp:151] Top shape: 1 96 60 120 (691200)
I1221 09:00:40.716825 27951 net.cpp:159] Memory required for data: 380160004
I1221 09:00:40.716828 27951 layer_factory.hpp:77] Creating layer inception_3b/5x5_BatchNorm
I1221 09:00:40.716831 27951 net.cpp:94] Creating Layer inception_3b/5x5_BatchNorm
I1221 09:00:40.716835 27951 net.cpp:435] inception_3b/5x5_BatchNorm <- inception_3b/5x5_raw
I1221 09:00:40.716837 27951 net.cpp:409] inception_3b/5x5_BatchNorm -> inception_3b/5x5
I1221 09:00:40.717209 27951 net.cpp:144] Setting up inception_3b/5x5_BatchNorm
I1221 09:00:40.717213 27951 net.cpp:151] Top shape: 1 96 60 120 (691200)
I1221 09:00:40.717216 27951 net.cpp:159] Memory required for data: 382924804
I1221 09:00:40.717221 27951 layer_factory.hpp:77] Creating layer inception_3b/relu_5x5
I1221 09:00:40.717224 27951 net.cpp:94] Creating Layer inception_3b/relu_5x5
I1221 09:00:40.717226 27951 net.cpp:435] inception_3b/relu_5x5 <- inception_3b/5x5
I1221 09:00:40.717228 27951 net.cpp:396] inception_3b/relu_5x5 -> inception_3b/5x5 (in-place)
I1221 09:00:40.717231 27951 net.cpp:144] Setting up inception_3b/relu_5x5
I1221 09:00:40.717234 27951 net.cpp:151] Top shape: 1 96 60 120 (691200)
I1221 09:00:40.717236 27951 net.cpp:159] Memory required for data: 385689604
I1221 09:00:40.717238 27951 layer_factory.hpp:77] Creating layer inception_3b/pool
I1221 09:00:40.717242 27951 net.cpp:94] Creating Layer inception_3b/pool
I1221 09:00:40.717243 27951 net.cpp:435] inception_3b/pool <- inception_3a/output_inception_3a/output_0_split_3
I1221 09:00:40.717247 27951 net.cpp:409] inception_3b/pool -> inception_3b/pool
I1221 09:00:40.717264 27951 net.cpp:144] Setting up inception_3b/pool
I1221 09:00:40.717267 27951 net.cpp:151] Top shape: 1 256 60 120 (1843200)
I1221 09:00:40.717269 27951 net.cpp:159] Memory required for data: 393062404
I1221 09:00:40.717272 27951 layer_factory.hpp:77] Creating layer inception_3b/pool_proj
I1221 09:00:40.717274 27951 net.cpp:94] Creating Layer inception_3b/pool_proj
I1221 09:00:40.717276 27951 net.cpp:435] inception_3b/pool_proj <- inception_3b/pool
I1221 09:00:40.717279 27951 net.cpp:409] inception_3b/pool_proj -> inception_3b/pool_proj_raw
I1221 09:00:40.717502 27951 net.cpp:144] Setting up inception_3b/pool_proj
I1221 09:00:40.717505 27951 net.cpp:151] Top shape: 1 64 60 120 (460800)
I1221 09:00:40.717509 27951 net.cpp:159] Memory required for data: 394905604
I1221 09:00:40.717511 27951 layer_factory.hpp:77] Creating layer inception_3b/pool_proj_BatchNorm
I1221 09:00:40.717515 27951 net.cpp:94] Creating Layer inception_3b/pool_proj_BatchNorm
I1221 09:00:40.717519 27951 net.cpp:435] inception_3b/pool_proj_BatchNorm <- inception_3b/pool_proj_raw
I1221 09:00:40.717521 27951 net.cpp:409] inception_3b/pool_proj_BatchNorm -> inception_3b/pool_proj
I1221 09:00:40.717901 27951 net.cpp:144] Setting up inception_3b/pool_proj_BatchNorm
I1221 09:00:40.717905 27951 net.cpp:151] Top shape: 1 64 60 120 (460800)
I1221 09:00:40.717907 27951 net.cpp:159] Memory required for data: 396748804
I1221 09:00:40.717912 27951 layer_factory.hpp:77] Creating layer inception_3b/relu_pool_proj
I1221 09:00:40.717916 27951 net.cpp:94] Creating Layer inception_3b/relu_pool_proj
I1221 09:00:40.717917 27951 net.cpp:435] inception_3b/relu_pool_proj <- inception_3b/pool_proj
I1221 09:00:40.717921 27951 net.cpp:396] inception_3b/relu_pool_proj -> inception_3b/pool_proj (in-place)
I1221 09:00:40.717923 27951 net.cpp:144] Setting up inception_3b/relu_pool_proj
I1221 09:00:40.717926 27951 net.cpp:151] Top shape: 1 64 60 120 (460800)
I1221 09:00:40.717927 27951 net.cpp:159] Memory required for data: 398592004
I1221 09:00:40.717929 27951 layer_factory.hpp:77] Creating layer inception_3b/output
I1221 09:00:40.717932 27951 net.cpp:94] Creating Layer inception_3b/output
I1221 09:00:40.717936 27951 net.cpp:435] inception_3b/output <- inception_3b/1x1
I1221 09:00:40.717937 27951 net.cpp:435] inception_3b/output <- inception_3b/3x3
I1221 09:00:40.717939 27951 net.cpp:435] inception_3b/output <- inception_3b/5x5
I1221 09:00:40.717941 27951 net.cpp:435] inception_3b/output <- inception_3b/pool_proj
I1221 09:00:40.717943 27951 net.cpp:409] inception_3b/output -> inception_3b/output
I1221 09:00:40.717954 27951 net.cpp:144] Setting up inception_3b/output
I1221 09:00:40.717957 27951 net.cpp:151] Top shape: 1 480 60 120 (3456000)
I1221 09:00:40.717959 27951 net.cpp:159] Memory required for data: 412416004
I1221 09:00:40.717962 27951 layer_factory.hpp:77] Creating layer inception_3b/output_inception_3b/output_0_split
I1221 09:00:40.717964 27951 net.cpp:94] Creating Layer inception_3b/output_inception_3b/output_0_split
I1221 09:00:40.717967 27951 net.cpp:435] inception_3b/output_inception_3b/output_0_split <- inception_3b/output
I1221 09:00:40.717968 27951 net.cpp:409] inception_3b/output_inception_3b/output_0_split -> inception_3b/output_inception_3b/output_0_split_0
I1221 09:00:40.717972 27951 net.cpp:409] inception_3b/output_inception_3b/output_0_split -> inception_3b/output_inception_3b/output_0_split_1
I1221 09:00:40.717988 27951 net.cpp:144] Setting up inception_3b/output_inception_3b/output_0_split
I1221 09:00:40.717990 27951 net.cpp:151] Top shape: 1 480 60 120 (3456000)
I1221 09:00:40.717993 27951 net.cpp:151] Top shape: 1 480 60 120 (3456000)
I1221 09:00:40.717995 27951 net.cpp:159] Memory required for data: 440064004
I1221 09:00:40.717998 27951 layer_factory.hpp:77] Creating layer pool3/3x3_s2
I1221 09:00:40.718000 27951 net.cpp:94] Creating Layer pool3/3x3_s2
I1221 09:00:40.718001 27951 net.cpp:435] pool3/3x3_s2 <- inception_3b/output_inception_3b/output_0_split_0
I1221 09:00:40.718004 27951 net.cpp:409] pool3/3x3_s2 -> pool3/3x3_s2
I1221 09:00:40.718020 27951 net.cpp:144] Setting up pool3/3x3_s2
I1221 09:00:40.718022 27951 net.cpp:151] Top shape: 1 480 30 60 (864000)
I1221 09:00:40.718024 27951 net.cpp:159] Memory required for data: 443520004
I1221 09:00:40.718026 27951 layer_factory.hpp:77] Creating layer pool3/3x3_s2_pool3/3x3_s2_0_split
I1221 09:00:40.718029 27951 net.cpp:94] Creating Layer pool3/3x3_s2_pool3/3x3_s2_0_split
I1221 09:00:40.718031 27951 net.cpp:435] pool3/3x3_s2_pool3/3x3_s2_0_split <- pool3/3x3_s2
I1221 09:00:40.718034 27951 net.cpp:409] pool3/3x3_s2_pool3/3x3_s2_0_split -> pool3/3x3_s2_pool3/3x3_s2_0_split_0
I1221 09:00:40.718037 27951 net.cpp:409] pool3/3x3_s2_pool3/3x3_s2_0_split -> pool3/3x3_s2_pool3/3x3_s2_0_split_1
I1221 09:00:40.718040 27951 net.cpp:409] pool3/3x3_s2_pool3/3x3_s2_0_split -> pool3/3x3_s2_pool3/3x3_s2_0_split_2
I1221 09:00:40.718044 27951 net.cpp:409] pool3/3x3_s2_pool3/3x3_s2_0_split -> pool3/3x3_s2_pool3/3x3_s2_0_split_3
I1221 09:00:40.718071 27951 net.cpp:144] Setting up pool3/3x3_s2_pool3/3x3_s2_0_split
I1221 09:00:40.718073 27951 net.cpp:151] Top shape: 1 480 30 60 (864000)
I1221 09:00:40.718076 27951 net.cpp:151] Top shape: 1 480 30 60 (864000)
I1221 09:00:40.718078 27951 net.cpp:151] Top shape: 1 480 30 60 (864000)
I1221 09:00:40.718080 27951 net.cpp:151] Top shape: 1 480 30 60 (864000)
I1221 09:00:40.718083 27951 net.cpp:159] Memory required for data: 457344004
I1221 09:00:40.718084 27951 layer_factory.hpp:77] Creating layer inception_4a/1x1
I1221 09:00:40.718089 27951 net.cpp:94] Creating Layer inception_4a/1x1
I1221 09:00:40.718091 27951 net.cpp:435] inception_4a/1x1 <- pool3/3x3_s2_pool3/3x3_s2_0_split_0
I1221 09:00:40.718094 27951 net.cpp:409] inception_4a/1x1 -> inception_4a/1x1_raw
I1221 09:00:40.719259 27951 net.cpp:144] Setting up inception_4a/1x1
I1221 09:00:40.719265 27951 net.cpp:151] Top shape: 1 192 30 60 (345600)
I1221 09:00:40.719269 27951 net.cpp:159] Memory required for data: 458726404
I1221 09:00:40.719274 27951 layer_factory.hpp:77] Creating layer inception_4a/1x1_BatchNorm
I1221 09:00:40.719280 27951 net.cpp:94] Creating Layer inception_4a/1x1_BatchNorm
I1221 09:00:40.719283 27951 net.cpp:435] inception_4a/1x1_BatchNorm <- inception_4a/1x1_raw
I1221 09:00:40.719287 27951 net.cpp:409] inception_4a/1x1_BatchNorm -> inception_4a/1x1
I1221 09:00:40.719700 27951 net.cpp:144] Setting up inception_4a/1x1_BatchNorm
I1221 09:00:40.719707 27951 net.cpp:151] Top shape: 1 192 30 60 (345600)
I1221 09:00:40.719709 27951 net.cpp:159] Memory required for data: 460108804
I1221 09:00:40.719717 27951 layer_factory.hpp:77] Creating layer inception_4a/relu_1x1
I1221 09:00:40.719720 27951 net.cpp:94] Creating Layer inception_4a/relu_1x1
I1221 09:00:40.719722 27951 net.cpp:435] inception_4a/relu_1x1 <- inception_4a/1x1
I1221 09:00:40.719727 27951 net.cpp:396] inception_4a/relu_1x1 -> inception_4a/1x1 (in-place)
I1221 09:00:40.719730 27951 net.cpp:144] Setting up inception_4a/relu_1x1
I1221 09:00:40.719732 27951 net.cpp:151] Top shape: 1 192 30 60 (345600)
I1221 09:00:40.719736 27951 net.cpp:159] Memory required for data: 461491204
I1221 09:00:40.719738 27951 layer_factory.hpp:77] Creating layer inception_4a/3x3_reduce
I1221 09:00:40.719743 27951 net.cpp:94] Creating Layer inception_4a/3x3_reduce
I1221 09:00:40.719746 27951 net.cpp:435] inception_4a/3x3_reduce <- pool3/3x3_s2_pool3/3x3_s2_0_split_1
I1221 09:00:40.719750 27951 net.cpp:409] inception_4a/3x3_reduce -> inception_4a/3x3_reduce_raw
I1221 09:00:40.720151 27951 net.cpp:144] Setting up inception_4a/3x3_reduce
I1221 09:00:40.720155 27951 net.cpp:151] Top shape: 1 96 30 60 (172800)
I1221 09:00:40.720158 27951 net.cpp:159] Memory required for data: 462182404
I1221 09:00:40.720162 27951 layer_factory.hpp:77] Creating layer inception_4a/3x3_reduce_BatchNorm
I1221 09:00:40.720166 27951 net.cpp:94] Creating Layer inception_4a/3x3_reduce_BatchNorm
I1221 09:00:40.720170 27951 net.cpp:435] inception_4a/3x3_reduce_BatchNorm <- inception_4a/3x3_reduce_raw
I1221 09:00:40.720173 27951 net.cpp:409] inception_4a/3x3_reduce_BatchNorm -> inception_4a/3x3_reduce
I1221 09:00:40.720561 27951 net.cpp:144] Setting up inception_4a/3x3_reduce_BatchNorm
I1221 09:00:40.720566 27951 net.cpp:151] Top shape: 1 96 30 60 (172800)
I1221 09:00:40.720568 27951 net.cpp:159] Memory required for data: 462873604
I1221 09:00:40.720574 27951 layer_factory.hpp:77] Creating layer inception_4a/relu_3x3_reduce
I1221 09:00:40.720578 27951 net.cpp:94] Creating Layer inception_4a/relu_3x3_reduce
I1221 09:00:40.720580 27951 net.cpp:435] inception_4a/relu_3x3_reduce <- inception_4a/3x3_reduce
I1221 09:00:40.720584 27951 net.cpp:396] inception_4a/relu_3x3_reduce -> inception_4a/3x3_reduce (in-place)
I1221 09:00:40.720588 27951 net.cpp:144] Setting up inception_4a/relu_3x3_reduce
I1221 09:00:40.720590 27951 net.cpp:151] Top shape: 1 96 30 60 (172800)
I1221 09:00:40.720593 27951 net.cpp:159] Memory required for data: 463564804
I1221 09:00:40.720595 27951 layer_factory.hpp:77] Creating layer inception_4a/3x3
I1221 09:00:40.720602 27951 net.cpp:94] Creating Layer inception_4a/3x3
I1221 09:00:40.720604 27951 net.cpp:435] inception_4a/3x3 <- inception_4a/3x3_reduce
I1221 09:00:40.720607 27951 net.cpp:409] inception_4a/3x3 -> inception_4a/3x3_raw
I1221 09:00:40.722193 27951 net.cpp:144] Setting up inception_4a/3x3
I1221 09:00:40.722198 27951 net.cpp:151] Top shape: 1 208 30 60 (374400)
I1221 09:00:40.722201 27951 net.cpp:159] Memory required for data: 465062404
I1221 09:00:40.722205 27951 layer_factory.hpp:77] Creating layer inception_4a/3x3_BatchNorm
I1221 09:00:40.722210 27951 net.cpp:94] Creating Layer inception_4a/3x3_BatchNorm
I1221 09:00:40.722213 27951 net.cpp:435] inception_4a/3x3_BatchNorm <- inception_4a/3x3_raw
I1221 09:00:40.722215 27951 net.cpp:409] inception_4a/3x3_BatchNorm -> inception_4a/3x3
I1221 09:00:40.722610 27951 net.cpp:144] Setting up inception_4a/3x3_BatchNorm
I1221 09:00:40.722615 27951 net.cpp:151] Top shape: 1 208 30 60 (374400)
I1221 09:00:40.722617 27951 net.cpp:159] Memory required for data: 466560004
I1221 09:00:40.722623 27951 layer_factory.hpp:77] Creating layer inception_4a/relu_3x3
I1221 09:00:40.722626 27951 net.cpp:94] Creating Layer inception_4a/relu_3x3
I1221 09:00:40.722628 27951 net.cpp:435] inception_4a/relu_3x3 <- inception_4a/3x3
I1221 09:00:40.722630 27951 net.cpp:396] inception_4a/relu_3x3 -> inception_4a/3x3 (in-place)
I1221 09:00:40.722633 27951 net.cpp:144] Setting up inception_4a/relu_3x3
I1221 09:00:40.722635 27951 net.cpp:151] Top shape: 1 208 30 60 (374400)
I1221 09:00:40.722637 27951 net.cpp:159] Memory required for data: 468057604
I1221 09:00:40.722640 27951 layer_factory.hpp:77] Creating layer inception_4a/5x5_reduce
I1221 09:00:40.722645 27951 net.cpp:94] Creating Layer inception_4a/5x5_reduce
I1221 09:00:40.722646 27951 net.cpp:435] inception_4a/5x5_reduce <- pool3/3x3_s2_pool3/3x3_s2_0_split_2
I1221 09:00:40.722651 27951 net.cpp:409] inception_4a/5x5_reduce -> inception_4a/5x5_reduce_raw
I1221 09:00:40.722836 27951 net.cpp:144] Setting up inception_4a/5x5_reduce
I1221 09:00:40.722839 27951 net.cpp:151] Top shape: 1 16 30 60 (28800)
I1221 09:00:40.722841 27951 net.cpp:159] Memory required for data: 468172804
I1221 09:00:40.722846 27951 layer_factory.hpp:77] Creating layer inception_4a/5x5_reduce_BatchNorm
I1221 09:00:40.722848 27951 net.cpp:94] Creating Layer inception_4a/5x5_reduce_BatchNorm
I1221 09:00:40.722851 27951 net.cpp:435] inception_4a/5x5_reduce_BatchNorm <- inception_4a/5x5_reduce_raw
I1221 09:00:40.722856 27951 net.cpp:409] inception_4a/5x5_reduce_BatchNorm -> inception_4a/5x5_reduce
I1221 09:00:40.723218 27951 net.cpp:144] Setting up inception_4a/5x5_reduce_BatchNorm
I1221 09:00:40.723222 27951 net.cpp:151] Top shape: 1 16 30 60 (28800)
I1221 09:00:40.723225 27951 net.cpp:159] Memory required for data: 468288004
I1221 09:00:40.723234 27951 layer_factory.hpp:77] Creating layer inception_4a/relu_5x5_reduce
I1221 09:00:40.723238 27951 net.cpp:94] Creating Layer inception_4a/relu_5x5_reduce
I1221 09:00:40.723240 27951 net.cpp:435] inception_4a/relu_5x5_reduce <- inception_4a/5x5_reduce
I1221 09:00:40.723242 27951 net.cpp:396] inception_4a/relu_5x5_reduce -> inception_4a/5x5_reduce (in-place)
I1221 09:00:40.723245 27951 net.cpp:144] Setting up inception_4a/relu_5x5_reduce
I1221 09:00:40.723248 27951 net.cpp:151] Top shape: 1 16 30 60 (28800)
I1221 09:00:40.723249 27951 net.cpp:159] Memory required for data: 468403204
I1221 09:00:40.723251 27951 layer_factory.hpp:77] Creating layer inception_4a/5x5
I1221 09:00:40.723255 27951 net.cpp:94] Creating Layer inception_4a/5x5
I1221 09:00:40.723258 27951 net.cpp:435] inception_4a/5x5 <- inception_4a/5x5_reduce
I1221 09:00:40.723259 27951 net.cpp:409] inception_4a/5x5 -> inception_4a/5x5_raw
I1221 09:00:40.723503 27951 net.cpp:144] Setting up inception_4a/5x5
I1221 09:00:40.723507 27951 net.cpp:151] Top shape: 1 48 30 60 (86400)
I1221 09:00:40.723510 27951 net.cpp:159] Memory required for data: 468748804
I1221 09:00:40.723512 27951 layer_factory.hpp:77] Creating layer inception_4a/5x5_BatchNorm
I1221 09:00:40.723516 27951 net.cpp:94] Creating Layer inception_4a/5x5_BatchNorm
I1221 09:00:40.723520 27951 net.cpp:435] inception_4a/5x5_BatchNorm <- inception_4a/5x5_raw
I1221 09:00:40.723522 27951 net.cpp:409] inception_4a/5x5_BatchNorm -> inception_4a/5x5
I1221 09:00:40.723891 27951 net.cpp:144] Setting up inception_4a/5x5_BatchNorm
I1221 09:00:40.723896 27951 net.cpp:151] Top shape: 1 48 30 60 (86400)
I1221 09:00:40.723897 27951 net.cpp:159] Memory required for data: 469094404
I1221 09:00:40.723902 27951 layer_factory.hpp:77] Creating layer inception_4a/relu_5x5
I1221 09:00:40.723906 27951 net.cpp:94] Creating Layer inception_4a/relu_5x5
I1221 09:00:40.723907 27951 net.cpp:435] inception_4a/relu_5x5 <- inception_4a/5x5
I1221 09:00:40.723909 27951 net.cpp:396] inception_4a/relu_5x5 -> inception_4a/5x5 (in-place)
I1221 09:00:40.723912 27951 net.cpp:144] Setting up inception_4a/relu_5x5
I1221 09:00:40.723914 27951 net.cpp:151] Top shape: 1 48 30 60 (86400)
I1221 09:00:40.723917 27951 net.cpp:159] Memory required for data: 469440004
I1221 09:00:40.723918 27951 layer_factory.hpp:77] Creating layer inception_4a/pool
I1221 09:00:40.723922 27951 net.cpp:94] Creating Layer inception_4a/pool
I1221 09:00:40.723923 27951 net.cpp:435] inception_4a/pool <- pool3/3x3_s2_pool3/3x3_s2_0_split_3
I1221 09:00:40.723927 27951 net.cpp:409] inception_4a/pool -> inception_4a/pool
I1221 09:00:40.723943 27951 net.cpp:144] Setting up inception_4a/pool
I1221 09:00:40.723946 27951 net.cpp:151] Top shape: 1 480 30 60 (864000)
I1221 09:00:40.723949 27951 net.cpp:159] Memory required for data: 472896004
I1221 09:00:40.723950 27951 layer_factory.hpp:77] Creating layer inception_4a/pool_proj
I1221 09:00:40.723955 27951 net.cpp:94] Creating Layer inception_4a/pool_proj
I1221 09:00:40.723958 27951 net.cpp:435] inception_4a/pool_proj <- inception_4a/pool
I1221 09:00:40.723960 27951 net.cpp:409] inception_4a/pool_proj -> inception_4a/pool_proj_raw
I1221 09:00:40.724264 27951 net.cpp:144] Setting up inception_4a/pool_proj
I1221 09:00:40.724268 27951 net.cpp:151] Top shape: 1 64 30 60 (115200)
I1221 09:00:40.724272 27951 net.cpp:159] Memory required for data: 473356804
I1221 09:00:40.724274 27951 layer_factory.hpp:77] Creating layer inception_4a/pool_proj_BatchNorm
I1221 09:00:40.724278 27951 net.cpp:94] Creating Layer inception_4a/pool_proj_BatchNorm
I1221 09:00:40.724280 27951 net.cpp:435] inception_4a/pool_proj_BatchNorm <- inception_4a/pool_proj_raw
I1221 09:00:40.724283 27951 net.cpp:409] inception_4a/pool_proj_BatchNorm -> inception_4a/pool_proj
I1221 09:00:40.724659 27951 net.cpp:144] Setting up inception_4a/pool_proj_BatchNorm
I1221 09:00:40.724663 27951 net.cpp:151] Top shape: 1 64 30 60 (115200)
I1221 09:00:40.724666 27951 net.cpp:159] Memory required for data: 473817604
I1221 09:00:40.724671 27951 layer_factory.hpp:77] Creating layer inception_4a/relu_pool_proj
I1221 09:00:40.724673 27951 net.cpp:94] Creating Layer inception_4a/relu_pool_proj
I1221 09:00:40.724675 27951 net.cpp:435] inception_4a/relu_pool_proj <- inception_4a/pool_proj
I1221 09:00:40.724678 27951 net.cpp:396] inception_4a/relu_pool_proj -> inception_4a/pool_proj (in-place)
I1221 09:00:40.724681 27951 net.cpp:144] Setting up inception_4a/relu_pool_proj
I1221 09:00:40.724683 27951 net.cpp:151] Top shape: 1 64 30 60 (115200)
I1221 09:00:40.724685 27951 net.cpp:159] Memory required for data: 474278404
I1221 09:00:40.724686 27951 layer_factory.hpp:77] Creating layer inception_4a/output
I1221 09:00:40.724690 27951 net.cpp:94] Creating Layer inception_4a/output
I1221 09:00:40.724692 27951 net.cpp:435] inception_4a/output <- inception_4a/1x1
I1221 09:00:40.724694 27951 net.cpp:435] inception_4a/output <- inception_4a/3x3
I1221 09:00:40.724697 27951 net.cpp:435] inception_4a/output <- inception_4a/5x5
I1221 09:00:40.724700 27951 net.cpp:435] inception_4a/output <- inception_4a/pool_proj
I1221 09:00:40.724704 27951 net.cpp:409] inception_4a/output -> inception_4a/output
I1221 09:00:40.724718 27951 net.cpp:144] Setting up inception_4a/output
I1221 09:00:40.724720 27951 net.cpp:151] Top shape: 1 512 30 60 (921600)
I1221 09:00:40.724723 27951 net.cpp:159] Memory required for data: 477964804
I1221 09:00:40.724725 27951 layer_factory.hpp:77] Creating layer inception_4a/output_inception_4a/output_0_split
I1221 09:00:40.724730 27951 net.cpp:94] Creating Layer inception_4a/output_inception_4a/output_0_split
I1221 09:00:40.724731 27951 net.cpp:435] inception_4a/output_inception_4a/output_0_split <- inception_4a/output
I1221 09:00:40.724735 27951 net.cpp:409] inception_4a/output_inception_4a/output_0_split -> inception_4a/output_inception_4a/output_0_split_0
I1221 09:00:40.724740 27951 net.cpp:409] inception_4a/output_inception_4a/output_0_split -> inception_4a/output_inception_4a/output_0_split_1
I1221 09:00:40.724742 27951 net.cpp:409] inception_4a/output_inception_4a/output_0_split -> inception_4a/output_inception_4a/output_0_split_2
I1221 09:00:40.724745 27951 net.cpp:409] inception_4a/output_inception_4a/output_0_split -> inception_4a/output_inception_4a/output_0_split_3
I1221 09:00:40.724776 27951 net.cpp:144] Setting up inception_4a/output_inception_4a/output_0_split
I1221 09:00:40.724778 27951 net.cpp:151] Top shape: 1 512 30 60 (921600)
I1221 09:00:40.724781 27951 net.cpp:151] Top shape: 1 512 30 60 (921600)
I1221 09:00:40.724783 27951 net.cpp:151] Top shape: 1 512 30 60 (921600)
I1221 09:00:40.724786 27951 net.cpp:151] Top shape: 1 512 30 60 (921600)
I1221 09:00:40.724788 27951 net.cpp:159] Memory required for data: 492710404
I1221 09:00:40.724790 27951 layer_factory.hpp:77] Creating layer inception_4b/1x1
I1221 09:00:40.724795 27951 net.cpp:94] Creating Layer inception_4b/1x1
I1221 09:00:40.724797 27951 net.cpp:435] inception_4b/1x1 <- inception_4a/output_inception_4a/output_0_split_0
I1221 09:00:40.724800 27951 net.cpp:409] inception_4b/1x1 -> inception_4b/1x1_raw
I1221 09:00:40.725373 27951 net.cpp:144] Setting up inception_4b/1x1
I1221 09:00:40.725375 27951 net.cpp:151] Top shape: 1 160 30 60 (288000)
I1221 09:00:40.725378 27951 net.cpp:159] Memory required for data: 493862404
I1221 09:00:40.725381 27951 layer_factory.hpp:77] Creating layer inception_4b/1x1_BatchNorm
I1221 09:00:40.725386 27951 net.cpp:94] Creating Layer inception_4b/1x1_BatchNorm
I1221 09:00:40.725389 27951 net.cpp:435] inception_4b/1x1_BatchNorm <- inception_4b/1x1_raw
I1221 09:00:40.725392 27951 net.cpp:409] inception_4b/1x1_BatchNorm -> inception_4b/1x1
I1221 09:00:40.725765 27951 net.cpp:144] Setting up inception_4b/1x1_BatchNorm
I1221 09:00:40.725770 27951 net.cpp:151] Top shape: 1 160 30 60 (288000)
I1221 09:00:40.725772 27951 net.cpp:159] Memory required for data: 495014404
I1221 09:00:40.725778 27951 layer_factory.hpp:77] Creating layer inception_4b/relu_1x1
I1221 09:00:40.725782 27951 net.cpp:94] Creating Layer inception_4b/relu_1x1
I1221 09:00:40.725785 27951 net.cpp:435] inception_4b/relu_1x1 <- inception_4b/1x1
I1221 09:00:40.725790 27951 net.cpp:396] inception_4b/relu_1x1 -> inception_4b/1x1 (in-place)
I1221 09:00:40.725792 27951 net.cpp:144] Setting up inception_4b/relu_1x1
I1221 09:00:40.725795 27951 net.cpp:151] Top shape: 1 160 30 60 (288000)
I1221 09:00:40.725798 27951 net.cpp:159] Memory required for data: 496166404
I1221 09:00:40.725800 27951 layer_factory.hpp:77] Creating layer inception_4b/3x3_reduce
I1221 09:00:40.725806 27951 net.cpp:94] Creating Layer inception_4b/3x3_reduce
I1221 09:00:40.725808 27951 net.cpp:435] inception_4b/3x3_reduce <- inception_4a/output_inception_4a/output_0_split_1
I1221 09:00:40.725812 27951 net.cpp:409] inception_4b/3x3_reduce -> inception_4b/3x3_reduce_raw
I1221 09:00:40.726260 27951 net.cpp:144] Setting up inception_4b/3x3_reduce
I1221 09:00:40.726264 27951 net.cpp:151] Top shape: 1 112 30 60 (201600)
I1221 09:00:40.726267 27951 net.cpp:159] Memory required for data: 496972804
I1221 09:00:40.726270 27951 layer_factory.hpp:77] Creating layer inception_4b/3x3_reduce_BatchNorm
I1221 09:00:40.726274 27951 net.cpp:94] Creating Layer inception_4b/3x3_reduce_BatchNorm
I1221 09:00:40.726276 27951 net.cpp:435] inception_4b/3x3_reduce_BatchNorm <- inception_4b/3x3_reduce_raw
I1221 09:00:40.726279 27951 net.cpp:409] inception_4b/3x3_reduce_BatchNorm -> inception_4b/3x3_reduce
I1221 09:00:40.726716 27951 net.cpp:144] Setting up inception_4b/3x3_reduce_BatchNorm
I1221 09:00:40.726722 27951 net.cpp:151] Top shape: 1 112 30 60 (201600)
I1221 09:00:40.726727 27951 net.cpp:159] Memory required for data: 497779204
I1221 09:00:40.726733 27951 layer_factory.hpp:77] Creating layer inception_4b/relu_3x3_reduce
I1221 09:00:40.726737 27951 net.cpp:94] Creating Layer inception_4b/relu_3x3_reduce
I1221 09:00:40.726740 27951 net.cpp:435] inception_4b/relu_3x3_reduce <- inception_4b/3x3_reduce
I1221 09:00:40.726743 27951 net.cpp:396] inception_4b/relu_3x3_reduce -> inception_4b/3x3_reduce (in-place)
I1221 09:00:40.726747 27951 net.cpp:144] Setting up inception_4b/relu_3x3_reduce
I1221 09:00:40.726749 27951 net.cpp:151] Top shape: 1 112 30 60 (201600)
I1221 09:00:40.726753 27951 net.cpp:159] Memory required for data: 498585604
I1221 09:00:40.726755 27951 layer_factory.hpp:77] Creating layer inception_4b/3x3
I1221 09:00:40.726760 27951 net.cpp:94] Creating Layer inception_4b/3x3
I1221 09:00:40.726763 27951 net.cpp:435] inception_4b/3x3 <- inception_4b/3x3_reduce
I1221 09:00:40.726766 27951 net.cpp:409] inception_4b/3x3 -> inception_4b/3x3_raw
I1221 09:00:40.728947 27951 net.cpp:144] Setting up inception_4b/3x3
I1221 09:00:40.728957 27951 net.cpp:151] Top shape: 1 224 30 60 (403200)
I1221 09:00:40.728961 27951 net.cpp:159] Memory required for data: 500198404
I1221 09:00:40.728967 27951 layer_factory.hpp:77] Creating layer inception_4b/3x3_BatchNorm
I1221 09:00:40.728974 27951 net.cpp:94] Creating Layer inception_4b/3x3_BatchNorm
I1221 09:00:40.728976 27951 net.cpp:435] inception_4b/3x3_BatchNorm <- inception_4b/3x3_raw
I1221 09:00:40.728981 27951 net.cpp:409] inception_4b/3x3_BatchNorm -> inception_4b/3x3
I1221 09:00:40.729380 27951 net.cpp:144] Setting up inception_4b/3x3_BatchNorm
I1221 09:00:40.729385 27951 net.cpp:151] Top shape: 1 224 30 60 (403200)
I1221 09:00:40.729389 27951 net.cpp:159] Memory required for data: 501811204
I1221 09:00:40.729395 27951 layer_factory.hpp:77] Creating layer inception_4b/relu_3x3
I1221 09:00:40.729399 27951 net.cpp:94] Creating Layer inception_4b/relu_3x3
I1221 09:00:40.729403 27951 net.cpp:435] inception_4b/relu_3x3 <- inception_4b/3x3
I1221 09:00:40.729405 27951 net.cpp:396] inception_4b/relu_3x3 -> inception_4b/3x3 (in-place)
I1221 09:00:40.729409 27951 net.cpp:144] Setting up inception_4b/relu_3x3
I1221 09:00:40.729411 27951 net.cpp:151] Top shape: 1 224 30 60 (403200)
I1221 09:00:40.729413 27951 net.cpp:159] Memory required for data: 503424004
I1221 09:00:40.729415 27951 layer_factory.hpp:77] Creating layer inception_4b/5x5_reduce
I1221 09:00:40.729420 27951 net.cpp:94] Creating Layer inception_4b/5x5_reduce
I1221 09:00:40.729423 27951 net.cpp:435] inception_4b/5x5_reduce <- inception_4a/output_inception_4a/output_0_split_2
I1221 09:00:40.729425 27951 net.cpp:409] inception_4b/5x5_reduce -> inception_4b/5x5_reduce_raw
I1221 09:00:40.729674 27951 net.cpp:144] Setting up inception_4b/5x5_reduce
I1221 09:00:40.729682 27951 net.cpp:151] Top shape: 1 24 30 60 (43200)
I1221 09:00:40.729686 27951 net.cpp:159] Memory required for data: 503596804
I1221 09:00:40.729691 27951 layer_factory.hpp:77] Creating layer inception_4b/5x5_reduce_BatchNorm
I1221 09:00:40.729696 27951 net.cpp:94] Creating Layer inception_4b/5x5_reduce_BatchNorm
I1221 09:00:40.729698 27951 net.cpp:435] inception_4b/5x5_reduce_BatchNorm <- inception_4b/5x5_reduce_raw
I1221 09:00:40.729702 27951 net.cpp:409] inception_4b/5x5_reduce_BatchNorm -> inception_4b/5x5_reduce
I1221 09:00:40.730079 27951 net.cpp:144] Setting up inception_4b/5x5_reduce_BatchNorm
I1221 09:00:40.730083 27951 net.cpp:151] Top shape: 1 24 30 60 (43200)
I1221 09:00:40.730087 27951 net.cpp:159] Memory required for data: 503769604
I1221 09:00:40.730093 27951 layer_factory.hpp:77] Creating layer inception_4b/relu_5x5_reduce
I1221 09:00:40.730095 27951 net.cpp:94] Creating Layer inception_4b/relu_5x5_reduce
I1221 09:00:40.730098 27951 net.cpp:435] inception_4b/relu_5x5_reduce <- inception_4b/5x5_reduce
I1221 09:00:40.730101 27951 net.cpp:396] inception_4b/relu_5x5_reduce -> inception_4b/5x5_reduce (in-place)
I1221 09:00:40.730106 27951 net.cpp:144] Setting up inception_4b/relu_5x5_reduce
I1221 09:00:40.730108 27951 net.cpp:151] Top shape: 1 24 30 60 (43200)
I1221 09:00:40.730110 27951 net.cpp:159] Memory required for data: 503942404
I1221 09:00:40.730113 27951 layer_factory.hpp:77] Creating layer inception_4b/5x5
I1221 09:00:40.730116 27951 net.cpp:94] Creating Layer inception_4b/5x5
I1221 09:00:40.730118 27951 net.cpp:435] inception_4b/5x5 <- inception_4b/5x5_reduce
I1221 09:00:40.730121 27951 net.cpp:409] inception_4b/5x5 -> inception_4b/5x5_raw
I1221 09:00:40.731104 27951 net.cpp:144] Setting up inception_4b/5x5
I1221 09:00:40.731112 27951 net.cpp:151] Top shape: 1 64 30 60 (115200)
I1221 09:00:40.731115 27951 net.cpp:159] Memory required for data: 504403204
I1221 09:00:40.731119 27951 layer_factory.hpp:77] Creating layer inception_4b/5x5_BatchNorm
I1221 09:00:40.731124 27951 net.cpp:94] Creating Layer inception_4b/5x5_BatchNorm
I1221 09:00:40.731127 27951 net.cpp:435] inception_4b/5x5_BatchNorm <- inception_4b/5x5_raw
I1221 09:00:40.731130 27951 net.cpp:409] inception_4b/5x5_BatchNorm -> inception_4b/5x5
I1221 09:00:40.731518 27951 net.cpp:144] Setting up inception_4b/5x5_BatchNorm
I1221 09:00:40.731521 27951 net.cpp:151] Top shape: 1 64 30 60 (115200)
I1221 09:00:40.731524 27951 net.cpp:159] Memory required for data: 504864004
I1221 09:00:40.731529 27951 layer_factory.hpp:77] Creating layer inception_4b/relu_5x5
I1221 09:00:40.731532 27951 net.cpp:94] Creating Layer inception_4b/relu_5x5
I1221 09:00:40.731534 27951 net.cpp:435] inception_4b/relu_5x5 <- inception_4b/5x5
I1221 09:00:40.731539 27951 net.cpp:396] inception_4b/relu_5x5 -> inception_4b/5x5 (in-place)
I1221 09:00:40.731542 27951 net.cpp:144] Setting up inception_4b/relu_5x5
I1221 09:00:40.731544 27951 net.cpp:151] Top shape: 1 64 30 60 (115200)
I1221 09:00:40.731547 27951 net.cpp:159] Memory required for data: 505324804
I1221 09:00:40.731550 27951 layer_factory.hpp:77] Creating layer inception_4b/pool
I1221 09:00:40.731555 27951 net.cpp:94] Creating Layer inception_4b/pool
I1221 09:00:40.731559 27951 net.cpp:435] inception_4b/pool <- inception_4a/output_inception_4a/output_0_split_3
I1221 09:00:40.731561 27951 net.cpp:409] inception_4b/pool -> inception_4b/pool
I1221 09:00:40.731581 27951 net.cpp:144] Setting up inception_4b/pool
I1221 09:00:40.731585 27951 net.cpp:151] Top shape: 1 512 30 60 (921600)
I1221 09:00:40.731587 27951 net.cpp:159] Memory required for data: 509011204
I1221 09:00:40.731590 27951 layer_factory.hpp:77] Creating layer inception_4b/pool_proj
I1221 09:00:40.731595 27951 net.cpp:94] Creating Layer inception_4b/pool_proj
I1221 09:00:40.731597 27951 net.cpp:435] inception_4b/pool_proj <- inception_4b/pool
I1221 09:00:40.731600 27951 net.cpp:409] inception_4b/pool_proj -> inception_4b/pool_proj_raw
I1221 09:00:40.731915 27951 net.cpp:144] Setting up inception_4b/pool_proj
I1221 09:00:40.731920 27951 net.cpp:151] Top shape: 1 64 30 60 (115200)
I1221 09:00:40.731922 27951 net.cpp:159] Memory required for data: 509472004
I1221 09:00:40.731925 27951 layer_factory.hpp:77] Creating layer inception_4b/pool_proj_BatchNorm
I1221 09:00:40.731930 27951 net.cpp:94] Creating Layer inception_4b/pool_proj_BatchNorm
I1221 09:00:40.731931 27951 net.cpp:435] inception_4b/pool_proj_BatchNorm <- inception_4b/pool_proj_raw
I1221 09:00:40.731933 27951 net.cpp:409] inception_4b/pool_proj_BatchNorm -> inception_4b/pool_proj
I1221 09:00:40.732319 27951 net.cpp:144] Setting up inception_4b/pool_proj_BatchNorm
I1221 09:00:40.732323 27951 net.cpp:151] Top shape: 1 64 30 60 (115200)
I1221 09:00:40.732326 27951 net.cpp:159] Memory required for data: 509932804
I1221 09:00:40.732331 27951 layer_factory.hpp:77] Creating layer inception_4b/relu_pool_proj
I1221 09:00:40.732334 27951 net.cpp:94] Creating Layer inception_4b/relu_pool_proj
I1221 09:00:40.732336 27951 net.cpp:435] inception_4b/relu_pool_proj <- inception_4b/pool_proj
I1221 09:00:40.732338 27951 net.cpp:396] inception_4b/relu_pool_proj -> inception_4b/pool_proj (in-place)
I1221 09:00:40.732342 27951 net.cpp:144] Setting up inception_4b/relu_pool_proj
I1221 09:00:40.732343 27951 net.cpp:151] Top shape: 1 64 30 60 (115200)
I1221 09:00:40.732345 27951 net.cpp:159] Memory required for data: 510393604
I1221 09:00:40.732347 27951 layer_factory.hpp:77] Creating layer inception_4b/output
I1221 09:00:40.732350 27951 net.cpp:94] Creating Layer inception_4b/output
I1221 09:00:40.732352 27951 net.cpp:435] inception_4b/output <- inception_4b/1x1
I1221 09:00:40.732354 27951 net.cpp:435] inception_4b/output <- inception_4b/3x3
I1221 09:00:40.732357 27951 net.cpp:435] inception_4b/output <- inception_4b/5x5
I1221 09:00:40.732358 27951 net.cpp:435] inception_4b/output <- inception_4b/pool_proj
I1221 09:00:40.732360 27951 net.cpp:409] inception_4b/output -> inception_4b/output
I1221 09:00:40.732375 27951 net.cpp:144] Setting up inception_4b/output
I1221 09:00:40.732378 27951 net.cpp:151] Top shape: 1 512 30 60 (921600)
I1221 09:00:40.732380 27951 net.cpp:159] Memory required for data: 514080004
I1221 09:00:40.732383 27951 layer_factory.hpp:77] Creating layer inception_4b/output_inception_4b/output_0_split
I1221 09:00:40.732386 27951 net.cpp:94] Creating Layer inception_4b/output_inception_4b/output_0_split
I1221 09:00:40.732389 27951 net.cpp:435] inception_4b/output_inception_4b/output_0_split <- inception_4b/output
I1221 09:00:40.732393 27951 net.cpp:409] inception_4b/output_inception_4b/output_0_split -> inception_4b/output_inception_4b/output_0_split_0
I1221 09:00:40.732396 27951 net.cpp:409] inception_4b/output_inception_4b/output_0_split -> inception_4b/output_inception_4b/output_0_split_1
I1221 09:00:40.732399 27951 net.cpp:409] inception_4b/output_inception_4b/output_0_split -> inception_4b/output_inception_4b/output_0_split_2
I1221 09:00:40.732403 27951 net.cpp:409] inception_4b/output_inception_4b/output_0_split -> inception_4b/output_inception_4b/output_0_split_3
I1221 09:00:40.732432 27951 net.cpp:144] Setting up inception_4b/output_inception_4b/output_0_split
I1221 09:00:40.732435 27951 net.cpp:151] Top shape: 1 512 30 60 (921600)
I1221 09:00:40.732437 27951 net.cpp:151] Top shape: 1 512 30 60 (921600)
I1221 09:00:40.732440 27951 net.cpp:151] Top shape: 1 512 30 60 (921600)
I1221 09:00:40.732442 27951 net.cpp:151] Top shape: 1 512 30 60 (921600)
I1221 09:00:40.732445 27951 net.cpp:159] Memory required for data: 528825604
I1221 09:00:40.732446 27951 layer_factory.hpp:77] Creating layer inception_4c/1x1
I1221 09:00:40.732451 27951 net.cpp:94] Creating Layer inception_4c/1x1
I1221 09:00:40.732453 27951 net.cpp:435] inception_4c/1x1 <- inception_4b/output_inception_4b/output_0_split_0
I1221 09:00:40.732455 27951 net.cpp:409] inception_4c/1x1 -> inception_4c/1x1_raw
I1221 09:00:40.732918 27951 net.cpp:144] Setting up inception_4c/1x1
I1221 09:00:40.732920 27951 net.cpp:151] Top shape: 1 128 30 60 (230400)
I1221 09:00:40.732923 27951 net.cpp:159] Memory required for data: 529747204
I1221 09:00:40.732926 27951 layer_factory.hpp:77] Creating layer inception_4c/1x1_BatchNorm
I1221 09:00:40.732930 27951 net.cpp:94] Creating Layer inception_4c/1x1_BatchNorm
I1221 09:00:40.732933 27951 net.cpp:435] inception_4c/1x1_BatchNorm <- inception_4c/1x1_raw
I1221 09:00:40.732934 27951 net.cpp:409] inception_4c/1x1_BatchNorm -> inception_4c/1x1
I1221 09:00:40.733253 27951 net.cpp:144] Setting up inception_4c/1x1_BatchNorm
I1221 09:00:40.733258 27951 net.cpp:151] Top shape: 1 128 30 60 (230400)
I1221 09:00:40.733260 27951 net.cpp:159] Memory required for data: 530668804
I1221 09:00:40.733266 27951 layer_factory.hpp:77] Creating layer inception_4c/relu_1x1
I1221 09:00:40.733270 27951 net.cpp:94] Creating Layer inception_4c/relu_1x1
I1221 09:00:40.733273 27951 net.cpp:435] inception_4c/relu_1x1 <- inception_4c/1x1
I1221 09:00:40.733275 27951 net.cpp:396] inception_4c/relu_1x1 -> inception_4c/1x1 (in-place)
I1221 09:00:40.733278 27951 net.cpp:144] Setting up inception_4c/relu_1x1
I1221 09:00:40.733279 27951 net.cpp:151] Top shape: 1 128 30 60 (230400)
I1221 09:00:40.733283 27951 net.cpp:159] Memory required for data: 531590404
I1221 09:00:40.733284 27951 layer_factory.hpp:77] Creating layer inception_4c/3x3_reduce
I1221 09:00:40.733289 27951 net.cpp:94] Creating Layer inception_4c/3x3_reduce
I1221 09:00:40.733289 27951 net.cpp:435] inception_4c/3x3_reduce <- inception_4b/output_inception_4b/output_0_split_1
I1221 09:00:40.733292 27951 net.cpp:409] inception_4c/3x3_reduce -> inception_4c/3x3_reduce_raw
I1221 09:00:40.733753 27951 net.cpp:144] Setting up inception_4c/3x3_reduce
I1221 09:00:40.733757 27951 net.cpp:151] Top shape: 1 128 30 60 (230400)
I1221 09:00:40.733759 27951 net.cpp:159] Memory required for data: 532512004
I1221 09:00:40.733762 27951 layer_factory.hpp:77] Creating layer inception_4c/3x3_reduce_BatchNorm
I1221 09:00:40.733767 27951 net.cpp:94] Creating Layer inception_4c/3x3_reduce_BatchNorm
I1221 09:00:40.733768 27951 net.cpp:435] inception_4c/3x3_reduce_BatchNorm <- inception_4c/3x3_reduce_raw
I1221 09:00:40.733772 27951 net.cpp:409] inception_4c/3x3_reduce_BatchNorm -> inception_4c/3x3_reduce
I1221 09:00:40.734086 27951 net.cpp:144] Setting up inception_4c/3x3_reduce_BatchNorm
I1221 09:00:40.734091 27951 net.cpp:151] Top shape: 1 128 30 60 (230400)
I1221 09:00:40.734093 27951 net.cpp:159] Memory required for data: 533433604
I1221 09:00:40.734098 27951 layer_factory.hpp:77] Creating layer inception_4c/relu_3x3_reduce
I1221 09:00:40.734102 27951 net.cpp:94] Creating Layer inception_4c/relu_3x3_reduce
I1221 09:00:40.734105 27951 net.cpp:435] inception_4c/relu_3x3_reduce <- inception_4c/3x3_reduce
I1221 09:00:40.734107 27951 net.cpp:396] inception_4c/relu_3x3_reduce -> inception_4c/3x3_reduce (in-place)
I1221 09:00:40.734110 27951 net.cpp:144] Setting up inception_4c/relu_3x3_reduce
I1221 09:00:40.734112 27951 net.cpp:151] Top shape: 1 128 30 60 (230400)
I1221 09:00:40.734114 27951 net.cpp:159] Memory required for data: 534355204
I1221 09:00:40.734117 27951 layer_factory.hpp:77] Creating layer inception_4c/3x3
I1221 09:00:40.734122 27951 net.cpp:94] Creating Layer inception_4c/3x3
I1221 09:00:40.734123 27951 net.cpp:435] inception_4c/3x3 <- inception_4c/3x3_reduce
I1221 09:00:40.734127 27951 net.cpp:409] inception_4c/3x3 -> inception_4c/3x3_raw
I1221 09:00:40.737469 27951 net.cpp:144] Setting up inception_4c/3x3
I1221 09:00:40.737480 27951 net.cpp:151] Top shape: 1 256 30 60 (460800)
I1221 09:00:40.737486 27951 net.cpp:159] Memory required for data: 536198404
I1221 09:00:40.737493 27951 layer_factory.hpp:77] Creating layer inception_4c/3x3_BatchNorm
I1221 09:00:40.737500 27951 net.cpp:94] Creating Layer inception_4c/3x3_BatchNorm
I1221 09:00:40.737504 27951 net.cpp:435] inception_4c/3x3_BatchNorm <- inception_4c/3x3_raw
I1221 09:00:40.737509 27951 net.cpp:409] inception_4c/3x3_BatchNorm -> inception_4c/3x3
I1221 09:00:40.737869 27951 net.cpp:144] Setting up inception_4c/3x3_BatchNorm
I1221 09:00:40.737874 27951 net.cpp:151] Top shape: 1 256 30 60 (460800)
I1221 09:00:40.737876 27951 net.cpp:159] Memory required for data: 538041604
I1221 09:00:40.737882 27951 layer_factory.hpp:77] Creating layer inception_4c/relu_3x3
I1221 09:00:40.737886 27951 net.cpp:94] Creating Layer inception_4c/relu_3x3
I1221 09:00:40.737890 27951 net.cpp:435] inception_4c/relu_3x3 <- inception_4c/3x3
I1221 09:00:40.737892 27951 net.cpp:396] inception_4c/relu_3x3 -> inception_4c/3x3 (in-place)
I1221 09:00:40.737896 27951 net.cpp:144] Setting up inception_4c/relu_3x3
I1221 09:00:40.737898 27951 net.cpp:151] Top shape: 1 256 30 60 (460800)
I1221 09:00:40.737902 27951 net.cpp:159] Memory required for data: 539884804
I1221 09:00:40.737905 27951 layer_factory.hpp:77] Creating layer inception_4c/5x5_reduce
I1221 09:00:40.737910 27951 net.cpp:94] Creating Layer inception_4c/5x5_reduce
I1221 09:00:40.737913 27951 net.cpp:435] inception_4c/5x5_reduce <- inception_4b/output_inception_4b/output_0_split_2
I1221 09:00:40.737916 27951 net.cpp:409] inception_4c/5x5_reduce -> inception_4c/5x5_reduce_raw
I1221 09:00:40.738613 27951 net.cpp:144] Setting up inception_4c/5x5_reduce
I1221 09:00:40.738617 27951 net.cpp:151] Top shape: 1 24 30 60 (43200)
I1221 09:00:40.738621 27951 net.cpp:159] Memory required for data: 540057604
I1221 09:00:40.738624 27951 layer_factory.hpp:77] Creating layer inception_4c/5x5_reduce_BatchNorm
I1221 09:00:40.738628 27951 net.cpp:94] Creating Layer inception_4c/5x5_reduce_BatchNorm
I1221 09:00:40.738631 27951 net.cpp:435] inception_4c/5x5_reduce_BatchNorm <- inception_4c/5x5_reduce_raw
I1221 09:00:40.738634 27951 net.cpp:409] inception_4c/5x5_reduce_BatchNorm -> inception_4c/5x5_reduce
I1221 09:00:40.739017 27951 net.cpp:144] Setting up inception_4c/5x5_reduce_BatchNorm
I1221 09:00:40.739020 27951 net.cpp:151] Top shape: 1 24 30 60 (43200)
I1221 09:00:40.739023 27951 net.cpp:159] Memory required for data: 540230404
I1221 09:00:40.739028 27951 layer_factory.hpp:77] Creating layer inception_4c/relu_5x5_reduce
I1221 09:00:40.739032 27951 net.cpp:94] Creating Layer inception_4c/relu_5x5_reduce
I1221 09:00:40.739033 27951 net.cpp:435] inception_4c/relu_5x5_reduce <- inception_4c/5x5_reduce
I1221 09:00:40.739037 27951 net.cpp:396] inception_4c/relu_5x5_reduce -> inception_4c/5x5_reduce (in-place)
I1221 09:00:40.739039 27951 net.cpp:144] Setting up inception_4c/relu_5x5_reduce
I1221 09:00:40.739042 27951 net.cpp:151] Top shape: 1 24 30 60 (43200)
I1221 09:00:40.739043 27951 net.cpp:159] Memory required for data: 540403204
I1221 09:00:40.739045 27951 layer_factory.hpp:77] Creating layer inception_4c/5x5
I1221 09:00:40.739049 27951 net.cpp:94] Creating Layer inception_4c/5x5
I1221 09:00:40.739051 27951 net.cpp:435] inception_4c/5x5 <- inception_4c/5x5_reduce
I1221 09:00:40.739055 27951 net.cpp:409] inception_4c/5x5 -> inception_4c/5x5_raw
I1221 09:00:40.739446 27951 net.cpp:144] Setting up inception_4c/5x5
I1221 09:00:40.739454 27951 net.cpp:151] Top shape: 1 64 30 60 (115200)
I1221 09:00:40.739457 27951 net.cpp:159] Memory required for data: 540864004
I1221 09:00:40.739461 27951 layer_factory.hpp:77] Creating layer inception_4c/5x5_BatchNorm
I1221 09:00:40.739466 27951 net.cpp:94] Creating Layer inception_4c/5x5_BatchNorm
I1221 09:00:40.739468 27951 net.cpp:435] inception_4c/5x5_BatchNorm <- inception_4c/5x5_raw
I1221 09:00:40.739473 27951 net.cpp:409] inception_4c/5x5_BatchNorm -> inception_4c/5x5
I1221 09:00:40.739902 27951 net.cpp:144] Setting up inception_4c/5x5_BatchNorm
I1221 09:00:40.739909 27951 net.cpp:151] Top shape: 1 64 30 60 (115200)
I1221 09:00:40.739913 27951 net.cpp:159] Memory required for data: 541324804
I1221 09:00:40.739920 27951 layer_factory.hpp:77] Creating layer inception_4c/relu_5x5
I1221 09:00:40.739924 27951 net.cpp:94] Creating Layer inception_4c/relu_5x5
I1221 09:00:40.739928 27951 net.cpp:435] inception_4c/relu_5x5 <- inception_4c/5x5
I1221 09:00:40.739931 27951 net.cpp:396] inception_4c/relu_5x5 -> inception_4c/5x5 (in-place)
I1221 09:00:40.739935 27951 net.cpp:144] Setting up inception_4c/relu_5x5
I1221 09:00:40.739938 27951 net.cpp:151] Top shape: 1 64 30 60 (115200)
I1221 09:00:40.739941 27951 net.cpp:159] Memory required for data: 541785604
I1221 09:00:40.739944 27951 layer_factory.hpp:77] Creating layer inception_4c/pool
I1221 09:00:40.739948 27951 net.cpp:94] Creating Layer inception_4c/pool
I1221 09:00:40.739950 27951 net.cpp:435] inception_4c/pool <- inception_4b/output_inception_4b/output_0_split_3
I1221 09:00:40.739953 27951 net.cpp:409] inception_4c/pool -> inception_4c/pool
I1221 09:00:40.739974 27951 net.cpp:144] Setting up inception_4c/pool
I1221 09:00:40.739976 27951 net.cpp:151] Top shape: 1 512 30 60 (921600)
I1221 09:00:40.739979 27951 net.cpp:159] Memory required for data: 545472004
I1221 09:00:40.739980 27951 layer_factory.hpp:77] Creating layer inception_4c/pool_proj
I1221 09:00:40.739985 27951 net.cpp:94] Creating Layer inception_4c/pool_proj
I1221 09:00:40.739987 27951 net.cpp:435] inception_4c/pool_proj <- inception_4c/pool
I1221 09:00:40.739990 27951 net.cpp:409] inception_4c/pool_proj -> inception_4c/pool_proj_raw
I1221 09:00:40.740314 27951 net.cpp:144] Setting up inception_4c/pool_proj
I1221 09:00:40.740319 27951 net.cpp:151] Top shape: 1 64 30 60 (115200)
I1221 09:00:40.740321 27951 net.cpp:159] Memory required for data: 545932804
I1221 09:00:40.740325 27951 layer_factory.hpp:77] Creating layer inception_4c/pool_proj_BatchNorm
I1221 09:00:40.740329 27951 net.cpp:94] Creating Layer inception_4c/pool_proj_BatchNorm
I1221 09:00:40.740331 27951 net.cpp:435] inception_4c/pool_proj_BatchNorm <- inception_4c/pool_proj_raw
I1221 09:00:40.740334 27951 net.cpp:409] inception_4c/pool_proj_BatchNorm -> inception_4c/pool_proj
I1221 09:00:40.740726 27951 net.cpp:144] Setting up inception_4c/pool_proj_BatchNorm
I1221 09:00:40.740731 27951 net.cpp:151] Top shape: 1 64 30 60 (115200)
I1221 09:00:40.740733 27951 net.cpp:159] Memory required for data: 546393604
I1221 09:00:40.740739 27951 layer_factory.hpp:77] Creating layer inception_4c/relu_pool_proj
I1221 09:00:40.740742 27951 net.cpp:94] Creating Layer inception_4c/relu_pool_proj
I1221 09:00:40.740746 27951 net.cpp:435] inception_4c/relu_pool_proj <- inception_4c/pool_proj
I1221 09:00:40.740748 27951 net.cpp:396] inception_4c/relu_pool_proj -> inception_4c/pool_proj (in-place)
I1221 09:00:40.740751 27951 net.cpp:144] Setting up inception_4c/relu_pool_proj
I1221 09:00:40.740753 27951 net.cpp:151] Top shape: 1 64 30 60 (115200)
I1221 09:00:40.740756 27951 net.cpp:159] Memory required for data: 546854404
I1221 09:00:40.740758 27951 layer_factory.hpp:77] Creating layer inception_4c/output
I1221 09:00:40.740761 27951 net.cpp:94] Creating Layer inception_4c/output
I1221 09:00:40.740764 27951 net.cpp:435] inception_4c/output <- inception_4c/1x1
I1221 09:00:40.740767 27951 net.cpp:435] inception_4c/output <- inception_4c/3x3
I1221 09:00:40.740768 27951 net.cpp:435] inception_4c/output <- inception_4c/5x5
I1221 09:00:40.740770 27951 net.cpp:435] inception_4c/output <- inception_4c/pool_proj
I1221 09:00:40.740772 27951 net.cpp:409] inception_4c/output -> inception_4c/output
I1221 09:00:40.740785 27951 net.cpp:144] Setting up inception_4c/output
I1221 09:00:40.740788 27951 net.cpp:151] Top shape: 1 512 30 60 (921600)
I1221 09:00:40.740790 27951 net.cpp:159] Memory required for data: 550540804
I1221 09:00:40.740792 27951 layer_factory.hpp:77] Creating layer inception_4c/output_inception_4c/output_0_split
I1221 09:00:40.740795 27951 net.cpp:94] Creating Layer inception_4c/output_inception_4c/output_0_split
I1221 09:00:40.740797 27951 net.cpp:435] inception_4c/output_inception_4c/output_0_split <- inception_4c/output
I1221 09:00:40.740801 27951 net.cpp:409] inception_4c/output_inception_4c/output_0_split -> inception_4c/output_inception_4c/output_0_split_0
I1221 09:00:40.740805 27951 net.cpp:409] inception_4c/output_inception_4c/output_0_split -> inception_4c/output_inception_4c/output_0_split_1
I1221 09:00:40.740808 27951 net.cpp:409] inception_4c/output_inception_4c/output_0_split -> inception_4c/output_inception_4c/output_0_split_2
I1221 09:00:40.740811 27951 net.cpp:409] inception_4c/output_inception_4c/output_0_split -> inception_4c/output_inception_4c/output_0_split_3
I1221 09:00:40.740844 27951 net.cpp:144] Setting up inception_4c/output_inception_4c/output_0_split
I1221 09:00:40.740846 27951 net.cpp:151] Top shape: 1 512 30 60 (921600)
I1221 09:00:40.740849 27951 net.cpp:151] Top shape: 1 512 30 60 (921600)
I1221 09:00:40.740851 27951 net.cpp:151] Top shape: 1 512 30 60 (921600)
I1221 09:00:40.740854 27951 net.cpp:151] Top shape: 1 512 30 60 (921600)
I1221 09:00:40.740859 27951 net.cpp:159] Memory required for data: 565286404
I1221 09:00:40.740861 27951 layer_factory.hpp:77] Creating layer inception_4d/1x1
I1221 09:00:40.740865 27951 net.cpp:94] Creating Layer inception_4d/1x1
I1221 09:00:40.740867 27951 net.cpp:435] inception_4d/1x1 <- inception_4c/output_inception_4c/output_0_split_0
I1221 09:00:40.740871 27951 net.cpp:409] inception_4d/1x1 -> inception_4d/1x1_raw
I1221 09:00:40.741324 27951 net.cpp:144] Setting up inception_4d/1x1
I1221 09:00:40.741329 27951 net.cpp:151] Top shape: 1 112 30 60 (201600)
I1221 09:00:40.741331 27951 net.cpp:159] Memory required for data: 566092804
I1221 09:00:40.741335 27951 layer_factory.hpp:77] Creating layer inception_4d/1x1_BatchNorm
I1221 09:00:40.741338 27951 net.cpp:94] Creating Layer inception_4d/1x1_BatchNorm
I1221 09:00:40.741341 27951 net.cpp:435] inception_4d/1x1_BatchNorm <- inception_4d/1x1_raw
I1221 09:00:40.741345 27951 net.cpp:409] inception_4d/1x1_BatchNorm -> inception_4d/1x1
I1221 09:00:40.741734 27951 net.cpp:144] Setting up inception_4d/1x1_BatchNorm
I1221 09:00:40.741737 27951 net.cpp:151] Top shape: 1 112 30 60 (201600)
I1221 09:00:40.741740 27951 net.cpp:159] Memory required for data: 566899204
I1221 09:00:40.741746 27951 layer_factory.hpp:77] Creating layer inception_4d/relu_1x1
I1221 09:00:40.741750 27951 net.cpp:94] Creating Layer inception_4d/relu_1x1
I1221 09:00:40.741751 27951 net.cpp:435] inception_4d/relu_1x1 <- inception_4d/1x1
I1221 09:00:40.741755 27951 net.cpp:396] inception_4d/relu_1x1 -> inception_4d/1x1 (in-place)
I1221 09:00:40.741757 27951 net.cpp:144] Setting up inception_4d/relu_1x1
I1221 09:00:40.741758 27951 net.cpp:151] Top shape: 1 112 30 60 (201600)
I1221 09:00:40.741761 27951 net.cpp:159] Memory required for data: 567705604
I1221 09:00:40.741763 27951 layer_factory.hpp:77] Creating layer inception_4d/3x3_reduce
I1221 09:00:40.741767 27951 net.cpp:94] Creating Layer inception_4d/3x3_reduce
I1221 09:00:40.741770 27951 net.cpp:435] inception_4d/3x3_reduce <- inception_4c/output_inception_4c/output_0_split_1
I1221 09:00:40.741772 27951 net.cpp:409] inception_4d/3x3_reduce -> inception_4d/3x3_reduce_raw
I1221 09:00:40.742300 27951 net.cpp:144] Setting up inception_4d/3x3_reduce
I1221 09:00:40.742305 27951 net.cpp:151] Top shape: 1 144 30 60 (259200)
I1221 09:00:40.742306 27951 net.cpp:159] Memory required for data: 568742404
I1221 09:00:40.742311 27951 layer_factory.hpp:77] Creating layer inception_4d/3x3_reduce_BatchNorm
I1221 09:00:40.742316 27951 net.cpp:94] Creating Layer inception_4d/3x3_reduce_BatchNorm
I1221 09:00:40.742316 27951 net.cpp:435] inception_4d/3x3_reduce_BatchNorm <- inception_4d/3x3_reduce_raw
I1221 09:00:40.742319 27951 net.cpp:409] inception_4d/3x3_reduce_BatchNorm -> inception_4d/3x3_reduce
I1221 09:00:40.742741 27951 net.cpp:144] Setting up inception_4d/3x3_reduce_BatchNorm
I1221 09:00:40.742748 27951 net.cpp:151] Top shape: 1 144 30 60 (259200)
I1221 09:00:40.742751 27951 net.cpp:159] Memory required for data: 569779204
I1221 09:00:40.742758 27951 layer_factory.hpp:77] Creating layer inception_4d/relu_3x3_reduce
I1221 09:00:40.742761 27951 net.cpp:94] Creating Layer inception_4d/relu_3x3_reduce
I1221 09:00:40.742763 27951 net.cpp:435] inception_4d/relu_3x3_reduce <- inception_4d/3x3_reduce
I1221 09:00:40.742766 27951 net.cpp:396] inception_4d/relu_3x3_reduce -> inception_4d/3x3_reduce (in-place)
I1221 09:00:40.742770 27951 net.cpp:144] Setting up inception_4d/relu_3x3_reduce
I1221 09:00:40.742771 27951 net.cpp:151] Top shape: 1 144 30 60 (259200)
I1221 09:00:40.742774 27951 net.cpp:159] Memory required for data: 570816004
I1221 09:00:40.742776 27951 layer_factory.hpp:77] Creating layer inception_4d/3x3
I1221 09:00:40.742781 27951 net.cpp:94] Creating Layer inception_4d/3x3
I1221 09:00:40.742782 27951 net.cpp:435] inception_4d/3x3 <- inception_4d/3x3_reduce
I1221 09:00:40.742786 27951 net.cpp:409] inception_4d/3x3 -> inception_4d/3x3_raw
I1221 09:00:40.746146 27951 net.cpp:144] Setting up inception_4d/3x3
I1221 09:00:40.746155 27951 net.cpp:151] Top shape: 1 288 30 60 (518400)
I1221 09:00:40.746160 27951 net.cpp:159] Memory required for data: 572889604
I1221 09:00:40.746165 27951 layer_factory.hpp:77] Creating layer inception_4d/3x3_BatchNorm
I1221 09:00:40.746172 27951 net.cpp:94] Creating Layer inception_4d/3x3_BatchNorm
I1221 09:00:40.746176 27951 net.cpp:435] inception_4d/3x3_BatchNorm <- inception_4d/3x3_raw
I1221 09:00:40.746181 27951 net.cpp:409] inception_4d/3x3_BatchNorm -> inception_4d/3x3
I1221 09:00:40.746596 27951 net.cpp:144] Setting up inception_4d/3x3_BatchNorm
I1221 09:00:40.746600 27951 net.cpp:151] Top shape: 1 288 30 60 (518400)
I1221 09:00:40.746604 27951 net.cpp:159] Memory required for data: 574963204
I1221 09:00:40.746610 27951 layer_factory.hpp:77] Creating layer inception_4d/relu_3x3
I1221 09:00:40.746614 27951 net.cpp:94] Creating Layer inception_4d/relu_3x3
I1221 09:00:40.746616 27951 net.cpp:435] inception_4d/relu_3x3 <- inception_4d/3x3
I1221 09:00:40.746619 27951 net.cpp:396] inception_4d/relu_3x3 -> inception_4d/3x3 (in-place)
I1221 09:00:40.746624 27951 net.cpp:144] Setting up inception_4d/relu_3x3
I1221 09:00:40.746626 27951 net.cpp:151] Top shape: 1 288 30 60 (518400)
I1221 09:00:40.746630 27951 net.cpp:159] Memory required for data: 577036804
I1221 09:00:40.746632 27951 layer_factory.hpp:77] Creating layer inception_4d/5x5_reduce
I1221 09:00:40.746639 27951 net.cpp:94] Creating Layer inception_4d/5x5_reduce
I1221 09:00:40.746640 27951 net.cpp:435] inception_4d/5x5_reduce <- inception_4c/output_inception_4c/output_0_split_2
I1221 09:00:40.746644 27951 net.cpp:409] inception_4d/5x5_reduce -> inception_4d/5x5_reduce_raw
I1221 09:00:40.746889 27951 net.cpp:144] Setting up inception_4d/5x5_reduce
I1221 09:00:40.746893 27951 net.cpp:151] Top shape: 1 32 30 60 (57600)
I1221 09:00:40.746896 27951 net.cpp:159] Memory required for data: 577267204
I1221 09:00:40.746899 27951 layer_factory.hpp:77] Creating layer inception_4d/5x5_reduce_BatchNorm
I1221 09:00:40.746904 27951 net.cpp:94] Creating Layer inception_4d/5x5_reduce_BatchNorm
I1221 09:00:40.746907 27951 net.cpp:435] inception_4d/5x5_reduce_BatchNorm <- inception_4d/5x5_reduce_raw
I1221 09:00:40.746912 27951 net.cpp:409] inception_4d/5x5_reduce_BatchNorm -> inception_4d/5x5_reduce
I1221 09:00:40.747309 27951 net.cpp:144] Setting up inception_4d/5x5_reduce_BatchNorm
I1221 09:00:40.747313 27951 net.cpp:151] Top shape: 1 32 30 60 (57600)
I1221 09:00:40.747316 27951 net.cpp:159] Memory required for data: 577497604
I1221 09:00:40.747329 27951 layer_factory.hpp:77] Creating layer inception_4d/relu_5x5_reduce
I1221 09:00:40.747334 27951 net.cpp:94] Creating Layer inception_4d/relu_5x5_reduce
I1221 09:00:40.747335 27951 net.cpp:435] inception_4d/relu_5x5_reduce <- inception_4d/5x5_reduce
I1221 09:00:40.747339 27951 net.cpp:396] inception_4d/relu_5x5_reduce -> inception_4d/5x5_reduce (in-place)
I1221 09:00:40.747344 27951 net.cpp:144] Setting up inception_4d/relu_5x5_reduce
I1221 09:00:40.747345 27951 net.cpp:151] Top shape: 1 32 30 60 (57600)
I1221 09:00:40.747349 27951 net.cpp:159] Memory required for data: 577728004
I1221 09:00:40.747350 27951 layer_factory.hpp:77] Creating layer inception_4d/5x5
I1221 09:00:40.747355 27951 net.cpp:94] Creating Layer inception_4d/5x5
I1221 09:00:40.747357 27951 net.cpp:435] inception_4d/5x5 <- inception_4d/5x5_reduce
I1221 09:00:40.747359 27951 net.cpp:409] inception_4d/5x5 -> inception_4d/5x5_raw
I1221 09:00:40.747792 27951 net.cpp:144] Setting up inception_4d/5x5
I1221 09:00:40.747795 27951 net.cpp:151] Top shape: 1 64 30 60 (115200)
I1221 09:00:40.747798 27951 net.cpp:159] Memory required for data: 578188804
I1221 09:00:40.747802 27951 layer_factory.hpp:77] Creating layer inception_4d/5x5_BatchNorm
I1221 09:00:40.747805 27951 net.cpp:94] Creating Layer inception_4d/5x5_BatchNorm
I1221 09:00:40.747807 27951 net.cpp:435] inception_4d/5x5_BatchNorm <- inception_4d/5x5_raw
I1221 09:00:40.747810 27951 net.cpp:409] inception_4d/5x5_BatchNorm -> inception_4d/5x5
I1221 09:00:40.748200 27951 net.cpp:144] Setting up inception_4d/5x5_BatchNorm
I1221 09:00:40.748204 27951 net.cpp:151] Top shape: 1 64 30 60 (115200)
I1221 09:00:40.748208 27951 net.cpp:159] Memory required for data: 578649604
I1221 09:00:40.748212 27951 layer_factory.hpp:77] Creating layer inception_4d/relu_5x5
I1221 09:00:40.748215 27951 net.cpp:94] Creating Layer inception_4d/relu_5x5
I1221 09:00:40.748217 27951 net.cpp:435] inception_4d/relu_5x5 <- inception_4d/5x5
I1221 09:00:40.748220 27951 net.cpp:396] inception_4d/relu_5x5 -> inception_4d/5x5 (in-place)
I1221 09:00:40.748224 27951 net.cpp:144] Setting up inception_4d/relu_5x5
I1221 09:00:40.748224 27951 net.cpp:151] Top shape: 1 64 30 60 (115200)
I1221 09:00:40.748227 27951 net.cpp:159] Memory required for data: 579110404
I1221 09:00:40.748230 27951 layer_factory.hpp:77] Creating layer inception_4d/pool
I1221 09:00:40.748235 27951 net.cpp:94] Creating Layer inception_4d/pool
I1221 09:00:40.748239 27951 net.cpp:435] inception_4d/pool <- inception_4c/output_inception_4c/output_0_split_3
I1221 09:00:40.748241 27951 net.cpp:409] inception_4d/pool -> inception_4d/pool
I1221 09:00:40.748262 27951 net.cpp:144] Setting up inception_4d/pool
I1221 09:00:40.748266 27951 net.cpp:151] Top shape: 1 512 30 60 (921600)
I1221 09:00:40.748268 27951 net.cpp:159] Memory required for data: 582796804
I1221 09:00:40.748270 27951 layer_factory.hpp:77] Creating layer inception_4d/pool_proj
I1221 09:00:40.748275 27951 net.cpp:94] Creating Layer inception_4d/pool_proj
I1221 09:00:40.748277 27951 net.cpp:435] inception_4d/pool_proj <- inception_4d/pool
I1221 09:00:40.748279 27951 net.cpp:409] inception_4d/pool_proj -> inception_4d/pool_proj_raw
I1221 09:00:40.748600 27951 net.cpp:144] Setting up inception_4d/pool_proj
I1221 09:00:40.748605 27951 net.cpp:151] Top shape: 1 64 30 60 (115200)
I1221 09:00:40.748608 27951 net.cpp:159] Memory required for data: 583257604
I1221 09:00:40.748611 27951 layer_factory.hpp:77] Creating layer inception_4d/pool_proj_BatchNorm
I1221 09:00:40.748615 27951 net.cpp:94] Creating Layer inception_4d/pool_proj_BatchNorm
I1221 09:00:40.748617 27951 net.cpp:435] inception_4d/pool_proj_BatchNorm <- inception_4d/pool_proj_raw
I1221 09:00:40.748620 27951 net.cpp:409] inception_4d/pool_proj_BatchNorm -> inception_4d/pool_proj
I1221 09:00:40.749002 27951 net.cpp:144] Setting up inception_4d/pool_proj_BatchNorm
I1221 09:00:40.749007 27951 net.cpp:151] Top shape: 1 64 30 60 (115200)
I1221 09:00:40.749011 27951 net.cpp:159] Memory required for data: 583718404
I1221 09:00:40.749015 27951 layer_factory.hpp:77] Creating layer inception_4d/relu_pool_proj
I1221 09:00:40.749018 27951 net.cpp:94] Creating Layer inception_4d/relu_pool_proj
I1221 09:00:40.749020 27951 net.cpp:435] inception_4d/relu_pool_proj <- inception_4d/pool_proj
I1221 09:00:40.749023 27951 net.cpp:396] inception_4d/relu_pool_proj -> inception_4d/pool_proj (in-place)
I1221 09:00:40.749027 27951 net.cpp:144] Setting up inception_4d/relu_pool_proj
I1221 09:00:40.749028 27951 net.cpp:151] Top shape: 1 64 30 60 (115200)
I1221 09:00:40.749030 27951 net.cpp:159] Memory required for data: 584179204
I1221 09:00:40.749032 27951 layer_factory.hpp:77] Creating layer inception_4d/output
I1221 09:00:40.749035 27951 net.cpp:94] Creating Layer inception_4d/output
I1221 09:00:40.749037 27951 net.cpp:435] inception_4d/output <- inception_4d/1x1
I1221 09:00:40.749039 27951 net.cpp:435] inception_4d/output <- inception_4d/3x3
I1221 09:00:40.749042 27951 net.cpp:435] inception_4d/output <- inception_4d/5x5
I1221 09:00:40.749043 27951 net.cpp:435] inception_4d/output <- inception_4d/pool_proj
I1221 09:00:40.749045 27951 net.cpp:409] inception_4d/output -> inception_4d/output
I1221 09:00:40.749058 27951 net.cpp:144] Setting up inception_4d/output
I1221 09:00:40.749059 27951 net.cpp:151] Top shape: 1 528 30 60 (950400)
I1221 09:00:40.749061 27951 net.cpp:159] Memory required for data: 587980804
I1221 09:00:40.749063 27951 layer_factory.hpp:77] Creating layer inception_4d/output_inception_4d/output_0_split
I1221 09:00:40.749068 27951 net.cpp:94] Creating Layer inception_4d/output_inception_4d/output_0_split
I1221 09:00:40.749070 27951 net.cpp:435] inception_4d/output_inception_4d/output_0_split <- inception_4d/output
I1221 09:00:40.749073 27951 net.cpp:409] inception_4d/output_inception_4d/output_0_split -> inception_4d/output_inception_4d/output_0_split_0
I1221 09:00:40.749076 27951 net.cpp:409] inception_4d/output_inception_4d/output_0_split -> inception_4d/output_inception_4d/output_0_split_1
I1221 09:00:40.749079 27951 net.cpp:409] inception_4d/output_inception_4d/output_0_split -> inception_4d/output_inception_4d/output_0_split_2
I1221 09:00:40.749083 27951 net.cpp:409] inception_4d/output_inception_4d/output_0_split -> inception_4d/output_inception_4d/output_0_split_3
I1221 09:00:40.749112 27951 net.cpp:144] Setting up inception_4d/output_inception_4d/output_0_split
I1221 09:00:40.749115 27951 net.cpp:151] Top shape: 1 528 30 60 (950400)
I1221 09:00:40.749119 27951 net.cpp:151] Top shape: 1 528 30 60 (950400)
I1221 09:00:40.749120 27951 net.cpp:151] Top shape: 1 528 30 60 (950400)
I1221 09:00:40.749122 27951 net.cpp:151] Top shape: 1 528 30 60 (950400)
I1221 09:00:40.749125 27951 net.cpp:159] Memory required for data: 603187204
I1221 09:00:40.749127 27951 layer_factory.hpp:77] Creating layer inception_4e/1x1
I1221 09:00:40.749132 27951 net.cpp:94] Creating Layer inception_4e/1x1
I1221 09:00:40.749135 27951 net.cpp:435] inception_4e/1x1 <- inception_4d/output_inception_4d/output_0_split_0
I1221 09:00:40.749136 27951 net.cpp:409] inception_4e/1x1 -> inception_4e/1x1_raw
I1221 09:00:40.750897 27951 net.cpp:144] Setting up inception_4e/1x1
I1221 09:00:40.750907 27951 net.cpp:151] Top shape: 1 256 30 60 (460800)
I1221 09:00:40.750912 27951 net.cpp:159] Memory required for data: 605030404
I1221 09:00:40.750919 27951 layer_factory.hpp:77] Creating layer inception_4e/1x1_BatchNorm
I1221 09:00:40.750927 27951 net.cpp:94] Creating Layer inception_4e/1x1_BatchNorm
I1221 09:00:40.750931 27951 net.cpp:435] inception_4e/1x1_BatchNorm <- inception_4e/1x1_raw
I1221 09:00:40.750936 27951 net.cpp:409] inception_4e/1x1_BatchNorm -> inception_4e/1x1
I1221 09:00:40.751343 27951 net.cpp:144] Setting up inception_4e/1x1_BatchNorm
I1221 09:00:40.751351 27951 net.cpp:151] Top shape: 1 256 30 60 (460800)
I1221 09:00:40.751355 27951 net.cpp:159] Memory required for data: 606873604
I1221 09:00:40.751361 27951 layer_factory.hpp:77] Creating layer inception_4e/relu_1x1
I1221 09:00:40.751364 27951 net.cpp:94] Creating Layer inception_4e/relu_1x1
I1221 09:00:40.751368 27951 net.cpp:435] inception_4e/relu_1x1 <- inception_4e/1x1
I1221 09:00:40.751371 27951 net.cpp:396] inception_4e/relu_1x1 -> inception_4e/1x1 (in-place)
I1221 09:00:40.751375 27951 net.cpp:144] Setting up inception_4e/relu_1x1
I1221 09:00:40.751377 27951 net.cpp:151] Top shape: 1 256 30 60 (460800)
I1221 09:00:40.751379 27951 net.cpp:159] Memory required for data: 608716804
I1221 09:00:40.751382 27951 layer_factory.hpp:77] Creating layer inception_4e/3x3_reduce
I1221 09:00:40.751387 27951 net.cpp:94] Creating Layer inception_4e/3x3_reduce
I1221 09:00:40.751389 27951 net.cpp:435] inception_4e/3x3_reduce <- inception_4d/output_inception_4d/output_0_split_1
I1221 09:00:40.751392 27951 net.cpp:409] inception_4e/3x3_reduce -> inception_4e/3x3_reduce_raw
I1221 09:00:40.751996 27951 net.cpp:144] Setting up inception_4e/3x3_reduce
I1221 09:00:40.752000 27951 net.cpp:151] Top shape: 1 160 30 60 (288000)
I1221 09:00:40.752003 27951 net.cpp:159] Memory required for data: 609868804
I1221 09:00:40.752007 27951 layer_factory.hpp:77] Creating layer inception_4e/3x3_reduce_BatchNorm
I1221 09:00:40.752010 27951 net.cpp:94] Creating Layer inception_4e/3x3_reduce_BatchNorm
I1221 09:00:40.752012 27951 net.cpp:435] inception_4e/3x3_reduce_BatchNorm <- inception_4e/3x3_reduce_raw
I1221 09:00:40.752015 27951 net.cpp:409] inception_4e/3x3_reduce_BatchNorm -> inception_4e/3x3_reduce
I1221 09:00:40.752408 27951 net.cpp:144] Setting up inception_4e/3x3_reduce_BatchNorm
I1221 09:00:40.752413 27951 net.cpp:151] Top shape: 1 160 30 60 (288000)
I1221 09:00:40.752415 27951 net.cpp:159] Memory required for data: 611020804
I1221 09:00:40.752422 27951 layer_factory.hpp:77] Creating layer inception_4e/relu_3x3_reduce
I1221 09:00:40.752426 27951 net.cpp:94] Creating Layer inception_4e/relu_3x3_reduce
I1221 09:00:40.752429 27951 net.cpp:435] inception_4e/relu_3x3_reduce <- inception_4e/3x3_reduce
I1221 09:00:40.752431 27951 net.cpp:396] inception_4e/relu_3x3_reduce -> inception_4e/3x3_reduce (in-place)
I1221 09:00:40.752434 27951 net.cpp:144] Setting up inception_4e/relu_3x3_reduce
I1221 09:00:40.752435 27951 net.cpp:151] Top shape: 1 160 30 60 (288000)
I1221 09:00:40.752439 27951 net.cpp:159] Memory required for data: 612172804
I1221 09:00:40.752440 27951 layer_factory.hpp:77] Creating layer inception_4e/3x3
I1221 09:00:40.752445 27951 net.cpp:94] Creating Layer inception_4e/3x3
I1221 09:00:40.752447 27951 net.cpp:435] inception_4e/3x3 <- inception_4e/3x3_reduce
I1221 09:00:40.752450 27951 net.cpp:409] inception_4e/3x3 -> inception_4e/3x3_raw
I1221 09:00:40.756228 27951 net.cpp:144] Setting up inception_4e/3x3
I1221 09:00:40.756235 27951 net.cpp:151] Top shape: 1 320 30 60 (576000)
I1221 09:00:40.756239 27951 net.cpp:159] Memory required for data: 614476804
I1221 09:00:40.756243 27951 layer_factory.hpp:77] Creating layer inception_4e/3x3_BatchNorm
I1221 09:00:40.756248 27951 net.cpp:94] Creating Layer inception_4e/3x3_BatchNorm
I1221 09:00:40.756250 27951 net.cpp:435] inception_4e/3x3_BatchNorm <- inception_4e/3x3_raw
I1221 09:00:40.756255 27951 net.cpp:409] inception_4e/3x3_BatchNorm -> inception_4e/3x3
I1221 09:00:40.756665 27951 net.cpp:144] Setting up inception_4e/3x3_BatchNorm
I1221 09:00:40.756670 27951 net.cpp:151] Top shape: 1 320 30 60 (576000)
I1221 09:00:40.756673 27951 net.cpp:159] Memory required for data: 616780804
I1221 09:00:40.756680 27951 layer_factory.hpp:77] Creating layer inception_4e/relu_3x3
I1221 09:00:40.756682 27951 net.cpp:94] Creating Layer inception_4e/relu_3x3
I1221 09:00:40.756685 27951 net.cpp:435] inception_4e/relu_3x3 <- inception_4e/3x3
I1221 09:00:40.756687 27951 net.cpp:396] inception_4e/relu_3x3 -> inception_4e/3x3 (in-place)
I1221 09:00:40.756691 27951 net.cpp:144] Setting up inception_4e/relu_3x3
I1221 09:00:40.756693 27951 net.cpp:151] Top shape: 1 320 30 60 (576000)
I1221 09:00:40.756696 27951 net.cpp:159] Memory required for data: 619084804
I1221 09:00:40.756698 27951 layer_factory.hpp:77] Creating layer inception_4e/5x5_reduce
I1221 09:00:40.756705 27951 net.cpp:94] Creating Layer inception_4e/5x5_reduce
I1221 09:00:40.756707 27951 net.cpp:435] inception_4e/5x5_reduce <- inception_4d/output_inception_4d/output_0_split_2
I1221 09:00:40.756711 27951 net.cpp:409] inception_4e/5x5_reduce -> inception_4e/5x5_reduce_raw
I1221 09:00:40.756958 27951 net.cpp:144] Setting up inception_4e/5x5_reduce
I1221 09:00:40.756963 27951 net.cpp:151] Top shape: 1 32 30 60 (57600)
I1221 09:00:40.756966 27951 net.cpp:159] Memory required for data: 619315204
I1221 09:00:40.756969 27951 layer_factory.hpp:77] Creating layer inception_4e/5x5_reduce_BatchNorm
I1221 09:00:40.756973 27951 net.cpp:94] Creating Layer inception_4e/5x5_reduce_BatchNorm
I1221 09:00:40.756975 27951 net.cpp:435] inception_4e/5x5_reduce_BatchNorm <- inception_4e/5x5_reduce_raw
I1221 09:00:40.756978 27951 net.cpp:409] inception_4e/5x5_reduce_BatchNorm -> inception_4e/5x5_reduce
I1221 09:00:40.757382 27951 net.cpp:144] Setting up inception_4e/5x5_reduce_BatchNorm
I1221 09:00:40.757386 27951 net.cpp:151] Top shape: 1 32 30 60 (57600)
I1221 09:00:40.757390 27951 net.cpp:159] Memory required for data: 619545604
I1221 09:00:40.757395 27951 layer_factory.hpp:77] Creating layer inception_4e/relu_5x5_reduce
I1221 09:00:40.757397 27951 net.cpp:94] Creating Layer inception_4e/relu_5x5_reduce
I1221 09:00:40.757400 27951 net.cpp:435] inception_4e/relu_5x5_reduce <- inception_4e/5x5_reduce
I1221 09:00:40.757401 27951 net.cpp:396] inception_4e/relu_5x5_reduce -> inception_4e/5x5_reduce (in-place)
I1221 09:00:40.757405 27951 net.cpp:144] Setting up inception_4e/relu_5x5_reduce
I1221 09:00:40.757406 27951 net.cpp:151] Top shape: 1 32 30 60 (57600)
I1221 09:00:40.757408 27951 net.cpp:159] Memory required for data: 619776004
I1221 09:00:40.757411 27951 layer_factory.hpp:77] Creating layer inception_4e/5x5
I1221 09:00:40.757416 27951 net.cpp:94] Creating Layer inception_4e/5x5
I1221 09:00:40.757417 27951 net.cpp:435] inception_4e/5x5 <- inception_4e/5x5_reduce
I1221 09:00:40.757421 27951 net.cpp:409] inception_4e/5x5 -> inception_4e/5x5_raw
I1221 09:00:40.758098 27951 net.cpp:144] Setting up inception_4e/5x5
I1221 09:00:40.758102 27951 net.cpp:151] Top shape: 1 128 30 60 (230400)
I1221 09:00:40.758106 27951 net.cpp:159] Memory required for data: 620697604
I1221 09:00:40.758110 27951 layer_factory.hpp:77] Creating layer inception_4e/5x5_BatchNorm
I1221 09:00:40.758113 27951 net.cpp:94] Creating Layer inception_4e/5x5_BatchNorm
I1221 09:00:40.758116 27951 net.cpp:435] inception_4e/5x5_BatchNorm <- inception_4e/5x5_raw
I1221 09:00:40.758117 27951 net.cpp:409] inception_4e/5x5_BatchNorm -> inception_4e/5x5
I1221 09:00:40.758450 27951 net.cpp:144] Setting up inception_4e/5x5_BatchNorm
I1221 09:00:40.758453 27951 net.cpp:151] Top shape: 1 128 30 60 (230400)
I1221 09:00:40.758456 27951 net.cpp:159] Memory required for data: 621619204
I1221 09:00:40.758463 27951 layer_factory.hpp:77] Creating layer inception_4e/relu_5x5
I1221 09:00:40.758468 27951 net.cpp:94] Creating Layer inception_4e/relu_5x5
I1221 09:00:40.758471 27951 net.cpp:435] inception_4e/relu_5x5 <- inception_4e/5x5
I1221 09:00:40.758473 27951 net.cpp:396] inception_4e/relu_5x5 -> inception_4e/5x5 (in-place)
I1221 09:00:40.758476 27951 net.cpp:144] Setting up inception_4e/relu_5x5
I1221 09:00:40.758477 27951 net.cpp:151] Top shape: 1 128 30 60 (230400)
I1221 09:00:40.758481 27951 net.cpp:159] Memory required for data: 622540804
I1221 09:00:40.758481 27951 layer_factory.hpp:77] Creating layer inception_4e/pool
I1221 09:00:40.758486 27951 net.cpp:94] Creating Layer inception_4e/pool
I1221 09:00:40.758487 27951 net.cpp:435] inception_4e/pool <- inception_4d/output_inception_4d/output_0_split_3
I1221 09:00:40.758491 27951 net.cpp:409] inception_4e/pool -> inception_4e/pool
I1221 09:00:40.758510 27951 net.cpp:144] Setting up inception_4e/pool
I1221 09:00:40.758513 27951 net.cpp:151] Top shape: 1 528 30 60 (950400)
I1221 09:00:40.758515 27951 net.cpp:159] Memory required for data: 626342404
I1221 09:00:40.758517 27951 layer_factory.hpp:77] Creating layer inception_4e/pool_proj
I1221 09:00:40.758522 27951 net.cpp:94] Creating Layer inception_4e/pool_proj
I1221 09:00:40.758524 27951 net.cpp:435] inception_4e/pool_proj <- inception_4e/pool
I1221 09:00:40.758527 27951 net.cpp:409] inception_4e/pool_proj -> inception_4e/pool_proj_raw
I1221 09:00:40.759637 27951 net.cpp:144] Setting up inception_4e/pool_proj
I1221 09:00:40.759645 27951 net.cpp:151] Top shape: 1 128 30 60 (230400)
I1221 09:00:40.759649 27951 net.cpp:159] Memory required for data: 627264004
I1221 09:00:40.759654 27951 layer_factory.hpp:77] Creating layer inception_4e/pool_proj_BatchNorm
I1221 09:00:40.759658 27951 net.cpp:94] Creating Layer inception_4e/pool_proj_BatchNorm
I1221 09:00:40.759661 27951 net.cpp:435] inception_4e/pool_proj_BatchNorm <- inception_4e/pool_proj_raw
I1221 09:00:40.759665 27951 net.cpp:409] inception_4e/pool_proj_BatchNorm -> inception_4e/pool_proj
I1221 09:00:40.760022 27951 net.cpp:144] Setting up inception_4e/pool_proj_BatchNorm
I1221 09:00:40.760027 27951 net.cpp:151] Top shape: 1 128 30 60 (230400)
I1221 09:00:40.760030 27951 net.cpp:159] Memory required for data: 628185604
I1221 09:00:40.760036 27951 layer_factory.hpp:77] Creating layer inception_4e/relu_pool_proj
I1221 09:00:40.760040 27951 net.cpp:94] Creating Layer inception_4e/relu_pool_proj
I1221 09:00:40.760042 27951 net.cpp:435] inception_4e/relu_pool_proj <- inception_4e/pool_proj
I1221 09:00:40.760044 27951 net.cpp:396] inception_4e/relu_pool_proj -> inception_4e/pool_proj (in-place)
I1221 09:00:40.760048 27951 net.cpp:144] Setting up inception_4e/relu_pool_proj
I1221 09:00:40.760051 27951 net.cpp:151] Top shape: 1 128 30 60 (230400)
I1221 09:00:40.760052 27951 net.cpp:159] Memory required for data: 629107204
I1221 09:00:40.760054 27951 layer_factory.hpp:77] Creating layer inception_4e/output
I1221 09:00:40.760057 27951 net.cpp:94] Creating Layer inception_4e/output
I1221 09:00:40.760059 27951 net.cpp:435] inception_4e/output <- inception_4e/1x1
I1221 09:00:40.760061 27951 net.cpp:435] inception_4e/output <- inception_4e/3x3
I1221 09:00:40.760063 27951 net.cpp:435] inception_4e/output <- inception_4e/5x5
I1221 09:00:40.760066 27951 net.cpp:435] inception_4e/output <- inception_4e/pool_proj
I1221 09:00:40.760068 27951 net.cpp:409] inception_4e/output -> inception_4e/output
I1221 09:00:40.760083 27951 net.cpp:144] Setting up inception_4e/output
I1221 09:00:40.760087 27951 net.cpp:151] Top shape: 1 832 30 60 (1497600)
I1221 09:00:40.760090 27951 net.cpp:159] Memory required for data: 635097604
I1221 09:00:40.760092 27951 layer_factory.hpp:77] Creating layer inception_4e/output_inception_4e/output_0_split
I1221 09:00:40.760095 27951 net.cpp:94] Creating Layer inception_4e/output_inception_4e/output_0_split
I1221 09:00:40.760097 27951 net.cpp:435] inception_4e/output_inception_4e/output_0_split <- inception_4e/output
I1221 09:00:40.760100 27951 net.cpp:409] inception_4e/output_inception_4e/output_0_split -> inception_4e/output_inception_4e/output_0_split_0
I1221 09:00:40.760103 27951 net.cpp:409] inception_4e/output_inception_4e/output_0_split -> inception_4e/output_inception_4e/output_0_split_1
I1221 09:00:40.760120 27951 net.cpp:144] Setting up inception_4e/output_inception_4e/output_0_split
I1221 09:00:40.760123 27951 net.cpp:151] Top shape: 1 832 30 60 (1497600)
I1221 09:00:40.760126 27951 net.cpp:151] Top shape: 1 832 30 60 (1497600)
I1221 09:00:40.760128 27951 net.cpp:159] Memory required for data: 647078404
I1221 09:00:40.760130 27951 layer_factory.hpp:77] Creating layer pool4/3x3_s2
I1221 09:00:40.760134 27951 net.cpp:94] Creating Layer pool4/3x3_s2
I1221 09:00:40.760138 27951 net.cpp:435] pool4/3x3_s2 <- inception_4e/output_inception_4e/output_0_split_0
I1221 09:00:40.760140 27951 net.cpp:409] pool4/3x3_s2 -> pool4/3x3_s2
I1221 09:00:40.760160 27951 net.cpp:144] Setting up pool4/3x3_s2
I1221 09:00:40.760164 27951 net.cpp:151] Top shape: 1 832 15 30 (374400)
I1221 09:00:40.760165 27951 net.cpp:159] Memory required for data: 648576004
I1221 09:00:40.760167 27951 layer_factory.hpp:77] Creating layer pool4/3x3_s2_pool4/3x3_s2_0_split
I1221 09:00:40.760170 27951 net.cpp:94] Creating Layer pool4/3x3_s2_pool4/3x3_s2_0_split
I1221 09:00:40.760174 27951 net.cpp:435] pool4/3x3_s2_pool4/3x3_s2_0_split <- pool4/3x3_s2
I1221 09:00:40.760177 27951 net.cpp:409] pool4/3x3_s2_pool4/3x3_s2_0_split -> pool4/3x3_s2_pool4/3x3_s2_0_split_0
I1221 09:00:40.760180 27951 net.cpp:409] pool4/3x3_s2_pool4/3x3_s2_0_split -> pool4/3x3_s2_pool4/3x3_s2_0_split_1
I1221 09:00:40.760183 27951 net.cpp:409] pool4/3x3_s2_pool4/3x3_s2_0_split -> pool4/3x3_s2_pool4/3x3_s2_0_split_2
I1221 09:00:40.760186 27951 net.cpp:409] pool4/3x3_s2_pool4/3x3_s2_0_split -> pool4/3x3_s2_pool4/3x3_s2_0_split_3
I1221 09:00:40.760222 27951 net.cpp:144] Setting up pool4/3x3_s2_pool4/3x3_s2_0_split
I1221 09:00:40.760226 27951 net.cpp:151] Top shape: 1 832 15 30 (374400)
I1221 09:00:40.760231 27951 net.cpp:151] Top shape: 1 832 15 30 (374400)
I1221 09:00:40.760233 27951 net.cpp:151] Top shape: 1 832 15 30 (374400)
I1221 09:00:40.760237 27951 net.cpp:151] Top shape: 1 832 15 30 (374400)
I1221 09:00:40.760241 27951 net.cpp:159] Memory required for data: 654566404
I1221 09:00:40.760243 27951 layer_factory.hpp:77] Creating layer inception_5a/1x1
I1221 09:00:40.760249 27951 net.cpp:94] Creating Layer inception_5a/1x1
I1221 09:00:40.760252 27951 net.cpp:435] inception_5a/1x1 <- pool4/3x3_s2_pool4/3x3_s2_0_split_0
I1221 09:00:40.760257 27951 net.cpp:409] inception_5a/1x1 -> inception_5a/1x1_raw
I1221 09:00:40.762132 27951 net.cpp:144] Setting up inception_5a/1x1
I1221 09:00:40.762140 27951 net.cpp:151] Top shape: 1 256 15 30 (115200)
I1221 09:00:40.762143 27951 net.cpp:159] Memory required for data: 655027204
I1221 09:00:40.762147 27951 layer_factory.hpp:77] Creating layer inception_5a/1x1_BatchNorm
I1221 09:00:40.762152 27951 net.cpp:94] Creating Layer inception_5a/1x1_BatchNorm
I1221 09:00:40.762156 27951 net.cpp:435] inception_5a/1x1_BatchNorm <- inception_5a/1x1_raw
I1221 09:00:40.762158 27951 net.cpp:409] inception_5a/1x1_BatchNorm -> inception_5a/1x1
I1221 09:00:40.762509 27951 net.cpp:144] Setting up inception_5a/1x1_BatchNorm
I1221 09:00:40.762513 27951 net.cpp:151] Top shape: 1 256 15 30 (115200)
I1221 09:00:40.762516 27951 net.cpp:159] Memory required for data: 655488004
I1221 09:00:40.762521 27951 layer_factory.hpp:77] Creating layer inception_5a/relu_1x1
I1221 09:00:40.762526 27951 net.cpp:94] Creating Layer inception_5a/relu_1x1
I1221 09:00:40.762527 27951 net.cpp:435] inception_5a/relu_1x1 <- inception_5a/1x1
I1221 09:00:40.762529 27951 net.cpp:396] inception_5a/relu_1x1 -> inception_5a/1x1 (in-place)
I1221 09:00:40.762532 27951 net.cpp:144] Setting up inception_5a/relu_1x1
I1221 09:00:40.762534 27951 net.cpp:151] Top shape: 1 256 15 30 (115200)
I1221 09:00:40.762537 27951 net.cpp:159] Memory required for data: 655948804
I1221 09:00:40.762538 27951 layer_factory.hpp:77] Creating layer inception_5a/3x3_reduce
I1221 09:00:40.762543 27951 net.cpp:94] Creating Layer inception_5a/3x3_reduce
I1221 09:00:40.762545 27951 net.cpp:435] inception_5a/3x3_reduce <- pool4/3x3_s2_pool4/3x3_s2_0_split_1
I1221 09:00:40.762548 27951 net.cpp:409] inception_5a/3x3_reduce -> inception_5a/3x3_reduce_raw
I1221 09:00:40.763401 27951 net.cpp:144] Setting up inception_5a/3x3_reduce
I1221 09:00:40.763404 27951 net.cpp:151] Top shape: 1 160 15 30 (72000)
I1221 09:00:40.763407 27951 net.cpp:159] Memory required for data: 656236804
I1221 09:00:40.763411 27951 layer_factory.hpp:77] Creating layer inception_5a/3x3_reduce_BatchNorm
I1221 09:00:40.763415 27951 net.cpp:94] Creating Layer inception_5a/3x3_reduce_BatchNorm
I1221 09:00:40.763417 27951 net.cpp:435] inception_5a/3x3_reduce_BatchNorm <- inception_5a/3x3_reduce_raw
I1221 09:00:40.763420 27951 net.cpp:409] inception_5a/3x3_reduce_BatchNorm -> inception_5a/3x3_reduce
I1221 09:00:40.763896 27951 net.cpp:144] Setting up inception_5a/3x3_reduce_BatchNorm
I1221 09:00:40.763906 27951 net.cpp:151] Top shape: 1 160 15 30 (72000)
I1221 09:00:40.763911 27951 net.cpp:159] Memory required for data: 656524804
I1221 09:00:40.763919 27951 layer_factory.hpp:77] Creating layer inception_5a/relu_3x3_reduce
I1221 09:00:40.763923 27951 net.cpp:94] Creating Layer inception_5a/relu_3x3_reduce
I1221 09:00:40.763926 27951 net.cpp:435] inception_5a/relu_3x3_reduce <- inception_5a/3x3_reduce
I1221 09:00:40.763931 27951 net.cpp:396] inception_5a/relu_3x3_reduce -> inception_5a/3x3_reduce (in-place)
I1221 09:00:40.763936 27951 net.cpp:144] Setting up inception_5a/relu_3x3_reduce
I1221 09:00:40.763938 27951 net.cpp:151] Top shape: 1 160 15 30 (72000)
I1221 09:00:40.763942 27951 net.cpp:159] Memory required for data: 656812804
I1221 09:00:40.763944 27951 layer_factory.hpp:77] Creating layer inception_5a/3x3
I1221 09:00:40.763950 27951 net.cpp:94] Creating Layer inception_5a/3x3
I1221 09:00:40.763952 27951 net.cpp:435] inception_5a/3x3 <- inception_5a/3x3_reduce
I1221 09:00:40.763957 27951 net.cpp:409] inception_5a/3x3 -> inception_5a/3x3_raw
I1221 09:00:40.767695 27951 net.cpp:144] Setting up inception_5a/3x3
I1221 09:00:40.767707 27951 net.cpp:151] Top shape: 1 320 15 30 (144000)
I1221 09:00:40.767714 27951 net.cpp:159] Memory required for data: 657388804
I1221 09:00:40.767720 27951 layer_factory.hpp:77] Creating layer inception_5a/3x3_BatchNorm
I1221 09:00:40.767730 27951 net.cpp:94] Creating Layer inception_5a/3x3_BatchNorm
I1221 09:00:40.767733 27951 net.cpp:435] inception_5a/3x3_BatchNorm <- inception_5a/3x3_raw
I1221 09:00:40.767738 27951 net.cpp:409] inception_5a/3x3_BatchNorm -> inception_5a/3x3
I1221 09:00:40.768183 27951 net.cpp:144] Setting up inception_5a/3x3_BatchNorm
I1221 09:00:40.768190 27951 net.cpp:151] Top shape: 1 320 15 30 (144000)
I1221 09:00:40.768194 27951 net.cpp:159] Memory required for data: 657964804
I1221 09:00:40.768200 27951 layer_factory.hpp:77] Creating layer inception_5a/relu_3x3
I1221 09:00:40.768205 27951 net.cpp:94] Creating Layer inception_5a/relu_3x3
I1221 09:00:40.768208 27951 net.cpp:435] inception_5a/relu_3x3 <- inception_5a/3x3
I1221 09:00:40.768210 27951 net.cpp:396] inception_5a/relu_3x3 -> inception_5a/3x3 (in-place)
I1221 09:00:40.768216 27951 net.cpp:144] Setting up inception_5a/relu_3x3
I1221 09:00:40.768218 27951 net.cpp:151] Top shape: 1 320 15 30 (144000)
I1221 09:00:40.768220 27951 net.cpp:159] Memory required for data: 658540804
I1221 09:00:40.768222 27951 layer_factory.hpp:77] Creating layer inception_5a/5x5_reduce
I1221 09:00:40.768227 27951 net.cpp:94] Creating Layer inception_5a/5x5_reduce
I1221 09:00:40.768230 27951 net.cpp:435] inception_5a/5x5_reduce <- pool4/3x3_s2_pool4/3x3_s2_0_split_2
I1221 09:00:40.768234 27951 net.cpp:409] inception_5a/5x5_reduce -> inception_5a/5x5_reduce_raw
I1221 09:00:40.768548 27951 net.cpp:144] Setting up inception_5a/5x5_reduce
I1221 09:00:40.768553 27951 net.cpp:151] Top shape: 1 32 15 30 (14400)
I1221 09:00:40.768555 27951 net.cpp:159] Memory required for data: 658598404
I1221 09:00:40.768558 27951 layer_factory.hpp:77] Creating layer inception_5a/5x5_reduce_BatchNorm
I1221 09:00:40.768563 27951 net.cpp:94] Creating Layer inception_5a/5x5_reduce_BatchNorm
I1221 09:00:40.768565 27951 net.cpp:435] inception_5a/5x5_reduce_BatchNorm <- inception_5a/5x5_reduce_raw
I1221 09:00:40.768568 27951 net.cpp:409] inception_5a/5x5_reduce_BatchNorm -> inception_5a/5x5_reduce
I1221 09:00:40.769006 27951 net.cpp:144] Setting up inception_5a/5x5_reduce_BatchNorm
I1221 09:00:40.769011 27951 net.cpp:151] Top shape: 1 32 15 30 (14400)
I1221 09:00:40.769013 27951 net.cpp:159] Memory required for data: 658656004
I1221 09:00:40.769018 27951 layer_factory.hpp:77] Creating layer inception_5a/relu_5x5_reduce
I1221 09:00:40.769021 27951 net.cpp:94] Creating Layer inception_5a/relu_5x5_reduce
I1221 09:00:40.769024 27951 net.cpp:435] inception_5a/relu_5x5_reduce <- inception_5a/5x5_reduce
I1221 09:00:40.769026 27951 net.cpp:396] inception_5a/relu_5x5_reduce -> inception_5a/5x5_reduce (in-place)
I1221 09:00:40.769030 27951 net.cpp:144] Setting up inception_5a/relu_5x5_reduce
I1221 09:00:40.769032 27951 net.cpp:151] Top shape: 1 32 15 30 (14400)
I1221 09:00:40.769034 27951 net.cpp:159] Memory required for data: 658713604
I1221 09:00:40.769037 27951 layer_factory.hpp:77] Creating layer inception_5a/5x5
I1221 09:00:40.769040 27951 net.cpp:94] Creating Layer inception_5a/5x5
I1221 09:00:40.769043 27951 net.cpp:435] inception_5a/5x5 <- inception_5a/5x5_reduce
I1221 09:00:40.769047 27951 net.cpp:409] inception_5a/5x5 -> inception_5a/5x5_raw
I1221 09:00:40.770653 27951 net.cpp:144] Setting up inception_5a/5x5
I1221 09:00:40.770658 27951 net.cpp:151] Top shape: 1 128 15 30 (57600)
I1221 09:00:40.770663 27951 net.cpp:159] Memory required for data: 658944004
I1221 09:00:40.770666 27951 layer_factory.hpp:77] Creating layer inception_5a/5x5_BatchNorm
I1221 09:00:40.770671 27951 net.cpp:94] Creating Layer inception_5a/5x5_BatchNorm
I1221 09:00:40.770673 27951 net.cpp:435] inception_5a/5x5_BatchNorm <- inception_5a/5x5_raw
I1221 09:00:40.770678 27951 net.cpp:409] inception_5a/5x5_BatchNorm -> inception_5a/5x5
I1221 09:00:40.771008 27951 net.cpp:144] Setting up inception_5a/5x5_BatchNorm
I1221 09:00:40.771013 27951 net.cpp:151] Top shape: 1 128 15 30 (57600)
I1221 09:00:40.771015 27951 net.cpp:159] Memory required for data: 659174404
I1221 09:00:40.771020 27951 layer_factory.hpp:77] Creating layer inception_5a/relu_5x5
I1221 09:00:40.771024 27951 net.cpp:94] Creating Layer inception_5a/relu_5x5
I1221 09:00:40.771026 27951 net.cpp:435] inception_5a/relu_5x5 <- inception_5a/5x5
I1221 09:00:40.771028 27951 net.cpp:396] inception_5a/relu_5x5 -> inception_5a/5x5 (in-place)
I1221 09:00:40.771032 27951 net.cpp:144] Setting up inception_5a/relu_5x5
I1221 09:00:40.771034 27951 net.cpp:151] Top shape: 1 128 15 30 (57600)
I1221 09:00:40.771036 27951 net.cpp:159] Memory required for data: 659404804
I1221 09:00:40.771039 27951 layer_factory.hpp:77] Creating layer inception_5a/pool
I1221 09:00:40.771041 27951 net.cpp:94] Creating Layer inception_5a/pool
I1221 09:00:40.771044 27951 net.cpp:435] inception_5a/pool <- pool4/3x3_s2_pool4/3x3_s2_0_split_3
I1221 09:00:40.771046 27951 net.cpp:409] inception_5a/pool -> inception_5a/pool
I1221 09:00:40.771066 27951 net.cpp:144] Setting up inception_5a/pool
I1221 09:00:40.771070 27951 net.cpp:151] Top shape: 1 832 15 30 (374400)
I1221 09:00:40.771071 27951 net.cpp:159] Memory required for data: 660902404
I1221 09:00:40.771073 27951 layer_factory.hpp:77] Creating layer inception_5a/pool_proj
I1221 09:00:40.771077 27951 net.cpp:94] Creating Layer inception_5a/pool_proj
I1221 09:00:40.771080 27951 net.cpp:435] inception_5a/pool_proj <- inception_5a/pool
I1221 09:00:40.771082 27951 net.cpp:409] inception_5a/pool_proj -> inception_5a/pool_proj_raw
I1221 09:00:40.771762 27951 net.cpp:144] Setting up inception_5a/pool_proj
I1221 09:00:40.771766 27951 net.cpp:151] Top shape: 1 128 15 30 (57600)
I1221 09:00:40.771768 27951 net.cpp:159] Memory required for data: 661132804
I1221 09:00:40.771772 27951 layer_factory.hpp:77] Creating layer inception_5a/pool_proj_BatchNorm
I1221 09:00:40.771776 27951 net.cpp:94] Creating Layer inception_5a/pool_proj_BatchNorm
I1221 09:00:40.771778 27951 net.cpp:435] inception_5a/pool_proj_BatchNorm <- inception_5a/pool_proj_raw
I1221 09:00:40.771781 27951 net.cpp:409] inception_5a/pool_proj_BatchNorm -> inception_5a/pool_proj
I1221 09:00:40.772109 27951 net.cpp:144] Setting up inception_5a/pool_proj_BatchNorm
I1221 09:00:40.772112 27951 net.cpp:151] Top shape: 1 128 15 30 (57600)
I1221 09:00:40.772114 27951 net.cpp:159] Memory required for data: 661363204
I1221 09:00:40.772120 27951 layer_factory.hpp:77] Creating layer inception_5a/relu_pool_proj
I1221 09:00:40.772125 27951 net.cpp:94] Creating Layer inception_5a/relu_pool_proj
I1221 09:00:40.772126 27951 net.cpp:435] inception_5a/relu_pool_proj <- inception_5a/pool_proj
I1221 09:00:40.772128 27951 net.cpp:396] inception_5a/relu_pool_proj -> inception_5a/pool_proj (in-place)
I1221 09:00:40.772132 27951 net.cpp:144] Setting up inception_5a/relu_pool_proj
I1221 09:00:40.772135 27951 net.cpp:151] Top shape: 1 128 15 30 (57600)
I1221 09:00:40.772138 27951 net.cpp:159] Memory required for data: 661593604
I1221 09:00:40.772141 27951 layer_factory.hpp:77] Creating layer inception_5a/output
I1221 09:00:40.772145 27951 net.cpp:94] Creating Layer inception_5a/output
I1221 09:00:40.772148 27951 net.cpp:435] inception_5a/output <- inception_5a/1x1
I1221 09:00:40.772151 27951 net.cpp:435] inception_5a/output <- inception_5a/3x3
I1221 09:00:40.772154 27951 net.cpp:435] inception_5a/output <- inception_5a/5x5
I1221 09:00:40.772157 27951 net.cpp:435] inception_5a/output <- inception_5a/pool_proj
I1221 09:00:40.772161 27951 net.cpp:409] inception_5a/output -> inception_5a/output
I1221 09:00:40.772178 27951 net.cpp:144] Setting up inception_5a/output
I1221 09:00:40.772181 27951 net.cpp:151] Top shape: 1 832 15 30 (374400)
I1221 09:00:40.772183 27951 net.cpp:159] Memory required for data: 663091204
I1221 09:00:40.772186 27951 layer_factory.hpp:77] Creating layer inception_5a/output_inception_5a/output_0_split
I1221 09:00:40.772190 27951 net.cpp:94] Creating Layer inception_5a/output_inception_5a/output_0_split
I1221 09:00:40.772192 27951 net.cpp:435] inception_5a/output_inception_5a/output_0_split <- inception_5a/output
I1221 09:00:40.772194 27951 net.cpp:409] inception_5a/output_inception_5a/output_0_split -> inception_5a/output_inception_5a/output_0_split_0
I1221 09:00:40.772198 27951 net.cpp:409] inception_5a/output_inception_5a/output_0_split -> inception_5a/output_inception_5a/output_0_split_1
I1221 09:00:40.772202 27951 net.cpp:409] inception_5a/output_inception_5a/output_0_split -> inception_5a/output_inception_5a/output_0_split_2
I1221 09:00:40.772205 27951 net.cpp:409] inception_5a/output_inception_5a/output_0_split -> inception_5a/output_inception_5a/output_0_split_3
I1221 09:00:40.772238 27951 net.cpp:144] Setting up inception_5a/output_inception_5a/output_0_split
I1221 09:00:40.772239 27951 net.cpp:151] Top shape: 1 832 15 30 (374400)
I1221 09:00:40.772243 27951 net.cpp:151] Top shape: 1 832 15 30 (374400)
I1221 09:00:40.772245 27951 net.cpp:151] Top shape: 1 832 15 30 (374400)
I1221 09:00:40.772248 27951 net.cpp:151] Top shape: 1 832 15 30 (374400)
I1221 09:00:40.772250 27951 net.cpp:159] Memory required for data: 669081604
I1221 09:00:40.772253 27951 layer_factory.hpp:77] Creating layer inception_5b/1x1
I1221 09:00:40.772256 27951 net.cpp:94] Creating Layer inception_5b/1x1
I1221 09:00:40.772258 27951 net.cpp:435] inception_5b/1x1 <- inception_5a/output_inception_5a/output_0_split_0
I1221 09:00:40.772261 27951 net.cpp:409] inception_5b/1x1 -> inception_5b/1x1_raw
I1221 09:00:40.775154 27951 net.cpp:144] Setting up inception_5b/1x1
I1221 09:00:40.775166 27951 net.cpp:151] Top shape: 1 384 15 30 (172800)
I1221 09:00:40.775169 27951 net.cpp:159] Memory required for data: 669772804
I1221 09:00:40.775174 27951 layer_factory.hpp:77] Creating layer inception_5b/1x1_BatchNorm
I1221 09:00:40.775180 27951 net.cpp:94] Creating Layer inception_5b/1x1_BatchNorm
I1221 09:00:40.775182 27951 net.cpp:435] inception_5b/1x1_BatchNorm <- inception_5b/1x1_raw
I1221 09:00:40.775187 27951 net.cpp:409] inception_5b/1x1_BatchNorm -> inception_5b/1x1
I1221 09:00:40.775599 27951 net.cpp:144] Setting up inception_5b/1x1_BatchNorm
I1221 09:00:40.775606 27951 net.cpp:151] Top shape: 1 384 15 30 (172800)
I1221 09:00:40.775611 27951 net.cpp:159] Memory required for data: 670464004
I1221 09:00:40.775619 27951 layer_factory.hpp:77] Creating layer inception_5b/relu_1x1
I1221 09:00:40.775624 27951 net.cpp:94] Creating Layer inception_5b/relu_1x1
I1221 09:00:40.775626 27951 net.cpp:435] inception_5b/relu_1x1 <- inception_5b/1x1
I1221 09:00:40.775630 27951 net.cpp:396] inception_5b/relu_1x1 -> inception_5b/1x1 (in-place)
I1221 09:00:40.775636 27951 net.cpp:144] Setting up inception_5b/relu_1x1
I1221 09:00:40.775640 27951 net.cpp:151] Top shape: 1 384 15 30 (172800)
I1221 09:00:40.775642 27951 net.cpp:159] Memory required for data: 671155204
I1221 09:00:40.775645 27951 layer_factory.hpp:77] Creating layer inception_5b/3x3_reduce
I1221 09:00:40.775650 27951 net.cpp:94] Creating Layer inception_5b/3x3_reduce
I1221 09:00:40.775655 27951 net.cpp:435] inception_5b/3x3_reduce <- inception_5a/output_inception_5a/output_0_split_1
I1221 09:00:40.775658 27951 net.cpp:409] inception_5b/3x3_reduce -> inception_5b/3x3_reduce_raw
I1221 09:00:40.777143 27951 net.cpp:144] Setting up inception_5b/3x3_reduce
I1221 09:00:40.777154 27951 net.cpp:151] Top shape: 1 192 15 30 (86400)
…
I1221 09:00:41.090324 27951 layer_factory.hpp:77] Creating layer inception_4e/relu_1x1
I1221 09:00:41.090327 27951 net.cpp:94] Creating Layer inception_4e/relu_1x1
I1221 09:00:41.090329 27951 net.cpp:435] inception_4e/relu_1x1 <- inception_4e/1x1
I1221 09:00:41.090332 27951 net.cpp:396] inception_4e/relu_1x1 -> inception_4e/1x1 (in-place)
I1221 09:00:41.090337 27951 net.cpp:144] Setting up inception_4e/relu_1x1
I1221 09:00:41.090338 27951 net.cpp:151] Top shape: 1 256 30 60 (460800)
I1221 09:00:41.090340 27951 net.cpp:159] Memory required for data: 590284804
I1221 09:00:41.090342 27951 layer_factory.hpp:77] Creating layer inception_4e/3x3_reduce
I1221 09:00:41.090346 27951 net.cpp:94] Creating Layer inception_4e/3x3_reduce
I1221 09:00:41.090348 27951 net.cpp:435] inception_4e/3x3_reduce <- inception_4d/output_inception_4d/output_fixed_0_split_1
I1221 09:00:41.090351 27951 net.cpp:409] inception_4e/3x3_reduce -> inception_4e/3x3_reduce
I1221 09:00:41.090912 27951 layer_factory.hpp:77] Creating layer inception_4e/3x3_reduce
I1221 09:00:41.092047 27951 net.cpp:144] Setting up inception_4e/3x3_reduce
I1221 09:00:41.092052 27951 net.cpp:151] Top shape: 1 160 30 60 (288000)
I1221 09:00:41.092056 27951 net.cpp:159] Memory required for data: 591436804
I1221 09:00:41.092061 27951 layer_factory.hpp:77] Creating layer inception_4e/relu_3x3_reduce
I1221 09:00:41.092065 27951 net.cpp:94] Creating Layer inception_4e/relu_3x3_reduce
I1221 09:00:41.092068 27951 net.cpp:435] inception_4e/relu_3x3_reduce <- inception_4e/3x3_reduce
I1221 09:00:41.092072 27951 net.cpp:396] inception_4e/relu_3x3_reduce -> inception_4e/3x3_reduce (in-place)
I1221 09:00:41.092074 27951 net.cpp:144] Setting up inception_4e/relu_3x3_reduce
I1221 09:00:41.092077 27951 net.cpp:151] Top shape: 1 160 30 60 (288000)
I1221 09:00:41.092078 27951 net.cpp:159] Memory required for data: 592588804
I1221 09:00:41.092080 27951 layer_factory.hpp:77] Creating layer inception_4e/3x3_reduce_fixed
I1221 09:00:41.092083 27951 net.cpp:94] Creating Layer inception_4e/3x3_reduce_fixed
I1221 09:00:41.092085 27951 net.cpp:435] inception_4e/3x3_reduce_fixed <- inception_4e/3x3_reduce
I1221 09:00:41.092087 27951 net.cpp:396] inception_4e/3x3_reduce_fixed -> inception_4e/3x3_reduce (in-place)
I1221 09:00:41.092106 27951 net.cpp:144] Setting up inception_4e/3x3_reduce_fixed
I1221 09:00:41.092108 27951 net.cpp:151] Top shape: 1 160 30 60 (288000)
I1221 09:00:41.092111 27951 net.cpp:159] Memory required for data: 593740804
I1221 09:00:41.092114 27951 layer_factory.hpp:77] Creating layer inception_4e/3x3
I1221 09:00:41.092119 27951 net.cpp:94] Creating Layer inception_4e/3x3
I1221 09:00:41.092121 27951 net.cpp:435] inception_4e/3x3 <- inception_4e/3x3_reduce
I1221 09:00:41.092126 27951 net.cpp:409] inception_4e/3x3 -> inception_4e/3x3
I1221 09:00:41.095607 27951 layer_factory.hpp:77] Creating layer inception_4e/3x3
I1221 09:00:41.100283 27951 net.cpp:144] Setting up inception_4e/3x3
I1221 09:00:41.100298 27951 net.cpp:151] Top shape: 1 320 30 60 (576000)
I1221 09:00:41.100306 27951 net.cpp:159] Memory required for data: 596044804
I1221 09:00:41.100317 27951 layer_factory.hpp:77] Creating layer inception_4e/relu_3x3
I1221 09:00:41.100323 27951 net.cpp:94] Creating Layer inception_4e/relu_3x3
I1221 09:00:41.100328 27951 net.cpp:435] inception_4e/relu_3x3 <- inception_4e/3x3
I1221 09:00:41.100334 27951 net.cpp:396] inception_4e/relu_3x3 -> inception_4e/3x3 (in-place)
I1221 09:00:41.100342 27951 net.cpp:144] Setting up inception_4e/relu_3x3
I1221 09:00:41.100343 27951 net.cpp:151] Top shape: 1 320 30 60 (576000)
I1221 09:00:41.100347 27951 net.cpp:159] Memory required for data: 598348804
I1221 09:00:41.100349 27951 layer_factory.hpp:77] Creating layer inception_4e/5x5_reduce
I1221 09:00:41.100358 27951 net.cpp:94] Creating Layer inception_4e/5x5_reduce
I1221 09:00:41.100361 27951 net.cpp:435] inception_4e/5x5_reduce <- inception_4d/output_inception_4d/output_fixed_0_split_2
I1221 09:00:41.100365 27951 net.cpp:409] inception_4e/5x5_reduce -> inception_4e/5x5_reduce
I1221 09:00:41.100672 27951 layer_factory.hpp:77] Creating layer inception_4e/5x5_reduce
I1221 09:00:41.101065 27951 net.cpp:144] Setting up inception_4e/5x5_reduce
I1221 09:00:41.101070 27951 net.cpp:151] Top shape: 1 32 30 60 (57600)
I1221 09:00:41.101074 27951 net.cpp:159] Memory required for data: 598579204
I1221 09:00:41.101078 27951 layer_factory.hpp:77] Creating layer inception_4e/relu_5x5_reduce
I1221 09:00:41.101083 27951 net.cpp:94] Creating Layer inception_4e/relu_5x5_reduce
I1221 09:00:41.101085 27951 net.cpp:435] inception_4e/relu_5x5_reduce <- inception_4e/5x5_reduce
I1221 09:00:41.101089 27951 net.cpp:396] inception_4e/relu_5x5_reduce -> inception_4e/5x5_reduce (in-place)
I1221 09:00:41.101092 27951 net.cpp:144] Setting up inception_4e/relu_5x5_reduce
I1221 09:00:41.101094 27951 net.cpp:151] Top shape: 1 32 30 60 (57600)
I1221 09:00:41.101099 27951 net.cpp:159] Memory required for data: 598809604
I1221 09:00:41.101100 27951 layer_factory.hpp:77] Creating layer inception_4e/5x5_reduce_fixed
I1221 09:00:41.101105 27951 net.cpp:94] Creating Layer inception_4e/5x5_reduce_fixed
I1221 09:00:41.101107 27951 net.cpp:435] inception_4e/5x5_reduce_fixed <- inception_4e/5x5_reduce
I1221 09:00:41.101111 27951 net.cpp:396] inception_4e/5x5_reduce_fixed -> inception_4e/5x5_reduce (in-place)
I1221 09:00:41.101135 27951 net.cpp:144] Setting up inception_4e/5x5_reduce_fixed
I1221 09:00:41.101137 27951 net.cpp:151] Top shape: 1 32 30 60 (57600)
I1221 09:00:41.101141 27951 net.cpp:159] Memory required for data: 599040004
I1221 09:00:41.101145 27951 layer_factory.hpp:77] Creating layer inception_4e/5x5
I1221 09:00:41.101150 27951 net.cpp:94] Creating Layer inception_4e/5x5
I1221 09:00:41.101152 27951 net.cpp:435] inception_4e/5x5 <- inception_4e/5x5_reduce
I1221 09:00:41.101156 27951 net.cpp:409] inception_4e/5x5 -> inception_4e/5x5
I1221 09:00:41.102155 27951 layer_factory.hpp:77] Creating layer inception_4e/5x5
I1221 09:00:41.104034 27951 net.cpp:144] Setting up inception_4e/5x5
I1221 09:00:41.104043 27951 net.cpp:151] Top shape: 1 128 30 60 (230400)
I1221 09:00:41.104048 27951 net.cpp:159] Memory required for data: 599961604
I1221 09:00:41.104054 27951 layer_factory.hpp:77] Creating layer inception_4e/relu_5x5
I1221 09:00:41.104058 27951 net.cpp:94] Creating Layer inception_4e/relu_5x5
I1221 09:00:41.104063 27951 net.cpp:435] inception_4e/relu_5x5 <- inception_4e/5x5
I1221 09:00:41.104065 27951 net.cpp:396] inception_4e/relu_5x5 -> inception_4e/5x5 (in-place)
I1221 09:00:41.104070 27951 net.cpp:144] Setting up inception_4e/relu_5x5
I1221 09:00:41.104072 27951 net.cpp:151] Top shape: 1 128 30 60 (230400)
I1221 09:00:41.104076 27951 net.cpp:159] Memory required for data: 600883204
I1221 09:00:41.104079 27951 layer_factory.hpp:77] Creating layer inception_4e/pool
I1221 09:00:41.104084 27951 net.cpp:94] Creating Layer inception_4e/pool
I1221 09:00:41.104086 27951 net.cpp:435] inception_4e/pool <- inception_4d/output_inception_4d/output_fixed_0_split_3
I1221 09:00:41.104090 27951 net.cpp:409] inception_4e/pool -> inception_4e/pool
I1221 09:00:41.104120 27951 net.cpp:144] Setting up inception_4e/pool
I1221 09:00:41.104125 27951 net.cpp:151] Top shape: 1 528 30 60 (950400)
I1221 09:00:41.104128 27951 net.cpp:159] Memory required for data: 604684804
I1221 09:00:41.104130 27951 layer_factory.hpp:77] Creating layer inception_4e/pool_proj
I1221 09:00:41.104136 27951 net.cpp:94] Creating Layer inception_4e/pool_proj
I1221 09:00:41.104138 27951 net.cpp:435] inception_4e/pool_proj <- inception_4e/pool
I1221 09:00:41.104142 27951 net.cpp:409] inception_4e/pool_proj -> inception_4e/pool_proj
I1221 09:00:41.104861 27951 layer_factory.hpp:77] Creating layer inception_4e/pool_proj
I1221 09:00:41.105684 27951 net.cpp:144] Setting up inception_4e/pool_proj
I1221 09:00:41.105691 27951 net.cpp:151] Top shape: 1 128 30 60 (230400)
I1221 09:00:41.105695 27951 net.cpp:159] Memory required for data: 605606404
I1221 09:00:41.105700 27951 layer_factory.hpp:77] Creating layer inception_4e/relu_pool_proj
I1221 09:00:41.105703 27951 net.cpp:94] Creating Layer inception_4e/relu_pool_proj
I1221 09:00:41.105706 27951 net.cpp:435] inception_4e/relu_pool_proj <- inception_4e/pool_proj
I1221 09:00:41.105710 27951 net.cpp:396] inception_4e/relu_pool_proj -> inception_4e/pool_proj (in-place)
I1221 09:00:41.105715 27951 net.cpp:144] Setting up inception_4e/relu_pool_proj
I1221 09:00:41.105716 27951 net.cpp:151] Top shape: 1 128 30 60 (230400)
I1221 09:00:41.105720 27951 net.cpp:159] Memory required for data: 606528004
I1221 09:00:41.105722 27951 layer_factory.hpp:77] Creating layer inception_4e/output
I1221 09:00:41.105727 27951 net.cpp:94] Creating Layer inception_4e/output
I1221 09:00:41.105729 27951 net.cpp:435] inception_4e/output <- inception_4e/1x1
I1221 09:00:41.105732 27951 net.cpp:435] inception_4e/output <- inception_4e/3x3
I1221 09:00:41.105736 27951 net.cpp:435] inception_4e/output <- inception_4e/5x5
I1221 09:00:41.105738 27951 net.cpp:435] inception_4e/output <- inception_4e/pool_proj
I1221 09:00:41.105741 27951 net.cpp:409] inception_4e/output -> inception_4e/output
I1221 09:00:41.105759 27951 net.cpp:144] Setting up inception_4e/output
I1221 09:00:41.105763 27951 net.cpp:151] Top shape: 1 832 30 60 (1497600)
I1221 09:00:41.105767 27951 net.cpp:159] Memory required for data: 612518404
I1221 09:00:41.105768 27951 layer_factory.hpp:77] Creating layer inception_4e/output_fixed
I1221 09:00:41.105774 27951 net.cpp:94] Creating Layer inception_4e/output_fixed
I1221 09:00:41.105777 27951 net.cpp:435] inception_4e/output_fixed <- inception_4e/output
I1221 09:00:41.105780 27951 net.cpp:396] inception_4e/output_fixed -> inception_4e/output (in-place)
I1221 09:00:41.105804 27951 net.cpp:144] Setting up inception_4e/output_fixed
I1221 09:00:41.105808 27951 net.cpp:151] Top shape: 1 832 30 60 (1497600)
I1221 09:00:41.105811 27951 net.cpp:159] Memory required for data: 618508804
I1221 09:00:41.105814 27951 layer_factory.hpp:77] Creating layer inception_4e/output_inception_4e/output_fixed_0_split
I1221 09:00:41.105819 27951 net.cpp:94] Creating Layer inception_4e/output_inception_4e/output_fixed_0_split
I1221 09:00:41.105821 27951 net.cpp:435] inception_4e/output_inception_4e/output_fixed_0_split <- inception_4e/output
I1221 09:00:41.105825 27951 net.cpp:409] inception_4e/output_inception_4e/output_fixed_0_split -> inception_4e/output_inception_4e/output_fixed_0_split_0
I1221 09:00:41.105829 27951 net.cpp:409] inception_4e/output_inception_4e/output_fixed_0_split -> inception_4e/output_inception_4e/output_fixed_0_split_1
I1221 09:00:41.105854 27951 net.cpp:144] Setting up inception_4e/output_inception_4e/output_fixed_0_split
I1221 09:00:41.105857 27951 net.cpp:151] Top shape: 1 832 30 60 (1497600)
I1221 09:00:41.105861 27951 net.cpp:151] Top shape: 1 832 30 60 (1497600)
I1221 09:00:41.105865 27951 net.cpp:159] Memory required for data: 630489604
I1221 09:00:41.105867 27951 layer_factory.hpp:77] Creating layer pool4/3x3_s2
I1221 09:00:41.105871 27951 net.cpp:94] Creating Layer pool4/3x3_s2
I1221 09:00:41.105873 27951 net.cpp:435] pool4/3x3_s2 <- inception_4e/output_inception_4e/output_fixed_0_split_0
I1221 09:00:41.105877 27951 net.cpp:409] pool4/3x3_s2 -> pool4/3x3_s2
I1221 09:00:41.105901 27951 net.cpp:144] Setting up pool4/3x3_s2
I1221 09:00:41.105904 27951 net.cpp:151] Top shape: 1 832 15 30 (374400)
I1221 09:00:41.105908 27951 net.cpp:159] Memory required for data: 631987204
I1221 09:00:41.105911 27951 layer_factory.hpp:77] Creating layer pool4/3x3_s2_pool4/3x3_s2_0_split
I1221 09:00:41.105914 27951 net.cpp:94] Creating Layer pool4/3x3_s2_pool4/3x3_s2_0_split
I1221 09:00:41.105917 27951 net.cpp:435] pool4/3x3_s2_pool4/3x3_s2_0_split <- pool4/3x3_s2
I1221 09:00:41.105921 27951 net.cpp:409] pool4/3x3_s2_pool4/3x3_s2_0_split -> pool4/3x3_s2_pool4/3x3_s2_0_split_0
I1221 09:00:41.105926 27951 net.cpp:409] pool4/3x3_s2_pool4/3x3_s2_0_split -> pool4/3x3_s2_pool4/3x3_s2_0_split_1
I1221 09:00:41.105929 27951 net.cpp:409] pool4/3x3_s2_pool4/3x3_s2_0_split -> pool4/3x3_s2_pool4/3x3_s2_0_split_2
I1221 09:00:41.105933 27951 net.cpp:409] pool4/3x3_s2_pool4/3x3_s2_0_split -> pool4/3x3_s2_pool4/3x3_s2_0_split_3
I1221 09:00:41.105973 27951 net.cpp:144] Setting up pool4/3x3_s2_pool4/3x3_s2_0_split
I1221 09:00:41.105975 27951 net.cpp:151] Top shape: 1 832 15 30 (374400)
I1221 09:00:41.105979 27951 net.cpp:151] Top shape: 1 832 15 30 (374400)
I1221 09:00:41.105983 27951 net.cpp:151] Top shape: 1 832 15 30 (374400)
I1221 09:00:41.105985 27951 net.cpp:151] Top shape: 1 832 15 30 (374400)
I1221 09:00:41.105989 27951 net.cpp:159] Memory required for data: 637977604
I1221 09:00:41.105991 27951 layer_factory.hpp:77] Creating layer inception_5a/1x1
I1221 09:00:41.105998 27951 net.cpp:94] Creating Layer inception_5a/1x1
I1221 09:00:41.105999 27951 net.cpp:435] inception_5a/1x1 <- pool4/3x3_s2_pool4/3x3_s2_0_split_0
I1221 09:00:41.106003 27951 net.cpp:409] inception_5a/1x1 -> inception_5a/1x1
I1221 09:00:41.108661 27951 layer_factory.hpp:77] Creating layer inception_5a/1x1
I1221 09:00:41.111439 27951 net.cpp:144] Setting up inception_5a/1x1
I1221 09:00:41.111449 27951 net.cpp:151] Top shape: 1 256 15 30 (115200)
I1221 09:00:41.111454 27951 net.cpp:159] Memory required for data: 638438404
I1221 09:00:41.111461 27951 layer_factory.hpp:77] Creating layer inception_5a/relu_1x1
I1221 09:00:41.111465 27951 net.cpp:94] Creating Layer inception_5a/relu_1x1
I1221 09:00:41.111469 27951 net.cpp:435] inception_5a/relu_1x1 <- inception_5a/1x1
I1221 09:00:41.111474 27951 net.cpp:396] inception_5a/relu_1x1 -> inception_5a/1x1 (in-place)
I1221 09:00:41.111479 27951 net.cpp:144] Setting up inception_5a/relu_1x1
I1221 09:00:41.111480 27951 net.cpp:151] Top shape: 1 256 15 30 (115200)
I1221 09:00:41.111485 27951 net.cpp:159] Memory required for data: 638899204
I1221 09:00:41.111486 27951 layer_factory.hpp:77] Creating layer inception_5a/3x3_reduce
I1221 09:00:41.111492 27951 net.cpp:94] Creating Layer inception_5a/3x3_reduce
I1221 09:00:41.111495 27951 net.cpp:435] inception_5a/3x3_reduce <- pool4/3x3_s2_pool4/3x3_s2_0_split_1
I1221 09:00:41.111500 27951 net.cpp:409] inception_5a/3x3_reduce -> inception_5a/3x3_reduce
I1221 09:00:41.113435 27951 layer_factory.hpp:77] Creating layer inception_5a/3x3_reduce
I1221 09:00:41.114748 27951 net.cpp:144] Setting up inception_5a/3x3_reduce
I1221 09:00:41.114754 27951 net.cpp:151] Top shape: 1 160 15 30 (72000)
I1221 09:00:41.114758 27951 net.cpp:159] Memory required for data: 639187204
I1221 09:00:41.114763 27951 layer_factory.hpp:77] Creating layer inception_5a/relu_3x3_reduce
I1221 09:00:41.114765 27951 net.cpp:94] Creating Layer inception_5a/relu_3x3_reduce
I1221 09:00:41.114768 27951 net.cpp:435] inception_5a/relu_3x3_reduce <- inception_5a/3x3_reduce
I1221 09:00:41.114770 27951 net.cpp:396] inception_5a/relu_3x3_reduce -> inception_5a/3x3_reduce (in-place)
I1221 09:00:41.114774 27951 net.cpp:144] Setting up inception_5a/relu_3x3_reduce
I1221 09:00:41.114775 27951 net.cpp:151] Top shape: 1 160 15 30 (72000)
I1221 09:00:41.114778 27951 net.cpp:159] Memory required for data: 639475204
I1221 09:00:41.114779 27951 layer_factory.hpp:77] Creating layer inception_5a/3x3_reduce_fixed
I1221 09:00:41.114784 27951 net.cpp:94] Creating Layer inception_5a/3x3_reduce_fixed
I1221 09:00:41.114785 27951 net.cpp:435] inception_5a/3x3_reduce_fixed <- inception_5a/3x3_reduce
I1221 09:00:41.114789 27951 net.cpp:396] inception_5a/3x3_reduce_fixed -> inception_5a/3x3_reduce (in-place)
I1221 09:00:41.114807 27951 net.cpp:144] Setting up inception_5a/3x3_reduce_fixed
I1221 09:00:41.114809 27951 net.cpp:151] Top shape: 1 160 15 30 (72000)
I1221 09:00:41.114812 27951 net.cpp:159] Memory required for data: 639763204
I1221 09:00:41.114814 27951 layer_factory.hpp:77] Creating layer inception_5a/3x3
I1221 09:00:41.114818 27951 net.cpp:94] Creating Layer inception_5a/3x3
I1221 09:00:41.114820 27951 net.cpp:435] inception_5a/3x3 <- inception_5a/3x3_reduce
I1221 09:00:41.114823 27951 net.cpp:409] inception_5a/3x3 -> inception_5a/3x3
I1221 09:00:41.118232 27951 layer_factory.hpp:77] Creating layer inception_5a/3x3
I1221 09:00:41.121995 27951 net.cpp:144] Setting up inception_5a/3x3
I1221 09:00:41.122004 27951 net.cpp:151] Top shape: 1 320 15 30 (144000)
I1221 09:00:41.122009 27951 net.cpp:159] Memory required for data: 640339204
I1221 09:00:41.122017 27951 layer_factory.hpp:77] Creating layer inception_5a/relu_3x3
I1221 09:00:41.122021 27951 net.cpp:94] Creating Layer inception_5a/relu_3x3
I1221 09:00:41.122025 27951 net.cpp:435] inception_5a/relu_3x3 <- inception_5a/3x3
I1221 09:00:41.122030 27951 net.cpp:396] inception_5a/relu_3x3 -> inception_5a/3x3 (in-place)
I1221 09:00:41.122035 27951 net.cpp:144] Setting up inception_5a/relu_3x3
I1221 09:00:41.122036 27951 net.cpp:151] Top shape: 1 320 15 30 (144000)
I1221 09:00:41.122040 27951 net.cpp:159] Memory required for data: 640915204
I1221 09:00:41.122040 27951 layer_factory.hpp:77] Creating layer inception_5a/5x5_reduce
I1221 09:00:41.122046 27951 net.cpp:94] Creating Layer inception_5a/5x5_reduce
I1221 09:00:41.122048 27951 net.cpp:435] inception_5a/5x5_reduce <- pool4/3x3_s2_pool4/3x3_s2_0_split_2
I1221 09:00:41.122051 27951 net.cpp:409] inception_5a/5x5_reduce -> inception_5a/5x5_reduce
I1221 09:00:41.122309 27951 layer_factory.hpp:77] Creating layer inception_5a/5x5_reduce
I1221 09:00:41.122679 27951 net.cpp:144] Setting up inception_5a/5x5_reduce
I1221 09:00:41.122684 27951 net.cpp:151] Top shape: 1 32 15 30 (14400)
I1221 09:00:41.122687 27951 net.cpp:159] Memory required for data: 640972804
I1221 09:00:41.122691 27951 layer_factory.hpp:77] Creating layer inception_5a/relu_5x5_reduce
I1221 09:00:41.122694 27951 net.cpp:94] Creating Layer inception_5a/relu_5x5_reduce
I1221 09:00:41.122696 27951 net.cpp:435] inception_5a/relu_5x5_reduce <- inception_5a/5x5_reduce
I1221 09:00:41.122699 27951 net.cpp:396] inception_5a/relu_5x5_reduce -> inception_5a/5x5_reduce (in-place)
I1221 09:00:41.122701 27951 net.cpp:144] Setting up inception_5a/relu_5x5_reduce
I1221 09:00:41.122704 27951 net.cpp:151] Top shape: 1 32 15 30 (14400)
I1221 09:00:41.122705 27951 net.cpp:159] Memory required for data: 641030404
I1221 09:00:41.122707 27951 layer_factory.hpp:77] Creating layer inception_5a/5x5_reduce_fixed
I1221 09:00:41.122711 27951 net.cpp:94] Creating Layer inception_5a/5x5_reduce_fixed
I1221 09:00:41.122714 27951 net.cpp:435] inception_5a/5x5_reduce_fixed <- inception_5a/5x5_reduce
I1221 09:00:41.122715 27951 net.cpp:396] inception_5a/5x5_reduce_fixed -> inception_5a/5x5_reduce (in-place)
I1221 09:00:41.122733 27951 net.cpp:144] Setting up inception_5a/5x5_reduce_fixed
I1221 09:00:41.122736 27951 net.cpp:151] Top shape: 1 32 15 30 (14400)
I1221 09:00:41.122738 27951 net.cpp:159] Memory required for data: 641088004
I1221 09:00:41.122741 27951 layer_factory.hpp:77] Creating layer inception_5a/5x5
I1221 09:00:41.122745 27951 net.cpp:94] Creating Layer inception_5a/5x5
I1221 09:00:41.122747 27951 net.cpp:435] inception_5a/5x5 <- inception_5a/5x5_reduce
I1221 09:00:41.122750 27951 net.cpp:409] inception_5a/5x5 -> inception_5a/5x5
I1221 09:00:41.123904 27951 layer_factory.hpp:77] Creating layer inception_5a/5x5
I1221 09:00:41.124605 27951 net.cpp:144] Setting up inception_5a/5x5
I1221 09:00:41.124609 27951 net.cpp:151] Top shape: 1 128 15 30 (57600)
I1221 09:00:41.124614 27951 net.cpp:159] Memory required for data: 641318404
I1221 09:00:41.124617 27951 layer_factory.hpp:77] Creating layer inception_5a/relu_5x5
I1221 09:00:41.124620 27951 net.cpp:94] Creating Layer inception_5a/relu_5x5
I1221 09:00:41.124622 27951 net.cpp:435] inception_5a/relu_5x5 <- inception_5a/5x5
I1221 09:00:41.124625 27951 net.cpp:396] inception_5a/relu_5x5 -> inception_5a/5x5 (in-place)
I1221 09:00:41.124629 27951 net.cpp:144] Setting up inception_5a/relu_5x5
I1221 09:00:41.124630 27951 net.cpp:151] Top shape: 1 128 15 30 (57600)
I1221 09:00:41.124632 27951 net.cpp:159] Memory required for data: 641548804
I1221 09:00:41.124634 27951 layer_factory.hpp:77] Creating layer inception_5a/pool
I1221 09:00:41.124639 27951 net.cpp:94] Creating Layer inception_5a/pool
I1221 09:00:41.124640 27951 net.cpp:435] inception_5a/pool <- pool4/3x3_s2_pool4/3x3_s2_0_split_3
I1221 09:00:41.124644 27951 net.cpp:409] inception_5a/pool -> inception_5a/pool
I1221 09:00:41.124668 27951 net.cpp:144] Setting up inception_5a/pool
I1221 09:00:41.124671 27951 net.cpp:151] Top shape: 1 832 15 30 (374400)
I1221 09:00:41.124673 27951 net.cpp:159] Memory required for data: 643046404
I1221 09:00:41.124675 27951 layer_factory.hpp:77] Creating layer inception_5a/pool_proj
I1221 09:00:41.124680 27951 net.cpp:94] Creating Layer inception_5a/pool_proj
I1221 09:00:41.124682 27951 net.cpp:435] inception_5a/pool_proj <- inception_5a/pool
I1221 09:00:41.124684 27951 net.cpp:409] inception_5a/pool_proj -> inception_5a/pool_proj
I1221 09:00:41.125316 27951 layer_factory.hpp:77] Creating layer inception_5a/pool_proj
I1221 09:00:41.126708 27951 net.cpp:144] Setting up inception_5a/pool_proj
I1221 09:00:41.126715 27951 net.cpp:151] Top shape: 1 128 15 30 (57600)
I1221 09:00:41.126719 27951 net.cpp:159] Memory required for data: 643276804
I1221 09:00:41.126729 27951 layer_factory.hpp:77] Creating layer inception_5a/relu_pool_proj
I1221 09:00:41.126732 27951 net.cpp:94] Creating Layer inception_5a/relu_pool_proj
I1221 09:00:41.126734 27951 net.cpp:435] inception_5a/relu_pool_proj <- inception_5a/pool_proj
I1221 09:00:41.126737 27951 net.cpp:396] inception_5a/relu_pool_proj -> inception_5a/pool_proj (in-place)
I1221 09:00:41.126741 27951 net.cpp:144] Setting up inception_5a/relu_pool_proj
I1221 09:00:41.126742 27951 net.cpp:151] Top shape: 1 128 15 30 (57600)
I1221 09:00:41.126745 27951 net.cpp:159] Memory required for data: 643507204
I1221 09:00:41.126746 27951 layer_factory.hpp:77] Creating layer inception_5a/output
I1221 09:00:41.126750 27951 net.cpp:94] Creating Layer inception_5a/output
I1221 09:00:41.126752 27951 net.cpp:435] inception_5a/output <- inception_5a/1x1
I1221 09:00:41.126754 27951 net.cpp:435] inception_5a/output <- inception_5a/3x3
I1221 09:00:41.126756 27951 net.cpp:435] inception_5a/output <- inception_5a/5x5
I1221 09:00:41.126758 27951 net.cpp:435] inception_5a/output <- inception_5a/pool_proj
I1221 09:00:41.126760 27951 net.cpp:409] inception_5a/output -> inception_5a/output
I1221 09:00:41.126777 27951 net.cpp:144] Setting up inception_5a/output
I1221 09:00:41.126780 27951 net.cpp:151] Top shape: 1 832 15 30 (374400)
I1221 09:00:41.126782 27951 net.cpp:159] Memory required for data: 645004804
I1221 09:00:41.126785 27951 layer_factory.hpp:77] Creating layer inception_5a/output_fixed
I1221 09:00:41.126788 27951 net.cpp:94] Creating Layer inception_5a/output_fixed
I1221 09:00:41.126791 27951 net.cpp:435] inception_5a/output_fixed <- inception_5a/output
I1221 09:00:41.126792 27951 net.cpp:396] inception_5a/output_fixed -> inception_5a/output (in-place)
I1221 09:00:41.126811 27951 net.cpp:144] Setting up inception_5a/output_fixed
I1221 09:00:41.126814 27951 net.cpp:151] Top shape: 1 832 15 30 (374400)
I1221 09:00:41.126816 27951 net.cpp:159] Memory required for data: 646502404
I1221 09:00:41.126819 27951 layer_factory.hpp:77] Creating layer inception_5a/output_inception_5a/output_fixed_0_split
I1221 09:00:41.126823 27951 net.cpp:94] Creating Layer inception_5a/output_inception_5a/output_fixed_0_split
I1221 09:00:41.126825 27951 net.cpp:435] inception_5a/output_inception_5a/output_fixed_0_split <- inception_5a/output
I1221 09:00:41.126827 27951 net.cpp:409] inception_5a/output_inception_5a/output_fixed_0_split -> inception_5a/output_inception_5a/output_fixed_0_split_0
I1221 09:00:41.126832 27951 net.cpp:409] inception_5a/output_inception_5a/output_fixed_0_split -> inception_5a/output_inception_5a/output_fixed_0_split_1
I1221 09:00:41.126834 27951 net.cpp:409] inception_5a/output_inception_5a/output_fixed_0_split -> inception_5a/output_inception_5a/output_fixed_0_split_2
I1221 09:00:41.126837 27951 net.cpp:409] inception_5a/output_inception_5a/output_fixed_0_split -> inception_5a/output_inception_5a/output_fixed_0_split_3
I1221 09:00:41.126868 27951 net.cpp:144] Setting up inception_5a/output_inception_5a/output_fixed_0_split
I1221 09:00:41.126871 27951 net.cpp:151] Top shape: 1 832 15 30 (374400)
I1221 09:00:41.126873 27951 net.cpp:151] Top shape: 1 832 15 30 (374400)
I1221 09:00:41.126875 27951 net.cpp:151] Top shape: 1 832 15 30 (374400)
I1221 09:00:41.126878 27951 net.cpp:151] Top shape: 1 832 15 30 (374400)
I1221 09:00:41.126880 27951 net.cpp:159] Memory required for data: 652492804
I1221 09:00:41.126883 27951 layer_factory.hpp:77] Creating layer inception_5b/1x1
I1221 09:00:41.126886 27951 net.cpp:94] Creating Layer inception_5b/1x1
I1221 09:00:41.126888 27951 net.cpp:435] inception_5b/1x1 <- inception_5a/output_inception_5a/output_fixed_0_split_0
I1221 09:00:41.126891 27951 net.cpp:409] inception_5b/1x1 -> inception_5b/1x1
I1221 09:00:41.129626 27951 layer_factory.hpp:77] Creating layer inception_5b/1x1
I1221 09:00:41.132439 27951 net.cpp:144] Setting up inception_5b/1x1
I1221 09:00:41.132447 27951 net.cpp:151] Top shape: 1 384 15 30 (172800)
I1221 09:00:41.132452 27951 net.cpp:159] Memory required for data: 653184004
I1221 09:00:41.132457 27951 layer_factory.hpp:77] Creating layer inception_5b/relu_1x1
I1221 09:00:41.132462 27951 net.cpp:94] Creating Layer inception_5b/relu_1x1
I1221 09:00:41.132464 27951 net.cpp:435] inception_5b/relu_1x1 <- inception_5b/1x1
I1221 09:00:41.132468 27951 net.cpp:396] inception_5b/relu_1x1 -> inception_5b/1x1 (in-place)
I1221 09:00:41.132473 27951 net.cpp:144] Setting up inception_5b/relu_1x1
I1221 09:00:41.132475 27951 net.cpp:151] Top shape: 1 384 15 30 (172800)
I1221 09:00:41.132477 27951 net.cpp:159] Memory required for data: 653875204
I1221 09:00:41.132479 27951 layer_factory.hpp:77] Creating layer inception_5b/3x3_reduce
I1221 09:00:41.132484 27951 net.cpp:94] Creating Layer inception_5b/3x3_reduce
I1221 09:00:41.132486 27951 net.cpp:435] inception_5b/3x3_reduce <- inception_5a/output_inception_5a/output_fixed_0_split_1
I1221 09:00:41.132489 27951 net.cpp:409] inception_5b/3x3_reduce -> inception_5b/3x3_reduce
I1221 09:00:41.133430 27951 layer_factory.hpp:77] Creating layer inception_5b/3x3_reduce
I1221 09:00:41.134438 27951 net.cpp:144] Setting up inception_5b/3x3_reduce
I1221 09:00:41.134441 27951 net.cpp:151] Top shape: 1 192 15 30 (86400)
I1221 09:00:41.134444 27951 net.cpp:159] Memory required for data: 654220804
I1221 09:00:41.134447 27951 layer_factory.hpp:77] Creating layer inception_5b/relu_3x3_reduce
I1221 09:00:41.134451 27951 net.cpp:94] Creating Layer inception_5b/relu_3x3_reduce
I1221 09:00:41.134454 27951 net.cpp:435] inception_5b/relu_3x3_reduce <- inception_5b/3x3_reduce
I1221 09:00:41.134455 27951 net.cpp:396] inception_5b/relu_3x3_reduce -> inception_5b/3x3_reduce (in-place)
I1221 09:00:41.134459 27951 net.cpp:144] Setting up inception_5b/relu_3x3_reduce
I1221 09:00:41.134460 27951 net.cpp:151] Top shape: 1 192 15 30 (86400)
I1221 09:00:41.134462 27951 net.cpp:159] Memory required for data: 654566404
I1221 09:00:41.134464 27951 layer_factory.hpp:77] Creating layer inception_5b/3x3_reduce_fixed
I1221 09:00:41.134469 27951 net.cpp:94] Creating Layer inception_5b/3x3_reduce_fixed
I1221 09:00:41.134469 27951 net.cpp:435] inception_5b/3x3_reduce_fixed <- inception_5b/3x3_reduce
I1221 09:00:41.134472 27951 net.cpp:396] inception_5b/3x3_reduce_fixed -> inception_5b/3x3_reduce (in-place)
I1221 09:00:41.134490 27951 net.cpp:144] Setting up inception_5b/3x3_reduce_fixed
I1221 09:00:41.134493 27951 net.cpp:151] Top shape: 1 192 15 30 (86400)
I1221 09:00:41.134495 27951 net.cpp:159] Memory required for data: 654912004
I1221 09:00:41.134497 27951 layer_factory.hpp:77] Creating layer inception_5b/3x3
I1221 09:00:41.134501 27951 net.cpp:94] Creating Layer inception_5b/3x3
I1221 09:00:41.134503 27951 net.cpp:435] inception_5b/3x3 <- inception_5b/3x3_reduce
I1221 09:00:41.134506 27951 net.cpp:409] inception_5b/3x3 -> inception_5b/3x3
I1221 09:00:41.139631 27951 layer_factory.hpp:77] Creating layer inception_5b/3x3
I1221 09:00:41.144436 27951 net.cpp:144] Setting up inception_5b/3x3
I1221 09:00:41.144446 27951 net.cpp:151] Top shape: 1 384 15 30 (172800)
I1221 09:00:41.144452 27951 net.cpp:159] Memory required for data: 655603204
I1221 09:00:41.144460 27951 layer_factory.hpp:77] Creating layer inception_5b/relu_3x3
I1221 09:00:41.144466 27951 net.cpp:94] Creating Layer inception_5b/relu_3x3
I1221 09:00:41.144470 27951 net.cpp:435] inception_5b/relu_3x3 <- inception_5b/3x3
I1221 09:00:41.144475 27951 net.cpp:396] inception_5b/relu_3x3 -> inception_5b/3x3 (in-place)
I1221 09:00:41.144481 27951 net.cpp:144] Setting up inception_5b/relu_3x3
I1221 09:00:41.144482 27951 net.cpp:151] Top shape: 1 384 15 30 (172800)
I1221 09:00:41.144485 27951 net.cpp:159] Memory required for data: 656294404
I1221 09:00:41.144486 27951 layer_factory.hpp:77] Creating layer inception_5b/5x5_reduce
I1221 09:00:41.144493 27951 net.cpp:94] Creating Layer inception_5b/5x5_reduce
I1221 09:00:41.144496 27951 net.cpp:435] inception_5b/5x5_reduce <- inception_5a/output_inception_5a/output_fixed_0_split_2
I1221 09:00:41.144500 27951 net.cpp:409] inception_5b/5x5_reduce -> inception_5b/5x5_reduce
I1221 09:00:41.144829 27951 layer_factory.hpp:77] Creating layer inception_5b/5x5_reduce
I1221 09:00:41.145246 27951 net.cpp:144] Setting up inception_5b/5x5_reduce
I1221 09:00:41.145251 27951 net.cpp:151] Top shape: 1 48 15 30 (21600)
I1221 09:00:41.145253 27951 net.cpp:159] Memory required for data: 656380804
I1221 09:00:41.145256 27951 layer_factory.hpp:77] Creating layer inception_5b/relu_5x5_reduce
I1221 09:00:41.145259 27951 net.cpp:94] Creating Layer inception_5b/relu_5x5_reduce
I1221 09:00:41.145262 27951 net.cpp:435] inception_5b/relu_5x5_reduce <- inception_5b/5x5_reduce
I1221 09:00:41.145263 27951 net.cpp:396] inception_5b/relu_5x5_reduce -> inception_5b/5x5_reduce (in-place)
I1221 09:00:41.145267 27951 net.cpp:144] Setting up inception_5b/relu_5x5_reduce
I1221 09:00:41.145268 27951 net.cpp:151] Top shape: 1 48 15 30 (21600)
I1221 09:00:41.145270 27951 net.cpp:159] Memory required for data: 656467204
I1221 09:00:41.145272 27951 layer_factory.hpp:77] Creating layer inception_5b/5x5_reduce_fixed
I1221 09:00:41.145277 27951 net.cpp:94] Creating Layer inception_5b/5x5_reduce_fixed
I1221 09:00:41.145278 27951 net.cpp:435] inception_5b/5x5_reduce_fixed <- inception_5b/5x5_reduce
I1221 09:00:41.145280 27951 net.cpp:396] inception_5b/5x5_reduce_fixed -> inception_5b/5x5_reduce (in-place)
I1221 09:00:41.145303 27951 net.cpp:144] Setting up inception_5b/5x5_reduce_fixed
I1221 09:00:41.145306 27951 net.cpp:151] Top shape: 1 48 15 30 (21600)
I1221 09:00:41.145309 27951 net.cpp:159] Memory required for data: 656553604
I1221 09:00:41.145311 27951 layer_factory.hpp:77] Creating layer inception_5b/5x5
I1221 09:00:41.145315 27951 net.cpp:94] Creating Layer inception_5b/5x5
I1221 09:00:41.145318 27951 net.cpp:435] inception_5b/5x5 <- inception_5b/5x5_reduce
I1221 09:00:41.145320 27951 net.cpp:409] inception_5b/5x5 -> inception_5b/5x5
I1221 09:00:41.146236 27951 layer_factory.hpp:77] Creating layer inception_5b/5x5
I1221 09:00:41.147755 27951 net.cpp:144] Setting up inception_5b/5x5
I1221 09:00:41.147761 27951 net.cpp:151] Top shape: 1 128 15 30 (57600)
I1221 09:00:41.147764 27951 net.cpp:159] Memory required for data: 656784004
I1221 09:00:41.147768 27951 layer_factory.hpp:77] Creating layer inception_5b/relu_5x5
I1221 09:00:41.147771 27951 net.cpp:94] Creating Layer inception_5b/relu_5x5
I1221 09:00:41.147773 27951 net.cpp:435] inception_5b/relu_5x5 <- inception_5b/5x5
I1221 09:00:41.147776 27951 net.cpp:396] inception_5b/relu_5x5 -> inception_5b/5x5 (in-place)
I1221 09:00:41.147779 27951 net.cpp:144] Setting up inception_5b/relu_5x5
I1221 09:00:41.147781 27951 net.cpp:151] Top shape: 1 128 15 30 (57600)
I1221 09:00:41.147783 27951 net.cpp:159] Memory required for data: 657014404
I1221 09:00:41.147785 27951 layer_factory.hpp:77] Creating layer inception_5b/pool
I1221 09:00:41.147789 27951 net.cpp:94] Creating Layer inception_5b/pool
I1221 09:00:41.147792 27951 net.cpp:435] inception_5b/pool <- inception_5a/output_inception_5a/output_fixed_0_split_3
I1221 09:00:41.147795 27951 net.cpp:409] inception_5b/pool -> inception_5b/pool
I1221 09:00:41.147817 27951 net.cpp:144] Setting up inception_5b/pool
I1221 09:00:41.147820 27951 net.cpp:151] Top shape: 1 832 15 30 (374400)
I1221 09:00:41.147822 27951 net.cpp:159] Memory required for data: 658512004
I1221 09:00:41.147825 27951 layer_factory.hpp:77] Creating layer inception_5b/pool_proj
I1221 09:00:41.147828 27951 net.cpp:94] Creating Layer inception_5b/pool_proj
I1221 09:00:41.147830 27951 net.cpp:435] inception_5b/pool_proj <- inception_5b/pool
I1221 09:00:41.147833 27951 net.cpp:409] inception_5b/pool_proj -> inception_5b/pool_proj
I1221 09:00:41.148458 27951 layer_factory.hpp:77] Creating layer inception_5b/pool_proj
I1221 09:00:41.149677 27951 net.cpp:144] Setting up inception_5b/pool_proj
I1221 09:00:41.149682 27951 net.cpp:151] Top shape: 1 128 15 30 (57600)
I1221 09:00:41.149685 27951 net.cpp:159] Memory required for data: 658742404
I1221 09:00:41.149690 27951 layer_factory.hpp:77] Creating layer inception_5b/relu_pool_proj
I1221 09:00:41.149693 27951 net.cpp:94] Creating Layer inception_5b/relu_pool_proj
I1221 09:00:41.149695 27951 net.cpp:435] inception_5b/relu_pool_proj <- inception_5b/pool_proj
I1221 09:00:41.149698 27951 net.cpp:396] inception_5b/relu_pool_proj -> inception_5b/pool_proj (in-place)
I1221 09:00:41.149701 27951 net.cpp:144] Setting up inception_5b/relu_pool_proj
I1221 09:00:41.149703 27951 net.cpp:151] Top shape: 1 128 15 30 (57600)
I1221 09:00:41.149705 27951 net.cpp:159] Memory required for data: 658972804
I1221 09:00:41.149706 27951 layer_factory.hpp:77] Creating layer inception_5b/output
I1221 09:00:41.149709 27951 net.cpp:94] Creating Layer inception_5b/output
I1221 09:00:41.149711 27951 net.cpp:435] inception_5b/output <- inception_5b/1x1
I1221 09:00:41.149713 27951 net.cpp:435] inception_5b/output <- inception_5b/3x3
I1221 09:00:41.149715 27951 net.cpp:435] inception_5b/output <- inception_5b/5x5
I1221 09:00:41.149718 27951 net.cpp:435] inception_5b/output <- inception_5b/pool_proj
I1221 09:00:41.149720 27951 net.cpp:409] inception_5b/output -> inception_5b/output
I1221 09:00:41.149734 27951 net.cpp:144] Setting up inception_5b/output
I1221 09:00:41.149737 27951 net.cpp:151] Top shape: 1 1024 15 30 (460800)
I1221 09:00:41.149740 27951 net.cpp:159] Memory required for data: 660816004
I1221 09:00:41.149741 27951 layer_factory.hpp:77] Creating layer inception_5b/output_fixed
I1221 09:00:41.149745 27951 net.cpp:94] Creating Layer inception_5b/output_fixed
I1221 09:00:41.149747 27951 net.cpp:435] inception_5b/output_fixed <- inception_5b/output
I1221 09:00:41.149749 27951 net.cpp:396] inception_5b/output_fixed -> inception_5b/output (in-place)
I1221 09:00:41.149768 27951 net.cpp:144] Setting up inception_5b/output_fixed
I1221 09:00:41.149770 27951 net.cpp:151] Top shape: 1 1024 15 30 (460800)
I1221 09:00:41.149773 27951 net.cpp:159] Memory required for data: 662659204
I1221 09:00:41.149775 27951 layer_factory.hpp:77] Creating layer p5
I1221 09:00:41.149780 27951 net.cpp:94] Creating Layer p5
I1221 09:00:41.149781 27951 net.cpp:435] p5 <- inception_5b/output
I1221 09:00:41.149785 27951 net.cpp:409] p5 -> p5
I1221 09:00:41.150068 27951 layer_factory.hpp:77] Creating layer p5
I1221 09:00:41.150440 27951 net.cpp:144] Setting up p5
I1221 09:00:41.150444 27951 net.cpp:151] Top shape: 1 32 15 30 (14400)
I1221 09:00:41.150447 27951 net.cpp:159] Memory required for data: 662716804
I1221 09:00:41.150450 27951 layer_factory.hpp:77] Creating layer p5_fixed
I1221 09:00:41.150454 27951 net.cpp:94] Creating Layer p5_fixed
I1221 09:00:41.150455 27951 net.cpp:435] p5_fixed <- p5
I1221 09:00:41.150458 27951 net.cpp:396] p5_fixed -> p5 (in-place)
I1221 09:00:41.150476 27951 net.cpp:144] Setting up p5_fixed
I1221 09:00:41.150478 27951 net.cpp:151] Top shape: 1 32 15 30 (14400)
I1221 09:00:41.150481 27951 net.cpp:159] Memory required for data: 662774404
I1221 09:00:41.150483 27951 layer_factory.hpp:77] Creating layer latlayer_4f
I1221 09:00:41.150487 27951 net.cpp:94] Creating Layer latlayer_4f
I1221 09:00:41.150490 27951 net.cpp:435] latlayer_4f <- inception_4e/output_inception_4e/output_fixed_0_split_1
I1221 09:00:41.150493 27951 net.cpp:409] latlayer_4f -> latlayer_4f
I1221 09:00:41.150758 27951 layer_factory.hpp:77] Creating layer latlayer_4f
I1221 09:00:41.151103 27951 net.cpp:144] Setting up latlayer_4f
I1221 09:00:41.151106 27951 net.cpp:151] Top shape: 1 32 30 60 (57600)
I1221 09:00:41.151109 27951 net.cpp:159] Memory required for data: 663004804
I1221 09:00:41.151113 27951 layer_factory.hpp:77] Creating layer latlayer_4f_fixed
I1221 09:00:41.151115 27951 net.cpp:94] Creating Layer latlayer_4f_fixed
I1221 09:00:41.151118 27951 net.cpp:435] latlayer_4f_fixed <- latlayer_4f
I1221 09:00:41.151120 27951 net.cpp:396] latlayer_4f_fixed -> latlayer_4f (in-place)
I1221 09:00:41.151140 27951 net.cpp:144] Setting up latlayer_4f_fixed
I1221 09:00:41.151144 27951 net.cpp:151] Top shape: 1 32 30 60 (57600)
I1221 09:00:41.151145 27951 net.cpp:159] Memory required for data: 663235204
I1221 09:00:41.151147 27951 layer_factory.hpp:77] Creating layer upsample_p5
I1221 09:00:41.151158 27951 net.cpp:94] Creating Layer upsample_p5
I1221 09:00:41.151161 27951 net.cpp:435] upsample_p5 <- p5
I1221 09:00:41.151165 27951 net.cpp:409] upsample_p5 -> upsample_p5
I1221 09:00:41.151338 27951 layer_factory.hpp:77] Creating layer upsample_p5
I1221 09:00:41.151566 27951 net.cpp:144] Setting up upsample_p5
I1221 09:00:41.151569 27951 net.cpp:151] Top shape: 1 32 30 60 (57600)
I1221 09:00:41.151572 27951 net.cpp:159] Memory required for data: 663465604
I1221 09:00:41.151574 27951 layer_factory.hpp:77] Creating layer upsample_p5_fixed
I1221 09:00:41.151577 27951 net.cpp:94] Creating Layer upsample_p5_fixed
I1221 09:00:41.151579 27951 net.cpp:435] upsample_p5_fixed <- upsample_p5
I1221 09:00:41.151582 27951 net.cpp:396] upsample_p5_fixed -> upsample_p5 (in-place)
I1221 09:00:41.151600 27951 net.cpp:144] Setting up upsample_p5_fixed
I1221 09:00:41.151603 27951 net.cpp:151] Top shape: 1 32 30 60 (57600)
I1221 09:00:41.151605 27951 net.cpp:159] Memory required for data: 663696004
I1221 09:00:41.151608 27951 layer_factory.hpp:77] Creating layer add_p4
I1221 09:00:41.151612 27951 net.cpp:94] Creating Layer add_p4
I1221 09:00:41.151613 27951 net.cpp:435] add_p4 <- upsample_p5
I1221 09:00:41.151615 27951 net.cpp:435] add_p4 <- latlayer_4f
I1221 09:00:41.151618 27951 net.cpp:409] add_p4 -> add_p4
I1221 09:00:41.151630 27951 net.cpp:144] Setting up add_p4
I1221 09:00:41.151638 27951 net.cpp:151] Top shape: 1 32 30 60 (57600)
I1221 09:00:41.151643 27951 net.cpp:159] Memory required for data: 663926404
I1221 09:00:41.151644 27951 layer_factory.hpp:77] Creating layer add_p4_fixed
I1221 09:00:41.151648 27951 net.cpp:94] Creating Layer add_p4_fixed
I1221 09:00:41.151650 27951 net.cpp:435] add_p4_fixed <- add_p4
I1221 09:00:41.151654 27951 net.cpp:396] add_p4_fixed -> add_p4 (in-place)
I1221 09:00:41.151684 27951 net.cpp:144] Setting up add_p4_fixed
I1221 09:00:41.151685 27951 net.cpp:151] Top shape: 1 32 30 60 (57600)
I1221 09:00:41.151688 27951 net.cpp:159] Memory required for data: 664156804
I1221 09:00:41.151691 27951 layer_factory.hpp:77] Creating layer toplayer_p4
I1221 09:00:41.151695 27951 net.cpp:94] Creating Layer toplayer_p4
I1221 09:00:41.151697 27951 net.cpp:435] toplayer_p4 <- add_p4
I1221 09:00:41.151700 27951 net.cpp:409] toplayer_p4 -> p4
I1221 09:00:41.151873 27951 layer_factory.hpp:77] Creating layer toplayer_p4
I1221 09:00:41.152135 27951 net.cpp:144] Setting up toplayer_p4
I1221 09:00:41.152140 27951 net.cpp:151] Top shape: 1 32 30 60 (57600)
I1221 09:00:41.152143 27951 net.cpp:159] Memory required for data: 664387204
I1221 09:00:41.152148 27951 layer_factory.hpp:77] Creating layer p4_fixed
I1221 09:00:41.152151 27951 net.cpp:94] Creating Layer p4_fixed
I1221 09:00:41.152153 27951 net.cpp:435] p4_fixed <- p4
I1221 09:00:41.152156 27951 net.cpp:396] p4_fixed -> p4 (in-place)
I1221 09:00:41.152175 27951 net.cpp:144] Setting up p4_fixed
I1221 09:00:41.152177 27951 net.cpp:151] Top shape: 1 32 30 60 (57600)
I1221 09:00:41.152180 27951 net.cpp:159] Memory required for data: 664617604
I1221 09:00:41.152182 27951 layer_factory.hpp:77] Creating layer latlayer_3d
I1221 09:00:41.152186 27951 net.cpp:94] Creating Layer latlayer_3d
I1221 09:00:41.152189 27951 net.cpp:435] latlayer_3d <- inception_3b/output_inception_3b/output_fixed_0_split_1
I1221 09:00:41.152192 27951 net.cpp:409] latlayer_3d -> latlayer_3d
I1221 09:00:41.152388 27951 layer_factory.hpp:77] Creating layer latlayer_3d
I1221 09:00:41.152683 27951 net.cpp:144] Setting up latlayer_3d
I1221 09:00:41.152686 27951 net.cpp:151] Top shape: 1 32 60 120 (230400)
I1221 09:00:41.152689 27951 net.cpp:159] Memory required for data: 665539204
I1221 09:00:41.152693 27951 layer_factory.hpp:77] Creating layer latlayer_3d_fixed
I1221 09:00:41.152696 27951 net.cpp:94] Creating Layer latlayer_3d_fixed
I1221 09:00:41.152698 27951 net.cpp:435] latlayer_3d_fixed <- latlayer_3d
I1221 09:00:41.152702 27951 net.cpp:396] latlayer_3d_fixed -> latlayer_3d (in-place)
I1221 09:00:41.152724 27951 net.cpp:144] Setting up latlayer_3d_fixed
I1221 09:00:41.152726 27951 net.cpp:151] Top shape: 1 32 60 120 (230400)
I1221 09:00:41.152729 27951 net.cpp:159] Memory required for data: 666460804
I1221 09:00:41.152734 27951 layer_factory.hpp:77] Creating layer upsample_p4
I1221 09:00:41.152738 27951 net.cpp:94] Creating Layer upsample_p4
I1221 09:00:41.152740 27951 net.cpp:435] upsample_p4 <- p4
I1221 09:00:41.152743 27951 net.cpp:409] upsample_p4 -> upsample_p4
I1221 09:00:41.152946 27951 layer_factory.hpp:77] Creating layer upsample_p4
I1221 09:00:41.153164 27951 net.cpp:144] Setting up upsample_p4
I1221 09:00:41.153168 27951 net.cpp:151] Top shape: 1 32 60 120 (230400)
I1221 09:00:41.153172 27951 net.cpp:159] Memory required for data: 667382404
I1221 09:00:41.153175 27951 layer_factory.hpp:77] Creating layer upsample_p4_fixed
I1221 09:00:41.153182 27951 net.cpp:94] Creating Layer upsample_p4_fixed
I1221 09:00:41.153184 27951 net.cpp:435] upsample_p4_fixed <- upsample_p4
I1221 09:00:41.153187 27951 net.cpp:396] upsample_p4_fixed -> upsample_p4 (in-place)
I1221 09:00:41.153209 27951 net.cpp:144] Setting up upsample_p4_fixed
I1221 09:00:41.153211 27951 net.cpp:151] Top shape: 1 32 60 120 (230400)
I1221 09:00:41.153214 27951 net.cpp:159] Memory required for data: 668304004
I1221 09:00:41.153218 27951 layer_factory.hpp:77] Creating layer add_p3
I1221 09:00:41.153223 27951 net.cpp:94] Creating Layer add_p3
I1221 09:00:41.153224 27951 net.cpp:435] add_p3 <- upsample_p4
I1221 09:00:41.153228 27951 net.cpp:435] add_p3 <- latlayer_3d
I1221 09:00:41.153231 27951 net.cpp:409] add_p3 -> add_p3
I1221 09:00:41.153244 27951 net.cpp:144] Setting up add_p3
I1221 09:00:41.153247 27951 net.cpp:151] Top shape: 1 32 60 120 (230400)
I1221 09:00:41.153250 27951 net.cpp:159] Memory required for data: 669225604
I1221 09:00:41.153252 27951 layer_factory.hpp:77] Creating layer add_p3_fixed
I1221 09:00:41.153256 27951 net.cpp:94] Creating Layer add_p3_fixed
I1221 09:00:41.153259 27951 net.cpp:435] add_p3_fixed <- add_p3
I1221 09:00:41.153261 27951 net.cpp:396] add_p3_fixed -> add_p3 (in-place)
I1221 09:00:41.153281 27951 net.cpp:144] Setting up add_p3_fixed
I1221 09:00:41.153285 27951 net.cpp:151] Top shape: 1 32 60 120 (230400)
I1221 09:00:41.153287 27951 net.cpp:159] Memory required for data: 670147204
I1221 09:00:41.153290 27951 layer_factory.hpp:77] Creating layer toplayer_p3
I1221 09:00:41.153295 27951 net.cpp:94] Creating Layer toplayer_p3
I1221 09:00:41.153298 27951 net.cpp:435] toplayer_p3 <- add_p3
I1221 09:00:41.153301 27951 net.cpp:409] toplayer_p3 -> p3
I1221 09:00:41.153455 27951 layer_factory.hpp:77] Creating layer toplayer_p3
I1221 09:00:41.153707 27951 net.cpp:144] Setting up toplayer_p3
I1221 09:00:41.153710 27951 net.cpp:151] Top shape: 1 32 60 120 (230400)
I1221 09:00:41.153713 27951 net.cpp:159] Memory required for data: 671068804
I1221 09:00:41.153717 27951 layer_factory.hpp:77] Creating layer p3_fixed
I1221 09:00:41.153719 27951 net.cpp:94] Creating Layer p3_fixed
I1221 09:00:41.153723 27951 net.cpp:435] p3_fixed <- p3
I1221 09:00:41.153725 27951 net.cpp:396] p3_fixed -> p3 (in-place)
I1221 09:00:41.153748 27951 net.cpp:144] Setting up p3_fixed
I1221 09:00:41.153749 27951 net.cpp:151] Top shape: 1 32 60 120 (230400)
I1221 09:00:41.153753 27951 net.cpp:159] Memory required for data: 671990404
I1221 09:00:41.153754 27951 layer_factory.hpp:77] Creating layer latlayer_2c
I1221 09:00:41.153759 27951 net.cpp:94] Creating Layer latlayer_2c
I1221 09:00:41.153761 27951 net.cpp:435] latlayer_2c <- conv2/3x3_conv2/3x3_fixed_0_split_1
I1221 09:00:41.153765 27951 net.cpp:409] latlayer_2c -> latlayer_2c
I1221 09:00:41.153900 27951 layer_factory.hpp:77] Creating layer latlayer_2c
I1221 09:00:41.154142 27951 net.cpp:144] Setting up latlayer_2c
I1221 09:00:41.154147 27951 net.cpp:151] Top shape: 1 32 120 240 (921600)
I1221 09:00:41.154150 27951 net.cpp:159] Memory required for data: 675676804
I1221 09:00:41.154153 27951 layer_factory.hpp:77] Creating layer latlayer_2c_fixed
I1221 09:00:41.154157 27951 net.cpp:94] Creating Layer latlayer_2c_fixed
I1221 09:00:41.154160 27951 net.cpp:435] latlayer_2c_fixed <- latlayer_2c
I1221 09:00:41.154161 27951 net.cpp:396] latlayer_2c_fixed -> latlayer_2c (in-place)
I1221 09:00:41.154183 27951 net.cpp:144] Setting up latlayer_2c_fixed
I1221 09:00:41.154186 27951 net.cpp:151] Top shape: 1 32 120 240 (921600)
I1221 09:00:41.154188 27951 net.cpp:159] Memory required for data: 679363204
I1221 09:00:41.154192 27951 layer_factory.hpp:77] Creating layer upsample_p3
I1221 09:00:41.154197 27951 net.cpp:94] Creating Layer upsample_p3
I1221 09:00:41.154201 27951 net.cpp:435] upsample_p3 <- p3
I1221 09:00:41.154203 27951 net.cpp:409] upsample_p3 -> upsample_p3
I1221 09:00:41.154374 27951 layer_factory.hpp:77] Creating layer upsample_p3
I1221 09:00:41.154600 27951 net.cpp:144] Setting up upsample_p3
I1221 09:00:41.154605 27951 net.cpp:151] Top shape: 1 32 120 240 (921600)
I1221 09:00:41.154608 27951 net.cpp:159] Memory required for data: 683049604
I1221 09:00:41.154610 27951 layer_factory.hpp:77] Creating layer upsample_p3_fixed
I1221 09:00:41.154614 27951 net.cpp:94] Creating Layer upsample_p3_fixed
I1221 09:00:41.154616 27951 net.cpp:435] upsample_p3_fixed <- upsample_p3
I1221 09:00:41.154618 27951 net.cpp:396] upsample_p3_fixed -> upsample_p3 (in-place)
I1221 09:00:41.154636 27951 net.cpp:144] Setting up upsample_p3_fixed
I1221 09:00:41.154639 27951 net.cpp:151] Top shape: 1 32 120 240 (921600)
I1221 09:00:41.154642 27951 net.cpp:159] Memory required for data: 686736004
I1221 09:00:41.154645 27951 layer_factory.hpp:77] Creating layer add_p2
I1221 09:00:41.154649 27951 net.cpp:94] Creating Layer add_p2
I1221 09:00:41.154650 27951 net.cpp:435] add_p2 <- upsample_p3
I1221 09:00:41.154654 27951 net.cpp:435] add_p2 <- latlayer_2c
I1221 09:00:41.154655 27951 net.cpp:409] add_p2 -> add_p2
I1221 09:00:41.154669 27951 net.cpp:144] Setting up add_p2
I1221 09:00:41.154671 27951 net.cpp:151] Top shape: 1 32 120 240 (921600)
I1221 09:00:41.154673 27951 net.cpp:159] Memory required for data: 690422404
I1221 09:00:41.154676 27951 layer_factory.hpp:77] Creating layer add_p2_fixed
I1221 09:00:41.154680 27951 net.cpp:94] Creating Layer add_p2_fixed
I1221 09:00:41.154682 27951 net.cpp:435] add_p2_fixed <- add_p2
I1221 09:00:41.154685 27951 net.cpp:396] add_p2_fixed -> add_p2 (in-place)
I1221 09:00:41.154703 27951 net.cpp:144] Setting up add_p2_fixed
I1221 09:00:41.154706 27951 net.cpp:151] Top shape: 1 32 120 240 (921600)
I1221 09:00:41.154709 27951 net.cpp:159] Memory required for data: 694108804
I1221 09:00:41.154712 27951 layer_factory.hpp:77] Creating layer toplayer_p2
I1221 09:00:41.154717 27951 net.cpp:94] Creating Layer toplayer_p2
I1221 09:00:41.154719 27951 net.cpp:435] toplayer_p2 <- add_p2
I1221 09:00:41.154721 27951 net.cpp:409] toplayer_p2 -> pred
I1221 09:00:41.154836 27951 layer_factory.hpp:77] Creating layer toplayer_p2
I1221 09:00:41.156280 27951 net.cpp:144] Setting up toplayer_p2
I1221 09:00:41.156286 27951 net.cpp:151] Top shape: 1 5 480 960 (2304000)
I1221 09:00:41.156291 27951 net.cpp:159] Memory required for data: 703324804
I1221 09:00:41.156294 27951 layer_factory.hpp:77] Creating layer pred_fixed
I1221 09:00:41.156298 27951 net.cpp:94] Creating Layer pred_fixed
I1221 09:00:41.156301 27951 net.cpp:435] pred_fixed <- pred
I1221 09:00:41.156304 27951 net.cpp:396] pred_fixed -> pred (in-place)
I1221 09:00:41.156333 27951 net.cpp:144] Setting up pred_fixed
I1221 09:00:41.156337 27951 net.cpp:151] Top shape: 1 5 480 960 (2304000)
I1221 09:00:41.156339 27951 net.cpp:159] Memory required for data: 712540804
I1221 09:00:41.156342 27951 layer_factory.hpp:77] Creating layer score
I1221 09:00:41.156345 27951 net.cpp:94] Creating Layer score
I1221 09:00:41.156347 27951 net.cpp:435] score <- pred
I1221 09:00:41.156350 27951 net.cpp:409] score -> score
I1221 09:00:41.156390 27951 net.cpp:144] Setting up score
I1221 09:00:41.156394 27951 net.cpp:151] Top shape: 1 5 480 960 (2304000)
I1221 09:00:41.156395 27951 net.cpp:159] Memory required for data: 721756804
I1221 09:00:41.156397 27951 net.cpp:222] score does not need backward computation.
I1221 09:00:41.156399 27951 net.cpp:222] pred_fixed does not need backward computation.
I1221 09:00:41.156401 27951 net.cpp:222] toplayer_p2 does not need backward computation.
I1221 09:00:41.156402 27951 net.cpp:222] add_p2_fixed does not need backward computation.
…
