…
  top: "label"
  include {
    phase: TRAIN
  }
  transform_param {
    scale: 1
    mean_value: 104
    mean_value: 117
    mean_value: 123
    resize_param {
      prob: 1
      resize_mode: WARP
      height: 384
      width: 768
    }
  }
  image_data_param {
    source: "/workspace/Vitis-AI-Tutorials/files/Segment/workspace/data/signate/signate_test_calibration.txt"
    batch_size: 1
    shuffle: true
    new_height: 384
    new_width: 768
    root_folder: "/workspace/Vitis-AI-Tutorials/files/Segment/workspace/data/signate/seg_test_images/"
  }
}
layer {
  name: "conv1/7x7_s2"
  type: "Convolution"
  bottom: "data"
  top: "conv1/7x7_s2_raw"
  param {
    lr_mult: 1
    decay_mult: 1
  }
  convolution_param {
    num_output: 64
    pad: 3
    kernel_size: 7
    stride: 2
    weight_filler {
      type: "msra"
    }
    bias_filler {
      type: "constant"
      value: 0.2
    }
  }
}
layer {
  name: "conv1/7x7_s2_BatchNorm"
  type: "BatchNorm"
  bottom: "conv1/7x7_s2_raw"
  top: "conv1/7x7_s2"
  param {
    lr_mult: 1
    decay_mult: 0
  }
  param {
    lr_mult: 1
    decay_mult: 0
  }
  param {
    lr_mult: 0
    decay_mult: 0
  }
  param {
    lr_mult: 0
    decay_mult: 0
  }
  batch_norm_param {
    use_global_stats: false
    eps: 1e-05
    scale_filler {
      type: "constant"
      value: 1
    }
    bias_filler {
      type: "constant"
      value: 0
    }
  }
}
layer {
  name: "conv1/relu_7x7"
  type: "ReLU"
  bottom: "conv1/7x7_s2"
  top: "conv1/7x7_s2"
}
layer {
  name: "pool1/3x3_s2"
  type: "Pooling"
  bottom: "conv1/7x7_s2"
  top: "pool1/3x3_s2"
  pooling_param {
    pool: MAX
    kernel_size: 3
    stride: 2
  }
}
layer {
  name: "conv2/3x3_reduce"
  type: "Convolution"
  bottom: "pool1/3x3_s2"
  top: "conv2/3x3_reduce_raw"
  param {
    lr_mult: 1
    decay_mult: 1
  }
  convolution_param {
    num_output: 64
    kernel_size: 1
    weight_filler {
      type: "msra"
    }
    bias_filler {
      type: "constant"
      value: 0.2
    }
  }
}
layer {
  name: "conv2/3x3_reduce_BatchNorm"
  type: "BatchNorm"
  bottom: "conv2/3x3_reduce_raw"
  top: "conv2/3x3_reduce"
  param {
    lr_mult: 1
    decay_mult: 0
  }
  param {
    lr_mult: 1
    decay_mult: 0
  }
  param {
    lr_mult: 0
    decay_mult: 0
  }
  param {
    lr_mult: 0
    decay_mult: 0
  }
  batch_norm_param {
    use_global_stats: false
    eps: 1e-05
    scale_filler {
      type: "constant"
      value: 1
    }
    bias_filler {
      type: "constant"
      value: 0
    }
  }
}
layer {
  name: "conv2/relu_3x3_reduce"
  type: "ReLU"
  bottom: "conv2/3x3_reduce"
  top: "conv2/3x3_reduce"
}
layer {
  name: "conv2/3x3"
  type: "Convolution"
  bottom: "conv2/3x3_reduce"
  top: "conv2/3x3_raw"
  param {
    lr_mult: 1
    decay_mult: 1
  }
  convolution_param {
    num_output: 192
    pad: 1
    kernel_size: 3
    weight_filler {
      type: "msra"
    }
    bias_filler {
      type: "constant"
      value: 0.2
    }
  }
}
layer {
  name: "conv2/3x3_BatchNorm"
  type: "BatchNorm"
  bottom: "conv2/3x3_raw"
  top: "conv2/3x3"
  param {
    lr_mult: 1
    decay_mult: 0
  }
  param {
    lr_mult: 1
    decay_mult: 0
  }
  param {
    lr_mult: 0
    decay_mult: 0
  }
  param {
    lr_mult: 0
    decay_mult: 0
  }
  batch_norm_param {
    use_global_stats: false
    eps: 1e-05
    scale_filler {
      type: "constant"
      value: 1
    }
    bias_filler {
      type: "constant"
      value: 0
    }
  }
}
layer {
  name: "conv2/relu_3x3"
  type: "ReLU"
  bottom: "conv2/3x3"
  top: "conv2/3x3"
}
layer {
  name: "pool2/3x3_s2"
  type: "Pooling"
  bottom: "conv2/3x3"
  top: "pool2/3x3_s2"
  pooling_param {
    pool: MAX
    kernel_size: 3
    stride: 2
  }
}
layer {
  name: "inception_3a/1x1"
  type: "Convolution"
  bottom: "pool2/3x3_s2"
  top: "inception_3a/1x1_raw"
  param {
    lr_mult: 1
    decay_mult: 1
  }
  convolution_param {
    num_output: 64
    kernel_size: 1
    weight_filler {
      type: "msra"
    }
    bias_filler {
      type: "constant"
      value: 0.2
    }
  }
}
layer {
  name: "inception_3a/1x1_BatchNorm"
  type: "BatchNorm"
  bottom: "inception_3a/1x1_raw"
  top: "inception_3a/1x1"
  param {
    lr_mult: 1
    decay_mult: 0
  }
  param {
    lr_mult: 1
    decay_mult: 0
  }
  param {
    lr_mult: 0
    decay_mult: 0
  }
  param {
    lr_mult: 0
    decay_mult: 0
  }
  batch_norm_param {
    use_global_stats: false
    eps: 1e-05
    scale_filler {
      type: "constant"
      value: 1
    }
    bias_filler {
      type: "constant"
      value: 0
    }
  }
}
layer {
  name: "inception_3a/relu_1x1"
  type: "ReLU"
  bottom: "inception_3a/1x1"
  top: "inception_3a/1x1"
}
layer {
  name: "inception_3a/3x3_reduce"
  type: "Convolution"
  bottom: "pool2/3x3_s2"
  top: "inception_3a/3x3_reduce_raw"
  param {
    lr_mult: 1
    decay_mult: 1
  }
  convolution_param {
    num_output: 96
    kernel_size: 1
    weight_filler {
      type: "msra"
    }
    bias_filler {
      type: "constant"
      value: 0.2
    }
  }
}
layer {
  name: "inception_3a/3x3_reduce_BatchNorm"
  type: "BatchNorm"
  bottom: "inception_3a/3x3_reduce_raw"
  top: "inception_3a/3x3_reduce"
  param {
    lr_mult: 1
    decay_mult: 0
  }
  param {
    lr_mult: 1
    decay_mult: 0
  }
  param {
    lr_mult: 0
    decay_mult: 0
  }
  param {
    lr_mult: 0
    decay_mult: 0
  }
  batch_norm_param {
    use_global_stats: false
    eps: 1e-05
    scale_filler {
      type: "constant"
      value: 1
    }
    bias_filler {
      type: "constant"
      value: 0
    }
  }
}
layer {
  name: "inception_3a/relu_3x3_reduce"
  type: "ReLU"
  bottom: "inception_3a/3x3_reduce"
  top: "inception_3a/3x3_reduce"
}
layer {
  name: "inception_3a/3x3"
  type: "Convolution"
  bottom: "inception_3a/3x3_reduce"
  top: "inception_3a/3x3_raw"
  param {
    lr_mult: 1
    decay_mult: 1
  }
  convolution_param {
    num_output: 128
    pad: 1
    kernel_size: 3
    weight_filler {
      type: "msra"
    }
    bias_filler {
      type: "constant"
      value: 0.2
    }
  }
}
layer {
  name: "inception_3a/3x3_BatchNorm"
  type: "BatchNorm"
  bottom: "inception_3a/3x3_raw"
  top: "inception_3a/3x3"
  param {
    lr_mult: 1
    decay_mult: 0
  }
  param {
    lr_mult: 1
    decay_mult: 0
  }
  param {
    lr_mult: 0
    decay_mult: 0
  }
  param {
    lr_mult: 0
    decay_mult: 0
  }
  batch_norm_param {
    use_global_stats: false
    eps: 1e-05
    scale_filler {
      type: "constant"
      value: 1
    }
    bias_filler {
      type: "constant"
      value: 0
    }
  }
}
layer {
  name: "inception_3a/relu_3x3"
  type: "ReLU"
  bottom: "inception_3a/3x3"
  top: "inception_3a/3x3"
}
layer {
  name: "inception_3a/5x5_reduce"
  type: "Convolution"
  bottom: "pool2/3x3_s2"
  top: "inception_3a/5x5_reduce_raw"
  param {
    lr_mult: 1
    decay_mult: 1
  }
  convolution_param {
    num_output: 16
    kernel_size: 1
    weight_filler {
      type: "msra"
    }
    bias_filler {
      type: "constant"
      value: 0.2
    }
  }
}
layer {
  name: "inception_3a/5x5_reduce_BatchNorm"
  type: "BatchNorm"
  bottom: "inception_3a/5x5_reduce_raw"
  top: "inception_3a/5x5_reduce"
  param {
    lr_mult: 1
    decay_mult: 0
  }
  param {
    lr_mult: 1
    decay_mult: 0
  }
  param {
    lr_mult: 0
    decay_mult: 0
  }
  param {
    lr_mult: 0
    decay_mult: 0
  }
  batch_norm_param {
    use_global_stats: false
    eps: 1e-05
    scale_filler {
      type: "constant"
      value: 1
    }
    bias_filler {
      type: "constant"
      value: 0
    }
  }
}
layer {
  name: "inception_3a/relu_5x5_reduce"
  type: "ReLU"
  bottom: "inception_3a/5x5_reduce"
  top: "inception_3a/5x5_reduce"
}
layer {
  name: "inception_3a/5x5"
  type: "Convolution"
  bottom: "inception_3a/5x5_reduce"
  top: "inception_3a/5x5_raw"
  param {
    lr_mult: 1
    decay_mult: 1
  }
  convolution_param {
    num_output: 32
    pad: 2
    kernel_size: 5
    weight_filler {
      type: "msra"
    }
    bias_filler {
      type: "constant"
      value: 0.2
    }
  }
}
layer {
  name: "inception_3a/5x5_BatchNorm"
  type: "BatchNorm"
  bottom: "inception_3a/5x5_raw"
  top: "inception_3a/5x5"
  param {
    lr_mult: 1
    decay_mult: 0
  }
  param {
    lr_mult: 1
    decay_mult: 0
  }
  param {
    lr_mult: 0
    decay_mult: 0
  }
  param {
    lr_mult: 0
    decay_mult: 0
  }
  batch_norm_param {
    use_global_stats: false
    eps: 1e-05
    scale_filler {
      type: "constant"
      value: 1
    }
    bias_filler {
      type: "constant"
      value: 0
    }
  }
}
layer {
  name: "inception_3a/relu_5x5"
  type: "ReLU"
  bottom: "inception_3a/5x5"
  top: "inception_3a/5x5"
}
layer {
  name: "inception_3a/pool"
  type: "Pooling"
  bottom: "pool2/3x3_s2"
  top: "inception_3a/pool"
  pooling_param {
    pool: MAX
    kernel_size: 3
    stride: 1
    pad: 1
  }
}
layer {
  name: "inception_3a/pool_proj"
  type: "Convolution"
  bottom: "inception_3a/pool"
  top: "inception_3a/pool_proj_raw"
  param {
    lr_mult: 1
    decay_mult: 1
  }
  convolution_param {
    num_output: 32
    kernel_size: 1
    weight_filler {
      type: "msra"
    }
    bias_filler {
      type: "constant"
      value: 0.2
    }
  }
}
layer {
  name: "inception_3a/pool_proj_BatchNorm"
  type: "BatchNorm"
  bottom: "inception_3a/pool_proj_raw"
  top: "inception_3a/pool_proj"
  param {
    lr_mult: 1
    decay_mult: 0
  }
  param {
    lr_mult: 1
    decay_mult: 0
  }
  param {
    lr_mult: 0
    decay_mult: 0
  }
  param {
    lr_mult: 0
    decay_mult: 0
  }
  batch_norm_param {
    use_global_stats: false
    eps: 1e-05
    scale_filler {
      type: "constant"
      value: 1
    }
    bias_filler {
      type: "constant"
      value: 0
    }
  }
}
layer {
  name: "inception_3a/relu_pool_proj"
  type: "ReLU"
  bottom: "inception_3a/pool_proj"
  top: "inception_3a/pool_proj"
}
layer {
  name: "inception_3a/output"
  type: "Concat"
  bottom: "inception_3a/1x1"
  bottom: "inception_3a/3x3"
  bottom: "inception_3a/5x5"
  bottom: "inception_3a/pool_proj"
  top: "inception_3a/output"
}
layer {
  name: "inception_3b/1x1"
  type: "Convolution"
  bottom: "inception_3a/output"
  top: "inception_3b/1x1_raw"
  param {
    lr_mult: 1
    decay_mult: 1
  }
  convolution_param {
    num_output: 128
    kernel_size: 1
    weight_filler {
      type: "msra"
    }
    bias_filler {
      type: "constant"
      value: 0.2
    }
  }
}
layer {
  name: "inception_3b/1x1_BatchNorm"
  type: "BatchNorm"
  bottom: "inception_3b/1x1_raw"
  top: "inception_3b/1x1"
  param {
    lr_mult: 1
    decay_mult: 0
  }
  param {
    lr_mult: 1
    decay_mult: 0
  }
  param {
    lr_mult: 0
    decay_mult: 0
  }
  param {
    lr_mult: 0
    decay_mult: 0
  }
  batch_norm_param {
    use_global_stats: false
    eps: 1e-05
    scale_filler {
      type: "constant"
      value: 1
    }
    bias_filler {
      type: "constant"
      value: 0
    }
  }
}
layer {
  name: "inception_3b/relu_1x1"
  type: "ReLU"
  bottom: "inception_3b/1x1"
  top: "inception_3b/1x1"
}
layer {
  name: "inception_3b/3x3_reduce"
  type: "Convolution"
  bottom: "inception_3a/output"
  top: "inception_3b/3x3_reduce_raw"
  param {
    lr_mult: 1
    decay_mult: 1
  }
  convolution_param {
    num_output: 128
    kernel_size: 1
    weight_filler {
      type: "msra"
    }
    bias_filler {
      type: "constant"
      value: 0.2
    }
  }
}
layer {
  name: "inception_3b/3x3_reduce_BatchNorm"
  type: "BatchNorm"
  bottom: "inception_3b/3x3_reduce_raw"
  top: "inception_3b/3x3_reduce"
  param {
    lr_mult: 1
    decay_mult: 0
  }
  param {
    lr_mult: 1
    decay_mult: 0
  }
  param {
    lr_mult: 0
    decay_mult: 0
  }
  param {
    lr_mult: 0
    decay_mult: 0
  }
  batch_norm_param {
    use_global_stats: false
    eps: 1e-05
    scale_filler {
      type: "constant"
      value: 1
    }
    bias_filler {
      type: "constant"
      value: 0
    }
  }
}
layer {
  name: "inception_3b/relu_3x3_reduce"
  type: "ReLU"
  bottom: "inception_3b/3x3_reduce"
  top: "inception_3b/3x3_reduce"
}
layer {
  name: "inception_3b/3x3"
  type: "Convolution"
  bottom: "inception_3b/3x3_reduce"
  top: "inception_3b/3x3_raw"
  param {
    lr_mult: 1
    decay_mult: 1
  }
  convolution_param {
    num_output: 192
    pad: 1
    kernel_size: 3
    weight_filler {
      type: "msra"
    }
    bias_filler {
      type: "constant"
      value: 0.2
    }
  }
}
layer {
  name: "inception_3b/3x3_BatchNorm"
  type: "BatchNorm"
  bottom: "inception_3b/3x3_raw"
  top: "inception_3b/3x3"
  param {
    lr_mult: 1
    decay_mult: 0
  }
  param {
    lr_mult: 1
    decay_mult: 0
  }
  param {
    lr_mult: 0
    decay_mult: 0
  }
  param {
    lr_mult: 0
    decay_mult: 0
  }
  batch_norm_param {
    use_global_stats: false
    eps: 1e-05
    scale_filler {
      type: "constant"
      value: 1
    }
    bias_filler {
      type: "constant"
      value: 0
    }
  }
}
layer {
  name: "inception_3b/relu_3x3"
  type: "ReLU"
  bottom: "inception_3b/3x3"
  top: "inception_3b/3x3"
}
layer {
  name: "inception_3b/5x5_reduce"
  type: "Convolution"
  bottom: "inception_3a/output"
  top: "inception_3b/5x5_reduce_raw"
  param {
    lr_mult: 1
    decay_mult: 1
  }
  convolution_param {
    num_output: 32
    kernel_size: 1
    weight_filler {
      type: "msra"
    }
    bias_filler {
      type: "constant"
      value: 0.2
    }
  }
}
layer {
  name: "inception_3b/5x5_reduce_BatchNorm"
  type: "BatchNorm"
  bottom: "inception_3b/5x5_reduce_raw"
  top: "inception_3b/5x5_reduce"
  param {
    lr_mult: 1
    decay_mult: 0
  }
  param {
    lr_mult: 1
    decay_mult: 0
  }
  param {
    lr_mult: 0
    decay_mult: 0
  }
  param {
    lr_mult: 0
    decay_mult: 0
  }
  batch_norm_param {
    use_global_stats: false
    eps: 1e-05
    scale_filler {
      type: "constant"
      value: 1
    }
    bias_filler {
      type: "constant"
      value: 0
    }
  }
}
layer {
  name: "inception_3b/relu_5x5_reduce"
  type: "ReLU"
  bottom: "inception_3b/5x5_reduce"
  top: "inception_3b/5x5_reduce"
}
layer {
  name: "inception_3b/5x5"
  type: "Convolution"
  bottom: "inception_3b/5x5_reduce"
  top: "inception_3b/5x5_raw"
  param {
    lr_mult: 1
    decay_mult: 1
  }
  convolution_param {
    num_output: 96
    pad: 2
    kernel_size: 5
    weight_filler {
      type: "msra"
    }
    bias_filler {
      type: "constant"
      value: 0.2
    }
  }
}
layer {
  name: "inception_3b/5x5_BatchNorm"
  type: "BatchNorm"
  bottom: "inception_3b/5x5_raw"
  top: "inception_3b/5x5"
  param {
    lr_mult: 1
    decay_mult: 0
  }
  param {
    lr_mult: 1
    decay_mult: 0
  }
  param {
    lr_mult: 0
    decay_mult: 0
  }
  param {
    lr_mult: 0
    decay_mult: 0
  }
  batch_norm_param {
    use_global_stats: false
    eps: 1e-05
    scale_filler {
      type: "constant"
      value: 1
    }
    bias_filler {
      type: "constant"
      value: 0
    }
  }
}
layer {
  name: "inception_3b/relu_5x5"
  type: "ReLU"
  bottom: "inception_3b/5x5"
  top: "inception_3b/5x5"
}
layer {
  name: "inception_3b/pool"
  type: "Pooling"
  bottom: "inception_3a/output"
  top: "inception_3b/pool"
  pooling_param {
    pool: MAX
    kernel_size: 3
    stride: 1
    pad: 1
  }
}
layer {
  name: "inception_3b/pool_proj"
  type: "Convolution"
  bottom: "inception_3b/pool"
  top: "inception_3b/pool_proj_raw"
  param {
    lr_mult: 1
    decay_mult: 1
  }
  convolution_param {
    num_output: 64
    kernel_size: 1
    weight_filler {
      type: "msra"
    }
    bias_filler {
      type: "constant"
      value: 0.2
    }
  }
}
layer {
  name: "inception_3b/pool_proj_BatchNorm"
  type: "BatchNorm"
  bottom: "inception_3b/pool_proj_raw"
  top: "inception_3b/pool_proj"
  param {
    lr_mult: 1
    decay_mult: 0
  }
  param {
    lr_mult: 1
    decay_mult: 0
  }
  param {
    lr_mult: 0
    decay_mult: 0
  }
  param {
    lr_mult: 0
    decay_mult: 0
  }
  batch_norm_param {
    use_global_stats: false
    eps: 1e-05
    scale_filler {
      type: "constant"
      value: 1
    }
    bias_filler {
      type: "constant"
      value: 0
    }
  }
}
layer {
  name: "inception_3b/relu_pool_proj"
  type: "ReLU"
  bottom: "inception_3b/pool_proj"
  top: "inception_3b/pool_proj"
}
layer {
  name: "inception_3b/output"
  type: "Concat"
  bottom: "inception_3b/1x1"
  bottom: "inception_3b/3x3"
  bottom: "inception_3b/5x5"
  bottom: "inception_3b/pool_proj"
  top: "inception_3b/output"
}
layer {
  name: "pool3/3x3_s2"
  type: "Pooling"
  bottom: "inception_3b/output"
  top: "pool3/3x3_s2"
  pooling_param {
    pool: MAX
    kernel_size: 3
    stride: 2
  }
}
layer {
  name: "inception_4a/1x1"
  type: "Convolution"
  bottom: "pool3/3x3_s2"
  top: "inception_4a/1x1_raw"
  param {
    lr_mult: 1
    decay_mult: 1
  }
  convolution_param {
    num_output: 192
    kernel_size: 1
    weight_filler {
      type: "msra"
    }
    bias_filler {
      type: "constant"
      value: 0.2
    }
  }
}
layer {
  name: "inception_4a/1x1_BatchNorm"
  type: "BatchNorm"
  bottom: "inception_4a/1x1_raw"
  top: "inception_4a/1x1"
  param {
    lr_mult: 1
    decay_mult: 0
  }
  param {
    lr_mult: 1
    decay_mult: 0
  }
  param {
    lr_mult: 0
    decay_mult: 0
  }
  param {
    lr_mult: 0
    decay_mult: 0
  }
  batch_norm_param {
    use_global_stats: false
    eps: 1e-05
    scale_filler {
      type: "constant"
      value: 1
    }
    bias_filler {
      type: "constant"
      value: 0
    }
  }
}
layer {
  name: "inception_4a/relu_1x1"
  type: "ReLU"
  bottom: "inception_4a/1x1"
  top: "inception_4a/1x1"
}
layer {
  name: "inception_4a/3x3_reduce"
  type: "Convolution"
  bottom: "pool3/3x3_s2"
  top: "inception_4a/3x3_reduce_raw"
  param {
    lr_mult: 1
    decay_mult: 1
  }
  convolution_param {
    num_output: 96
    kernel_size: 1
    weight_filler {
      type: "msra"
    }
    bias_filler {
      type: "constant"
      value: 0.2
    }
  }
}
layer {
  name: "inception_4a/3x3_reduce_BatchNorm"
  type: "BatchNorm"
  bottom: "inception_4a/3x3_reduce_raw"
  top: "inception_4a/3x3_reduce"
  param {
    lr_mult: 1
    decay_mult: 0
  }
  param {
    lr_mult: 1
    decay_mult: 0
  }
  param {
    lr_mult: 0
    decay_mult: 0
  }
  param {
    lr_mult: 0
    decay_mult: 0
  }
  batch_norm_param {
    use_global_stats: false
    eps: 1e-05
    scale_filler {
      type: "constant"
      value: 1
    }
    bias_filler {
      type: "constant"
      value: 0
    }
  }
}
layer {
  name: "inception_4a/relu_3x3_reduce"
  type: "ReLU"
  bottom: "inception_4a/3x3_reduce"
  top: "inception_4a/3x3_reduce"
}
layer {
  name: "inception_4a/3x3"
  type: "Convolution"
  bottom: "inception_4a/3x3_reduce"
  top: "inception_4a/3x3_raw"
  param {
    lr_mult: 1
    decay_mult: 1
  }
  convolution_param {
    num_output: 208
    pad: 1
    kernel_size: 3
    weight_filler {
      type: "msra"
    }
    bias_filler {
      type: "constant"
      value: 0.2
    }
  }
}
layer {
  name: "inception_4a/3x3_BatchNorm"
  type: "BatchNorm"
  bottom: "inception_4a/3x3_raw"
  top: "inception_4a/3x3"
  param {
    lr_mult: 1
    decay_mult: 0
  }
  param {
    lr_mult: 1
    decay_mult: 0
  }
  param {
    lr_mult: 0
    decay_mult: 0
  }
  param {
    lr_mult: 0
    decay_mult: 0
  }
  batch_norm_param {
    use_global_stats: false
    eps: 1e-05
    scale_filler {
      type: "constant"
      value: 1
    }
    bias_filler {
      type: "constant"
      value: 0
    }
  }
}
layer {
  name: "inception_4a/relu_3x3"
  type: "ReLU"
  bottom: "inception_4a/3x3"
  top: "inception_4a/3x3"
}
layer {
  name: "inception_4a/5x5_reduce"
  type: "Convolution"
  bottom: "pool3/3x3_s2"
  top: "inception_4a/5x5_reduce_raw"
  param {
    lr_mult: 1
    decay_mult: 1
  }
  convolution_param {
    num_output: 16
    kernel_size: 1
    weight_filler {
      type: "msra"
    }
    bias_filler {
      type: "constant"
      value: 0.2
    }
  }
}
layer {
  name: "inception_4a/5x5_reduce_BatchNorm"
  type: "BatchNorm"
  bottom: "inception_4a/5x5_reduce_raw"
  top: "inception_4a/5x5_reduce"
  param {
    lr_mult: 1
    decay_mult: 0
  }
  param {
    lr_mult: 1
    decay_mult: 0
  }
  param {
    lr_mult: 0
    decay_mult: 0
  }
  param {
    lr_mult: 0
    decay_mult: 0
  }
  batch_norm_param {
    use_global_stats: false
    eps: 1e-05
    scale_filler {
      type: "constant"
      value: 1
    }
    bias_filler {
      type: "constant"
      value: 0
    }
  }
}
layer {
  name: "inception_4a/relu_5x5_reduce"
  type: "ReLU"
  bottom: "inception_4a/5x5_reduce"
  top: "inception_4a/5x5_reduce"
}
layer {
  name: "inception_4a/5x5"
  type: "Convolution"
  bottom: "inception_4a/5x5_reduce"
  top: "inception_4a/5x5_raw"
  param {
    lr_mult: 1
    decay_mult: 1
  }
  convolution_param {
    num_output: 48
    pad: 2
    kernel_size: 5
    weight_filler {
      type: "msra"
    }
    bias_filler {
      type: "constant"
      value: 0.2
    }
  }
}
layer {
  name: "inception_4a/5x5_BatchNorm"
  type: "BatchNorm"
  bottom: "inception_4a/5x5_raw"
  top: "inception_4a/5x5"
  param {
    lr_mult: 1
    decay_mult: 0
  }
  param {
    lr_mult: 1
    decay_mult: 0
  }
  param {
    lr_mult: 0
    decay_mult: 0
  }
  param {
    lr_mult: 0
    decay_mult: 0
  }
  batch_norm_param {
    use_global_stats: false
    eps: 1e-05
    scale_filler {
      type: "constant"
      value: 1
    }
    bias_filler {
      type: "constant"
      value: 0
    }
  }
}
layer {
  name: "inception_4a/relu_5x5"
  type: "ReLU"
  bottom: "inception_4a/5x5"
  top: "inception_4a/5x5"
}
layer {
  name: "inception_4a/pool"
  type: "Pooling"
  bottom: "pool3/3x3_s2"
  top: "inception_4a/pool"
  pooling_param {
    pool: MAX
    kernel_size: 3
    stride: 1
    pad: 1
  }
}
layer {
  name: "inception_4a/pool_proj"
  type: "Convolution"
  bottom: "inception_4a/pool"
  top: "inception_4a/pool_proj_raw"
  param {
    lr_mult: 1
    decay_mult: 1
  }
  convolution_param {
    num_output: 64
    kernel_size: 1
    weight_filler {
      type: "msra"
    }
    bias_filler {
      type: "constant"
      value: 0.2
    }
  }
}
layer {
  name: "inception_4a/pool_proj_BatchNorm"
  type: "BatchNorm"
  bottom: "inception_4a/pool_proj_raw"
  top: "inception_4a/pool_proj"
  param {
    lr_mult: 1
    decay_mult: 0
  }
  param {
    lr_mult: 1
    decay_mult: 0
  }
  param {
    lr_mult: 0
    decay_mult: 0
  }
  param {
    lr_mult: 0
    decay_mult: 0
  }
  batch_norm_param {
    use_global_stats: false
    eps: 1e-05
    scale_filler {
      type: "constant"
      value: 1
    }
    bias_filler {
      type: "constant"
      value: 0
    }
  }
}
layer {
  name: "inception_4a/relu_pool_proj"
  type: "ReLU"
  bottom: "inception_4a/pool_proj"
  top: "inception_4a/pool_proj"
}
layer {
  name: "inception_4a/output"
  type: "Concat"
  bottom: "inception_4a/1x1"
  bottom: "inception_4a/3x3"
  bottom: "inception_4a/5x5"
  bottom: "inception_4a/pool_proj"
  top: "inception_4a/output"
}
layer {
  name: "inception_4b/1x1"
  type: "Convolution"
  bottom: "inception_4a/output"
  top: "inception_4b/1x1_raw"
  param {
    lr_mult: 1
    decay_mult: 1
  }
  convolution_param {
    num_output: 160
    kernel_size: 1
    weight_filler {
      type: "msra"
    }
    bias_filler {
      type: "constant"
      value: 0.2
    }
  }
}
layer {
  name: "inception_4b/1x1_BatchNorm"
  type: "BatchNorm"
  bottom: "inception_4b/1x1_raw"
  top: "inception_4b/1x1"
  param {
    lr_mult: 1
    decay_mult: 0
  }
  param {
    lr_mult: 1
    decay_mult: 0
  }
  param {
    lr_mult: 0
    decay_mult: 0
  }
  param {
    lr_mult: 0
    decay_mult: 0
  }
  batch_norm_param {
    use_global_stats: false
    eps: 1e-05
    scale_filler {
      type: "constant"
      value: 1
    }
    bias_filler {
      type: "constant"
      value: 0
    }
  }
}
layer {
  name: "inception_4b/relu_1x1"
  type: "ReLU"
  bottom: "inception_4b/1x1"
  top: "inception_4b/1x1"
}
layer {
  name: "inception_4b/3x3_reduce"
  type: "Convolution"
  bottom: "inception_4a/output"
  top: "inception_4b/3x3_reduce_raw"
  param {
    lr_mult: 1
    decay_mult: 1
  }
  convolution_param {
    num_output: 112
    kernel_size: 1
    weight_filler {
      type: "msra"
    }
    bias_filler {
      type: "constant"
      value: 0.2
    }
  }
}
layer {
  name: "inception_4b/3x3_reduce_BatchNorm"
  type: "BatchNorm"
  bottom: "inception_4b/3x3_reduce_raw"
  top: "inception_4b/3x3_reduce"
  param {
    lr_mult: 1
    decay_mult: 0
  }
  param {
    lr_mult: 1
    decay_mult: 0
  }
  param {
    lr_mult: 0
    decay_mult: 0
  }
  param {
    lr_mult: 0
    decay_mult: 0
  }
  batch_norm_param {
    use_global_stats: false
    eps: 1e-05
    scale_filler {
      type: "constant"
      value: 1
    }
    bias_filler {
      type: "constant"
      value: 0
    }
  }
}
layer {
  name: "inception_4b/relu_3x3_reduce"
  type: "ReLU"
  bottom: "inception_4b/3x3_reduce"
  top: "inception_4b/3x3_reduce"
}
layer {
  name: "inception_4b/3x3"
  type: "Convolution"
  bottom: "inception_4b/3x3_reduce"
  top: "inception_4b/3x3_raw"
  param {
    lr_mult: 1
    decay_mult: 1
  }
  convolution_param {
    num_output: 224
    pad: 1
    kernel_size: 3
    weight_filler {
      type: "msra"
    }
    bias_filler {
      type: "constant"
      value: 0.2
    }
  }
}
layer {
  name: "inception_4b/3x3_BatchNorm"
  type: "BatchNorm"
  bottom: "inception_4b/3x3_raw"
  top: "inception_4b/3x3"
  param {
    lr_mult: 1
    decay_mult: 0
  }
  param {
    lr_mult: 1
    decay_mult: 0
  }
  param {
    lr_mult: 0
    decay_mult: 0
  }
  param {
    lr_mult: 0
    decay_mult: 0
  }
  batch_norm_param {
    use_global_stats: false
    eps: 1e-05
    scale_filler {
      type: "constant"
      value: 1
    }
    bias_filler {
      type: "constant"
      value: 0
    }
  }
}
layer {
  name: "inception_4b/relu_3x3"
  type: "ReLU"
  bottom: "inception_4b/3x3"
  top: "inception_4b/3x3"
}
layer {
  name: "inception_4b/5x5_reduce"
  type: "Convolution"
  bottom: "inception_4a/output"
  top: "inception_4b/5x5_reduce_raw"
  param {
    lr_mult: 1
    decay_mult: 1
  }
  convolution_param {
    num_output: 24
    kernel_size: 1
    weight_filler {
      type: "msra"
    }
    bias_filler {
      type: "constant"
      value: 0.2
    }
  }
}
layer {
  name: "inception_4b/5x5_reduce_BatchNorm"
  type: "BatchNorm"
  bottom: "inception_4b/5x5_reduce_raw"
  top: "inception_4b/5x5_reduce"
  param {
    lr_mult: 1
    decay_mult: 0
  }
  param {
    lr_mult: 1
    decay_mult: 0
  }
  param {
    lr_mult: 0
    decay_mult: 0
  }
  param {
    lr_mult: 0
    decay_mult: 0
  }
  batch_norm_param {
    use_global_stats: false
    eps: 1e-05
    scale_filler {
      type: "constant"
      value: 1
    }
    bias_filler {
      type: "constant"
      value: 0
    }
  }
}
layer {
  name: "inception_4b/relu_5x5_reduce"
  type: "ReLU"
  bottom: "inception_4b/5x5_reduce"
  top: "inception_4b/5x5_reduce"
}
layer {
  name: "inception_4b/5x5"
  type: "Convolution"
  bottom: "inception_4b/5x5_reduce"
  top: "inception_4b/5x5_raw"
  param {
    lr_mult: 1
    decay_mult: 1
  }
  convolution_param {
    num_output: 64
    pad: 2
    kernel_size: 5
    weight_filler {
      type: "msra"
    }
    bias_filler {
      type: "constant"
      value: 0.2
    }
  }
}
layer {
  name: "inception_4b/5x5_BatchNorm"
  type: "BatchNorm"
  bottom: "inception_4b/5x5_raw"
  top: "inception_4b/5x5"
  param {
    lr_mult: 1
    decay_mult: 0
  }
  param {
    lr_mult: 1
    decay_mult: 0
  }
  param {
    lr_mult: 0
    decay_mult: 0
  }
  param {
    lr_mult: 0
    decay_mult: 0
  }
  batch_norm_param {
    use_global_stats: false
    eps: 1e-05
    scale_filler {
      type: "constant"
      value: 1
    }
    bias_filler {
      type: "constant"
      value: 0
    }
  }
}
layer {
  name: "inception_4b/relu_5x5"
  type: "ReLU"
  bottom: "inception_4b/5x5"
  top: "inception_4b/5x5"
}
layer {
  name: "inception_4b/pool"
  type: "Pooling"
  bottom: "inception_4a/output"
  top: "inception_4b/pool"
  pooling_param {
    pool: MAX
    kernel_size: 3
    stride: 1
    pad: 1
  }
}
layer {
  name: "inception_4b/pool_proj"
  type: "Convolution"
  bottom: "inception_4b/pool"
  top: "inception_4b/pool_proj_raw"
  param {
    lr_mult: 1
    decay_mult: 1
  }
  convolution_param {
    num_output: 64
    kernel_size: 1
    weight_filler {
      type: "msra"
    }
    bias_filler {
      type: "constant"
      value: 0.2
    }
  }
}
layer {
  name: "inception_4b/pool_proj_BatchNorm"
  type: "BatchNorm"
  bottom: "inception_4b/pool_proj_raw"
  top: "inception_4b/pool_proj"
  param {
    lr_mult: 1
    decay_mult: 0
  }
  param {
    lr_mult: 1
    decay_mult: 0
  }
  param {
    lr_mult: 0
    decay_mult: 0
  }
  param {
    lr_mult: 0
    decay_mult: 0
  }
  batch_norm_param {
    use_global_stats: false
    eps: 1e-05
    scale_filler {
      type: "constant"
      value: 1
    }
    bias_filler {
      type: "constant"
      value: 0
    }
  }
}
layer {
  name: "inception_4b/relu_pool_proj"
  type: "ReLU"
  bottom: "inception_4b/pool_proj"
  top: "inception_4b/pool_proj"
}
layer {
  name: "inception_4b/output"
  type: "Concat"
  bottom: "inception_4b/1x1"
  bottom: "inception_4b/3x3"
  bottom: "inception_4b/5x5"
  bottom: "inception_4b/pool_proj"
  top: "inception_4b/output"
}
layer {
  name: "inception_4c/1x1"
  type: "Convolution"
  bottom: "inception_4b/output"
  top: "inception_4c/1x1_raw"
  param {
    lr_mult: 1
    decay_mult: 1
  }
  convolution_param {
    num_output: 128
    kernel_size: 1
    weight_filler {
      type: "msra"
    }
    bias_filler {
      type: "constant"
      value: 0.2
    }
  }
}
layer {
  name: "inception_4c/1x1_BatchNorm"
  type: "BatchNorm"
  bottom: "inception_4c/1x1_raw"
  top: "inception_4c/1x1"
  param {
    lr_mult: 1
    decay_mult: 0
  }
  param {
    lr_mult: 1
    decay_mult: 0
  }
  param {
    lr_mult: 0
    decay_mult: 0
  }
  param {
   
I1226 02:45:35.649379  7883 layer_factory.hpp:77] Creating layer data
I1226 02:45:35.649399  7883 net.cpp:94] Creating Layer data
I1226 02:45:35.649402  7883 net.cpp:409] data -> data
I1226 02:45:35.649415  7883 net.cpp:409] data -> label
I1226 02:45:35.649422  7883 image_data_layer.cpp:41] Opening file /workspace/Vitis-AI-Tutorials/files/Segment/workspace/data/signate/signate_test_calibration.txt
I1226 02:45:35.649617  7883 image_data_layer.cpp:51] Shuffling data
I1226 02:45:35.649732  7883 image_data_layer.cpp:56] A total of 649 images.
I1226 02:45:35.685799  7883 image_data_layer.cpp:84] output data size: 1,3,384,768
I1226 02:45:35.701337  7883 internal_thread.cpp:27] Starting internal thread(s) on GPU 0
I1226 02:45:35.701432  7883 net.cpp:144] Setting up data
I1226 02:45:35.701436  7883 net.cpp:151] Top shape: 1 3 384 768 (884736)
I1226 02:45:35.701447  7883 net.cpp:151] Top shape: 1 (1)
I1226 02:45:35.701449  7883 net.cpp:159] Memory required for data: 3538948
I1226 02:45:35.701453  7883 layer_factory.hpp:77] Creating layer conv1/7x7_s2
I1226 02:45:35.701469  7883 net.cpp:94] Creating Layer conv1/7x7_s2
I1226 02:45:35.701473  7883 net.cpp:435] conv1/7x7_s2 <- data
I1226 02:45:35.701480  7883 net.cpp:409] conv1/7x7_s2 -> conv1/7x7_s2_raw
I1226 02:45:35.702054  7883 net.cpp:144] Setting up conv1/7x7_s2
I1226 02:45:35.702059  7883 net.cpp:151] Top shape: 1 64 192 384 (4718592)
I1226 02:45:35.702061  7883 net.cpp:159] Memory required for data: 22413316
I1226 02:45:35.702080  7883 layer_factory.hpp:77] Creating layer conv1/7x7_s2_BatchNorm
I1226 02:45:35.702085  7883 net.cpp:94] Creating Layer conv1/7x7_s2_BatchNorm
I1226 02:45:35.702088  7883 net.cpp:435] conv1/7x7_s2_BatchNorm <- conv1/7x7_s2_raw
I1226 02:45:35.702091  7883 net.cpp:409] conv1/7x7_s2_BatchNorm -> conv1/7x7_s2
I1226 02:45:35.702482  7883 net.cpp:144] Setting up conv1/7x7_s2_BatchNorm
I1226 02:45:35.702488  7883 net.cpp:151] Top shape: 1 64 192 384 (4718592)
I1226 02:45:35.702491  7883 net.cpp:159] Memory required for data: 41287684
I1226 02:45:35.702497  7883 layer_factory.hpp:77] Creating layer conv1/relu_7x7
I1226 02:45:35.702502  7883 net.cpp:94] Creating Layer conv1/relu_7x7
I1226 02:45:35.702503  7883 net.cpp:435] conv1/relu_7x7 <- conv1/7x7_s2
I1226 02:45:35.702505  7883 net.cpp:396] conv1/relu_7x7 -> conv1/7x7_s2 (in-place)
I1226 02:45:35.702513  7883 net.cpp:144] Setting up conv1/relu_7x7
I1226 02:45:35.702515  7883 net.cpp:151] Top shape: 1 64 192 384 (4718592)
I1226 02:45:35.702518  7883 net.cpp:159] Memory required for data: 60162052
I1226 02:45:35.702524  7883 layer_factory.hpp:77] Creating layer pool1/3x3_s2
I1226 02:45:35.702533  7883 net.cpp:94] Creating Layer pool1/3x3_s2
I1226 02:45:35.702536  7883 net.cpp:435] pool1/3x3_s2 <- conv1/7x7_s2
I1226 02:45:35.702540  7883 net.cpp:409] pool1/3x3_s2 -> pool1/3x3_s2
I1226 02:45:35.702581  7883 net.cpp:144] Setting up pool1/3x3_s2
I1226 02:45:35.702587  7883 net.cpp:151] Top shape: 1 64 96 192 (1179648)
I1226 02:45:35.702591  7883 net.cpp:159] Memory required for data: 64880644
I1226 02:45:35.702594  7883 layer_factory.hpp:77] Creating layer conv2/3x3_reduce
I1226 02:45:35.702600  7883 net.cpp:94] Creating Layer conv2/3x3_reduce
I1226 02:45:35.702601  7883 net.cpp:435] conv2/3x3_reduce <- pool1/3x3_s2
I1226 02:45:35.702605  7883 net.cpp:409] conv2/3x3_reduce -> conv2/3x3_reduce_raw
I1226 02:45:35.702821  7883 net.cpp:144] Setting up conv2/3x3_reduce
I1226 02:45:35.702827  7883 net.cpp:151] Top shape: 1 64 96 192 (1179648)
I1226 02:45:35.702831  7883 net.cpp:159] Memory required for data: 69599236
I1226 02:45:35.702837  7883 layer_factory.hpp:77] Creating layer conv2/3x3_reduce_BatchNorm
I1226 02:45:35.702843  7883 net.cpp:94] Creating Layer conv2/3x3_reduce_BatchNorm
I1226 02:45:35.702850  7883 net.cpp:435] conv2/3x3_reduce_BatchNorm <- conv2/3x3_reduce_raw
I1226 02:45:35.702854  7883 net.cpp:409] conv2/3x3_reduce_BatchNorm -> conv2/3x3_reduce
I1226 02:45:35.703419  7883 net.cpp:144] Setting up conv2/3x3_reduce_BatchNorm
I1226 02:45:35.703426  7883 net.cpp:151] Top shape: 1 64 96 192 (1179648)
I1226 02:45:35.703431  7883 net.cpp:159] Memory required for data: 74317828
I1226 02:45:35.703440  7883 layer_factory.hpp:77] Creating layer conv2/relu_3x3_reduce
I1226 02:45:35.703446  7883 net.cpp:94] Creating Layer conv2/relu_3x3_reduce
I1226 02:45:35.703449  7883 net.cpp:435] conv2/relu_3x3_reduce <- conv2/3x3_reduce
I1226 02:45:35.703455  7883 net.cpp:396] conv2/relu_3x3_reduce -> conv2/3x3_reduce (in-place)
I1226 02:45:35.703460  7883 net.cpp:144] Setting up conv2/relu_3x3_reduce
I1226 02:45:35.703464  7883 net.cpp:151] Top shape: 1 64 96 192 (1179648)
I1226 02:45:35.703467  7883 net.cpp:159] Memory required for data: 79036420
I1226 02:45:35.703469  7883 layer_factory.hpp:77] Creating layer conv2/3x3
I1226 02:45:35.703476  7883 net.cpp:94] Creating Layer conv2/3x3
I1226 02:45:35.703480  7883 net.cpp:435] conv2/3x3 <- conv2/3x3_reduce
I1226 02:45:35.703485  7883 net.cpp:409] conv2/3x3 -> conv2/3x3_raw
I1226 02:45:35.704809  7883 net.cpp:144] Setting up conv2/3x3
I1226 02:45:35.704816  7883 net.cpp:151] Top shape: 1 192 96 192 (3538944)
I1226 02:45:35.704820  7883 net.cpp:159] Memory required for data: 93192196
I1226 02:45:35.704826  7883 layer_factory.hpp:77] Creating layer conv2/3x3_BatchNorm
I1226 02:45:35.704833  7883 net.cpp:94] Creating Layer conv2/3x3_BatchNorm
I1226 02:45:35.704835  7883 net.cpp:435] conv2/3x3_BatchNorm <- conv2/3x3_raw
I1226 02:45:35.704840  7883 net.cpp:409] conv2/3x3_BatchNorm -> conv2/3x3
I1226 02:45:35.705302  7883 net.cpp:144] Setting up conv2/3x3_BatchNorm
I1226 02:45:35.705309  7883 net.cpp:151] Top shape: 1 192 96 192 (3538944)
I1226 02:45:35.705313  7883 net.cpp:159] Memory required for data: 107347972
I1226 02:45:35.705322  7883 layer_factory.hpp:77] Creating layer conv2/relu_3x3
I1226 02:45:35.705325  7883 net.cpp:94] Creating Layer conv2/relu_3x3
I1226 02:45:35.705327  7883 net.cpp:435] conv2/relu_3x3 <- conv2/3x3
I1226 02:45:35.705330  7883 net.cpp:396] conv2/relu_3x3 -> conv2/3x3 (in-place)
I1226 02:45:35.705335  7883 net.cpp:144] Setting up conv2/relu_3x3
I1226 02:45:35.705338  7883 net.cpp:151] Top shape: 1 192 96 192 (3538944)
I1226 02:45:35.705340  7883 net.cpp:159] Memory required for data: 121503748
I1226 02:45:35.705343  7883 layer_factory.hpp:77] Creating layer conv2/3x3_conv2/relu_3x3_0_split
I1226 02:45:35.705351  7883 net.cpp:94] Creating Layer conv2/3x3_conv2/relu_3x3_0_split
I1226 02:45:35.705354  7883 net.cpp:435] conv2/3x3_conv2/relu_3x3_0_split <- conv2/3x3
I1226 02:45:35.705358  7883 net.cpp:409] conv2/3x3_conv2/relu_3x3_0_split -> conv2/3x3_conv2/relu_3x3_0_split_0
I1226 02:45:35.705363  7883 net.cpp:409] conv2/3x3_conv2/relu_3x3_0_split -> conv2/3x3_conv2/relu_3x3_0_split_1
I1226 02:45:35.705385  7883 net.cpp:144] Setting up conv2/3x3_conv2/relu_3x3_0_split
I1226 02:45:35.705389  7883 net.cpp:151] Top shape: 1 192 96 192 (3538944)
I1226 02:45:35.705392  7883 net.cpp:151] Top shape: 1 192 96 192 (3538944)
I1226 02:45:35.705395  7883 net.cpp:159] Memory required for data: 149815300
I1226 02:45:35.705397  7883 layer_factory.hpp:77] Creating layer pool2/3x3_s2
I1226 02:45:35.705401  7883 net.cpp:94] Creating Layer pool2/3x3_s2
I1226 02:45:35.705404  7883 net.cpp:435] pool2/3x3_s2 <- conv2/3x3_conv2/relu_3x3_0_split_0
I1226 02:45:35.705407  7883 net.cpp:409] pool2/3x3_s2 -> pool2/3x3_s2
I1226 02:45:35.705428  7883 net.cpp:144] Setting up pool2/3x3_s2
I1226 02:45:35.705431  7883 net.cpp:151] Top shape: 1 192 48 96 (884736)
I1226 02:45:35.705435  7883 net.cpp:159] Memory required for data: 153354244
I1226 02:45:35.705437  7883 layer_factory.hpp:77] Creating layer pool2/3x3_s2_pool2/3x3_s2_0_split
I1226 02:45:35.705440  7883 net.cpp:94] Creating Layer pool2/3x3_s2_pool2/3x3_s2_0_split
I1226 02:45:35.705442  7883 net.cpp:435] pool2/3x3_s2_pool2/3x3_s2_0_split <- pool2/3x3_s2
I1226 02:45:35.705446  7883 net.cpp:409] pool2/3x3_s2_pool2/3x3_s2_0_split -> pool2/3x3_s2_pool2/3x3_s2_0_split_0
I1226 02:45:35.705451  7883 net.cpp:409] pool2/3x3_s2_pool2/3x3_s2_0_split -> pool2/3x3_s2_pool2/3x3_s2_0_split_1
I1226 02:45:35.705453  7883 net.cpp:409] pool2/3x3_s2_pool2/3x3_s2_0_split -> pool2/3x3_s2_pool2/3x3_s2_0_split_2
I1226 02:45:35.705457  7883 net.cpp:409] pool2/3x3_s2_pool2/3x3_s2_0_split -> pool2/3x3_s2_pool2/3x3_s2_0_split_3
I1226 02:45:35.705492  7883 net.cpp:144] Setting up pool2/3x3_s2_pool2/3x3_s2_0_split
I1226 02:45:35.705497  7883 net.cpp:151] Top shape: 1 192 48 96 (884736)
I1226 02:45:35.705500  7883 net.cpp:151] Top shape: 1 192 48 96 (884736)
I1226 02:45:35.705504  7883 net.cpp:151] Top shape: 1 192 48 96 (884736)
I1226 02:45:35.705507  7883 net.cpp:151] Top shape: 1 192 48 96 (884736)
I1226 02:45:35.705510  7883 net.cpp:159] Memory required for data: 167510020
I1226 02:45:35.705513  7883 layer_factory.hpp:77] Creating layer inception_3a/1x1
I1226 02:45:35.705519  7883 net.cpp:94] Creating Layer inception_3a/1x1
I1226 02:45:35.705523  7883 net.cpp:435] inception_3a/1x1 <- pool2/3x3_s2_pool2/3x3_s2_0_split_0
I1226 02:45:35.705526  7883 net.cpp:409] inception_3a/1x1 -> inception_3a/1x1_raw
I1226 02:45:35.706768  7883 net.cpp:144] Setting up inception_3a/1x1
I1226 02:45:35.706777  7883 net.cpp:151] Top shape: 1 64 48 96 (294912)
I1226 02:45:35.706780  7883 net.cpp:159] Memory required for data: 168689668
I1226 02:45:35.706786  7883 layer_factory.hpp:77] Creating layer inception_3a/1x1_BatchNorm
I1226 02:45:35.706794  7883 net.cpp:94] Creating Layer inception_3a/1x1_BatchNorm
I1226 02:45:35.706795  7883 net.cpp:435] inception_3a/1x1_BatchNorm <- inception_3a/1x1_raw
I1226 02:45:35.706800  7883 net.cpp:409] inception_3a/1x1_BatchNorm -> inception_3a/1x1
I1226 02:45:35.707226  7883 net.cpp:144] Setting up inception_3a/1x1_BatchNorm
I1226 02:45:35.707233  7883 net.cpp:151] Top shape: 1 64 48 96 (294912)
I1226 02:45:35.707237  7883 net.cpp:159] Memory required for data: 169869316
I1226 02:45:35.707244  7883 layer_factory.hpp:77] Creating layer inception_3a/relu_1x1
I1226 02:45:35.707249  7883 net.cpp:94] Creating Layer inception_3a/relu_1x1
I1226 02:45:35.707252  7883 net.cpp:435] inception_3a/relu_1x1 <- inception_3a/1x1
I1226 02:45:35.707255  7883 net.cpp:396] inception_3a/relu_1x1 -> inception_3a/1x1 (in-place)
I1226 02:45:35.707259  7883 net.cpp:144] Setting up inception_3a/relu_1x1
I1226 02:45:35.707262  7883 net.cpp:151] Top shape: 1 64 48 96 (294912)
I1226 02:45:35.707264  7883 net.cpp:159] Memory required for data: 171048964
I1226 02:45:35.707267  7883 layer_factory.hpp:77] Creating layer inception_3a/3x3_reduce
I1226 02:45:35.707273  7883 net.cpp:94] Creating Layer inception_3a/3x3_reduce
I1226 02:45:35.707276  7883 net.cpp:435] inception_3a/3x3_reduce <- pool2/3x3_s2_pool2/3x3_s2_0_split_1
I1226 02:45:35.707280  7883 net.cpp:409] inception_3a/3x3_reduce -> inception_3a/3x3_reduce_raw
I1226 02:45:35.707628  7883 net.cpp:144] Setting up inception_3a/3x3_reduce
I1226 02:45:35.707635  7883 net.cpp:151] Top shape: 1 96 48 96 (442368)
I1226 02:45:35.707638  7883 net.cpp:159] Memory required for data: 172818436
I1226 02:45:35.707643  7883 layer_factory.hpp:77] Creating layer inception_3a/3x3_reduce_BatchNorm
I1226 02:45:35.707646  7883 net.cpp:94] Creating Layer inception_3a/3x3_reduce_BatchNorm
I1226 02:45:35.707648  7883 net.cpp:435] inception_3a/3x3_reduce_BatchNorm <- inception_3a/3x3_reduce_raw
I1226 02:45:35.707651  7883 net.cpp:409] inception_3a/3x3_reduce_BatchNorm -> inception_3a/3x3_reduce
I1226 02:45:35.708012  7883 net.cpp:144] Setting up inception_3a/3x3_reduce_BatchNorm
I1226 02:45:35.708017  7883 net.cpp:151] Top shape: 1 96 48 96 (442368)
I1226 02:45:35.708020  7883 net.cpp:159] Memory required for data: 174587908
I1226 02:45:35.708029  7883 layer_factory.hpp:77] Creating layer inception_3a/relu_3x3_reduce
I1226 02:45:35.708031  7883 net.cpp:94] Creating Layer inception_3a/relu_3x3_reduce
I1226 02:45:35.708034  7883 net.cpp:435] inception_3a/relu_3x3_reduce <- inception_3a/3x3_reduce
I1226 02:45:35.708035  7883 net.cpp:396] inception_3a/relu_3x3_reduce -> inception_3a/3x3_reduce (in-place)
I1226 02:45:35.708039  7883 net.cpp:144] Setting up inception_3a/relu_3x3_reduce
I1226 02:45:35.708040  7883 net.cpp:151] Top shape: 1 96 48 96 (442368)
I1226 02:45:35.708043  7883 net.cpp:159] Memory required for data: 176357380
I1226 02:45:35.708045  7883 layer_factory.hpp:77] Creating layer inception_3a/3x3
I1226 02:45:35.708048  7883 net.cpp:94] Creating Layer inception_3a/3x3
I1226 02:45:35.708050  7883 net.cpp:435] inception_3a/3x3 <- inception_3a/3x3_reduce
I1226 02:45:35.708053  7883 net.cpp:409] inception_3a/3x3 -> inception_3a/3x3_raw
I1226 02:45:35.709247  7883 net.cpp:144] Setting up inception_3a/3x3
I1226 02:45:35.709254  7883 net.cpp:151] Top shape: 1 128 48 96 (589824)
I1226 02:45:35.709259  7883 net.cpp:159] Memory required for data: 178716676
I1226 02:45:35.709264  7883 layer_factory.hpp:77] Creating layer inception_3a/3x3_BatchNorm
I1226 02:45:35.709270  7883 net.cpp:94] Creating Layer inception_3a/3x3_BatchNorm
I1226 02:45:35.709272  7883 net.cpp:435] inception_3a/3x3_BatchNorm <- inception_3a/3x3_raw
I1226 02:45:35.709276  7883 net.cpp:409] inception_3a/3x3_BatchNorm -> inception_3a/3x3
I1226 02:45:35.709717  7883 net.cpp:144] Setting up inception_3a/3x3_BatchNorm
I1226 02:45:35.709722  7883 net.cpp:151] Top shape: 1 128 48 96 (589824)
I1226 02:45:35.709726  7883 net.cpp:159] Memory required for data: 181075972
I1226 02:45:35.709733  7883 layer_factory.hpp:77] Creating layer inception_3a/relu_3x3
I1226 02:45:35.709738  7883 net.cpp:94] Creating Layer inception_3a/relu_3x3
I1226 02:45:35.709740  7883 net.cpp:435] inception_3a/relu_3x3 <- inception_3a/3x3
I1226 02:45:35.709744  7883 net.cpp:396] inception_3a/relu_3x3 -> inception_3a/3x3 (in-place)
I1226 02:45:35.709748  7883 net.cpp:144] Setting up inception_3a/relu_3x3
I1226 02:45:35.709751  7883 net.cpp:151] Top shape: 1 128 48 96 (589824)
I1226 02:45:35.709754  7883 net.cpp:159] Memory required for data: 183435268
I1226 02:45:35.709756  7883 layer_factory.hpp:77] Creating layer inception_3a/5x5_reduce
I1226 02:45:35.709762  7883 net.cpp:94] Creating Layer inception_3a/5x5_reduce
I1226 02:45:35.709765  7883 net.cpp:435] inception_3a/5x5_reduce <- pool2/3x3_s2_pool2/3x3_s2_0_split_2
I1226 02:45:35.709769  7883 net.cpp:409] inception_3a/5x5_reduce -> inception_3a/5x5_reduce_raw
I1226 02:45:35.710000  7883 net.cpp:144] Setting up inception_3a/5x5_reduce
I1226 02:45:35.710005  7883 net.cpp:151] Top shape: 1 16 48 96 (73728)
I1226 02:45:35.710007  7883 net.cpp:159] Memory required for data: 183730180
I1226 02:45:35.710012  7883 layer_factory.hpp:77] Creating layer inception_3a/5x5_reduce_BatchNorm
I1226 02:45:35.710018  7883 net.cpp:94] Creating Layer inception_3a/5x5_reduce_BatchNorm
I1226 02:45:35.710021  7883 net.cpp:435] inception_3a/5x5_reduce_BatchNorm <- inception_3a/5x5_reduce_raw
I1226 02:45:35.710024  7883 net.cpp:409] inception_3a/5x5_reduce_BatchNorm -> inception_3a/5x5_reduce
I1226 02:45:35.710484  7883 net.cpp:144] Setting up inception_3a/5x5_reduce_BatchNorm
I1226 02:45:35.710490  7883 net.cpp:151] Top shape: 1 16 48 96 (73728)
I1226 02:45:35.710494  7883 net.cpp:159] Memory required for data: 184025092
I1226 02:45:35.710501  7883 layer_factory.hpp:77] Creating layer inception_3a/relu_5x5_reduce
I1226 02:45:35.710505  7883 net.cpp:94] Creating Layer inception_3a/relu_5x5_reduce
I1226 02:45:35.710508  7883 net.cpp:435] inception_3a/relu_5x5_reduce <- inception_3a/5x5_reduce
I1226 02:45:35.710511  7883 net.cpp:396] inception_3a/relu_5x5_reduce -> inception_3a/5x5_reduce (in-place)
I1226 02:45:35.710515  7883 net.cpp:144] Setting up inception_3a/relu_5x5_reduce
I1226 02:45:35.710518  7883 net.cpp:151] Top shape: 1 16 48 96 (73728)
I1226 02:45:35.710522  7883 net.cpp:159] Memory required for data: 184320004
I1226 02:45:35.710525  7883 layer_factory.hpp:77] Creating layer inception_3a/5x5
I1226 02:45:35.710532  7883 net.cpp:94] Creating Layer inception_3a/5x5
I1226 02:45:35.710536  7883 net.cpp:435] inception_3a/5x5 <- inception_3a/5x5_reduce
I1226 02:45:35.710539  7883 net.cpp:409] inception_3a/5x5 -> inception_3a/5x5_raw
I1226 02:45:35.711012  7883 net.cpp:144] Setting up inception_3a/5x5
I1226 02:45:35.711030  7883 net.cpp:151] Top shape: 1 32 48 96 (147456)
I1226 02:45:35.711040  7883 net.cpp:159] Memory required for data: 184909828
I1226 02:45:35.711050  7883 layer_factory.hpp:77] Creating layer inception_3a/5x5_BatchNorm
I1226 02:45:35.711061  7883 net.cpp:94] Creating Layer inception_3a/5x5_BatchNorm
I1226 02:45:35.711064  7883 net.cpp:435] inception_3a/5x5_BatchNorm <- inception_3a/5x5_raw
I1226 02:45:35.711071  7883 net.cpp:409] inception_3a/5x5_BatchNorm -> inception_3a/5x5
I1226 02:45:35.711511  7883 net.cpp:144] Setting up inception_3a/5x5_BatchNorm
I1226 02:45:35.711517  7883 net.cpp:151] Top shape: 1 32 48 96 (147456)
I1226 02:45:35.711520  7883 net.cpp:159] Memory required for data: 185499652
I1226 02:45:35.711526  7883 layer_factory.hpp:77] Creating layer inception_3a/relu_5x5
I1226 02:45:35.711530  7883 net.cpp:94] Creating Layer inception_3a/relu_5x5
I1226 02:45:35.711532  7883 net.cpp:435] inception_3a/relu_5x5 <- inception_3a/5x5
I1226 02:45:35.711536  7883 net.cpp:396] inception_3a/relu_5x5 -> inception_3a/5x5 (in-place)
I1226 02:45:35.711540  7883 net.cpp:144] Setting up inception_3a/relu_5x5
I1226 02:45:35.711542  7883 net.cpp:151] Top shape: 1 32 48 96 (147456)
I1226 02:45:35.711544  7883 net.cpp:159] Memory required for data: 186089476
I1226 02:45:35.711546  7883 layer_factory.hpp:77] Creating layer inception_3a/pool
I1226 02:45:35.711550  7883 net.cpp:94] Creating Layer inception_3a/pool
I1226 02:45:35.711553  7883 net.cpp:435] inception_3a/pool <- pool2/3x3_s2_pool2/3x3_s2_0_split_3
I1226 02:45:35.711556  7883 net.cpp:409] inception_3a/pool -> inception_3a/pool
I1226 02:45:35.711575  7883 net.cpp:144] Setting up inception_3a/pool
I1226 02:45:35.711578  7883 net.cpp:151] Top shape: 1 192 48 96 (884736)
I1226 02:45:35.711580  7883 net.cpp:159] Memory required for data: 189628420
I1226 02:45:35.711582  7883 layer_factory.hpp:77] Creating layer inception_3a/pool_proj
I1226 02:45:35.711587  7883 net.cpp:94] Creating Layer inception_3a/pool_proj
I1226 02:45:35.711589  7883 net.cpp:435] inception_3a/pool_proj <- inception_3a/pool
I1226 02:45:35.711592  7883 net.cpp:409] inception_3a/pool_proj -> inception_3a/pool_proj_raw
I1226 02:45:35.711789  7883 net.cpp:144] Setting up inception_3a/pool_proj
I1226 02:45:35.711792  7883 net.cpp:151] Top shape: 1 32 48 96 (147456)
I1226 02:45:35.711796  7883 net.cpp:159] Memory required for data: 190218244
I1226 02:45:35.711798  7883 layer_factory.hpp:77] Creating layer inception_3a/pool_proj_BatchNorm
I1226 02:45:35.711804  7883 net.cpp:94] Creating Layer inception_3a/pool_proj_BatchNorm
I1226 02:45:35.711805  7883 net.cpp:435] inception_3a/pool_proj_BatchNorm <- inception_3a/pool_proj_raw
I1226 02:45:35.711808  7883 net.cpp:409] inception_3a/pool_proj_BatchNorm -> inception_3a/pool_proj
I1226 02:45:35.712182  7883 net.cpp:144] Setting up inception_3a/pool_proj_BatchNorm
I1226 02:45:35.712188  7883 net.cpp:151] Top shape: 1 32 48 96 (147456)
I1226 02:45:35.712190  7883 net.cpp:159] Memory required for data: 190808068
I1226 02:45:35.712198  7883 layer_factory.hpp:77] Creating layer inception_3a/relu_pool_proj
I1226 02:45:35.712203  7883 net.cpp:94] Creating Layer inception_3a/relu_pool_proj
I1226 02:45:35.712206  7883 net.cpp:435] inception_3a/relu_pool_proj <- inception_3a/pool_proj
I1226 02:45:35.712210  7883 net.cpp:396] inception_3a/relu_pool_proj -> inception_3a/pool_proj (in-place)
I1226 02:45:35.712214  7883 net.cpp:144] Setting up inception_3a/relu_pool_proj
I1226 02:45:35.712216  7883 net.cpp:151] Top shape: 1 32 48 96 (147456)
I1226 02:45:35.712220  7883 net.cpp:159] Memory required for data: 191397892
I1226 02:45:35.712222  7883 layer_factory.hpp:77] Creating layer inception_3a/output
I1226 02:45:35.712234  7883 net.cpp:94] Creating Layer inception_3a/output
I1226 02:45:35.712239  7883 net.cpp:435] inception_3a/output <- inception_3a/1x1
I1226 02:45:35.712241  7883 net.cpp:435] inception_3a/output <- inception_3a/3x3
I1226 02:45:35.712244  7883 net.cpp:435] inception_3a/output <- inception_3a/5x5
I1226 02:45:35.712245  7883 net.cpp:435] inception_3a/output <- inception_3a/pool_proj
I1226 02:45:35.712247  7883 net.cpp:409] inception_3a/output -> inception_3a/output
I1226 02:45:35.712261  7883 net.cpp:144] Setting up inception_3a/output
I1226 02:45:35.712265  7883 net.cpp:151] Top shape: 1 256 48 96 (1179648)
I1226 02:45:35.712267  7883 net.cpp:159] Memory required for data: 196116484
I1226 02:45:35.712270  7883 layer_factory.hpp:77] Creating layer inception_3a/output_inception_3a/output_0_split
I1226 02:45:35.712275  7883 net.cpp:94] Creating Layer inception_3a/output_inception_3a/output_0_split
I1226 02:45:35.712277  7883 net.cpp:435] inception_3a/output_inception_3a/output_0_split <- inception_3a/output
I1226 02:45:35.712281  7883 net.cpp:409] inception_3a/output_inception_3a/output_0_split -> inception_3a/output_inception_3a/output_0_split_0
I1226 02:45:35.712285  7883 net.cpp:409] inception_3a/output_inception_3a/output_0_split -> inception_3a/output_inception_3a/output_0_split_1
I1226 02:45:35.712289  7883 net.cpp:409] inception_3a/output_inception_3a/output_0_split -> inception_3a/output_inception_3a/output_0_split_2
I1226 02:45:35.712296  7883 net.cpp:409] inception_3a/output_inception_3a/output_0_split -> inception_3a/output_inception_3a/output_0_split_3
I1226 02:45:35.712335  7883 net.cpp:144] Setting up inception_3a/output_inception_3a/output_0_split
I1226 02:45:35.712339  7883 net.cpp:151] Top shape: 1 256 48 96 (1179648)
I1226 02:45:35.712343  7883 net.cpp:151] Top shape: 1 256 48 96 (1179648)
I1226 02:45:35.712347  7883 net.cpp:151] Top shape: 1 256 48 96 (1179648)
I1226 02:45:35.712349  7883 net.cpp:151] Top shape: 1 256 48 96 (1179648)
I1226 02:45:35.712352  7883 net.cpp:159] Memory required for data: 214990852
I1226 02:45:35.712355  7883 layer_factory.hpp:77] Creating layer inception_3b/1x1
I1226 02:45:35.712363  7883 net.cpp:94] Creating Layer inception_3b/1x1
I1226 02:45:35.712364  7883 net.cpp:435] inception_3b/1x1 <- inception_3a/output_inception_3a/output_0_split_0
I1226 02:45:35.712368  7883 net.cpp:409] inception_3b/1x1 -> inception_3b/1x1_raw
I1226 02:45:35.712832  7883 net.cpp:144] Setting up inception_3b/1x1
I1226 02:45:35.712839  7883 net.cpp:151] Top shape: 1 128 48 96 (589824)
I1226 02:45:35.712843  7883 net.cpp:159] Memory required for data: 217350148
I1226 02:45:35.712850  7883 layer_factory.hpp:77] Creating layer inception_3b/1x1_BatchNorm
I1226 02:45:35.712855  7883 net.cpp:94] Creating Layer inception_3b/1x1_BatchNorm
I1226 02:45:35.712857  7883 net.cpp:435] inception_3b/1x1_BatchNorm <- inception_3b/1x1_raw
I1226 02:45:35.712862  7883 net.cpp:409] inception_3b/1x1_BatchNorm -> inception_3b/1x1
I1226 02:45:35.713176  7883 net.cpp:144] Setting up inception_3b/1x1_BatchNorm
I1226 02:45:35.713179  7883 net.cpp:151] Top shape: 1 128 48 96 (589824)
I1226 02:45:35.713182  7883 net.cpp:159] Memory required for data: 219709444
I1226 02:45:35.713188  7883 layer_factory.hpp:77] Creating layer inception_3b/relu_1x1
I1226 02:45:35.713191  7883 net.cpp:94] Creating Layer inception_3b/relu_1x1
I1226 02:45:35.713193  7883 net.cpp:435] inception_3b/relu_1x1 <- inception_3b/1x1
I1226 02:45:35.713196  7883 net.cpp:396] inception_3b/relu_1x1 -> inception_3b/1x1 (in-place)
I1226 02:45:35.713199  7883 net.cpp:144] Setting up inception_3b/relu_1x1
I1226 02:45:35.713201  7883 net.cpp:151] Top shape: 1 128 48 96 (589824)
I1226 02:45:35.713203  7883 net.cpp:159] Memory required for data: 222068740
I1226 02:45:35.713204  7883 layer_factory.hpp:77] Creating layer inception_3b/3x3_reduce
I1226 02:45:35.713208  7883 net.cpp:94] Creating Layer inception_3b/3x3_reduce
I1226 02:45:35.713210  7883 net.cpp:435] inception_3b/3x3_reduce <- inception_3a/output_inception_3a/output_0_split_1
I1226 02:45:35.713213  7883 net.cpp:409] inception_3b/3x3_reduce -> inception_3b/3x3_reduce_raw
I1226 02:45:35.714378  7883 net.cpp:144] Setting up inception_3b/3x3_reduce
I1226 02:45:35.714386  7883 net.cpp:151] Top shape: 1 128 48 96 (589824)
I1226 02:45:35.714390  7883 net.cpp:159] Memory required for data: 224428036
I1226 02:45:35.714393  7883 layer_factory.hpp:77] Creating layer inception_3b/3x3_reduce_BatchNorm
I1226 02:45:35.714399  7883 net.cpp:94] Creating Layer inception_3b/3x3_reduce_BatchNorm
I1226 02:45:35.714401  7883 net.cpp:435] inception_3b/3x3_reduce_BatchNorm <- inception_3b/3x3_reduce_raw
I1226 02:45:35.714406  7883 net.cpp:409] inception_3b/3x3_reduce_BatchNorm -> inception_3b/3x3_reduce
I1226 02:45:35.714745  7883 net.cpp:144] Setting up inception_3b/3x3_reduce_BatchNorm
I1226 02:45:35.714748  7883 net.cpp:151] Top shape: 1 128 48 96 (589824)
I1226 02:45:35.714751  7883 net.cpp:159] Memory required for data: 226787332
I1226 02:45:35.714757  7883 layer_factory.hpp:77] Creating layer inception_3b/relu_3x3_reduce
I1226 02:45:35.714761  7883 net.cpp:94] Creating Layer inception_3b/relu_3x3_reduce
I1226 02:45:35.714762  7883 net.cpp:435] inception_3b/relu_3x3_reduce <- inception_3b/3x3_reduce
I1226 02:45:35.714766  7883 net.cpp:396] inception_3b/relu_3x3_reduce -> inception_3b/3x3_reduce (in-place)
I1226 02:45:35.714768  7883 net.cpp:144] Setting up inception_3b/relu_3x3_reduce
I1226 02:45:35.714771  7883 net.cpp:151] Top shape: 1 128 48 96 (589824)
I1226 02:45:35.714773  7883 net.cpp:159] Memory required for data: 229146628
I1226 02:45:35.714774  7883 layer_factory.hpp:77] Creating layer inception_3b/3x3
I1226 02:45:35.714779  7883 net.cpp:94] Creating Layer inception_3b/3x3
I1226 02:45:35.714781  7883 net.cpp:435] inception_3b/3x3 <- inception_3b/3x3_reduce
I1226 02:45:35.714784  7883 net.cpp:409] inception_3b/3x3 -> inception_3b/3x3_raw
I1226 02:45:35.716773  7883 net.cpp:144] Setting up inception_3b/3x3
I1226 02:45:35.716778  7883 net.cpp:151] Top shape: 1 192 48 96 (884736)
I1226 02:45:35.716780  7883 net.cpp:159] Memory required for data: 232685572
I1226 02:45:35.716784  7883 layer_factory.hpp:77] Creating layer inception_3b/3x3_BatchNorm
I1226 02:45:35.716789  7883 net.cpp:94] Creating Layer inception_3b/3x3_BatchNorm
I1226 02:45:35.716790  7883 net.cpp:435] inception_3b/3x3_BatchNorm <- inception_3b/3x3_raw
I1226 02:45:35.716794  7883 net.cpp:409] inception_3b/3x3_BatchNorm -> inception_3b/3x3
I1226 02:45:35.717211  7883 net.cpp:144] Setting up inception_3b/3x3_BatchNorm
I1226 02:45:35.717218  7883 net.cpp:151] Top shape: 1 192 48 96 (884736)
I1226 02:45:35.717221  7883 net.cpp:159] Memory required for data: 236224516
I1226 02:45:35.717228  7883 layer_factory.hpp:77] Creating layer inception_3b/relu_3x3
I1226 02:45:35.717231  7883 net.cpp:94] Creating Layer inception_3b/relu_3x3
I1226 02:45:35.717233  7883 net.cpp:435] inception_3b/relu_3x3 <- inception_3b/3x3
I1226 02:45:35.717236  7883 net.cpp:396] inception_3b/relu_3x3 -> inception_3b/3x3 (in-place)
I1226 02:45:35.717240  7883 net.cpp:144] Setting up inception_3b/relu_3x3
I1226 02:45:35.717242  7883 net.cpp:151] Top shape: 1 192 48 96 (884736)
I1226 02:45:35.717244  7883 net.cpp:159] Memory required for data: 239763460
I1226 02:45:35.717247  7883 layer_factory.hpp:77] Creating layer inception_3b/5x5_reduce
I1226 02:45:35.717252  7883 net.cpp:94] Creating Layer inception_3b/5x5_reduce
I1226 02:45:35.717253  7883 net.cpp:435] inception_3b/5x5_reduce <- inception_3a/output_inception_3a/output_0_split_2
I1226 02:45:35.717257  7883 net.cpp:409] inception_3b/5x5_reduce -> inception_3b/5x5_reduce_raw
I1226 02:45:35.717494  7883 net.cpp:144] Setting up inception_3b/5x5_reduce
I1226 02:45:35.717499  7883 net.cpp:151] Top shape: 1 32 48 96 (147456)
I1226 02:45:35.717502  7883 net.cpp:159] Memory required for data: 240353284
I1226 02:45:35.717505  7883 layer_factory.hpp:77] Creating layer inception_3b/5x5_reduce_BatchNorm
I1226 02:45:35.717509  7883 net.cpp:94] Creating Layer inception_3b/5x5_reduce_BatchNorm
I1226 02:45:35.717511  7883 net.cpp:435] inception_3b/5x5_reduce_BatchNorm <- inception_3b/5x5_reduce_raw
I1226 02:45:35.717514  7883 net.cpp:409] inception_3b/5x5_reduce_BatchNorm -> inception_3b/5x5_reduce
I1226 02:45:35.717880  7883 net.cpp:144] Setting up inception_3b/5x5_reduce_BatchNorm
I1226 02:45:35.717883  7883 net.cpp:151] Top shape: 1 32 48 96 (147456)
I1226 02:45:35.717885  7883 net.cpp:159] Memory required for data: 240943108
I1226 02:45:35.717891  7883 layer_factory.hpp:77] Creating layer inception_3b/relu_5x5_reduce
I1226 02:45:35.717895  7883 net.cpp:94] Creating Layer inception_3b/relu_5x5_reduce
I1226 02:45:35.717895  7883 net.cpp:435] inception_3b/relu_5x5_reduce <- inception_3b/5x5_reduce
I1226 02:45:35.717898  7883 net.cpp:396] inception_3b/relu_5x5_reduce -> inception_3b/5x5_reduce (in-place)
I1226 02:45:35.717901  7883 net.cpp:144] Setting up inception_3b/relu_5x5_reduce
I1226 02:45:35.717903  7883 net.cpp:151] Top shape: 1 32 48 96 (147456)
I1226 02:45:35.717905  7883 net.cpp:159] Memory required for data: 241532932
I1226 02:45:35.717907  7883 layer_factory.hpp:77] Creating layer inception_3b/5x5
I1226 02:45:35.717911  7883 net.cpp:94] Creating Layer inception_3b/5x5
I1226 02:45:35.717913  7883 net.cpp:435] inception_3b/5x5 <- inception_3b/5x5_reduce
I1226 02:45:35.717916  7883 net.cpp:409] inception_3b/5x5 -> inception_3b/5x5_raw
I1226 02:45:35.719419  7883 net.cpp:144] Setting up inception_3b/5x5
I1226 02:45:35.719425  7883 net.cpp:151] Top shape: 1 96 48 96 (442368)
I1226 02:45:35.719429  7883 net.cpp:159] Memory required for data: 243302404
I1226 02:45:35.719432  7883 layer_factory.hpp:77] Creating layer inception_3b/5x5_BatchNorm
I1226 02:45:35.719437  7883 net.cpp:94] Creating Layer inception_3b/5x5_BatchNorm
I1226 02:45:35.719439  7883 net.cpp:435] inception_3b/5x5_BatchNorm <- inception_3b/5x5_raw
I1226 02:45:35.719442  7883 net.cpp:409] inception_3b/5x5_BatchNorm -> inception_3b/5x5
I1226 02:45:35.719816  7883 net.cpp:144] Setting up inception_3b/5x5_BatchNorm
I1226 02:45:35.719821  7883 net.cpp:151] Top shape: 1 96 48 96 (442368)
I1226 02:45:35.719823  7883 net.cpp:159] Memory required for data: 245071876
I1226 02:45:35.719830  7883 layer_factory.hpp:77] Creating layer inception_3b/relu_5x5
I1226 02:45:35.719832  7883 net.cpp:94] Creating Layer inception_3b/relu_5x5
I1226 02:45:35.719833  7883 net.cpp:435] inception_3b/relu_5x5 <- inception_3b/5x5
I1226 02:45:35.719836  7883 net.cpp:396] inception_3b/relu_5x5 -> inception_3b/5x5 (in-place)
I1226 02:45:35.719839  7883 net.cpp:144] Setting up inception_3b/relu_5x5
I1226 02:45:35.719841  7883 net.cpp:151] Top shape: 1 96 48 96 (442368)
I1226 02:45:35.719843  7883 net.cpp:159] Memory required for data: 246841348
I1226 02:45:35.719846  7883 layer_factory.hpp:77] Creating layer inception_3b/pool
I1226 02:45:35.719848  7883 net.cpp:94] Creating Layer inception_3b/pool
I1226 02:45:35.719851  7883 net.cpp:435] inception_3b/pool <- inception_3a/output_inception_3a/output_0_split_3
I1226 02:45:35.719853  7883 net.cpp:409] inception_3b/pool -> inception_3b/pool
I1226 02:45:35.719872  7883 net.cpp:144] Setting up inception_3b/pool
I1226 02:45:35.719875  7883 net.cpp:151] Top shape: 1 256 48 96 (1179648)
I1226 02:45:35.719877  7883 net.cpp:159] Memory required for data: 251559940
I1226 02:45:35.719879  7883 layer_factory.hpp:77] Creating layer inception_3b/pool_proj
I1226 02:45:35.719883  7883 net.cpp:94] Creating Layer inception_3b/pool_proj
I1226 02:45:35.719885  7883 net.cpp:435] inception_3b/pool_proj <- inception_3b/pool
I1226 02:45:35.719887  7883 net.cpp:409] inception_3b/pool_proj -> inception_3b/pool_proj_raw
I1226 02:45:35.720161  7883 net.cpp:144] Setting up inception_3b/pool_proj
I1226 02:45:35.720165  7883 net.cpp:151] Top shape: 1 64 48 96 (294912)
I1226 02:45:35.720167  7883 net.cpp:159] Memory required for data: 252739588
I1226 02:45:35.720170  7883 layer_factory.hpp:77] Creating layer inception_3b/pool_proj_BatchNorm
I1226 02:45:35.720175  7883 net.cpp:94] Creating Layer inception_3b/pool_proj_BatchNorm
I1226 02:45:35.720176  7883 net.cpp:435] inception_3b/pool_proj_BatchNorm <- inception_3b/pool_proj_raw
I1226 02:45:35.720180  7883 net.cpp:409] inception_3b/pool_proj_BatchNorm -> inception_3b/pool_proj
I1226 02:45:35.720543  7883 net.cpp:144] Setting up inception_3b/pool_proj_BatchNorm
I1226 02:45:35.720547  7883 net.cpp:151] Top shape: 1 64 48 96 (294912)
I1226 02:45:35.720549  7883 net.cpp:159] Memory required for data: 253919236
I1226 02:45:35.720556  7883 layer_factory.hpp:77] Creating layer inception_3b/relu_pool_proj
I1226 02:45:35.720558  7883 net.cpp:94] Creating Layer inception_3b/relu_pool_proj
I1226 02:45:35.720561  7883 net.cpp:435] inception_3b/relu_pool_proj <- inception_3b/pool_proj
I1226 02:45:35.720562  7883 net.cpp:396] inception_3b/relu_pool_proj -> inception_3b/pool_proj (in-place)
I1226 02:45:35.720566  7883 net.cpp:144] Setting up inception_3b/relu_pool_proj
I1226 02:45:35.720567  7883 net.cpp:151] Top shape: 1 64 48 96 (294912)
I1226 02:45:35.720569  7883 net.cpp:159] Memory required for data: 255098884
I1226 02:45:35.720571  7883 layer_factory.hpp:77] Creating layer inception_3b/output
I1226 02:45:35.720574  7883 net.cpp:94] Creating Layer inception_3b/output
I1226 02:45:35.720577  7883 net.cpp:435] inception_3b/output <- inception_3b/1x1
I1226 02:45:35.720578  7883 net.cpp:435] inception_3b/output <- inception_3b/3x3
I1226 02:45:35.720580  7883 net.cpp:435] inception_3b/output <- inception_3b/5x5
I1226 02:45:35.720582  7883 net.cpp:435] inception_3b/output <- inception_3b/pool_proj
I1226 02:45:35.720585  7883 net.cpp:409] inception_3b/output -> inception_3b/output
I1226 02:45:35.720597  7883 net.cpp:144] Setting up inception_3b/output
I1226 02:45:35.720602  7883 net.cpp:151] Top shape: 1 480 48 96 (2211840)
I1226 02:45:35.720607  7883 net.cpp:159] Memory required for data: 263946244
I1226 02:45:35.720613  7883 layer_factory.hpp:77] Creating layer inception_3b/output_inception_3b/output_0_split
I1226 02:45:35.720618  7883 net.cpp:94] Creating Layer inception_3b/output_inception_3b/output_0_split
I1226 02:45:35.720620  7883 net.cpp:435] inception_3b/output_inception_3b/output_0_split <- inception_3b/output
I1226 02:45:35.720624  7883 net.cpp:409] inception_3b/output_inception_3b/output_0_split -> inception_3b/output_inception_3b/output_0_split_0
I1226 02:45:35.720629  7883 net.cpp:409] inception_3b/output_inception_3b/output_0_split -> inception_3b/output_inception_3b/output_0_split_1
I1226 02:45:35.720659  7883 net.cpp:144] Setting up inception_3b/output_inception_3b/output_0_split
I1226 02:45:35.720662  7883 net.cpp:151] Top shape: 1 480 48 96 (2211840)
I1226 02:45:35.720666  7883 net.cpp:151] Top shape: 1 480 48 96 (2211840)
I1226 02:45:35.720669  7883 net.cpp:159] Memory required for data: 281640964
I1226 02:45:35.720672  7883 layer_factory.hpp:77] Creating layer pool3/3x3_s2
I1226 02:45:35.720676  7883 net.cpp:94] Creating Layer pool3/3x3_s2
I1226 02:45:35.720679  7883 net.cpp:435] pool3/3x3_s2 <- inception_3b/output_inception_3b/output_0_split_0
I1226 02:45:35.720682  7883 net.cpp:409] pool3/3x3_s2 -> pool3/3x3_s2
I1226 02:45:35.720705  7883 net.cpp:144] Setting up pool3/3x3_s2
I1226 02:45:35.720710  7883 net.cpp:151] Top shape: 1 480 24 48 (552960)
I1226 02:45:35.720712  7883 net.cpp:159] Memory required for data: 283852804
I1226 02:45:35.720715  7883 layer_factory.hpp:77] Creating layer pool3/3x3_s2_pool3/3x3_s2_0_split
I1226 02:45:35.720719  7883 net.cpp:94] Creating Layer pool3/3x3_s2_pool3/3x3_s2_0_split
I1226 02:45:35.720721  7883 net.cpp:435] pool3/3x3_s2_pool3/3x3_s2_0_split <- pool3/3x3_s2
I1226 02:45:35.720726  7883 net.cpp:409] pool3/3x3_s2_pool3/3x3_s2_0_split -> pool3/3x3_s2_pool3/3x3_s2_0_split_0
I1226 02:45:35.720731  7883 net.cpp:409] pool3/3x3_s2_pool3/3x3_s2_0_split -> pool3/3x3_s2_pool3/3x3_s2_0_split_1
I1226 02:45:35.720734  7883 net.cpp:409] pool3/3x3_s2_pool3/3x3_s2_0_split -> pool3/3x3_s2_pool3/3x3_s2_0_split_2
I1226 02:45:35.720738  7883 net.cpp:409] pool3/3x3_s2_pool3/3x3_s2_0_split -> pool3/3x3_s2_pool3/3x3_s2_0_split_3
I1226 02:45:35.720769  7883 net.cpp:144] Setting up pool3/3x3_s2_pool3/3x3_s2_0_split
I1226 02:45:35.720772  7883 net.cpp:151] Top shape: 1 480 24 48 (552960)
I1226 02:45:35.720777  7883 net.cpp:151] Top shape: 1 480 24 48 (552960)
I1226 02:45:35.720779  7883 net.cpp:151] Top shape: 1 480 24 48 (552960)
I1226 02:45:35.720782  7883 net.cpp:151] Top shape: 1 480 24 48 (552960)
I1226 02:45:35.720786  7883 net.cpp:159] Memory required for data: 292700164
I1226 02:45:35.720788  7883 layer_factory.hpp:77] Creating layer inception_4a/1x1
I1226 02:45:35.720794  7883 net.cpp:94] Creating Layer inception_4a/1x1
I1226 02:45:35.720799  7883 net.cpp:435] inception_4a/1x1 <- pool3/3x3_s2_pool3/3x3_s2_0_split_0
I1226 02:45:35.720803  7883 net.cpp:409] inception_4a/1x1 -> inception_4a/1x1_raw
I1226 02:45:35.721735  7883 net.cpp:144] Setting up inception_4a/1x1
I1226 02:45:35.721741  7883 net.cpp:151] Top shape: 1 192 24 48 (221184)
I1226 02:45:35.721745  7883 net.cpp:159] Memory required for data: 293584900
I1226 02:45:35.721750  7883 layer_factory.hpp:77] Creating layer inception_4a/1x1_BatchNorm
I1226 02:45:35.721756  7883 net.cpp:94] Creating Layer inception_4a/1x1_BatchNorm
I1226 02:45:35.721760  7883 net.cpp:435] inception_4a/1x1_BatchNorm <- inception_4a/1x1_raw
I1226 02:45:35.721765  7883 net.cpp:409] inception_4a/1x1_BatchNorm -> inception_4a/1x1
I1226 02:45:35.722127  7883 net.cpp:144] Setting up inception_4a/1x1_BatchNorm
I1226 02:45:35.722132  7883 net.cpp:151] Top shape: 1 192 24 48 (221184)
I1226 02:45:35.722142  7883 net.cpp:159] Memory required for data: 294469636
I1226 02:45:35.722151  7883 layer_factory.hpp:77] Creating layer inception_4a/relu_1x1
I1226 02:45:35.722155  7883 net.cpp:94] Creating Layer inception_4a/relu_1x1
I1226 02:45:35.722158  7883 net.cpp:435] inception_4a/relu_1x1 <- inception_4a/1x1
I1226 02:45:35.722162  7883 net.cpp:396] inception_4a/relu_1x1 -> inception_4a/1x1 (in-place)
I1226 02:45:35.722167  7883 net.cpp:144] Setting up inception_4a/relu_1x1
I1226 02:45:35.722168  7883 net.cpp:151] Top shape: 1 192 24 48 (221184)
I1226 02:45:35.722172  7883 net.cpp:159] Memory required for data: 295354372
I1226 02:45:35.722174  7883 layer_factory.hpp:77] Creating layer inception_4a/3x3_reduce
I1226 02:45:35.722179  7883 net.cpp:94] Creating Layer inception_4a/3x3_reduce
I1226 02:45:35.722182  7883 net.cpp:435] inception_4a/3x3_reduce <- pool3/3x3_s2_pool3/3x3_s2_0_split_1
I1226 02:45:35.722187  7883 net.cpp:409] inception_4a/3x3_reduce -> inception_4a/3x3_reduce_raw
I1226 02:45:35.722776  7883 net.cpp:144] Setting up inception_4a/3x3_reduce
I1226 02:45:35.722785  7883 net.cpp:151] Top shape: 1 96 24 48 (110592)
I1226 02:45:35.722792  7883 net.cpp:159] Memory required for data: 295796740
I1226 02:45:35.722797  7883 layer_factory.hpp:77] Creating layer inception_4a/3x3_reduce_BatchNorm
I1226 02:45:35.722805  7883 net.cpp:94] Creating Layer inception_4a/3x3_reduce_BatchNorm
I1226 02:45:35.722810  7883 net.cpp:435] inception_4a/3x3_reduce_BatchNorm <- inception_4a/3x3_reduce_raw
I1226 02:45:35.722813  7883 net.cpp:409] inception_4a/3x3_reduce_BatchNorm -> inception_4a/3x3_reduce
I1226 02:45:35.723206  7883 net.cpp:144] Setting up inception_4a/3x3_reduce_BatchNorm
I1226 02:45:35.723210  7883 net.cpp:151] Top shape: 1 96 24 48 (110592)
I1226 02:45:35.723214  7883 net.cpp:159] Memory required for data: 296239108
I1226 02:45:35.723222  7883 layer_factory.hpp:77] Creating layer inception_4a/relu_3x3_reduce
I1226 02:45:35.723227  7883 net.cpp:94] Creating Layer inception_4a/relu_3x3_reduce
I1226 02:45:35.723229  7883 net.cpp:435] inception_4a/relu_3x3_reduce <- inception_4a/3x3_reduce
I1226 02:45:35.723232  7883 net.cpp:396] inception_4a/relu_3x3_reduce -> inception_4a/3x3_reduce (in-place)
I1226 02:45:35.723237  7883 net.cpp:144] Setting up inception_4a/relu_3x3_reduce
I1226 02:45:35.723239  7883 net.cpp:151] Top shape: 1 96 24 48 (110592)
I1226 02:45:35.723242  7883 net.cpp:159] Memory required for data: 296681476
I1226 02:45:35.723244  7883 layer_factory.hpp:77] Creating layer inception_4a/3x3
I1226 02:45:35.723253  7883 net.cpp:94] Creating Layer inception_4a/3x3
I1226 02:45:35.723255  7883 net.cpp:435] inception_4a/3x3 <- inception_4a/3x3_reduce
I1226 02:45:35.723258  7883 net.cpp:409] inception_4a/3x3 -> inception_4a/3x3_raw
I1226 02:45:35.725687  7883 net.cpp:144] Setting up inception_4a/3x3
I1226 02:45:35.725697  7883 net.cpp:151] Top shape: 1 208 24 48 (239616)
I1226 02:45:35.725703  7883 net.cpp:159] Memory required for data: 297639940
I1226 02:45:35.725709  7883 layer_factory.hpp:77] Creating layer inception_4a/3x3_BatchNorm
I1226 02:45:35.725716  7883 net.cpp:94] Creating Layer inception_4a/3x3_BatchNorm
I1226 02:45:35.725723  7883 net.cpp:435] inception_4a/3x3_BatchNorm <- inception_4a/3x3_raw
I1226 02:45:35.725728  7883 net.cpp:409] inception_4a/3x3_BatchNorm -> inception_4a/3x3
I1226 02:45:35.726121  7883 net.cpp:144] Setting up inception_4a/3x3_BatchNorm
I1226 02:45:35.726127  7883 net.cpp:151] Top shape: 1 208 24 48 (239616)
I1226 02:45:35.726131  7883 net.cpp:159] Memory required for data: 298598404
I1226 02:45:35.726140  7883 layer_factory.hpp:77] Creating layer inception_4a/relu_3x3
I1226 02:45:35.726145  7883 net.cpp:94] Creating Layer inception_4a/relu_3x3
I1226 02:45:35.726147  7883 net.cpp:435] inception_4a/relu_3x3 <- inception_4a/3x3
I1226 02:45:35.726150  7883 net.cpp:396] inception_4a/relu_3x3 -> inception_4a/3x3 (in-place)
I1226 02:45:35.726155  7883 net.cpp:144] Setting up inception_4a/relu_3x3
I1226 02:45:35.726157  7883 net.cpp:151] Top shape: 1 208 24 48 (239616)
I1226 02:45:35.726161  7883 net.cpp:159] Memory required for data: 299556868
I1226 02:45:35.726163  7883 layer_factory.hpp:77] Creating layer inception_4a/5x5_reduce
I1226 02:45:35.726169  7883 net.cpp:94] Creating Layer inception_4a/5x5_reduce
I1226 02:45:35.726171  7883 net.cpp:435] inception_4a/5x5_reduce <- pool3/3x3_s2_pool3/3x3_s2_0_split_2
I1226 02:45:35.726176  7883 net.cpp:409] inception_4a/5x5_reduce -> inception_4a/5x5_reduce_raw
I1226 02:45:35.726399  7883 net.cpp:144] Setting up inception_4a/5x5_reduce
I1226 02:45:35.726404  7883 net.cpp:151] Top shape: 1 16 24 48 (18432)
I1226 02:45:35.726408  7883 net.cpp:159] Memory required for data: 299630596
I1226 02:45:35.726413  7883 layer_factory.hpp:77] Creating layer inception_4a/5x5_reduce_BatchNorm
I1226 02:45:35.726419  7883 net.cpp:94] Creating Layer inception_4a/5x5_reduce_BatchNorm
I1226 02:45:35.726423  7883 net.cpp:435] inception_4a/5x5_reduce_BatchNorm <- inception_4a/5x5_reduce_raw
I1226 02:45:35.726428  7883 net.cpp:409] inception_4a/5x5_reduce_BatchNorm -> inception_4a/5x5_reduce
I1226 02:45:35.726886  7883 net.cpp:144] Setting up inception_4a/5x5_reduce_BatchNorm
I1226 02:45:35.726897  7883 net.cpp:151] Top shape: 1 16 24 48 (18432)
I1226 02:45:35.726903  7883 net.cpp:159] Memory required for data: 299704324
I1226 02:45:35.726917  7883 layer_factory.hpp:77] Creating layer inception_4a/relu_5x5_reduce
I1226 02:45:35.726923  7883 net.cpp:94] Creating Layer inception_4a/relu_5x5_reduce
I1226 02:45:35.726927  7883 net.cpp:435] inception_4a/relu_5x5_reduce <- inception_4a/5x5_reduce
I1226 02:45:35.726930  7883 net.cpp:396] inception_4a/relu_5x5_reduce -> inception_4a/5x5_reduce (in-place)
I1226 02:45:35.726935  7883 net.cpp:144] Setting up inception_4a/relu_5x5_reduce
I1226 02:45:35.726938  7883 net.cpp:151] Top shape: 1 16 24 48 (18432)
I1226 02:45:35.726941  7883 net.cpp:159] Memory required for data: 299778052
I1226 02:45:35.726943  7883 layer_factory.hpp:77] Creating layer inception_4a/5x5
I1226 02:45:35.726950  7883 net.cpp:94] Creating Layer inception_4a/5x5
I1226 02:45:35.726953  7883 net.cpp:435] inception_4a/5x5 <- inception_4a/5x5_reduce
I1226 02:45:35.726958  7883 net.cpp:409] inception_4a/5x5 -> inception_4a/5x5_raw
I1226 02:45:35.727309  7883 net.cpp:144] Setting up inception_4a/5x5
I1226 02:45:35.727320  7883 net.cpp:151] Top shape: 1 48 24 48 (55296)
I1226 02:45:35.727325  7883 net.cpp:159] Memory required for data: 299999236
I1226 02:45:35.727331  7883 layer_factory.hpp:77] Creating layer inception_4a/5x5_BatchNorm
I1226 02:45:35.727337  7883 net.cpp:94] Creating Layer inception_4a/5x5_BatchNorm
I1226 02:45:35.727340  7883 net.cpp:435] inception_4a/5x5_BatchNorm <- inception_4a/5x5_raw
I1226 02:45:35.727349  7883 net.cpp:409] inception_4a/5x5_BatchNorm -> inception_4a/5x5
I1226 02:45:35.727807  7883 net.cpp:144] Setting up inception_4a/5x5_BatchNorm
I1226 02:45:35.727813  7883 net.cpp:151] Top shape: 1 48 24 48 (55296)
I1226 02:45:35.727818  7883 net.cpp:159] Memory required for data: 300220420
I1226 02:45:35.727823  7883 layer_factory.hpp:77] Creating layer inception_4a/relu_5x5
I1226 02:45:35.727826  7883 net.cpp:94] Creating Layer inception_4a/relu_5x5
I1226 02:45:35.727829  7883 net.cpp:435] inception_4a/relu_5x5 <- inception_4a/5x5
I1226 02:45:35.727833  7883 net.cpp:396] inception_4a/relu_5x5 -> inception_4a/5x5 (in-place)
I1226 02:45:35.727838  7883 net.cpp:144] Setting up inception_4a/relu_5x5
I1226 02:45:35.727840  7883 net.cpp:151] Top shape: 1 48 24 48 (55296)
I1226 02:45:35.727843  7883 net.cpp:159] Memory required for data: 300441604
I1226 02:45:35.727844  7883 layer_factory.hpp:77] Creating layer inception_4a/pool
I1226 02:45:35.727849  7883 net.cpp:94] Creating Layer inception_4a/pool
I1226 02:45:35.727850  7883 net.cpp:435] inception_4a/pool <- pool3/3x3_s2_pool3/3x3_s2_0_split_3
I1226 02:45:35.727854  7883 net.cpp:409] inception_4a/pool -> inception_4a/pool
I1226 02:45:35.727876  7883 net.cpp:144] Setting up inception_4a/pool
I1226 02:45:35.727880  7883 net.cpp:151] Top shape: 1 480 24 48 (552960)
I1226 02:45:35.727881  7883 net.cpp:159] Memory required for data: 302653444
I1226 02:45:35.727883  7883 layer_factory.hpp:77] Creating layer inception_4a/pool_proj
I1226 02:45:35.727890  7883 net.cpp:94] Creating Layer inception_4a/pool_proj
I1226 02:45:35.727891  7883 net.cpp:435] inception_4a/pool_proj <- inception_4a/pool
I1226 02:45:35.727895  7883 net.cpp:409] inception_4a/pool_proj -> inception_4a/pool_proj_raw
I1226 02:45:35.728333  7883 net.cpp:144] Setting up inception_4a/pool_proj
I1226 02:45:35.728340  7883 net.cpp:151] Top shape: 1 64 24 48 (73728)
I1226 02:45:35.728343  7883 net.cpp:159] Memory required for data: 302948356
I1226 02:45:35.728348  7883 layer_factory.hpp:77] Creating layer inception_4a/pool_proj_BatchNorm
I1226 02:45:35.728355  7883 net.cpp:94] Creating Layer inception_4a/pool_proj_BatchNorm
I1226 02:45:35.728358  7883 net.cpp:435] inception_4a/pool_proj_BatchNorm <- inception_4a/pool_proj_raw
I1226 02:45:35.728363  7883 net.cpp:409] inception_4a/pool_proj_BatchNorm -> inception_4a/pool_proj
I1226 02:45:35.728757  7883 net.cpp:144] Setting up inception_4a/pool_proj_BatchNorm
I1226 02:45:35.728765  7883 net.cpp:151] Top shape: 1 64 24 48 (73728)
I1226 02:45:35.728771  7883 net.cpp:159] Memory required for data: 303243268
I1226 02:45:35.728780  7883 layer_factory.hpp:77] Creating layer inception_4a/relu_pool_proj
I1226 02:45:35.728786  7883 net.cpp:94] Creating Layer inception_4a/relu_pool_proj
I1226 02:45:35.728790  7883 net.cpp:435] inception_4a/relu_pool_proj <- inception_4a/pool_proj
I1226 02:45:35.728793  7883 net.cpp:396] inception_4a/relu_pool_proj -> inception_4a/pool_proj (in-place)
I1226 02:45:35.728799  7883 net.cpp:144] Setting up inception_4a/relu_pool_proj
I1226 02:45:35.728801  7883 net.cpp:151] Top shape: 1 64 24 48 (73728)
I1226 02:45:35.728806  7883 net.cpp:159] Memory required for data: 303538180
I1226 02:45:35.728807  7883 layer_factory.hpp:77] Creating layer inception_4a/output
I1226 02:45:35.728811  7883 net.cpp:94] Creating Layer inception_4a/output
I1226 02:45:35.728814  7883 net.cpp:435] inception_4a/output <- inception_4a/1x1
I1226 02:45:35.728817  7883 net.cpp:435] inception_4a/output <- inception_4a/3x3
I1226 02:45:35.728821  7883 net.cpp:435] inception_4a/output <- inception_4a/5x5
I1226 02:45:35.728823  7883 net.cpp:435] inception_4a/output <- inception_4a/pool_proj
I1226 02:45:35.728826  7883 net.cpp:409] inception_4a/output -> inception_4a/output
I1226 02:45:35.728852  7883 net.cpp:144] Setting up inception_4a/output
I1226 02:45:35.728855  7883 net.cpp:151] Top shape: 1 512 24 48 (589824)
I1226 02:45:35.728859  7883 net.cpp:159] Memory required for data: 305897476
I1226 02:45:35.728861  7883 layer_factory.hpp:77] Creating layer inception_4a/output_inception_4a/output_0_split
I1226 02:45:35.728868  7883 net.cpp:94] Creating Layer inception_4a/output_inception_4a/output_0_split
I1226 02:45:35.728869  7883 net.cpp:435] inception_4a/output_inception_4a/output_0_split <- inception_4a/output
I1226 02:45:35.728873  7883 net.cpp:409] inception_4a/output_inception_4a/output_0_split -> inception_4a/output_inception_4a/output_0_split_0
I1226 02:45:35.728878  7883 net.cpp:409] inception_4a/output_inception_4a/output_0_split -> inception_4a/output_inception_4a/output_0_split_1
I1226 02:45:35.728883  7883 net.cpp:409] inception_4a/output_inception_4a/output_0_split -> inception_4a/output_inception_4a/output_0_split_2
I1226 02:45:35.728888  7883 net.cpp:409] inception_4a/output_inception_4a/output_0_split -> inception_4a/output_inception_4a/output_0_split_3
I1226 02:45:35.728926  7883 net.cpp:144] Setting up inception_4a/output_inception_4a/output_0_split
I1226 02:45:35.728930  7883 net.cpp:151] Top shape: 1 512 24 48 (589824)
I1226 02:45:35.728935  7883 net.cpp:151] Top shape: 1 512 24 48 (589824)
I1226 02:45:35.728937  7883 net.cpp:151] Top shape: 1 512 24 48 (589824)
I1226 02:45:35.728940  7883 net.cpp:151] Top shape: 1 512 24 48 (589824)
I1226 02:45:35.728945  7883 net.cpp:159] Memory required for data: 315334660
I1226 02:45:35.728946  7883 layer_factory.hpp:77] Creating layer inception_4b/1x1
I1226 02:45:35.728952  7883 net.cpp:94] Creating Layer inception_4b/1x1
I1226 02:45:35.728957  7883 net.cpp:435] inception_4b/1x1 <- inception_4a/output_inception_4a/output_0_split_0
I1226 02:45:35.728962  7883 net.cpp:409] inception_4b/1x1 -> inception_4b/1x1_raw
I1226 02:45:35.731249  7883 net.cpp:144] Setting up inception_4b/1x1
I1226 02:45:35.731261  7883 net.cpp:151] Top shape: 1 160 24 48 (184320)
I1226 02:45:35.731268  7883 net.cpp:159] Memory required for data: 316071940
I1226 02:45:35.731276  7883 layer_factory.hpp:77] Creating layer inception_4b/1x1_BatchNorm
I1226 02:45:35.731283  7883 net.cpp:94] Creating Layer inception_4b/1x1_BatchNorm
I1226 02:45:35.731288  7883 net.cpp:435] inception_4b/1x1_BatchNorm <- inception_4b/1x1_raw
I1226 02:45:35.731293  7883 net.cpp:409] inception_4b/1x1_BatchNorm -> inception_4b/1x1
I1226 02:45:35.731703  7883 net.cpp:144] Setting up inception_4b/1x1_BatchNorm
I1226 02:45:35.731707  7883 net.cpp:151] Top shape: 1 160 24 48 (184320)
I1226 02:45:35.731711  7883 net.cpp:159] Memory required for data: 316809220
I1226 02:45:35.731719  7883 layer_factory.hpp:77] Creating layer inception_4b/relu_1x1
I1226 02:45:35.731724  7883 net.cpp:94] Creating Layer inception_4b/relu_1x1
I1226 02:45:35.731727  7883 net.cpp:435] inception_4b/relu_1x1 <- inception_4b/1x1
I1226 02:45:35.731730  7883 net.cpp:396] inception_4b/relu_1x1 -> inception_4b/1x1 (in-place)
I1226 02:45:35.731735  7883 net.cpp:144] Setting up inception_4b/relu_1x1
I1226 02:45:35.731739  7883 net.cpp:151] Top shape: 1 160 24 48 (184320)
I1226 02:45:35.731741  7883 net.cpp:159] Memory required for data: 317546500
I1226 02:45:35.731745  7883 layer_factory.hpp:77] Creating layer inception_4b/3x3_reduce
I1226 02:45:35.731750  7883 net.cpp:94] Creating Layer inception_4b/3x3_reduce
I1226 02:45:35.731753  7883 net.cpp:435] inception_4b/3x3_reduce <- inception_4a/output_inception_4a/output_0_split_1
I1226 02:45:35.731757  7883 net.cpp:409] inception_4b/3x3_reduce -> inception_4b/3x3_reduce_raw
I1226 02:45:35.732406  7883 net.cpp:144] Setting up inception_4b/3x3_reduce
I1226 02:45:35.732411  7883 net.cpp:151] Top shape: 1 112 24 48 (129024)
I1226 02:45:35.732415  7883 net.cpp:159] Memory required for data: 318062596
I1226 02:45:35.732420  7883 layer_factory.hpp:77] Creating layer inception_4b/3x3_reduce_BatchNorm
I1226 02:45:35.732425  7883 net.cpp:94] Creating Layer inception_4b/3x3_reduce_BatchNorm
I1226 02:45:35.732429  7883 net.cpp:435] inception_4b/3x3_reduce_BatchNorm <- inception_4b/3x3_reduce_raw
I1226 02:45:35.732432  7883 net.cpp:409] inception_4b/3x3_reduce_BatchNorm -> inception_4b/3x3_reduce
I1226 02:45:35.732865  7883 net.cpp:144] Setting up inception_4b/3x3_reduce_BatchNorm
I1226 02:45:35.732874  7883 net.cpp:151] Top shape: 1 112 24 48 (129024)
I1226 02:45:35.732878  7883 net.cpp:159] Memory required for data: 318578692
I1226 02:45:35.732887  7883 layer_factory.hpp:77] Creating layer inception_4b/relu_3x3_reduce
I1226 02:45:35.732890  7883 net.cpp:94] Creating Layer inception_4b/relu_3x3_reduce
I1226 02:45:35.732895  7883 net.cpp:435] inception_4b/relu_3x3_reduce <- inception_4b/3x3_reduce
I1226 02:45:35.732899  7883 net.cpp:396] inception_4b/relu_3x3_reduce -> inception_4b/3x3_reduce (in-place)
I1226 02:45:35.732905  7883 net.cpp:144] Setting up inception_4b/relu_3x3_reduce
I1226 02:45:35.732908  7883 net.cpp:151] Top shape: 1 112 24 48 (129024)
I1226 02:45:35.732913  7883 net.cpp:159] Memory required for data: 319094788
I1226 02:45:35.732914  7883 layer_factory.hpp:77] Creating layer inception_4b/3x3
I1226 02:45:35.732921  7883 net.cpp:94] Creating Layer inception_4b/3x3
I1226 02:45:35.732924  7883 net.cpp:435] inception_4b/3x3 <- inception_4b/3x3_reduce
I1226 02:45:35.732928  7883 net.cpp:409] inception_4b/3x3 -> inception_4b/3x3_raw
I1226 02:45:35.737417  7883 net.cpp:144] Setting up inception_4b/3x3
I1226 02:45:35.737430  7883 net.cpp:151] Top shape: 1 224 24 48 (258048)
I1226 02:45:35.737435  7883 net.cpp:159] Memory required for data: 320126980
I1226 02:45:35.737443  7883 layer_factory.hpp:77] Creating layer inception_4b/3x3_BatchNorm
I1226 02:45:35.737453  7883 net.cpp:94] Creating Layer inception_4b/3x3_BatchNorm
I1226 02:45:35.737457  7883 net.cpp:435] inception_4b/3x3_BatchNorm <- inception_4b/3x3_raw
I1226 02:45:35.737462  7883 net.cpp:409] inception_4b/3x3_BatchNorm -> inception_4b/3x3
I1226 02:45:35.737913  7883 net.cpp:144] Setting up inception_4b/3x3_BatchNorm
I1226 02:45:35.737920  7883 net.cpp:151] Top shape: 1 224 24 48 (258048)
I1226 02:45:35.737923  7883 net.cpp:159] Memory required for data: 321159172
I1226 02:45:35.737931  7883 layer_factory.hpp:77] Creating layer inception_4b/relu_3x3
I1226 02:45:35.737936  7883 net.cpp:94] Creating Layer inception_4b/relu_3x3
I1226 02:45:35.737938  7883 net.cpp:435] inception_4b/relu_3x3 <- inception_4b/3x3
I1226 02:45:35.737942  7883 net.cpp:396] inception_4b/relu_3x3 -> inception_4b/3x3 (in-place)
I1226 02:45:35.737948  7883 net.cpp:144] Setting up inception_4b/relu_3x3
I1226 02:45:35.737953  7883 net.cpp:151] Top shape: 1 224 24 48 (258048)
I1226 02:45:35.737957  7883 net.cpp:159] Memory required for data: 322191364
I1226 02:45:35.737957  7883 layer_factory.hpp:77] Creating layer inception_4b/5x5_reduce
I1226 02:45:35.737963  7883 net.cpp:94] Creating Layer inception_4b/5x5_reduce
I1226 02:45:35.737967  7883 net.cpp:435] inception_4b/5x5_reduce <- inception_4a/output_inception_4a/output_0_split_2
I1226 02:45:35.737970  7883 net.cpp:409] inception_4b/5x5_reduce -> inception_4b/5x5_reduce_raw
I1226 02:45:35.738245  7883 net.cpp:144] Setting up inception_4b/5x5_reduce
I1226 02:45:35.738250  7883 net.cpp:151] Top shape: 1 24 24 48 (27648)
I1226 02:45:35.738251  7883 net.cpp:159] Memory required for data: 322301956
I1226 02:45:35.738255  7883 layer_factory.hpp:77] Creating layer inception_4b/5x5_reduce_BatchNorm
I1226 02:45:35.738260  7883 net.cpp:94] Creating Layer inception_4b/5x5_reduce_BatchNorm
I1226 02:45:35.738261  7883 net.cpp:435] inception_4b/5x5_reduce_BatchNorm <- inception_4b/5x5_reduce_raw
I1226 02:45:35.738265  7883 net.cpp:409] inception_4b/5x5_reduce_BatchNorm -> inception_4b/5x5_reduce
I1226 02:45:35.738675  7883 net.cpp:144] Setting up inception_4b/5x5_reduce_BatchNorm
I1226 02:45:35.738682  7883 net.cpp:151] Top shape: 1 24 24 48 (27648)
I1226 02:45:35.738685  7883 net.cpp:159] Memory required for data: 322412548
I1226 02:45:35.738693  7883 layer_factory.hpp:77] Creating layer inception_4b/relu_5x5_reduce
I1226 02:45:35.738698  7883 net.cpp:94] Creating Layer inception_4b/relu_5x5_reduce
I1226 02:45:35.738703  7883 net.cpp:435] inception_4b/relu_5x5_reduce <- inception_4b/5x5_reduce
I1226 02:45:35.738706  7883 net.cpp:396] inception_4b/relu_5x5_reduce -> inception_4b/5x5_reduce (in-place)
I1226 02:45:35.738713  7883 net.cpp:144] Setting up inception_4b/relu_5x5_reduce
I1226 02:45:35.738714  7883 net.cpp:151] Top shape: 1 24 24 48 (27648)
I1226 02:45:35.738718  7883 net.cpp:159] Memory required for data: 322523140
I1226 02:45:35.738720  7883 layer_factory.hpp:77] Creating layer inception_4b/5x5
I1226 02:45:35.738726  7883 net.cpp:94] Creating Layer inception_4b/5x5
I1226 02:45:35.738730  7883 net.cpp:435] inception_4b/5x5 <- inception_4b/5x5_reduce
I1226 02:45:35.738734  7883 net.cpp:409] inception_4b/5x5 -> inception_4b/5x5_raw
I1226 02:45:35.739221  7883 net.cpp:144] Setting up inception_4b/5x5
I1226 02:45:35.739225  7883 net.cpp:151] Top shape: 1 64 24 48 (73728)
I1226 02:45:35.739228  7883 net.cpp:159] Memory required for data: 322818052
I1226 02:45:35.739231  7883 layer_factory.hpp:77] Creating layer inception_4b/5x5_BatchNorm
I1226 02:45:35.739236  7883 net.cpp:94] Creating Layer inception_4b/5x5_BatchNorm
I1226 02:45:35.739239  7883 net.cpp:435] inception_4b/5x5_BatchNorm <- inception_4b/5x5_raw
I1226 02:45:35.739243  7883 net.cpp:409] inception_4b/5x5_BatchNorm -> inception_4b/5x5
I1226 02:45:35.739640  7883 net.cpp:144] Setting up inception_4b/5x5_BatchNorm
I1226 02:45:35.739646  7883 net.cpp:151] Top shape: 1 64 24 48 (73728)
I1226 02:45:35.739650  7883 net.cpp:159] Memory required for data: 323112964
I1226 02:45:35.739658  7883 layer_factory.hpp:77] Creating layer inception_4b/relu_5x5
I1226 02:45:35.739662  7883 net.cpp:94] Creating Layer inception_4b/relu_5x5
I1226 02:45:35.739666  7883 net.cpp:435] inception_4b/relu_5x5 <- inception_4b/5x5
I1226 02:45:35.739670  7883 net.cpp:396] inception_4b/relu_5x5 -> inception_4b/5x5 (in-place)
I1226 02:45:35.739675  7883 net.cpp:144] Setting up inception_4b/relu_5x5
I1226 02:45:35.739678  7883 net.cpp:151] Top shape: 1 64 24 48 (73728)
I1226 02:45:35.739681  7883 net.cpp:159] Memory required for data: 323407876
I1226 02:45:35.739682  7883 layer_factory.hpp:77] Creating layer inception_4b/pool
I1226 02:45:35.739686  7883 net.cpp:94] Creating Layer inception_4b/pool
I1226 02:45:35.739688  7883 net.cpp:435] inception_4b/pool <- inception_4a/output_inception_4a/output_0_split_3
I1226 02:45:35.739691  7883 net.cpp:409] inception_4b/pool -> inception_4b/pool
I1226 02:45:35.739712  7883 net.cpp:144] Setting up inception_4b/pool
I1226 02:45:35.739715  7883 net.cpp:151] Top shape: 1 512 24 48 (589824)
I1226 02:45:35.739718  7883 net.cpp:159] Memory required for data: 325767172
I1226 02:45:35.739719  7883 layer_factory.hpp:77] Creating layer inception_4b/pool_proj
I1226 02:45:35.739723  7883 net.cpp:94] Creating Layer inception_4b/pool_proj
I1226 02:45:35.739725  7883 net.cpp:435] inception_4b/pool_proj <- inception_4b/pool
I1226 02:45:35.739728  7883 net.cpp:409] inception_4b/pool_proj -> inception_4b/pool_proj_raw
I1226 02:45:35.740165  7883 net.cpp:144] Setting up inception_4b/pool_proj
I1226 02:45:35.740172  7883 net.cpp:151] Top shape: 1 64 24 48 (73728)
I1226 02:45:35.740176  7883 net.cpp:159] Memory required for data: 326062084
I1226 02:45:35.740180  7883 layer_factory.hpp:77] Creating layer inception_4b/pool_proj_BatchNorm
I1226 02:45:35.740185  7883 net.cpp:94] Creating Layer inception_4b/pool_proj_BatchNorm
I1226 02:45:35.740188  7883 net.cpp:435] inception_4b/pool_proj_BatchNorm <- inception_4b/pool_proj_raw
I1226 02:45:35.740191  7883 net.cpp:409] inception_4b/pool_proj_BatchNorm -> inception_4b/pool_proj
I1226 02:45:35.740561  7883 net.cpp:144] Setting up inception_4b/pool_proj_BatchNorm
I1226 02:45:35.740566  7883 net.cpp:151] Top shape: 1 64 24 48 (73728)
I1226 02:45:35.740568  7883 net.cpp:159] Memory required for data: 326356996
I1226 02:45:35.740573  7883 layer_factory.hpp:77] Creating layer inception_4b/relu_pool_proj
I1226 02:45:35.740577  7883 net.cpp:94] Creating Layer inception_4b/relu_pool_proj
I1226 02:45:35.740579  7883 net.cpp:435] inception_4b/relu_pool_proj <- inception_4b/pool_proj
I1226 02:45:35.740581  7883 net.cpp:396] inception_4b/relu_pool_proj -> inception_4b/pool_proj (in-place)
I1226 02:45:35.740586  7883 net.cpp:144] Setting up inception_4b/relu_pool_proj
I1226 02:45:35.740588  7883 net.cpp:151] Top shape: 1 64 24 48 (73728)
I1226 02:45:35.740590  7883 net.cpp:159] Memory required for data: 326651908
I1226 02:45:35.740592  7883 layer_factory.hpp:77] Creating layer inception_4b/output
I1226 02:45:35.740595  7883 net.cpp:94] Creating Layer inception_4b/output
I1226 02:45:35.740598  7883 net.cpp:435] inception_4b/output <- inception_4b/1x1
I1226 02:45:35.740600  7883 net.cpp:435] inception_4b/output <- inception_4b/3x3
I1226 02:45:35.740603  7883 net.cpp:435] inception_4b/output <- inception_4b/5x5
I1226 02:45:35.740605  7883 net.cpp:435] inception_4b/output <- inception_4b/pool_proj
I1226 02:45:35.740608  7883 net.cpp:409] inception_4b/output -> inception_4b/output
I1226 02:45:35.740622  7883 net.cpp:144] Setting up inception_4b/output
I1226 02:45:35.740625  7883 net.cpp:151] Top shape: 1 512 24 48 (589824)
I1226 02:45:35.740629  7883 net.cpp:159] Memory required for data: 329011204
I1226 02:45:35.740633  7883 layer_factory.hpp:77] Creating layer inception_4b/output_inception_4b/output_0_split
I1226 02:45:35.740638  7883 net.cpp:94] Creating Layer inception_4b/output_inception_4b/output_0_split
I1226 02:45:35.740641  7883 net.cpp:435] inception_4b/output_inception_4b/output_0_split <- inception_4b/output
I1226 02:45:35.740645  7883 net.cpp:409] inception_4b/output_inception_4b/output_0_split -> inception_4b/output_inception_4b/output_0_split_0
I1226 02:45:35.740650  7883 net.cpp:409] inception_4b/output_inception_4b/output_0_split -> inception_4b/output_inception_4b/output_0_split_1
I1226 02:45:35.740654  7883 net.cpp:409] inception_4b/output_inception_4b/output_0_split -> inception_4b/output_inception_4b/output_0_split_2
I1226 02:45:35.740659  7883 net.cpp:409] inception_4b/output_inception_4b/output_0_split -> inception_4b/output_inception_4b/output_0_split_3
I1226 02:45:35.740695  7883 net.cpp:144] Setting up inception_4b/output_inception_4b/output_0_split
I1226 02:45:35.740697  7883 net.cpp:151] Top shape: 1 512 24 48 (589824)
I1226 02:45:35.740700  7883 net.cpp:151] Top shape: 1 512 24 48 (589824)
I1226 02:45:35.740705  7883 net.cpp:151] Top shape: 1 512 24 48 (589824)
I1226 02:45:35.740706  7883 net.cpp:151] Top shape: 1 512 24 48 (589824)
I1226 02:45:35.740710  7883 net.cpp:159] Memory required for data: 338448388
I1226 02:45:35.740711  7883 layer_factory.hpp:77] Creating layer inception_4c/1x1
I1226 02:45:35.740716  7883 net.cpp:94] Creating Layer inception_4c/1x1
I1226 02:45:35.740718  7883 net.cpp:435] inception_4c/1x1 <- inception_4b/output_inception_4b/output_0_split_0
I1226 02:45:35.740721  7883 net.cpp:409] inception_4c/1x1 -> inception_4c/1x1_raw
I1226 02:45:35.742170  7883 net.cpp:144] Setting up inception_4c/1x1
I1226 02:45:35.742177  7883 net.cpp:151] Top shape: 1 128 24 48 (147456)
I1226 02:45:35.742180  7883 net.cpp:159] Memory required for data: 339038212
I1226 02:45:35.742185  7883 layer_factory.hpp:77] Creating layer inception_4c/1x1_BatchNorm
I1226 02:45:35.742192  7883 net.cpp:94] Creating Layer inception_4c/1x1_BatchNorm
I1226 02:45:35.742194  7883 net.cpp:435] inception_4c/1x1_BatchNorm <- inception_4c/1x1_raw
I1226 02:45:35.742197  7883 net.cpp:409] inception_4c/1x1_BatchNorm -> inception_4c/1x1
I1226 02:45:35.742528  7883 net.cpp:144] Setting up inception_4c/1x1_BatchNorm
I1226 02:45:35.742535  7883 net.cpp:151] Top shape: 1 128 24 48 (147456)
I1226 02:45:35.742538  7883 net.cpp:159] Memory required for data: 339628036
I1226 02:45:35.742545  7883 layer_factory.hpp:77] Creating layer inception_4c/relu_1x1
I1226 02:45:35.742564  7883 net.cpp:94] Creating Layer inception_4c/relu_1x1
I1226 02:45:35.742568  7883 net.cpp:435] inception_4c/relu_1x1 <- inception_4c/1x1
I1226 02:45:35.742571  7883 net.cpp:396] inception_4c/relu_1x1 -> inception_4c/1x1 (in-place)
I1226 02:45:35.742575  7883 net.cpp:144] Setting up inception_4c/relu_1x1
I1226 02:45:35.742579  7883 net.cpp:151] Top shape: 1 128 24 48 (147456)
I1226 02:45:35.742583  7883 net.cpp:159] Memory required for data: 340217860
I1226 02:45:35.742585  7883 layer_factory.hpp:77] Creating layer inception_4c/3x3_reduce
I1226 02:45:35.742590  7883 net.cpp:94] Creating Layer inception_4c/3x3_reduce
I1226 02:45:35.742592  7883 net.cpp:435] inception_4c/3x3_reduce <- inception_4b/output_inception_4b/output_0_split_1
I1226 02:45:35.742597  7883 net.cpp:409] inception_4c/3x3_reduce -> inception_4c/3x3_reduce_raw
I1226 02:45:35.743309  7883 net.cpp:144] Setting up inception_4c/3x3_reduce
I1226 02:45:35.743312  7883 net.cpp:151] Top shape: 1 128 24 48 (147456)
I1226 02:45:35.743315  7883 net.cpp:159] Memory required for data: 340807684
I1226 02:45:35.743319  7883 layer_factory.hpp:77] Creating layer inception_4c/3x3_reduce_BatchNorm
I1226 02:45:35.743324  7883 net.cpp:94] Creating Layer inception_4c/3x3_reduce_BatchNorm
I1226 02:45:35.743326  7883 net.cpp:435] inception_4c/3x3_reduce_BatchNorm <- inception_4c/3x3_reduce_raw
I1226 02:45:35.743330  7883 net.cpp:409] inception_4c/3x3_reduce_BatchNorm -> inception_4c/3x3_reduce
I1226 02:45:35.743650  7883 net.cpp:144] Setting up inception_4c/3x3_reduce_BatchNorm
I1226 02:45:35.743655  7883 net.cpp:151] Top shape: 1 128 24 48 (147456)
I1226 02:45:35.743659  7883 net.cpp:159] Memory required for data: 341397508
I1226 02:45:35.743664  7883 layer_factory.hpp:77] Creating layer inception_4c/relu_3x3_reduce
I1226 02:45:35.743667  7883 net.cpp:94] Creating Layer inception_4c/relu_3x3_reduce
I1226 02:45:35.743669  7883 net.cpp:435] inception_4c/relu_3x3_reduce <- inception_4c/3x3_reduce
I1226 02:45:35.743671  7883 net.cpp:396] inception_4c/relu_3x3_reduce -> inception_4c/3x3_reduce (in-place)
I1226 02:45:35.743675  7883 net.cpp:144] Setting up inception_4c/relu_3x3_reduce
I1226 02:45:35.743678  7883 net.cpp:151] Top shape: 1 128 24 48 (147456)
I1226 02:45:35.743681  7883 net.cpp:159] Memory required for data: 341987332
I1226 02:45:35.743683  7883 layer_factory.hpp:77] Creating layer inception_4c/3x3
I1226 02:45:35.743690  7883 net.cpp:94] Creating Layer inception_4c/3x3
I1226 02:45:35.743693  7883 net.cpp:435] inception_4c/3x3 <- inception_4c/3x3_reduce
I1226 02:45:35.743697  7883 net.cpp:409] inception_4c/3x3 -> inception_4c/3x3_raw
I1226 02:45:35.747596  7883 net.cpp:144] Setting up inception_4c/3x3
I1226 02:45:35.747618  7883 net.cpp:151] Top shape: 1 256 24 48 (294912)
I1226 02:45:35.747627  7883 net.cpp:159] Memory required for data: 343166980
I1226 02:45:35.747637  7883 layer_factory.hpp:77] Creating layer inception_4c/3x3_BatchNorm
I1226 02:45:35.747649  7883 net.cpp:94] Creating Layer inception_4c/3x3_BatchNorm
I1226 02:45:35.747655  7883 net.cpp:435] inception_4c/3x3_BatchNorm <- inception_4c/3x3_raw
I1226 02:45:35.747663  7883 net.cpp:409] inception_4c/3x3_BatchNorm -> inception_4c/3x3
I1226 02:45:35.748097  7883 net.cpp:144] Setting up inception_4c/3x3_BatchNorm
I1226 02:45:35.748106  7883 net.cpp:151] Top shape: 1 256 24 48 (294912)
I1226 02:45:35.748109  7883 net.cpp:159] Memory required for data: 344346628
I1226 02:45:35.748117  7883 layer_factory.hpp:77] Creating layer inception_4c/relu_3x3
I1226 02:45:35.748122  7883 net.cpp:94] Creating Layer inception_4c/relu_3x3
I1226 02:45:35.748126  7883 net.cpp:435] inception_4c/relu_3x3 <- inception_4c/3x3
I1226 02:45:35.748128  7883 net.cpp:396] inception_4c/relu_3x3 -> inception_4c/3x3 (in-place)
I1226 02:45:35.748136  7883 net.cpp:144] Setting up inception_4c/relu_3x3
I1226 02:45:35.748137  7883 net.cpp:151] Top shape: 1 256 24 48 (294912)
I1226 02:45:35.748140  7883 net.cpp:159] Memory required for data: 345526276
I1226 02:45:35.748143  7883 layer_factory.hpp:77] Creating layer inception_4c/5x5_reduce
I1226 02:45:35.748150  7883 net.cpp:94] Creating Layer inception_4c/5x5_reduce
I1226 02:45:35.748153  7883 net.cpp:435] inception_4c/5x5_reduce <- inception_4b/output_inception_4b/output_0_split_2
I1226 02:45:35.748158  7883 net.cpp:409] inception_4c/5x5_reduce -> inception_4c/5x5_reduce_raw
I1226 02:45:35.748514  7883 net.cpp:144] Setting up inception_4c/5x5_reduce
I1226 02:45:35.748520  7883 net.cpp:151] Top shape: 1 24 24 48 (27648)
I1226 02:45:35.748524  7883 net.cpp:159] Memory required for data: 345636868
I1226 02:45:35.748529  7883 layer_factory.hpp:77] Creating layer inception_4c/5x5_reduce_BatchNorm
I1226 02:45:35.748534  7883 net.cpp:94] Creating Layer inception_4c/5x5_reduce_BatchNorm
I1226 02:45:35.748538  7883 net.cpp:435] inception_4c/5x5_reduce_BatchNorm <- inception_4c/5x5_reduce_raw
I1226 02:45:35.748541  7883 net.cpp:409] inception_4c/5x5_reduce_BatchNorm -> inception_4c/5x5_reduce
I1226 02:45:35.749089  7883 net.cpp:144] Setting up inception_4c/5x5_reduce_BatchNorm
I1226 02:45:35.749097  7883 net.cpp:151] Top shape: 1 24 24 48 (27648)
I1226 02:45:35.749101  7883 net.cpp:159] Memory required for data: 345747460
I1226 02:45:35.749109  7883 layer_factory.hpp:77] Creating layer inception_4c/relu_5x5_reduce
I1226 02:45:35.749112  7883 net.cpp:94] Creating Layer inception_4c/relu_5x5_reduce
I1226 02:45:35.749115  7883 net.cpp:435] inception_4c/relu_5x5_reduce <- inception_4c/5x5_reduce
I1226 02:45:35.749119  7883 net.cpp:396] inception_4c/relu_5x5_reduce -> inception_4c/5x5_reduce (in-place)
I1226 02:45:35.749123  7883 net.cpp:144] Setting up inception_4c/relu_5x5_reduce
I1226 02:45:35.749125  7883 net.cpp:151] Top shape: 1 24 24 48 (27648)
I1226 02:45:35.749130  7883 net.cpp:159] Memory required for data: 345858052
I1226 02:45:35.749131  7883 layer_factory.hpp:77] Creating layer inception_4c/5x5
I1226 02:45:35.749138  7883 net.cpp:94] Creating Layer inception_4c/5x5
I1226 02:45:35.749140  7883 net.cpp:435] inception_4c/5x5 <- inception_4c/5x5_reduce
I1226 02:45:35.749145  7883 net.cpp:409] inception_4c/5x5 -> inception_4c/5x5_raw
I1226 02:45:35.749665  7883 net.cpp:144] Setting up inception_4c/5x5
I1226 02:45:35.749672  7883 net.cpp:151] Top shape: 1 64 24 48 (73728)
I1226 02:45:35.749675  7883 net.cpp:159] Memory required for data: 346152964
I1226 02:45:35.749680  7883 layer_factory.hpp:77] Creating layer inception_4c/5x5_BatchNorm
I1226 02:45:35.749683  7883 net.cpp:94] Creating Layer inception_4c/5x5_BatchNorm
I1226 02:45:35.749686  7883 net.cpp:435] inception_4c/5x5_BatchNorm <- inception_4c/5x5_raw
I1226 02:45:35.749688  7883 net.cpp:409] inception_4c/5x5_BatchNorm -> inception_4c/5x5
I1226 02:45:35.750070  7883 net.cpp:144] Setting up inception_4c/5x5_BatchNorm
I1226 02:45:35.750075  7883 net.cpp:151] Top shape: 1 64 24 48 (73728)
I1226 02:45:35.750078  7883 net.cpp:159] Memory required for data: 346447876
I1226 02:45:35.750083  7883 layer_factory.hpp:77] Creating layer inception_4c/relu_5x5
I1226 02:45:35.750087  7883 net.cpp:94] Creating Layer inception_4c/relu_5x5
I1226 02:45:35.750088  7883 net.cpp:435] inception_4c/relu_5x5 <- inception_4c/5x5
I1226 02:45:35.750092  7883 net.cpp:396] inception_4c/relu_5x5 -> inception_4c/5x5 (in-place)
I1226 02:45:35.750094  7883 net.cpp:144] Setting up inception_4c/relu_5x5
I1226 02:45:35.750097  7883 net.cpp:151] Top shape: 1 64 24 48 (73728)
I1226 02:45:35.750098  7883 net.cpp:159] Memory required for data: 346742788
I1226 02:45:35.750100  7883 layer_factory.hpp:77] Creating layer inception_4c/pool
I1226 02:45:35.750104  7883 net.cpp:94] Creating Layer inception_4c/pool
I1226 02:45:35.750106  7883 net.cpp:435] inception_4c/pool <- inception_4b/output_inception_4b/output_0_split_3
I1226 02:45:35.750109  7883 net.cpp:409] inception_4c/pool -> inception_4c/pool
I1226 02:45:35.750128  7883 net.cpp:144] Setting up inception_4c/pool
I1226 02:45:35.750130  7883 net.cpp:151] Top shape: 1 512 24 48 (589824)
I1226 02:45:35.750133  7883 net.cpp:159] Memory required for data: 349102084
I1226 02:45:35.750134  7883 layer_factory.hpp:77] Creating layer inception_4c/pool_proj
I1226 02:45:35.750138  7883 net.cpp:94] Creating Layer inception_4c/pool_proj
I1226 02:45:35.750140  7883 net.cpp:435] inception_4c/pool_proj <- inception_4c/pool
I1226 02:45:35.750144  7883 net.cpp:409] inception_4c/pool_proj -> inception_4c/pool_proj_raw
I1226 02:45:35.750641  7883 net.cpp:144] Setting up inception_4c/pool_proj
I1226 02:45:35.750648  7883 net.cpp:151] Top shape: 1 64 24 48 (73728)
I1226 02:45:35.750653  7883 net.cpp:159] Memory required for data: 349396996
I1226 02:45:35.750658  7883 layer_factory.hpp:77] Creating layer inception_4c/pool_proj_BatchNorm
I1226 02:45:35.750663  7883 net.cpp:94] Creating Layer inception_4c/pool_proj_BatchNorm
I1226 02:45:35.750665  7883 net.cpp:435] inception_4c/pool_proj_BatchNorm <- inception_4c/pool_proj_raw
I1226 02:45:35.750670  7883 net.cpp:409] inception_4c/pool_proj_BatchNorm -> inception_4c/pool_proj
I1226 02:45:35.751157  7883 net.cpp:144] Setting up inception_4c/pool_proj_BatchNorm
I1226 02:45:35.751163  7883 net.cpp:151] Top shape: 1 64 24 48 (73728)
I1226 02:45:35.751165  7883 net.cpp:159] Memory required for data: 349691908
I1226 02:45:35.751170  7883 layer_factory.hpp:77] Creating layer inception_4c/relu_pool_proj
I1226 02:45:35.751173  7883 net.cpp:94] Creating Layer inception_4c/relu_pool_proj
I1226 02:45:35.751176  7883 net.cpp:435] inception_4c/relu_pool_proj <- inception_4c/pool_proj
I1226 02:45:35.751178  7883 net.cpp:396] inception_4c/relu_pool_proj -> inception_4c/pool_proj (in-place)
I1226 02:45:35.751183  7883 net.cpp:144] Setting up inception_4c/relu_pool_proj
I1226 02:45:35.751183  7883 net.cpp:151] Top shape: 1 64 24 48 (73728)
I1226 02:45:35.751186  7883 net.cpp:159] Memory required for data: 349986820
I1226 02:45:35.751188  7883 layer_factory.hpp:77] Creating layer inception_4c/output
I1226 02:45:35.751190  7883 net.cpp:94] Creating Layer inception_4c/output
I1226 02:45:35.751192  7883 net.cpp:435] inception_4c/output <- inception_4c/1x1
I1226 02:45:35.751194  7883 net.cpp:435] inception_4c/output <- inception_4c/3x3
I1226 02:45:35.751196  7883 net.cpp:435] inception_4c/output <- inception_4c/5x5
I1226 02:45:35.751199  7883 net.cpp:435] inception_4c/output <- inception_4c/pool_proj
I1226 02:45:35.751201  7883 net.cpp:409] inception_4c/output -> inception_4c/output
I1226 02:45:35.751214  7883 net.cpp:144] Setting up inception_4c/output
I1226 02:45:35.751215  7883 net.cpp:151] Top shape: 1 512 24 48 (589824)
I1226 02:45:35.751219  7883 net.cpp:159] Memory required for data: 352346116
I1226 02:45:35.751219  7883 layer_factory.hpp:77] Creating layer inception_4c/output_inception_4c/output_0_split
I1226 02:45:35.751224  7883 net.cpp:94] Creating Layer inception_4c/output_inception_4c/output_0_split
I1226 02:45:35.751225  7883 net.cpp:435] inception_4c/output_inception_4c/output_0_split <- inception_4c/output
I1226 02:45:35.751228  7883 net.cpp:409] inception_4c/output_inception_4c/output_0_split -> inception_4c/output_inception_4c/output_0_split_0
I1226 02:45:35.751231  7883 net.cpp:409] inception_4c/output_inception_4c/output_0_split -> inception_4c/output_inception_4c/output_0_split_1
I1226 02:45:35.751235  7883 net.cpp:409] inception_4c/output_inception_4c/output_0_split -> inception_4c/output_inception_4c/output_0_split_2
I1226 02:45:35.751237  7883 net.cpp:409] inception_4c/output_inception_4c/output_0_split -> inception_4c/output_inception_4c/output_0_split_3
I1226 02:45:35.751267  7883 net.cpp:144] Setting up inception_4c/output_inception_4c/output_0_split
I1226 02:45:35.751271  7883 net.cpp:151] Top shape: 1 512 24 48 (589824)
I1226 02:45:35.751273  7883 net.cpp:151] Top shape: 1 512 24 48 (589824)
I1226 02:45:35.751276  7883 net.cpp:151] Top shape: 1 512 24 48 (589824)
I1226 02:45:35.751277  7883 net.cpp:151] Top shape: 1 512 24 48 (589824)
I1226 02:45:35.751279  7883 net.cpp:159] Memory required for data: 361783300
I1226 02:45:35.751281  7883 layer_factory.hpp:77] Creating layer inception_4d/1x1
I1226 02:45:35.751286  7883 net.cpp:94] Creating Layer inception_4d/1x1
I1226 02:45:35.751288  7883 net.cpp:435] inception_4d/1x1 <- inception_4c/output_inception_4c/output_0_split_0
I1226 02:45:35.751291  7883 net.cpp:409] inception_4d/1x1 -> inception_4d/1x1_raw
I1226 02:45:35.753736  7883 net.cpp:144] Setting up inception_4d/1x1
I1226 02:45:35.753751  7883 net.cpp:151] Top shape: 1 112 24 48 (129024)
I1226 02:45:35.753758  7883 net.cpp:159] Memory required for data: 362299396
I1226 02:45:35.753768  7883 layer_factory.hpp:77] Creating layer inception_4d/1x1_BatchNorm
I1226 02:45:35.753778  7883 net.cpp:94] Creating Layer inception_4d/1x1_BatchNorm
I1226 02:45:35.753785  7883 net.cpp:435] inception_4d/1x1_BatchNorm <- inception_4d/1x1_raw
I1226 02:45:35.753793  7883 net.cpp:409] inception_4d/1x1_BatchNorm -> inception_4d/1x1
I1226 02:45:35.754755  7883 net.cpp:144] Setting up inception_4d/1x1_BatchNorm
I1226 02:45:35.754768  7883 net.cpp:151] Top shape: 1 112 24 48 (129024)
I1226 02:45:35.754776  7883 net.cpp:159] Memory required for data: 362815492
I1226 02:45:35.754791  7883 layer_factory.hpp:77] Creating layer inception_4d/relu_1x1
I1226 02:45:35.754801  7883 net.cpp:94] Creating Layer inception_4d/relu_1x1
I1226 02:45:35.754808  7883 net.cpp:435] inception_4d/relu_1x1 <- inception_4d/1x1
I1226 02:45:35.754814  7883 net.cpp:396] inception_4d/relu_1x1 -> inception_4d/1x1 (in-place)
I1226 02:45:35.754825  7883 net.cpp:144] Setting up inception_4d/relu_1x1
I1226 02:45:35.754832  7883 net.cpp:151] Top shape: 1 112 24 48 (129024)
I1226 02:45:35.754837  7883 net.cpp:159] Memory required for data: 363331588
I1226 02:45:35.754842  7883 layer_factory.hpp:77] Creating layer inception_4d/3x3_reduce
I1226 02:45:35.754854  7883 net.cpp:94] Creating Layer inception_4d/3x3_reduce
I1226 02:45:35.754861  7883 net.cpp:435] inception_4d/3x3_reduce <- inception_4c/output_inception_4c/output_0_split_1
I1226 02:45:35.754870  7883 net.cpp:409] inception_4d/3x3_reduce -> inception_4d/3x3_reduce_raw
I1226 02:45:35.756425  7883 net.cpp:144] Setting up inception_4d/3x3_reduce
I1226 02:45:35.756441  7883 net.cpp:151] Top shape: 1 144 24 48 (165888)
I1226 02:45:35.756451  7883 net.cpp:159] Memory required for data: 363995140
I1226 02:45:35.756464  7883 layer_factory.hpp:77] Creating layer inception_4d/3x3_reduce_BatchNorm
I1226 02:45:35.756477  7883 net.cpp:94] Creating Layer inception_4d/3x3_reduce_BatchNorm
I1226 02:45:35.756485  7883 net.cpp:435] inception_4d/3x3_reduce_BatchNorm <- inception_4d/3x3_reduce_raw
I1226 02:45:35.756495  7883 net.cpp:409] inception_4d/3x3_reduce_BatchNorm -> inception_4d/3x3_reduce
I1226 02:45:35.757452  7883 net.cpp:144] Setting up inception_4d/3x3_reduce_BatchNorm
I1226 02:45:35.757464  7883 net.cpp:151] Top shape: 1 144 24 48 (165888)
I1226 02:45:35.757473  7883 net.cpp:159] Memory required for data: 364658692
I1226 02:45:35.757486  7883 layer_factory.hpp:77] Creating layer inception_4d/relu_3x3_reduce
I1226 02:45:35.757494  7883 net.cpp:94] Creating Layer inception_4d/relu_3x3_reduce
I1226 02:45:35.757500  7883 net.cpp:435] inception_4d/relu_3x3_reduce <- inception_4d/3x3_reduce
I1226 02:45:35.757509  7883 net.cpp:396] inception_4d/relu_3x3_reduce -> inception_4d/3x3_reduce (in-place)
I1226 02:45:35.757519  7883 net.cpp:144] Setting up inception_4d/relu_3x3_reduce
I1226 02:45:35.757524  7883 net.cpp:151] Top shape: 1 144 24 48 (165888)
I1226 02:45:35.757531  7883 net.cpp:159] Memory required for data: 365322244
I1226 02:45:35.757535  7883 layer_factory.hpp:77] Creating layer inception_4d/3x3
I1226 02:45:35.757547  7883 net.cpp:94] Creating Layer inception_4d/3x3
I1226 02:45:35.757551  7883 net.cpp:435] inception_4d/3x3 <- inception_4d/3x3_reduce
I1226 02:45:35.757558  7883 net.cpp:409] inception_4d/3x3 -> inception_4d/3x3_raw
I1226 02:45:35.766609  7883 net.cpp:144] Setting up inception_4d/3x3
I1226 02:45:35.766633  7883 net.cpp:151] Top shape: 1 288 24 48 (331776)
I1226 02:45:35.766644  7883 net.cpp:159] Memory required for data: 366649348
I1226 02:45:35.766659  7883 layer_factory.hpp:77] Creating layer inception_4d/3x3_BatchNorm
I1226 02:45:35.766678  7883 net.cpp:94] Creating Layer inception_4d/3x3_BatchNorm
I1226 02:45:35.766690  7883 net.cpp:435] inception_4d/3x3_BatchNorm <- inception_4d/3x3_raw
I1226 02:45:35.766701  7883 net.cpp:409] inception_4d/3x3_BatchNorm -> inception_4d/3x3
I1226 02:45:35.767663  7883 net.cpp:144] Setting up inception_4d/3x3_BatchNorm
I1226 02:45:35.767671  7883 net.cpp:151] Top shape: 1 288 24 48 (331776)
I1226 02:45:35.767676  7883 net.cpp:159] Memory required for data: 367976452
I1226 02:45:35.767684  7883 layer_factory.hpp:77] Creating layer inception_4d/relu_3x3
I1226 02:45:35.767689  7883 net.cpp:94] Creating Layer inception_4d/relu_3x3
I1226 02:45:35.767693  7883 net.cpp:435] inception_4d/relu_3x3 <- inception_4d/3x3
I1226 02:45:35.767696  7883 net.cpp:396] inception_4d/relu_3x3 -> inception_4d/3x3 (in-place)
I1226 02:45:35.767702  7883 net.cpp:144] Setting up inception_4d/relu_3x3
I1226 02:45:35.767704  7883 net.cpp:151] Top shape: 1 288 24 48 (331776)
I1226 02:45:35.767709  7883 net.cpp:159] Memory required for data: 369303556
I1226 02:45:35.767710  7883 layer_factory.hpp:77] Creating layer inception_4d/5x5_reduce
I1226 02:45:35.767719  7883 net.cpp:94] Creating Layer inception_4d/5x5_reduce
I1226 02:45:35.767721  7883 net.cpp:435] inception_4d/5x5_reduce <- inception_4c/output_inception_4c/output_0_split_2
I1226 02:45:35.767725  7883 net.cpp:409] inception_4d/5x5_reduce -> inception_4d/5x5_reduce_raw
I1226 02:45:35.768106  7883 net.cpp:144] Setting up inception_4d/5x5_reduce
I1226 02:45:35.768112  7883 net.cpp:151] Top shape: 1 32 24 48 (36864)
I1226 02:45:35.768116  7883 net.cpp:159] Memory required for data: 369451012
I1226 02:45:35.768121  7883 layer_factory.hpp:77] Creating layer inception_4d/5x5_reduce_BatchNorm
I1226 02:45:35.768126  7883 net.cpp:94] Creating Layer inception_4d/5x5_reduce_BatchNorm
I1226 02:45:35.768129  7883 net.cpp:435] inception_4d/5x5_reduce_BatchNorm <- inception_4d/5x5_reduce_raw
I1226 02:45:35.768133  7883 net.cpp:409] inception_4d/5x5_reduce_BatchNorm -> inception_4d/5x5_reduce
I1226 02:45:35.768682  7883 net.cpp:144] Setting up inception_4d/5x5_reduce_BatchNorm
I1226 02:45:35.768688  7883 net.cpp:151] Top shape: 1 32 24 48 (36864)
I1226 02:45:35.768692  7883 net.cpp:159] Memory required for data: 369598468
I1226 02:45:35.768708  7883 layer_factory.hpp:77] Creating layer inception_4d/relu_5x5_reduce
I1226 02:45:35.768713  7883 net.cpp:94] Creating Layer inception_4d/relu_5x5_reduce
I1226 02:45:35.768718  7883 net.cpp:435] inception_4d/relu_5x5_reduce <- inception_4d/5x5_reduce
I1226 02:45:35.768720  7883 net.cpp:396] inception_4d/relu_5x5_reduce -> inception_4d/5x5_reduce (in-place)
I1226 02:45:35.768725  7883 net.cpp:144] Setting up inception_4d/relu_5x5_reduce
I1226 02:45:35.768728  7883 net.cpp:151] Top shape: 1 32 24 48 (36864)
I1226 02:45:35.768731  7883 net.cpp:159] Memory required for data: 369745924
I1226 02:45:35.768733  7883 layer_factory.hpp:77] Creating layer inception_4d/5x5
I1226 02:45:35.768739  7883 net.cpp:94] Creating Layer inception_4d/5x5
I1226 02:45:35.768743  7883 net.cpp:435] inception_4d/5x5 <- inception_4d/5x5_reduce
I1226 02:45:35.768746  7883 net.cpp:409] inception_4d/5x5 -> inception_4d/5x5_raw
I1226 02:45:35.769429  7883 net.cpp:144] Setting up inception_4d/5x5
I1226 02:45:35.769438  7883 net.cpp:151] Top shape: 1 64 24 48 (73728)
I1226 02:45:35.769441  7883 net.cpp:159] Memory required for data: 370040836
I1226 02:45:35.769446  7883 layer_factory.hpp:77] Creating layer inception_4d/5x5_BatchNorm
I1226 02:45:35.769452  7883 net.cpp:94] Creating Layer inception_4d/5x5_BatchNorm
I1226 02:45:35.769455  7883 net.cpp:435] inception_4d/5x5_BatchNorm <- inception_4d/5x5_raw
I1226 02:45:35.769459  7883 net.cpp:409] inception_4d/5x5_BatchNorm -> inception_4d/5x5
I1226 02:45:35.770036  7883 net.cpp:144] Setting up inception_4d/5x5_BatchNorm
I1226 02:45:35.770043  7883 net.cpp:151] Top shape: 1 64 24 48 (73728)
I1226 02:45:35.770048  7883 net.cpp:159] Memory required for data: 370335748
I1226 02:45:35.770057  7883 layer_factory.hpp:77] Creating layer inception_4d/relu_5x5
I1226 02:45:35.770061  7883 net.cpp:94] Creating Layer inception_4d/relu_5x5
I1226 02:45:35.770066  7883 net.cpp:435] inception_4d/relu_5x5 <- inception_4d/5x5
I1226 02:45:35.770068  7883 net.cpp:396] inception_4d/relu_5x5 -> inception_4d/5x5 (in-place)
I1226 02:45:35.770074  7883 net.cpp:144] Setting up inception_4d/relu_5x5
I1226 02:45:35.770076  7883 net.cpp:151] Top shape: 1 64 24 48 (73728)
I1226 02:45:35.770081  7883 net.cpp:159] Memory required for data: 370630660
I1226 02:45:35.770083  7883 layer_factory.hpp:77] Creating layer inception_4d/pool
I1226 02:45:35.770088  7883 net.cpp:94] Creating Layer inception_4d/pool
I1226 02:45:35.770092  7883 net.cpp:435] inception_4d/pool <- inception_4c/output_inception_4c/output_0_split_3
I1226 02:45:35.770097  7883 net.cpp:409] inception_4d/pool -> inception_4d/pool
I1226 02:45:35.770125  7883 net.cpp:144] Setting up inception_4d/pool
I1226 02:45:35.770130  7883 net.cpp:151] Top shape: 1 512 24 48 (589824)
I1226 02:45:35.770134  7883 net.cpp:159] Memory required for data: 372989956
I1226 02:45:35.770138  7883 layer_factory.hpp:77] Creating layer inception_4d/pool_proj
I1226 02:45:35.770143  7883 net.cpp:94] Creating Layer inception_4d/pool_proj
I1226 02:45:35.770148  7883 net.cpp:435] inception_4d/pool_proj <- inception_4d/pool
I1226 02:45:35.770151  7883 net.cpp:409] inception_4d/pool_proj -> inception_4d/pool_proj_raw
I1226 02:45:35.770692  7883 net.cpp:144] Setting up inception_4d/pool_proj
I1226 02:45:35.770700  7883 net.cpp:151] Top shape: 1 64 24 48 (73728)
I1226 02:45:35.770705  7883 net.cpp:159] Memory required for data: 373284868
I1226 02:45:35.770711  7883 layer_factory.hpp:77] Creating layer inception_4d/pool_proj_BatchNorm
I1226 02:45:35.770717  7883 net.cpp:94] Creating Layer inception_4d/pool_proj_BatchNorm
I1226 02:45:35.770720  7883 net.cpp:435] inception_4d/pool_proj_BatchNorm <- inception_4d/pool_proj_raw
I1226 02:45:35.770725  7883 net.cpp:409] inception_4d/pool_proj_BatchNorm -> inception_4d/pool_proj
I1226 02:45:35.771283  7883 net.cpp:144] Setting up inception_4d/pool_proj_BatchNorm
I1226 02:45:35.771291  7883 net.cpp:151] Top shape: 1 64 24 48 (73728)
I1226 02:45:35.771296  7883 net.cpp:159] Memory required for data: 373579780
I1226 02:45:35.771304  7883 layer_factory.hpp:77] Creating layer inception_4d/relu_pool_proj
I1226 02:45:35.771311  7883 net.cpp:94] Creating Layer inception_4d/relu_pool_proj
I1226 02:45:35.771314  7883 net.cpp:435] inception_4d/relu_pool_proj <- inception_4d/pool_proj
I1226 02:45:35.771318  7883 net.cpp:396] inception_4d/relu_pool_proj -> inception_4d/pool_proj (in-place)
I1226 02:45:35.771324  7883 net.cpp:144] Setting up inception_4d/relu_pool_proj
I1226 02:45:35.771328  7883 net.cpp:151] Top shape: 1 64 24 48 (73728)
I1226 02:45:35.771332  7883 net.cpp:159] Memory required for data: 373874692
I1226 02:45:35.771334  7883 layer_factory.hpp:77] Creating layer inception_4d/output
I1226 02:45:35.771338  7883 net.cpp:94] Creating Layer inception_4d/output
I1226 02:45:35.771342  7883 net.cpp:435] inception_4d/output <- inception_4d/1x1
I1226 02:45:35.771344  7883 net.cpp:435] inception_4d/output <- inception_4d/3x3
I1226 02:45:35.771347  7883 net.cpp:435] inception_4d/output <- inception_4d/5x5
I1226 02:45:35.771349  7883 net.cpp:435] inception_4d/output <- inception_4d/pool_proj
I1226 02:45:35.771353  7883 net.cpp:409] inception_4d/output -> inception_4d/output
I1226 02:45:35.771370  7883 net.cpp:144] Setting up inception_4d/output
I1226 02:45:35.771374  7883 net.cpp:151] Top shape: 1 528 24 48 (608256)
I1226 02:45:35.771378  7883 net.cpp:159] Memory required for data: 376307716
I1226 02:45:35.771379  7883 layer_factory.hpp:77] Creating layer inception_4d/output_inception_4d/output_0_split
I1226 02:45:35.771384  7883 net.cpp:94] Creating Layer inception_4d/output_inception_4d/output_0_split
I1226 02:45:35.771387  7883 net.cpp:435] inception_4d/output_inception_4d/output_0_split <- inception_4d/output
I1226 02:45:35.771390  7883 net.cpp:409] inception_4d/output_inception_4d/output_0_split -> inception_4d/output_inception_4d/output_0_split_0
I1226 02:45:35.771395  7883 net.cpp:409] inception_4d/output_inception_4d/output_0_split -> inception_4d/output_inception_4d/output_0_split_1
I1226 02:45:35.771399  7883 net.cpp:409] inception_4d/output_inception_4d/output_0_split -> inception_4d/output_inception_4d/output_0_split_2
I1226 02:45:35.771402  7883 net.cpp:409] inception_4d/output_inception_4d/output_0_split -> inception_4d/output_inception_4d/output_0_split_3
I1226 02:45:35.771445  7883 net.cpp:144] Setting up inception_4d/output_inception_4d/output_0_split
I1226 02:45:35.771450  7883 net.cpp:151] Top shape: 1 528 24 48 (608256)
I1226 02:45:35.771452  7883 net.cpp:151] Top shape: 1 528 24 48 (608256)
I1226 02:45:35.771456  7883 net.cpp:151] Top shape: 1 528 24 48 (608256)
I1226 02:45:35.771458  7883 net.cpp:151] Top shape: 1 528 24 48 (608256)
I1226 02:45:35.771462  7883 net.cpp:159] Memory required for data: 386039812
I1226 02:45:35.771464  7883 layer_factory.hpp:77] Creating layer inception_4e/1x1
I1226 02:45:35.771471  7883 net.cpp:94] Creating Layer inception_4e/1x1
I1226 02:45:35.771473  7883 net.cpp:435] inception_4e/1x1 <- inception_4d/output_inception_4d/output_0_split_0
I1226 02:45:35.771477  7883 net.cpp:409] inception_4e/1x1 -> inception_4e/1x1_raw
I1226 02:45:35.772936  7883 net.cpp:144] Setting up inception_4e/1x1
I1226 02:45:35.772945  7883 net.cpp:151] Top shape: 1 256 24 48 (294912)
I1226 02:45:35.772949  7883 net.cpp:159] Memory required for data: 387219460
I1226 02:45:35.772954  7883 layer_factory.hpp:77] Creating layer inception_4e/1x1_BatchNorm
I1226 02:45:35.772960  7883 net.cpp:94] Creating Layer inception_4e/1x1_BatchNorm
I1226 02:45:35.772964  7883 net.cpp:435] inception_4e/1x1_BatchNorm <- inception_4e/1x1_raw
I1226 02:45:35.772969  7883 net.cpp:409] inception_4e/1x1_BatchNorm -> inception_4e/1x1
I1226 02:45:35.773325  7883 net.cpp:144] Setting up inception_4e/1x1_BatchNorm
I1226 02:45:35.773331  7883 net.cpp:151] Top shape: 1 256 24 48 (294912)
I1226 02:45:35.773334  7883 net.cpp:159] Memory required for data: 388399108
I1226 02:45:35.773340  7883 layer_factory.hpp:77] Creating layer inception_4e/relu_1x1
I1226 02:45:35.773344  7883 net.cpp:94] Creating Layer inception_4e/relu_1x1
I1226 02:45:35.773346  7883 net.cpp:435] inception_4e/relu_1x1 <- inception_4e/1x1
I1226 02:45:35.773350  7883 net.cpp:396] inception_4e/relu_1x1 -> inception_4e/1x1 (in-place)
I1226 02:45:35.773352  7883 net.cpp:144] Setting up inception_4e/relu_1x1
I1226 02:45:35.773355  7883 net.cpp:151] Top shape: 1 256 24 48 (294912)
I1226 02:45:35.773356  7883 net.cpp:159] Memory required for data: 389578756
I1226 02:45:35.773358  7883 layer_factory.hpp:77] Creating layer inception_4e/3x3_reduce
I1226 02:45:35.773362  7883 net.cpp:94] Creating Layer inception_4e/3x3_reduce
I1226 02:45:35.773365  7883 net.cpp:435] inception_4e/3x3_reduce <- inception_4d/output_inception_4d/output_0_split_1
I1226 02:45:35.773368  7883 net.cpp:409] inception_4e/3x3_reduce -> inception_4e/3x3_reduce_raw
I1226 02:45:35.775138  7883 net.cpp:144] Setting up inception_4e/3x3_reduce
I1226 02:45:35.775148  7883 net.cpp:151] Top shape: 1 160 24 48 (184320)
I1226 02:45:35.775153  7883 net.cpp:159] Memory required for data: 390316036
I1226 02:45:35.775158  7883 layer_factory.hpp:77] Creating layer inception_4e/3x3_reduce_BatchNorm
I1226 02:45:35.775164  7883 net.cpp:94] Creating Layer inception_4e/3x3_reduce_BatchNorm
I1226 02:45:35.775167  7883 net.cpp:435] inception_4e/3x3_reduce_BatchNorm <- inception_4e/3x3_reduce_raw
I1226 02:45:35.775172  7883 net.cpp:409] inception_4e/3x3_reduce_BatchNorm -> inception_4e/3x3_reduce
I1226 02:45:35.775738  7883 net.cpp:144] Setting up inception_4e/3x3_reduce_BatchNorm
I1226 02:45:35.775744  7883 net.cpp:151] Top shape: 1 160 24 48 (184320)
I1226 02:45:35.775749  7883 net.cpp:159] Memory required for data: 391053316
I1226 02:45:35.775756  7883 layer_factory.hpp:77] Creating layer inception_4e/relu_3x3_reduce
I1226 02:45:35.775760  7883 net.cpp:94] Creating Layer inception_4e/relu_3x3_reduce
I1226 02:45:35.775763  7883 net.cpp:435] inception_4e/relu_3x3_reduce <- inception_4e/3x3_reduce
I1226 02:45:35.775768  7883 net.cpp:396] inception_4e/relu_3x3_reduce -> inception_4e/3x3_reduce (in-place)
I1226 02:45:35.775772  7883 net.cpp:144] Setting up inception_4e/relu_3x3_reduce
I1226 02:45:35.775774  7883 net.cpp:151] Top shape: 1 160 24 48 (184320)
I1226 02:45:35.775777  7883 net.cpp:159] Memory required for data: 391790596
I1226 02:45:35.775780  7883 layer_factory.hpp:77] Creating layer inception_4e/3x3
I1226 02:45:35.775786  7883 net.cpp:94] Creating Layer inception_4e/3x3
I1226 02:45:35.775792  7883 net.cpp:435] inception_4e/3x3 <- inception_4e/3x3_reduce
I1226 02:45:35.775796  7883 net.cpp:409] inception_4e/3x3 -> inception_4e/3x3_raw
I1226 02:45:35.781985  7883 net.cpp:144] Setting up inception_4e/3x3
I1226 02:45:35.782004  7883 net.cpp:151] Top shape: 1 320 24 48 (368640)
I1226 02:45:35.782013  7883 net.cpp:159] Memory required for data: 393265156
I1226 02:45:35.782024  7883 layer_factory.hpp:77] Creating layer inception_4e/3x3_BatchNorm
I1226 02:45:35.782037  7883 net.cpp:94] Creating Layer inception_4e/3x3_BatchNorm
I1226 02:45:35.782043  7883 net.cpp:435] inception_4e/3x3_BatchNorm <- inception_4e/3x3_raw
I1226 02:45:35.782050  7883 net.cpp:409] inception_4e/3x3_BatchNorm -> inception_4e/3x3
I1226 02:45:35.782510  7883 net.cpp:144] Setting up inception_4e/3x3_BatchNorm
I1226 02:45:35.782516  7883 net.cpp:151] Top shape: 1 320 24 48 (368640)
I1226 02:45:35.782519  7883 net.cpp:159] Memory required for data: 394739716
I1226 02:45:35.782526  7883 layer_factory.hpp:77] Creating layer inception_4e/relu_3x3
I1226 02:45:35.782531  7883 net.cpp:94] Creating Layer inception_4e/relu_3x3
I1226 02:45:35.782532  7883 net.cpp:435] inception_4e/relu_3x3 <- inception_4e/3x3
I1226 02:45:35.782536  7883 net.cpp:396] inception_4e/relu_3x3 -> inception_4e/3x3 (in-place)
I1226 02:45:35.782541  7883 net.cpp:144] Setting up inception_4e/relu_3x3
I1226 02:45:35.782542  7883 net.cpp:151] Top shape: 1 320 24 48 (368640)
I1226 02:45:35.782546  7883 net.cpp:159] Memory required for data: 396214276
I1226 02:45:35.782546  7883 layer_factory.hpp:77] Creating layer inception_4e/5x5_reduce
I1226 02:45:35.782560  7883 net.cpp:94] Creating Layer inception_4e/5x5_reduce
I1226 02:45:35.782564  7883 net.cpp:435] inception_4e/5x5_reduce <- inception_4d/output_inception_4d/output_0_split_2
I1226 02:45:35.782567  7883 net.cpp:409] inception_4e/5x5_reduce -> inception_4e/5x5_reduce_raw
I1226 02:45:35.782886  7883 net.cpp:144] Setting up inception_4e/5x5_reduce
I1226 02:45:35.782889  7883 net.cpp:151] Top shape: 1 32 24 48 (36864)
I1226 02:45:35.782892  7883 net.cpp:159] Memory required for data: 396361732
I1226 02:45:35.782896  7883 layer_factory.hpp:77] Creating layer inception_4e/5x5_reduce_BatchNorm
I1226 02:45:35.782899  7883 net.cpp:94] Creating Layer inception_4e/5x5_reduce_BatchNorm
I1226 02:45:35.782902  7883 net.cpp:435] inception_4e/5x5_reduce_BatchNorm <- inception_4e/5x5_reduce_raw
I1226 02:45:35.782904  7883 net.cpp:409] inception_4e/5x5_reduce_BatchNorm -> inception_4e/5x5_reduce
I1226 02:45:35.783316  7883 net.cpp:144] Setting up inception_4e/5x5_reduce_BatchNorm
I1226 02:45:35.783321  7883 net.cpp:151] Top shape: 1 32 24 48 (36864)
I1226 02:45:35.783324  7883 net.cpp:159] Memory required for data: 396509188
I1226 02:45:35.783330  7883 layer_factory.hpp:77] Creating layer inception_4e/relu_5x5_reduce
I1226 02:45:35.783334  7883 net.cpp:94] Creating Layer inception_4e/relu_5x5_reduce
I1226 02:45:35.783335  7883 net.cpp:435] inception_4e/relu_5x5_reduce <- inception_4e/5x5_reduce
I1226 02:45:35.783339  7883 net.cpp:396] inception_4e/relu_5x5_reduce -> inception_4e/5x5_reduce (in-place)
I1226 02:45:35.783341  7883 net.cpp:144] Setting up inception_4e/relu_5x5_reduce
I1226 02:45:35.783344  7883 net.cpp:151] Top shape: 1 32 24 48 (36864)
I1226 02:45:35.783345  7883 net.cpp:159] Memory required for data: 396656644
I1226 02:45:35.783347  7883 layer_factory.hpp:77] Creating layer inception_4e/5x5
I1226 02:45:35.783351  7883 net.cpp:94] Creating Layer inception_4e/5x5
I1226 02:45:35.783354  7883 net.cpp:435] inception_4e/5x5 <- inception_4e/5x5_reduce
I1226 02:45:35.783356  7883 net.cpp:409] inception_4e/5x5 -> inception_4e/5x5_raw
I1226 02:45:35.784377  7883 net.cpp:144] Setting up inception_4e/5x5
I1226 02:45:35.784380  7883 net.cpp:151] Top shape: 1 128 24 48 (147456)
I1226 02:45:35.784384  7883 net.cpp:159] Memory required for data: 397246468
I1226 02:45:35.784386  7883 layer_factory.hpp:77] Creating layer inception_4e/5x5_BatchNorm
I1226 02:45:35.784390  7883 net.cpp:94] Creating Layer inception_4e/5x5_BatchNorm
I1226 02:45:35.784392  7883 net.cpp:435] inception_4e/5x5_BatchNorm <- inception_4e/5x5_raw
I1226 02:45:35.784395  7883 net.cpp:409] inception_4e/5x5_BatchNorm -> inception_4e/5x5
I1226 02:45:35.784727  7883 net.cpp:144] Setting up inception_4e/5x5_BatchNorm
I1226 02:45:35.784732  7883 net.cpp:151] Top shape: 1 128 24 48 (147456)
I1226 02:45:35.784735  7883 net.cpp:159] Memory required for data: 397836292
I1226 02:45:35.784740  7883 layer_factory.hpp:77] Creating layer inception_4e/relu_5x5
I1226 02:45:35.784744  7883 net.cpp:94] Creating Layer inception_4e/relu_5x5
I1226 02:45:35.784747  7883 net.cpp:435] inception_4e/relu_5x5 <- inception_4e/5x5
I1226 02:45:35.784750  7883 net.cpp:396] inception_4e/relu_5x5 -> inception_4e/5x5 (in-place)
I1226 02:45:35.784754  7883 net.cpp:144] Setting up inception_4e/relu_5x5
I1226 02:45:35.784755  7883 net.cpp:151] Top shape: 1 128 24 48 (147456)
I1226 02:45:35.784759  7883 net.cpp:159] Memory required for data: 398426116
I1226 02:45:35.784759  7883 layer_factory.hpp:77] Creating layer inception_4e/pool
I1226 02:45:35.784765  7883 net.cpp:94] Creating Layer inception_4e/pool
I1226 02:45:35.784766  7883 net.cpp:435] inception_4e/pool <- inception_4d/output_inception_4d/output_0_split_3
I1226 02:45:35.784770  7883 net.cpp:409] inception_4e/pool -> inception_4e/pool
I1226 02:45:35.784790  7883 net.cpp:144] Setting up inception_4e/pool
I1226 02:45:35.784792  7883 net.cpp:151] Top shape: 1 528 24 48 (608256)
I1226 02:45:35.784795  7883 net.cpp:159] Memory required for data: 400859140
I1226 02:45:35.784796  7883 layer_factory.hpp:77] Creating layer inception_4e/pool_proj
I1226 02:45:35.784801  7883 net.cpp:94] Creating Layer inception_4e/pool_proj
I1226 02:45:35.784802  7883 net.cpp:435] inception_4e/pool_proj <- inception_4e/pool
I1226 02:45:35.784804  7883 net.cpp:409] inception_4e/pool_proj -> inception_4e/pool_proj_raw
I1226 02:45:35.785529  7883 net.cpp:144] Setting up inception_4e/pool_proj
I1226 02:45:35.785532  7883 net.cpp:151] Top shape: 1 128 24 48 (147456)
I1226 02:45:35.785535  7883 net.cpp:159] Memory required for data: 401448964
I1226 02:45:35.785538  7883 layer_factory.hpp:77] Creating layer inception_4e/pool_proj_BatchNorm
I1226 02:45:35.785542  7883 net.cpp:94] Creating Layer inception_4e/pool_proj_BatchNorm
I1226 02:45:35.785544  7883 net.cpp:435] inception_4e/pool_proj_BatchNorm <- inception_4e/pool_proj_raw
I1226 02:45:35.785547  7883 net.cpp:409] inception_4e/pool_proj_BatchNorm -> inception_4e/pool_proj
I1226 02:45:35.785920  7883 net.cpp:144] Setting up inception_4e/pool_proj_BatchNorm
I1226 02:45:35.785928  7883 net.cpp:151] Top shape: 1 128 24 48 (147456)
I1226 02:45:35.785933  7883 net.cpp:159] Memory required for data: 402038788
I1226 02:45:35.785939  7883 layer_factory.hpp:77] Creating layer inception_4e/relu_pool_proj
I1226 02:45:35.785944  7883 net.cpp:94] Creating Layer inception_4e/relu_pool_proj
I1226 02:45:35.785948  7883 net.cpp:435] inception_4e/relu_pool_proj <- inception_4e/pool_proj
I1226 02:45:35.785951  7883 net.cpp:396] inception_4e/relu_pool_proj -> inception_4e/pool_proj (in-place)
I1226 02:45:35.785956  7883 net.cpp:144] Setting up inception_4e/relu_pool_proj
I1226 02:45:35.785959  7883 net.cpp:151] Top shape: 1 128 24 48 (147456)
I1226 02:45:35.785964  7883 net.cpp:159] Memory required for data: 402628612
I1226 02:45:35.785965  7883 layer_factory.hpp:77] Creating layer inception_4e/output
I1226 02:45:35.785969  7883 net.cpp:94] Creating Layer inception_4e/output
I1226 02:45:35.785972  7883 net.cpp:435] inception_4e/output <- inception_4e/1x1
I1226 02:45:35.785975  7883 net.cpp:435] inception_4e/output <- inception_4e/3x3
I1226 02:45:35.785979  7883 net.cpp:435] inception_4e/output <- inception_4e/5x5
I1226 02:45:35.785982  7883 net.cpp:435] inception_4e/output <- inception_4e/pool_proj
I1226 02:45:35.785986  7883 net.cpp:409] inception_4e/output -> inception_4e/output
I1226 02:45:35.786005  7883 net.cpp:144] Setting up inception_4e/output
I1226 02:45:35.786010  7883 net.cpp:151] Top shape: 1 832 24 48 (958464)
I1226 02:45:35.786015  7883 net.cpp:159] Memory required for data: 406462468
I1226 02:45:35.786016  7883 layer_factory.hpp:77] Creating layer inception_4e/output_inception_4e/output_0_split
I1226 02:45:35.786021  7883 net.cpp:94] Creating Layer inception_4e/output_inception_4e/output_0_split
I1226 02:45:35.786024  7883 net.cpp:435] inception_4e/output_inception_4e/output_0_split <- inception_4e/output
I1226 02:45:35.786028  7883 net.cpp:409] inception_4e/output_inception_4e/output_0_split -> inception_4e/output_inception_4e/output_0_split_0
I1226 02:45:35.786033  7883 net.cpp:409] inception_4e/output_inception_4e/output_0_split -> inception_4e/output_inception_4e/output_0_split_1
I1226 02:45:35.786060  7883 net.cpp:144] Setting up inception_4e/output_inception_4e/output_0_split
I1226 02:45:35.786065  7883 net.cpp:151] Top shape: 1 832 24 48 (958464)
I1226 02:45:35.786069  7883 net.cpp:151] Top shape: 1 832 24 48 (958464)
I1226 02:45:35.786072  7883 net.cpp:159] Memory required for data: 414130180
I1226 02:45:35.786075  7883 layer_factory.hpp:77] Creating layer pool4/3x3_s2
I1226 02:45:35.786079  7883 net.cpp:94] Creating Layer pool4/3x3_s2
I1226 02:45:35.786082  7883 net.cpp:435] pool4/3x3_s2 <- inception_4e/output_inception_4e/output_0_split_0
I1226 02:45:35.786087  7883 net.cpp:409] pool4/3x3_s2 -> pool4/3x3_s2
I1226 02:45:35.786114  7883 net.cpp:144] Setting up pool4/3x3_s2
I1226 02:45:35.786118  7883 net.cpp:151] Top shape: 1 832 12 24 (239616)
I1226 02:45:35.786123  7883 net.cpp:159] Memory required for data: 415088644
I1226 02:45:35.786125  7883 layer_factory.hpp:77] Creating layer pool4/3x3_s2_pool4/3x3_s2_0_split
I1226 02:45:35.786129  7883 net.cpp:94] Creating Layer pool4/3x3_s2_pool4/3x3_s2_0_split
I1226 02:45:35.786132  7883 net.cpp:435] pool4/3x3_s2_pool4/3x3_s2_0_split <- pool4/3x3_s2
I1226 02:45:35.786136  7883 net.cpp:409] pool4/3x3_s2_pool4/3x3_s2_0_split -> pool4/3x3_s2_pool4/3x3_s2_0_split_0
I1226 02:45:35.786141  7883 net.cpp:409] pool4/3x3_s2_pool4/3x3_s2_0_split -> pool4/3x3_s2_pool4/3x3_s2_0_split_1
I1226 02:45:35.786146  7883 net.cpp:409] pool4/3x3_s2_pool4/3x3_s2_0_split -> pool4/3x3_s2_pool4/3x3_s2_0_split_2
I1226 02:45:35.786150  7883 net.cpp:409] pool4/3x3_s2_pool4/3x3_s2_0_split -> pool4/3x3_s2_pool4/3x3_s2_0_split_3
I1226 02:45:35.786195  7883 net.cpp:144] Setting up pool4/3x3_s2_pool4/3x3_s2_0_split
I1226 02:45:35.786199  7883 net.cpp:151] Top shape: 1 832 12 24 (239616)
I1226 02:45:35.786203  7883 net.cpp:151] Top shape: 1 832 12 24 (239616)
I1226 02:45:35.786206  7883 net.cpp:151] Top shape: 1 832 12 24 (239616)
I1226 02:45:35.786211  7883 net.cpp:151] Top shape: 1 832 12 24 (239616)
I1226 02:45:35.786214  7883 net.cpp:159] Memory required for data: 418922500
I1226 02:45:35.786217  7883 layer_factory.hpp:77] Creating layer inception_5a/1x1
I1226 02:45:35.786224  7883 net.cpp:94] Creating Layer inception_5a/1x1
I1226 02:45:35.786227  7883 net.cpp:435] inception_5a/1x1 <- pool4/3x3_s2_pool4/3x3_s2_0_split_0
I1226 02:45:35.786231  7883 net.cpp:409] inception_5a/1x1 -> inception_5a/1x1_raw
I1226 02:45:35.790709  7883 net.cpp:144] Setting up inception_5a/1x1
I1226 02:45:35.790729  7883 net.cpp:151] Top shape: 1 256 12 24 (73728)
I1226 02:45:35.790741  7883 net.cpp:159] Memory required for data: 419217412
I1226 02:45:35.790755  7883 layer_factory.hpp:77] Creating layer inception_5a/1x1_BatchNorm
I1226 02:45:35.790771  7883 net.cpp:94] Creating Layer inception_5a/1x1_BatchNorm
I1226 02:45:35.790782  7883 net.cpp:435] inception_5a/1x1_BatchNorm <- inception_5a/1x1_raw
I1226 02:45:35.790793  7883 net.cpp:409] inception_5a/1x1_BatchNorm -> inception_5a/1x1
I1226 02:45:35.791435  7883 net.cpp:144] Setting up inception_5a/1x1_BatchNorm
I1226 02:45:35.791443  7883 net.cpp:151] Top shape: 1 256 12 24 (73728)
I1226 02:45:35.791451  7883 net.cpp:159] Memory required for data: 419512324
I1226 02:45:35.791465  7883 layer_factory.hpp:77] Creating layer inception_5a/relu_1x1
I1226 02:45:35.791476  7883 net.cpp:94] Creating Layer inception_5a/relu_1x1
I1226 02:45:35.791481  7883 net.cpp:435] inception_5a/relu_1x1 <- inception_5a/1x1
I1226 02:45:35.791488  7883 net.cpp:396] inception_5a/relu_1x1 -> inception_5a/1x1 (in-place)
I1226 02:45:35.791497  7883 net.cpp:144] Setting up inception_5a/relu_1x1
I1226 02:45:35.791503  7883 net.cpp:151] Top shape: 1 256 12 24 (73728)
I1226 02:45:35.791509  7883 net.cpp:159] Memory required for data: 419807236
I1226 02:45:35.791513  7883 layer_factory.hpp:77] Creating layer inception_5a/3x3_reduce
I1226 02:45:35.791524  7883 net.cpp:94] Creating Layer inception_5a/3x3_reduce
I1226 02:45:35.791532  7883 net.cpp:435] inception_5a/3x3_reduce <- pool4/3x3_s2_pool4/3x3_s2_0_split_1
I1226 02:45:35.791538  7883 net.cpp:409] inception_5a/3x3_reduce -> inception_5a/3x3_reduce_raw
I1226 02:45:35.795238  7883 net.cpp:144] Setting up inception_5a/3x3_reduce
I1226 02:45:35.795254  7883 net.cpp:151] Top shape: 1 160 12 24 (46080)
I1226 02:45:35.795262  7883 net.cpp:159] Memory required for data: 419991556
I1226 02:45:35.795272  7883 layer_factory.hpp:77] Creating layer inception_5a/3x3_reduce_BatchNorm
I1226 02:45:35.795284  7883 net.cpp:94] Creating Layer inception_5a/3x3_reduce_BatchNorm
I1226 02:45:35.795292  7883 net.cpp:435] inception_5a/3x3_reduce_BatchNorm <- inception_5a/3x3_reduce_raw
I1226 02:45:35.795301  7883 net.cpp:409] inception_5a/3x3_reduce_BatchNorm -> inception_5a/3x3_reduce
I1226 02:45:35.796345  7883 net.cpp:144] Setting up inception_5a/3x3_reduce_BatchNorm
I1226 02:45:35.796353  7883 net.cpp:151] Top shape: 1 160 12 24 (46080)
I1226 02:45:35.796357  7883 net.cpp:159] Memory required for data: 420175876
I1226 02:45:35.796365  7883 layer_factory.hpp:77] Creating layer inception_5a/relu_3x3_reduce
I1226 02:45:35.796371  7883 net.cpp:94] Creating Layer inception_5a/relu_3x3_reduce
I1226 02:45:35.796375  7883 net.cpp:435] inception_5a/relu_3x3_reduce <- inception_5a/3x3_reduce
I1226 02:45:35.796380  7883 net.cpp:396] inception_5a/relu_3x3_reduce -> inception_5a/3x3_reduce (in-place)
I1226 02:45:35.796386  7883 net.cpp:144] Setting up inception_5a/relu_3x3_reduce
I1226 02:45:35.796389  7883 net.cpp:151] Top shape: 1 160 12 24 (46080)
I1226 02:45:35.796393  7883 net.cpp:159] Memory required for data: 420360196
I1226 02:45:35.796396  7883 layer_factory.hpp:77] Creating layer inception_5a/3x3
I1226 02:45:35.796402  7883 net.cpp:94] Creating Layer inception_5a/3x3
I1226 02:45:35.796406  7883 net.cpp:435] inception_5a/3x3 <- inception_5a/3x3_reduce
I1226 02:45:35.796409  7883 net.cpp:409] inception_5a/3x3 -> inception_5a/3x3_raw
I1226 02:45:35.803812  7883 net.cpp:144] Setting up inception_5a/3x3
I1226 02:45:35.803824  7883 net.cpp:151] Top shape: 1 320 12 24 (92160)
I1226 02:45:35.803830  7883 net.cpp:159] Memory required for data: 420728836
I1226 02:45:35.803839  7883 layer_factory.hpp:77] Creating layer inception_5a/3x3_BatchNorm
I1226 02:45:35.803848  7883 net.cpp:94] Creating Layer inception_5a/3x3_BatchNorm
I1226 02:45:35.803853  7883 net.cpp:435] inception_5a/3x3_BatchNorm <- inception_5a/3x3_raw
I1226 02:45:35.803858  7883 net.cpp:409] inception_5a/3x3_BatchNorm -> inception_5a/3x3
I1226 02:45:35.804430  7883 net.cpp:144] Setting up inception_5a/3x3_BatchNorm
I1226 02:45:35.804436  7883 net.cpp:151] Top shape: 1 320 12 24 (92160)
I1226 02:45:35.804440  7883 net.cpp:159] Memory required for data: 421097476
I1226 02:45:35.804447  7883 layer_factory.hpp:77] Creating layer inception_5a/relu_3x3
I1226 02:45:35.804451  7883 net.cpp:94] Creating Layer inception_5a/relu_3x3
I1226 02:45:35.804455  7883 net.cpp:435] inception_5a/relu_3x3 <- inception_5a/3x3
I1226 02:45:35.804458  7883 net.cpp:396] inception_5a/relu_3x3 -> inception_5a/3x3 (in-place)
I1226 02:45:35.804463  7883 net.cpp:144] Setting up inception_5a/relu_3x3
I1226 02:45:35.804469  7883 net.cpp:151] Top shape: 1 320 12 24 (92160)
I1226 02:45:35.804472  7883 net.cpp:159] Memory required for data: 421466116
I1226 02:45:35.804474  7883 layer_factory.hpp:77] Creating layer inception_5a/5x5_reduce
I1226 02:45:35.804481  7883 net.cpp:94] Creating Layer inception_5a/5x5_reduce
I1226 02:45:35.804486  7883 net.cpp:435] inception_5a/5x5_reduce <- pool4/3x3_s2_pool4/3x3_s2_0_split_2
I1226 02:45:35.804491  7883 net.cpp:409] inception_5a/5x5_reduce -> inception_5a/5x5_reduce_raw
I1226 02:45:35.804965  7883 net.cpp:144] Setting up inception_5a/5x5_reduce
I1226 02:45:35.804970  7883 net.cpp:151] Top shape: 1 32 12 24 (9216)
I1226 02:45:35.804973  7883 net.cpp:159] Memory required for data: 421502980
I1226 02:45:35.804978  7883 layer_factory.hpp:77] Creating layer inception_5a/5x5_reduce_BatchNorm
I1226 02:45:35.804983  7883 net.cpp:94] Creating Layer inception_5a/5x5_reduce_BatchNorm
I1226 02:45:35.804987  7883 net.cpp:435] inception_5a/5x5_reduce_BatchNorm <- inception_5a/5x5_reduce_raw
I1226 02:45:35.804991  7883 net.cpp:409] inception_5a/5x5_reduce_BatchNorm -> inception_5a/5x5_reduce
I1226 02:45:35.805538  7883 net.cpp:144] Setting up inception_5a/5x5_reduce_BatchNorm
I1226 02:45:35.805546  7883 net.cpp:151] Top shape: 1 32 12 24 (9216)
I1226 02:45:35.805549  7883 net.cpp:159] Memory required for data: 421539844
I1226 02:45:35.805555  7883 layer_factory.hpp:77] Creating layer inception_5a/relu_5x5_reduce
I1226 02:45:35.805560  7883 net.cpp:94] Creating Layer inception_5a/relu_5x5_reduce
I1226 02:45:35.805563  7883 net.cpp:435] inception_5a/relu_5x5_reduce <- inception_5a/5x5_reduce
I1226 02:45:35.805567  7883 net.cpp:396] inception_5a/relu_5x5_reduce -> inception_5a/5x5_reduce (in-place)
I1226 02:45:35.805572  7883 net.cpp:144] Setting up inception_5a/relu_5x5_reduce
I1226 02:45:35.805573  7883 net.cpp:151] Top shape: 1 32 12 24 (9216)
I1226 02:45:35.805577  7883 net.cpp:159] Memory required for data: 421576708
I1226 02:45:35.805579  7883 layer_factory.hpp:77] Creating layer inception_5a/5x5
I1226 02:45:35.805584  7883 net.cpp:94] Creating Layer inception_5a/5x5
I1226 02:45:35.805588  7883 net.cpp:435] inception_5a/5x5 <- inception_5a/5x5_reduce
I1226 02:45:35.805591  7883 net.cpp:409] inception_5a/5x5 -> inception_5a/5x5_raw
I1226 02:45:35.806797  7883 net.cpp:144] Setting up inception_5a/5x5
I1226 02:45:35.806807  7883 net.cpp:151] Top shape: 1 128 12 24 (36864)
I1226 02:45:35.806810  7883 net.cpp:159] Memory required for data: 421724164
I1226 02:45:35.806815  7883 layer_factory.hpp:77] Creating layer inception_5a/5x5_BatchNorm
I1226 02:45:35.806821  7883 net.cpp:94] Creating Layer inception_5a/5x5_BatchNorm
I1226 02:45:35.806824  7883 net.cpp:435] inception_5a/5x5_BatchNorm <- inception_5a/5x5_raw
I1226 02:45:35.806829  7883 net.cpp:409] inception_5a/5x5_BatchNorm -> inception_5a/5x5
I1226 02:45:35.807298  7883 net.cpp:144] Setting up inception_5a/5x5_BatchNorm
I1226 02:45:35.807303  7883 net.cpp:151] Top shape: 1 128 12 24 (36864)
I1226 02:45:35.807307  7883 net.cpp:159] Memory required for data: 421871620
I1226 02:45:35.807314  7883 layer_factory.hpp:77] Creating layer inception_5a/relu_5x5
I1226 02:45:35.807319  7883 net.cpp:94] Creating Layer inception_5a/relu_5x5
I1226 02:45:35.807322  7883 net.cpp:435] inception_5a/relu_5x5 <- inception_5a/5x5
I1226 02:45:35.807327  7883 net.cpp:396] inception_5a/relu_5x5 -> inception_5a/5x5 (in-place)
I1226 02:45:35.807330  7883 net.cpp:144] Setting up inception_5a/relu_5x5
I1226 02:45:35.807332  7883 net.cpp:151] Top shape: 1 128 12 24 (36864)
I1226 02:45:35.807337  7883 net.cpp:159] Memory required for data: 422019076
I1226 02:45:35.807338  7883 layer_factory.hpp:77] Creating layer inception_5a/pool
I1226 02:45:35.807344  7883 net.cpp:94] Creating Layer inception_5a/pool
I1226 02:45:35.807348  7883 net.cpp:435] inception_5a/pool <- pool4/3x3_s2_pool4/3x3_s2_0_split_3
I1226 02:45:35.807351  7883 net.cpp:409] inception_5a/pool -> inception_5a/pool
I1226 02:45:35.807379  7883 net.cpp:144] Setting up inception_5a/pool
I1226 02:45:35.807382  7883 net.cpp:151] Top shape: 1 832 12 24 (239616)
I1226 02:45:35.807385  7883 net.cpp:159] Memory required for data: 422977540
I1226 02:45:35.807389  7883 layer_factory.hpp:77] Creating layer inception_5a/pool_proj
I1226 02:45:35.807394  7883 net.cpp:94] Creating Layer inception_5a/pool_proj
I1226 02:45:35.807396  7883 net.cpp:435] inception_5a/pool_proj <- inception_5a/pool
I1226 02:45:35.807400  7883 net.cpp:409] inception_5a/pool_proj -> inception_5a/pool_proj_raw
I1226 02:45:35.809487  7883 net.cpp:144] Setting up inception_5a/pool_proj
I1226 02:45:35.809496  7883 net.cpp:151] Top shape: 1 128 12 24 (36864)
I1226 02:45:35.809500  7883 net.cpp:159] Memory required for data: 423124996
I1226 02:45:35.809506  7883 layer_factory.hpp:77] Creating layer inception_5a/pool_proj_BatchNorm
I1226 02:45:35.809512  7883 net.cpp:94] Creating Layer inception_5a/pool_proj_BatchNorm
I1226 02:45:35.809515  7883 net.cpp:435] inception_5a/pool_proj_BatchNorm <- inception_5a/pool_proj_raw
I1226 02:45:35.809520  7883 net.cpp:409] inception_5a/pool_proj_BatchNorm -> inception_5a/pool_proj
I1226 02:45:35.810097  7883 net.cpp:144] Setting up inception_5a/pool_proj_BatchNorm
I1226 02:45:35.810111  7883 net.cpp:151] Top shape: 1 128 12 24 (36864)
I1226 02:45:35.810119  7883 net.cpp:159] Memory required for data: 423272452
I1226 02:45:35.810133  7883 layer_factory.hpp:77] Creating layer inception_5a/relu_pool_proj
I1226 02:45:35.810142  7883 net.cpp:94] Creating Layer inception_5a/relu_pool_proj
I1226 02:45:35.810150  7883 net.cpp:435] inception_5a/relu_pool_proj <- inception_5a/pool_proj
I1226 02:45:35.810158  7883 net.cpp:396] inception_5a/relu_pool_proj -> inception_5a/pool_proj (in-place)
I1226 02:45:35.810173  7883 net.cpp:144] Setting up inception_5a/relu_pool_proj
I1226 02:45:35.810178  7883 net.cpp:151] Top shape: 1 128 12 24 (36864)
I1226 02:45:35.810184  7883 net.cpp:159] Memory required for data: 423419908
I1226 02:45:35.810187  7883 layer_factory.hpp:77] Creating layer inception_5a/output
I1226 02:45:35.810194  7883 net.cpp:94] Creating Layer inception_5a/output
I1226 02:45:35.810200  7883 net.cpp:435] inception_5a/output <- inception_5a/1x1
I1226 02:45:35.810206  7883 net.cpp:435] inception_5a/output <- inception_5a/3x3
I1226 02:45:35.810212  7883 net.cpp:435] inception_5a/output <- inception_5a/5x5
I1226 02:45:35.810218  7883 net.cpp:435] inception_5a/output <- inception_5a/pool_proj
I1226 02:45:35.810226  7883 net.cpp:409] inception_5a/output -> inception_5a/output
I1226 02:45:35.810258  7883 net.cpp:144] Setting up inception_5a/output
I1226 02:45:35.810266  7883 net.cpp:151] Top shape: 1 832 12 24 (239616)
I1226 02:45:35.810273  7883 net.cpp:159] Memory required for data: 424378372
I1226 02:45:35.810277  7883 layer_factory.hpp:77] Creating layer inception_5a/output_inception_5a/output_0_split
I1226 02:45:35.810286  7883 net.cpp:94] Creating Layer inception_5a/output_inception_5a/output_0_split
I1226 02:45:35.810289  7883 net.cpp:435] inception_5a/output_inception_5a/output_0_split <- inception_5a/output
I1226 02:45:35.810297  7883 net.cpp:409] inception_5a/output_inception_5a/output_0_split -> inception_5a/output_inception_5a/output_0_split_0
I1226 02:45:35.810304  7883 net.cpp:409] inception_5a/output_inception_5a/output_0_split -> inception_5a/output_inception_5a/output_0_split_1
I1226 02:45:35.810312  7883 net.cpp:409] inception_5a/output_inception_5a/output_0_split -> inception_5a/output_inception_5a/output_0_split_2
I1226 02:45:35.810318  7883 net.cpp:409] inception_5a/output_inception_5a/output_0_split -> inception_5a/output_inception_5a/output_0_split_3
I1226 02:45:35.810393  7883 net.cpp:144] Setting up inception_5a/output_inception_5a/output_0_split
I1226 02:45:35.810403  7883 net.cpp:151] Top shape: 1 832 12 24 (239616)
I1226 02:45:35.810410  7883 net.cpp:151] Top shape: 1 832 12 24 (239616)
I1226 02:45:35.810415  7883 net.cpp:151] Top shape: 1 832 12 24 (239616)
I1226 02:45:35.810421  7883 net.cpp:151] Top shape: 1 832 12 24 (239616)
I1226 02:45:35.810427  7883 net.cpp:159] Memory required for data: 428212228
I1226 02:45:35.810431  7883 layer_factory.hpp:77] Creating layer inception_5b/1x1
I1226 02:45:35.810442  7883 net.cpp:94] Creating Layer inception_5b/1x1
I1226 02:45:35.810447  7883 net.cpp:435] inception_5b/1x1 <- inception_5a/output_inception_5a/output_0_split_0
I1226 02:45:35.810454  7883 net.cpp:409] inception_5b/1x1 -> inception_5b/1x1_raw
I1226 02:45:35.818311  7883 net.cpp:144] Setting up inception_5b/1x1
I1226 02:45:35.818331  7883 net.cpp:151] Top shape: 1 384 12 24 (110592)
I1226 02:45:35.818339  7883 net.cpp:159] Memory required for data: 428654596
I1226 02:45:35.818351  7883 layer_factory.hpp:77] Creating layer inception_5b/1x1_BatchNorm
I1226 02:45:35.818361  7883 net.cpp:94] Creating Layer inception_5b/1x1_BatchNorm
I1226 02:45:35.818367  7883 net.cpp:435] inception_5b/1x1_BatchNorm <- inception_5b/1x1_raw
I1226 02:45:35.818375  7883 net.cpp:409] inception_5b/1x1_BatchNorm -> inception_5b/1x1
I1226 02:45:35.819036  7883 net.cpp:144] Setting up inception_5b/1x1_BatchNorm
I1226 02:45:35.819043  7883 net.cpp:151] Top shape: 1 384 12 24 (110592)
I1226 02:45:35.819048  7883 net.cpp:159] Memory required for data: 429096964
I1226 02:45:35.819057  7883 layer_factory.hpp:77] Creating layer inception_5b/relu_1x1
I1226 02:45:35.819073  7883 net.cpp:94] Creating Layer inception_5b/relu_1x1
I1226 02:45:35.819085  7883 net.cpp:435] inception_5b/relu_1x1 <- inception_5b/1x1
I1226 02:45:35.819095  7883 net.cpp:396] inception_5b/relu_1x1 -> inception_5b/1x1 (in-place)
I1226 02:45:35.819111  7883 net.cpp:144] Setting up inception_5b/relu_1x1
I1226 02:45:35.819116  7883 net.cpp:151] Top shape: 1 384 12 24 (110592)
I1226 02:45:35.819125  7883 net.cpp:159] Memory required for data: 429539332
I1226 02:45:35.819129  7883 layer_factory.hpp:77] Creating layer inception_5b/3x3_reduce
I1226 02:45:35.819140  7883 net.cpp:94] Creating Layer inception_5b/3x3_reduce
I1226 02:45:35.819147  7883 net.cpp:435] inception_5b/3x3_reduce <- inception_5a/output_inception_5a/output_0_split_1
I1226 02:45:35.819154  7883 net.cpp:409] inception_5b/3x3_reduce -> inception_5b/3x3_reduce_raw
I1226 02:45:35.820950  7883 net.cpp:144] Setting up inception_5b/3x3_reduce
I1226 02:45:35.820956  7883 net.cpp:151] Top shape: 1 192 12 24 (55296)
I1226 02:45:35.820960  7883 net.cpp:159] Memory required for data: 429760516
…
I1226 02:45:36.146734  7883 layer_factory.hpp:77] Creating layer inception_4e/relu_1x1
I1226 02:45:36.146739  7883 net.cpp:94] Creating Layer inception_4e/relu_1x1
I1226 02:45:36.146744  7883 net.cpp:435] inception_4e/relu_1x1 <- inception_4e/1x1
I1226 02:45:36.146749  7883 net.cpp:396] inception_4e/relu_1x1 -> inception_4e/1x1 (in-place)
I1226 02:45:36.146754  7883 net.cpp:144] Setting up inception_4e/relu_1x1
I1226 02:45:36.146759  7883 net.cpp:151] Top shape: 1 256 24 48 (294912)
I1226 02:45:36.146760  7883 net.cpp:159] Memory required for data: 377782276
I1226 02:45:36.146762  7883 layer_factory.hpp:77] Creating layer inception_4e/3x3_reduce
I1226 02:45:36.146768  7883 net.cpp:94] Creating Layer inception_4e/3x3_reduce
I1226 02:45:36.146773  7883 net.cpp:435] inception_4e/3x3_reduce <- inception_4d/output_inception_4d/output_fixed_0_split_1
I1226 02:45:36.146778  7883 net.cpp:409] inception_4e/3x3_reduce -> inception_4e/3x3_reduce
I1226 02:45:36.147326  7883 layer_factory.hpp:77] Creating layer inception_4e/3x3_reduce
I1226 02:45:36.147969  7883 net.cpp:144] Setting up inception_4e/3x3_reduce
I1226 02:45:36.147974  7883 net.cpp:151] Top shape: 1 160 24 48 (184320)
I1226 02:45:36.147976  7883 net.cpp:159] Memory required for data: 378519556
I1226 02:45:36.147981  7883 layer_factory.hpp:77] Creating layer inception_4e/relu_3x3_reduce
I1226 02:45:36.147989  7883 net.cpp:94] Creating Layer inception_4e/relu_3x3_reduce
I1226 02:45:36.147992  7883 net.cpp:435] inception_4e/relu_3x3_reduce <- inception_4e/3x3_reduce
I1226 02:45:36.147995  7883 net.cpp:396] inception_4e/relu_3x3_reduce -> inception_4e/3x3_reduce (in-place)
I1226 02:45:36.148000  7883 net.cpp:144] Setting up inception_4e/relu_3x3_reduce
I1226 02:45:36.148002  7883 net.cpp:151] Top shape: 1 160 24 48 (184320)
I1226 02:45:36.148005  7883 net.cpp:159] Memory required for data: 379256836
I1226 02:45:36.148008  7883 layer_factory.hpp:77] Creating layer inception_4e/3x3_reduce_fixed
I1226 02:45:36.148012  7883 net.cpp:94] Creating Layer inception_4e/3x3_reduce_fixed
I1226 02:45:36.148015  7883 net.cpp:435] inception_4e/3x3_reduce_fixed <- inception_4e/3x3_reduce
I1226 02:45:36.148018  7883 net.cpp:396] inception_4e/3x3_reduce_fixed -> inception_4e/3x3_reduce (in-place)
I1226 02:45:36.148038  7883 net.cpp:144] Setting up inception_4e/3x3_reduce_fixed
I1226 02:45:36.148041  7883 net.cpp:151] Top shape: 1 160 24 48 (184320)
I1226 02:45:36.148044  7883 net.cpp:159] Memory required for data: 379994116
I1226 02:45:36.148048  7883 layer_factory.hpp:77] Creating layer inception_4e/3x3
I1226 02:45:36.148053  7883 net.cpp:94] Creating Layer inception_4e/3x3
I1226 02:45:36.148057  7883 net.cpp:435] inception_4e/3x3 <- inception_4e/3x3_reduce
I1226 02:45:36.148061  7883 net.cpp:409] inception_4e/3x3 -> inception_4e/3x3
I1226 02:45:36.151695  7883 layer_factory.hpp:77] Creating layer inception_4e/3x3
I1226 02:45:36.155946  7883 net.cpp:144] Setting up inception_4e/3x3
I1226 02:45:36.155956  7883 net.cpp:151] Top shape: 1 320 24 48 (368640)
I1226 02:45:36.155963  7883 net.cpp:159] Memory required for data: 381468676
I1226 02:45:36.155972  7883 layer_factory.hpp:77] Creating layer inception_4e/relu_3x3
I1226 02:45:36.155980  7883 net.cpp:94] Creating Layer inception_4e/relu_3x3
I1226 02:45:36.155987  7883 net.cpp:435] inception_4e/relu_3x3 <- inception_4e/3x3
I1226 02:45:36.155993  7883 net.cpp:396] inception_4e/relu_3x3 -> inception_4e/3x3 (in-place)
I1226 02:45:36.155999  7883 net.cpp:144] Setting up inception_4e/relu_3x3
I1226 02:45:36.156000  7883 net.cpp:151] Top shape: 1 320 24 48 (368640)
I1226 02:45:36.156002  7883 net.cpp:159] Memory required for data: 382943236
I1226 02:45:36.156004  7883 layer_factory.hpp:77] Creating layer inception_4e/5x5_reduce
I1226 02:45:36.156011  7883 net.cpp:94] Creating Layer inception_4e/5x5_reduce
I1226 02:45:36.156014  7883 net.cpp:435] inception_4e/5x5_reduce <- inception_4d/output_inception_4d/output_fixed_0_split_2
I1226 02:45:36.156018  7883 net.cpp:409] inception_4e/5x5_reduce -> inception_4e/5x5_reduce
I1226 02:45:36.156236  7883 layer_factory.hpp:77] Creating layer inception_4e/5x5_reduce
I1226 02:45:36.156522  7883 net.cpp:144] Setting up inception_4e/5x5_reduce
I1226 02:45:36.156527  7883 net.cpp:151] Top shape: 1 32 24 48 (36864)
I1226 02:45:36.156529  7883 net.cpp:159] Memory required for data: 383090692
I1226 02:45:36.156534  7883 layer_factory.hpp:77] Creating layer inception_4e/relu_5x5_reduce
I1226 02:45:36.156538  7883 net.cpp:94] Creating Layer inception_4e/relu_5x5_reduce
I1226 02:45:36.156541  7883 net.cpp:435] inception_4e/relu_5x5_reduce <- inception_4e/5x5_reduce
I1226 02:45:36.156544  7883 net.cpp:396] inception_4e/relu_5x5_reduce -> inception_4e/5x5_reduce (in-place)
I1226 02:45:36.156548  7883 net.cpp:144] Setting up inception_4e/relu_5x5_reduce
I1226 02:45:36.156551  7883 net.cpp:151] Top shape: 1 32 24 48 (36864)
I1226 02:45:36.156553  7883 net.cpp:159] Memory required for data: 383238148
I1226 02:45:36.156555  7883 layer_factory.hpp:77] Creating layer inception_4e/5x5_reduce_fixed
I1226 02:45:36.156559  7883 net.cpp:94] Creating Layer inception_4e/5x5_reduce_fixed
I1226 02:45:36.156561  7883 net.cpp:435] inception_4e/5x5_reduce_fixed <- inception_4e/5x5_reduce
I1226 02:45:36.156565  7883 net.cpp:396] inception_4e/5x5_reduce_fixed -> inception_4e/5x5_reduce (in-place)
I1226 02:45:36.156584  7883 net.cpp:144] Setting up inception_4e/5x5_reduce_fixed
I1226 02:45:36.156587  7883 net.cpp:151] Top shape: 1 32 24 48 (36864)
I1226 02:45:36.156589  7883 net.cpp:159] Memory required for data: 383385604
I1226 02:45:36.156592  7883 layer_factory.hpp:77] Creating layer inception_4e/5x5
I1226 02:45:36.156596  7883 net.cpp:94] Creating Layer inception_4e/5x5
I1226 02:45:36.156599  7883 net.cpp:435] inception_4e/5x5 <- inception_4e/5x5_reduce
I1226 02:45:36.156602  7883 net.cpp:409] inception_4e/5x5 -> inception_4e/5x5
I1226 02:45:36.157838  7883 layer_factory.hpp:77] Creating layer inception_4e/5x5
I1226 02:45:36.158624  7883 net.cpp:144] Setting up inception_4e/5x5
I1226 02:45:36.158632  7883 net.cpp:151] Top shape: 1 128 24 48 (147456)
I1226 02:45:36.158636  7883 net.cpp:159] Memory required for data: 383975428
I1226 02:45:36.158643  7883 layer_factory.hpp:77] Creating layer inception_4e/relu_5x5
I1226 02:45:36.158645  7883 net.cpp:94] Creating Layer inception_4e/relu_5x5
I1226 02:45:36.158648  7883 net.cpp:435] inception_4e/relu_5x5 <- inception_4e/5x5
I1226 02:45:36.158651  7883 net.cpp:396] inception_4e/relu_5x5 -> inception_4e/5x5 (in-place)
I1226 02:45:36.158655  7883 net.cpp:144] Setting up inception_4e/relu_5x5
I1226 02:45:36.158656  7883 net.cpp:151] Top shape: 1 128 24 48 (147456)
I1226 02:45:36.158659  7883 net.cpp:159] Memory required for data: 384565252
I1226 02:45:36.158661  7883 layer_factory.hpp:77] Creating layer inception_4e/pool
I1226 02:45:36.158665  7883 net.cpp:94] Creating Layer inception_4e/pool
I1226 02:45:36.158668  7883 net.cpp:435] inception_4e/pool <- inception_4d/output_inception_4d/output_fixed_0_split_3
I1226 02:45:36.158672  7883 net.cpp:409] inception_4e/pool -> inception_4e/pool
I1226 02:45:36.158702  7883 net.cpp:144] Setting up inception_4e/pool
I1226 02:45:36.158705  7883 net.cpp:151] Top shape: 1 528 24 48 (608256)
I1226 02:45:36.158707  7883 net.cpp:159] Memory required for data: 386998276
I1226 02:45:36.158710  7883 layer_factory.hpp:77] Creating layer inception_4e/pool_proj
I1226 02:45:36.158715  7883 net.cpp:94] Creating Layer inception_4e/pool_proj
I1226 02:45:36.158717  7883 net.cpp:435] inception_4e/pool_proj <- inception_4e/pool
I1226 02:45:36.158720  7883 net.cpp:409] inception_4e/pool_proj -> inception_4e/pool_proj
I1226 02:45:36.159891  7883 layer_factory.hpp:77] Creating layer inception_4e/pool_proj
I1226 02:45:36.160440  7883 net.cpp:144] Setting up inception_4e/pool_proj
I1226 02:45:36.160445  7883 net.cpp:151] Top shape: 1 128 24 48 (147456)
I1226 02:45:36.160449  7883 net.cpp:159] Memory required for data: 387588100
I1226 02:45:36.160454  7883 layer_factory.hpp:77] Creating layer inception_4e/relu_pool_proj
I1226 02:45:36.160457  7883 net.cpp:94] Creating Layer inception_4e/relu_pool_proj
I1226 02:45:36.160461  7883 net.cpp:435] inception_4e/relu_pool_proj <- inception_4e/pool_proj
I1226 02:45:36.160465  7883 net.cpp:396] inception_4e/relu_pool_proj -> inception_4e/pool_proj (in-place)
I1226 02:45:36.160470  7883 net.cpp:144] Setting up inception_4e/relu_pool_proj
I1226 02:45:36.160472  7883 net.cpp:151] Top shape: 1 128 24 48 (147456)
I1226 02:45:36.160476  7883 net.cpp:159] Memory required for data: 388177924
I1226 02:45:36.160478  7883 layer_factory.hpp:77] Creating layer inception_4e/output
I1226 02:45:36.160482  7883 net.cpp:94] Creating Layer inception_4e/output
I1226 02:45:36.160485  7883 net.cpp:435] inception_4e/output <- inception_4e/1x1
I1226 02:45:36.160488  7883 net.cpp:435] inception_4e/output <- inception_4e/3x3
I1226 02:45:36.160491  7883 net.cpp:435] inception_4e/output <- inception_4e/5x5
I1226 02:45:36.160493  7883 net.cpp:435] inception_4e/output <- inception_4e/pool_proj
I1226 02:45:36.160497  7883 net.cpp:409] inception_4e/output -> inception_4e/output
I1226 02:45:36.160511  7883 net.cpp:144] Setting up inception_4e/output
I1226 02:45:36.160514  7883 net.cpp:151] Top shape: 1 832 24 48 (958464)
I1226 02:45:36.160517  7883 net.cpp:159] Memory required for data: 392011780
I1226 02:45:36.160519  7883 layer_factory.hpp:77] Creating layer inception_4e/output_fixed
I1226 02:45:36.160524  7883 net.cpp:94] Creating Layer inception_4e/output_fixed
I1226 02:45:36.160527  7883 net.cpp:435] inception_4e/output_fixed <- inception_4e/output
I1226 02:45:36.160531  7883 net.cpp:396] inception_4e/output_fixed -> inception_4e/output (in-place)
I1226 02:45:36.160552  7883 net.cpp:144] Setting up inception_4e/output_fixed
I1226 02:45:36.160554  7883 net.cpp:151] Top shape: 1 832 24 48 (958464)
I1226 02:45:36.160557  7883 net.cpp:159] Memory required for data: 395845636
I1226 02:45:36.160560  7883 layer_factory.hpp:77] Creating layer inception_4e/output_inception_4e/output_fixed_0_split
I1226 02:45:36.160564  7883 net.cpp:94] Creating Layer inception_4e/output_inception_4e/output_fixed_0_split
I1226 02:45:36.160567  7883 net.cpp:435] inception_4e/output_inception_4e/output_fixed_0_split <- inception_4e/output
I1226 02:45:36.160570  7883 net.cpp:409] inception_4e/output_inception_4e/output_fixed_0_split -> inception_4e/output_inception_4e/output_fixed_0_split_0
I1226 02:45:36.160574  7883 net.cpp:409] inception_4e/output_inception_4e/output_fixed_0_split -> inception_4e/output_inception_4e/output_fixed_0_split_1
I1226 02:45:36.160595  7883 net.cpp:144] Setting up inception_4e/output_inception_4e/output_fixed_0_split
I1226 02:45:36.160598  7883 net.cpp:151] Top shape: 1 832 24 48 (958464)
I1226 02:45:36.160601  7883 net.cpp:151] Top shape: 1 832 24 48 (958464)
I1226 02:45:36.160604  7883 net.cpp:159] Memory required for data: 403513348
I1226 02:45:36.160606  7883 layer_factory.hpp:77] Creating layer pool4/3x3_s2
I1226 02:45:36.160610  7883 net.cpp:94] Creating Layer pool4/3x3_s2
I1226 02:45:36.160614  7883 net.cpp:435] pool4/3x3_s2 <- inception_4e/output_inception_4e/output_fixed_0_split_0
I1226 02:45:36.160616  7883 net.cpp:409] pool4/3x3_s2 -> pool4/3x3_s2
I1226 02:45:36.160636  7883 net.cpp:144] Setting up pool4/3x3_s2
I1226 02:45:36.160640  7883 net.cpp:151] Top shape: 1 832 12 24 (239616)
I1226 02:45:36.160641  7883 net.cpp:159] Memory required for data: 404471812
I1226 02:45:36.160643  7883 layer_factory.hpp:77] Creating layer pool4/3x3_s2_pool4/3x3_s2_0_split
I1226 02:45:36.160645  7883 net.cpp:94] Creating Layer pool4/3x3_s2_pool4/3x3_s2_0_split
I1226 02:45:36.160647  7883 net.cpp:435] pool4/3x3_s2_pool4/3x3_s2_0_split <- pool4/3x3_s2
I1226 02:45:36.160650  7883 net.cpp:409] pool4/3x3_s2_pool4/3x3_s2_0_split -> pool4/3x3_s2_pool4/3x3_s2_0_split_0
I1226 02:45:36.160653  7883 net.cpp:409] pool4/3x3_s2_pool4/3x3_s2_0_split -> pool4/3x3_s2_pool4/3x3_s2_0_split_1
I1226 02:45:36.160656  7883 net.cpp:409] pool4/3x3_s2_pool4/3x3_s2_0_split -> pool4/3x3_s2_pool4/3x3_s2_0_split_2
I1226 02:45:36.160660  7883 net.cpp:409] pool4/3x3_s2_pool4/3x3_s2_0_split -> pool4/3x3_s2_pool4/3x3_s2_0_split_3
I1226 02:45:36.160693  7883 net.cpp:144] Setting up pool4/3x3_s2_pool4/3x3_s2_0_split
I1226 02:45:36.160696  7883 net.cpp:151] Top shape: 1 832 12 24 (239616)
I1226 02:45:36.160699  7883 net.cpp:151] Top shape: 1 832 12 24 (239616)
I1226 02:45:36.160701  7883 net.cpp:151] Top shape: 1 832 12 24 (239616)
I1226 02:45:36.160703  7883 net.cpp:151] Top shape: 1 832 12 24 (239616)
I1226 02:45:36.160706  7883 net.cpp:159] Memory required for data: 408305668
I1226 02:45:36.160708  7883 layer_factory.hpp:77] Creating layer inception_5a/1x1
I1226 02:45:36.160714  7883 net.cpp:94] Creating Layer inception_5a/1x1
I1226 02:45:36.160717  7883 net.cpp:435] inception_5a/1x1 <- pool4/3x3_s2_pool4/3x3_s2_0_split_0
I1226 02:45:36.160720  7883 net.cpp:409] inception_5a/1x1 -> inception_5a/1x1
I1226 02:45:36.162781  7883 layer_factory.hpp:77] Creating layer inception_5a/1x1
I1226 02:45:36.164736  7883 net.cpp:144] Setting up inception_5a/1x1
I1226 02:45:36.164743  7883 net.cpp:151] Top shape: 1 256 12 24 (73728)
I1226 02:45:36.164748  7883 net.cpp:159] Memory required for data: 408600580
I1226 02:45:36.164757  7883 layer_factory.hpp:77] Creating layer inception_5a/relu_1x1
I1226 02:45:36.164762  7883 net.cpp:94] Creating Layer inception_5a/relu_1x1
I1226 02:45:36.164767  7883 net.cpp:435] inception_5a/relu_1x1 <- inception_5a/1x1
I1226 02:45:36.164770  7883 net.cpp:396] inception_5a/relu_1x1 -> inception_5a/1x1 (in-place)
I1226 02:45:36.164775  7883 net.cpp:144] Setting up inception_5a/relu_1x1
I1226 02:45:36.164777  7883 net.cpp:151] Top shape: 1 256 12 24 (73728)
I1226 02:45:36.164779  7883 net.cpp:159] Memory required for data: 408895492
I1226 02:45:36.164780  7883 layer_factory.hpp:77] Creating layer inception_5a/3x3_reduce
I1226 02:45:36.164786  7883 net.cpp:94] Creating Layer inception_5a/3x3_reduce
I1226 02:45:36.164789  7883 net.cpp:435] inception_5a/3x3_reduce <- pool4/3x3_s2_pool4/3x3_s2_0_split_1
I1226 02:45:36.164793  7883 net.cpp:409] inception_5a/3x3_reduce -> inception_5a/3x3_reduce
I1226 02:45:36.165571  7883 layer_factory.hpp:77] Creating layer inception_5a/3x3_reduce
I1226 02:45:36.167074  7883 net.cpp:144] Setting up inception_5a/3x3_reduce
I1226 02:45:36.167080  7883 net.cpp:151] Top shape: 1 160 12 24 (46080)
I1226 02:45:36.167084  7883 net.cpp:159] Memory required for data: 409079812
I1226 02:45:36.167089  7883 layer_factory.hpp:77] Creating layer inception_5a/relu_3x3_reduce
I1226 02:45:36.167093  7883 net.cpp:94] Creating Layer inception_5a/relu_3x3_reduce
I1226 02:45:36.167098  7883 net.cpp:435] inception_5a/relu_3x3_reduce <- inception_5a/3x3_reduce
I1226 02:45:36.167100  7883 net.cpp:396] inception_5a/relu_3x3_reduce -> inception_5a/3x3_reduce (in-place)
I1226 02:45:36.167104  7883 net.cpp:144] Setting up inception_5a/relu_3x3_reduce
I1226 02:45:36.167105  7883 net.cpp:151] Top shape: 1 160 12 24 (46080)
I1226 02:45:36.167109  7883 net.cpp:159] Memory required for data: 409264132
I1226 02:45:36.167109  7883 layer_factory.hpp:77] Creating layer inception_5a/3x3_reduce_fixed
I1226 02:45:36.167114  7883 net.cpp:94] Creating Layer inception_5a/3x3_reduce_fixed
I1226 02:45:36.167115  7883 net.cpp:435] inception_5a/3x3_reduce_fixed <- inception_5a/3x3_reduce
I1226 02:45:36.167119  7883 net.cpp:396] inception_5a/3x3_reduce_fixed -> inception_5a/3x3_reduce (in-place)
I1226 02:45:36.167137  7883 net.cpp:144] Setting up inception_5a/3x3_reduce_fixed
I1226 02:45:36.167142  7883 net.cpp:151] Top shape: 1 160 12 24 (46080)
I1226 02:45:36.167145  7883 net.cpp:159] Memory required for data: 409448452
I1226 02:45:36.167147  7883 layer_factory.hpp:77] Creating layer inception_5a/3x3
I1226 02:45:36.167151  7883 net.cpp:94] Creating Layer inception_5a/3x3
I1226 02:45:36.167153  7883 net.cpp:435] inception_5a/3x3 <- inception_5a/3x3_reduce
I1226 02:45:36.167157  7883 net.cpp:409] inception_5a/3x3 -> inception_5a/3x3
I1226 02:45:36.171041  7883 layer_factory.hpp:77] Creating layer inception_5a/3x3
I1226 02:45:36.174932  7883 net.cpp:144] Setting up inception_5a/3x3
I1226 02:45:36.174947  7883 net.cpp:151] Top shape: 1 320 12 24 (92160)
I1226 02:45:36.174953  7883 net.cpp:159] Memory required for data: 409817092
I1226 02:45:36.174962  7883 layer_factory.hpp:77] Creating layer inception_5a/relu_3x3
I1226 02:45:36.174969  7883 net.cpp:94] Creating Layer inception_5a/relu_3x3
I1226 02:45:36.174975  7883 net.cpp:435] inception_5a/relu_3x3 <- inception_5a/3x3
I1226 02:45:36.174980  7883 net.cpp:396] inception_5a/relu_3x3 -> inception_5a/3x3 (in-place)
I1226 02:45:36.174988  7883 net.cpp:144] Setting up inception_5a/relu_3x3
I1226 02:45:36.174991  7883 net.cpp:151] Top shape: 1 320 12 24 (92160)
I1226 02:45:36.174994  7883 net.cpp:159] Memory required for data: 410185732
I1226 02:45:36.174996  7883 layer_factory.hpp:77] Creating layer inception_5a/5x5_reduce
I1226 02:45:36.175005  7883 net.cpp:94] Creating Layer inception_5a/5x5_reduce
I1226 02:45:36.175010  7883 net.cpp:435] inception_5a/5x5_reduce <- pool4/3x3_s2_pool4/3x3_s2_0_split_2
I1226 02:45:36.175014  7883 net.cpp:409] inception_5a/5x5_reduce -> inception_5a/5x5_reduce
I1226 02:45:36.175288  7883 layer_factory.hpp:77] Creating layer inception_5a/5x5_reduce
I1226 02:45:36.175637  7883 net.cpp:144] Setting up inception_5a/5x5_reduce
I1226 02:45:36.175642  7883 net.cpp:151] Top shape: 1 32 12 24 (9216)
I1226 02:45:36.175644  7883 net.cpp:159] Memory required for data: 410222596
I1226 02:45:36.175648  7883 layer_factory.hpp:77] Creating layer inception_5a/relu_5x5_reduce
I1226 02:45:36.175652  7883 net.cpp:94] Creating Layer inception_5a/relu_5x5_reduce
I1226 02:45:36.175654  7883 net.cpp:435] inception_5a/relu_5x5_reduce <- inception_5a/5x5_reduce
I1226 02:45:36.175657  7883 net.cpp:396] inception_5a/relu_5x5_reduce -> inception_5a/5x5_reduce (in-place)
I1226 02:45:36.175662  7883 net.cpp:144] Setting up inception_5a/relu_5x5_reduce
I1226 02:45:36.175664  7883 net.cpp:151] Top shape: 1 32 12 24 (9216)
I1226 02:45:36.175668  7883 net.cpp:159] Memory required for data: 410259460
I1226 02:45:36.175669  7883 layer_factory.hpp:77] Creating layer inception_5a/5x5_reduce_fixed
I1226 02:45:36.175674  7883 net.cpp:94] Creating Layer inception_5a/5x5_reduce_fixed
I1226 02:45:36.175676  7883 net.cpp:435] inception_5a/5x5_reduce_fixed <- inception_5a/5x5_reduce
I1226 02:45:36.175680  7883 net.cpp:396] inception_5a/5x5_reduce_fixed -> inception_5a/5x5_reduce (in-place)
I1226 02:45:36.175701  7883 net.cpp:144] Setting up inception_5a/5x5_reduce_fixed
I1226 02:45:36.175704  7883 net.cpp:151] Top shape: 1 32 12 24 (9216)
I1226 02:45:36.175706  7883 net.cpp:159] Memory required for data: 410296324
I1226 02:45:36.175710  7883 layer_factory.hpp:77] Creating layer inception_5a/5x5
I1226 02:45:36.175716  7883 net.cpp:94] Creating Layer inception_5a/5x5
I1226 02:45:36.175717  7883 net.cpp:435] inception_5a/5x5 <- inception_5a/5x5_reduce
I1226 02:45:36.175720  7883 net.cpp:409] inception_5a/5x5 -> inception_5a/5x5
I1226 02:45:36.176508  7883 layer_factory.hpp:77] Creating layer inception_5a/5x5
I1226 02:45:36.178354  7883 net.cpp:144] Setting up inception_5a/5x5
I1226 02:45:36.178366  7883 net.cpp:151] Top shape: 1 128 12 24 (36864)
I1226 02:45:36.178372  7883 net.cpp:159] Memory required for data: 410443780
I1226 02:45:36.178380  7883 layer_factory.hpp:77] Creating layer inception_5a/relu_5x5
I1226 02:45:36.178385  7883 net.cpp:94] Creating Layer inception_5a/relu_5x5
I1226 02:45:36.178388  7883 net.cpp:435] inception_5a/relu_5x5 <- inception_5a/5x5
I1226 02:45:36.178393  7883 net.cpp:396] inception_5a/relu_5x5 -> inception_5a/5x5 (in-place)
I1226 02:45:36.178400  7883 net.cpp:144] Setting up inception_5a/relu_5x5
I1226 02:45:36.178401  7883 net.cpp:151] Top shape: 1 128 12 24 (36864)
I1226 02:45:36.178404  7883 net.cpp:159] Memory required for data: 410591236
I1226 02:45:36.178407  7883 layer_factory.hpp:77] Creating layer inception_5a/pool
I1226 02:45:36.178411  7883 net.cpp:94] Creating Layer inception_5a/pool
I1226 02:45:36.178414  7883 net.cpp:435] inception_5a/pool <- pool4/3x3_s2_pool4/3x3_s2_0_split_3
I1226 02:45:36.178417  7883 net.cpp:409] inception_5a/pool -> inception_5a/pool
I1226 02:45:36.178445  7883 net.cpp:144] Setting up inception_5a/pool
I1226 02:45:36.178448  7883 net.cpp:151] Top shape: 1 832 12 24 (239616)
I1226 02:45:36.178450  7883 net.cpp:159] Memory required for data: 411549700
I1226 02:45:36.178453  7883 layer_factory.hpp:77] Creating layer inception_5a/pool_proj
I1226 02:45:36.178460  7883 net.cpp:94] Creating Layer inception_5a/pool_proj
I1226 02:45:36.178462  7883 net.cpp:435] inception_5a/pool_proj <- inception_5a/pool
I1226 02:45:36.178467  7883 net.cpp:409] inception_5a/pool_proj -> inception_5a/pool_proj
I1226 02:45:36.179277  7883 layer_factory.hpp:77] Creating layer inception_5a/pool_proj
I1226 02:45:36.180653  7883 net.cpp:144] Setting up inception_5a/pool_proj
I1226 02:45:36.180660  7883 net.cpp:151] Top shape: 1 128 12 24 (36864)
I1226 02:45:36.180663  7883 net.cpp:159] Memory required for data: 411697156
I1226 02:45:36.180675  7883 layer_factory.hpp:77] Creating layer inception_5a/relu_pool_proj
I1226 02:45:36.180680  7883 net.cpp:94] Creating Layer inception_5a/relu_pool_proj
I1226 02:45:36.180682  7883 net.cpp:435] inception_5a/relu_pool_proj <- inception_5a/pool_proj
I1226 02:45:36.180686  7883 net.cpp:396] inception_5a/relu_pool_proj -> inception_5a/pool_proj (in-place)
I1226 02:45:36.180691  7883 net.cpp:144] Setting up inception_5a/relu_pool_proj
I1226 02:45:36.180693  7883 net.cpp:151] Top shape: 1 128 12 24 (36864)
I1226 02:45:36.180696  7883 net.cpp:159] Memory required for data: 411844612
I1226 02:45:36.180698  7883 layer_factory.hpp:77] Creating layer inception_5a/output
I1226 02:45:36.180702  7883 net.cpp:94] Creating Layer inception_5a/output
I1226 02:45:36.180706  7883 net.cpp:435] inception_5a/output <- inception_5a/1x1
I1226 02:45:36.180708  7883 net.cpp:435] inception_5a/output <- inception_5a/3x3
I1226 02:45:36.180711  7883 net.cpp:435] inception_5a/output <- inception_5a/5x5
I1226 02:45:36.180714  7883 net.cpp:435] inception_5a/output <- inception_5a/pool_proj
I1226 02:45:36.180718  7883 net.cpp:409] inception_5a/output -> inception_5a/output
I1226 02:45:36.180734  7883 net.cpp:144] Setting up inception_5a/output
I1226 02:45:36.180737  7883 net.cpp:151] Top shape: 1 832 12 24 (239616)
I1226 02:45:36.180740  7883 net.cpp:159] Memory required for data: 412803076
I1226 02:45:36.180742  7883 layer_factory.hpp:77] Creating layer inception_5a/output_fixed
I1226 02:45:36.180745  7883 net.cpp:94] Creating Layer inception_5a/output_fixed
I1226 02:45:36.180747  7883 net.cpp:435] inception_5a/output_fixed <- inception_5a/output
I1226 02:45:36.180752  7883 net.cpp:396] inception_5a/output_fixed -> inception_5a/output (in-place)
I1226 02:45:36.180773  7883 net.cpp:144] Setting up inception_5a/output_fixed
I1226 02:45:36.180776  7883 net.cpp:151] Top shape: 1 832 12 24 (239616)
I1226 02:45:36.180778  7883 net.cpp:159] Memory required for data: 413761540
I1226 02:45:36.180781  7883 layer_factory.hpp:77] Creating layer inception_5a/output_inception_5a/output_fixed_0_split
I1226 02:45:36.180785  7883 net.cpp:94] Creating Layer inception_5a/output_inception_5a/output_fixed_0_split
I1226 02:45:36.180788  7883 net.cpp:435] inception_5a/output_inception_5a/output_fixed_0_split <- inception_5a/output
I1226 02:45:36.180790  7883 net.cpp:409] inception_5a/output_inception_5a/output_fixed_0_split -> inception_5a/output_inception_5a/output_fixed_0_split_0
I1226 02:45:36.180794  7883 net.cpp:409] inception_5a/output_inception_5a/output_fixed_0_split -> inception_5a/output_inception_5a/output_fixed_0_split_1
I1226 02:45:36.180799  7883 net.cpp:409] inception_5a/output_inception_5a/output_fixed_0_split -> inception_5a/output_inception_5a/output_fixed_0_split_2
I1226 02:45:36.180801  7883 net.cpp:409] inception_5a/output_inception_5a/output_fixed_0_split -> inception_5a/output_inception_5a/output_fixed_0_split_3
I1226 02:45:36.180836  7883 net.cpp:144] Setting up inception_5a/output_inception_5a/output_fixed_0_split
I1226 02:45:36.180840  7883 net.cpp:151] Top shape: 1 832 12 24 (239616)
I1226 02:45:36.180841  7883 net.cpp:151] Top shape: 1 832 12 24 (239616)
I1226 02:45:36.180845  7883 net.cpp:151] Top shape: 1 832 12 24 (239616)
I1226 02:45:36.180846  7883 net.cpp:151] Top shape: 1 832 12 24 (239616)
I1226 02:45:36.180848  7883 net.cpp:159] Memory required for data: 417595396
I1226 02:45:36.180850  7883 layer_factory.hpp:77] Creating layer inception_5b/1x1
I1226 02:45:36.180856  7883 net.cpp:94] Creating Layer inception_5b/1x1
I1226 02:45:36.180858  7883 net.cpp:435] inception_5b/1x1 <- inception_5a/output_inception_5a/output_fixed_0_split_0
I1226 02:45:36.180862  7883 net.cpp:409] inception_5b/1x1 -> inception_5b/1x1
I1226 02:45:36.183188  7883 layer_factory.hpp:77] Creating layer inception_5b/1x1
I1226 02:45:36.187142  7883 net.cpp:144] Setting up inception_5b/1x1
I1226 02:45:36.187152  7883 net.cpp:151] Top shape: 1 384 12 24 (110592)
I1226 02:45:36.187157  7883 net.cpp:159] Memory required for data: 418037764
I1226 02:45:36.187165  7883 layer_factory.hpp:77] Creating layer inception_5b/relu_1x1
I1226 02:45:36.187170  7883 net.cpp:94] Creating Layer inception_5b/relu_1x1
I1226 02:45:36.187173  7883 net.cpp:435] inception_5b/relu_1x1 <- inception_5b/1x1
I1226 02:45:36.187177  7883 net.cpp:396] inception_5b/relu_1x1 -> inception_5b/1x1 (in-place)
I1226 02:45:36.187183  7883 net.cpp:144] Setting up inception_5b/relu_1x1
I1226 02:45:36.187186  7883 net.cpp:151] Top shape: 1 384 12 24 (110592)
I1226 02:45:36.187188  7883 net.cpp:159] Memory required for data: 418480132
I1226 02:45:36.187191  7883 layer_factory.hpp:77] Creating layer inception_5b/3x3_reduce
I1226 02:45:36.187198  7883 net.cpp:94] Creating Layer inception_5b/3x3_reduce
I1226 02:45:36.187201  7883 net.cpp:435] inception_5b/3x3_reduce <- inception_5a/output_inception_5a/output_fixed_0_split_1
I1226 02:45:36.187204  7883 net.cpp:409] inception_5b/3x3_reduce -> inception_5b/3x3_reduce
I1226 02:45:36.188158  7883 layer_factory.hpp:77] Creating layer inception_5b/3x3_reduce
I1226 02:45:36.189810  7883 net.cpp:144] Setting up inception_5b/3x3_reduce
I1226 02:45:36.189816  7883 net.cpp:151] Top shape: 1 192 12 24 (55296)
I1226 02:45:36.189821  7883 net.cpp:159] Memory required for data: 418701316
I1226 02:45:36.189826  7883 layer_factory.hpp:77] Creating layer inception_5b/relu_3x3_reduce
I1226 02:45:36.189831  7883 net.cpp:94] Creating Layer inception_5b/relu_3x3_reduce
I1226 02:45:36.189833  7883 net.cpp:435] inception_5b/relu_3x3_reduce <- inception_5b/3x3_reduce
I1226 02:45:36.189837  7883 net.cpp:396] inception_5b/relu_3x3_reduce -> inception_5b/3x3_reduce (in-place)
I1226 02:45:36.189843  7883 net.cpp:144] Setting up inception_5b/relu_3x3_reduce
I1226 02:45:36.189846  7883 net.cpp:151] Top shape: 1 192 12 24 (55296)
I1226 02:45:36.189848  7883 net.cpp:159] Memory required for data: 418922500
I1226 02:45:36.189851  7883 layer_factory.hpp:77] Creating layer inception_5b/3x3_reduce_fixed
I1226 02:45:36.189857  7883 net.cpp:94] Creating Layer inception_5b/3x3_reduce_fixed
I1226 02:45:36.189858  7883 net.cpp:435] inception_5b/3x3_reduce_fixed <- inception_5b/3x3_reduce
I1226 02:45:36.189862  7883 net.cpp:396] inception_5b/3x3_reduce_fixed -> inception_5b/3x3_reduce (in-place)
I1226 02:45:36.189882  7883 net.cpp:144] Setting up inception_5b/3x3_reduce_fixed
I1226 02:45:36.189885  7883 net.cpp:151] Top shape: 1 192 12 24 (55296)
I1226 02:45:36.189888  7883 net.cpp:159] Memory required for data: 419143684
I1226 02:45:36.189890  7883 layer_factory.hpp:77] Creating layer inception_5b/3x3
I1226 02:45:36.189895  7883 net.cpp:94] Creating Layer inception_5b/3x3
I1226 02:45:36.189896  7883 net.cpp:435] inception_5b/3x3 <- inception_5b/3x3_reduce
I1226 02:45:36.189899  7883 net.cpp:409] inception_5b/3x3 -> inception_5b/3x3
I1226 02:45:36.195000  7883 layer_factory.hpp:77] Creating layer inception_5b/3x3
I1226 02:45:36.200258  7883 net.cpp:144] Setting up inception_5b/3x3
I1226 02:45:36.200270  7883 net.cpp:151] Top shape: 1 384 12 24 (110592)
I1226 02:45:36.200276  7883 net.cpp:159] Memory required for data: 419586052
I1226 02:45:36.200285  7883 layer_factory.hpp:77] Creating layer inception_5b/relu_3x3
I1226 02:45:36.200291  7883 net.cpp:94] Creating Layer inception_5b/relu_3x3
I1226 02:45:36.200295  7883 net.cpp:435] inception_5b/relu_3x3 <- inception_5b/3x3
I1226 02:45:36.200301  7883 net.cpp:396] inception_5b/relu_3x3 -> inception_5b/3x3 (in-place)
I1226 02:45:36.200309  7883 net.cpp:144] Setting up inception_5b/relu_3x3
I1226 02:45:36.200311  7883 net.cpp:151] Top shape: 1 384 12 24 (110592)
I1226 02:45:36.200314  7883 net.cpp:159] Memory required for data: 420028420
I1226 02:45:36.200317  7883 layer_factory.hpp:77] Creating layer inception_5b/5x5_reduce
I1226 02:45:36.200325  7883 net.cpp:94] Creating Layer inception_5b/5x5_reduce
I1226 02:45:36.200328  7883 net.cpp:435] inception_5b/5x5_reduce <- inception_5a/output_inception_5a/output_fixed_0_split_2
I1226 02:45:36.200332  7883 net.cpp:409] inception_5b/5x5_reduce -> inception_5b/5x5_reduce
I1226 02:45:36.200677  7883 layer_factory.hpp:77] Creating layer inception_5b/5x5_reduce
I1226 02:45:36.201107  7883 net.cpp:144] Setting up inception_5b/5x5_reduce
I1226 02:45:36.201112  7883 net.cpp:151] Top shape: 1 48 12 24 (13824)
I1226 02:45:36.201113  7883 net.cpp:159] Memory required for data: 420083716
I1226 02:45:36.201118  7883 layer_factory.hpp:77] Creating layer inception_5b/relu_5x5_reduce
I1226 02:45:36.201122  7883 net.cpp:94] Creating Layer inception_5b/relu_5x5_reduce
I1226 02:45:36.201124  7883 net.cpp:435] inception_5b/relu_5x5_reduce <- inception_5b/5x5_reduce
I1226 02:45:36.201128  7883 net.cpp:396] inception_5b/relu_5x5_reduce -> inception_5b/5x5_reduce (in-place)
I1226 02:45:36.201133  7883 net.cpp:144] Setting up inception_5b/relu_5x5_reduce
I1226 02:45:36.201134  7883 net.cpp:151] Top shape: 1 48 12 24 (13824)
I1226 02:45:36.201138  7883 net.cpp:159] Memory required for data: 420139012
I1226 02:45:36.201139  7883 layer_factory.hpp:77] Creating layer inception_5b/5x5_reduce_fixed
I1226 02:45:36.201144  7883 net.cpp:94] Creating Layer inception_5b/5x5_reduce_fixed
I1226 02:45:36.201148  7883 net.cpp:435] inception_5b/5x5_reduce_fixed <- inception_5b/5x5_reduce
I1226 02:45:36.201149  7883 net.cpp:396] inception_5b/5x5_reduce_fixed -> inception_5b/5x5_reduce (in-place)
I1226 02:45:36.201174  7883 net.cpp:144] Setting up inception_5b/5x5_reduce_fixed
I1226 02:45:36.201176  7883 net.cpp:151] Top shape: 1 48 12 24 (13824)
I1226 02:45:36.201179  7883 net.cpp:159] Memory required for data: 420194308
I1226 02:45:36.201181  7883 layer_factory.hpp:77] Creating layer inception_5b/5x5
I1226 02:45:36.201185  7883 net.cpp:94] Creating Layer inception_5b/5x5
I1226 02:45:36.201187  7883 net.cpp:435] inception_5b/5x5 <- inception_5b/5x5_reduce
I1226 02:45:36.201191  7883 net.cpp:409] inception_5b/5x5 -> inception_5b/5x5
I1226 02:45:36.202111  7883 layer_factory.hpp:77] Creating layer inception_5b/5x5
I1226 02:45:36.203989  7883 net.cpp:144] Setting up inception_5b/5x5
I1226 02:45:36.203996  7883 net.cpp:151] Top shape: 1 128 12 24 (36864)
I1226 02:45:36.204000  7883 net.cpp:159] Memory required for data: 420341764
I1226 02:45:36.204005  7883 layer_factory.hpp:77] Creating layer inception_5b/relu_5x5
I1226 02:45:36.204008  7883 net.cpp:94] Creating Layer inception_5b/relu_5x5
I1226 02:45:36.204010  7883 net.cpp:435] inception_5b/relu_5x5 <- inception_5b/5x5
I1226 02:45:36.204013  7883 net.cpp:396] inception_5b/relu_5x5 -> inception_5b/5x5 (in-place)
I1226 02:45:36.204017  7883 net.cpp:144] Setting up inception_5b/relu_5x5
I1226 02:45:36.204020  7883 net.cpp:151] Top shape: 1 128 12 24 (36864)
I1226 02:45:36.204021  7883 net.cpp:159] Memory required for data: 420489220
I1226 02:45:36.204023  7883 layer_factory.hpp:77] Creating layer inception_5b/pool
I1226 02:45:36.204027  7883 net.cpp:94] Creating Layer inception_5b/pool
I1226 02:45:36.204030  7883 net.cpp:435] inception_5b/pool <- inception_5a/output_inception_5a/output_fixed_0_split_3
I1226 02:45:36.204032  7883 net.cpp:409] inception_5b/pool -> inception_5b/pool
I1226 02:45:36.204053  7883 net.cpp:144] Setting up inception_5b/pool
I1226 02:45:36.204056  7883 net.cpp:151] Top shape: 1 832 12 24 (239616)
I1226 02:45:36.204058  7883 net.cpp:159] Memory required for data: 421447684
I1226 02:45:36.204059  7883 layer_factory.hpp:77] Creating layer inception_5b/pool_proj
I1226 02:45:36.204063  7883 net.cpp:94] Creating Layer inception_5b/pool_proj
I1226 02:45:36.204066  7883 net.cpp:435] inception_5b/pool_proj <- inception_5b/pool
I1226 02:45:36.204068  7883 net.cpp:409] inception_5b/pool_proj -> inception_5b/pool_proj
I1226 02:45:36.204774  7883 layer_factory.hpp:77] Creating layer inception_5b/pool_proj
I1226 02:45:36.206185  7883 net.cpp:144] Setting up inception_5b/pool_proj
I1226 02:45:36.206192  7883 net.cpp:151] Top shape: 1 128 12 24 (36864)
I1226 02:45:36.206197  7883 net.cpp:159] Memory required for data: 421595140
I1226 02:45:36.206200  7883 layer_factory.hpp:77] Creating layer inception_5b/relu_pool_proj
I1226 02:45:36.206203  7883 net.cpp:94] Creating Layer inception_5b/relu_pool_proj
I1226 02:45:36.206207  7883 net.cpp:435] inception_5b/relu_pool_proj <- inception_5b/pool_proj
I1226 02:45:36.206210  7883 net.cpp:396] inception_5b/relu_pool_proj -> inception_5b/pool_proj (in-place)
I1226 02:45:36.206215  7883 net.cpp:144] Setting up inception_5b/relu_pool_proj
I1226 02:45:36.206218  7883 net.cpp:151] Top shape: 1 128 12 24 (36864)
I1226 02:45:36.206221  7883 net.cpp:159] Memory required for data: 421742596
I1226 02:45:36.206223  7883 layer_factory.hpp:77] Creating layer inception_5b/output
I1226 02:45:36.206228  7883 net.cpp:94] Creating Layer inception_5b/output
I1226 02:45:36.206230  7883 net.cpp:435] inception_5b/output <- inception_5b/1x1
I1226 02:45:36.206233  7883 net.cpp:435] inception_5b/output <- inception_5b/3x3
I1226 02:45:36.206234  7883 net.cpp:435] inception_5b/output <- inception_5b/5x5
I1226 02:45:36.206238  7883 net.cpp:435] inception_5b/output <- inception_5b/pool_proj
I1226 02:45:36.206239  7883 net.cpp:409] inception_5b/output -> inception_5b/output
I1226 02:45:36.206254  7883 net.cpp:144] Setting up inception_5b/output
I1226 02:45:36.206257  7883 net.cpp:151] Top shape: 1 1024 12 24 (294912)
I1226 02:45:36.206259  7883 net.cpp:159] Memory required for data: 422922244
I1226 02:45:36.206261  7883 layer_factory.hpp:77] Creating layer inception_5b/output_fixed
I1226 02:45:36.206265  7883 net.cpp:94] Creating Layer inception_5b/output_fixed
I1226 02:45:36.206267  7883 net.cpp:435] inception_5b/output_fixed <- inception_5b/output
I1226 02:45:36.206269  7883 net.cpp:396] inception_5b/output_fixed -> inception_5b/output (in-place)
I1226 02:45:36.206291  7883 net.cpp:144] Setting up inception_5b/output_fixed
I1226 02:45:36.206293  7883 net.cpp:151] Top shape: 1 1024 12 24 (294912)
I1226 02:45:36.206296  7883 net.cpp:159] Memory required for data: 424101892
I1226 02:45:36.206298  7883 layer_factory.hpp:77] Creating layer p5
I1226 02:45:36.206305  7883 net.cpp:94] Creating Layer p5
I1226 02:45:36.206307  7883 net.cpp:435] p5 <- inception_5b/output
I1226 02:45:36.206310  7883 net.cpp:409] p5 -> p5
I1226 02:45:36.206619  7883 layer_factory.hpp:77] Creating layer p5
I1226 02:45:36.206995  7883 net.cpp:144] Setting up p5
I1226 02:45:36.207000  7883 net.cpp:151] Top shape: 1 32 12 24 (9216)
I1226 02:45:36.207002  7883 net.cpp:159] Memory required for data: 424138756
I1226 02:45:36.207006  7883 layer_factory.hpp:77] Creating layer p5_fixed
I1226 02:45:36.207011  7883 net.cpp:94] Creating Layer p5_fixed
I1226 02:45:36.207015  7883 net.cpp:435] p5_fixed <- p5
I1226 02:45:36.207017  7883 net.cpp:396] p5_fixed -> p5 (in-place)
I1226 02:45:36.207038  7883 net.cpp:144] Setting up p5_fixed
I1226 02:45:36.207041  7883 net.cpp:151] Top shape: 1 32 12 24 (9216)
I1226 02:45:36.207043  7883 net.cpp:159] Memory required for data: 424175620
I1226 02:45:36.207046  7883 layer_factory.hpp:77] Creating layer latlayer_4f
I1226 02:45:36.207051  7883 net.cpp:94] Creating Layer latlayer_4f
I1226 02:45:36.207052  7883 net.cpp:435] latlayer_4f <- inception_4e/output_inception_4e/output_fixed_0_split_1
I1226 02:45:36.207056  7883 net.cpp:409] latlayer_4f -> latlayer_4f
I1226 02:45:36.207312  7883 layer_factory.hpp:77] Creating layer latlayer_4f
I1226 02:45:36.207661  7883 net.cpp:144] Setting up latlayer_4f
I1226 02:45:36.207665  7883 net.cpp:151] Top shape: 1 32 24 48 (36864)
I1226 02:45:36.207669  7883 net.cpp:159] Memory required for data: 424323076
I1226 02:45:36.207672  7883 layer_factory.hpp:77] Creating layer latlayer_4f_fixed
I1226 02:45:36.207676  7883 net.cpp:94] Creating Layer latlayer_4f_fixed
I1226 02:45:36.207679  7883 net.cpp:435] latlayer_4f_fixed <- latlayer_4f
I1226 02:45:36.207684  7883 net.cpp:396] latlayer_4f_fixed -> latlayer_4f (in-place)
I1226 02:45:36.207702  7883 net.cpp:144] Setting up latlayer_4f_fixed
I1226 02:45:36.207705  7883 net.cpp:151] Top shape: 1 32 24 48 (36864)
I1226 02:45:36.207708  7883 net.cpp:159] Memory required for data: 424470532
I1226 02:45:36.207711  7883 layer_factory.hpp:77] Creating layer upsample_p5
I1226 02:45:36.207717  7883 net.cpp:94] Creating Layer upsample_p5
I1226 02:45:36.207720  7883 net.cpp:435] upsample_p5 <- p5
I1226 02:45:36.207723  7883 net.cpp:409] upsample_p5 -> upsample_p5
I1226 02:45:36.207901  7883 layer_factory.hpp:77] Creating layer upsample_p5
I1226 02:45:36.208128  7883 net.cpp:144] Setting up upsample_p5
I1226 02:45:36.208132  7883 net.cpp:151] Top shape: 1 32 24 48 (36864)
I1226 02:45:36.208135  7883 net.cpp:159] Memory required for data: 424617988
I1226 02:45:36.208137  7883 layer_factory.hpp:77] Creating layer upsample_p5_fixed
I1226 02:45:36.208142  7883 net.cpp:94] Creating Layer upsample_p5_fixed
I1226 02:45:36.208143  7883 net.cpp:435] upsample_p5_fixed <- upsample_p5
I1226 02:45:36.208148  7883 net.cpp:396] upsample_p5_fixed -> upsample_p5 (in-place)
I1226 02:45:36.208168  7883 net.cpp:144] Setting up upsample_p5_fixed
I1226 02:45:36.208171  7883 net.cpp:151] Top shape: 1 32 24 48 (36864)
I1226 02:45:36.208173  7883 net.cpp:159] Memory required for data: 424765444
I1226 02:45:36.208178  7883 layer_factory.hpp:77] Creating layer add_p4
I1226 02:45:36.208181  7883 net.cpp:94] Creating Layer add_p4
I1226 02:45:36.208184  7883 net.cpp:435] add_p4 <- upsample_p5
I1226 02:45:36.208185  7883 net.cpp:435] add_p4 <- latlayer_4f
I1226 02:45:36.208189  7883 net.cpp:409] add_p4 -> add_p4
I1226 02:45:36.208201  7883 net.cpp:144] Setting up add_p4
I1226 02:45:36.208204  7883 net.cpp:151] Top shape: 1 32 24 48 (36864)
I1226 02:45:36.208206  7883 net.cpp:159] Memory required for data: 424912900
I1226 02:45:36.208209  7883 layer_factory.hpp:77] Creating layer add_p4_fixed
I1226 02:45:36.208211  7883 net.cpp:94] Creating Layer add_p4_fixed
I1226 02:45:36.208214  7883 net.cpp:435] add_p4_fixed <- add_p4
I1226 02:45:36.208216  7883 net.cpp:396] add_p4_fixed -> add_p4 (in-place)
I1226 02:45:36.208235  7883 net.cpp:144] Setting up add_p4_fixed
I1226 02:45:36.208237  7883 net.cpp:151] Top shape: 1 32 24 48 (36864)
I1226 02:45:36.208240  7883 net.cpp:159] Memory required for data: 425060356
I1226 02:45:36.208242  7883 layer_factory.hpp:77] Creating layer toplayer_p4
I1226 02:45:36.208247  7883 net.cpp:94] Creating Layer toplayer_p4
I1226 02:45:36.208250  7883 net.cpp:435] toplayer_p4 <- add_p4
I1226 02:45:36.208253  7883 net.cpp:409] toplayer_p4 -> p4
I1226 02:45:36.208415  7883 layer_factory.hpp:77] Creating layer toplayer_p4
I1226 02:45:36.208699  7883 net.cpp:144] Setting up toplayer_p4
I1226 02:45:36.208707  7883 net.cpp:151] Top shape: 1 32 24 48 (36864)
I1226 02:45:36.208710  7883 net.cpp:159] Memory required for data: 425207812
I1226 02:45:36.208715  7883 layer_factory.hpp:77] Creating layer p4_fixed
I1226 02:45:36.208720  7883 net.cpp:94] Creating Layer p4_fixed
I1226 02:45:36.208722  7883 net.cpp:435] p4_fixed <- p4
I1226 02:45:36.208725  7883 net.cpp:396] p4_fixed -> p4 (in-place)
I1226 02:45:36.208745  7883 net.cpp:144] Setting up p4_fixed
I1226 02:45:36.208748  7883 net.cpp:151] Top shape: 1 32 24 48 (36864)
I1226 02:45:36.208751  7883 net.cpp:159] Memory required for data: 425355268
I1226 02:45:36.208755  7883 layer_factory.hpp:77] Creating layer latlayer_3d
I1226 02:45:36.208760  7883 net.cpp:94] Creating Layer latlayer_3d
I1226 02:45:36.208765  7883 net.cpp:435] latlayer_3d <- inception_3b/output_inception_3b/output_fixed_0_split_1
I1226 02:45:36.208768  7883 net.cpp:409] latlayer_3d -> latlayer_3d
I1226 02:45:36.208966  7883 layer_factory.hpp:77] Creating layer latlayer_3d
I1226 02:45:36.209280  7883 net.cpp:144] Setting up latlayer_3d
I1226 02:45:36.209287  7883 net.cpp:151] Top shape: 1 32 48 96 (147456)
I1226 02:45:36.209292  7883 net.cpp:159] Memory required for data: 425945092
I1226 02:45:36.209297  7883 layer_factory.hpp:77] Creating layer latlayer_3d_fixed
I1226 02:45:36.209304  7883 net.cpp:94] Creating Layer latlayer_3d_fixed
I1226 02:45:36.209307  7883 net.cpp:435] latlayer_3d_fixed <- latlayer_3d
I1226 02:45:36.209313  7883 net.cpp:396] latlayer_3d_fixed -> latlayer_3d (in-place)
I1226 02:45:36.209336  7883 net.cpp:144] Setting up latlayer_3d_fixed
I1226 02:45:36.209340  7883 net.cpp:151] Top shape: 1 32 48 96 (147456)
I1226 02:45:36.209343  7883 net.cpp:159] Memory required for data: 426534916
I1226 02:45:36.209347  7883 layer_factory.hpp:77] Creating layer upsample_p4
I1226 02:45:36.209352  7883 net.cpp:94] Creating Layer upsample_p4
I1226 02:45:36.209355  7883 net.cpp:435] upsample_p4 <- p4
I1226 02:45:36.209360  7883 net.cpp:409] upsample_p4 -> upsample_p4
I1226 02:45:36.209627  7883 layer_factory.hpp:77] Creating layer upsample_p4
I1226 02:45:36.209959  7883 net.cpp:144] Setting up upsample_p4
I1226 02:45:36.209965  7883 net.cpp:151] Top shape: 1 32 48 96 (147456)
I1226 02:45:36.209969  7883 net.cpp:159] Memory required for data: 427124740
I1226 02:45:36.209975  7883 layer_factory.hpp:77] Creating layer upsample_p4_fixed
I1226 02:45:36.209978  7883 net.cpp:94] Creating Layer upsample_p4_fixed
I1226 02:45:36.209980  7883 net.cpp:435] upsample_p4_fixed <- upsample_p4
I1226 02:45:36.209985  7883 net.cpp:396] upsample_p4_fixed -> upsample_p4 (in-place)
I1226 02:45:36.210009  7883 net.cpp:144] Setting up upsample_p4_fixed
I1226 02:45:36.210013  7883 net.cpp:151] Top shape: 1 32 48 96 (147456)
I1226 02:45:36.210016  7883 net.cpp:159] Memory required for data: 427714564
I1226 02:45:36.210019  7883 layer_factory.hpp:77] Creating layer add_p3
I1226 02:45:36.210023  7883 net.cpp:94] Creating Layer add_p3
I1226 02:45:36.210026  7883 net.cpp:435] add_p3 <- upsample_p4
I1226 02:45:36.210029  7883 net.cpp:435] add_p3 <- latlayer_3d
I1226 02:45:36.210032  7883 net.cpp:409] add_p3 -> add_p3
I1226 02:45:36.210048  7883 net.cpp:144] Setting up add_p3
I1226 02:45:36.210052  7883 net.cpp:151] Top shape: 1 32 48 96 (147456)
I1226 02:45:36.210055  7883 net.cpp:159] Memory required for data: 428304388
I1226 02:45:36.210057  7883 layer_factory.hpp:77] Creating layer add_p3_fixed
I1226 02:45:36.210062  7883 net.cpp:94] Creating Layer add_p3_fixed
I1226 02:45:36.210063  7883 net.cpp:435] add_p3_fixed <- add_p3
I1226 02:45:36.210067  7883 net.cpp:396] add_p3_fixed -> add_p3 (in-place)
I1226 02:45:36.210091  7883 net.cpp:144] Setting up add_p3_fixed
I1226 02:45:36.210095  7883 net.cpp:151] Top shape: 1 32 48 96 (147456)
I1226 02:45:36.210098  7883 net.cpp:159] Memory required for data: 428894212
I1226 02:45:36.210103  7883 layer_factory.hpp:77] Creating layer toplayer_p3
I1226 02:45:36.210108  7883 net.cpp:94] Creating Layer toplayer_p3
I1226 02:45:36.210110  7883 net.cpp:435] toplayer_p3 <- add_p3
I1226 02:45:36.210114  7883 net.cpp:409] toplayer_p3 -> p3
I1226 02:45:36.210335  7883 layer_factory.hpp:77] Creating layer toplayer_p3
I1226 02:45:36.210696  7883 net.cpp:144] Setting up toplayer_p3
I1226 02:45:36.210703  7883 net.cpp:151] Top shape: 1 32 48 96 (147456)
I1226 02:45:36.210706  7883 net.cpp:159] Memory required for data: 429484036
I1226 02:45:36.210711  7883 layer_factory.hpp:77] Creating layer p3_fixed
I1226 02:45:36.210716  7883 net.cpp:94] Creating Layer p3_fixed
I1226 02:45:36.210718  7883 net.cpp:435] p3_fixed <- p3
I1226 02:45:36.210722  7883 net.cpp:396] p3_fixed -> p3 (in-place)
I1226 02:45:36.210748  7883 net.cpp:144] Setting up p3_fixed
I1226 02:45:36.210753  7883 net.cpp:151] Top shape: 1 32 48 96 (147456)
I1226 02:45:36.210757  7883 net.cpp:159] Memory required for data: 430073860
I1226 02:45:36.210760  7883 layer_factory.hpp:77] Creating layer latlayer_2c
I1226 02:45:36.210767  7883 net.cpp:94] Creating Layer latlayer_2c
I1226 02:45:36.210769  7883 net.cpp:435] latlayer_2c <- conv2/3x3_conv2/3x3_fixed_0_split_1
I1226 02:45:36.210773  7883 net.cpp:409] latlayer_2c -> latlayer_2c
I1226 02:45:36.210968  7883 layer_factory.hpp:77] Creating layer latlayer_2c
I1226 02:45:36.211288  7883 net.cpp:144] Setting up latlayer_2c
I1226 02:45:36.211293  7883 net.cpp:151] Top shape: 1 32 96 192 (589824)
I1226 02:45:36.211297  7883 net.cpp:159] Memory required for data: 432433156
I1226 02:45:36.211302  7883 layer_factory.hpp:77] Creating layer latlayer_2c_fixed
I1226 02:45:36.211308  7883 net.cpp:94] Creating Layer latlayer_2c_fixed
I1226 02:45:36.211310  7883 net.cpp:435] latlayer_2c_fixed <- latlayer_2c
I1226 02:45:36.211314  7883 net.cpp:396] latlayer_2c_fixed -> latlayer_2c (in-place)
I1226 02:45:36.211341  7883 net.cpp:144] Setting up latlayer_2c_fixed
I1226 02:45:36.211345  7883 net.cpp:151] Top shape: 1 32 96 192 (589824)
I1226 02:45:36.211349  7883 net.cpp:159] Memory required for data: 434792452
I1226 02:45:36.211352  7883 layer_factory.hpp:77] Creating layer upsample_p3
I1226 02:45:36.211357  7883 net.cpp:94] Creating Layer upsample_p3
I1226 02:45:36.211360  7883 net.cpp:435] upsample_p3 <- p3
I1226 02:45:36.211364  7883 net.cpp:409] upsample_p3 -> upsample_p3
I1226 02:45:36.211621  7883 layer_factory.hpp:77] Creating layer upsample_p3
I1226 02:45:36.211935  7883 net.cpp:144] Setting up upsample_p3
I1226 02:45:36.211941  7883 net.cpp:151] Top shape: 1 32 96 192 (589824)
I1226 02:45:36.211944  7883 net.cpp:159] Memory required for data: 437151748
I1226 02:45:36.211948  7883 layer_factory.hpp:77] Creating layer upsample_p3_fixed
I1226 02:45:36.211952  7883 net.cpp:94] Creating Layer upsample_p3_fixed
I1226 02:45:36.211956  7883 net.cpp:435] upsample_p3_fixed <- upsample_p3
I1226 02:45:36.211958  7883 net.cpp:396] upsample_p3_fixed -> upsample_p3 (in-place)
I1226 02:45:36.211985  7883 net.cpp:144] Setting up upsample_p3_fixed
I1226 02:45:36.211988  7883 net.cpp:151] Top shape: 1 32 96 192 (589824)
I1226 02:45:36.211992  7883 net.cpp:159] Memory required for data: 439511044
I1226 02:45:36.211995  7883 layer_factory.hpp:77] Creating layer add_p2
I1226 02:45:36.212000  7883 net.cpp:94] Creating Layer add_p2
I1226 02:45:36.212002  7883 net.cpp:435] add_p2 <- upsample_p3
I1226 02:45:36.212005  7883 net.cpp:435] add_p2 <- latlayer_2c
I1226 02:45:36.212009  7883 net.cpp:409] add_p2 -> add_p2
I1226 02:45:36.212024  7883 net.cpp:144] Setting up add_p2
I1226 02:45:36.212028  7883 net.cpp:151] Top shape: 1 32 96 192 (589824)
I1226 02:45:36.212031  7883 net.cpp:159] Memory required for data: 441870340
I1226 02:45:36.212034  7883 layer_factory.hpp:77] Creating layer add_p2_fixed
I1226 02:45:36.212038  7883 net.cpp:94] Creating Layer add_p2_fixed
I1226 02:45:36.212040  7883 net.cpp:435] add_p2_fixed <- add_p2
I1226 02:45:36.212044  7883 net.cpp:396] add_p2_fixed -> add_p2 (in-place)
I1226 02:45:36.212069  7883 net.cpp:144] Setting up add_p2_fixed
I1226 02:45:36.212072  7883 net.cpp:151] Top shape: 1 32 96 192 (589824)
I1226 02:45:36.212075  7883 net.cpp:159] Memory required for data: 444229636
I1226 02:45:36.212080  7883 layer_factory.hpp:77] Creating layer toplayer_p2
I1226 02:45:36.212085  7883 net.cpp:94] Creating Layer toplayer_p2
I1226 02:45:36.212086  7883 net.cpp:435] toplayer_p2 <- add_p2
I1226 02:45:36.212090  7883 net.cpp:409] toplayer_p2 -> pred
I1226 02:45:36.212253  7883 layer_factory.hpp:77] Creating layer toplayer_p2
I1226 02:45:36.213660  7883 net.cpp:144] Setting up toplayer_p2
I1226 02:45:36.213670  7883 net.cpp:151] Top shape: 1 5 384 768 (1474560)
I1226 02:45:36.213675  7883 net.cpp:159] Memory required for data: 450127876
I1226 02:45:36.213680  7883 layer_factory.hpp:77] Creating layer pred_fixed
I1226 02:45:36.213685  7883 net.cpp:94] Creating Layer pred_fixed
I1226 02:45:36.213688  7883 net.cpp:435] pred_fixed <- pred
I1226 02:45:36.213693  7883 net.cpp:396] pred_fixed -> pred (in-place)
I1226 02:45:36.213726  7883 net.cpp:144] Setting up pred_fixed
I1226 02:45:36.213729  7883 net.cpp:151] Top shape: 1 5 384 768 (1474560)
I1226 02:45:36.213732  7883 net.cpp:159] Memory required for data: 456026116
I1226 02:45:36.213735  7883 layer_factory.hpp:77] Creating layer score
I1226 02:45:36.213740  7883 net.cpp:94] Creating Layer score
I1226 02:45:36.213743  7883 net.cpp:435] score <- pred
I1226 02:45:36.213747  7883 net.cpp:409] score -> score
I1226 02:45:36.213795  7883 net.cpp:144] Setting up score
I1226 02:45:36.213798  7883 net.cpp:151] Top shape: 1 5 384 768 (1474560)
I1226 02:45:36.213802  7883 net.cpp:159] Memory required for data: 461924356
I1226 02:45:36.213804  7883 net.cpp:222] score does not need backward computation.
I1226 02:45:36.213807  7883 net.cpp:222] pred_fixed does not need backward computation.
I1226 02:45:36.213809  7883 net.cpp:222] toplayer_p2 does not need backward computation.
I1226 02:45:36.213812  7883 net.cpp:222] add_p2_fixed does not need backward computation.
…
