…
  top: "label"
  include {
    phase: TRAIN
  }
  transform_param {
    scale: 1
    mean_value: 104
    mean_value: 117
    mean_value: 123
    resize_param {
      prob: 1
      resize_mode: WARP
      height: 320
      width: 640
    }
  }
  image_data_param {
    source: "/workspace/Vitis-AI-Tutorials/files/Segment/workspace/data/signate/signate_test_calibration.txt"
    batch_size: 1
    shuffle: true
    new_height: 320
    new_width: 640
    root_folder: "/workspace/Vitis-AI-Tutorials/files/Segment/workspace/data/signate/seg_test_images/"
  }
}
layer {
  name: "conv1/7x7_s2"
  type: "Convolution"
  bottom: "data"
  top: "conv1/7x7_s2_raw"
  param {
    lr_mult: 1
    decay_mult: 1
  }
  convolution_param {
    num_output: 64
    pad: 3
    kernel_size: 7
    stride: 2
    weight_filler {
      type: "msra"
    }
    bias_filler {
      type: "constant"
      value: 0.2
    }
  }
}
layer {
  name: "conv1/7x7_s2_BatchNorm"
  type: "BatchNorm"
  bottom: "conv1/7x7_s2_raw"
  top: "conv1/7x7_s2"
  param {
    lr_mult: 1
    decay_mult: 0
  }
  param {
    lr_mult: 1
    decay_mult: 0
  }
  param {
    lr_mult: 0
    decay_mult: 0
  }
  param {
    lr_mult: 0
    decay_mult: 0
  }
  batch_norm_param {
    use_global_stats: false
    eps: 1e-05
    scale_filler {
      type: "constant"
      value: 1
    }
    bias_filler {
      type: "constant"
      value: 0
    }
  }
}
layer {
  name: "conv1/relu_7x7"
  type: "ReLU"
  bottom: "conv1/7x7_s2"
  top: "conv1/7x7_s2"
}
layer {
  name: "pool1/3x3_s2"
  type: "Pooling"
  bottom: "conv1/7x7_s2"
  top: "pool1/3x3_s2"
  pooling_param {
    pool: MAX
    kernel_size: 3
    stride: 2
  }
}
layer {
  name: "conv2/3x3_reduce"
  type: "Convolution"
  bottom: "pool1/3x3_s2"
  top: "conv2/3x3_reduce_raw"
  param {
    lr_mult: 1
    decay_mult: 1
  }
  convolution_param {
    num_output: 64
    kernel_size: 1
    weight_filler {
      type: "msra"
    }
    bias_filler {
      type: "constant"
      value: 0.2
    }
  }
}
layer {
  name: "conv2/3x3_reduce_BatchNorm"
  type: "BatchNorm"
  bottom: "conv2/3x3_reduce_raw"
  top: "conv2/3x3_reduce"
  param {
    lr_mult: 1
    decay_mult: 0
  }
  param {
    lr_mult: 1
    decay_mult: 0
  }
  param {
    lr_mult: 0
    decay_mult: 0
  }
  param {
    lr_mult: 0
    decay_mult: 0
  }
  batch_norm_param {
    use_global_stats: false
    eps: 1e-05
    scale_filler {
      type: "constant"
      value: 1
    }
    bias_filler {
      type: "constant"
      value: 0
    }
  }
}
layer {
  name: "conv2/relu_3x3_reduce"
  type: "ReLU"
  bottom: "conv2/3x3_reduce"
  top: "conv2/3x3_reduce"
}
layer {
  name: "conv2/3x3"
  type: "Convolution"
  bottom: "conv2/3x3_reduce"
  top: "conv2/3x3_raw"
  param {
    lr_mult: 1
    decay_mult: 1
  }
  convolution_param {
    num_output: 192
    pad: 1
    kernel_size: 3
    weight_filler {
      type: "msra"
    }
    bias_filler {
      type: "constant"
      value: 0.2
    }
  }
}
layer {
  name: "conv2/3x3_BatchNorm"
  type: "BatchNorm"
  bottom: "conv2/3x3_raw"
  top: "conv2/3x3"
  param {
    lr_mult: 1
    decay_mult: 0
  }
  param {
    lr_mult: 1
    decay_mult: 0
  }
  param {
    lr_mult: 0
    decay_mult: 0
  }
  param {
    lr_mult: 0
    decay_mult: 0
  }
  batch_norm_param {
    use_global_stats: false
    eps: 1e-05
    scale_filler {
      type: "constant"
      value: 1
    }
    bias_filler {
      type: "constant"
      value: 0
    }
  }
}
layer {
  name: "conv2/relu_3x3"
  type: "ReLU"
  bottom: "conv2/3x3"
  top: "conv2/3x3"
}
layer {
  name: "pool2/3x3_s2"
  type: "Pooling"
  bottom: "conv2/3x3"
  top: "pool2/3x3_s2"
  pooling_param {
    pool: MAX
    kernel_size: 3
    stride: 2
  }
}
layer {
  name: "inception_3a/1x1"
  type: "Convolution"
  bottom: "pool2/3x3_s2"
  top: "inception_3a/1x1_raw"
  param {
    lr_mult: 1
    decay_mult: 1
  }
  convolution_param {
    num_output: 64
    kernel_size: 1
    weight_filler {
      type: "msra"
    }
    bias_filler {
      type: "constant"
      value: 0.2
    }
  }
}
layer {
  name: "inception_3a/1x1_BatchNorm"
  type: "BatchNorm"
  bottom: "inception_3a/1x1_raw"
  top: "inception_3a/1x1"
  param {
    lr_mult: 1
    decay_mult: 0
  }
  param {
    lr_mult: 1
    decay_mult: 0
  }
  param {
    lr_mult: 0
    decay_mult: 0
  }
  param {
    lr_mult: 0
    decay_mult: 0
  }
  batch_norm_param {
    use_global_stats: false
    eps: 1e-05
    scale_filler {
      type: "constant"
      value: 1
    }
    bias_filler {
      type: "constant"
      value: 0
    }
  }
}
layer {
  name: "inception_3a/relu_1x1"
  type: "ReLU"
  bottom: "inception_3a/1x1"
  top: "inception_3a/1x1"
}
layer {
  name: "inception_3a/3x3_reduce"
  type: "Convolution"
  bottom: "pool2/3x3_s2"
  top: "inception_3a/3x3_reduce_raw"
  param {
    lr_mult: 1
    decay_mult: 1
  }
  convolution_param {
    num_output: 96
    kernel_size: 1
    weight_filler {
      type: "msra"
    }
    bias_filler {
      type: "constant"
      value: 0.2
    }
  }
}
layer {
  name: "inception_3a/3x3_reduce_BatchNorm"
  type: "BatchNorm"
  bottom: "inception_3a/3x3_reduce_raw"
  top: "inception_3a/3x3_reduce"
  param {
    lr_mult: 1
    decay_mult: 0
  }
  param {
    lr_mult: 1
    decay_mult: 0
  }
  param {
    lr_mult: 0
    decay_mult: 0
  }
  param {
    lr_mult: 0
    decay_mult: 0
  }
  batch_norm_param {
    use_global_stats: false
    eps: 1e-05
    scale_filler {
      type: "constant"
      value: 1
    }
    bias_filler {
      type: "constant"
      value: 0
    }
  }
}
layer {
  name: "inception_3a/relu_3x3_reduce"
  type: "ReLU"
  bottom: "inception_3a/3x3_reduce"
  top: "inception_3a/3x3_reduce"
}
layer {
  name: "inception_3a/3x3"
  type: "Convolution"
  bottom: "inception_3a/3x3_reduce"
  top: "inception_3a/3x3_raw"
  param {
    lr_mult: 1
    decay_mult: 1
  }
  convolution_param {
    num_output: 128
    pad: 1
    kernel_size: 3
    weight_filler {
      type: "msra"
    }
    bias_filler {
      type: "constant"
      value: 0.2
    }
  }
}
layer {
  name: "inception_3a/3x3_BatchNorm"
  type: "BatchNorm"
  bottom: "inception_3a/3x3_raw"
  top: "inception_3a/3x3"
  param {
    lr_mult: 1
    decay_mult: 0
  }
  param {
    lr_mult: 1
    decay_mult: 0
  }
  param {
    lr_mult: 0
    decay_mult: 0
  }
  param {
    lr_mult: 0
    decay_mult: 0
  }
  batch_norm_param {
    use_global_stats: false
    eps: 1e-05
    scale_filler {
      type: "constant"
      value: 1
    }
    bias_filler {
      type: "constant"
      value: 0
    }
  }
}
layer {
  name: "inception_3a/relu_3x3"
  type: "ReLU"
  bottom: "inception_3a/3x3"
  top: "inception_3a/3x3"
}
layer {
  name: "inception_3a/5x5_reduce"
  type: "Convolution"
  bottom: "pool2/3x3_s2"
  top: "inception_3a/5x5_reduce_raw"
  param {
    lr_mult: 1
    decay_mult: 1
  }
  convolution_param {
    num_output: 16
    kernel_size: 1
    weight_filler {
      type: "msra"
    }
    bias_filler {
      type: "constant"
      value: 0.2
    }
  }
}
layer {
  name: "inception_3a/5x5_reduce_BatchNorm"
  type: "BatchNorm"
  bottom: "inception_3a/5x5_reduce_raw"
  top: "inception_3a/5x5_reduce"
  param {
    lr_mult: 1
    decay_mult: 0
  }
  param {
    lr_mult: 1
    decay_mult: 0
  }
  param {
    lr_mult: 0
    decay_mult: 0
  }
  param {
    lr_mult: 0
    decay_mult: 0
  }
  batch_norm_param {
    use_global_stats: false
    eps: 1e-05
    scale_filler {
      type: "constant"
      value: 1
    }
    bias_filler {
      type: "constant"
      value: 0
    }
  }
}
layer {
  name: "inception_3a/relu_5x5_reduce"
  type: "ReLU"
  bottom: "inception_3a/5x5_reduce"
  top: "inception_3a/5x5_reduce"
}
layer {
  name: "inception_3a/5x5"
  type: "Convolution"
  bottom: "inception_3a/5x5_reduce"
  top: "inception_3a/5x5_raw"
  param {
    lr_mult: 1
    decay_mult: 1
  }
  convolution_param {
    num_output: 32
    pad: 2
    kernel_size: 5
    weight_filler {
      type: "msra"
    }
    bias_filler {
      type: "constant"
      value: 0.2
    }
  }
}
layer {
  name: "inception_3a/5x5_BatchNorm"
  type: "BatchNorm"
  bottom: "inception_3a/5x5_raw"
  top: "inception_3a/5x5"
  param {
    lr_mult: 1
    decay_mult: 0
  }
  param {
    lr_mult: 1
    decay_mult: 0
  }
  param {
    lr_mult: 0
    decay_mult: 0
  }
  param {
    lr_mult: 0
    decay_mult: 0
  }
  batch_norm_param {
    use_global_stats: false
    eps: 1e-05
    scale_filler {
      type: "constant"
      value: 1
    }
    bias_filler {
      type: "constant"
      value: 0
    }
  }
}
layer {
  name: "inception_3a/relu_5x5"
  type: "ReLU"
  bottom: "inception_3a/5x5"
  top: "inception_3a/5x5"
}
layer {
  name: "inception_3a/pool"
  type: "Pooling"
  bottom: "pool2/3x3_s2"
  top: "inception_3a/pool"
  pooling_param {
    pool: MAX
    kernel_size: 3
    stride: 1
    pad: 1
  }
}
layer {
  name: "inception_3a/pool_proj"
  type: "Convolution"
  bottom: "inception_3a/pool"
  top: "inception_3a/pool_proj_raw"
  param {
    lr_mult: 1
    decay_mult: 1
  }
  convolution_param {
    num_output: 32
    kernel_size: 1
    weight_filler {
      type: "msra"
    }
    bias_filler {
      type: "constant"
      value: 0.2
    }
  }
}
layer {
  name: "inception_3a/pool_proj_BatchNorm"
  type: "BatchNorm"
  bottom: "inception_3a/pool_proj_raw"
  top: "inception_3a/pool_proj"
  param {
    lr_mult: 1
    decay_mult: 0
  }
  param {
    lr_mult: 1
    decay_mult: 0
  }
  param {
    lr_mult: 0
    decay_mult: 0
  }
  param {
    lr_mult: 0
    decay_mult: 0
  }
  batch_norm_param {
    use_global_stats: false
    eps: 1e-05
    scale_filler {
      type: "constant"
      value: 1
    }
    bias_filler {
      type: "constant"
      value: 0
    }
  }
}
layer {
  name: "inception_3a/relu_pool_proj"
  type: "ReLU"
  bottom: "inception_3a/pool_proj"
  top: "inception_3a/pool_proj"
}
layer {
  name: "inception_3a/output"
  type: "Concat"
  bottom: "inception_3a/1x1"
  bottom: "inception_3a/3x3"
  bottom: "inception_3a/5x5"
  bottom: "inception_3a/pool_proj"
  top: "inception_3a/output"
}
layer {
  name: "inception_3b/1x1"
  type: "Convolution"
  bottom: "inception_3a/output"
  top: "inception_3b/1x1_raw"
  param {
    lr_mult: 1
    decay_mult: 1
  }
  convolution_param {
    num_output: 128
    kernel_size: 1
    weight_filler {
      type: "msra"
    }
    bias_filler {
      type: "constant"
      value: 0.2
    }
  }
}
layer {
  name: "inception_3b/1x1_BatchNorm"
  type: "BatchNorm"
  bottom: "inception_3b/1x1_raw"
  top: "inception_3b/1x1"
  param {
    lr_mult: 1
    decay_mult: 0
  }
  param {
    lr_mult: 1
    decay_mult: 0
  }
  param {
    lr_mult: 0
    decay_mult: 0
  }
  param {
    lr_mult: 0
    decay_mult: 0
  }
  batch_norm_param {
    use_global_stats: false
    eps: 1e-05
    scale_filler {
      type: "constant"
      value: 1
    }
    bias_filler {
      type: "constant"
      value: 0
    }
  }
}
layer {
  name: "inception_3b/relu_1x1"
  type: "ReLU"
  bottom: "inception_3b/1x1"
  top: "inception_3b/1x1"
}
layer {
  name: "inception_3b/3x3_reduce"
  type: "Convolution"
  bottom: "inception_3a/output"
  top: "inception_3b/3x3_reduce_raw"
  param {
    lr_mult: 1
    decay_mult: 1
  }
  convolution_param {
    num_output: 128
    kernel_size: 1
    weight_filler {
      type: "msra"
    }
    bias_filler {
      type: "constant"
      value: 0.2
    }
  }
}
layer {
  name: "inception_3b/3x3_reduce_BatchNorm"
  type: "BatchNorm"
  bottom: "inception_3b/3x3_reduce_raw"
  top: "inception_3b/3x3_reduce"
  param {
    lr_mult: 1
    decay_mult: 0
  }
  param {
    lr_mult: 1
    decay_mult: 0
  }
  param {
    lr_mult: 0
    decay_mult: 0
  }
  param {
    lr_mult: 0
    decay_mult: 0
  }
  batch_norm_param {
    use_global_stats: false
    eps: 1e-05
    scale_filler {
      type: "constant"
      value: 1
    }
    bias_filler {
      type: "constant"
      value: 0
    }
  }
}
layer {
  name: "inception_3b/relu_3x3_reduce"
  type: "ReLU"
  bottom: "inception_3b/3x3_reduce"
  top: "inception_3b/3x3_reduce"
}
layer {
  name: "inception_3b/3x3"
  type: "Convolution"
  bottom: "inception_3b/3x3_reduce"
  top: "inception_3b/3x3_raw"
  param {
    lr_mult: 1
    decay_mult: 1
  }
  convolution_param {
    num_output: 192
    pad: 1
    kernel_size: 3
    weight_filler {
      type: "msra"
    }
    bias_filler {
      type: "constant"
      value: 0.2
    }
  }
}
layer {
  name: "inception_3b/3x3_BatchNorm"
  type: "BatchNorm"
  bottom: "inception_3b/3x3_raw"
  top: "inception_3b/3x3"
  param {
    lr_mult: 1
    decay_mult: 0
  }
  param {
    lr_mult: 1
    decay_mult: 0
  }
  param {
    lr_mult: 0
    decay_mult: 0
  }
  param {
    lr_mult: 0
    decay_mult: 0
  }
  batch_norm_param {
    use_global_stats: false
    eps: 1e-05
    scale_filler {
      type: "constant"
      value: 1
    }
    bias_filler {
      type: "constant"
      value: 0
    }
  }
}
layer {
  name: "inception_3b/relu_3x3"
  type: "ReLU"
  bottom: "inception_3b/3x3"
  top: "inception_3b/3x3"
}
layer {
  name: "inception_3b/5x5_reduce"
  type: "Convolution"
  bottom: "inception_3a/output"
  top: "inception_3b/5x5_reduce_raw"
  param {
    lr_mult: 1
    decay_mult: 1
  }
  convolution_param {
    num_output: 32
    kernel_size: 1
    weight_filler {
      type: "msra"
    }
    bias_filler {
      type: "constant"
      value: 0.2
    }
  }
}
layer {
  name: "inception_3b/5x5_reduce_BatchNorm"
  type: "BatchNorm"
  bottom: "inception_3b/5x5_reduce_raw"
  top: "inception_3b/5x5_reduce"
  param {
    lr_mult: 1
    decay_mult: 0
  }
  param {
    lr_mult: 1
    decay_mult: 0
  }
  param {
    lr_mult: 0
    decay_mult: 0
  }
  param {
    lr_mult: 0
    decay_mult: 0
  }
  batch_norm_param {
    use_global_stats: false
    eps: 1e-05
    scale_filler {
      type: "constant"
      value: 1
    }
    bias_filler {
      type: "constant"
      value: 0
    }
  }
}
layer {
  name: "inception_3b/relu_5x5_reduce"
  type: "ReLU"
  bottom: "inception_3b/5x5_reduce"
  top: "inception_3b/5x5_reduce"
}
layer {
  name: "inception_3b/5x5"
  type: "Convolution"
  bottom: "inception_3b/5x5_reduce"
  top: "inception_3b/5x5_raw"
  param {
    lr_mult: 1
    decay_mult: 1
  }
  convolution_param {
    num_output: 96
    pad: 2
    kernel_size: 5
    weight_filler {
      type: "msra"
    }
    bias_filler {
      type: "constant"
      value: 0.2
    }
  }
}
layer {
  name: "inception_3b/5x5_BatchNorm"
  type: "BatchNorm"
  bottom: "inception_3b/5x5_raw"
  top: "inception_3b/5x5"
  param {
    lr_mult: 1
    decay_mult: 0
  }
  param {
    lr_mult: 1
    decay_mult: 0
  }
  param {
    lr_mult: 0
    decay_mult: 0
  }
  param {
    lr_mult: 0
    decay_mult: 0
  }
  batch_norm_param {
    use_global_stats: false
    eps: 1e-05
    scale_filler {
      type: "constant"
      value: 1
    }
    bias_filler {
      type: "constant"
      value: 0
    }
  }
}
layer {
  name: "inception_3b/relu_5x5"
  type: "ReLU"
  bottom: "inception_3b/5x5"
  top: "inception_3b/5x5"
}
layer {
  name: "inception_3b/pool"
  type: "Pooling"
  bottom: "inception_3a/output"
  top: "inception_3b/pool"
  pooling_param {
    pool: MAX
    kernel_size: 3
    stride: 1
    pad: 1
  }
}
layer {
  name: "inception_3b/pool_proj"
  type: "Convolution"
  bottom: "inception_3b/pool"
  top: "inception_3b/pool_proj_raw"
  param {
    lr_mult: 1
    decay_mult: 1
  }
  convolution_param {
    num_output: 64
    kernel_size: 1
    weight_filler {
      type: "msra"
    }
    bias_filler {
      type: "constant"
      value: 0.2
    }
  }
}
layer {
  name: "inception_3b/pool_proj_BatchNorm"
  type: "BatchNorm"
  bottom: "inception_3b/pool_proj_raw"
  top: "inception_3b/pool_proj"
  param {
    lr_mult: 1
    decay_mult: 0
  }
  param {
    lr_mult: 1
    decay_mult: 0
  }
  param {
    lr_mult: 0
    decay_mult: 0
  }
  param {
    lr_mult: 0
    decay_mult: 0
  }
  batch_norm_param {
    use_global_stats: false
    eps: 1e-05
    scale_filler {
      type: "constant"
      value: 1
    }
    bias_filler {
      type: "constant"
      value: 0
    }
  }
}
layer {
  name: "inception_3b/relu_pool_proj"
  type: "ReLU"
  bottom: "inception_3b/pool_proj"
  top: "inception_3b/pool_proj"
}
layer {
  name: "inception_3b/output"
  type: "Concat"
  bottom: "inception_3b/1x1"
  bottom: "inception_3b/3x3"
  bottom: "inception_3b/5x5"
  bottom: "inception_3b/pool_proj"
  top: "inception_3b/output"
}
layer {
  name: "pool3/3x3_s2"
  type: "Pooling"
  bottom: "inception_3b/output"
  top: "pool3/3x3_s2"
  pooling_param {
    pool: MAX
    kernel_size: 3
    stride: 2
  }
}
layer {
  name: "inception_4a/1x1"
  type: "Convolution"
  bottom: "pool3/3x3_s2"
  top: "inception_4a/1x1_raw"
  param {
    lr_mult: 1
    decay_mult: 1
  }
  convolution_param {
    num_output: 192
    kernel_size: 1
    weight_filler {
      type: "msra"
    }
    bias_filler {
      type: "constant"
      value: 0.2
    }
  }
}
layer {
  name: "inception_4a/1x1_BatchNorm"
  type: "BatchNorm"
  bottom: "inception_4a/1x1_raw"
  top: "inception_4a/1x1"
  param {
    lr_mult: 1
    decay_mult: 0
  }
  param {
    lr_mult: 1
    decay_mult: 0
  }
  param {
    lr_mult: 0
    decay_mult: 0
  }
  param {
    lr_mult: 0
    decay_mult: 0
  }
  batch_norm_param {
    use_global_stats: false
    eps: 1e-05
    scale_filler {
      type: "constant"
      value: 1
    }
    bias_filler {
      type: "constant"
      value: 0
    }
  }
}
layer {
  name: "inception_4a/relu_1x1"
  type: "ReLU"
  bottom: "inception_4a/1x1"
  top: "inception_4a/1x1"
}
layer {
  name: "inception_4a/3x3_reduce"
  type: "Convolution"
  bottom: "pool3/3x3_s2"
  top: "inception_4a/3x3_reduce_raw"
  param {
    lr_mult: 1
    decay_mult: 1
  }
  convolution_param {
    num_output: 96
    kernel_size: 1
    weight_filler {
      type: "msra"
    }
    bias_filler {
      type: "constant"
      value: 0.2
    }
  }
}
layer {
  name: "inception_4a/3x3_reduce_BatchNorm"
  type: "BatchNorm"
  bottom: "inception_4a/3x3_reduce_raw"
  top: "inception_4a/3x3_reduce"
  param {
    lr_mult: 1
    decay_mult: 0
  }
  param {
    lr_mult: 1
    decay_mult: 0
  }
  param {
    lr_mult: 0
    decay_mult: 0
  }
  param {
    lr_mult: 0
    decay_mult: 0
  }
  batch_norm_param {
    use_global_stats: false
    eps: 1e-05
    scale_filler {
      type: "constant"
      value: 1
    }
    bias_filler {
      type: "constant"
      value: 0
    }
  }
}
layer {
  name: "inception_4a/relu_3x3_reduce"
  type: "ReLU"
  bottom: "inception_4a/3x3_reduce"
  top: "inception_4a/3x3_reduce"
}
layer {
  name: "inception_4a/3x3"
  type: "Convolution"
  bottom: "inception_4a/3x3_reduce"
  top: "inception_4a/3x3_raw"
  param {
    lr_mult: 1
    decay_mult: 1
  }
  convolution_param {
    num_output: 208
    pad: 1
    kernel_size: 3
    weight_filler {
      type: "msra"
    }
    bias_filler {
      type: "constant"
      value: 0.2
    }
  }
}
layer {
  name: "inception_4a/3x3_BatchNorm"
  type: "BatchNorm"
  bottom: "inception_4a/3x3_raw"
  top: "inception_4a/3x3"
  param {
    lr_mult: 1
    decay_mult: 0
  }
  param {
    lr_mult: 1
    decay_mult: 0
  }
  param {
    lr_mult: 0
    decay_mult: 0
  }
  param {
    lr_mult: 0
    decay_mult: 0
  }
  batch_norm_param {
    use_global_stats: false
    eps: 1e-05
    scale_filler {
      type: "constant"
      value: 1
    }
    bias_filler {
      type: "constant"
      value: 0
    }
  }
}
layer {
  name: "inception_4a/relu_3x3"
  type: "ReLU"
  bottom: "inception_4a/3x3"
  top: "inception_4a/3x3"
}
layer {
  name: "inception_4a/5x5_reduce"
  type: "Convolution"
  bottom: "pool3/3x3_s2"
  top: "inception_4a/5x5_reduce_raw"
  param {
    lr_mult: 1
    decay_mult: 1
  }
  convolution_param {
    num_output: 16
    kernel_size: 1
    weight_filler {
      type: "msra"
    }
    bias_filler {
      type: "constant"
      value: 0.2
    }
  }
}
layer {
  name: "inception_4a/5x5_reduce_BatchNorm"
  type: "BatchNorm"
  bottom: "inception_4a/5x5_reduce_raw"
  top: "inception_4a/5x5_reduce"
  param {
    lr_mult: 1
    decay_mult: 0
  }
  param {
    lr_mult: 1
    decay_mult: 0
  }
  param {
    lr_mult: 0
    decay_mult: 0
  }
  param {
    lr_mult: 0
    decay_mult: 0
  }
  batch_norm_param {
    use_global_stats: false
    eps: 1e-05
    scale_filler {
      type: "constant"
      value: 1
    }
    bias_filler {
      type: "constant"
      value: 0
    }
  }
}
layer {
  name: "inception_4a/relu_5x5_reduce"
  type: "ReLU"
  bottom: "inception_4a/5x5_reduce"
  top: "inception_4a/5x5_reduce"
}
layer {
  name: "inception_4a/5x5"
  type: "Convolution"
  bottom: "inception_4a/5x5_reduce"
  top: "inception_4a/5x5_raw"
  param {
    lr_mult: 1
    decay_mult: 1
  }
  convolution_param {
    num_output: 48
    pad: 2
    kernel_size: 5
    weight_filler {
      type: "msra"
    }
    bias_filler {
      type: "constant"
      value: 0.2
    }
  }
}
layer {
  name: "inception_4a/5x5_BatchNorm"
  type: "BatchNorm"
  bottom: "inception_4a/5x5_raw"
  top: "inception_4a/5x5"
  param {
    lr_mult: 1
    decay_mult: 0
  }
  param {
    lr_mult: 1
    decay_mult: 0
  }
  param {
    lr_mult: 0
    decay_mult: 0
  }
  param {
    lr_mult: 0
    decay_mult: 0
  }
  batch_norm_param {
    use_global_stats: false
    eps: 1e-05
    scale_filler {
      type: "constant"
      value: 1
    }
    bias_filler {
      type: "constant"
      value: 0
    }
  }
}
layer {
  name: "inception_4a/relu_5x5"
  type: "ReLU"
  bottom: "inception_4a/5x5"
  top: "inception_4a/5x5"
}
layer {
  name: "inception_4a/pool"
  type: "Pooling"
  bottom: "pool3/3x3_s2"
  top: "inception_4a/pool"
  pooling_param {
    pool: MAX
    kernel_size: 3
    stride: 1
    pad: 1
  }
}
layer {
  name: "inception_4a/pool_proj"
  type: "Convolution"
  bottom: "inception_4a/pool"
  top: "inception_4a/pool_proj_raw"
  param {
    lr_mult: 1
    decay_mult: 1
  }
  convolution_param {
    num_output: 64
    kernel_size: 1
    weight_filler {
      type: "msra"
    }
    bias_filler {
      type: "constant"
      value: 0.2
    }
  }
}
layer {
  name: "inception_4a/pool_proj_BatchNorm"
  type: "BatchNorm"
  bottom: "inception_4a/pool_proj_raw"
  top: "inception_4a/pool_proj"
  param {
    lr_mult: 1
    decay_mult: 0
  }
  param {
    lr_mult: 1
    decay_mult: 0
  }
  param {
    lr_mult: 0
    decay_mult: 0
  }
  param {
    lr_mult: 0
    decay_mult: 0
  }
  batch_norm_param {
    use_global_stats: false
    eps: 1e-05
    scale_filler {
      type: "constant"
      value: 1
    }
    bias_filler {
      type: "constant"
      value: 0
    }
  }
}
layer {
  name: "inception_4a/relu_pool_proj"
  type: "ReLU"
  bottom: "inception_4a/pool_proj"
  top: "inception_4a/pool_proj"
}
layer {
  name: "inception_4a/output"
  type: "Concat"
  bottom: "inception_4a/1x1"
  bottom: "inception_4a/3x3"
  bottom: "inception_4a/5x5"
  bottom: "inception_4a/pool_proj"
  top: "inception_4a/output"
}
layer {
  name: "inception_4b/1x1"
  type: "Convolution"
  bottom: "inception_4a/output"
  top: "inception_4b/1x1_raw"
  param {
    lr_mult: 1
    decay_mult: 1
  }
  convolution_param {
    num_output: 160
    kernel_size: 1
    weight_filler {
      type: "msra"
    }
    bias_filler {
      type: "constant"
      value: 0.2
    }
  }
}
layer {
  name: "inception_4b/1x1_BatchNorm"
  type: "BatchNorm"
  bottom: "inception_4b/1x1_raw"
  top: "inception_4b/1x1"
  param {
    lr_mult: 1
    decay_mult: 0
  }
  param {
    lr_mult: 1
    decay_mult: 0
  }
  param {
    lr_mult: 0
    decay_mult: 0
  }
  param {
    lr_mult: 0
    decay_mult: 0
  }
  batch_norm_param {
    use_global_stats: false
    eps: 1e-05
    scale_filler {
      type: "constant"
      value: 1
    }
    bias_filler {
      type: "constant"
      value: 0
    }
  }
}
layer {
  name: "inception_4b/relu_1x1"
  type: "ReLU"
  bottom: "inception_4b/1x1"
  top: "inception_4b/1x1"
}
layer {
  name: "inception_4b/3x3_reduce"
  type: "Convolution"
  bottom: "inception_4a/output"
  top: "inception_4b/3x3_reduce_raw"
  param {
    lr_mult: 1
    decay_mult: 1
  }
  convolution_param {
    num_output: 112
    kernel_size: 1
    weight_filler {
      type: "msra"
    }
    bias_filler {
      type: "constant"
      value: 0.2
    }
  }
}
layer {
  name: "inception_4b/3x3_reduce_BatchNorm"
  type: "BatchNorm"
  bottom: "inception_4b/3x3_reduce_raw"
  top: "inception_4b/3x3_reduce"
  param {
    lr_mult: 1
    decay_mult: 0
  }
  param {
    lr_mult: 1
    decay_mult: 0
  }
  param {
    lr_mult: 0
    decay_mult: 0
  }
  param {
    lr_mult: 0
    decay_mult: 0
  }
  batch_norm_param {
    use_global_stats: false
    eps: 1e-05
    scale_filler {
      type: "constant"
      value: 1
    }
    bias_filler {
      type: "constant"
      value: 0
    }
  }
}
layer {
  name: "inception_4b/relu_3x3_reduce"
  type: "ReLU"
  bottom: "inception_4b/3x3_reduce"
  top: "inception_4b/3x3_reduce"
}
layer {
  name: "inception_4b/3x3"
  type: "Convolution"
  bottom: "inception_4b/3x3_reduce"
  top: "inception_4b/3x3_raw"
  param {
    lr_mult: 1
    decay_mult: 1
  }
  convolution_param {
    num_output: 224
    pad: 1
    kernel_size: 3
    weight_filler {
      type: "msra"
    }
    bias_filler {
      type: "constant"
      value: 0.2
    }
  }
}
layer {
  name: "inception_4b/3x3_BatchNorm"
  type: "BatchNorm"
  bottom: "inception_4b/3x3_raw"
  top: "inception_4b/3x3"
  param {
    lr_mult: 1
    decay_mult: 0
  }
  param {
    lr_mult: 1
    decay_mult: 0
  }
  param {
    lr_mult: 0
    decay_mult: 0
  }
  param {
    lr_mult: 0
    decay_mult: 0
  }
  batch_norm_param {
    use_global_stats: false
    eps: 1e-05
    scale_filler {
      type: "constant"
      value: 1
    }
    bias_filler {
      type: "constant"
      value: 0
    }
  }
}
layer {
  name: "inception_4b/relu_3x3"
  type: "ReLU"
  bottom: "inception_4b/3x3"
  top: "inception_4b/3x3"
}
layer {
  name: "inception_4b/5x5_reduce"
  type: "Convolution"
  bottom: "inception_4a/output"
  top: "inception_4b/5x5_reduce_raw"
  param {
    lr_mult: 1
    decay_mult: 1
  }
  convolution_param {
    num_output: 24
    kernel_size: 1
    weight_filler {
      type: "msra"
    }
    bias_filler {
      type: "constant"
      value: 0.2
    }
  }
}
layer {
  name: "inception_4b/5x5_reduce_BatchNorm"
  type: "BatchNorm"
  bottom: "inception_4b/5x5_reduce_raw"
  top: "inception_4b/5x5_reduce"
  param {
    lr_mult: 1
    decay_mult: 0
  }
  param {
    lr_mult: 1
    decay_mult: 0
  }
  param {
    lr_mult: 0
    decay_mult: 0
  }
  param {
    lr_mult: 0
    decay_mult: 0
  }
  batch_norm_param {
    use_global_stats: false
    eps: 1e-05
    scale_filler {
      type: "constant"
      value: 1
    }
    bias_filler {
      type: "constant"
      value: 0
    }
  }
}
layer {
  name: "inception_4b/relu_5x5_reduce"
  type: "ReLU"
  bottom: "inception_4b/5x5_reduce"
  top: "inception_4b/5x5_reduce"
}
layer {
  name: "inception_4b/5x5"
  type: "Convolution"
  bottom: "inception_4b/5x5_reduce"
  top: "inception_4b/5x5_raw"
  param {
    lr_mult: 1
    decay_mult: 1
  }
  convolution_param {
    num_output: 64
    pad: 2
    kernel_size: 5
    weight_filler {
      type: "msra"
    }
    bias_filler {
      type: "constant"
      value: 0.2
    }
  }
}
layer {
  name: "inception_4b/5x5_BatchNorm"
  type: "BatchNorm"
  bottom: "inception_4b/5x5_raw"
  top: "inception_4b/5x5"
  param {
    lr_mult: 1
    decay_mult: 0
  }
  param {
    lr_mult: 1
    decay_mult: 0
  }
  param {
    lr_mult: 0
    decay_mult: 0
  }
  param {
    lr_mult: 0
    decay_mult: 0
  }
  batch_norm_param {
    use_global_stats: false
    eps: 1e-05
    scale_filler {
      type: "constant"
      value: 1
    }
    bias_filler {
      type: "constant"
      value: 0
    }
  }
}
layer {
  name: "inception_4b/relu_5x5"
  type: "ReLU"
  bottom: "inception_4b/5x5"
  top: "inception_4b/5x5"
}
layer {
  name: "inception_4b/pool"
  type: "Pooling"
  bottom: "inception_4a/output"
  top: "inception_4b/pool"
  pooling_param {
    pool: MAX
    kernel_size: 3
    stride: 1
    pad: 1
  }
}
layer {
  name: "inception_4b/pool_proj"
  type: "Convolution"
  bottom: "inception_4b/pool"
  top: "inception_4b/pool_proj_raw"
  param {
    lr_mult: 1
    decay_mult: 1
  }
  convolution_param {
    num_output: 64
    kernel_size: 1
    weight_filler {
      type: "msra"
    }
    bias_filler {
      type: "constant"
      value: 0.2
    }
  }
}
layer {
  name: "inception_4b/pool_proj_BatchNorm"
  type: "BatchNorm"
  bottom: "inception_4b/pool_proj_raw"
  top: "inception_4b/pool_proj"
  param {
    lr_mult: 1
    decay_mult: 0
  }
  param {
    lr_mult: 1
    decay_mult: 0
  }
  param {
    lr_mult: 0
    decay_mult: 0
  }
  param {
    lr_mult: 0
    decay_mult: 0
  }
  batch_norm_param {
    use_global_stats: false
    eps: 1e-05
    scale_filler {
      type: "constant"
      value: 1
    }
    bias_filler {
      type: "constant"
      value: 0
    }
  }
}
layer {
  name: "inception_4b/relu_pool_proj"
  type: "ReLU"
  bottom: "inception_4b/pool_proj"
  top: "inception_4b/pool_proj"
}
layer {
  name: "inception_4b/output"
  type: "Concat"
  bottom: "inception_4b/1x1"
  bottom: "inception_4b/3x3"
  bottom: "inception_4b/5x5"
  bottom: "inception_4b/pool_proj"
  top: "inception_4b/output"
}
layer {
  name: "inception_4c/1x1"
  type: "Convolution"
  bottom: "inception_4b/output"
  top: "inception_4c/1x1_raw"
  param {
    lr_mult: 1
    decay_mult: 1
  }
  convolution_param {
    num_output: 128
    kernel_size: 1
    weight_filler {
      type: "msra"
    }
    bias_filler {
      type: "constant"
      value: 0.2
    }
  }
}
layer {
  name: "inception_4c/1x1_BatchNorm"
  type: "BatchNorm"
  bottom: "inception_4c/1x1_raw"
  top: "inception_4c/1x1"
  param {
    lr_mult: 1
    decay_mult: 0
  }
  param {
    lr_mult: 1
    decay_mult: 0
  }
  param {
    lr_mult: 0
    decay_mult: 0
  }
  param {
   
I1228 22:00:22.888414 18089 layer_factory.hpp:77] Creating layer data
I1228 22:00:22.888430 18089 net.cpp:94] Creating Layer data
I1228 22:00:22.888434 18089 net.cpp:409] data -> data
I1228 22:00:22.888448 18089 net.cpp:409] data -> label
I1228 22:00:22.888460 18089 image_data_layer.cpp:41] Opening file /workspace/Vitis-AI-Tutorials/files/Segment/workspace/data/signate/signate_test_calibration.txt
I1228 22:00:22.888660 18089 image_data_layer.cpp:51] Shuffling data
I1228 22:00:22.888777 18089 image_data_layer.cpp:56] A total of 649 images.
I1228 22:00:22.920688 18089 image_data_layer.cpp:84] output data size: 1,3,320,640
I1228 22:00:22.932543 18089 internal_thread.cpp:27] Starting internal thread(s) on GPU 0
I1228 22:00:22.932651 18089 net.cpp:144] Setting up data
I1228 22:00:22.932657 18089 net.cpp:151] Top shape: 1 3 320 640 (614400)
I1228 22:00:22.932668 18089 net.cpp:151] Top shape: 1 (1)
I1228 22:00:22.932672 18089 net.cpp:159] Memory required for data: 2457604
I1228 22:00:22.932675 18089 layer_factory.hpp:77] Creating layer conv1/7x7_s2
I1228 22:00:22.932693 18089 net.cpp:94] Creating Layer conv1/7x7_s2
I1228 22:00:22.932698 18089 net.cpp:435] conv1/7x7_s2 <- data
I1228 22:00:22.932708 18089 net.cpp:409] conv1/7x7_s2 -> conv1/7x7_s2_raw
I1228 22:00:22.933482 18089 net.cpp:144] Setting up conv1/7x7_s2
I1228 22:00:22.933491 18089 net.cpp:151] Top shape: 1 64 160 320 (3276800)
I1228 22:00:22.933495 18089 net.cpp:159] Memory required for data: 15564804
I1228 22:00:22.933521 18089 layer_factory.hpp:77] Creating layer conv1/7x7_s2_BatchNorm
I1228 22:00:22.933531 18089 net.cpp:94] Creating Layer conv1/7x7_s2_BatchNorm
I1228 22:00:22.933534 18089 net.cpp:435] conv1/7x7_s2_BatchNorm <- conv1/7x7_s2_raw
I1228 22:00:22.933539 18089 net.cpp:409] conv1/7x7_s2_BatchNorm -> conv1/7x7_s2
I1228 22:00:22.934226 18089 net.cpp:144] Setting up conv1/7x7_s2_BatchNorm
I1228 22:00:22.934233 18089 net.cpp:151] Top shape: 1 64 160 320 (3276800)
I1228 22:00:22.934239 18089 net.cpp:159] Memory required for data: 28672004
I1228 22:00:22.934249 18089 layer_factory.hpp:77] Creating layer conv1/relu_7x7
I1228 22:00:22.934255 18089 net.cpp:94] Creating Layer conv1/relu_7x7
I1228 22:00:22.934259 18089 net.cpp:435] conv1/relu_7x7 <- conv1/7x7_s2
I1228 22:00:22.934263 18089 net.cpp:396] conv1/relu_7x7 -> conv1/7x7_s2 (in-place)
I1228 22:00:22.934274 18089 net.cpp:144] Setting up conv1/relu_7x7
I1228 22:00:22.934278 18089 net.cpp:151] Top shape: 1 64 160 320 (3276800)
I1228 22:00:22.934283 18089 net.cpp:159] Memory required for data: 41779204
I1228 22:00:22.934284 18089 layer_factory.hpp:77] Creating layer pool1/3x3_s2
I1228 22:00:22.934290 18089 net.cpp:94] Creating Layer pool1/3x3_s2
I1228 22:00:22.934294 18089 net.cpp:435] pool1/3x3_s2 <- conv1/7x7_s2
I1228 22:00:22.934298 18089 net.cpp:409] pool1/3x3_s2 -> pool1/3x3_s2
I1228 22:00:22.934329 18089 net.cpp:144] Setting up pool1/3x3_s2
I1228 22:00:22.934332 18089 net.cpp:151] Top shape: 1 64 80 160 (819200)
I1228 22:00:22.934337 18089 net.cpp:159] Memory required for data: 45056004
I1228 22:00:22.934340 18089 layer_factory.hpp:77] Creating layer conv2/3x3_reduce
I1228 22:00:22.934346 18089 net.cpp:94] Creating Layer conv2/3x3_reduce
I1228 22:00:22.934350 18089 net.cpp:435] conv2/3x3_reduce <- pool1/3x3_s2
I1228 22:00:22.934355 18089 net.cpp:409] conv2/3x3_reduce -> conv2/3x3_reduce_raw
I1228 22:00:22.934545 18089 net.cpp:144] Setting up conv2/3x3_reduce
I1228 22:00:22.934561 18089 net.cpp:151] Top shape: 1 64 80 160 (819200)
I1228 22:00:22.934566 18089 net.cpp:159] Memory required for data: 48332804
I1228 22:00:22.934572 18089 layer_factory.hpp:77] Creating layer conv2/3x3_reduce_BatchNorm
I1228 22:00:22.934579 18089 net.cpp:94] Creating Layer conv2/3x3_reduce_BatchNorm
I1228 22:00:22.934583 18089 net.cpp:435] conv2/3x3_reduce_BatchNorm <- conv2/3x3_reduce_raw
I1228 22:00:22.934587 18089 net.cpp:409] conv2/3x3_reduce_BatchNorm -> conv2/3x3_reduce
I1228 22:00:22.935111 18089 net.cpp:144] Setting up conv2/3x3_reduce_BatchNorm
I1228 22:00:22.935117 18089 net.cpp:151] Top shape: 1 64 80 160 (819200)
I1228 22:00:22.935122 18089 net.cpp:159] Memory required for data: 51609604
I1228 22:00:22.935129 18089 layer_factory.hpp:77] Creating layer conv2/relu_3x3_reduce
I1228 22:00:22.935135 18089 net.cpp:94] Creating Layer conv2/relu_3x3_reduce
I1228 22:00:22.935137 18089 net.cpp:435] conv2/relu_3x3_reduce <- conv2/3x3_reduce
I1228 22:00:22.935142 18089 net.cpp:396] conv2/relu_3x3_reduce -> conv2/3x3_reduce (in-place)
I1228 22:00:22.935146 18089 net.cpp:144] Setting up conv2/relu_3x3_reduce
I1228 22:00:22.935149 18089 net.cpp:151] Top shape: 1 64 80 160 (819200)
I1228 22:00:22.935153 18089 net.cpp:159] Memory required for data: 54886404
I1228 22:00:22.935156 18089 layer_factory.hpp:77] Creating layer conv2/3x3
I1228 22:00:22.935163 18089 net.cpp:94] Creating Layer conv2/3x3
I1228 22:00:22.935166 18089 net.cpp:435] conv2/3x3 <- conv2/3x3_reduce
I1228 22:00:22.935171 18089 net.cpp:409] conv2/3x3 -> conv2/3x3_raw
I1228 22:00:22.936309 18089 net.cpp:144] Setting up conv2/3x3
I1228 22:00:22.936317 18089 net.cpp:151] Top shape: 1 192 80 160 (2457600)
I1228 22:00:22.936322 18089 net.cpp:159] Memory required for data: 64716804
I1228 22:00:22.936328 18089 layer_factory.hpp:77] Creating layer conv2/3x3_BatchNorm
I1228 22:00:22.936336 18089 net.cpp:94] Creating Layer conv2/3x3_BatchNorm
I1228 22:00:22.936338 18089 net.cpp:435] conv2/3x3_BatchNorm <- conv2/3x3_raw
I1228 22:00:22.936343 18089 net.cpp:409] conv2/3x3_BatchNorm -> conv2/3x3
I1228 22:00:22.936832 18089 net.cpp:144] Setting up conv2/3x3_BatchNorm
I1228 22:00:22.936839 18089 net.cpp:151] Top shape: 1 192 80 160 (2457600)
I1228 22:00:22.936844 18089 net.cpp:159] Memory required for data: 74547204
I1228 22:00:22.936854 18089 layer_factory.hpp:77] Creating layer conv2/relu_3x3
I1228 22:00:22.936859 18089 net.cpp:94] Creating Layer conv2/relu_3x3
I1228 22:00:22.936862 18089 net.cpp:435] conv2/relu_3x3 <- conv2/3x3
I1228 22:00:22.936866 18089 net.cpp:396] conv2/relu_3x3 -> conv2/3x3 (in-place)
I1228 22:00:22.936872 18089 net.cpp:144] Setting up conv2/relu_3x3
I1228 22:00:22.936877 18089 net.cpp:151] Top shape: 1 192 80 160 (2457600)
I1228 22:00:22.936880 18089 net.cpp:159] Memory required for data: 84377604
I1228 22:00:22.936883 18089 layer_factory.hpp:77] Creating layer conv2/3x3_conv2/relu_3x3_0_split
I1228 22:00:22.936892 18089 net.cpp:94] Creating Layer conv2/3x3_conv2/relu_3x3_0_split
I1228 22:00:22.936897 18089 net.cpp:435] conv2/3x3_conv2/relu_3x3_0_split <- conv2/3x3
I1228 22:00:22.936899 18089 net.cpp:409] conv2/3x3_conv2/relu_3x3_0_split -> conv2/3x3_conv2/relu_3x3_0_split_0
I1228 22:00:22.936904 18089 net.cpp:409] conv2/3x3_conv2/relu_3x3_0_split -> conv2/3x3_conv2/relu_3x3_0_split_1
I1228 22:00:22.936929 18089 net.cpp:144] Setting up conv2/3x3_conv2/relu_3x3_0_split
I1228 22:00:22.936933 18089 net.cpp:151] Top shape: 1 192 80 160 (2457600)
I1228 22:00:22.936937 18089 net.cpp:151] Top shape: 1 192 80 160 (2457600)
I1228 22:00:22.936942 18089 net.cpp:159] Memory required for data: 104038404
I1228 22:00:22.936944 18089 layer_factory.hpp:77] Creating layer pool2/3x3_s2
I1228 22:00:22.936949 18089 net.cpp:94] Creating Layer pool2/3x3_s2
I1228 22:00:22.936954 18089 net.cpp:435] pool2/3x3_s2 <- conv2/3x3_conv2/relu_3x3_0_split_0
I1228 22:00:22.936957 18089 net.cpp:409] pool2/3x3_s2 -> pool2/3x3_s2
I1228 22:00:22.936981 18089 net.cpp:144] Setting up pool2/3x3_s2
I1228 22:00:22.936985 18089 net.cpp:151] Top shape: 1 192 40 80 (614400)
I1228 22:00:22.936990 18089 net.cpp:159] Memory required for data: 106496004
I1228 22:00:22.936992 18089 layer_factory.hpp:77] Creating layer pool2/3x3_s2_pool2/3x3_s2_0_split
I1228 22:00:22.936996 18089 net.cpp:94] Creating Layer pool2/3x3_s2_pool2/3x3_s2_0_split
I1228 22:00:22.936998 18089 net.cpp:435] pool2/3x3_s2_pool2/3x3_s2_0_split <- pool2/3x3_s2
I1228 22:00:22.937002 18089 net.cpp:409] pool2/3x3_s2_pool2/3x3_s2_0_split -> pool2/3x3_s2_pool2/3x3_s2_0_split_0
I1228 22:00:22.937008 18089 net.cpp:409] pool2/3x3_s2_pool2/3x3_s2_0_split -> pool2/3x3_s2_pool2/3x3_s2_0_split_1
I1228 22:00:22.937014 18089 net.cpp:409] pool2/3x3_s2_pool2/3x3_s2_0_split -> pool2/3x3_s2_pool2/3x3_s2_0_split_2
I1228 22:00:22.937019 18089 net.cpp:409] pool2/3x3_s2_pool2/3x3_s2_0_split -> pool2/3x3_s2_pool2/3x3_s2_0_split_3
I1228 22:00:22.937059 18089 net.cpp:144] Setting up pool2/3x3_s2_pool2/3x3_s2_0_split
I1228 22:00:22.937063 18089 net.cpp:151] Top shape: 1 192 40 80 (614400)
I1228 22:00:22.937068 18089 net.cpp:151] Top shape: 1 192 40 80 (614400)
I1228 22:00:22.937072 18089 net.cpp:151] Top shape: 1 192 40 80 (614400)
I1228 22:00:22.937077 18089 net.cpp:151] Top shape: 1 192 40 80 (614400)
I1228 22:00:22.937080 18089 net.cpp:159] Memory required for data: 116326404
I1228 22:00:22.937083 18089 layer_factory.hpp:77] Creating layer inception_3a/1x1
I1228 22:00:22.937090 18089 net.cpp:94] Creating Layer inception_3a/1x1
I1228 22:00:22.937094 18089 net.cpp:435] inception_3a/1x1 <- pool2/3x3_s2_pool2/3x3_s2_0_split_0
I1228 22:00:22.937098 18089 net.cpp:409] inception_3a/1x1 -> inception_3a/1x1_raw
I1228 22:00:22.937397 18089 net.cpp:144] Setting up inception_3a/1x1
I1228 22:00:22.937403 18089 net.cpp:151] Top shape: 1 64 40 80 (204800)
I1228 22:00:22.937408 18089 net.cpp:159] Memory required for data: 117145604
I1228 22:00:22.937413 18089 layer_factory.hpp:77] Creating layer inception_3a/1x1_BatchNorm
I1228 22:00:22.937420 18089 net.cpp:94] Creating Layer inception_3a/1x1_BatchNorm
I1228 22:00:22.937423 18089 net.cpp:435] inception_3a/1x1_BatchNorm <- inception_3a/1x1_raw
I1228 22:00:22.937427 18089 net.cpp:409] inception_3a/1x1_BatchNorm -> inception_3a/1x1
I1228 22:00:22.937950 18089 net.cpp:144] Setting up inception_3a/1x1_BatchNorm
I1228 22:00:22.937956 18089 net.cpp:151] Top shape: 1 64 40 80 (204800)
I1228 22:00:22.937961 18089 net.cpp:159] Memory required for data: 117964804
I1228 22:00:22.937968 18089 layer_factory.hpp:77] Creating layer inception_3a/relu_1x1
I1228 22:00:22.937975 18089 net.cpp:94] Creating Layer inception_3a/relu_1x1
I1228 22:00:22.937978 18089 net.cpp:435] inception_3a/relu_1x1 <- inception_3a/1x1
I1228 22:00:22.937983 18089 net.cpp:396] inception_3a/relu_1x1 -> inception_3a/1x1 (in-place)
I1228 22:00:22.937988 18089 net.cpp:144] Setting up inception_3a/relu_1x1
I1228 22:00:22.937990 18089 net.cpp:151] Top shape: 1 64 40 80 (204800)
I1228 22:00:22.937996 18089 net.cpp:159] Memory required for data: 118784004
I1228 22:00:22.937999 18089 layer_factory.hpp:77] Creating layer inception_3a/3x3_reduce
I1228 22:00:22.938004 18089 net.cpp:94] Creating Layer inception_3a/3x3_reduce
I1228 22:00:22.938007 18089 net.cpp:435] inception_3a/3x3_reduce <- pool2/3x3_s2_pool2/3x3_s2_0_split_1
I1228 22:00:22.938011 18089 net.cpp:409] inception_3a/3x3_reduce -> inception_3a/3x3_reduce_raw
I1228 22:00:22.938374 18089 net.cpp:144] Setting up inception_3a/3x3_reduce
I1228 22:00:22.938381 18089 net.cpp:151] Top shape: 1 96 40 80 (307200)
I1228 22:00:22.938387 18089 net.cpp:159] Memory required for data: 120012804
I1228 22:00:22.938392 18089 layer_factory.hpp:77] Creating layer inception_3a/3x3_reduce_BatchNorm
I1228 22:00:22.938398 18089 net.cpp:94] Creating Layer inception_3a/3x3_reduce_BatchNorm
I1228 22:00:22.938402 18089 net.cpp:435] inception_3a/3x3_reduce_BatchNorm <- inception_3a/3x3_reduce_raw
I1228 22:00:22.938406 18089 net.cpp:409] inception_3a/3x3_reduce_BatchNorm -> inception_3a/3x3_reduce
I1228 22:00:22.938935 18089 net.cpp:144] Setting up inception_3a/3x3_reduce_BatchNorm
I1228 22:00:22.938943 18089 net.cpp:151] Top shape: 1 96 40 80 (307200)
I1228 22:00:22.938947 18089 net.cpp:159] Memory required for data: 121241604
I1228 22:00:22.938958 18089 layer_factory.hpp:77] Creating layer inception_3a/relu_3x3_reduce
I1228 22:00:22.938962 18089 net.cpp:94] Creating Layer inception_3a/relu_3x3_reduce
I1228 22:00:22.938966 18089 net.cpp:435] inception_3a/relu_3x3_reduce <- inception_3a/3x3_reduce
I1228 22:00:22.938969 18089 net.cpp:396] inception_3a/relu_3x3_reduce -> inception_3a/3x3_reduce (in-place)
I1228 22:00:22.938974 18089 net.cpp:144] Setting up inception_3a/relu_3x3_reduce
I1228 22:00:22.938977 18089 net.cpp:151] Top shape: 1 96 40 80 (307200)
I1228 22:00:22.938980 18089 net.cpp:159] Memory required for data: 122470404
I1228 22:00:22.938982 18089 layer_factory.hpp:77] Creating layer inception_3a/3x3
I1228 22:00:22.938989 18089 net.cpp:94] Creating Layer inception_3a/3x3
I1228 22:00:22.938995 18089 net.cpp:435] inception_3a/3x3 <- inception_3a/3x3_reduce
I1228 22:00:22.938999 18089 net.cpp:409] inception_3a/3x3 -> inception_3a/3x3_raw
I1228 22:00:22.940932 18089 net.cpp:144] Setting up inception_3a/3x3
I1228 22:00:22.940944 18089 net.cpp:151] Top shape: 1 128 40 80 (409600)
I1228 22:00:22.940951 18089 net.cpp:159] Memory required for data: 124108804
I1228 22:00:22.940959 18089 layer_factory.hpp:77] Creating layer inception_3a/3x3_BatchNorm
I1228 22:00:22.940968 18089 net.cpp:94] Creating Layer inception_3a/3x3_BatchNorm
I1228 22:00:22.940971 18089 net.cpp:435] inception_3a/3x3_BatchNorm <- inception_3a/3x3_raw
I1228 22:00:22.940977 18089 net.cpp:409] inception_3a/3x3_BatchNorm -> inception_3a/3x3
I1228 22:00:22.941457 18089 net.cpp:144] Setting up inception_3a/3x3_BatchNorm
I1228 22:00:22.941463 18089 net.cpp:151] Top shape: 1 128 40 80 (409600)
I1228 22:00:22.941468 18089 net.cpp:159] Memory required for data: 125747204
I1228 22:00:22.941476 18089 layer_factory.hpp:77] Creating layer inception_3a/relu_3x3
I1228 22:00:22.941481 18089 net.cpp:94] Creating Layer inception_3a/relu_3x3
I1228 22:00:22.941484 18089 net.cpp:435] inception_3a/relu_3x3 <- inception_3a/3x3
I1228 22:00:22.941488 18089 net.cpp:396] inception_3a/relu_3x3 -> inception_3a/3x3 (in-place)
I1228 22:00:22.941494 18089 net.cpp:144] Setting up inception_3a/relu_3x3
I1228 22:00:22.941496 18089 net.cpp:151] Top shape: 1 128 40 80 (409600)
I1228 22:00:22.941500 18089 net.cpp:159] Memory required for data: 127385604
I1228 22:00:22.941502 18089 layer_factory.hpp:77] Creating layer inception_3a/5x5_reduce
I1228 22:00:22.941510 18089 net.cpp:94] Creating Layer inception_3a/5x5_reduce
I1228 22:00:22.941514 18089 net.cpp:435] inception_3a/5x5_reduce <- pool2/3x3_s2_pool2/3x3_s2_0_split_2
I1228 22:00:22.941517 18089 net.cpp:409] inception_3a/5x5_reduce -> inception_3a/5x5_reduce_raw
I1228 22:00:22.941764 18089 net.cpp:144] Setting up inception_3a/5x5_reduce
I1228 22:00:22.941771 18089 net.cpp:151] Top shape: 1 16 40 80 (51200)
I1228 22:00:22.941776 18089 net.cpp:159] Memory required for data: 127590404
I1228 22:00:22.941781 18089 layer_factory.hpp:77] Creating layer inception_3a/5x5_reduce_BatchNorm
I1228 22:00:22.941785 18089 net.cpp:94] Creating Layer inception_3a/5x5_reduce_BatchNorm
I1228 22:00:22.941788 18089 net.cpp:435] inception_3a/5x5_reduce_BatchNorm <- inception_3a/5x5_reduce_raw
I1228 22:00:22.941793 18089 net.cpp:409] inception_3a/5x5_reduce_BatchNorm -> inception_3a/5x5_reduce
I1228 22:00:22.942320 18089 net.cpp:144] Setting up inception_3a/5x5_reduce_BatchNorm
I1228 22:00:22.942327 18089 net.cpp:151] Top shape: 1 16 40 80 (51200)
I1228 22:00:22.942332 18089 net.cpp:159] Memory required for data: 127795204
I1228 22:00:22.942340 18089 layer_factory.hpp:77] Creating layer inception_3a/relu_5x5_reduce
I1228 22:00:22.942345 18089 net.cpp:94] Creating Layer inception_3a/relu_5x5_reduce
I1228 22:00:22.942348 18089 net.cpp:435] inception_3a/relu_5x5_reduce <- inception_3a/5x5_reduce
I1228 22:00:22.942353 18089 net.cpp:396] inception_3a/relu_5x5_reduce -> inception_3a/5x5_reduce (in-place)
I1228 22:00:22.942358 18089 net.cpp:144] Setting up inception_3a/relu_5x5_reduce
I1228 22:00:22.942360 18089 net.cpp:151] Top shape: 1 16 40 80 (51200)
I1228 22:00:22.942364 18089 net.cpp:159] Memory required for data: 128000004
I1228 22:00:22.942366 18089 layer_factory.hpp:77] Creating layer inception_3a/5x5
I1228 22:00:22.942373 18089 net.cpp:94] Creating Layer inception_3a/5x5
I1228 22:00:22.942376 18089 net.cpp:435] inception_3a/5x5 <- inception_3a/5x5_reduce
I1228 22:00:22.942380 18089 net.cpp:409] inception_3a/5x5 -> inception_3a/5x5_raw
I1228 22:00:22.942672 18089 net.cpp:144] Setting up inception_3a/5x5
I1228 22:00:22.942678 18089 net.cpp:151] Top shape: 1 32 40 80 (102400)
I1228 22:00:22.942682 18089 net.cpp:159] Memory required for data: 128409604
I1228 22:00:22.942687 18089 layer_factory.hpp:77] Creating layer inception_3a/5x5_BatchNorm
I1228 22:00:22.942690 18089 net.cpp:94] Creating Layer inception_3a/5x5_BatchNorm
I1228 22:00:22.942693 18089 net.cpp:435] inception_3a/5x5_BatchNorm <- inception_3a/5x5_raw
I1228 22:00:22.942696 18089 net.cpp:409] inception_3a/5x5_BatchNorm -> inception_3a/5x5
I1228 22:00:22.943060 18089 net.cpp:144] Setting up inception_3a/5x5_BatchNorm
I1228 22:00:22.943064 18089 net.cpp:151] Top shape: 1 32 40 80 (102400)
I1228 22:00:22.943068 18089 net.cpp:159] Memory required for data: 128819204
I1228 22:00:22.943073 18089 layer_factory.hpp:77] Creating layer inception_3a/relu_5x5
I1228 22:00:22.943075 18089 net.cpp:94] Creating Layer inception_3a/relu_5x5
I1228 22:00:22.943078 18089 net.cpp:435] inception_3a/relu_5x5 <- inception_3a/5x5
I1228 22:00:22.943079 18089 net.cpp:396] inception_3a/relu_5x5 -> inception_3a/5x5 (in-place)
I1228 22:00:22.943082 18089 net.cpp:144] Setting up inception_3a/relu_5x5
I1228 22:00:22.943084 18089 net.cpp:151] Top shape: 1 32 40 80 (102400)
I1228 22:00:22.943086 18089 net.cpp:159] Memory required for data: 129228804
I1228 22:00:22.943089 18089 layer_factory.hpp:77] Creating layer inception_3a/pool
I1228 22:00:22.943092 18089 net.cpp:94] Creating Layer inception_3a/pool
I1228 22:00:22.943094 18089 net.cpp:435] inception_3a/pool <- pool2/3x3_s2_pool2/3x3_s2_0_split_3
I1228 22:00:22.943096 18089 net.cpp:409] inception_3a/pool -> inception_3a/pool
I1228 22:00:22.943115 18089 net.cpp:144] Setting up inception_3a/pool
I1228 22:00:22.943118 18089 net.cpp:151] Top shape: 1 192 40 80 (614400)
I1228 22:00:22.943120 18089 net.cpp:159] Memory required for data: 131686404
I1228 22:00:22.943122 18089 layer_factory.hpp:77] Creating layer inception_3a/pool_proj
I1228 22:00:22.943126 18089 net.cpp:94] Creating Layer inception_3a/pool_proj
I1228 22:00:22.943127 18089 net.cpp:435] inception_3a/pool_proj <- inception_3a/pool
I1228 22:00:22.943130 18089 net.cpp:409] inception_3a/pool_proj -> inception_3a/pool_proj_raw
I1228 22:00:22.943296 18089 net.cpp:144] Setting up inception_3a/pool_proj
I1228 22:00:22.943300 18089 net.cpp:151] Top shape: 1 32 40 80 (102400)
I1228 22:00:22.943302 18089 net.cpp:159] Memory required for data: 132096004
I1228 22:00:22.943306 18089 layer_factory.hpp:77] Creating layer inception_3a/pool_proj_BatchNorm
I1228 22:00:22.943310 18089 net.cpp:94] Creating Layer inception_3a/pool_proj_BatchNorm
I1228 22:00:22.943312 18089 net.cpp:435] inception_3a/pool_proj_BatchNorm <- inception_3a/pool_proj_raw
I1228 22:00:22.943315 18089 net.cpp:409] inception_3a/pool_proj_BatchNorm -> inception_3a/pool_proj
I1228 22:00:22.943667 18089 net.cpp:144] Setting up inception_3a/pool_proj_BatchNorm
I1228 22:00:22.943672 18089 net.cpp:151] Top shape: 1 32 40 80 (102400)
I1228 22:00:22.943675 18089 net.cpp:159] Memory required for data: 132505604
I1228 22:00:22.943681 18089 layer_factory.hpp:77] Creating layer inception_3a/relu_pool_proj
I1228 22:00:22.943686 18089 net.cpp:94] Creating Layer inception_3a/relu_pool_proj
I1228 22:00:22.943687 18089 net.cpp:435] inception_3a/relu_pool_proj <- inception_3a/pool_proj
I1228 22:00:22.943689 18089 net.cpp:396] inception_3a/relu_pool_proj -> inception_3a/pool_proj (in-place)
I1228 22:00:22.943693 18089 net.cpp:144] Setting up inception_3a/relu_pool_proj
I1228 22:00:22.943694 18089 net.cpp:151] Top shape: 1 32 40 80 (102400)
I1228 22:00:22.943697 18089 net.cpp:159] Memory required for data: 132915204
I1228 22:00:22.943698 18089 layer_factory.hpp:77] Creating layer inception_3a/output
I1228 22:00:22.943709 18089 net.cpp:94] Creating Layer inception_3a/output
I1228 22:00:22.943711 18089 net.cpp:435] inception_3a/output <- inception_3a/1x1
I1228 22:00:22.943713 18089 net.cpp:435] inception_3a/output <- inception_3a/3x3
I1228 22:00:22.943715 18089 net.cpp:435] inception_3a/output <- inception_3a/5x5
I1228 22:00:22.943717 18089 net.cpp:435] inception_3a/output <- inception_3a/pool_proj
I1228 22:00:22.943719 18089 net.cpp:409] inception_3a/output -> inception_3a/output
I1228 22:00:22.943734 18089 net.cpp:144] Setting up inception_3a/output
I1228 22:00:22.943738 18089 net.cpp:151] Top shape: 1 256 40 80 (819200)
I1228 22:00:22.943740 18089 net.cpp:159] Memory required for data: 136192004
I1228 22:00:22.943742 18089 layer_factory.hpp:77] Creating layer inception_3a/output_inception_3a/output_0_split
I1228 22:00:22.943747 18089 net.cpp:94] Creating Layer inception_3a/output_inception_3a/output_0_split
I1228 22:00:22.943748 18089 net.cpp:435] inception_3a/output_inception_3a/output_0_split <- inception_3a/output
I1228 22:00:22.943750 18089 net.cpp:409] inception_3a/output_inception_3a/output_0_split -> inception_3a/output_inception_3a/output_0_split_0
I1228 22:00:22.943753 18089 net.cpp:409] inception_3a/output_inception_3a/output_0_split -> inception_3a/output_inception_3a/output_0_split_1
I1228 22:00:22.943756 18089 net.cpp:409] inception_3a/output_inception_3a/output_0_split -> inception_3a/output_inception_3a/output_0_split_2
I1228 22:00:22.943761 18089 net.cpp:409] inception_3a/output_inception_3a/output_0_split -> inception_3a/output_inception_3a/output_0_split_3
I1228 22:00:22.943789 18089 net.cpp:144] Setting up inception_3a/output_inception_3a/output_0_split
I1228 22:00:22.943792 18089 net.cpp:151] Top shape: 1 256 40 80 (819200)
I1228 22:00:22.943794 18089 net.cpp:151] Top shape: 1 256 40 80 (819200)
I1228 22:00:22.943797 18089 net.cpp:151] Top shape: 1 256 40 80 (819200)
I1228 22:00:22.943799 18089 net.cpp:151] Top shape: 1 256 40 80 (819200)
I1228 22:00:22.943802 18089 net.cpp:159] Memory required for data: 149299204
I1228 22:00:22.943804 18089 layer_factory.hpp:77] Creating layer inception_3b/1x1
I1228 22:00:22.943809 18089 net.cpp:94] Creating Layer inception_3b/1x1
I1228 22:00:22.943810 18089 net.cpp:435] inception_3b/1x1 <- inception_3a/output_inception_3a/output_0_split_0
I1228 22:00:22.943814 18089 net.cpp:409] inception_3b/1x1 -> inception_3b/1x1_raw
I1228 22:00:22.944115 18089 net.cpp:144] Setting up inception_3b/1x1
I1228 22:00:22.944119 18089 net.cpp:151] Top shape: 1 128 40 80 (409600)
I1228 22:00:22.944123 18089 net.cpp:159] Memory required for data: 150937604
I1228 22:00:22.944128 18089 layer_factory.hpp:77] Creating layer inception_3b/1x1_BatchNorm
I1228 22:00:22.944133 18089 net.cpp:94] Creating Layer inception_3b/1x1_BatchNorm
I1228 22:00:22.944134 18089 net.cpp:435] inception_3b/1x1_BatchNorm <- inception_3b/1x1_raw
I1228 22:00:22.944137 18089 net.cpp:409] inception_3b/1x1_BatchNorm -> inception_3b/1x1
I1228 22:00:22.944445 18089 net.cpp:144] Setting up inception_3b/1x1_BatchNorm
I1228 22:00:22.944449 18089 net.cpp:151] Top shape: 1 128 40 80 (409600)
I1228 22:00:22.944453 18089 net.cpp:159] Memory required for data: 152576004
I1228 22:00:22.944458 18089 layer_factory.hpp:77] Creating layer inception_3b/relu_1x1
I1228 22:00:22.944460 18089 net.cpp:94] Creating Layer inception_3b/relu_1x1
I1228 22:00:22.944463 18089 net.cpp:435] inception_3b/relu_1x1 <- inception_3b/1x1
I1228 22:00:22.944465 18089 net.cpp:396] inception_3b/relu_1x1 -> inception_3b/1x1 (in-place)
I1228 22:00:22.944468 18089 net.cpp:144] Setting up inception_3b/relu_1x1
I1228 22:00:22.944469 18089 net.cpp:151] Top shape: 1 128 40 80 (409600)
I1228 22:00:22.944473 18089 net.cpp:159] Memory required for data: 154214404
I1228 22:00:22.944473 18089 layer_factory.hpp:77] Creating layer inception_3b/3x3_reduce
I1228 22:00:22.944478 18089 net.cpp:94] Creating Layer inception_3b/3x3_reduce
I1228 22:00:22.944479 18089 net.cpp:435] inception_3b/3x3_reduce <- inception_3a/output_inception_3a/output_0_split_1
I1228 22:00:22.944483 18089 net.cpp:409] inception_3b/3x3_reduce -> inception_3b/3x3_reduce_raw
I1228 22:00:22.944831 18089 net.cpp:144] Setting up inception_3b/3x3_reduce
I1228 22:00:22.944839 18089 net.cpp:151] Top shape: 1 128 40 80 (409600)
I1228 22:00:22.944842 18089 net.cpp:159] Memory required for data: 155852804
I1228 22:00:22.944846 18089 layer_factory.hpp:77] Creating layer inception_3b/3x3_reduce_BatchNorm
I1228 22:00:22.944850 18089 net.cpp:94] Creating Layer inception_3b/3x3_reduce_BatchNorm
I1228 22:00:22.944854 18089 net.cpp:435] inception_3b/3x3_reduce_BatchNorm <- inception_3b/3x3_reduce_raw
I1228 22:00:22.944856 18089 net.cpp:409] inception_3b/3x3_reduce_BatchNorm -> inception_3b/3x3_reduce
I1228 22:00:22.945173 18089 net.cpp:144] Setting up inception_3b/3x3_reduce_BatchNorm
I1228 22:00:22.945178 18089 net.cpp:151] Top shape: 1 128 40 80 (409600)
I1228 22:00:22.945179 18089 net.cpp:159] Memory required for data: 157491204
I1228 22:00:22.945185 18089 layer_factory.hpp:77] Creating layer inception_3b/relu_3x3_reduce
I1228 22:00:22.945188 18089 net.cpp:94] Creating Layer inception_3b/relu_3x3_reduce
I1228 22:00:22.945190 18089 net.cpp:435] inception_3b/relu_3x3_reduce <- inception_3b/3x3_reduce
I1228 22:00:22.945194 18089 net.cpp:396] inception_3b/relu_3x3_reduce -> inception_3b/3x3_reduce (in-place)
I1228 22:00:22.945199 18089 net.cpp:144] Setting up inception_3b/relu_3x3_reduce
I1228 22:00:22.945199 18089 net.cpp:151] Top shape: 1 128 40 80 (409600)
I1228 22:00:22.945202 18089 net.cpp:159] Memory required for data: 159129604
I1228 22:00:22.945204 18089 layer_factory.hpp:77] Creating layer inception_3b/3x3
I1228 22:00:22.945209 18089 net.cpp:94] Creating Layer inception_3b/3x3
I1228 22:00:22.945212 18089 net.cpp:435] inception_3b/3x3 <- inception_3b/3x3_reduce
I1228 22:00:22.945216 18089 net.cpp:409] inception_3b/3x3 -> inception_3b/3x3_raw
I1228 22:00:22.947180 18089 net.cpp:144] Setting up inception_3b/3x3
I1228 22:00:22.947188 18089 net.cpp:151] Top shape: 1 192 40 80 (614400)
I1228 22:00:22.947192 18089 net.cpp:159] Memory required for data: 161587204
I1228 22:00:22.947196 18089 layer_factory.hpp:77] Creating layer inception_3b/3x3_BatchNorm
I1228 22:00:22.947201 18089 net.cpp:94] Creating Layer inception_3b/3x3_BatchNorm
I1228 22:00:22.947203 18089 net.cpp:435] inception_3b/3x3_BatchNorm <- inception_3b/3x3_raw
I1228 22:00:22.947211 18089 net.cpp:409] inception_3b/3x3_BatchNorm -> inception_3b/3x3
I1228 22:00:22.947664 18089 net.cpp:144] Setting up inception_3b/3x3_BatchNorm
I1228 22:00:22.947670 18089 net.cpp:151] Top shape: 1 192 40 80 (614400)
I1228 22:00:22.947674 18089 net.cpp:159] Memory required for data: 164044804
I1228 22:00:22.947680 18089 layer_factory.hpp:77] Creating layer inception_3b/relu_3x3
I1228 22:00:22.947685 18089 net.cpp:94] Creating Layer inception_3b/relu_3x3
I1228 22:00:22.947688 18089 net.cpp:435] inception_3b/relu_3x3 <- inception_3b/3x3
I1228 22:00:22.947692 18089 net.cpp:396] inception_3b/relu_3x3 -> inception_3b/3x3 (in-place)
I1228 22:00:22.947698 18089 net.cpp:144] Setting up inception_3b/relu_3x3
I1228 22:00:22.947701 18089 net.cpp:151] Top shape: 1 192 40 80 (614400)
I1228 22:00:22.947705 18089 net.cpp:159] Memory required for data: 166502404
I1228 22:00:22.947707 18089 layer_factory.hpp:77] Creating layer inception_3b/5x5_reduce
I1228 22:00:22.947715 18089 net.cpp:94] Creating Layer inception_3b/5x5_reduce
I1228 22:00:22.947717 18089 net.cpp:435] inception_3b/5x5_reduce <- inception_3a/output_inception_3a/output_0_split_2
I1228 22:00:22.947722 18089 net.cpp:409] inception_3b/5x5_reduce -> inception_3b/5x5_reduce_raw
I1228 22:00:22.947921 18089 net.cpp:144] Setting up inception_3b/5x5_reduce
I1228 22:00:22.947926 18089 net.cpp:151] Top shape: 1 32 40 80 (102400)
I1228 22:00:22.947929 18089 net.cpp:159] Memory required for data: 166912004
I1228 22:00:22.947933 18089 layer_factory.hpp:77] Creating layer inception_3b/5x5_reduce_BatchNorm
I1228 22:00:22.947939 18089 net.cpp:94] Creating Layer inception_3b/5x5_reduce_BatchNorm
I1228 22:00:22.947942 18089 net.cpp:435] inception_3b/5x5_reduce_BatchNorm <- inception_3b/5x5_reduce_raw
I1228 22:00:22.947947 18089 net.cpp:409] inception_3b/5x5_reduce_BatchNorm -> inception_3b/5x5_reduce
I1228 22:00:22.948323 18089 net.cpp:144] Setting up inception_3b/5x5_reduce_BatchNorm
I1228 22:00:22.948328 18089 net.cpp:151] Top shape: 1 32 40 80 (102400)
I1228 22:00:22.948331 18089 net.cpp:159] Memory required for data: 167321604
I1228 22:00:22.948338 18089 layer_factory.hpp:77] Creating layer inception_3b/relu_5x5_reduce
I1228 22:00:22.948343 18089 net.cpp:94] Creating Layer inception_3b/relu_5x5_reduce
I1228 22:00:22.948345 18089 net.cpp:435] inception_3b/relu_5x5_reduce <- inception_3b/5x5_reduce
I1228 22:00:22.948349 18089 net.cpp:396] inception_3b/relu_5x5_reduce -> inception_3b/5x5_reduce (in-place)
I1228 22:00:22.948354 18089 net.cpp:144] Setting up inception_3b/relu_5x5_reduce
I1228 22:00:22.948356 18089 net.cpp:151] Top shape: 1 32 40 80 (102400)
I1228 22:00:22.948360 18089 net.cpp:159] Memory required for data: 167731204
I1228 22:00:22.948362 18089 layer_factory.hpp:77] Creating layer inception_3b/5x5
I1228 22:00:22.948369 18089 net.cpp:94] Creating Layer inception_3b/5x5
I1228 22:00:22.948374 18089 net.cpp:435] inception_3b/5x5 <- inception_3b/5x5_reduce
I1228 22:00:22.948379 18089 net.cpp:409] inception_3b/5x5 -> inception_3b/5x5_raw
I1228 22:00:22.949517 18089 net.cpp:144] Setting up inception_3b/5x5
I1228 22:00:22.949523 18089 net.cpp:151] Top shape: 1 96 40 80 (307200)
I1228 22:00:22.949527 18089 net.cpp:159] Memory required for data: 168960004
I1228 22:00:22.949532 18089 layer_factory.hpp:77] Creating layer inception_3b/5x5_BatchNorm
I1228 22:00:22.949537 18089 net.cpp:94] Creating Layer inception_3b/5x5_BatchNorm
I1228 22:00:22.949539 18089 net.cpp:435] inception_3b/5x5_BatchNorm <- inception_3b/5x5_raw
I1228 22:00:22.949543 18089 net.cpp:409] inception_3b/5x5_BatchNorm -> inception_3b/5x5
I1228 22:00:22.949945 18089 net.cpp:144] Setting up inception_3b/5x5_BatchNorm
I1228 22:00:22.949951 18089 net.cpp:151] Top shape: 1 96 40 80 (307200)
I1228 22:00:22.949954 18089 net.cpp:159] Memory required for data: 170188804
I1228 22:00:22.949960 18089 layer_factory.hpp:77] Creating layer inception_3b/relu_5x5
I1228 22:00:22.949963 18089 net.cpp:94] Creating Layer inception_3b/relu_5x5
I1228 22:00:22.949966 18089 net.cpp:435] inception_3b/relu_5x5 <- inception_3b/5x5
I1228 22:00:22.949970 18089 net.cpp:396] inception_3b/relu_5x5 -> inception_3b/5x5 (in-place)
I1228 22:00:22.949975 18089 net.cpp:144] Setting up inception_3b/relu_5x5
I1228 22:00:22.949978 18089 net.cpp:151] Top shape: 1 96 40 80 (307200)
I1228 22:00:22.949982 18089 net.cpp:159] Memory required for data: 171417604
I1228 22:00:22.949985 18089 layer_factory.hpp:77] Creating layer inception_3b/pool
I1228 22:00:22.949990 18089 net.cpp:94] Creating Layer inception_3b/pool
I1228 22:00:22.949993 18089 net.cpp:435] inception_3b/pool <- inception_3a/output_inception_3a/output_0_split_3
I1228 22:00:22.949997 18089 net.cpp:409] inception_3b/pool -> inception_3b/pool
I1228 22:00:22.950027 18089 net.cpp:144] Setting up inception_3b/pool
I1228 22:00:22.950031 18089 net.cpp:151] Top shape: 1 256 40 80 (819200)
I1228 22:00:22.950034 18089 net.cpp:159] Memory required for data: 174694404
I1228 22:00:22.950037 18089 layer_factory.hpp:77] Creating layer inception_3b/pool_proj
I1228 22:00:22.950042 18089 net.cpp:94] Creating Layer inception_3b/pool_proj
I1228 22:00:22.950045 18089 net.cpp:435] inception_3b/pool_proj <- inception_3b/pool
I1228 22:00:22.950050 18089 net.cpp:409] inception_3b/pool_proj -> inception_3b/pool_proj_raw
I1228 22:00:22.950280 18089 net.cpp:144] Setting up inception_3b/pool_proj
I1228 22:00:22.950285 18089 net.cpp:151] Top shape: 1 64 40 80 (204800)
I1228 22:00:22.950289 18089 net.cpp:159] Memory required for data: 175513604
I1228 22:00:22.950294 18089 layer_factory.hpp:77] Creating layer inception_3b/pool_proj_BatchNorm
I1228 22:00:22.950299 18089 net.cpp:94] Creating Layer inception_3b/pool_proj_BatchNorm
I1228 22:00:22.950304 18089 net.cpp:435] inception_3b/pool_proj_BatchNorm <- inception_3b/pool_proj_raw
I1228 22:00:22.950307 18089 net.cpp:409] inception_3b/pool_proj_BatchNorm -> inception_3b/pool_proj
I1228 22:00:22.950700 18089 net.cpp:144] Setting up inception_3b/pool_proj_BatchNorm
I1228 22:00:22.950706 18089 net.cpp:151] Top shape: 1 64 40 80 (204800)
I1228 22:00:22.950708 18089 net.cpp:159] Memory required for data: 176332804
I1228 22:00:22.950716 18089 layer_factory.hpp:77] Creating layer inception_3b/relu_pool_proj
I1228 22:00:22.950719 18089 net.cpp:94] Creating Layer inception_3b/relu_pool_proj
I1228 22:00:22.950722 18089 net.cpp:435] inception_3b/relu_pool_proj <- inception_3b/pool_proj
I1228 22:00:22.950726 18089 net.cpp:396] inception_3b/relu_pool_proj -> inception_3b/pool_proj (in-place)
I1228 22:00:22.950731 18089 net.cpp:144] Setting up inception_3b/relu_pool_proj
I1228 22:00:22.950733 18089 net.cpp:151] Top shape: 1 64 40 80 (204800)
I1228 22:00:22.950736 18089 net.cpp:159] Memory required for data: 177152004
I1228 22:00:22.950739 18089 layer_factory.hpp:77] Creating layer inception_3b/output
I1228 22:00:22.950743 18089 net.cpp:94] Creating Layer inception_3b/output
I1228 22:00:22.950747 18089 net.cpp:435] inception_3b/output <- inception_3b/1x1
I1228 22:00:22.950749 18089 net.cpp:435] inception_3b/output <- inception_3b/3x3
I1228 22:00:22.950753 18089 net.cpp:435] inception_3b/output <- inception_3b/5x5
I1228 22:00:22.950755 18089 net.cpp:435] inception_3b/output <- inception_3b/pool_proj
I1228 22:00:22.950760 18089 net.cpp:409] inception_3b/output -> inception_3b/output
I1228 22:00:22.950781 18089 net.cpp:144] Setting up inception_3b/output
I1228 22:00:22.950785 18089 net.cpp:151] Top shape: 1 480 40 80 (1536000)
I1228 22:00:22.950788 18089 net.cpp:159] Memory required for data: 183296004
I1228 22:00:22.950790 18089 layer_factory.hpp:77] Creating layer inception_3b/output_inception_3b/output_0_split
I1228 22:00:22.950794 18089 net.cpp:94] Creating Layer inception_3b/output_inception_3b/output_0_split
I1228 22:00:22.950796 18089 net.cpp:435] inception_3b/output_inception_3b/output_0_split <- inception_3b/output
I1228 22:00:22.950799 18089 net.cpp:409] inception_3b/output_inception_3b/output_0_split -> inception_3b/output_inception_3b/output_0_split_0
I1228 22:00:22.950804 18089 net.cpp:409] inception_3b/output_inception_3b/output_0_split -> inception_3b/output_inception_3b/output_0_split_1
I1228 22:00:22.950839 18089 net.cpp:144] Setting up inception_3b/output_inception_3b/output_0_split
I1228 22:00:22.950843 18089 net.cpp:151] Top shape: 1 480 40 80 (1536000)
I1228 22:00:22.950846 18089 net.cpp:151] Top shape: 1 480 40 80 (1536000)
I1228 22:00:22.950850 18089 net.cpp:159] Memory required for data: 195584004
I1228 22:00:22.950850 18089 layer_factory.hpp:77] Creating layer pool3/3x3_s2
I1228 22:00:22.950855 18089 net.cpp:94] Creating Layer pool3/3x3_s2
I1228 22:00:22.950857 18089 net.cpp:435] pool3/3x3_s2 <- inception_3b/output_inception_3b/output_0_split_0
I1228 22:00:22.950861 18089 net.cpp:409] pool3/3x3_s2 -> pool3/3x3_s2
I1228 22:00:22.950891 18089 net.cpp:144] Setting up pool3/3x3_s2
I1228 22:00:22.950896 18089 net.cpp:151] Top shape: 1 480 20 40 (384000)
I1228 22:00:22.950898 18089 net.cpp:159] Memory required for data: 197120004
I1228 22:00:22.950901 18089 layer_factory.hpp:77] Creating layer pool3/3x3_s2_pool3/3x3_s2_0_split
I1228 22:00:22.950903 18089 net.cpp:94] Creating Layer pool3/3x3_s2_pool3/3x3_s2_0_split
I1228 22:00:22.950906 18089 net.cpp:435] pool3/3x3_s2_pool3/3x3_s2_0_split <- pool3/3x3_s2
I1228 22:00:22.950908 18089 net.cpp:409] pool3/3x3_s2_pool3/3x3_s2_0_split -> pool3/3x3_s2_pool3/3x3_s2_0_split_0
I1228 22:00:22.950912 18089 net.cpp:409] pool3/3x3_s2_pool3/3x3_s2_0_split -> pool3/3x3_s2_pool3/3x3_s2_0_split_1
I1228 22:00:22.950917 18089 net.cpp:409] pool3/3x3_s2_pool3/3x3_s2_0_split -> pool3/3x3_s2_pool3/3x3_s2_0_split_2
I1228 22:00:22.950922 18089 net.cpp:409] pool3/3x3_s2_pool3/3x3_s2_0_split -> pool3/3x3_s2_pool3/3x3_s2_0_split_3
I1228 22:00:22.950966 18089 net.cpp:144] Setting up pool3/3x3_s2_pool3/3x3_s2_0_split
I1228 22:00:22.950970 18089 net.cpp:151] Top shape: 1 480 20 40 (384000)
I1228 22:00:22.950973 18089 net.cpp:151] Top shape: 1 480 20 40 (384000)
I1228 22:00:22.950975 18089 net.cpp:151] Top shape: 1 480 20 40 (384000)
I1228 22:00:22.950978 18089 net.cpp:151] Top shape: 1 480 20 40 (384000)
I1228 22:00:22.950980 18089 net.cpp:159] Memory required for data: 203264004
I1228 22:00:22.950984 18089 layer_factory.hpp:77] Creating layer inception_4a/1x1
I1228 22:00:22.950989 18089 net.cpp:94] Creating Layer inception_4a/1x1
I1228 22:00:22.950994 18089 net.cpp:435] inception_4a/1x1 <- pool3/3x3_s2_pool3/3x3_s2_0_split_0
I1228 22:00:22.950997 18089 net.cpp:409] inception_4a/1x1 -> inception_4a/1x1_raw
I1228 22:00:22.951620 18089 net.cpp:144] Setting up inception_4a/1x1
I1228 22:00:22.951625 18089 net.cpp:151] Top shape: 1 192 20 40 (153600)
I1228 22:00:22.951628 18089 net.cpp:159] Memory required for data: 203878404
I1228 22:00:22.951632 18089 layer_factory.hpp:77] Creating layer inception_4a/1x1_BatchNorm
I1228 22:00:22.951637 18089 net.cpp:94] Creating Layer inception_4a/1x1_BatchNorm
I1228 22:00:22.951640 18089 net.cpp:435] inception_4a/1x1_BatchNorm <- inception_4a/1x1_raw
I1228 22:00:22.951644 18089 net.cpp:409] inception_4a/1x1_BatchNorm -> inception_4a/1x1
I1228 22:00:22.952020 18089 net.cpp:144] Setting up inception_4a/1x1_BatchNorm
I1228 22:00:22.952026 18089 net.cpp:151] Top shape: 1 192 20 40 (153600)
I1228 22:00:22.952029 18089 net.cpp:159] Memory required for data: 204492804
I1228 22:00:22.952034 18089 layer_factory.hpp:77] Creating layer inception_4a/relu_1x1
I1228 22:00:22.952039 18089 net.cpp:94] Creating Layer inception_4a/relu_1x1
I1228 22:00:22.952041 18089 net.cpp:435] inception_4a/relu_1x1 <- inception_4a/1x1
I1228 22:00:22.952045 18089 net.cpp:396] inception_4a/relu_1x1 -> inception_4a/1x1 (in-place)
I1228 22:00:22.952050 18089 net.cpp:144] Setting up inception_4a/relu_1x1
I1228 22:00:22.952052 18089 net.cpp:151] Top shape: 1 192 20 40 (153600)
I1228 22:00:22.952055 18089 net.cpp:159] Memory required for data: 205107204
I1228 22:00:22.952059 18089 layer_factory.hpp:77] Creating layer inception_4a/3x3_reduce
I1228 22:00:22.952064 18089 net.cpp:94] Creating Layer inception_4a/3x3_reduce
I1228 22:00:22.952066 18089 net.cpp:435] inception_4a/3x3_reduce <- pool3/3x3_s2_pool3/3x3_s2_0_split_1
I1228 22:00:22.952071 18089 net.cpp:409] inception_4a/3x3_reduce -> inception_4a/3x3_reduce_raw
I1228 22:00:22.952497 18089 net.cpp:144] Setting up inception_4a/3x3_reduce
I1228 22:00:22.952503 18089 net.cpp:151] Top shape: 1 96 20 40 (76800)
I1228 22:00:22.952507 18089 net.cpp:159] Memory required for data: 205414404
I1228 22:00:22.952510 18089 layer_factory.hpp:77] Creating layer inception_4a/3x3_reduce_BatchNorm
I1228 22:00:22.952517 18089 net.cpp:94] Creating Layer inception_4a/3x3_reduce_BatchNorm
I1228 22:00:22.952519 18089 net.cpp:435] inception_4a/3x3_reduce_BatchNorm <- inception_4a/3x3_reduce_raw
I1228 22:00:22.952524 18089 net.cpp:409] inception_4a/3x3_reduce_BatchNorm -> inception_4a/3x3_reduce
I1228 22:00:22.952916 18089 net.cpp:144] Setting up inception_4a/3x3_reduce_BatchNorm
I1228 22:00:22.952922 18089 net.cpp:151] Top shape: 1 96 20 40 (76800)
I1228 22:00:22.952926 18089 net.cpp:159] Memory required for data: 205721604
I1228 22:00:22.952931 18089 layer_factory.hpp:77] Creating layer inception_4a/relu_3x3_reduce
I1228 22:00:22.952935 18089 net.cpp:94] Creating Layer inception_4a/relu_3x3_reduce
I1228 22:00:22.952939 18089 net.cpp:435] inception_4a/relu_3x3_reduce <- inception_4a/3x3_reduce
I1228 22:00:22.952942 18089 net.cpp:396] inception_4a/relu_3x3_reduce -> inception_4a/3x3_reduce (in-place)
I1228 22:00:22.952947 18089 net.cpp:144] Setting up inception_4a/relu_3x3_reduce
I1228 22:00:22.952950 18089 net.cpp:151] Top shape: 1 96 20 40 (76800)
I1228 22:00:22.952953 18089 net.cpp:159] Memory required for data: 206028804
I1228 22:00:22.952956 18089 layer_factory.hpp:77] Creating layer inception_4a/3x3
I1228 22:00:22.952965 18089 net.cpp:94] Creating Layer inception_4a/3x3
I1228 22:00:22.952970 18089 net.cpp:435] inception_4a/3x3 <- inception_4a/3x3_reduce
I1228 22:00:22.952975 18089 net.cpp:409] inception_4a/3x3 -> inception_4a/3x3_raw
I1228 22:00:22.954620 18089 net.cpp:144] Setting up inception_4a/3x3
I1228 22:00:22.954627 18089 net.cpp:151] Top shape: 1 208 20 40 (166400)
I1228 22:00:22.954632 18089 net.cpp:159] Memory required for data: 206694404
I1228 22:00:22.954635 18089 layer_factory.hpp:77] Creating layer inception_4a/3x3_BatchNorm
I1228 22:00:22.954640 18089 net.cpp:94] Creating Layer inception_4a/3x3_BatchNorm
I1228 22:00:22.954643 18089 net.cpp:435] inception_4a/3x3_BatchNorm <- inception_4a/3x3_raw
I1228 22:00:22.954648 18089 net.cpp:409] inception_4a/3x3_BatchNorm -> inception_4a/3x3
I1228 22:00:22.955109 18089 net.cpp:144] Setting up inception_4a/3x3_BatchNorm
I1228 22:00:22.955116 18089 net.cpp:151] Top shape: 1 208 20 40 (166400)
I1228 22:00:22.955121 18089 net.cpp:159] Memory required for data: 207360004
I1228 22:00:22.955127 18089 layer_factory.hpp:77] Creating layer inception_4a/relu_3x3
I1228 22:00:22.955133 18089 net.cpp:94] Creating Layer inception_4a/relu_3x3
I1228 22:00:22.955137 18089 net.cpp:435] inception_4a/relu_3x3 <- inception_4a/3x3
I1228 22:00:22.955139 18089 net.cpp:396] inception_4a/relu_3x3 -> inception_4a/3x3 (in-place)
I1228 22:00:22.955144 18089 net.cpp:144] Setting up inception_4a/relu_3x3
I1228 22:00:22.955147 18089 net.cpp:151] Top shape: 1 208 20 40 (166400)
I1228 22:00:22.955150 18089 net.cpp:159] Memory required for data: 208025604
I1228 22:00:22.955152 18089 layer_factory.hpp:77] Creating layer inception_4a/5x5_reduce
I1228 22:00:22.955158 18089 net.cpp:94] Creating Layer inception_4a/5x5_reduce
I1228 22:00:22.955160 18089 net.cpp:435] inception_4a/5x5_reduce <- pool3/3x3_s2_pool3/3x3_s2_0_split_2
I1228 22:00:22.955164 18089 net.cpp:409] inception_4a/5x5_reduce -> inception_4a/5x5_reduce_raw
I1228 22:00:22.955397 18089 net.cpp:144] Setting up inception_4a/5x5_reduce
I1228 22:00:22.955404 18089 net.cpp:151] Top shape: 1 16 20 40 (12800)
I1228 22:00:22.955406 18089 net.cpp:159] Memory required for data: 208076804
I1228 22:00:22.955410 18089 layer_factory.hpp:77] Creating layer inception_4a/5x5_reduce_BatchNorm
I1228 22:00:22.955415 18089 net.cpp:94] Creating Layer inception_4a/5x5_reduce_BatchNorm
I1228 22:00:22.955416 18089 net.cpp:435] inception_4a/5x5_reduce_BatchNorm <- inception_4a/5x5_reduce_raw
I1228 22:00:22.955420 18089 net.cpp:409] inception_4a/5x5_reduce_BatchNorm -> inception_4a/5x5_reduce
I1228 22:00:22.955797 18089 net.cpp:144] Setting up inception_4a/5x5_reduce_BatchNorm
I1228 22:00:22.955802 18089 net.cpp:151] Top shape: 1 16 20 40 (12800)
I1228 22:00:22.955806 18089 net.cpp:159] Memory required for data: 208128004
I1228 22:00:22.955817 18089 layer_factory.hpp:77] Creating layer inception_4a/relu_5x5_reduce
I1228 22:00:22.955823 18089 net.cpp:94] Creating Layer inception_4a/relu_5x5_reduce
I1228 22:00:22.955826 18089 net.cpp:435] inception_4a/relu_5x5_reduce <- inception_4a/5x5_reduce
I1228 22:00:22.955830 18089 net.cpp:396] inception_4a/relu_5x5_reduce -> inception_4a/5x5_reduce (in-place)
I1228 22:00:22.955835 18089 net.cpp:144] Setting up inception_4a/relu_5x5_reduce
I1228 22:00:22.955837 18089 net.cpp:151] Top shape: 1 16 20 40 (12800)
I1228 22:00:22.955842 18089 net.cpp:159] Memory required for data: 208179204
I1228 22:00:22.955843 18089 layer_factory.hpp:77] Creating layer inception_4a/5x5
I1228 22:00:22.955849 18089 net.cpp:94] Creating Layer inception_4a/5x5
I1228 22:00:22.955852 18089 net.cpp:435] inception_4a/5x5 <- inception_4a/5x5_reduce
I1228 22:00:22.955857 18089 net.cpp:409] inception_4a/5x5 -> inception_4a/5x5_raw
I1228 22:00:22.956115 18089 net.cpp:144] Setting up inception_4a/5x5
I1228 22:00:22.956120 18089 net.cpp:151] Top shape: 1 48 20 40 (38400)
I1228 22:00:22.956122 18089 net.cpp:159] Memory required for data: 208332804
I1228 22:00:22.956126 18089 layer_factory.hpp:77] Creating layer inception_4a/5x5_BatchNorm
I1228 22:00:22.956131 18089 net.cpp:94] Creating Layer inception_4a/5x5_BatchNorm
I1228 22:00:22.956135 18089 net.cpp:435] inception_4a/5x5_BatchNorm <- inception_4a/5x5_raw
I1228 22:00:22.956140 18089 net.cpp:409] inception_4a/5x5_BatchNorm -> inception_4a/5x5
I1228 22:00:22.956527 18089 net.cpp:144] Setting up inception_4a/5x5_BatchNorm
I1228 22:00:22.956533 18089 net.cpp:151] Top shape: 1 48 20 40 (38400)
I1228 22:00:22.956537 18089 net.cpp:159] Memory required for data: 208486404
I1228 22:00:22.956542 18089 layer_factory.hpp:77] Creating layer inception_4a/relu_5x5
I1228 22:00:22.956547 18089 net.cpp:94] Creating Layer inception_4a/relu_5x5
I1228 22:00:22.956549 18089 net.cpp:435] inception_4a/relu_5x5 <- inception_4a/5x5
I1228 22:00:22.956553 18089 net.cpp:396] inception_4a/relu_5x5 -> inception_4a/5x5 (in-place)
I1228 22:00:22.956558 18089 net.cpp:144] Setting up inception_4a/relu_5x5
I1228 22:00:22.956560 18089 net.cpp:151] Top shape: 1 48 20 40 (38400)
I1228 22:00:22.956564 18089 net.cpp:159] Memory required for data: 208640004
I1228 22:00:22.956568 18089 layer_factory.hpp:77] Creating layer inception_4a/pool
I1228 22:00:22.956573 18089 net.cpp:94] Creating Layer inception_4a/pool
I1228 22:00:22.956578 18089 net.cpp:435] inception_4a/pool <- pool3/3x3_s2_pool3/3x3_s2_0_split_3
I1228 22:00:22.956583 18089 net.cpp:409] inception_4a/pool -> inception_4a/pool
I1228 22:00:22.956609 18089 net.cpp:144] Setting up inception_4a/pool
I1228 22:00:22.956612 18089 net.cpp:151] Top shape: 1 480 20 40 (384000)
I1228 22:00:22.956615 18089 net.cpp:159] Memory required for data: 210176004
I1228 22:00:22.956617 18089 layer_factory.hpp:77] Creating layer inception_4a/pool_proj
I1228 22:00:22.956622 18089 net.cpp:94] Creating Layer inception_4a/pool_proj
I1228 22:00:22.956625 18089 net.cpp:435] inception_4a/pool_proj <- inception_4a/pool
I1228 22:00:22.956629 18089 net.cpp:409] inception_4a/pool_proj -> inception_4a/pool_proj_raw
I1228 22:00:22.956945 18089 net.cpp:144] Setting up inception_4a/pool_proj
I1228 22:00:22.956952 18089 net.cpp:151] Top shape: 1 64 20 40 (51200)
I1228 22:00:22.956957 18089 net.cpp:159] Memory required for data: 210380804
I1228 22:00:22.956961 18089 layer_factory.hpp:77] Creating layer inception_4a/pool_proj_BatchNorm
I1228 22:00:22.956969 18089 net.cpp:94] Creating Layer inception_4a/pool_proj_BatchNorm
I1228 22:00:22.956974 18089 net.cpp:435] inception_4a/pool_proj_BatchNorm <- inception_4a/pool_proj_raw
I1228 22:00:22.956980 18089 net.cpp:409] inception_4a/pool_proj_BatchNorm -> inception_4a/pool_proj
I1228 22:00:22.957435 18089 net.cpp:144] Setting up inception_4a/pool_proj_BatchNorm
I1228 22:00:22.957442 18089 net.cpp:151] Top shape: 1 64 20 40 (51200)
I1228 22:00:22.957446 18089 net.cpp:159] Memory required for data: 210585604
I1228 22:00:22.957453 18089 layer_factory.hpp:77] Creating layer inception_4a/relu_pool_proj
I1228 22:00:22.957458 18089 net.cpp:94] Creating Layer inception_4a/relu_pool_proj
I1228 22:00:22.957460 18089 net.cpp:435] inception_4a/relu_pool_proj <- inception_4a/pool_proj
I1228 22:00:22.957464 18089 net.cpp:396] inception_4a/relu_pool_proj -> inception_4a/pool_proj (in-place)
I1228 22:00:22.957469 18089 net.cpp:144] Setting up inception_4a/relu_pool_proj
I1228 22:00:22.957473 18089 net.cpp:151] Top shape: 1 64 20 40 (51200)
I1228 22:00:22.957476 18089 net.cpp:159] Memory required for data: 210790404
I1228 22:00:22.957479 18089 layer_factory.hpp:77] Creating layer inception_4a/output
I1228 22:00:22.957482 18089 net.cpp:94] Creating Layer inception_4a/output
I1228 22:00:22.957485 18089 net.cpp:435] inception_4a/output <- inception_4a/1x1
I1228 22:00:22.957489 18089 net.cpp:435] inception_4a/output <- inception_4a/3x3
I1228 22:00:22.957491 18089 net.cpp:435] inception_4a/output <- inception_4a/5x5
I1228 22:00:22.957494 18089 net.cpp:435] inception_4a/output <- inception_4a/pool_proj
I1228 22:00:22.957499 18089 net.cpp:409] inception_4a/output -> inception_4a/output
I1228 22:00:22.957520 18089 net.cpp:144] Setting up inception_4a/output
I1228 22:00:22.957523 18089 net.cpp:151] Top shape: 1 512 20 40 (409600)
I1228 22:00:22.957526 18089 net.cpp:159] Memory required for data: 212428804
I1228 22:00:22.957527 18089 layer_factory.hpp:77] Creating layer inception_4a/output_inception_4a/output_0_split
I1228 22:00:22.957532 18089 net.cpp:94] Creating Layer inception_4a/output_inception_4a/output_0_split
I1228 22:00:22.957535 18089 net.cpp:435] inception_4a/output_inception_4a/output_0_split <- inception_4a/output
I1228 22:00:22.957540 18089 net.cpp:409] inception_4a/output_inception_4a/output_0_split -> inception_4a/output_inception_4a/output_0_split_0
I1228 22:00:22.957545 18089 net.cpp:409] inception_4a/output_inception_4a/output_0_split -> inception_4a/output_inception_4a/output_0_split_1
I1228 22:00:22.957549 18089 net.cpp:409] inception_4a/output_inception_4a/output_0_split -> inception_4a/output_inception_4a/output_0_split_2
I1228 22:00:22.957553 18089 net.cpp:409] inception_4a/output_inception_4a/output_0_split -> inception_4a/output_inception_4a/output_0_split_3
I1228 22:00:22.957594 18089 net.cpp:144] Setting up inception_4a/output_inception_4a/output_0_split
I1228 22:00:22.957598 18089 net.cpp:151] Top shape: 1 512 20 40 (409600)
I1228 22:00:22.957602 18089 net.cpp:151] Top shape: 1 512 20 40 (409600)
I1228 22:00:22.957603 18089 net.cpp:151] Top shape: 1 512 20 40 (409600)
I1228 22:00:22.957607 18089 net.cpp:151] Top shape: 1 512 20 40 (409600)
I1228 22:00:22.957609 18089 net.cpp:159] Memory required for data: 218982404
I1228 22:00:22.957612 18089 layer_factory.hpp:77] Creating layer inception_4b/1x1
I1228 22:00:22.957618 18089 net.cpp:94] Creating Layer inception_4b/1x1
I1228 22:00:22.957623 18089 net.cpp:435] inception_4b/1x1 <- inception_4a/output_inception_4a/output_0_split_0
I1228 22:00:22.957628 18089 net.cpp:409] inception_4b/1x1 -> inception_4b/1x1_raw
I1228 22:00:22.959256 18089 net.cpp:144] Setting up inception_4b/1x1
I1228 22:00:22.959262 18089 net.cpp:151] Top shape: 1 160 20 40 (128000)
I1228 22:00:22.959266 18089 net.cpp:159] Memory required for data: 219494404
I1228 22:00:22.959270 18089 layer_factory.hpp:77] Creating layer inception_4b/1x1_BatchNorm
I1228 22:00:22.959275 18089 net.cpp:94] Creating Layer inception_4b/1x1_BatchNorm
I1228 22:00:22.959277 18089 net.cpp:435] inception_4b/1x1_BatchNorm <- inception_4b/1x1_raw
I1228 22:00:22.959280 18089 net.cpp:409] inception_4b/1x1_BatchNorm -> inception_4b/1x1
I1228 22:00:22.959667 18089 net.cpp:144] Setting up inception_4b/1x1_BatchNorm
I1228 22:00:22.959672 18089 net.cpp:151] Top shape: 1 160 20 40 (128000)
I1228 22:00:22.959676 18089 net.cpp:159] Memory required for data: 220006404
I1228 22:00:22.959681 18089 layer_factory.hpp:77] Creating layer inception_4b/relu_1x1
I1228 22:00:22.959684 18089 net.cpp:94] Creating Layer inception_4b/relu_1x1
I1228 22:00:22.959687 18089 net.cpp:435] inception_4b/relu_1x1 <- inception_4b/1x1
I1228 22:00:22.959692 18089 net.cpp:396] inception_4b/relu_1x1 -> inception_4b/1x1 (in-place)
I1228 22:00:22.959695 18089 net.cpp:144] Setting up inception_4b/relu_1x1
I1228 22:00:22.959698 18089 net.cpp:151] Top shape: 1 160 20 40 (128000)
I1228 22:00:22.959702 18089 net.cpp:159] Memory required for data: 220518404
I1228 22:00:22.959704 18089 layer_factory.hpp:77] Creating layer inception_4b/3x3_reduce
I1228 22:00:22.959710 18089 net.cpp:94] Creating Layer inception_4b/3x3_reduce
I1228 22:00:22.959713 18089 net.cpp:435] inception_4b/3x3_reduce <- inception_4a/output_inception_4a/output_0_split_1
I1228 22:00:22.959718 18089 net.cpp:409] inception_4b/3x3_reduce -> inception_4b/3x3_reduce_raw
I1228 22:00:22.960211 18089 net.cpp:144] Setting up inception_4b/3x3_reduce
I1228 22:00:22.960222 18089 net.cpp:151] Top shape: 1 112 20 40 (89600)
I1228 22:00:22.960227 18089 net.cpp:159] Memory required for data: 220876804
I1228 22:00:22.960232 18089 layer_factory.hpp:77] Creating layer inception_4b/3x3_reduce_BatchNorm
I1228 22:00:22.960237 18089 net.cpp:94] Creating Layer inception_4b/3x3_reduce_BatchNorm
I1228 22:00:22.960240 18089 net.cpp:435] inception_4b/3x3_reduce_BatchNorm <- inception_4b/3x3_reduce_raw
I1228 22:00:22.960244 18089 net.cpp:409] inception_4b/3x3_reduce_BatchNorm -> inception_4b/3x3_reduce
I1228 22:00:22.960664 18089 net.cpp:144] Setting up inception_4b/3x3_reduce_BatchNorm
I1228 22:00:22.960671 18089 net.cpp:151] Top shape: 1 112 20 40 (89600)
I1228 22:00:22.960675 18089 net.cpp:159] Memory required for data: 221235204
I1228 22:00:22.960680 18089 layer_factory.hpp:77] Creating layer inception_4b/relu_3x3_reduce
I1228 22:00:22.960685 18089 net.cpp:94] Creating Layer inception_4b/relu_3x3_reduce
I1228 22:00:22.960686 18089 net.cpp:435] inception_4b/relu_3x3_reduce <- inception_4b/3x3_reduce
I1228 22:00:22.960690 18089 net.cpp:396] inception_4b/relu_3x3_reduce -> inception_4b/3x3_reduce (in-place)
I1228 22:00:22.960693 18089 net.cpp:144] Setting up inception_4b/relu_3x3_reduce
I1228 22:00:22.960695 18089 net.cpp:151] Top shape: 1 112 20 40 (89600)
I1228 22:00:22.960697 18089 net.cpp:159] Memory required for data: 221593604
I1228 22:00:22.960698 18089 layer_factory.hpp:77] Creating layer inception_4b/3x3
I1228 22:00:22.960703 18089 net.cpp:94] Creating Layer inception_4b/3x3
I1228 22:00:22.960705 18089 net.cpp:435] inception_4b/3x3 <- inception_4b/3x3_reduce
I1228 22:00:22.960708 18089 net.cpp:409] inception_4b/3x3 -> inception_4b/3x3_raw
I1228 22:00:22.962625 18089 net.cpp:144] Setting up inception_4b/3x3
I1228 22:00:22.962630 18089 net.cpp:151] Top shape: 1 224 20 40 (179200)
I1228 22:00:22.962635 18089 net.cpp:159] Memory required for data: 222310404
I1228 22:00:22.962638 18089 layer_factory.hpp:77] Creating layer inception_4b/3x3_BatchNorm
I1228 22:00:22.962643 18089 net.cpp:94] Creating Layer inception_4b/3x3_BatchNorm
I1228 22:00:22.962646 18089 net.cpp:435] inception_4b/3x3_BatchNorm <- inception_4b/3x3_raw
I1228 22:00:22.962648 18089 net.cpp:409] inception_4b/3x3_BatchNorm -> inception_4b/3x3
I1228 22:00:22.963032 18089 net.cpp:144] Setting up inception_4b/3x3_BatchNorm
I1228 22:00:22.963034 18089 net.cpp:151] Top shape: 1 224 20 40 (179200)
I1228 22:00:22.963037 18089 net.cpp:159] Memory required for data: 223027204
I1228 22:00:22.963043 18089 layer_factory.hpp:77] Creating layer inception_4b/relu_3x3
I1228 22:00:22.963047 18089 net.cpp:94] Creating Layer inception_4b/relu_3x3
I1228 22:00:22.963048 18089 net.cpp:435] inception_4b/relu_3x3 <- inception_4b/3x3
I1228 22:00:22.963052 18089 net.cpp:396] inception_4b/relu_3x3 -> inception_4b/3x3 (in-place)
I1228 22:00:22.963054 18089 net.cpp:144] Setting up inception_4b/relu_3x3
I1228 22:00:22.963057 18089 net.cpp:151] Top shape: 1 224 20 40 (179200)
I1228 22:00:22.963058 18089 net.cpp:159] Memory required for data: 223744004
I1228 22:00:22.963060 18089 layer_factory.hpp:77] Creating layer inception_4b/5x5_reduce
I1228 22:00:22.963065 18089 net.cpp:94] Creating Layer inception_4b/5x5_reduce
I1228 22:00:22.963068 18089 net.cpp:435] inception_4b/5x5_reduce <- inception_4a/output_inception_4a/output_0_split_2
I1228 22:00:22.963070 18089 net.cpp:409] inception_4b/5x5_reduce -> inception_4b/5x5_reduce_raw
I1228 22:00:22.963277 18089 net.cpp:144] Setting up inception_4b/5x5_reduce
I1228 22:00:22.963282 18089 net.cpp:151] Top shape: 1 24 20 40 (19200)
I1228 22:00:22.963284 18089 net.cpp:159] Memory required for data: 223820804
I1228 22:00:22.963289 18089 layer_factory.hpp:77] Creating layer inception_4b/5x5_reduce_BatchNorm
I1228 22:00:22.963291 18089 net.cpp:94] Creating Layer inception_4b/5x5_reduce_BatchNorm
I1228 22:00:22.963294 18089 net.cpp:435] inception_4b/5x5_reduce_BatchNorm <- inception_4b/5x5_reduce_raw
I1228 22:00:22.963296 18089 net.cpp:409] inception_4b/5x5_reduce_BatchNorm -> inception_4b/5x5_reduce
I1228 22:00:22.963680 18089 net.cpp:144] Setting up inception_4b/5x5_reduce_BatchNorm
I1228 22:00:22.963683 18089 net.cpp:151] Top shape: 1 24 20 40 (19200)
I1228 22:00:22.963686 18089 net.cpp:159] Memory required for data: 223897604
I1228 22:00:22.963691 18089 layer_factory.hpp:77] Creating layer inception_4b/relu_5x5_reduce
I1228 22:00:22.963694 18089 net.cpp:94] Creating Layer inception_4b/relu_5x5_reduce
I1228 22:00:22.963696 18089 net.cpp:435] inception_4b/relu_5x5_reduce <- inception_4b/5x5_reduce
I1228 22:00:22.963699 18089 net.cpp:396] inception_4b/relu_5x5_reduce -> inception_4b/5x5_reduce (in-place)
I1228 22:00:22.963702 18089 net.cpp:144] Setting up inception_4b/relu_5x5_reduce
I1228 22:00:22.963704 18089 net.cpp:151] Top shape: 1 24 20 40 (19200)
I1228 22:00:22.963706 18089 net.cpp:159] Memory required for data: 223974404
I1228 22:00:22.963708 18089 layer_factory.hpp:77] Creating layer inception_4b/5x5
I1228 22:00:22.963712 18089 net.cpp:94] Creating Layer inception_4b/5x5
I1228 22:00:22.963714 18089 net.cpp:435] inception_4b/5x5 <- inception_4b/5x5_reduce
I1228 22:00:22.963716 18089 net.cpp:409] inception_4b/5x5 -> inception_4b/5x5_raw
I1228 22:00:22.964077 18089 net.cpp:144] Setting up inception_4b/5x5
I1228 22:00:22.964080 18089 net.cpp:151] Top shape: 1 64 20 40 (51200)
I1228 22:00:22.964083 18089 net.cpp:159] Memory required for data: 224179204
I1228 22:00:22.964087 18089 layer_factory.hpp:77] Creating layer inception_4b/5x5_BatchNorm
I1228 22:00:22.964092 18089 net.cpp:94] Creating Layer inception_4b/5x5_BatchNorm
I1228 22:00:22.964093 18089 net.cpp:435] inception_4b/5x5_BatchNorm <- inception_4b/5x5_raw
I1228 22:00:22.964097 18089 net.cpp:409] inception_4b/5x5_BatchNorm -> inception_4b/5x5
I1228 22:00:22.964468 18089 net.cpp:144] Setting up inception_4b/5x5_BatchNorm
I1228 22:00:22.964473 18089 net.cpp:151] Top shape: 1 64 20 40 (51200)
I1228 22:00:22.964475 18089 net.cpp:159] Memory required for data: 224384004
I1228 22:00:22.964480 18089 layer_factory.hpp:77] Creating layer inception_4b/relu_5x5
I1228 22:00:22.964483 18089 net.cpp:94] Creating Layer inception_4b/relu_5x5
I1228 22:00:22.964485 18089 net.cpp:435] inception_4b/relu_5x5 <- inception_4b/5x5
I1228 22:00:22.964488 18089 net.cpp:396] inception_4b/relu_5x5 -> inception_4b/5x5 (in-place)
I1228 22:00:22.964490 18089 net.cpp:144] Setting up inception_4b/relu_5x5
I1228 22:00:22.964493 18089 net.cpp:151] Top shape: 1 64 20 40 (51200)
I1228 22:00:22.964495 18089 net.cpp:159] Memory required for data: 224588804
I1228 22:00:22.964498 18089 layer_factory.hpp:77] Creating layer inception_4b/pool
I1228 22:00:22.964500 18089 net.cpp:94] Creating Layer inception_4b/pool
I1228 22:00:22.964502 18089 net.cpp:435] inception_4b/pool <- inception_4a/output_inception_4a/output_0_split_3
I1228 22:00:22.964505 18089 net.cpp:409] inception_4b/pool -> inception_4b/pool
I1228 22:00:22.964524 18089 net.cpp:144] Setting up inception_4b/pool
I1228 22:00:22.964526 18089 net.cpp:151] Top shape: 1 512 20 40 (409600)
I1228 22:00:22.964529 18089 net.cpp:159] Memory required for data: 226227204
I1228 22:00:22.964530 18089 layer_factory.hpp:77] Creating layer inception_4b/pool_proj
I1228 22:00:22.964535 18089 net.cpp:94] Creating Layer inception_4b/pool_proj
I1228 22:00:22.964536 18089 net.cpp:435] inception_4b/pool_proj <- inception_4b/pool
I1228 22:00:22.964540 18089 net.cpp:409] inception_4b/pool_proj -> inception_4b/pool_proj_raw
I1228 22:00:22.964854 18089 net.cpp:144] Setting up inception_4b/pool_proj
I1228 22:00:22.964859 18089 net.cpp:151] Top shape: 1 64 20 40 (51200)
I1228 22:00:22.964861 18089 net.cpp:159] Memory required for data: 226432004
I1228 22:00:22.964865 18089 layer_factory.hpp:77] Creating layer inception_4b/pool_proj_BatchNorm
I1228 22:00:22.964869 18089 net.cpp:94] Creating Layer inception_4b/pool_proj_BatchNorm
I1228 22:00:22.964871 18089 net.cpp:435] inception_4b/pool_proj_BatchNorm <- inception_4b/pool_proj_raw
I1228 22:00:22.964874 18089 net.cpp:409] inception_4b/pool_proj_BatchNorm -> inception_4b/pool_proj
I1228 22:00:22.965245 18089 net.cpp:144] Setting up inception_4b/pool_proj_BatchNorm
I1228 22:00:22.965248 18089 net.cpp:151] Top shape: 1 64 20 40 (51200)
I1228 22:00:22.965251 18089 net.cpp:159] Memory required for data: 226636804
I1228 22:00:22.965256 18089 layer_factory.hpp:77] Creating layer inception_4b/relu_pool_proj
I1228 22:00:22.965260 18089 net.cpp:94] Creating Layer inception_4b/relu_pool_proj
I1228 22:00:22.965261 18089 net.cpp:435] inception_4b/relu_pool_proj <- inception_4b/pool_proj
I1228 22:00:22.965263 18089 net.cpp:396] inception_4b/relu_pool_proj -> inception_4b/pool_proj (in-place)
I1228 22:00:22.965266 18089 net.cpp:144] Setting up inception_4b/relu_pool_proj
I1228 22:00:22.965268 18089 net.cpp:151] Top shape: 1 64 20 40 (51200)
I1228 22:00:22.965271 18089 net.cpp:159] Memory required for data: 226841604
I1228 22:00:22.965272 18089 layer_factory.hpp:77] Creating layer inception_4b/output
I1228 22:00:22.965276 18089 net.cpp:94] Creating Layer inception_4b/output
I1228 22:00:22.965277 18089 net.cpp:435] inception_4b/output <- inception_4b/1x1
I1228 22:00:22.965279 18089 net.cpp:435] inception_4b/output <- inception_4b/3x3
I1228 22:00:22.965281 18089 net.cpp:435] inception_4b/output <- inception_4b/5x5
I1228 22:00:22.965283 18089 net.cpp:435] inception_4b/output <- inception_4b/pool_proj
I1228 22:00:22.965286 18089 net.cpp:409] inception_4b/output -> inception_4b/output
I1228 22:00:22.965297 18089 net.cpp:144] Setting up inception_4b/output
I1228 22:00:22.965299 18089 net.cpp:151] Top shape: 1 512 20 40 (409600)
I1228 22:00:22.965301 18089 net.cpp:159] Memory required for data: 228480004
I1228 22:00:22.965303 18089 layer_factory.hpp:77] Creating layer inception_4b/output_inception_4b/output_0_split
I1228 22:00:22.965307 18089 net.cpp:94] Creating Layer inception_4b/output_inception_4b/output_0_split
I1228 22:00:22.965309 18089 net.cpp:435] inception_4b/output_inception_4b/output_0_split <- inception_4b/output
I1228 22:00:22.965312 18089 net.cpp:409] inception_4b/output_inception_4b/output_0_split -> inception_4b/output_inception_4b/output_0_split_0
I1228 22:00:22.965315 18089 net.cpp:409] inception_4b/output_inception_4b/output_0_split -> inception_4b/output_inception_4b/output_0_split_1
I1228 22:00:22.965318 18089 net.cpp:409] inception_4b/output_inception_4b/output_0_split -> inception_4b/output_inception_4b/output_0_split_2
I1228 22:00:22.965328 18089 net.cpp:409] inception_4b/output_inception_4b/output_0_split -> inception_4b/output_inception_4b/output_0_split_3
I1228 22:00:22.965368 18089 net.cpp:144] Setting up inception_4b/output_inception_4b/output_0_split
I1228 22:00:22.965371 18089 net.cpp:151] Top shape: 1 512 20 40 (409600)
I1228 22:00:22.965374 18089 net.cpp:151] Top shape: 1 512 20 40 (409600)
I1228 22:00:22.965376 18089 net.cpp:151] Top shape: 1 512 20 40 (409600)
I1228 22:00:22.965378 18089 net.cpp:151] Top shape: 1 512 20 40 (409600)
I1228 22:00:22.965381 18089 net.cpp:159] Memory required for data: 235033604
I1228 22:00:22.965384 18089 layer_factory.hpp:77] Creating layer inception_4c/1x1
I1228 22:00:22.965389 18089 net.cpp:94] Creating Layer inception_4c/1x1
I1228 22:00:22.965390 18089 net.cpp:435] inception_4c/1x1 <- inception_4b/output_inception_4b/output_0_split_0
I1228 22:00:22.965394 18089 net.cpp:409] inception_4c/1x1 -> inception_4c/1x1_raw
I1228 22:00:22.965898 18089 net.cpp:144] Setting up inception_4c/1x1
I1228 22:00:22.965903 18089 net.cpp:151] Top shape: 1 128 20 40 (102400)
I1228 22:00:22.965905 18089 net.cpp:159] Memory required for data: 235443204
I1228 22:00:22.965909 18089 layer_factory.hpp:77] Creating layer inception_4c/1x1_BatchNorm
I1228 22:00:22.965914 18089 net.cpp:94] Creating Layer inception_4c/1x1_BatchNorm
I1228 22:00:22.965917 18089 net.cpp:435] inception_4c/1x1_BatchNorm <- inception_4c/1x1_raw
I1228 22:00:22.965920 18089 net.cpp:409] inception_4c/1x1_BatchNorm -> inception_4c/1x1
I1228 22:00:22.966266 18089 net.cpp:144] Setting up inception_4c/1x1_BatchNorm
I1228 22:00:22.966271 18089 net.cpp:151] Top shape: 1 128 20 40 (102400)
I1228 22:00:22.966274 18089 net.cpp:159] Memory required for data: 235852804
I1228 22:00:22.966279 18089 layer_factory.hpp:77] Creating layer inception_4c/relu_1x1
I1228 22:00:22.966282 18089 net.cpp:94] Creating Layer inception_4c/relu_1x1
I1228 22:00:22.966285 18089 net.cpp:435] inception_4c/relu_1x1 <- inception_4c/1x1
I1228 22:00:22.966289 18089 net.cpp:396] inception_4c/relu_1x1 -> inception_4c/1x1 (in-place)
I1228 22:00:22.966292 18089 net.cpp:144] Setting up inception_4c/relu_1x1
I1228 22:00:22.966295 18089 net.cpp:151] Top shape: 1 128 20 40 (102400)
I1228 22:00:22.966296 18089 net.cpp:159] Memory required for data: 236262404
I1228 22:00:22.966298 18089 layer_factory.hpp:77] Creating layer inception_4c/3x3_reduce
I1228 22:00:22.966303 18089 net.cpp:94] Creating Layer inception_4c/3x3_reduce
I1228 22:00:22.966305 18089 net.cpp:435] inception_4c/3x3_reduce <- inception_4b/output_inception_4b/output_0_split_1
I1228 22:00:22.966310 18089 net.cpp:409] inception_4c/3x3_reduce -> inception_4c/3x3_reduce_raw
I1228 22:00:22.967491 18089 net.cpp:144] Setting up inception_4c/3x3_reduce
I1228 22:00:22.967499 18089 net.cpp:151] Top shape: 1 128 20 40 (102400)
I1228 22:00:22.967502 18089 net.cpp:159] Memory required for data: 236672004
I1228 22:00:22.967506 18089 layer_factory.hpp:77] Creating layer inception_4c/3x3_reduce_BatchNorm
I1228 22:00:22.967510 18089 net.cpp:94] Creating Layer inception_4c/3x3_reduce_BatchNorm
I1228 22:00:22.967514 18089 net.cpp:435] inception_4c/3x3_reduce_BatchNorm <- inception_4c/3x3_reduce_raw
I1228 22:00:22.967516 18089 net.cpp:409] inception_4c/3x3_reduce_BatchNorm -> inception_4c/3x3_reduce
I1228 22:00:22.968072 18089 net.cpp:144] Setting up inception_4c/3x3_reduce_BatchNorm
I1228 22:00:22.968076 18089 net.cpp:151] Top shape: 1 128 20 40 (102400)
I1228 22:00:22.968080 18089 net.cpp:159] Memory required for data: 237081604
I1228 22:00:22.968086 18089 layer_factory.hpp:77] Creating layer inception_4c/relu_3x3_reduce
I1228 22:00:22.968087 18089 net.cpp:94] Creating Layer inception_4c/relu_3x3_reduce
I1228 22:00:22.968091 18089 net.cpp:435] inception_4c/relu_3x3_reduce <- inception_4c/3x3_reduce
I1228 22:00:22.968092 18089 net.cpp:396] inception_4c/relu_3x3_reduce -> inception_4c/3x3_reduce (in-place)
I1228 22:00:22.968096 18089 net.cpp:144] Setting up inception_4c/relu_3x3_reduce
I1228 22:00:22.968097 18089 net.cpp:151] Top shape: 1 128 20 40 (102400)
I1228 22:00:22.968101 18089 net.cpp:159] Memory required for data: 237491204
I1228 22:00:22.968101 18089 layer_factory.hpp:77] Creating layer inception_4c/3x3
I1228 22:00:22.968106 18089 net.cpp:94] Creating Layer inception_4c/3x3
I1228 22:00:22.968109 18089 net.cpp:435] inception_4c/3x3 <- inception_4c/3x3_reduce
I1228 22:00:22.968113 18089 net.cpp:409] inception_4c/3x3 -> inception_4c/3x3_raw
I1228 22:00:22.970283 18089 net.cpp:144] Setting up inception_4c/3x3
I1228 22:00:22.970289 18089 net.cpp:151] Top shape: 1 256 20 40 (204800)
I1228 22:00:22.970293 18089 net.cpp:159] Memory required for data: 238310404
I1228 22:00:22.970296 18089 layer_factory.hpp:77] Creating layer inception_4c/3x3_BatchNorm
I1228 22:00:22.970301 18089 net.cpp:94] Creating Layer inception_4c/3x3_BatchNorm
I1228 22:00:22.970304 18089 net.cpp:435] inception_4c/3x3_BatchNorm <- inception_4c/3x3_raw
I1228 22:00:22.970307 18089 net.cpp:409] inception_4c/3x3_BatchNorm -> inception_4c/3x3
I1228 22:00:22.970647 18089 net.cpp:144] Setting up inception_4c/3x3_BatchNorm
I1228 22:00:22.970652 18089 net.cpp:151] Top shape: 1 256 20 40 (204800)
I1228 22:00:22.970655 18089 net.cpp:159] Memory required for data: 239129604
I1228 22:00:22.970660 18089 layer_factory.hpp:77] Creating layer inception_4c/relu_3x3
I1228 22:00:22.970664 18089 net.cpp:94] Creating Layer inception_4c/relu_3x3
I1228 22:00:22.970667 18089 net.cpp:435] inception_4c/relu_3x3 <- inception_4c/3x3
I1228 22:00:22.970670 18089 net.cpp:396] inception_4c/relu_3x3 -> inception_4c/3x3 (in-place)
I1228 22:00:22.970674 18089 net.cpp:144] Setting up inception_4c/relu_3x3
I1228 22:00:22.970675 18089 net.cpp:151] Top shape: 1 256 20 40 (204800)
I1228 22:00:22.970677 18089 net.cpp:159] Memory required for data: 239948804
I1228 22:00:22.970679 18089 layer_factory.hpp:77] Creating layer inception_4c/5x5_reduce
I1228 22:00:22.970683 18089 net.cpp:94] Creating Layer inception_4c/5x5_reduce
I1228 22:00:22.970685 18089 net.cpp:435] inception_4c/5x5_reduce <- inception_4b/output_inception_4b/output_0_split_2
I1228 22:00:22.970688 18089 net.cpp:409] inception_4c/5x5_reduce -> inception_4c/5x5_reduce_raw
I1228 22:00:22.970911 18089 net.cpp:144] Setting up inception_4c/5x5_reduce
I1228 22:00:22.970916 18089 net.cpp:151] Top shape: 1 24 20 40 (19200)
I1228 22:00:22.970917 18089 net.cpp:159] Memory required for data: 240025604
I1228 22:00:22.970921 18089 layer_factory.hpp:77] Creating layer inception_4c/5x5_reduce_BatchNorm
I1228 22:00:22.970927 18089 net.cpp:94] Creating Layer inception_4c/5x5_reduce_BatchNorm
I1228 22:00:22.970928 18089 net.cpp:435] inception_4c/5x5_reduce_BatchNorm <- inception_4c/5x5_reduce_raw
I1228 22:00:22.970930 18089 net.cpp:409] inception_4c/5x5_reduce_BatchNorm -> inception_4c/5x5_reduce
I1228 22:00:22.971300 18089 net.cpp:144] Setting up inception_4c/5x5_reduce_BatchNorm
I1228 22:00:22.971304 18089 net.cpp:151] Top shape: 1 24 20 40 (19200)
I1228 22:00:22.971307 18089 net.cpp:159] Memory required for data: 240102404
I1228 22:00:22.971314 18089 layer_factory.hpp:77] Creating layer inception_4c/relu_5x5_reduce
I1228 22:00:22.971318 18089 net.cpp:94] Creating Layer inception_4c/relu_5x5_reduce
I1228 22:00:22.971320 18089 net.cpp:435] inception_4c/relu_5x5_reduce <- inception_4c/5x5_reduce
I1228 22:00:22.971323 18089 net.cpp:396] inception_4c/relu_5x5_reduce -> inception_4c/5x5_reduce (in-place)
I1228 22:00:22.971326 18089 net.cpp:144] Setting up inception_4c/relu_5x5_reduce
I1228 22:00:22.971328 18089 net.cpp:151] Top shape: 1 24 20 40 (19200)
I1228 22:00:22.971331 18089 net.cpp:159] Memory required for data: 240179204
I1228 22:00:22.971333 18089 layer_factory.hpp:77] Creating layer inception_4c/5x5
I1228 22:00:22.971338 18089 net.cpp:94] Creating Layer inception_4c/5x5
I1228 22:00:22.971340 18089 net.cpp:435] inception_4c/5x5 <- inception_4c/5x5_reduce
I1228 22:00:22.971344 18089 net.cpp:409] inception_4c/5x5 -> inception_4c/5x5_raw
I1228 22:00:22.971689 18089 net.cpp:144] Setting up inception_4c/5x5
I1228 22:00:22.971693 18089 net.cpp:151] Top shape: 1 64 20 40 (51200)
I1228 22:00:22.971695 18089 net.cpp:159] Memory required for data: 240384004
I1228 22:00:22.971699 18089 layer_factory.hpp:77] Creating layer inception_4c/5x5_BatchNorm
I1228 22:00:22.971704 18089 net.cpp:94] Creating Layer inception_4c/5x5_BatchNorm
I1228 22:00:22.971705 18089 net.cpp:435] inception_4c/5x5_BatchNorm <- inception_4c/5x5_raw
I1228 22:00:22.971709 18089 net.cpp:409] inception_4c/5x5_BatchNorm -> inception_4c/5x5
I1228 22:00:22.972082 18089 net.cpp:144] Setting up inception_4c/5x5_BatchNorm
I1228 22:00:22.972086 18089 net.cpp:151] Top shape: 1 64 20 40 (51200)
I1228 22:00:22.972090 18089 net.cpp:159] Memory required for data: 240588804
I1228 22:00:22.972097 18089 layer_factory.hpp:77] Creating layer inception_4c/relu_5x5
I1228 22:00:22.972101 18089 net.cpp:94] Creating Layer inception_4c/relu_5x5
I1228 22:00:22.972103 18089 net.cpp:435] inception_4c/relu_5x5 <- inception_4c/5x5
I1228 22:00:22.972106 18089 net.cpp:396] inception_4c/relu_5x5 -> inception_4c/5x5 (in-place)
I1228 22:00:22.972110 18089 net.cpp:144] Setting up inception_4c/relu_5x5
I1228 22:00:22.972112 18089 net.cpp:151] Top shape: 1 64 20 40 (51200)
I1228 22:00:22.972116 18089 net.cpp:159] Memory required for data: 240793604
I1228 22:00:22.972118 18089 layer_factory.hpp:77] Creating layer inception_4c/pool
I1228 22:00:22.972123 18089 net.cpp:94] Creating Layer inception_4c/pool
I1228 22:00:22.972126 18089 net.cpp:435] inception_4c/pool <- inception_4b/output_inception_4b/output_0_split_3
I1228 22:00:22.972128 18089 net.cpp:409] inception_4c/pool -> inception_4c/pool
I1228 22:00:22.972149 18089 net.cpp:144] Setting up inception_4c/pool
I1228 22:00:22.972152 18089 net.cpp:151] Top shape: 1 512 20 40 (409600)
I1228 22:00:22.972155 18089 net.cpp:159] Memory required for data: 242432004
I1228 22:00:22.972157 18089 layer_factory.hpp:77] Creating layer inception_4c/pool_proj
I1228 22:00:22.972162 18089 net.cpp:94] Creating Layer inception_4c/pool_proj
I1228 22:00:22.972163 18089 net.cpp:435] inception_4c/pool_proj <- inception_4c/pool
I1228 22:00:22.972167 18089 net.cpp:409] inception_4c/pool_proj -> inception_4c/pool_proj_raw
I1228 22:00:22.972477 18089 net.cpp:144] Setting up inception_4c/pool_proj
I1228 22:00:22.972481 18089 net.cpp:151] Top shape: 1 64 20 40 (51200)
I1228 22:00:22.972486 18089 net.cpp:159] Memory required for data: 242636804
I1228 22:00:22.972489 18089 layer_factory.hpp:77] Creating layer inception_4c/pool_proj_BatchNorm
I1228 22:00:22.972496 18089 net.cpp:94] Creating Layer inception_4c/pool_proj_BatchNorm
I1228 22:00:22.972498 18089 net.cpp:435] inception_4c/pool_proj_BatchNorm <- inception_4c/pool_proj_raw
I1228 22:00:22.972502 18089 net.cpp:409] inception_4c/pool_proj_BatchNorm -> inception_4c/pool_proj
I1228 22:00:22.972880 18089 net.cpp:144] Setting up inception_4c/pool_proj_BatchNorm
I1228 22:00:22.972885 18089 net.cpp:151] Top shape: 1 64 20 40 (51200)
I1228 22:00:22.972888 18089 net.cpp:159] Memory required for data: 242841604
I1228 22:00:22.972895 18089 layer_factory.hpp:77] Creating layer inception_4c/relu_pool_proj
I1228 22:00:22.972898 18089 net.cpp:94] Creating Layer inception_4c/relu_pool_proj
I1228 22:00:22.972901 18089 net.cpp:435] inception_4c/relu_pool_proj <- inception_4c/pool_proj
I1228 22:00:22.972903 18089 net.cpp:396] inception_4c/relu_pool_proj -> inception_4c/pool_proj (in-place)
I1228 22:00:22.972908 18089 net.cpp:144] Setting up inception_4c/relu_pool_proj
I1228 22:00:22.972909 18089 net.cpp:151] Top shape: 1 64 20 40 (51200)
I1228 22:00:22.972913 18089 net.cpp:159] Memory required for data: 243046404
I1228 22:00:22.972915 18089 layer_factory.hpp:77] Creating layer inception_4c/output
I1228 22:00:22.972918 18089 net.cpp:94] Creating Layer inception_4c/output
I1228 22:00:22.972921 18089 net.cpp:435] inception_4c/output <- inception_4c/1x1
I1228 22:00:22.972923 18089 net.cpp:435] inception_4c/output <- inception_4c/3x3
I1228 22:00:22.972926 18089 net.cpp:435] inception_4c/output <- inception_4c/5x5
I1228 22:00:22.972929 18089 net.cpp:435] inception_4c/output <- inception_4c/pool_proj
I1228 22:00:22.972931 18089 net.cpp:409] inception_4c/output -> inception_4c/output
I1228 22:00:22.972947 18089 net.cpp:144] Setting up inception_4c/output
I1228 22:00:22.972950 18089 net.cpp:151] Top shape: 1 512 20 40 (409600)
I1228 22:00:22.972954 18089 net.cpp:159] Memory required for data: 244684804
I1228 22:00:22.972955 18089 layer_factory.hpp:77] Creating layer inception_4c/output_inception_4c/output_0_split
I1228 22:00:22.972960 18089 net.cpp:94] Creating Layer inception_4c/output_inception_4c/output_0_split
I1228 22:00:22.972962 18089 net.cpp:435] inception_4c/output_inception_4c/output_0_split <- inception_4c/output
I1228 22:00:22.972965 18089 net.cpp:409] inception_4c/output_inception_4c/output_0_split -> inception_4c/output_inception_4c/output_0_split_0
I1228 22:00:22.972970 18089 net.cpp:409] inception_4c/output_inception_4c/output_0_split -> inception_4c/output_inception_4c/output_0_split_1
I1228 22:00:22.972972 18089 net.cpp:409] inception_4c/output_inception_4c/output_0_split -> inception_4c/output_inception_4c/output_0_split_2
I1228 22:00:22.972975 18089 net.cpp:409] inception_4c/output_inception_4c/output_0_split -> inception_4c/output_inception_4c/output_0_split_3
I1228 22:00:22.973006 18089 net.cpp:144] Setting up inception_4c/output_inception_4c/output_0_split
I1228 22:00:22.973008 18089 net.cpp:151] Top shape: 1 512 20 40 (409600)
I1228 22:00:22.973011 18089 net.cpp:151] Top shape: 1 512 20 40 (409600)
I1228 22:00:22.973013 18089 net.cpp:151] Top shape: 1 512 20 40 (409600)
I1228 22:00:22.973016 18089 net.cpp:151] Top shape: 1 512 20 40 (409600)
I1228 22:00:22.973019 18089 net.cpp:159] Memory required for data: 251238404
I1228 22:00:22.973021 18089 layer_factory.hpp:77] Creating layer inception_4d/1x1
I1228 22:00:22.973026 18089 net.cpp:94] Creating Layer inception_4d/1x1
I1228 22:00:22.973029 18089 net.cpp:435] inception_4d/1x1 <- inception_4c/output_inception_4c/output_0_split_0
I1228 22:00:22.973032 18089 net.cpp:409] inception_4d/1x1 -> inception_4d/1x1_raw
I1228 22:00:22.973476 18089 net.cpp:144] Setting up inception_4d/1x1
I1228 22:00:22.973480 18089 net.cpp:151] Top shape: 1 112 20 40 (89600)
I1228 22:00:22.973484 18089 net.cpp:159] Memory required for data: 251596804
I1228 22:00:22.973489 18089 layer_factory.hpp:77] Creating layer inception_4d/1x1_BatchNorm
I1228 22:00:22.973493 18089 net.cpp:94] Creating Layer inception_4d/1x1_BatchNorm
I1228 22:00:22.973496 18089 net.cpp:435] inception_4d/1x1_BatchNorm <- inception_4d/1x1_raw
I1228 22:00:22.973500 18089 net.cpp:409] inception_4d/1x1_BatchNorm -> inception_4d/1x1
I1228 22:00:22.973886 18089 net.cpp:144] Setting up inception_4d/1x1_BatchNorm
I1228 22:00:22.973891 18089 net.cpp:151] Top shape: 1 112 20 40 (89600)
I1228 22:00:22.973893 18089 net.cpp:159] Memory required for data: 251955204
I1228 22:00:22.973901 18089 layer_factory.hpp:77] Creating layer inception_4d/relu_1x1
I1228 22:00:22.973906 18089 net.cpp:94] Creating Layer inception_4d/relu_1x1
I1228 22:00:22.973909 18089 net.cpp:435] inception_4d/relu_1x1 <- inception_4d/1x1
I1228 22:00:22.973912 18089 net.cpp:396] inception_4d/relu_1x1 -> inception_4d/1x1 (in-place)
I1228 22:00:22.973917 18089 net.cpp:144] Setting up inception_4d/relu_1x1
I1228 22:00:22.973918 18089 net.cpp:151] Top shape: 1 112 20 40 (89600)
I1228 22:00:22.973922 18089 net.cpp:159] Memory required for data: 252313604
I1228 22:00:22.973924 18089 layer_factory.hpp:77] Creating layer inception_4d/3x3_reduce
I1228 22:00:22.973929 18089 net.cpp:94] Creating Layer inception_4d/3x3_reduce
I1228 22:00:22.973932 18089 net.cpp:435] inception_4d/3x3_reduce <- inception_4c/output_inception_4c/output_0_split_1
I1228 22:00:22.973935 18089 net.cpp:409] inception_4d/3x3_reduce -> inception_4d/3x3_reduce_raw
I1228 22:00:22.975345 18089 net.cpp:144] Setting up inception_4d/3x3_reduce
I1228 22:00:22.975351 18089 net.cpp:151] Top shape: 1 144 20 40 (115200)
I1228 22:00:22.975355 18089 net.cpp:159] Memory required for data: 252774404
I1228 22:00:22.975359 18089 layer_factory.hpp:77] Creating layer inception_4d/3x3_reduce_BatchNorm
I1228 22:00:22.975364 18089 net.cpp:94] Creating Layer inception_4d/3x3_reduce_BatchNorm
I1228 22:00:22.975366 18089 net.cpp:435] inception_4d/3x3_reduce_BatchNorm <- inception_4d/3x3_reduce_raw
I1228 22:00:22.975369 18089 net.cpp:409] inception_4d/3x3_reduce_BatchNorm -> inception_4d/3x3_reduce
I1228 22:00:22.975837 18089 net.cpp:144] Setting up inception_4d/3x3_reduce_BatchNorm
I1228 22:00:22.975844 18089 net.cpp:151] Top shape: 1 144 20 40 (115200)
I1228 22:00:22.975848 18089 net.cpp:159] Memory required for data: 253235204
I1228 22:00:22.975854 18089 layer_factory.hpp:77] Creating layer inception_4d/relu_3x3_reduce
I1228 22:00:22.975858 18089 net.cpp:94] Creating Layer inception_4d/relu_3x3_reduce
I1228 22:00:22.975862 18089 net.cpp:435] inception_4d/relu_3x3_reduce <- inception_4d/3x3_reduce
I1228 22:00:22.975867 18089 net.cpp:396] inception_4d/relu_3x3_reduce -> inception_4d/3x3_reduce (in-place)
I1228 22:00:22.975872 18089 net.cpp:144] Setting up inception_4d/relu_3x3_reduce
I1228 22:00:22.975874 18089 net.cpp:151] Top shape: 1 144 20 40 (115200)
I1228 22:00:22.975878 18089 net.cpp:159] Memory required for data: 253696004
I1228 22:00:22.975881 18089 layer_factory.hpp:77] Creating layer inception_4d/3x3
I1228 22:00:22.975888 18089 net.cpp:94] Creating Layer inception_4d/3x3
I1228 22:00:22.975889 18089 net.cpp:435] inception_4d/3x3 <- inception_4d/3x3_reduce
I1228 22:00:22.975893 18089 net.cpp:409] inception_4d/3x3 -> inception_4d/3x3_raw
I1228 22:00:22.978543 18089 net.cpp:144] Setting up inception_4d/3x3
I1228 22:00:22.978566 18089 net.cpp:151] Top shape: 1 288 20 40 (230400)
I1228 22:00:22.978570 18089 net.cpp:159] Memory required for data: 254617604
I1228 22:00:22.978575 18089 layer_factory.hpp:77] Creating layer inception_4d/3x3_BatchNorm
I1228 22:00:22.978583 18089 net.cpp:94] Creating Layer inception_4d/3x3_BatchNorm
I1228 22:00:22.978595 18089 net.cpp:435] inception_4d/3x3_BatchNorm <- inception_4d/3x3_raw
I1228 22:00:22.978597 18089 net.cpp:409] inception_4d/3x3_BatchNorm -> inception_4d/3x3
I1228 22:00:22.978979 18089 net.cpp:144] Setting up inception_4d/3x3_BatchNorm
I1228 22:00:22.978983 18089 net.cpp:151] Top shape: 1 288 20 40 (230400)
I1228 22:00:22.978986 18089 net.cpp:159] Memory required for data: 255539204
I1228 22:00:22.978992 18089 layer_factory.hpp:77] Creating layer inception_4d/relu_3x3
I1228 22:00:22.978996 18089 net.cpp:94] Creating Layer inception_4d/relu_3x3
I1228 22:00:22.978998 18089 net.cpp:435] inception_4d/relu_3x3 <- inception_4d/3x3
I1228 22:00:22.979001 18089 net.cpp:396] inception_4d/relu_3x3 -> inception_4d/3x3 (in-place)
I1228 22:00:22.979005 18089 net.cpp:144] Setting up inception_4d/relu_3x3
I1228 22:00:22.979007 18089 net.cpp:151] Top shape: 1 288 20 40 (230400)
I1228 22:00:22.979010 18089 net.cpp:159] Memory required for data: 256460804
I1228 22:00:22.979012 18089 layer_factory.hpp:77] Creating layer inception_4d/5x5_reduce
I1228 22:00:22.979017 18089 net.cpp:94] Creating Layer inception_4d/5x5_reduce
I1228 22:00:22.979018 18089 net.cpp:435] inception_4d/5x5_reduce <- inception_4c/output_inception_4c/output_0_split_2
I1228 22:00:22.979022 18089 net.cpp:409] inception_4d/5x5_reduce -> inception_4d/5x5_reduce_raw
I1228 22:00:22.979256 18089 net.cpp:144] Setting up inception_4d/5x5_reduce
I1228 22:00:22.979260 18089 net.cpp:151] Top shape: 1 32 20 40 (25600)
I1228 22:00:22.979264 18089 net.cpp:159] Memory required for data: 256563204
I1228 22:00:22.979267 18089 layer_factory.hpp:77] Creating layer inception_4d/5x5_reduce_BatchNorm
I1228 22:00:22.979272 18089 net.cpp:94] Creating Layer inception_4d/5x5_reduce_BatchNorm
I1228 22:00:22.979274 18089 net.cpp:435] inception_4d/5x5_reduce_BatchNorm <- inception_4d/5x5_reduce_raw
I1228 22:00:22.979277 18089 net.cpp:409] inception_4d/5x5_reduce_BatchNorm -> inception_4d/5x5_reduce
I1228 22:00:22.979660 18089 net.cpp:144] Setting up inception_4d/5x5_reduce_BatchNorm
I1228 22:00:22.979665 18089 net.cpp:151] Top shape: 1 32 20 40 (25600)
I1228 22:00:22.979667 18089 net.cpp:159] Memory required for data: 256665604
I1228 22:00:22.979681 18089 layer_factory.hpp:77] Creating layer inception_4d/relu_5x5_reduce
I1228 22:00:22.979686 18089 net.cpp:94] Creating Layer inception_4d/relu_5x5_reduce
I1228 22:00:22.979687 18089 net.cpp:435] inception_4d/relu_5x5_reduce <- inception_4d/5x5_reduce
I1228 22:00:22.979691 18089 net.cpp:396] inception_4d/relu_5x5_reduce -> inception_4d/5x5_reduce (in-place)
I1228 22:00:22.979696 18089 net.cpp:144] Setting up inception_4d/relu_5x5_reduce
I1228 22:00:22.979697 18089 net.cpp:151] Top shape: 1 32 20 40 (25600)
I1228 22:00:22.979701 18089 net.cpp:159] Memory required for data: 256768004
I1228 22:00:22.979702 18089 layer_factory.hpp:77] Creating layer inception_4d/5x5
I1228 22:00:22.979708 18089 net.cpp:94] Creating Layer inception_4d/5x5
I1228 22:00:22.979710 18089 net.cpp:435] inception_4d/5x5 <- inception_4d/5x5_reduce
I1228 22:00:22.979712 18089 net.cpp:409] inception_4d/5x5 -> inception_4d/5x5_raw
I1228 22:00:22.980127 18089 net.cpp:144] Setting up inception_4d/5x5
I1228 22:00:22.980131 18089 net.cpp:151] Top shape: 1 64 20 40 (51200)
I1228 22:00:22.980134 18089 net.cpp:159] Memory required for data: 256972804
I1228 22:00:22.980139 18089 layer_factory.hpp:77] Creating layer inception_4d/5x5_BatchNorm
I1228 22:00:22.980142 18089 net.cpp:94] Creating Layer inception_4d/5x5_BatchNorm
I1228 22:00:22.980144 18089 net.cpp:435] inception_4d/5x5_BatchNorm <- inception_4d/5x5_raw
I1228 22:00:22.980147 18089 net.cpp:409] inception_4d/5x5_BatchNorm -> inception_4d/5x5
I1228 22:00:22.980520 18089 net.cpp:144] Setting up inception_4d/5x5_BatchNorm
I1228 22:00:22.980525 18089 net.cpp:151] Top shape: 1 64 20 40 (51200)
I1228 22:00:22.980527 18089 net.cpp:159] Memory required for data: 257177604
I1228 22:00:22.980532 18089 layer_factory.hpp:77] Creating layer inception_4d/relu_5x5
I1228 22:00:22.980535 18089 net.cpp:94] Creating Layer inception_4d/relu_5x5
I1228 22:00:22.980537 18089 net.cpp:435] inception_4d/relu_5x5 <- inception_4d/5x5
I1228 22:00:22.980540 18089 net.cpp:396] inception_4d/relu_5x5 -> inception_4d/5x5 (in-place)
I1228 22:00:22.980543 18089 net.cpp:144] Setting up inception_4d/relu_5x5
I1228 22:00:22.980545 18089 net.cpp:151] Top shape: 1 64 20 40 (51200)
I1228 22:00:22.980548 18089 net.cpp:159] Memory required for data: 257382404
I1228 22:00:22.980551 18089 layer_factory.hpp:77] Creating layer inception_4d/pool
I1228 22:00:22.980556 18089 net.cpp:94] Creating Layer inception_4d/pool
I1228 22:00:22.980557 18089 net.cpp:435] inception_4d/pool <- inception_4c/output_inception_4c/output_0_split_3
I1228 22:00:22.980561 18089 net.cpp:409] inception_4d/pool -> inception_4d/pool
I1228 22:00:22.980582 18089 net.cpp:144] Setting up inception_4d/pool
I1228 22:00:22.980585 18089 net.cpp:151] Top shape: 1 512 20 40 (409600)
I1228 22:00:22.980588 18089 net.cpp:159] Memory required for data: 259020804
I1228 22:00:22.980590 18089 layer_factory.hpp:77] Creating layer inception_4d/pool_proj
I1228 22:00:22.980595 18089 net.cpp:94] Creating Layer inception_4d/pool_proj
I1228 22:00:22.980598 18089 net.cpp:435] inception_4d/pool_proj <- inception_4d/pool
I1228 22:00:22.980602 18089 net.cpp:409] inception_4d/pool_proj -> inception_4d/pool_proj_raw
I1228 22:00:22.981479 18089 net.cpp:144] Setting up inception_4d/pool_proj
I1228 22:00:22.981485 18089 net.cpp:151] Top shape: 1 64 20 40 (51200)
I1228 22:00:22.981488 18089 net.cpp:159] Memory required for data: 259225604
I1228 22:00:22.981492 18089 layer_factory.hpp:77] Creating layer inception_4d/pool_proj_BatchNorm
I1228 22:00:22.981498 18089 net.cpp:94] Creating Layer inception_4d/pool_proj_BatchNorm
I1228 22:00:22.981503 18089 net.cpp:435] inception_4d/pool_proj_BatchNorm <- inception_4d/pool_proj_raw
I1228 22:00:22.981508 18089 net.cpp:409] inception_4d/pool_proj_BatchNorm -> inception_4d/pool_proj
I1228 22:00:22.981896 18089 net.cpp:144] Setting up inception_4d/pool_proj_BatchNorm
I1228 22:00:22.981900 18089 net.cpp:151] Top shape: 1 64 20 40 (51200)
I1228 22:00:22.981904 18089 net.cpp:159] Memory required for data: 259430404
I1228 22:00:22.981911 18089 layer_factory.hpp:77] Creating layer inception_4d/relu_pool_proj
I1228 22:00:22.981916 18089 net.cpp:94] Creating Layer inception_4d/relu_pool_proj
I1228 22:00:22.981918 18089 net.cpp:435] inception_4d/relu_pool_proj <- inception_4d/pool_proj
I1228 22:00:22.981922 18089 net.cpp:396] inception_4d/relu_pool_proj -> inception_4d/pool_proj (in-place)
I1228 22:00:22.981927 18089 net.cpp:144] Setting up inception_4d/relu_pool_proj
I1228 22:00:22.981930 18089 net.cpp:151] Top shape: 1 64 20 40 (51200)
I1228 22:00:22.981932 18089 net.cpp:159] Memory required for data: 259635204
I1228 22:00:22.981935 18089 layer_factory.hpp:77] Creating layer inception_4d/output
I1228 22:00:22.981940 18089 net.cpp:94] Creating Layer inception_4d/output
I1228 22:00:22.981941 18089 net.cpp:435] inception_4d/output <- inception_4d/1x1
I1228 22:00:22.981945 18089 net.cpp:435] inception_4d/output <- inception_4d/3x3
I1228 22:00:22.981946 18089 net.cpp:435] inception_4d/output <- inception_4d/5x5
I1228 22:00:22.981950 18089 net.cpp:435] inception_4d/output <- inception_4d/pool_proj
I1228 22:00:22.981952 18089 net.cpp:409] inception_4d/output -> inception_4d/output
I1228 22:00:22.981967 18089 net.cpp:144] Setting up inception_4d/output
I1228 22:00:22.981971 18089 net.cpp:151] Top shape: 1 528 20 40 (422400)
I1228 22:00:22.981972 18089 net.cpp:159] Memory required for data: 261324804
I1228 22:00:22.981974 18089 layer_factory.hpp:77] Creating layer inception_4d/output_inception_4d/output_0_split
I1228 22:00:22.981978 18089 net.cpp:94] Creating Layer inception_4d/output_inception_4d/output_0_split
I1228 22:00:22.981981 18089 net.cpp:435] inception_4d/output_inception_4d/output_0_split <- inception_4d/output
I1228 22:00:22.981983 18089 net.cpp:409] inception_4d/output_inception_4d/output_0_split -> inception_4d/output_inception_4d/output_0_split_0
I1228 22:00:22.981987 18089 net.cpp:409] inception_4d/output_inception_4d/output_0_split -> inception_4d/output_inception_4d/output_0_split_1
I1228 22:00:22.981992 18089 net.cpp:409] inception_4d/output_inception_4d/output_0_split -> inception_4d/output_inception_4d/output_0_split_2
I1228 22:00:22.981995 18089 net.cpp:409] inception_4d/output_inception_4d/output_0_split -> inception_4d/output_inception_4d/output_0_split_3
I1228 22:00:22.982028 18089 net.cpp:144] Setting up inception_4d/output_inception_4d/output_0_split
I1228 22:00:22.982031 18089 net.cpp:151] Top shape: 1 528 20 40 (422400)
I1228 22:00:22.982034 18089 net.cpp:151] Top shape: 1 528 20 40 (422400)
I1228 22:00:22.982038 18089 net.cpp:151] Top shape: 1 528 20 40 (422400)
I1228 22:00:22.982040 18089 net.cpp:151] Top shape: 1 528 20 40 (422400)
I1228 22:00:22.982044 18089 net.cpp:159] Memory required for data: 268083204
I1228 22:00:22.982046 18089 layer_factory.hpp:77] Creating layer inception_4e/1x1
I1228 22:00:22.982053 18089 net.cpp:94] Creating Layer inception_4e/1x1
I1228 22:00:22.982054 18089 net.cpp:435] inception_4e/1x1 <- inception_4d/output_inception_4d/output_0_split_0
I1228 22:00:22.982059 18089 net.cpp:409] inception_4e/1x1 -> inception_4e/1x1_raw
I1228 22:00:22.982887 18089 net.cpp:144] Setting up inception_4e/1x1
I1228 22:00:22.982892 18089 net.cpp:151] Top shape: 1 256 20 40 (204800)
I1228 22:00:22.982897 18089 net.cpp:159] Memory required for data: 268902404
I1228 22:00:22.982901 18089 layer_factory.hpp:77] Creating layer inception_4e/1x1_BatchNorm
I1228 22:00:22.982908 18089 net.cpp:94] Creating Layer inception_4e/1x1_BatchNorm
I1228 22:00:22.982909 18089 net.cpp:435] inception_4e/1x1_BatchNorm <- inception_4e/1x1_raw
I1228 22:00:22.982913 18089 net.cpp:409] inception_4e/1x1_BatchNorm -> inception_4e/1x1
I1228 22:00:22.983239 18089 net.cpp:144] Setting up inception_4e/1x1_BatchNorm
I1228 22:00:22.983244 18089 net.cpp:151] Top shape: 1 256 20 40 (204800)
I1228 22:00:22.983247 18089 net.cpp:159] Memory required for data: 269721604
I1228 22:00:22.983253 18089 layer_factory.hpp:77] Creating layer inception_4e/relu_1x1
I1228 22:00:22.983258 18089 net.cpp:94] Creating Layer inception_4e/relu_1x1
I1228 22:00:22.983260 18089 net.cpp:435] inception_4e/relu_1x1 <- inception_4e/1x1
I1228 22:00:22.983263 18089 net.cpp:396] inception_4e/relu_1x1 -> inception_4e/1x1 (in-place)
I1228 22:00:22.983268 18089 net.cpp:144] Setting up inception_4e/relu_1x1
I1228 22:00:22.983269 18089 net.cpp:151] Top shape: 1 256 20 40 (204800)
I1228 22:00:22.983273 18089 net.cpp:159] Memory required for data: 270540804
I1228 22:00:22.983275 18089 layer_factory.hpp:77] Creating layer inception_4e/3x3_reduce
I1228 22:00:22.983280 18089 net.cpp:94] Creating Layer inception_4e/3x3_reduce
I1228 22:00:22.983283 18089 net.cpp:435] inception_4e/3x3_reduce <- inception_4d/output_inception_4d/output_0_split_1
I1228 22:00:22.983285 18089 net.cpp:409] inception_4e/3x3_reduce -> inception_4e/3x3_reduce_raw
I1228 22:00:22.983865 18089 net.cpp:144] Setting up inception_4e/3x3_reduce
I1228 22:00:22.983868 18089 net.cpp:151] Top shape: 1 160 20 40 (128000)
I1228 22:00:22.983872 18089 net.cpp:159] Memory required for data: 271052804
I1228 22:00:22.983876 18089 layer_factory.hpp:77] Creating layer inception_4e/3x3_reduce_BatchNorm
I1228 22:00:22.983881 18089 net.cpp:94] Creating Layer inception_4e/3x3_reduce_BatchNorm
I1228 22:00:22.983884 18089 net.cpp:435] inception_4e/3x3_reduce_BatchNorm <- inception_4e/3x3_reduce_raw
I1228 22:00:22.983889 18089 net.cpp:409] inception_4e/3x3_reduce_BatchNorm -> inception_4e/3x3_reduce
I1228 22:00:22.984258 18089 net.cpp:144] Setting up inception_4e/3x3_reduce_BatchNorm
I1228 22:00:22.984262 18089 net.cpp:151] Top shape: 1 160 20 40 (128000)
I1228 22:00:22.984266 18089 net.cpp:159] Memory required for data: 271564804
I1228 22:00:22.984272 18089 layer_factory.hpp:77] Creating layer inception_4e/relu_3x3_reduce
I1228 22:00:22.984277 18089 net.cpp:94] Creating Layer inception_4e/relu_3x3_reduce
I1228 22:00:22.984279 18089 net.cpp:435] inception_4e/relu_3x3_reduce <- inception_4e/3x3_reduce
I1228 22:00:22.984282 18089 net.cpp:396] inception_4e/relu_3x3_reduce -> inception_4e/3x3_reduce (in-place)
I1228 22:00:22.984287 18089 net.cpp:144] Setting up inception_4e/relu_3x3_reduce
I1228 22:00:22.984289 18089 net.cpp:151] Top shape: 1 160 20 40 (128000)
I1228 22:00:22.984292 18089 net.cpp:159] Memory required for data: 272076804
I1228 22:00:22.984294 18089 layer_factory.hpp:77] Creating layer inception_4e/3x3
I1228 22:00:22.984300 18089 net.cpp:94] Creating Layer inception_4e/3x3
I1228 22:00:22.984302 18089 net.cpp:435] inception_4e/3x3 <- inception_4e/3x3_reduce
I1228 22:00:22.984305 18089 net.cpp:409] inception_4e/3x3 -> inception_4e/3x3_raw
I1228 22:00:22.987866 18089 net.cpp:144] Setting up inception_4e/3x3
I1228 22:00:22.987874 18089 net.cpp:151] Top shape: 1 320 20 40 (256000)
I1228 22:00:22.987877 18089 net.cpp:159] Memory required for data: 273100804
I1228 22:00:22.987881 18089 layer_factory.hpp:77] Creating layer inception_4e/3x3_BatchNorm
I1228 22:00:22.987887 18089 net.cpp:94] Creating Layer inception_4e/3x3_BatchNorm
I1228 22:00:22.987890 18089 net.cpp:435] inception_4e/3x3_BatchNorm <- inception_4e/3x3_raw
I1228 22:00:22.987895 18089 net.cpp:409] inception_4e/3x3_BatchNorm -> inception_4e/3x3
I1228 22:00:22.988274 18089 net.cpp:144] Setting up inception_4e/3x3_BatchNorm
I1228 22:00:22.988279 18089 net.cpp:151] Top shape: 1 320 20 40 (256000)
I1228 22:00:22.988282 18089 net.cpp:159] Memory required for data: 274124804
I1228 22:00:22.988291 18089 layer_factory.hpp:77] Creating layer inception_4e/relu_3x3
I1228 22:00:22.988294 18089 net.cpp:94] Creating Layer inception_4e/relu_3x3
I1228 22:00:22.988296 18089 net.cpp:435] inception_4e/relu_3x3 <- inception_4e/3x3
I1228 22:00:22.988298 18089 net.cpp:396] inception_4e/relu_3x3 -> inception_4e/3x3 (in-place)
I1228 22:00:22.988303 18089 net.cpp:144] Setting up inception_4e/relu_3x3
I1228 22:00:22.988306 18089 net.cpp:151] Top shape: 1 320 20 40 (256000)
I1228 22:00:22.988309 18089 net.cpp:159] Memory required for data: 275148804
I1228 22:00:22.988312 18089 layer_factory.hpp:77] Creating layer inception_4e/5x5_reduce
I1228 22:00:22.988317 18089 net.cpp:94] Creating Layer inception_4e/5x5_reduce
I1228 22:00:22.988319 18089 net.cpp:435] inception_4e/5x5_reduce <- inception_4d/output_inception_4d/output_0_split_2
I1228 22:00:22.988323 18089 net.cpp:409] inception_4e/5x5_reduce -> inception_4e/5x5_reduce_raw
I1228 22:00:22.988564 18089 net.cpp:144] Setting up inception_4e/5x5_reduce
I1228 22:00:22.988567 18089 net.cpp:151] Top shape: 1 32 20 40 (25600)
I1228 22:00:22.988570 18089 net.cpp:159] Memory required for data: 275251204
I1228 22:00:22.988574 18089 layer_factory.hpp:77] Creating layer inception_4e/5x5_reduce_BatchNorm
I1228 22:00:22.988579 18089 net.cpp:94] Creating Layer inception_4e/5x5_reduce_BatchNorm
I1228 22:00:22.988580 18089 net.cpp:435] inception_4e/5x5_reduce_BatchNorm <- inception_4e/5x5_reduce_raw
I1228 22:00:22.988584 18089 net.cpp:409] inception_4e/5x5_reduce_BatchNorm -> inception_4e/5x5_reduce
I1228 22:00:22.988960 18089 net.cpp:144] Setting up inception_4e/5x5_reduce_BatchNorm
I1228 22:00:22.988965 18089 net.cpp:151] Top shape: 1 32 20 40 (25600)
I1228 22:00:22.988968 18089 net.cpp:159] Memory required for data: 275353604
I1228 22:00:22.988976 18089 layer_factory.hpp:77] Creating layer inception_4e/relu_5x5_reduce
I1228 22:00:22.988979 18089 net.cpp:94] Creating Layer inception_4e/relu_5x5_reduce
I1228 22:00:22.988982 18089 net.cpp:435] inception_4e/relu_5x5_reduce <- inception_4e/5x5_reduce
I1228 22:00:22.988986 18089 net.cpp:396] inception_4e/relu_5x5_reduce -> inception_4e/5x5_reduce (in-place)
I1228 22:00:22.988991 18089 net.cpp:144] Setting up inception_4e/relu_5x5_reduce
I1228 22:00:22.988991 18089 net.cpp:151] Top shape: 1 32 20 40 (25600)
I1228 22:00:22.988994 18089 net.cpp:159] Memory required for data: 275456004
I1228 22:00:22.988996 18089 layer_factory.hpp:77] Creating layer inception_4e/5x5
I1228 22:00:22.989001 18089 net.cpp:94] Creating Layer inception_4e/5x5
I1228 22:00:22.989003 18089 net.cpp:435] inception_4e/5x5 <- inception_4e/5x5_reduce
I1228 22:00:22.989007 18089 net.cpp:409] inception_4e/5x5 -> inception_4e/5x5_raw
I1228 22:00:22.990232 18089 net.cpp:144] Setting up inception_4e/5x5
I1228 22:00:22.990239 18089 net.cpp:151] Top shape: 1 128 20 40 (102400)
I1228 22:00:22.990242 18089 net.cpp:159] Memory required for data: 275865604
I1228 22:00:22.990247 18089 layer_factory.hpp:77] Creating layer inception_4e/5x5_BatchNorm
I1228 22:00:22.990252 18089 net.cpp:94] Creating Layer inception_4e/5x5_BatchNorm
I1228 22:00:22.990257 18089 net.cpp:435] inception_4e/5x5_BatchNorm <- inception_4e/5x5_raw
I1228 22:00:22.990260 18089 net.cpp:409] inception_4e/5x5_BatchNorm -> inception_4e/5x5
I1228 22:00:22.990607 18089 net.cpp:144] Setting up inception_4e/5x5_BatchNorm
I1228 22:00:22.990610 18089 net.cpp:151] Top shape: 1 128 20 40 (102400)
I1228 22:00:22.990614 18089 net.cpp:159] Memory required for data: 276275204
I1228 22:00:22.990622 18089 layer_factory.hpp:77] Creating layer inception_4e/relu_5x5
I1228 22:00:22.990628 18089 net.cpp:94] Creating Layer inception_4e/relu_5x5
I1228 22:00:22.990629 18089 net.cpp:435] inception_4e/relu_5x5 <- inception_4e/5x5
I1228 22:00:22.990631 18089 net.cpp:396] inception_4e/relu_5x5 -> inception_4e/5x5 (in-place)
I1228 22:00:22.990636 18089 net.cpp:144] Setting up inception_4e/relu_5x5
I1228 22:00:22.990638 18089 net.cpp:151] Top shape: 1 128 20 40 (102400)
I1228 22:00:22.990641 18089 net.cpp:159] Memory required for data: 276684804
I1228 22:00:22.990643 18089 layer_factory.hpp:77] Creating layer inception_4e/pool
I1228 22:00:22.990648 18089 net.cpp:94] Creating Layer inception_4e/pool
I1228 22:00:22.990651 18089 net.cpp:435] inception_4e/pool <- inception_4d/output_inception_4d/output_0_split_3
I1228 22:00:22.990654 18089 net.cpp:409] inception_4e/pool -> inception_4e/pool
I1228 22:00:22.990676 18089 net.cpp:144] Setting up inception_4e/pool
I1228 22:00:22.990679 18089 net.cpp:151] Top shape: 1 528 20 40 (422400)
I1228 22:00:22.990681 18089 net.cpp:159] Memory required for data: 278374404
I1228 22:00:22.990684 18089 layer_factory.hpp:77] Creating layer inception_4e/pool_proj
I1228 22:00:22.990689 18089 net.cpp:94] Creating Layer inception_4e/pool_proj
I1228 22:00:22.990690 18089 net.cpp:435] inception_4e/pool_proj <- inception_4e/pool
I1228 22:00:22.990694 18089 net.cpp:409] inception_4e/pool_proj -> inception_4e/pool_proj_raw
I1228 22:00:22.991246 18089 net.cpp:144] Setting up inception_4e/pool_proj
I1228 22:00:22.991255 18089 net.cpp:151] Top shape: 1 128 20 40 (102400)
I1228 22:00:22.991258 18089 net.cpp:159] Memory required for data: 278784004
I1228 22:00:22.991264 18089 layer_factory.hpp:77] Creating layer inception_4e/pool_proj_BatchNorm
I1228 22:00:22.991269 18089 net.cpp:94] Creating Layer inception_4e/pool_proj_BatchNorm
I1228 22:00:22.991272 18089 net.cpp:435] inception_4e/pool_proj_BatchNorm <- inception_4e/pool_proj_raw
I1228 22:00:22.991276 18089 net.cpp:409] inception_4e/pool_proj_BatchNorm -> inception_4e/pool_proj
I1228 22:00:22.991605 18089 net.cpp:144] Setting up inception_4e/pool_proj_BatchNorm
I1228 22:00:22.991609 18089 net.cpp:151] Top shape: 1 128 20 40 (102400)
I1228 22:00:22.991612 18089 net.cpp:159] Memory required for data: 279193604
I1228 22:00:22.991618 18089 layer_factory.hpp:77] Creating layer inception_4e/relu_pool_proj
I1228 22:00:22.991621 18089 net.cpp:94] Creating Layer inception_4e/relu_pool_proj
I1228 22:00:22.991623 18089 net.cpp:435] inception_4e/relu_pool_proj <- inception_4e/pool_proj
I1228 22:00:22.991626 18089 net.cpp:396] inception_4e/relu_pool_proj -> inception_4e/pool_proj (in-place)
I1228 22:00:22.991631 18089 net.cpp:144] Setting up inception_4e/relu_pool_proj
I1228 22:00:22.991632 18089 net.cpp:151] Top shape: 1 128 20 40 (102400)
I1228 22:00:22.991636 18089 net.cpp:159] Memory required for data: 279603204
I1228 22:00:22.991638 18089 layer_factory.hpp:77] Creating layer inception_4e/output
I1228 22:00:22.991641 18089 net.cpp:94] Creating Layer inception_4e/output
I1228 22:00:22.991643 18089 net.cpp:435] inception_4e/output <- inception_4e/1x1
I1228 22:00:22.991645 18089 net.cpp:435] inception_4e/output <- inception_4e/3x3
I1228 22:00:22.991648 18089 net.cpp:435] inception_4e/output <- inception_4e/5x5
I1228 22:00:22.991650 18089 net.cpp:435] inception_4e/output <- inception_4e/pool_proj
I1228 22:00:22.991654 18089 net.cpp:409] inception_4e/output -> inception_4e/output
I1228 22:00:22.991669 18089 net.cpp:144] Setting up inception_4e/output
I1228 22:00:22.991672 18089 net.cpp:151] Top shape: 1 832 20 40 (665600)
I1228 22:00:22.991674 18089 net.cpp:159] Memory required for data: 282265604
I1228 22:00:22.991675 18089 layer_factory.hpp:77] Creating layer inception_4e/output_inception_4e/output_0_split
I1228 22:00:22.991679 18089 net.cpp:94] Creating Layer inception_4e/output_inception_4e/output_0_split
I1228 22:00:22.991681 18089 net.cpp:435] inception_4e/output_inception_4e/output_0_split <- inception_4e/output
I1228 22:00:22.991684 18089 net.cpp:409] inception_4e/output_inception_4e/output_0_split -> inception_4e/output_inception_4e/output_0_split_0
I1228 22:00:22.991688 18089 net.cpp:409] inception_4e/output_inception_4e/output_0_split -> inception_4e/output_inception_4e/output_0_split_1
I1228 22:00:22.991708 18089 net.cpp:144] Setting up inception_4e/output_inception_4e/output_0_split
I1228 22:00:22.991710 18089 net.cpp:151] Top shape: 1 832 20 40 (665600)
I1228 22:00:22.991714 18089 net.cpp:151] Top shape: 1 832 20 40 (665600)
I1228 22:00:22.991715 18089 net.cpp:159] Memory required for data: 287590404
I1228 22:00:22.991717 18089 layer_factory.hpp:77] Creating layer pool4/3x3_s2
I1228 22:00:22.991720 18089 net.cpp:94] Creating Layer pool4/3x3_s2
I1228 22:00:22.991722 18089 net.cpp:435] pool4/3x3_s2 <- inception_4e/output_inception_4e/output_0_split_0
I1228 22:00:22.991726 18089 net.cpp:409] pool4/3x3_s2 -> pool4/3x3_s2
I1228 22:00:22.991746 18089 net.cpp:144] Setting up pool4/3x3_s2
I1228 22:00:22.991748 18089 net.cpp:151] Top shape: 1 832 10 20 (166400)
I1228 22:00:22.991751 18089 net.cpp:159] Memory required for data: 288256004
I1228 22:00:22.991753 18089 layer_factory.hpp:77] Creating layer pool4/3x3_s2_pool4/3x3_s2_0_split
I1228 22:00:22.991756 18089 net.cpp:94] Creating Layer pool4/3x3_s2_pool4/3x3_s2_0_split
I1228 22:00:22.991757 18089 net.cpp:435] pool4/3x3_s2_pool4/3x3_s2_0_split <- pool4/3x3_s2
I1228 22:00:22.991761 18089 net.cpp:409] pool4/3x3_s2_pool4/3x3_s2_0_split -> pool4/3x3_s2_pool4/3x3_s2_0_split_0
I1228 22:00:22.991765 18089 net.cpp:409] pool4/3x3_s2_pool4/3x3_s2_0_split -> pool4/3x3_s2_pool4/3x3_s2_0_split_1
I1228 22:00:22.991768 18089 net.cpp:409] pool4/3x3_s2_pool4/3x3_s2_0_split -> pool4/3x3_s2_pool4/3x3_s2_0_split_2
I1228 22:00:22.991771 18089 net.cpp:409] pool4/3x3_s2_pool4/3x3_s2_0_split -> pool4/3x3_s2_pool4/3x3_s2_0_split_3
I1228 22:00:22.991801 18089 net.cpp:144] Setting up pool4/3x3_s2_pool4/3x3_s2_0_split
I1228 22:00:22.991804 18089 net.cpp:151] Top shape: 1 832 10 20 (166400)
I1228 22:00:22.991806 18089 net.cpp:151] Top shape: 1 832 10 20 (166400)
I1228 22:00:22.991809 18089 net.cpp:151] Top shape: 1 832 10 20 (166400)
I1228 22:00:22.991811 18089 net.cpp:151] Top shape: 1 832 10 20 (166400)
I1228 22:00:22.991813 18089 net.cpp:159] Memory required for data: 290918404
I1228 22:00:22.991816 18089 layer_factory.hpp:77] Creating layer inception_5a/1x1
I1228 22:00:22.991822 18089 net.cpp:94] Creating Layer inception_5a/1x1
I1228 22:00:22.991823 18089 net.cpp:435] inception_5a/1x1 <- pool4/3x3_s2_pool4/3x3_s2_0_split_0
I1228 22:00:22.991827 18089 net.cpp:409] inception_5a/1x1 -> inception_5a/1x1_raw
I1228 22:00:22.993625 18089 net.cpp:144] Setting up inception_5a/1x1
I1228 22:00:22.993633 18089 net.cpp:151] Top shape: 1 256 10 20 (51200)
I1228 22:00:22.993636 18089 net.cpp:159] Memory required for data: 291123204
I1228 22:00:22.993641 18089 layer_factory.hpp:77] Creating layer inception_5a/1x1_BatchNorm
I1228 22:00:22.993646 18089 net.cpp:94] Creating Layer inception_5a/1x1_BatchNorm
I1228 22:00:22.993649 18089 net.cpp:435] inception_5a/1x1_BatchNorm <- inception_5a/1x1_raw
I1228 22:00:22.993652 18089 net.cpp:409] inception_5a/1x1_BatchNorm -> inception_5a/1x1
I1228 22:00:22.994006 18089 net.cpp:144] Setting up inception_5a/1x1_BatchNorm
I1228 22:00:22.994011 18089 net.cpp:151] Top shape: 1 256 10 20 (51200)
I1228 22:00:22.994014 18089 net.cpp:159] Memory required for data: 291328004
I1228 22:00:22.994022 18089 layer_factory.hpp:77] Creating layer inception_5a/relu_1x1
I1228 22:00:22.994025 18089 net.cpp:94] Creating Layer inception_5a/relu_1x1
I1228 22:00:22.994029 18089 net.cpp:435] inception_5a/relu_1x1 <- inception_5a/1x1
I1228 22:00:22.994032 18089 net.cpp:396] inception_5a/relu_1x1 -> inception_5a/1x1 (in-place)
I1228 22:00:22.994036 18089 net.cpp:144] Setting up inception_5a/relu_1x1
I1228 22:00:22.994038 18089 net.cpp:151] Top shape: 1 256 10 20 (51200)
I1228 22:00:22.994041 18089 net.cpp:159] Memory required for data: 291532804
I1228 22:00:22.994045 18089 layer_factory.hpp:77] Creating layer inception_5a/3x3_reduce
I1228 22:00:22.994050 18089 net.cpp:94] Creating Layer inception_5a/3x3_reduce
I1228 22:00:22.994051 18089 net.cpp:435] inception_5a/3x3_reduce <- pool4/3x3_s2_pool4/3x3_s2_0_split_1
I1228 22:00:22.994055 18089 net.cpp:409] inception_5a/3x3_reduce -> inception_5a/3x3_reduce_raw
I1228 22:00:22.995468 18089 net.cpp:144] Setting up inception_5a/3x3_reduce
I1228 22:00:22.995476 18089 net.cpp:151] Top shape: 1 160 10 20 (32000)
I1228 22:00:22.995478 18089 net.cpp:159] Memory required for data: 291660804
I1228 22:00:22.995482 18089 layer_factory.hpp:77] Creating layer inception_5a/3x3_reduce_BatchNorm
I1228 22:00:22.995487 18089 net.cpp:94] Creating Layer inception_5a/3x3_reduce_BatchNorm
I1228 22:00:22.995489 18089 net.cpp:435] inception_5a/3x3_reduce_BatchNorm <- inception_5a/3x3_reduce_raw
I1228 22:00:22.995493 18089 net.cpp:409] inception_5a/3x3_reduce_BatchNorm -> inception_5a/3x3_reduce
I1228 22:00:22.995971 18089 net.cpp:144] Setting up inception_5a/3x3_reduce_BatchNorm
I1228 22:00:22.995980 18089 net.cpp:151] Top shape: 1 160 10 20 (32000)
I1228 22:00:22.995985 18089 net.cpp:159] Memory required for data: 291788804
I1228 22:00:22.995993 18089 layer_factory.hpp:77] Creating layer inception_5a/relu_3x3_reduce
I1228 22:00:22.995998 18089 net.cpp:94] Creating Layer inception_5a/relu_3x3_reduce
I1228 22:00:22.996001 18089 net.cpp:435] inception_5a/relu_3x3_reduce <- inception_5a/3x3_reduce
I1228 22:00:22.996006 18089 net.cpp:396] inception_5a/relu_3x3_reduce -> inception_5a/3x3_reduce (in-place)
I1228 22:00:22.996011 18089 net.cpp:144] Setting up inception_5a/relu_3x3_reduce
I1228 22:00:22.996013 18089 net.cpp:151] Top shape: 1 160 10 20 (32000)
I1228 22:00:22.996016 18089 net.cpp:159] Memory required for data: 291916804
I1228 22:00:22.996019 18089 layer_factory.hpp:77] Creating layer inception_5a/3x3
I1228 22:00:22.996026 18089 net.cpp:94] Creating Layer inception_5a/3x3
I1228 22:00:22.996028 18089 net.cpp:435] inception_5a/3x3 <- inception_5a/3x3_reduce
I1228 22:00:22.996032 18089 net.cpp:409] inception_5a/3x3 -> inception_5a/3x3_raw
I1228 22:00:22.999826 18089 net.cpp:144] Setting up inception_5a/3x3
I1228 22:00:22.999836 18089 net.cpp:151] Top shape: 1 320 10 20 (64000)
I1228 22:00:22.999841 18089 net.cpp:159] Memory required for data: 292172804
I1228 22:00:22.999846 18089 layer_factory.hpp:77] Creating layer inception_5a/3x3_BatchNorm
I1228 22:00:22.999855 18089 net.cpp:94] Creating Layer inception_5a/3x3_BatchNorm
I1228 22:00:22.999857 18089 net.cpp:435] inception_5a/3x3_BatchNorm <- inception_5a/3x3_raw
I1228 22:00:22.999862 18089 net.cpp:409] inception_5a/3x3_BatchNorm -> inception_5a/3x3
I1228 22:00:23.000264 18089 net.cpp:144] Setting up inception_5a/3x3_BatchNorm
I1228 22:00:23.000269 18089 net.cpp:151] Top shape: 1 320 10 20 (64000)
I1228 22:00:23.000272 18089 net.cpp:159] Memory required for data: 292428804
I1228 22:00:23.000277 18089 layer_factory.hpp:77] Creating layer inception_5a/relu_3x3
I1228 22:00:23.000281 18089 net.cpp:94] Creating Layer inception_5a/relu_3x3
I1228 22:00:23.000284 18089 net.cpp:435] inception_5a/relu_3x3 <- inception_5a/3x3
I1228 22:00:23.000288 18089 net.cpp:396] inception_5a/relu_3x3 -> inception_5a/3x3 (in-place)
I1228 22:00:23.000293 18089 net.cpp:144] Setting up inception_5a/relu_3x3
I1228 22:00:23.000294 18089 net.cpp:151] Top shape: 1 320 10 20 (64000)
I1228 22:00:23.000298 18089 net.cpp:159] Memory required for data: 292684804
I1228 22:00:23.000300 18089 layer_factory.hpp:77] Creating layer inception_5a/5x5_reduce
I1228 22:00:23.000306 18089 net.cpp:94] Creating Layer inception_5a/5x5_reduce
I1228 22:00:23.000309 18089 net.cpp:435] inception_5a/5x5_reduce <- pool4/3x3_s2_pool4/3x3_s2_0_split_2
I1228 22:00:23.000313 18089 net.cpp:409] inception_5a/5x5_reduce -> inception_5a/5x5_reduce_raw
I1228 22:00:23.000624 18089 net.cpp:144] Setting up inception_5a/5x5_reduce
I1228 22:00:23.000629 18089 net.cpp:151] Top shape: 1 32 10 20 (6400)
I1228 22:00:23.000631 18089 net.cpp:159] Memory required for data: 292710404
I1228 22:00:23.000635 18089 layer_factory.hpp:77] Creating layer inception_5a/5x5_reduce_BatchNorm
I1228 22:00:23.000640 18089 net.cpp:94] Creating Layer inception_5a/5x5_reduce_BatchNorm
I1228 22:00:23.000643 18089 net.cpp:435] inception_5a/5x5_reduce_BatchNorm <- inception_5a/5x5_reduce_raw
I1228 22:00:23.000648 18089 net.cpp:409] inception_5a/5x5_reduce_BatchNorm -> inception_5a/5x5_reduce
I1228 22:00:23.001041 18089 net.cpp:144] Setting up inception_5a/5x5_reduce_BatchNorm
I1228 22:00:23.001045 18089 net.cpp:151] Top shape: 1 32 10 20 (6400)
I1228 22:00:23.001049 18089 net.cpp:159] Memory required for data: 292736004
I1228 22:00:23.001055 18089 layer_factory.hpp:77] Creating layer inception_5a/relu_5x5_reduce
I1228 22:00:23.001058 18089 net.cpp:94] Creating Layer inception_5a/relu_5x5_reduce
I1228 22:00:23.001060 18089 net.cpp:435] inception_5a/relu_5x5_reduce <- inception_5a/5x5_reduce
I1228 22:00:23.001063 18089 net.cpp:396] inception_5a/relu_5x5_reduce -> inception_5a/5x5_reduce (in-place)
I1228 22:00:23.001066 18089 net.cpp:144] Setting up inception_5a/relu_5x5_reduce
I1228 22:00:23.001068 18089 net.cpp:151] Top shape: 1 32 10 20 (6400)
I1228 22:00:23.001071 18089 net.cpp:159] Memory required for data: 292761604
I1228 22:00:23.001073 18089 layer_factory.hpp:77] Creating layer inception_5a/5x5
I1228 22:00:23.001078 18089 net.cpp:94] Creating Layer inception_5a/5x5
I1228 22:00:23.001080 18089 net.cpp:435] inception_5a/5x5 <- inception_5a/5x5_reduce
I1228 22:00:23.001085 18089 net.cpp:409] inception_5a/5x5 -> inception_5a/5x5_raw
I1228 22:00:23.001775 18089 net.cpp:144] Setting up inception_5a/5x5
I1228 22:00:23.001778 18089 net.cpp:151] Top shape: 1 128 10 20 (25600)
I1228 22:00:23.001781 18089 net.cpp:159] Memory required for data: 292864004
I1228 22:00:23.001785 18089 layer_factory.hpp:77] Creating layer inception_5a/5x5_BatchNorm
I1228 22:00:23.001791 18089 net.cpp:94] Creating Layer inception_5a/5x5_BatchNorm
I1228 22:00:23.001793 18089 net.cpp:435] inception_5a/5x5_BatchNorm <- inception_5a/5x5_raw
I1228 22:00:23.001796 18089 net.cpp:409] inception_5a/5x5_BatchNorm -> inception_5a/5x5
I1228 22:00:23.002131 18089 net.cpp:144] Setting up inception_5a/5x5_BatchNorm
I1228 22:00:23.002135 18089 net.cpp:151] Top shape: 1 128 10 20 (25600)
I1228 22:00:23.002138 18089 net.cpp:159] Memory required for data: 292966404
I1228 22:00:23.002143 18089 layer_factory.hpp:77] Creating layer inception_5a/relu_5x5
I1228 22:00:23.002147 18089 net.cpp:94] Creating Layer inception_5a/relu_5x5
I1228 22:00:23.002149 18089 net.cpp:435] inception_5a/relu_5x5 <- inception_5a/5x5
I1228 22:00:23.002152 18089 net.cpp:396] inception_5a/relu_5x5 -> inception_5a/5x5 (in-place)
I1228 22:00:23.002156 18089 net.cpp:144] Setting up inception_5a/relu_5x5
I1228 22:00:23.002158 18089 net.cpp:151] Top shape: 1 128 10 20 (25600)
I1228 22:00:23.002161 18089 net.cpp:159] Memory required for data: 293068804
I1228 22:00:23.002163 18089 layer_factory.hpp:77] Creating layer inception_5a/pool
I1228 22:00:23.002167 18089 net.cpp:94] Creating Layer inception_5a/pool
I1228 22:00:23.002169 18089 net.cpp:435] inception_5a/pool <- pool4/3x3_s2_pool4/3x3_s2_0_split_3
I1228 22:00:23.002172 18089 net.cpp:409] inception_5a/pool -> inception_5a/pool
I1228 22:00:23.002197 18089 net.cpp:144] Setting up inception_5a/pool
I1228 22:00:23.002200 18089 net.cpp:151] Top shape: 1 832 10 20 (166400)
I1228 22:00:23.002202 18089 net.cpp:159] Memory required for data: 293734404
I1228 22:00:23.002205 18089 layer_factory.hpp:77] Creating layer inception_5a/pool_proj
I1228 22:00:23.002210 18089 net.cpp:94] Creating Layer inception_5a/pool_proj
I1228 22:00:23.002213 18089 net.cpp:435] inception_5a/pool_proj <- inception_5a/pool
I1228 22:00:23.002215 18089 net.cpp:409] inception_5a/pool_proj -> inception_5a/pool_proj_raw
I1228 22:00:23.003495 18089 net.cpp:144] Setting up inception_5a/pool_proj
I1228 22:00:23.003502 18089 net.cpp:151] Top shape: 1 128 10 20 (25600)
I1228 22:00:23.003505 18089 net.cpp:159] Memory required for data: 293836804
I1228 22:00:23.003510 18089 layer_factory.hpp:77] Creating layer inception_5a/pool_proj_BatchNorm
I1228 22:00:23.003516 18089 net.cpp:94] Creating Layer inception_5a/pool_proj_BatchNorm
I1228 22:00:23.003520 18089 net.cpp:435] inception_5a/pool_proj_BatchNorm <- inception_5a/pool_proj_raw
I1228 22:00:23.003523 18089 net.cpp:409] inception_5a/pool_proj_BatchNorm -> inception_5a/pool_proj
I1228 22:00:23.003859 18089 net.cpp:144] Setting up inception_5a/pool_proj_BatchNorm
I1228 22:00:23.003863 18089 net.cpp:151] Top shape: 1 128 10 20 (25600)
I1228 22:00:23.003866 18089 net.cpp:159] Memory required for data: 293939204
I1228 22:00:23.003872 18089 layer_factory.hpp:77] Creating layer inception_5a/relu_pool_proj
I1228 22:00:23.003876 18089 net.cpp:94] Creating Layer inception_5a/relu_pool_proj
I1228 22:00:23.003878 18089 net.cpp:435] inception_5a/relu_pool_proj <- inception_5a/pool_proj
I1228 22:00:23.003881 18089 net.cpp:396] inception_5a/relu_pool_proj -> inception_5a/pool_proj (in-place)
I1228 22:00:23.003885 18089 net.cpp:144] Setting up inception_5a/relu_pool_proj
I1228 22:00:23.003886 18089 net.cpp:151] Top shape: 1 128 10 20 (25600)
I1228 22:00:23.003890 18089 net.cpp:159] Memory required for data: 294041604
I1228 22:00:23.003891 18089 layer_factory.hpp:77] Creating layer inception_5a/output
I1228 22:00:23.003895 18089 net.cpp:94] Creating Layer inception_5a/output
I1228 22:00:23.003897 18089 net.cpp:435] inception_5a/output <- inception_5a/1x1
I1228 22:00:23.003901 18089 net.cpp:435] inception_5a/output <- inception_5a/3x3
I1228 22:00:23.003902 18089 net.cpp:435] inception_5a/output <- inception_5a/5x5
I1228 22:00:23.003904 18089 net.cpp:435] inception_5a/output <- inception_5a/pool_proj
I1228 22:00:23.003908 18089 net.cpp:409] inception_5a/output -> inception_5a/output
I1228 22:00:23.003931 18089 net.cpp:144] Setting up inception_5a/output
I1228 22:00:23.003933 18089 net.cpp:151] Top shape: 1 832 10 20 (166400)
I1228 22:00:23.003937 18089 net.cpp:159] Memory required for data: 294707204
I1228 22:00:23.003939 18089 layer_factory.hpp:77] Creating layer inception_5a/output_inception_5a/output_0_split
I1228 22:00:23.003944 18089 net.cpp:94] Creating Layer inception_5a/output_inception_5a/output_0_split
I1228 22:00:23.003947 18089 net.cpp:435] inception_5a/output_inception_5a/output_0_split <- inception_5a/output
I1228 22:00:23.003949 18089 net.cpp:409] inception_5a/output_inception_5a/output_0_split -> inception_5a/output_inception_5a/output_0_split_0
I1228 22:00:23.003953 18089 net.cpp:409] inception_5a/output_inception_5a/output_0_split -> inception_5a/output_inception_5a/output_0_split_1
I1228 22:00:23.003957 18089 net.cpp:409] inception_5a/output_inception_5a/output_0_split -> inception_5a/output_inception_5a/output_0_split_2
I1228 22:00:23.003960 18089 net.cpp:409] inception_5a/output_inception_5a/output_0_split -> inception_5a/output_inception_5a/output_0_split_3
I1228 22:00:23.003995 18089 net.cpp:144] Setting up inception_5a/output_inception_5a/output_0_split
I1228 22:00:23.003998 18089 net.cpp:151] Top shape: 1 832 10 20 (166400)
I1228 22:00:23.004000 18089 net.cpp:151] Top shape: 1 832 10 20 (166400)
I1228 22:00:23.004004 18089 net.cpp:151] Top shape: 1 832 10 20 (166400)
I1228 22:00:23.004005 18089 net.cpp:151] Top shape: 1 832 10 20 (166400)
I1228 22:00:23.004009 18089 net.cpp:159] Memory required for data: 297369604
I1228 22:00:23.004010 18089 layer_factory.hpp:77] Creating layer inception_5b/1x1
I1228 22:00:23.004015 18089 net.cpp:94] Creating Layer inception_5b/1x1
I1228 22:00:23.004019 18089 net.cpp:435] inception_5b/1x1 <- inception_5a/output_inception_5a/output_0_split_0
I1228 22:00:23.004022 18089 net.cpp:409] inception_5b/1x1 -> inception_5b/1x1_raw
I1228 22:00:23.006332 18089 net.cpp:144] Setting up inception_5b/1x1
I1228 22:00:23.006338 18089 net.cpp:151] Top shape: 1 384 10 20 (76800)
I1228 22:00:23.006342 18089 net.cpp:159] Memory required for data: 297676804
I1228 22:00:23.006346 18089 layer_factory.hpp:77] Creating layer inception_5b/1x1_BatchNorm
I1228 22:00:23.006351 18089 net.cpp:94] Creating Layer inception_5b/1x1_BatchNorm
I1228 22:00:23.006354 18089 net.cpp:435] inception_5b/1x1_BatchNorm <- inception_5b/1x1_raw
I1228 22:00:23.006358 18089 net.cpp:409] inception_5b/1x1_BatchNorm -> inception_5b/1x1
I1228 22:00:23.006769 18089 net.cpp:144] Setting up inception_5b/1x1_BatchNorm
I1228 22:00:23.006778 18089 net.cpp:151] Top shape: 1 384 10 20 (76800)
I1228 22:00:23.006781 18089 net.cpp:159] Memory required for data: 297984004
I1228 22:00:23.006788 18089 layer_factory.hpp:77] Creating layer inception_5b/relu_1x1
I1228 22:00:23.006793 18089 net.cpp:94] Creating Layer inception_5b/relu_1x1
I1228 22:00:23.006796 18089 net.cpp:435] inception_5b/relu_1x1 <- inception_5b/1x1
I1228 22:00:23.006800 18089 net.cpp:396] inception_5b/relu_1x1 -> inception_5b/1x1 (in-place)
I1228 22:00:23.006805 18089 net.cpp:144] Setting up inception_5b/relu_1x1
I1228 22:00:23.006808 18089 net.cpp:151] Top shape: 1 384 10 20 (76800)
I1228 22:00:23.006810 18089 net.cpp:159] Memory required for data: 298291204
I1228 22:00:23.006814 18089 layer_factory.hpp:77] Creating layer inception_5b/3x3_reduce
I1228 22:00:23.006819 18089 net.cpp:94] Creating Layer inception_5b/3x3_reduce
I1228 22:00:23.006820 18089 net.cpp:435] inception_5b/3x3_reduce <- inception_5a/output_inception_5a/output_0_split_1
I1228 22:00:23.006824 18089 net.cpp:409] inception_5b/3x3_reduce -> inception_5b/3x3_reduce_raw
I1228 22:00:23.008796 18089 net.cpp:144] Setting up inception_5b/3x3_reduce
I1228 22:00:23.008803 18089 net.cpp:151] Top shape: 1 192 10 20 (38400)
I1228 22:00:23.008807 18089 net.cpp:159] Memory required for data: 298444804
I1228 22:00:23.008812 18089 layer_factory.hpp:77] Creating layer inception_5b/3x3_reduce_BatchNorm
…
I1228 22:00:23.323460 18089 layer_factory.hpp:77] Creating layer inception_4e/relu_1x1
I1228 22:00:23.323463 18089 net.cpp:94] Creating Layer inception_4e/relu_1x1
I1228 22:00:23.323467 18089 net.cpp:435] inception_4e/relu_1x1 <- inception_4e/1x1
I1228 22:00:23.323468 18089 net.cpp:396] inception_4e/relu_1x1 -> inception_4e/1x1 (in-place)
I1228 22:00:23.323472 18089 net.cpp:144] Setting up inception_4e/relu_1x1
I1228 22:00:23.323474 18089 net.cpp:151] Top shape: 1 256 20 40 (204800)
I1228 22:00:23.323477 18089 net.cpp:159] Memory required for data: 262348804
I1228 22:00:23.323478 18089 layer_factory.hpp:77] Creating layer inception_4e/3x3_reduce
I1228 22:00:23.323482 18089 net.cpp:94] Creating Layer inception_4e/3x3_reduce
I1228 22:00:23.323484 18089 net.cpp:435] inception_4e/3x3_reduce <- inception_4d/output_inception_4d/output_fixed_0_split_1
I1228 22:00:23.323487 18089 net.cpp:409] inception_4e/3x3_reduce -> inception_4e/3x3_reduce
I1228 22:00:23.324009 18089 layer_factory.hpp:77] Creating layer inception_4e/3x3_reduce
I1228 22:00:23.324622 18089 net.cpp:144] Setting up inception_4e/3x3_reduce
I1228 22:00:23.324626 18089 net.cpp:151] Top shape: 1 160 20 40 (128000)
I1228 22:00:23.324630 18089 net.cpp:159] Memory required for data: 262860804
I1228 22:00:23.324632 18089 layer_factory.hpp:77] Creating layer inception_4e/relu_3x3_reduce
I1228 22:00:23.324638 18089 net.cpp:94] Creating Layer inception_4e/relu_3x3_reduce
I1228 22:00:23.324641 18089 net.cpp:435] inception_4e/relu_3x3_reduce <- inception_4e/3x3_reduce
I1228 22:00:23.324645 18089 net.cpp:396] inception_4e/relu_3x3_reduce -> inception_4e/3x3_reduce (in-place)
I1228 22:00:23.324648 18089 net.cpp:144] Setting up inception_4e/relu_3x3_reduce
I1228 22:00:23.324649 18089 net.cpp:151] Top shape: 1 160 20 40 (128000)
I1228 22:00:23.324652 18089 net.cpp:159] Memory required for data: 263372804
I1228 22:00:23.324654 18089 layer_factory.hpp:77] Creating layer inception_4e/3x3_reduce_fixed
I1228 22:00:23.324657 18089 net.cpp:94] Creating Layer inception_4e/3x3_reduce_fixed
I1228 22:00:23.324661 18089 net.cpp:435] inception_4e/3x3_reduce_fixed <- inception_4e/3x3_reduce
I1228 22:00:23.324662 18089 net.cpp:396] inception_4e/3x3_reduce_fixed -> inception_4e/3x3_reduce (in-place)
I1228 22:00:23.324683 18089 net.cpp:144] Setting up inception_4e/3x3_reduce_fixed
I1228 22:00:23.324685 18089 net.cpp:151] Top shape: 1 160 20 40 (128000)
I1228 22:00:23.324688 18089 net.cpp:159] Memory required for data: 263884804
I1228 22:00:23.324690 18089 layer_factory.hpp:77] Creating layer inception_4e/3x3
I1228 22:00:23.324694 18089 net.cpp:94] Creating Layer inception_4e/3x3
I1228 22:00:23.324697 18089 net.cpp:435] inception_4e/3x3 <- inception_4e/3x3_reduce
I1228 22:00:23.324699 18089 net.cpp:409] inception_4e/3x3 -> inception_4e/3x3
I1228 22:00:23.328224 18089 layer_factory.hpp:77] Creating layer inception_4e/3x3
I1228 22:00:23.331861 18089 net.cpp:144] Setting up inception_4e/3x3
I1228 22:00:23.331869 18089 net.cpp:151] Top shape: 1 320 20 40 (256000)
I1228 22:00:23.331876 18089 net.cpp:159] Memory required for data: 264908804
I1228 22:00:23.331882 18089 layer_factory.hpp:77] Creating layer inception_4e/relu_3x3
I1228 22:00:23.331887 18089 net.cpp:94] Creating Layer inception_4e/relu_3x3
I1228 22:00:23.331890 18089 net.cpp:435] inception_4e/relu_3x3 <- inception_4e/3x3
I1228 22:00:23.331894 18089 net.cpp:396] inception_4e/relu_3x3 -> inception_4e/3x3 (in-place)
I1228 22:00:23.331899 18089 net.cpp:144] Setting up inception_4e/relu_3x3
I1228 22:00:23.331900 18089 net.cpp:151] Top shape: 1 320 20 40 (256000)
I1228 22:00:23.331903 18089 net.cpp:159] Memory required for data: 265932804
I1228 22:00:23.331904 18089 layer_factory.hpp:77] Creating layer inception_4e/5x5_reduce
I1228 22:00:23.331910 18089 net.cpp:94] Creating Layer inception_4e/5x5_reduce
I1228 22:00:23.331912 18089 net.cpp:435] inception_4e/5x5_reduce <- inception_4d/output_inception_4d/output_fixed_0_split_2
I1228 22:00:23.331916 18089 net.cpp:409] inception_4e/5x5_reduce -> inception_4e/5x5_reduce
I1228 22:00:23.332109 18089 layer_factory.hpp:77] Creating layer inception_4e/5x5_reduce
I1228 22:00:23.332381 18089 net.cpp:144] Setting up inception_4e/5x5_reduce
I1228 22:00:23.332384 18089 net.cpp:151] Top shape: 1 32 20 40 (25600)
I1228 22:00:23.332387 18089 net.cpp:159] Memory required for data: 266035204
I1228 22:00:23.332391 18089 layer_factory.hpp:77] Creating layer inception_4e/relu_5x5_reduce
I1228 22:00:23.332393 18089 net.cpp:94] Creating Layer inception_4e/relu_5x5_reduce
I1228 22:00:23.332396 18089 net.cpp:435] inception_4e/relu_5x5_reduce <- inception_4e/5x5_reduce
I1228 22:00:23.332397 18089 net.cpp:396] inception_4e/relu_5x5_reduce -> inception_4e/5x5_reduce (in-place)
I1228 22:00:23.332401 18089 net.cpp:144] Setting up inception_4e/relu_5x5_reduce
I1228 22:00:23.332402 18089 net.cpp:151] Top shape: 1 32 20 40 (25600)
I1228 22:00:23.332404 18089 net.cpp:159] Memory required for data: 266137604
I1228 22:00:23.332406 18089 layer_factory.hpp:77] Creating layer inception_4e/5x5_reduce_fixed
I1228 22:00:23.332410 18089 net.cpp:94] Creating Layer inception_4e/5x5_reduce_fixed
I1228 22:00:23.332412 18089 net.cpp:435] inception_4e/5x5_reduce_fixed <- inception_4e/5x5_reduce
I1228 22:00:23.332414 18089 net.cpp:396] inception_4e/5x5_reduce_fixed -> inception_4e/5x5_reduce (in-place)
I1228 22:00:23.332432 18089 net.cpp:144] Setting up inception_4e/5x5_reduce_fixed
I1228 22:00:23.332434 18089 net.cpp:151] Top shape: 1 32 20 40 (25600)
I1228 22:00:23.332437 18089 net.cpp:159] Memory required for data: 266240004
I1228 22:00:23.332439 18089 layer_factory.hpp:77] Creating layer inception_4e/5x5
I1228 22:00:23.332443 18089 net.cpp:94] Creating Layer inception_4e/5x5
I1228 22:00:23.332445 18089 net.cpp:435] inception_4e/5x5 <- inception_4e/5x5_reduce
I1228 22:00:23.332448 18089 net.cpp:409] inception_4e/5x5 -> inception_4e/5x5
I1228 22:00:23.333647 18089 layer_factory.hpp:77] Creating layer inception_4e/5x5
I1228 22:00:23.334349 18089 net.cpp:144] Setting up inception_4e/5x5
I1228 22:00:23.334353 18089 net.cpp:151] Top shape: 1 128 20 40 (102400)
I1228 22:00:23.334357 18089 net.cpp:159] Memory required for data: 266649604
I1228 22:00:23.334359 18089 layer_factory.hpp:77] Creating layer inception_4e/relu_5x5
I1228 22:00:23.334362 18089 net.cpp:94] Creating Layer inception_4e/relu_5x5
I1228 22:00:23.334364 18089 net.cpp:435] inception_4e/relu_5x5 <- inception_4e/5x5
I1228 22:00:23.334367 18089 net.cpp:396] inception_4e/relu_5x5 -> inception_4e/5x5 (in-place)
I1228 22:00:23.334370 18089 net.cpp:144] Setting up inception_4e/relu_5x5
I1228 22:00:23.334372 18089 net.cpp:151] Top shape: 1 128 20 40 (102400)
I1228 22:00:23.334375 18089 net.cpp:159] Memory required for data: 267059204
I1228 22:00:23.334378 18089 layer_factory.hpp:77] Creating layer inception_4e/pool
I1228 22:00:23.334383 18089 net.cpp:94] Creating Layer inception_4e/pool
I1228 22:00:23.334385 18089 net.cpp:435] inception_4e/pool <- inception_4d/output_inception_4d/output_fixed_0_split_3
I1228 22:00:23.334388 18089 net.cpp:409] inception_4e/pool -> inception_4e/pool
I1228 22:00:23.334414 18089 net.cpp:144] Setting up inception_4e/pool
I1228 22:00:23.334417 18089 net.cpp:151] Top shape: 1 528 20 40 (422400)
I1228 22:00:23.334421 18089 net.cpp:159] Memory required for data: 268748804
I1228 22:00:23.334424 18089 layer_factory.hpp:77] Creating layer inception_4e/pool_proj
I1228 22:00:23.334429 18089 net.cpp:94] Creating Layer inception_4e/pool_proj
I1228 22:00:23.334431 18089 net.cpp:435] inception_4e/pool_proj <- inception_4e/pool
I1228 22:00:23.334435 18089 net.cpp:409] inception_4e/pool_proj -> inception_4e/pool_proj
I1228 22:00:23.334911 18089 layer_factory.hpp:77] Creating layer inception_4e/pool_proj
I1228 22:00:23.335994 18089 net.cpp:144] Setting up inception_4e/pool_proj
I1228 22:00:23.335999 18089 net.cpp:151] Top shape: 1 128 20 40 (102400)
I1228 22:00:23.336004 18089 net.cpp:159] Memory required for data: 269158404
I1228 22:00:23.336007 18089 layer_factory.hpp:77] Creating layer inception_4e/relu_pool_proj
I1228 22:00:23.336010 18089 net.cpp:94] Creating Layer inception_4e/relu_pool_proj
I1228 22:00:23.336012 18089 net.cpp:435] inception_4e/relu_pool_proj <- inception_4e/pool_proj
I1228 22:00:23.336015 18089 net.cpp:396] inception_4e/relu_pool_proj -> inception_4e/pool_proj (in-place)
I1228 22:00:23.336019 18089 net.cpp:144] Setting up inception_4e/relu_pool_proj
I1228 22:00:23.336020 18089 net.cpp:151] Top shape: 1 128 20 40 (102400)
I1228 22:00:23.336024 18089 net.cpp:159] Memory required for data: 269568004
I1228 22:00:23.336024 18089 layer_factory.hpp:77] Creating layer inception_4e/output
I1228 22:00:23.336028 18089 net.cpp:94] Creating Layer inception_4e/output
I1228 22:00:23.336030 18089 net.cpp:435] inception_4e/output <- inception_4e/1x1
I1228 22:00:23.336032 18089 net.cpp:435] inception_4e/output <- inception_4e/3x3
I1228 22:00:23.336035 18089 net.cpp:435] inception_4e/output <- inception_4e/5x5
I1228 22:00:23.336035 18089 net.cpp:435] inception_4e/output <- inception_4e/pool_proj
I1228 22:00:23.336038 18089 net.cpp:409] inception_4e/output -> inception_4e/output
I1228 22:00:23.336051 18089 net.cpp:144] Setting up inception_4e/output
I1228 22:00:23.336053 18089 net.cpp:151] Top shape: 1 832 20 40 (665600)
I1228 22:00:23.336055 18089 net.cpp:159] Memory required for data: 272230404
I1228 22:00:23.336057 18089 layer_factory.hpp:77] Creating layer inception_4e/output_fixed
I1228 22:00:23.336061 18089 net.cpp:94] Creating Layer inception_4e/output_fixed
I1228 22:00:23.336062 18089 net.cpp:435] inception_4e/output_fixed <- inception_4e/output
I1228 22:00:23.336066 18089 net.cpp:396] inception_4e/output_fixed -> inception_4e/output (in-place)
I1228 22:00:23.336082 18089 net.cpp:144] Setting up inception_4e/output_fixed
I1228 22:00:23.336086 18089 net.cpp:151] Top shape: 1 832 20 40 (665600)
I1228 22:00:23.336089 18089 net.cpp:159] Memory required for data: 274892804
I1228 22:00:23.336091 18089 layer_factory.hpp:77] Creating layer inception_4e/output_inception_4e/output_fixed_0_split
I1228 22:00:23.336094 18089 net.cpp:94] Creating Layer inception_4e/output_inception_4e/output_fixed_0_split
I1228 22:00:23.336097 18089 net.cpp:435] inception_4e/output_inception_4e/output_fixed_0_split <- inception_4e/output
I1228 22:00:23.336098 18089 net.cpp:409] inception_4e/output_inception_4e/output_fixed_0_split -> inception_4e/output_inception_4e/output_fixed_0_split_0
I1228 22:00:23.336102 18089 net.cpp:409] inception_4e/output_inception_4e/output_fixed_0_split -> inception_4e/output_inception_4e/output_fixed_0_split_1
I1228 22:00:23.336118 18089 net.cpp:144] Setting up inception_4e/output_inception_4e/output_fixed_0_split
I1228 22:00:23.336122 18089 net.cpp:151] Top shape: 1 832 20 40 (665600)
I1228 22:00:23.336124 18089 net.cpp:151] Top shape: 1 832 20 40 (665600)
I1228 22:00:23.336127 18089 net.cpp:159] Memory required for data: 280217604
I1228 22:00:23.336128 18089 layer_factory.hpp:77] Creating layer pool4/3x3_s2
I1228 22:00:23.336131 18089 net.cpp:94] Creating Layer pool4/3x3_s2
I1228 22:00:23.336133 18089 net.cpp:435] pool4/3x3_s2 <- inception_4e/output_inception_4e/output_fixed_0_split_0
I1228 22:00:23.336135 18089 net.cpp:409] pool4/3x3_s2 -> pool4/3x3_s2
I1228 22:00:23.336153 18089 net.cpp:144] Setting up pool4/3x3_s2
I1228 22:00:23.336156 18089 net.cpp:151] Top shape: 1 832 10 20 (166400)
I1228 22:00:23.336159 18089 net.cpp:159] Memory required for data: 280883204
I1228 22:00:23.336160 18089 layer_factory.hpp:77] Creating layer pool4/3x3_s2_pool4/3x3_s2_0_split
I1228 22:00:23.336163 18089 net.cpp:94] Creating Layer pool4/3x3_s2_pool4/3x3_s2_0_split
I1228 22:00:23.336165 18089 net.cpp:435] pool4/3x3_s2_pool4/3x3_s2_0_split <- pool4/3x3_s2
I1228 22:00:23.336167 18089 net.cpp:409] pool4/3x3_s2_pool4/3x3_s2_0_split -> pool4/3x3_s2_pool4/3x3_s2_0_split_0
I1228 22:00:23.336170 18089 net.cpp:409] pool4/3x3_s2_pool4/3x3_s2_0_split -> pool4/3x3_s2_pool4/3x3_s2_0_split_1
I1228 22:00:23.336174 18089 net.cpp:409] pool4/3x3_s2_pool4/3x3_s2_0_split -> pool4/3x3_s2_pool4/3x3_s2_0_split_2
I1228 22:00:23.336176 18089 net.cpp:409] pool4/3x3_s2_pool4/3x3_s2_0_split -> pool4/3x3_s2_pool4/3x3_s2_0_split_3
I1228 22:00:23.336206 18089 net.cpp:144] Setting up pool4/3x3_s2_pool4/3x3_s2_0_split
I1228 22:00:23.336210 18089 net.cpp:151] Top shape: 1 832 10 20 (166400)
I1228 22:00:23.336212 18089 net.cpp:151] Top shape: 1 832 10 20 (166400)
I1228 22:00:23.336215 18089 net.cpp:151] Top shape: 1 832 10 20 (166400)
I1228 22:00:23.336216 18089 net.cpp:151] Top shape: 1 832 10 20 (166400)
I1228 22:00:23.336218 18089 net.cpp:159] Memory required for data: 283545604
I1228 22:00:23.336220 18089 layer_factory.hpp:77] Creating layer inception_5a/1x1
I1228 22:00:23.336225 18089 net.cpp:94] Creating Layer inception_5a/1x1
I1228 22:00:23.336227 18089 net.cpp:435] inception_5a/1x1 <- pool4/3x3_s2_pool4/3x3_s2_0_split_0
I1228 22:00:23.336230 18089 net.cpp:409] inception_5a/1x1 -> inception_5a/1x1
I1228 22:00:23.337407 18089 layer_factory.hpp:77] Creating layer inception_5a/1x1
I1228 22:00:23.339254 18089 net.cpp:144] Setting up inception_5a/1x1
I1228 22:00:23.339260 18089 net.cpp:151] Top shape: 1 256 10 20 (51200)
I1228 22:00:23.339263 18089 net.cpp:159] Memory required for data: 283750404
I1228 22:00:23.339267 18089 layer_factory.hpp:77] Creating layer inception_5a/relu_1x1
I1228 22:00:23.339270 18089 net.cpp:94] Creating Layer inception_5a/relu_1x1
I1228 22:00:23.339273 18089 net.cpp:435] inception_5a/relu_1x1 <- inception_5a/1x1
I1228 22:00:23.339275 18089 net.cpp:396] inception_5a/relu_1x1 -> inception_5a/1x1 (in-place)
I1228 22:00:23.339279 18089 net.cpp:144] Setting up inception_5a/relu_1x1
I1228 22:00:23.339280 18089 net.cpp:151] Top shape: 1 256 10 20 (51200)
I1228 22:00:23.339283 18089 net.cpp:159] Memory required for data: 283955204
I1228 22:00:23.339284 18089 layer_factory.hpp:77] Creating layer inception_5a/3x3_reduce
I1228 22:00:23.339289 18089 net.cpp:94] Creating Layer inception_5a/3x3_reduce
I1228 22:00:23.339291 18089 net.cpp:435] inception_5a/3x3_reduce <- pool4/3x3_s2_pool4/3x3_s2_0_split_1
I1228 22:00:23.339294 18089 net.cpp:409] inception_5a/3x3_reduce -> inception_5a/3x3_reduce
I1228 22:00:23.340611 18089 layer_factory.hpp:77] Creating layer inception_5a/3x3_reduce
I1228 22:00:23.342612 18089 net.cpp:144] Setting up inception_5a/3x3_reduce
I1228 22:00:23.342620 18089 net.cpp:151] Top shape: 1 160 10 20 (32000)
I1228 22:00:23.342624 18089 net.cpp:159] Memory required for data: 284083204
I1228 22:00:23.342631 18089 layer_factory.hpp:77] Creating layer inception_5a/relu_3x3_reduce
I1228 22:00:23.342635 18089 net.cpp:94] Creating Layer inception_5a/relu_3x3_reduce
I1228 22:00:23.342638 18089 net.cpp:435] inception_5a/relu_3x3_reduce <- inception_5a/3x3_reduce
I1228 22:00:23.342643 18089 net.cpp:396] inception_5a/relu_3x3_reduce -> inception_5a/3x3_reduce (in-place)
I1228 22:00:23.342646 18089 net.cpp:144] Setting up inception_5a/relu_3x3_reduce
I1228 22:00:23.342648 18089 net.cpp:151] Top shape: 1 160 10 20 (32000)
I1228 22:00:23.342650 18089 net.cpp:159] Memory required for data: 284211204
I1228 22:00:23.342651 18089 layer_factory.hpp:77] Creating layer inception_5a/3x3_reduce_fixed
I1228 22:00:23.342656 18089 net.cpp:94] Creating Layer inception_5a/3x3_reduce_fixed
I1228 22:00:23.342658 18089 net.cpp:435] inception_5a/3x3_reduce_fixed <- inception_5a/3x3_reduce
I1228 22:00:23.342660 18089 net.cpp:396] inception_5a/3x3_reduce_fixed -> inception_5a/3x3_reduce (in-place)
I1228 22:00:23.342937 18089 net.cpp:144] Setting up inception_5a/3x3_reduce_fixed
I1228 22:00:23.342948 18089 net.cpp:151] Top shape: 1 160 10 20 (32000)
I1228 22:00:23.342954 18089 net.cpp:159] Memory required for data: 284339204
I1228 22:00:23.342960 18089 layer_factory.hpp:77] Creating layer inception_5a/3x3
I1228 22:00:23.342970 18089 net.cpp:94] Creating Layer inception_5a/3x3
I1228 22:00:23.342974 18089 net.cpp:435] inception_5a/3x3 <- inception_5a/3x3_reduce
I1228 22:00:23.342980 18089 net.cpp:409] inception_5a/3x3 -> inception_5a/3x3
I1228 22:00:23.349061 18089 layer_factory.hpp:77] Creating layer inception_5a/3x3
I1228 22:00:23.353721 18089 net.cpp:144] Setting up inception_5a/3x3
I1228 22:00:23.353730 18089 net.cpp:151] Top shape: 1 320 10 20 (64000)
I1228 22:00:23.353736 18089 net.cpp:159] Memory required for data: 284595204
I1228 22:00:23.353742 18089 layer_factory.hpp:77] Creating layer inception_5a/relu_3x3
I1228 22:00:23.353746 18089 net.cpp:94] Creating Layer inception_5a/relu_3x3
I1228 22:00:23.353750 18089 net.cpp:435] inception_5a/relu_3x3 <- inception_5a/3x3
I1228 22:00:23.353754 18089 net.cpp:396] inception_5a/relu_3x3 -> inception_5a/3x3 (in-place)
I1228 22:00:23.353760 18089 net.cpp:144] Setting up inception_5a/relu_3x3
I1228 22:00:23.353760 18089 net.cpp:151] Top shape: 1 320 10 20 (64000)
I1228 22:00:23.353763 18089 net.cpp:159] Memory required for data: 284851204
I1228 22:00:23.353765 18089 layer_factory.hpp:77] Creating layer inception_5a/5x5_reduce
I1228 22:00:23.353770 18089 net.cpp:94] Creating Layer inception_5a/5x5_reduce
I1228 22:00:23.353773 18089 net.cpp:435] inception_5a/5x5_reduce <- pool4/3x3_s2_pool4/3x3_s2_0_split_2
I1228 22:00:23.353776 18089 net.cpp:409] inception_5a/5x5_reduce -> inception_5a/5x5_reduce
I1228 22:00:23.354049 18089 layer_factory.hpp:77] Creating layer inception_5a/5x5_reduce
I1228 22:00:23.354384 18089 net.cpp:144] Setting up inception_5a/5x5_reduce
I1228 22:00:23.354387 18089 net.cpp:151] Top shape: 1 32 10 20 (6400)
I1228 22:00:23.354390 18089 net.cpp:159] Memory required for data: 284876804
I1228 22:00:23.354394 18089 layer_factory.hpp:77] Creating layer inception_5a/relu_5x5_reduce
I1228 22:00:23.354398 18089 net.cpp:94] Creating Layer inception_5a/relu_5x5_reduce
I1228 22:00:23.354399 18089 net.cpp:435] inception_5a/relu_5x5_reduce <- inception_5a/5x5_reduce
I1228 22:00:23.354401 18089 net.cpp:396] inception_5a/relu_5x5_reduce -> inception_5a/5x5_reduce (in-place)
I1228 22:00:23.354405 18089 net.cpp:144] Setting up inception_5a/relu_5x5_reduce
I1228 22:00:23.354406 18089 net.cpp:151] Top shape: 1 32 10 20 (6400)
I1228 22:00:23.354409 18089 net.cpp:159] Memory required for data: 284902404
I1228 22:00:23.354410 18089 layer_factory.hpp:77] Creating layer inception_5a/5x5_reduce_fixed
I1228 22:00:23.354414 18089 net.cpp:94] Creating Layer inception_5a/5x5_reduce_fixed
I1228 22:00:23.354416 18089 net.cpp:435] inception_5a/5x5_reduce_fixed <- inception_5a/5x5_reduce
I1228 22:00:23.354418 18089 net.cpp:396] inception_5a/5x5_reduce_fixed -> inception_5a/5x5_reduce (in-place)
I1228 22:00:23.354439 18089 net.cpp:144] Setting up inception_5a/5x5_reduce_fixed
I1228 22:00:23.354440 18089 net.cpp:151] Top shape: 1 32 10 20 (6400)
I1228 22:00:23.354442 18089 net.cpp:159] Memory required for data: 284928004
I1228 22:00:23.354445 18089 layer_factory.hpp:77] Creating layer inception_5a/5x5
I1228 22:00:23.354449 18089 net.cpp:94] Creating Layer inception_5a/5x5
I1228 22:00:23.354450 18089 net.cpp:435] inception_5a/5x5 <- inception_5a/5x5_reduce
I1228 22:00:23.354454 18089 net.cpp:409] inception_5a/5x5 -> inception_5a/5x5
I1228 22:00:23.355110 18089 layer_factory.hpp:77] Creating layer inception_5a/5x5
I1228 22:00:23.355841 18089 net.cpp:144] Setting up inception_5a/5x5
I1228 22:00:23.355845 18089 net.cpp:151] Top shape: 1 128 10 20 (25600)
I1228 22:00:23.355847 18089 net.cpp:159] Memory required for data: 285030404
I1228 22:00:23.355851 18089 layer_factory.hpp:77] Creating layer inception_5a/relu_5x5
I1228 22:00:23.355854 18089 net.cpp:94] Creating Layer inception_5a/relu_5x5
I1228 22:00:23.355855 18089 net.cpp:435] inception_5a/relu_5x5 <- inception_5a/5x5
I1228 22:00:23.355859 18089 net.cpp:396] inception_5a/relu_5x5 -> inception_5a/5x5 (in-place)
I1228 22:00:23.355861 18089 net.cpp:144] Setting up inception_5a/relu_5x5
I1228 22:00:23.355862 18089 net.cpp:151] Top shape: 1 128 10 20 (25600)
I1228 22:00:23.355865 18089 net.cpp:159] Memory required for data: 285132804
I1228 22:00:23.355866 18089 layer_factory.hpp:77] Creating layer inception_5a/pool
I1228 22:00:23.355870 18089 net.cpp:94] Creating Layer inception_5a/pool
I1228 22:00:23.355871 18089 net.cpp:435] inception_5a/pool <- pool4/3x3_s2_pool4/3x3_s2_0_split_3
I1228 22:00:23.355875 18089 net.cpp:409] inception_5a/pool -> inception_5a/pool
I1228 22:00:23.355895 18089 net.cpp:144] Setting up inception_5a/pool
I1228 22:00:23.355898 18089 net.cpp:151] Top shape: 1 832 10 20 (166400)
I1228 22:00:23.355901 18089 net.cpp:159] Memory required for data: 285798404
I1228 22:00:23.355902 18089 layer_factory.hpp:77] Creating layer inception_5a/pool_proj
I1228 22:00:23.355906 18089 net.cpp:94] Creating Layer inception_5a/pool_proj
I1228 22:00:23.355908 18089 net.cpp:435] inception_5a/pool_proj <- inception_5a/pool
I1228 22:00:23.355911 18089 net.cpp:409] inception_5a/pool_proj -> inception_5a/pool_proj
I1228 22:00:23.357089 18089 layer_factory.hpp:77] Creating layer inception_5a/pool_proj
I1228 22:00:23.357808 18089 net.cpp:144] Setting up inception_5a/pool_proj
I1228 22:00:23.357813 18089 net.cpp:151] Top shape: 1 128 10 20 (25600)
I1228 22:00:23.357816 18089 net.cpp:159] Memory required for data: 285900804
I1228 22:00:23.357825 18089 layer_factory.hpp:77] Creating layer inception_5a/relu_pool_proj
I1228 22:00:23.357828 18089 net.cpp:94] Creating Layer inception_5a/relu_pool_proj
I1228 22:00:23.357831 18089 net.cpp:435] inception_5a/relu_pool_proj <- inception_5a/pool_proj
I1228 22:00:23.357833 18089 net.cpp:396] inception_5a/relu_pool_proj -> inception_5a/pool_proj (in-place)
I1228 22:00:23.357837 18089 net.cpp:144] Setting up inception_5a/relu_pool_proj
I1228 22:00:23.357838 18089 net.cpp:151] Top shape: 1 128 10 20 (25600)
I1228 22:00:23.357841 18089 net.cpp:159] Memory required for data: 286003204
I1228 22:00:23.357843 18089 layer_factory.hpp:77] Creating layer inception_5a/output
I1228 22:00:23.357847 18089 net.cpp:94] Creating Layer inception_5a/output
I1228 22:00:23.357851 18089 net.cpp:435] inception_5a/output <- inception_5a/1x1
I1228 22:00:23.357853 18089 net.cpp:435] inception_5a/output <- inception_5a/3x3
I1228 22:00:23.357856 18089 net.cpp:435] inception_5a/output <- inception_5a/5x5
I1228 22:00:23.357858 18089 net.cpp:435] inception_5a/output <- inception_5a/pool_proj
I1228 22:00:23.357862 18089 net.cpp:409] inception_5a/output -> inception_5a/output
I1228 22:00:23.357882 18089 net.cpp:144] Setting up inception_5a/output
I1228 22:00:23.357888 18089 net.cpp:151] Top shape: 1 832 10 20 (166400)
I1228 22:00:23.357892 18089 net.cpp:159] Memory required for data: 286668804
I1228 22:00:23.357894 18089 layer_factory.hpp:77] Creating layer inception_5a/output_fixed
I1228 22:00:23.357899 18089 net.cpp:94] Creating Layer inception_5a/output_fixed
I1228 22:00:23.357903 18089 net.cpp:435] inception_5a/output_fixed <- inception_5a/output
I1228 22:00:23.357905 18089 net.cpp:396] inception_5a/output_fixed -> inception_5a/output (in-place)
I1228 22:00:23.357925 18089 net.cpp:144] Setting up inception_5a/output_fixed
I1228 22:00:23.357930 18089 net.cpp:151] Top shape: 1 832 10 20 (166400)
I1228 22:00:23.357933 18089 net.cpp:159] Memory required for data: 287334404
I1228 22:00:23.357935 18089 layer_factory.hpp:77] Creating layer inception_5a/output_inception_5a/output_fixed_0_split
I1228 22:00:23.357939 18089 net.cpp:94] Creating Layer inception_5a/output_inception_5a/output_fixed_0_split
I1228 22:00:23.357940 18089 net.cpp:435] inception_5a/output_inception_5a/output_fixed_0_split <- inception_5a/output
I1228 22:00:23.357944 18089 net.cpp:409] inception_5a/output_inception_5a/output_fixed_0_split -> inception_5a/output_inception_5a/output_fixed_0_split_0
I1228 22:00:23.357946 18089 net.cpp:409] inception_5a/output_inception_5a/output_fixed_0_split -> inception_5a/output_inception_5a/output_fixed_0_split_1
I1228 22:00:23.357949 18089 net.cpp:409] inception_5a/output_inception_5a/output_fixed_0_split -> inception_5a/output_inception_5a/output_fixed_0_split_2
I1228 22:00:23.357952 18089 net.cpp:409] inception_5a/output_inception_5a/output_fixed_0_split -> inception_5a/output_inception_5a/output_fixed_0_split_3
I1228 22:00:23.357985 18089 net.cpp:144] Setting up inception_5a/output_inception_5a/output_fixed_0_split
I1228 22:00:23.357987 18089 net.cpp:151] Top shape: 1 832 10 20 (166400)
I1228 22:00:23.357990 18089 net.cpp:151] Top shape: 1 832 10 20 (166400)
I1228 22:00:23.357993 18089 net.cpp:151] Top shape: 1 832 10 20 (166400)
I1228 22:00:23.357995 18089 net.cpp:151] Top shape: 1 832 10 20 (166400)
I1228 22:00:23.357997 18089 net.cpp:159] Memory required for data: 289996804
I1228 22:00:23.358000 18089 layer_factory.hpp:77] Creating layer inception_5b/1x1
I1228 22:00:23.358003 18089 net.cpp:94] Creating Layer inception_5b/1x1
I1228 22:00:23.358006 18089 net.cpp:435] inception_5b/1x1 <- inception_5a/output_inception_5a/output_fixed_0_split_0
I1228 22:00:23.358008 18089 net.cpp:409] inception_5b/1x1 -> inception_5b/1x1
I1228 22:00:23.361119 18089 layer_factory.hpp:77] Creating layer inception_5b/1x1
I1228 22:00:23.363947 18089 net.cpp:144] Setting up inception_5b/1x1
I1228 22:00:23.363955 18089 net.cpp:151] Top shape: 1 384 10 20 (76800)
I1228 22:00:23.363960 18089 net.cpp:159] Memory required for data: 290304004
I1228 22:00:23.363965 18089 layer_factory.hpp:77] Creating layer inception_5b/relu_1x1
I1228 22:00:23.363970 18089 net.cpp:94] Creating Layer inception_5b/relu_1x1
I1228 22:00:23.363972 18089 net.cpp:435] inception_5b/relu_1x1 <- inception_5b/1x1
I1228 22:00:23.363976 18089 net.cpp:396] inception_5b/relu_1x1 -> inception_5b/1x1 (in-place)
I1228 22:00:23.363981 18089 net.cpp:144] Setting up inception_5b/relu_1x1
I1228 22:00:23.363982 18089 net.cpp:151] Top shape: 1 384 10 20 (76800)
I1228 22:00:23.363984 18089 net.cpp:159] Memory required for data: 290611204
I1228 22:00:23.363986 18089 layer_factory.hpp:77] Creating layer inception_5b/3x3_reduce
I1228 22:00:23.363991 18089 net.cpp:94] Creating Layer inception_5b/3x3_reduce
I1228 22:00:23.363994 18089 net.cpp:435] inception_5b/3x3_reduce <- inception_5a/output_inception_5a/output_fixed_0_split_1
I1228 22:00:23.363996 18089 net.cpp:409] inception_5b/3x3_reduce -> inception_5b/3x3_reduce
I1228 22:00:23.364951 18089 layer_factory.hpp:77] Creating layer inception_5b/3x3_reduce
I1228 22:00:23.365988 18089 net.cpp:144] Setting up inception_5b/3x3_reduce
I1228 22:00:23.365993 18089 net.cpp:151] Top shape: 1 192 10 20 (38400)
I1228 22:00:23.365995 18089 net.cpp:159] Memory required for data: 290764804
I1228 22:00:23.365999 18089 layer_factory.hpp:77] Creating layer inception_5b/relu_3x3_reduce
I1228 22:00:23.366003 18089 net.cpp:94] Creating Layer inception_5b/relu_3x3_reduce
I1228 22:00:23.366004 18089 net.cpp:435] inception_5b/relu_3x3_reduce <- inception_5b/3x3_reduce
I1228 22:00:23.366008 18089 net.cpp:396] inception_5b/relu_3x3_reduce -> inception_5b/3x3_reduce (in-place)
I1228 22:00:23.366010 18089 net.cpp:144] Setting up inception_5b/relu_3x3_reduce
I1228 22:00:23.366011 18089 net.cpp:151] Top shape: 1 192 10 20 (38400)
I1228 22:00:23.366014 18089 net.cpp:159] Memory required for data: 290918404
I1228 22:00:23.366015 18089 layer_factory.hpp:77] Creating layer inception_5b/3x3_reduce_fixed
I1228 22:00:23.366019 18089 net.cpp:94] Creating Layer inception_5b/3x3_reduce_fixed
I1228 22:00:23.366020 18089 net.cpp:435] inception_5b/3x3_reduce_fixed <- inception_5b/3x3_reduce
I1228 22:00:23.366024 18089 net.cpp:396] inception_5b/3x3_reduce_fixed -> inception_5b/3x3_reduce (in-place)
I1228 22:00:23.366042 18089 net.cpp:144] Setting up inception_5b/3x3_reduce_fixed
I1228 22:00:23.366045 18089 net.cpp:151] Top shape: 1 192 10 20 (38400)
I1228 22:00:23.366047 18089 net.cpp:159] Memory required for data: 291072004
I1228 22:00:23.366050 18089 layer_factory.hpp:77] Creating layer inception_5b/3x3
I1228 22:00:23.366055 18089 net.cpp:94] Creating Layer inception_5b/3x3
I1228 22:00:23.366055 18089 net.cpp:435] inception_5b/3x3 <- inception_5b/3x3_reduce
I1228 22:00:23.366058 18089 net.cpp:409] inception_5b/3x3 -> inception_5b/3x3
I1228 22:00:23.370805 18089 layer_factory.hpp:77] Creating layer inception_5b/3x3
I1228 22:00:23.375949 18089 net.cpp:144] Setting up inception_5b/3x3
I1228 22:00:23.375962 18089 net.cpp:151] Top shape: 1 384 10 20 (76800)
I1228 22:00:23.375967 18089 net.cpp:159] Memory required for data: 291379204
I1228 22:00:23.375974 18089 layer_factory.hpp:77] Creating layer inception_5b/relu_3x3
I1228 22:00:23.375979 18089 net.cpp:94] Creating Layer inception_5b/relu_3x3
I1228 22:00:23.375983 18089 net.cpp:435] inception_5b/relu_3x3 <- inception_5b/3x3
I1228 22:00:23.375988 18089 net.cpp:396] inception_5b/relu_3x3 -> inception_5b/3x3 (in-place)
I1228 22:00:23.375994 18089 net.cpp:144] Setting up inception_5b/relu_3x3
I1228 22:00:23.375995 18089 net.cpp:151] Top shape: 1 384 10 20 (76800)
I1228 22:00:23.375998 18089 net.cpp:159] Memory required for data: 291686404
I1228 22:00:23.375999 18089 layer_factory.hpp:77] Creating layer inception_5b/5x5_reduce
I1228 22:00:23.376005 18089 net.cpp:94] Creating Layer inception_5b/5x5_reduce
I1228 22:00:23.376008 18089 net.cpp:435] inception_5b/5x5_reduce <- inception_5a/output_inception_5a/output_fixed_0_split_2
I1228 22:00:23.376011 18089 net.cpp:409] inception_5b/5x5_reduce -> inception_5b/5x5_reduce
I1228 22:00:23.376344 18089 layer_factory.hpp:77] Creating layer inception_5b/5x5_reduce
I1228 22:00:23.376796 18089 net.cpp:144] Setting up inception_5b/5x5_reduce
I1228 22:00:23.376801 18089 net.cpp:151] Top shape: 1 48 10 20 (9600)
I1228 22:00:23.376803 18089 net.cpp:159] Memory required for data: 291724804
I1228 22:00:23.376807 18089 layer_factory.hpp:77] Creating layer inception_5b/relu_5x5_reduce
I1228 22:00:23.376811 18089 net.cpp:94] Creating Layer inception_5b/relu_5x5_reduce
I1228 22:00:23.376812 18089 net.cpp:435] inception_5b/relu_5x5_reduce <- inception_5b/5x5_reduce
I1228 22:00:23.376814 18089 net.cpp:396] inception_5b/relu_5x5_reduce -> inception_5b/5x5_reduce (in-place)
I1228 22:00:23.376818 18089 net.cpp:144] Setting up inception_5b/relu_5x5_reduce
I1228 22:00:23.376819 18089 net.cpp:151] Top shape: 1 48 10 20 (9600)
I1228 22:00:23.376822 18089 net.cpp:159] Memory required for data: 291763204
I1228 22:00:23.376823 18089 layer_factory.hpp:77] Creating layer inception_5b/5x5_reduce_fixed
I1228 22:00:23.376827 18089 net.cpp:94] Creating Layer inception_5b/5x5_reduce_fixed
I1228 22:00:23.376829 18089 net.cpp:435] inception_5b/5x5_reduce_fixed <- inception_5b/5x5_reduce
I1228 22:00:23.376832 18089 net.cpp:396] inception_5b/5x5_reduce_fixed -> inception_5b/5x5_reduce (in-place)
I1228 22:00:23.376852 18089 net.cpp:144] Setting up inception_5b/5x5_reduce_fixed
I1228 22:00:23.376854 18089 net.cpp:151] Top shape: 1 48 10 20 (9600)
I1228 22:00:23.376857 18089 net.cpp:159] Memory required for data: 291801604
I1228 22:00:23.376859 18089 layer_factory.hpp:77] Creating layer inception_5b/5x5
I1228 22:00:23.376863 18089 net.cpp:94] Creating Layer inception_5b/5x5
I1228 22:00:23.376865 18089 net.cpp:435] inception_5b/5x5 <- inception_5b/5x5_reduce
I1228 22:00:23.376868 18089 net.cpp:409] inception_5b/5x5 -> inception_5b/5x5
I1228 22:00:23.378278 18089 layer_factory.hpp:77] Creating layer inception_5b/5x5
I1228 22:00:23.379806 18089 net.cpp:144] Setting up inception_5b/5x5
I1228 22:00:23.379812 18089 net.cpp:151] Top shape: 1 128 10 20 (25600)
I1228 22:00:23.379814 18089 net.cpp:159] Memory required for data: 291904004
I1228 22:00:23.379818 18089 layer_factory.hpp:77] Creating layer inception_5b/relu_5x5
I1228 22:00:23.379822 18089 net.cpp:94] Creating Layer inception_5b/relu_5x5
I1228 22:00:23.379824 18089 net.cpp:435] inception_5b/relu_5x5 <- inception_5b/5x5
I1228 22:00:23.379827 18089 net.cpp:396] inception_5b/relu_5x5 -> inception_5b/5x5 (in-place)
I1228 22:00:23.379830 18089 net.cpp:144] Setting up inception_5b/relu_5x5
I1228 22:00:23.379832 18089 net.cpp:151] Top shape: 1 128 10 20 (25600)
I1228 22:00:23.379833 18089 net.cpp:159] Memory required for data: 292006404
I1228 22:00:23.379835 18089 layer_factory.hpp:77] Creating layer inception_5b/pool
I1228 22:00:23.379839 18089 net.cpp:94] Creating Layer inception_5b/pool
I1228 22:00:23.379842 18089 net.cpp:435] inception_5b/pool <- inception_5a/output_inception_5a/output_fixed_0_split_3
I1228 22:00:23.379844 18089 net.cpp:409] inception_5b/pool -> inception_5b/pool
I1228 22:00:23.379865 18089 net.cpp:144] Setting up inception_5b/pool
I1228 22:00:23.379868 18089 net.cpp:151] Top shape: 1 832 10 20 (166400)
I1228 22:00:23.379870 18089 net.cpp:159] Memory required for data: 292672004
I1228 22:00:23.379873 18089 layer_factory.hpp:77] Creating layer inception_5b/pool_proj
I1228 22:00:23.379876 18089 net.cpp:94] Creating Layer inception_5b/pool_proj
I1228 22:00:23.379878 18089 net.cpp:435] inception_5b/pool_proj <- inception_5b/pool
I1228 22:00:23.379880 18089 net.cpp:409] inception_5b/pool_proj -> inception_5b/pool_proj
I1228 22:00:23.380503 18089 layer_factory.hpp:77] Creating layer inception_5b/pool_proj
I1228 22:00:23.381810 18089 net.cpp:144] Setting up inception_5b/pool_proj
I1228 22:00:23.381819 18089 net.cpp:151] Top shape: 1 128 10 20 (25600)
I1228 22:00:23.381821 18089 net.cpp:159] Memory required for data: 292774404
I1228 22:00:23.381826 18089 layer_factory.hpp:77] Creating layer inception_5b/relu_pool_proj
I1228 22:00:23.381829 18089 net.cpp:94] Creating Layer inception_5b/relu_pool_proj
I1228 22:00:23.381832 18089 net.cpp:435] inception_5b/relu_pool_proj <- inception_5b/pool_proj
I1228 22:00:23.381834 18089 net.cpp:396] inception_5b/relu_pool_proj -> inception_5b/pool_proj (in-place)
I1228 22:00:23.381839 18089 net.cpp:144] Setting up inception_5b/relu_pool_proj
I1228 22:00:23.381839 18089 net.cpp:151] Top shape: 1 128 10 20 (25600)
I1228 22:00:23.381842 18089 net.cpp:159] Memory required for data: 292876804
I1228 22:00:23.381844 18089 layer_factory.hpp:77] Creating layer inception_5b/output
I1228 22:00:23.381847 18089 net.cpp:94] Creating Layer inception_5b/output
I1228 22:00:23.381850 18089 net.cpp:435] inception_5b/output <- inception_5b/1x1
I1228 22:00:23.381851 18089 net.cpp:435] inception_5b/output <- inception_5b/3x3
I1228 22:00:23.381853 18089 net.cpp:435] inception_5b/output <- inception_5b/5x5
I1228 22:00:23.381855 18089 net.cpp:435] inception_5b/output <- inception_5b/pool_proj
I1228 22:00:23.381857 18089 net.cpp:409] inception_5b/output -> inception_5b/output
I1228 22:00:23.381871 18089 net.cpp:144] Setting up inception_5b/output
I1228 22:00:23.381872 18089 net.cpp:151] Top shape: 1 1024 10 20 (204800)
I1228 22:00:23.381875 18089 net.cpp:159] Memory required for data: 293696004
I1228 22:00:23.381876 18089 layer_factory.hpp:77] Creating layer inception_5b/output_fixed
I1228 22:00:23.381881 18089 net.cpp:94] Creating Layer inception_5b/output_fixed
I1228 22:00:23.381883 18089 net.cpp:435] inception_5b/output_fixed <- inception_5b/output
I1228 22:00:23.381886 18089 net.cpp:396] inception_5b/output_fixed -> inception_5b/output (in-place)
I1228 22:00:23.381903 18089 net.cpp:144] Setting up inception_5b/output_fixed
I1228 22:00:23.381911 18089 net.cpp:151] Top shape: 1 1024 10 20 (204800)
I1228 22:00:23.381913 18089 net.cpp:159] Memory required for data: 294515204
I1228 22:00:23.381916 18089 layer_factory.hpp:77] Creating layer p5
I1228 22:00:23.381919 18089 net.cpp:94] Creating Layer p5
I1228 22:00:23.381922 18089 net.cpp:435] p5 <- inception_5b/output
I1228 22:00:23.381923 18089 net.cpp:409] p5 -> p5
I1228 22:00:23.382207 18089 layer_factory.hpp:77] Creating layer p5
I1228 22:00:23.382589 18089 net.cpp:144] Setting up p5
I1228 22:00:23.382593 18089 net.cpp:151] Top shape: 1 32 10 20 (6400)
I1228 22:00:23.382596 18089 net.cpp:159] Memory required for data: 294540804
I1228 22:00:23.382601 18089 layer_factory.hpp:77] Creating layer p5_fixed
I1228 22:00:23.382603 18089 net.cpp:94] Creating Layer p5_fixed
I1228 22:00:23.382606 18089 net.cpp:435] p5_fixed <- p5
I1228 22:00:23.382608 18089 net.cpp:396] p5_fixed -> p5 (in-place)
I1228 22:00:23.382627 18089 net.cpp:144] Setting up p5_fixed
I1228 22:00:23.382630 18089 net.cpp:151] Top shape: 1 32 10 20 (6400)
I1228 22:00:23.382632 18089 net.cpp:159] Memory required for data: 294566404
I1228 22:00:23.382635 18089 layer_factory.hpp:77] Creating layer latlayer_4f
I1228 22:00:23.382638 18089 net.cpp:94] Creating Layer latlayer_4f
I1228 22:00:23.382642 18089 net.cpp:435] latlayer_4f <- inception_4e/output_inception_4e/output_fixed_0_split_1
I1228 22:00:23.382643 18089 net.cpp:409] latlayer_4f -> latlayer_4f
I1228 22:00:23.382889 18089 layer_factory.hpp:77] Creating layer latlayer_4f
I1228 22:00:23.383221 18089 net.cpp:144] Setting up latlayer_4f
I1228 22:00:23.383225 18089 net.cpp:151] Top shape: 1 32 20 40 (25600)
I1228 22:00:23.383229 18089 net.cpp:159] Memory required for data: 294668804
I1228 22:00:23.383231 18089 layer_factory.hpp:77] Creating layer latlayer_4f_fixed
I1228 22:00:23.383234 18089 net.cpp:94] Creating Layer latlayer_4f_fixed
I1228 22:00:23.383236 18089 net.cpp:435] latlayer_4f_fixed <- latlayer_4f
I1228 22:00:23.383239 18089 net.cpp:396] latlayer_4f_fixed -> latlayer_4f (in-place)
I1228 22:00:23.383260 18089 net.cpp:144] Setting up latlayer_4f_fixed
I1228 22:00:23.383261 18089 net.cpp:151] Top shape: 1 32 20 40 (25600)
I1228 22:00:23.383265 18089 net.cpp:159] Memory required for data: 294771204
I1228 22:00:23.383266 18089 layer_factory.hpp:77] Creating layer upsample_p5
I1228 22:00:23.383270 18089 net.cpp:94] Creating Layer upsample_p5
I1228 22:00:23.383272 18089 net.cpp:435] upsample_p5 <- p5
I1228 22:00:23.383275 18089 net.cpp:409] upsample_p5 -> upsample_p5
I1228 22:00:23.383442 18089 layer_factory.hpp:77] Creating layer upsample_p5
I1228 22:00:23.383668 18089 net.cpp:144] Setting up upsample_p5
I1228 22:00:23.383671 18089 net.cpp:151] Top shape: 1 32 20 40 (25600)
I1228 22:00:23.383674 18089 net.cpp:159] Memory required for data: 294873604
I1228 22:00:23.383677 18089 layer_factory.hpp:77] Creating layer upsample_p5_fixed
I1228 22:00:23.383680 18089 net.cpp:94] Creating Layer upsample_p5_fixed
I1228 22:00:23.383682 18089 net.cpp:435] upsample_p5_fixed <- upsample_p5
I1228 22:00:23.383684 18089 net.cpp:396] upsample_p5_fixed -> upsample_p5 (in-place)
I1228 22:00:23.383704 18089 net.cpp:144] Setting up upsample_p5_fixed
I1228 22:00:23.383706 18089 net.cpp:151] Top shape: 1 32 20 40 (25600)
I1228 22:00:23.383709 18089 net.cpp:159] Memory required for data: 294976004
I1228 22:00:23.383711 18089 layer_factory.hpp:77] Creating layer add_p4
I1228 22:00:23.383714 18089 net.cpp:94] Creating Layer add_p4
I1228 22:00:23.383716 18089 net.cpp:435] add_p4 <- upsample_p5
I1228 22:00:23.383718 18089 net.cpp:435] add_p4 <- latlayer_4f
I1228 22:00:23.383721 18089 net.cpp:409] add_p4 -> add_p4
I1228 22:00:23.383733 18089 net.cpp:144] Setting up add_p4
I1228 22:00:23.383734 18089 net.cpp:151] Top shape: 1 32 20 40 (25600)
I1228 22:00:23.383738 18089 net.cpp:159] Memory required for data: 295078404
I1228 22:00:23.383738 18089 layer_factory.hpp:77] Creating layer add_p4_fixed
I1228 22:00:23.383741 18089 net.cpp:94] Creating Layer add_p4_fixed
I1228 22:00:23.383744 18089 net.cpp:435] add_p4_fixed <- add_p4
I1228 22:00:23.383745 18089 net.cpp:396] add_p4_fixed -> add_p4 (in-place)
I1228 22:00:23.383762 18089 net.cpp:144] Setting up add_p4_fixed
I1228 22:00:23.383765 18089 net.cpp:151] Top shape: 1 32 20 40 (25600)
I1228 22:00:23.383767 18089 net.cpp:159] Memory required for data: 295180804
I1228 22:00:23.383769 18089 layer_factory.hpp:77] Creating layer toplayer_p4
I1228 22:00:23.383774 18089 net.cpp:94] Creating Layer toplayer_p4
I1228 22:00:23.383775 18089 net.cpp:435] toplayer_p4 <- add_p4
I1228 22:00:23.383777 18089 net.cpp:409] toplayer_p4 -> p4
I1228 22:00:23.383929 18089 layer_factory.hpp:77] Creating layer toplayer_p4
I1228 22:00:23.384161 18089 net.cpp:144] Setting up toplayer_p4
I1228 22:00:23.384166 18089 net.cpp:151] Top shape: 1 32 20 40 (25600)
I1228 22:00:23.384168 18089 net.cpp:159] Memory required for data: 295283204
I1228 22:00:23.384171 18089 layer_factory.hpp:77] Creating layer p4_fixed
I1228 22:00:23.384174 18089 net.cpp:94] Creating Layer p4_fixed
I1228 22:00:23.384176 18089 net.cpp:435] p4_fixed <- p4
I1228 22:00:23.384178 18089 net.cpp:396] p4_fixed -> p4 (in-place)
I1228 22:00:23.384202 18089 net.cpp:144] Setting up p4_fixed
I1228 22:00:23.384204 18089 net.cpp:151] Top shape: 1 32 20 40 (25600)
I1228 22:00:23.384207 18089 net.cpp:159] Memory required for data: 295385604
I1228 22:00:23.384209 18089 layer_factory.hpp:77] Creating layer latlayer_3d
I1228 22:00:23.384214 18089 net.cpp:94] Creating Layer latlayer_3d
I1228 22:00:23.384217 18089 net.cpp:435] latlayer_3d <- inception_3b/output_inception_3b/output_fixed_0_split_1
I1228 22:00:23.384220 18089 net.cpp:409] latlayer_3d -> latlayer_3d
I1228 22:00:23.384415 18089 layer_factory.hpp:77] Creating layer latlayer_3d
I1228 22:00:23.384706 18089 net.cpp:144] Setting up latlayer_3d
I1228 22:00:23.384711 18089 net.cpp:151] Top shape: 1 32 40 80 (102400)
I1228 22:00:23.384713 18089 net.cpp:159] Memory required for data: 295795204
I1228 22:00:23.384718 18089 layer_factory.hpp:77] Creating layer latlayer_3d_fixed
I1228 22:00:23.384722 18089 net.cpp:94] Creating Layer latlayer_3d_fixed
I1228 22:00:23.384725 18089 net.cpp:435] latlayer_3d_fixed <- latlayer_3d
I1228 22:00:23.384728 18089 net.cpp:396] latlayer_3d_fixed -> latlayer_3d (in-place)
I1228 22:00:23.384750 18089 net.cpp:144] Setting up latlayer_3d_fixed
I1228 22:00:23.384754 18089 net.cpp:151] Top shape: 1 32 40 80 (102400)
I1228 22:00:23.384757 18089 net.cpp:159] Memory required for data: 296204804
I1228 22:00:23.384758 18089 layer_factory.hpp:77] Creating layer upsample_p4
I1228 22:00:23.384763 18089 net.cpp:94] Creating Layer upsample_p4
I1228 22:00:23.384764 18089 net.cpp:435] upsample_p4 <- p4
I1228 22:00:23.384768 18089 net.cpp:409] upsample_p4 -> upsample_p4
I1228 22:00:23.384940 18089 layer_factory.hpp:77] Creating layer upsample_p4
I1228 22:00:23.385164 18089 net.cpp:144] Setting up upsample_p4
I1228 22:00:23.385167 18089 net.cpp:151] Top shape: 1 32 40 80 (102400)
I1228 22:00:23.385170 18089 net.cpp:159] Memory required for data: 296614404
I1228 22:00:23.385174 18089 layer_factory.hpp:77] Creating layer upsample_p4_fixed
I1228 22:00:23.385179 18089 net.cpp:94] Creating Layer upsample_p4_fixed
I1228 22:00:23.385181 18089 net.cpp:435] upsample_p4_fixed <- upsample_p4
I1228 22:00:23.385185 18089 net.cpp:396] upsample_p4_fixed -> upsample_p4 (in-place)
I1228 22:00:23.385205 18089 net.cpp:144] Setting up upsample_p4_fixed
I1228 22:00:23.385207 18089 net.cpp:151] Top shape: 1 32 40 80 (102400)
I1228 22:00:23.385210 18089 net.cpp:159] Memory required for data: 297024004
I1228 22:00:23.385213 18089 layer_factory.hpp:77] Creating layer add_p3
I1228 22:00:23.385216 18089 net.cpp:94] Creating Layer add_p3
I1228 22:00:23.385218 18089 net.cpp:435] add_p3 <- upsample_p4
I1228 22:00:23.385221 18089 net.cpp:435] add_p3 <- latlayer_3d
I1228 22:00:23.385224 18089 net.cpp:409] add_p3 -> add_p3
I1228 22:00:23.385237 18089 net.cpp:144] Setting up add_p3
I1228 22:00:23.385241 18089 net.cpp:151] Top shape: 1 32 40 80 (102400)
I1228 22:00:23.385243 18089 net.cpp:159] Memory required for data: 297433604
I1228 22:00:23.385246 18089 layer_factory.hpp:77] Creating layer add_p3_fixed
I1228 22:00:23.385249 18089 net.cpp:94] Creating Layer add_p3_fixed
I1228 22:00:23.385251 18089 net.cpp:435] add_p3_fixed <- add_p3
I1228 22:00:23.385253 18089 net.cpp:396] add_p3_fixed -> add_p3 (in-place)
I1228 22:00:23.385274 18089 net.cpp:144] Setting up add_p3_fixed
I1228 22:00:23.385277 18089 net.cpp:151] Top shape: 1 32 40 80 (102400)
I1228 22:00:23.385280 18089 net.cpp:159] Memory required for data: 297843204
I1228 22:00:23.385284 18089 layer_factory.hpp:77] Creating layer toplayer_p3
I1228 22:00:23.385289 18089 net.cpp:94] Creating Layer toplayer_p3
I1228 22:00:23.385291 18089 net.cpp:435] toplayer_p3 <- add_p3
I1228 22:00:23.385293 18089 net.cpp:409] toplayer_p3 -> p3
I1228 22:00:23.385443 18089 layer_factory.hpp:77] Creating layer toplayer_p3
I1228 22:00:23.385682 18089 net.cpp:144] Setting up toplayer_p3
I1228 22:00:23.385686 18089 net.cpp:151] Top shape: 1 32 40 80 (102400)
I1228 22:00:23.385689 18089 net.cpp:159] Memory required for data: 298252804
I1228 22:00:23.385692 18089 layer_factory.hpp:77] Creating layer p3_fixed
I1228 22:00:23.385696 18089 net.cpp:94] Creating Layer p3_fixed
I1228 22:00:23.385699 18089 net.cpp:435] p3_fixed <- p3
I1228 22:00:23.385702 18089 net.cpp:396] p3_fixed -> p3 (in-place)
I1228 22:00:23.385723 18089 net.cpp:144] Setting up p3_fixed
I1228 22:00:23.385726 18089 net.cpp:151] Top shape: 1 32 40 80 (102400)
I1228 22:00:23.385730 18089 net.cpp:159] Memory required for data: 298662404
I1228 22:00:23.385732 18089 layer_factory.hpp:77] Creating layer latlayer_2c
I1228 22:00:23.385737 18089 net.cpp:94] Creating Layer latlayer_2c
I1228 22:00:23.385740 18089 net.cpp:435] latlayer_2c <- conv2/3x3_conv2/3x3_fixed_0_split_1
I1228 22:00:23.385744 18089 net.cpp:409] latlayer_2c -> latlayer_2c
I1228 22:00:23.385877 18089 layer_factory.hpp:77] Creating layer latlayer_2c
I1228 22:00:23.386093 18089 net.cpp:144] Setting up latlayer_2c
I1228 22:00:23.386097 18089 net.cpp:151] Top shape: 1 32 80 160 (409600)
I1228 22:00:23.386101 18089 net.cpp:159] Memory required for data: 300300804
I1228 22:00:23.386106 18089 layer_factory.hpp:77] Creating layer latlayer_2c_fixed
I1228 22:00:23.386109 18089 net.cpp:94] Creating Layer latlayer_2c_fixed
I1228 22:00:23.386112 18089 net.cpp:435] latlayer_2c_fixed <- latlayer_2c
I1228 22:00:23.386116 18089 net.cpp:396] latlayer_2c_fixed -> latlayer_2c (in-place)
I1228 22:00:23.386137 18089 net.cpp:144] Setting up latlayer_2c_fixed
I1228 22:00:23.386139 18089 net.cpp:151] Top shape: 1 32 80 160 (409600)
I1228 22:00:23.386142 18089 net.cpp:159] Memory required for data: 301939204
I1228 22:00:23.386145 18089 layer_factory.hpp:77] Creating layer upsample_p3
I1228 22:00:23.386150 18089 net.cpp:94] Creating Layer upsample_p3
I1228 22:00:23.386152 18089 net.cpp:435] upsample_p3 <- p3
I1228 22:00:23.386154 18089 net.cpp:409] upsample_p3 -> upsample_p3
I1228 22:00:23.386318 18089 layer_factory.hpp:77] Creating layer upsample_p3
I1228 22:00:23.386528 18089 net.cpp:144] Setting up upsample_p3
I1228 22:00:23.386530 18089 net.cpp:151] Top shape: 1 32 80 160 (409600)
I1228 22:00:23.386533 18089 net.cpp:159] Memory required for data: 303577604
I1228 22:00:23.386535 18089 layer_factory.hpp:77] Creating layer upsample_p3_fixed
I1228 22:00:23.386539 18089 net.cpp:94] Creating Layer upsample_p3_fixed
I1228 22:00:23.386541 18089 net.cpp:435] upsample_p3_fixed <- upsample_p3
I1228 22:00:23.386544 18089 net.cpp:396] upsample_p3_fixed -> upsample_p3 (in-place)
I1228 22:00:23.386569 18089 net.cpp:144] Setting up upsample_p3_fixed
I1228 22:00:23.386572 18089 net.cpp:151] Top shape: 1 32 80 160 (409600)
I1228 22:00:23.386574 18089 net.cpp:159] Memory required for data: 305216004
I1228 22:00:23.386576 18089 layer_factory.hpp:77] Creating layer add_p2
I1228 22:00:23.386579 18089 net.cpp:94] Creating Layer add_p2
I1228 22:00:23.386582 18089 net.cpp:435] add_p2 <- upsample_p3
I1228 22:00:23.386585 18089 net.cpp:435] add_p2 <- latlayer_2c
I1228 22:00:23.386588 18089 net.cpp:409] add_p2 -> add_p2
I1228 22:00:23.386600 18089 net.cpp:144] Setting up add_p2
I1228 22:00:23.386601 18089 net.cpp:151] Top shape: 1 32 80 160 (409600)
I1228 22:00:23.386605 18089 net.cpp:159] Memory required for data: 306854404
I1228 22:00:23.386605 18089 layer_factory.hpp:77] Creating layer add_p2_fixed
I1228 22:00:23.386608 18089 net.cpp:94] Creating Layer add_p2_fixed
I1228 22:00:23.386611 18089 net.cpp:435] add_p2_fixed <- add_p2
I1228 22:00:23.386615 18089 net.cpp:396] add_p2_fixed -> add_p2 (in-place)
I1228 22:00:23.386634 18089 net.cpp:144] Setting up add_p2_fixed
I1228 22:00:23.386637 18089 net.cpp:151] Top shape: 1 32 80 160 (409600)
I1228 22:00:23.386641 18089 net.cpp:159] Memory required for data: 308492804
I1228 22:00:23.386643 18089 layer_factory.hpp:77] Creating layer toplayer_p2
I1228 22:00:23.386647 18089 net.cpp:94] Creating Layer toplayer_p2
I1228 22:00:23.386649 18089 net.cpp:435] toplayer_p2 <- add_p2
I1228 22:00:23.386653 18089 net.cpp:409] toplayer_p2 -> pred
I1228 22:00:23.386766 18089 layer_factory.hpp:77] Creating layer toplayer_p2
I1228 22:00:23.387060 18089 net.cpp:144] Setting up toplayer_p2
I1228 22:00:23.387063 18089 net.cpp:151] Top shape: 1 5 320 640 (1024000)
I1228 22:00:23.387066 18089 net.cpp:159] Memory required for data: 312588804
I1228 22:00:23.387069 18089 layer_factory.hpp:77] Creating layer pred_fixed
I1228 22:00:23.387073 18089 net.cpp:94] Creating Layer pred_fixed
I1228 22:00:23.387075 18089 net.cpp:435] pred_fixed <- pred
I1228 22:00:23.387079 18089 net.cpp:396] pred_fixed -> pred (in-place)
I1228 22:00:23.387096 18089 net.cpp:144] Setting up pred_fixed
I1228 22:00:23.387099 18089 net.cpp:151] Top shape: 1 5 320 640 (1024000)
I1228 22:00:23.387101 18089 net.cpp:159] Memory required for data: 316684804
I1228 22:00:23.387104 18089 layer_factory.hpp:77] Creating layer score
I1228 22:00:23.387107 18089 net.cpp:94] Creating Layer score
I1228 22:00:23.387109 18089 net.cpp:435] score <- pred
I1228 22:00:23.387113 18089 net.cpp:409] score -> score
I1228 22:00:23.387147 18089 net.cpp:144] Setting up score
I1228 22:00:23.387151 18089 net.cpp:151] Top shape: 1 5 320 640 (1024000)
I1228 22:00:23.387153 18089 net.cpp:159] Memory required for data: 320780804
I1228 22:00:23.387156 18089 net.cpp:222] score does not need backward computation.
I1228 22:00:23.387158 18089 net.cpp:222] pred_fixed does not need backward computation.
I1228 22:00:23.387161 18089 net.cpp:222] toplayer_p2 does not need backward computation.
I1228 22:00:23.387163 18089 net.cpp:222] add_p2_fixed does not need backward computation.
…
