…
  top: "label"
  include {
    phase: TRAIN
  }
  transform_param {
    scale: 1
    mean_value: 104
    mean_value: 117
    mean_value: 123
    resize_param {
      prob: 1
      resize_mode: WARP
      height: 320
      width: 640
    }
  }
  image_data_param {
    source: "/workspace/Vitis-AI-Tutorials/files/Segment/workspace/data/signate/signate_test_calibration.txt"
    batch_size: 1
    shuffle: true
    new_height: 320
    new_width: 640
    root_folder: "/workspace/Vitis-AI-Tutorials/files/Segment/workspace/data/signate/seg_test_images/"
  }
}
layer {
  name: "conv1/7x7_s2"
  type: "Convolution"
  bottom: "data"
  top: "conv1/7x7_s2_raw"
  param {
    lr_mult: 1
    decay_mult: 1
  }
  convolution_param {
    num_output: 64
    pad: 3
    kernel_size: 7
    stride: 2
    weight_filler {
      type: "msra"
    }
    bias_filler {
      type: "constant"
      value: 0.2
    }
  }
}
layer {
  name: "conv1/7x7_s2_BatchNorm"
  type: "BatchNorm"
  bottom: "conv1/7x7_s2_raw"
  top: "conv1/7x7_s2"
  param {
    lr_mult: 1
    decay_mult: 0
  }
  param {
    lr_mult: 1
    decay_mult: 0
  }
  param {
    lr_mult: 0
    decay_mult: 0
  }
  param {
    lr_mult: 0
    decay_mult: 0
  }
  batch_norm_param {
    use_global_stats: false
    eps: 1e-05
    scale_filler {
      type: "constant"
      value: 1
    }
    bias_filler {
      type: "constant"
      value: 0
    }
  }
}
layer {
  name: "conv1/relu_7x7"
  type: "ReLU"
  bottom: "conv1/7x7_s2"
  top: "conv1/7x7_s2"
}
layer {
  name: "pool1/3x3_s2"
  type: "Pooling"
  bottom: "conv1/7x7_s2"
  top: "pool1/3x3_s2"
  pooling_param {
    pool: MAX
    kernel_size: 3
    stride: 2
  }
}
layer {
  name: "conv2/3x3_reduce"
  type: "Convolution"
  bottom: "pool1/3x3_s2"
  top: "conv2/3x3_reduce_raw"
  param {
    lr_mult: 1
    decay_mult: 1
  }
  convolution_param {
    num_output: 64
    kernel_size: 1
    weight_filler {
      type: "msra"
    }
    bias_filler {
      type: "constant"
      value: 0.2
    }
  }
}
layer {
  name: "conv2/3x3_reduce_BatchNorm"
  type: "BatchNorm"
  bottom: "conv2/3x3_reduce_raw"
  top: "conv2/3x3_reduce"
  param {
    lr_mult: 1
    decay_mult: 0
  }
  param {
    lr_mult: 1
    decay_mult: 0
  }
  param {
    lr_mult: 0
    decay_mult: 0
  }
  param {
    lr_mult: 0
    decay_mult: 0
  }
  batch_norm_param {
    use_global_stats: false
    eps: 1e-05
    scale_filler {
      type: "constant"
      value: 1
    }
    bias_filler {
      type: "constant"
      value: 0
    }
  }
}
layer {
  name: "conv2/relu_3x3_reduce"
  type: "ReLU"
  bottom: "conv2/3x3_reduce"
  top: "conv2/3x3_reduce"
}
layer {
  name: "conv2/3x3"
  type: "Convolution"
  bottom: "conv2/3x3_reduce"
  top: "conv2/3x3_raw"
  param {
    lr_mult: 1
    decay_mult: 1
  }
  convolution_param {
    num_output: 192
    pad: 1
    kernel_size: 3
    weight_filler {
      type: "msra"
    }
    bias_filler {
      type: "constant"
      value: 0.2
    }
  }
}
layer {
  name: "conv2/3x3_BatchNorm"
  type: "BatchNorm"
  bottom: "conv2/3x3_raw"
  top: "conv2/3x3"
  param {
    lr_mult: 1
    decay_mult: 0
  }
  param {
    lr_mult: 1
    decay_mult: 0
  }
  param {
    lr_mult: 0
    decay_mult: 0
  }
  param {
    lr_mult: 0
    decay_mult: 0
  }
  batch_norm_param {
    use_global_stats: false
    eps: 1e-05
    scale_filler {
      type: "constant"
      value: 1
    }
    bias_filler {
      type: "constant"
      value: 0
    }
  }
}
layer {
  name: "conv2/relu_3x3"
  type: "ReLU"
  bottom: "conv2/3x3"
  top: "conv2/3x3"
}
layer {
  name: "pool2/3x3_s2"
  type: "Pooling"
  bottom: "conv2/3x3"
  top: "pool2/3x3_s2"
  pooling_param {
    pool: MAX
    kernel_size: 3
    stride: 2
  }
}
layer {
  name: "inception_3a/1x1"
  type: "Convolution"
  bottom: "pool2/3x3_s2"
  top: "inception_3a/1x1_raw"
  param {
    lr_mult: 1
    decay_mult: 1
  }
  convolution_param {
    num_output: 64
    kernel_size: 1
    weight_filler {
      type: "msra"
    }
    bias_filler {
      type: "constant"
      value: 0.2
    }
  }
}
layer {
  name: "inception_3a/1x1_BatchNorm"
  type: "BatchNorm"
  bottom: "inception_3a/1x1_raw"
  top: "inception_3a/1x1"
  param {
    lr_mult: 1
    decay_mult: 0
  }
  param {
    lr_mult: 1
    decay_mult: 0
  }
  param {
    lr_mult: 0
    decay_mult: 0
  }
  param {
    lr_mult: 0
    decay_mult: 0
  }
  batch_norm_param {
    use_global_stats: false
    eps: 1e-05
    scale_filler {
      type: "constant"
      value: 1
    }
    bias_filler {
      type: "constant"
      value: 0
    }
  }
}
layer {
  name: "inception_3a/relu_1x1"
  type: "ReLU"
  bottom: "inception_3a/1x1"
  top: "inception_3a/1x1"
}
layer {
  name: "inception_3a/3x3_reduce"
  type: "Convolution"
  bottom: "pool2/3x3_s2"
  top: "inception_3a/3x3_reduce_raw"
  param {
    lr_mult: 1
    decay_mult: 1
  }
  convolution_param {
    num_output: 96
    kernel_size: 1
    weight_filler {
      type: "msra"
    }
    bias_filler {
      type: "constant"
      value: 0.2
    }
  }
}
layer {
  name: "inception_3a/3x3_reduce_BatchNorm"
  type: "BatchNorm"
  bottom: "inception_3a/3x3_reduce_raw"
  top: "inception_3a/3x3_reduce"
  param {
    lr_mult: 1
    decay_mult: 0
  }
  param {
    lr_mult: 1
    decay_mult: 0
  }
  param {
    lr_mult: 0
    decay_mult: 0
  }
  param {
    lr_mult: 0
    decay_mult: 0
  }
  batch_norm_param {
    use_global_stats: false
    eps: 1e-05
    scale_filler {
      type: "constant"
      value: 1
    }
    bias_filler {
      type: "constant"
      value: 0
    }
  }
}
layer {
  name: "inception_3a/relu_3x3_reduce"
  type: "ReLU"
  bottom: "inception_3a/3x3_reduce"
  top: "inception_3a/3x3_reduce"
}
layer {
  name: "inception_3a/3x3"
  type: "Convolution"
  bottom: "inception_3a/3x3_reduce"
  top: "inception_3a/3x3_raw"
  param {
    lr_mult: 1
    decay_mult: 1
  }
  convolution_param {
    num_output: 128
    pad: 1
    kernel_size: 3
    weight_filler {
      type: "msra"
    }
    bias_filler {
      type: "constant"
      value: 0.2
    }
  }
}
layer {
  name: "inception_3a/3x3_BatchNorm"
  type: "BatchNorm"
  bottom: "inception_3a/3x3_raw"
  top: "inception_3a/3x3"
  param {
    lr_mult: 1
    decay_mult: 0
  }
  param {
    lr_mult: 1
    decay_mult: 0
  }
  param {
    lr_mult: 0
    decay_mult: 0
  }
  param {
    lr_mult: 0
    decay_mult: 0
  }
  batch_norm_param {
    use_global_stats: false
    eps: 1e-05
    scale_filler {
      type: "constant"
      value: 1
    }
    bias_filler {
      type: "constant"
      value: 0
    }
  }
}
layer {
  name: "inception_3a/relu_3x3"
  type: "ReLU"
  bottom: "inception_3a/3x3"
  top: "inception_3a/3x3"
}
layer {
  name: "inception_3a/5x5_reduce"
  type: "Convolution"
  bottom: "pool2/3x3_s2"
  top: "inception_3a/5x5_reduce_raw"
  param {
    lr_mult: 1
    decay_mult: 1
  }
  convolution_param {
    num_output: 16
    kernel_size: 1
    weight_filler {
      type: "msra"
    }
    bias_filler {
      type: "constant"
      value: 0.2
    }
  }
}
layer {
  name: "inception_3a/5x5_reduce_BatchNorm"
  type: "BatchNorm"
  bottom: "inception_3a/5x5_reduce_raw"
  top: "inception_3a/5x5_reduce"
  param {
    lr_mult: 1
    decay_mult: 0
  }
  param {
    lr_mult: 1
    decay_mult: 0
  }
  param {
    lr_mult: 0
    decay_mult: 0
  }
  param {
    lr_mult: 0
    decay_mult: 0
  }
  batch_norm_param {
    use_global_stats: false
    eps: 1e-05
    scale_filler {
      type: "constant"
      value: 1
    }
    bias_filler {
      type: "constant"
      value: 0
    }
  }
}
layer {
  name: "inception_3a/relu_5x5_reduce"
  type: "ReLU"
  bottom: "inception_3a/5x5_reduce"
  top: "inception_3a/5x5_reduce"
}
layer {
  name: "inception_3a/5x5"
  type: "Convolution"
  bottom: "inception_3a/5x5_reduce"
  top: "inception_3a/5x5_raw"
  param {
    lr_mult: 1
    decay_mult: 1
  }
  convolution_param {
    num_output: 32
    pad: 2
    kernel_size: 5
    weight_filler {
      type: "msra"
    }
    bias_filler {
      type: "constant"
      value: 0.2
    }
  }
}
layer {
  name: "inception_3a/5x5_BatchNorm"
  type: "BatchNorm"
  bottom: "inception_3a/5x5_raw"
  top: "inception_3a/5x5"
  param {
    lr_mult: 1
    decay_mult: 0
  }
  param {
    lr_mult: 1
    decay_mult: 0
  }
  param {
    lr_mult: 0
    decay_mult: 0
  }
  param {
    lr_mult: 0
    decay_mult: 0
  }
  batch_norm_param {
    use_global_stats: false
    eps: 1e-05
    scale_filler {
      type: "constant"
      value: 1
    }
    bias_filler {
      type: "constant"
      value: 0
    }
  }
}
layer {
  name: "inception_3a/relu_5x5"
  type: "ReLU"
  bottom: "inception_3a/5x5"
  top: "inception_3a/5x5"
}
layer {
  name: "inception_3a/pool"
  type: "Pooling"
  bottom: "pool2/3x3_s2"
  top: "inception_3a/pool"
  pooling_param {
    pool: MAX
    kernel_size: 3
    stride: 1
    pad: 1
  }
}
layer {
  name: "inception_3a/pool_proj"
  type: "Convolution"
  bottom: "inception_3a/pool"
  top: "inception_3a/pool_proj_raw"
  param {
    lr_mult: 1
    decay_mult: 1
  }
  convolution_param {
    num_output: 32
    kernel_size: 1
    weight_filler {
      type: "msra"
    }
    bias_filler {
      type: "constant"
      value: 0.2
    }
  }
}
layer {
  name: "inception_3a/pool_proj_BatchNorm"
  type: "BatchNorm"
  bottom: "inception_3a/pool_proj_raw"
  top: "inception_3a/pool_proj"
  param {
    lr_mult: 1
    decay_mult: 0
  }
  param {
    lr_mult: 1
    decay_mult: 0
  }
  param {
    lr_mult: 0
    decay_mult: 0
  }
  param {
    lr_mult: 0
    decay_mult: 0
  }
  batch_norm_param {
    use_global_stats: false
    eps: 1e-05
    scale_filler {
      type: "constant"
      value: 1
    }
    bias_filler {
      type: "constant"
      value: 0
    }
  }
}
layer {
  name: "inception_3a/relu_pool_proj"
  type: "ReLU"
  bottom: "inception_3a/pool_proj"
  top: "inception_3a/pool_proj"
}
layer {
  name: "inception_3a/output"
  type: "Concat"
  bottom: "inception_3a/1x1"
  bottom: "inception_3a/3x3"
  bottom: "inception_3a/5x5"
  bottom: "inception_3a/pool_proj"
  top: "inception_3a/output"
}
layer {
  name: "inception_3b/1x1"
  type: "Convolution"
  bottom: "inception_3a/output"
  top: "inception_3b/1x1_raw"
  param {
    lr_mult: 1
    decay_mult: 1
  }
  convolution_param {
    num_output: 128
    kernel_size: 1
    weight_filler {
      type: "msra"
    }
    bias_filler {
      type: "constant"
      value: 0.2
    }
  }
}
layer {
  name: "inception_3b/1x1_BatchNorm"
  type: "BatchNorm"
  bottom: "inception_3b/1x1_raw"
  top: "inception_3b/1x1"
  param {
    lr_mult: 1
    decay_mult: 0
  }
  param {
    lr_mult: 1
    decay_mult: 0
  }
  param {
    lr_mult: 0
    decay_mult: 0
  }
  param {
    lr_mult: 0
    decay_mult: 0
  }
  batch_norm_param {
    use_global_stats: false
    eps: 1e-05
    scale_filler {
      type: "constant"
      value: 1
    }
    bias_filler {
      type: "constant"
      value: 0
    }
  }
}
layer {
  name: "inception_3b/relu_1x1"
  type: "ReLU"
  bottom: "inception_3b/1x1"
  top: "inception_3b/1x1"
}
layer {
  name: "inception_3b/3x3_reduce"
  type: "Convolution"
  bottom: "inception_3a/output"
  top: "inception_3b/3x3_reduce_raw"
  param {
    lr_mult: 1
    decay_mult: 1
  }
  convolution_param {
    num_output: 128
    kernel_size: 1
    weight_filler {
      type: "msra"
    }
    bias_filler {
      type: "constant"
      value: 0.2
    }
  }
}
layer {
  name: "inception_3b/3x3_reduce_BatchNorm"
  type: "BatchNorm"
  bottom: "inception_3b/3x3_reduce_raw"
  top: "inception_3b/3x3_reduce"
  param {
    lr_mult: 1
    decay_mult: 0
  }
  param {
    lr_mult: 1
    decay_mult: 0
  }
  param {
    lr_mult: 0
    decay_mult: 0
  }
  param {
    lr_mult: 0
    decay_mult: 0
  }
  batch_norm_param {
    use_global_stats: false
    eps: 1e-05
    scale_filler {
      type: "constant"
      value: 1
    }
    bias_filler {
      type: "constant"
      value: 0
    }
  }
}
layer {
  name: "inception_3b/relu_3x3_reduce"
  type: "ReLU"
  bottom: "inception_3b/3x3_reduce"
  top: "inception_3b/3x3_reduce"
}
layer {
  name: "inception_3b/3x3"
  type: "Convolution"
  bottom: "inception_3b/3x3_reduce"
  top: "inception_3b/3x3_raw"
  param {
    lr_mult: 1
    decay_mult: 1
  }
  convolution_param {
    num_output: 192
    pad: 1
    kernel_size: 3
    weight_filler {
      type: "msra"
    }
    bias_filler {
      type: "constant"
      value: 0.2
    }
  }
}
layer {
  name: "inception_3b/3x3_BatchNorm"
  type: "BatchNorm"
  bottom: "inception_3b/3x3_raw"
  top: "inception_3b/3x3"
  param {
    lr_mult: 1
    decay_mult: 0
  }
  param {
    lr_mult: 1
    decay_mult: 0
  }
  param {
    lr_mult: 0
    decay_mult: 0
  }
  param {
    lr_mult: 0
    decay_mult: 0
  }
  batch_norm_param {
    use_global_stats: false
    eps: 1e-05
    scale_filler {
      type: "constant"
      value: 1
    }
    bias_filler {
      type: "constant"
      value: 0
    }
  }
}
layer {
  name: "inception_3b/relu_3x3"
  type: "ReLU"
  bottom: "inception_3b/3x3"
  top: "inception_3b/3x3"
}
layer {
  name: "inception_3b/5x5_reduce"
  type: "Convolution"
  bottom: "inception_3a/output"
  top: "inception_3b/5x5_reduce_raw"
  param {
    lr_mult: 1
    decay_mult: 1
  }
  convolution_param {
    num_output: 32
    kernel_size: 1
    weight_filler {
      type: "msra"
    }
    bias_filler {
      type: "constant"
      value: 0.2
    }
  }
}
layer {
  name: "inception_3b/5x5_reduce_BatchNorm"
  type: "BatchNorm"
  bottom: "inception_3b/5x5_reduce_raw"
  top: "inception_3b/5x5_reduce"
  param {
    lr_mult: 1
    decay_mult: 0
  }
  param {
    lr_mult: 1
    decay_mult: 0
  }
  param {
    lr_mult: 0
    decay_mult: 0
  }
  param {
    lr_mult: 0
    decay_mult: 0
  }
  batch_norm_param {
    use_global_stats: false
    eps: 1e-05
    scale_filler {
      type: "constant"
      value: 1
    }
    bias_filler {
      type: "constant"
      value: 0
    }
  }
}
layer {
  name: "inception_3b/relu_5x5_reduce"
  type: "ReLU"
  bottom: "inception_3b/5x5_reduce"
  top: "inception_3b/5x5_reduce"
}
layer {
  name: "inception_3b/5x5"
  type: "Convolution"
  bottom: "inception_3b/5x5_reduce"
  top: "inception_3b/5x5_raw"
  param {
    lr_mult: 1
    decay_mult: 1
  }
  convolution_param {
    num_output: 96
    pad: 2
    kernel_size: 5
    weight_filler {
      type: "msra"
    }
    bias_filler {
      type: "constant"
      value: 0.2
    }
  }
}
layer {
  name: "inception_3b/5x5_BatchNorm"
  type: "BatchNorm"
  bottom: "inception_3b/5x5_raw"
  top: "inception_3b/5x5"
  param {
    lr_mult: 1
    decay_mult: 0
  }
  param {
    lr_mult: 1
    decay_mult: 0
  }
  param {
    lr_mult: 0
    decay_mult: 0
  }
  param {
    lr_mult: 0
    decay_mult: 0
  }
  batch_norm_param {
    use_global_stats: false
    eps: 1e-05
    scale_filler {
      type: "constant"
      value: 1
    }
    bias_filler {
      type: "constant"
      value: 0
    }
  }
}
layer {
  name: "inception_3b/relu_5x5"
  type: "ReLU"
  bottom: "inception_3b/5x5"
  top: "inception_3b/5x5"
}
layer {
  name: "inception_3b/pool"
  type: "Pooling"
  bottom: "inception_3a/output"
  top: "inception_3b/pool"
  pooling_param {
    pool: MAX
    kernel_size: 3
    stride: 1
    pad: 1
  }
}
layer {
  name: "inception_3b/pool_proj"
  type: "Convolution"
  bottom: "inception_3b/pool"
  top: "inception_3b/pool_proj_raw"
  param {
    lr_mult: 1
    decay_mult: 1
  }
  convolution_param {
    num_output: 64
    kernel_size: 1
    weight_filler {
      type: "msra"
    }
    bias_filler {
      type: "constant"
      value: 0.2
    }
  }
}
layer {
  name: "inception_3b/pool_proj_BatchNorm"
  type: "BatchNorm"
  bottom: "inception_3b/pool_proj_raw"
  top: "inception_3b/pool_proj"
  param {
    lr_mult: 1
    decay_mult: 0
  }
  param {
    lr_mult: 1
    decay_mult: 0
  }
  param {
    lr_mult: 0
    decay_mult: 0
  }
  param {
    lr_mult: 0
    decay_mult: 0
  }
  batch_norm_param {
    use_global_stats: false
    eps: 1e-05
    scale_filler {
      type: "constant"
      value: 1
    }
    bias_filler {
      type: "constant"
      value: 0
    }
  }
}
layer {
  name: "inception_3b/relu_pool_proj"
  type: "ReLU"
  bottom: "inception_3b/pool_proj"
  top: "inception_3b/pool_proj"
}
layer {
  name: "inception_3b/output"
  type: "Concat"
  bottom: "inception_3b/1x1"
  bottom: "inception_3b/3x3"
  bottom: "inception_3b/5x5"
  bottom: "inception_3b/pool_proj"
  top: "inception_3b/output"
}
layer {
  name: "pool3/3x3_s2"
  type: "Pooling"
  bottom: "inception_3b/output"
  top: "pool3/3x3_s2"
  pooling_param {
    pool: MAX
    kernel_size: 3
    stride: 2
  }
}
layer {
  name: "inception_4a/1x1"
  type: "Convolution"
  bottom: "pool3/3x3_s2"
  top: "inception_4a/1x1_raw"
  param {
    lr_mult: 1
    decay_mult: 1
  }
  convolution_param {
    num_output: 192
    kernel_size: 1
    weight_filler {
      type: "msra"
    }
    bias_filler {
      type: "constant"
      value: 0.2
    }
  }
}
layer {
  name: "inception_4a/1x1_BatchNorm"
  type: "BatchNorm"
  bottom: "inception_4a/1x1_raw"
  top: "inception_4a/1x1"
  param {
    lr_mult: 1
    decay_mult: 0
  }
  param {
    lr_mult: 1
    decay_mult: 0
  }
  param {
    lr_mult: 0
    decay_mult: 0
  }
  param {
    lr_mult: 0
    decay_mult: 0
  }
  batch_norm_param {
    use_global_stats: false
    eps: 1e-05
    scale_filler {
      type: "constant"
      value: 1
    }
    bias_filler {
      type: "constant"
      value: 0
    }
  }
}
layer {
  name: "inception_4a/relu_1x1"
  type: "ReLU"
  bottom: "inception_4a/1x1"
  top: "inception_4a/1x1"
}
layer {
  name: "inception_4a/3x3_reduce"
  type: "Convolution"
  bottom: "pool3/3x3_s2"
  top: "inception_4a/3x3_reduce_raw"
  param {
    lr_mult: 1
    decay_mult: 1
  }
  convolution_param {
    num_output: 96
    kernel_size: 1
    weight_filler {
      type: "msra"
    }
    bias_filler {
      type: "constant"
      value: 0.2
    }
  }
}
layer {
  name: "inception_4a/3x3_reduce_BatchNorm"
  type: "BatchNorm"
  bottom: "inception_4a/3x3_reduce_raw"
  top: "inception_4a/3x3_reduce"
  param {
    lr_mult: 1
    decay_mult: 0
  }
  param {
    lr_mult: 1
    decay_mult: 0
  }
  param {
    lr_mult: 0
    decay_mult: 0
  }
  param {
    lr_mult: 0
    decay_mult: 0
  }
  batch_norm_param {
    use_global_stats: false
    eps: 1e-05
    scale_filler {
      type: "constant"
      value: 1
    }
    bias_filler {
      type: "constant"
      value: 0
    }
  }
}
layer {
  name: "inception_4a/relu_3x3_reduce"
  type: "ReLU"
  bottom: "inception_4a/3x3_reduce"
  top: "inception_4a/3x3_reduce"
}
layer {
  name: "inception_4a/3x3"
  type: "Convolution"
  bottom: "inception_4a/3x3_reduce"
  top: "inception_4a/3x3_raw"
  param {
    lr_mult: 1
    decay_mult: 1
  }
  convolution_param {
    num_output: 208
    pad: 1
    kernel_size: 3
    weight_filler {
      type: "msra"
    }
    bias_filler {
      type: "constant"
      value: 0.2
    }
  }
}
layer {
  name: "inception_4a/3x3_BatchNorm"
  type: "BatchNorm"
  bottom: "inception_4a/3x3_raw"
  top: "inception_4a/3x3"
  param {
    lr_mult: 1
    decay_mult: 0
  }
  param {
    lr_mult: 1
    decay_mult: 0
  }
  param {
    lr_mult: 0
    decay_mult: 0
  }
  param {
    lr_mult: 0
    decay_mult: 0
  }
  batch_norm_param {
    use_global_stats: false
    eps: 1e-05
    scale_filler {
      type: "constant"
      value: 1
    }
    bias_filler {
      type: "constant"
      value: 0
    }
  }
}
layer {
  name: "inception_4a/relu_3x3"
  type: "ReLU"
  bottom: "inception_4a/3x3"
  top: "inception_4a/3x3"
}
layer {
  name: "inception_4a/5x5_reduce"
  type: "Convolution"
  bottom: "pool3/3x3_s2"
  top: "inception_4a/5x5_reduce_raw"
  param {
    lr_mult: 1
    decay_mult: 1
  }
  convolution_param {
    num_output: 16
    kernel_size: 1
    weight_filler {
      type: "msra"
    }
    bias_filler {
      type: "constant"
      value: 0.2
    }
  }
}
layer {
  name: "inception_4a/5x5_reduce_BatchNorm"
  type: "BatchNorm"
  bottom: "inception_4a/5x5_reduce_raw"
  top: "inception_4a/5x5_reduce"
  param {
    lr_mult: 1
    decay_mult: 0
  }
  param {
    lr_mult: 1
    decay_mult: 0
  }
  param {
    lr_mult: 0
    decay_mult: 0
  }
  param {
    lr_mult: 0
    decay_mult: 0
  }
  batch_norm_param {
    use_global_stats: false
    eps: 1e-05
    scale_filler {
      type: "constant"
      value: 1
    }
    bias_filler {
      type: "constant"
      value: 0
    }
  }
}
layer {
  name: "inception_4a/relu_5x5_reduce"
  type: "ReLU"
  bottom: "inception_4a/5x5_reduce"
  top: "inception_4a/5x5_reduce"
}
layer {
  name: "inception_4a/5x5"
  type: "Convolution"
  bottom: "inception_4a/5x5_reduce"
  top: "inception_4a/5x5_raw"
  param {
    lr_mult: 1
    decay_mult: 1
  }
  convolution_param {
    num_output: 48
    pad: 2
    kernel_size: 5
    weight_filler {
      type: "msra"
    }
    bias_filler {
      type: "constant"
      value: 0.2
    }
  }
}
layer {
  name: "inception_4a/5x5_BatchNorm"
  type: "BatchNorm"
  bottom: "inception_4a/5x5_raw"
  top: "inception_4a/5x5"
  param {
    lr_mult: 1
    decay_mult: 0
  }
  param {
    lr_mult: 1
    decay_mult: 0
  }
  param {
    lr_mult: 0
    decay_mult: 0
  }
  param {
    lr_mult: 0
    decay_mult: 0
  }
  batch_norm_param {
    use_global_stats: false
    eps: 1e-05
    scale_filler {
      type: "constant"
      value: 1
    }
    bias_filler {
      type: "constant"
      value: 0
    }
  }
}
layer {
  name: "inception_4a/relu_5x5"
  type: "ReLU"
  bottom: "inception_4a/5x5"
  top: "inception_4a/5x5"
}
layer {
  name: "inception_4a/pool"
  type: "Pooling"
  bottom: "pool3/3x3_s2"
  top: "inception_4a/pool"
  pooling_param {
    pool: MAX
    kernel_size: 3
    stride: 1
    pad: 1
  }
}
layer {
  name: "inception_4a/pool_proj"
  type: "Convolution"
  bottom: "inception_4a/pool"
  top: "inception_4a/pool_proj_raw"
  param {
    lr_mult: 1
    decay_mult: 1
  }
  convolution_param {
    num_output: 64
    kernel_size: 1
    weight_filler {
      type: "msra"
    }
    bias_filler {
      type: "constant"
      value: 0.2
    }
  }
}
layer {
  name: "inception_4a/pool_proj_BatchNorm"
  type: "BatchNorm"
  bottom: "inception_4a/pool_proj_raw"
  top: "inception_4a/pool_proj"
  param {
    lr_mult: 1
    decay_mult: 0
  }
  param {
    lr_mult: 1
    decay_mult: 0
  }
  param {
    lr_mult: 0
    decay_mult: 0
  }
  param {
    lr_mult: 0
    decay_mult: 0
  }
  batch_norm_param {
    use_global_stats: false
    eps: 1e-05
    scale_filler {
      type: "constant"
      value: 1
    }
    bias_filler {
      type: "constant"
      value: 0
    }
  }
}
layer {
  name: "inception_4a/relu_pool_proj"
  type: "ReLU"
  bottom: "inception_4a/pool_proj"
  top: "inception_4a/pool_proj"
}
layer {
  name: "inception_4a/output"
  type: "Concat"
  bottom: "inception_4a/1x1"
  bottom: "inception_4a/3x3"
  bottom: "inception_4a/5x5"
  bottom: "inception_4a/pool_proj"
  top: "inception_4a/output"
}
layer {
  name: "inception_4b/1x1"
  type: "Convolution"
  bottom: "inception_4a/output"
  top: "inception_4b/1x1_raw"
  param {
    lr_mult: 1
    decay_mult: 1
  }
  convolution_param {
    num_output: 160
    kernel_size: 1
    weight_filler {
      type: "msra"
    }
    bias_filler {
      type: "constant"
      value: 0.2
    }
  }
}
layer {
  name: "inception_4b/1x1_BatchNorm"
  type: "BatchNorm"
  bottom: "inception_4b/1x1_raw"
  top: "inception_4b/1x1"
  param {
    lr_mult: 1
    decay_mult: 0
  }
  param {
    lr_mult: 1
    decay_mult: 0
  }
  param {
    lr_mult: 0
    decay_mult: 0
  }
  param {
    lr_mult: 0
    decay_mult: 0
  }
  batch_norm_param {
    use_global_stats: false
    eps: 1e-05
    scale_filler {
      type: "constant"
      value: 1
    }
    bias_filler {
      type: "constant"
      value: 0
    }
  }
}
layer {
  name: "inception_4b/relu_1x1"
  type: "ReLU"
  bottom: "inception_4b/1x1"
  top: "inception_4b/1x1"
}
layer {
  name: "inception_4b/3x3_reduce"
  type: "Convolution"
  bottom: "inception_4a/output"
  top: "inception_4b/3x3_reduce_raw"
  param {
    lr_mult: 1
    decay_mult: 1
  }
  convolution_param {
    num_output: 112
    kernel_size: 1
    weight_filler {
      type: "msra"
    }
    bias_filler {
      type: "constant"
      value: 0.2
    }
  }
}
layer {
  name: "inception_4b/3x3_reduce_BatchNorm"
  type: "BatchNorm"
  bottom: "inception_4b/3x3_reduce_raw"
  top: "inception_4b/3x3_reduce"
  param {
    lr_mult: 1
    decay_mult: 0
  }
  param {
    lr_mult: 1
    decay_mult: 0
  }
  param {
    lr_mult: 0
    decay_mult: 0
  }
  param {
    lr_mult: 0
    decay_mult: 0
  }
  batch_norm_param {
    use_global_stats: false
    eps: 1e-05
    scale_filler {
      type: "constant"
      value: 1
    }
    bias_filler {
      type: "constant"
      value: 0
    }
  }
}
layer {
  name: "inception_4b/relu_3x3_reduce"
  type: "ReLU"
  bottom: "inception_4b/3x3_reduce"
  top: "inception_4b/3x3_reduce"
}
layer {
  name: "inception_4b/3x3"
  type: "Convolution"
  bottom: "inception_4b/3x3_reduce"
  top: "inception_4b/3x3_raw"
  param {
    lr_mult: 1
    decay_mult: 1
  }
  convolution_param {
    num_output: 224
    pad: 1
    kernel_size: 3
    weight_filler {
      type: "msra"
    }
    bias_filler {
      type: "constant"
      value: 0.2
    }
  }
}
layer {
  name: "inception_4b/3x3_BatchNorm"
  type: "BatchNorm"
  bottom: "inception_4b/3x3_raw"
  top: "inception_4b/3x3"
  param {
    lr_mult: 1
    decay_mult: 0
  }
  param {
    lr_mult: 1
    decay_mult: 0
  }
  param {
    lr_mult: 0
    decay_mult: 0
  }
  param {
    lr_mult: 0
    decay_mult: 0
  }
  batch_norm_param {
    use_global_stats: false
    eps: 1e-05
    scale_filler {
      type: "constant"
      value: 1
    }
    bias_filler {
      type: "constant"
      value: 0
    }
  }
}
layer {
  name: "inception_4b/relu_3x3"
  type: "ReLU"
  bottom: "inception_4b/3x3"
  top: "inception_4b/3x3"
}
layer {
  name: "inception_4b/5x5_reduce"
  type: "Convolution"
  bottom: "inception_4a/output"
  top: "inception_4b/5x5_reduce_raw"
  param {
    lr_mult: 1
    decay_mult: 1
  }
  convolution_param {
    num_output: 24
    kernel_size: 1
    weight_filler {
      type: "msra"
    }
    bias_filler {
      type: "constant"
      value: 0.2
    }
  }
}
layer {
  name: "inception_4b/5x5_reduce_BatchNorm"
  type: "BatchNorm"
  bottom: "inception_4b/5x5_reduce_raw"
  top: "inception_4b/5x5_reduce"
  param {
    lr_mult: 1
    decay_mult: 0
  }
  param {
    lr_mult: 1
    decay_mult: 0
  }
  param {
    lr_mult: 0
    decay_mult: 0
  }
  param {
    lr_mult: 0
    decay_mult: 0
  }
  batch_norm_param {
    use_global_stats: false
    eps: 1e-05
    scale_filler {
      type: "constant"
      value: 1
    }
    bias_filler {
      type: "constant"
      value: 0
    }
  }
}
layer {
  name: "inception_4b/relu_5x5_reduce"
  type: "ReLU"
  bottom: "inception_4b/5x5_reduce"
  top: "inception_4b/5x5_reduce"
}
layer {
  name: "inception_4b/5x5"
  type: "Convolution"
  bottom: "inception_4b/5x5_reduce"
  top: "inception_4b/5x5_raw"
  param {
    lr_mult: 1
    decay_mult: 1
  }
  convolution_param {
    num_output: 64
    pad: 2
    kernel_size: 5
    weight_filler {
      type: "msra"
    }
    bias_filler {
      type: "constant"
      value: 0.2
    }
  }
}
layer {
  name: "inception_4b/5x5_BatchNorm"
  type: "BatchNorm"
  bottom: "inception_4b/5x5_raw"
  top: "inception_4b/5x5"
  param {
    lr_mult: 1
    decay_mult: 0
  }
  param {
    lr_mult: 1
    decay_mult: 0
  }
  param {
    lr_mult: 0
    decay_mult: 0
  }
  param {
    lr_mult: 0
    decay_mult: 0
  }
  batch_norm_param {
    use_global_stats: false
    eps: 1e-05
    scale_filler {
      type: "constant"
      value: 1
    }
    bias_filler {
      type: "constant"
      value: 0
    }
  }
}
layer {
  name: "inception_4b/relu_5x5"
  type: "ReLU"
  bottom: "inception_4b/5x5"
  top: "inception_4b/5x5"
}
layer {
  name: "inception_4b/pool"
  type: "Pooling"
  bottom: "inception_4a/output"
  top: "inception_4b/pool"
  pooling_param {
    pool: MAX
    kernel_size: 3
    stride: 1
    pad: 1
  }
}
layer {
  name: "inception_4b/pool_proj"
  type: "Convolution"
  bottom: "inception_4b/pool"
  top: "inception_4b/pool_proj_raw"
  param {
    lr_mult: 1
    decay_mult: 1
  }
  convolution_param {
    num_output: 64
    kernel_size: 1
    weight_filler {
      type: "msra"
    }
    bias_filler {
      type: "constant"
      value: 0.2
    }
  }
}
layer {
  name: "inception_4b/pool_proj_BatchNorm"
  type: "BatchNorm"
  bottom: "inception_4b/pool_proj_raw"
  top: "inception_4b/pool_proj"
  param {
    lr_mult: 1
    decay_mult: 0
  }
  param {
    lr_mult: 1
    decay_mult: 0
  }
  param {
    lr_mult: 0
    decay_mult: 0
  }
  param {
    lr_mult: 0
    decay_mult: 0
  }
  batch_norm_param {
    use_global_stats: false
    eps: 1e-05
    scale_filler {
      type: "constant"
      value: 1
    }
    bias_filler {
      type: "constant"
      value: 0
    }
  }
}
layer {
  name: "inception_4b/relu_pool_proj"
  type: "ReLU"
  bottom: "inception_4b/pool_proj"
  top: "inception_4b/pool_proj"
}
layer {
  name: "inception_4b/output"
  type: "Concat"
  bottom: "inception_4b/1x1"
  bottom: "inception_4b/3x3"
  bottom: "inception_4b/5x5"
  bottom: "inception_4b/pool_proj"
  top: "inception_4b/output"
}
layer {
  name: "inception_4c/1x1"
  type: "Convolution"
  bottom: "inception_4b/output"
  top: "inception_4c/1x1_raw"
  param {
    lr_mult: 1
    decay_mult: 1
  }
  convolution_param {
    num_output: 128
    kernel_size: 1
    weight_filler {
      type: "msra"
    }
    bias_filler {
      type: "constant"
      value: 0.2
    }
  }
}
layer {
  name: "inception_4c/1x1_BatchNorm"
  type: "BatchNorm"
  bottom: "inception_4c/1x1_raw"
  top: "inception_4c/1x1"
  param {
    lr_mult: 1
    decay_mult: 0
  }
  param {
    lr_mult: 1
    decay_mult: 0
  }
  param {
    lr_mult: 0
    decay_mult: 0
  }
  param {
   
I1229 02:30:40.136955  6650 layer_factory.hpp:77] Creating layer data
I1229 02:30:40.136976  6650 net.cpp:94] Creating Layer data
I1229 02:30:40.136979  6650 net.cpp:409] data -> data
I1229 02:30:40.136992  6650 net.cpp:409] data -> label
I1229 02:30:40.137001  6650 image_data_layer.cpp:41] Opening file /workspace/Vitis-AI-Tutorials/files/Segment/workspace/data/signate/signate_test_calibration.txt
I1229 02:30:40.137207  6650 image_data_layer.cpp:51] Shuffling data
I1229 02:30:40.137323  6650 image_data_layer.cpp:56] A total of 649 images.
I1229 02:30:40.167976  6650 image_data_layer.cpp:84] output data size: 1,3,320,640
I1229 02:30:40.180042  6650 internal_thread.cpp:27] Starting internal thread(s) on GPU 0
I1229 02:30:40.180150  6650 net.cpp:144] Setting up data
I1229 02:30:40.180156  6650 net.cpp:151] Top shape: 1 3 320 640 (614400)
I1229 02:30:40.180166  6650 net.cpp:151] Top shape: 1 (1)
I1229 02:30:40.180173  6650 net.cpp:159] Memory required for data: 2457604
I1229 02:30:40.180177  6650 layer_factory.hpp:77] Creating layer conv1/7x7_s2
I1229 02:30:40.180199  6650 net.cpp:94] Creating Layer conv1/7x7_s2
I1229 02:30:40.180205  6650 net.cpp:435] conv1/7x7_s2 <- data
I1229 02:30:40.180212  6650 net.cpp:409] conv1/7x7_s2 -> conv1/7x7_s2_raw
I1229 02:30:40.180816  6650 net.cpp:144] Setting up conv1/7x7_s2
I1229 02:30:40.180822  6650 net.cpp:151] Top shape: 1 64 160 320 (3276800)
I1229 02:30:40.180827  6650 net.cpp:159] Memory required for data: 15564804
I1229 02:30:40.180846  6650 layer_factory.hpp:77] Creating layer conv1/7x7_s2_BatchNorm
I1229 02:30:40.180853  6650 net.cpp:94] Creating Layer conv1/7x7_s2_BatchNorm
I1229 02:30:40.180856  6650 net.cpp:435] conv1/7x7_s2_BatchNorm <- conv1/7x7_s2_raw
I1229 02:30:40.180860  6650 net.cpp:409] conv1/7x7_s2_BatchNorm -> conv1/7x7_s2
I1229 02:30:40.181419  6650 net.cpp:144] Setting up conv1/7x7_s2_BatchNorm
I1229 02:30:40.181424  6650 net.cpp:151] Top shape: 1 64 160 320 (3276800)
I1229 02:30:40.181427  6650 net.cpp:159] Memory required for data: 28672004
I1229 02:30:40.181435  6650 layer_factory.hpp:77] Creating layer conv1/relu_7x7
I1229 02:30:40.181439  6650 net.cpp:94] Creating Layer conv1/relu_7x7
I1229 02:30:40.181442  6650 net.cpp:435] conv1/relu_7x7 <- conv1/7x7_s2
I1229 02:30:40.181443  6650 net.cpp:396] conv1/relu_7x7 -> conv1/7x7_s2 (in-place)
I1229 02:30:40.181452  6650 net.cpp:144] Setting up conv1/relu_7x7
I1229 02:30:40.181453  6650 net.cpp:151] Top shape: 1 64 160 320 (3276800)
I1229 02:30:40.181455  6650 net.cpp:159] Memory required for data: 41779204
I1229 02:30:40.181457  6650 layer_factory.hpp:77] Creating layer pool1/3x3_s2
I1229 02:30:40.181461  6650 net.cpp:94] Creating Layer pool1/3x3_s2
I1229 02:30:40.181463  6650 net.cpp:435] pool1/3x3_s2 <- conv1/7x7_s2
I1229 02:30:40.181465  6650 net.cpp:409] pool1/3x3_s2 -> pool1/3x3_s2
I1229 02:30:40.181499  6650 net.cpp:144] Setting up pool1/3x3_s2
I1229 02:30:40.181502  6650 net.cpp:151] Top shape: 1 64 80 160 (819200)
I1229 02:30:40.181504  6650 net.cpp:159] Memory required for data: 45056004
I1229 02:30:40.181506  6650 layer_factory.hpp:77] Creating layer conv2/3x3_reduce
I1229 02:30:40.181511  6650 net.cpp:94] Creating Layer conv2/3x3_reduce
I1229 02:30:40.181514  6650 net.cpp:435] conv2/3x3_reduce <- pool1/3x3_s2
I1229 02:30:40.181516  6650 net.cpp:409] conv2/3x3_reduce -> conv2/3x3_reduce_raw
I1229 02:30:40.181723  6650 net.cpp:144] Setting up conv2/3x3_reduce
I1229 02:30:40.181727  6650 net.cpp:151] Top shape: 1 64 80 160 (819200)
I1229 02:30:40.181730  6650 net.cpp:159] Memory required for data: 48332804
I1229 02:30:40.181735  6650 layer_factory.hpp:77] Creating layer conv2/3x3_reduce_BatchNorm
I1229 02:30:40.181738  6650 net.cpp:94] Creating Layer conv2/3x3_reduce_BatchNorm
I1229 02:30:40.181740  6650 net.cpp:435] conv2/3x3_reduce_BatchNorm <- conv2/3x3_reduce_raw
I1229 02:30:40.181743  6650 net.cpp:409] conv2/3x3_reduce_BatchNorm -> conv2/3x3_reduce
I1229 02:30:40.182137  6650 net.cpp:144] Setting up conv2/3x3_reduce_BatchNorm
I1229 02:30:40.182140  6650 net.cpp:151] Top shape: 1 64 80 160 (819200)
I1229 02:30:40.182143  6650 net.cpp:159] Memory required for data: 51609604
I1229 02:30:40.182148  6650 layer_factory.hpp:77] Creating layer conv2/relu_3x3_reduce
I1229 02:30:40.182152  6650 net.cpp:94] Creating Layer conv2/relu_3x3_reduce
I1229 02:30:40.182153  6650 net.cpp:435] conv2/relu_3x3_reduce <- conv2/3x3_reduce
I1229 02:30:40.182155  6650 net.cpp:396] conv2/relu_3x3_reduce -> conv2/3x3_reduce (in-place)
I1229 02:30:40.182159  6650 net.cpp:144] Setting up conv2/relu_3x3_reduce
I1229 02:30:40.182160  6650 net.cpp:151] Top shape: 1 64 80 160 (819200)
I1229 02:30:40.182163  6650 net.cpp:159] Memory required for data: 54886404
I1229 02:30:40.182164  6650 layer_factory.hpp:77] Creating layer conv2/3x3
I1229 02:30:40.182169  6650 net.cpp:94] Creating Layer conv2/3x3
I1229 02:30:40.182171  6650 net.cpp:435] conv2/3x3 <- conv2/3x3_reduce
I1229 02:30:40.182173  6650 net.cpp:409] conv2/3x3 -> conv2/3x3_raw
I1229 02:30:40.182925  6650 net.cpp:144] Setting up conv2/3x3
I1229 02:30:40.182930  6650 net.cpp:151] Top shape: 1 192 80 160 (2457600)
I1229 02:30:40.182934  6650 net.cpp:159] Memory required for data: 64716804
I1229 02:30:40.182937  6650 layer_factory.hpp:77] Creating layer conv2/3x3_BatchNorm
I1229 02:30:40.182941  6650 net.cpp:94] Creating Layer conv2/3x3_BatchNorm
I1229 02:30:40.182945  6650 net.cpp:435] conv2/3x3_BatchNorm <- conv2/3x3_raw
I1229 02:30:40.182946  6650 net.cpp:409] conv2/3x3_BatchNorm -> conv2/3x3
I1229 02:30:40.183300  6650 net.cpp:144] Setting up conv2/3x3_BatchNorm
I1229 02:30:40.183303  6650 net.cpp:151] Top shape: 1 192 80 160 (2457600)
I1229 02:30:40.183306  6650 net.cpp:159] Memory required for data: 74547204
I1229 02:30:40.183312  6650 layer_factory.hpp:77] Creating layer conv2/relu_3x3
I1229 02:30:40.183316  6650 net.cpp:94] Creating Layer conv2/relu_3x3
I1229 02:30:40.183318  6650 net.cpp:435] conv2/relu_3x3 <- conv2/3x3
I1229 02:30:40.183320  6650 net.cpp:396] conv2/relu_3x3 -> conv2/3x3 (in-place)
I1229 02:30:40.183323  6650 net.cpp:144] Setting up conv2/relu_3x3
I1229 02:30:40.183326  6650 net.cpp:151] Top shape: 1 192 80 160 (2457600)
I1229 02:30:40.183327  6650 net.cpp:159] Memory required for data: 84377604
I1229 02:30:40.183329  6650 layer_factory.hpp:77] Creating layer conv2/3x3_conv2/relu_3x3_0_split
I1229 02:30:40.183336  6650 net.cpp:94] Creating Layer conv2/3x3_conv2/relu_3x3_0_split
I1229 02:30:40.183338  6650 net.cpp:435] conv2/3x3_conv2/relu_3x3_0_split <- conv2/3x3
I1229 02:30:40.183341  6650 net.cpp:409] conv2/3x3_conv2/relu_3x3_0_split -> conv2/3x3_conv2/relu_3x3_0_split_0
I1229 02:30:40.183343  6650 net.cpp:409] conv2/3x3_conv2/relu_3x3_0_split -> conv2/3x3_conv2/relu_3x3_0_split_1
I1229 02:30:40.183362  6650 net.cpp:144] Setting up conv2/3x3_conv2/relu_3x3_0_split
I1229 02:30:40.183364  6650 net.cpp:151] Top shape: 1 192 80 160 (2457600)
I1229 02:30:40.183367  6650 net.cpp:151] Top shape: 1 192 80 160 (2457600)
I1229 02:30:40.183369  6650 net.cpp:159] Memory required for data: 104038404
I1229 02:30:40.183370  6650 layer_factory.hpp:77] Creating layer pool2/3x3_s2
I1229 02:30:40.183373  6650 net.cpp:94] Creating Layer pool2/3x3_s2
I1229 02:30:40.183375  6650 net.cpp:435] pool2/3x3_s2 <- conv2/3x3_conv2/relu_3x3_0_split_0
I1229 02:30:40.183378  6650 net.cpp:409] pool2/3x3_s2 -> pool2/3x3_s2
I1229 02:30:40.183393  6650 net.cpp:144] Setting up pool2/3x3_s2
I1229 02:30:40.183398  6650 net.cpp:151] Top shape: 1 192 40 80 (614400)
I1229 02:30:40.183400  6650 net.cpp:159] Memory required for data: 106496004
I1229 02:30:40.183403  6650 layer_factory.hpp:77] Creating layer pool2/3x3_s2_pool2/3x3_s2_0_split
I1229 02:30:40.183405  6650 net.cpp:94] Creating Layer pool2/3x3_s2_pool2/3x3_s2_0_split
I1229 02:30:40.183408  6650 net.cpp:435] pool2/3x3_s2_pool2/3x3_s2_0_split <- pool2/3x3_s2
I1229 02:30:40.183409  6650 net.cpp:409] pool2/3x3_s2_pool2/3x3_s2_0_split -> pool2/3x3_s2_pool2/3x3_s2_0_split_0
I1229 02:30:40.183413  6650 net.cpp:409] pool2/3x3_s2_pool2/3x3_s2_0_split -> pool2/3x3_s2_pool2/3x3_s2_0_split_1
I1229 02:30:40.183415  6650 net.cpp:409] pool2/3x3_s2_pool2/3x3_s2_0_split -> pool2/3x3_s2_pool2/3x3_s2_0_split_2
I1229 02:30:40.183418  6650 net.cpp:409] pool2/3x3_s2_pool2/3x3_s2_0_split -> pool2/3x3_s2_pool2/3x3_s2_0_split_3
I1229 02:30:40.183444  6650 net.cpp:144] Setting up pool2/3x3_s2_pool2/3x3_s2_0_split
I1229 02:30:40.183446  6650 net.cpp:151] Top shape: 1 192 40 80 (614400)
I1229 02:30:40.183449  6650 net.cpp:151] Top shape: 1 192 40 80 (614400)
I1229 02:30:40.183451  6650 net.cpp:151] Top shape: 1 192 40 80 (614400)
I1229 02:30:40.183454  6650 net.cpp:151] Top shape: 1 192 40 80 (614400)
I1229 02:30:40.183455  6650 net.cpp:159] Memory required for data: 116326404
I1229 02:30:40.183457  6650 layer_factory.hpp:77] Creating layer inception_3a/1x1
I1229 02:30:40.183462  6650 net.cpp:94] Creating Layer inception_3a/1x1
I1229 02:30:40.183463  6650 net.cpp:435] inception_3a/1x1 <- pool2/3x3_s2_pool2/3x3_s2_0_split_0
I1229 02:30:40.183466  6650 net.cpp:409] inception_3a/1x1 -> inception_3a/1x1_raw
I1229 02:30:40.183662  6650 net.cpp:144] Setting up inception_3a/1x1
I1229 02:30:40.183666  6650 net.cpp:151] Top shape: 1 64 40 80 (204800)
I1229 02:30:40.183668  6650 net.cpp:159] Memory required for data: 117145604
I1229 02:30:40.183672  6650 layer_factory.hpp:77] Creating layer inception_3a/1x1_BatchNorm
I1229 02:30:40.183676  6650 net.cpp:94] Creating Layer inception_3a/1x1_BatchNorm
I1229 02:30:40.183677  6650 net.cpp:435] inception_3a/1x1_BatchNorm <- inception_3a/1x1_raw
I1229 02:30:40.183681  6650 net.cpp:409] inception_3a/1x1_BatchNorm -> inception_3a/1x1
I1229 02:30:40.184034  6650 net.cpp:144] Setting up inception_3a/1x1_BatchNorm
I1229 02:30:40.184038  6650 net.cpp:151] Top shape: 1 64 40 80 (204800)
I1229 02:30:40.184041  6650 net.cpp:159] Memory required for data: 117964804
I1229 02:30:40.184046  6650 layer_factory.hpp:77] Creating layer inception_3a/relu_1x1
I1229 02:30:40.184051  6650 net.cpp:94] Creating Layer inception_3a/relu_1x1
I1229 02:30:40.184052  6650 net.cpp:435] inception_3a/relu_1x1 <- inception_3a/1x1
I1229 02:30:40.184054  6650 net.cpp:396] inception_3a/relu_1x1 -> inception_3a/1x1 (in-place)
I1229 02:30:40.184057  6650 net.cpp:144] Setting up inception_3a/relu_1x1
I1229 02:30:40.184059  6650 net.cpp:151] Top shape: 1 64 40 80 (204800)
I1229 02:30:40.184062  6650 net.cpp:159] Memory required for data: 118784004
I1229 02:30:40.184063  6650 layer_factory.hpp:77] Creating layer inception_3a/3x3_reduce
I1229 02:30:40.184067  6650 net.cpp:94] Creating Layer inception_3a/3x3_reduce
I1229 02:30:40.184069  6650 net.cpp:435] inception_3a/3x3_reduce <- pool2/3x3_s2_pool2/3x3_s2_0_split_1
I1229 02:30:40.184072  6650 net.cpp:409] inception_3a/3x3_reduce -> inception_3a/3x3_reduce_raw
I1229 02:30:40.184306  6650 net.cpp:144] Setting up inception_3a/3x3_reduce
I1229 02:30:40.184309  6650 net.cpp:151] Top shape: 1 96 40 80 (307200)
I1229 02:30:40.184312  6650 net.cpp:159] Memory required for data: 120012804
I1229 02:30:40.184316  6650 layer_factory.hpp:77] Creating layer inception_3a/3x3_reduce_BatchNorm
I1229 02:30:40.184320  6650 net.cpp:94] Creating Layer inception_3a/3x3_reduce_BatchNorm
I1229 02:30:40.184321  6650 net.cpp:435] inception_3a/3x3_reduce_BatchNorm <- inception_3a/3x3_reduce_raw
I1229 02:30:40.184324  6650 net.cpp:409] inception_3a/3x3_reduce_BatchNorm -> inception_3a/3x3_reduce
I1229 02:30:40.184679  6650 net.cpp:144] Setting up inception_3a/3x3_reduce_BatchNorm
I1229 02:30:40.184684  6650 net.cpp:151] Top shape: 1 96 40 80 (307200)
I1229 02:30:40.184686  6650 net.cpp:159] Memory required for data: 121241604
I1229 02:30:40.184693  6650 layer_factory.hpp:77] Creating layer inception_3a/relu_3x3_reduce
I1229 02:30:40.184696  6650 net.cpp:94] Creating Layer inception_3a/relu_3x3_reduce
I1229 02:30:40.184698  6650 net.cpp:435] inception_3a/relu_3x3_reduce <- inception_3a/3x3_reduce
I1229 02:30:40.184700  6650 net.cpp:396] inception_3a/relu_3x3_reduce -> inception_3a/3x3_reduce (in-place)
I1229 02:30:40.184703  6650 net.cpp:144] Setting up inception_3a/relu_3x3_reduce
I1229 02:30:40.184705  6650 net.cpp:151] Top shape: 1 96 40 80 (307200)
I1229 02:30:40.184707  6650 net.cpp:159] Memory required for data: 122470404
I1229 02:30:40.184710  6650 layer_factory.hpp:77] Creating layer inception_3a/3x3
I1229 02:30:40.184713  6650 net.cpp:94] Creating Layer inception_3a/3x3
I1229 02:30:40.184715  6650 net.cpp:435] inception_3a/3x3 <- inception_3a/3x3_reduce
I1229 02:30:40.184721  6650 net.cpp:409] inception_3a/3x3 -> inception_3a/3x3_raw
I1229 02:30:40.186167  6650 net.cpp:144] Setting up inception_3a/3x3
I1229 02:30:40.186177  6650 net.cpp:151] Top shape: 1 128 40 80 (409600)
I1229 02:30:40.186179  6650 net.cpp:159] Memory required for data: 124108804
I1229 02:30:40.186184  6650 layer_factory.hpp:77] Creating layer inception_3a/3x3_BatchNorm
I1229 02:30:40.186192  6650 net.cpp:94] Creating Layer inception_3a/3x3_BatchNorm
I1229 02:30:40.186194  6650 net.cpp:435] inception_3a/3x3_BatchNorm <- inception_3a/3x3_raw
I1229 02:30:40.186198  6650 net.cpp:409] inception_3a/3x3_BatchNorm -> inception_3a/3x3
I1229 02:30:40.186514  6650 net.cpp:144] Setting up inception_3a/3x3_BatchNorm
I1229 02:30:40.186518  6650 net.cpp:151] Top shape: 1 128 40 80 (409600)
I1229 02:30:40.186522  6650 net.cpp:159] Memory required for data: 125747204
I1229 02:30:40.186527  6650 layer_factory.hpp:77] Creating layer inception_3a/relu_3x3
I1229 02:30:40.186529  6650 net.cpp:94] Creating Layer inception_3a/relu_3x3
I1229 02:30:40.186532  6650 net.cpp:435] inception_3a/relu_3x3 <- inception_3a/3x3
I1229 02:30:40.186534  6650 net.cpp:396] inception_3a/relu_3x3 -> inception_3a/3x3 (in-place)
I1229 02:30:40.186537  6650 net.cpp:144] Setting up inception_3a/relu_3x3
I1229 02:30:40.186539  6650 net.cpp:151] Top shape: 1 128 40 80 (409600)
I1229 02:30:40.186542  6650 net.cpp:159] Memory required for data: 127385604
I1229 02:30:40.186543  6650 layer_factory.hpp:77] Creating layer inception_3a/5x5_reduce
I1229 02:30:40.186548  6650 net.cpp:94] Creating Layer inception_3a/5x5_reduce
I1229 02:30:40.186565  6650 net.cpp:435] inception_3a/5x5_reduce <- pool2/3x3_s2_pool2/3x3_s2_0_split_2
I1229 02:30:40.186569  6650 net.cpp:409] inception_3a/5x5_reduce -> inception_3a/5x5_reduce_raw
I1229 02:30:40.186733  6650 net.cpp:144] Setting up inception_3a/5x5_reduce
I1229 02:30:40.186735  6650 net.cpp:151] Top shape: 1 16 40 80 (51200)
I1229 02:30:40.186738  6650 net.cpp:159] Memory required for data: 127590404
I1229 02:30:40.186743  6650 layer_factory.hpp:77] Creating layer inception_3a/5x5_reduce_BatchNorm
I1229 02:30:40.186746  6650 net.cpp:94] Creating Layer inception_3a/5x5_reduce_BatchNorm
I1229 02:30:40.186748  6650 net.cpp:435] inception_3a/5x5_reduce_BatchNorm <- inception_3a/5x5_reduce_raw
I1229 02:30:40.186750  6650 net.cpp:409] inception_3a/5x5_reduce_BatchNorm -> inception_3a/5x5_reduce
I1229 02:30:40.187100  6650 net.cpp:144] Setting up inception_3a/5x5_reduce_BatchNorm
I1229 02:30:40.187104  6650 net.cpp:151] Top shape: 1 16 40 80 (51200)
I1229 02:30:40.187108  6650 net.cpp:159] Memory required for data: 127795204
I1229 02:30:40.187112  6650 layer_factory.hpp:77] Creating layer inception_3a/relu_5x5_reduce
I1229 02:30:40.187114  6650 net.cpp:94] Creating Layer inception_3a/relu_5x5_reduce
I1229 02:30:40.187116  6650 net.cpp:435] inception_3a/relu_5x5_reduce <- inception_3a/5x5_reduce
I1229 02:30:40.187119  6650 net.cpp:396] inception_3a/relu_5x5_reduce -> inception_3a/5x5_reduce (in-place)
I1229 02:30:40.187122  6650 net.cpp:144] Setting up inception_3a/relu_5x5_reduce
I1229 02:30:40.187124  6650 net.cpp:151] Top shape: 1 16 40 80 (51200)
I1229 02:30:40.187126  6650 net.cpp:159] Memory required for data: 128000004
I1229 02:30:40.187129  6650 layer_factory.hpp:77] Creating layer inception_3a/5x5
I1229 02:30:40.187134  6650 net.cpp:94] Creating Layer inception_3a/5x5
I1229 02:30:40.187135  6650 net.cpp:435] inception_3a/5x5 <- inception_3a/5x5_reduce
I1229 02:30:40.187137  6650 net.cpp:409] inception_3a/5x5 -> inception_3a/5x5_raw
I1229 02:30:40.187342  6650 net.cpp:144] Setting up inception_3a/5x5
I1229 02:30:40.187345  6650 net.cpp:151] Top shape: 1 32 40 80 (102400)
I1229 02:30:40.187348  6650 net.cpp:159] Memory required for data: 128409604
I1229 02:30:40.187351  6650 layer_factory.hpp:77] Creating layer inception_3a/5x5_BatchNorm
I1229 02:30:40.187355  6650 net.cpp:94] Creating Layer inception_3a/5x5_BatchNorm
I1229 02:30:40.187357  6650 net.cpp:435] inception_3a/5x5_BatchNorm <- inception_3a/5x5_raw
I1229 02:30:40.187361  6650 net.cpp:409] inception_3a/5x5_BatchNorm -> inception_3a/5x5
I1229 02:30:40.187719  6650 net.cpp:144] Setting up inception_3a/5x5_BatchNorm
I1229 02:30:40.187726  6650 net.cpp:151] Top shape: 1 32 40 80 (102400)
I1229 02:30:40.187728  6650 net.cpp:159] Memory required for data: 128819204
I1229 02:30:40.187733  6650 layer_factory.hpp:77] Creating layer inception_3a/relu_5x5
I1229 02:30:40.187736  6650 net.cpp:94] Creating Layer inception_3a/relu_5x5
I1229 02:30:40.187738  6650 net.cpp:435] inception_3a/relu_5x5 <- inception_3a/5x5
I1229 02:30:40.187741  6650 net.cpp:396] inception_3a/relu_5x5 -> inception_3a/5x5 (in-place)
I1229 02:30:40.187743  6650 net.cpp:144] Setting up inception_3a/relu_5x5
I1229 02:30:40.187744  6650 net.cpp:151] Top shape: 1 32 40 80 (102400)
I1229 02:30:40.187747  6650 net.cpp:159] Memory required for data: 129228804
I1229 02:30:40.187748  6650 layer_factory.hpp:77] Creating layer inception_3a/pool
I1229 02:30:40.187753  6650 net.cpp:94] Creating Layer inception_3a/pool
I1229 02:30:40.187757  6650 net.cpp:435] inception_3a/pool <- pool2/3x3_s2_pool2/3x3_s2_0_split_3
I1229 02:30:40.187759  6650 net.cpp:409] inception_3a/pool -> inception_3a/pool
I1229 02:30:40.187779  6650 net.cpp:144] Setting up inception_3a/pool
I1229 02:30:40.187783  6650 net.cpp:151] Top shape: 1 192 40 80 (614400)
I1229 02:30:40.187784  6650 net.cpp:159] Memory required for data: 131686404
I1229 02:30:40.187786  6650 layer_factory.hpp:77] Creating layer inception_3a/pool_proj
I1229 02:30:40.187791  6650 net.cpp:94] Creating Layer inception_3a/pool_proj
I1229 02:30:40.187793  6650 net.cpp:435] inception_3a/pool_proj <- inception_3a/pool
I1229 02:30:40.187796  6650 net.cpp:409] inception_3a/pool_proj -> inception_3a/pool_proj_raw
I1229 02:30:40.187964  6650 net.cpp:144] Setting up inception_3a/pool_proj
I1229 02:30:40.187968  6650 net.cpp:151] Top shape: 1 32 40 80 (102400)
I1229 02:30:40.187971  6650 net.cpp:159] Memory required for data: 132096004
I1229 02:30:40.187975  6650 layer_factory.hpp:77] Creating layer inception_3a/pool_proj_BatchNorm
I1229 02:30:40.187979  6650 net.cpp:94] Creating Layer inception_3a/pool_proj_BatchNorm
I1229 02:30:40.187981  6650 net.cpp:435] inception_3a/pool_proj_BatchNorm <- inception_3a/pool_proj_raw
I1229 02:30:40.187984  6650 net.cpp:409] inception_3a/pool_proj_BatchNorm -> inception_3a/pool_proj
I1229 02:30:40.188338  6650 net.cpp:144] Setting up inception_3a/pool_proj_BatchNorm
I1229 02:30:40.188344  6650 net.cpp:151] Top shape: 1 32 40 80 (102400)
I1229 02:30:40.188346  6650 net.cpp:159] Memory required for data: 132505604
I1229 02:30:40.188351  6650 layer_factory.hpp:77] Creating layer inception_3a/relu_pool_proj
I1229 02:30:40.188355  6650 net.cpp:94] Creating Layer inception_3a/relu_pool_proj
I1229 02:30:40.188357  6650 net.cpp:435] inception_3a/relu_pool_proj <- inception_3a/pool_proj
I1229 02:30:40.188360  6650 net.cpp:396] inception_3a/relu_pool_proj -> inception_3a/pool_proj (in-place)
I1229 02:30:40.188364  6650 net.cpp:144] Setting up inception_3a/relu_pool_proj
I1229 02:30:40.188365  6650 net.cpp:151] Top shape: 1 32 40 80 (102400)
I1229 02:30:40.188367  6650 net.cpp:159] Memory required for data: 132915204
I1229 02:30:40.188369  6650 layer_factory.hpp:77] Creating layer inception_3a/output
I1229 02:30:40.188377  6650 net.cpp:94] Creating Layer inception_3a/output
I1229 02:30:40.188380  6650 net.cpp:435] inception_3a/output <- inception_3a/1x1
I1229 02:30:40.188382  6650 net.cpp:435] inception_3a/output <- inception_3a/3x3
I1229 02:30:40.188385  6650 net.cpp:435] inception_3a/output <- inception_3a/5x5
I1229 02:30:40.188386  6650 net.cpp:435] inception_3a/output <- inception_3a/pool_proj
I1229 02:30:40.188388  6650 net.cpp:409] inception_3a/output -> inception_3a/output
I1229 02:30:40.188400  6650 net.cpp:144] Setting up inception_3a/output
I1229 02:30:40.188403  6650 net.cpp:151] Top shape: 1 256 40 80 (819200)
I1229 02:30:40.188406  6650 net.cpp:159] Memory required for data: 136192004
I1229 02:30:40.188408  6650 layer_factory.hpp:77] Creating layer inception_3a/output_inception_3a/output_0_split
I1229 02:30:40.188412  6650 net.cpp:94] Creating Layer inception_3a/output_inception_3a/output_0_split
I1229 02:30:40.188413  6650 net.cpp:435] inception_3a/output_inception_3a/output_0_split <- inception_3a/output
I1229 02:30:40.188416  6650 net.cpp:409] inception_3a/output_inception_3a/output_0_split -> inception_3a/output_inception_3a/output_0_split_0
I1229 02:30:40.188419  6650 net.cpp:409] inception_3a/output_inception_3a/output_0_split -> inception_3a/output_inception_3a/output_0_split_1
I1229 02:30:40.188422  6650 net.cpp:409] inception_3a/output_inception_3a/output_0_split -> inception_3a/output_inception_3a/output_0_split_2
I1229 02:30:40.188426  6650 net.cpp:409] inception_3a/output_inception_3a/output_0_split -> inception_3a/output_inception_3a/output_0_split_3
I1229 02:30:40.188454  6650 net.cpp:144] Setting up inception_3a/output_inception_3a/output_0_split
I1229 02:30:40.188457  6650 net.cpp:151] Top shape: 1 256 40 80 (819200)
I1229 02:30:40.188459  6650 net.cpp:151] Top shape: 1 256 40 80 (819200)
I1229 02:30:40.188462  6650 net.cpp:151] Top shape: 1 256 40 80 (819200)
I1229 02:30:40.188464  6650 net.cpp:151] Top shape: 1 256 40 80 (819200)
I1229 02:30:40.188467  6650 net.cpp:159] Memory required for data: 149299204
I1229 02:30:40.188468  6650 layer_factory.hpp:77] Creating layer inception_3b/1x1
I1229 02:30:40.188472  6650 net.cpp:94] Creating Layer inception_3b/1x1
I1229 02:30:40.188474  6650 net.cpp:435] inception_3b/1x1 <- inception_3a/output_inception_3a/output_0_split_0
I1229 02:30:40.188477  6650 net.cpp:409] inception_3b/1x1 -> inception_3b/1x1_raw
I1229 02:30:40.188776  6650 net.cpp:144] Setting up inception_3b/1x1
I1229 02:30:40.188779  6650 net.cpp:151] Top shape: 1 128 40 80 (409600)
I1229 02:30:40.188782  6650 net.cpp:159] Memory required for data: 150937604
I1229 02:30:40.188788  6650 layer_factory.hpp:77] Creating layer inception_3b/1x1_BatchNorm
I1229 02:30:40.188791  6650 net.cpp:94] Creating Layer inception_3b/1x1_BatchNorm
I1229 02:30:40.188793  6650 net.cpp:435] inception_3b/1x1_BatchNorm <- inception_3b/1x1_raw
I1229 02:30:40.188796  6650 net.cpp:409] inception_3b/1x1_BatchNorm -> inception_3b/1x1
I1229 02:30:40.189105  6650 net.cpp:144] Setting up inception_3b/1x1_BatchNorm
I1229 02:30:40.189110  6650 net.cpp:151] Top shape: 1 128 40 80 (409600)
I1229 02:30:40.189112  6650 net.cpp:159] Memory required for data: 152576004
I1229 02:30:40.189117  6650 layer_factory.hpp:77] Creating layer inception_3b/relu_1x1
I1229 02:30:40.189122  6650 net.cpp:94] Creating Layer inception_3b/relu_1x1
I1229 02:30:40.189124  6650 net.cpp:435] inception_3b/relu_1x1 <- inception_3b/1x1
I1229 02:30:40.189127  6650 net.cpp:396] inception_3b/relu_1x1 -> inception_3b/1x1 (in-place)
I1229 02:30:40.189131  6650 net.cpp:144] Setting up inception_3b/relu_1x1
I1229 02:30:40.189131  6650 net.cpp:151] Top shape: 1 128 40 80 (409600)
I1229 02:30:40.189134  6650 net.cpp:159] Memory required for data: 154214404
I1229 02:30:40.189136  6650 layer_factory.hpp:77] Creating layer inception_3b/3x3_reduce
I1229 02:30:40.189139  6650 net.cpp:94] Creating Layer inception_3b/3x3_reduce
I1229 02:30:40.189141  6650 net.cpp:435] inception_3b/3x3_reduce <- inception_3a/output_inception_3a/output_0_split_1
I1229 02:30:40.189144  6650 net.cpp:409] inception_3b/3x3_reduce -> inception_3b/3x3_reduce_raw
I1229 02:30:40.189446  6650 net.cpp:144] Setting up inception_3b/3x3_reduce
I1229 02:30:40.189450  6650 net.cpp:151] Top shape: 1 128 40 80 (409600)
I1229 02:30:40.189453  6650 net.cpp:159] Memory required for data: 155852804
I1229 02:30:40.189456  6650 layer_factory.hpp:77] Creating layer inception_3b/3x3_reduce_BatchNorm
I1229 02:30:40.189460  6650 net.cpp:94] Creating Layer inception_3b/3x3_reduce_BatchNorm
I1229 02:30:40.189462  6650 net.cpp:435] inception_3b/3x3_reduce_BatchNorm <- inception_3b/3x3_reduce_raw
I1229 02:30:40.189465  6650 net.cpp:409] inception_3b/3x3_reduce_BatchNorm -> inception_3b/3x3_reduce
I1229 02:30:40.189770  6650 net.cpp:144] Setting up inception_3b/3x3_reduce_BatchNorm
I1229 02:30:40.189774  6650 net.cpp:151] Top shape: 1 128 40 80 (409600)
I1229 02:30:40.189776  6650 net.cpp:159] Memory required for data: 157491204
I1229 02:30:40.189781  6650 layer_factory.hpp:77] Creating layer inception_3b/relu_3x3_reduce
I1229 02:30:40.189785  6650 net.cpp:94] Creating Layer inception_3b/relu_3x3_reduce
I1229 02:30:40.189787  6650 net.cpp:435] inception_3b/relu_3x3_reduce <- inception_3b/3x3_reduce
I1229 02:30:40.189790  6650 net.cpp:396] inception_3b/relu_3x3_reduce -> inception_3b/3x3_reduce (in-place)
I1229 02:30:40.189793  6650 net.cpp:144] Setting up inception_3b/relu_3x3_reduce
I1229 02:30:40.189795  6650 net.cpp:151] Top shape: 1 128 40 80 (409600)
I1229 02:30:40.189797  6650 net.cpp:159] Memory required for data: 159129604
I1229 02:30:40.189800  6650 layer_factory.hpp:77] Creating layer inception_3b/3x3
I1229 02:30:40.189803  6650 net.cpp:94] Creating Layer inception_3b/3x3
I1229 02:30:40.189805  6650 net.cpp:435] inception_3b/3x3 <- inception_3b/3x3_reduce
I1229 02:30:40.189808  6650 net.cpp:409] inception_3b/3x3 -> inception_3b/3x3_raw
I1229 02:30:40.191707  6650 net.cpp:144] Setting up inception_3b/3x3
I1229 02:30:40.191715  6650 net.cpp:151] Top shape: 1 192 40 80 (614400)
I1229 02:30:40.191718  6650 net.cpp:159] Memory required for data: 161587204
I1229 02:30:40.191723  6650 layer_factory.hpp:77] Creating layer inception_3b/3x3_BatchNorm
I1229 02:30:40.191728  6650 net.cpp:94] Creating Layer inception_3b/3x3_BatchNorm
I1229 02:30:40.191731  6650 net.cpp:435] inception_3b/3x3_BatchNorm <- inception_3b/3x3_raw
I1229 02:30:40.191735  6650 net.cpp:409] inception_3b/3x3_BatchNorm -> inception_3b/3x3
I1229 02:30:40.192102  6650 net.cpp:144] Setting up inception_3b/3x3_BatchNorm
I1229 02:30:40.192106  6650 net.cpp:151] Top shape: 1 192 40 80 (614400)
I1229 02:30:40.192109  6650 net.cpp:159] Memory required for data: 164044804
I1229 02:30:40.192114  6650 layer_factory.hpp:77] Creating layer inception_3b/relu_3x3
I1229 02:30:40.192117  6650 net.cpp:94] Creating Layer inception_3b/relu_3x3
I1229 02:30:40.192119  6650 net.cpp:435] inception_3b/relu_3x3 <- inception_3b/3x3
I1229 02:30:40.192121  6650 net.cpp:396] inception_3b/relu_3x3 -> inception_3b/3x3 (in-place)
I1229 02:30:40.192124  6650 net.cpp:144] Setting up inception_3b/relu_3x3
I1229 02:30:40.192126  6650 net.cpp:151] Top shape: 1 192 40 80 (614400)
I1229 02:30:40.192128  6650 net.cpp:159] Memory required for data: 166502404
I1229 02:30:40.192131  6650 layer_factory.hpp:77] Creating layer inception_3b/5x5_reduce
I1229 02:30:40.192134  6650 net.cpp:94] Creating Layer inception_3b/5x5_reduce
I1229 02:30:40.192137  6650 net.cpp:435] inception_3b/5x5_reduce <- inception_3a/output_inception_3a/output_0_split_2
I1229 02:30:40.192139  6650 net.cpp:409] inception_3b/5x5_reduce -> inception_3b/5x5_reduce_raw
I1229 02:30:40.192320  6650 net.cpp:144] Setting up inception_3b/5x5_reduce
I1229 02:30:40.192323  6650 net.cpp:151] Top shape: 1 32 40 80 (102400)
I1229 02:30:40.192327  6650 net.cpp:159] Memory required for data: 166912004
I1229 02:30:40.192329  6650 layer_factory.hpp:77] Creating layer inception_3b/5x5_reduce_BatchNorm
I1229 02:30:40.192333  6650 net.cpp:94] Creating Layer inception_3b/5x5_reduce_BatchNorm
I1229 02:30:40.192335  6650 net.cpp:435] inception_3b/5x5_reduce_BatchNorm <- inception_3b/5x5_reduce_raw
I1229 02:30:40.192338  6650 net.cpp:409] inception_3b/5x5_reduce_BatchNorm -> inception_3b/5x5_reduce
I1229 02:30:40.192704  6650 net.cpp:144] Setting up inception_3b/5x5_reduce_BatchNorm
I1229 02:30:40.192708  6650 net.cpp:151] Top shape: 1 32 40 80 (102400)
I1229 02:30:40.192711  6650 net.cpp:159] Memory required for data: 167321604
I1229 02:30:40.192716  6650 layer_factory.hpp:77] Creating layer inception_3b/relu_5x5_reduce
I1229 02:30:40.192719  6650 net.cpp:94] Creating Layer inception_3b/relu_5x5_reduce
I1229 02:30:40.192721  6650 net.cpp:435] inception_3b/relu_5x5_reduce <- inception_3b/5x5_reduce
I1229 02:30:40.192723  6650 net.cpp:396] inception_3b/relu_5x5_reduce -> inception_3b/5x5_reduce (in-place)
I1229 02:30:40.192726  6650 net.cpp:144] Setting up inception_3b/relu_5x5_reduce
I1229 02:30:40.192728  6650 net.cpp:151] Top shape: 1 32 40 80 (102400)
I1229 02:30:40.192730  6650 net.cpp:159] Memory required for data: 167731204
I1229 02:30:40.192732  6650 layer_factory.hpp:77] Creating layer inception_3b/5x5
I1229 02:30:40.192737  6650 net.cpp:94] Creating Layer inception_3b/5x5
I1229 02:30:40.192740  6650 net.cpp:435] inception_3b/5x5 <- inception_3b/5x5_reduce
I1229 02:30:40.192744  6650 net.cpp:409] inception_3b/5x5 -> inception_3b/5x5_raw
I1229 02:30:40.194363  6650 net.cpp:144] Setting up inception_3b/5x5
I1229 02:30:40.194372  6650 net.cpp:151] Top shape: 1 96 40 80 (307200)
I1229 02:30:40.194376  6650 net.cpp:159] Memory required for data: 168960004
I1229 02:30:40.194381  6650 layer_factory.hpp:77] Creating layer inception_3b/5x5_BatchNorm
I1229 02:30:40.194388  6650 net.cpp:94] Creating Layer inception_3b/5x5_BatchNorm
I1229 02:30:40.194391  6650 net.cpp:435] inception_3b/5x5_BatchNorm <- inception_3b/5x5_raw
I1229 02:30:40.194396  6650 net.cpp:409] inception_3b/5x5_BatchNorm -> inception_3b/5x5
I1229 02:30:40.194821  6650 net.cpp:144] Setting up inception_3b/5x5_BatchNorm
I1229 02:30:40.194826  6650 net.cpp:151] Top shape: 1 96 40 80 (307200)
I1229 02:30:40.194829  6650 net.cpp:159] Memory required for data: 170188804
I1229 02:30:40.194835  6650 layer_factory.hpp:77] Creating layer inception_3b/relu_5x5
I1229 02:30:40.194839  6650 net.cpp:94] Creating Layer inception_3b/relu_5x5
I1229 02:30:40.194840  6650 net.cpp:435] inception_3b/relu_5x5 <- inception_3b/5x5
I1229 02:30:40.194844  6650 net.cpp:396] inception_3b/relu_5x5 -> inception_3b/5x5 (in-place)
I1229 02:30:40.194847  6650 net.cpp:144] Setting up inception_3b/relu_5x5
I1229 02:30:40.194849  6650 net.cpp:151] Top shape: 1 96 40 80 (307200)
I1229 02:30:40.194851  6650 net.cpp:159] Memory required for data: 171417604
I1229 02:30:40.194854  6650 layer_factory.hpp:77] Creating layer inception_3b/pool
I1229 02:30:40.194857  6650 net.cpp:94] Creating Layer inception_3b/pool
I1229 02:30:40.194860  6650 net.cpp:435] inception_3b/pool <- inception_3a/output_inception_3a/output_0_split_3
I1229 02:30:40.194864  6650 net.cpp:409] inception_3b/pool -> inception_3b/pool
I1229 02:30:40.194885  6650 net.cpp:144] Setting up inception_3b/pool
I1229 02:30:40.194887  6650 net.cpp:151] Top shape: 1 256 40 80 (819200)
I1229 02:30:40.194890  6650 net.cpp:159] Memory required for data: 174694404
I1229 02:30:40.194891  6650 layer_factory.hpp:77] Creating layer inception_3b/pool_proj
I1229 02:30:40.194896  6650 net.cpp:94] Creating Layer inception_3b/pool_proj
I1229 02:30:40.194898  6650 net.cpp:435] inception_3b/pool_proj <- inception_3b/pool
I1229 02:30:40.194901  6650 net.cpp:409] inception_3b/pool_proj -> inception_3b/pool_proj_raw
I1229 02:30:40.195130  6650 net.cpp:144] Setting up inception_3b/pool_proj
I1229 02:30:40.195134  6650 net.cpp:151] Top shape: 1 64 40 80 (204800)
I1229 02:30:40.195137  6650 net.cpp:159] Memory required for data: 175513604
I1229 02:30:40.195140  6650 layer_factory.hpp:77] Creating layer inception_3b/pool_proj_BatchNorm
I1229 02:30:40.195145  6650 net.cpp:94] Creating Layer inception_3b/pool_proj_BatchNorm
I1229 02:30:40.195148  6650 net.cpp:435] inception_3b/pool_proj_BatchNorm <- inception_3b/pool_proj_raw
I1229 02:30:40.195152  6650 net.cpp:409] inception_3b/pool_proj_BatchNorm -> inception_3b/pool_proj
I1229 02:30:40.195533  6650 net.cpp:144] Setting up inception_3b/pool_proj_BatchNorm
I1229 02:30:40.195538  6650 net.cpp:151] Top shape: 1 64 40 80 (204800)
I1229 02:30:40.195541  6650 net.cpp:159] Memory required for data: 176332804
I1229 02:30:40.195547  6650 layer_factory.hpp:77] Creating layer inception_3b/relu_pool_proj
I1229 02:30:40.195552  6650 net.cpp:94] Creating Layer inception_3b/relu_pool_proj
I1229 02:30:40.195555  6650 net.cpp:435] inception_3b/relu_pool_proj <- inception_3b/pool_proj
I1229 02:30:40.195557  6650 net.cpp:396] inception_3b/relu_pool_proj -> inception_3b/pool_proj (in-place)
I1229 02:30:40.195562  6650 net.cpp:144] Setting up inception_3b/relu_pool_proj
I1229 02:30:40.195564  6650 net.cpp:151] Top shape: 1 64 40 80 (204800)
I1229 02:30:40.195567  6650 net.cpp:159] Memory required for data: 177152004
I1229 02:30:40.195569  6650 layer_factory.hpp:77] Creating layer inception_3b/output
I1229 02:30:40.195572  6650 net.cpp:94] Creating Layer inception_3b/output
I1229 02:30:40.195574  6650 net.cpp:435] inception_3b/output <- inception_3b/1x1
I1229 02:30:40.195576  6650 net.cpp:435] inception_3b/output <- inception_3b/3x3
I1229 02:30:40.195578  6650 net.cpp:435] inception_3b/output <- inception_3b/5x5
I1229 02:30:40.195580  6650 net.cpp:435] inception_3b/output <- inception_3b/pool_proj
I1229 02:30:40.195583  6650 net.cpp:409] inception_3b/output -> inception_3b/output
I1229 02:30:40.195600  6650 net.cpp:144] Setting up inception_3b/output
I1229 02:30:40.195602  6650 net.cpp:151] Top shape: 1 480 40 80 (1536000)
I1229 02:30:40.195605  6650 net.cpp:159] Memory required for data: 183296004
I1229 02:30:40.195606  6650 layer_factory.hpp:77] Creating layer inception_3b/output_inception_3b/output_0_split
I1229 02:30:40.195611  6650 net.cpp:94] Creating Layer inception_3b/output_inception_3b/output_0_split
I1229 02:30:40.195612  6650 net.cpp:435] inception_3b/output_inception_3b/output_0_split <- inception_3b/output
I1229 02:30:40.195616  6650 net.cpp:409] inception_3b/output_inception_3b/output_0_split -> inception_3b/output_inception_3b/output_0_split_0
I1229 02:30:40.195621  6650 net.cpp:409] inception_3b/output_inception_3b/output_0_split -> inception_3b/output_inception_3b/output_0_split_1
I1229 02:30:40.195641  6650 net.cpp:144] Setting up inception_3b/output_inception_3b/output_0_split
I1229 02:30:40.195644  6650 net.cpp:151] Top shape: 1 480 40 80 (1536000)
I1229 02:30:40.195647  6650 net.cpp:151] Top shape: 1 480 40 80 (1536000)
I1229 02:30:40.195649  6650 net.cpp:159] Memory required for data: 195584004
I1229 02:30:40.195652  6650 layer_factory.hpp:77] Creating layer pool3/3x3_s2
I1229 02:30:40.195655  6650 net.cpp:94] Creating Layer pool3/3x3_s2
I1229 02:30:40.195657  6650 net.cpp:435] pool3/3x3_s2 <- inception_3b/output_inception_3b/output_0_split_0
I1229 02:30:40.195662  6650 net.cpp:409] pool3/3x3_s2 -> pool3/3x3_s2
I1229 02:30:40.195683  6650 net.cpp:144] Setting up pool3/3x3_s2
I1229 02:30:40.195688  6650 net.cpp:151] Top shape: 1 480 20 40 (384000)
I1229 02:30:40.195691  6650 net.cpp:159] Memory required for data: 197120004
I1229 02:30:40.195693  6650 layer_factory.hpp:77] Creating layer pool3/3x3_s2_pool3/3x3_s2_0_split
I1229 02:30:40.195698  6650 net.cpp:94] Creating Layer pool3/3x3_s2_pool3/3x3_s2_0_split
I1229 02:30:40.195699  6650 net.cpp:435] pool3/3x3_s2_pool3/3x3_s2_0_split <- pool3/3x3_s2
I1229 02:30:40.195703  6650 net.cpp:409] pool3/3x3_s2_pool3/3x3_s2_0_split -> pool3/3x3_s2_pool3/3x3_s2_0_split_0
I1229 02:30:40.195708  6650 net.cpp:409] pool3/3x3_s2_pool3/3x3_s2_0_split -> pool3/3x3_s2_pool3/3x3_s2_0_split_1
I1229 02:30:40.195711  6650 net.cpp:409] pool3/3x3_s2_pool3/3x3_s2_0_split -> pool3/3x3_s2_pool3/3x3_s2_0_split_2
I1229 02:30:40.195714  6650 net.cpp:409] pool3/3x3_s2_pool3/3x3_s2_0_split -> pool3/3x3_s2_pool3/3x3_s2_0_split_3
I1229 02:30:40.195752  6650 net.cpp:144] Setting up pool3/3x3_s2_pool3/3x3_s2_0_split
I1229 02:30:40.195755  6650 net.cpp:151] Top shape: 1 480 20 40 (384000)
I1229 02:30:40.195760  6650 net.cpp:151] Top shape: 1 480 20 40 (384000)
I1229 02:30:40.195762  6650 net.cpp:151] Top shape: 1 480 20 40 (384000)
I1229 02:30:40.195765  6650 net.cpp:151] Top shape: 1 480 20 40 (384000)
I1229 02:30:40.195768  6650 net.cpp:159] Memory required for data: 203264004
I1229 02:30:40.195770  6650 layer_factory.hpp:77] Creating layer inception_4a/1x1
I1229 02:30:40.195775  6650 net.cpp:94] Creating Layer inception_4a/1x1
I1229 02:30:40.195777  6650 net.cpp:435] inception_4a/1x1 <- pool3/3x3_s2_pool3/3x3_s2_0_split_0
I1229 02:30:40.195780  6650 net.cpp:409] inception_4a/1x1 -> inception_4a/1x1_raw
I1229 02:30:40.196468  6650 net.cpp:144] Setting up inception_4a/1x1
I1229 02:30:40.196476  6650 net.cpp:151] Top shape: 1 192 20 40 (153600)
I1229 02:30:40.196480  6650 net.cpp:159] Memory required for data: 203878404
I1229 02:30:40.196485  6650 layer_factory.hpp:77] Creating layer inception_4a/1x1_BatchNorm
I1229 02:30:40.196489  6650 net.cpp:94] Creating Layer inception_4a/1x1_BatchNorm
I1229 02:30:40.196492  6650 net.cpp:435] inception_4a/1x1_BatchNorm <- inception_4a/1x1_raw
I1229 02:30:40.196496  6650 net.cpp:409] inception_4a/1x1_BatchNorm -> inception_4a/1x1
I1229 02:30:40.196869  6650 net.cpp:144] Setting up inception_4a/1x1_BatchNorm
I1229 02:30:40.196873  6650 net.cpp:151] Top shape: 1 192 20 40 (153600)
I1229 02:30:40.196877  6650 net.cpp:159] Memory required for data: 204492804
I1229 02:30:40.196882  6650 layer_factory.hpp:77] Creating layer inception_4a/relu_1x1
I1229 02:30:40.196885  6650 net.cpp:94] Creating Layer inception_4a/relu_1x1
I1229 02:30:40.196887  6650 net.cpp:435] inception_4a/relu_1x1 <- inception_4a/1x1
I1229 02:30:40.196892  6650 net.cpp:396] inception_4a/relu_1x1 -> inception_4a/1x1 (in-place)
I1229 02:30:40.196895  6650 net.cpp:144] Setting up inception_4a/relu_1x1
I1229 02:30:40.196897  6650 net.cpp:151] Top shape: 1 192 20 40 (153600)
I1229 02:30:40.196900  6650 net.cpp:159] Memory required for data: 205107204
I1229 02:30:40.196902  6650 layer_factory.hpp:77] Creating layer inception_4a/3x3_reduce
I1229 02:30:40.196908  6650 net.cpp:94] Creating Layer inception_4a/3x3_reduce
I1229 02:30:40.196910  6650 net.cpp:435] inception_4a/3x3_reduce <- pool3/3x3_s2_pool3/3x3_s2_0_split_1
I1229 02:30:40.196914  6650 net.cpp:409] inception_4a/3x3_reduce -> inception_4a/3x3_reduce_raw
I1229 02:30:40.197306  6650 net.cpp:144] Setting up inception_4a/3x3_reduce
I1229 02:30:40.197311  6650 net.cpp:151] Top shape: 1 96 20 40 (76800)
I1229 02:30:40.197314  6650 net.cpp:159] Memory required for data: 205414404
I1229 02:30:40.197317  6650 layer_factory.hpp:77] Creating layer inception_4a/3x3_reduce_BatchNorm
I1229 02:30:40.197321  6650 net.cpp:94] Creating Layer inception_4a/3x3_reduce_BatchNorm
I1229 02:30:40.197324  6650 net.cpp:435] inception_4a/3x3_reduce_BatchNorm <- inception_4a/3x3_reduce_raw
I1229 02:30:40.197329  6650 net.cpp:409] inception_4a/3x3_reduce_BatchNorm -> inception_4a/3x3_reduce
I1229 02:30:40.197718  6650 net.cpp:144] Setting up inception_4a/3x3_reduce_BatchNorm
I1229 02:30:40.197723  6650 net.cpp:151] Top shape: 1 96 20 40 (76800)
I1229 02:30:40.197726  6650 net.cpp:159] Memory required for data: 205721604
I1229 02:30:40.197732  6650 layer_factory.hpp:77] Creating layer inception_4a/relu_3x3_reduce
I1229 02:30:40.197736  6650 net.cpp:94] Creating Layer inception_4a/relu_3x3_reduce
I1229 02:30:40.197738  6650 net.cpp:435] inception_4a/relu_3x3_reduce <- inception_4a/3x3_reduce
I1229 02:30:40.197741  6650 net.cpp:396] inception_4a/relu_3x3_reduce -> inception_4a/3x3_reduce (in-place)
I1229 02:30:40.197746  6650 net.cpp:144] Setting up inception_4a/relu_3x3_reduce
I1229 02:30:40.197747  6650 net.cpp:151] Top shape: 1 96 20 40 (76800)
I1229 02:30:40.197751  6650 net.cpp:159] Memory required for data: 206028804
I1229 02:30:40.197753  6650 layer_factory.hpp:77] Creating layer inception_4a/3x3
I1229 02:30:40.197760  6650 net.cpp:94] Creating Layer inception_4a/3x3
I1229 02:30:40.197762  6650 net.cpp:435] inception_4a/3x3 <- inception_4a/3x3_reduce
I1229 02:30:40.197765  6650 net.cpp:409] inception_4a/3x3 -> inception_4a/3x3_raw
I1229 02:30:40.199596  6650 net.cpp:144] Setting up inception_4a/3x3
I1229 02:30:40.199607  6650 net.cpp:151] Top shape: 1 208 20 40 (166400)
I1229 02:30:40.199612  6650 net.cpp:159] Memory required for data: 206694404
I1229 02:30:40.199618  6650 layer_factory.hpp:77] Creating layer inception_4a/3x3_BatchNorm
I1229 02:30:40.199625  6650 net.cpp:94] Creating Layer inception_4a/3x3_BatchNorm
I1229 02:30:40.199627  6650 net.cpp:435] inception_4a/3x3_BatchNorm <- inception_4a/3x3_raw
I1229 02:30:40.199631  6650 net.cpp:409] inception_4a/3x3_BatchNorm -> inception_4a/3x3
I1229 02:30:40.200043  6650 net.cpp:144] Setting up inception_4a/3x3_BatchNorm
I1229 02:30:40.200048  6650 net.cpp:151] Top shape: 1 208 20 40 (166400)
I1229 02:30:40.200052  6650 net.cpp:159] Memory required for data: 207360004
I1229 02:30:40.200057  6650 layer_factory.hpp:77] Creating layer inception_4a/relu_3x3
I1229 02:30:40.200060  6650 net.cpp:94] Creating Layer inception_4a/relu_3x3
I1229 02:30:40.200063  6650 net.cpp:435] inception_4a/relu_3x3 <- inception_4a/3x3
I1229 02:30:40.200067  6650 net.cpp:396] inception_4a/relu_3x3 -> inception_4a/3x3 (in-place)
I1229 02:30:40.200071  6650 net.cpp:144] Setting up inception_4a/relu_3x3
I1229 02:30:40.200073  6650 net.cpp:151] Top shape: 1 208 20 40 (166400)
I1229 02:30:40.200078  6650 net.cpp:159] Memory required for data: 208025604
I1229 02:30:40.200078  6650 layer_factory.hpp:77] Creating layer inception_4a/5x5_reduce
I1229 02:30:40.200083  6650 net.cpp:94] Creating Layer inception_4a/5x5_reduce
I1229 02:30:40.200086  6650 net.cpp:435] inception_4a/5x5_reduce <- pool3/3x3_s2_pool3/3x3_s2_0_split_2
I1229 02:30:40.200089  6650 net.cpp:409] inception_4a/5x5_reduce -> inception_4a/5x5_reduce_raw
I1229 02:30:40.200282  6650 net.cpp:144] Setting up inception_4a/5x5_reduce
I1229 02:30:40.200285  6650 net.cpp:151] Top shape: 1 16 20 40 (12800)
I1229 02:30:40.200289  6650 net.cpp:159] Memory required for data: 208076804
I1229 02:30:40.200291  6650 layer_factory.hpp:77] Creating layer inception_4a/5x5_reduce_BatchNorm
I1229 02:30:40.200295  6650 net.cpp:94] Creating Layer inception_4a/5x5_reduce_BatchNorm
I1229 02:30:40.200297  6650 net.cpp:435] inception_4a/5x5_reduce_BatchNorm <- inception_4a/5x5_reduce_raw
I1229 02:30:40.200300  6650 net.cpp:409] inception_4a/5x5_reduce_BatchNorm -> inception_4a/5x5_reduce
I1229 02:30:40.200706  6650 net.cpp:144] Setting up inception_4a/5x5_reduce_BatchNorm
I1229 02:30:40.200712  6650 net.cpp:151] Top shape: 1 16 20 40 (12800)
I1229 02:30:40.200716  6650 net.cpp:159] Memory required for data: 208128004
I1229 02:30:40.200726  6650 layer_factory.hpp:77] Creating layer inception_4a/relu_5x5_reduce
I1229 02:30:40.200729  6650 net.cpp:94] Creating Layer inception_4a/relu_5x5_reduce
I1229 02:30:40.200731  6650 net.cpp:435] inception_4a/relu_5x5_reduce <- inception_4a/5x5_reduce
I1229 02:30:40.200733  6650 net.cpp:396] inception_4a/relu_5x5_reduce -> inception_4a/5x5_reduce (in-place)
I1229 02:30:40.200737  6650 net.cpp:144] Setting up inception_4a/relu_5x5_reduce
I1229 02:30:40.200739  6650 net.cpp:151] Top shape: 1 16 20 40 (12800)
I1229 02:30:40.200742  6650 net.cpp:159] Memory required for data: 208179204
I1229 02:30:40.200744  6650 layer_factory.hpp:77] Creating layer inception_4a/5x5
I1229 02:30:40.200748  6650 net.cpp:94] Creating Layer inception_4a/5x5
I1229 02:30:40.200750  6650 net.cpp:435] inception_4a/5x5 <- inception_4a/5x5_reduce
I1229 02:30:40.200753  6650 net.cpp:409] inception_4a/5x5 -> inception_4a/5x5_raw
I1229 02:30:40.201000  6650 net.cpp:144] Setting up inception_4a/5x5
I1229 02:30:40.201005  6650 net.cpp:151] Top shape: 1 48 20 40 (38400)
I1229 02:30:40.201007  6650 net.cpp:159] Memory required for data: 208332804
I1229 02:30:40.201011  6650 layer_factory.hpp:77] Creating layer inception_4a/5x5_BatchNorm
I1229 02:30:40.201015  6650 net.cpp:94] Creating Layer inception_4a/5x5_BatchNorm
I1229 02:30:40.201017  6650 net.cpp:435] inception_4a/5x5_BatchNorm <- inception_4a/5x5_raw
I1229 02:30:40.201020  6650 net.cpp:409] inception_4a/5x5_BatchNorm -> inception_4a/5x5
I1229 02:30:40.201426  6650 net.cpp:144] Setting up inception_4a/5x5_BatchNorm
I1229 02:30:40.201432  6650 net.cpp:151] Top shape: 1 48 20 40 (38400)
I1229 02:30:40.201436  6650 net.cpp:159] Memory required for data: 208486404
I1229 02:30:40.201442  6650 layer_factory.hpp:77] Creating layer inception_4a/relu_5x5
I1229 02:30:40.201445  6650 net.cpp:94] Creating Layer inception_4a/relu_5x5
I1229 02:30:40.201447  6650 net.cpp:435] inception_4a/relu_5x5 <- inception_4a/5x5
I1229 02:30:40.201449  6650 net.cpp:396] inception_4a/relu_5x5 -> inception_4a/5x5 (in-place)
I1229 02:30:40.201454  6650 net.cpp:144] Setting up inception_4a/relu_5x5
I1229 02:30:40.201457  6650 net.cpp:151] Top shape: 1 48 20 40 (38400)
I1229 02:30:40.201460  6650 net.cpp:159] Memory required for data: 208640004
I1229 02:30:40.201463  6650 layer_factory.hpp:77] Creating layer inception_4a/pool
I1229 02:30:40.201472  6650 net.cpp:94] Creating Layer inception_4a/pool
I1229 02:30:40.201478  6650 net.cpp:435] inception_4a/pool <- pool3/3x3_s2_pool3/3x3_s2_0_split_3
I1229 02:30:40.201483  6650 net.cpp:409] inception_4a/pool -> inception_4a/pool
I1229 02:30:40.201516  6650 net.cpp:144] Setting up inception_4a/pool
I1229 02:30:40.201520  6650 net.cpp:151] Top shape: 1 480 20 40 (384000)
I1229 02:30:40.201524  6650 net.cpp:159] Memory required for data: 210176004
I1229 02:30:40.201525  6650 layer_factory.hpp:77] Creating layer inception_4a/pool_proj
I1229 02:30:40.201530  6650 net.cpp:94] Creating Layer inception_4a/pool_proj
I1229 02:30:40.201532  6650 net.cpp:435] inception_4a/pool_proj <- inception_4a/pool
I1229 02:30:40.201534  6650 net.cpp:409] inception_4a/pool_proj -> inception_4a/pool_proj_raw
I1229 02:30:40.201876  6650 net.cpp:144] Setting up inception_4a/pool_proj
I1229 02:30:40.201881  6650 net.cpp:151] Top shape: 1 64 20 40 (51200)
I1229 02:30:40.201884  6650 net.cpp:159] Memory required for data: 210380804
I1229 02:30:40.201889  6650 layer_factory.hpp:77] Creating layer inception_4a/pool_proj_BatchNorm
I1229 02:30:40.201892  6650 net.cpp:94] Creating Layer inception_4a/pool_proj_BatchNorm
I1229 02:30:40.201894  6650 net.cpp:435] inception_4a/pool_proj_BatchNorm <- inception_4a/pool_proj_raw
I1229 02:30:40.201897  6650 net.cpp:409] inception_4a/pool_proj_BatchNorm -> inception_4a/pool_proj
I1229 02:30:40.202283  6650 net.cpp:144] Setting up inception_4a/pool_proj_BatchNorm
I1229 02:30:40.202287  6650 net.cpp:151] Top shape: 1 64 20 40 (51200)
I1229 02:30:40.202289  6650 net.cpp:159] Memory required for data: 210585604
I1229 02:30:40.202296  6650 layer_factory.hpp:77] Creating layer inception_4a/relu_pool_proj
I1229 02:30:40.202298  6650 net.cpp:94] Creating Layer inception_4a/relu_pool_proj
I1229 02:30:40.202301  6650 net.cpp:435] inception_4a/relu_pool_proj <- inception_4a/pool_proj
I1229 02:30:40.202302  6650 net.cpp:396] inception_4a/relu_pool_proj -> inception_4a/pool_proj (in-place)
I1229 02:30:40.202306  6650 net.cpp:144] Setting up inception_4a/relu_pool_proj
I1229 02:30:40.202308  6650 net.cpp:151] Top shape: 1 64 20 40 (51200)
I1229 02:30:40.202311  6650 net.cpp:159] Memory required for data: 210790404
I1229 02:30:40.202312  6650 layer_factory.hpp:77] Creating layer inception_4a/output
I1229 02:30:40.202316  6650 net.cpp:94] Creating Layer inception_4a/output
I1229 02:30:40.202318  6650 net.cpp:435] inception_4a/output <- inception_4a/1x1
I1229 02:30:40.202322  6650 net.cpp:435] inception_4a/output <- inception_4a/3x3
I1229 02:30:40.202323  6650 net.cpp:435] inception_4a/output <- inception_4a/5x5
I1229 02:30:40.202325  6650 net.cpp:435] inception_4a/output <- inception_4a/pool_proj
I1229 02:30:40.202327  6650 net.cpp:409] inception_4a/output -> inception_4a/output
I1229 02:30:40.202339  6650 net.cpp:144] Setting up inception_4a/output
I1229 02:30:40.202342  6650 net.cpp:151] Top shape: 1 512 20 40 (409600)
I1229 02:30:40.202345  6650 net.cpp:159] Memory required for data: 212428804
I1229 02:30:40.202347  6650 layer_factory.hpp:77] Creating layer inception_4a/output_inception_4a/output_0_split
I1229 02:30:40.202350  6650 net.cpp:94] Creating Layer inception_4a/output_inception_4a/output_0_split
I1229 02:30:40.202353  6650 net.cpp:435] inception_4a/output_inception_4a/output_0_split <- inception_4a/output
I1229 02:30:40.202355  6650 net.cpp:409] inception_4a/output_inception_4a/output_0_split -> inception_4a/output_inception_4a/output_0_split_0
I1229 02:30:40.202358  6650 net.cpp:409] inception_4a/output_inception_4a/output_0_split -> inception_4a/output_inception_4a/output_0_split_1
I1229 02:30:40.202363  6650 net.cpp:409] inception_4a/output_inception_4a/output_0_split -> inception_4a/output_inception_4a/output_0_split_2
I1229 02:30:40.202366  6650 net.cpp:409] inception_4a/output_inception_4a/output_0_split -> inception_4a/output_inception_4a/output_0_split_3
I1229 02:30:40.202399  6650 net.cpp:144] Setting up inception_4a/output_inception_4a/output_0_split
I1229 02:30:40.202401  6650 net.cpp:151] Top shape: 1 512 20 40 (409600)
I1229 02:30:40.202404  6650 net.cpp:151] Top shape: 1 512 20 40 (409600)
I1229 02:30:40.202407  6650 net.cpp:151] Top shape: 1 512 20 40 (409600)
I1229 02:30:40.202410  6650 net.cpp:151] Top shape: 1 512 20 40 (409600)
I1229 02:30:40.202414  6650 net.cpp:159] Memory required for data: 218982404
I1229 02:30:40.202415  6650 layer_factory.hpp:77] Creating layer inception_4b/1x1
I1229 02:30:40.202420  6650 net.cpp:94] Creating Layer inception_4b/1x1
I1229 02:30:40.202422  6650 net.cpp:435] inception_4b/1x1 <- inception_4a/output_inception_4a/output_0_split_0
I1229 02:30:40.202425  6650 net.cpp:409] inception_4b/1x1 -> inception_4b/1x1_raw
I1229 02:30:40.203651  6650 net.cpp:144] Setting up inception_4b/1x1
I1229 02:30:40.203658  6650 net.cpp:151] Top shape: 1 160 20 40 (128000)
I1229 02:30:40.203661  6650 net.cpp:159] Memory required for data: 219494404
I1229 02:30:40.203665  6650 layer_factory.hpp:77] Creating layer inception_4b/1x1_BatchNorm
I1229 02:30:40.203670  6650 net.cpp:94] Creating Layer inception_4b/1x1_BatchNorm
I1229 02:30:40.203672  6650 net.cpp:435] inception_4b/1x1_BatchNorm <- inception_4b/1x1_raw
I1229 02:30:40.203676  6650 net.cpp:409] inception_4b/1x1_BatchNorm -> inception_4b/1x1
I1229 02:30:40.204080  6650 net.cpp:144] Setting up inception_4b/1x1_BatchNorm
I1229 02:30:40.204087  6650 net.cpp:151] Top shape: 1 160 20 40 (128000)
I1229 02:30:40.204089  6650 net.cpp:159] Memory required for data: 220006404
I1229 02:30:40.204095  6650 layer_factory.hpp:77] Creating layer inception_4b/relu_1x1
I1229 02:30:40.204099  6650 net.cpp:94] Creating Layer inception_4b/relu_1x1
I1229 02:30:40.204102  6650 net.cpp:435] inception_4b/relu_1x1 <- inception_4b/1x1
I1229 02:30:40.204105  6650 net.cpp:396] inception_4b/relu_1x1 -> inception_4b/1x1 (in-place)
I1229 02:30:40.204109  6650 net.cpp:144] Setting up inception_4b/relu_1x1
I1229 02:30:40.204111  6650 net.cpp:151] Top shape: 1 160 20 40 (128000)
I1229 02:30:40.204114  6650 net.cpp:159] Memory required for data: 220518404
I1229 02:30:40.204118  6650 layer_factory.hpp:77] Creating layer inception_4b/3x3_reduce
I1229 02:30:40.204123  6650 net.cpp:94] Creating Layer inception_4b/3x3_reduce
I1229 02:30:40.204124  6650 net.cpp:435] inception_4b/3x3_reduce <- inception_4a/output_inception_4a/output_0_split_1
I1229 02:30:40.204128  6650 net.cpp:409] inception_4b/3x3_reduce -> inception_4b/3x3_reduce_raw
I1229 02:30:40.204654  6650 net.cpp:144] Setting up inception_4b/3x3_reduce
I1229 02:30:40.204659  6650 net.cpp:151] Top shape: 1 112 20 40 (89600)
I1229 02:30:40.204661  6650 net.cpp:159] Memory required for data: 220876804
I1229 02:30:40.204665  6650 layer_factory.hpp:77] Creating layer inception_4b/3x3_reduce_BatchNorm
I1229 02:30:40.204669  6650 net.cpp:94] Creating Layer inception_4b/3x3_reduce_BatchNorm
I1229 02:30:40.204671  6650 net.cpp:435] inception_4b/3x3_reduce_BatchNorm <- inception_4b/3x3_reduce_raw
I1229 02:30:40.204674  6650 net.cpp:409] inception_4b/3x3_reduce_BatchNorm -> inception_4b/3x3_reduce
I1229 02:30:40.205056  6650 net.cpp:144] Setting up inception_4b/3x3_reduce_BatchNorm
I1229 02:30:40.205060  6650 net.cpp:151] Top shape: 1 112 20 40 (89600)
I1229 02:30:40.205063  6650 net.cpp:159] Memory required for data: 221235204
I1229 02:30:40.205068  6650 layer_factory.hpp:77] Creating layer inception_4b/relu_3x3_reduce
I1229 02:30:40.205071  6650 net.cpp:94] Creating Layer inception_4b/relu_3x3_reduce
I1229 02:30:40.205073  6650 net.cpp:435] inception_4b/relu_3x3_reduce <- inception_4b/3x3_reduce
I1229 02:30:40.205075  6650 net.cpp:396] inception_4b/relu_3x3_reduce -> inception_4b/3x3_reduce (in-place)
I1229 02:30:40.205080  6650 net.cpp:144] Setting up inception_4b/relu_3x3_reduce
I1229 02:30:40.205080  6650 net.cpp:151] Top shape: 1 112 20 40 (89600)
I1229 02:30:40.205083  6650 net.cpp:159] Memory required for data: 221593604
I1229 02:30:40.205085  6650 layer_factory.hpp:77] Creating layer inception_4b/3x3
I1229 02:30:40.205088  6650 net.cpp:94] Creating Layer inception_4b/3x3
I1229 02:30:40.205090  6650 net.cpp:435] inception_4b/3x3 <- inception_4b/3x3_reduce
I1229 02:30:40.205093  6650 net.cpp:409] inception_4b/3x3 -> inception_4b/3x3_raw
I1229 02:30:40.207068  6650 net.cpp:144] Setting up inception_4b/3x3
I1229 02:30:40.207077  6650 net.cpp:151] Top shape: 1 224 20 40 (179200)
I1229 02:30:40.207080  6650 net.cpp:159] Memory required for data: 222310404
I1229 02:30:40.207085  6650 layer_factory.hpp:77] Creating layer inception_4b/3x3_BatchNorm
I1229 02:30:40.207090  6650 net.cpp:94] Creating Layer inception_4b/3x3_BatchNorm
I1229 02:30:40.207093  6650 net.cpp:435] inception_4b/3x3_BatchNorm <- inception_4b/3x3_raw
I1229 02:30:40.207096  6650 net.cpp:409] inception_4b/3x3_BatchNorm -> inception_4b/3x3
I1229 02:30:40.207489  6650 net.cpp:144] Setting up inception_4b/3x3_BatchNorm
I1229 02:30:40.207492  6650 net.cpp:151] Top shape: 1 224 20 40 (179200)
I1229 02:30:40.207495  6650 net.cpp:159] Memory required for data: 223027204
I1229 02:30:40.207500  6650 layer_factory.hpp:77] Creating layer inception_4b/relu_3x3
I1229 02:30:40.207504  6650 net.cpp:94] Creating Layer inception_4b/relu_3x3
I1229 02:30:40.207505  6650 net.cpp:435] inception_4b/relu_3x3 <- inception_4b/3x3
I1229 02:30:40.207509  6650 net.cpp:396] inception_4b/relu_3x3 -> inception_4b/3x3 (in-place)
I1229 02:30:40.207511  6650 net.cpp:144] Setting up inception_4b/relu_3x3
I1229 02:30:40.207513  6650 net.cpp:151] Top shape: 1 224 20 40 (179200)
I1229 02:30:40.207515  6650 net.cpp:159] Memory required for data: 223744004
I1229 02:30:40.207517  6650 layer_factory.hpp:77] Creating layer inception_4b/5x5_reduce
I1229 02:30:40.207521  6650 net.cpp:94] Creating Layer inception_4b/5x5_reduce
I1229 02:30:40.207523  6650 net.cpp:435] inception_4b/5x5_reduce <- inception_4a/output_inception_4a/output_0_split_2
I1229 02:30:40.207526  6650 net.cpp:409] inception_4b/5x5_reduce -> inception_4b/5x5_reduce_raw
I1229 02:30:40.207736  6650 net.cpp:144] Setting up inception_4b/5x5_reduce
I1229 02:30:40.207739  6650 net.cpp:151] Top shape: 1 24 20 40 (19200)
I1229 02:30:40.207741  6650 net.cpp:159] Memory required for data: 223820804
I1229 02:30:40.207746  6650 layer_factory.hpp:77] Creating layer inception_4b/5x5_reduce_BatchNorm
I1229 02:30:40.207748  6650 net.cpp:94] Creating Layer inception_4b/5x5_reduce_BatchNorm
I1229 02:30:40.207751  6650 net.cpp:435] inception_4b/5x5_reduce_BatchNorm <- inception_4b/5x5_reduce_raw
I1229 02:30:40.207753  6650 net.cpp:409] inception_4b/5x5_reduce_BatchNorm -> inception_4b/5x5_reduce
I1229 02:30:40.208137  6650 net.cpp:144] Setting up inception_4b/5x5_reduce_BatchNorm
I1229 02:30:40.208142  6650 net.cpp:151] Top shape: 1 24 20 40 (19200)
I1229 02:30:40.208144  6650 net.cpp:159] Memory required for data: 223897604
I1229 02:30:40.208149  6650 layer_factory.hpp:77] Creating layer inception_4b/relu_5x5_reduce
I1229 02:30:40.208153  6650 net.cpp:94] Creating Layer inception_4b/relu_5x5_reduce
I1229 02:30:40.208154  6650 net.cpp:435] inception_4b/relu_5x5_reduce <- inception_4b/5x5_reduce
I1229 02:30:40.208156  6650 net.cpp:396] inception_4b/relu_5x5_reduce -> inception_4b/5x5_reduce (in-place)
I1229 02:30:40.208160  6650 net.cpp:144] Setting up inception_4b/relu_5x5_reduce
I1229 02:30:40.208161  6650 net.cpp:151] Top shape: 1 24 20 40 (19200)
I1229 02:30:40.208164  6650 net.cpp:159] Memory required for data: 223974404
I1229 02:30:40.208165  6650 layer_factory.hpp:77] Creating layer inception_4b/5x5
I1229 02:30:40.208169  6650 net.cpp:94] Creating Layer inception_4b/5x5
I1229 02:30:40.208171  6650 net.cpp:435] inception_4b/5x5 <- inception_4b/5x5_reduce
I1229 02:30:40.208174  6650 net.cpp:409] inception_4b/5x5 -> inception_4b/5x5_raw
I1229 02:30:40.208529  6650 net.cpp:144] Setting up inception_4b/5x5
I1229 02:30:40.208534  6650 net.cpp:151] Top shape: 1 64 20 40 (51200)
I1229 02:30:40.208536  6650 net.cpp:159] Memory required for data: 224179204
I1229 02:30:40.208539  6650 layer_factory.hpp:77] Creating layer inception_4b/5x5_BatchNorm
I1229 02:30:40.208542  6650 net.cpp:94] Creating Layer inception_4b/5x5_BatchNorm
I1229 02:30:40.208544  6650 net.cpp:435] inception_4b/5x5_BatchNorm <- inception_4b/5x5_raw
I1229 02:30:40.208547  6650 net.cpp:409] inception_4b/5x5_BatchNorm -> inception_4b/5x5
I1229 02:30:40.208918  6650 net.cpp:144] Setting up inception_4b/5x5_BatchNorm
I1229 02:30:40.208923  6650 net.cpp:151] Top shape: 1 64 20 40 (51200)
I1229 02:30:40.208926  6650 net.cpp:159] Memory required for data: 224384004
I1229 02:30:40.208931  6650 layer_factory.hpp:77] Creating layer inception_4b/relu_5x5
I1229 02:30:40.208935  6650 net.cpp:94] Creating Layer inception_4b/relu_5x5
I1229 02:30:40.208936  6650 net.cpp:435] inception_4b/relu_5x5 <- inception_4b/5x5
I1229 02:30:40.208938  6650 net.cpp:396] inception_4b/relu_5x5 -> inception_4b/5x5 (in-place)
I1229 02:30:40.208941  6650 net.cpp:144] Setting up inception_4b/relu_5x5
I1229 02:30:40.208943  6650 net.cpp:151] Top shape: 1 64 20 40 (51200)
I1229 02:30:40.208945  6650 net.cpp:159] Memory required for data: 224588804
I1229 02:30:40.208947  6650 layer_factory.hpp:77] Creating layer inception_4b/pool
I1229 02:30:40.208951  6650 net.cpp:94] Creating Layer inception_4b/pool
I1229 02:30:40.208953  6650 net.cpp:435] inception_4b/pool <- inception_4a/output_inception_4a/output_0_split_3
I1229 02:30:40.208956  6650 net.cpp:409] inception_4b/pool -> inception_4b/pool
I1229 02:30:40.208973  6650 net.cpp:144] Setting up inception_4b/pool
I1229 02:30:40.208976  6650 net.cpp:151] Top shape: 1 512 20 40 (409600)
I1229 02:30:40.208978  6650 net.cpp:159] Memory required for data: 226227204
I1229 02:30:40.208981  6650 layer_factory.hpp:77] Creating layer inception_4b/pool_proj
I1229 02:30:40.208984  6650 net.cpp:94] Creating Layer inception_4b/pool_proj
I1229 02:30:40.208986  6650 net.cpp:435] inception_4b/pool_proj <- inception_4b/pool
I1229 02:30:40.208988  6650 net.cpp:409] inception_4b/pool_proj -> inception_4b/pool_proj_raw
I1229 02:30:40.209301  6650 net.cpp:144] Setting up inception_4b/pool_proj
I1229 02:30:40.209304  6650 net.cpp:151] Top shape: 1 64 20 40 (51200)
I1229 02:30:40.209307  6650 net.cpp:159] Memory required for data: 226432004
I1229 02:30:40.209311  6650 layer_factory.hpp:77] Creating layer inception_4b/pool_proj_BatchNorm
I1229 02:30:40.209314  6650 net.cpp:94] Creating Layer inception_4b/pool_proj_BatchNorm
I1229 02:30:40.209316  6650 net.cpp:435] inception_4b/pool_proj_BatchNorm <- inception_4b/pool_proj_raw
I1229 02:30:40.209318  6650 net.cpp:409] inception_4b/pool_proj_BatchNorm -> inception_4b/pool_proj
I1229 02:30:40.209709  6650 net.cpp:144] Setting up inception_4b/pool_proj_BatchNorm
I1229 02:30:40.209720  6650 net.cpp:151] Top shape: 1 64 20 40 (51200)
I1229 02:30:40.209724  6650 net.cpp:159] Memory required for data: 226636804
I1229 02:30:40.209731  6650 layer_factory.hpp:77] Creating layer inception_4b/relu_pool_proj
I1229 02:30:40.209738  6650 net.cpp:94] Creating Layer inception_4b/relu_pool_proj
I1229 02:30:40.209740  6650 net.cpp:435] inception_4b/relu_pool_proj <- inception_4b/pool_proj
I1229 02:30:40.209743  6650 net.cpp:396] inception_4b/relu_pool_proj -> inception_4b/pool_proj (in-place)
I1229 02:30:40.209746  6650 net.cpp:144] Setting up inception_4b/relu_pool_proj
I1229 02:30:40.209748  6650 net.cpp:151] Top shape: 1 64 20 40 (51200)
I1229 02:30:40.209753  6650 net.cpp:159] Memory required for data: 226841604
I1229 02:30:40.209754  6650 layer_factory.hpp:77] Creating layer inception_4b/output
I1229 02:30:40.209758  6650 net.cpp:94] Creating Layer inception_4b/output
I1229 02:30:40.209760  6650 net.cpp:435] inception_4b/output <- inception_4b/1x1
I1229 02:30:40.209762  6650 net.cpp:435] inception_4b/output <- inception_4b/3x3
I1229 02:30:40.209765  6650 net.cpp:435] inception_4b/output <- inception_4b/5x5
I1229 02:30:40.209769  6650 net.cpp:435] inception_4b/output <- inception_4b/pool_proj
I1229 02:30:40.209771  6650 net.cpp:409] inception_4b/output -> inception_4b/output
I1229 02:30:40.209789  6650 net.cpp:144] Setting up inception_4b/output
I1229 02:30:40.209792  6650 net.cpp:151] Top shape: 1 512 20 40 (409600)
I1229 02:30:40.209796  6650 net.cpp:159] Memory required for data: 228480004
I1229 02:30:40.209798  6650 layer_factory.hpp:77] Creating layer inception_4b/output_inception_4b/output_0_split
I1229 02:30:40.209802  6650 net.cpp:94] Creating Layer inception_4b/output_inception_4b/output_0_split
I1229 02:30:40.209805  6650 net.cpp:435] inception_4b/output_inception_4b/output_0_split <- inception_4b/output
I1229 02:30:40.209807  6650 net.cpp:409] inception_4b/output_inception_4b/output_0_split -> inception_4b/output_inception_4b/output_0_split_0
I1229 02:30:40.209810  6650 net.cpp:409] inception_4b/output_inception_4b/output_0_split -> inception_4b/output_inception_4b/output_0_split_1
I1229 02:30:40.209813  6650 net.cpp:409] inception_4b/output_inception_4b/output_0_split -> inception_4b/output_inception_4b/output_0_split_2
I1229 02:30:40.209816  6650 net.cpp:409] inception_4b/output_inception_4b/output_0_split -> inception_4b/output_inception_4b/output_0_split_3
I1229 02:30:40.209846  6650 net.cpp:144] Setting up inception_4b/output_inception_4b/output_0_split
I1229 02:30:40.209849  6650 net.cpp:151] Top shape: 1 512 20 40 (409600)
I1229 02:30:40.209852  6650 net.cpp:151] Top shape: 1 512 20 40 (409600)
I1229 02:30:40.209854  6650 net.cpp:151] Top shape: 1 512 20 40 (409600)
I1229 02:30:40.209856  6650 net.cpp:151] Top shape: 1 512 20 40 (409600)
I1229 02:30:40.209859  6650 net.cpp:159] Memory required for data: 235033604
I1229 02:30:40.209861  6650 layer_factory.hpp:77] Creating layer inception_4c/1x1
I1229 02:30:40.209867  6650 net.cpp:94] Creating Layer inception_4c/1x1
I1229 02:30:40.209868  6650 net.cpp:435] inception_4c/1x1 <- inception_4b/output_inception_4b/output_0_split_0
I1229 02:30:40.209872  6650 net.cpp:409] inception_4c/1x1 -> inception_4c/1x1_raw
I1229 02:30:40.210381  6650 net.cpp:144] Setting up inception_4c/1x1
I1229 02:30:40.210386  6650 net.cpp:151] Top shape: 1 128 20 40 (102400)
I1229 02:30:40.210389  6650 net.cpp:159] Memory required for data: 235443204
I1229 02:30:40.210393  6650 layer_factory.hpp:77] Creating layer inception_4c/1x1_BatchNorm
I1229 02:30:40.210397  6650 net.cpp:94] Creating Layer inception_4c/1x1_BatchNorm
I1229 02:30:40.210399  6650 net.cpp:435] inception_4c/1x1_BatchNorm <- inception_4c/1x1_raw
I1229 02:30:40.210402  6650 net.cpp:409] inception_4c/1x1_BatchNorm -> inception_4c/1x1
I1229 02:30:40.210760  6650 net.cpp:144] Setting up inception_4c/1x1_BatchNorm
I1229 02:30:40.210765  6650 net.cpp:151] Top shape: 1 128 20 40 (102400)
I1229 02:30:40.210767  6650 net.cpp:159] Memory required for data: 235852804
I1229 02:30:40.210773  6650 layer_factory.hpp:77] Creating layer inception_4c/relu_1x1
I1229 02:30:40.210777  6650 net.cpp:94] Creating Layer inception_4c/relu_1x1
I1229 02:30:40.210778  6650 net.cpp:435] inception_4c/relu_1x1 <- inception_4c/1x1
I1229 02:30:40.210780  6650 net.cpp:396] inception_4c/relu_1x1 -> inception_4c/1x1 (in-place)
I1229 02:30:40.210784  6650 net.cpp:144] Setting up inception_4c/relu_1x1
I1229 02:30:40.210788  6650 net.cpp:151] Top shape: 1 128 20 40 (102400)
I1229 02:30:40.210790  6650 net.cpp:159] Memory required for data: 236262404
I1229 02:30:40.210793  6650 layer_factory.hpp:77] Creating layer inception_4c/3x3_reduce
I1229 02:30:40.210798  6650 net.cpp:94] Creating Layer inception_4c/3x3_reduce
I1229 02:30:40.210800  6650 net.cpp:435] inception_4c/3x3_reduce <- inception_4b/output_inception_4b/output_0_split_1
I1229 02:30:40.210804  6650 net.cpp:409] inception_4c/3x3_reduce -> inception_4c/3x3_reduce_raw
I1229 02:30:40.211912  6650 net.cpp:144] Setting up inception_4c/3x3_reduce
I1229 02:30:40.211920  6650 net.cpp:151] Top shape: 1 128 20 40 (102400)
I1229 02:30:40.211922  6650 net.cpp:159] Memory required for data: 236672004
I1229 02:30:40.211926  6650 layer_factory.hpp:77] Creating layer inception_4c/3x3_reduce_BatchNorm
I1229 02:30:40.211931  6650 net.cpp:94] Creating Layer inception_4c/3x3_reduce_BatchNorm
I1229 02:30:40.211933  6650 net.cpp:435] inception_4c/3x3_reduce_BatchNorm <- inception_4c/3x3_reduce_raw
I1229 02:30:40.211936  6650 net.cpp:409] inception_4c/3x3_reduce_BatchNorm -> inception_4c/3x3_reduce
I1229 02:30:40.212261  6650 net.cpp:144] Setting up inception_4c/3x3_reduce_BatchNorm
I1229 02:30:40.212267  6650 net.cpp:151] Top shape: 1 128 20 40 (102400)
I1229 02:30:40.212271  6650 net.cpp:159] Memory required for data: 237081604
I1229 02:30:40.212276  6650 layer_factory.hpp:77] Creating layer inception_4c/relu_3x3_reduce
I1229 02:30:40.212280  6650 net.cpp:94] Creating Layer inception_4c/relu_3x3_reduce
I1229 02:30:40.212281  6650 net.cpp:435] inception_4c/relu_3x3_reduce <- inception_4c/3x3_reduce
I1229 02:30:40.212285  6650 net.cpp:396] inception_4c/relu_3x3_reduce -> inception_4c/3x3_reduce (in-place)
I1229 02:30:40.212289  6650 net.cpp:144] Setting up inception_4c/relu_3x3_reduce
I1229 02:30:40.212291  6650 net.cpp:151] Top shape: 1 128 20 40 (102400)
I1229 02:30:40.212293  6650 net.cpp:159] Memory required for data: 237491204
I1229 02:30:40.212294  6650 layer_factory.hpp:77] Creating layer inception_4c/3x3
I1229 02:30:40.212299  6650 net.cpp:94] Creating Layer inception_4c/3x3
I1229 02:30:40.212301  6650 net.cpp:435] inception_4c/3x3 <- inception_4c/3x3_reduce
I1229 02:30:40.212304  6650 net.cpp:409] inception_4c/3x3 -> inception_4c/3x3_raw
I1229 02:30:40.214779  6650 net.cpp:144] Setting up inception_4c/3x3
I1229 02:30:40.214793  6650 net.cpp:151] Top shape: 1 256 20 40 (204800)
I1229 02:30:40.214799  6650 net.cpp:159] Memory required for data: 238310404
I1229 02:30:40.214807  6650 layer_factory.hpp:77] Creating layer inception_4c/3x3_BatchNorm
I1229 02:30:40.214819  6650 net.cpp:94] Creating Layer inception_4c/3x3_BatchNorm
I1229 02:30:40.214823  6650 net.cpp:435] inception_4c/3x3_BatchNorm <- inception_4c/3x3_raw
I1229 02:30:40.214829  6650 net.cpp:409] inception_4c/3x3_BatchNorm -> inception_4c/3x3
I1229 02:30:40.215198  6650 net.cpp:144] Setting up inception_4c/3x3_BatchNorm
I1229 02:30:40.215204  6650 net.cpp:151] Top shape: 1 256 20 40 (204800)
I1229 02:30:40.215205  6650 net.cpp:159] Memory required for data: 239129604
I1229 02:30:40.215211  6650 layer_factory.hpp:77] Creating layer inception_4c/relu_3x3
I1229 02:30:40.215215  6650 net.cpp:94] Creating Layer inception_4c/relu_3x3
I1229 02:30:40.215217  6650 net.cpp:435] inception_4c/relu_3x3 <- inception_4c/3x3
I1229 02:30:40.215219  6650 net.cpp:396] inception_4c/relu_3x3 -> inception_4c/3x3 (in-place)
I1229 02:30:40.215224  6650 net.cpp:144] Setting up inception_4c/relu_3x3
I1229 02:30:40.215225  6650 net.cpp:151] Top shape: 1 256 20 40 (204800)
I1229 02:30:40.215229  6650 net.cpp:159] Memory required for data: 239948804
I1229 02:30:40.215229  6650 layer_factory.hpp:77] Creating layer inception_4c/5x5_reduce
I1229 02:30:40.215236  6650 net.cpp:94] Creating Layer inception_4c/5x5_reduce
I1229 02:30:40.215238  6650 net.cpp:435] inception_4c/5x5_reduce <- inception_4b/output_inception_4b/output_0_split_2
I1229 02:30:40.215241  6650 net.cpp:409] inception_4c/5x5_reduce -> inception_4c/5x5_reduce_raw
I1229 02:30:40.215482  6650 net.cpp:144] Setting up inception_4c/5x5_reduce
I1229 02:30:40.215487  6650 net.cpp:151] Top shape: 1 24 20 40 (19200)
I1229 02:30:40.215490  6650 net.cpp:159] Memory required for data: 240025604
I1229 02:30:40.215494  6650 layer_factory.hpp:77] Creating layer inception_4c/5x5_reduce_BatchNorm
I1229 02:30:40.215502  6650 net.cpp:94] Creating Layer inception_4c/5x5_reduce_BatchNorm
I1229 02:30:40.215503  6650 net.cpp:435] inception_4c/5x5_reduce_BatchNorm <- inception_4c/5x5_reduce_raw
I1229 02:30:40.215507  6650 net.cpp:409] inception_4c/5x5_reduce_BatchNorm -> inception_4c/5x5_reduce
I1229 02:30:40.215909  6650 net.cpp:144] Setting up inception_4c/5x5_reduce_BatchNorm
I1229 02:30:40.215914  6650 net.cpp:151] Top shape: 1 24 20 40 (19200)
I1229 02:30:40.215917  6650 net.cpp:159] Memory required for data: 240102404
I1229 02:30:40.215924  6650 layer_factory.hpp:77] Creating layer inception_4c/relu_5x5_reduce
I1229 02:30:40.215927  6650 net.cpp:94] Creating Layer inception_4c/relu_5x5_reduce
I1229 02:30:40.215929  6650 net.cpp:435] inception_4c/relu_5x5_reduce <- inception_4c/5x5_reduce
I1229 02:30:40.215931  6650 net.cpp:396] inception_4c/relu_5x5_reduce -> inception_4c/5x5_reduce (in-place)
I1229 02:30:40.215935  6650 net.cpp:144] Setting up inception_4c/relu_5x5_reduce
I1229 02:30:40.215939  6650 net.cpp:151] Top shape: 1 24 20 40 (19200)
I1229 02:30:40.215940  6650 net.cpp:159] Memory required for data: 240179204
I1229 02:30:40.215942  6650 layer_factory.hpp:77] Creating layer inception_4c/5x5
I1229 02:30:40.215947  6650 net.cpp:94] Creating Layer inception_4c/5x5
I1229 02:30:40.215948  6650 net.cpp:435] inception_4c/5x5 <- inception_4c/5x5_reduce
I1229 02:30:40.215952  6650 net.cpp:409] inception_4c/5x5 -> inception_4c/5x5_raw
I1229 02:30:40.216316  6650 net.cpp:144] Setting up inception_4c/5x5
I1229 02:30:40.216325  6650 net.cpp:151] Top shape: 1 64 20 40 (51200)
I1229 02:30:40.216327  6650 net.cpp:159] Memory required for data: 240384004
I1229 02:30:40.216331  6650 layer_factory.hpp:77] Creating layer inception_4c/5x5_BatchNorm
I1229 02:30:40.216336  6650 net.cpp:94] Creating Layer inception_4c/5x5_BatchNorm
I1229 02:30:40.216339  6650 net.cpp:435] inception_4c/5x5_BatchNorm <- inception_4c/5x5_raw
I1229 02:30:40.216342  6650 net.cpp:409] inception_4c/5x5_BatchNorm -> inception_4c/5x5
I1229 02:30:40.216729  6650 net.cpp:144] Setting up inception_4c/5x5_BatchNorm
I1229 02:30:40.216734  6650 net.cpp:151] Top shape: 1 64 20 40 (51200)
I1229 02:30:40.216737  6650 net.cpp:159] Memory required for data: 240588804
I1229 02:30:40.216744  6650 layer_factory.hpp:77] Creating layer inception_4c/relu_5x5
I1229 02:30:40.216748  6650 net.cpp:94] Creating Layer inception_4c/relu_5x5
I1229 02:30:40.216751  6650 net.cpp:435] inception_4c/relu_5x5 <- inception_4c/5x5
I1229 02:30:40.216755  6650 net.cpp:396] inception_4c/relu_5x5 -> inception_4c/5x5 (in-place)
I1229 02:30:40.216759  6650 net.cpp:144] Setting up inception_4c/relu_5x5
I1229 02:30:40.216761  6650 net.cpp:151] Top shape: 1 64 20 40 (51200)
I1229 02:30:40.216764  6650 net.cpp:159] Memory required for data: 240793604
I1229 02:30:40.216768  6650 layer_factory.hpp:77] Creating layer inception_4c/pool
I1229 02:30:40.216773  6650 net.cpp:94] Creating Layer inception_4c/pool
I1229 02:30:40.216775  6650 net.cpp:435] inception_4c/pool <- inception_4b/output_inception_4b/output_0_split_3
I1229 02:30:40.216779  6650 net.cpp:409] inception_4c/pool -> inception_4c/pool
I1229 02:30:40.216801  6650 net.cpp:144] Setting up inception_4c/pool
I1229 02:30:40.216804  6650 net.cpp:151] Top shape: 1 512 20 40 (409600)
I1229 02:30:40.216807  6650 net.cpp:159] Memory required for data: 242432004
I1229 02:30:40.216809  6650 layer_factory.hpp:77] Creating layer inception_4c/pool_proj
I1229 02:30:40.216814  6650 net.cpp:94] Creating Layer inception_4c/pool_proj
I1229 02:30:40.216817  6650 net.cpp:435] inception_4c/pool_proj <- inception_4c/pool
I1229 02:30:40.216820  6650 net.cpp:409] inception_4c/pool_proj -> inception_4c/pool_proj_raw
I1229 02:30:40.217157  6650 net.cpp:144] Setting up inception_4c/pool_proj
I1229 02:30:40.217164  6650 net.cpp:151] Top shape: 1 64 20 40 (51200)
I1229 02:30:40.217168  6650 net.cpp:159] Memory required for data: 242636804
I1229 02:30:40.217172  6650 layer_factory.hpp:77] Creating layer inception_4c/pool_proj_BatchNorm
I1229 02:30:40.217176  6650 net.cpp:94] Creating Layer inception_4c/pool_proj_BatchNorm
I1229 02:30:40.217180  6650 net.cpp:435] inception_4c/pool_proj_BatchNorm <- inception_4c/pool_proj_raw
I1229 02:30:40.217182  6650 net.cpp:409] inception_4c/pool_proj_BatchNorm -> inception_4c/pool_proj
I1229 02:30:40.217830  6650 net.cpp:144] Setting up inception_4c/pool_proj_BatchNorm
I1229 02:30:40.217836  6650 net.cpp:151] Top shape: 1 64 20 40 (51200)
I1229 02:30:40.217840  6650 net.cpp:159] Memory required for data: 242841604
I1229 02:30:40.217847  6650 layer_factory.hpp:77] Creating layer inception_4c/relu_pool_proj
I1229 02:30:40.217851  6650 net.cpp:94] Creating Layer inception_4c/relu_pool_proj
I1229 02:30:40.217854  6650 net.cpp:435] inception_4c/relu_pool_proj <- inception_4c/pool_proj
I1229 02:30:40.217859  6650 net.cpp:396] inception_4c/relu_pool_proj -> inception_4c/pool_proj (in-place)
I1229 02:30:40.217864  6650 net.cpp:144] Setting up inception_4c/relu_pool_proj
I1229 02:30:40.217869  6650 net.cpp:151] Top shape: 1 64 20 40 (51200)
I1229 02:30:40.217871  6650 net.cpp:159] Memory required for data: 243046404
I1229 02:30:40.217873  6650 layer_factory.hpp:77] Creating layer inception_4c/output
I1229 02:30:40.217878  6650 net.cpp:94] Creating Layer inception_4c/output
I1229 02:30:40.217881  6650 net.cpp:435] inception_4c/output <- inception_4c/1x1
I1229 02:30:40.217885  6650 net.cpp:435] inception_4c/output <- inception_4c/3x3
I1229 02:30:40.217886  6650 net.cpp:435] inception_4c/output <- inception_4c/5x5
I1229 02:30:40.217890  6650 net.cpp:435] inception_4c/output <- inception_4c/pool_proj
I1229 02:30:40.217893  6650 net.cpp:409] inception_4c/output -> inception_4c/output
I1229 02:30:40.217907  6650 net.cpp:144] Setting up inception_4c/output
I1229 02:30:40.217911  6650 net.cpp:151] Top shape: 1 512 20 40 (409600)
I1229 02:30:40.217913  6650 net.cpp:159] Memory required for data: 244684804
I1229 02:30:40.217916  6650 layer_factory.hpp:77] Creating layer inception_4c/output_inception_4c/output_0_split
I1229 02:30:40.217921  6650 net.cpp:94] Creating Layer inception_4c/output_inception_4c/output_0_split
I1229 02:30:40.217922  6650 net.cpp:435] inception_4c/output_inception_4c/output_0_split <- inception_4c/output
I1229 02:30:40.217926  6650 net.cpp:409] inception_4c/output_inception_4c/output_0_split -> inception_4c/output_inception_4c/output_0_split_0
I1229 02:30:40.217928  6650 net.cpp:409] inception_4c/output_inception_4c/output_0_split -> inception_4c/output_inception_4c/output_0_split_1
I1229 02:30:40.217931  6650 net.cpp:409] inception_4c/output_inception_4c/output_0_split -> inception_4c/output_inception_4c/output_0_split_2
I1229 02:30:40.217934  6650 net.cpp:409] inception_4c/output_inception_4c/output_0_split -> inception_4c/output_inception_4c/output_0_split_3
I1229 02:30:40.217964  6650 net.cpp:144] Setting up inception_4c/output_inception_4c/output_0_split
I1229 02:30:40.217967  6650 net.cpp:151] Top shape: 1 512 20 40 (409600)
I1229 02:30:40.217970  6650 net.cpp:151] Top shape: 1 512 20 40 (409600)
I1229 02:30:40.217972  6650 net.cpp:151] Top shape: 1 512 20 40 (409600)
I1229 02:30:40.217975  6650 net.cpp:151] Top shape: 1 512 20 40 (409600)
I1229 02:30:40.217978  6650 net.cpp:159] Memory required for data: 251238404
I1229 02:30:40.217980  6650 layer_factory.hpp:77] Creating layer inception_4d/1x1
I1229 02:30:40.217986  6650 net.cpp:94] Creating Layer inception_4d/1x1
I1229 02:30:40.217989  6650 net.cpp:435] inception_4d/1x1 <- inception_4c/output_inception_4c/output_0_split_0
I1229 02:30:40.217993  6650 net.cpp:409] inception_4d/1x1 -> inception_4d/1x1_raw
I1229 02:30:40.218454  6650 net.cpp:144] Setting up inception_4d/1x1
I1229 02:30:40.218459  6650 net.cpp:151] Top shape: 1 112 20 40 (89600)
I1229 02:30:40.218463  6650 net.cpp:159] Memory required for data: 251596804
I1229 02:30:40.218466  6650 layer_factory.hpp:77] Creating layer inception_4d/1x1_BatchNorm
I1229 02:30:40.218470  6650 net.cpp:94] Creating Layer inception_4d/1x1_BatchNorm
I1229 02:30:40.218472  6650 net.cpp:435] inception_4d/1x1_BatchNorm <- inception_4d/1x1_raw
I1229 02:30:40.218475  6650 net.cpp:409] inception_4d/1x1_BatchNorm -> inception_4d/1x1
I1229 02:30:40.218874  6650 net.cpp:144] Setting up inception_4d/1x1_BatchNorm
I1229 02:30:40.218879  6650 net.cpp:151] Top shape: 1 112 20 40 (89600)
I1229 02:30:40.218883  6650 net.cpp:159] Memory required for data: 251955204
I1229 02:30:40.218888  6650 layer_factory.hpp:77] Creating layer inception_4d/relu_1x1
I1229 02:30:40.218891  6650 net.cpp:94] Creating Layer inception_4d/relu_1x1
I1229 02:30:40.218894  6650 net.cpp:435] inception_4d/relu_1x1 <- inception_4d/1x1
I1229 02:30:40.218897  6650 net.cpp:396] inception_4d/relu_1x1 -> inception_4d/1x1 (in-place)
I1229 02:30:40.218901  6650 net.cpp:144] Setting up inception_4d/relu_1x1
I1229 02:30:40.218904  6650 net.cpp:151] Top shape: 1 112 20 40 (89600)
I1229 02:30:40.218907  6650 net.cpp:159] Memory required for data: 252313604
I1229 02:30:40.218909  6650 layer_factory.hpp:77] Creating layer inception_4d/3x3_reduce
I1229 02:30:40.218914  6650 net.cpp:94] Creating Layer inception_4d/3x3_reduce
I1229 02:30:40.218916  6650 net.cpp:435] inception_4d/3x3_reduce <- inception_4c/output_inception_4c/output_0_split_1
I1229 02:30:40.218919  6650 net.cpp:409] inception_4d/3x3_reduce -> inception_4d/3x3_reduce_raw
I1229 02:30:40.220069  6650 net.cpp:144] Setting up inception_4d/3x3_reduce
I1229 02:30:40.220077  6650 net.cpp:151] Top shape: 1 144 20 40 (115200)
I1229 02:30:40.220079  6650 net.cpp:159] Memory required for data: 252774404
I1229 02:30:40.220083  6650 layer_factory.hpp:77] Creating layer inception_4d/3x3_reduce_BatchNorm
I1229 02:30:40.220088  6650 net.cpp:94] Creating Layer inception_4d/3x3_reduce_BatchNorm
I1229 02:30:40.220093  6650 net.cpp:435] inception_4d/3x3_reduce_BatchNorm <- inception_4d/3x3_reduce_raw
I1229 02:30:40.220095  6650 net.cpp:409] inception_4d/3x3_reduce_BatchNorm -> inception_4d/3x3_reduce
I1229 02:30:40.220479  6650 net.cpp:144] Setting up inception_4d/3x3_reduce_BatchNorm
I1229 02:30:40.220482  6650 net.cpp:151] Top shape: 1 144 20 40 (115200)
I1229 02:30:40.220485  6650 net.cpp:159] Memory required for data: 253235204
I1229 02:30:40.220490  6650 layer_factory.hpp:77] Creating layer inception_4d/relu_3x3_reduce
I1229 02:30:40.220494  6650 net.cpp:94] Creating Layer inception_4d/relu_3x3_reduce
I1229 02:30:40.220495  6650 net.cpp:435] inception_4d/relu_3x3_reduce <- inception_4d/3x3_reduce
I1229 02:30:40.220499  6650 net.cpp:396] inception_4d/relu_3x3_reduce -> inception_4d/3x3_reduce (in-place)
I1229 02:30:40.220502  6650 net.cpp:144] Setting up inception_4d/relu_3x3_reduce
I1229 02:30:40.220504  6650 net.cpp:151] Top shape: 1 144 20 40 (115200)
I1229 02:30:40.220507  6650 net.cpp:159] Memory required for data: 253696004
I1229 02:30:40.220508  6650 layer_factory.hpp:77] Creating layer inception_4d/3x3
I1229 02:30:40.220513  6650 net.cpp:94] Creating Layer inception_4d/3x3
I1229 02:30:40.220515  6650 net.cpp:435] inception_4d/3x3 <- inception_4d/3x3_reduce
I1229 02:30:40.220518  6650 net.cpp:409] inception_4d/3x3 -> inception_4d/3x3_raw
I1229 02:30:40.223095  6650 net.cpp:144] Setting up inception_4d/3x3
I1229 02:30:40.223101  6650 net.cpp:151] Top shape: 1 288 20 40 (230400)
I1229 02:30:40.223105  6650 net.cpp:159] Memory required for data: 254617604
I1229 02:30:40.223109  6650 layer_factory.hpp:77] Creating layer inception_4d/3x3_BatchNorm
I1229 02:30:40.223116  6650 net.cpp:94] Creating Layer inception_4d/3x3_BatchNorm
I1229 02:30:40.223119  6650 net.cpp:435] inception_4d/3x3_BatchNorm <- inception_4d/3x3_raw
I1229 02:30:40.223122  6650 net.cpp:409] inception_4d/3x3_BatchNorm -> inception_4d/3x3
I1229 02:30:40.223520  6650 net.cpp:144] Setting up inception_4d/3x3_BatchNorm
I1229 02:30:40.223524  6650 net.cpp:151] Top shape: 1 288 20 40 (230400)
I1229 02:30:40.223527  6650 net.cpp:159] Memory required for data: 255539204
I1229 02:30:40.223532  6650 layer_factory.hpp:77] Creating layer inception_4d/relu_3x3
I1229 02:30:40.223536  6650 net.cpp:94] Creating Layer inception_4d/relu_3x3
I1229 02:30:40.223537  6650 net.cpp:435] inception_4d/relu_3x3 <- inception_4d/3x3
I1229 02:30:40.223541  6650 net.cpp:396] inception_4d/relu_3x3 -> inception_4d/3x3 (in-place)
I1229 02:30:40.223543  6650 net.cpp:144] Setting up inception_4d/relu_3x3
I1229 02:30:40.223546  6650 net.cpp:151] Top shape: 1 288 20 40 (230400)
I1229 02:30:40.223547  6650 net.cpp:159] Memory required for data: 256460804
I1229 02:30:40.223549  6650 layer_factory.hpp:77] Creating layer inception_4d/5x5_reduce
I1229 02:30:40.223553  6650 net.cpp:94] Creating Layer inception_4d/5x5_reduce
I1229 02:30:40.223556  6650 net.cpp:435] inception_4d/5x5_reduce <- inception_4c/output_inception_4c/output_0_split_2
I1229 02:30:40.223558  6650 net.cpp:409] inception_4d/5x5_reduce -> inception_4d/5x5_reduce_raw
I1229 02:30:40.223791  6650 net.cpp:144] Setting up inception_4d/5x5_reduce
I1229 02:30:40.223794  6650 net.cpp:151] Top shape: 1 32 20 40 (25600)
I1229 02:30:40.223798  6650 net.cpp:159] Memory required for data: 256563204
I1229 02:30:40.223800  6650 layer_factory.hpp:77] Creating layer inception_4d/5x5_reduce_BatchNorm
I1229 02:30:40.223804  6650 net.cpp:94] Creating Layer inception_4d/5x5_reduce_BatchNorm
I1229 02:30:40.223806  6650 net.cpp:435] inception_4d/5x5_reduce_BatchNorm <- inception_4d/5x5_reduce_raw
I1229 02:30:40.223809  6650 net.cpp:409] inception_4d/5x5_reduce_BatchNorm -> inception_4d/5x5_reduce
I1229 02:30:40.224195  6650 net.cpp:144] Setting up inception_4d/5x5_reduce_BatchNorm
I1229 02:30:40.224198  6650 net.cpp:151] Top shape: 1 32 20 40 (25600)
I1229 02:30:40.224200  6650 net.cpp:159] Memory required for data: 256665604
I1229 02:30:40.224212  6650 layer_factory.hpp:77] Creating layer inception_4d/relu_5x5_reduce
I1229 02:30:40.224215  6650 net.cpp:94] Creating Layer inception_4d/relu_5x5_reduce
I1229 02:30:40.224217  6650 net.cpp:435] inception_4d/relu_5x5_reduce <- inception_4d/5x5_reduce
I1229 02:30:40.224220  6650 net.cpp:396] inception_4d/relu_5x5_reduce -> inception_4d/5x5_reduce (in-place)
I1229 02:30:40.224222  6650 net.cpp:144] Setting up inception_4d/relu_5x5_reduce
I1229 02:30:40.224225  6650 net.cpp:151] Top shape: 1 32 20 40 (25600)
I1229 02:30:40.224226  6650 net.cpp:159] Memory required for data: 256768004
I1229 02:30:40.224228  6650 layer_factory.hpp:77] Creating layer inception_4d/5x5
I1229 02:30:40.224234  6650 net.cpp:94] Creating Layer inception_4d/5x5
I1229 02:30:40.224236  6650 net.cpp:435] inception_4d/5x5 <- inception_4d/5x5_reduce
I1229 02:30:40.224241  6650 net.cpp:409] inception_4d/5x5 -> inception_4d/5x5_raw
I1229 02:30:40.224647  6650 net.cpp:144] Setting up inception_4d/5x5
I1229 02:30:40.224651  6650 net.cpp:151] Top shape: 1 64 20 40 (51200)
I1229 02:30:40.224654  6650 net.cpp:159] Memory required for data: 256972804
I1229 02:30:40.224658  6650 layer_factory.hpp:77] Creating layer inception_4d/5x5_BatchNorm
I1229 02:30:40.224663  6650 net.cpp:94] Creating Layer inception_4d/5x5_BatchNorm
I1229 02:30:40.224666  6650 net.cpp:435] inception_4d/5x5_BatchNorm <- inception_4d/5x5_raw
I1229 02:30:40.224669  6650 net.cpp:409] inception_4d/5x5_BatchNorm -> inception_4d/5x5
I1229 02:30:40.225056  6650 net.cpp:144] Setting up inception_4d/5x5_BatchNorm
I1229 02:30:40.225060  6650 net.cpp:151] Top shape: 1 64 20 40 (51200)
I1229 02:30:40.225064  6650 net.cpp:159] Memory required for data: 257177604
I1229 02:30:40.225069  6650 layer_factory.hpp:77] Creating layer inception_4d/relu_5x5
I1229 02:30:40.225071  6650 net.cpp:94] Creating Layer inception_4d/relu_5x5
I1229 02:30:40.225075  6650 net.cpp:435] inception_4d/relu_5x5 <- inception_4d/5x5
I1229 02:30:40.225076  6650 net.cpp:396] inception_4d/relu_5x5 -> inception_4d/5x5 (in-place)
I1229 02:30:40.225080  6650 net.cpp:144] Setting up inception_4d/relu_5x5
I1229 02:30:40.225081  6650 net.cpp:151] Top shape: 1 64 20 40 (51200)
I1229 02:30:40.225085  6650 net.cpp:159] Memory required for data: 257382404
I1229 02:30:40.225085  6650 layer_factory.hpp:77] Creating layer inception_4d/pool
I1229 02:30:40.225090  6650 net.cpp:94] Creating Layer inception_4d/pool
I1229 02:30:40.225091  6650 net.cpp:435] inception_4d/pool <- inception_4c/output_inception_4c/output_0_split_3
I1229 02:30:40.225095  6650 net.cpp:409] inception_4d/pool -> inception_4d/pool
I1229 02:30:40.225116  6650 net.cpp:144] Setting up inception_4d/pool
I1229 02:30:40.225118  6650 net.cpp:151] Top shape: 1 512 20 40 (409600)
I1229 02:30:40.225121  6650 net.cpp:159] Memory required for data: 259020804
I1229 02:30:40.225122  6650 layer_factory.hpp:77] Creating layer inception_4d/pool_proj
I1229 02:30:40.225127  6650 net.cpp:94] Creating Layer inception_4d/pool_proj
I1229 02:30:40.225129  6650 net.cpp:435] inception_4d/pool_proj <- inception_4d/pool
I1229 02:30:40.225132  6650 net.cpp:409] inception_4d/pool_proj -> inception_4d/pool_proj_raw
I1229 02:30:40.226006  6650 net.cpp:144] Setting up inception_4d/pool_proj
I1229 02:30:40.226013  6650 net.cpp:151] Top shape: 1 64 20 40 (51200)
I1229 02:30:40.226016  6650 net.cpp:159] Memory required for data: 259225604
I1229 02:30:40.226020  6650 layer_factory.hpp:77] Creating layer inception_4d/pool_proj_BatchNorm
I1229 02:30:40.226025  6650 net.cpp:94] Creating Layer inception_4d/pool_proj_BatchNorm
I1229 02:30:40.226027  6650 net.cpp:435] inception_4d/pool_proj_BatchNorm <- inception_4d/pool_proj_raw
I1229 02:30:40.226030  6650 net.cpp:409] inception_4d/pool_proj_BatchNorm -> inception_4d/pool_proj
I1229 02:30:40.226428  6650 net.cpp:144] Setting up inception_4d/pool_proj_BatchNorm
I1229 02:30:40.226433  6650 net.cpp:151] Top shape: 1 64 20 40 (51200)
I1229 02:30:40.226436  6650 net.cpp:159] Memory required for data: 259430404
I1229 02:30:40.226442  6650 layer_factory.hpp:77] Creating layer inception_4d/relu_pool_proj
I1229 02:30:40.226445  6650 net.cpp:94] Creating Layer inception_4d/relu_pool_proj
I1229 02:30:40.226447  6650 net.cpp:435] inception_4d/relu_pool_proj <- inception_4d/pool_proj
I1229 02:30:40.226450  6650 net.cpp:396] inception_4d/relu_pool_proj -> inception_4d/pool_proj (in-place)
I1229 02:30:40.226455  6650 net.cpp:144] Setting up inception_4d/relu_pool_proj
I1229 02:30:40.226457  6650 net.cpp:151] Top shape: 1 64 20 40 (51200)
I1229 02:30:40.226460  6650 net.cpp:159] Memory required for data: 259635204
I1229 02:30:40.226462  6650 layer_factory.hpp:77] Creating layer inception_4d/output
I1229 02:30:40.226467  6650 net.cpp:94] Creating Layer inception_4d/output
I1229 02:30:40.226470  6650 net.cpp:435] inception_4d/output <- inception_4d/1x1
I1229 02:30:40.226473  6650 net.cpp:435] inception_4d/output <- inception_4d/3x3
I1229 02:30:40.226476  6650 net.cpp:435] inception_4d/output <- inception_4d/5x5
I1229 02:30:40.226480  6650 net.cpp:435] inception_4d/output <- inception_4d/pool_proj
I1229 02:30:40.226482  6650 net.cpp:409] inception_4d/output -> inception_4d/output
I1229 02:30:40.226500  6650 net.cpp:144] Setting up inception_4d/output
I1229 02:30:40.226505  6650 net.cpp:151] Top shape: 1 528 20 40 (422400)
I1229 02:30:40.226507  6650 net.cpp:159] Memory required for data: 261324804
I1229 02:30:40.226508  6650 layer_factory.hpp:77] Creating layer inception_4d/output_inception_4d/output_0_split
I1229 02:30:40.226514  6650 net.cpp:94] Creating Layer inception_4d/output_inception_4d/output_0_split
I1229 02:30:40.226516  6650 net.cpp:435] inception_4d/output_inception_4d/output_0_split <- inception_4d/output
I1229 02:30:40.226519  6650 net.cpp:409] inception_4d/output_inception_4d/output_0_split -> inception_4d/output_inception_4d/output_0_split_0
I1229 02:30:40.226522  6650 net.cpp:409] inception_4d/output_inception_4d/output_0_split -> inception_4d/output_inception_4d/output_0_split_1
I1229 02:30:40.226527  6650 net.cpp:409] inception_4d/output_inception_4d/output_0_split -> inception_4d/output_inception_4d/output_0_split_2
I1229 02:30:40.226531  6650 net.cpp:409] inception_4d/output_inception_4d/output_0_split -> inception_4d/output_inception_4d/output_0_split_3
I1229 02:30:40.226593  6650 net.cpp:144] Setting up inception_4d/output_inception_4d/output_0_split
I1229 02:30:40.226599  6650 net.cpp:151] Top shape: 1 528 20 40 (422400)
I1229 02:30:40.226603  6650 net.cpp:151] Top shape: 1 528 20 40 (422400)
I1229 02:30:40.226606  6650 net.cpp:151] Top shape: 1 528 20 40 (422400)
I1229 02:30:40.226609  6650 net.cpp:151] Top shape: 1 528 20 40 (422400)
I1229 02:30:40.226613  6650 net.cpp:159] Memory required for data: 268083204
I1229 02:30:40.226614  6650 layer_factory.hpp:77] Creating layer inception_4e/1x1
I1229 02:30:40.226621  6650 net.cpp:94] Creating Layer inception_4e/1x1
I1229 02:30:40.226624  6650 net.cpp:435] inception_4e/1x1 <- inception_4d/output_inception_4d/output_0_split_0
I1229 02:30:40.226629  6650 net.cpp:409] inception_4e/1x1 -> inception_4e/1x1_raw
I1229 02:30:40.227509  6650 net.cpp:144] Setting up inception_4e/1x1
I1229 02:30:40.227514  6650 net.cpp:151] Top shape: 1 256 20 40 (204800)
I1229 02:30:40.227516  6650 net.cpp:159] Memory required for data: 268902404
I1229 02:30:40.227520  6650 layer_factory.hpp:77] Creating layer inception_4e/1x1_BatchNorm
I1229 02:30:40.227524  6650 net.cpp:94] Creating Layer inception_4e/1x1_BatchNorm
I1229 02:30:40.227526  6650 net.cpp:435] inception_4e/1x1_BatchNorm <- inception_4e/1x1_raw
I1229 02:30:40.227530  6650 net.cpp:409] inception_4e/1x1_BatchNorm -> inception_4e/1x1
I1229 02:30:40.227875  6650 net.cpp:144] Setting up inception_4e/1x1_BatchNorm
I1229 02:30:40.227881  6650 net.cpp:151] Top shape: 1 256 20 40 (204800)
I1229 02:30:40.227885  6650 net.cpp:159] Memory required for data: 269721604
I1229 02:30:40.227891  6650 layer_factory.hpp:77] Creating layer inception_4e/relu_1x1
I1229 02:30:40.227896  6650 net.cpp:94] Creating Layer inception_4e/relu_1x1
I1229 02:30:40.227900  6650 net.cpp:435] inception_4e/relu_1x1 <- inception_4e/1x1
I1229 02:30:40.227902  6650 net.cpp:396] inception_4e/relu_1x1 -> inception_4e/1x1 (in-place)
I1229 02:30:40.227907  6650 net.cpp:144] Setting up inception_4e/relu_1x1
I1229 02:30:40.227910  6650 net.cpp:151] Top shape: 1 256 20 40 (204800)
I1229 02:30:40.227912  6650 net.cpp:159] Memory required for data: 270540804
I1229 02:30:40.227913  6650 layer_factory.hpp:77] Creating layer inception_4e/3x3_reduce
I1229 02:30:40.227918  6650 net.cpp:94] Creating Layer inception_4e/3x3_reduce
I1229 02:30:40.227921  6650 net.cpp:435] inception_4e/3x3_reduce <- inception_4d/output_inception_4d/output_0_split_1
I1229 02:30:40.227923  6650 net.cpp:409] inception_4e/3x3_reduce -> inception_4e/3x3_reduce_raw
I1229 02:30:40.228533  6650 net.cpp:144] Setting up inception_4e/3x3_reduce
I1229 02:30:40.228538  6650 net.cpp:151] Top shape: 1 160 20 40 (128000)
I1229 02:30:40.228540  6650 net.cpp:159] Memory required for data: 271052804
I1229 02:30:40.228544  6650 layer_factory.hpp:77] Creating layer inception_4e/3x3_reduce_BatchNorm
I1229 02:30:40.228549  6650 net.cpp:94] Creating Layer inception_4e/3x3_reduce_BatchNorm
I1229 02:30:40.228550  6650 net.cpp:435] inception_4e/3x3_reduce_BatchNorm <- inception_4e/3x3_reduce_raw
I1229 02:30:40.228554  6650 net.cpp:409] inception_4e/3x3_reduce_BatchNorm -> inception_4e/3x3_reduce
I1229 02:30:40.228929  6650 net.cpp:144] Setting up inception_4e/3x3_reduce_BatchNorm
I1229 02:30:40.228932  6650 net.cpp:151] Top shape: 1 160 20 40 (128000)
I1229 02:30:40.228935  6650 net.cpp:159] Memory required for data: 271564804
I1229 02:30:40.228940  6650 layer_factory.hpp:77] Creating layer inception_4e/relu_3x3_reduce
I1229 02:30:40.228945  6650 net.cpp:94] Creating Layer inception_4e/relu_3x3_reduce
I1229 02:30:40.228948  6650 net.cpp:435] inception_4e/relu_3x3_reduce <- inception_4e/3x3_reduce
I1229 02:30:40.228950  6650 net.cpp:396] inception_4e/relu_3x3_reduce -> inception_4e/3x3_reduce (in-place)
I1229 02:30:40.228953  6650 net.cpp:144] Setting up inception_4e/relu_3x3_reduce
I1229 02:30:40.228955  6650 net.cpp:151] Top shape: 1 160 20 40 (128000)
I1229 02:30:40.228957  6650 net.cpp:159] Memory required for data: 272076804
I1229 02:30:40.228960  6650 layer_factory.hpp:77] Creating layer inception_4e/3x3
I1229 02:30:40.228963  6650 net.cpp:94] Creating Layer inception_4e/3x3
I1229 02:30:40.228965  6650 net.cpp:435] inception_4e/3x3 <- inception_4e/3x3_reduce
I1229 02:30:40.228968  6650 net.cpp:409] inception_4e/3x3 -> inception_4e/3x3_raw
I1229 02:30:40.233078  6650 net.cpp:144] Setting up inception_4e/3x3
I1229 02:30:40.233098  6650 net.cpp:151] Top shape: 1 320 20 40 (256000)
I1229 02:30:40.233104  6650 net.cpp:159] Memory required for data: 273100804
I1229 02:30:40.233112  6650 layer_factory.hpp:77] Creating layer inception_4e/3x3_BatchNorm
I1229 02:30:40.233124  6650 net.cpp:94] Creating Layer inception_4e/3x3_BatchNorm
I1229 02:30:40.233127  6650 net.cpp:435] inception_4e/3x3_BatchNorm <- inception_4e/3x3_raw
I1229 02:30:40.233132  6650 net.cpp:409] inception_4e/3x3_BatchNorm -> inception_4e/3x3
I1229 02:30:40.233573  6650 net.cpp:144] Setting up inception_4e/3x3_BatchNorm
I1229 02:30:40.233578  6650 net.cpp:151] Top shape: 1 320 20 40 (256000)
I1229 02:30:40.233582  6650 net.cpp:159] Memory required for data: 274124804
I1229 02:30:40.233587  6650 layer_factory.hpp:77] Creating layer inception_4e/relu_3x3
I1229 02:30:40.233592  6650 net.cpp:94] Creating Layer inception_4e/relu_3x3
I1229 02:30:40.233593  6650 net.cpp:435] inception_4e/relu_3x3 <- inception_4e/3x3
I1229 02:30:40.233597  6650 net.cpp:396] inception_4e/relu_3x3 -> inception_4e/3x3 (in-place)
I1229 02:30:40.233600  6650 net.cpp:144] Setting up inception_4e/relu_3x3
I1229 02:30:40.233603  6650 net.cpp:151] Top shape: 1 320 20 40 (256000)
I1229 02:30:40.233604  6650 net.cpp:159] Memory required for data: 275148804
I1229 02:30:40.233606  6650 layer_factory.hpp:77] Creating layer inception_4e/5x5_reduce
I1229 02:30:40.233613  6650 net.cpp:94] Creating Layer inception_4e/5x5_reduce
I1229 02:30:40.233615  6650 net.cpp:435] inception_4e/5x5_reduce <- inception_4d/output_inception_4d/output_0_split_2
I1229 02:30:40.233618  6650 net.cpp:409] inception_4e/5x5_reduce -> inception_4e/5x5_reduce_raw
I1229 02:30:40.233868  6650 net.cpp:144] Setting up inception_4e/5x5_reduce
I1229 02:30:40.233872  6650 net.cpp:151] Top shape: 1 32 20 40 (25600)
I1229 02:30:40.233875  6650 net.cpp:159] Memory required for data: 275251204
I1229 02:30:40.233878  6650 layer_factory.hpp:77] Creating layer inception_4e/5x5_reduce_BatchNorm
I1229 02:30:40.233882  6650 net.cpp:94] Creating Layer inception_4e/5x5_reduce_BatchNorm
I1229 02:30:40.233884  6650 net.cpp:435] inception_4e/5x5_reduce_BatchNorm <- inception_4e/5x5_reduce_raw
I1229 02:30:40.233887  6650 net.cpp:409] inception_4e/5x5_reduce_BatchNorm -> inception_4e/5x5_reduce
I1229 02:30:40.234292  6650 net.cpp:144] Setting up inception_4e/5x5_reduce_BatchNorm
I1229 02:30:40.234298  6650 net.cpp:151] Top shape: 1 32 20 40 (25600)
I1229 02:30:40.234302  6650 net.cpp:159] Memory required for data: 275353604
I1229 02:30:40.234308  6650 layer_factory.hpp:77] Creating layer inception_4e/relu_5x5_reduce
I1229 02:30:40.234309  6650 net.cpp:94] Creating Layer inception_4e/relu_5x5_reduce
I1229 02:30:40.234313  6650 net.cpp:435] inception_4e/relu_5x5_reduce <- inception_4e/5x5_reduce
I1229 02:30:40.234314  6650 net.cpp:396] inception_4e/relu_5x5_reduce -> inception_4e/5x5_reduce (in-place)
I1229 02:30:40.234318  6650 net.cpp:144] Setting up inception_4e/relu_5x5_reduce
I1229 02:30:40.234319  6650 net.cpp:151] Top shape: 1 32 20 40 (25600)
I1229 02:30:40.234321  6650 net.cpp:159] Memory required for data: 275456004
I1229 02:30:40.234323  6650 layer_factory.hpp:77] Creating layer inception_4e/5x5
I1229 02:30:40.234328  6650 net.cpp:94] Creating Layer inception_4e/5x5
I1229 02:30:40.234329  6650 net.cpp:435] inception_4e/5x5 <- inception_4e/5x5_reduce
I1229 02:30:40.234333  6650 net.cpp:409] inception_4e/5x5 -> inception_4e/5x5_raw
I1229 02:30:40.235677  6650 net.cpp:144] Setting up inception_4e/5x5
I1229 02:30:40.235687  6650 net.cpp:151] Top shape: 1 128 20 40 (102400)
I1229 02:30:40.235689  6650 net.cpp:159] Memory required for data: 275865604
I1229 02:30:40.235694  6650 layer_factory.hpp:77] Creating layer inception_4e/5x5_BatchNorm
I1229 02:30:40.235699  6650 net.cpp:94] Creating Layer inception_4e/5x5_BatchNorm
I1229 02:30:40.235702  6650 net.cpp:435] inception_4e/5x5_BatchNorm <- inception_4e/5x5_raw
I1229 02:30:40.235705  6650 net.cpp:409] inception_4e/5x5_BatchNorm -> inception_4e/5x5
I1229 02:30:40.236047  6650 net.cpp:144] Setting up inception_4e/5x5_BatchNorm
I1229 02:30:40.236050  6650 net.cpp:151] Top shape: 1 128 20 40 (102400)
I1229 02:30:40.236053  6650 net.cpp:159] Memory required for data: 276275204
I1229 02:30:40.236058  6650 layer_factory.hpp:77] Creating layer inception_4e/relu_5x5
I1229 02:30:40.236061  6650 net.cpp:94] Creating Layer inception_4e/relu_5x5
I1229 02:30:40.236063  6650 net.cpp:435] inception_4e/relu_5x5 <- inception_4e/5x5
I1229 02:30:40.236066  6650 net.cpp:396] inception_4e/relu_5x5 -> inception_4e/5x5 (in-place)
I1229 02:30:40.236069  6650 net.cpp:144] Setting up inception_4e/relu_5x5
I1229 02:30:40.236071  6650 net.cpp:151] Top shape: 1 128 20 40 (102400)
I1229 02:30:40.236073  6650 net.cpp:159] Memory required for data: 276684804
I1229 02:30:40.236075  6650 layer_factory.hpp:77] Creating layer inception_4e/pool
I1229 02:30:40.236079  6650 net.cpp:94] Creating Layer inception_4e/pool
I1229 02:30:40.236081  6650 net.cpp:435] inception_4e/pool <- inception_4d/output_inception_4d/output_0_split_3
I1229 02:30:40.236084  6650 net.cpp:409] inception_4e/pool -> inception_4e/pool
I1229 02:30:40.236102  6650 net.cpp:144] Setting up inception_4e/pool
I1229 02:30:40.236104  6650 net.cpp:151] Top shape: 1 528 20 40 (422400)
I1229 02:30:40.236107  6650 net.cpp:159] Memory required for data: 278374404
I1229 02:30:40.236109  6650 layer_factory.hpp:77] Creating layer inception_4e/pool_proj
I1229 02:30:40.236114  6650 net.cpp:94] Creating Layer inception_4e/pool_proj
I1229 02:30:40.236115  6650 net.cpp:435] inception_4e/pool_proj <- inception_4e/pool
I1229 02:30:40.236117  6650 net.cpp:409] inception_4e/pool_proj -> inception_4e/pool_proj_raw
I1229 02:30:40.236608  6650 net.cpp:144] Setting up inception_4e/pool_proj
I1229 02:30:40.236611  6650 net.cpp:151] Top shape: 1 128 20 40 (102400)
I1229 02:30:40.236614  6650 net.cpp:159] Memory required for data: 278784004
I1229 02:30:40.236618  6650 layer_factory.hpp:77] Creating layer inception_4e/pool_proj_BatchNorm
I1229 02:30:40.236621  6650 net.cpp:94] Creating Layer inception_4e/pool_proj_BatchNorm
I1229 02:30:40.236624  6650 net.cpp:435] inception_4e/pool_proj_BatchNorm <- inception_4e/pool_proj_raw
I1229 02:30:40.236626  6650 net.cpp:409] inception_4e/pool_proj_BatchNorm -> inception_4e/pool_proj
I1229 02:30:40.236991  6650 net.cpp:144] Setting up inception_4e/pool_proj_BatchNorm
I1229 02:30:40.236999  6650 net.cpp:151] Top shape: 1 128 20 40 (102400)
I1229 02:30:40.237001  6650 net.cpp:159] Memory required for data: 279193604
I1229 02:30:40.237007  6650 layer_factory.hpp:77] Creating layer inception_4e/relu_pool_proj
I1229 02:30:40.237010  6650 net.cpp:94] Creating Layer inception_4e/relu_pool_proj
I1229 02:30:40.237013  6650 net.cpp:435] inception_4e/relu_pool_proj <- inception_4e/pool_proj
I1229 02:30:40.237016  6650 net.cpp:396] inception_4e/relu_pool_proj -> inception_4e/pool_proj (in-place)
I1229 02:30:40.237020  6650 net.cpp:144] Setting up inception_4e/relu_pool_proj
I1229 02:30:40.237021  6650 net.cpp:151] Top shape: 1 128 20 40 (102400)
I1229 02:30:40.237025  6650 net.cpp:159] Memory required for data: 279603204
I1229 02:30:40.237026  6650 layer_factory.hpp:77] Creating layer inception_4e/output
I1229 02:30:40.237030  6650 net.cpp:94] Creating Layer inception_4e/output
I1229 02:30:40.237031  6650 net.cpp:435] inception_4e/output <- inception_4e/1x1
I1229 02:30:40.237033  6650 net.cpp:435] inception_4e/output <- inception_4e/3x3
I1229 02:30:40.237035  6650 net.cpp:435] inception_4e/output <- inception_4e/5x5
I1229 02:30:40.237037  6650 net.cpp:435] inception_4e/output <- inception_4e/pool_proj
I1229 02:30:40.237040  6650 net.cpp:409] inception_4e/output -> inception_4e/output
I1229 02:30:40.237052  6650 net.cpp:144] Setting up inception_4e/output
I1229 02:30:40.237054  6650 net.cpp:151] Top shape: 1 832 20 40 (665600)
I1229 02:30:40.237056  6650 net.cpp:159] Memory required for data: 282265604
I1229 02:30:40.237058  6650 layer_factory.hpp:77] Creating layer inception_4e/output_inception_4e/output_0_split
I1229 02:30:40.237061  6650 net.cpp:94] Creating Layer inception_4e/output_inception_4e/output_0_split
I1229 02:30:40.237063  6650 net.cpp:435] inception_4e/output_inception_4e/output_0_split <- inception_4e/output
I1229 02:30:40.237066  6650 net.cpp:409] inception_4e/output_inception_4e/output_0_split -> inception_4e/output_inception_4e/output_0_split_0
I1229 02:30:40.237069  6650 net.cpp:409] inception_4e/output_inception_4e/output_0_split -> inception_4e/output_inception_4e/output_0_split_1
I1229 02:30:40.237087  6650 net.cpp:144] Setting up inception_4e/output_inception_4e/output_0_split
I1229 02:30:40.237089  6650 net.cpp:151] Top shape: 1 832 20 40 (665600)
I1229 02:30:40.237092  6650 net.cpp:151] Top shape: 1 832 20 40 (665600)
I1229 02:30:40.237094  6650 net.cpp:159] Memory required for data: 287590404
I1229 02:30:40.237097  6650 layer_factory.hpp:77] Creating layer pool4/3x3_s2
I1229 02:30:40.237099  6650 net.cpp:94] Creating Layer pool4/3x3_s2
I1229 02:30:40.237102  6650 net.cpp:435] pool4/3x3_s2 <- inception_4e/output_inception_4e/output_0_split_0
I1229 02:30:40.237104  6650 net.cpp:409] pool4/3x3_s2 -> pool4/3x3_s2
I1229 02:30:40.237121  6650 net.cpp:144] Setting up pool4/3x3_s2
I1229 02:30:40.237123  6650 net.cpp:151] Top shape: 1 832 10 20 (166400)
I1229 02:30:40.237126  6650 net.cpp:159] Memory required for data: 288256004
I1229 02:30:40.237128  6650 layer_factory.hpp:77] Creating layer pool4/3x3_s2_pool4/3x3_s2_0_split
I1229 02:30:40.237130  6650 net.cpp:94] Creating Layer pool4/3x3_s2_pool4/3x3_s2_0_split
I1229 02:30:40.237133  6650 net.cpp:435] pool4/3x3_s2_pool4/3x3_s2_0_split <- pool4/3x3_s2
I1229 02:30:40.237135  6650 net.cpp:409] pool4/3x3_s2_pool4/3x3_s2_0_split -> pool4/3x3_s2_pool4/3x3_s2_0_split_0
I1229 02:30:40.237138  6650 net.cpp:409] pool4/3x3_s2_pool4/3x3_s2_0_split -> pool4/3x3_s2_pool4/3x3_s2_0_split_1
I1229 02:30:40.237141  6650 net.cpp:409] pool4/3x3_s2_pool4/3x3_s2_0_split -> pool4/3x3_s2_pool4/3x3_s2_0_split_2
I1229 02:30:40.237144  6650 net.cpp:409] pool4/3x3_s2_pool4/3x3_s2_0_split -> pool4/3x3_s2_pool4/3x3_s2_0_split_3
I1229 02:30:40.237172  6650 net.cpp:144] Setting up pool4/3x3_s2_pool4/3x3_s2_0_split
I1229 02:30:40.237174  6650 net.cpp:151] Top shape: 1 832 10 20 (166400)
I1229 02:30:40.237176  6650 net.cpp:151] Top shape: 1 832 10 20 (166400)
I1229 02:30:40.237179  6650 net.cpp:151] Top shape: 1 832 10 20 (166400)
I1229 02:30:40.237181  6650 net.cpp:151] Top shape: 1 832 10 20 (166400)
I1229 02:30:40.237183  6650 net.cpp:159] Memory required for data: 290918404
I1229 02:30:40.237185  6650 layer_factory.hpp:77] Creating layer inception_5a/1x1
I1229 02:30:40.237190  6650 net.cpp:94] Creating Layer inception_5a/1x1
I1229 02:30:40.237191  6650 net.cpp:435] inception_5a/1x1 <- pool4/3x3_s2_pool4/3x3_s2_0_split_0
I1229 02:30:40.237195  6650 net.cpp:409] inception_5a/1x1 -> inception_5a/1x1_raw
I1229 02:30:40.239006  6650 net.cpp:144] Setting up inception_5a/1x1
I1229 02:30:40.239012  6650 net.cpp:151] Top shape: 1 256 10 20 (51200)
I1229 02:30:40.239015  6650 net.cpp:159] Memory required for data: 291123204
I1229 02:30:40.239019  6650 layer_factory.hpp:77] Creating layer inception_5a/1x1_BatchNorm
I1229 02:30:40.239024  6650 net.cpp:94] Creating Layer inception_5a/1x1_BatchNorm
I1229 02:30:40.239027  6650 net.cpp:435] inception_5a/1x1_BatchNorm <- inception_5a/1x1_raw
I1229 02:30:40.239030  6650 net.cpp:409] inception_5a/1x1_BatchNorm -> inception_5a/1x1
I1229 02:30:40.239401  6650 net.cpp:144] Setting up inception_5a/1x1_BatchNorm
I1229 02:30:40.239408  6650 net.cpp:151] Top shape: 1 256 10 20 (51200)
I1229 02:30:40.239410  6650 net.cpp:159] Memory required for data: 291328004
I1229 02:30:40.239415  6650 layer_factory.hpp:77] Creating layer inception_5a/relu_1x1
I1229 02:30:40.239418  6650 net.cpp:94] Creating Layer inception_5a/relu_1x1
I1229 02:30:40.239420  6650 net.cpp:435] inception_5a/relu_1x1 <- inception_5a/1x1
I1229 02:30:40.239423  6650 net.cpp:396] inception_5a/relu_1x1 -> inception_5a/1x1 (in-place)
I1229 02:30:40.239426  6650 net.cpp:144] Setting up inception_5a/relu_1x1
I1229 02:30:40.239428  6650 net.cpp:151] Top shape: 1 256 10 20 (51200)
I1229 02:30:40.239430  6650 net.cpp:159] Memory required for data: 291532804
I1229 02:30:40.239431  6650 layer_factory.hpp:77] Creating layer inception_5a/3x3_reduce
I1229 02:30:40.239436  6650 net.cpp:94] Creating Layer inception_5a/3x3_reduce
I1229 02:30:40.239439  6650 net.cpp:435] inception_5a/3x3_reduce <- pool4/3x3_s2_pool4/3x3_s2_0_split_1
I1229 02:30:40.239441  6650 net.cpp:409] inception_5a/3x3_reduce -> inception_5a/3x3_reduce_raw
I1229 02:30:40.240844  6650 net.cpp:144] Setting up inception_5a/3x3_reduce
I1229 02:30:40.240849  6650 net.cpp:151] Top shape: 1 160 10 20 (32000)
I1229 02:30:40.240852  6650 net.cpp:159] Memory required for data: 291660804
I1229 02:30:40.240855  6650 layer_factory.hpp:77] Creating layer inception_5a/3x3_reduce_BatchNorm
I1229 02:30:40.240860  6650 net.cpp:94] Creating Layer inception_5a/3x3_reduce_BatchNorm
I1229 02:30:40.240862  6650 net.cpp:435] inception_5a/3x3_reduce_BatchNorm <- inception_5a/3x3_reduce_raw
I1229 02:30:40.240866  6650 net.cpp:409] inception_5a/3x3_reduce_BatchNorm -> inception_5a/3x3_reduce
I1229 02:30:40.241262  6650 net.cpp:144] Setting up inception_5a/3x3_reduce_BatchNorm
I1229 02:30:40.241266  6650 net.cpp:151] Top shape: 1 160 10 20 (32000)
I1229 02:30:40.241269  6650 net.cpp:159] Memory required for data: 291788804
I1229 02:30:40.241274  6650 layer_factory.hpp:77] Creating layer inception_5a/relu_3x3_reduce
I1229 02:30:40.241277  6650 net.cpp:94] Creating Layer inception_5a/relu_3x3_reduce
I1229 02:30:40.241279  6650 net.cpp:435] inception_5a/relu_3x3_reduce <- inception_5a/3x3_reduce
I1229 02:30:40.241281  6650 net.cpp:396] inception_5a/relu_3x3_reduce -> inception_5a/3x3_reduce (in-place)
I1229 02:30:40.241286  6650 net.cpp:144] Setting up inception_5a/relu_3x3_reduce
I1229 02:30:40.241286  6650 net.cpp:151] Top shape: 1 160 10 20 (32000)
I1229 02:30:40.241289  6650 net.cpp:159] Memory required for data: 291916804
I1229 02:30:40.241291  6650 layer_factory.hpp:77] Creating layer inception_5a/3x3
I1229 02:30:40.241295  6650 net.cpp:94] Creating Layer inception_5a/3x3
I1229 02:30:40.241297  6650 net.cpp:435] inception_5a/3x3 <- inception_5a/3x3_reduce
I1229 02:30:40.241299  6650 net.cpp:409] inception_5a/3x3 -> inception_5a/3x3_raw
I1229 02:30:40.245128  6650 net.cpp:144] Setting up inception_5a/3x3
I1229 02:30:40.245144  6650 net.cpp:151] Top shape: 1 320 10 20 (64000)
I1229 02:30:40.245151  6650 net.cpp:159] Memory required for data: 292172804
I1229 02:30:40.245160  6650 layer_factory.hpp:77] Creating layer inception_5a/3x3_BatchNorm
I1229 02:30:40.245172  6650 net.cpp:94] Creating Layer inception_5a/3x3_BatchNorm
I1229 02:30:40.245180  6650 net.cpp:435] inception_5a/3x3_BatchNorm <- inception_5a/3x3_raw
I1229 02:30:40.245187  6650 net.cpp:409] inception_5a/3x3_BatchNorm -> inception_5a/3x3
I1229 02:30:40.245745  6650 net.cpp:144] Setting up inception_5a/3x3_BatchNorm
I1229 02:30:40.245754  6650 net.cpp:151] Top shape: 1 320 10 20 (64000)
I1229 02:30:40.245757  6650 net.cpp:159] Memory required for data: 292428804
I1229 02:30:40.245764  6650 layer_factory.hpp:77] Creating layer inception_5a/relu_3x3
I1229 02:30:40.245769  6650 net.cpp:94] Creating Layer inception_5a/relu_3x3
I1229 02:30:40.245770  6650 net.cpp:435] inception_5a/relu_3x3 <- inception_5a/3x3
I1229 02:30:40.245774  6650 net.cpp:396] inception_5a/relu_3x3 -> inception_5a/3x3 (in-place)
I1229 02:30:40.245779  6650 net.cpp:144] Setting up inception_5a/relu_3x3
I1229 02:30:40.245780  6650 net.cpp:151] Top shape: 1 320 10 20 (64000)
I1229 02:30:40.245782  6650 net.cpp:159] Memory required for data: 292684804
I1229 02:30:40.245784  6650 layer_factory.hpp:77] Creating layer inception_5a/5x5_reduce
I1229 02:30:40.245790  6650 net.cpp:94] Creating Layer inception_5a/5x5_reduce
I1229 02:30:40.245797  6650 net.cpp:435] inception_5a/5x5_reduce <- pool4/3x3_s2_pool4/3x3_s2_0_split_2
I1229 02:30:40.245800  6650 net.cpp:409] inception_5a/5x5_reduce -> inception_5a/5x5_reduce_raw
I1229 02:30:40.246116  6650 net.cpp:144] Setting up inception_5a/5x5_reduce
I1229 02:30:40.246119  6650 net.cpp:151] Top shape: 1 32 10 20 (6400)
I1229 02:30:40.246124  6650 net.cpp:159] Memory required for data: 292710404
I1229 02:30:40.246126  6650 layer_factory.hpp:77] Creating layer inception_5a/5x5_reduce_BatchNorm
I1229 02:30:40.246130  6650 net.cpp:94] Creating Layer inception_5a/5x5_reduce_BatchNorm
I1229 02:30:40.246132  6650 net.cpp:435] inception_5a/5x5_reduce_BatchNorm <- inception_5a/5x5_reduce_raw
I1229 02:30:40.246135  6650 net.cpp:409] inception_5a/5x5_reduce_BatchNorm -> inception_5a/5x5_reduce
I1229 02:30:40.246544  6650 net.cpp:144] Setting up inception_5a/5x5_reduce_BatchNorm
I1229 02:30:40.246568  6650 net.cpp:151] Top shape: 1 32 10 20 (6400)
I1229 02:30:40.246573  6650 net.cpp:159] Memory required for data: 292736004
I1229 02:30:40.246579  6650 layer_factory.hpp:77] Creating layer inception_5a/relu_5x5_reduce
I1229 02:30:40.246583  6650 net.cpp:94] Creating Layer inception_5a/relu_5x5_reduce
I1229 02:30:40.246587  6650 net.cpp:435] inception_5a/relu_5x5_reduce <- inception_5a/5x5_reduce
I1229 02:30:40.246589  6650 net.cpp:396] inception_5a/relu_5x5_reduce -> inception_5a/5x5_reduce (in-place)
I1229 02:30:40.246593  6650 net.cpp:144] Setting up inception_5a/relu_5x5_reduce
I1229 02:30:40.246596  6650 net.cpp:151] Top shape: 1 32 10 20 (6400)
I1229 02:30:40.246599  6650 net.cpp:159] Memory required for data: 292761604
I1229 02:30:40.246603  6650 layer_factory.hpp:77] Creating layer inception_5a/5x5
I1229 02:30:40.246608  6650 net.cpp:94] Creating Layer inception_5a/5x5
I1229 02:30:40.246610  6650 net.cpp:435] inception_5a/5x5 <- inception_5a/5x5_reduce
I1229 02:30:40.246613  6650 net.cpp:409] inception_5a/5x5 -> inception_5a/5x5_raw
I1229 02:30:40.247395  6650 net.cpp:144] Setting up inception_5a/5x5
I1229 02:30:40.247402  6650 net.cpp:151] Top shape: 1 128 10 20 (25600)
I1229 02:30:40.247406  6650 net.cpp:159] Memory required for data: 292864004
I1229 02:30:40.247411  6650 layer_factory.hpp:77] Creating layer inception_5a/5x5_BatchNorm
I1229 02:30:40.247416  6650 net.cpp:94] Creating Layer inception_5a/5x5_BatchNorm
I1229 02:30:40.247417  6650 net.cpp:435] inception_5a/5x5_BatchNorm <- inception_5a/5x5_raw
I1229 02:30:40.247421  6650 net.cpp:409] inception_5a/5x5_BatchNorm -> inception_5a/5x5
I1229 02:30:40.247779  6650 net.cpp:144] Setting up inception_5a/5x5_BatchNorm
I1229 02:30:40.247783  6650 net.cpp:151] Top shape: 1 128 10 20 (25600)
I1229 02:30:40.247786  6650 net.cpp:159] Memory required for data: 292966404
I1229 02:30:40.247792  6650 layer_factory.hpp:77] Creating layer inception_5a/relu_5x5
I1229 02:30:40.247795  6650 net.cpp:94] Creating Layer inception_5a/relu_5x5
I1229 02:30:40.247797  6650 net.cpp:435] inception_5a/relu_5x5 <- inception_5a/5x5
I1229 02:30:40.247799  6650 net.cpp:396] inception_5a/relu_5x5 -> inception_5a/5x5 (in-place)
I1229 02:30:40.247802  6650 net.cpp:144] Setting up inception_5a/relu_5x5
I1229 02:30:40.247804  6650 net.cpp:151] Top shape: 1 128 10 20 (25600)
I1229 02:30:40.247807  6650 net.cpp:159] Memory required for data: 293068804
I1229 02:30:40.247808  6650 layer_factory.hpp:77] Creating layer inception_5a/pool
I1229 02:30:40.247812  6650 net.cpp:94] Creating Layer inception_5a/pool
I1229 02:30:40.247814  6650 net.cpp:435] inception_5a/pool <- pool4/3x3_s2_pool4/3x3_s2_0_split_3
I1229 02:30:40.247817  6650 net.cpp:409] inception_5a/pool -> inception_5a/pool
I1229 02:30:40.247836  6650 net.cpp:144] Setting up inception_5a/pool
I1229 02:30:40.247838  6650 net.cpp:151] Top shape: 1 832 10 20 (166400)
I1229 02:30:40.247840  6650 net.cpp:159] Memory required for data: 293734404
I1229 02:30:40.247843  6650 layer_factory.hpp:77] Creating layer inception_5a/pool_proj
I1229 02:30:40.247846  6650 net.cpp:94] Creating Layer inception_5a/pool_proj
I1229 02:30:40.247848  6650 net.cpp:435] inception_5a/pool_proj <- inception_5a/pool
I1229 02:30:40.247850  6650 net.cpp:409] inception_5a/pool_proj -> inception_5a/pool_proj_raw
I1229 02:30:40.249248  6650 net.cpp:144] Setting up inception_5a/pool_proj
I1229 02:30:40.249256  6650 net.cpp:151] Top shape: 1 128 10 20 (25600)
I1229 02:30:40.249260  6650 net.cpp:159] Memory required for data: 293836804
I1229 02:30:40.249264  6650 layer_factory.hpp:77] Creating layer inception_5a/pool_proj_BatchNorm
I1229 02:30:40.249270  6650 net.cpp:94] Creating Layer inception_5a/pool_proj_BatchNorm
I1229 02:30:40.249272  6650 net.cpp:435] inception_5a/pool_proj_BatchNorm <- inception_5a/pool_proj_raw
I1229 02:30:40.249276  6650 net.cpp:409] inception_5a/pool_proj_BatchNorm -> inception_5a/pool_proj
I1229 02:30:40.249621  6650 net.cpp:144] Setting up inception_5a/pool_proj_BatchNorm
I1229 02:30:40.249624  6650 net.cpp:151] Top shape: 1 128 10 20 (25600)
I1229 02:30:40.249627  6650 net.cpp:159] Memory required for data: 293939204
I1229 02:30:40.249632  6650 layer_factory.hpp:77] Creating layer inception_5a/relu_pool_proj
I1229 02:30:40.249635  6650 net.cpp:94] Creating Layer inception_5a/relu_pool_proj
I1229 02:30:40.249637  6650 net.cpp:435] inception_5a/relu_pool_proj <- inception_5a/pool_proj
I1229 02:30:40.249640  6650 net.cpp:396] inception_5a/relu_pool_proj -> inception_5a/pool_proj (in-place)
I1229 02:30:40.249644  6650 net.cpp:144] Setting up inception_5a/relu_pool_proj
I1229 02:30:40.249645  6650 net.cpp:151] Top shape: 1 128 10 20 (25600)
I1229 02:30:40.249648  6650 net.cpp:159] Memory required for data: 294041604
I1229 02:30:40.249650  6650 layer_factory.hpp:77] Creating layer inception_5a/output
I1229 02:30:40.249652  6650 net.cpp:94] Creating Layer inception_5a/output
I1229 02:30:40.249655  6650 net.cpp:435] inception_5a/output <- inception_5a/1x1
I1229 02:30:40.249657  6650 net.cpp:435] inception_5a/output <- inception_5a/3x3
I1229 02:30:40.249660  6650 net.cpp:435] inception_5a/output <- inception_5a/5x5
I1229 02:30:40.249661  6650 net.cpp:435] inception_5a/output <- inception_5a/pool_proj
I1229 02:30:40.249665  6650 net.cpp:409] inception_5a/output -> inception_5a/output
I1229 02:30:40.249676  6650 net.cpp:144] Setting up inception_5a/output
I1229 02:30:40.249680  6650 net.cpp:151] Top shape: 1 832 10 20 (166400)
I1229 02:30:40.249682  6650 net.cpp:159] Memory required for data: 294707204
I1229 02:30:40.249684  6650 layer_factory.hpp:77] Creating layer inception_5a/output_inception_5a/output_0_split
I1229 02:30:40.249687  6650 net.cpp:94] Creating Layer inception_5a/output_inception_5a/output_0_split
I1229 02:30:40.249689  6650 net.cpp:435] inception_5a/output_inception_5a/output_0_split <- inception_5a/output
I1229 02:30:40.249692  6650 net.cpp:409] inception_5a/output_inception_5a/output_0_split -> inception_5a/output_inception_5a/output_0_split_0
I1229 02:30:40.249696  6650 net.cpp:409] inception_5a/output_inception_5a/output_0_split -> inception_5a/output_inception_5a/output_0_split_1
I1229 02:30:40.249698  6650 net.cpp:409] inception_5a/output_inception_5a/output_0_split -> inception_5a/output_inception_5a/output_0_split_2
I1229 02:30:40.249701  6650 net.cpp:409] inception_5a/output_inception_5a/output_0_split -> inception_5a/output_inception_5a/output_0_split_3
I1229 02:30:40.249732  6650 net.cpp:144] Setting up inception_5a/output_inception_5a/output_0_split
I1229 02:30:40.249734  6650 net.cpp:151] Top shape: 1 832 10 20 (166400)
I1229 02:30:40.249737  6650 net.cpp:151] Top shape: 1 832 10 20 (166400)
I1229 02:30:40.249739  6650 net.cpp:151] Top shape: 1 832 10 20 (166400)
I1229 02:30:40.249742  6650 net.cpp:151] Top shape: 1 832 10 20 (166400)
I1229 02:30:40.249744  6650 net.cpp:159] Memory required for data: 297369604
I1229 02:30:40.249745  6650 layer_factory.hpp:77] Creating layer inception_5b/1x1
I1229 02:30:40.249750  6650 net.cpp:94] Creating Layer inception_5b/1x1
I1229 02:30:40.249752  6650 net.cpp:435] inception_5b/1x1 <- inception_5a/output_inception_5a/output_0_split_0
I1229 02:30:40.249755  6650 net.cpp:409] inception_5b/1x1 -> inception_5b/1x1_raw
I1229 02:30:40.252138  6650 net.cpp:144] Setting up inception_5b/1x1
I1229 02:30:40.252146  6650 net.cpp:151] Top shape: 1 384 10 20 (76800)
I1229 02:30:40.252149  6650 net.cpp:159] Memory required for data: 297676804
I1229 02:30:40.252156  6650 layer_factory.hpp:77] Creating layer inception_5b/1x1_BatchNorm
I1229 02:30:40.252161  6650 net.cpp:94] Creating Layer inception_5b/1x1_BatchNorm
I1229 02:30:40.252163  6650 net.cpp:435] inception_5b/1x1_BatchNorm <- inception_5b/1x1_raw
I1229 02:30:40.252166  6650 net.cpp:409] inception_5b/1x1_BatchNorm -> inception_5b/1x1
I1229 02:30:40.252521  6650 net.cpp:144] Setting up inception_5b/1x1_BatchNorm
I1229 02:30:40.252526  6650 net.cpp:151] Top shape: 1 384 10 20 (76800)
I1229 02:30:40.252528  6650 net.cpp:159] Memory required for data: 297984004
I1229 02:30:40.252533  6650 layer_factory.hpp:77] Creating layer inception_5b/relu_1x1
I1229 02:30:40.252537  6650 net.cpp:94] Creating Layer inception_5b/relu_1x1
I1229 02:30:40.252538  6650 net.cpp:435] inception_5b/relu_1x1 <- inception_5b/1x1
I1229 02:30:40.252542  6650 net.cpp:396] inception_5b/relu_1x1 -> inception_5b/1x1 (in-place)
I1229 02:30:40.252544  6650 net.cpp:144] Setting up inception_5b/relu_1x1
I1229 02:30:40.252547  6650 net.cpp:151] Top shape: 1 384 10 20 (76800)
I1229 02:30:40.252548  6650 net.cpp:159] Memory required for data: 298291204
I1229 02:30:40.252550  6650 layer_factory.hpp:77] Creating layer inception_5b/3x3_reduce
I1229 02:30:40.252554  6650 net.cpp:94] Creating Layer inception_5b/3x3_reduce
I1229 02:30:40.252557  6650 net.cpp:435] inception_5b/3x3_reduce <- inception_5a/output_inception_5a/output_0_split_1
I1229 02:30:40.252559  6650 net.cpp:409] inception_5b/3x3_reduce -> inception_5b/3x3_reduce_raw
I1229 02:30:40.254050  6650 net.cpp:144] Setting up inception_5b/3x3_reduce
I1229 02:30:40.254055  6650 net.cpp:151] Top shape: 1 192 10 20 (38400)
I1229 02:30:40.254058  6650 net.cpp:159] Memory required for data: 298444804
I1229 02:30:40.254061  6650 layer_factory.hpp:77] Creating layer inception_5b/3x3_reduce_BatchNorm
…
I1229 02:30:40.565919  6650 layer_factory.hpp:77] Creating layer inception_4e/relu_1x1
I1229 02:30:40.565928  6650 net.cpp:94] Creating Layer inception_4e/relu_1x1
I1229 02:30:40.565937  6650 net.cpp:435] inception_4e/relu_1x1 <- inception_4e/1x1
I1229 02:30:40.565943  6650 net.cpp:396] inception_4e/relu_1x1 -> inception_4e/1x1 (in-place)
I1229 02:30:40.565951  6650 net.cpp:144] Setting up inception_4e/relu_1x1
I1229 02:30:40.565954  6650 net.cpp:151] Top shape: 1 256 20 40 (204800)
I1229 02:30:40.565959  6650 net.cpp:159] Memory required for data: 262348804
I1229 02:30:40.565961  6650 layer_factory.hpp:77] Creating layer inception_4e/3x3_reduce
I1229 02:30:40.565970  6650 net.cpp:94] Creating Layer inception_4e/3x3_reduce
I1229 02:30:40.565973  6650 net.cpp:435] inception_4e/3x3_reduce <- inception_4d/output_inception_4d/output_fixed_0_split_1
I1229 02:30:40.565979  6650 net.cpp:409] inception_4e/3x3_reduce -> inception_4e/3x3_reduce
I1229 02:30:40.566637  6650 layer_factory.hpp:77] Creating layer inception_4e/3x3_reduce
I1229 02:30:40.567293  6650 net.cpp:144] Setting up inception_4e/3x3_reduce
I1229 02:30:40.567298  6650 net.cpp:151] Top shape: 1 160 20 40 (128000)
I1229 02:30:40.567303  6650 net.cpp:159] Memory required for data: 262860804
I1229 02:30:40.567309  6650 layer_factory.hpp:77] Creating layer inception_4e/relu_3x3_reduce
I1229 02:30:40.567317  6650 net.cpp:94] Creating Layer inception_4e/relu_3x3_reduce
I1229 02:30:40.567322  6650 net.cpp:435] inception_4e/relu_3x3_reduce <- inception_4e/3x3_reduce
I1229 02:30:40.567327  6650 net.cpp:396] inception_4e/relu_3x3_reduce -> inception_4e/3x3_reduce (in-place)
I1229 02:30:40.567333  6650 net.cpp:144] Setting up inception_4e/relu_3x3_reduce
I1229 02:30:40.567337  6650 net.cpp:151] Top shape: 1 160 20 40 (128000)
I1229 02:30:40.567342  6650 net.cpp:159] Memory required for data: 263372804
I1229 02:30:40.567344  6650 layer_factory.hpp:77] Creating layer inception_4e/3x3_reduce_fixed
I1229 02:30:40.567350  6650 net.cpp:94] Creating Layer inception_4e/3x3_reduce_fixed
I1229 02:30:40.567354  6650 net.cpp:435] inception_4e/3x3_reduce_fixed <- inception_4e/3x3_reduce
I1229 02:30:40.567359  6650 net.cpp:396] inception_4e/3x3_reduce_fixed -> inception_4e/3x3_reduce (in-place)
I1229 02:30:40.567389  6650 net.cpp:144] Setting up inception_4e/3x3_reduce_fixed
I1229 02:30:40.567391  6650 net.cpp:151] Top shape: 1 160 20 40 (128000)
I1229 02:30:40.567395  6650 net.cpp:159] Memory required for data: 263884804
I1229 02:30:40.567399  6650 layer_factory.hpp:77] Creating layer inception_4e/3x3
I1229 02:30:40.567406  6650 net.cpp:94] Creating Layer inception_4e/3x3
I1229 02:30:40.567409  6650 net.cpp:435] inception_4e/3x3 <- inception_4e/3x3_reduce
I1229 02:30:40.567415  6650 net.cpp:409] inception_4e/3x3 -> inception_4e/3x3
I1229 02:30:40.570998  6650 layer_factory.hpp:77] Creating layer inception_4e/3x3
I1229 02:30:40.574816  6650 net.cpp:144] Setting up inception_4e/3x3
I1229 02:30:40.574837  6650 net.cpp:151] Top shape: 1 320 20 40 (256000)
I1229 02:30:40.574847  6650 net.cpp:159] Memory required for data: 264908804
I1229 02:30:40.574858  6650 layer_factory.hpp:77] Creating layer inception_4e/relu_3x3
I1229 02:30:40.574865  6650 net.cpp:94] Creating Layer inception_4e/relu_3x3
I1229 02:30:40.574872  6650 net.cpp:435] inception_4e/relu_3x3 <- inception_4e/3x3
I1229 02:30:40.574878  6650 net.cpp:396] inception_4e/relu_3x3 -> inception_4e/3x3 (in-place)
I1229 02:30:40.574887  6650 net.cpp:144] Setting up inception_4e/relu_3x3
I1229 02:30:40.574893  6650 net.cpp:151] Top shape: 1 320 20 40 (256000)
I1229 02:30:40.574898  6650 net.cpp:159] Memory required for data: 265932804
I1229 02:30:40.574899  6650 layer_factory.hpp:77] Creating layer inception_4e/5x5_reduce
I1229 02:30:40.574910  6650 net.cpp:94] Creating Layer inception_4e/5x5_reduce
I1229 02:30:40.574913  6650 net.cpp:435] inception_4e/5x5_reduce <- inception_4d/output_inception_4d/output_fixed_0_split_2
I1229 02:30:40.574918  6650 net.cpp:409] inception_4e/5x5_reduce -> inception_4e/5x5_reduce
I1229 02:30:40.575137  6650 layer_factory.hpp:77] Creating layer inception_4e/5x5_reduce
I1229 02:30:40.575457  6650 net.cpp:144] Setting up inception_4e/5x5_reduce
I1229 02:30:40.575464  6650 net.cpp:151] Top shape: 1 32 20 40 (25600)
I1229 02:30:40.575467  6650 net.cpp:159] Memory required for data: 266035204
I1229 02:30:40.575471  6650 layer_factory.hpp:77] Creating layer inception_4e/relu_5x5_reduce
I1229 02:30:40.575475  6650 net.cpp:94] Creating Layer inception_4e/relu_5x5_reduce
I1229 02:30:40.575477  6650 net.cpp:435] inception_4e/relu_5x5_reduce <- inception_4e/5x5_reduce
I1229 02:30:40.575480  6650 net.cpp:396] inception_4e/relu_5x5_reduce -> inception_4e/5x5_reduce (in-place)
I1229 02:30:40.575484  6650 net.cpp:144] Setting up inception_4e/relu_5x5_reduce
I1229 02:30:40.575485  6650 net.cpp:151] Top shape: 1 32 20 40 (25600)
I1229 02:30:40.575489  6650 net.cpp:159] Memory required for data: 266137604
I1229 02:30:40.575489  6650 layer_factory.hpp:77] Creating layer inception_4e/5x5_reduce_fixed
I1229 02:30:40.575495  6650 net.cpp:94] Creating Layer inception_4e/5x5_reduce_fixed
I1229 02:30:40.575495  6650 net.cpp:435] inception_4e/5x5_reduce_fixed <- inception_4e/5x5_reduce
I1229 02:30:40.575498  6650 net.cpp:396] inception_4e/5x5_reduce_fixed -> inception_4e/5x5_reduce (in-place)
I1229 02:30:40.575517  6650 net.cpp:144] Setting up inception_4e/5x5_reduce_fixed
I1229 02:30:40.575520  6650 net.cpp:151] Top shape: 1 32 20 40 (25600)
I1229 02:30:40.575523  6650 net.cpp:159] Memory required for data: 266240004
I1229 02:30:40.575527  6650 layer_factory.hpp:77] Creating layer inception_4e/5x5
I1229 02:30:40.575532  6650 net.cpp:94] Creating Layer inception_4e/5x5
I1229 02:30:40.575534  6650 net.cpp:435] inception_4e/5x5 <- inception_4e/5x5_reduce
I1229 02:30:40.575538  6650 net.cpp:409] inception_4e/5x5 -> inception_4e/5x5
I1229 02:30:40.578027  6650 layer_factory.hpp:77] Creating layer inception_4e/5x5
I1229 02:30:40.578832  6650 net.cpp:144] Setting up inception_4e/5x5
I1229 02:30:40.578838  6650 net.cpp:151] Top shape: 1 128 20 40 (102400)
I1229 02:30:40.578846  6650 net.cpp:159] Memory required for data: 266649604
I1229 02:30:40.578856  6650 layer_factory.hpp:77] Creating layer inception_4e/relu_5x5
I1229 02:30:40.578861  6650 net.cpp:94] Creating Layer inception_4e/relu_5x5
I1229 02:30:40.578866  6650 net.cpp:435] inception_4e/relu_5x5 <- inception_4e/5x5
I1229 02:30:40.578871  6650 net.cpp:396] inception_4e/relu_5x5 -> inception_4e/5x5 (in-place)
I1229 02:30:40.578878  6650 net.cpp:144] Setting up inception_4e/relu_5x5
I1229 02:30:40.578881  6650 net.cpp:151] Top shape: 1 128 20 40 (102400)
I1229 02:30:40.578883  6650 net.cpp:159] Memory required for data: 267059204
I1229 02:30:40.578886  6650 layer_factory.hpp:77] Creating layer inception_4e/pool
I1229 02:30:40.578891  6650 net.cpp:94] Creating Layer inception_4e/pool
I1229 02:30:40.578892  6650 net.cpp:435] inception_4e/pool <- inception_4d/output_inception_4d/output_fixed_0_split_3
I1229 02:30:40.578896  6650 net.cpp:409] inception_4e/pool -> inception_4e/pool
I1229 02:30:40.578917  6650 net.cpp:144] Setting up inception_4e/pool
I1229 02:30:40.578919  6650 net.cpp:151] Top shape: 1 528 20 40 (422400)
I1229 02:30:40.578922  6650 net.cpp:159] Memory required for data: 268748804
I1229 02:30:40.578923  6650 layer_factory.hpp:77] Creating layer inception_4e/pool_proj
I1229 02:30:40.578927  6650 net.cpp:94] Creating Layer inception_4e/pool_proj
I1229 02:30:40.578929  6650 net.cpp:435] inception_4e/pool_proj <- inception_4e/pool
I1229 02:30:40.578933  6650 net.cpp:409] inception_4e/pool_proj -> inception_4e/pool_proj
I1229 02:30:40.579491  6650 layer_factory.hpp:77] Creating layer inception_4e/pool_proj
I1229 02:30:40.580806  6650 net.cpp:144] Setting up inception_4e/pool_proj
I1229 02:30:40.580818  6650 net.cpp:151] Top shape: 1 128 20 40 (102400)
I1229 02:30:40.580824  6650 net.cpp:159] Memory required for data: 269158404
I1229 02:30:40.580832  6650 layer_factory.hpp:77] Creating layer inception_4e/relu_pool_proj
I1229 02:30:40.580837  6650 net.cpp:94] Creating Layer inception_4e/relu_pool_proj
I1229 02:30:40.580842  6650 net.cpp:435] inception_4e/relu_pool_proj <- inception_4e/pool_proj
I1229 02:30:40.580845  6650 net.cpp:396] inception_4e/relu_pool_proj -> inception_4e/pool_proj (in-place)
I1229 02:30:40.580852  6650 net.cpp:144] Setting up inception_4e/relu_pool_proj
I1229 02:30:40.580852  6650 net.cpp:151] Top shape: 1 128 20 40 (102400)
I1229 02:30:40.580855  6650 net.cpp:159] Memory required for data: 269568004
I1229 02:30:40.580857  6650 layer_factory.hpp:77] Creating layer inception_4e/output
I1229 02:30:40.580860  6650 net.cpp:94] Creating Layer inception_4e/output
I1229 02:30:40.580862  6650 net.cpp:435] inception_4e/output <- inception_4e/1x1
I1229 02:30:40.580865  6650 net.cpp:435] inception_4e/output <- inception_4e/3x3
I1229 02:30:40.580868  6650 net.cpp:435] inception_4e/output <- inception_4e/5x5
I1229 02:30:40.580869  6650 net.cpp:435] inception_4e/output <- inception_4e/pool_proj
I1229 02:30:40.580871  6650 net.cpp:409] inception_4e/output -> inception_4e/output
I1229 02:30:40.580886  6650 net.cpp:144] Setting up inception_4e/output
I1229 02:30:40.580888  6650 net.cpp:151] Top shape: 1 832 20 40 (665600)
I1229 02:30:40.580890  6650 net.cpp:159] Memory required for data: 272230404
I1229 02:30:40.580893  6650 layer_factory.hpp:77] Creating layer inception_4e/output_fixed
I1229 02:30:40.580897  6650 net.cpp:94] Creating Layer inception_4e/output_fixed
I1229 02:30:40.580899  6650 net.cpp:435] inception_4e/output_fixed <- inception_4e/output
I1229 02:30:40.580901  6650 net.cpp:396] inception_4e/output_fixed -> inception_4e/output (in-place)
I1229 02:30:40.580920  6650 net.cpp:144] Setting up inception_4e/output_fixed
I1229 02:30:40.580922  6650 net.cpp:151] Top shape: 1 832 20 40 (665600)
I1229 02:30:40.580924  6650 net.cpp:159] Memory required for data: 274892804
I1229 02:30:40.580927  6650 layer_factory.hpp:77] Creating layer inception_4e/output_inception_4e/output_fixed_0_split
I1229 02:30:40.580931  6650 net.cpp:94] Creating Layer inception_4e/output_inception_4e/output_fixed_0_split
I1229 02:30:40.580933  6650 net.cpp:435] inception_4e/output_inception_4e/output_fixed_0_split <- inception_4e/output
I1229 02:30:40.580935  6650 net.cpp:409] inception_4e/output_inception_4e/output_fixed_0_split -> inception_4e/output_inception_4e/output_fixed_0_split_0
I1229 02:30:40.580940  6650 net.cpp:409] inception_4e/output_inception_4e/output_fixed_0_split -> inception_4e/output_inception_4e/output_fixed_0_split_1
I1229 02:30:40.580956  6650 net.cpp:144] Setting up inception_4e/output_inception_4e/output_fixed_0_split
I1229 02:30:40.580958  6650 net.cpp:151] Top shape: 1 832 20 40 (665600)
I1229 02:30:40.580960  6650 net.cpp:151] Top shape: 1 832 20 40 (665600)
I1229 02:30:40.580963  6650 net.cpp:159] Memory required for data: 280217604
I1229 02:30:40.580965  6650 layer_factory.hpp:77] Creating layer pool4/3x3_s2
I1229 02:30:40.580971  6650 net.cpp:94] Creating Layer pool4/3x3_s2
I1229 02:30:40.580973  6650 net.cpp:435] pool4/3x3_s2 <- inception_4e/output_inception_4e/output_fixed_0_split_0
I1229 02:30:40.580977  6650 net.cpp:409] pool4/3x3_s2 -> pool4/3x3_s2
I1229 02:30:40.580999  6650 net.cpp:144] Setting up pool4/3x3_s2
I1229 02:30:40.581001  6650 net.cpp:151] Top shape: 1 832 10 20 (166400)
I1229 02:30:40.581004  6650 net.cpp:159] Memory required for data: 280883204
I1229 02:30:40.581007  6650 layer_factory.hpp:77] Creating layer pool4/3x3_s2_pool4/3x3_s2_0_split
I1229 02:30:40.581009  6650 net.cpp:94] Creating Layer pool4/3x3_s2_pool4/3x3_s2_0_split
I1229 02:30:40.581010  6650 net.cpp:435] pool4/3x3_s2_pool4/3x3_s2_0_split <- pool4/3x3_s2
I1229 02:30:40.581013  6650 net.cpp:409] pool4/3x3_s2_pool4/3x3_s2_0_split -> pool4/3x3_s2_pool4/3x3_s2_0_split_0
I1229 02:30:40.581017  6650 net.cpp:409] pool4/3x3_s2_pool4/3x3_s2_0_split -> pool4/3x3_s2_pool4/3x3_s2_0_split_1
I1229 02:30:40.581020  6650 net.cpp:409] pool4/3x3_s2_pool4/3x3_s2_0_split -> pool4/3x3_s2_pool4/3x3_s2_0_split_2
I1229 02:30:40.581023  6650 net.cpp:409] pool4/3x3_s2_pool4/3x3_s2_0_split -> pool4/3x3_s2_pool4/3x3_s2_0_split_3
I1229 02:30:40.581053  6650 net.cpp:144] Setting up pool4/3x3_s2_pool4/3x3_s2_0_split
I1229 02:30:40.581054  6650 net.cpp:151] Top shape: 1 832 10 20 (166400)
I1229 02:30:40.581056  6650 net.cpp:151] Top shape: 1 832 10 20 (166400)
I1229 02:30:40.581059  6650 net.cpp:151] Top shape: 1 832 10 20 (166400)
I1229 02:30:40.581061  6650 net.cpp:151] Top shape: 1 832 10 20 (166400)
I1229 02:30:40.581063  6650 net.cpp:159] Memory required for data: 283545604
I1229 02:30:40.581065  6650 layer_factory.hpp:77] Creating layer inception_5a/1x1
I1229 02:30:40.581070  6650 net.cpp:94] Creating Layer inception_5a/1x1
I1229 02:30:40.581073  6650 net.cpp:435] inception_5a/1x1 <- pool4/3x3_s2_pool4/3x3_s2_0_split_0
I1229 02:30:40.581075  6650 net.cpp:409] inception_5a/1x1 -> inception_5a/1x1
I1229 02:30:40.582540  6650 layer_factory.hpp:77] Creating layer inception_5a/1x1
I1229 02:30:40.584738  6650 net.cpp:144] Setting up inception_5a/1x1
I1229 02:30:40.584748  6650 net.cpp:151] Top shape: 1 256 10 20 (51200)
I1229 02:30:40.584754  6650 net.cpp:159] Memory required for data: 283750404
I1229 02:30:40.584762  6650 layer_factory.hpp:77] Creating layer inception_5a/relu_1x1
I1229 02:30:40.584769  6650 net.cpp:94] Creating Layer inception_5a/relu_1x1
I1229 02:30:40.584772  6650 net.cpp:435] inception_5a/relu_1x1 <- inception_5a/1x1
I1229 02:30:40.584779  6650 net.cpp:396] inception_5a/relu_1x1 -> inception_5a/1x1 (in-place)
I1229 02:30:40.584785  6650 net.cpp:144] Setting up inception_5a/relu_1x1
I1229 02:30:40.584787  6650 net.cpp:151] Top shape: 1 256 10 20 (51200)
I1229 02:30:40.584791  6650 net.cpp:159] Memory required for data: 283955204
I1229 02:30:40.584794  6650 layer_factory.hpp:77] Creating layer inception_5a/3x3_reduce
I1229 02:30:40.584802  6650 net.cpp:94] Creating Layer inception_5a/3x3_reduce
I1229 02:30:40.584805  6650 net.cpp:435] inception_5a/3x3_reduce <- pool4/3x3_s2_pool4/3x3_s2_0_split_1
I1229 02:30:40.584810  6650 net.cpp:409] inception_5a/3x3_reduce -> inception_5a/3x3_reduce
I1229 02:30:40.586329  6650 layer_factory.hpp:77] Creating layer inception_5a/3x3_reduce
I1229 02:30:40.587826  6650 net.cpp:144] Setting up inception_5a/3x3_reduce
I1229 02:30:40.587836  6650 net.cpp:151] Top shape: 1 160 10 20 (32000)
I1229 02:30:40.587841  6650 net.cpp:159] Memory required for data: 284083204
I1229 02:30:40.587849  6650 layer_factory.hpp:77] Creating layer inception_5a/relu_3x3_reduce
I1229 02:30:40.587858  6650 net.cpp:94] Creating Layer inception_5a/relu_3x3_reduce
I1229 02:30:40.587864  6650 net.cpp:435] inception_5a/relu_3x3_reduce <- inception_5a/3x3_reduce
I1229 02:30:40.587869  6650 net.cpp:396] inception_5a/relu_3x3_reduce -> inception_5a/3x3_reduce (in-place)
I1229 02:30:40.587878  6650 net.cpp:144] Setting up inception_5a/relu_3x3_reduce
I1229 02:30:40.587882  6650 net.cpp:151] Top shape: 1 160 10 20 (32000)
I1229 02:30:40.587885  6650 net.cpp:159] Memory required for data: 284211204
I1229 02:30:40.587888  6650 layer_factory.hpp:77] Creating layer inception_5a/3x3_reduce_fixed
I1229 02:30:40.587894  6650 net.cpp:94] Creating Layer inception_5a/3x3_reduce_fixed
I1229 02:30:40.587899  6650 net.cpp:435] inception_5a/3x3_reduce_fixed <- inception_5a/3x3_reduce
I1229 02:30:40.587903  6650 net.cpp:396] inception_5a/3x3_reduce_fixed -> inception_5a/3x3_reduce (in-place)
I1229 02:30:40.587935  6650 net.cpp:144] Setting up inception_5a/3x3_reduce_fixed
I1229 02:30:40.587939  6650 net.cpp:151] Top shape: 1 160 10 20 (32000)
I1229 02:30:40.587942  6650 net.cpp:159] Memory required for data: 284339204
I1229 02:30:40.587946  6650 layer_factory.hpp:77] Creating layer inception_5a/3x3
I1229 02:30:40.587954  6650 net.cpp:94] Creating Layer inception_5a/3x3
I1229 02:30:40.587958  6650 net.cpp:435] inception_5a/3x3 <- inception_5a/3x3_reduce
I1229 02:30:40.587963  6650 net.cpp:409] inception_5a/3x3 -> inception_5a/3x3
I1229 02:30:40.591686  6650 layer_factory.hpp:77] Creating layer inception_5a/3x3
I1229 02:30:40.596916  6650 net.cpp:144] Setting up inception_5a/3x3
I1229 02:30:40.596933  6650 net.cpp:151] Top shape: 1 320 10 20 (64000)
I1229 02:30:40.596940  6650 net.cpp:159] Memory required for data: 284595204
I1229 02:30:40.596949  6650 layer_factory.hpp:77] Creating layer inception_5a/relu_3x3
I1229 02:30:40.596958  6650 net.cpp:94] Creating Layer inception_5a/relu_3x3
I1229 02:30:40.596967  6650 net.cpp:435] inception_5a/relu_3x3 <- inception_5a/3x3
I1229 02:30:40.596974  6650 net.cpp:396] inception_5a/relu_3x3 -> inception_5a/3x3 (in-place)
I1229 02:30:40.596982  6650 net.cpp:144] Setting up inception_5a/relu_3x3
I1229 02:30:40.596984  6650 net.cpp:151] Top shape: 1 320 10 20 (64000)
I1229 02:30:40.596988  6650 net.cpp:159] Memory required for data: 284851204
I1229 02:30:40.596990  6650 layer_factory.hpp:77] Creating layer inception_5a/5x5_reduce
I1229 02:30:40.596999  6650 net.cpp:94] Creating Layer inception_5a/5x5_reduce
I1229 02:30:40.597002  6650 net.cpp:435] inception_5a/5x5_reduce <- pool4/3x3_s2_pool4/3x3_s2_0_split_2
I1229 02:30:40.597007  6650 net.cpp:409] inception_5a/5x5_reduce -> inception_5a/5x5_reduce
I1229 02:30:40.597399  6650 layer_factory.hpp:77] Creating layer inception_5a/5x5_reduce
I1229 02:30:40.597800  6650 net.cpp:144] Setting up inception_5a/5x5_reduce
I1229 02:30:40.597808  6650 net.cpp:151] Top shape: 1 32 10 20 (6400)
I1229 02:30:40.597815  6650 net.cpp:159] Memory required for data: 284876804
I1229 02:30:40.597820  6650 layer_factory.hpp:77] Creating layer inception_5a/relu_5x5_reduce
I1229 02:30:40.597823  6650 net.cpp:94] Creating Layer inception_5a/relu_5x5_reduce
I1229 02:30:40.597826  6650 net.cpp:435] inception_5a/relu_5x5_reduce <- inception_5a/5x5_reduce
I1229 02:30:40.597829  6650 net.cpp:396] inception_5a/relu_5x5_reduce -> inception_5a/5x5_reduce (in-place)
I1229 02:30:40.597834  6650 net.cpp:144] Setting up inception_5a/relu_5x5_reduce
I1229 02:30:40.597836  6650 net.cpp:151] Top shape: 1 32 10 20 (6400)
I1229 02:30:40.597838  6650 net.cpp:159] Memory required for data: 284902404
I1229 02:30:40.597839  6650 layer_factory.hpp:77] Creating layer inception_5a/5x5_reduce_fixed
I1229 02:30:40.597844  6650 net.cpp:94] Creating Layer inception_5a/5x5_reduce_fixed
I1229 02:30:40.597846  6650 net.cpp:435] inception_5a/5x5_reduce_fixed <- inception_5a/5x5_reduce
I1229 02:30:40.597849  6650 net.cpp:396] inception_5a/5x5_reduce_fixed -> inception_5a/5x5_reduce (in-place)
I1229 02:30:40.597888  6650 net.cpp:144] Setting up inception_5a/5x5_reduce_fixed
I1229 02:30:40.597895  6650 net.cpp:151] Top shape: 1 32 10 20 (6400)
I1229 02:30:40.597899  6650 net.cpp:159] Memory required for data: 284928004
I1229 02:30:40.597903  6650 layer_factory.hpp:77] Creating layer inception_5a/5x5
I1229 02:30:40.597910  6650 net.cpp:94] Creating Layer inception_5a/5x5
I1229 02:30:40.597914  6650 net.cpp:435] inception_5a/5x5 <- inception_5a/5x5_reduce
I1229 02:30:40.597918  6650 net.cpp:409] inception_5a/5x5 -> inception_5a/5x5
I1229 02:30:40.598807  6650 layer_factory.hpp:77] Creating layer inception_5a/5x5
I1229 02:30:40.599623  6650 net.cpp:144] Setting up inception_5a/5x5
I1229 02:30:40.599632  6650 net.cpp:151] Top shape: 1 128 10 20 (25600)
I1229 02:30:40.599638  6650 net.cpp:159] Memory required for data: 285030404
I1229 02:30:40.599647  6650 layer_factory.hpp:77] Creating layer inception_5a/relu_5x5
I1229 02:30:40.599654  6650 net.cpp:94] Creating Layer inception_5a/relu_5x5
I1229 02:30:40.599660  6650 net.cpp:435] inception_5a/relu_5x5 <- inception_5a/5x5
I1229 02:30:40.599665  6650 net.cpp:396] inception_5a/relu_5x5 -> inception_5a/5x5 (in-place)
I1229 02:30:40.599673  6650 net.cpp:144] Setting up inception_5a/relu_5x5
I1229 02:30:40.599676  6650 net.cpp:151] Top shape: 1 128 10 20 (25600)
I1229 02:30:40.599680  6650 net.cpp:159] Memory required for data: 285132804
I1229 02:30:40.599685  6650 layer_factory.hpp:77] Creating layer inception_5a/pool
I1229 02:30:40.599694  6650 net.cpp:94] Creating Layer inception_5a/pool
I1229 02:30:40.599697  6650 net.cpp:435] inception_5a/pool <- pool4/3x3_s2_pool4/3x3_s2_0_split_3
I1229 02:30:40.599701  6650 net.cpp:409] inception_5a/pool -> inception_5a/pool
I1229 02:30:40.599740  6650 net.cpp:144] Setting up inception_5a/pool
I1229 02:30:40.599743  6650 net.cpp:151] Top shape: 1 832 10 20 (166400)
I1229 02:30:40.599746  6650 net.cpp:159] Memory required for data: 285798404
I1229 02:30:40.599748  6650 layer_factory.hpp:77] Creating layer inception_5a/pool_proj
I1229 02:30:40.599754  6650 net.cpp:94] Creating Layer inception_5a/pool_proj
I1229 02:30:40.599756  6650 net.cpp:435] inception_5a/pool_proj <- inception_5a/pool
I1229 02:30:40.599761  6650 net.cpp:409] inception_5a/pool_proj -> inception_5a/pool_proj
I1229 02:30:40.601244  6650 layer_factory.hpp:77] Creating layer inception_5a/pool_proj
I1229 02:30:40.602041  6650 net.cpp:144] Setting up inception_5a/pool_proj
I1229 02:30:40.602046  6650 net.cpp:151] Top shape: 1 128 10 20 (25600)
I1229 02:30:40.602051  6650 net.cpp:159] Memory required for data: 285900804
I1229 02:30:40.602062  6650 layer_factory.hpp:77] Creating layer inception_5a/relu_pool_proj
I1229 02:30:40.602066  6650 net.cpp:94] Creating Layer inception_5a/relu_pool_proj
I1229 02:30:40.602069  6650 net.cpp:435] inception_5a/relu_pool_proj <- inception_5a/pool_proj
I1229 02:30:40.602072  6650 net.cpp:396] inception_5a/relu_pool_proj -> inception_5a/pool_proj (in-place)
I1229 02:30:40.602077  6650 net.cpp:144] Setting up inception_5a/relu_pool_proj
I1229 02:30:40.602078  6650 net.cpp:151] Top shape: 1 128 10 20 (25600)
I1229 02:30:40.602080  6650 net.cpp:159] Memory required for data: 286003204
I1229 02:30:40.602082  6650 layer_factory.hpp:77] Creating layer inception_5a/output
I1229 02:30:40.602085  6650 net.cpp:94] Creating Layer inception_5a/output
I1229 02:30:40.602088  6650 net.cpp:435] inception_5a/output <- inception_5a/1x1
I1229 02:30:40.602090  6650 net.cpp:435] inception_5a/output <- inception_5a/3x3
I1229 02:30:40.602092  6650 net.cpp:435] inception_5a/output <- inception_5a/5x5
I1229 02:30:40.602094  6650 net.cpp:435] inception_5a/output <- inception_5a/pool_proj
I1229 02:30:40.602097  6650 net.cpp:409] inception_5a/output -> inception_5a/output
I1229 02:30:40.602111  6650 net.cpp:144] Setting up inception_5a/output
I1229 02:30:40.602113  6650 net.cpp:151] Top shape: 1 832 10 20 (166400)
I1229 02:30:40.602116  6650 net.cpp:159] Memory required for data: 286668804
I1229 02:30:40.602118  6650 layer_factory.hpp:77] Creating layer inception_5a/output_fixed
I1229 02:30:40.602121  6650 net.cpp:94] Creating Layer inception_5a/output_fixed
I1229 02:30:40.602124  6650 net.cpp:435] inception_5a/output_fixed <- inception_5a/output
I1229 02:30:40.602128  6650 net.cpp:396] inception_5a/output_fixed -> inception_5a/output (in-place)
I1229 02:30:40.602150  6650 net.cpp:144] Setting up inception_5a/output_fixed
I1229 02:30:40.602152  6650 net.cpp:151] Top shape: 1 832 10 20 (166400)
I1229 02:30:40.602155  6650 net.cpp:159] Memory required for data: 287334404
I1229 02:30:40.602159  6650 layer_factory.hpp:77] Creating layer inception_5a/output_inception_5a/output_fixed_0_split
I1229 02:30:40.602164  6650 net.cpp:94] Creating Layer inception_5a/output_inception_5a/output_fixed_0_split
I1229 02:30:40.602167  6650 net.cpp:435] inception_5a/output_inception_5a/output_fixed_0_split <- inception_5a/output
I1229 02:30:40.602171  6650 net.cpp:409] inception_5a/output_inception_5a/output_fixed_0_split -> inception_5a/output_inception_5a/output_fixed_0_split_0
I1229 02:30:40.602176  6650 net.cpp:409] inception_5a/output_inception_5a/output_fixed_0_split -> inception_5a/output_inception_5a/output_fixed_0_split_1
I1229 02:30:40.602180  6650 net.cpp:409] inception_5a/output_inception_5a/output_fixed_0_split -> inception_5a/output_inception_5a/output_fixed_0_split_2
I1229 02:30:40.602183  6650 net.cpp:409] inception_5a/output_inception_5a/output_fixed_0_split -> inception_5a/output_inception_5a/output_fixed_0_split_3
I1229 02:30:40.602216  6650 net.cpp:144] Setting up inception_5a/output_inception_5a/output_fixed_0_split
I1229 02:30:40.602217  6650 net.cpp:151] Top shape: 1 832 10 20 (166400)
I1229 02:30:40.602221  6650 net.cpp:151] Top shape: 1 832 10 20 (166400)
I1229 02:30:40.602222  6650 net.cpp:151] Top shape: 1 832 10 20 (166400)
I1229 02:30:40.602226  6650 net.cpp:151] Top shape: 1 832 10 20 (166400)
I1229 02:30:40.602227  6650 net.cpp:159] Memory required for data: 289996804
I1229 02:30:40.602229  6650 layer_factory.hpp:77] Creating layer inception_5b/1x1
I1229 02:30:40.602233  6650 net.cpp:94] Creating Layer inception_5b/1x1
I1229 02:30:40.602236  6650 net.cpp:435] inception_5b/1x1 <- inception_5a/output_inception_5a/output_fixed_0_split_0
I1229 02:30:40.602241  6650 net.cpp:409] inception_5b/1x1 -> inception_5b/1x1
I1229 02:30:40.605350  6650 layer_factory.hpp:77] Creating layer inception_5b/1x1
I1229 02:30:40.608598  6650 net.cpp:144] Setting up inception_5b/1x1
I1229 02:30:40.608608  6650 net.cpp:151] Top shape: 1 384 10 20 (76800)
I1229 02:30:40.608613  6650 net.cpp:159] Memory required for data: 290304004
I1229 02:30:40.608620  6650 layer_factory.hpp:77] Creating layer inception_5b/relu_1x1
I1229 02:30:40.608624  6650 net.cpp:94] Creating Layer inception_5b/relu_1x1
I1229 02:30:40.608628  6650 net.cpp:435] inception_5b/relu_1x1 <- inception_5b/1x1
I1229 02:30:40.608633  6650 net.cpp:396] inception_5b/relu_1x1 -> inception_5b/1x1 (in-place)
I1229 02:30:40.608639  6650 net.cpp:144] Setting up inception_5b/relu_1x1
I1229 02:30:40.608641  6650 net.cpp:151] Top shape: 1 384 10 20 (76800)
I1229 02:30:40.608644  6650 net.cpp:159] Memory required for data: 290611204
I1229 02:30:40.608645  6650 layer_factory.hpp:77] Creating layer inception_5b/3x3_reduce
I1229 02:30:40.608651  6650 net.cpp:94] Creating Layer inception_5b/3x3_reduce
I1229 02:30:40.608654  6650 net.cpp:435] inception_5b/3x3_reduce <- inception_5a/output_inception_5a/output_fixed_0_split_1
I1229 02:30:40.608657  6650 net.cpp:409] inception_5b/3x3_reduce -> inception_5b/3x3_reduce
I1229 02:30:40.609871  6650 layer_factory.hpp:77] Creating layer inception_5b/3x3_reduce
I1229 02:30:40.611220  6650 net.cpp:144] Setting up inception_5b/3x3_reduce
I1229 02:30:40.611228  6650 net.cpp:151] Top shape: 1 192 10 20 (38400)
I1229 02:30:40.611233  6650 net.cpp:159] Memory required for data: 290764804
I1229 02:30:40.611239  6650 layer_factory.hpp:77] Creating layer inception_5b/relu_3x3_reduce
I1229 02:30:40.611244  6650 net.cpp:94] Creating Layer inception_5b/relu_3x3_reduce
I1229 02:30:40.611249  6650 net.cpp:435] inception_5b/relu_3x3_reduce <- inception_5b/3x3_reduce
I1229 02:30:40.611254  6650 net.cpp:396] inception_5b/relu_3x3_reduce -> inception_5b/3x3_reduce (in-place)
I1229 02:30:40.611260  6650 net.cpp:144] Setting up inception_5b/relu_3x3_reduce
I1229 02:30:40.611263  6650 net.cpp:151] Top shape: 1 192 10 20 (38400)
I1229 02:30:40.611265  6650 net.cpp:159] Memory required for data: 290918404
I1229 02:30:40.611268  6650 layer_factory.hpp:77] Creating layer inception_5b/3x3_reduce_fixed
I1229 02:30:40.611274  6650 net.cpp:94] Creating Layer inception_5b/3x3_reduce_fixed
I1229 02:30:40.611277  6650 net.cpp:435] inception_5b/3x3_reduce_fixed <- inception_5b/3x3_reduce
I1229 02:30:40.611280  6650 net.cpp:396] inception_5b/3x3_reduce_fixed -> inception_5b/3x3_reduce (in-place)
I1229 02:30:40.611304  6650 net.cpp:144] Setting up inception_5b/3x3_reduce_fixed
I1229 02:30:40.611306  6650 net.cpp:151] Top shape: 1 192 10 20 (38400)
I1229 02:30:40.611310  6650 net.cpp:159] Memory required for data: 291072004
I1229 02:30:40.611313  6650 layer_factory.hpp:77] Creating layer inception_5b/3x3
I1229 02:30:40.611318  6650 net.cpp:94] Creating Layer inception_5b/3x3
I1229 02:30:40.611320  6650 net.cpp:435] inception_5b/3x3 <- inception_5b/3x3_reduce
I1229 02:30:40.611323  6650 net.cpp:409] inception_5b/3x3 -> inception_5b/3x3
I1229 02:30:40.616910  6650 layer_factory.hpp:77] Creating layer inception_5b/3x3
I1229 02:30:40.622215  6650 net.cpp:144] Setting up inception_5b/3x3
I1229 02:30:40.622234  6650 net.cpp:151] Top shape: 1 384 10 20 (76800)
I1229 02:30:40.622242  6650 net.cpp:159] Memory required for data: 291379204
I1229 02:30:40.622251  6650 layer_factory.hpp:77] Creating layer inception_5b/relu_3x3
I1229 02:30:40.622256  6650 net.cpp:94] Creating Layer inception_5b/relu_3x3
I1229 02:30:40.622262  6650 net.cpp:435] inception_5b/relu_3x3 <- inception_5b/3x3
I1229 02:30:40.622265  6650 net.cpp:396] inception_5b/relu_3x3 -> inception_5b/3x3 (in-place)
I1229 02:30:40.622272  6650 net.cpp:144] Setting up inception_5b/relu_3x3
I1229 02:30:40.622274  6650 net.cpp:151] Top shape: 1 384 10 20 (76800)
I1229 02:30:40.622277  6650 net.cpp:159] Memory required for data: 291686404
I1229 02:30:40.622279  6650 layer_factory.hpp:77] Creating layer inception_5b/5x5_reduce
I1229 02:30:40.622288  6650 net.cpp:94] Creating Layer inception_5b/5x5_reduce
I1229 02:30:40.622292  6650 net.cpp:435] inception_5b/5x5_reduce <- inception_5a/output_inception_5a/output_fixed_0_split_2
I1229 02:30:40.622296  6650 net.cpp:409] inception_5b/5x5_reduce -> inception_5b/5x5_reduce
I1229 02:30:40.622656  6650 layer_factory.hpp:77] Creating layer inception_5b/5x5_reduce
I1229 02:30:40.623086  6650 net.cpp:144] Setting up inception_5b/5x5_reduce
I1229 02:30:40.623091  6650 net.cpp:151] Top shape: 1 48 10 20 (9600)
I1229 02:30:40.623095  6650 net.cpp:159] Memory required for data: 291724804
I1229 02:30:40.623098  6650 layer_factory.hpp:77] Creating layer inception_5b/relu_5x5_reduce
I1229 02:30:40.623102  6650 net.cpp:94] Creating Layer inception_5b/relu_5x5_reduce
I1229 02:30:40.623106  6650 net.cpp:435] inception_5b/relu_5x5_reduce <- inception_5b/5x5_reduce
I1229 02:30:40.623107  6650 net.cpp:396] inception_5b/relu_5x5_reduce -> inception_5b/5x5_reduce (in-place)
I1229 02:30:40.623111  6650 net.cpp:144] Setting up inception_5b/relu_5x5_reduce
I1229 02:30:40.623113  6650 net.cpp:151] Top shape: 1 48 10 20 (9600)
I1229 02:30:40.623117  6650 net.cpp:159] Memory required for data: 291763204
I1229 02:30:40.623118  6650 layer_factory.hpp:77] Creating layer inception_5b/5x5_reduce_fixed
I1229 02:30:40.623123  6650 net.cpp:94] Creating Layer inception_5b/5x5_reduce_fixed
I1229 02:30:40.623126  6650 net.cpp:435] inception_5b/5x5_reduce_fixed <- inception_5b/5x5_reduce
I1229 02:30:40.623129  6650 net.cpp:396] inception_5b/5x5_reduce_fixed -> inception_5b/5x5_reduce (in-place)
I1229 02:30:40.623152  6650 net.cpp:144] Setting up inception_5b/5x5_reduce_fixed
I1229 02:30:40.623154  6650 net.cpp:151] Top shape: 1 48 10 20 (9600)
I1229 02:30:40.623157  6650 net.cpp:159] Memory required for data: 291801604
I1229 02:30:40.623160  6650 layer_factory.hpp:77] Creating layer inception_5b/5x5
I1229 02:30:40.623164  6650 net.cpp:94] Creating Layer inception_5b/5x5
I1229 02:30:40.623167  6650 net.cpp:435] inception_5b/5x5 <- inception_5b/5x5_reduce
I1229 02:30:40.623168  6650 net.cpp:409] inception_5b/5x5 -> inception_5b/5x5
I1229 02:30:40.624598  6650 layer_factory.hpp:77] Creating layer inception_5b/5x5
I1229 02:30:40.627753  6650 net.cpp:144] Setting up inception_5b/5x5
I1229 02:30:40.627768  6650 net.cpp:151] Top shape: 1 128 10 20 (25600)
I1229 02:30:40.627776  6650 net.cpp:159] Memory required for data: 291904004
I1229 02:30:40.627785  6650 layer_factory.hpp:77] Creating layer inception_5b/relu_5x5
I1229 02:30:40.627792  6650 net.cpp:94] Creating Layer inception_5b/relu_5x5
I1229 02:30:40.627796  6650 net.cpp:435] inception_5b/relu_5x5 <- inception_5b/5x5
I1229 02:30:40.627801  6650 net.cpp:396] inception_5b/relu_5x5 -> inception_5b/5x5 (in-place)
I1229 02:30:40.627808  6650 net.cpp:144] Setting up inception_5b/relu_5x5
I1229 02:30:40.627810  6650 net.cpp:151] Top shape: 1 128 10 20 (25600)
I1229 02:30:40.627813  6650 net.cpp:159] Memory required for data: 292006404
I1229 02:30:40.627815  6650 layer_factory.hpp:77] Creating layer inception_5b/pool
I1229 02:30:40.627820  6650 net.cpp:94] Creating Layer inception_5b/pool
I1229 02:30:40.627823  6650 net.cpp:435] inception_5b/pool <- inception_5a/output_inception_5a/output_fixed_0_split_3
I1229 02:30:40.627827  6650 net.cpp:409] inception_5b/pool -> inception_5b/pool
I1229 02:30:40.627853  6650 net.cpp:144] Setting up inception_5b/pool
I1229 02:30:40.627856  6650 net.cpp:151] Top shape: 1 832 10 20 (166400)
I1229 02:30:40.627859  6650 net.cpp:159] Memory required for data: 292672004
I1229 02:30:40.627863  6650 layer_factory.hpp:77] Creating layer inception_5b/pool_proj
I1229 02:30:40.627871  6650 net.cpp:94] Creating Layer inception_5b/pool_proj
I1229 02:30:40.627876  6650 net.cpp:435] inception_5b/pool_proj <- inception_5b/pool
I1229 02:30:40.627882  6650 net.cpp:409] inception_5b/pool_proj -> inception_5b/pool_proj
I1229 02:30:40.628588  6650 layer_factory.hpp:77] Creating layer inception_5b/pool_proj
I1229 02:30:40.630235  6650 net.cpp:144] Setting up inception_5b/pool_proj
I1229 02:30:40.630246  6650 net.cpp:151] Top shape: 1 128 10 20 (25600)
I1229 02:30:40.630251  6650 net.cpp:159] Memory required for data: 292774404
I1229 02:30:40.630259  6650 layer_factory.hpp:77] Creating layer inception_5b/relu_pool_proj
I1229 02:30:40.630264  6650 net.cpp:94] Creating Layer inception_5b/relu_pool_proj
I1229 02:30:40.630266  6650 net.cpp:435] inception_5b/relu_pool_proj <- inception_5b/pool_proj
I1229 02:30:40.630270  6650 net.cpp:396] inception_5b/relu_pool_proj -> inception_5b/pool_proj (in-place)
I1229 02:30:40.630276  6650 net.cpp:144] Setting up inception_5b/relu_pool_proj
I1229 02:30:40.630278  6650 net.cpp:151] Top shape: 1 128 10 20 (25600)
I1229 02:30:40.630280  6650 net.cpp:159] Memory required for data: 292876804
I1229 02:30:40.630281  6650 layer_factory.hpp:77] Creating layer inception_5b/output
I1229 02:30:40.630285  6650 net.cpp:94] Creating Layer inception_5b/output
I1229 02:30:40.630287  6650 net.cpp:435] inception_5b/output <- inception_5b/1x1
I1229 02:30:40.630290  6650 net.cpp:435] inception_5b/output <- inception_5b/3x3
I1229 02:30:40.630292  6650 net.cpp:435] inception_5b/output <- inception_5b/5x5
I1229 02:30:40.630293  6650 net.cpp:435] inception_5b/output <- inception_5b/pool_proj
I1229 02:30:40.630297  6650 net.cpp:409] inception_5b/output -> inception_5b/output
I1229 02:30:40.630316  6650 net.cpp:144] Setting up inception_5b/output
I1229 02:30:40.630318  6650 net.cpp:151] Top shape: 1 1024 10 20 (204800)
I1229 02:30:40.630321  6650 net.cpp:159] Memory required for data: 293696004
I1229 02:30:40.630323  6650 layer_factory.hpp:77] Creating layer inception_5b/output_fixed
I1229 02:30:40.630328  6650 net.cpp:94] Creating Layer inception_5b/output_fixed
I1229 02:30:40.630331  6650 net.cpp:435] inception_5b/output_fixed <- inception_5b/output
I1229 02:30:40.630332  6650 net.cpp:396] inception_5b/output_fixed -> inception_5b/output (in-place)
I1229 02:30:40.630355  6650 net.cpp:144] Setting up inception_5b/output_fixed
I1229 02:30:40.630358  6650 net.cpp:151] Top shape: 1 1024 10 20 (204800)
I1229 02:30:40.630362  6650 net.cpp:159] Memory required for data: 294515204
I1229 02:30:40.630365  6650 layer_factory.hpp:77] Creating layer p5
I1229 02:30:40.630373  6650 net.cpp:94] Creating Layer p5
I1229 02:30:40.630374  6650 net.cpp:435] p5 <- inception_5b/output
I1229 02:30:40.630378  6650 net.cpp:409] p5 -> p5
I1229 02:30:40.630725  6650 layer_factory.hpp:77] Creating layer p5
I1229 02:30:40.631270  6650 net.cpp:144] Setting up p5
I1229 02:30:40.631278  6650 net.cpp:151] Top shape: 1 32 10 20 (6400)
I1229 02:30:40.631283  6650 net.cpp:159] Memory required for data: 294540804
I1229 02:30:40.631289  6650 layer_factory.hpp:77] Creating layer p5_fixed
I1229 02:30:40.631294  6650 net.cpp:94] Creating Layer p5_fixed
I1229 02:30:40.631296  6650 net.cpp:435] p5_fixed <- p5
I1229 02:30:40.631300  6650 net.cpp:396] p5_fixed -> p5 (in-place)
I1229 02:30:40.631328  6650 net.cpp:144] Setting up p5_fixed
I1229 02:30:40.631332  6650 net.cpp:151] Top shape: 1 32 10 20 (6400)
I1229 02:30:40.631336  6650 net.cpp:159] Memory required for data: 294566404
I1229 02:30:40.631340  6650 layer_factory.hpp:77] Creating layer latlayer_4f
I1229 02:30:40.631345  6650 net.cpp:94] Creating Layer latlayer_4f
I1229 02:30:40.631352  6650 net.cpp:435] latlayer_4f <- inception_4e/output_inception_4e/output_fixed_0_split_1
I1229 02:30:40.631356  6650 net.cpp:409] latlayer_4f -> latlayer_4f
I1229 02:30:40.631625  6650 layer_factory.hpp:77] Creating layer latlayer_4f
I1229 02:30:40.632020  6650 net.cpp:144] Setting up latlayer_4f
I1229 02:30:40.632027  6650 net.cpp:151] Top shape: 1 32 20 40 (25600)
I1229 02:30:40.632031  6650 net.cpp:159] Memory required for data: 294668804
I1229 02:30:40.632036  6650 layer_factory.hpp:77] Creating layer latlayer_4f_fixed
I1229 02:30:40.632041  6650 net.cpp:94] Creating Layer latlayer_4f_fixed
I1229 02:30:40.632043  6650 net.cpp:435] latlayer_4f_fixed <- latlayer_4f
I1229 02:30:40.632048  6650 net.cpp:396] latlayer_4f_fixed -> latlayer_4f (in-place)
I1229 02:30:40.632077  6650 net.cpp:144] Setting up latlayer_4f_fixed
I1229 02:30:40.632086  6650 net.cpp:151] Top shape: 1 32 20 40 (25600)
I1229 02:30:40.632091  6650 net.cpp:159] Memory required for data: 294771204
I1229 02:30:40.632095  6650 layer_factory.hpp:77] Creating layer upsample_p5
I1229 02:30:40.632100  6650 net.cpp:94] Creating Layer upsample_p5
I1229 02:30:40.632103  6650 net.cpp:435] upsample_p5 <- p5
I1229 02:30:40.632112  6650 net.cpp:409] upsample_p5 -> upsample_p5
I1229 02:30:40.632365  6650 layer_factory.hpp:77] Creating layer upsample_p5
I1229 02:30:40.632660  6650 net.cpp:144] Setting up upsample_p5
I1229 02:30:40.632666  6650 net.cpp:151] Top shape: 1 32 20 40 (25600)
I1229 02:30:40.632669  6650 net.cpp:159] Memory required for data: 294873604
I1229 02:30:40.632673  6650 layer_factory.hpp:77] Creating layer upsample_p5_fixed
I1229 02:30:40.632678  6650 net.cpp:94] Creating Layer upsample_p5_fixed
I1229 02:30:40.632684  6650 net.cpp:435] upsample_p5_fixed <- upsample_p5
I1229 02:30:40.632690  6650 net.cpp:396] upsample_p5_fixed -> upsample_p5 (in-place)
I1229 02:30:40.632730  6650 net.cpp:144] Setting up upsample_p5_fixed
I1229 02:30:40.632735  6650 net.cpp:151] Top shape: 1 32 20 40 (25600)
I1229 02:30:40.632740  6650 net.cpp:159] Memory required for data: 294976004
I1229 02:30:40.632743  6650 layer_factory.hpp:77] Creating layer add_p4
I1229 02:30:40.632750  6650 net.cpp:94] Creating Layer add_p4
I1229 02:30:40.632752  6650 net.cpp:435] add_p4 <- upsample_p5
I1229 02:30:40.632755  6650 net.cpp:435] add_p4 <- latlayer_4f
I1229 02:30:40.632761  6650 net.cpp:409] add_p4 -> add_p4
I1229 02:30:40.632781  6650 net.cpp:144] Setting up add_p4
I1229 02:30:40.632784  6650 net.cpp:151] Top shape: 1 32 20 40 (25600)
I1229 02:30:40.632787  6650 net.cpp:159] Memory required for data: 295078404
I1229 02:30:40.632791  6650 layer_factory.hpp:77] Creating layer add_p4_fixed
I1229 02:30:40.632794  6650 net.cpp:94] Creating Layer add_p4_fixed
I1229 02:30:40.632797  6650 net.cpp:435] add_p4_fixed <- add_p4
I1229 02:30:40.632802  6650 net.cpp:396] add_p4_fixed -> add_p4 (in-place)
I1229 02:30:40.632829  6650 net.cpp:144] Setting up add_p4_fixed
I1229 02:30:40.632833  6650 net.cpp:151] Top shape: 1 32 20 40 (25600)
I1229 02:30:40.632838  6650 net.cpp:159] Memory required for data: 295180804
I1229 02:30:40.632843  6650 layer_factory.hpp:77] Creating layer toplayer_p4
I1229 02:30:40.632848  6650 net.cpp:94] Creating Layer toplayer_p4
I1229 02:30:40.632851  6650 net.cpp:435] toplayer_p4 <- add_p4
I1229 02:30:40.632855  6650 net.cpp:409] toplayer_p4 -> p4
I1229 02:30:40.633082  6650 layer_factory.hpp:77] Creating layer toplayer_p4
I1229 02:30:40.633378  6650 net.cpp:144] Setting up toplayer_p4
I1229 02:30:40.633386  6650 net.cpp:151] Top shape: 1 32 20 40 (25600)
I1229 02:30:40.633389  6650 net.cpp:159] Memory required for data: 295283204
I1229 02:30:40.633394  6650 layer_factory.hpp:77] Creating layer p4_fixed
I1229 02:30:40.633397  6650 net.cpp:94] Creating Layer p4_fixed
I1229 02:30:40.633399  6650 net.cpp:435] p4_fixed <- p4
I1229 02:30:40.633402  6650 net.cpp:396] p4_fixed -> p4 (in-place)
I1229 02:30:40.633422  6650 net.cpp:144] Setting up p4_fixed
I1229 02:30:40.633424  6650 net.cpp:151] Top shape: 1 32 20 40 (25600)
I1229 02:30:40.633432  6650 net.cpp:159] Memory required for data: 295385604
I1229 02:30:40.633436  6650 layer_factory.hpp:77] Creating layer latlayer_3d
I1229 02:30:40.633442  6650 net.cpp:94] Creating Layer latlayer_3d
I1229 02:30:40.633446  6650 net.cpp:435] latlayer_3d <- inception_3b/output_inception_3b/output_fixed_0_split_1
I1229 02:30:40.633451  6650 net.cpp:409] latlayer_3d -> latlayer_3d
I1229 02:30:40.633685  6650 layer_factory.hpp:77] Creating layer latlayer_3d
I1229 02:30:40.634013  6650 net.cpp:144] Setting up latlayer_3d
I1229 02:30:40.634021  6650 net.cpp:151] Top shape: 1 32 40 80 (102400)
I1229 02:30:40.634023  6650 net.cpp:159] Memory required for data: 295795204
I1229 02:30:40.634028  6650 layer_factory.hpp:77] Creating layer latlayer_3d_fixed
I1229 02:30:40.634033  6650 net.cpp:94] Creating Layer latlayer_3d_fixed
I1229 02:30:40.634037  6650 net.cpp:435] latlayer_3d_fixed <- latlayer_3d
I1229 02:30:40.634040  6650 net.cpp:396] latlayer_3d_fixed -> latlayer_3d (in-place)
I1229 02:30:40.634068  6650 net.cpp:144] Setting up latlayer_3d_fixed
I1229 02:30:40.634070  6650 net.cpp:151] Top shape: 1 32 40 80 (102400)
I1229 02:30:40.634073  6650 net.cpp:159] Memory required for data: 296204804
I1229 02:30:40.634078  6650 layer_factory.hpp:77] Creating layer upsample_p4
I1229 02:30:40.634083  6650 net.cpp:94] Creating Layer upsample_p4
I1229 02:30:40.634085  6650 net.cpp:435] upsample_p4 <- p4
I1229 02:30:40.634089  6650 net.cpp:409] upsample_p4 -> upsample_p4
I1229 02:30:40.634294  6650 layer_factory.hpp:77] Creating layer upsample_p4
I1229 02:30:40.634568  6650 net.cpp:144] Setting up upsample_p4
I1229 02:30:40.634572  6650 net.cpp:151] Top shape: 1 32 40 80 (102400)
I1229 02:30:40.634577  6650 net.cpp:159] Memory required for data: 296614404
I1229 02:30:40.634579  6650 layer_factory.hpp:77] Creating layer upsample_p4_fixed
I1229 02:30:40.634585  6650 net.cpp:94] Creating Layer upsample_p4_fixed
I1229 02:30:40.634588  6650 net.cpp:435] upsample_p4_fixed <- upsample_p4
I1229 02:30:40.634590  6650 net.cpp:396] upsample_p4_fixed -> upsample_p4 (in-place)
I1229 02:30:40.634610  6650 net.cpp:144] Setting up upsample_p4_fixed
I1229 02:30:40.634613  6650 net.cpp:151] Top shape: 1 32 40 80 (102400)
I1229 02:30:40.634615  6650 net.cpp:159] Memory required for data: 297024004
I1229 02:30:40.634618  6650 layer_factory.hpp:77] Creating layer add_p3
I1229 02:30:40.634620  6650 net.cpp:94] Creating Layer add_p3
I1229 02:30:40.634622  6650 net.cpp:435] add_p3 <- upsample_p4
I1229 02:30:40.634624  6650 net.cpp:435] add_p3 <- latlayer_3d
I1229 02:30:40.634627  6650 net.cpp:409] add_p3 -> add_p3
I1229 02:30:40.634639  6650 net.cpp:144] Setting up add_p3
I1229 02:30:40.634640  6650 net.cpp:151] Top shape: 1 32 40 80 (102400)
I1229 02:30:40.634642  6650 net.cpp:159] Memory required for data: 297433604
I1229 02:30:40.634644  6650 layer_factory.hpp:77] Creating layer add_p3_fixed
I1229 02:30:40.634647  6650 net.cpp:94] Creating Layer add_p3_fixed
I1229 02:30:40.634649  6650 net.cpp:435] add_p3_fixed <- add_p3
I1229 02:30:40.634651  6650 net.cpp:396] add_p3_fixed -> add_p3 (in-place)
I1229 02:30:40.634670  6650 net.cpp:144] Setting up add_p3_fixed
I1229 02:30:40.634671  6650 net.cpp:151] Top shape: 1 32 40 80 (102400)
I1229 02:30:40.634673  6650 net.cpp:159] Memory required for data: 297843204
I1229 02:30:40.634676  6650 layer_factory.hpp:77] Creating layer toplayer_p3
I1229 02:30:40.634681  6650 net.cpp:94] Creating Layer toplayer_p3
I1229 02:30:40.634685  6650 net.cpp:435] toplayer_p3 <- add_p3
I1229 02:30:40.634686  6650 net.cpp:409] toplayer_p3 -> p3
I1229 02:30:40.634857  6650 layer_factory.hpp:77] Creating layer toplayer_p3
I1229 02:30:40.635174  6650 net.cpp:144] Setting up toplayer_p3
I1229 02:30:40.635181  6650 net.cpp:151] Top shape: 1 32 40 80 (102400)
I1229 02:30:40.635185  6650 net.cpp:159] Memory required for data: 298252804
I1229 02:30:40.635188  6650 layer_factory.hpp:77] Creating layer p3_fixed
I1229 02:30:40.635192  6650 net.cpp:94] Creating Layer p3_fixed
I1229 02:30:40.635195  6650 net.cpp:435] p3_fixed <- p3
I1229 02:30:40.635197  6650 net.cpp:396] p3_fixed -> p3 (in-place)
I1229 02:30:40.635233  6650 net.cpp:144] Setting up p3_fixed
I1229 02:30:40.635239  6650 net.cpp:151] Top shape: 1 32 40 80 (102400)
I1229 02:30:40.635243  6650 net.cpp:159] Memory required for data: 298662404
I1229 02:30:40.635248  6650 layer_factory.hpp:77] Creating layer latlayer_2c
I1229 02:30:40.635257  6650 net.cpp:94] Creating Layer latlayer_2c
I1229 02:30:40.635265  6650 net.cpp:435] latlayer_2c <- conv2/3x3_conv2/3x3_fixed_0_split_1
I1229 02:30:40.635270  6650 net.cpp:409] latlayer_2c -> latlayer_2c
I1229 02:30:40.635421  6650 layer_factory.hpp:77] Creating layer latlayer_2c
I1229 02:30:40.635695  6650 net.cpp:144] Setting up latlayer_2c
I1229 02:30:40.635702  6650 net.cpp:151] Top shape: 1 32 80 160 (409600)
I1229 02:30:40.635706  6650 net.cpp:159] Memory required for data: 300300804
I1229 02:30:40.635710  6650 layer_factory.hpp:77] Creating layer latlayer_2c_fixed
I1229 02:30:40.635715  6650 net.cpp:94] Creating Layer latlayer_2c_fixed
I1229 02:30:40.635718  6650 net.cpp:435] latlayer_2c_fixed <- latlayer_2c
I1229 02:30:40.635726  6650 net.cpp:396] latlayer_2c_fixed -> latlayer_2c (in-place)
I1229 02:30:40.635761  6650 net.cpp:144] Setting up latlayer_2c_fixed
I1229 02:30:40.635766  6650 net.cpp:151] Top shape: 1 32 80 160 (409600)
I1229 02:30:40.635768  6650 net.cpp:159] Memory required for data: 301939204
I1229 02:30:40.635772  6650 layer_factory.hpp:77] Creating layer upsample_p3
I1229 02:30:40.635778  6650 net.cpp:94] Creating Layer upsample_p3
I1229 02:30:40.635782  6650 net.cpp:435] upsample_p3 <- p3
I1229 02:30:40.635787  6650 net.cpp:409] upsample_p3 -> upsample_p3
I1229 02:30:40.635964  6650 layer_factory.hpp:77] Creating layer upsample_p3
I1229 02:30:40.636210  6650 net.cpp:144] Setting up upsample_p3
I1229 02:30:40.636217  6650 net.cpp:151] Top shape: 1 32 80 160 (409600)
I1229 02:30:40.636221  6650 net.cpp:159] Memory required for data: 303577604
I1229 02:30:40.636224  6650 layer_factory.hpp:77] Creating layer upsample_p3_fixed
I1229 02:30:40.636229  6650 net.cpp:94] Creating Layer upsample_p3_fixed
I1229 02:30:40.636232  6650 net.cpp:435] upsample_p3_fixed <- upsample_p3
I1229 02:30:40.636237  6650 net.cpp:396] upsample_p3_fixed -> upsample_p3 (in-place)
I1229 02:30:40.636263  6650 net.cpp:144] Setting up upsample_p3_fixed
I1229 02:30:40.636267  6650 net.cpp:151] Top shape: 1 32 80 160 (409600)
I1229 02:30:40.636270  6650 net.cpp:159] Memory required for data: 305216004
I1229 02:30:40.636273  6650 layer_factory.hpp:77] Creating layer add_p2
I1229 02:30:40.636278  6650 net.cpp:94] Creating Layer add_p2
I1229 02:30:40.636281  6650 net.cpp:435] add_p2 <- upsample_p3
I1229 02:30:40.636284  6650 net.cpp:435] add_p2 <- latlayer_2c
I1229 02:30:40.636287  6650 net.cpp:409] add_p2 -> add_p2
I1229 02:30:40.636305  6650 net.cpp:144] Setting up add_p2
I1229 02:30:40.636309  6650 net.cpp:151] Top shape: 1 32 80 160 (409600)
I1229 02:30:40.636312  6650 net.cpp:159] Memory required for data: 306854404
I1229 02:30:40.636314  6650 layer_factory.hpp:77] Creating layer add_p2_fixed
I1229 02:30:40.636318  6650 net.cpp:94] Creating Layer add_p2_fixed
I1229 02:30:40.636322  6650 net.cpp:435] add_p2_fixed <- add_p2
I1229 02:30:40.636324  6650 net.cpp:396] add_p2_fixed -> add_p2 (in-place)
I1229 02:30:40.636349  6650 net.cpp:144] Setting up add_p2_fixed
I1229 02:30:40.636353  6650 net.cpp:151] Top shape: 1 32 80 160 (409600)
I1229 02:30:40.636355  6650 net.cpp:159] Memory required for data: 308492804
I1229 02:30:40.636359  6650 layer_factory.hpp:77] Creating layer toplayer_p2
I1229 02:30:40.636364  6650 net.cpp:94] Creating Layer toplayer_p2
I1229 02:30:40.636366  6650 net.cpp:435] toplayer_p2 <- add_p2
I1229 02:30:40.636371  6650 net.cpp:409] toplayer_p2 -> pred
I1229 02:30:40.636490  6650 layer_factory.hpp:77] Creating layer toplayer_p2
I1229 02:30:40.636816  6650 net.cpp:144] Setting up toplayer_p2
I1229 02:30:40.636821  6650 net.cpp:151] Top shape: 1 5 320 640 (1024000)
I1229 02:30:40.636824  6650 net.cpp:159] Memory required for data: 312588804
I1229 02:30:40.636829  6650 layer_factory.hpp:77] Creating layer pred_fixed
I1229 02:30:40.636834  6650 net.cpp:94] Creating Layer pred_fixed
I1229 02:30:40.636837  6650 net.cpp:435] pred_fixed <- pred
I1229 02:30:40.636842  6650 net.cpp:396] pred_fixed -> pred (in-place)
I1229 02:30:40.636868  6650 net.cpp:144] Setting up pred_fixed
I1229 02:30:40.636870  6650 net.cpp:151] Top shape: 1 5 320 640 (1024000)
I1229 02:30:40.636873  6650 net.cpp:159] Memory required for data: 316684804
I1229 02:30:40.636878  6650 layer_factory.hpp:77] Creating layer score
I1229 02:30:40.636883  6650 net.cpp:94] Creating Layer score
I1229 02:30:40.636885  6650 net.cpp:435] score <- pred
I1229 02:30:40.636888  6650 net.cpp:409] score -> score
I1229 02:30:40.636931  6650 net.cpp:144] Setting up score
I1229 02:30:40.636935  6650 net.cpp:151] Top shape: 1 5 320 640 (1024000)
I1229 02:30:40.636938  6650 net.cpp:159] Memory required for data: 320780804
I1229 02:30:40.636941  6650 net.cpp:222] score does not need backward computation.
I1229 02:30:40.636943  6650 net.cpp:222] pred_fixed does not need backward computation.
I1229 02:30:40.636946  6650 net.cpp:222] toplayer_p2 does not need backward computation.
I1229 02:30:40.636950  6650 net.cpp:222] add_p2_fixed does not need backward computation.
…
