…
  top: "label"
  include {
    phase: TRAIN
  }
  transform_param {
    scale: 0.022
    mean_value: 73
    mean_value: 82
    mean_value: 72
    resize_param {
      prob: 1
      resize_mode: WARP
      height: 480
      width: 960
    }
  }
  image_data_param {
    source: "/workspace/Vitis-AI-Tutorials/files/Segment/workspace/data/signate/signate_test_calibration.txt"
    batch_size: 1
    shuffle: true
    new_height: 480
    new_width: 960
    root_folder: "/workspace/Vitis-AI-Tutorials/files/Segment/workspace/data/signate/seg_test_images/"
  }
}
layer {
  name: "conv1/7x7_s2"
  type: "Convolution"
  bottom: "data"
  top: "conv1/7x7_s2_raw"
  param {
    lr_mult: 1
    decay_mult: 1
  }
  convolution_param {
    num_output: 64
    pad: 3
    kernel_size: 7
    stride: 2
    weight_filler {
      type: "msra"
    }
    bias_filler {
      type: "constant"
      value: 0.2
    }
  }
}
layer {
  name: "conv1/7x7_s2_BatchNorm"
  type: "BatchNorm"
  bottom: "conv1/7x7_s2_raw"
  top: "conv1/7x7_s2"
  param {
    lr_mult: 1
    decay_mult: 0
  }
  param {
    lr_mult: 1
    decay_mult: 0
  }
  param {
    lr_mult: 0
    decay_mult: 0
  }
  param {
    lr_mult: 0
    decay_mult: 0
  }
  batch_norm_param {
    use_global_stats: false
    eps: 1e-05
    scale_filler {
      type: "constant"
      value: 1
    }
    bias_filler {
      type: "constant"
      value: 0
    }
  }
}
layer {
  name: "conv1/relu_7x7"
  type: "ReLU"
  bottom: "conv1/7x7_s2"
  top: "conv1/7x7_s2"
}
layer {
  name: "pool1/3x3_s2"
  type: "Pooling"
  bottom: "conv1/7x7_s2"
  top: "pool1/3x3_s2"
  pooling_param {
    pool: MAX
    kernel_size: 3
    stride: 2
  }
}
layer {
  name: "conv2/3x3_reduce"
  type: "Convolution"
  bottom: "pool1/3x3_s2"
  top: "conv2/3x3_reduce_raw"
  param {
    lr_mult: 1
    decay_mult: 1
  }
  convolution_param {
    num_output: 64
    kernel_size: 1
    weight_filler {
      type: "msra"
    }
    bias_filler {
      type: "constant"
      value: 0.2
    }
  }
}
layer {
  name: "conv2/3x3_reduce_BatchNorm"
  type: "BatchNorm"
  bottom: "conv2/3x3_reduce_raw"
  top: "conv2/3x3_reduce"
  param {
    lr_mult: 1
    decay_mult: 0
  }
  param {
    lr_mult: 1
    decay_mult: 0
  }
  param {
    lr_mult: 0
    decay_mult: 0
  }
  param {
    lr_mult: 0
    decay_mult: 0
  }
  batch_norm_param {
    use_global_stats: false
    eps: 1e-05
    scale_filler {
      type: "constant"
      value: 1
    }
    bias_filler {
      type: "constant"
      value: 0
    }
  }
}
layer {
  name: "conv2/relu_3x3_reduce"
  type: "ReLU"
  bottom: "conv2/3x3_reduce"
  top: "conv2/3x3_reduce"
}
layer {
  name: "conv2/3x3"
  type: "Convolution"
  bottom: "conv2/3x3_reduce"
  top: "conv2/3x3_raw"
  param {
    lr_mult: 1
    decay_mult: 1
  }
  convolution_param {
    num_output: 192
    pad: 1
    kernel_size: 3
    weight_filler {
      type: "msra"
    }
    bias_filler {
      type: "constant"
      value: 0.2
    }
  }
}
layer {
  name: "conv2/3x3_BatchNorm"
  type: "BatchNorm"
  bottom: "conv2/3x3_raw"
  top: "conv2/3x3"
  param {
    lr_mult: 1
    decay_mult: 0
  }
  param {
    lr_mult: 1
    decay_mult: 0
  }
  param {
    lr_mult: 0
    decay_mult: 0
  }
  param {
    lr_mult: 0
    decay_mult: 0
  }
  batch_norm_param {
    use_global_stats: false
    eps: 1e-05
    scale_filler {
      type: "constant"
      value: 1
    }
    bias_filler {
      type: "constant"
      value: 0
    }
  }
}
layer {
  name: "conv2/relu_3x3"
  type: "ReLU"
  bottom: "conv2/3x3"
  top: "conv2/3x3"
}
layer {
  name: "pool2/3x3_s2"
  type: "Pooling"
  bottom: "conv2/3x3"
  top: "pool2/3x3_s2"
  pooling_param {
    pool: MAX
    kernel_size: 3
    stride: 2
  }
}
layer {
  name: "inception_3a/1x1"
  type: "Convolution"
  bottom: "pool2/3x3_s2"
  top: "inception_3a/1x1_raw"
  param {
    lr_mult: 1
    decay_mult: 1
  }
  convolution_param {
    num_output: 64
    kernel_size: 1
    weight_filler {
      type: "msra"
    }
    bias_filler {
      type: "constant"
      value: 0.2
    }
  }
}
layer {
  name: "inception_3a/1x1_BatchNorm"
  type: "BatchNorm"
  bottom: "inception_3a/1x1_raw"
  top: "inception_3a/1x1"
  param {
    lr_mult: 1
    decay_mult: 0
  }
  param {
    lr_mult: 1
    decay_mult: 0
  }
  param {
    lr_mult: 0
    decay_mult: 0
  }
  param {
    lr_mult: 0
    decay_mult: 0
  }
  batch_norm_param {
    use_global_stats: false
    eps: 1e-05
    scale_filler {
      type: "constant"
      value: 1
    }
    bias_filler {
      type: "constant"
      value: 0
    }
  }
}
layer {
  name: "inception_3a/relu_1x1"
  type: "ReLU"
  bottom: "inception_3a/1x1"
  top: "inception_3a/1x1"
}
layer {
  name: "inception_3a/3x3_reduce"
  type: "Convolution"
  bottom: "pool2/3x3_s2"
  top: "inception_3a/3x3_reduce_raw"
  param {
    lr_mult: 1
    decay_mult: 1
  }
  convolution_param {
    num_output: 96
    kernel_size: 1
    weight_filler {
      type: "msra"
    }
    bias_filler {
      type: "constant"
      value: 0.2
    }
  }
}
layer {
  name: "inception_3a/3x3_reduce_BatchNorm"
  type: "BatchNorm"
  bottom: "inception_3a/3x3_reduce_raw"
  top: "inception_3a/3x3_reduce"
  param {
    lr_mult: 1
    decay_mult: 0
  }
  param {
    lr_mult: 1
    decay_mult: 0
  }
  param {
    lr_mult: 0
    decay_mult: 0
  }
  param {
    lr_mult: 0
    decay_mult: 0
  }
  batch_norm_param {
    use_global_stats: false
    eps: 1e-05
    scale_filler {
      type: "constant"
      value: 1
    }
    bias_filler {
      type: "constant"
      value: 0
    }
  }
}
layer {
  name: "inception_3a/relu_3x3_reduce"
  type: "ReLU"
  bottom: "inception_3a/3x3_reduce"
  top: "inception_3a/3x3_reduce"
}
layer {
  name: "inception_3a/3x3"
  type: "Convolution"
  bottom: "inception_3a/3x3_reduce"
  top: "inception_3a/3x3_raw"
  param {
    lr_mult: 1
    decay_mult: 1
  }
  convolution_param {
    num_output: 128
    pad: 1
    kernel_size: 3
    weight_filler {
      type: "msra"
    }
    bias_filler {
      type: "constant"
      value: 0.2
    }
  }
}
layer {
  name: "inception_3a/3x3_BatchNorm"
  type: "BatchNorm"
  bottom: "inception_3a/3x3_raw"
  top: "inception_3a/3x3"
  param {
    lr_mult: 1
    decay_mult: 0
  }
  param {
    lr_mult: 1
    decay_mult: 0
  }
  param {
    lr_mult: 0
    decay_mult: 0
  }
  param {
    lr_mult: 0
    decay_mult: 0
  }
  batch_norm_param {
    use_global_stats: false
    eps: 1e-05
    scale_filler {
      type: "constant"
      value: 1
    }
    bias_filler {
      type: "constant"
      value: 0
    }
  }
}
layer {
  name: "inception_3a/relu_3x3"
  type: "ReLU"
  bottom: "inception_3a/3x3"
  top: "inception_3a/3x3"
}
layer {
  name: "inception_3a/5x5_reduce"
  type: "Convolution"
  bottom: "pool2/3x3_s2"
  top: "inception_3a/5x5_reduce_raw"
  param {
    lr_mult: 1
    decay_mult: 1
  }
  convolution_param {
    num_output: 16
    kernel_size: 1
    weight_filler {
      type: "msra"
    }
    bias_filler {
      type: "constant"
      value: 0.2
    }
  }
}
layer {
  name: "inception_3a/5x5_reduce_BatchNorm"
  type: "BatchNorm"
  bottom: "inception_3a/5x5_reduce_raw"
  top: "inception_3a/5x5_reduce"
  param {
    lr_mult: 1
    decay_mult: 0
  }
  param {
    lr_mult: 1
    decay_mult: 0
  }
  param {
    lr_mult: 0
    decay_mult: 0
  }
  param {
    lr_mult: 0
    decay_mult: 0
  }
  batch_norm_param {
    use_global_stats: false
    eps: 1e-05
    scale_filler {
      type: "constant"
      value: 1
    }
    bias_filler {
      type: "constant"
      value: 0
    }
  }
}
layer {
  name: "inception_3a/relu_5x5_reduce"
  type: "ReLU"
  bottom: "inception_3a/5x5_reduce"
  top: "inception_3a/5x5_reduce"
}
layer {
  name: "inception_3a/5x5"
  type: "Convolution"
  bottom: "inception_3a/5x5_reduce"
  top: "inception_3a/5x5_raw"
  param {
    lr_mult: 1
    decay_mult: 1
  }
  convolution_param {
    num_output: 32
    pad: 2
    kernel_size: 5
    weight_filler {
      type: "msra"
    }
    bias_filler {
      type: "constant"
      value: 0.2
    }
  }
}
layer {
  name: "inception_3a/5x5_BatchNorm"
  type: "BatchNorm"
  bottom: "inception_3a/5x5_raw"
  top: "inception_3a/5x5"
  param {
    lr_mult: 1
    decay_mult: 0
  }
  param {
    lr_mult: 1
    decay_mult: 0
  }
  param {
    lr_mult: 0
    decay_mult: 0
  }
  param {
    lr_mult: 0
    decay_mult: 0
  }
  batch_norm_param {
    use_global_stats: false
    eps: 1e-05
    scale_filler {
      type: "constant"
      value: 1
    }
    bias_filler {
      type: "constant"
      value: 0
    }
  }
}
layer {
  name: "inception_3a/relu_5x5"
  type: "ReLU"
  bottom: "inception_3a/5x5"
  top: "inception_3a/5x5"
}
layer {
  name: "inception_3a/pool"
  type: "Pooling"
  bottom: "pool2/3x3_s2"
  top: "inception_3a/pool"
  pooling_param {
    pool: MAX
    kernel_size: 3
    stride: 1
    pad: 1
  }
}
layer {
  name: "inception_3a/pool_proj"
  type: "Convolution"
  bottom: "inception_3a/pool"
  top: "inception_3a/pool_proj_raw"
  param {
    lr_mult: 1
    decay_mult: 1
  }
  convolution_param {
    num_output: 32
    kernel_size: 1
    weight_filler {
      type: "msra"
    }
    bias_filler {
      type: "constant"
      value: 0.2
    }
  }
}
layer {
  name: "inception_3a/pool_proj_BatchNorm"
  type: "BatchNorm"
  bottom: "inception_3a/pool_proj_raw"
  top: "inception_3a/pool_proj"
  param {
    lr_mult: 1
    decay_mult: 0
  }
  param {
    lr_mult: 1
    decay_mult: 0
  }
  param {
    lr_mult: 0
    decay_mult: 0
  }
  param {
    lr_mult: 0
    decay_mult: 0
  }
  batch_norm_param {
    use_global_stats: false
    eps: 1e-05
    scale_filler {
      type: "constant"
      value: 1
    }
    bias_filler {
      type: "constant"
      value: 0
    }
  }
}
layer {
  name: "inception_3a/relu_pool_proj"
  type: "ReLU"
  bottom: "inception_3a/pool_proj"
  top: "inception_3a/pool_proj"
}
layer {
  name: "inception_3a/output"
  type: "Concat"
  bottom: "inception_3a/1x1"
  bottom: "inception_3a/3x3"
  bottom: "inception_3a/5x5"
  bottom: "inception_3a/pool_proj"
  top: "inception_3a/output"
}
layer {
  name: "inception_3b/1x1"
  type: "Convolution"
  bottom: "inception_3a/output"
  top: "inception_3b/1x1_raw"
  param {
    lr_mult: 1
    decay_mult: 1
  }
  convolution_param {
    num_output: 128
    kernel_size: 1
    weight_filler {
      type: "msra"
    }
    bias_filler {
      type: "constant"
      value: 0.2
    }
  }
}
layer {
  name: "inception_3b/1x1_BatchNorm"
  type: "BatchNorm"
  bottom: "inception_3b/1x1_raw"
  top: "inception_3b/1x1"
  param {
    lr_mult: 1
    decay_mult: 0
  }
  param {
    lr_mult: 1
    decay_mult: 0
  }
  param {
    lr_mult: 0
    decay_mult: 0
  }
  param {
    lr_mult: 0
    decay_mult: 0
  }
  batch_norm_param {
    use_global_stats: false
    eps: 1e-05
    scale_filler {
      type: "constant"
      value: 1
    }
    bias_filler {
      type: "constant"
      value: 0
    }
  }
}
layer {
  name: "inception_3b/relu_1x1"
  type: "ReLU"
  bottom: "inception_3b/1x1"
  top: "inception_3b/1x1"
}
layer {
  name: "inception_3b/3x3_reduce"
  type: "Convolution"
  bottom: "inception_3a/output"
  top: "inception_3b/3x3_reduce_raw"
  param {
    lr_mult: 1
    decay_mult: 1
  }
  convolution_param {
    num_output: 128
    kernel_size: 1
    weight_filler {
      type: "msra"
    }
    bias_filler {
      type: "constant"
      value: 0.2
    }
  }
}
layer {
  name: "inception_3b/3x3_reduce_BatchNorm"
  type: "BatchNorm"
  bottom: "inception_3b/3x3_reduce_raw"
  top: "inception_3b/3x3_reduce"
  param {
    lr_mult: 1
    decay_mult: 0
  }
  param {
    lr_mult: 1
    decay_mult: 0
  }
  param {
    lr_mult: 0
    decay_mult: 0
  }
  param {
    lr_mult: 0
    decay_mult: 0
  }
  batch_norm_param {
    use_global_stats: false
    eps: 1e-05
    scale_filler {
      type: "constant"
      value: 1
    }
    bias_filler {
      type: "constant"
      value: 0
    }
  }
}
layer {
  name: "inception_3b/relu_3x3_reduce"
  type: "ReLU"
  bottom: "inception_3b/3x3_reduce"
  top: "inception_3b/3x3_reduce"
}
layer {
  name: "inception_3b/3x3"
  type: "Convolution"
  bottom: "inception_3b/3x3_reduce"
  top: "inception_3b/3x3_raw"
  param {
    lr_mult: 1
    decay_mult: 1
  }
  convolution_param {
    num_output: 192
    pad: 1
    kernel_size: 3
    weight_filler {
      type: "msra"
    }
    bias_filler {
      type: "constant"
      value: 0.2
    }
  }
}
layer {
  name: "inception_3b/3x3_BatchNorm"
  type: "BatchNorm"
  bottom: "inception_3b/3x3_raw"
  top: "inception_3b/3x3"
  param {
    lr_mult: 1
    decay_mult: 0
  }
  param {
    lr_mult: 1
    decay_mult: 0
  }
  param {
    lr_mult: 0
    decay_mult: 0
  }
  param {
    lr_mult: 0
    decay_mult: 0
  }
  batch_norm_param {
    use_global_stats: false
    eps: 1e-05
    scale_filler {
      type: "constant"
      value: 1
    }
    bias_filler {
      type: "constant"
      value: 0
    }
  }
}
layer {
  name: "inception_3b/relu_3x3"
  type: "ReLU"
  bottom: "inception_3b/3x3"
  top: "inception_3b/3x3"
}
layer {
  name: "inception_3b/5x5_reduce"
  type: "Convolution"
  bottom: "inception_3a/output"
  top: "inception_3b/5x5_reduce_raw"
  param {
    lr_mult: 1
    decay_mult: 1
  }
  convolution_param {
    num_output: 32
    kernel_size: 1
    weight_filler {
      type: "msra"
    }
    bias_filler {
      type: "constant"
      value: 0.2
    }
  }
}
layer {
  name: "inception_3b/5x5_reduce_BatchNorm"
  type: "BatchNorm"
  bottom: "inception_3b/5x5_reduce_raw"
  top: "inception_3b/5x5_reduce"
  param {
    lr_mult: 1
    decay_mult: 0
  }
  param {
    lr_mult: 1
    decay_mult: 0
  }
  param {
    lr_mult: 0
    decay_mult: 0
  }
  param {
    lr_mult: 0
    decay_mult: 0
  }
  batch_norm_param {
    use_global_stats: false
    eps: 1e-05
    scale_filler {
      type: "constant"
      value: 1
    }
    bias_filler {
      type: "constant"
      value: 0
    }
  }
}
layer {
  name: "inception_3b/relu_5x5_reduce"
  type: "ReLU"
  bottom: "inception_3b/5x5_reduce"
  top: "inception_3b/5x5_reduce"
}
layer {
  name: "inception_3b/5x5"
  type: "Convolution"
  bottom: "inception_3b/5x5_reduce"
  top: "inception_3b/5x5_raw"
  param {
    lr_mult: 1
    decay_mult: 1
  }
  convolution_param {
    num_output: 96
    pad: 2
    kernel_size: 5
    weight_filler {
      type: "msra"
    }
    bias_filler {
      type: "constant"
      value: 0.2
    }
  }
}
layer {
  name: "inception_3b/5x5_BatchNorm"
  type: "BatchNorm"
  bottom: "inception_3b/5x5_raw"
  top: "inception_3b/5x5"
  param {
    lr_mult: 1
    decay_mult: 0
  }
  param {
    lr_mult: 1
    decay_mult: 0
  }
  param {
    lr_mult: 0
    decay_mult: 0
  }
  param {
    lr_mult: 0
    decay_mult: 0
  }
  batch_norm_param {
    use_global_stats: false
    eps: 1e-05
    scale_filler {
      type: "constant"
      value: 1
    }
    bias_filler {
      type: "constant"
      value: 0
    }
  }
}
layer {
  name: "inception_3b/relu_5x5"
  type: "ReLU"
  bottom: "inception_3b/5x5"
  top: "inception_3b/5x5"
}
layer {
  name: "inception_3b/pool"
  type: "Pooling"
  bottom: "inception_3a/output"
  top: "inception_3b/pool"
  pooling_param {
    pool: MAX
    kernel_size: 3
    stride: 1
    pad: 1
  }
}
layer {
  name: "inception_3b/pool_proj"
  type: "Convolution"
  bottom: "inception_3b/pool"
  top: "inception_3b/pool_proj_raw"
  param {
    lr_mult: 1
    decay_mult: 1
  }
  convolution_param {
    num_output: 64
    kernel_size: 1
    weight_filler {
      type: "msra"
    }
    bias_filler {
      type: "constant"
      value: 0.2
    }
  }
}
layer {
  name: "inception_3b/pool_proj_BatchNorm"
  type: "BatchNorm"
  bottom: "inception_3b/pool_proj_raw"
  top: "inception_3b/pool_proj"
  param {
    lr_mult: 1
    decay_mult: 0
  }
  param {
    lr_mult: 1
    decay_mult: 0
  }
  param {
    lr_mult: 0
    decay_mult: 0
  }
  param {
    lr_mult: 0
    decay_mult: 0
  }
  batch_norm_param {
    use_global_stats: false
    eps: 1e-05
    scale_filler {
      type: "constant"
      value: 1
    }
    bias_filler {
      type: "constant"
      value: 0
    }
  }
}
layer {
  name: "inception_3b/relu_pool_proj"
  type: "ReLU"
  bottom: "inception_3b/pool_proj"
  top: "inception_3b/pool_proj"
}
layer {
  name: "inception_3b/output"
  type: "Concat"
  bottom: "inception_3b/1x1"
  bottom: "inception_3b/3x3"
  bottom: "inception_3b/5x5"
  bottom: "inception_3b/pool_proj"
  top: "inception_3b/output"
}
layer {
  name: "pool3/3x3_s2"
  type: "Pooling"
  bottom: "inception_3b/output"
  top: "pool3/3x3_s2"
  pooling_param {
    pool: MAX
    kernel_size: 3
    stride: 2
  }
}
layer {
  name: "inception_4a/1x1"
  type: "Convolution"
  bottom: "pool3/3x3_s2"
  top: "inception_4a/1x1_raw"
  param {
    lr_mult: 1
    decay_mult: 1
  }
  convolution_param {
    num_output: 192
    kernel_size: 1
    weight_filler {
      type: "msra"
    }
    bias_filler {
      type: "constant"
      value: 0.2
    }
  }
}
layer {
  name: "inception_4a/1x1_BatchNorm"
  type: "BatchNorm"
  bottom: "inception_4a/1x1_raw"
  top: "inception_4a/1x1"
  param {
    lr_mult: 1
    decay_mult: 0
  }
  param {
    lr_mult: 1
    decay_mult: 0
  }
  param {
    lr_mult: 0
    decay_mult: 0
  }
  param {
    lr_mult: 0
    decay_mult: 0
  }
  batch_norm_param {
    use_global_stats: false
    eps: 1e-05
    scale_filler {
      type: "constant"
      value: 1
    }
    bias_filler {
      type: "constant"
      value: 0
    }
  }
}
layer {
  name: "inception_4a/relu_1x1"
  type: "ReLU"
  bottom: "inception_4a/1x1"
  top: "inception_4a/1x1"
}
layer {
  name: "inception_4a/3x3_reduce"
  type: "Convolution"
  bottom: "pool3/3x3_s2"
  top: "inception_4a/3x3_reduce_raw"
  param {
    lr_mult: 1
    decay_mult: 1
  }
  convolution_param {
    num_output: 96
    kernel_size: 1
    weight_filler {
      type: "msra"
    }
    bias_filler {
      type: "constant"
      value: 0.2
    }
  }
}
layer {
  name: "inception_4a/3x3_reduce_BatchNorm"
  type: "BatchNorm"
  bottom: "inception_4a/3x3_reduce_raw"
  top: "inception_4a/3x3_reduce"
  param {
    lr_mult: 1
    decay_mult: 0
  }
  param {
    lr_mult: 1
    decay_mult: 0
  }
  param {
    lr_mult: 0
    decay_mult: 0
  }
  param {
    lr_mult: 0
    decay_mult: 0
  }
  batch_norm_param {
    use_global_stats: false
    eps: 1e-05
    scale_filler {
      type: "constant"
      value: 1
    }
    bias_filler {
      type: "constant"
      value: 0
    }
  }
}
layer {
  name: "inception_4a/relu_3x3_reduce"
  type: "ReLU"
  bottom: "inception_4a/3x3_reduce"
  top: "inception_4a/3x3_reduce"
}
layer {
  name: "inception_4a/3x3"
  type: "Convolution"
  bottom: "inception_4a/3x3_reduce"
  top: "inception_4a/3x3_raw"
  param {
    lr_mult: 1
    decay_mult: 1
  }
  convolution_param {
    num_output: 208
    pad: 1
    kernel_size: 3
    weight_filler {
      type: "msra"
    }
    bias_filler {
      type: "constant"
      value: 0.2
    }
  }
}
layer {
  name: "inception_4a/3x3_BatchNorm"
  type: "BatchNorm"
  bottom: "inception_4a/3x3_raw"
  top: "inception_4a/3x3"
  param {
    lr_mult: 1
    decay_mult: 0
  }
  param {
    lr_mult: 1
    decay_mult: 0
  }
  param {
    lr_mult: 0
    decay_mult: 0
  }
  param {
    lr_mult: 0
    decay_mult: 0
  }
  batch_norm_param {
    use_global_stats: false
    eps: 1e-05
    scale_filler {
      type: "constant"
      value: 1
    }
    bias_filler {
      type: "constant"
      value: 0
    }
  }
}
layer {
  name: "inception_4a/relu_3x3"
  type: "ReLU"
  bottom: "inception_4a/3x3"
  top: "inception_4a/3x3"
}
layer {
  name: "inception_4a/5x5_reduce"
  type: "Convolution"
  bottom: "pool3/3x3_s2"
  top: "inception_4a/5x5_reduce_raw"
  param {
    lr_mult: 1
    decay_mult: 1
  }
  convolution_param {
    num_output: 16
    kernel_size: 1
    weight_filler {
      type: "msra"
    }
    bias_filler {
      type: "constant"
      value: 0.2
    }
  }
}
layer {
  name: "inception_4a/5x5_reduce_BatchNorm"
  type: "BatchNorm"
  bottom: "inception_4a/5x5_reduce_raw"
  top: "inception_4a/5x5_reduce"
  param {
    lr_mult: 1
    decay_mult: 0
  }
  param {
    lr_mult: 1
    decay_mult: 0
  }
  param {
    lr_mult: 0
    decay_mult: 0
  }
  param {
    lr_mult: 0
    decay_mult: 0
  }
  batch_norm_param {
    use_global_stats: false
    eps: 1e-05
    scale_filler {
      type: "constant"
      value: 1
    }
    bias_filler {
      type: "constant"
      value: 0
    }
  }
}
layer {
  name: "inception_4a/relu_5x5_reduce"
  type: "ReLU"
  bottom: "inception_4a/5x5_reduce"
  top: "inception_4a/5x5_reduce"
}
layer {
  name: "inception_4a/5x5"
  type: "Convolution"
  bottom: "inception_4a/5x5_reduce"
  top: "inception_4a/5x5_raw"
  param {
    lr_mult: 1
    decay_mult: 1
  }
  convolution_param {
    num_output: 48
    pad: 2
    kernel_size: 5
    weight_filler {
      type: "msra"
    }
    bias_filler {
      type: "constant"
      value: 0.2
    }
  }
}
layer {
  name: "inception_4a/5x5_BatchNorm"
  type: "BatchNorm"
  bottom: "inception_4a/5x5_raw"
  top: "inception_4a/5x5"
  param {
    lr_mult: 1
    decay_mult: 0
  }
  param {
    lr_mult: 1
    decay_mult: 0
  }
  param {
    lr_mult: 0
    decay_mult: 0
  }
  param {
    lr_mult: 0
    decay_mult: 0
  }
  batch_norm_param {
    use_global_stats: false
    eps: 1e-05
    scale_filler {
      type: "constant"
      value: 1
    }
    bias_filler {
      type: "constant"
      value: 0
    }
  }
}
layer {
  name: "inception_4a/relu_5x5"
  type: "ReLU"
  bottom: "inception_4a/5x5"
  top: "inception_4a/5x5"
}
layer {
  name: "inception_4a/pool"
  type: "Pooling"
  bottom: "pool3/3x3_s2"
  top: "inception_4a/pool"
  pooling_param {
    pool: MAX
    kernel_size: 3
    stride: 1
    pad: 1
  }
}
layer {
  name: "inception_4a/pool_proj"
  type: "Convolution"
  bottom: "inception_4a/pool"
  top: "inception_4a/pool_proj_raw"
  param {
    lr_mult: 1
    decay_mult: 1
  }
  convolution_param {
    num_output: 64
    kernel_size: 1
    weight_filler {
      type: "msra"
    }
    bias_filler {
      type: "constant"
      value: 0.2
    }
  }
}
layer {
  name: "inception_4a/pool_proj_BatchNorm"
  type: "BatchNorm"
  bottom: "inception_4a/pool_proj_raw"
  top: "inception_4a/pool_proj"
  param {
    lr_mult: 1
    decay_mult: 0
  }
  param {
    lr_mult: 1
    decay_mult: 0
  }
  param {
    lr_mult: 0
    decay_mult: 0
  }
  param {
    lr_mult: 0
    decay_mult: 0
  }
  batch_norm_param {
    use_global_stats: false
    eps: 1e-05
    scale_filler {
      type: "constant"
      value: 1
    }
    bias_filler {
      type: "constant"
      value: 0
    }
  }
}
layer {
  name: "inception_4a/relu_pool_proj"
  type: "ReLU"
  bottom: "inception_4a/pool_proj"
  top: "inception_4a/pool_proj"
}
layer {
  name: "inception_4a/output"
  type: "Concat"
  bottom: "inception_4a/1x1"
  bottom: "inception_4a/3x3"
  bottom: "inception_4a/5x5"
  bottom: "inception_4a/pool_proj"
  top: "inception_4a/output"
}
layer {
  name: "inception_4b/1x1"
  type: "Convolution"
  bottom: "inception_4a/output"
  top: "inception_4b/1x1_raw"
  param {
    lr_mult: 1
    decay_mult: 1
  }
  convolution_param {
    num_output: 160
    kernel_size: 1
    weight_filler {
      type: "msra"
    }
    bias_filler {
      type: "constant"
      value: 0.2
    }
  }
}
layer {
  name: "inception_4b/1x1_BatchNorm"
  type: "BatchNorm"
  bottom: "inception_4b/1x1_raw"
  top: "inception_4b/1x1"
  param {
    lr_mult: 1
    decay_mult: 0
  }
  param {
    lr_mult: 1
    decay_mult: 0
  }
  param {
    lr_mult: 0
    decay_mult: 0
  }
  param {
    lr_mult: 0
    decay_mult: 0
  }
  batch_norm_param {
    use_global_stats: false
    eps: 1e-05
    scale_filler {
      type: "constant"
      value: 1
    }
    bias_filler {
      type: "constant"
      value: 0
    }
  }
}
layer {
  name: "inception_4b/relu_1x1"
  type: "ReLU"
  bottom: "inception_4b/1x1"
  top: "inception_4b/1x1"
}
layer {
  name: "inception_4b/3x3_reduce"
  type: "Convolution"
  bottom: "inception_4a/output"
  top: "inception_4b/3x3_reduce_raw"
  param {
    lr_mult: 1
    decay_mult: 1
  }
  convolution_param {
    num_output: 112
    kernel_size: 1
    weight_filler {
      type: "msra"
    }
    bias_filler {
      type: "constant"
      value: 0.2
    }
  }
}
layer {
  name: "inception_4b/3x3_reduce_BatchNorm"
  type: "BatchNorm"
  bottom: "inception_4b/3x3_reduce_raw"
  top: "inception_4b/3x3_reduce"
  param {
    lr_mult: 1
    decay_mult: 0
  }
  param {
    lr_mult: 1
    decay_mult: 0
  }
  param {
    lr_mult: 0
    decay_mult: 0
  }
  param {
    lr_mult: 0
    decay_mult: 0
  }
  batch_norm_param {
    use_global_stats: false
    eps: 1e-05
    scale_filler {
      type: "constant"
      value: 1
    }
    bias_filler {
      type: "constant"
      value: 0
    }
  }
}
layer {
  name: "inception_4b/relu_3x3_reduce"
  type: "ReLU"
  bottom: "inception_4b/3x3_reduce"
  top: "inception_4b/3x3_reduce"
}
layer {
  name: "inception_4b/3x3"
  type: "Convolution"
  bottom: "inception_4b/3x3_reduce"
  top: "inception_4b/3x3_raw"
  param {
    lr_mult: 1
    decay_mult: 1
  }
  convolution_param {
    num_output: 224
    pad: 1
    kernel_size: 3
    weight_filler {
      type: "msra"
    }
    bias_filler {
      type: "constant"
      value: 0.2
    }
  }
}
layer {
  name: "inception_4b/3x3_BatchNorm"
  type: "BatchNorm"
  bottom: "inception_4b/3x3_raw"
  top: "inception_4b/3x3"
  param {
    lr_mult: 1
    decay_mult: 0
  }
  param {
    lr_mult: 1
    decay_mult: 0
  }
  param {
    lr_mult: 0
    decay_mult: 0
  }
  param {
    lr_mult: 0
    decay_mult: 0
  }
  batch_norm_param {
    use_global_stats: false
    eps: 1e-05
    scale_filler {
      type: "constant"
      value: 1
    }
    bias_filler {
      type: "constant"
      value: 0
    }
  }
}
layer {
  name: "inception_4b/relu_3x3"
  type: "ReLU"
  bottom: "inception_4b/3x3"
  top: "inception_4b/3x3"
}
layer {
  name: "inception_4b/5x5_reduce"
  type: "Convolution"
  bottom: "inception_4a/output"
  top: "inception_4b/5x5_reduce_raw"
  param {
    lr_mult: 1
    decay_mult: 1
  }
  convolution_param {
    num_output: 24
    kernel_size: 1
    weight_filler {
      type: "msra"
    }
    bias_filler {
      type: "constant"
      value: 0.2
    }
  }
}
layer {
  name: "inception_4b/5x5_reduce_BatchNorm"
  type: "BatchNorm"
  bottom: "inception_4b/5x5_reduce_raw"
  top: "inception_4b/5x5_reduce"
  param {
    lr_mult: 1
    decay_mult: 0
  }
  param {
    lr_mult: 1
    decay_mult: 0
  }
  param {
    lr_mult: 0
    decay_mult: 0
  }
  param {
    lr_mult: 0
    decay_mult: 0
  }
  batch_norm_param {
    use_global_stats: false
    eps: 1e-05
    scale_filler {
      type: "constant"
      value: 1
    }
    bias_filler {
      type: "constant"
      value: 0
    }
  }
}
layer {
  name: "inception_4b/relu_5x5_reduce"
  type: "ReLU"
  bottom: "inception_4b/5x5_reduce"
  top: "inception_4b/5x5_reduce"
}
layer {
  name: "inception_4b/5x5"
  type: "Convolution"
  bottom: "inception_4b/5x5_reduce"
  top: "inception_4b/5x5_raw"
  param {
    lr_mult: 1
    decay_mult: 1
  }
  convolution_param {
    num_output: 64
    pad: 2
    kernel_size: 5
    weight_filler {
      type: "msra"
    }
    bias_filler {
      type: "constant"
      value: 0.2
    }
  }
}
layer {
  name: "inception_4b/5x5_BatchNorm"
  type: "BatchNorm"
  bottom: "inception_4b/5x5_raw"
  top: "inception_4b/5x5"
  param {
    lr_mult: 1
    decay_mult: 0
  }
  param {
    lr_mult: 1
    decay_mult: 0
  }
  param {
    lr_mult: 0
    decay_mult: 0
  }
  param {
    lr_mult: 0
    decay_mult: 0
  }
  batch_norm_param {
    use_global_stats: false
    eps: 1e-05
    scale_filler {
      type: "constant"
      value: 1
    }
    bias_filler {
      type: "constant"
      value: 0
    }
  }
}
layer {
  name: "inception_4b/relu_5x5"
  type: "ReLU"
  bottom: "inception_4b/5x5"
  top: "inception_4b/5x5"
}
layer {
  name: "inception_4b/pool"
  type: "Pooling"
  bottom: "inception_4a/output"
  top: "inception_4b/pool"
  pooling_param {
    pool: MAX
    kernel_size: 3
    stride: 1
    pad: 1
  }
}
layer {
  name: "inception_4b/pool_proj"
  type: "Convolution"
  bottom: "inception_4b/pool"
  top: "inception_4b/pool_proj_raw"
  param {
    lr_mult: 1
    decay_mult: 1
  }
  convolution_param {
    num_output: 64
    kernel_size: 1
    weight_filler {
      type: "msra"
    }
    bias_filler {
      type: "constant"
      value: 0.2
    }
  }
}
layer {
  name: "inception_4b/pool_proj_BatchNorm"
  type: "BatchNorm"
  bottom: "inception_4b/pool_proj_raw"
  top: "inception_4b/pool_proj"
  param {
    lr_mult: 1
    decay_mult: 0
  }
  param {
    lr_mult: 1
    decay_mult: 0
  }
  param {
    lr_mult: 0
    decay_mult: 0
  }
  param {
    lr_mult: 0
    decay_mult: 0
  }
  batch_norm_param {
    use_global_stats: false
    eps: 1e-05
    scale_filler {
      type: "constant"
      value: 1
    }
    bias_filler {
      type: "constant"
      value: 0
    }
  }
}
layer {
  name: "inception_4b/relu_pool_proj"
  type: "ReLU"
  bottom: "inception_4b/pool_proj"
  top: "inception_4b/pool_proj"
}
layer {
  name: "inception_4b/output"
  type: "Concat"
  bottom: "inception_4b/1x1"
  bottom: "inception_4b/3x3"
  bottom: "inception_4b/5x5"
  bottom: "inception_4b/pool_proj"
  top: "inception_4b/output"
}
layer {
  name: "inception_4c/1x1"
  type: "Convolution"
  bottom: "inception_4b/output"
  top: "inception_4c/1x1_raw"
  param {
    lr_mult: 1
    decay_mult: 1
  }
  convolution_param {
    num_output: 128
    kernel_size: 1
    weight_filler {
      type: "msra"
    }
    bias_filler {
      type: "constant"
      value: 0.2
    }
  }
}
layer {
  name: "inception_4c/1x1_BatchNorm"
  type: "BatchNorm"
  bottom: "inception_4c/1x1_raw"
  top: "inception_4c/1x1"
  param {
    lr_mult: 1
    decay_mult: 0
  }
  param {
    lr_mult: 1
    decay_mult: 0
  }
  param {
    lr_mult: 0
    decay_mult: 0
  }
  param {
  
I1219 03:46:25.035737  9496 layer_factory.hpp:77] Creating layer data
I1219 03:46:25.035753  9496 net.cpp:94] Creating Layer data
I1219 03:46:25.035756  9496 net.cpp:409] data -> data
I1219 03:46:25.035763  9496 net.cpp:409] data -> label
I1219 03:46:25.035773  9496 image_data_layer.cpp:41] Opening file /workspace/Vitis-AI-Tutorials/files/Segment/workspace/data/signate/signate_test_calibration.txt
I1219 03:46:25.035979  9496 image_data_layer.cpp:51] Shuffling data
I1219 03:46:25.036094  9496 image_data_layer.cpp:56] A total of 649 images.
I1219 03:46:25.067178  9496 image_data_layer.cpp:84] output data size: 1,3,480,960
I1219 03:46:25.092767  9496 internal_thread.cpp:27] Starting internal thread(s) on GPU 0
I1219 03:46:25.092877  9496 net.cpp:144] Setting up data
I1219 03:46:25.092885  9496 net.cpp:151] Top shape: 1 3 480 960 (1382400)
I1219 03:46:25.092901  9496 net.cpp:151] Top shape: 1 (1)
I1219 03:46:25.092907  9496 net.cpp:159] Memory required for data: 5529604
I1219 03:46:25.092912  9496 layer_factory.hpp:77] Creating layer conv1/7x7_s2
I1219 03:46:25.092938  9496 net.cpp:94] Creating Layer conv1/7x7_s2
I1219 03:46:25.092944  9496 net.cpp:435] conv1/7x7_s2 <- data
I1219 03:46:25.092952  9496 net.cpp:409] conv1/7x7_s2 -> conv1/7x7_s2_raw
I1219 03:46:25.093708  9496 net.cpp:144] Setting up conv1/7x7_s2
I1219 03:46:25.093715  9496 net.cpp:151] Top shape: 1 64 240 480 (7372800)
I1219 03:46:25.093720  9496 net.cpp:159] Memory required for data: 35020804
I1219 03:46:25.093745  9496 layer_factory.hpp:77] Creating layer conv1/7x7_s2_BatchNorm
I1219 03:46:25.093756  9496 net.cpp:94] Creating Layer conv1/7x7_s2_BatchNorm
I1219 03:46:25.093760  9496 net.cpp:435] conv1/7x7_s2_BatchNorm <- conv1/7x7_s2_raw
I1219 03:46:25.093763  9496 net.cpp:409] conv1/7x7_s2_BatchNorm -> conv1/7x7_s2
I1219 03:46:25.094427  9496 net.cpp:144] Setting up conv1/7x7_s2_BatchNorm
I1219 03:46:25.094434  9496 net.cpp:151] Top shape: 1 64 240 480 (7372800)
I1219 03:46:25.094439  9496 net.cpp:159] Memory required for data: 64512004
I1219 03:46:25.094449  9496 layer_factory.hpp:77] Creating layer conv1/relu_7x7
I1219 03:46:25.094453  9496 net.cpp:94] Creating Layer conv1/relu_7x7
I1219 03:46:25.094456  9496 net.cpp:435] conv1/relu_7x7 <- conv1/7x7_s2
I1219 03:46:25.094460  9496 net.cpp:396] conv1/relu_7x7 -> conv1/7x7_s2 (in-place)
I1219 03:46:25.094465  9496 net.cpp:144] Setting up conv1/relu_7x7
I1219 03:46:25.094468  9496 net.cpp:151] Top shape: 1 64 240 480 (7372800)
I1219 03:46:25.094471  9496 net.cpp:159] Memory required for data: 94003204
I1219 03:46:25.094473  9496 layer_factory.hpp:77] Creating layer pool1/3x3_s2
I1219 03:46:25.094478  9496 net.cpp:94] Creating Layer pool1/3x3_s2
I1219 03:46:25.094480  9496 net.cpp:435] pool1/3x3_s2 <- conv1/7x7_s2
I1219 03:46:25.094485  9496 net.cpp:409] pool1/3x3_s2 -> pool1/3x3_s2
I1219 03:46:25.094516  9496 net.cpp:144] Setting up pool1/3x3_s2
I1219 03:46:25.094519  9496 net.cpp:151] Top shape: 1 64 120 240 (1843200)
I1219 03:46:25.094524  9496 net.cpp:159] Memory required for data: 101376004
I1219 03:46:25.094527  9496 layer_factory.hpp:77] Creating layer conv2/3x3_reduce
I1219 03:46:25.094533  9496 net.cpp:94] Creating Layer conv2/3x3_reduce
I1219 03:46:25.094537  9496 net.cpp:435] conv2/3x3_reduce <- pool1/3x3_s2
I1219 03:46:25.094540  9496 net.cpp:409] conv2/3x3_reduce -> conv2/3x3_reduce_raw
I1219 03:46:25.094801  9496 net.cpp:144] Setting up conv2/3x3_reduce
I1219 03:46:25.094807  9496 net.cpp:151] Top shape: 1 64 120 240 (1843200)
I1219 03:46:25.094811  9496 net.cpp:159] Memory required for data: 108748804
I1219 03:46:25.094817  9496 layer_factory.hpp:77] Creating layer conv2/3x3_reduce_BatchNorm
I1219 03:46:25.094825  9496 net.cpp:94] Creating Layer conv2/3x3_reduce_BatchNorm
I1219 03:46:25.094830  9496 net.cpp:435] conv2/3x3_reduce_BatchNorm <- conv2/3x3_reduce_raw
I1219 03:46:25.094833  9496 net.cpp:409] conv2/3x3_reduce_BatchNorm -> conv2/3x3_reduce
I1219 03:46:25.095336  9496 net.cpp:144] Setting up conv2/3x3_reduce_BatchNorm
I1219 03:46:25.095342  9496 net.cpp:151] Top shape: 1 64 120 240 (1843200)
I1219 03:46:25.095347  9496 net.cpp:159] Memory required for data: 116121604
I1219 03:46:25.095355  9496 layer_factory.hpp:77] Creating layer conv2/relu_3x3_reduce
I1219 03:46:25.095360  9496 net.cpp:94] Creating Layer conv2/relu_3x3_reduce
I1219 03:46:25.095362  9496 net.cpp:435] conv2/relu_3x3_reduce <- conv2/3x3_reduce
I1219 03:46:25.095366  9496 net.cpp:396] conv2/relu_3x3_reduce -> conv2/3x3_reduce (in-place)
I1219 03:46:25.095369  9496 net.cpp:144] Setting up conv2/relu_3x3_reduce
I1219 03:46:25.095372  9496 net.cpp:151] Top shape: 1 64 120 240 (1843200)
I1219 03:46:25.095376  9496 net.cpp:159] Memory required for data: 123494404
I1219 03:46:25.095378  9496 layer_factory.hpp:77] Creating layer conv2/3x3
I1219 03:46:25.095384  9496 net.cpp:94] Creating Layer conv2/3x3
I1219 03:46:25.095387  9496 net.cpp:435] conv2/3x3 <- conv2/3x3_reduce
I1219 03:46:25.095391  9496 net.cpp:409] conv2/3x3 -> conv2/3x3_raw
I1219 03:46:25.097311  9496 net.cpp:144] Setting up conv2/3x3
I1219 03:46:25.097319  9496 net.cpp:151] Top shape: 1 192 120 240 (5529600)
I1219 03:46:25.097324  9496 net.cpp:159] Memory required for data: 145612804
I1219 03:46:25.097330  9496 layer_factory.hpp:77] Creating layer conv2/3x3_BatchNorm
I1219 03:46:25.097337  9496 net.cpp:94] Creating Layer conv2/3x3_BatchNorm
I1219 03:46:25.097339  9496 net.cpp:435] conv2/3x3_BatchNorm <- conv2/3x3_raw
I1219 03:46:25.097343  9496 net.cpp:409] conv2/3x3_BatchNorm -> conv2/3x3
I1219 03:46:25.097853  9496 net.cpp:144] Setting up conv2/3x3_BatchNorm
I1219 03:46:25.097859  9496 net.cpp:151] Top shape: 1 192 120 240 (5529600)
I1219 03:46:25.097863  9496 net.cpp:159] Memory required for data: 167731204
I1219 03:46:25.097873  9496 layer_factory.hpp:77] Creating layer conv2/relu_3x3
I1219 03:46:25.097877  9496 net.cpp:94] Creating Layer conv2/relu_3x3
I1219 03:46:25.097880  9496 net.cpp:435] conv2/relu_3x3 <- conv2/3x3
I1219 03:46:25.097883  9496 net.cpp:396] conv2/relu_3x3 -> conv2/3x3 (in-place)
I1219 03:46:25.097888  9496 net.cpp:144] Setting up conv2/relu_3x3
I1219 03:46:25.097892  9496 net.cpp:151] Top shape: 1 192 120 240 (5529600)
I1219 03:46:25.097895  9496 net.cpp:159] Memory required for data: 189849604
I1219 03:46:25.097898  9496 layer_factory.hpp:77] Creating layer conv2/3x3_conv2/relu_3x3_0_split
I1219 03:46:25.097908  9496 net.cpp:94] Creating Layer conv2/3x3_conv2/relu_3x3_0_split
I1219 03:46:25.097910  9496 net.cpp:435] conv2/3x3_conv2/relu_3x3_0_split <- conv2/3x3
I1219 03:46:25.097913  9496 net.cpp:409] conv2/3x3_conv2/relu_3x3_0_split -> conv2/3x3_conv2/relu_3x3_0_split_0
I1219 03:46:25.097918  9496 net.cpp:409] conv2/3x3_conv2/relu_3x3_0_split -> conv2/3x3_conv2/relu_3x3_0_split_1
I1219 03:46:25.097942  9496 net.cpp:144] Setting up conv2/3x3_conv2/relu_3x3_0_split
I1219 03:46:25.097946  9496 net.cpp:151] Top shape: 1 192 120 240 (5529600)
I1219 03:46:25.097950  9496 net.cpp:151] Top shape: 1 192 120 240 (5529600)
I1219 03:46:25.097954  9496 net.cpp:159] Memory required for data: 234086404
I1219 03:46:25.097955  9496 layer_factory.hpp:77] Creating layer pool2/3x3_s2
I1219 03:46:25.097960  9496 net.cpp:94] Creating Layer pool2/3x3_s2
I1219 03:46:25.097965  9496 net.cpp:435] pool2/3x3_s2 <- conv2/3x3_conv2/relu_3x3_0_split_0
I1219 03:46:25.097968  9496 net.cpp:409] pool2/3x3_s2 -> pool2/3x3_s2
I1219 03:46:25.097993  9496 net.cpp:144] Setting up pool2/3x3_s2
I1219 03:46:25.097997  9496 net.cpp:151] Top shape: 1 192 60 120 (1382400)
I1219 03:46:25.098002  9496 net.cpp:159] Memory required for data: 239616004
I1219 03:46:25.098004  9496 layer_factory.hpp:77] Creating layer pool2/3x3_s2_pool2/3x3_s2_0_split
I1219 03:46:25.098008  9496 net.cpp:94] Creating Layer pool2/3x3_s2_pool2/3x3_s2_0_split
I1219 03:46:25.098011  9496 net.cpp:435] pool2/3x3_s2_pool2/3x3_s2_0_split <- pool2/3x3_s2
I1219 03:46:25.098014  9496 net.cpp:409] pool2/3x3_s2_pool2/3x3_s2_0_split -> pool2/3x3_s2_pool2/3x3_s2_0_split_0
I1219 03:46:25.098018  9496 net.cpp:409] pool2/3x3_s2_pool2/3x3_s2_0_split -> pool2/3x3_s2_pool2/3x3_s2_0_split_1
I1219 03:46:25.098023  9496 net.cpp:409] pool2/3x3_s2_pool2/3x3_s2_0_split -> pool2/3x3_s2_pool2/3x3_s2_0_split_2
I1219 03:46:25.098027  9496 net.cpp:409] pool2/3x3_s2_pool2/3x3_s2_0_split -> pool2/3x3_s2_pool2/3x3_s2_0_split_3
I1219 03:46:25.098067  9496 net.cpp:144] Setting up pool2/3x3_s2_pool2/3x3_s2_0_split
I1219 03:46:25.098071  9496 net.cpp:151] Top shape: 1 192 60 120 (1382400)
I1219 03:46:25.098074  9496 net.cpp:151] Top shape: 1 192 60 120 (1382400)
I1219 03:46:25.098079  9496 net.cpp:151] Top shape: 1 192 60 120 (1382400)
I1219 03:46:25.098083  9496 net.cpp:151] Top shape: 1 192 60 120 (1382400)
I1219 03:46:25.098086  9496 net.cpp:159] Memory required for data: 261734404
I1219 03:46:25.098088  9496 layer_factory.hpp:77] Creating layer inception_3a/1x1
I1219 03:46:25.098095  9496 net.cpp:94] Creating Layer inception_3a/1x1
I1219 03:46:25.098098  9496 net.cpp:435] inception_3a/1x1 <- pool2/3x3_s2_pool2/3x3_s2_0_split_0
I1219 03:46:25.098103  9496 net.cpp:409] inception_3a/1x1 -> inception_3a/1x1_raw
I1219 03:46:25.098400  9496 net.cpp:144] Setting up inception_3a/1x1
I1219 03:46:25.098405  9496 net.cpp:151] Top shape: 1 64 60 120 (460800)
I1219 03:46:25.098409  9496 net.cpp:159] Memory required for data: 263577604
I1219 03:46:25.098414  9496 layer_factory.hpp:77] Creating layer inception_3a/1x1_BatchNorm
I1219 03:46:25.098420  9496 net.cpp:94] Creating Layer inception_3a/1x1_BatchNorm
I1219 03:46:25.098424  9496 net.cpp:435] inception_3a/1x1_BatchNorm <- inception_3a/1x1_raw
I1219 03:46:25.098428  9496 net.cpp:409] inception_3a/1x1_BatchNorm -> inception_3a/1x1
I1219 03:46:25.098968  9496 net.cpp:144] Setting up inception_3a/1x1_BatchNorm
I1219 03:46:25.098975  9496 net.cpp:151] Top shape: 1 64 60 120 (460800)
I1219 03:46:25.098979  9496 net.cpp:159] Memory required for data: 265420804
I1219 03:46:25.098986  9496 layer_factory.hpp:77] Creating layer inception_3a/relu_1x1
I1219 03:46:25.098992  9496 net.cpp:94] Creating Layer inception_3a/relu_1x1
I1219 03:46:25.098994  9496 net.cpp:435] inception_3a/relu_1x1 <- inception_3a/1x1
I1219 03:46:25.098999  9496 net.cpp:396] inception_3a/relu_1x1 -> inception_3a/1x1 (in-place)
I1219 03:46:25.099002  9496 net.cpp:144] Setting up inception_3a/relu_1x1
I1219 03:46:25.099004  9496 net.cpp:151] Top shape: 1 64 60 120 (460800)
I1219 03:46:25.099009  9496 net.cpp:159] Memory required for data: 267264004
I1219 03:46:25.099010  9496 layer_factory.hpp:77] Creating layer inception_3a/3x3_reduce
I1219 03:46:25.099016  9496 net.cpp:94] Creating Layer inception_3a/3x3_reduce
I1219 03:46:25.099020  9496 net.cpp:435] inception_3a/3x3_reduce <- pool2/3x3_s2_pool2/3x3_s2_0_split_1
I1219 03:46:25.099023  9496 net.cpp:409] inception_3a/3x3_reduce -> inception_3a/3x3_reduce_raw
I1219 03:46:25.099378  9496 net.cpp:144] Setting up inception_3a/3x3_reduce
I1219 03:46:25.099383  9496 net.cpp:151] Top shape: 1 96 60 120 (691200)
I1219 03:46:25.099387  9496 net.cpp:159] Memory required for data: 270028804
I1219 03:46:25.099392  9496 layer_factory.hpp:77] Creating layer inception_3a/3x3_reduce_BatchNorm
I1219 03:46:25.099398  9496 net.cpp:94] Creating Layer inception_3a/3x3_reduce_BatchNorm
I1219 03:46:25.099400  9496 net.cpp:435] inception_3a/3x3_reduce_BatchNorm <- inception_3a/3x3_reduce_raw
I1219 03:46:25.099404  9496 net.cpp:409] inception_3a/3x3_reduce_BatchNorm -> inception_3a/3x3_reduce
I1219 03:46:25.099916  9496 net.cpp:144] Setting up inception_3a/3x3_reduce_BatchNorm
I1219 03:46:25.099921  9496 net.cpp:151] Top shape: 1 96 60 120 (691200)
I1219 03:46:25.099925  9496 net.cpp:159] Memory required for data: 272793604
I1219 03:46:25.099936  9496 layer_factory.hpp:77] Creating layer inception_3a/relu_3x3_reduce
I1219 03:46:25.099941  9496 net.cpp:94] Creating Layer inception_3a/relu_3x3_reduce
I1219 03:46:25.099943  9496 net.cpp:435] inception_3a/relu_3x3_reduce <- inception_3a/3x3_reduce
I1219 03:46:25.099946  9496 net.cpp:396] inception_3a/relu_3x3_reduce -> inception_3a/3x3_reduce (in-place)
I1219 03:46:25.099951  9496 net.cpp:144] Setting up inception_3a/relu_3x3_reduce
I1219 03:46:25.099953  9496 net.cpp:151] Top shape: 1 96 60 120 (691200)
I1219 03:46:25.099958  9496 net.cpp:159] Memory required for data: 275558404
I1219 03:46:25.099961  9496 layer_factory.hpp:77] Creating layer inception_3a/3x3
I1219 03:46:25.099967  9496 net.cpp:94] Creating Layer inception_3a/3x3
I1219 03:46:25.099969  9496 net.cpp:435] inception_3a/3x3 <- inception_3a/3x3_reduce
I1219 03:46:25.099973  9496 net.cpp:409] inception_3a/3x3 -> inception_3a/3x3_raw
I1219 03:46:25.101120  9496 net.cpp:144] Setting up inception_3a/3x3
I1219 03:46:25.101126  9496 net.cpp:151] Top shape: 1 128 60 120 (921600)
I1219 03:46:25.101130  9496 net.cpp:159] Memory required for data: 279244804
I1219 03:46:25.101135  9496 layer_factory.hpp:77] Creating layer inception_3a/3x3_BatchNorm
I1219 03:46:25.101140  9496 net.cpp:94] Creating Layer inception_3a/3x3_BatchNorm
I1219 03:46:25.101142  9496 net.cpp:435] inception_3a/3x3_BatchNorm <- inception_3a/3x3_raw
I1219 03:46:25.101146  9496 net.cpp:409] inception_3a/3x3_BatchNorm -> inception_3a/3x3
I1219 03:46:25.101578  9496 net.cpp:144] Setting up inception_3a/3x3_BatchNorm
I1219 03:46:25.101584  9496 net.cpp:151] Top shape: 1 128 60 120 (921600)
I1219 03:46:25.101588  9496 net.cpp:159] Memory required for data: 282931204
I1219 03:46:25.101595  9496 layer_factory.hpp:77] Creating layer inception_3a/relu_3x3
I1219 03:46:25.101599  9496 net.cpp:94] Creating Layer inception_3a/relu_3x3
I1219 03:46:25.101603  9496 net.cpp:435] inception_3a/relu_3x3 <- inception_3a/3x3
I1219 03:46:25.101606  9496 net.cpp:396] inception_3a/relu_3x3 -> inception_3a/3x3 (in-place)
I1219 03:46:25.101611  9496 net.cpp:144] Setting up inception_3a/relu_3x3
I1219 03:46:25.101614  9496 net.cpp:151] Top shape: 1 128 60 120 (921600)
I1219 03:46:25.101619  9496 net.cpp:159] Memory required for data: 286617604
I1219 03:46:25.101620  9496 layer_factory.hpp:77] Creating layer inception_3a/5x5_reduce
I1219 03:46:25.101626  9496 net.cpp:94] Creating Layer inception_3a/5x5_reduce
I1219 03:46:25.101629  9496 net.cpp:435] inception_3a/5x5_reduce <- pool2/3x3_s2_pool2/3x3_s2_0_split_2
I1219 03:46:25.101634  9496 net.cpp:409] inception_3a/5x5_reduce -> inception_3a/5x5_reduce_raw
I1219 03:46:25.101855  9496 net.cpp:144] Setting up inception_3a/5x5_reduce
I1219 03:46:25.101860  9496 net.cpp:151] Top shape: 1 16 60 120 (115200)
I1219 03:46:25.101863  9496 net.cpp:159] Memory required for data: 287078404
I1219 03:46:25.101868  9496 layer_factory.hpp:77] Creating layer inception_3a/5x5_reduce_BatchNorm
I1219 03:46:25.101873  9496 net.cpp:94] Creating Layer inception_3a/5x5_reduce_BatchNorm
I1219 03:46:25.101876  9496 net.cpp:435] inception_3a/5x5_reduce_BatchNorm <- inception_3a/5x5_reduce_raw
I1219 03:46:25.101879  9496 net.cpp:409] inception_3a/5x5_reduce_BatchNorm -> inception_3a/5x5_reduce
I1219 03:46:25.102389  9496 net.cpp:144] Setting up inception_3a/5x5_reduce_BatchNorm
I1219 03:46:25.102394  9496 net.cpp:151] Top shape: 1 16 60 120 (115200)
I1219 03:46:25.102398  9496 net.cpp:159] Memory required for data: 287539204
I1219 03:46:25.102406  9496 layer_factory.hpp:77] Creating layer inception_3a/relu_5x5_reduce
I1219 03:46:25.102411  9496 net.cpp:94] Creating Layer inception_3a/relu_5x5_reduce
I1219 03:46:25.102413  9496 net.cpp:435] inception_3a/relu_5x5_reduce <- inception_3a/5x5_reduce
I1219 03:46:25.102417  9496 net.cpp:396] inception_3a/relu_5x5_reduce -> inception_3a/5x5_reduce (in-place)
I1219 03:46:25.102421  9496 net.cpp:144] Setting up inception_3a/relu_5x5_reduce
I1219 03:46:25.102423  9496 net.cpp:151] Top shape: 1 16 60 120 (115200)
I1219 03:46:25.102427  9496 net.cpp:159] Memory required for data: 288000004
I1219 03:46:25.102429  9496 layer_factory.hpp:77] Creating layer inception_3a/5x5
I1219 03:46:25.102435  9496 net.cpp:94] Creating Layer inception_3a/5x5
I1219 03:46:25.102439  9496 net.cpp:435] inception_3a/5x5 <- inception_3a/5x5_reduce
I1219 03:46:25.102443  9496 net.cpp:409] inception_3a/5x5 -> inception_3a/5x5_raw
I1219 03:46:25.102767  9496 net.cpp:144] Setting up inception_3a/5x5
I1219 03:46:25.102773  9496 net.cpp:151] Top shape: 1 32 60 120 (230400)
I1219 03:46:25.102777  9496 net.cpp:159] Memory required for data: 288921604
I1219 03:46:25.102782  9496 layer_factory.hpp:77] Creating layer inception_3a/5x5_BatchNorm
I1219 03:46:25.102787  9496 net.cpp:94] Creating Layer inception_3a/5x5_BatchNorm
I1219 03:46:25.102790  9496 net.cpp:435] inception_3a/5x5_BatchNorm <- inception_3a/5x5_raw
I1219 03:46:25.102793  9496 net.cpp:409] inception_3a/5x5_BatchNorm -> inception_3a/5x5
I1219 03:46:25.103327  9496 net.cpp:144] Setting up inception_3a/5x5_BatchNorm
I1219 03:46:25.103332  9496 net.cpp:151] Top shape: 1 32 60 120 (230400)
I1219 03:46:25.103338  9496 net.cpp:159] Memory required for data: 289843204
I1219 03:46:25.103344  9496 layer_factory.hpp:77] Creating layer inception_3a/relu_5x5
I1219 03:46:25.103348  9496 net.cpp:94] Creating Layer inception_3a/relu_5x5
I1219 03:46:25.103351  9496 net.cpp:435] inception_3a/relu_5x5 <- inception_3a/5x5
I1219 03:46:25.103354  9496 net.cpp:396] inception_3a/relu_5x5 -> inception_3a/5x5 (in-place)
I1219 03:46:25.103359  9496 net.cpp:144] Setting up inception_3a/relu_5x5
I1219 03:46:25.103361  9496 net.cpp:151] Top shape: 1 32 60 120 (230400)
I1219 03:46:25.103364  9496 net.cpp:159] Memory required for data: 290764804
I1219 03:46:25.103368  9496 layer_factory.hpp:77] Creating layer inception_3a/pool
I1219 03:46:25.103372  9496 net.cpp:94] Creating Layer inception_3a/pool
I1219 03:46:25.103375  9496 net.cpp:435] inception_3a/pool <- pool2/3x3_s2_pool2/3x3_s2_0_split_3
I1219 03:46:25.103379  9496 net.cpp:409] inception_3a/pool -> inception_3a/pool
I1219 03:46:25.103407  9496 net.cpp:144] Setting up inception_3a/pool
I1219 03:46:25.103410  9496 net.cpp:151] Top shape: 1 192 60 120 (1382400)
I1219 03:46:25.103415  9496 net.cpp:159] Memory required for data: 296294404
I1219 03:46:25.103416  9496 layer_factory.hpp:77] Creating layer inception_3a/pool_proj
I1219 03:46:25.103422  9496 net.cpp:94] Creating Layer inception_3a/pool_proj
I1219 03:46:25.103425  9496 net.cpp:435] inception_3a/pool_proj <- inception_3a/pool
I1219 03:46:25.103430  9496 net.cpp:409] inception_3a/pool_proj -> inception_3a/pool_proj_raw
I1219 03:46:25.104570  9496 net.cpp:144] Setting up inception_3a/pool_proj
I1219 03:46:25.104578  9496 net.cpp:151] Top shape: 1 32 60 120 (230400)
I1219 03:46:25.104583  9496 net.cpp:159] Memory required for data: 297216004
I1219 03:46:25.104589  9496 layer_factory.hpp:77] Creating layer inception_3a/pool_proj_BatchNorm
I1219 03:46:25.104596  9496 net.cpp:94] Creating Layer inception_3a/pool_proj_BatchNorm
I1219 03:46:25.104599  9496 net.cpp:435] inception_3a/pool_proj_BatchNorm <- inception_3a/pool_proj_raw
I1219 03:46:25.104604  9496 net.cpp:409] inception_3a/pool_proj_BatchNorm -> inception_3a/pool_proj
I1219 03:46:25.105147  9496 net.cpp:144] Setting up inception_3a/pool_proj_BatchNorm
I1219 03:46:25.105152  9496 net.cpp:151] Top shape: 1 32 60 120 (230400)
I1219 03:46:25.105156  9496 net.cpp:159] Memory required for data: 298137604
I1219 03:46:25.105165  9496 layer_factory.hpp:77] Creating layer inception_3a/relu_pool_proj
I1219 03:46:25.105173  9496 net.cpp:94] Creating Layer inception_3a/relu_pool_proj
I1219 03:46:25.105176  9496 net.cpp:435] inception_3a/relu_pool_proj <- inception_3a/pool_proj
I1219 03:46:25.105180  9496 net.cpp:396] inception_3a/relu_pool_proj -> inception_3a/pool_proj (in-place)
I1219 03:46:25.105185  9496 net.cpp:144] Setting up inception_3a/relu_pool_proj
I1219 03:46:25.105188  9496 net.cpp:151] Top shape: 1 32 60 120 (230400)
I1219 03:46:25.105192  9496 net.cpp:159] Memory required for data: 299059204
I1219 03:46:25.105195  9496 layer_factory.hpp:77] Creating layer inception_3a/output
I1219 03:46:25.105206  9496 net.cpp:94] Creating Layer inception_3a/output
I1219 03:46:25.105209  9496 net.cpp:435] inception_3a/output <- inception_3a/1x1
I1219 03:46:25.105213  9496 net.cpp:435] inception_3a/output <- inception_3a/3x3
I1219 03:46:25.105217  9496 net.cpp:435] inception_3a/output <- inception_3a/5x5
I1219 03:46:25.105221  9496 net.cpp:435] inception_3a/output <- inception_3a/pool_proj
I1219 03:46:25.105226  9496 net.cpp:409] inception_3a/output -> inception_3a/output
I1219 03:46:25.105243  9496 net.cpp:144] Setting up inception_3a/output
I1219 03:46:25.105247  9496 net.cpp:151] Top shape: 1 256 60 120 (1843200)
I1219 03:46:25.105252  9496 net.cpp:159] Memory required for data: 306432004
I1219 03:46:25.105253  9496 layer_factory.hpp:77] Creating layer inception_3a/output_inception_3a/output_0_split
I1219 03:46:25.105258  9496 net.cpp:94] Creating Layer inception_3a/output_inception_3a/output_0_split
I1219 03:46:25.105262  9496 net.cpp:435] inception_3a/output_inception_3a/output_0_split <- inception_3a/output
I1219 03:46:25.105264  9496 net.cpp:409] inception_3a/output_inception_3a/output_0_split -> inception_3a/output_inception_3a/output_0_split_0
I1219 03:46:25.105270  9496 net.cpp:409] inception_3a/output_inception_3a/output_0_split -> inception_3a/output_inception_3a/output_0_split_1
I1219 03:46:25.105275  9496 net.cpp:409] inception_3a/output_inception_3a/output_0_split -> inception_3a/output_inception_3a/output_0_split_2
I1219 03:46:25.105281  9496 net.cpp:409] inception_3a/output_inception_3a/output_0_split -> inception_3a/output_inception_3a/output_0_split_3
I1219 03:46:25.105324  9496 net.cpp:144] Setting up inception_3a/output_inception_3a/output_0_split
I1219 03:46:25.105326  9496 net.cpp:151] Top shape: 1 256 60 120 (1843200)
I1219 03:46:25.105330  9496 net.cpp:151] Top shape: 1 256 60 120 (1843200)
I1219 03:46:25.105335  9496 net.cpp:151] Top shape: 1 256 60 120 (1843200)
I1219 03:46:25.105340  9496 net.cpp:151] Top shape: 1 256 60 120 (1843200)
I1219 03:46:25.105343  9496 net.cpp:159] Memory required for data: 335923204
I1219 03:46:25.105346  9496 layer_factory.hpp:77] Creating layer inception_3b/1x1
I1219 03:46:25.105353  9496 net.cpp:94] Creating Layer inception_3b/1x1
I1219 03:46:25.105356  9496 net.cpp:435] inception_3b/1x1 <- inception_3a/output_inception_3a/output_0_split_0
I1219 03:46:25.105360  9496 net.cpp:409] inception_3b/1x1 -> inception_3b/1x1_raw
I1219 03:46:25.105834  9496 net.cpp:144] Setting up inception_3b/1x1
I1219 03:46:25.105839  9496 net.cpp:151] Top shape: 1 128 60 120 (921600)
I1219 03:46:25.105844  9496 net.cpp:159] Memory required for data: 339609604
I1219 03:46:25.105852  9496 layer_factory.hpp:77] Creating layer inception_3b/1x1_BatchNorm
I1219 03:46:25.105859  9496 net.cpp:94] Creating Layer inception_3b/1x1_BatchNorm
I1219 03:46:25.105861  9496 net.cpp:435] inception_3b/1x1_BatchNorm <- inception_3b/1x1_raw
I1219 03:46:25.105865  9496 net.cpp:409] inception_3b/1x1_BatchNorm -> inception_3b/1x1
I1219 03:46:25.106323  9496 net.cpp:144] Setting up inception_3b/1x1_BatchNorm
I1219 03:46:25.106328  9496 net.cpp:151] Top shape: 1 128 60 120 (921600)
I1219 03:46:25.106333  9496 net.cpp:159] Memory required for data: 343296004
I1219 03:46:25.106339  9496 layer_factory.hpp:77] Creating layer inception_3b/relu_1x1
I1219 03:46:25.106344  9496 net.cpp:94] Creating Layer inception_3b/relu_1x1
I1219 03:46:25.106346  9496 net.cpp:435] inception_3b/relu_1x1 <- inception_3b/1x1
I1219 03:46:25.106350  9496 net.cpp:396] inception_3b/relu_1x1 -> inception_3b/1x1 (in-place)
I1219 03:46:25.106355  9496 net.cpp:144] Setting up inception_3b/relu_1x1
I1219 03:46:25.106359  9496 net.cpp:151] Top shape: 1 128 60 120 (921600)
I1219 03:46:25.106362  9496 net.cpp:159] Memory required for data: 346982404
I1219 03:46:25.106364  9496 layer_factory.hpp:77] Creating layer inception_3b/3x3_reduce
I1219 03:46:25.106371  9496 net.cpp:94] Creating Layer inception_3b/3x3_reduce
I1219 03:46:25.106374  9496 net.cpp:435] inception_3b/3x3_reduce <- inception_3a/output_inception_3a/output_0_split_1
I1219 03:46:25.106379  9496 net.cpp:409] inception_3b/3x3_reduce -> inception_3b/3x3_reduce_raw
I1219 03:46:25.106868  9496 net.cpp:144] Setting up inception_3b/3x3_reduce
I1219 03:46:25.106873  9496 net.cpp:151] Top shape: 1 128 60 120 (921600)
I1219 03:46:25.106878  9496 net.cpp:159] Memory required for data: 350668804
I1219 03:46:25.106881  9496 layer_factory.hpp:77] Creating layer inception_3b/3x3_reduce_BatchNorm
I1219 03:46:25.106889  9496 net.cpp:94] Creating Layer inception_3b/3x3_reduce_BatchNorm
I1219 03:46:25.106892  9496 net.cpp:435] inception_3b/3x3_reduce_BatchNorm <- inception_3b/3x3_reduce_raw
I1219 03:46:25.106896  9496 net.cpp:409] inception_3b/3x3_reduce_BatchNorm -> inception_3b/3x3_reduce
I1219 03:46:25.107345  9496 net.cpp:144] Setting up inception_3b/3x3_reduce_BatchNorm
I1219 03:46:25.107352  9496 net.cpp:151] Top shape: 1 128 60 120 (921600)
I1219 03:46:25.107355  9496 net.cpp:159] Memory required for data: 354355204
I1219 03:46:25.107362  9496 layer_factory.hpp:77] Creating layer inception_3b/relu_3x3_reduce
I1219 03:46:25.107367  9496 net.cpp:94] Creating Layer inception_3b/relu_3x3_reduce
I1219 03:46:25.107369  9496 net.cpp:435] inception_3b/relu_3x3_reduce <- inception_3b/3x3_reduce
I1219 03:46:25.107372  9496 net.cpp:396] inception_3b/relu_3x3_reduce -> inception_3b/3x3_reduce (in-place)
I1219 03:46:25.107378  9496 net.cpp:144] Setting up inception_3b/relu_3x3_reduce
I1219 03:46:25.107380  9496 net.cpp:151] Top shape: 1 128 60 120 (921600)
I1219 03:46:25.107384  9496 net.cpp:159] Memory required for data: 358041604
I1219 03:46:25.107388  9496 layer_factory.hpp:77] Creating layer inception_3b/3x3
I1219 03:46:25.107393  9496 net.cpp:94] Creating Layer inception_3b/3x3
I1219 03:46:25.107396  9496 net.cpp:435] inception_3b/3x3 <- inception_3b/3x3_reduce
I1219 03:46:25.107400  9496 net.cpp:409] inception_3b/3x3 -> inception_3b/3x3_raw
I1219 03:46:25.110196  9496 net.cpp:144] Setting up inception_3b/3x3
I1219 03:46:25.110205  9496 net.cpp:151] Top shape: 1 192 60 120 (1382400)
I1219 03:46:25.110210  9496 net.cpp:159] Memory required for data: 363571204
I1219 03:46:25.110216  9496 layer_factory.hpp:77] Creating layer inception_3b/3x3_BatchNorm
I1219 03:46:25.110224  9496 net.cpp:94] Creating Layer inception_3b/3x3_BatchNorm
I1219 03:46:25.110226  9496 net.cpp:435] inception_3b/3x3_BatchNorm <- inception_3b/3x3_raw
I1219 03:46:25.110230  9496 net.cpp:409] inception_3b/3x3_BatchNorm -> inception_3b/3x3
I1219 03:46:25.110772  9496 net.cpp:144] Setting up inception_3b/3x3_BatchNorm
I1219 03:46:25.110780  9496 net.cpp:151] Top shape: 1 192 60 120 (1382400)
I1219 03:46:25.110783  9496 net.cpp:159] Memory required for data: 369100804
I1219 03:46:25.110791  9496 layer_factory.hpp:77] Creating layer inception_3b/relu_3x3
I1219 03:46:25.110795  9496 net.cpp:94] Creating Layer inception_3b/relu_3x3
I1219 03:46:25.110798  9496 net.cpp:435] inception_3b/relu_3x3 <- inception_3b/3x3
I1219 03:46:25.110802  9496 net.cpp:396] inception_3b/relu_3x3 -> inception_3b/3x3 (in-place)
I1219 03:46:25.110807  9496 net.cpp:144] Setting up inception_3b/relu_3x3
I1219 03:46:25.110810  9496 net.cpp:151] Top shape: 1 192 60 120 (1382400)
I1219 03:46:25.110814  9496 net.cpp:159] Memory required for data: 374630404
I1219 03:46:25.110816  9496 layer_factory.hpp:77] Creating layer inception_3b/5x5_reduce
I1219 03:46:25.110823  9496 net.cpp:94] Creating Layer inception_3b/5x5_reduce
I1219 03:46:25.110827  9496 net.cpp:435] inception_3b/5x5_reduce <- inception_3a/output_inception_3a/output_0_split_2
I1219 03:46:25.110831  9496 net.cpp:409] inception_3b/5x5_reduce -> inception_3b/5x5_reduce_raw
I1219 03:46:25.111100  9496 net.cpp:144] Setting up inception_3b/5x5_reduce
I1219 03:46:25.111105  9496 net.cpp:151] Top shape: 1 32 60 120 (230400)
I1219 03:46:25.111110  9496 net.cpp:159] Memory required for data: 375552004
I1219 03:46:25.111114  9496 layer_factory.hpp:77] Creating layer inception_3b/5x5_reduce_BatchNorm
I1219 03:46:25.111121  9496 net.cpp:94] Creating Layer inception_3b/5x5_reduce_BatchNorm
I1219 03:46:25.111124  9496 net.cpp:435] inception_3b/5x5_reduce_BatchNorm <- inception_3b/5x5_reduce_raw
I1219 03:46:25.111129  9496 net.cpp:409] inception_3b/5x5_reduce_BatchNorm -> inception_3b/5x5_reduce
I1219 03:46:25.111645  9496 net.cpp:144] Setting up inception_3b/5x5_reduce_BatchNorm
I1219 03:46:25.111652  9496 net.cpp:151] Top shape: 1 32 60 120 (230400)
I1219 03:46:25.111656  9496 net.cpp:159] Memory required for data: 376473604
I1219 03:46:25.111663  9496 layer_factory.hpp:77] Creating layer inception_3b/relu_5x5_reduce
I1219 03:46:25.111666  9496 net.cpp:94] Creating Layer inception_3b/relu_5x5_reduce
I1219 03:46:25.111670  9496 net.cpp:435] inception_3b/relu_5x5_reduce <- inception_3b/5x5_reduce
I1219 03:46:25.111672  9496 net.cpp:396] inception_3b/relu_5x5_reduce -> inception_3b/5x5_reduce (in-place)
I1219 03:46:25.111680  9496 net.cpp:144] Setting up inception_3b/relu_5x5_reduce
I1219 03:46:25.111681  9496 net.cpp:151] Top shape: 1 32 60 120 (230400)
I1219 03:46:25.111686  9496 net.cpp:159] Memory required for data: 377395204
I1219 03:46:25.111688  9496 layer_factory.hpp:77] Creating layer inception_3b/5x5
I1219 03:46:25.111696  9496 net.cpp:94] Creating Layer inception_3b/5x5
I1219 03:46:25.111698  9496 net.cpp:435] inception_3b/5x5 <- inception_3b/5x5_reduce
I1219 03:46:25.111702  9496 net.cpp:409] inception_3b/5x5 -> inception_3b/5x5_raw
I1219 03:46:25.112555  9496 net.cpp:144] Setting up inception_3b/5x5
I1219 03:46:25.112561  9496 net.cpp:151] Top shape: 1 96 60 120 (691200)
I1219 03:46:25.112565  9496 net.cpp:159] Memory required for data: 380160004
I1219 03:46:25.112569  9496 layer_factory.hpp:77] Creating layer inception_3b/5x5_BatchNorm
I1219 03:46:25.112576  9496 net.cpp:94] Creating Layer inception_3b/5x5_BatchNorm
I1219 03:46:25.112581  9496 net.cpp:435] inception_3b/5x5_BatchNorm <- inception_3b/5x5_raw
I1219 03:46:25.112584  9496 net.cpp:409] inception_3b/5x5_BatchNorm -> inception_3b/5x5
I1219 03:46:25.113106  9496 net.cpp:144] Setting up inception_3b/5x5_BatchNorm
I1219 03:46:25.113112  9496 net.cpp:151] Top shape: 1 96 60 120 (691200)
I1219 03:46:25.113116  9496 net.cpp:159] Memory required for data: 382924804
I1219 03:46:25.113123  9496 layer_factory.hpp:77] Creating layer inception_3b/relu_5x5
I1219 03:46:25.113128  9496 net.cpp:94] Creating Layer inception_3b/relu_5x5
I1219 03:46:25.113131  9496 net.cpp:435] inception_3b/relu_5x5 <- inception_3b/5x5
I1219 03:46:25.113134  9496 net.cpp:396] inception_3b/relu_5x5 -> inception_3b/5x5 (in-place)
I1219 03:46:25.113140  9496 net.cpp:144] Setting up inception_3b/relu_5x5
I1219 03:46:25.113142  9496 net.cpp:151] Top shape: 1 96 60 120 (691200)
I1219 03:46:25.113147  9496 net.cpp:159] Memory required for data: 385689604
I1219 03:46:25.113149  9496 layer_factory.hpp:77] Creating layer inception_3b/pool
I1219 03:46:25.113155  9496 net.cpp:94] Creating Layer inception_3b/pool
I1219 03:46:25.113158  9496 net.cpp:435] inception_3b/pool <- inception_3a/output_inception_3a/output_0_split_3
I1219 03:46:25.113162  9496 net.cpp:409] inception_3b/pool -> inception_3b/pool
I1219 03:46:25.113188  9496 net.cpp:144] Setting up inception_3b/pool
I1219 03:46:25.113191  9496 net.cpp:151] Top shape: 1 256 60 120 (1843200)
I1219 03:46:25.113195  9496 net.cpp:159] Memory required for data: 393062404
I1219 03:46:25.113198  9496 layer_factory.hpp:77] Creating layer inception_3b/pool_proj
I1219 03:46:25.113202  9496 net.cpp:94] Creating Layer inception_3b/pool_proj
I1219 03:46:25.113205  9496 net.cpp:435] inception_3b/pool_proj <- inception_3b/pool
I1219 03:46:25.113209  9496 net.cpp:409] inception_3b/pool_proj -> inception_3b/pool_proj_raw
I1219 03:46:25.113541  9496 net.cpp:144] Setting up inception_3b/pool_proj
I1219 03:46:25.113546  9496 net.cpp:151] Top shape: 1 64 60 120 (460800)
I1219 03:46:25.113550  9496 net.cpp:159] Memory required for data: 394905604
I1219 03:46:25.113555  9496 layer_factory.hpp:77] Creating layer inception_3b/pool_proj_BatchNorm
I1219 03:46:25.113561  9496 net.cpp:94] Creating Layer inception_3b/pool_proj_BatchNorm
I1219 03:46:25.113565  9496 net.cpp:435] inception_3b/pool_proj_BatchNorm <- inception_3b/pool_proj_raw
I1219 03:46:25.113569  9496 net.cpp:409] inception_3b/pool_proj_BatchNorm -> inception_3b/pool_proj
I1219 03:46:25.114100  9496 net.cpp:144] Setting up inception_3b/pool_proj_BatchNorm
I1219 03:46:25.114107  9496 net.cpp:151] Top shape: 1 64 60 120 (460800)
I1219 03:46:25.114112  9496 net.cpp:159] Memory required for data: 396748804
I1219 03:46:25.114120  9496 layer_factory.hpp:77] Creating layer inception_3b/relu_pool_proj
I1219 03:46:25.114123  9496 net.cpp:94] Creating Layer inception_3b/relu_pool_proj
I1219 03:46:25.114127  9496 net.cpp:435] inception_3b/relu_pool_proj <- inception_3b/pool_proj
I1219 03:46:25.114131  9496 net.cpp:396] inception_3b/relu_pool_proj -> inception_3b/pool_proj (in-place)
I1219 03:46:25.114136  9496 net.cpp:144] Setting up inception_3b/relu_pool_proj
I1219 03:46:25.114140  9496 net.cpp:151] Top shape: 1 64 60 120 (460800)
I1219 03:46:25.114143  9496 net.cpp:159] Memory required for data: 398592004
I1219 03:46:25.114146  9496 layer_factory.hpp:77] Creating layer inception_3b/output
I1219 03:46:25.114151  9496 net.cpp:94] Creating Layer inception_3b/output
I1219 03:46:25.114154  9496 net.cpp:435] inception_3b/output <- inception_3b/1x1
I1219 03:46:25.114158  9496 net.cpp:435] inception_3b/output <- inception_3b/3x3
I1219 03:46:25.114161  9496 net.cpp:435] inception_3b/output <- inception_3b/5x5
I1219 03:46:25.114166  9496 net.cpp:435] inception_3b/output <- inception_3b/pool_proj
I1219 03:46:25.114171  9496 net.cpp:409] inception_3b/output -> inception_3b/output
I1219 03:46:25.114187  9496 net.cpp:144] Setting up inception_3b/output
I1219 03:46:25.114190  9496 net.cpp:151] Top shape: 1 480 60 120 (3456000)
I1219 03:46:25.114195  9496 net.cpp:159] Memory required for data: 412416004
I1219 03:46:25.114197  9496 layer_factory.hpp:77] Creating layer inception_3b/output_inception_3b/output_0_split
I1219 03:46:25.114203  9496 net.cpp:94] Creating Layer inception_3b/output_inception_3b/output_0_split
I1219 03:46:25.114207  9496 net.cpp:435] inception_3b/output_inception_3b/output_0_split <- inception_3b/output
I1219 03:46:25.114209  9496 net.cpp:409] inception_3b/output_inception_3b/output_0_split -> inception_3b/output_inception_3b/output_0_split_0
I1219 03:46:25.114214  9496 net.cpp:409] inception_3b/output_inception_3b/output_0_split -> inception_3b/output_inception_3b/output_0_split_1
I1219 03:46:25.114240  9496 net.cpp:144] Setting up inception_3b/output_inception_3b/output_0_split
I1219 03:46:25.114243  9496 net.cpp:151] Top shape: 1 480 60 120 (3456000)
I1219 03:46:25.114248  9496 net.cpp:151] Top shape: 1 480 60 120 (3456000)
I1219 03:46:25.114253  9496 net.cpp:159] Memory required for data: 440064004
I1219 03:46:25.114254  9496 layer_factory.hpp:77] Creating layer pool3/3x3_s2
I1219 03:46:25.114259  9496 net.cpp:94] Creating Layer pool3/3x3_s2
I1219 03:46:25.114262  9496 net.cpp:435] pool3/3x3_s2 <- inception_3b/output_inception_3b/output_0_split_0
I1219 03:46:25.114266  9496 net.cpp:409] pool3/3x3_s2 -> pool3/3x3_s2
I1219 03:46:25.114292  9496 net.cpp:144] Setting up pool3/3x3_s2
I1219 03:46:25.114295  9496 net.cpp:151] Top shape: 1 480 30 60 (864000)
I1219 03:46:25.114300  9496 net.cpp:159] Memory required for data: 443520004
I1219 03:46:25.114302  9496 layer_factory.hpp:77] Creating layer pool3/3x3_s2_pool3/3x3_s2_0_split
I1219 03:46:25.114307  9496 net.cpp:94] Creating Layer pool3/3x3_s2_pool3/3x3_s2_0_split
I1219 03:46:25.114310  9496 net.cpp:435] pool3/3x3_s2_pool3/3x3_s2_0_split <- pool3/3x3_s2
I1219 03:46:25.114315  9496 net.cpp:409] pool3/3x3_s2_pool3/3x3_s2_0_split -> pool3/3x3_s2_pool3/3x3_s2_0_split_0
I1219 03:46:25.114320  9496 net.cpp:409] pool3/3x3_s2_pool3/3x3_s2_0_split -> pool3/3x3_s2_pool3/3x3_s2_0_split_1
I1219 03:46:25.114324  9496 net.cpp:409] pool3/3x3_s2_pool3/3x3_s2_0_split -> pool3/3x3_s2_pool3/3x3_s2_0_split_2
I1219 03:46:25.114329  9496 net.cpp:409] pool3/3x3_s2_pool3/3x3_s2_0_split -> pool3/3x3_s2_pool3/3x3_s2_0_split_3
I1219 03:46:25.114373  9496 net.cpp:144] Setting up pool3/3x3_s2_pool3/3x3_s2_0_split
I1219 03:46:25.114377  9496 net.cpp:151] Top shape: 1 480 30 60 (864000)
I1219 03:46:25.114380  9496 net.cpp:151] Top shape: 1 480 30 60 (864000)
I1219 03:46:25.114384  9496 net.cpp:151] Top shape: 1 480 30 60 (864000)
I1219 03:46:25.114388  9496 net.cpp:151] Top shape: 1 480 30 60 (864000)
I1219 03:46:25.114392  9496 net.cpp:159] Memory required for data: 457344004
I1219 03:46:25.114395  9496 layer_factory.hpp:77] Creating layer inception_4a/1x1
I1219 03:46:25.114400  9496 net.cpp:94] Creating Layer inception_4a/1x1
I1219 03:46:25.114404  9496 net.cpp:435] inception_4a/1x1 <- pool3/3x3_s2_pool3/3x3_s2_0_split_0
I1219 03:46:25.114408  9496 net.cpp:409] inception_4a/1x1 -> inception_4a/1x1_raw
I1219 03:46:25.116724  9496 net.cpp:144] Setting up inception_4a/1x1
I1219 03:46:25.116735  9496 net.cpp:151] Top shape: 1 192 30 60 (345600)
I1219 03:46:25.116740  9496 net.cpp:159] Memory required for data: 458726404
I1219 03:46:25.116747  9496 layer_factory.hpp:77] Creating layer inception_4a/1x1_BatchNorm
I1219 03:46:25.116755  9496 net.cpp:94] Creating Layer inception_4a/1x1_BatchNorm
I1219 03:46:25.116758  9496 net.cpp:435] inception_4a/1x1_BatchNorm <- inception_4a/1x1_raw
I1219 03:46:25.116763  9496 net.cpp:409] inception_4a/1x1_BatchNorm -> inception_4a/1x1
I1219 03:46:25.117301  9496 net.cpp:144] Setting up inception_4a/1x1_BatchNorm
I1219 03:46:25.117307  9496 net.cpp:151] Top shape: 1 192 30 60 (345600)
I1219 03:46:25.117311  9496 net.cpp:159] Memory required for data: 460108804
I1219 03:46:25.117318  9496 layer_factory.hpp:77] Creating layer inception_4a/relu_1x1
I1219 03:46:25.117323  9496 net.cpp:94] Creating Layer inception_4a/relu_1x1
I1219 03:46:25.117326  9496 net.cpp:435] inception_4a/relu_1x1 <- inception_4a/1x1
I1219 03:46:25.117331  9496 net.cpp:396] inception_4a/relu_1x1 -> inception_4a/1x1 (in-place)
I1219 03:46:25.117334  9496 net.cpp:144] Setting up inception_4a/relu_1x1
I1219 03:46:25.117337  9496 net.cpp:151] Top shape: 1 192 30 60 (345600)
I1219 03:46:25.117341  9496 net.cpp:159] Memory required for data: 461491204
I1219 03:46:25.117342  9496 layer_factory.hpp:77] Creating layer inception_4a/3x3_reduce
I1219 03:46:25.117349  9496 net.cpp:94] Creating Layer inception_4a/3x3_reduce
I1219 03:46:25.117352  9496 net.cpp:435] inception_4a/3x3_reduce <- pool3/3x3_s2_pool3/3x3_s2_0_split_1
I1219 03:46:25.117357  9496 net.cpp:409] inception_4a/3x3_reduce -> inception_4a/3x3_reduce_raw
I1219 03:46:25.117955  9496 net.cpp:144] Setting up inception_4a/3x3_reduce
I1219 03:46:25.117960  9496 net.cpp:151] Top shape: 1 96 30 60 (172800)
I1219 03:46:25.117964  9496 net.cpp:159] Memory required for data: 462182404
I1219 03:46:25.117969  9496 layer_factory.hpp:77] Creating layer inception_4a/3x3_reduce_BatchNorm
I1219 03:46:25.117974  9496 net.cpp:94] Creating Layer inception_4a/3x3_reduce_BatchNorm
I1219 03:46:25.117977  9496 net.cpp:435] inception_4a/3x3_reduce_BatchNorm <- inception_4a/3x3_reduce_raw
I1219 03:46:25.117981  9496 net.cpp:409] inception_4a/3x3_reduce_BatchNorm -> inception_4a/3x3_reduce
I1219 03:46:25.118528  9496 net.cpp:144] Setting up inception_4a/3x3_reduce_BatchNorm
I1219 03:46:25.118535  9496 net.cpp:151] Top shape: 1 96 30 60 (172800)
I1219 03:46:25.118538  9496 net.cpp:159] Memory required for data: 462873604
I1219 03:46:25.118546  9496 layer_factory.hpp:77] Creating layer inception_4a/relu_3x3_reduce
I1219 03:46:25.118549  9496 net.cpp:94] Creating Layer inception_4a/relu_3x3_reduce
I1219 03:46:25.118552  9496 net.cpp:435] inception_4a/relu_3x3_reduce <- inception_4a/3x3_reduce
I1219 03:46:25.118556  9496 net.cpp:396] inception_4a/relu_3x3_reduce -> inception_4a/3x3_reduce (in-place)
I1219 03:46:25.118561  9496 net.cpp:144] Setting up inception_4a/relu_3x3_reduce
I1219 03:46:25.118562  9496 net.cpp:151] Top shape: 1 96 30 60 (172800)
I1219 03:46:25.118566  9496 net.cpp:159] Memory required for data: 463564804
I1219 03:46:25.118568  9496 layer_factory.hpp:77] Creating layer inception_4a/3x3
I1219 03:46:25.118577  9496 net.cpp:94] Creating Layer inception_4a/3x3
I1219 03:46:25.118579  9496 net.cpp:435] inception_4a/3x3 <- inception_4a/3x3_reduce
I1219 03:46:25.118583  9496 net.cpp:409] inception_4a/3x3 -> inception_4a/3x3_raw
I1219 03:46:25.121102  9496 net.cpp:144] Setting up inception_4a/3x3
I1219 03:46:25.121111  9496 net.cpp:151] Top shape: 1 208 30 60 (374400)
I1219 03:46:25.121116  9496 net.cpp:159] Memory required for data: 465062404
I1219 03:46:25.121122  9496 layer_factory.hpp:77] Creating layer inception_4a/3x3_BatchNorm
I1219 03:46:25.121129  9496 net.cpp:94] Creating Layer inception_4a/3x3_BatchNorm
I1219 03:46:25.121131  9496 net.cpp:435] inception_4a/3x3_BatchNorm <- inception_4a/3x3_raw
I1219 03:46:25.121136  9496 net.cpp:409] inception_4a/3x3_BatchNorm -> inception_4a/3x3
I1219 03:46:25.121666  9496 net.cpp:144] Setting up inception_4a/3x3_BatchNorm
I1219 03:46:25.121673  9496 net.cpp:151] Top shape: 1 208 30 60 (374400)
I1219 03:46:25.121676  9496 net.cpp:159] Memory required for data: 466560004
I1219 03:46:25.121685  9496 layer_factory.hpp:77] Creating layer inception_4a/relu_3x3
I1219 03:46:25.121688  9496 net.cpp:94] Creating Layer inception_4a/relu_3x3
I1219 03:46:25.121691  9496 net.cpp:435] inception_4a/relu_3x3 <- inception_4a/3x3
I1219 03:46:25.121695  9496 net.cpp:396] inception_4a/relu_3x3 -> inception_4a/3x3 (in-place)
I1219 03:46:25.121699  9496 net.cpp:144] Setting up inception_4a/relu_3x3
I1219 03:46:25.121701  9496 net.cpp:151] Top shape: 1 208 30 60 (374400)
I1219 03:46:25.121704  9496 net.cpp:159] Memory required for data: 468057604
I1219 03:46:25.121707  9496 layer_factory.hpp:77] Creating layer inception_4a/5x5_reduce
I1219 03:46:25.121713  9496 net.cpp:94] Creating Layer inception_4a/5x5_reduce
I1219 03:46:25.121716  9496 net.cpp:435] inception_4a/5x5_reduce <- pool3/3x3_s2_pool3/3x3_s2_0_split_2
I1219 03:46:25.121721  9496 net.cpp:409] inception_4a/5x5_reduce -> inception_4a/5x5_reduce_raw
I1219 03:46:25.121991  9496 net.cpp:144] Setting up inception_4a/5x5_reduce
I1219 03:46:25.121996  9496 net.cpp:151] Top shape: 1 16 30 60 (28800)
I1219 03:46:25.122000  9496 net.cpp:159] Memory required for data: 468172804
I1219 03:46:25.122004  9496 layer_factory.hpp:77] Creating layer inception_4a/5x5_reduce_BatchNorm
I1219 03:46:25.122010  9496 net.cpp:94] Creating Layer inception_4a/5x5_reduce_BatchNorm
I1219 03:46:25.122014  9496 net.cpp:435] inception_4a/5x5_reduce_BatchNorm <- inception_4a/5x5_reduce_raw
I1219 03:46:25.122017  9496 net.cpp:409] inception_4a/5x5_reduce_BatchNorm -> inception_4a/5x5_reduce
I1219 03:46:25.122526  9496 net.cpp:144] Setting up inception_4a/5x5_reduce_BatchNorm
I1219 03:46:25.122532  9496 net.cpp:151] Top shape: 1 16 30 60 (28800)
I1219 03:46:25.122536  9496 net.cpp:159] Memory required for data: 468288004
I1219 03:46:25.122548  9496 layer_factory.hpp:77] Creating layer inception_4a/relu_5x5_reduce
I1219 03:46:25.122555  9496 net.cpp:94] Creating Layer inception_4a/relu_5x5_reduce
I1219 03:46:25.122557  9496 net.cpp:435] inception_4a/relu_5x5_reduce <- inception_4a/5x5_reduce
I1219 03:46:25.122561  9496 net.cpp:396] inception_4a/relu_5x5_reduce -> inception_4a/5x5_reduce (in-place)
I1219 03:46:25.122565  9496 net.cpp:144] Setting up inception_4a/relu_5x5_reduce
I1219 03:46:25.122567  9496 net.cpp:151] Top shape: 1 16 30 60 (28800)
I1219 03:46:25.122571  9496 net.cpp:159] Memory required for data: 468403204
I1219 03:46:25.122575  9496 layer_factory.hpp:77] Creating layer inception_4a/5x5
I1219 03:46:25.122579  9496 net.cpp:94] Creating Layer inception_4a/5x5
I1219 03:46:25.122582  9496 net.cpp:435] inception_4a/5x5 <- inception_4a/5x5_reduce
I1219 03:46:25.122586  9496 net.cpp:409] inception_4a/5x5 -> inception_4a/5x5_raw
I1219 03:46:25.122964  9496 net.cpp:144] Setting up inception_4a/5x5
I1219 03:46:25.122969  9496 net.cpp:151] Top shape: 1 48 30 60 (86400)
I1219 03:46:25.122973  9496 net.cpp:159] Memory required for data: 468748804
I1219 03:46:25.122978  9496 layer_factory.hpp:77] Creating layer inception_4a/5x5_BatchNorm
I1219 03:46:25.122984  9496 net.cpp:94] Creating Layer inception_4a/5x5_BatchNorm
I1219 03:46:25.122987  9496 net.cpp:435] inception_4a/5x5_BatchNorm <- inception_4a/5x5_raw
I1219 03:46:25.122992  9496 net.cpp:409] inception_4a/5x5_BatchNorm -> inception_4a/5x5
I1219 03:46:25.123517  9496 net.cpp:144] Setting up inception_4a/5x5_BatchNorm
I1219 03:46:25.123523  9496 net.cpp:151] Top shape: 1 48 30 60 (86400)
I1219 03:46:25.123528  9496 net.cpp:159] Memory required for data: 469094404
I1219 03:46:25.123535  9496 layer_factory.hpp:77] Creating layer inception_4a/relu_5x5
I1219 03:46:25.123538  9496 net.cpp:94] Creating Layer inception_4a/relu_5x5
I1219 03:46:25.123541  9496 net.cpp:435] inception_4a/relu_5x5 <- inception_4a/5x5
I1219 03:46:25.123544  9496 net.cpp:396] inception_4a/relu_5x5 -> inception_4a/5x5 (in-place)
I1219 03:46:25.123549  9496 net.cpp:144] Setting up inception_4a/relu_5x5
I1219 03:46:25.123551  9496 net.cpp:151] Top shape: 1 48 30 60 (86400)
I1219 03:46:25.123554  9496 net.cpp:159] Memory required for data: 469440004
I1219 03:46:25.123558  9496 layer_factory.hpp:77] Creating layer inception_4a/pool
I1219 03:46:25.123562  9496 net.cpp:94] Creating Layer inception_4a/pool
I1219 03:46:25.123564  9496 net.cpp:435] inception_4a/pool <- pool3/3x3_s2_pool3/3x3_s2_0_split_3
I1219 03:46:25.123569  9496 net.cpp:409] inception_4a/pool -> inception_4a/pool
I1219 03:46:25.123594  9496 net.cpp:144] Setting up inception_4a/pool
I1219 03:46:25.123597  9496 net.cpp:151] Top shape: 1 480 30 60 (864000)
I1219 03:46:25.123600  9496 net.cpp:159] Memory required for data: 472896004
I1219 03:46:25.123603  9496 layer_factory.hpp:77] Creating layer inception_4a/pool_proj
I1219 03:46:25.123608  9496 net.cpp:94] Creating Layer inception_4a/pool_proj
I1219 03:46:25.123611  9496 net.cpp:435] inception_4a/pool_proj <- inception_4a/pool
I1219 03:46:25.123615  9496 net.cpp:409] inception_4a/pool_proj -> inception_4a/pool_proj_raw
I1219 03:46:25.124083  9496 net.cpp:144] Setting up inception_4a/pool_proj
I1219 03:46:25.124089  9496 net.cpp:151] Top shape: 1 64 30 60 (115200)
I1219 03:46:25.124094  9496 net.cpp:159] Memory required for data: 473356804
I1219 03:46:25.124099  9496 layer_factory.hpp:77] Creating layer inception_4a/pool_proj_BatchNorm
I1219 03:46:25.124104  9496 net.cpp:94] Creating Layer inception_4a/pool_proj_BatchNorm
I1219 03:46:25.124106  9496 net.cpp:435] inception_4a/pool_proj_BatchNorm <- inception_4a/pool_proj_raw
I1219 03:46:25.124110  9496 net.cpp:409] inception_4a/pool_proj_BatchNorm -> inception_4a/pool_proj
I1219 03:46:25.124627  9496 net.cpp:144] Setting up inception_4a/pool_proj_BatchNorm
I1219 03:46:25.124634  9496 net.cpp:151] Top shape: 1 64 30 60 (115200)
I1219 03:46:25.124637  9496 net.cpp:159] Memory required for data: 473817604
I1219 03:46:25.124644  9496 layer_factory.hpp:77] Creating layer inception_4a/relu_pool_proj
I1219 03:46:25.124648  9496 net.cpp:94] Creating Layer inception_4a/relu_pool_proj
I1219 03:46:25.124651  9496 net.cpp:435] inception_4a/relu_pool_proj <- inception_4a/pool_proj
I1219 03:46:25.124655  9496 net.cpp:396] inception_4a/relu_pool_proj -> inception_4a/pool_proj (in-place)
I1219 03:46:25.124660  9496 net.cpp:144] Setting up inception_4a/relu_pool_proj
I1219 03:46:25.124661  9496 net.cpp:151] Top shape: 1 64 30 60 (115200)
I1219 03:46:25.124665  9496 net.cpp:159] Memory required for data: 474278404
I1219 03:46:25.124667  9496 layer_factory.hpp:77] Creating layer inception_4a/output
I1219 03:46:25.124671  9496 net.cpp:94] Creating Layer inception_4a/output
I1219 03:46:25.124673  9496 net.cpp:435] inception_4a/output <- inception_4a/1x1
I1219 03:46:25.124676  9496 net.cpp:435] inception_4a/output <- inception_4a/3x3
I1219 03:46:25.124680  9496 net.cpp:435] inception_4a/output <- inception_4a/5x5
I1219 03:46:25.124682  9496 net.cpp:435] inception_4a/output <- inception_4a/pool_proj
I1219 03:46:25.124686  9496 net.cpp:409] inception_4a/output -> inception_4a/output
I1219 03:46:25.124701  9496 net.cpp:144] Setting up inception_4a/output
I1219 03:46:25.124704  9496 net.cpp:151] Top shape: 1 512 30 60 (921600)
I1219 03:46:25.124707  9496 net.cpp:159] Memory required for data: 477964804
I1219 03:46:25.124711  9496 layer_factory.hpp:77] Creating layer inception_4a/output_inception_4a/output_0_split
I1219 03:46:25.124714  9496 net.cpp:94] Creating Layer inception_4a/output_inception_4a/output_0_split
I1219 03:46:25.124717  9496 net.cpp:435] inception_4a/output_inception_4a/output_0_split <- inception_4a/output
I1219 03:46:25.124720  9496 net.cpp:409] inception_4a/output_inception_4a/output_0_split -> inception_4a/output_inception_4a/output_0_split_0
I1219 03:46:25.124725  9496 net.cpp:409] inception_4a/output_inception_4a/output_0_split -> inception_4a/output_inception_4a/output_0_split_1
I1219 03:46:25.124729  9496 net.cpp:409] inception_4a/output_inception_4a/output_0_split -> inception_4a/output_inception_4a/output_0_split_2
I1219 03:46:25.124733  9496 net.cpp:409] inception_4a/output_inception_4a/output_0_split -> inception_4a/output_inception_4a/output_0_split_3
I1219 03:46:25.124774  9496 net.cpp:144] Setting up inception_4a/output_inception_4a/output_0_split
I1219 03:46:25.124778  9496 net.cpp:151] Top shape: 1 512 30 60 (921600)
I1219 03:46:25.124783  9496 net.cpp:151] Top shape: 1 512 30 60 (921600)
I1219 03:46:25.124785  9496 net.cpp:151] Top shape: 1 512 30 60 (921600)
I1219 03:46:25.124789  9496 net.cpp:151] Top shape: 1 512 30 60 (921600)
I1219 03:46:25.124792  9496 net.cpp:159] Memory required for data: 492710404
I1219 03:46:25.124794  9496 layer_factory.hpp:77] Creating layer inception_4b/1x1
I1219 03:46:25.124801  9496 net.cpp:94] Creating Layer inception_4b/1x1
I1219 03:46:25.124804  9496 net.cpp:435] inception_4b/1x1 <- inception_4a/output_inception_4a/output_0_split_0
I1219 03:46:25.124807  9496 net.cpp:409] inception_4b/1x1 -> inception_4b/1x1_raw
I1219 03:46:25.125658  9496 net.cpp:144] Setting up inception_4b/1x1
I1219 03:46:25.125664  9496 net.cpp:151] Top shape: 1 160 30 60 (288000)
I1219 03:46:25.125669  9496 net.cpp:159] Memory required for data: 493862404
I1219 03:46:25.125672  9496 layer_factory.hpp:77] Creating layer inception_4b/1x1_BatchNorm
I1219 03:46:25.125677  9496 net.cpp:94] Creating Layer inception_4b/1x1_BatchNorm
I1219 03:46:25.125679  9496 net.cpp:435] inception_4b/1x1_BatchNorm <- inception_4b/1x1_raw
I1219 03:46:25.125682  9496 net.cpp:409] inception_4b/1x1_BatchNorm -> inception_4b/1x1
I1219 03:46:25.126062  9496 net.cpp:144] Setting up inception_4b/1x1_BatchNorm
I1219 03:46:25.126066  9496 net.cpp:151] Top shape: 1 160 30 60 (288000)
I1219 03:46:25.126070  9496 net.cpp:159] Memory required for data: 495014404
I1219 03:46:25.126075  9496 layer_factory.hpp:77] Creating layer inception_4b/relu_1x1
I1219 03:46:25.126077  9496 net.cpp:94] Creating Layer inception_4b/relu_1x1
I1219 03:46:25.126080  9496 net.cpp:435] inception_4b/relu_1x1 <- inception_4b/1x1
I1219 03:46:25.126082  9496 net.cpp:396] inception_4b/relu_1x1 -> inception_4b/1x1 (in-place)
I1219 03:46:25.126085  9496 net.cpp:144] Setting up inception_4b/relu_1x1
I1219 03:46:25.126087  9496 net.cpp:151] Top shape: 1 160 30 60 (288000)
I1219 03:46:25.126089  9496 net.cpp:159] Memory required for data: 496166404
I1219 03:46:25.126091  9496 layer_factory.hpp:77] Creating layer inception_4b/3x3_reduce
I1219 03:46:25.126096  9496 net.cpp:94] Creating Layer inception_4b/3x3_reduce
I1219 03:46:25.126098  9496 net.cpp:435] inception_4b/3x3_reduce <- inception_4a/output_inception_4a/output_0_split_1
I1219 03:46:25.126101  9496 net.cpp:409] inception_4b/3x3_reduce -> inception_4b/3x3_reduce_raw
I1219 03:46:25.126730  9496 net.cpp:144] Setting up inception_4b/3x3_reduce
I1219 03:46:25.126739  9496 net.cpp:151] Top shape: 1 112 30 60 (201600)
I1219 03:46:25.126742  9496 net.cpp:159] Memory required for data: 496972804
I1219 03:46:25.126747  9496 layer_factory.hpp:77] Creating layer inception_4b/3x3_reduce_BatchNorm
I1219 03:46:25.126754  9496 net.cpp:94] Creating Layer inception_4b/3x3_reduce_BatchNorm
I1219 03:46:25.126756  9496 net.cpp:435] inception_4b/3x3_reduce_BatchNorm <- inception_4b/3x3_reduce_raw
I1219 03:46:25.126760  9496 net.cpp:409] inception_4b/3x3_reduce_BatchNorm -> inception_4b/3x3_reduce
I1219 03:46:25.127326  9496 net.cpp:144] Setting up inception_4b/3x3_reduce_BatchNorm
I1219 03:46:25.127333  9496 net.cpp:151] Top shape: 1 112 30 60 (201600)
I1219 03:46:25.127338  9496 net.cpp:159] Memory required for data: 497779204
I1219 03:46:25.127346  9496 layer_factory.hpp:77] Creating layer inception_4b/relu_3x3_reduce
I1219 03:46:25.127351  9496 net.cpp:94] Creating Layer inception_4b/relu_3x3_reduce
I1219 03:46:25.127357  9496 net.cpp:435] inception_4b/relu_3x3_reduce <- inception_4b/3x3_reduce
I1219 03:46:25.127360  9496 net.cpp:396] inception_4b/relu_3x3_reduce -> inception_4b/3x3_reduce (in-place)
I1219 03:46:25.127367  9496 net.cpp:144] Setting up inception_4b/relu_3x3_reduce
I1219 03:46:25.127372  9496 net.cpp:151] Top shape: 1 112 30 60 (201600)
I1219 03:46:25.127374  9496 net.cpp:159] Memory required for data: 498585604
I1219 03:46:25.127377  9496 layer_factory.hpp:77] Creating layer inception_4b/3x3
I1219 03:46:25.127382  9496 net.cpp:94] Creating Layer inception_4b/3x3
I1219 03:46:25.127383  9496 net.cpp:435] inception_4b/3x3 <- inception_4b/3x3_reduce
I1219 03:46:25.127388  9496 net.cpp:409] inception_4b/3x3 -> inception_4b/3x3_raw
I1219 03:46:25.129478  9496 net.cpp:144] Setting up inception_4b/3x3
I1219 03:46:25.129487  9496 net.cpp:151] Top shape: 1 224 30 60 (403200)
I1219 03:46:25.129492  9496 net.cpp:159] Memory required for data: 500198404
I1219 03:46:25.129499  9496 layer_factory.hpp:77] Creating layer inception_4b/3x3_BatchNorm
I1219 03:46:25.129508  9496 net.cpp:94] Creating Layer inception_4b/3x3_BatchNorm
I1219 03:46:25.129513  9496 net.cpp:435] inception_4b/3x3_BatchNorm <- inception_4b/3x3_raw
I1219 03:46:25.129518  9496 net.cpp:409] inception_4b/3x3_BatchNorm -> inception_4b/3x3
I1219 03:46:25.129921  9496 net.cpp:144] Setting up inception_4b/3x3_BatchNorm
I1219 03:46:25.129925  9496 net.cpp:151] Top shape: 1 224 30 60 (403200)
I1219 03:46:25.129928  9496 net.cpp:159] Memory required for data: 501811204
I1219 03:46:25.129935  9496 layer_factory.hpp:77] Creating layer inception_4b/relu_3x3
I1219 03:46:25.129941  9496 net.cpp:94] Creating Layer inception_4b/relu_3x3
I1219 03:46:25.129943  9496 net.cpp:435] inception_4b/relu_3x3 <- inception_4b/3x3
I1219 03:46:25.129946  9496 net.cpp:396] inception_4b/relu_3x3 -> inception_4b/3x3 (in-place)
I1219 03:46:25.129952  9496 net.cpp:144] Setting up inception_4b/relu_3x3
I1219 03:46:25.129953  9496 net.cpp:151] Top shape: 1 224 30 60 (403200)
I1219 03:46:25.129956  9496 net.cpp:159] Memory required for data: 503424004
I1219 03:46:25.129959  9496 layer_factory.hpp:77] Creating layer inception_4b/5x5_reduce
I1219 03:46:25.129966  9496 net.cpp:94] Creating Layer inception_4b/5x5_reduce
I1219 03:46:25.129971  9496 net.cpp:435] inception_4b/5x5_reduce <- inception_4a/output_inception_4a/output_0_split_2
I1219 03:46:25.129974  9496 net.cpp:409] inception_4b/5x5_reduce -> inception_4b/5x5_reduce_raw
I1219 03:46:25.130245  9496 net.cpp:144] Setting up inception_4b/5x5_reduce
I1219 03:46:25.130252  9496 net.cpp:151] Top shape: 1 24 30 60 (43200)
I1219 03:46:25.130256  9496 net.cpp:159] Memory required for data: 503596804
I1219 03:46:25.130262  9496 layer_factory.hpp:77] Creating layer inception_4b/5x5_reduce_BatchNorm
I1219 03:46:25.130270  9496 net.cpp:94] Creating Layer inception_4b/5x5_reduce_BatchNorm
I1219 03:46:25.130273  9496 net.cpp:435] inception_4b/5x5_reduce_BatchNorm <- inception_4b/5x5_reduce_raw
I1219 03:46:25.130278  9496 net.cpp:409] inception_4b/5x5_reduce_BatchNorm -> inception_4b/5x5_reduce
I1219 03:46:25.130712  9496 net.cpp:144] Setting up inception_4b/5x5_reduce_BatchNorm
I1219 03:46:25.130718  9496 net.cpp:151] Top shape: 1 24 30 60 (43200)
I1219 03:46:25.130722  9496 net.cpp:159] Memory required for data: 503769604
I1219 03:46:25.130729  9496 layer_factory.hpp:77] Creating layer inception_4b/relu_5x5_reduce
I1219 03:46:25.130733  9496 net.cpp:94] Creating Layer inception_4b/relu_5x5_reduce
I1219 03:46:25.130735  9496 net.cpp:435] inception_4b/relu_5x5_reduce <- inception_4b/5x5_reduce
I1219 03:46:25.130738  9496 net.cpp:396] inception_4b/relu_5x5_reduce -> inception_4b/5x5_reduce (in-place)
I1219 03:46:25.130743  9496 net.cpp:144] Setting up inception_4b/relu_5x5_reduce
I1219 03:46:25.130745  9496 net.cpp:151] Top shape: 1 24 30 60 (43200)
I1219 03:46:25.130748  9496 net.cpp:159] Memory required for data: 503942404
I1219 03:46:25.130749  9496 layer_factory.hpp:77] Creating layer inception_4b/5x5
I1219 03:46:25.130754  9496 net.cpp:94] Creating Layer inception_4b/5x5
I1219 03:46:25.130756  9496 net.cpp:435] inception_4b/5x5 <- inception_4b/5x5_reduce
I1219 03:46:25.130759  9496 net.cpp:409] inception_4b/5x5 -> inception_4b/5x5_raw
I1219 03:46:25.131758  9496 net.cpp:144] Setting up inception_4b/5x5
I1219 03:46:25.131764  9496 net.cpp:151] Top shape: 1 64 30 60 (115200)
I1219 03:46:25.131767  9496 net.cpp:159] Memory required for data: 504403204
I1219 03:46:25.131772  9496 layer_factory.hpp:77] Creating layer inception_4b/5x5_BatchNorm
I1219 03:46:25.131778  9496 net.cpp:94] Creating Layer inception_4b/5x5_BatchNorm
I1219 03:46:25.131780  9496 net.cpp:435] inception_4b/5x5_BatchNorm <- inception_4b/5x5_raw
I1219 03:46:25.131783  9496 net.cpp:409] inception_4b/5x5_BatchNorm -> inception_4b/5x5
I1219 03:46:25.132195  9496 net.cpp:144] Setting up inception_4b/5x5_BatchNorm
I1219 03:46:25.132200  9496 net.cpp:151] Top shape: 1 64 30 60 (115200)
I1219 03:46:25.132203  9496 net.cpp:159] Memory required for data: 504864004
I1219 03:46:25.132210  9496 layer_factory.hpp:77] Creating layer inception_4b/relu_5x5
I1219 03:46:25.132213  9496 net.cpp:94] Creating Layer inception_4b/relu_5x5
I1219 03:46:25.132216  9496 net.cpp:435] inception_4b/relu_5x5 <- inception_4b/5x5
I1219 03:46:25.132220  9496 net.cpp:396] inception_4b/relu_5x5 -> inception_4b/5x5 (in-place)
I1219 03:46:25.132225  9496 net.cpp:144] Setting up inception_4b/relu_5x5
I1219 03:46:25.132227  9496 net.cpp:151] Top shape: 1 64 30 60 (115200)
I1219 03:46:25.132230  9496 net.cpp:159] Memory required for data: 505324804
I1219 03:46:25.132233  9496 layer_factory.hpp:77] Creating layer inception_4b/pool
I1219 03:46:25.132238  9496 net.cpp:94] Creating Layer inception_4b/pool
I1219 03:46:25.132241  9496 net.cpp:435] inception_4b/pool <- inception_4a/output_inception_4a/output_0_split_3
I1219 03:46:25.132246  9496 net.cpp:409] inception_4b/pool -> inception_4b/pool
I1219 03:46:25.132272  9496 net.cpp:144] Setting up inception_4b/pool
I1219 03:46:25.132275  9496 net.cpp:151] Top shape: 1 512 30 60 (921600)
I1219 03:46:25.132278  9496 net.cpp:159] Memory required for data: 509011204
I1219 03:46:25.132280  9496 layer_factory.hpp:77] Creating layer inception_4b/pool_proj
I1219 03:46:25.132285  9496 net.cpp:94] Creating Layer inception_4b/pool_proj
I1219 03:46:25.132287  9496 net.cpp:435] inception_4b/pool_proj <- inception_4b/pool
I1219 03:46:25.132292  9496 net.cpp:409] inception_4b/pool_proj -> inception_4b/pool_proj_raw
I1219 03:46:25.132644  9496 net.cpp:144] Setting up inception_4b/pool_proj
I1219 03:46:25.132648  9496 net.cpp:151] Top shape: 1 64 30 60 (115200)
I1219 03:46:25.132652  9496 net.cpp:159] Memory required for data: 509472004
I1219 03:46:25.132655  9496 layer_factory.hpp:77] Creating layer inception_4b/pool_proj_BatchNorm
I1219 03:46:25.132661  9496 net.cpp:94] Creating Layer inception_4b/pool_proj_BatchNorm
I1219 03:46:25.132663  9496 net.cpp:435] inception_4b/pool_proj_BatchNorm <- inception_4b/pool_proj_raw
I1219 03:46:25.132668  9496 net.cpp:409] inception_4b/pool_proj_BatchNorm -> inception_4b/pool_proj
I1219 03:46:25.133093  9496 net.cpp:144] Setting up inception_4b/pool_proj_BatchNorm
I1219 03:46:25.133098  9496 net.cpp:151] Top shape: 1 64 30 60 (115200)
I1219 03:46:25.133102  9496 net.cpp:159] Memory required for data: 509932804
I1219 03:46:25.133108  9496 layer_factory.hpp:77] Creating layer inception_4b/relu_pool_proj
I1219 03:46:25.133111  9496 net.cpp:94] Creating Layer inception_4b/relu_pool_proj
I1219 03:46:25.133113  9496 net.cpp:435] inception_4b/relu_pool_proj <- inception_4b/pool_proj
I1219 03:46:25.133116  9496 net.cpp:396] inception_4b/relu_pool_proj -> inception_4b/pool_proj (in-place)
I1219 03:46:25.133121  9496 net.cpp:144] Setting up inception_4b/relu_pool_proj
I1219 03:46:25.133121  9496 net.cpp:151] Top shape: 1 64 30 60 (115200)
I1219 03:46:25.133124  9496 net.cpp:159] Memory required for data: 510393604
I1219 03:46:25.133126  9496 layer_factory.hpp:77] Creating layer inception_4b/output
I1219 03:46:25.133129  9496 net.cpp:94] Creating Layer inception_4b/output
I1219 03:46:25.133131  9496 net.cpp:435] inception_4b/output <- inception_4b/1x1
I1219 03:46:25.133133  9496 net.cpp:435] inception_4b/output <- inception_4b/3x3
I1219 03:46:25.133136  9496 net.cpp:435] inception_4b/output <- inception_4b/5x5
I1219 03:46:25.133138  9496 net.cpp:435] inception_4b/output <- inception_4b/pool_proj
I1219 03:46:25.133141  9496 net.cpp:409] inception_4b/output -> inception_4b/output
I1219 03:46:25.133153  9496 net.cpp:144] Setting up inception_4b/output
I1219 03:46:25.133155  9496 net.cpp:151] Top shape: 1 512 30 60 (921600)
I1219 03:46:25.133158  9496 net.cpp:159] Memory required for data: 514080004
I1219 03:46:25.133159  9496 layer_factory.hpp:77] Creating layer inception_4b/output_inception_4b/output_0_split
I1219 03:46:25.133163  9496 net.cpp:94] Creating Layer inception_4b/output_inception_4b/output_0_split
I1219 03:46:25.133165  9496 net.cpp:435] inception_4b/output_inception_4b/output_0_split <- inception_4b/output
I1219 03:46:25.133168  9496 net.cpp:409] inception_4b/output_inception_4b/output_0_split -> inception_4b/output_inception_4b/output_0_split_0
I1219 03:46:25.133172  9496 net.cpp:409] inception_4b/output_inception_4b/output_0_split -> inception_4b/output_inception_4b/output_0_split_1
I1219 03:46:25.133175  9496 net.cpp:409] inception_4b/output_inception_4b/output_0_split -> inception_4b/output_inception_4b/output_0_split_2
I1219 03:46:25.133178  9496 net.cpp:409] inception_4b/output_inception_4b/output_0_split -> inception_4b/output_inception_4b/output_0_split_3
I1219 03:46:25.133210  9496 net.cpp:144] Setting up inception_4b/output_inception_4b/output_0_split
I1219 03:46:25.133213  9496 net.cpp:151] Top shape: 1 512 30 60 (921600)
I1219 03:46:25.133215  9496 net.cpp:151] Top shape: 1 512 30 60 (921600)
I1219 03:46:25.133219  9496 net.cpp:151] Top shape: 1 512 30 60 (921600)
I1219 03:46:25.133220  9496 net.cpp:151] Top shape: 1 512 30 60 (921600)
I1219 03:46:25.133224  9496 net.cpp:159] Memory required for data: 528825604
I1219 03:46:25.133224  9496 layer_factory.hpp:77] Creating layer inception_4c/1x1
I1219 03:46:25.133230  9496 net.cpp:94] Creating Layer inception_4c/1x1
I1219 03:46:25.133232  9496 net.cpp:435] inception_4c/1x1 <- inception_4b/output_inception_4b/output_0_split_0
I1219 03:46:25.133235  9496 net.cpp:409] inception_4c/1x1 -> inception_4c/1x1_raw
I1219 03:46:25.133729  9496 net.cpp:144] Setting up inception_4c/1x1
I1219 03:46:25.133733  9496 net.cpp:151] Top shape: 1 128 30 60 (230400)
I1219 03:46:25.133735  9496 net.cpp:159] Memory required for data: 529747204
I1219 03:46:25.133739  9496 layer_factory.hpp:77] Creating layer inception_4c/1x1_BatchNorm
I1219 03:46:25.133744  9496 net.cpp:94] Creating Layer inception_4c/1x1_BatchNorm
I1219 03:46:25.133745  9496 net.cpp:435] inception_4c/1x1_BatchNorm <- inception_4c/1x1_raw
I1219 03:46:25.133749  9496 net.cpp:409] inception_4c/1x1_BatchNorm -> inception_4c/1x1
I1219 03:46:25.134076  9496 net.cpp:144] Setting up inception_4c/1x1_BatchNorm
I1219 03:46:25.134081  9496 net.cpp:151] Top shape: 1 128 30 60 (230400)
I1219 03:46:25.134084  9496 net.cpp:159] Memory required for data: 530668804
I1219 03:46:25.134090  9496 layer_factory.hpp:77] Creating layer inception_4c/relu_1x1
I1219 03:46:25.134094  9496 net.cpp:94] Creating Layer inception_4c/relu_1x1
I1219 03:46:25.134097  9496 net.cpp:435] inception_4c/relu_1x1 <- inception_4c/1x1
I1219 03:46:25.134101  9496 net.cpp:396] inception_4c/relu_1x1 -> inception_4c/1x1 (in-place)
I1219 03:46:25.134105  9496 net.cpp:144] Setting up inception_4c/relu_1x1
I1219 03:46:25.134107  9496 net.cpp:151] Top shape: 1 128 30 60 (230400)
I1219 03:46:25.134109  9496 net.cpp:159] Memory required for data: 531590404
I1219 03:46:25.134111  9496 layer_factory.hpp:77] Creating layer inception_4c/3x3_reduce
I1219 03:46:25.134116  9496 net.cpp:94] Creating Layer inception_4c/3x3_reduce
I1219 03:46:25.134119  9496 net.cpp:435] inception_4c/3x3_reduce <- inception_4b/output_inception_4b/output_0_split_1
I1219 03:46:25.134122  9496 net.cpp:409] inception_4c/3x3_reduce -> inception_4c/3x3_reduce_raw
I1219 03:46:25.134605  9496 net.cpp:144] Setting up inception_4c/3x3_reduce
I1219 03:46:25.134609  9496 net.cpp:151] Top shape: 1 128 30 60 (230400)
I1219 03:46:25.134611  9496 net.cpp:159] Memory required for data: 532512004
I1219 03:46:25.134615  9496 layer_factory.hpp:77] Creating layer inception_4c/3x3_reduce_BatchNorm
I1219 03:46:25.134620  9496 net.cpp:94] Creating Layer inception_4c/3x3_reduce_BatchNorm
I1219 03:46:25.134622  9496 net.cpp:435] inception_4c/3x3_reduce_BatchNorm <- inception_4c/3x3_reduce_raw
I1219 03:46:25.134625  9496 net.cpp:409] inception_4c/3x3_reduce_BatchNorm -> inception_4c/3x3_reduce
I1219 03:46:25.134965  9496 net.cpp:144] Setting up inception_4c/3x3_reduce_BatchNorm
I1219 03:46:25.134969  9496 net.cpp:151] Top shape: 1 128 30 60 (230400)
I1219 03:46:25.134972  9496 net.cpp:159] Memory required for data: 533433604
I1219 03:46:25.134979  9496 layer_factory.hpp:77] Creating layer inception_4c/relu_3x3_reduce
I1219 03:46:25.134980  9496 net.cpp:94] Creating Layer inception_4c/relu_3x3_reduce
I1219 03:46:25.134984  9496 net.cpp:435] inception_4c/relu_3x3_reduce <- inception_4c/3x3_reduce
I1219 03:46:25.134986  9496 net.cpp:396] inception_4c/relu_3x3_reduce -> inception_4c/3x3_reduce (in-place)
I1219 03:46:25.134989  9496 net.cpp:144] Setting up inception_4c/relu_3x3_reduce
I1219 03:46:25.134991  9496 net.cpp:151] Top shape: 1 128 30 60 (230400)
I1219 03:46:25.134994  9496 net.cpp:159] Memory required for data: 534355204
I1219 03:46:25.134995  9496 layer_factory.hpp:77] Creating layer inception_4c/3x3
I1219 03:46:25.135001  9496 net.cpp:94] Creating Layer inception_4c/3x3
I1219 03:46:25.135004  9496 net.cpp:435] inception_4c/3x3 <- inception_4c/3x3_reduce
I1219 03:46:25.135006  9496 net.cpp:409] inception_4c/3x3 -> inception_4c/3x3_raw
I1219 03:46:25.137769  9496 net.cpp:144] Setting up inception_4c/3x3
I1219 03:46:25.137776  9496 net.cpp:151] Top shape: 1 256 30 60 (460800)
I1219 03:46:25.137779  9496 net.cpp:159] Memory required for data: 536198404
I1219 03:46:25.137784  9496 layer_factory.hpp:77] Creating layer inception_4c/3x3_BatchNorm
I1219 03:46:25.137789  9496 net.cpp:94] Creating Layer inception_4c/3x3_BatchNorm
I1219 03:46:25.137794  9496 net.cpp:435] inception_4c/3x3_BatchNorm <- inception_4c/3x3_raw
I1219 03:46:25.137797  9496 net.cpp:409] inception_4c/3x3_BatchNorm -> inception_4c/3x3
I1219 03:46:25.138149  9496 net.cpp:144] Setting up inception_4c/3x3_BatchNorm
I1219 03:46:25.138157  9496 net.cpp:151] Top shape: 1 256 30 60 (460800)
I1219 03:46:25.138160  9496 net.cpp:159] Memory required for data: 538041604
I1219 03:46:25.138165  9496 layer_factory.hpp:77] Creating layer inception_4c/relu_3x3
I1219 03:46:25.138168  9496 net.cpp:94] Creating Layer inception_4c/relu_3x3
I1219 03:46:25.138171  9496 net.cpp:435] inception_4c/relu_3x3 <- inception_4c/3x3
I1219 03:46:25.138173  9496 net.cpp:396] inception_4c/relu_3x3 -> inception_4c/3x3 (in-place)
I1219 03:46:25.138177  9496 net.cpp:144] Setting up inception_4c/relu_3x3
I1219 03:46:25.138180  9496 net.cpp:151] Top shape: 1 256 30 60 (460800)
I1219 03:46:25.138181  9496 net.cpp:159] Memory required for data: 539884804
I1219 03:46:25.138185  9496 layer_factory.hpp:77] Creating layer inception_4c/5x5_reduce
I1219 03:46:25.138195  9496 net.cpp:94] Creating Layer inception_4c/5x5_reduce
I1219 03:46:25.138200  9496 net.cpp:435] inception_4c/5x5_reduce <- inception_4b/output_inception_4b/output_0_split_2
I1219 03:46:25.138204  9496 net.cpp:409] inception_4c/5x5_reduce -> inception_4c/5x5_reduce_raw
I1219 03:46:25.138442  9496 net.cpp:144] Setting up inception_4c/5x5_reduce
I1219 03:46:25.138448  9496 net.cpp:151] Top shape: 1 24 30 60 (43200)
I1219 03:46:25.138451  9496 net.cpp:159] Memory required for data: 540057604
I1219 03:46:25.138455  9496 layer_factory.hpp:77] Creating layer inception_4c/5x5_reduce_BatchNorm
I1219 03:46:25.138460  9496 net.cpp:94] Creating Layer inception_4c/5x5_reduce_BatchNorm
I1219 03:46:25.138463  9496 net.cpp:435] inception_4c/5x5_reduce_BatchNorm <- inception_4c/5x5_reduce_raw
I1219 03:46:25.138466  9496 net.cpp:409] inception_4c/5x5_reduce_BatchNorm -> inception_4c/5x5_reduce
I1219 03:46:25.138880  9496 net.cpp:144] Setting up inception_4c/5x5_reduce_BatchNorm
I1219 03:46:25.138885  9496 net.cpp:151] Top shape: 1 24 30 60 (43200)
I1219 03:46:25.138887  9496 net.cpp:159] Memory required for data: 540230404
I1219 03:46:25.138893  9496 layer_factory.hpp:77] Creating layer inception_4c/relu_5x5_reduce
I1219 03:46:25.138896  9496 net.cpp:94] Creating Layer inception_4c/relu_5x5_reduce
I1219 03:46:25.138898  9496 net.cpp:435] inception_4c/relu_5x5_reduce <- inception_4c/5x5_reduce
I1219 03:46:25.138902  9496 net.cpp:396] inception_4c/relu_5x5_reduce -> inception_4c/5x5_reduce (in-place)
I1219 03:46:25.138907  9496 net.cpp:144] Setting up inception_4c/relu_5x5_reduce
I1219 03:46:25.138911  9496 net.cpp:151] Top shape: 1 24 30 60 (43200)
I1219 03:46:25.138914  9496 net.cpp:159] Memory required for data: 540403204
I1219 03:46:25.138917  9496 layer_factory.hpp:77] Creating layer inception_4c/5x5
I1219 03:46:25.138923  9496 net.cpp:94] Creating Layer inception_4c/5x5
I1219 03:46:25.138926  9496 net.cpp:435] inception_4c/5x5 <- inception_4c/5x5_reduce
I1219 03:46:25.138931  9496 net.cpp:409] inception_4c/5x5 -> inception_4c/5x5_raw
I1219 03:46:25.139344  9496 net.cpp:144] Setting up inception_4c/5x5
I1219 03:46:25.139350  9496 net.cpp:151] Top shape: 1 64 30 60 (115200)
I1219 03:46:25.139354  9496 net.cpp:159] Memory required for data: 540864004
I1219 03:46:25.139358  9496 layer_factory.hpp:77] Creating layer inception_4c/5x5_BatchNorm
I1219 03:46:25.139364  9496 net.cpp:94] Creating Layer inception_4c/5x5_BatchNorm
I1219 03:46:25.139366  9496 net.cpp:435] inception_4c/5x5_BatchNorm <- inception_4c/5x5_raw
I1219 03:46:25.139371  9496 net.cpp:409] inception_4c/5x5_BatchNorm -> inception_4c/5x5
I1219 03:46:25.139842  9496 net.cpp:144] Setting up inception_4c/5x5_BatchNorm
I1219 03:46:25.139848  9496 net.cpp:151] Top shape: 1 64 30 60 (115200)
I1219 03:46:25.139853  9496 net.cpp:159] Memory required for data: 541324804
I1219 03:46:25.139860  9496 layer_factory.hpp:77] Creating layer inception_4c/relu_5x5
I1219 03:46:25.139864  9496 net.cpp:94] Creating Layer inception_4c/relu_5x5
I1219 03:46:25.139868  9496 net.cpp:435] inception_4c/relu_5x5 <- inception_4c/5x5
I1219 03:46:25.139871  9496 net.cpp:396] inception_4c/relu_5x5 -> inception_4c/5x5 (in-place)
I1219 03:46:25.139876  9496 net.cpp:144] Setting up inception_4c/relu_5x5
I1219 03:46:25.139879  9496 net.cpp:151] Top shape: 1 64 30 60 (115200)
I1219 03:46:25.139883  9496 net.cpp:159] Memory required for data: 541785604
I1219 03:46:25.139885  9496 layer_factory.hpp:77] Creating layer inception_4c/pool
I1219 03:46:25.139889  9496 net.cpp:94] Creating Layer inception_4c/pool
I1219 03:46:25.139892  9496 net.cpp:435] inception_4c/pool <- inception_4b/output_inception_4b/output_0_split_3
I1219 03:46:25.139896  9496 net.cpp:409] inception_4c/pool -> inception_4c/pool
I1219 03:46:25.139921  9496 net.cpp:144] Setting up inception_4c/pool
I1219 03:46:25.139925  9496 net.cpp:151] Top shape: 1 512 30 60 (921600)
I1219 03:46:25.139927  9496 net.cpp:159] Memory required for data: 545472004
I1219 03:46:25.139930  9496 layer_factory.hpp:77] Creating layer inception_4c/pool_proj
I1219 03:46:25.139936  9496 net.cpp:94] Creating Layer inception_4c/pool_proj
I1219 03:46:25.139938  9496 net.cpp:435] inception_4c/pool_proj <- inception_4c/pool
I1219 03:46:25.139942  9496 net.cpp:409] inception_4c/pool_proj -> inception_4c/pool_proj_raw
I1219 03:46:25.140416  9496 net.cpp:144] Setting up inception_4c/pool_proj
I1219 03:46:25.140422  9496 net.cpp:151] Top shape: 1 64 30 60 (115200)
I1219 03:46:25.140426  9496 net.cpp:159] Memory required for data: 545932804
I1219 03:46:25.140431  9496 layer_factory.hpp:77] Creating layer inception_4c/pool_proj_BatchNorm
I1219 03:46:25.140439  9496 net.cpp:94] Creating Layer inception_4c/pool_proj_BatchNorm
I1219 03:46:25.140442  9496 net.cpp:435] inception_4c/pool_proj_BatchNorm <- inception_4c/pool_proj_raw
I1219 03:46:25.140447  9496 net.cpp:409] inception_4c/pool_proj_BatchNorm -> inception_4c/pool_proj
I1219 03:46:25.140964  9496 net.cpp:144] Setting up inception_4c/pool_proj_BatchNorm
I1219 03:46:25.140970  9496 net.cpp:151] Top shape: 1 64 30 60 (115200)
I1219 03:46:25.140974  9496 net.cpp:159] Memory required for data: 546393604
I1219 03:46:25.140983  9496 layer_factory.hpp:77] Creating layer inception_4c/relu_pool_proj
I1219 03:46:25.140992  9496 net.cpp:94] Creating Layer inception_4c/relu_pool_proj
I1219 03:46:25.140996  9496 net.cpp:435] inception_4c/relu_pool_proj <- inception_4c/pool_proj
I1219 03:46:25.141001  9496 net.cpp:396] inception_4c/relu_pool_proj -> inception_4c/pool_proj (in-place)
I1219 03:46:25.141010  9496 net.cpp:144] Setting up inception_4c/relu_pool_proj
I1219 03:46:25.141016  9496 net.cpp:151] Top shape: 1 64 30 60 (115200)
I1219 03:46:25.141021  9496 net.cpp:159] Memory required for data: 546854404
I1219 03:46:25.141024  9496 layer_factory.hpp:77] Creating layer inception_4c/output
I1219 03:46:25.141028  9496 net.cpp:94] Creating Layer inception_4c/output
I1219 03:46:25.141031  9496 net.cpp:435] inception_4c/output <- inception_4c/1x1
I1219 03:46:25.141034  9496 net.cpp:435] inception_4c/output <- inception_4c/3x3
I1219 03:46:25.141038  9496 net.cpp:435] inception_4c/output <- inception_4c/5x5
I1219 03:46:25.141041  9496 net.cpp:435] inception_4c/output <- inception_4c/pool_proj
I1219 03:46:25.141045  9496 net.cpp:409] inception_4c/output -> inception_4c/output
I1219 03:46:25.141067  9496 net.cpp:144] Setting up inception_4c/output
I1219 03:46:25.141070  9496 net.cpp:151] Top shape: 1 512 30 60 (921600)
I1219 03:46:25.141073  9496 net.cpp:159] Memory required for data: 550540804
I1219 03:46:25.141074  9496 layer_factory.hpp:77] Creating layer inception_4c/output_inception_4c/output_0_split
I1219 03:46:25.141079  9496 net.cpp:94] Creating Layer inception_4c/output_inception_4c/output_0_split
I1219 03:46:25.141083  9496 net.cpp:435] inception_4c/output_inception_4c/output_0_split <- inception_4c/output
I1219 03:46:25.141088  9496 net.cpp:409] inception_4c/output_inception_4c/output_0_split -> inception_4c/output_inception_4c/output_0_split_0
I1219 03:46:25.141093  9496 net.cpp:409] inception_4c/output_inception_4c/output_0_split -> inception_4c/output_inception_4c/output_0_split_1
I1219 03:46:25.141098  9496 net.cpp:409] inception_4c/output_inception_4c/output_0_split -> inception_4c/output_inception_4c/output_0_split_2
I1219 03:46:25.141103  9496 net.cpp:409] inception_4c/output_inception_4c/output_0_split -> inception_4c/output_inception_4c/output_0_split_3
I1219 03:46:25.141140  9496 net.cpp:144] Setting up inception_4c/output_inception_4c/output_0_split
I1219 03:46:25.141144  9496 net.cpp:151] Top shape: 1 512 30 60 (921600)
I1219 03:46:25.141147  9496 net.cpp:151] Top shape: 1 512 30 60 (921600)
I1219 03:46:25.141149  9496 net.cpp:151] Top shape: 1 512 30 60 (921600)
I1219 03:46:25.141153  9496 net.cpp:151] Top shape: 1 512 30 60 (921600)
I1219 03:46:25.141157  9496 net.cpp:159] Memory required for data: 565286404
I1219 03:46:25.141160  9496 layer_factory.hpp:77] Creating layer inception_4d/1x1
I1219 03:46:25.141166  9496 net.cpp:94] Creating Layer inception_4d/1x1
I1219 03:46:25.141170  9496 net.cpp:435] inception_4d/1x1 <- inception_4c/output_inception_4c/output_0_split_0
I1219 03:46:25.141175  9496 net.cpp:409] inception_4d/1x1 -> inception_4d/1x1_raw
I1219 03:46:25.141651  9496 net.cpp:144] Setting up inception_4d/1x1
I1219 03:46:25.141655  9496 net.cpp:151] Top shape: 1 112 30 60 (201600)
I1219 03:46:25.141659  9496 net.cpp:159] Memory required for data: 566092804
I1219 03:46:25.141662  9496 layer_factory.hpp:77] Creating layer inception_4d/1x1_BatchNorm
I1219 03:46:25.141667  9496 net.cpp:94] Creating Layer inception_4d/1x1_BatchNorm
I1219 03:46:25.141671  9496 net.cpp:435] inception_4d/1x1_BatchNorm <- inception_4d/1x1_raw
I1219 03:46:25.141675  9496 net.cpp:409] inception_4d/1x1_BatchNorm -> inception_4d/1x1
I1219 03:46:25.142084  9496 net.cpp:144] Setting up inception_4d/1x1_BatchNorm
I1219 03:46:25.142089  9496 net.cpp:151] Top shape: 1 112 30 60 (201600)
I1219 03:46:25.142092  9496 net.cpp:159] Memory required for data: 566899204
I1219 03:46:25.142098  9496 layer_factory.hpp:77] Creating layer inception_4d/relu_1x1
I1219 03:46:25.142102  9496 net.cpp:94] Creating Layer inception_4d/relu_1x1
I1219 03:46:25.142103  9496 net.cpp:435] inception_4d/relu_1x1 <- inception_4d/1x1
I1219 03:46:25.142107  9496 net.cpp:396] inception_4d/relu_1x1 -> inception_4d/1x1 (in-place)
I1219 03:46:25.142112  9496 net.cpp:144] Setting up inception_4d/relu_1x1
I1219 03:46:25.142113  9496 net.cpp:151] Top shape: 1 112 30 60 (201600)
I1219 03:46:25.142117  9496 net.cpp:159] Memory required for data: 567705604
I1219 03:46:25.142120  9496 layer_factory.hpp:77] Creating layer inception_4d/3x3_reduce
I1219 03:46:25.142127  9496 net.cpp:94] Creating Layer inception_4d/3x3_reduce
I1219 03:46:25.142129  9496 net.cpp:435] inception_4d/3x3_reduce <- inception_4c/output_inception_4c/output_0_split_1
I1219 03:46:25.142134  9496 net.cpp:409] inception_4d/3x3_reduce -> inception_4d/3x3_reduce_raw
I1219 03:46:25.142689  9496 net.cpp:144] Setting up inception_4d/3x3_reduce
I1219 03:46:25.142693  9496 net.cpp:151] Top shape: 1 144 30 60 (259200)
I1219 03:46:25.142697  9496 net.cpp:159] Memory required for data: 568742404
I1219 03:46:25.142701  9496 layer_factory.hpp:77] Creating layer inception_4d/3x3_reduce_BatchNorm
I1219 03:46:25.142705  9496 net.cpp:94] Creating Layer inception_4d/3x3_reduce_BatchNorm
I1219 03:46:25.142709  9496 net.cpp:435] inception_4d/3x3_reduce_BatchNorm <- inception_4d/3x3_reduce_raw
I1219 03:46:25.142712  9496 net.cpp:409] inception_4d/3x3_reduce_BatchNorm -> inception_4d/3x3_reduce
I1219 03:46:25.143182  9496 net.cpp:144] Setting up inception_4d/3x3_reduce_BatchNorm
I1219 03:46:25.143188  9496 net.cpp:151] Top shape: 1 144 30 60 (259200)
I1219 03:46:25.143193  9496 net.cpp:159] Memory required for data: 569779204
I1219 03:46:25.143200  9496 layer_factory.hpp:77] Creating layer inception_4d/relu_3x3_reduce
I1219 03:46:25.143206  9496 net.cpp:94] Creating Layer inception_4d/relu_3x3_reduce
I1219 03:46:25.143208  9496 net.cpp:435] inception_4d/relu_3x3_reduce <- inception_4d/3x3_reduce
I1219 03:46:25.143213  9496 net.cpp:396] inception_4d/relu_3x3_reduce -> inception_4d/3x3_reduce (in-place)
I1219 03:46:25.143218  9496 net.cpp:144] Setting up inception_4d/relu_3x3_reduce
I1219 03:46:25.143219  9496 net.cpp:151] Top shape: 1 144 30 60 (259200)
I1219 03:46:25.143222  9496 net.cpp:159] Memory required for data: 570816004
I1219 03:46:25.143224  9496 layer_factory.hpp:77] Creating layer inception_4d/3x3
I1219 03:46:25.143229  9496 net.cpp:94] Creating Layer inception_4d/3x3
I1219 03:46:25.143230  9496 net.cpp:435] inception_4d/3x3 <- inception_4d/3x3_reduce
I1219 03:46:25.143234  9496 net.cpp:409] inception_4d/3x3 -> inception_4d/3x3_raw
I1219 03:46:25.146556  9496 net.cpp:144] Setting up inception_4d/3x3
I1219 03:46:25.146562  9496 net.cpp:151] Top shape: 1 288 30 60 (518400)
I1219 03:46:25.146565  9496 net.cpp:159] Memory required for data: 572889604
I1219 03:46:25.146570  9496 layer_factory.hpp:77] Creating layer inception_4d/3x3_BatchNorm
I1219 03:46:25.146580  9496 net.cpp:94] Creating Layer inception_4d/3x3_BatchNorm
I1219 03:46:25.146582  9496 net.cpp:435] inception_4d/3x3_BatchNorm <- inception_4d/3x3_raw
I1219 03:46:25.146586  9496 net.cpp:409] inception_4d/3x3_BatchNorm -> inception_4d/3x3
I1219 03:46:25.146992  9496 net.cpp:144] Setting up inception_4d/3x3_BatchNorm
I1219 03:46:25.146996  9496 net.cpp:151] Top shape: 1 288 30 60 (518400)
I1219 03:46:25.146999  9496 net.cpp:159] Memory required for data: 574963204
I1219 03:46:25.147006  9496 layer_factory.hpp:77] Creating layer inception_4d/relu_3x3
I1219 03:46:25.147009  9496 net.cpp:94] Creating Layer inception_4d/relu_3x3
I1219 03:46:25.147011  9496 net.cpp:435] inception_4d/relu_3x3 <- inception_4d/3x3
I1219 03:46:25.147013  9496 net.cpp:396] inception_4d/relu_3x3 -> inception_4d/3x3 (in-place)
I1219 03:46:25.147018  9496 net.cpp:144] Setting up inception_4d/relu_3x3
I1219 03:46:25.147020  9496 net.cpp:151] Top shape: 1 288 30 60 (518400)
I1219 03:46:25.147022  9496 net.cpp:159] Memory required for data: 577036804
I1219 03:46:25.147024  9496 layer_factory.hpp:77] Creating layer inception_4d/5x5_reduce
I1219 03:46:25.147029  9496 net.cpp:94] Creating Layer inception_4d/5x5_reduce
I1219 03:46:25.147032  9496 net.cpp:435] inception_4d/5x5_reduce <- inception_4c/output_inception_4c/output_0_split_2
I1219 03:46:25.147035  9496 net.cpp:409] inception_4d/5x5_reduce -> inception_4d/5x5_reduce_raw
I1219 03:46:25.147276  9496 net.cpp:144] Setting up inception_4d/5x5_reduce
I1219 03:46:25.147280  9496 net.cpp:151] Top shape: 1 32 30 60 (57600)
I1219 03:46:25.147282  9496 net.cpp:159] Memory required for data: 577267204
I1219 03:46:25.147286  9496 layer_factory.hpp:77] Creating layer inception_4d/5x5_reduce_BatchNorm
I1219 03:46:25.147290  9496 net.cpp:94] Creating Layer inception_4d/5x5_reduce_BatchNorm
I1219 03:46:25.147292  9496 net.cpp:435] inception_4d/5x5_reduce_BatchNorm <- inception_4d/5x5_reduce_raw
I1219 03:46:25.147295  9496 net.cpp:409] inception_4d/5x5_reduce_BatchNorm -> inception_4d/5x5_reduce
I1219 03:46:25.147696  9496 net.cpp:144] Setting up inception_4d/5x5_reduce_BatchNorm
I1219 03:46:25.147701  9496 net.cpp:151] Top shape: 1 32 30 60 (57600)
I1219 03:46:25.147703  9496 net.cpp:159] Memory required for data: 577497604
I1219 03:46:25.147714  9496 layer_factory.hpp:77] Creating layer inception_4d/relu_5x5_reduce
I1219 03:46:25.147718  9496 net.cpp:94] Creating Layer inception_4d/relu_5x5_reduce
I1219 03:46:25.147720  9496 net.cpp:435] inception_4d/relu_5x5_reduce <- inception_4d/5x5_reduce
I1219 03:46:25.147723  9496 net.cpp:396] inception_4d/relu_5x5_reduce -> inception_4d/5x5_reduce (in-place)
I1219 03:46:25.147727  9496 net.cpp:144] Setting up inception_4d/relu_5x5_reduce
I1219 03:46:25.147728  9496 net.cpp:151] Top shape: 1 32 30 60 (57600)
I1219 03:46:25.147732  9496 net.cpp:159] Memory required for data: 577728004
I1219 03:46:25.147732  9496 layer_factory.hpp:77] Creating layer inception_4d/5x5
I1219 03:46:25.147737  9496 net.cpp:94] Creating Layer inception_4d/5x5
I1219 03:46:25.147739  9496 net.cpp:435] inception_4d/5x5 <- inception_4d/5x5_reduce
I1219 03:46:25.147742  9496 net.cpp:409] inception_4d/5x5 -> inception_4d/5x5_raw
I1219 03:46:25.148190  9496 net.cpp:144] Setting up inception_4d/5x5
I1219 03:46:25.148195  9496 net.cpp:151] Top shape: 1 64 30 60 (115200)
I1219 03:46:25.148198  9496 net.cpp:159] Memory required for data: 578188804
I1219 03:46:25.148201  9496 layer_factory.hpp:77] Creating layer inception_4d/5x5_BatchNorm
I1219 03:46:25.148206  9496 net.cpp:94] Creating Layer inception_4d/5x5_BatchNorm
I1219 03:46:25.148208  9496 net.cpp:435] inception_4d/5x5_BatchNorm <- inception_4d/5x5_raw
I1219 03:46:25.148211  9496 net.cpp:409] inception_4d/5x5_BatchNorm -> inception_4d/5x5
I1219 03:46:25.148607  9496 net.cpp:144] Setting up inception_4d/5x5_BatchNorm
I1219 03:46:25.148610  9496 net.cpp:151] Top shape: 1 64 30 60 (115200)
I1219 03:46:25.148613  9496 net.cpp:159] Memory required for data: 578649604
I1219 03:46:25.148619  9496 layer_factory.hpp:77] Creating layer inception_4d/relu_5x5
I1219 03:46:25.148622  9496 net.cpp:94] Creating Layer inception_4d/relu_5x5
I1219 03:46:25.148624  9496 net.cpp:435] inception_4d/relu_5x5 <- inception_4d/5x5
I1219 03:46:25.148627  9496 net.cpp:396] inception_4d/relu_5x5 -> inception_4d/5x5 (in-place)
I1219 03:46:25.148630  9496 net.cpp:144] Setting up inception_4d/relu_5x5
I1219 03:46:25.148633  9496 net.cpp:151] Top shape: 1 64 30 60 (115200)
I1219 03:46:25.148634  9496 net.cpp:159] Memory required for data: 579110404
I1219 03:46:25.148636  9496 layer_factory.hpp:77] Creating layer inception_4d/pool
I1219 03:46:25.148640  9496 net.cpp:94] Creating Layer inception_4d/pool
I1219 03:46:25.148643  9496 net.cpp:435] inception_4d/pool <- inception_4c/output_inception_4c/output_0_split_3
I1219 03:46:25.148645  9496 net.cpp:409] inception_4d/pool -> inception_4d/pool
I1219 03:46:25.148664  9496 net.cpp:144] Setting up inception_4d/pool
I1219 03:46:25.148666  9496 net.cpp:151] Top shape: 1 512 30 60 (921600)
I1219 03:46:25.148669  9496 net.cpp:159] Memory required for data: 582796804
I1219 03:46:25.148671  9496 layer_factory.hpp:77] Creating layer inception_4d/pool_proj
I1219 03:46:25.148675  9496 net.cpp:94] Creating Layer inception_4d/pool_proj
I1219 03:46:25.148677  9496 net.cpp:435] inception_4d/pool_proj <- inception_4d/pool
I1219 03:46:25.148680  9496 net.cpp:409] inception_4d/pool_proj -> inception_4d/pool_proj_raw
I1219 03:46:25.149055  9496 net.cpp:144] Setting up inception_4d/pool_proj
I1219 03:46:25.149057  9496 net.cpp:151] Top shape: 1 64 30 60 (115200)
I1219 03:46:25.149060  9496 net.cpp:159] Memory required for data: 583257604
I1219 03:46:25.149063  9496 layer_factory.hpp:77] Creating layer inception_4d/pool_proj_BatchNorm
I1219 03:46:25.149068  9496 net.cpp:94] Creating Layer inception_4d/pool_proj_BatchNorm
I1219 03:46:25.149071  9496 net.cpp:435] inception_4d/pool_proj_BatchNorm <- inception_4d/pool_proj_raw
I1219 03:46:25.149075  9496 net.cpp:409] inception_4d/pool_proj_BatchNorm -> inception_4d/pool_proj
I1219 03:46:25.149464  9496 net.cpp:144] Setting up inception_4d/pool_proj_BatchNorm
I1219 03:46:25.149467  9496 net.cpp:151] Top shape: 1 64 30 60 (115200)
I1219 03:46:25.149471  9496 net.cpp:159] Memory required for data: 583718404
I1219 03:46:25.149477  9496 layer_factory.hpp:77] Creating layer inception_4d/relu_pool_proj
I1219 03:46:25.149479  9496 net.cpp:94] Creating Layer inception_4d/relu_pool_proj
I1219 03:46:25.149482  9496 net.cpp:435] inception_4d/relu_pool_proj <- inception_4d/pool_proj
I1219 03:46:25.149484  9496 net.cpp:396] inception_4d/relu_pool_proj -> inception_4d/pool_proj (in-place)
I1219 03:46:25.149488  9496 net.cpp:144] Setting up inception_4d/relu_pool_proj
I1219 03:46:25.149489  9496 net.cpp:151] Top shape: 1 64 30 60 (115200)
I1219 03:46:25.149492  9496 net.cpp:159] Memory required for data: 584179204
I1219 03:46:25.149494  9496 layer_factory.hpp:77] Creating layer inception_4d/output
I1219 03:46:25.149497  9496 net.cpp:94] Creating Layer inception_4d/output
I1219 03:46:25.149498  9496 net.cpp:435] inception_4d/output <- inception_4d/1x1
I1219 03:46:25.149502  9496 net.cpp:435] inception_4d/output <- inception_4d/3x3
I1219 03:46:25.149503  9496 net.cpp:435] inception_4d/output <- inception_4d/5x5
I1219 03:46:25.149505  9496 net.cpp:435] inception_4d/output <- inception_4d/pool_proj
I1219 03:46:25.149507  9496 net.cpp:409] inception_4d/output -> inception_4d/output
I1219 03:46:25.149520  9496 net.cpp:144] Setting up inception_4d/output
I1219 03:46:25.149523  9496 net.cpp:151] Top shape: 1 528 30 60 (950400)
I1219 03:46:25.149524  9496 net.cpp:159] Memory required for data: 587980804
I1219 03:46:25.149526  9496 layer_factory.hpp:77] Creating layer inception_4d/output_inception_4d/output_0_split
I1219 03:46:25.149530  9496 net.cpp:94] Creating Layer inception_4d/output_inception_4d/output_0_split
I1219 03:46:25.149533  9496 net.cpp:435] inception_4d/output_inception_4d/output_0_split <- inception_4d/output
I1219 03:46:25.149534  9496 net.cpp:409] inception_4d/output_inception_4d/output_0_split -> inception_4d/output_inception_4d/output_0_split_0
I1219 03:46:25.149538  9496 net.cpp:409] inception_4d/output_inception_4d/output_0_split -> inception_4d/output_inception_4d/output_0_split_1
I1219 03:46:25.149541  9496 net.cpp:409] inception_4d/output_inception_4d/output_0_split -> inception_4d/output_inception_4d/output_0_split_2
I1219 03:46:25.149544  9496 net.cpp:409] inception_4d/output_inception_4d/output_0_split -> inception_4d/output_inception_4d/output_0_split_3
I1219 03:46:25.149574  9496 net.cpp:144] Setting up inception_4d/output_inception_4d/output_0_split
I1219 03:46:25.149576  9496 net.cpp:151] Top shape: 1 528 30 60 (950400)
I1219 03:46:25.149578  9496 net.cpp:151] Top shape: 1 528 30 60 (950400)
I1219 03:46:25.149581  9496 net.cpp:151] Top shape: 1 528 30 60 (950400)
I1219 03:46:25.149583  9496 net.cpp:151] Top shape: 1 528 30 60 (950400)
I1219 03:46:25.149585  9496 net.cpp:159] Memory required for data: 603187204
I1219 03:46:25.149587  9496 layer_factory.hpp:77] Creating layer inception_4e/1x1
I1219 03:46:25.149592  9496 net.cpp:94] Creating Layer inception_4e/1x1
I1219 03:46:25.149595  9496 net.cpp:435] inception_4e/1x1 <- inception_4d/output_inception_4d/output_0_split_0
I1219 03:46:25.149596  9496 net.cpp:409] inception_4e/1x1 -> inception_4e/1x1_raw
I1219 03:46:25.151027  9496 net.cpp:144] Setting up inception_4e/1x1
I1219 03:46:25.151033  9496 net.cpp:151] Top shape: 1 256 30 60 (460800)
I1219 03:46:25.151037  9496 net.cpp:159] Memory required for data: 605030404
I1219 03:46:25.151041  9496 layer_factory.hpp:77] Creating layer inception_4e/1x1_BatchNorm
I1219 03:46:25.151046  9496 net.cpp:94] Creating Layer inception_4e/1x1_BatchNorm
I1219 03:46:25.151048  9496 net.cpp:435] inception_4e/1x1_BatchNorm <- inception_4e/1x1_raw
I1219 03:46:25.151051  9496 net.cpp:409] inception_4e/1x1_BatchNorm -> inception_4e/1x1
I1219 03:46:25.151392  9496 net.cpp:144] Setting up inception_4e/1x1_BatchNorm
I1219 03:46:25.151396  9496 net.cpp:151] Top shape: 1 256 30 60 (460800)
I1219 03:46:25.151398  9496 net.cpp:159] Memory required for data: 606873604
I1219 03:46:25.151405  9496 layer_factory.hpp:77] Creating layer inception_4e/relu_1x1
I1219 03:46:25.151408  9496 net.cpp:94] Creating Layer inception_4e/relu_1x1
I1219 03:46:25.151410  9496 net.cpp:435] inception_4e/relu_1x1 <- inception_4e/1x1
I1219 03:46:25.151412  9496 net.cpp:396] inception_4e/relu_1x1 -> inception_4e/1x1 (in-place)
I1219 03:46:25.151417  9496 net.cpp:144] Setting up inception_4e/relu_1x1
I1219 03:46:25.151418  9496 net.cpp:151] Top shape: 1 256 30 60 (460800)
I1219 03:46:25.151420  9496 net.cpp:159] Memory required for data: 608716804
I1219 03:46:25.151422  9496 layer_factory.hpp:77] Creating layer inception_4e/3x3_reduce
I1219 03:46:25.151427  9496 net.cpp:94] Creating Layer inception_4e/3x3_reduce
I1219 03:46:25.151428  9496 net.cpp:435] inception_4e/3x3_reduce <- inception_4d/output_inception_4d/output_0_split_1
I1219 03:46:25.151432  9496 net.cpp:409] inception_4e/3x3_reduce -> inception_4e/3x3_reduce_raw
I1219 03:46:25.152001  9496 net.cpp:144] Setting up inception_4e/3x3_reduce
I1219 03:46:25.152005  9496 net.cpp:151] Top shape: 1 160 30 60 (288000)
I1219 03:46:25.152007  9496 net.cpp:159] Memory required for data: 609868804
I1219 03:46:25.152011  9496 layer_factory.hpp:77] Creating layer inception_4e/3x3_reduce_BatchNorm
I1219 03:46:25.152015  9496 net.cpp:94] Creating Layer inception_4e/3x3_reduce_BatchNorm
I1219 03:46:25.152017  9496 net.cpp:435] inception_4e/3x3_reduce_BatchNorm <- inception_4e/3x3_reduce_raw
I1219 03:46:25.152020  9496 net.cpp:409] inception_4e/3x3_reduce_BatchNorm -> inception_4e/3x3_reduce
I1219 03:46:25.152403  9496 net.cpp:144] Setting up inception_4e/3x3_reduce_BatchNorm
I1219 03:46:25.152407  9496 net.cpp:151] Top shape: 1 160 30 60 (288000)
I1219 03:46:25.152410  9496 net.cpp:159] Memory required for data: 611020804
I1219 03:46:25.152415  9496 layer_factory.hpp:77] Creating layer inception_4e/relu_3x3_reduce
I1219 03:46:25.152418  9496 net.cpp:94] Creating Layer inception_4e/relu_3x3_reduce
I1219 03:46:25.152420  9496 net.cpp:435] inception_4e/relu_3x3_reduce <- inception_4e/3x3_reduce
I1219 03:46:25.152423  9496 net.cpp:396] inception_4e/relu_3x3_reduce -> inception_4e/3x3_reduce (in-place)
I1219 03:46:25.152426  9496 net.cpp:144] Setting up inception_4e/relu_3x3_reduce
I1219 03:46:25.152428  9496 net.cpp:151] Top shape: 1 160 30 60 (288000)
I1219 03:46:25.152431  9496 net.cpp:159] Memory required for data: 612172804
I1219 03:46:25.152432  9496 layer_factory.hpp:77] Creating layer inception_4e/3x3
I1219 03:46:25.152436  9496 net.cpp:94] Creating Layer inception_4e/3x3
I1219 03:46:25.152438  9496 net.cpp:435] inception_4e/3x3 <- inception_4e/3x3_reduce
I1219 03:46:25.152441  9496 net.cpp:409] inception_4e/3x3 -> inception_4e/3x3_raw
I1219 03:46:25.157083  9496 net.cpp:144] Setting up inception_4e/3x3
I1219 03:46:25.157097  9496 net.cpp:151] Top shape: 1 320 30 60 (576000)
I1219 03:46:25.157104  9496 net.cpp:159] Memory required for data: 614476804
I1219 03:46:25.157112  9496 layer_factory.hpp:77] Creating layer inception_4e/3x3_BatchNorm
I1219 03:46:25.157122  9496 net.cpp:94] Creating Layer inception_4e/3x3_BatchNorm
I1219 03:46:25.157127  9496 net.cpp:435] inception_4e/3x3_BatchNorm <- inception_4e/3x3_raw
I1219 03:46:25.157132  9496 net.cpp:409] inception_4e/3x3_BatchNorm -> inception_4e/3x3
I1219 03:46:25.157563  9496 net.cpp:144] Setting up inception_4e/3x3_BatchNorm
I1219 03:46:25.157569  9496 net.cpp:151] Top shape: 1 320 30 60 (576000)
I1219 03:46:25.157573  9496 net.cpp:159] Memory required for data: 616780804
I1219 03:46:25.157579  9496 layer_factory.hpp:77] Creating layer inception_4e/relu_3x3
I1219 03:46:25.157584  9496 net.cpp:94] Creating Layer inception_4e/relu_3x3
I1219 03:46:25.157588  9496 net.cpp:435] inception_4e/relu_3x3 <- inception_4e/3x3
I1219 03:46:25.157590  9496 net.cpp:396] inception_4e/relu_3x3 -> inception_4e/3x3 (in-place)
I1219 03:46:25.157596  9496 net.cpp:144] Setting up inception_4e/relu_3x3
I1219 03:46:25.157598  9496 net.cpp:151] Top shape: 1 320 30 60 (576000)
I1219 03:46:25.157600  9496 net.cpp:159] Memory required for data: 619084804
I1219 03:46:25.157603  9496 layer_factory.hpp:77] Creating layer inception_4e/5x5_reduce
I1219 03:46:25.157608  9496 net.cpp:94] Creating Layer inception_4e/5x5_reduce
I1219 03:46:25.157611  9496 net.cpp:435] inception_4e/5x5_reduce <- inception_4d/output_inception_4d/output_0_split_2
I1219 03:46:25.157614  9496 net.cpp:409] inception_4e/5x5_reduce -> inception_4e/5x5_reduce_raw
I1219 03:46:25.157886  9496 net.cpp:144] Setting up inception_4e/5x5_reduce
I1219 03:46:25.157889  9496 net.cpp:151] Top shape: 1 32 30 60 (57600)
I1219 03:46:25.157893  9496 net.cpp:159] Memory required for data: 619315204
I1219 03:46:25.157896  9496 layer_factory.hpp:77] Creating layer inception_4e/5x5_reduce_BatchNorm
I1219 03:46:25.157900  9496 net.cpp:94] Creating Layer inception_4e/5x5_reduce_BatchNorm
I1219 03:46:25.157903  9496 net.cpp:435] inception_4e/5x5_reduce_BatchNorm <- inception_4e/5x5_reduce_raw
I1219 03:46:25.157907  9496 net.cpp:409] inception_4e/5x5_reduce_BatchNorm -> inception_4e/5x5_reduce
I1219 03:46:25.158334  9496 net.cpp:144] Setting up inception_4e/5x5_reduce_BatchNorm
I1219 03:46:25.158337  9496 net.cpp:151] Top shape: 1 32 30 60 (57600)
I1219 03:46:25.158341  9496 net.cpp:159] Memory required for data: 619545604
I1219 03:46:25.158346  9496 layer_factory.hpp:77] Creating layer inception_4e/relu_5x5_reduce
I1219 03:46:25.158349  9496 net.cpp:94] Creating Layer inception_4e/relu_5x5_reduce
I1219 03:46:25.158351  9496 net.cpp:435] inception_4e/relu_5x5_reduce <- inception_4e/5x5_reduce
I1219 03:46:25.158354  9496 net.cpp:396] inception_4e/relu_5x5_reduce -> inception_4e/5x5_reduce (in-place)
I1219 03:46:25.158358  9496 net.cpp:144] Setting up inception_4e/relu_5x5_reduce
I1219 03:46:25.158360  9496 net.cpp:151] Top shape: 1 32 30 60 (57600)
I1219 03:46:25.158362  9496 net.cpp:159] Memory required for data: 619776004
I1219 03:46:25.158363  9496 layer_factory.hpp:77] Creating layer inception_4e/5x5
I1219 03:46:25.158368  9496 net.cpp:94] Creating Layer inception_4e/5x5
I1219 03:46:25.158370  9496 net.cpp:435] inception_4e/5x5 <- inception_4e/5x5_reduce
I1219 03:46:25.158373  9496 net.cpp:409] inception_4e/5x5 -> inception_4e/5x5_raw
I1219 03:46:25.159109  9496 net.cpp:144] Setting up inception_4e/5x5
I1219 03:46:25.159114  9496 net.cpp:151] Top shape: 1 128 30 60 (230400)
I1219 03:46:25.159118  9496 net.cpp:159] Memory required for data: 620697604
I1219 03:46:25.159122  9496 layer_factory.hpp:77] Creating layer inception_4e/5x5_BatchNorm
I1219 03:46:25.159126  9496 net.cpp:94] Creating Layer inception_4e/5x5_BatchNorm
I1219 03:46:25.159128  9496 net.cpp:435] inception_4e/5x5_BatchNorm <- inception_4e/5x5_raw
I1219 03:46:25.159132  9496 net.cpp:409] inception_4e/5x5_BatchNorm -> inception_4e/5x5
I1219 03:46:25.159467  9496 net.cpp:144] Setting up inception_4e/5x5_BatchNorm
I1219 03:46:25.159471  9496 net.cpp:151] Top shape: 1 128 30 60 (230400)
I1219 03:46:25.159474  9496 net.cpp:159] Memory required for data: 621619204
I1219 03:46:25.159479  9496 layer_factory.hpp:77] Creating layer inception_4e/relu_5x5
I1219 03:46:25.159482  9496 net.cpp:94] Creating Layer inception_4e/relu_5x5
I1219 03:46:25.159484  9496 net.cpp:435] inception_4e/relu_5x5 <- inception_4e/5x5
I1219 03:46:25.159487  9496 net.cpp:396] inception_4e/relu_5x5 -> inception_4e/5x5 (in-place)
I1219 03:46:25.159490  9496 net.cpp:144] Setting up inception_4e/relu_5x5
I1219 03:46:25.159492  9496 net.cpp:151] Top shape: 1 128 30 60 (230400)
I1219 03:46:25.159494  9496 net.cpp:159] Memory required for data: 622540804
I1219 03:46:25.159497  9496 layer_factory.hpp:77] Creating layer inception_4e/pool
I1219 03:46:25.159500  9496 net.cpp:94] Creating Layer inception_4e/pool
I1219 03:46:25.159502  9496 net.cpp:435] inception_4e/pool <- inception_4d/output_inception_4d/output_0_split_3
I1219 03:46:25.159505  9496 net.cpp:409] inception_4e/pool -> inception_4e/pool
I1219 03:46:25.159525  9496 net.cpp:144] Setting up inception_4e/pool
I1219 03:46:25.159528  9496 net.cpp:151] Top shape: 1 528 30 60 (950400)
I1219 03:46:25.159530  9496 net.cpp:159] Memory required for data: 626342404
I1219 03:46:25.159533  9496 layer_factory.hpp:77] Creating layer inception_4e/pool_proj
I1219 03:46:25.159538  9496 net.cpp:94] Creating Layer inception_4e/pool_proj
I1219 03:46:25.159539  9496 net.cpp:435] inception_4e/pool_proj <- inception_4e/pool
I1219 03:46:25.159543  9496 net.cpp:409] inception_4e/pool_proj -> inception_4e/pool_proj_raw
I1219 03:46:25.160607  9496 net.cpp:144] Setting up inception_4e/pool_proj
I1219 03:46:25.160614  9496 net.cpp:151] Top shape: 1 128 30 60 (230400)
I1219 03:46:25.160616  9496 net.cpp:159] Memory required for data: 627264004
I1219 03:46:25.160620  9496 layer_factory.hpp:77] Creating layer inception_4e/pool_proj_BatchNorm
I1219 03:46:25.160625  9496 net.cpp:94] Creating Layer inception_4e/pool_proj_BatchNorm
I1219 03:46:25.160627  9496 net.cpp:435] inception_4e/pool_proj_BatchNorm <- inception_4e/pool_proj_raw
I1219 03:46:25.160630  9496 net.cpp:409] inception_4e/pool_proj_BatchNorm -> inception_4e/pool_proj
I1219 03:46:25.160967  9496 net.cpp:144] Setting up inception_4e/pool_proj_BatchNorm
I1219 03:46:25.160971  9496 net.cpp:151] Top shape: 1 128 30 60 (230400)
I1219 03:46:25.160974  9496 net.cpp:159] Memory required for data: 628185604
I1219 03:46:25.160980  9496 layer_factory.hpp:77] Creating layer inception_4e/relu_pool_proj
I1219 03:46:25.160984  9496 net.cpp:94] Creating Layer inception_4e/relu_pool_proj
I1219 03:46:25.160985  9496 net.cpp:435] inception_4e/relu_pool_proj <- inception_4e/pool_proj
I1219 03:46:25.160987  9496 net.cpp:396] inception_4e/relu_pool_proj -> inception_4e/pool_proj (in-place)
I1219 03:46:25.160991  9496 net.cpp:144] Setting up inception_4e/relu_pool_proj
I1219 03:46:25.160993  9496 net.cpp:151] Top shape: 1 128 30 60 (230400)
I1219 03:46:25.160995  9496 net.cpp:159] Memory required for data: 629107204
I1219 03:46:25.160997  9496 layer_factory.hpp:77] Creating layer inception_4e/output
I1219 03:46:25.161000  9496 net.cpp:94] Creating Layer inception_4e/output
I1219 03:46:25.161002  9496 net.cpp:435] inception_4e/output <- inception_4e/1x1
I1219 03:46:25.161005  9496 net.cpp:435] inception_4e/output <- inception_4e/3x3
I1219 03:46:25.161006  9496 net.cpp:435] inception_4e/output <- inception_4e/5x5
I1219 03:46:25.161008  9496 net.cpp:435] inception_4e/output <- inception_4e/pool_proj
I1219 03:46:25.161011  9496 net.cpp:409] inception_4e/output -> inception_4e/output
I1219 03:46:25.161023  9496 net.cpp:144] Setting up inception_4e/output
I1219 03:46:25.161026  9496 net.cpp:151] Top shape: 1 832 30 60 (1497600)
I1219 03:46:25.161028  9496 net.cpp:159] Memory required for data: 635097604
I1219 03:46:25.161031  9496 layer_factory.hpp:77] Creating layer inception_4e/output_inception_4e/output_0_split
I1219 03:46:25.161033  9496 net.cpp:94] Creating Layer inception_4e/output_inception_4e/output_0_split
I1219 03:46:25.161036  9496 net.cpp:435] inception_4e/output_inception_4e/output_0_split <- inception_4e/output
I1219 03:46:25.161038  9496 net.cpp:409] inception_4e/output_inception_4e/output_0_split -> inception_4e/output_inception_4e/output_0_split_0
I1219 03:46:25.161041  9496 net.cpp:409] inception_4e/output_inception_4e/output_0_split -> inception_4e/output_inception_4e/output_0_split_1
I1219 03:46:25.161058  9496 net.cpp:144] Setting up inception_4e/output_inception_4e/output_0_split
I1219 03:46:25.161062  9496 net.cpp:151] Top shape: 1 832 30 60 (1497600)
I1219 03:46:25.161063  9496 net.cpp:151] Top shape: 1 832 30 60 (1497600)
I1219 03:46:25.161067  9496 net.cpp:159] Memory required for data: 647078404
I1219 03:46:25.161068  9496 layer_factory.hpp:77] Creating layer pool4/3x3_s2
I1219 03:46:25.161072  9496 net.cpp:94] Creating Layer pool4/3x3_s2
I1219 03:46:25.161074  9496 net.cpp:435] pool4/3x3_s2 <- inception_4e/output_inception_4e/output_0_split_0
I1219 03:46:25.161077  9496 net.cpp:409] pool4/3x3_s2 -> pool4/3x3_s2
I1219 03:46:25.161094  9496 net.cpp:144] Setting up pool4/3x3_s2
I1219 03:46:25.161098  9496 net.cpp:151] Top shape: 1 832 15 30 (374400)
I1219 03:46:25.161101  9496 net.cpp:159] Memory required for data: 648576004
I1219 03:46:25.161103  9496 layer_factory.hpp:77] Creating layer pool4/3x3_s2_pool4/3x3_s2_0_split
I1219 03:46:25.161106  9496 net.cpp:94] Creating Layer pool4/3x3_s2_pool4/3x3_s2_0_split
I1219 03:46:25.161108  9496 net.cpp:435] pool4/3x3_s2_pool4/3x3_s2_0_split <- pool4/3x3_s2
I1219 03:46:25.161111  9496 net.cpp:409] pool4/3x3_s2_pool4/3x3_s2_0_split -> pool4/3x3_s2_pool4/3x3_s2_0_split_0
I1219 03:46:25.161116  9496 net.cpp:409] pool4/3x3_s2_pool4/3x3_s2_0_split -> pool4/3x3_s2_pool4/3x3_s2_0_split_1
I1219 03:46:25.161120  9496 net.cpp:409] pool4/3x3_s2_pool4/3x3_s2_0_split -> pool4/3x3_s2_pool4/3x3_s2_0_split_2
I1219 03:46:25.161124  9496 net.cpp:409] pool4/3x3_s2_pool4/3x3_s2_0_split -> pool4/3x3_s2_pool4/3x3_s2_0_split_3
I1219 03:46:25.161154  9496 net.cpp:144] Setting up pool4/3x3_s2_pool4/3x3_s2_0_split
I1219 03:46:25.161156  9496 net.cpp:151] Top shape: 1 832 15 30 (374400)
I1219 03:46:25.161159  9496 net.cpp:151] Top shape: 1 832 15 30 (374400)
I1219 03:46:25.161161  9496 net.cpp:151] Top shape: 1 832 15 30 (374400)
I1219 03:46:25.161164  9496 net.cpp:151] Top shape: 1 832 15 30 (374400)
I1219 03:46:25.161166  9496 net.cpp:159] Memory required for data: 654566404
I1219 03:46:25.161168  9496 layer_factory.hpp:77] Creating layer inception_5a/1x1
I1219 03:46:25.161172  9496 net.cpp:94] Creating Layer inception_5a/1x1
I1219 03:46:25.161175  9496 net.cpp:435] inception_5a/1x1 <- pool4/3x3_s2_pool4/3x3_s2_0_split_0
I1219 03:46:25.161178  9496 net.cpp:409] inception_5a/1x1 -> inception_5a/1x1_raw
I1219 03:46:25.162978  9496 net.cpp:144] Setting up inception_5a/1x1
I1219 03:46:25.162986  9496 net.cpp:151] Top shape: 1 256 15 30 (115200)
I1219 03:46:25.162988  9496 net.cpp:159] Memory required for data: 655027204
I1219 03:46:25.162993  9496 layer_factory.hpp:77] Creating layer inception_5a/1x1_BatchNorm
I1219 03:46:25.162998  9496 net.cpp:94] Creating Layer inception_5a/1x1_BatchNorm
I1219 03:46:25.163000  9496 net.cpp:435] inception_5a/1x1_BatchNorm <- inception_5a/1x1_raw
I1219 03:46:25.163004  9496 net.cpp:409] inception_5a/1x1_BatchNorm -> inception_5a/1x1
I1219 03:46:25.163359  9496 net.cpp:144] Setting up inception_5a/1x1_BatchNorm
I1219 03:46:25.163363  9496 net.cpp:151] Top shape: 1 256 15 30 (115200)
I1219 03:46:25.163367  9496 net.cpp:159] Memory required for data: 655488004
I1219 03:46:25.163372  9496 layer_factory.hpp:77] Creating layer inception_5a/relu_1x1
I1219 03:46:25.163374  9496 net.cpp:94] Creating Layer inception_5a/relu_1x1
I1219 03:46:25.163376  9496 net.cpp:435] inception_5a/relu_1x1 <- inception_5a/1x1
I1219 03:46:25.163379  9496 net.cpp:396] inception_5a/relu_1x1 -> inception_5a/1x1 (in-place)
I1219 03:46:25.163383  9496 net.cpp:144] Setting up inception_5a/relu_1x1
I1219 03:46:25.163385  9496 net.cpp:151] Top shape: 1 256 15 30 (115200)
I1219 03:46:25.163388  9496 net.cpp:159] Memory required for data: 655948804
I1219 03:46:25.163389  9496 layer_factory.hpp:77] Creating layer inception_5a/3x3_reduce
I1219 03:46:25.163393  9496 net.cpp:94] Creating Layer inception_5a/3x3_reduce
I1219 03:46:25.163395  9496 net.cpp:435] inception_5a/3x3_reduce <- pool4/3x3_s2_pool4/3x3_s2_0_split_1
I1219 03:46:25.163398  9496 net.cpp:409] inception_5a/3x3_reduce -> inception_5a/3x3_reduce_raw
I1219 03:46:25.164232  9496 net.cpp:144] Setting up inception_5a/3x3_reduce
I1219 03:46:25.164235  9496 net.cpp:151] Top shape: 1 160 15 30 (72000)
I1219 03:46:25.164238  9496 net.cpp:159] Memory required for data: 656236804
I1219 03:46:25.164242  9496 layer_factory.hpp:77] Creating layer inception_5a/3x3_reduce_BatchNorm
I1219 03:46:25.164247  9496 net.cpp:94] Creating Layer inception_5a/3x3_reduce_BatchNorm
I1219 03:46:25.164248  9496 net.cpp:435] inception_5a/3x3_reduce_BatchNorm <- inception_5a/3x3_reduce_raw
I1219 03:46:25.164252  9496 net.cpp:409] inception_5a/3x3_reduce_BatchNorm -> inception_5a/3x3_reduce
I1219 03:46:25.164630  9496 net.cpp:144] Setting up inception_5a/3x3_reduce_BatchNorm
I1219 03:46:25.164634  9496 net.cpp:151] Top shape: 1 160 15 30 (72000)
I1219 03:46:25.164638  9496 net.cpp:159] Memory required for data: 656524804
I1219 03:46:25.164642  9496 layer_factory.hpp:77] Creating layer inception_5a/relu_3x3_reduce
I1219 03:46:25.164645  9496 net.cpp:94] Creating Layer inception_5a/relu_3x3_reduce
I1219 03:46:25.164647  9496 net.cpp:435] inception_5a/relu_3x3_reduce <- inception_5a/3x3_reduce
I1219 03:46:25.164650  9496 net.cpp:396] inception_5a/relu_3x3_reduce -> inception_5a/3x3_reduce (in-place)
I1219 03:46:25.164654  9496 net.cpp:144] Setting up inception_5a/relu_3x3_reduce
I1219 03:46:25.164655  9496 net.cpp:151] Top shape: 1 160 15 30 (72000)
I1219 03:46:25.164657  9496 net.cpp:159] Memory required for data: 656812804
I1219 03:46:25.164659  9496 layer_factory.hpp:77] Creating layer inception_5a/3x3
I1219 03:46:25.164664  9496 net.cpp:94] Creating Layer inception_5a/3x3
I1219 03:46:25.164665  9496 net.cpp:435] inception_5a/3x3 <- inception_5a/3x3_reduce
I1219 03:46:25.164669  9496 net.cpp:409] inception_5a/3x3 -> inception_5a/3x3_raw
I1219 03:46:25.168238  9496 net.cpp:144] Setting up inception_5a/3x3
I1219 03:46:25.168246  9496 net.cpp:151] Top shape: 1 320 15 30 (144000)
I1219 03:46:25.168251  9496 net.cpp:159] Memory required for data: 657388804
I1219 03:46:25.168257  9496 layer_factory.hpp:77] Creating layer inception_5a/3x3_BatchNorm
I1219 03:46:25.168263  9496 net.cpp:94] Creating Layer inception_5a/3x3_BatchNorm
I1219 03:46:25.168267  9496 net.cpp:435] inception_5a/3x3_BatchNorm <- inception_5a/3x3_raw
I1219 03:46:25.168270  9496 net.cpp:409] inception_5a/3x3_BatchNorm -> inception_5a/3x3
I1219 03:46:25.168676  9496 net.cpp:144] Setting up inception_5a/3x3_BatchNorm
I1219 03:46:25.168680  9496 net.cpp:151] Top shape: 1 320 15 30 (144000)
I1219 03:46:25.168684  9496 net.cpp:159] Memory required for data: 657964804
I1219 03:46:25.168689  9496 layer_factory.hpp:77] Creating layer inception_5a/relu_3x3
I1219 03:46:25.168691  9496 net.cpp:94] Creating Layer inception_5a/relu_3x3
I1219 03:46:25.168694  9496 net.cpp:435] inception_5a/relu_3x3 <- inception_5a/3x3
I1219 03:46:25.168696  9496 net.cpp:396] inception_5a/relu_3x3 -> inception_5a/3x3 (in-place)
I1219 03:46:25.168700  9496 net.cpp:144] Setting up inception_5a/relu_3x3
I1219 03:46:25.168702  9496 net.cpp:151] Top shape: 1 320 15 30 (144000)
I1219 03:46:25.168704  9496 net.cpp:159] Memory required for data: 658540804
I1219 03:46:25.168706  9496 layer_factory.hpp:77] Creating layer inception_5a/5x5_reduce
I1219 03:46:25.168711  9496 net.cpp:94] Creating Layer inception_5a/5x5_reduce
I1219 03:46:25.168713  9496 net.cpp:435] inception_5a/5x5_reduce <- pool4/3x3_s2_pool4/3x3_s2_0_split_2
I1219 03:46:25.168716  9496 net.cpp:409] inception_5a/5x5_reduce -> inception_5a/5x5_reduce_raw
I1219 03:46:25.169024  9496 net.cpp:144] Setting up inception_5a/5x5_reduce
I1219 03:46:25.169028  9496 net.cpp:151] Top shape: 1 32 15 30 (14400)
I1219 03:46:25.169031  9496 net.cpp:159] Memory required for data: 658598404
I1219 03:46:25.169034  9496 layer_factory.hpp:77] Creating layer inception_5a/5x5_reduce_BatchNorm
I1219 03:46:25.169039  9496 net.cpp:94] Creating Layer inception_5a/5x5_reduce_BatchNorm
I1219 03:46:25.169040  9496 net.cpp:435] inception_5a/5x5_reduce_BatchNorm <- inception_5a/5x5_reduce_raw
I1219 03:46:25.169044  9496 net.cpp:409] inception_5a/5x5_reduce_BatchNorm -> inception_5a/5x5_reduce
I1219 03:46:25.169437  9496 net.cpp:144] Setting up inception_5a/5x5_reduce_BatchNorm
I1219 03:46:25.169441  9496 net.cpp:151] Top shape: 1 32 15 30 (14400)
I1219 03:46:25.169445  9496 net.cpp:159] Memory required for data: 658656004
I1219 03:46:25.169450  9496 layer_factory.hpp:77] Creating layer inception_5a/relu_5x5_reduce
I1219 03:46:25.169452  9496 net.cpp:94] Creating Layer inception_5a/relu_5x5_reduce
I1219 03:46:25.169454  9496 net.cpp:435] inception_5a/relu_5x5_reduce <- inception_5a/5x5_reduce
I1219 03:46:25.169457  9496 net.cpp:396] inception_5a/relu_5x5_reduce -> inception_5a/5x5_reduce (in-place)
I1219 03:46:25.169461  9496 net.cpp:144] Setting up inception_5a/relu_5x5_reduce
I1219 03:46:25.169462  9496 net.cpp:151] Top shape: 1 32 15 30 (14400)
I1219 03:46:25.169464  9496 net.cpp:159] Memory required for data: 658713604
I1219 03:46:25.169467  9496 layer_factory.hpp:77] Creating layer inception_5a/5x5
I1219 03:46:25.169471  9496 net.cpp:94] Creating Layer inception_5a/5x5
I1219 03:46:25.169473  9496 net.cpp:435] inception_5a/5x5 <- inception_5a/5x5_reduce
I1219 03:46:25.169476  9496 net.cpp:409] inception_5a/5x5 -> inception_5a/5x5_raw
I1219 03:46:25.170707  9496 net.cpp:144] Setting up inception_5a/5x5
I1219 03:46:25.170713  9496 net.cpp:151] Top shape: 1 128 15 30 (57600)
I1219 03:46:25.170717  9496 net.cpp:159] Memory required for data: 658944004
I1219 03:46:25.170720  9496 layer_factory.hpp:77] Creating layer inception_5a/5x5_BatchNorm
I1219 03:46:25.170724  9496 net.cpp:94] Creating Layer inception_5a/5x5_BatchNorm
I1219 03:46:25.170727  9496 net.cpp:435] inception_5a/5x5_BatchNorm <- inception_5a/5x5_raw
I1219 03:46:25.170732  9496 net.cpp:409] inception_5a/5x5_BatchNorm -> inception_5a/5x5
I1219 03:46:25.171077  9496 net.cpp:144] Setting up inception_5a/5x5_BatchNorm
I1219 03:46:25.171082  9496 net.cpp:151] Top shape: 1 128 15 30 (57600)
I1219 03:46:25.171084  9496 net.cpp:159] Memory required for data: 659174404
I1219 03:46:25.171089  9496 layer_factory.hpp:77] Creating layer inception_5a/relu_5x5
I1219 03:46:25.171093  9496 net.cpp:94] Creating Layer inception_5a/relu_5x5
I1219 03:46:25.171095  9496 net.cpp:435] inception_5a/relu_5x5 <- inception_5a/5x5
I1219 03:46:25.171097  9496 net.cpp:396] inception_5a/relu_5x5 -> inception_5a/5x5 (in-place)
I1219 03:46:25.171101  9496 net.cpp:144] Setting up inception_5a/relu_5x5
I1219 03:46:25.171103  9496 net.cpp:151] Top shape: 1 128 15 30 (57600)
I1219 03:46:25.171105  9496 net.cpp:159] Memory required for data: 659404804
I1219 03:46:25.171108  9496 layer_factory.hpp:77] Creating layer inception_5a/pool
I1219 03:46:25.171111  9496 net.cpp:94] Creating Layer inception_5a/pool
I1219 03:46:25.171114  9496 net.cpp:435] inception_5a/pool <- pool4/3x3_s2_pool4/3x3_s2_0_split_3
I1219 03:46:25.171118  9496 net.cpp:409] inception_5a/pool -> inception_5a/pool
I1219 03:46:25.171141  9496 net.cpp:144] Setting up inception_5a/pool
I1219 03:46:25.171144  9496 net.cpp:151] Top shape: 1 832 15 30 (374400)
I1219 03:46:25.171147  9496 net.cpp:159] Memory required for data: 660902404
I1219 03:46:25.171149  9496 layer_factory.hpp:77] Creating layer inception_5a/pool_proj
I1219 03:46:25.171154  9496 net.cpp:94] Creating Layer inception_5a/pool_proj
I1219 03:46:25.171155  9496 net.cpp:435] inception_5a/pool_proj <- inception_5a/pool
I1219 03:46:25.171159  9496 net.cpp:409] inception_5a/pool_proj -> inception_5a/pool_proj_raw
I1219 03:46:25.171840  9496 net.cpp:144] Setting up inception_5a/pool_proj
I1219 03:46:25.171844  9496 net.cpp:151] Top shape: 1 128 15 30 (57600)
I1219 03:46:25.171847  9496 net.cpp:159] Memory required for data: 661132804
I1219 03:46:25.171851  9496 layer_factory.hpp:77] Creating layer inception_5a/pool_proj_BatchNorm
I1219 03:46:25.171855  9496 net.cpp:94] Creating Layer inception_5a/pool_proj_BatchNorm
I1219 03:46:25.171857  9496 net.cpp:435] inception_5a/pool_proj_BatchNorm <- inception_5a/pool_proj_raw
I1219 03:46:25.171860  9496 net.cpp:409] inception_5a/pool_proj_BatchNorm -> inception_5a/pool_proj
I1219 03:46:25.172201  9496 net.cpp:144] Setting up inception_5a/pool_proj_BatchNorm
I1219 03:46:25.172205  9496 net.cpp:151] Top shape: 1 128 15 30 (57600)
I1219 03:46:25.172209  9496 net.cpp:159] Memory required for data: 661363204
I1219 03:46:25.172214  9496 layer_factory.hpp:77] Creating layer inception_5a/relu_pool_proj
I1219 03:46:25.172216  9496 net.cpp:94] Creating Layer inception_5a/relu_pool_proj
I1219 03:46:25.172219  9496 net.cpp:435] inception_5a/relu_pool_proj <- inception_5a/pool_proj
I1219 03:46:25.172221  9496 net.cpp:396] inception_5a/relu_pool_proj -> inception_5a/pool_proj (in-place)
I1219 03:46:25.172224  9496 net.cpp:144] Setting up inception_5a/relu_pool_proj
I1219 03:46:25.172226  9496 net.cpp:151] Top shape: 1 128 15 30 (57600)
I1219 03:46:25.172228  9496 net.cpp:159] Memory required for data: 661593604
I1219 03:46:25.172230  9496 layer_factory.hpp:77] Creating layer inception_5a/output
I1219 03:46:25.172235  9496 net.cpp:94] Creating Layer inception_5a/output
I1219 03:46:25.172235  9496 net.cpp:435] inception_5a/output <- inception_5a/1x1
I1219 03:46:25.172238  9496 net.cpp:435] inception_5a/output <- inception_5a/3x3
I1219 03:46:25.172240  9496 net.cpp:435] inception_5a/output <- inception_5a/5x5
I1219 03:46:25.172242  9496 net.cpp:435] inception_5a/output <- inception_5a/pool_proj
I1219 03:46:25.172245  9496 net.cpp:409] inception_5a/output -> inception_5a/output
I1219 03:46:25.172258  9496 net.cpp:144] Setting up inception_5a/output
I1219 03:46:25.172261  9496 net.cpp:151] Top shape: 1 832 15 30 (374400)
I1219 03:46:25.172263  9496 net.cpp:159] Memory required for data: 663091204
I1219 03:46:25.172266  9496 layer_factory.hpp:77] Creating layer inception_5a/output_inception_5a/output_0_split
I1219 03:46:25.172269  9496 net.cpp:94] Creating Layer inception_5a/output_inception_5a/output_0_split
I1219 03:46:25.172271  9496 net.cpp:435] inception_5a/output_inception_5a/output_0_split <- inception_5a/output
I1219 03:46:25.172274  9496 net.cpp:409] inception_5a/output_inception_5a/output_0_split -> inception_5a/output_inception_5a/output_0_split_0
I1219 03:46:25.172278  9496 net.cpp:409] inception_5a/output_inception_5a/output_0_split -> inception_5a/output_inception_5a/output_0_split_1
I1219 03:46:25.172281  9496 net.cpp:409] inception_5a/output_inception_5a/output_0_split -> inception_5a/output_inception_5a/output_0_split_2
I1219 03:46:25.172284  9496 net.cpp:409] inception_5a/output_inception_5a/output_0_split -> inception_5a/output_inception_5a/output_0_split_3
I1219 03:46:25.172317  9496 net.cpp:144] Setting up inception_5a/output_inception_5a/output_0_split
I1219 03:46:25.172319  9496 net.cpp:151] Top shape: 1 832 15 30 (374400)
I1219 03:46:25.172322  9496 net.cpp:151] Top shape: 1 832 15 30 (374400)
I1219 03:46:25.172324  9496 net.cpp:151] Top shape: 1 832 15 30 (374400)
I1219 03:46:25.172327  9496 net.cpp:151] Top shape: 1 832 15 30 (374400)
I1219 03:46:25.172329  9496 net.cpp:159] Memory required for data: 669081604
I1219 03:46:25.172330  9496 layer_factory.hpp:77] Creating layer inception_5b/1x1
I1219 03:46:25.172335  9496 net.cpp:94] Creating Layer inception_5b/1x1
I1219 03:46:25.172338  9496 net.cpp:435] inception_5b/1x1 <- inception_5a/output_inception_5a/output_0_split_0
I1219 03:46:25.172340  9496 net.cpp:409] inception_5b/1x1 -> inception_5b/1x1_raw
I1219 03:46:25.175282  9496 net.cpp:144] Setting up inception_5b/1x1
I1219 03:46:25.175289  9496 net.cpp:151] Top shape: 1 384 15 30 (172800)
I1219 03:46:25.175293  9496 net.cpp:159] Memory required for data: 669772804
I1219 03:46:25.175298  9496 layer_factory.hpp:77] Creating layer inception_5b/1x1_BatchNorm
I1219 03:46:25.175304  9496 net.cpp:94] Creating Layer inception_5b/1x1_BatchNorm
I1219 03:46:25.175307  9496 net.cpp:435] inception_5b/1x1_BatchNorm <- inception_5b/1x1_raw
I1219 03:46:25.175312  9496 net.cpp:409] inception_5b/1x1_BatchNorm -> inception_5b/1x1
I1219 03:46:25.175676  9496 net.cpp:144] Setting up inception_5b/1x1_BatchNorm
I1219 03:46:25.175680  9496 net.cpp:151] Top shape: 1 384 15 30 (172800)
I1219 03:46:25.175683  9496 net.cpp:159] Memory required for data: 670464004
I1219 03:46:25.175688  9496 layer_factory.hpp:77] Creating layer inception_5b/relu_1x1
I1219 03:46:25.175693  9496 net.cpp:94] Creating Layer inception_5b/relu_1x1
I1219 03:46:25.175694  9496 net.cpp:435] inception_5b/relu_1x1 <- inception_5b/1x1
I1219 03:46:25.175696  9496 net.cpp:396] inception_5b/relu_1x1 -> inception_5b/1x1 (in-place)
I1219 03:46:25.175701  9496 net.cpp:144] Setting up inception_5b/relu_1x1
I1219 03:46:25.175704  9496 net.cpp:151] Top shape: 1 384 15 30 (172800)
I1219 03:46:25.175705  9496 net.cpp:159] Memory required for data: 671155204
I1219 03:46:25.175707  9496 layer_factory.hpp:77] Creating layer inception_5b/3x3_reduce
I1219 03:46:25.175712  9496 net.cpp:94] Creating Layer inception_5b/3x3_reduce
I1219 03:46:25.175715  9496 net.cpp:435] inception_5b/3x3_reduce <- inception_5a/output_inception_5a/output_0_split_1
I1219 03:46:25.175719  9496 net.cpp:409] inception_5b/3x3_reduce -> inception_5b/3x3_reduce_raw
I1219 03:46:25.176715  9496 net.cpp:144] Setting up inception_5b/3x3_reduce
I1219 03:46:25.176719  9496 net.cpp:151] Top shape: 1 192 15 30 (86400)
…
I1219 03:46:25.484382  9496 layer_factory.hpp:77] Creating layer inception_4e/relu_1x1
I1219 03:46:25.484386  9496 net.cpp:94] Creating Layer inception_4e/relu_1x1
I1219 03:46:25.484390  9496 net.cpp:435] inception_4e/relu_1x1 <- inception_4e/1x1
I1219 03:46:25.484392  9496 net.cpp:396] inception_4e/relu_1x1 -> inception_4e/1x1 (in-place)
I1219 03:46:25.484396  9496 net.cpp:144] Setting up inception_4e/relu_1x1
I1219 03:46:25.484397  9496 net.cpp:151] Top shape: 1 256 30 60 (460800)
I1219 03:46:25.484400  9496 net.cpp:159] Memory required for data: 590284804
I1219 03:46:25.484402  9496 layer_factory.hpp:77] Creating layer inception_4e/3x3_reduce
I1219 03:46:25.484406  9496 net.cpp:94] Creating Layer inception_4e/3x3_reduce
I1219 03:46:25.484408  9496 net.cpp:435] inception_4e/3x3_reduce <- inception_4d/output_inception_4d/output_fixed_0_split_1
I1219 03:46:25.484411  9496 net.cpp:409] inception_4e/3x3_reduce -> inception_4e/3x3_reduce
I1219 03:46:25.484979  9496 layer_factory.hpp:77] Creating layer inception_4e/3x3_reduce
I1219 03:46:25.486219  9496 net.cpp:144] Setting up inception_4e/3x3_reduce
I1219 03:46:25.486227  9496 net.cpp:151] Top shape: 1 160 30 60 (288000)
I1219 03:46:25.486230  9496 net.cpp:159] Memory required for data: 591436804
I1219 03:46:25.486234  9496 layer_factory.hpp:77] Creating layer inception_4e/relu_3x3_reduce
I1219 03:46:25.486240  9496 net.cpp:94] Creating Layer inception_4e/relu_3x3_reduce
I1219 03:46:25.486243  9496 net.cpp:435] inception_4e/relu_3x3_reduce <- inception_4e/3x3_reduce
I1219 03:46:25.486248  9496 net.cpp:396] inception_4e/relu_3x3_reduce -> inception_4e/3x3_reduce (in-place)
I1219 03:46:25.486251  9496 net.cpp:144] Setting up inception_4e/relu_3x3_reduce
I1219 03:46:25.486253  9496 net.cpp:151] Top shape: 1 160 30 60 (288000)
I1219 03:46:25.486255  9496 net.cpp:159] Memory required for data: 592588804
I1219 03:46:25.486258  9496 layer_factory.hpp:77] Creating layer inception_4e/3x3_reduce_fixed
I1219 03:46:25.486260  9496 net.cpp:94] Creating Layer inception_4e/3x3_reduce_fixed
I1219 03:46:25.486263  9496 net.cpp:435] inception_4e/3x3_reduce_fixed <- inception_4e/3x3_reduce
I1219 03:46:25.486264  9496 net.cpp:396] inception_4e/3x3_reduce_fixed -> inception_4e/3x3_reduce (in-place)
I1219 03:46:25.486284  9496 net.cpp:144] Setting up inception_4e/3x3_reduce_fixed
I1219 03:46:25.486287  9496 net.cpp:151] Top shape: 1 160 30 60 (288000)
I1219 03:46:25.486289  9496 net.cpp:159] Memory required for data: 593740804
I1219 03:46:25.486292  9496 layer_factory.hpp:77] Creating layer inception_4e/3x3
I1219 03:46:25.486296  9496 net.cpp:94] Creating Layer inception_4e/3x3
I1219 03:46:25.486299  9496 net.cpp:435] inception_4e/3x3 <- inception_4e/3x3_reduce
I1219 03:46:25.486300  9496 net.cpp:409] inception_4e/3x3 -> inception_4e/3x3
I1219 03:46:25.489830  9496 layer_factory.hpp:77] Creating layer inception_4e/3x3
I1219 03:46:25.493427  9496 net.cpp:144] Setting up inception_4e/3x3
I1219 03:46:25.493438  9496 net.cpp:151] Top shape: 1 320 30 60 (576000)
I1219 03:46:25.493443  9496 net.cpp:159] Memory required for data: 596044804
I1219 03:46:25.493451  9496 layer_factory.hpp:77] Creating layer inception_4e/relu_3x3
I1219 03:46:25.493456  9496 net.cpp:94] Creating Layer inception_4e/relu_3x3
I1219 03:46:25.493461  9496 net.cpp:435] inception_4e/relu_3x3 <- inception_4e/3x3
I1219 03:46:25.493466  9496 net.cpp:396] inception_4e/relu_3x3 -> inception_4e/3x3 (in-place)
I1219 03:46:25.493474  9496 net.cpp:144] Setting up inception_4e/relu_3x3
I1219 03:46:25.493475  9496 net.cpp:151] Top shape: 1 320 30 60 (576000)
I1219 03:46:25.493479  9496 net.cpp:159] Memory required for data: 598348804
I1219 03:46:25.493480  9496 layer_factory.hpp:77] Creating layer inception_4e/5x5_reduce
I1219 03:46:25.493487  9496 net.cpp:94] Creating Layer inception_4e/5x5_reduce
I1219 03:46:25.493489  9496 net.cpp:435] inception_4e/5x5_reduce <- inception_4d/output_inception_4d/output_fixed_0_split_2
I1219 03:46:25.493494  9496 net.cpp:409] inception_4e/5x5_reduce -> inception_4e/5x5_reduce
I1219 03:46:25.493713  9496 layer_factory.hpp:77] Creating layer inception_4e/5x5_reduce
I1219 03:46:25.494010  9496 net.cpp:144] Setting up inception_4e/5x5_reduce
I1219 03:46:25.494015  9496 net.cpp:151] Top shape: 1 32 30 60 (57600)
I1219 03:46:25.494019  9496 net.cpp:159] Memory required for data: 598579204
I1219 03:46:25.494022  9496 layer_factory.hpp:77] Creating layer inception_4e/relu_5x5_reduce
I1219 03:46:25.494025  9496 net.cpp:94] Creating Layer inception_4e/relu_5x5_reduce
I1219 03:46:25.494027  9496 net.cpp:435] inception_4e/relu_5x5_reduce <- inception_4e/5x5_reduce
I1219 03:46:25.494030  9496 net.cpp:396] inception_4e/relu_5x5_reduce -> inception_4e/5x5_reduce (in-place)
I1219 03:46:25.494033  9496 net.cpp:144] Setting up inception_4e/relu_5x5_reduce
I1219 03:46:25.494035  9496 net.cpp:151] Top shape: 1 32 30 60 (57600)
I1219 03:46:25.494037  9496 net.cpp:159] Memory required for data: 598809604
I1219 03:46:25.494040  9496 layer_factory.hpp:77] Creating layer inception_4e/5x5_reduce_fixed
I1219 03:46:25.494043  9496 net.cpp:94] Creating Layer inception_4e/5x5_reduce_fixed
I1219 03:46:25.494045  9496 net.cpp:435] inception_4e/5x5_reduce_fixed <- inception_4e/5x5_reduce
I1219 03:46:25.494047  9496 net.cpp:396] inception_4e/5x5_reduce_fixed -> inception_4e/5x5_reduce (in-place)
I1219 03:46:25.494065  9496 net.cpp:144] Setting up inception_4e/5x5_reduce_fixed
I1219 03:46:25.494068  9496 net.cpp:151] Top shape: 1 32 30 60 (57600)
I1219 03:46:25.494071  9496 net.cpp:159] Memory required for data: 599040004
I1219 03:46:25.494073  9496 layer_factory.hpp:77] Creating layer inception_4e/5x5
I1219 03:46:25.494077  9496 net.cpp:94] Creating Layer inception_4e/5x5
I1219 03:46:25.494079  9496 net.cpp:435] inception_4e/5x5 <- inception_4e/5x5_reduce
I1219 03:46:25.494082  9496 net.cpp:409] inception_4e/5x5 -> inception_4e/5x5
I1219 03:46:25.494748  9496 layer_factory.hpp:77] Creating layer inception_4e/5x5
I1219 03:46:25.496039  9496 net.cpp:144] Setting up inception_4e/5x5
I1219 03:46:25.496047  9496 net.cpp:151] Top shape: 1 128 30 60 (230400)
I1219 03:46:25.496049  9496 net.cpp:159] Memory required for data: 599961604
I1219 03:46:25.496053  9496 layer_factory.hpp:77] Creating layer inception_4e/relu_5x5
I1219 03:46:25.496057  9496 net.cpp:94] Creating Layer inception_4e/relu_5x5
I1219 03:46:25.496059  9496 net.cpp:435] inception_4e/relu_5x5 <- inception_4e/5x5
I1219 03:46:25.496062  9496 net.cpp:396] inception_4e/relu_5x5 -> inception_4e/5x5 (in-place)
I1219 03:46:25.496065  9496 net.cpp:144] Setting up inception_4e/relu_5x5
I1219 03:46:25.496066  9496 net.cpp:151] Top shape: 1 128 30 60 (230400)
I1219 03:46:25.496069  9496 net.cpp:159] Memory required for data: 600883204
I1219 03:46:25.496070  9496 layer_factory.hpp:77] Creating layer inception_4e/pool
I1219 03:46:25.496075  9496 net.cpp:94] Creating Layer inception_4e/pool
I1219 03:46:25.496078  9496 net.cpp:435] inception_4e/pool <- inception_4d/output_inception_4d/output_fixed_0_split_3
I1219 03:46:25.496081  9496 net.cpp:409] inception_4e/pool -> inception_4e/pool
I1219 03:46:25.496104  9496 net.cpp:144] Setting up inception_4e/pool
I1219 03:46:25.496106  9496 net.cpp:151] Top shape: 1 528 30 60 (950400)
I1219 03:46:25.496109  9496 net.cpp:159] Memory required for data: 604684804
I1219 03:46:25.496110  9496 layer_factory.hpp:77] Creating layer inception_4e/pool_proj
I1219 03:46:25.496114  9496 net.cpp:94] Creating Layer inception_4e/pool_proj
I1219 03:46:25.496116  9496 net.cpp:435] inception_4e/pool_proj <- inception_4e/pool
I1219 03:46:25.496119  9496 net.cpp:409] inception_4e/pool_proj -> inception_4e/pool_proj
I1219 03:46:25.496585  9496 layer_factory.hpp:77] Creating layer inception_4e/pool_proj
I1219 03:46:25.497119  9496 net.cpp:144] Setting up inception_4e/pool_proj
I1219 03:46:25.497123  9496 net.cpp:151] Top shape: 1 128 30 60 (230400)
I1219 03:46:25.497126  9496 net.cpp:159] Memory required for data: 605606404
I1219 03:46:25.497129  9496 layer_factory.hpp:77] Creating layer inception_4e/relu_pool_proj
I1219 03:46:25.497133  9496 net.cpp:94] Creating Layer inception_4e/relu_pool_proj
I1219 03:46:25.497134  9496 net.cpp:435] inception_4e/relu_pool_proj <- inception_4e/pool_proj
I1219 03:46:25.497136  9496 net.cpp:396] inception_4e/relu_pool_proj -> inception_4e/pool_proj (in-place)
I1219 03:46:25.497139  9496 net.cpp:144] Setting up inception_4e/relu_pool_proj
I1219 03:46:25.497141  9496 net.cpp:151] Top shape: 1 128 30 60 (230400)
I1219 03:46:25.497143  9496 net.cpp:159] Memory required for data: 606528004
I1219 03:46:25.497145  9496 layer_factory.hpp:77] Creating layer inception_4e/output
I1219 03:46:25.497148  9496 net.cpp:94] Creating Layer inception_4e/output
I1219 03:46:25.497151  9496 net.cpp:435] inception_4e/output <- inception_4e/1x1
I1219 03:46:25.497153  9496 net.cpp:435] inception_4e/output <- inception_4e/3x3
I1219 03:46:25.497155  9496 net.cpp:435] inception_4e/output <- inception_4e/5x5
I1219 03:46:25.497157  9496 net.cpp:435] inception_4e/output <- inception_4e/pool_proj
I1219 03:46:25.497159  9496 net.cpp:409] inception_4e/output -> inception_4e/output
I1219 03:46:25.497172  9496 net.cpp:144] Setting up inception_4e/output
I1219 03:46:25.497174  9496 net.cpp:151] Top shape: 1 832 30 60 (1497600)
I1219 03:46:25.497177  9496 net.cpp:159] Memory required for data: 612518404
I1219 03:46:25.497179  9496 layer_factory.hpp:77] Creating layer inception_4e/output_fixed
I1219 03:46:25.497182  9496 net.cpp:94] Creating Layer inception_4e/output_fixed
I1219 03:46:25.497184  9496 net.cpp:435] inception_4e/output_fixed <- inception_4e/output
I1219 03:46:25.497187  9496 net.cpp:396] inception_4e/output_fixed -> inception_4e/output (in-place)
I1219 03:46:25.497205  9496 net.cpp:144] Setting up inception_4e/output_fixed
I1219 03:46:25.497207  9496 net.cpp:151] Top shape: 1 832 30 60 (1497600)
I1219 03:46:25.497210  9496 net.cpp:159] Memory required for data: 618508804
I1219 03:46:25.497212  9496 layer_factory.hpp:77] Creating layer inception_4e/output_inception_4e/output_fixed_0_split
I1219 03:46:25.497216  9496 net.cpp:94] Creating Layer inception_4e/output_inception_4e/output_fixed_0_split
I1219 03:46:25.497218  9496 net.cpp:435] inception_4e/output_inception_4e/output_fixed_0_split <- inception_4e/output
I1219 03:46:25.497220  9496 net.cpp:409] inception_4e/output_inception_4e/output_fixed_0_split -> inception_4e/output_inception_4e/output_fixed_0_split_0
I1219 03:46:25.497225  9496 net.cpp:409] inception_4e/output_inception_4e/output_fixed_0_split -> inception_4e/output_inception_4e/output_fixed_0_split_1
I1219 03:46:25.497241  9496 net.cpp:144] Setting up inception_4e/output_inception_4e/output_fixed_0_split
I1219 03:46:25.497243  9496 net.cpp:151] Top shape: 1 832 30 60 (1497600)
I1219 03:46:25.497246  9496 net.cpp:151] Top shape: 1 832 30 60 (1497600)
I1219 03:46:25.497248  9496 net.cpp:159] Memory required for data: 630489604
I1219 03:46:25.497251  9496 layer_factory.hpp:77] Creating layer pool4/3x3_s2
I1219 03:46:25.497253  9496 net.cpp:94] Creating Layer pool4/3x3_s2
I1219 03:46:25.497256  9496 net.cpp:435] pool4/3x3_s2 <- inception_4e/output_inception_4e/output_fixed_0_split_0
I1219 03:46:25.497258  9496 net.cpp:409] pool4/3x3_s2 -> pool4/3x3_s2
I1219 03:46:25.497275  9496 net.cpp:144] Setting up pool4/3x3_s2
I1219 03:46:25.497277  9496 net.cpp:151] Top shape: 1 832 15 30 (374400)
I1219 03:46:25.497280  9496 net.cpp:159] Memory required for data: 631987204
I1219 03:46:25.497282  9496 layer_factory.hpp:77] Creating layer pool4/3x3_s2_pool4/3x3_s2_0_split
I1219 03:46:25.497284  9496 net.cpp:94] Creating Layer pool4/3x3_s2_pool4/3x3_s2_0_split
I1219 03:46:25.497287  9496 net.cpp:435] pool4/3x3_s2_pool4/3x3_s2_0_split <- pool4/3x3_s2
I1219 03:46:25.497288  9496 net.cpp:409] pool4/3x3_s2_pool4/3x3_s2_0_split -> pool4/3x3_s2_pool4/3x3_s2_0_split_0
I1219 03:46:25.497292  9496 net.cpp:409] pool4/3x3_s2_pool4/3x3_s2_0_split -> pool4/3x3_s2_pool4/3x3_s2_0_split_1
I1219 03:46:25.497295  9496 net.cpp:409] pool4/3x3_s2_pool4/3x3_s2_0_split -> pool4/3x3_s2_pool4/3x3_s2_0_split_2
I1219 03:46:25.497298  9496 net.cpp:409] pool4/3x3_s2_pool4/3x3_s2_0_split -> pool4/3x3_s2_pool4/3x3_s2_0_split_3
I1219 03:46:25.497328  9496 net.cpp:144] Setting up pool4/3x3_s2_pool4/3x3_s2_0_split
I1219 03:46:25.497329  9496 net.cpp:151] Top shape: 1 832 15 30 (374400)
I1219 03:46:25.497332  9496 net.cpp:151] Top shape: 1 832 15 30 (374400)
I1219 03:46:25.497334  9496 net.cpp:151] Top shape: 1 832 15 30 (374400)
I1219 03:46:25.497337  9496 net.cpp:151] Top shape: 1 832 15 30 (374400)
I1219 03:46:25.497339  9496 net.cpp:159] Memory required for data: 637977604
I1219 03:46:25.497341  9496 layer_factory.hpp:77] Creating layer inception_5a/1x1
I1219 03:46:25.497345  9496 net.cpp:94] Creating Layer inception_5a/1x1
I1219 03:46:25.497347  9496 net.cpp:435] inception_5a/1x1 <- pool4/3x3_s2_pool4/3x3_s2_0_split_0
I1219 03:46:25.497349  9496 net.cpp:409] inception_5a/1x1 -> inception_5a/1x1
I1219 03:46:25.499042  9496 layer_factory.hpp:77] Creating layer inception_5a/1x1
I1219 03:46:25.500896  9496 net.cpp:144] Setting up inception_5a/1x1
I1219 03:46:25.500902  9496 net.cpp:151] Top shape: 1 256 15 30 (115200)
I1219 03:46:25.500905  9496 net.cpp:159] Memory required for data: 638438404
I1219 03:46:25.500910  9496 layer_factory.hpp:77] Creating layer inception_5a/relu_1x1
I1219 03:46:25.500913  9496 net.cpp:94] Creating Layer inception_5a/relu_1x1
I1219 03:46:25.500916  9496 net.cpp:435] inception_5a/relu_1x1 <- inception_5a/1x1
I1219 03:46:25.500918  9496 net.cpp:396] inception_5a/relu_1x1 -> inception_5a/1x1 (in-place)
I1219 03:46:25.500921  9496 net.cpp:144] Setting up inception_5a/relu_1x1
I1219 03:46:25.500923  9496 net.cpp:151] Top shape: 1 256 15 30 (115200)
I1219 03:46:25.500926  9496 net.cpp:159] Memory required for data: 638899204
I1219 03:46:25.500927  9496 layer_factory.hpp:77] Creating layer inception_5a/3x3_reduce
I1219 03:46:25.500931  9496 net.cpp:94] Creating Layer inception_5a/3x3_reduce
I1219 03:46:25.500933  9496 net.cpp:435] inception_5a/3x3_reduce <- pool4/3x3_s2_pool4/3x3_s2_0_split_1
I1219 03:46:25.500936  9496 net.cpp:409] inception_5a/3x3_reduce -> inception_5a/3x3_reduce
I1219 03:46:25.502310  9496 layer_factory.hpp:77] Creating layer inception_5a/3x3_reduce
I1219 03:46:25.503194  9496 net.cpp:144] Setting up inception_5a/3x3_reduce
I1219 03:46:25.503199  9496 net.cpp:151] Top shape: 1 160 15 30 (72000)
I1219 03:46:25.503202  9496 net.cpp:159] Memory required for data: 639187204
I1219 03:46:25.503206  9496 layer_factory.hpp:77] Creating layer inception_5a/relu_3x3_reduce
I1219 03:46:25.503209  9496 net.cpp:94] Creating Layer inception_5a/relu_3x3_reduce
I1219 03:46:25.503212  9496 net.cpp:435] inception_5a/relu_3x3_reduce <- inception_5a/3x3_reduce
I1219 03:46:25.503214  9496 net.cpp:396] inception_5a/relu_3x3_reduce -> inception_5a/3x3_reduce (in-place)
I1219 03:46:25.503218  9496 net.cpp:144] Setting up inception_5a/relu_3x3_reduce
I1219 03:46:25.503219  9496 net.cpp:151] Top shape: 1 160 15 30 (72000)
I1219 03:46:25.503222  9496 net.cpp:159] Memory required for data: 639475204
I1219 03:46:25.503224  9496 layer_factory.hpp:77] Creating layer inception_5a/3x3_reduce_fixed
I1219 03:46:25.503227  9496 net.cpp:94] Creating Layer inception_5a/3x3_reduce_fixed
I1219 03:46:25.503229  9496 net.cpp:435] inception_5a/3x3_reduce_fixed <- inception_5a/3x3_reduce
I1219 03:46:25.503232  9496 net.cpp:396] inception_5a/3x3_reduce_fixed -> inception_5a/3x3_reduce (in-place)
I1219 03:46:25.503252  9496 net.cpp:144] Setting up inception_5a/3x3_reduce_fixed
I1219 03:46:25.503254  9496 net.cpp:151] Top shape: 1 160 15 30 (72000)
I1219 03:46:25.503257  9496 net.cpp:159] Memory required for data: 639763204
I1219 03:46:25.503259  9496 layer_factory.hpp:77] Creating layer inception_5a/3x3
I1219 03:46:25.503263  9496 net.cpp:94] Creating Layer inception_5a/3x3
I1219 03:46:25.503264  9496 net.cpp:435] inception_5a/3x3 <- inception_5a/3x3_reduce
I1219 03:46:25.503268  9496 net.cpp:409] inception_5a/3x3 -> inception_5a/3x3
I1219 03:46:25.506778  9496 layer_factory.hpp:77] Creating layer inception_5a/3x3
I1219 03:46:25.510666  9496 net.cpp:144] Setting up inception_5a/3x3
I1219 03:46:25.510675  9496 net.cpp:151] Top shape: 1 320 15 30 (144000)
I1219 03:46:25.510694  9496 net.cpp:159] Memory required for data: 640339204
I1219 03:46:25.510701  9496 layer_factory.hpp:77] Creating layer inception_5a/relu_3x3
I1219 03:46:25.510706  9496 net.cpp:94] Creating Layer inception_5a/relu_3x3
I1219 03:46:25.510713  9496 net.cpp:435] inception_5a/relu_3x3 <- inception_5a/3x3
I1219 03:46:25.510717  9496 net.cpp:396] inception_5a/relu_3x3 -> inception_5a/3x3 (in-place)
I1219 03:46:25.510722  9496 net.cpp:144] Setting up inception_5a/relu_3x3
I1219 03:46:25.510725  9496 net.cpp:151] Top shape: 1 320 15 30 (144000)
I1219 03:46:25.510726  9496 net.cpp:159] Memory required for data: 640915204
I1219 03:46:25.510728  9496 layer_factory.hpp:77] Creating layer inception_5a/5x5_reduce
I1219 03:46:25.510733  9496 net.cpp:94] Creating Layer inception_5a/5x5_reduce
I1219 03:46:25.510736  9496 net.cpp:435] inception_5a/5x5_reduce <- pool4/3x3_s2_pool4/3x3_s2_0_split_2
I1219 03:46:25.510740  9496 net.cpp:409] inception_5a/5x5_reduce -> inception_5a/5x5_reduce
I1219 03:46:25.510995  9496 layer_factory.hpp:77] Creating layer inception_5a/5x5_reduce
I1219 03:46:25.511343  9496 net.cpp:144] Setting up inception_5a/5x5_reduce
I1219 03:46:25.511346  9496 net.cpp:151] Top shape: 1 32 15 30 (14400)
I1219 03:46:25.511349  9496 net.cpp:159] Memory required for data: 640972804
I1219 03:46:25.511353  9496 layer_factory.hpp:77] Creating layer inception_5a/relu_5x5_reduce
I1219 03:46:25.511355  9496 net.cpp:94] Creating Layer inception_5a/relu_5x5_reduce
I1219 03:46:25.511358  9496 net.cpp:435] inception_5a/relu_5x5_reduce <- inception_5a/5x5_reduce
I1219 03:46:25.511360  9496 net.cpp:396] inception_5a/relu_5x5_reduce -> inception_5a/5x5_reduce (in-place)
I1219 03:46:25.511363  9496 net.cpp:144] Setting up inception_5a/relu_5x5_reduce
I1219 03:46:25.511364  9496 net.cpp:151] Top shape: 1 32 15 30 (14400)
I1219 03:46:25.511368  9496 net.cpp:159] Memory required for data: 641030404
I1219 03:46:25.511368  9496 layer_factory.hpp:77] Creating layer inception_5a/5x5_reduce_fixed
I1219 03:46:25.511373  9496 net.cpp:94] Creating Layer inception_5a/5x5_reduce_fixed
I1219 03:46:25.511374  9496 net.cpp:435] inception_5a/5x5_reduce_fixed <- inception_5a/5x5_reduce
I1219 03:46:25.511376  9496 net.cpp:396] inception_5a/5x5_reduce_fixed -> inception_5a/5x5_reduce (in-place)
I1219 03:46:25.511395  9496 net.cpp:144] Setting up inception_5a/5x5_reduce_fixed
I1219 03:46:25.511399  9496 net.cpp:151] Top shape: 1 32 15 30 (14400)
I1219 03:46:25.511400  9496 net.cpp:159] Memory required for data: 641088004
I1219 03:46:25.511404  9496 layer_factory.hpp:77] Creating layer inception_5a/5x5
I1219 03:46:25.511407  9496 net.cpp:94] Creating Layer inception_5a/5x5
I1219 03:46:25.511409  9496 net.cpp:435] inception_5a/5x5 <- inception_5a/5x5_reduce
I1219 03:46:25.511411  9496 net.cpp:409] inception_5a/5x5 -> inception_5a/5x5
I1219 03:46:25.512590  9496 layer_factory.hpp:77] Creating layer inception_5a/5x5
I1219 03:46:25.513290  9496 net.cpp:144] Setting up inception_5a/5x5
I1219 03:46:25.513294  9496 net.cpp:151] Top shape: 1 128 15 30 (57600)
I1219 03:46:25.513298  9496 net.cpp:159] Memory required for data: 641318404
I1219 03:46:25.513301  9496 layer_factory.hpp:77] Creating layer inception_5a/relu_5x5
I1219 03:46:25.513304  9496 net.cpp:94] Creating Layer inception_5a/relu_5x5
I1219 03:46:25.513306  9496 net.cpp:435] inception_5a/relu_5x5 <- inception_5a/5x5
I1219 03:46:25.513309  9496 net.cpp:396] inception_5a/relu_5x5 -> inception_5a/5x5 (in-place)
I1219 03:46:25.513312  9496 net.cpp:144] Setting up inception_5a/relu_5x5
I1219 03:46:25.513314  9496 net.cpp:151] Top shape: 1 128 15 30 (57600)
I1219 03:46:25.513316  9496 net.cpp:159] Memory required for data: 641548804
I1219 03:46:25.513319  9496 layer_factory.hpp:77] Creating layer inception_5a/pool
I1219 03:46:25.513321  9496 net.cpp:94] Creating Layer inception_5a/pool
I1219 03:46:25.513324  9496 net.cpp:435] inception_5a/pool <- pool4/3x3_s2_pool4/3x3_s2_0_split_3
I1219 03:46:25.513326  9496 net.cpp:409] inception_5a/pool -> inception_5a/pool
I1219 03:46:25.513350  9496 net.cpp:144] Setting up inception_5a/pool
I1219 03:46:25.513353  9496 net.cpp:151] Top shape: 1 832 15 30 (374400)
I1219 03:46:25.513356  9496 net.cpp:159] Memory required for data: 643046404
I1219 03:46:25.513358  9496 layer_factory.hpp:77] Creating layer inception_5a/pool_proj
I1219 03:46:25.513362  9496 net.cpp:94] Creating Layer inception_5a/pool_proj
I1219 03:46:25.513365  9496 net.cpp:435] inception_5a/pool_proj <- inception_5a/pool
I1219 03:46:25.513366  9496 net.cpp:409] inception_5a/pool_proj -> inception_5a/pool_proj
I1219 03:46:25.513998  9496 layer_factory.hpp:77] Creating layer inception_5a/pool_proj
I1219 03:46:25.515249  9496 net.cpp:144] Setting up inception_5a/pool_proj
I1219 03:46:25.515254  9496 net.cpp:151] Top shape: 1 128 15 30 (57600)
I1219 03:46:25.515257  9496 net.cpp:159] Memory required for data: 643276804
I1219 03:46:25.515265  9496 layer_factory.hpp:77] Creating layer inception_5a/relu_pool_proj
I1219 03:46:25.515269  9496 net.cpp:94] Creating Layer inception_5a/relu_pool_proj
I1219 03:46:25.515271  9496 net.cpp:435] inception_5a/relu_pool_proj <- inception_5a/pool_proj
I1219 03:46:25.515273  9496 net.cpp:396] inception_5a/relu_pool_proj -> inception_5a/pool_proj (in-place)
I1219 03:46:25.515277  9496 net.cpp:144] Setting up inception_5a/relu_pool_proj
I1219 03:46:25.515278  9496 net.cpp:151] Top shape: 1 128 15 30 (57600)
I1219 03:46:25.515281  9496 net.cpp:159] Memory required for data: 643507204
I1219 03:46:25.515282  9496 layer_factory.hpp:77] Creating layer inception_5a/output
I1219 03:46:25.515285  9496 net.cpp:94] Creating Layer inception_5a/output
I1219 03:46:25.515287  9496 net.cpp:435] inception_5a/output <- inception_5a/1x1
I1219 03:46:25.515290  9496 net.cpp:435] inception_5a/output <- inception_5a/3x3
I1219 03:46:25.515292  9496 net.cpp:435] inception_5a/output <- inception_5a/5x5
I1219 03:46:25.515295  9496 net.cpp:435] inception_5a/output <- inception_5a/pool_proj
I1219 03:46:25.515296  9496 net.cpp:409] inception_5a/output -> inception_5a/output
I1219 03:46:25.515312  9496 net.cpp:144] Setting up inception_5a/output
I1219 03:46:25.515314  9496 net.cpp:151] Top shape: 1 832 15 30 (374400)
I1219 03:46:25.515316  9496 net.cpp:159] Memory required for data: 645004804
I1219 03:46:25.515318  9496 layer_factory.hpp:77] Creating layer inception_5a/output_fixed
I1219 03:46:25.515321  9496 net.cpp:94] Creating Layer inception_5a/output_fixed
I1219 03:46:25.515323  9496 net.cpp:435] inception_5a/output_fixed <- inception_5a/output
I1219 03:46:25.515326  9496 net.cpp:396] inception_5a/output_fixed -> inception_5a/output (in-place)
I1219 03:46:25.515345  9496 net.cpp:144] Setting up inception_5a/output_fixed
I1219 03:46:25.515347  9496 net.cpp:151] Top shape: 1 832 15 30 (374400)
I1219 03:46:25.515350  9496 net.cpp:159] Memory required for data: 646502404
I1219 03:46:25.515352  9496 layer_factory.hpp:77] Creating layer inception_5a/output_inception_5a/output_fixed_0_split
I1219 03:46:25.515357  9496 net.cpp:94] Creating Layer inception_5a/output_inception_5a/output_fixed_0_split
I1219 03:46:25.515358  9496 net.cpp:435] inception_5a/output_inception_5a/output_fixed_0_split <- inception_5a/output
I1219 03:46:25.515362  9496 net.cpp:409] inception_5a/output_inception_5a/output_fixed_0_split -> inception_5a/output_inception_5a/output_fixed_0_split_0
I1219 03:46:25.515364  9496 net.cpp:409] inception_5a/output_inception_5a/output_fixed_0_split -> inception_5a/output_inception_5a/output_fixed_0_split_1
I1219 03:46:25.515367  9496 net.cpp:409] inception_5a/output_inception_5a/output_fixed_0_split -> inception_5a/output_inception_5a/output_fixed_0_split_2
I1219 03:46:25.515370  9496 net.cpp:409] inception_5a/output_inception_5a/output_fixed_0_split -> inception_5a/output_inception_5a/output_fixed_0_split_3
I1219 03:46:25.515403  9496 net.cpp:144] Setting up inception_5a/output_inception_5a/output_fixed_0_split
I1219 03:46:25.515405  9496 net.cpp:151] Top shape: 1 832 15 30 (374400)
I1219 03:46:25.515408  9496 net.cpp:151] Top shape: 1 832 15 30 (374400)
I1219 03:46:25.515409  9496 net.cpp:151] Top shape: 1 832 15 30 (374400)
I1219 03:46:25.515413  9496 net.cpp:151] Top shape: 1 832 15 30 (374400)
I1219 03:46:25.515414  9496 net.cpp:159] Memory required for data: 652492804
I1219 03:46:25.515416  9496 layer_factory.hpp:77] Creating layer inception_5b/1x1
I1219 03:46:25.515420  9496 net.cpp:94] Creating Layer inception_5b/1x1
I1219 03:46:25.515422  9496 net.cpp:435] inception_5b/1x1 <- inception_5a/output_inception_5a/output_fixed_0_split_0
I1219 03:46:25.515425  9496 net.cpp:409] inception_5b/1x1 -> inception_5b/1x1
I1219 03:46:25.518501  9496 layer_factory.hpp:77] Creating layer inception_5b/1x1
I1219 03:46:25.521610  9496 net.cpp:144] Setting up inception_5b/1x1
I1219 03:46:25.521621  9496 net.cpp:151] Top shape: 1 384 15 30 (172800)
I1219 03:46:25.521626  9496 net.cpp:159] Memory required for data: 653184004
I1219 03:46:25.521634  9496 layer_factory.hpp:77] Creating layer inception_5b/relu_1x1
I1219 03:46:25.521641  9496 net.cpp:94] Creating Layer inception_5b/relu_1x1
I1219 03:46:25.521646  9496 net.cpp:435] inception_5b/relu_1x1 <- inception_5b/1x1
I1219 03:46:25.521652  9496 net.cpp:396] inception_5b/relu_1x1 -> inception_5b/1x1 (in-place)
I1219 03:46:25.521662  9496 net.cpp:144] Setting up inception_5b/relu_1x1
I1219 03:46:25.521664  9496 net.cpp:151] Top shape: 1 384 15 30 (172800)
I1219 03:46:25.521668  9496 net.cpp:159] Memory required for data: 653875204
I1219 03:46:25.521672  9496 layer_factory.hpp:77] Creating layer inception_5b/3x3_reduce
I1219 03:46:25.521680  9496 net.cpp:94] Creating Layer inception_5b/3x3_reduce
I1219 03:46:25.521683  9496 net.cpp:435] inception_5b/3x3_reduce <- inception_5a/output_inception_5a/output_fixed_0_split_1
I1219 03:46:25.521688  9496 net.cpp:409] inception_5b/3x3_reduce -> inception_5b/3x3_reduce
I1219 03:46:25.522701  9496 layer_factory.hpp:77] Creating layer inception_5b/3x3_reduce
I1219 03:46:25.524320  9496 net.cpp:144] Setting up inception_5b/3x3_reduce
I1219 03:46:25.524327  9496 net.cpp:151] Top shape: 1 192 15 30 (86400)
I1219 03:46:25.524330  9496 net.cpp:159] Memory required for data: 654220804
I1219 03:46:25.524336  9496 layer_factory.hpp:77] Creating layer inception_5b/relu_3x3_reduce
I1219 03:46:25.524340  9496 net.cpp:94] Creating Layer inception_5b/relu_3x3_reduce
I1219 03:46:25.524343  9496 net.cpp:435] inception_5b/relu_3x3_reduce <- inception_5b/3x3_reduce
I1219 03:46:25.524349  9496 net.cpp:396] inception_5b/relu_3x3_reduce -> inception_5b/3x3_reduce (in-place)
I1219 03:46:25.524358  9496 net.cpp:144] Setting up inception_5b/relu_3x3_reduce
I1219 03:46:25.524365  9496 net.cpp:151] Top shape: 1 192 15 30 (86400)
I1219 03:46:25.524370  9496 net.cpp:159] Memory required for data: 654566404
I1219 03:46:25.524374  9496 layer_factory.hpp:77] Creating layer inception_5b/3x3_reduce_fixed
I1219 03:46:25.524379  9496 net.cpp:94] Creating Layer inception_5b/3x3_reduce_fixed
I1219 03:46:25.524381  9496 net.cpp:435] inception_5b/3x3_reduce_fixed <- inception_5b/3x3_reduce
I1219 03:46:25.524386  9496 net.cpp:396] inception_5b/3x3_reduce_fixed -> inception_5b/3x3_reduce (in-place)
I1219 03:46:25.524420  9496 net.cpp:144] Setting up inception_5b/3x3_reduce_fixed
I1219 03:46:25.524425  9496 net.cpp:151] Top shape: 1 192 15 30 (86400)
I1219 03:46:25.524430  9496 net.cpp:159] Memory required for data: 654912004
I1219 03:46:25.524433  9496 layer_factory.hpp:77] Creating layer inception_5b/3x3
I1219 03:46:25.524441  9496 net.cpp:94] Creating Layer inception_5b/3x3
I1219 03:46:25.524446  9496 net.cpp:435] inception_5b/3x3 <- inception_5b/3x3_reduce
I1219 03:46:25.524451  9496 net.cpp:409] inception_5b/3x3 -> inception_5b/3x3
I1219 03:46:25.529348  9496 layer_factory.hpp:77] Creating layer inception_5b/3x3
I1219 03:46:25.534346  9496 net.cpp:144] Setting up inception_5b/3x3
I1219 03:46:25.534355  9496 net.cpp:151] Top shape: 1 384 15 30 (172800)
I1219 03:46:25.534361  9496 net.cpp:159] Memory required for data: 655603204
I1219 03:46:25.534369  9496 layer_factory.hpp:77] Creating layer inception_5b/relu_3x3
I1219 03:46:25.534375  9496 net.cpp:94] Creating Layer inception_5b/relu_3x3
I1219 03:46:25.534384  9496 net.cpp:435] inception_5b/relu_3x3 <- inception_5b/3x3
I1219 03:46:25.534390  9496 net.cpp:396] inception_5b/relu_3x3 -> inception_5b/3x3 (in-place)
I1219 03:46:25.534401  9496 net.cpp:144] Setting up inception_5b/relu_3x3
I1219 03:46:25.534405  9496 net.cpp:151] Top shape: 1 384 15 30 (172800)
I1219 03:46:25.534409  9496 net.cpp:159] Memory required for data: 656294404
I1219 03:46:25.534412  9496 layer_factory.hpp:77] Creating layer inception_5b/5x5_reduce
I1219 03:46:25.534420  9496 net.cpp:94] Creating Layer inception_5b/5x5_reduce
I1219 03:46:25.534425  9496 net.cpp:435] inception_5b/5x5_reduce <- inception_5a/output_inception_5a/output_fixed_0_split_2
I1219 03:46:25.534430  9496 net.cpp:409] inception_5b/5x5_reduce -> inception_5b/5x5_reduce
I1219 03:46:25.534792  9496 layer_factory.hpp:77] Creating layer inception_5b/5x5_reduce
I1219 03:46:25.535224  9496 net.cpp:144] Setting up inception_5b/5x5_reduce
I1219 03:46:25.535229  9496 net.cpp:151] Top shape: 1 48 15 30 (21600)
I1219 03:46:25.535233  9496 net.cpp:159] Memory required for data: 656380804
I1219 03:46:25.535236  9496 layer_factory.hpp:77] Creating layer inception_5b/relu_5x5_reduce
I1219 03:46:25.535240  9496 net.cpp:94] Creating Layer inception_5b/relu_5x5_reduce
I1219 03:46:25.535243  9496 net.cpp:435] inception_5b/relu_5x5_reduce <- inception_5b/5x5_reduce
I1219 03:46:25.535248  9496 net.cpp:396] inception_5b/relu_5x5_reduce -> inception_5b/5x5_reduce (in-place)
I1219 03:46:25.535252  9496 net.cpp:144] Setting up inception_5b/relu_5x5_reduce
I1219 03:46:25.535254  9496 net.cpp:151] Top shape: 1 48 15 30 (21600)
I1219 03:46:25.535259  9496 net.cpp:159] Memory required for data: 656467204
I1219 03:46:25.535260  9496 layer_factory.hpp:77] Creating layer inception_5b/5x5_reduce_fixed
I1219 03:46:25.535266  9496 net.cpp:94] Creating Layer inception_5b/5x5_reduce_fixed
I1219 03:46:25.535269  9496 net.cpp:435] inception_5b/5x5_reduce_fixed <- inception_5b/5x5_reduce
I1219 03:46:25.535272  9496 net.cpp:396] inception_5b/5x5_reduce_fixed -> inception_5b/5x5_reduce (in-place)
I1219 03:46:25.535300  9496 net.cpp:144] Setting up inception_5b/5x5_reduce_fixed
I1219 03:46:25.535303  9496 net.cpp:151] Top shape: 1 48 15 30 (21600)
I1219 03:46:25.535306  9496 net.cpp:159] Memory required for data: 656553604
I1219 03:46:25.535310  9496 layer_factory.hpp:77] Creating layer inception_5b/5x5
I1219 03:46:25.535315  9496 net.cpp:94] Creating Layer inception_5b/5x5
I1219 03:46:25.535318  9496 net.cpp:435] inception_5b/5x5 <- inception_5b/5x5_reduce
I1219 03:46:25.535322  9496 net.cpp:409] inception_5b/5x5 -> inception_5b/5x5
I1219 03:46:25.536263  9496 layer_factory.hpp:77] Creating layer inception_5b/5x5
I1219 03:46:25.537797  9496 net.cpp:144] Setting up inception_5b/5x5
I1219 03:46:25.537804  9496 net.cpp:151] Top shape: 1 128 15 30 (57600)
I1219 03:46:25.537807  9496 net.cpp:159] Memory required for data: 656784004
I1219 03:46:25.537811  9496 layer_factory.hpp:77] Creating layer inception_5b/relu_5x5
I1219 03:46:25.537815  9496 net.cpp:94] Creating Layer inception_5b/relu_5x5
I1219 03:46:25.537818  9496 net.cpp:435] inception_5b/relu_5x5 <- inception_5b/5x5
I1219 03:46:25.537822  9496 net.cpp:396] inception_5b/relu_5x5 -> inception_5b/5x5 (in-place)
I1219 03:46:25.537827  9496 net.cpp:144] Setting up inception_5b/relu_5x5
I1219 03:46:25.537829  9496 net.cpp:151] Top shape: 1 128 15 30 (57600)
I1219 03:46:25.537833  9496 net.cpp:159] Memory required for data: 657014404
I1219 03:46:25.537835  9496 layer_factory.hpp:77] Creating layer inception_5b/pool
I1219 03:46:25.537842  9496 net.cpp:94] Creating Layer inception_5b/pool
I1219 03:46:25.537843  9496 net.cpp:435] inception_5b/pool <- inception_5a/output_inception_5a/output_fixed_0_split_3
I1219 03:46:25.537848  9496 net.cpp:409] inception_5b/pool -> inception_5b/pool
I1219 03:46:25.537878  9496 net.cpp:144] Setting up inception_5b/pool
I1219 03:46:25.537881  9496 net.cpp:151] Top shape: 1 832 15 30 (374400)
I1219 03:46:25.537884  9496 net.cpp:159] Memory required for data: 658512004
I1219 03:46:25.537887  9496 layer_factory.hpp:77] Creating layer inception_5b/pool_proj
I1219 03:46:25.537894  9496 net.cpp:94] Creating Layer inception_5b/pool_proj
I1219 03:46:25.537896  9496 net.cpp:435] inception_5b/pool_proj <- inception_5b/pool
I1219 03:46:25.537900  9496 net.cpp:409] inception_5b/pool_proj -> inception_5b/pool_proj
I1219 03:46:25.538540  9496 layer_factory.hpp:77] Creating layer inception_5b/pool_proj
I1219 03:46:25.539885  9496 net.cpp:144] Setting up inception_5b/pool_proj
I1219 03:46:25.539892  9496 net.cpp:151] Top shape: 1 128 15 30 (57600)
I1219 03:46:25.539896  9496 net.cpp:159] Memory required for data: 658742404
I1219 03:46:25.539899  9496 layer_factory.hpp:77] Creating layer inception_5b/relu_pool_proj
I1219 03:46:25.539902  9496 net.cpp:94] Creating Layer inception_5b/relu_pool_proj
I1219 03:46:25.539906  9496 net.cpp:435] inception_5b/relu_pool_proj <- inception_5b/pool_proj
I1219 03:46:25.539908  9496 net.cpp:396] inception_5b/relu_pool_proj -> inception_5b/pool_proj (in-place)
I1219 03:46:25.539912  9496 net.cpp:144] Setting up inception_5b/relu_pool_proj
I1219 03:46:25.539914  9496 net.cpp:151] Top shape: 1 128 15 30 (57600)
I1219 03:46:25.539917  9496 net.cpp:159] Memory required for data: 658972804
I1219 03:46:25.539921  9496 layer_factory.hpp:77] Creating layer inception_5b/output
I1219 03:46:25.539924  9496 net.cpp:94] Creating Layer inception_5b/output
I1219 03:46:25.539927  9496 net.cpp:435] inception_5b/output <- inception_5b/1x1
I1219 03:46:25.539930  9496 net.cpp:435] inception_5b/output <- inception_5b/3x3
I1219 03:46:25.539933  9496 net.cpp:435] inception_5b/output <- inception_5b/5x5
I1219 03:46:25.539937  9496 net.cpp:435] inception_5b/output <- inception_5b/pool_proj
I1219 03:46:25.539940  9496 net.cpp:409] inception_5b/output -> inception_5b/output
I1219 03:46:25.539963  9496 net.cpp:144] Setting up inception_5b/output
I1219 03:46:25.539968  9496 net.cpp:151] Top shape: 1 1024 15 30 (460800)
I1219 03:46:25.539971  9496 net.cpp:159] Memory required for data: 660816004
I1219 03:46:25.539973  9496 layer_factory.hpp:77] Creating layer inception_5b/output_fixed
I1219 03:46:25.539979  9496 net.cpp:94] Creating Layer inception_5b/output_fixed
I1219 03:46:25.539983  9496 net.cpp:435] inception_5b/output_fixed <- inception_5b/output
I1219 03:46:25.539986  9496 net.cpp:396] inception_5b/output_fixed -> inception_5b/output (in-place)
I1219 03:46:25.540021  9496 net.cpp:144] Setting up inception_5b/output_fixed
I1219 03:46:25.540030  9496 net.cpp:151] Top shape: 1 1024 15 30 (460800)
I1219 03:46:25.540033  9496 net.cpp:159] Memory required for data: 662659204
I1219 03:46:25.540037  9496 layer_factory.hpp:77] Creating layer p5
I1219 03:46:25.540045  9496 net.cpp:94] Creating Layer p5
I1219 03:46:25.540047  9496 net.cpp:435] p5 <- inception_5b/output
I1219 03:46:25.540051  9496 net.cpp:409] p5 -> p5
I1219 03:46:25.540369  9496 layer_factory.hpp:77] Creating layer p5
I1219 03:46:25.540755  9496 net.cpp:144] Setting up p5
I1219 03:46:25.540760  9496 net.cpp:151] Top shape: 1 32 15 30 (14400)
I1219 03:46:25.540763  9496 net.cpp:159] Memory required for data: 662716804
I1219 03:46:25.540767  9496 layer_factory.hpp:77] Creating layer p5_fixed
I1219 03:46:25.540772  9496 net.cpp:94] Creating Layer p5_fixed
I1219 03:46:25.540774  9496 net.cpp:435] p5_fixed <- p5
I1219 03:46:25.540777  9496 net.cpp:396] p5_fixed -> p5 (in-place)
I1219 03:46:25.540796  9496 net.cpp:144] Setting up p5_fixed
I1219 03:46:25.540800  9496 net.cpp:151] Top shape: 1 32 15 30 (14400)
I1219 03:46:25.540802  9496 net.cpp:159] Memory required for data: 662774404
I1219 03:46:25.540804  9496 layer_factory.hpp:77] Creating layer latlayer_4f
I1219 03:46:25.540808  9496 net.cpp:94] Creating Layer latlayer_4f
I1219 03:46:25.540812  9496 net.cpp:435] latlayer_4f <- inception_4e/output_inception_4e/output_fixed_0_split_1
I1219 03:46:25.540814  9496 net.cpp:409] latlayer_4f -> latlayer_4f
I1219 03:46:25.541057  9496 layer_factory.hpp:77] Creating layer latlayer_4f
I1219 03:46:25.541411  9496 net.cpp:144] Setting up latlayer_4f
I1219 03:46:25.541414  9496 net.cpp:151] Top shape: 1 32 30 60 (57600)
I1219 03:46:25.541417  9496 net.cpp:159] Memory required for data: 663004804
I1219 03:46:25.541420  9496 layer_factory.hpp:77] Creating layer latlayer_4f_fixed
I1219 03:46:25.541424  9496 net.cpp:94] Creating Layer latlayer_4f_fixed
I1219 03:46:25.541426  9496 net.cpp:435] latlayer_4f_fixed <- latlayer_4f
I1219 03:46:25.541429  9496 net.cpp:396] latlayer_4f_fixed -> latlayer_4f (in-place)
I1219 03:46:25.541451  9496 net.cpp:144] Setting up latlayer_4f_fixed
I1219 03:46:25.541455  9496 net.cpp:151] Top shape: 1 32 30 60 (57600)
I1219 03:46:25.541456  9496 net.cpp:159] Memory required for data: 663235204
I1219 03:46:25.541460  9496 layer_factory.hpp:77] Creating layer upsample_p5
I1219 03:46:25.541462  9496 net.cpp:94] Creating Layer upsample_p5
I1219 03:46:25.541465  9496 net.cpp:435] upsample_p5 <- p5
I1219 03:46:25.541467  9496 net.cpp:409] upsample_p5 -> upsample_p5
I1219 03:46:25.541644  9496 layer_factory.hpp:77] Creating layer upsample_p5
I1219 03:46:25.541880  9496 net.cpp:144] Setting up upsample_p5
I1219 03:46:25.541883  9496 net.cpp:151] Top shape: 1 32 30 60 (57600)
I1219 03:46:25.541887  9496 net.cpp:159] Memory required for data: 663465604
I1219 03:46:25.541888  9496 layer_factory.hpp:77] Creating layer upsample_p5_fixed
I1219 03:46:25.541891  9496 net.cpp:94] Creating Layer upsample_p5_fixed
I1219 03:46:25.541893  9496 net.cpp:435] upsample_p5_fixed <- upsample_p5
I1219 03:46:25.541896  9496 net.cpp:396] upsample_p5_fixed -> upsample_p5 (in-place)
I1219 03:46:25.541915  9496 net.cpp:144] Setting up upsample_p5_fixed
I1219 03:46:25.541918  9496 net.cpp:151] Top shape: 1 32 30 60 (57600)
I1219 03:46:25.541920  9496 net.cpp:159] Memory required for data: 663696004
I1219 03:46:25.541923  9496 layer_factory.hpp:77] Creating layer add_p4
I1219 03:46:25.541925  9496 net.cpp:94] Creating Layer add_p4
I1219 03:46:25.541927  9496 net.cpp:435] add_p4 <- upsample_p5
I1219 03:46:25.541929  9496 net.cpp:435] add_p4 <- latlayer_4f
I1219 03:46:25.541932  9496 net.cpp:409] add_p4 -> add_p4
I1219 03:46:25.541944  9496 net.cpp:144] Setting up add_p4
I1219 03:46:25.541946  9496 net.cpp:151] Top shape: 1 32 30 60 (57600)
I1219 03:46:25.541949  9496 net.cpp:159] Memory required for data: 663926404
I1219 03:46:25.541950  9496 layer_factory.hpp:77] Creating layer add_p4_fixed
I1219 03:46:25.541954  9496 net.cpp:94] Creating Layer add_p4_fixed
I1219 03:46:25.541955  9496 net.cpp:435] add_p4_fixed <- add_p4
I1219 03:46:25.541957  9496 net.cpp:396] add_p4_fixed -> add_p4 (in-place)
I1219 03:46:25.541977  9496 net.cpp:144] Setting up add_p4_fixed
I1219 03:46:25.541980  9496 net.cpp:151] Top shape: 1 32 30 60 (57600)
I1219 03:46:25.541982  9496 net.cpp:159] Memory required for data: 664156804
I1219 03:46:25.541985  9496 layer_factory.hpp:77] Creating layer toplayer_p4
I1219 03:46:25.541988  9496 net.cpp:94] Creating Layer toplayer_p4
I1219 03:46:25.541990  9496 net.cpp:435] toplayer_p4 <- add_p4
I1219 03:46:25.541992  9496 net.cpp:409] toplayer_p4 -> p4
I1219 03:46:25.542151  9496 layer_factory.hpp:77] Creating layer toplayer_p4
I1219 03:46:25.542403  9496 net.cpp:144] Setting up toplayer_p4
I1219 03:46:25.542407  9496 net.cpp:151] Top shape: 1 32 30 60 (57600)
I1219 03:46:25.542410  9496 net.cpp:159] Memory required for data: 664387204
I1219 03:46:25.542413  9496 layer_factory.hpp:77] Creating layer p4_fixed
I1219 03:46:25.542416  9496 net.cpp:94] Creating Layer p4_fixed
I1219 03:46:25.542418  9496 net.cpp:435] p4_fixed <- p4
I1219 03:46:25.542421  9496 net.cpp:396] p4_fixed -> p4 (in-place)
I1219 03:46:25.542439  9496 net.cpp:144] Setting up p4_fixed
I1219 03:46:25.542441  9496 net.cpp:151] Top shape: 1 32 30 60 (57600)
I1219 03:46:25.542444  9496 net.cpp:159] Memory required for data: 664617604
I1219 03:46:25.542446  9496 layer_factory.hpp:77] Creating layer latlayer_3d
I1219 03:46:25.542450  9496 net.cpp:94] Creating Layer latlayer_3d
I1219 03:46:25.542452  9496 net.cpp:435] latlayer_3d <- inception_3b/output_inception_3b/output_fixed_0_split_1
I1219 03:46:25.542455  9496 net.cpp:409] latlayer_3d -> latlayer_3d
I1219 03:46:25.542644  9496 layer_factory.hpp:77] Creating layer latlayer_3d
I1219 03:46:25.542940  9496 net.cpp:144] Setting up latlayer_3d
I1219 03:46:25.542945  9496 net.cpp:151] Top shape: 1 32 60 120 (230400)
I1219 03:46:25.542948  9496 net.cpp:159] Memory required for data: 665539204
I1219 03:46:25.542951  9496 layer_factory.hpp:77] Creating layer latlayer_3d_fixed
I1219 03:46:25.542954  9496 net.cpp:94] Creating Layer latlayer_3d_fixed
I1219 03:46:25.542956  9496 net.cpp:435] latlayer_3d_fixed <- latlayer_3d
I1219 03:46:25.542959  9496 net.cpp:396] latlayer_3d_fixed -> latlayer_3d (in-place)
I1219 03:46:25.542979  9496 net.cpp:144] Setting up latlayer_3d_fixed
I1219 03:46:25.542981  9496 net.cpp:151] Top shape: 1 32 60 120 (230400)
I1219 03:46:25.542984  9496 net.cpp:159] Memory required for data: 666460804
I1219 03:46:25.542986  9496 layer_factory.hpp:77] Creating layer upsample_p4
I1219 03:46:25.542990  9496 net.cpp:94] Creating Layer upsample_p4
I1219 03:46:25.542992  9496 net.cpp:435] upsample_p4 <- p4
I1219 03:46:25.542994  9496 net.cpp:409] upsample_p4 -> upsample_p4
I1219 03:46:25.543162  9496 layer_factory.hpp:77] Creating layer upsample_p4
I1219 03:46:25.543390  9496 net.cpp:144] Setting up upsample_p4
I1219 03:46:25.543395  9496 net.cpp:151] Top shape: 1 32 60 120 (230400)
I1219 03:46:25.543397  9496 net.cpp:159] Memory required for data: 667382404
I1219 03:46:25.543399  9496 layer_factory.hpp:77] Creating layer upsample_p4_fixed
I1219 03:46:25.543403  9496 net.cpp:94] Creating Layer upsample_p4_fixed
I1219 03:46:25.543406  9496 net.cpp:435] upsample_p4_fixed <- upsample_p4
I1219 03:46:25.543408  9496 net.cpp:396] upsample_p4_fixed -> upsample_p4 (in-place)
I1219 03:46:25.543426  9496 net.cpp:144] Setting up upsample_p4_fixed
I1219 03:46:25.543428  9496 net.cpp:151] Top shape: 1 32 60 120 (230400)
I1219 03:46:25.543431  9496 net.cpp:159] Memory required for data: 668304004
I1219 03:46:25.543433  9496 layer_factory.hpp:77] Creating layer add_p3
I1219 03:46:25.543435  9496 net.cpp:94] Creating Layer add_p3
I1219 03:46:25.543437  9496 net.cpp:435] add_p3 <- upsample_p4
I1219 03:46:25.543439  9496 net.cpp:435] add_p3 <- latlayer_3d
I1219 03:46:25.543442  9496 net.cpp:409] add_p3 -> add_p3
I1219 03:46:25.543454  9496 net.cpp:144] Setting up add_p3
I1219 03:46:25.543459  9496 net.cpp:151] Top shape: 1 32 60 120 (230400)
I1219 03:46:25.543462  9496 net.cpp:159] Memory required for data: 669225604
I1219 03:46:25.543465  9496 layer_factory.hpp:77] Creating layer add_p3_fixed
I1219 03:46:25.543469  9496 net.cpp:94] Creating Layer add_p3_fixed
I1219 03:46:25.543471  9496 net.cpp:435] add_p3_fixed <- add_p3
I1219 03:46:25.543475  9496 net.cpp:396] add_p3_fixed -> add_p3 (in-place)
I1219 03:46:25.543498  9496 net.cpp:144] Setting up add_p3_fixed
I1219 03:46:25.543501  9496 net.cpp:151] Top shape: 1 32 60 120 (230400)
I1219 03:46:25.543504  9496 net.cpp:159] Memory required for data: 670147204
I1219 03:46:25.543509  9496 layer_factory.hpp:77] Creating layer toplayer_p3
I1219 03:46:25.543514  9496 net.cpp:94] Creating Layer toplayer_p3
I1219 03:46:25.543516  9496 net.cpp:435] toplayer_p3 <- add_p3
I1219 03:46:25.543519  9496 net.cpp:409] toplayer_p3 -> p3
I1219 03:46:25.543676  9496 layer_factory.hpp:77] Creating layer toplayer_p3
I1219 03:46:25.543942  9496 net.cpp:144] Setting up toplayer_p3
I1219 03:46:25.543947  9496 net.cpp:151] Top shape: 1 32 60 120 (230400)
I1219 03:46:25.543951  9496 net.cpp:159] Memory required for data: 671068804
I1219 03:46:25.543953  9496 layer_factory.hpp:77] Creating layer p3_fixed
I1219 03:46:25.543957  9496 net.cpp:94] Creating Layer p3_fixed
I1219 03:46:25.543959  9496 net.cpp:435] p3_fixed <- p3
I1219 03:46:25.543962  9496 net.cpp:396] p3_fixed -> p3 (in-place)
I1219 03:46:25.543980  9496 net.cpp:144] Setting up p3_fixed
I1219 03:46:25.543983  9496 net.cpp:151] Top shape: 1 32 60 120 (230400)
I1219 03:46:25.543985  9496 net.cpp:159] Memory required for data: 671990404
I1219 03:46:25.543988  9496 layer_factory.hpp:77] Creating layer latlayer_2c
I1219 03:46:25.543992  9496 net.cpp:94] Creating Layer latlayer_2c
I1219 03:46:25.543994  9496 net.cpp:435] latlayer_2c <- conv2/3x3_conv2/3x3_fixed_0_split_1
I1219 03:46:25.543998  9496 net.cpp:409] latlayer_2c -> latlayer_2c
I1219 03:46:25.544129  9496 layer_factory.hpp:77] Creating layer latlayer_2c
I1219 03:46:25.544363  9496 net.cpp:144] Setting up latlayer_2c
I1219 03:46:25.544366  9496 net.cpp:151] Top shape: 1 32 120 240 (921600)
I1219 03:46:25.544369  9496 net.cpp:159] Memory required for data: 675676804
I1219 03:46:25.544373  9496 layer_factory.hpp:77] Creating layer latlayer_2c_fixed
I1219 03:46:25.544375  9496 net.cpp:94] Creating Layer latlayer_2c_fixed
I1219 03:46:25.544378  9496 net.cpp:435] latlayer_2c_fixed <- latlayer_2c
I1219 03:46:25.544379  9496 net.cpp:396] latlayer_2c_fixed -> latlayer_2c (in-place)
I1219 03:46:25.544397  9496 net.cpp:144] Setting up latlayer_2c_fixed
I1219 03:46:25.544400  9496 net.cpp:151] Top shape: 1 32 120 240 (921600)
I1219 03:46:25.544402  9496 net.cpp:159] Memory required for data: 679363204
I1219 03:46:25.544405  9496 layer_factory.hpp:77] Creating layer upsample_p3
I1219 03:46:25.544409  9496 net.cpp:94] Creating Layer upsample_p3
I1219 03:46:25.544410  9496 net.cpp:435] upsample_p3 <- p3
I1219 03:46:25.544414  9496 net.cpp:409] upsample_p3 -> upsample_p3
I1219 03:46:25.544580  9496 layer_factory.hpp:77] Creating layer upsample_p3
I1219 03:46:25.544800  9496 net.cpp:144] Setting up upsample_p3
I1219 03:46:25.544802  9496 net.cpp:151] Top shape: 1 32 120 240 (921600)
I1219 03:46:25.544806  9496 net.cpp:159] Memory required for data: 683049604
I1219 03:46:25.544807  9496 layer_factory.hpp:77] Creating layer upsample_p3_fixed
I1219 03:46:25.544811  9496 net.cpp:94] Creating Layer upsample_p3_fixed
I1219 03:46:25.544812  9496 net.cpp:435] upsample_p3_fixed <- upsample_p3
I1219 03:46:25.544816  9496 net.cpp:396] upsample_p3_fixed -> upsample_p3 (in-place)
I1219 03:46:25.544832  9496 net.cpp:144] Setting up upsample_p3_fixed
I1219 03:46:25.544834  9496 net.cpp:151] Top shape: 1 32 120 240 (921600)
I1219 03:46:25.544837  9496 net.cpp:159] Memory required for data: 686736004
I1219 03:46:25.544839  9496 layer_factory.hpp:77] Creating layer add_p2
I1219 03:46:25.544842  9496 net.cpp:94] Creating Layer add_p2
I1219 03:46:25.544844  9496 net.cpp:435] add_p2 <- upsample_p3
I1219 03:46:25.544847  9496 net.cpp:435] add_p2 <- latlayer_2c
I1219 03:46:25.544848  9496 net.cpp:409] add_p2 -> add_p2
I1219 03:46:25.544859  9496 net.cpp:144] Setting up add_p2
I1219 03:46:25.544860  9496 net.cpp:151] Top shape: 1 32 120 240 (921600)
I1219 03:46:25.544863  9496 net.cpp:159] Memory required for data: 690422404
I1219 03:46:25.544865  9496 layer_factory.hpp:77] Creating layer add_p2_fixed
I1219 03:46:25.544867  9496 net.cpp:94] Creating Layer add_p2_fixed
I1219 03:46:25.544869  9496 net.cpp:435] add_p2_fixed <- add_p2
I1219 03:46:25.544872  9496 net.cpp:396] add_p2_fixed -> add_p2 (in-place)
I1219 03:46:25.544888  9496 net.cpp:144] Setting up add_p2_fixed
I1219 03:46:25.544889  9496 net.cpp:151] Top shape: 1 32 120 240 (921600)
I1219 03:46:25.544893  9496 net.cpp:159] Memory required for data: 694108804
I1219 03:46:25.544894  9496 layer_factory.hpp:77] Creating layer toplayer_p2
I1219 03:46:25.544898  9496 net.cpp:94] Creating Layer toplayer_p2
I1219 03:46:25.544899  9496 net.cpp:435] toplayer_p2 <- add_p2
I1219 03:46:25.544903  9496 net.cpp:409] toplayer_p2 -> pred
I1219 03:46:25.545014  9496 layer_factory.hpp:77] Creating layer toplayer_p2
I1219 03:46:25.546509  9496 net.cpp:144] Setting up toplayer_p2
I1219 03:46:25.546516  9496 net.cpp:151] Top shape: 1 5 480 960 (2304000)
I1219 03:46:25.546520  9496 net.cpp:159] Memory required for data: 703324804
I1219 03:46:25.546525  9496 layer_factory.hpp:77] Creating layer pred_fixed
I1219 03:46:25.546530  9496 net.cpp:94] Creating Layer pred_fixed
I1219 03:46:25.546532  9496 net.cpp:435] pred_fixed <- pred
I1219 03:46:25.546535  9496 net.cpp:396] pred_fixed -> pred (in-place)
I1219 03:46:25.546558  9496 net.cpp:144] Setting up pred_fixed
I1219 03:46:25.546561  9496 net.cpp:151] Top shape: 1 5 480 960 (2304000)
I1219 03:46:25.546563  9496 net.cpp:159] Memory required for data: 712540804
I1219 03:46:25.546566  9496 layer_factory.hpp:77] Creating layer score
I1219 03:46:25.546569  9496 net.cpp:94] Creating Layer score
I1219 03:46:25.546571  9496 net.cpp:435] score <- pred
I1219 03:46:25.546573  9496 net.cpp:409] score -> score
I1219 03:46:25.546610  9496 net.cpp:144] Setting up score
I1219 03:46:25.546612  9496 net.cpp:151] Top shape: 1 5 480 960 (2304000)
I1219 03:46:25.546615  9496 net.cpp:159] Memory required for data: 721756804
I1219 03:46:25.546617  9496 net.cpp:222] score does not need backward computation.
I1219 03:46:25.546619  9496 net.cpp:222] pred_fixed does not need backward computation.
I1219 03:46:25.546620  9496 net.cpp:222] toplayer_p2 does not need backward computation.
I1219 03:46:25.546622  9496 net.cpp:222] add_p2_fixed does not need backward computation.
…
