…
I1219 03:09:33.293361 13001 net.cpp:323] The NetState phase (1) differed from the phase (0) specified by a rule in layer data
I1219 03:09:33.293476 13001 net.cpp:52] Initializing net from parameters: 
layer {
  name: "data"
  type: "ImageSegData"
  top: "data"
  top: "label"
  include {
    phase: TEST
  }
  transform_param {
    scale: 0.022
    mean_value: 73
    mean_value: 82
    mean_value: 72
  }
  image_data_param {
    source: "/workspace/Vitis-AI-Tutorials/files/Segment/workspace/data/signate/signate_quantize_test.txt"
    batch_size: 1
    shuffle: false
  }
}
layer {
  name: "resize_down"
  type: "DeephiResize"
  bottom: "data"
  top: "data"
  include {
    phase: TEST
  }
  deephi_resize_param {
    resize_type: BILINEAR
    new_height: 480
    new_width: 960
  }
}
layer {
  name: "conv1/7x7_s2"
  type: "Convolution"
  bottom: "data"
  top: "conv1/7x7_s2_raw"
  param {
    lr_mult: 1
    decay_mult: 1
  }
  convolution_param {
    num_output: 64
    pad: 3
    kernel_size: 7
    stride: 2
    weight_filler {
      type: "msra"
    }
    bias_filler {
      type: "constant"
      value: 0.2
    }
  }
}
layer {
  name: "conv1/7x7_s2_BatchNorm"
  type: "BatchNorm"
  bottom: "conv1/7x7_s2_raw"
  top: "conv1/7x7_s2"
  param {
    lr_mult: 1
    decay_mult: 0
  }
  param {
    lr_mult: 1
    decay_mult: 0
  }
  param {
    lr_mult: 0
    decay_mult: 0
  }
  param {
    lr_mult: 0
    decay_mult: 0
  }
  batch_norm_param {
    use_global_stats: false
    eps: 1e-05
    scale_filler {
      type: "constant"
      value: 1
    }
    bias_filler {
      type: "constant"
      value: 0
    }
  }
}
layer {
  name: "conv1/relu_7x7"
  type: "ReLU"
  bottom: "conv1/7x7_s2"
  top: "conv1/7x7_s2"
}
layer {
  name: "pool1/3x3_s2"
  type: "Pooling"
  bottom: "conv1/7x7_s2"
  top: "pool1/3x3_s2"
  pooling_param {
    pool: MAX
    kernel_size: 3
    stride: 2
  }
}
layer {
  name: "conv2/3x3_reduce"
  type: "Convolution"
  bottom: "pool1/3x3_s2"
  top: "conv2/3x3_reduce_raw"
  param {
    lr_mult: 1
    decay_mult: 1
  }
  convolution_param {
    num_output: 64
    kernel_size: 1
    weight_filler {
      type: "msra"
    }
    bias_filler {
      type: "constant"
      value: 0.2
    }
  }
}
layer {
  name: "conv2/3x3_reduce_BatchNorm"
  type: "BatchNorm"
  bottom: "conv2/3x3_reduce_raw"
  top: "conv2/3x3_reduce"
  param {
    lr_mult: 1
    decay_mult: 0
  }
  param {
    lr_mult: 1
    decay_mult: 0
  }
  param {
    lr_mult: 0
    decay_mult: 0
  }
  param {
    lr_mult: 0
    decay_mult: 0
  }
  batch_norm_param {
    use_global_stats: false
    eps: 1e-05
    scale_filler {
      type: "constant"
      value: 1
    }
    bias_filler {
      type: "constant"
      value: 0
    }
  }
}
layer {
  name: "conv2/relu_3x3_reduce"
  type: "ReLU"
  bottom: "conv2/3x3_reduce"
  top: "conv2/3x3_reduce"
}
layer {
  name: "conv2/3x3"
  type: "Convolution"
  bottom: "conv2/3x3_reduce"
  top: "conv2/3x3_raw"
  param {
    lr_mult: 1
    decay_mult: 1
  }
  convolution_param {
    num_output: 192
    pad: 1
    kernel_size: 3
    weight_filler {
      type: "msra"
    }
    bias_filler {
      type: "constant"
      value: 0.2
    }
  }
}
layer {
  name: "conv2/3x3_BatchNorm"
  type: "BatchNorm"
  bottom: "conv2/3x3_raw"
  top: "conv2/3x3"
  param {
    lr_mult: 1
    decay_mult: 0
  }
  param {
    lr_mult: 1
    decay_mult: 0
  }
  param {
    lr_mult: 0
    decay_mult: 0
  }
  param {
    lr_mult: 0
    decay_mult: 0
  }
  batch_norm_param {
    use_global_stats: false
    eps: 1e-05
    scale_filler {
      type: "constant"
      value: 1
    }
    bias_filler {
      type: "constant"
      value: 0
    }
  }
}
layer {
  name: "conv2/relu_3x3"
  type: "ReLU"
  bottom: "conv2/3x3"
  top: "conv2/3x3"
}
layer {
  name: "pool2/3x3_s2"
  type: "Pooling"
  bottom: "conv2/3x3"
  top: "pool2/3x3_s2"
  pooling_param {
    pool: MAX
    kernel_size: 3
    stride: 2
  }
}
layer {
  name: "inception_3a/1x1"
  type: "Convolution"
  bottom: "pool2/3x3_s2"
  top: "inception_3a/1x1_raw"
  param {
    lr_mult: 1
    decay_mult: 1
  }
  convolution_param {
    num_output: 64
    kernel_size: 1
    weight_filler {
      type: "msra"
    }
    bias_filler {
      type: "constant"
      value: 0.2
    }
  }
}
layer {
  name: "inception_3a/1x1_BatchNorm"
  type: "BatchNorm"
  bottom: "inception_3a/1x1_raw"
  top: "inception_3a/1x1"
  param {
    lr_mult: 1
    decay_mult: 0
  }
  param {
    lr_mult: 1
    decay_mult: 0
  }
  param {
    lr_mult: 0
    decay_mult: 0
  }
  param {
    lr_mult: 0
    decay_mult: 0
  }
  batch_norm_param {
    use_global_stats: false
    eps: 1e-05
    scale_filler {
      type: "constant"
      value: 1
    }
    bias_filler {
      type: "constant"
      value: 0
    }
  }
}
layer {
  name: "inception_3a/relu_1x1"
  type: "ReLU"
  bottom: "inception_3a/1x1"
  top: "inception_3a/1x1"
}
layer {
  name: "inception_3a/3x3_reduce"
  type: "Convolution"
  bottom: "pool2/3x3_s2"
  top: "inception_3a/3x3_reduce_raw"
  param {
    lr_mult: 1
    decay_mult: 1
  }
  convolution_param {
    num_output: 96
    kernel_size: 1
    weight_filler {
      type: "msra"
    }
    bias_filler {
      type: "constant"
      value: 0.2
    }
  }
}
layer {
  name: "inception_3a/3x3_reduce_BatchNorm"
  type: "BatchNorm"
  bottom: "inception_3a/3x3_reduce_raw"
  top: "inception_3a/3x3_reduce"
  param {
    lr_mult: 1
    decay_mult: 0
  }
  param {
    lr_mult: 1
    decay_mult: 0
  }
  param {
    lr_mult: 0
    decay_mult: 0
  }
  param {
    lr_mult: 0
    decay_mult: 0
  }
  batch_norm_param {
    use_global_stats: false
    eps: 1e-05
    scale_filler {
      type: "constant"
      value: 1
    }
    bias_filler {
      type: "constant"
      value: 0
    }
  }
}
layer {
  name: "inception_3a/relu_3x3_reduce"
  type: "ReLU"
  bottom: "inception_3a/3x3_reduce"
  top: "inception_3a/3x3_reduce"
}
layer {
  name: "inception_3a/3x3"
  type: "Convolution"
  bottom: "inception_3a/3x3_reduce"
  top: "inception_3a/3x3_raw"
  param {
    lr_mult: 1
    decay_mult: 1
  }
  convolution_param {
    num_output: 128
    pad: 1
    kernel_size: 3
    weight_filler {
      type: "msra"
    }
    bias_filler {
      type: "constant"
      value: 0.2
    }
  }
}
layer {
  name: "inception_3a/3x3_BatchNorm"
  type: "BatchNorm"
  bottom: "inception_3a/3x3_raw"
  top: "inception_3a/3x3"
  param {
    lr_mult: 1
    decay_mult: 0
  }
  param {
    lr_mult: 1
    decay_mult: 0
  }
  param {
    lr_mult: 0
    decay_mult: 0
  }
  param {
    lr_mult: 0
    decay_mult: 0
  }
  batch_norm_param {
    use_global_stats: false
    eps: 1e-05
    scale_filler {
      type: "constant"
      value: 1
    }
    bias_filler {
      type: "constant"
      value: 0
    }
  }
}
layer {
  name: "inception_3a/relu_3x3"
  type: "ReLU"
  bottom: "inception_3a/3x3"
  top: "inception_3a/3x3"
}
layer {
  name: "inception_3a/5x5_reduce"
  type: "Convolution"
  bottom: "pool2/3x3_s2"
  top: "inception_3a/5x5_reduce_raw"
  param {
    lr_mult: 1
    decay_mult: 1
  }
  convolution_param {
    num_output: 16
    kernel_size: 1
    weight_filler {
      type: "msra"
    }
    bias_filler {
      type: "constant"
      value: 0.2
    }
  }
}
layer {
  name: "inception_3a/5x5_reduce_BatchNorm"
  type: "BatchNorm"
  bottom: "inception_3a/5x5_reduce_raw"
  top: "inception_3a/5x5_reduce"
  param {
    lr_mult: 1
    decay_mult: 0
  }
  param {
    lr_mult: 1
    decay_mult: 0
  }
  param {
    lr_mult: 0
    decay_mult: 0
  }
  param {
    lr_mult: 0
    decay_mult: 0
  }
  batch_norm_param {
    use_global_stats: false
    eps: 1e-05
    scale_filler {
      type: "constant"
      value: 1
    }
    bias_filler {
      type: "constant"
      value: 0
    }
  }
}
layer {
  name: "inception_3a/relu_5x5_reduce"
  type: "ReLU"
  bottom: "inception_3a/5x5_reduce"
  top: "inception_3a/5x5_reduce"
}
layer {
  name: "inception_3a/5x5"
  type: "Convolution"
  bottom: "inception_3a/5x5_reduce"
  top: "inception_3a/5x5_raw"
  param {
    lr_mult: 1
    decay_mult: 1
  }
  convolution_param {
    num_output: 32
    pad: 2
    kernel_size: 5
    weight_filler {
      type: "msra"
    }
    bias_filler {
      type: "constant"
      value: 0.2
    }
  }
}
layer {
  name: "inception_3a/5x5_BatchNorm"
  type: "BatchNorm"
  bottom: "inception_3a/5x5_raw"
  top: "inception_3a/5x5"
  param {
    lr_mult: 1
    decay_mult: 0
  }
  param {
    lr_mult: 1
    decay_mult: 0
  }
  param {
    lr_mult: 0
    decay_mult: 0
  }
  param {
    lr_mult: 0
    decay_mult: 0
  }
  batch_norm_param {
    use_global_stats: false
    eps: 1e-05
    scale_filler {
      type: "constant"
      value: 1
    }
    bias_filler {
      type: "constant"
      value: 0
    }
  }
}
layer {
  name: "inception_3a/relu_5x5"
  type: "ReLU"
  bottom: "inception_3a/5x5"
  top: "inception_3a/5x5"
}
layer {
  name: "inception_3a/pool"
  type: "Pooling"
  bottom: "pool2/3x3_s2"
  top: "inception_3a/pool"
  pooling_param {
    pool: MAX
    kernel_size: 3
    stride: 1
    pad: 1
  }
}
layer {
  name: "inception_3a/pool_proj"
  type: "Convolution"
  bottom: "inception_3a/pool"
  top: "inception_3a/pool_proj_raw"
  param {
    lr_mult: 1
    decay_mult: 1
  }
  convolution_param {
    num_output: 32
    kernel_size: 1
    weight_filler {
      type: "msra"
    }
    bias_filler {
      type: "constant"
      value: 0.2
    }
  }
}
layer {
  name: "inception_3a/pool_proj_BatchNorm"
  type: "BatchNorm"
  bottom: "inception_3a/pool_proj_raw"
  top: "inception_3a/pool_proj"
  param {
    lr_mult: 1
    decay_mult: 0
  }
  param {
    lr_mult: 1
    decay_mult: 0
  }
  param {
    lr_mult: 0
    decay_mult: 0
  }
  param {
    lr_mult: 0
    decay_mult: 0
  }
  batch_norm_param {
    use_global_stats: false
    eps: 1e-05
    scale_filler {
      type: "constant"
      value: 1
    }
    bias_filler {
      type: "constant"
      value: 0
    }
  }
}
layer {
  name: "inception_3a/relu_pool_proj"
  type: "ReLU"
  bottom: "inception_3a/pool_proj"
  top: "inception_3a/pool_proj"
}
layer {
  name: "inception_3a/output"
  type: "Concat"
  bottom: "inception_3a/1x1"
  bottom: "inception_3a/3x3"
  bottom: "inception_3a/5x5"
  bottom: "inception_3a/pool_proj"
  top: "inception_3a/output"
}
layer {
  name: "inception_3b/1x1"
  type: "Convolution"
  bottom: "inception_3a/output"
  top: "inception_3b/1x1_raw"
  param {
    lr_mult: 1
    decay_mult: 1
  }
  convolution_param {
    num_output: 128
    kernel_size: 1
    weight_filler {
      type: "msra"
    }
    bias_filler {
      type: "constant"
      value: 0.2
    }
  }
}
layer {
  name: "inception_3b/1x1_BatchNorm"
  type: "BatchNorm"
  bottom: "inception_3b/1x1_raw"
  top: "inception_3b/1x1"
  param {
    lr_mult: 1
    decay_mult: 0
  }
  param {
    lr_mult: 1
    decay_mult: 0
  }
  param {
    lr_mult: 0
    decay_mult: 0
  }
  param {
    lr_mult: 0
    decay_mult: 0
  }
  batch_norm_param {
    use_global_stats: false
    eps: 1e-05
    scale_filler {
      type: "constant"
      value: 1
    }
    bias_filler {
      type: "constant"
      value: 0
    }
  }
}
layer {
  name: "inception_3b/relu_1x1"
  type: "ReLU"
  bottom: "inception_3b/1x1"
  top: "inception_3b/1x1"
}
layer {
  name: "inception_3b/3x3_reduce"
  type: "Convolution"
  bottom: "inception_3a/output"
  top: "inception_3b/3x3_reduce_raw"
  param {
    lr_mult: 1
    decay_mult: 1
  }
  convolution_param {
    num_output: 128
    kernel_size: 1
    weight_filler {
      type: "msra"
    }
    bias_filler {
      type: "constant"
      value: 0.2
    }
  }
}
layer {
  name: "inception_3b/3x3_reduce_BatchNorm"
  type: "BatchNorm"
  bottom: "inception_3b/3x3_reduce_raw"
  top: "inception_3b/3x3_reduce"
  param {
    lr_mult: 1
    decay_mult: 0
  }
  param {
    lr_mult: 1
    decay_mult: 0
  }
  param {
    lr_mult: 0
    decay_mult: 0
  }
  param {
    lr_mult: 0
    decay_mult: 0
  }
  batch_norm_param {
    use_global_stats: false
    eps: 1e-05
    scale_filler {
      type: "constant"
      value: 1
    }
    bias_filler {
      type: "constant"
      value: 0
    }
  }
}
layer {
  name: "inception_3b/relu_3x3_reduce"
  type: "ReLU"
  bottom: "inception_3b/3x3_reduce"
  top: "inception_3b/3x3_reduce"
}
layer {
  name: "inception_3b/3x3"
  type: "Convolution"
  bottom: "inception_3b/3x3_reduce"
  top: "inception_3b/3x3_raw"
  param {
    lr_mult: 1
    decay_mult: 1
  }
  convolution_param {
    num_output: 192
    pad: 1
    kernel_size: 3
    weight_filler {
      type: "msra"
    }
    bias_filler {
      type: "constant"
      value: 0.2
    }
  }
}
layer {
  name: "inception_3b/3x3_BatchNorm"
  type: "BatchNorm"
  bottom: "inception_3b/3x3_raw"
  top: "inception_3b/3x3"
  param {
    lr_mult: 1
    decay_mult: 0
  }
  param {
    lr_mult: 1
    decay_mult: 0
  }
  param {
    lr_mult: 0
    decay_mult: 0
  }
  param {
    lr_mult: 0
    decay_mult: 0
  }
  batch_norm_param {
    use_global_stats: false
    eps: 1e-05
    scale_filler {
      type: "constant"
      value: 1
    }
    bias_filler {
      type: "constant"
      value: 0
    }
  }
}
layer {
  name: "inception_3b/relu_3x3"
  type: "ReLU"
  bottom: "inception_3b/3x3"
  top: "inception_3b/3x3"
}
layer {
  name: "inception_3b/5x5_reduce"
  type: "Convolution"
  bottom: "inception_3a/output"
  top: "inception_3b/5x5_reduce_raw"
  param {
    lr_mult: 1
    decay_mult: 1
  }
  convolution_param {
    num_output: 32
    kernel_size: 1
    weight_filler {
      type: "msra"
    }
    bias_filler {
      type: "constant"
      value: 0.2
    }
  }
}
layer {
  name: "inception_3b/5x5_reduce_BatchNorm"
  type: "BatchNorm"
  bottom: "inception_3b/5x5_reduce_raw"
  top: "inception_3b/5x5_reduce"
  param {
    lr_mult: 1
    decay_mult: 0
  }
  param {
    lr_mult: 1
    decay_mult: 0
  }
  param {
    lr_mult: 0
    decay_mult: 0
  }
  param {
    lr_mult: 0
    decay_mult: 0
  }
  batch_norm_param {
    use_global_stats: false
    eps: 1e-05
    scale_filler {
      type: "constant"
      value: 1
    }
    bias_filler {
      type: "constant"
      value: 0
    }
  }
}
layer {
  name: "inception_3b/relu_5x5_reduce"
  type: "ReLU"
  bottom: "inception_3b/5x5_reduce"
  top: "inception_3b/5x5_reduce"
}
layer {
  name: "inception_3b/5x5"
  type: "Convolution"
  bottom: "inception_3b/5x5_reduce"
  top: "inception_3b/5x5_raw"
  param {
    lr_mult: 1
    decay_mult: 1
  }
  convolution_param {
    num_output: 96
    pad: 2
    kernel_size: 5
    weight_filler {
      type: "msra"
    }
    bias_filler {
      type: "constant"
      value: 0.2
    }
  }
}
layer {
  name: "inception_3b/5x5_BatchNorm"
  type: "BatchNorm"
  bottom: "inception_3b/5x5_raw"
  top: "inception_3b/5x5"
  param {
    lr_mult: 1
    decay_mult: 0
  }
  param {
    lr_mult: 1
    decay_mult: 0
  }
  param {
    lr_mult: 0
    decay_mult: 0
  }
  param {
    lr_mult: 0
    decay_mult: 0
  }
  batch_norm_param {
    use_global_stats: false
    eps: 1e-05
    scale_filler {
      type: "constant"
      value: 1
    }
    bias_filler {
      type: "constant"
      value: 0
    }
  }
}
layer {
  name: "inception_3b/relu_5x5"
  type: "ReLU"
  bottom: "inception_3b/5x5"
  top: "inception_3b/5x5"
}
layer {
  name: "inception_3b/pool"
  type: "Pooling"
  bottom: "inception_3a/output"
  top: "inception_3b/pool"
  pooling_param {
    pool: MAX
    kernel_size: 3
    stride: 1
    pad: 1
  }
}
layer {
  name: "inception_3b/pool_proj"
  type: "Convolution"
  bottom: "inception_3b/pool"
  top: "inception_3b/pool_proj_raw"
  param {
    lr_mult: 1
    decay_mult: 1
  }
  convolution_param {
    num_output: 64
    kernel_size: 1
    weight_filler {
      type: "msra"
    }
    bias_filler {
      type: "constant"
      value: 0.2
    }
  }
}
layer {
  name: "inception_3b/pool_proj_BatchNorm"
  type: "BatchNorm"
  bottom: "inception_3b/pool_proj_raw"
  top: "inception_3b/pool_proj"
  param {
    lr_mult: 1
    decay_mult: 0
  }
  param {
    lr_mult: 1
    decay_mult: 0
  }
  param {
    lr_mult: 0
    decay_mult: 0
  }
  param {
    lr_mult: 0
    decay_mult: 0
  }
  batch_norm_param {
    use_global_stats: false
    eps: 1e-05
    scale_filler {
      type: "constant"
      value: 1
    }
    bias_filler {
      type: "constant"
      value: 0
    }
  }
}
layer {
  name: "inception_3b/relu_pool_proj"
  type: "ReLU"
  bottom: "inception_3b/pool_proj"
  top: "inception_3b/pool_proj"
}
layer {
  name: "inception_3b/output"
  type: "Concat"
  bottom: "inception_3b/1x1"
  bottom: "inception_3b/3x3"
  bottom: "inception_3b/5x5"
  bottom: "inception_3b/pool_proj"
  top: "inception_3b/output"
}
layer {
  name: "pool3/3x3_s2"
  type: "Pooling"
  bottom: "inception_3b/output"
  top: "pool3/3x3_s2"
  pooling_param {
    pool: MAX
    kernel_size: 3
    stride: 2
  }
}
layer {
  name: "inception_4a/1x1"
  type: "Convolution"
  bottom: "pool3/3x3_s2"
  top: "inception_4a/1x1_raw"
  param {
    lr_mult: 1
    decay_mult: 1
  }
  convolution_param {
    num_output: 192
    kernel_size: 1
    weight_filler {
      type: "msra"
    }
    bias_filler {
      type: "constant"
      value: 0.2
    }
  }
}
layer {
  name: "inception_4a/1x1_BatchNorm"
  type: "BatchNorm"
  bottom: "inception_4a/1x1_raw"
  top: "inception_4a/1x1"
  param {
    lr_mult: 1
    decay_mult: 0
  }
  param {
    lr_mult: 1
    decay_mult: 0
  }
  param {
    lr_mult: 0
    decay_mult: 0
  }
  param {
    lr_mult: 0
    decay_mult: 0
  }
  batch_norm_param {
    use_global_stats: false
    eps: 1e-05
    scale_filler {
      type: "constant"
      value: 1
    }
    bias_filler {
      type: "constant"
      value: 0
    }
  }
}
layer {
  name: "inception_4a/relu_1x1"
  type: "ReLU"
  bottom: "inception_4a/1x1"
  top: "inception_4a/1x1"
}
layer {
  name: "inception_4a/3x3_reduce"
  type: "Convolution"
  bottom: "pool3/3x3_s2"
  top: "inception_4a/3x3_reduce_raw"
  param {
    lr_mult: 1
    decay_mult: 1
  }
  convolution_param {
    num_output: 96
    kernel_size: 1
    weight_filler {
      type: "msra"
    }
    bias_filler {
      type: "constant"
      value: 0.2
    }
  }
}
layer {
  name: "inception_4a/3x3_reduce_BatchNorm"
  type: "BatchNorm"
  bottom: "inception_4a/3x3_reduce_raw"
  top: "inception_4a/3x3_reduce"
  param {
    lr_mult: 1
    decay_mult: 0
  }
  param {
    lr_mult: 1
    decay_mult: 0
  }
  param {
    lr_mult: 0
    decay_mult: 0
  }
  param {
    lr_mult: 0
    decay_mult: 0
  }
  batch_norm_param {
    use_global_stats: false
    eps: 1e-05
    scale_filler {
      type: "constant"
      value: 1
    }
    bias_filler {
      type: "constant"
      value: 0
    }
  }
}
layer {
  name: "inception_4a/relu_3x3_reduce"
  type: "ReLU"
  bottom: "inception_4a/3x3_reduce"
  top: "inception_4a/3x3_reduce"
}
layer {
  name: "inception_4a/3x3"
  type: "Convolution"
  bottom: "inception_4a/3x3_reduce"
  top: "inception_4a/3x3_raw"
  param {
    lr_mult: 1
    decay_mult: 1
  }
  convolution_param {
    num_output: 208
    pad: 1
    kernel_size: 3
    weight_filler {
      type: "msra"
    }
    bias_filler {
      type: "constant"
      value: 0.2
    }
  }
}
layer {
  name: "inception_4a/3x3_BatchNorm"
  type: "BatchNorm"
  bottom: "inception_4a/3x3_raw"
  top: "inception_4a/3x3"
  param {
    lr_mult: 1
    decay_mult: 0
  }
  param {
    lr_mult: 1
    decay_mult: 0
  }
  param {
    lr_mult: 0
    decay_mult: 0
  }
  param {
    lr_mult: 0
    decay_mult: 0
  }
  batch_norm_param {
    use_global_stats: false
    eps: 1e-05
    scale_filler {
      type: "constant"
      value: 1
    }
    bias_filler {
      type: "constant"
      value: 0
    }
  }
}
layer {
  name: "inception_4a/relu_3x3"
  type: "ReLU"
  bottom: "inception_4a/3x3"
  top: "inception_4a/3x3"
}
layer {
  name: "inception_4a/5x5_reduce"
  type: "Convolution"
  bottom: "pool3/3x3_s2"
  top: "inception_4a/5x5_reduce_raw"
  param {
    lr_mult: 1
    decay_mult: 1
  }
  convolution_param {
    num_output: 16
    kernel_size: 1
    weight_filler {
      type: "msra"
    }
    bias_filler {
      type: "constant"
      value: 0.2
    }
  }
}
layer {
  name: "inception_4a/5x5_reduce_BatchNorm"
  type: "BatchNorm"
  bottom: "inception_4a/5x5_reduce_raw"
  top: "inception_4a/5x5_reduce"
  param {
    lr_mult: 1
    decay_mult: 0
  }
  param {
    lr_mult: 1
    decay_mult: 0
  }
  param {
    lr_mult: 0
    decay_mult: 0
  }
  param {
    lr_mult: 0
    decay_mult: 0
  }
  batch_norm_param {
    use_global_stats: false
    eps: 1e-05
    scale_filler {
      type: "constant"
      value: 1
    }
    bias_filler {
      type: "constant"
      value: 0
    }
  }
}
layer {
  name: "inception_4a/relu_5x5_reduce"
  type: "ReLU"
  bottom: "inception_4a/5x5_reduce"
  top: "inception_4a/5x5_reduce"
}
layer {
  name: "inception_4a/5x5"
  type: "Convolution"
  bottom: "inception_4a/5x5_reduce"
  top: "inception_4a/5x5_raw"
  param {
    lr_mult: 1
    decay_mult: 1
  }
  convolution_param {
    num_output: 48
    pad: 2
    kernel_size: 5
    weight_filler {
      type: "msra"
    }
    bias_filler {
      type: "constant"
      value: 0.2
    }
  }
}
layer {
  name: "inception_4a/5x5_BatchNorm"
  type: "BatchNorm"
  bottom: "inception_4a/5x5_raw"
  top: "inception_4a/5x5"
  param {
    lr_mult: 1
    decay_mult: 0
  }
  param {
    lr_mult: 1
    decay_mult: 0
  }
  param {
    lr_mult: 0
    decay_mult: 0
  }
  param {
    lr_mult: 0
    decay_mult: 0
  }
  batch_norm_param {
    use_global_stats: false
    eps: 1e-05
    scale_filler {
      type: "constant"
      value: 1
    }
    bias_filler {
      type: "constant"
      value: 0
    }
  }
}
layer {
  name: "inception_4a/relu_5x5"
  type: "ReLU"
  bottom: "inception_4a/5x5"
  top: "inception_4a/5x5"
}
layer {
  name: "inception_4a/pool"
  type: "Pooling"
  bottom: "pool3/3x3_s2"
  top: "inception_4a/pool"
  pooling_param {
    pool: MAX
    kernel_size: 3
    stride: 1
    pad: 1
  }
}
layer {
  name: "inception_4a/pool_proj"
  type: "Convolution"
  bottom: "inception_4a/pool"
  top: "inception_4a/pool_proj_raw"
  param {
    lr_mult: 1
    decay_mult: 1
  }
  convolution_param {
    num_output: 64
    kernel_size: 1
    weight_filler {
      type: "msra"
    }
    bias_filler {
      type: "constant"
      value: 0.2
    }
  }
}
layer {
  name: "inception_4a/pool_proj_BatchNorm"
  type: "BatchNorm"
  bottom: "inception_4a/pool_proj_raw"
  top: "inception_4a/pool_proj"
  param {
    lr_mult: 1
    decay_mult: 0
  }
  param {
    lr_mult: 1
    decay_mult: 0
  }
  param {
    lr_mult: 0
    decay_mult: 0
  }
  param {
    lr_mult: 0
    decay_mult: 0
  }
  batch_norm_param {
    use_global_stats: false
    eps: 1e-05
    scale_filler {
      type: "constant"
      value: 1
    }
    bias_filler {
      type: "constant"
      value: 0
    }
  }
}
layer {
  name: "inception_4a/relu_pool_proj"
  type: "ReLU"
  bottom: "inception_4a/pool_proj"
  top: "inception_4a/pool_proj"
}
layer {
  name: "inception_4a/output"
  type: "Concat"
  bottom: "inception_4a/1x1"
  bottom: "inception_4a/3x3"
  bottom: "inception_4a/5x5"
  bottom: "inception_4a/pool_proj"
  top: "inception_4a/output"
}
layer {
  name: "inception_4b/1x1"
  type: "Convolution"
  bottom: "inception_4a/output"
  top: "inception_4b/1x1_raw"
  param {
    lr_mult: 1
    decay_mult: 1
  }
  convolution_param {
    num_output: 160
    kernel_size: 1
    weight_filler {
      type: "msra"
    }
    bias_filler {
      type: "constant"
      value: 0.2
    }
  }
}
layer {
  name: "inception_4b/1x1_BatchNorm"
  type: "BatchNorm"
  bottom: "inception_4b/1x1_raw"
  top: "inception_4b/1x1"
  param {
    lr_mult: 1
    decay_mult: 0
  }
  param {
    lr_mult: 1
    decay_mult: 0
  }
  param {
    lr_mult: 0
    decay_mult: 0
  }
  param {
    lr_mult: 0
    decay_mult: 0
  }
  batch_norm_param {
    use_global_stats: false
    eps: 1e-05
    scale_filler {
      type: "constant"
      value: 1
    }
    bias_filler {
      type: "constant"
      value: 0
    }
  }
}
layer {
  name: "inception_4b/relu_1x1"
  type: "ReLU"
  bottom: "inception_4b/1x1"
  top: "inception_4b/1x1"
}
layer {
  name: "inception_4b/3x3_reduce"
  type: "Convolution"
  bottom: "inception_4a/output"
  top: "inception_4b/3x3_reduce_raw"
  param {
    lr_mult: 1
    decay_mult: 1
  }
  convolution_param {
    num_output: 112
    kernel_size: 1
    weight_filler {
      type: "msra"
    }
    bias_filler {
      type: "constant"
      value: 0.2
    }
  }
}
layer {
  name: "inception_4b/3x3_reduce_BatchNorm"
  type: "BatchNorm"
  bottom: "inception_4b/3x3_reduce_raw"
  top: "inception_4b/3x3_reduce"
  param {
    lr_mult: 1
    decay_mult: 0
  }
  param {
    lr_mult: 1
    decay_mult: 0
  }
  param {
    lr_mult: 0
    decay_mult: 0
  }
  param {
    lr_mult: 0
    decay_mult: 0
  }
  batch_norm_param {
    use_global_stats: false
    eps: 1e-05
    scale_filler {
      type: "constant"
      value: 1
    }
    bias_filler {
      type: "constant"
      value: 0
    }
  }
}
layer {
  name: "inception_4b/relu_3x3_reduce"
  type: "ReLU"
  bottom: "inception_4b/3x3_reduce"
  top: "inception_4b/3x3_reduce"
}
layer {
  name: "inception_4b/3x3"
  type: "Convolution"
  bottom: "inception_4b/3x3_reduce"
  top: "inception_4b/3x3_raw"
  param {
    lr_mult: 1
    decay_mult: 1
  }
  convolution_param {
    num_output: 224
    pad: 1
    kernel_size: 3
    weight_filler {
      type: "msra"
    }
    bias_filler {
      type: "constant"
      value: 0.2
    }
  }
}
layer {
  name: "inception_4b/3x3_BatchNorm"
  type: "BatchNorm"
  bottom: "inception_4b/3x3_raw"
  top: "inception_4b/3x3"
  param {
    lr_mult: 1
    decay_mult: 0
  }
  param {
    lr_mult: 1
    decay_mult: 0
  }
  param {
    lr_mult: 0
    decay_mult: 0
  }
  param {
    lr_mult: 0
    decay_mult: 0
  }
  batch_norm_param {
    use_global_stats: false
    eps: 1e-05
    scale_filler {
      type: "constant"
      value: 1
    }
    bias_filler {
      type: "constant"
      value: 0
    }
  }
}
layer {
  name: "inception_4b/relu_3x3"
  type: "ReLU"
  bottom: "inception_4b/3x3"
  top: "inception_4b/3x3"
}
layer {
  name: "inception_4b/5x5_reduce"
  type: "Convolution"
  bottom: "inception_4a/output"
  top: "inception_4b/5x5_reduce_raw"
  param {
    lr_mult: 1
    decay_mult: 1
  }
  convolution_param {
    num_output: 24
    kernel_size: 1
    weight_filler {
      type: "msra"
    }
    bias_filler {
      type: "constant"
      value: 0.2
    }
  }
}
layer {
  name: "inception_4b/5x5_reduce_BatchNorm"
  type: "BatchNorm"
  bottom: "inception_4b/5x5_reduce_raw"
  top: "inception_4b/5x5_reduce"
  param {
    lr_mult: 1
    decay_mult: 0
  }
  param {
    lr_mult: 1
    decay_mult: 0
  }
  param {
    lr_mult: 0
    decay_mult: 0
  }
  param {
    lr_mult: 0
    decay_mult: 0
  }
  batch_norm_param {
    use_global_stats: false
    eps: 1e-05
    scale_filler {
      type: "constant"
      value: 1
    }
    bias_filler {
      type: "constant"
      value: 0
    }
  }
}
layer {
  name: "inception_4b/relu_5x5_reduce"
  type: "ReLU"
  bottom: "inception_4b/5x5_reduce"
  top: "inception_4b/5x5_reduce"
}
layer {
  name: "inception_4b/5x5"
  type: "Convolution"
  bottom: "inception_4b/5x5_reduce"
  top: "inception_4b/5x5_raw"
  param {
    lr_mult: 1
    decay_mult: 1
  }
  convolution_param {
    num_output: 64
    pad: 2
    kernel_size: 5
    weight_filler {
      type: "msra"
    }
    bias_filler {
      type: "constant"
      value: 0.2
    }
  }
}
layer {
  name: "inception_4b/5x5_BatchNorm"
  type: "BatchNorm"
  bottom: "inception_4b/5x5_raw"
  top: "inception_4b/5x5"
  param {
    lr_mult: 1
    decay_mult: 0
  }
  param {
    lr_mult: 1
    decay_mult: 0
  }
  param {
    lr_mult: 0
    decay_mult: 0
  }
  param {
    lr_mult: 0
    decay_mult: 0
  }
  batch_norm_param {
    use_global_stats: false
    eps: 1e-05
    scale_filler {
      type: "constant"
      value: 1
    }
    bias_filler {
      type: "constant"
      value: 0
    }
  }
}
layer {
  name: "inception_4b/relu_5x5"
  type: "ReLU"
  bottom: "inception_4b/5x5"
  top: "inception_4b/5x5"
}
layer {
  name: "inception_4b/pool"
  type: "Pooling"
  bottom: "inception_4a/output"
  top: "inception_4b/pool"
  pooling_param {
    pool: MAX
    kernel_size: 3
    stride: 1
    pad: 1
  }
}
layer {
  name: "inception_4b/pool_proj"
  type: "Convolution"
  bottom: "inception_4b/pool"
  top: "inception_4b/pool_proj_raw"
  param {
    lr_mult: 1
    decay_mult: 1
  }
  convolution_param {
    num_output: 64
    kernel_size: 1
    weight_filler {
      type: "msra"
    }
    bias_filler {
      type: "constant"
      value: 0.2
    }
  }
}
layer {
  name: "inception_4b/pool_proj_BatchNorm"
  type: "BatchNorm"
  bottom: "inception_4b/pool_proj_raw"
  top: "inception_4b/pool_proj"
  param {
    lr_mult: 1
    decay_mult: 0
  }
  param {
    lr_mult: 1
    decay_mult: 0
  }
  param {
    lr_mult: 0
    decay_mult: 0
  }
  param {
    lr_mult: 0
    decay_mult: 0
  }
  batch_norm_param {
    use_global_stats: false
    eps: 1e-05
    scale_filler {
      type: "constant"
      value: 1
    }
    bias_filler {
      type: "constant"
      value: 0
    }
  }
}
layer {
  name: "inception_4b/relu_pool_proj"
  type: "ReLU"
  bottom: "inception_4b/pool_proj"
  top: "inception_4b/pool_proj"
}
layer {
  name: "inception_4b/output"
  type: "Concat"
  bottom: "inception_4b/1x1"
  bottom: "inception_4b/3x3"
  bottom: "inception_4b/5x5"
  bottom: "inception_4b/pool_proj"
  top: "inception_4b/output"
}
layer {
  name: "inception_4c/1x1"
  type: "Convolution"
  bottom: "inception_4b/output"
  top: "inception_4c/1x1_raw"
  param {
    lr_mult: 1
    decay_mult: 1
  }
  convolution_param {
    num_output: 128
    kernel_size: 1
    weight_filler {
      type: "msra"
    }
    bias_filler {
      type: "constant"
      value: 0.2
    }
  }
}
layer {
  name: "inception_4c/1x1_BatchNorm"
  type: "BatchNorm"
  bottom: "inception_4c/1x1_raw"
  top: "inception_4c/1x1"
  param {
    lr_mult: 1
    decay_mult: 0
  }
  param {
    lr_mult: 1
    decay_mult: 0
  }
  param {
    lr_mult: 0
    decay_mult: 0
  }
  param {
    lr_mult: 0
    decay_mult: 0
  }
  batch_norm_param 
I1219 03:09:33.296461 13001 layer_factory.hpp:77] Creating layer data
I1219 03:09:33.296486 13001 net.cpp:94] Creating Layer data
I1219 03:09:33.296491 13001 net.cpp:409] data -> data
I1219 03:09:33.296504 13001 net.cpp:409] data -> label
I1219 03:09:33.296519 13001 image_seg_data_layer.cpp:46] Opening file /workspace/Vitis-AI-Tutorials/files/Segment/workspace/data/signate/signate_quantize_test.txt
I1219 03:09:33.300073 13001 image_seg_data_layer.cpp:68] A total of 2243 images.
I1219 03:09:33.323302 13001 image_seg_data_layer.cpp:97] output data size: 1,3,1216,1936
I1219 03:09:33.457130 13001 internal_thread.cpp:27] Starting internal thread(s) on GPU 0
I1219 03:09:33.457305 13001 net.cpp:144] Setting up data
I1219 03:09:33.457310 13001 net.cpp:151] Top shape: 1 3 1216 1936 (7062528)
I1219 03:09:33.457319 13001 net.cpp:151] Top shape: 1 1 1216 1936 (2354176)
I1219 03:09:33.457321 13001 net.cpp:159] Memory required for data: 37666816
I1219 03:09:33.457325 13001 layer_factory.hpp:77] Creating layer resize_down
I1219 03:09:33.457345 13001 net.cpp:94] Creating Layer resize_down
I1219 03:09:33.457348 13001 net.cpp:435] resize_down <- data
I1219 03:09:33.457353 13001 net.cpp:396] resize_down -> data (in-place)
I1219 03:09:33.457365 13001 net.cpp:144] Setting up resize_down
I1219 03:09:33.457379 13001 net.cpp:151] Top shape: 1 3 480 960 (1382400)
I1219 03:09:33.457386 13001 net.cpp:159] Memory required for data: 43196416
I1219 03:09:33.457388 13001 layer_factory.hpp:77] Creating layer conv1/7x7_s2
I1219 03:09:33.457406 13001 net.cpp:94] Creating Layer conv1/7x7_s2
I1219 03:09:33.457412 13001 net.cpp:435] conv1/7x7_s2 <- data
I1219 03:09:33.457417 13001 net.cpp:409] conv1/7x7_s2 -> conv1/7x7_s2_raw
I1219 03:09:33.458011 13001 net.cpp:144] Setting up conv1/7x7_s2
I1219 03:09:33.458017 13001 net.cpp:151] Top shape: 1 64 240 480 (7372800)
I1219 03:09:33.458020 13001 net.cpp:159] Memory required for data: 72687616
I1219 03:09:33.458040 13001 layer_factory.hpp:77] Creating layer conv1/7x7_s2_BatchNorm
I1219 03:09:33.458047 13001 net.cpp:94] Creating Layer conv1/7x7_s2_BatchNorm
I1219 03:09:33.458050 13001 net.cpp:435] conv1/7x7_s2_BatchNorm <- conv1/7x7_s2_raw
I1219 03:09:33.458052 13001 net.cpp:409] conv1/7x7_s2_BatchNorm -> conv1/7x7_s2
I1219 03:09:33.458472 13001 net.cpp:144] Setting up conv1/7x7_s2_BatchNorm
I1219 03:09:33.458477 13001 net.cpp:151] Top shape: 1 64 240 480 (7372800)
I1219 03:09:33.458479 13001 net.cpp:159] Memory required for data: 102178816
I1219 03:09:33.458485 13001 layer_factory.hpp:77] Creating layer conv1/relu_7x7
I1219 03:09:33.458490 13001 net.cpp:94] Creating Layer conv1/relu_7x7
I1219 03:09:33.458492 13001 net.cpp:435] conv1/relu_7x7 <- conv1/7x7_s2
I1219 03:09:33.458494 13001 net.cpp:396] conv1/relu_7x7 -> conv1/7x7_s2 (in-place)
I1219 03:09:33.458500 13001 net.cpp:144] Setting up conv1/relu_7x7
I1219 03:09:33.458503 13001 net.cpp:151] Top shape: 1 64 240 480 (7372800)
I1219 03:09:33.458504 13001 net.cpp:159] Memory required for data: 131670016
I1219 03:09:33.458506 13001 layer_factory.hpp:77] Creating layer pool1/3x3_s2
I1219 03:09:33.458509 13001 net.cpp:94] Creating Layer pool1/3x3_s2
I1219 03:09:33.458511 13001 net.cpp:435] pool1/3x3_s2 <- conv1/7x7_s2
I1219 03:09:33.458513 13001 net.cpp:409] pool1/3x3_s2 -> pool1/3x3_s2
I1219 03:09:33.458592 13001 net.cpp:144] Setting up pool1/3x3_s2
I1219 03:09:33.458595 13001 net.cpp:151] Top shape: 1 64 120 240 (1843200)
I1219 03:09:33.458598 13001 net.cpp:159] Memory required for data: 139042816
I1219 03:09:33.458600 13001 layer_factory.hpp:77] Creating layer conv2/3x3_reduce
I1219 03:09:33.458604 13001 net.cpp:94] Creating Layer conv2/3x3_reduce
I1219 03:09:33.458606 13001 net.cpp:435] conv2/3x3_reduce <- pool1/3x3_s2
I1219 03:09:33.458609 13001 net.cpp:409] conv2/3x3_reduce -> conv2/3x3_reduce_raw
I1219 03:09:33.458930 13001 net.cpp:144] Setting up conv2/3x3_reduce
I1219 03:09:33.458937 13001 net.cpp:151] Top shape: 1 64 120 240 (1843200)
I1219 03:09:33.458941 13001 net.cpp:159] Memory required for data: 146415616
I1219 03:09:33.458947 13001 layer_factory.hpp:77] Creating layer conv2/3x3_reduce_BatchNorm
I1219 03:09:33.458954 13001 net.cpp:94] Creating Layer conv2/3x3_reduce_BatchNorm
I1219 03:09:33.458957 13001 net.cpp:435] conv2/3x3_reduce_BatchNorm <- conv2/3x3_reduce_raw
I1219 03:09:33.458963 13001 net.cpp:409] conv2/3x3_reduce_BatchNorm -> conv2/3x3_reduce
I1219 03:09:33.459452 13001 net.cpp:144] Setting up conv2/3x3_reduce_BatchNorm
I1219 03:09:33.459458 13001 net.cpp:151] Top shape: 1 64 120 240 (1843200)
I1219 03:09:33.459462 13001 net.cpp:159] Memory required for data: 153788416
I1219 03:09:33.459467 13001 layer_factory.hpp:77] Creating layer conv2/relu_3x3_reduce
I1219 03:09:33.459472 13001 net.cpp:94] Creating Layer conv2/relu_3x3_reduce
I1219 03:09:33.459475 13001 net.cpp:435] conv2/relu_3x3_reduce <- conv2/3x3_reduce
I1219 03:09:33.459477 13001 net.cpp:396] conv2/relu_3x3_reduce -> conv2/3x3_reduce (in-place)
I1219 03:09:33.459481 13001 net.cpp:144] Setting up conv2/relu_3x3_reduce
I1219 03:09:33.459483 13001 net.cpp:151] Top shape: 1 64 120 240 (1843200)
I1219 03:09:33.459487 13001 net.cpp:159] Memory required for data: 161161216
I1219 03:09:33.459489 13001 layer_factory.hpp:77] Creating layer conv2/3x3
I1219 03:09:33.459496 13001 net.cpp:94] Creating Layer conv2/3x3
I1219 03:09:33.459497 13001 net.cpp:435] conv2/3x3 <- conv2/3x3_reduce
I1219 03:09:33.459501 13001 net.cpp:409] conv2/3x3 -> conv2/3x3_raw
I1219 03:09:33.460860 13001 net.cpp:144] Setting up conv2/3x3
I1219 03:09:33.460865 13001 net.cpp:151] Top shape: 1 192 120 240 (5529600)
I1219 03:09:33.460870 13001 net.cpp:159] Memory required for data: 183279616
I1219 03:09:33.460873 13001 layer_factory.hpp:77] Creating layer conv2/3x3_BatchNorm
I1219 03:09:33.460877 13001 net.cpp:94] Creating Layer conv2/3x3_BatchNorm
I1219 03:09:33.460880 13001 net.cpp:435] conv2/3x3_BatchNorm <- conv2/3x3_raw
I1219 03:09:33.460882 13001 net.cpp:409] conv2/3x3_BatchNorm -> conv2/3x3
I1219 03:09:33.461242 13001 net.cpp:144] Setting up conv2/3x3_BatchNorm
I1219 03:09:33.461246 13001 net.cpp:151] Top shape: 1 192 120 240 (5529600)
I1219 03:09:33.461249 13001 net.cpp:159] Memory required for data: 205398016
I1219 03:09:33.461256 13001 layer_factory.hpp:77] Creating layer conv2/relu_3x3
I1219 03:09:33.461258 13001 net.cpp:94] Creating Layer conv2/relu_3x3
I1219 03:09:33.461261 13001 net.cpp:435] conv2/relu_3x3 <- conv2/3x3
I1219 03:09:33.461262 13001 net.cpp:396] conv2/relu_3x3 -> conv2/3x3 (in-place)
I1219 03:09:33.461266 13001 net.cpp:144] Setting up conv2/relu_3x3
I1219 03:09:33.461267 13001 net.cpp:151] Top shape: 1 192 120 240 (5529600)
I1219 03:09:33.461269 13001 net.cpp:159] Memory required for data: 227516416
I1219 03:09:33.461270 13001 layer_factory.hpp:77] Creating layer conv2/3x3_conv2/relu_3x3_0_split
I1219 03:09:33.461277 13001 net.cpp:94] Creating Layer conv2/3x3_conv2/relu_3x3_0_split
I1219 03:09:33.461279 13001 net.cpp:435] conv2/3x3_conv2/relu_3x3_0_split <- conv2/3x3
I1219 03:09:33.461282 13001 net.cpp:409] conv2/3x3_conv2/relu_3x3_0_split -> conv2/3x3_conv2/relu_3x3_0_split_0
I1219 03:09:33.461284 13001 net.cpp:409] conv2/3x3_conv2/relu_3x3_0_split -> conv2/3x3_conv2/relu_3x3_0_split_1
I1219 03:09:33.461302 13001 net.cpp:144] Setting up conv2/3x3_conv2/relu_3x3_0_split
I1219 03:09:33.461305 13001 net.cpp:151] Top shape: 1 192 120 240 (5529600)
I1219 03:09:33.461308 13001 net.cpp:151] Top shape: 1 192 120 240 (5529600)
I1219 03:09:33.461310 13001 net.cpp:159] Memory required for data: 271753216
I1219 03:09:33.461313 13001 layer_factory.hpp:77] Creating layer pool2/3x3_s2
I1219 03:09:33.461315 13001 net.cpp:94] Creating Layer pool2/3x3_s2
I1219 03:09:33.461318 13001 net.cpp:435] pool2/3x3_s2 <- conv2/3x3_conv2/relu_3x3_0_split_0
I1219 03:09:33.461320 13001 net.cpp:409] pool2/3x3_s2 -> pool2/3x3_s2
I1219 03:09:33.461336 13001 net.cpp:144] Setting up pool2/3x3_s2
I1219 03:09:33.461338 13001 net.cpp:151] Top shape: 1 192 60 120 (1382400)
I1219 03:09:33.461341 13001 net.cpp:159] Memory required for data: 277282816
I1219 03:09:33.461342 13001 layer_factory.hpp:77] Creating layer pool2/3x3_s2_pool2/3x3_s2_0_split
I1219 03:09:33.461345 13001 net.cpp:94] Creating Layer pool2/3x3_s2_pool2/3x3_s2_0_split
I1219 03:09:33.461347 13001 net.cpp:435] pool2/3x3_s2_pool2/3x3_s2_0_split <- pool2/3x3_s2
I1219 03:09:33.461349 13001 net.cpp:409] pool2/3x3_s2_pool2/3x3_s2_0_split -> pool2/3x3_s2_pool2/3x3_s2_0_split_0
I1219 03:09:33.461352 13001 net.cpp:409] pool2/3x3_s2_pool2/3x3_s2_0_split -> pool2/3x3_s2_pool2/3x3_s2_0_split_1
I1219 03:09:33.461355 13001 net.cpp:409] pool2/3x3_s2_pool2/3x3_s2_0_split -> pool2/3x3_s2_pool2/3x3_s2_0_split_2
I1219 03:09:33.461359 13001 net.cpp:409] pool2/3x3_s2_pool2/3x3_s2_0_split -> pool2/3x3_s2_pool2/3x3_s2_0_split_3
I1219 03:09:33.461385 13001 net.cpp:144] Setting up pool2/3x3_s2_pool2/3x3_s2_0_split
I1219 03:09:33.461387 13001 net.cpp:151] Top shape: 1 192 60 120 (1382400)
I1219 03:09:33.461390 13001 net.cpp:151] Top shape: 1 192 60 120 (1382400)
I1219 03:09:33.461392 13001 net.cpp:151] Top shape: 1 192 60 120 (1382400)
I1219 03:09:33.461395 13001 net.cpp:151] Top shape: 1 192 60 120 (1382400)
I1219 03:09:33.461396 13001 net.cpp:159] Memory required for data: 299401216
I1219 03:09:33.461398 13001 layer_factory.hpp:77] Creating layer inception_3a/1x1
I1219 03:09:33.461402 13001 net.cpp:94] Creating Layer inception_3a/1x1
I1219 03:09:33.461405 13001 net.cpp:435] inception_3a/1x1 <- pool2/3x3_s2_pool2/3x3_s2_0_split_0
I1219 03:09:33.461407 13001 net.cpp:409] inception_3a/1x1 -> inception_3a/1x1_raw
I1219 03:09:33.461604 13001 net.cpp:144] Setting up inception_3a/1x1
I1219 03:09:33.461607 13001 net.cpp:151] Top shape: 1 64 60 120 (460800)
I1219 03:09:33.461611 13001 net.cpp:159] Memory required for data: 301244416
I1219 03:09:33.461613 13001 layer_factory.hpp:77] Creating layer inception_3a/1x1_BatchNorm
I1219 03:09:33.461618 13001 net.cpp:94] Creating Layer inception_3a/1x1_BatchNorm
I1219 03:09:33.461621 13001 net.cpp:435] inception_3a/1x1_BatchNorm <- inception_3a/1x1_raw
I1219 03:09:33.461622 13001 net.cpp:409] inception_3a/1x1_BatchNorm -> inception_3a/1x1
I1219 03:09:33.461999 13001 net.cpp:144] Setting up inception_3a/1x1_BatchNorm
I1219 03:09:33.462003 13001 net.cpp:151] Top shape: 1 64 60 120 (460800)
I1219 03:09:33.462007 13001 net.cpp:159] Memory required for data: 303087616
I1219 03:09:33.462011 13001 layer_factory.hpp:77] Creating layer inception_3a/relu_1x1
I1219 03:09:33.462014 13001 net.cpp:94] Creating Layer inception_3a/relu_1x1
I1219 03:09:33.462015 13001 net.cpp:435] inception_3a/relu_1x1 <- inception_3a/1x1
I1219 03:09:33.462018 13001 net.cpp:396] inception_3a/relu_1x1 -> inception_3a/1x1 (in-place)
I1219 03:09:33.462021 13001 net.cpp:144] Setting up inception_3a/relu_1x1
I1219 03:09:33.462023 13001 net.cpp:151] Top shape: 1 64 60 120 (460800)
I1219 03:09:33.462025 13001 net.cpp:159] Memory required for data: 304930816
I1219 03:09:33.462026 13001 layer_factory.hpp:77] Creating layer inception_3a/3x3_reduce
I1219 03:09:33.462030 13001 net.cpp:94] Creating Layer inception_3a/3x3_reduce
I1219 03:09:33.462033 13001 net.cpp:435] inception_3a/3x3_reduce <- pool2/3x3_s2_pool2/3x3_s2_0_split_1
I1219 03:09:33.462035 13001 net.cpp:409] inception_3a/3x3_reduce -> inception_3a/3x3_reduce_raw
I1219 03:09:33.462263 13001 net.cpp:144] Setting up inception_3a/3x3_reduce
I1219 03:09:33.462267 13001 net.cpp:151] Top shape: 1 96 60 120 (691200)
I1219 03:09:33.462270 13001 net.cpp:159] Memory required for data: 307695616
I1219 03:09:33.462273 13001 layer_factory.hpp:77] Creating layer inception_3a/3x3_reduce_BatchNorm
I1219 03:09:33.462277 13001 net.cpp:94] Creating Layer inception_3a/3x3_reduce_BatchNorm
I1219 03:09:33.462280 13001 net.cpp:435] inception_3a/3x3_reduce_BatchNorm <- inception_3a/3x3_reduce_raw
I1219 03:09:33.462281 13001 net.cpp:409] inception_3a/3x3_reduce_BatchNorm -> inception_3a/3x3_reduce
I1219 03:09:33.462648 13001 net.cpp:144] Setting up inception_3a/3x3_reduce_BatchNorm
I1219 03:09:33.462652 13001 net.cpp:151] Top shape: 1 96 60 120 (691200)
I1219 03:09:33.462656 13001 net.cpp:159] Memory required for data: 310460416
I1219 03:09:33.462662 13001 layer_factory.hpp:77] Creating layer inception_3a/relu_3x3_reduce
I1219 03:09:33.462666 13001 net.cpp:94] Creating Layer inception_3a/relu_3x3_reduce
I1219 03:09:33.462666 13001 net.cpp:435] inception_3a/relu_3x3_reduce <- inception_3a/3x3_reduce
I1219 03:09:33.462669 13001 net.cpp:396] inception_3a/relu_3x3_reduce -> inception_3a/3x3_reduce (in-place)
I1219 03:09:33.462672 13001 net.cpp:144] Setting up inception_3a/relu_3x3_reduce
I1219 03:09:33.462674 13001 net.cpp:151] Top shape: 1 96 60 120 (691200)
I1219 03:09:33.462683 13001 net.cpp:159] Memory required for data: 313225216
I1219 03:09:33.462687 13001 layer_factory.hpp:77] Creating layer inception_3a/3x3
I1219 03:09:33.462692 13001 net.cpp:94] Creating Layer inception_3a/3x3
I1219 03:09:33.462693 13001 net.cpp:435] inception_3a/3x3 <- inception_3a/3x3_reduce
I1219 03:09:33.462697 13001 net.cpp:409] inception_3a/3x3 -> inception_3a/3x3_raw
I1219 03:09:33.463397 13001 net.cpp:144] Setting up inception_3a/3x3
I1219 03:09:33.463402 13001 net.cpp:151] Top shape: 1 128 60 120 (921600)
I1219 03:09:33.463404 13001 net.cpp:159] Memory required for data: 316911616
I1219 03:09:33.463407 13001 layer_factory.hpp:77] Creating layer inception_3a/3x3_BatchNorm
I1219 03:09:33.463411 13001 net.cpp:94] Creating Layer inception_3a/3x3_BatchNorm
I1219 03:09:33.463413 13001 net.cpp:435] inception_3a/3x3_BatchNorm <- inception_3a/3x3_raw
I1219 03:09:33.463416 13001 net.cpp:409] inception_3a/3x3_BatchNorm -> inception_3a/3x3
I1219 03:09:33.463726 13001 net.cpp:144] Setting up inception_3a/3x3_BatchNorm
I1219 03:09:33.463730 13001 net.cpp:151] Top shape: 1 128 60 120 (921600)
I1219 03:09:33.463733 13001 net.cpp:159] Memory required for data: 320598016
I1219 03:09:33.463738 13001 layer_factory.hpp:77] Creating layer inception_3a/relu_3x3
I1219 03:09:33.463742 13001 net.cpp:94] Creating Layer inception_3a/relu_3x3
I1219 03:09:33.463743 13001 net.cpp:435] inception_3a/relu_3x3 <- inception_3a/3x3
I1219 03:09:33.463745 13001 net.cpp:396] inception_3a/relu_3x3 -> inception_3a/3x3 (in-place)
I1219 03:09:33.463748 13001 net.cpp:144] Setting up inception_3a/relu_3x3
I1219 03:09:33.463750 13001 net.cpp:151] Top shape: 1 128 60 120 (921600)
I1219 03:09:33.463752 13001 net.cpp:159] Memory required for data: 324284416
I1219 03:09:33.463754 13001 layer_factory.hpp:77] Creating layer inception_3a/5x5_reduce
I1219 03:09:33.463758 13001 net.cpp:94] Creating Layer inception_3a/5x5_reduce
I1219 03:09:33.463759 13001 net.cpp:435] inception_3a/5x5_reduce <- pool2/3x3_s2_pool2/3x3_s2_0_split_2
I1219 03:09:33.463762 13001 net.cpp:409] inception_3a/5x5_reduce -> inception_3a/5x5_reduce_raw
I1219 03:09:33.463913 13001 net.cpp:144] Setting up inception_3a/5x5_reduce
I1219 03:09:33.463917 13001 net.cpp:151] Top shape: 1 16 60 120 (115200)
I1219 03:09:33.463919 13001 net.cpp:159] Memory required for data: 324745216
I1219 03:09:33.463923 13001 layer_factory.hpp:77] Creating layer inception_3a/5x5_reduce_BatchNorm
I1219 03:09:33.463927 13001 net.cpp:94] Creating Layer inception_3a/5x5_reduce_BatchNorm
I1219 03:09:33.463929 13001 net.cpp:435] inception_3a/5x5_reduce_BatchNorm <- inception_3a/5x5_reduce_raw
I1219 03:09:33.463932 13001 net.cpp:409] inception_3a/5x5_reduce_BatchNorm -> inception_3a/5x5_reduce
I1219 03:09:33.464283 13001 net.cpp:144] Setting up inception_3a/5x5_reduce_BatchNorm
I1219 03:09:33.464288 13001 net.cpp:151] Top shape: 1 16 60 120 (115200)
I1219 03:09:33.464290 13001 net.cpp:159] Memory required for data: 325206016
I1219 03:09:33.464295 13001 layer_factory.hpp:77] Creating layer inception_3a/relu_5x5_reduce
I1219 03:09:33.464298 13001 net.cpp:94] Creating Layer inception_3a/relu_5x5_reduce
I1219 03:09:33.464300 13001 net.cpp:435] inception_3a/relu_5x5_reduce <- inception_3a/5x5_reduce
I1219 03:09:33.464303 13001 net.cpp:396] inception_3a/relu_5x5_reduce -> inception_3a/5x5_reduce (in-place)
I1219 03:09:33.464306 13001 net.cpp:144] Setting up inception_3a/relu_5x5_reduce
I1219 03:09:33.464308 13001 net.cpp:151] Top shape: 1 16 60 120 (115200)
I1219 03:09:33.464309 13001 net.cpp:159] Memory required for data: 325666816
I1219 03:09:33.464311 13001 layer_factory.hpp:77] Creating layer inception_3a/5x5
I1219 03:09:33.464315 13001 net.cpp:94] Creating Layer inception_3a/5x5
I1219 03:09:33.464318 13001 net.cpp:435] inception_3a/5x5 <- inception_3a/5x5_reduce
I1219 03:09:33.464319 13001 net.cpp:409] inception_3a/5x5 -> inception_3a/5x5_raw
I1219 03:09:33.464535 13001 net.cpp:144] Setting up inception_3a/5x5
I1219 03:09:33.464540 13001 net.cpp:151] Top shape: 1 32 60 120 (230400)
I1219 03:09:33.464543 13001 net.cpp:159] Memory required for data: 326588416
I1219 03:09:33.464547 13001 layer_factory.hpp:77] Creating layer inception_3a/5x5_BatchNorm
I1219 03:09:33.464552 13001 net.cpp:94] Creating Layer inception_3a/5x5_BatchNorm
I1219 03:09:33.464555 13001 net.cpp:435] inception_3a/5x5_BatchNorm <- inception_3a/5x5_raw
I1219 03:09:33.464556 13001 net.cpp:409] inception_3a/5x5_BatchNorm -> inception_3a/5x5
I1219 03:09:33.464920 13001 net.cpp:144] Setting up inception_3a/5x5_BatchNorm
I1219 03:09:33.464924 13001 net.cpp:151] Top shape: 1 32 60 120 (230400)
I1219 03:09:33.464927 13001 net.cpp:159] Memory required for data: 327510016
I1219 03:09:33.464932 13001 layer_factory.hpp:77] Creating layer inception_3a/relu_5x5
I1219 03:09:33.464936 13001 net.cpp:94] Creating Layer inception_3a/relu_5x5
I1219 03:09:33.464937 13001 net.cpp:435] inception_3a/relu_5x5 <- inception_3a/5x5
I1219 03:09:33.464939 13001 net.cpp:396] inception_3a/relu_5x5 -> inception_3a/5x5 (in-place)
I1219 03:09:33.464942 13001 net.cpp:144] Setting up inception_3a/relu_5x5
I1219 03:09:33.464944 13001 net.cpp:151] Top shape: 1 32 60 120 (230400)
I1219 03:09:33.464946 13001 net.cpp:159] Memory required for data: 328431616
I1219 03:09:33.464948 13001 layer_factory.hpp:77] Creating layer inception_3a/pool
I1219 03:09:33.464951 13001 net.cpp:94] Creating Layer inception_3a/pool
I1219 03:09:33.464952 13001 net.cpp:435] inception_3a/pool <- pool2/3x3_s2_pool2/3x3_s2_0_split_3
I1219 03:09:33.464956 13001 net.cpp:409] inception_3a/pool -> inception_3a/pool
I1219 03:09:33.464973 13001 net.cpp:144] Setting up inception_3a/pool
I1219 03:09:33.464975 13001 net.cpp:151] Top shape: 1 192 60 120 (1382400)
I1219 03:09:33.464978 13001 net.cpp:159] Memory required for data: 333961216
I1219 03:09:33.464979 13001 layer_factory.hpp:77] Creating layer inception_3a/pool_proj
I1219 03:09:33.464983 13001 net.cpp:94] Creating Layer inception_3a/pool_proj
I1219 03:09:33.464985 13001 net.cpp:435] inception_3a/pool_proj <- inception_3a/pool
I1219 03:09:33.464988 13001 net.cpp:409] inception_3a/pool_proj -> inception_3a/pool_proj_raw
I1219 03:09:33.465711 13001 net.cpp:144] Setting up inception_3a/pool_proj
I1219 03:09:33.465718 13001 net.cpp:151] Top shape: 1 32 60 120 (230400)
I1219 03:09:33.465721 13001 net.cpp:159] Memory required for data: 334882816
I1219 03:09:33.465724 13001 layer_factory.hpp:77] Creating layer inception_3a/pool_proj_BatchNorm
I1219 03:09:33.465730 13001 net.cpp:94] Creating Layer inception_3a/pool_proj_BatchNorm
I1219 03:09:33.465732 13001 net.cpp:435] inception_3a/pool_proj_BatchNorm <- inception_3a/pool_proj_raw
I1219 03:09:33.465735 13001 net.cpp:409] inception_3a/pool_proj_BatchNorm -> inception_3a/pool_proj
I1219 03:09:33.466109 13001 net.cpp:144] Setting up inception_3a/pool_proj_BatchNorm
I1219 03:09:33.466114 13001 net.cpp:151] Top shape: 1 32 60 120 (230400)
I1219 03:09:33.466116 13001 net.cpp:159] Memory required for data: 335804416
I1219 03:09:33.466121 13001 layer_factory.hpp:77] Creating layer inception_3a/relu_pool_proj
I1219 03:09:33.466125 13001 net.cpp:94] Creating Layer inception_3a/relu_pool_proj
I1219 03:09:33.466126 13001 net.cpp:435] inception_3a/relu_pool_proj <- inception_3a/pool_proj
I1219 03:09:33.466128 13001 net.cpp:396] inception_3a/relu_pool_proj -> inception_3a/pool_proj (in-place)
I1219 03:09:33.466132 13001 net.cpp:144] Setting up inception_3a/relu_pool_proj
I1219 03:09:33.466133 13001 net.cpp:151] Top shape: 1 32 60 120 (230400)
I1219 03:09:33.466136 13001 net.cpp:159] Memory required for data: 336726016
I1219 03:09:33.466137 13001 layer_factory.hpp:77] Creating layer inception_3a/output
I1219 03:09:33.466145 13001 net.cpp:94] Creating Layer inception_3a/output
I1219 03:09:33.466147 13001 net.cpp:435] inception_3a/output <- inception_3a/1x1
I1219 03:09:33.466150 13001 net.cpp:435] inception_3a/output <- inception_3a/3x3
I1219 03:09:33.466151 13001 net.cpp:435] inception_3a/output <- inception_3a/5x5
I1219 03:09:33.466153 13001 net.cpp:435] inception_3a/output <- inception_3a/pool_proj
I1219 03:09:33.466156 13001 net.cpp:409] inception_3a/output -> inception_3a/output
I1219 03:09:33.466168 13001 net.cpp:144] Setting up inception_3a/output
I1219 03:09:33.466171 13001 net.cpp:151] Top shape: 1 256 60 120 (1843200)
I1219 03:09:33.466173 13001 net.cpp:159] Memory required for data: 344098816
I1219 03:09:33.466176 13001 layer_factory.hpp:77] Creating layer inception_3a/output_inception_3a/output_0_split
I1219 03:09:33.466178 13001 net.cpp:94] Creating Layer inception_3a/output_inception_3a/output_0_split
I1219 03:09:33.466181 13001 net.cpp:435] inception_3a/output_inception_3a/output_0_split <- inception_3a/output
I1219 03:09:33.466183 13001 net.cpp:409] inception_3a/output_inception_3a/output_0_split -> inception_3a/output_inception_3a/output_0_split_0
I1219 03:09:33.466187 13001 net.cpp:409] inception_3a/output_inception_3a/output_0_split -> inception_3a/output_inception_3a/output_0_split_1
I1219 03:09:33.466189 13001 net.cpp:409] inception_3a/output_inception_3a/output_0_split -> inception_3a/output_inception_3a/output_0_split_2
I1219 03:09:33.466193 13001 net.cpp:409] inception_3a/output_inception_3a/output_0_split -> inception_3a/output_inception_3a/output_0_split_3
I1219 03:09:33.466223 13001 net.cpp:144] Setting up inception_3a/output_inception_3a/output_0_split
I1219 03:09:33.466225 13001 net.cpp:151] Top shape: 1 256 60 120 (1843200)
I1219 03:09:33.466228 13001 net.cpp:151] Top shape: 1 256 60 120 (1843200)
I1219 03:09:33.466230 13001 net.cpp:151] Top shape: 1 256 60 120 (1843200)
I1219 03:09:33.466233 13001 net.cpp:151] Top shape: 1 256 60 120 (1843200)
I1219 03:09:33.466234 13001 net.cpp:159] Memory required for data: 373590016
I1219 03:09:33.466236 13001 layer_factory.hpp:77] Creating layer inception_3b/1x1
I1219 03:09:33.466241 13001 net.cpp:94] Creating Layer inception_3b/1x1
I1219 03:09:33.466243 13001 net.cpp:435] inception_3b/1x1 <- inception_3a/output_inception_3a/output_0_split_0
I1219 03:09:33.466246 13001 net.cpp:409] inception_3b/1x1 -> inception_3b/1x1_raw
I1219 03:09:33.466552 13001 net.cpp:144] Setting up inception_3b/1x1
I1219 03:09:33.466555 13001 net.cpp:151] Top shape: 1 128 60 120 (921600)
I1219 03:09:33.466558 13001 net.cpp:159] Memory required for data: 377276416
I1219 03:09:33.466563 13001 layer_factory.hpp:77] Creating layer inception_3b/1x1_BatchNorm
I1219 03:09:33.466567 13001 net.cpp:94] Creating Layer inception_3b/1x1_BatchNorm
I1219 03:09:33.466569 13001 net.cpp:435] inception_3b/1x1_BatchNorm <- inception_3b/1x1_raw
I1219 03:09:33.466572 13001 net.cpp:409] inception_3b/1x1_BatchNorm -> inception_3b/1x1
I1219 03:09:33.466909 13001 net.cpp:144] Setting up inception_3b/1x1_BatchNorm
I1219 03:09:33.466914 13001 net.cpp:151] Top shape: 1 128 60 120 (921600)
I1219 03:09:33.466917 13001 net.cpp:159] Memory required for data: 380962816
I1219 03:09:33.466922 13001 layer_factory.hpp:77] Creating layer inception_3b/relu_1x1
I1219 03:09:33.466926 13001 net.cpp:94] Creating Layer inception_3b/relu_1x1
I1219 03:09:33.466928 13001 net.cpp:435] inception_3b/relu_1x1 <- inception_3b/1x1
I1219 03:09:33.466930 13001 net.cpp:396] inception_3b/relu_1x1 -> inception_3b/1x1 (in-place)
I1219 03:09:33.466934 13001 net.cpp:144] Setting up inception_3b/relu_1x1
I1219 03:09:33.466935 13001 net.cpp:151] Top shape: 1 128 60 120 (921600)
I1219 03:09:33.466938 13001 net.cpp:159] Memory required for data: 384649216
I1219 03:09:33.466939 13001 layer_factory.hpp:77] Creating layer inception_3b/3x3_reduce
I1219 03:09:33.466943 13001 net.cpp:94] Creating Layer inception_3b/3x3_reduce
I1219 03:09:33.466945 13001 net.cpp:435] inception_3b/3x3_reduce <- inception_3a/output_inception_3a/output_0_split_1
I1219 03:09:33.466949 13001 net.cpp:409] inception_3b/3x3_reduce -> inception_3b/3x3_reduce_raw
I1219 03:09:33.467259 13001 net.cpp:144] Setting up inception_3b/3x3_reduce
I1219 03:09:33.467263 13001 net.cpp:151] Top shape: 1 128 60 120 (921600)
I1219 03:09:33.467267 13001 net.cpp:159] Memory required for data: 388335616
I1219 03:09:33.467269 13001 layer_factory.hpp:77] Creating layer inception_3b/3x3_reduce_BatchNorm
I1219 03:09:33.467272 13001 net.cpp:94] Creating Layer inception_3b/3x3_reduce_BatchNorm
I1219 03:09:33.467274 13001 net.cpp:435] inception_3b/3x3_reduce_BatchNorm <- inception_3b/3x3_reduce_raw
I1219 03:09:33.467278 13001 net.cpp:409] inception_3b/3x3_reduce_BatchNorm -> inception_3b/3x3_reduce
I1219 03:09:33.467592 13001 net.cpp:144] Setting up inception_3b/3x3_reduce_BatchNorm
I1219 03:09:33.467595 13001 net.cpp:151] Top shape: 1 128 60 120 (921600)
I1219 03:09:33.467597 13001 net.cpp:159] Memory required for data: 392022016
I1219 03:09:33.467602 13001 layer_factory.hpp:77] Creating layer inception_3b/relu_3x3_reduce
I1219 03:09:33.467605 13001 net.cpp:94] Creating Layer inception_3b/relu_3x3_reduce
I1219 03:09:33.467607 13001 net.cpp:435] inception_3b/relu_3x3_reduce <- inception_3b/3x3_reduce
I1219 03:09:33.467610 13001 net.cpp:396] inception_3b/relu_3x3_reduce -> inception_3b/3x3_reduce (in-place)
I1219 03:09:33.467613 13001 net.cpp:144] Setting up inception_3b/relu_3x3_reduce
I1219 03:09:33.467614 13001 net.cpp:151] Top shape: 1 128 60 120 (921600)
I1219 03:09:33.467617 13001 net.cpp:159] Memory required for data: 395708416
I1219 03:09:33.467618 13001 layer_factory.hpp:77] Creating layer inception_3b/3x3
I1219 03:09:33.467623 13001 net.cpp:94] Creating Layer inception_3b/3x3
I1219 03:09:33.467625 13001 net.cpp:435] inception_3b/3x3 <- inception_3b/3x3_reduce
I1219 03:09:33.467628 13001 net.cpp:409] inception_3b/3x3 -> inception_3b/3x3_raw
I1219 03:09:33.469458 13001 net.cpp:144] Setting up inception_3b/3x3
I1219 03:09:33.469465 13001 net.cpp:151] Top shape: 1 192 60 120 (1382400)
I1219 03:09:33.469468 13001 net.cpp:159] Memory required for data: 401238016
I1219 03:09:33.469472 13001 layer_factory.hpp:77] Creating layer inception_3b/3x3_BatchNorm
I1219 03:09:33.469476 13001 net.cpp:94] Creating Layer inception_3b/3x3_BatchNorm
I1219 03:09:33.469480 13001 net.cpp:435] inception_3b/3x3_BatchNorm <- inception_3b/3x3_raw
I1219 03:09:33.469482 13001 net.cpp:409] inception_3b/3x3_BatchNorm -> inception_3b/3x3
I1219 03:09:33.469859 13001 net.cpp:144] Setting up inception_3b/3x3_BatchNorm
I1219 03:09:33.469864 13001 net.cpp:151] Top shape: 1 192 60 120 (1382400)
I1219 03:09:33.469866 13001 net.cpp:159] Memory required for data: 406767616
I1219 03:09:33.469871 13001 layer_factory.hpp:77] Creating layer inception_3b/relu_3x3
I1219 03:09:33.469874 13001 net.cpp:94] Creating Layer inception_3b/relu_3x3
I1219 03:09:33.469877 13001 net.cpp:435] inception_3b/relu_3x3 <- inception_3b/3x3
I1219 03:09:33.469879 13001 net.cpp:396] inception_3b/relu_3x3 -> inception_3b/3x3 (in-place)
I1219 03:09:33.469882 13001 net.cpp:144] Setting up inception_3b/relu_3x3
I1219 03:09:33.469883 13001 net.cpp:151] Top shape: 1 192 60 120 (1382400)
I1219 03:09:33.469887 13001 net.cpp:159] Memory required for data: 412297216
I1219 03:09:33.469887 13001 layer_factory.hpp:77] Creating layer inception_3b/5x5_reduce
I1219 03:09:33.469892 13001 net.cpp:94] Creating Layer inception_3b/5x5_reduce
I1219 03:09:33.469893 13001 net.cpp:435] inception_3b/5x5_reduce <- inception_3a/output_inception_3a/output_0_split_2
I1219 03:09:33.469897 13001 net.cpp:409] inception_3b/5x5_reduce -> inception_3b/5x5_reduce_raw
I1219 03:09:33.470085 13001 net.cpp:144] Setting up inception_3b/5x5_reduce
I1219 03:09:33.470089 13001 net.cpp:151] Top shape: 1 32 60 120 (230400)
I1219 03:09:33.470093 13001 net.cpp:159] Memory required for data: 413218816
I1219 03:09:33.470095 13001 layer_factory.hpp:77] Creating layer inception_3b/5x5_reduce_BatchNorm
I1219 03:09:33.470099 13001 net.cpp:94] Creating Layer inception_3b/5x5_reduce_BatchNorm
I1219 03:09:33.470100 13001 net.cpp:435] inception_3b/5x5_reduce_BatchNorm <- inception_3b/5x5_reduce_raw
I1219 03:09:33.470103 13001 net.cpp:409] inception_3b/5x5_reduce_BatchNorm -> inception_3b/5x5_reduce
I1219 03:09:33.470476 13001 net.cpp:144] Setting up inception_3b/5x5_reduce_BatchNorm
I1219 03:09:33.470480 13001 net.cpp:151] Top shape: 1 32 60 120 (230400)
I1219 03:09:33.470484 13001 net.cpp:159] Memory required for data: 414140416
I1219 03:09:33.470489 13001 layer_factory.hpp:77] Creating layer inception_3b/relu_5x5_reduce
I1219 03:09:33.470491 13001 net.cpp:94] Creating Layer inception_3b/relu_5x5_reduce
I1219 03:09:33.470494 13001 net.cpp:435] inception_3b/relu_5x5_reduce <- inception_3b/5x5_reduce
I1219 03:09:33.470495 13001 net.cpp:396] inception_3b/relu_5x5_reduce -> inception_3b/5x5_reduce (in-place)
I1219 03:09:33.470499 13001 net.cpp:144] Setting up inception_3b/relu_5x5_reduce
I1219 03:09:33.470500 13001 net.cpp:151] Top shape: 1 32 60 120 (230400)
I1219 03:09:33.470502 13001 net.cpp:159] Memory required for data: 415062016
I1219 03:09:33.470504 13001 layer_factory.hpp:77] Creating layer inception_3b/5x5
I1219 03:09:33.470508 13001 net.cpp:94] Creating Layer inception_3b/5x5
I1219 03:09:33.470510 13001 net.cpp:435] inception_3b/5x5 <- inception_3b/5x5_reduce
I1219 03:09:33.470513 13001 net.cpp:409] inception_3b/5x5 -> inception_3b/5x5_raw
I1219 03:09:33.471062 13001 net.cpp:144] Setting up inception_3b/5x5
I1219 03:09:33.471066 13001 net.cpp:151] Top shape: 1 96 60 120 (691200)
I1219 03:09:33.471069 13001 net.cpp:159] Memory required for data: 417826816
I1219 03:09:33.471073 13001 layer_factory.hpp:77] Creating layer inception_3b/5x5_BatchNorm
I1219 03:09:33.471076 13001 net.cpp:94] Creating Layer inception_3b/5x5_BatchNorm
I1219 03:09:33.471078 13001 net.cpp:435] inception_3b/5x5_BatchNorm <- inception_3b/5x5_raw
I1219 03:09:33.471081 13001 net.cpp:409] inception_3b/5x5_BatchNorm -> inception_3b/5x5
I1219 03:09:33.471468 13001 net.cpp:144] Setting up inception_3b/5x5_BatchNorm
I1219 03:09:33.471473 13001 net.cpp:151] Top shape: 1 96 60 120 (691200)
I1219 03:09:33.471477 13001 net.cpp:159] Memory required for data: 420591616
I1219 03:09:33.471482 13001 layer_factory.hpp:77] Creating layer inception_3b/relu_5x5
I1219 03:09:33.471484 13001 net.cpp:94] Creating Layer inception_3b/relu_5x5
I1219 03:09:33.471487 13001 net.cpp:435] inception_3b/relu_5x5 <- inception_3b/5x5
I1219 03:09:33.471488 13001 net.cpp:396] inception_3b/relu_5x5 -> inception_3b/5x5 (in-place)
I1219 03:09:33.471491 13001 net.cpp:144] Setting up inception_3b/relu_5x5
I1219 03:09:33.471493 13001 net.cpp:151] Top shape: 1 96 60 120 (691200)
I1219 03:09:33.471495 13001 net.cpp:159] Memory required for data: 423356416
I1219 03:09:33.471498 13001 layer_factory.hpp:77] Creating layer inception_3b/pool
I1219 03:09:33.471501 13001 net.cpp:94] Creating Layer inception_3b/pool
I1219 03:09:33.471503 13001 net.cpp:435] inception_3b/pool <- inception_3a/output_inception_3a/output_0_split_3
I1219 03:09:33.471505 13001 net.cpp:409] inception_3b/pool -> inception_3b/pool
I1219 03:09:33.471524 13001 net.cpp:144] Setting up inception_3b/pool
I1219 03:09:33.471526 13001 net.cpp:151] Top shape: 1 256 60 120 (1843200)
I1219 03:09:33.471529 13001 net.cpp:159] Memory required for data: 430729216
I1219 03:09:33.471530 13001 layer_factory.hpp:77] Creating layer inception_3b/pool_proj
I1219 03:09:33.471534 13001 net.cpp:94] Creating Layer inception_3b/pool_proj
I1219 03:09:33.471535 13001 net.cpp:435] inception_3b/pool_proj <- inception_3b/pool
I1219 03:09:33.471539 13001 net.cpp:409] inception_3b/pool_proj -> inception_3b/pool_proj_raw
I1219 03:09:33.471762 13001 net.cpp:144] Setting up inception_3b/pool_proj
I1219 03:09:33.471765 13001 net.cpp:151] Top shape: 1 64 60 120 (460800)
I1219 03:09:33.471768 13001 net.cpp:159] Memory required for data: 432572416
I1219 03:09:33.471771 13001 layer_factory.hpp:77] Creating layer inception_3b/pool_proj_BatchNorm
I1219 03:09:33.471776 13001 net.cpp:94] Creating Layer inception_3b/pool_proj_BatchNorm
I1219 03:09:33.471777 13001 net.cpp:435] inception_3b/pool_proj_BatchNorm <- inception_3b/pool_proj_raw
I1219 03:09:33.471781 13001 net.cpp:409] inception_3b/pool_proj_BatchNorm -> inception_3b/pool_proj
I1219 03:09:33.472151 13001 net.cpp:144] Setting up inception_3b/pool_proj_BatchNorm
I1219 03:09:33.472157 13001 net.cpp:151] Top shape: 1 64 60 120 (460800)
I1219 03:09:33.472158 13001 net.cpp:159] Memory required for data: 434415616
I1219 03:09:33.472164 13001 layer_factory.hpp:77] Creating layer inception_3b/relu_pool_proj
I1219 03:09:33.472167 13001 net.cpp:94] Creating Layer inception_3b/relu_pool_proj
I1219 03:09:33.472168 13001 net.cpp:435] inception_3b/relu_pool_proj <- inception_3b/pool_proj
I1219 03:09:33.472172 13001 net.cpp:396] inception_3b/relu_pool_proj -> inception_3b/pool_proj (in-place)
I1219 03:09:33.472174 13001 net.cpp:144] Setting up inception_3b/relu_pool_proj
I1219 03:09:33.472175 13001 net.cpp:151] Top shape: 1 64 60 120 (460800)
I1219 03:09:33.472178 13001 net.cpp:159] Memory required for data: 436258816
I1219 03:09:33.472180 13001 layer_factory.hpp:77] Creating layer inception_3b/output
I1219 03:09:33.472183 13001 net.cpp:94] Creating Layer inception_3b/output
I1219 03:09:33.472184 13001 net.cpp:435] inception_3b/output <- inception_3b/1x1
I1219 03:09:33.472187 13001 net.cpp:435] inception_3b/output <- inception_3b/3x3
I1219 03:09:33.472188 13001 net.cpp:435] inception_3b/output <- inception_3b/5x5
I1219 03:09:33.472190 13001 net.cpp:435] inception_3b/output <- inception_3b/pool_proj
I1219 03:09:33.472193 13001 net.cpp:409] inception_3b/output -> inception_3b/output
I1219 03:09:33.472205 13001 net.cpp:144] Setting up inception_3b/output
I1219 03:09:33.472208 13001 net.cpp:151] Top shape: 1 480 60 120 (3456000)
I1219 03:09:33.472210 13001 net.cpp:159] Memory required for data: 450082816
I1219 03:09:33.472211 13001 layer_factory.hpp:77] Creating layer inception_3b/output_inception_3b/output_0_split
I1219 03:09:33.472214 13001 net.cpp:94] Creating Layer inception_3b/output_inception_3b/output_0_split
I1219 03:09:33.472216 13001 net.cpp:435] inception_3b/output_inception_3b/output_0_split <- inception_3b/output
I1219 03:09:33.472219 13001 net.cpp:409] inception_3b/output_inception_3b/output_0_split -> inception_3b/output_inception_3b/output_0_split_0
I1219 03:09:33.472223 13001 net.cpp:409] inception_3b/output_inception_3b/output_0_split -> inception_3b/output_inception_3b/output_0_split_1
I1219 03:09:33.472239 13001 net.cpp:144] Setting up inception_3b/output_inception_3b/output_0_split
I1219 03:09:33.472241 13001 net.cpp:151] Top shape: 1 480 60 120 (3456000)
I1219 03:09:33.472244 13001 net.cpp:151] Top shape: 1 480 60 120 (3456000)
I1219 03:09:33.472246 13001 net.cpp:159] Memory required for data: 477730816
I1219 03:09:33.472249 13001 layer_factory.hpp:77] Creating layer pool3/3x3_s2
I1219 03:09:33.472251 13001 net.cpp:94] Creating Layer pool3/3x3_s2
I1219 03:09:33.472254 13001 net.cpp:435] pool3/3x3_s2 <- inception_3b/output_inception_3b/output_0_split_0
I1219 03:09:33.472255 13001 net.cpp:409] pool3/3x3_s2 -> pool3/3x3_s2
I1219 03:09:33.472273 13001 net.cpp:144] Setting up pool3/3x3_s2
I1219 03:09:33.472276 13001 net.cpp:151] Top shape: 1 480 30 60 (864000)
I1219 03:09:33.472278 13001 net.cpp:159] Memory required for data: 481186816
I1219 03:09:33.472280 13001 layer_factory.hpp:77] Creating layer pool3/3x3_s2_pool3/3x3_s2_0_split
I1219 03:09:33.472283 13001 net.cpp:94] Creating Layer pool3/3x3_s2_pool3/3x3_s2_0_split
I1219 03:09:33.472285 13001 net.cpp:435] pool3/3x3_s2_pool3/3x3_s2_0_split <- pool3/3x3_s2
I1219 03:09:33.472287 13001 net.cpp:409] pool3/3x3_s2_pool3/3x3_s2_0_split -> pool3/3x3_s2_pool3/3x3_s2_0_split_0
I1219 03:09:33.472290 13001 net.cpp:409] pool3/3x3_s2_pool3/3x3_s2_0_split -> pool3/3x3_s2_pool3/3x3_s2_0_split_1
I1219 03:09:33.472293 13001 net.cpp:409] pool3/3x3_s2_pool3/3x3_s2_0_split -> pool3/3x3_s2_pool3/3x3_s2_0_split_2
I1219 03:09:33.472296 13001 net.cpp:409] pool3/3x3_s2_pool3/3x3_s2_0_split -> pool3/3x3_s2_pool3/3x3_s2_0_split_3
I1219 03:09:33.472327 13001 net.cpp:144] Setting up pool3/3x3_s2_pool3/3x3_s2_0_split
I1219 03:09:33.472330 13001 net.cpp:151] Top shape: 1 480 30 60 (864000)
I1219 03:09:33.472332 13001 net.cpp:151] Top shape: 1 480 30 60 (864000)
I1219 03:09:33.472334 13001 net.cpp:151] Top shape: 1 480 30 60 (864000)
I1219 03:09:33.472337 13001 net.cpp:151] Top shape: 1 480 30 60 (864000)
I1219 03:09:33.472339 13001 net.cpp:159] Memory required for data: 495010816
I1219 03:09:33.472342 13001 layer_factory.hpp:77] Creating layer inception_4a/1x1
I1219 03:09:33.472347 13001 net.cpp:94] Creating Layer inception_4a/1x1
I1219 03:09:33.472347 13001 net.cpp:435] inception_4a/1x1 <- pool3/3x3_s2_pool3/3x3_s2_0_split_0
I1219 03:09:33.472350 13001 net.cpp:409] inception_4a/1x1 -> inception_4a/1x1_raw
I1219 03:09:33.473520 13001 net.cpp:144] Setting up inception_4a/1x1
I1219 03:09:33.473527 13001 net.cpp:151] Top shape: 1 192 30 60 (345600)
I1219 03:09:33.473531 13001 net.cpp:159] Memory required for data: 496393216
I1219 03:09:33.473536 13001 layer_factory.hpp:77] Creating layer inception_4a/1x1_BatchNorm
I1219 03:09:33.473541 13001 net.cpp:94] Creating Layer inception_4a/1x1_BatchNorm
I1219 03:09:33.473542 13001 net.cpp:435] inception_4a/1x1_BatchNorm <- inception_4a/1x1_raw
I1219 03:09:33.473546 13001 net.cpp:409] inception_4a/1x1_BatchNorm -> inception_4a/1x1
I1219 03:09:33.473922 13001 net.cpp:144] Setting up inception_4a/1x1_BatchNorm
I1219 03:09:33.473927 13001 net.cpp:151] Top shape: 1 192 30 60 (345600)
I1219 03:09:33.473929 13001 net.cpp:159] Memory required for data: 497775616
I1219 03:09:33.473934 13001 layer_factory.hpp:77] Creating layer inception_4a/relu_1x1
I1219 03:09:33.473937 13001 net.cpp:94] Creating Layer inception_4a/relu_1x1
I1219 03:09:33.473939 13001 net.cpp:435] inception_4a/relu_1x1 <- inception_4a/1x1
I1219 03:09:33.473942 13001 net.cpp:396] inception_4a/relu_1x1 -> inception_4a/1x1 (in-place)
I1219 03:09:33.473945 13001 net.cpp:144] Setting up inception_4a/relu_1x1
I1219 03:09:33.473946 13001 net.cpp:151] Top shape: 1 192 30 60 (345600)
I1219 03:09:33.473949 13001 net.cpp:159] Memory required for data: 499158016
I1219 03:09:33.473950 13001 layer_factory.hpp:77] Creating layer inception_4a/3x3_reduce
I1219 03:09:33.473955 13001 net.cpp:94] Creating Layer inception_4a/3x3_reduce
I1219 03:09:33.473956 13001 net.cpp:435] inception_4a/3x3_reduce <- pool3/3x3_s2_pool3/3x3_s2_0_split_1
I1219 03:09:33.473959 13001 net.cpp:409] inception_4a/3x3_reduce -> inception_4a/3x3_reduce_raw
I1219 03:09:33.474360 13001 net.cpp:144] Setting up inception_4a/3x3_reduce
I1219 03:09:33.474364 13001 net.cpp:151] Top shape: 1 96 30 60 (172800)
I1219 03:09:33.474367 13001 net.cpp:159] Memory required for data: 499849216
I1219 03:09:33.474370 13001 layer_factory.hpp:77] Creating layer inception_4a/3x3_reduce_BatchNorm
I1219 03:09:33.474375 13001 net.cpp:94] Creating Layer inception_4a/3x3_reduce_BatchNorm
I1219 03:09:33.474376 13001 net.cpp:435] inception_4a/3x3_reduce_BatchNorm <- inception_4a/3x3_reduce_raw
I1219 03:09:33.474380 13001 net.cpp:409] inception_4a/3x3_reduce_BatchNorm -> inception_4a/3x3_reduce
I1219 03:09:33.474778 13001 net.cpp:144] Setting up inception_4a/3x3_reduce_BatchNorm
I1219 03:09:33.474783 13001 net.cpp:151] Top shape: 1 96 30 60 (172800)
I1219 03:09:33.474786 13001 net.cpp:159] Memory required for data: 500540416
I1219 03:09:33.474792 13001 layer_factory.hpp:77] Creating layer inception_4a/relu_3x3_reduce
I1219 03:09:33.474797 13001 net.cpp:94] Creating Layer inception_4a/relu_3x3_reduce
I1219 03:09:33.474798 13001 net.cpp:435] inception_4a/relu_3x3_reduce <- inception_4a/3x3_reduce
I1219 03:09:33.474800 13001 net.cpp:396] inception_4a/relu_3x3_reduce -> inception_4a/3x3_reduce (in-place)
I1219 03:09:33.474804 13001 net.cpp:144] Setting up inception_4a/relu_3x3_reduce
I1219 03:09:33.474805 13001 net.cpp:151] Top shape: 1 96 30 60 (172800)
I1219 03:09:33.474808 13001 net.cpp:159] Memory required for data: 501231616
I1219 03:09:33.474810 13001 layer_factory.hpp:77] Creating layer inception_4a/3x3
I1219 03:09:33.474813 13001 net.cpp:94] Creating Layer inception_4a/3x3
I1219 03:09:33.474815 13001 net.cpp:435] inception_4a/3x3 <- inception_4a/3x3_reduce
I1219 03:09:33.474818 13001 net.cpp:409] inception_4a/3x3 -> inception_4a/3x3_raw
I1219 03:09:33.476938 13001 net.cpp:144] Setting up inception_4a/3x3
I1219 03:09:33.476950 13001 net.cpp:151] Top shape: 1 208 30 60 (374400)
I1219 03:09:33.476958 13001 net.cpp:159] Memory required for data: 502729216
I1219 03:09:33.476964 13001 layer_factory.hpp:77] Creating layer inception_4a/3x3_BatchNorm
I1219 03:09:33.476974 13001 net.cpp:94] Creating Layer inception_4a/3x3_BatchNorm
I1219 03:09:33.476979 13001 net.cpp:435] inception_4a/3x3_BatchNorm <- inception_4a/3x3_raw
I1219 03:09:33.476984 13001 net.cpp:409] inception_4a/3x3_BatchNorm -> inception_4a/3x3
I1219 03:09:33.477409 13001 net.cpp:144] Setting up inception_4a/3x3_BatchNorm
I1219 03:09:33.477414 13001 net.cpp:151] Top shape: 1 208 30 60 (374400)
I1219 03:09:33.477417 13001 net.cpp:159] Memory required for data: 504226816
I1219 03:09:33.477423 13001 layer_factory.hpp:77] Creating layer inception_4a/relu_3x3
I1219 03:09:33.477427 13001 net.cpp:94] Creating Layer inception_4a/relu_3x3
I1219 03:09:33.477429 13001 net.cpp:435] inception_4a/relu_3x3 <- inception_4a/3x3
I1219 03:09:33.477432 13001 net.cpp:396] inception_4a/relu_3x3 -> inception_4a/3x3 (in-place)
I1219 03:09:33.477437 13001 net.cpp:144] Setting up inception_4a/relu_3x3
I1219 03:09:33.477438 13001 net.cpp:151] Top shape: 1 208 30 60 (374400)
I1219 03:09:33.477440 13001 net.cpp:159] Memory required for data: 505724416
I1219 03:09:33.477442 13001 layer_factory.hpp:77] Creating layer inception_4a/5x5_reduce
I1219 03:09:33.477448 13001 net.cpp:94] Creating Layer inception_4a/5x5_reduce
I1219 03:09:33.477454 13001 net.cpp:435] inception_4a/5x5_reduce <- pool3/3x3_s2_pool3/3x3_s2_0_split_2
I1219 03:09:33.477458 13001 net.cpp:409] inception_4a/5x5_reduce -> inception_4a/5x5_reduce_raw
I1219 03:09:33.477663 13001 net.cpp:144] Setting up inception_4a/5x5_reduce
I1219 03:09:33.477666 13001 net.cpp:151] Top shape: 1 16 30 60 (28800)
I1219 03:09:33.477669 13001 net.cpp:159] Memory required for data: 505839616
I1219 03:09:33.477672 13001 layer_factory.hpp:77] Creating layer inception_4a/5x5_reduce_BatchNorm
I1219 03:09:33.477676 13001 net.cpp:94] Creating Layer inception_4a/5x5_reduce_BatchNorm
I1219 03:09:33.477679 13001 net.cpp:435] inception_4a/5x5_reduce_BatchNorm <- inception_4a/5x5_reduce_raw
I1219 03:09:33.477681 13001 net.cpp:409] inception_4a/5x5_reduce_BatchNorm -> inception_4a/5x5_reduce
I1219 03:09:33.478071 13001 net.cpp:144] Setting up inception_4a/5x5_reduce_BatchNorm
I1219 03:09:33.478076 13001 net.cpp:151] Top shape: 1 16 30 60 (28800)
I1219 03:09:33.478080 13001 net.cpp:159] Memory required for data: 505954816
I1219 03:09:33.478089 13001 layer_factory.hpp:77] Creating layer inception_4a/relu_5x5_reduce
I1219 03:09:33.478092 13001 net.cpp:94] Creating Layer inception_4a/relu_5x5_reduce
I1219 03:09:33.478094 13001 net.cpp:435] inception_4a/relu_5x5_reduce <- inception_4a/5x5_reduce
I1219 03:09:33.478097 13001 net.cpp:396] inception_4a/relu_5x5_reduce -> inception_4a/5x5_reduce (in-place)
I1219 03:09:33.478101 13001 net.cpp:144] Setting up inception_4a/relu_5x5_reduce
I1219 03:09:33.478102 13001 net.cpp:151] Top shape: 1 16 30 60 (28800)
I1219 03:09:33.478106 13001 net.cpp:159] Memory required for data: 506070016
I1219 03:09:33.478106 13001 layer_factory.hpp:77] Creating layer inception_4a/5x5
I1219 03:09:33.478111 13001 net.cpp:94] Creating Layer inception_4a/5x5
I1219 03:09:33.478112 13001 net.cpp:435] inception_4a/5x5 <- inception_4a/5x5_reduce
I1219 03:09:33.478116 13001 net.cpp:409] inception_4a/5x5 -> inception_4a/5x5_raw
I1219 03:09:33.478361 13001 net.cpp:144] Setting up inception_4a/5x5
I1219 03:09:33.478365 13001 net.cpp:151] Top shape: 1 48 30 60 (86400)
I1219 03:09:33.478368 13001 net.cpp:159] Memory required for data: 506415616
I1219 03:09:33.478371 13001 layer_factory.hpp:77] Creating layer inception_4a/5x5_BatchNorm
I1219 03:09:33.478375 13001 net.cpp:94] Creating Layer inception_4a/5x5_BatchNorm
I1219 03:09:33.478377 13001 net.cpp:435] inception_4a/5x5_BatchNorm <- inception_4a/5x5_raw
I1219 03:09:33.478380 13001 net.cpp:409] inception_4a/5x5_BatchNorm -> inception_4a/5x5
I1219 03:09:33.478780 13001 net.cpp:144] Setting up inception_4a/5x5_BatchNorm
I1219 03:09:33.478785 13001 net.cpp:151] Top shape: 1 48 30 60 (86400)
I1219 03:09:33.478788 13001 net.cpp:159] Memory required for data: 506761216
I1219 03:09:33.478793 13001 layer_factory.hpp:77] Creating layer inception_4a/relu_5x5
I1219 03:09:33.478796 13001 net.cpp:94] Creating Layer inception_4a/relu_5x5
I1219 03:09:33.478798 13001 net.cpp:435] inception_4a/relu_5x5 <- inception_4a/5x5
I1219 03:09:33.478801 13001 net.cpp:396] inception_4a/relu_5x5 -> inception_4a/5x5 (in-place)
I1219 03:09:33.478803 13001 net.cpp:144] Setting up inception_4a/relu_5x5
I1219 03:09:33.478806 13001 net.cpp:151] Top shape: 1 48 30 60 (86400)
I1219 03:09:33.478807 13001 net.cpp:159] Memory required for data: 507106816
I1219 03:09:33.478809 13001 layer_factory.hpp:77] Creating layer inception_4a/pool
I1219 03:09:33.478813 13001 net.cpp:94] Creating Layer inception_4a/pool
I1219 03:09:33.478816 13001 net.cpp:435] inception_4a/pool <- pool3/3x3_s2_pool3/3x3_s2_0_split_3
I1219 03:09:33.478818 13001 net.cpp:409] inception_4a/pool -> inception_4a/pool
I1219 03:09:33.478837 13001 net.cpp:144] Setting up inception_4a/pool
I1219 03:09:33.478839 13001 net.cpp:151] Top shape: 1 480 30 60 (864000)
I1219 03:09:33.478842 13001 net.cpp:159] Memory required for data: 510562816
I1219 03:09:33.478843 13001 layer_factory.hpp:77] Creating layer inception_4a/pool_proj
I1219 03:09:33.478847 13001 net.cpp:94] Creating Layer inception_4a/pool_proj
I1219 03:09:33.478848 13001 net.cpp:435] inception_4a/pool_proj <- inception_4a/pool
I1219 03:09:33.478852 13001 net.cpp:409] inception_4a/pool_proj -> inception_4a/pool_proj_raw
I1219 03:09:33.479161 13001 net.cpp:144] Setting up inception_4a/pool_proj
I1219 03:09:33.479164 13001 net.cpp:151] Top shape: 1 64 30 60 (115200)
I1219 03:09:33.479166 13001 net.cpp:159] Memory required for data: 511023616
I1219 03:09:33.479169 13001 layer_factory.hpp:77] Creating layer inception_4a/pool_proj_BatchNorm
I1219 03:09:33.479173 13001 net.cpp:94] Creating Layer inception_4a/pool_proj_BatchNorm
I1219 03:09:33.479176 13001 net.cpp:435] inception_4a/pool_proj_BatchNorm <- inception_4a/pool_proj_raw
I1219 03:09:33.479178 13001 net.cpp:409] inception_4a/pool_proj_BatchNorm -> inception_4a/pool_proj
I1219 03:09:33.479562 13001 net.cpp:144] Setting up inception_4a/pool_proj_BatchNorm
I1219 03:09:33.479565 13001 net.cpp:151] Top shape: 1 64 30 60 (115200)
I1219 03:09:33.479568 13001 net.cpp:159] Memory required for data: 511484416
I1219 03:09:33.479574 13001 layer_factory.hpp:77] Creating layer inception_4a/relu_pool_proj
I1219 03:09:33.479578 13001 net.cpp:94] Creating Layer inception_4a/relu_pool_proj
I1219 03:09:33.479579 13001 net.cpp:435] inception_4a/relu_pool_proj <- inception_4a/pool_proj
I1219 03:09:33.479581 13001 net.cpp:396] inception_4a/relu_pool_proj -> inception_4a/pool_proj (in-place)
I1219 03:09:33.479585 13001 net.cpp:144] Setting up inception_4a/relu_pool_proj
I1219 03:09:33.479586 13001 net.cpp:151] Top shape: 1 64 30 60 (115200)
I1219 03:09:33.479589 13001 net.cpp:159] Memory required for data: 511945216
I1219 03:09:33.479590 13001 layer_factory.hpp:77] Creating layer inception_4a/output
I1219 03:09:33.479594 13001 net.cpp:94] Creating Layer inception_4a/output
I1219 03:09:33.479595 13001 net.cpp:435] inception_4a/output <- inception_4a/1x1
I1219 03:09:33.479598 13001 net.cpp:435] inception_4a/output <- inception_4a/3x3
I1219 03:09:33.479599 13001 net.cpp:435] inception_4a/output <- inception_4a/5x5
I1219 03:09:33.479601 13001 net.cpp:435] inception_4a/output <- inception_4a/pool_proj
I1219 03:09:33.479604 13001 net.cpp:409] inception_4a/output -> inception_4a/output
I1219 03:09:33.479615 13001 net.cpp:144] Setting up inception_4a/output
I1219 03:09:33.479619 13001 net.cpp:151] Top shape: 1 512 30 60 (921600)
I1219 03:09:33.479620 13001 net.cpp:159] Memory required for data: 515631616
I1219 03:09:33.479622 13001 layer_factory.hpp:77] Creating layer inception_4a/output_inception_4a/output_0_split
I1219 03:09:33.479626 13001 net.cpp:94] Creating Layer inception_4a/output_inception_4a/output_0_split
I1219 03:09:33.479629 13001 net.cpp:435] inception_4a/output_inception_4a/output_0_split <- inception_4a/output
I1219 03:09:33.479631 13001 net.cpp:409] inception_4a/output_inception_4a/output_0_split -> inception_4a/output_inception_4a/output_0_split_0
I1219 03:09:33.479635 13001 net.cpp:409] inception_4a/output_inception_4a/output_0_split -> inception_4a/output_inception_4a/output_0_split_1
I1219 03:09:33.479638 13001 net.cpp:409] inception_4a/output_inception_4a/output_0_split -> inception_4a/output_inception_4a/output_0_split_2
I1219 03:09:33.479640 13001 net.cpp:409] inception_4a/output_inception_4a/output_0_split -> inception_4a/output_inception_4a/output_0_split_3
I1219 03:09:33.479669 13001 net.cpp:144] Setting up inception_4a/output_inception_4a/output_0_split
I1219 03:09:33.479671 13001 net.cpp:151] Top shape: 1 512 30 60 (921600)
I1219 03:09:33.479674 13001 net.cpp:151] Top shape: 1 512 30 60 (921600)
I1219 03:09:33.479676 13001 net.cpp:151] Top shape: 1 512 30 60 (921600)
I1219 03:09:33.479678 13001 net.cpp:151] Top shape: 1 512 30 60 (921600)
I1219 03:09:33.479681 13001 net.cpp:159] Memory required for data: 530377216
I1219 03:09:33.479682 13001 layer_factory.hpp:77] Creating layer inception_4b/1x1
I1219 03:09:33.479686 13001 net.cpp:94] Creating Layer inception_4b/1x1
I1219 03:09:33.479689 13001 net.cpp:435] inception_4b/1x1 <- inception_4a/output_inception_4a/output_0_split_0
I1219 03:09:33.479692 13001 net.cpp:409] inception_4b/1x1 -> inception_4b/1x1_raw
I1219 03:09:33.480278 13001 net.cpp:144] Setting up inception_4b/1x1
I1219 03:09:33.480281 13001 net.cpp:151] Top shape: 1 160 30 60 (288000)
I1219 03:09:33.480283 13001 net.cpp:159] Memory required for data: 531529216
I1219 03:09:33.480288 13001 layer_factory.hpp:77] Creating layer inception_4b/1x1_BatchNorm
I1219 03:09:33.480290 13001 net.cpp:94] Creating Layer inception_4b/1x1_BatchNorm
I1219 03:09:33.480293 13001 net.cpp:435] inception_4b/1x1_BatchNorm <- inception_4b/1x1_raw
I1219 03:09:33.480295 13001 net.cpp:409] inception_4b/1x1_BatchNorm -> inception_4b/1x1
I1219 03:09:33.480666 13001 net.cpp:144] Setting up inception_4b/1x1_BatchNorm
I1219 03:09:33.480670 13001 net.cpp:151] Top shape: 1 160 30 60 (288000)
I1219 03:09:33.480674 13001 net.cpp:159] Memory required for data: 532681216
I1219 03:09:33.480679 13001 layer_factory.hpp:77] Creating layer inception_4b/relu_1x1
I1219 03:09:33.480680 13001 net.cpp:94] Creating Layer inception_4b/relu_1x1
I1219 03:09:33.480682 13001 net.cpp:435] inception_4b/relu_1x1 <- inception_4b/1x1
I1219 03:09:33.480685 13001 net.cpp:396] inception_4b/relu_1x1 -> inception_4b/1x1 (in-place)
I1219 03:09:33.480688 13001 net.cpp:144] Setting up inception_4b/relu_1x1
I1219 03:09:33.480690 13001 net.cpp:151] Top shape: 1 160 30 60 (288000)
I1219 03:09:33.480692 13001 net.cpp:159] Memory required for data: 533833216
I1219 03:09:33.480693 13001 layer_factory.hpp:77] Creating layer inception_4b/3x3_reduce
I1219 03:09:33.480697 13001 net.cpp:94] Creating Layer inception_4b/3x3_reduce
I1219 03:09:33.480700 13001 net.cpp:435] inception_4b/3x3_reduce <- inception_4a/output_inception_4a/output_0_split_1
I1219 03:09:33.480702 13001 net.cpp:409] inception_4b/3x3_reduce -> inception_4b/3x3_reduce_raw
I1219 03:09:33.481155 13001 net.cpp:144] Setting up inception_4b/3x3_reduce
I1219 03:09:33.481158 13001 net.cpp:151] Top shape: 1 112 30 60 (201600)
I1219 03:09:33.481161 13001 net.cpp:159] Memory required for data: 534639616
I1219 03:09:33.481164 13001 layer_factory.hpp:77] Creating layer inception_4b/3x3_reduce_BatchNorm
I1219 03:09:33.481168 13001 net.cpp:94] Creating Layer inception_4b/3x3_reduce_BatchNorm
I1219 03:09:33.481170 13001 net.cpp:435] inception_4b/3x3_reduce_BatchNorm <- inception_4b/3x3_reduce_raw
I1219 03:09:33.481173 13001 net.cpp:409] inception_4b/3x3_reduce_BatchNorm -> inception_4b/3x3_reduce
I1219 03:09:33.481549 13001 net.cpp:144] Setting up inception_4b/3x3_reduce_BatchNorm
I1219 03:09:33.481554 13001 net.cpp:151] Top shape: 1 112 30 60 (201600)
I1219 03:09:33.481555 13001 net.cpp:159] Memory required for data: 535446016
I1219 03:09:33.481560 13001 layer_factory.hpp:77] Creating layer inception_4b/relu_3x3_reduce
I1219 03:09:33.481564 13001 net.cpp:94] Creating Layer inception_4b/relu_3x3_reduce
I1219 03:09:33.481565 13001 net.cpp:435] inception_4b/relu_3x3_reduce <- inception_4b/3x3_reduce
I1219 03:09:33.481568 13001 net.cpp:396] inception_4b/relu_3x3_reduce -> inception_4b/3x3_reduce (in-place)
I1219 03:09:33.481571 13001 net.cpp:144] Setting up inception_4b/relu_3x3_reduce
I1219 03:09:33.481572 13001 net.cpp:151] Top shape: 1 112 30 60 (201600)
I1219 03:09:33.481575 13001 net.cpp:159] Memory required for data: 536252416
I1219 03:09:33.481576 13001 layer_factory.hpp:77] Creating layer inception_4b/3x3
I1219 03:09:33.481580 13001 net.cpp:94] Creating Layer inception_4b/3x3
I1219 03:09:33.481582 13001 net.cpp:435] inception_4b/3x3 <- inception_4b/3x3_reduce
I1219 03:09:33.481585 13001 net.cpp:409] inception_4b/3x3 -> inception_4b/3x3_raw
I1219 03:09:33.483516 13001 net.cpp:144] Setting up inception_4b/3x3
I1219 03:09:33.483523 13001 net.cpp:151] Top shape: 1 224 30 60 (403200)
I1219 03:09:33.483526 13001 net.cpp:159] Memory required for data: 537865216
I1219 03:09:33.483530 13001 layer_factory.hpp:77] Creating layer inception_4b/3x3_BatchNorm
I1219 03:09:33.483534 13001 net.cpp:94] Creating Layer inception_4b/3x3_BatchNorm
I1219 03:09:33.483537 13001 net.cpp:435] inception_4b/3x3_BatchNorm <- inception_4b/3x3_raw
I1219 03:09:33.483541 13001 net.cpp:409] inception_4b/3x3_BatchNorm -> inception_4b/3x3
I1219 03:09:33.483920 13001 net.cpp:144] Setting up inception_4b/3x3_BatchNorm
I1219 03:09:33.483924 13001 net.cpp:151] Top shape: 1 224 30 60 (403200)
I1219 03:09:33.483927 13001 net.cpp:159] Memory required for data: 539478016
I1219 03:09:33.483932 13001 layer_factory.hpp:77] Creating layer inception_4b/relu_3x3
I1219 03:09:33.483935 13001 net.cpp:94] Creating Layer inception_4b/relu_3x3
I1219 03:09:33.483937 13001 net.cpp:435] inception_4b/relu_3x3 <- inception_4b/3x3
I1219 03:09:33.483940 13001 net.cpp:396] inception_4b/relu_3x3 -> inception_4b/3x3 (in-place)
I1219 03:09:33.483944 13001 net.cpp:144] Setting up inception_4b/relu_3x3
I1219 03:09:33.483947 13001 net.cpp:151] Top shape: 1 224 30 60 (403200)
I1219 03:09:33.483949 13001 net.cpp:159] Memory required for data: 541090816
I1219 03:09:33.483952 13001 layer_factory.hpp:77] Creating layer inception_4b/5x5_reduce
I1219 03:09:33.483956 13001 net.cpp:94] Creating Layer inception_4b/5x5_reduce
I1219 03:09:33.483958 13001 net.cpp:435] inception_4b/5x5_reduce <- inception_4a/output_inception_4a/output_0_split_2
I1219 03:09:33.483963 13001 net.cpp:409] inception_4b/5x5_reduce -> inception_4b/5x5_reduce_raw
I1219 03:09:33.484167 13001 net.cpp:144] Setting up inception_4b/5x5_reduce
I1219 03:09:33.484170 13001 net.cpp:151] Top shape: 1 24 30 60 (43200)
I1219 03:09:33.484174 13001 net.cpp:159] Memory required for data: 541263616
I1219 03:09:33.484176 13001 layer_factory.hpp:77] Creating layer inception_4b/5x5_reduce_BatchNorm
I1219 03:09:33.484180 13001 net.cpp:94] Creating Layer inception_4b/5x5_reduce_BatchNorm
I1219 03:09:33.484182 13001 net.cpp:435] inception_4b/5x5_reduce_BatchNorm <- inception_4b/5x5_reduce_raw
I1219 03:09:33.484184 13001 net.cpp:409] inception_4b/5x5_reduce_BatchNorm -> inception_4b/5x5_reduce
I1219 03:09:33.484552 13001 net.cpp:144] Setting up inception_4b/5x5_reduce_BatchNorm
I1219 03:09:33.484556 13001 net.cpp:151] Top shape: 1 24 30 60 (43200)
I1219 03:09:33.484560 13001 net.cpp:159] Memory required for data: 541436416
I1219 03:09:33.484565 13001 layer_factory.hpp:77] Creating layer inception_4b/relu_5x5_reduce
I1219 03:09:33.484567 13001 net.cpp:94] Creating Layer inception_4b/relu_5x5_reduce
I1219 03:09:33.484570 13001 net.cpp:435] inception_4b/relu_5x5_reduce <- inception_4b/5x5_reduce
I1219 03:09:33.484571 13001 net.cpp:396] inception_4b/relu_5x5_reduce -> inception_4b/5x5_reduce (in-place)
I1219 03:09:33.484575 13001 net.cpp:144] Setting up inception_4b/relu_5x5_reduce
I1219 03:09:33.484576 13001 net.cpp:151] Top shape: 1 24 30 60 (43200)
I1219 03:09:33.484578 13001 net.cpp:159] Memory required for data: 541609216
I1219 03:09:33.484580 13001 layer_factory.hpp:77] Creating layer inception_4b/5x5
I1219 03:09:33.484584 13001 net.cpp:94] Creating Layer inception_4b/5x5
I1219 03:09:33.484586 13001 net.cpp:435] inception_4b/5x5 <- inception_4b/5x5_reduce
I1219 03:09:33.484588 13001 net.cpp:409] inception_4b/5x5 -> inception_4b/5x5_raw
I1219 03:09:33.485460 13001 net.cpp:144] Setting up inception_4b/5x5
I1219 03:09:33.485464 13001 net.cpp:151] Top shape: 1 64 30 60 (115200)
I1219 03:09:33.485467 13001 net.cpp:159] Memory required for data: 542070016
I1219 03:09:33.485471 13001 layer_factory.hpp:77] Creating layer inception_4b/5x5_BatchNorm
I1219 03:09:33.485476 13001 net.cpp:94] Creating Layer inception_4b/5x5_BatchNorm
I1219 03:09:33.485477 13001 net.cpp:435] inception_4b/5x5_BatchNorm <- inception_4b/5x5_raw
I1219 03:09:33.485481 13001 net.cpp:409] inception_4b/5x5_BatchNorm -> inception_4b/5x5
I1219 03:09:33.485858 13001 net.cpp:144] Setting up inception_4b/5x5_BatchNorm
I1219 03:09:33.485862 13001 net.cpp:151] Top shape: 1 64 30 60 (115200)
I1219 03:09:33.485865 13001 net.cpp:159] Memory required for data: 542530816
I1219 03:09:33.485870 13001 layer_factory.hpp:77] Creating layer inception_4b/relu_5x5
I1219 03:09:33.485873 13001 net.cpp:94] Creating Layer inception_4b/relu_5x5
I1219 03:09:33.485875 13001 net.cpp:435] inception_4b/relu_5x5 <- inception_4b/5x5
I1219 03:09:33.485877 13001 net.cpp:396] inception_4b/relu_5x5 -> inception_4b/5x5 (in-place)
I1219 03:09:33.485880 13001 net.cpp:144] Setting up inception_4b/relu_5x5
I1219 03:09:33.485882 13001 net.cpp:151] Top shape: 1 64 30 60 (115200)
I1219 03:09:33.485884 13001 net.cpp:159] Memory required for data: 542991616
I1219 03:09:33.485885 13001 layer_factory.hpp:77] Creating layer inception_4b/pool
I1219 03:09:33.485889 13001 net.cpp:94] Creating Layer inception_4b/pool
I1219 03:09:33.485891 13001 net.cpp:435] inception_4b/pool <- inception_4a/output_inception_4a/output_0_split_3
I1219 03:09:33.485894 13001 net.cpp:409] inception_4b/pool -> inception_4b/pool
I1219 03:09:33.485913 13001 net.cpp:144] Setting up inception_4b/pool
I1219 03:09:33.485913 13001 net.cpp:151] Top shape: 1 512 30 60 (921600)
I1219 03:09:33.485916 13001 net.cpp:159] Memory required for data: 546678016
I1219 03:09:33.485918 13001 layer_factory.hpp:77] Creating layer inception_4b/pool_proj
I1219 03:09:33.485921 13001 net.cpp:94] Creating Layer inception_4b/pool_proj
I1219 03:09:33.485924 13001 net.cpp:435] inception_4b/pool_proj <- inception_4b/pool
I1219 03:09:33.485926 13001 net.cpp:409] inception_4b/pool_proj -> inception_4b/pool_proj_raw
I1219 03:09:33.486244 13001 net.cpp:144] Setting up inception_4b/pool_proj
I1219 03:09:33.486248 13001 net.cpp:151] Top shape: 1 64 30 60 (115200)
I1219 03:09:33.486250 13001 net.cpp:159] Memory required for data: 547138816
I1219 03:09:33.486253 13001 layer_factory.hpp:77] Creating layer inception_4b/pool_proj_BatchNorm
I1219 03:09:33.486258 13001 net.cpp:94] Creating Layer inception_4b/pool_proj_BatchNorm
I1219 03:09:33.486259 13001 net.cpp:435] inception_4b/pool_proj_BatchNorm <- inception_4b/pool_proj_raw
I1219 03:09:33.486263 13001 net.cpp:409] inception_4b/pool_proj_BatchNorm -> inception_4b/pool_proj
I1219 03:09:33.486641 13001 net.cpp:144] Setting up inception_4b/pool_proj_BatchNorm
I1219 03:09:33.486645 13001 net.cpp:151] Top shape: 1 64 30 60 (115200)
I1219 03:09:33.486649 13001 net.cpp:159] Memory required for data: 547599616
I1219 03:09:33.486654 13001 layer_factory.hpp:77] Creating layer inception_4b/relu_pool_proj
I1219 03:09:33.486656 13001 net.cpp:94] Creating Layer inception_4b/relu_pool_proj
I1219 03:09:33.486658 13001 net.cpp:435] inception_4b/relu_pool_proj <- inception_4b/pool_proj
I1219 03:09:33.486660 13001 net.cpp:396] inception_4b/relu_pool_proj -> inception_4b/pool_proj (in-place)
I1219 03:09:33.486663 13001 net.cpp:144] Setting up inception_4b/relu_pool_proj
I1219 03:09:33.486665 13001 net.cpp:151] Top shape: 1 64 30 60 (115200)
I1219 03:09:33.486667 13001 net.cpp:159] Memory required for data: 548060416
I1219 03:09:33.486670 13001 layer_factory.hpp:77] Creating layer inception_4b/output
I1219 03:09:33.486672 13001 net.cpp:94] Creating Layer inception_4b/output
I1219 03:09:33.486673 13001 net.cpp:435] inception_4b/output <- inception_4b/1x1
I1219 03:09:33.486675 13001 net.cpp:435] inception_4b/output <- inception_4b/3x3
I1219 03:09:33.486699 13001 net.cpp:435] inception_4b/output <- inception_4b/5x5
I1219 03:09:33.486701 13001 net.cpp:435] inception_4b/output <- inception_4b/pool_proj
I1219 03:09:33.486703 13001 net.cpp:409] inception_4b/output -> inception_4b/output
I1219 03:09:33.486716 13001 net.cpp:144] Setting up inception_4b/output
I1219 03:09:33.486718 13001 net.cpp:151] Top shape: 1 512 30 60 (921600)
I1219 03:09:33.486721 13001 net.cpp:159] Memory required for data: 551746816
I1219 03:09:33.486722 13001 layer_factory.hpp:77] Creating layer inception_4b/output_inception_4b/output_0_split
I1219 03:09:33.486726 13001 net.cpp:94] Creating Layer inception_4b/output_inception_4b/output_0_split
I1219 03:09:33.486727 13001 net.cpp:435] inception_4b/output_inception_4b/output_0_split <- inception_4b/output
I1219 03:09:33.486730 13001 net.cpp:409] inception_4b/output_inception_4b/output_0_split -> inception_4b/output_inception_4b/output_0_split_0
I1219 03:09:33.486733 13001 net.cpp:409] inception_4b/output_inception_4b/output_0_split -> inception_4b/output_inception_4b/output_0_split_1
I1219 03:09:33.486737 13001 net.cpp:409] inception_4b/output_inception_4b/output_0_split -> inception_4b/output_inception_4b/output_0_split_2
I1219 03:09:33.486739 13001 net.cpp:409] inception_4b/output_inception_4b/output_0_split -> inception_4b/output_inception_4b/output_0_split_3
I1219 03:09:33.486768 13001 net.cpp:144] Setting up inception_4b/output_inception_4b/output_0_split
I1219 03:09:33.486771 13001 net.cpp:151] Top shape: 1 512 30 60 (921600)
I1219 03:09:33.486773 13001 net.cpp:151] Top shape: 1 512 30 60 (921600)
I1219 03:09:33.486775 13001 net.cpp:151] Top shape: 1 512 30 60 (921600)
I1219 03:09:33.486778 13001 net.cpp:151] Top shape: 1 512 30 60 (921600)
I1219 03:09:33.486780 13001 net.cpp:159] Memory required for data: 566492416
I1219 03:09:33.486783 13001 layer_factory.hpp:77] Creating layer inception_4c/1x1
I1219 03:09:33.486786 13001 net.cpp:94] Creating Layer inception_4c/1x1
I1219 03:09:33.486788 13001 net.cpp:435] inception_4c/1x1 <- inception_4b/output_inception_4b/output_0_split_0
I1219 03:09:33.486791 13001 net.cpp:409] inception_4c/1x1 -> inception_4c/1x1_raw
I1219 03:09:33.489917 13001 net.cpp:144] Setting up inception_4c/1x1
I1219 03:09:33.489923 13001 net.cpp:151] Top shape: 1 128 30 60 (230400)
I1219 03:09:33.489925 13001 net.cpp:159] Memory required for data: 567414016
I1219 03:09:33.489929 13001 layer_factory.hpp:77] Creating layer inception_4c/1x1_BatchNorm
I1219 03:09:33.489934 13001 net.cpp:94] Creating Layer inception_4c/1x1_BatchNorm
I1219 03:09:33.489936 13001 net.cpp:435] inception_4c/1x1_BatchNorm <- inception_4c/1x1_raw
I1219 03:09:33.489940 13001 net.cpp:409] inception_4c/1x1_BatchNorm -> inception_4c/1x1
I1219 03:09:33.490270 13001 net.cpp:144] Setting up inception_4c/1x1_BatchNorm
I1219 03:09:33.490274 13001 net.cpp:151] Top shape: 1 128 30 60 (230400)
I1219 03:09:33.490278 13001 net.cpp:159] Memory required for data: 568335616
I1219 03:09:33.490283 13001 layer_factory.hpp:77] Creating layer inception_4c/relu_1x1
I1219 03:09:33.490285 13001 net.cpp:94] Creating Layer inception_4c/relu_1x1
I1219 03:09:33.490288 13001 net.cpp:435] inception_4c/relu_1x1 <- inception_4c/1x1
I1219 03:09:33.490290 13001 net.cpp:396] inception_4c/relu_1x1 -> inception_4c/1x1 (in-place)
I1219 03:09:33.490293 13001 net.cpp:144] Setting up inception_4c/relu_1x1
I1219 03:09:33.490294 13001 net.cpp:151] Top shape: 1 128 30 60 (230400)
I1219 03:09:33.490298 13001 net.cpp:159] Memory required for data: 569257216
I1219 03:09:33.490298 13001 layer_factory.hpp:77] Creating layer inception_4c/3x3_reduce
I1219 03:09:33.490303 13001 net.cpp:94] Creating Layer inception_4c/3x3_reduce
I1219 03:09:33.490304 13001 net.cpp:435] inception_4c/3x3_reduce <- inception_4b/output_inception_4b/output_0_split_1
I1219 03:09:33.490308 13001 net.cpp:409] inception_4c/3x3_reduce -> inception_4c/3x3_reduce_raw
I1219 03:09:33.490876 13001 net.cpp:144] Setting up inception_4c/3x3_reduce
I1219 03:09:33.490881 13001 net.cpp:151] Top shape: 1 128 30 60 (230400)
I1219 03:09:33.490885 13001 net.cpp:159] Memory required for data: 570178816
I1219 03:09:33.490888 13001 layer_factory.hpp:77] Creating layer inception_4c/3x3_reduce_BatchNorm
I1219 03:09:33.490892 13001 net.cpp:94] Creating Layer inception_4c/3x3_reduce_BatchNorm
I1219 03:09:33.490895 13001 net.cpp:435] inception_4c/3x3_reduce_BatchNorm <- inception_4c/3x3_reduce_raw
I1219 03:09:33.490897 13001 net.cpp:409] inception_4c/3x3_reduce_BatchNorm -> inception_4c/3x3_reduce
I1219 03:09:33.491221 13001 net.cpp:144] Setting up inception_4c/3x3_reduce_BatchNorm
I1219 03:09:33.491225 13001 net.cpp:151] Top shape: 1 128 30 60 (230400)
I1219 03:09:33.491228 13001 net.cpp:159] Memory required for data: 571100416
I1219 03:09:33.491233 13001 layer_factory.hpp:77] Creating layer inception_4c/relu_3x3_reduce
I1219 03:09:33.491236 13001 net.cpp:94] Creating Layer inception_4c/relu_3x3_reduce
I1219 03:09:33.491238 13001 net.cpp:435] inception_4c/relu_3x3_reduce <- inception_4c/3x3_reduce
I1219 03:09:33.491240 13001 net.cpp:396] inception_4c/relu_3x3_reduce -> inception_4c/3x3_reduce (in-place)
I1219 03:09:33.491243 13001 net.cpp:144] Setting up inception_4c/relu_3x3_reduce
I1219 03:09:33.491245 13001 net.cpp:151] Top shape: 1 128 30 60 (230400)
I1219 03:09:33.491247 13001 net.cpp:159] Memory required for data: 572022016
I1219 03:09:33.491250 13001 layer_factory.hpp:77] Creating layer inception_4c/3x3
I1219 03:09:33.491253 13001 net.cpp:94] Creating Layer inception_4c/3x3
I1219 03:09:33.491255 13001 net.cpp:435] inception_4c/3x3 <- inception_4c/3x3_reduce
I1219 03:09:33.491257 13001 net.cpp:409] inception_4c/3x3 -> inception_4c/3x3_raw
I1219 03:09:33.494033 13001 net.cpp:144] Setting up inception_4c/3x3
I1219 03:09:33.494045 13001 net.cpp:151] Top shape: 1 256 30 60 (460800)
I1219 03:09:33.494050 13001 net.cpp:159] Memory required for data: 573865216
I1219 03:09:33.494055 13001 layer_factory.hpp:77] Creating layer inception_4c/3x3_BatchNorm
I1219 03:09:33.494062 13001 net.cpp:94] Creating Layer inception_4c/3x3_BatchNorm
I1219 03:09:33.494065 13001 net.cpp:435] inception_4c/3x3_BatchNorm <- inception_4c/3x3_raw
I1219 03:09:33.494071 13001 net.cpp:409] inception_4c/3x3_BatchNorm -> inception_4c/3x3
I1219 03:09:33.494417 13001 net.cpp:144] Setting up inception_4c/3x3_BatchNorm
I1219 03:09:33.494421 13001 net.cpp:151] Top shape: 1 256 30 60 (460800)
I1219 03:09:33.494423 13001 net.cpp:159] Memory required for data: 575708416
I1219 03:09:33.494428 13001 layer_factory.hpp:77] Creating layer inception_4c/relu_3x3
I1219 03:09:33.494432 13001 net.cpp:94] Creating Layer inception_4c/relu_3x3
I1219 03:09:33.494434 13001 net.cpp:435] inception_4c/relu_3x3 <- inception_4c/3x3
I1219 03:09:33.494436 13001 net.cpp:396] inception_4c/relu_3x3 -> inception_4c/3x3 (in-place)
I1219 03:09:33.494441 13001 net.cpp:144] Setting up inception_4c/relu_3x3
I1219 03:09:33.494442 13001 net.cpp:151] Top shape: 1 256 30 60 (460800)
I1219 03:09:33.494444 13001 net.cpp:159] Memory required for data: 577551616
I1219 03:09:33.494446 13001 layer_factory.hpp:77] Creating layer inception_4c/5x5_reduce
I1219 03:09:33.494451 13001 net.cpp:94] Creating Layer inception_4c/5x5_reduce
I1219 03:09:33.494453 13001 net.cpp:435] inception_4c/5x5_reduce <- inception_4b/output_inception_4b/output_0_split_2
I1219 03:09:33.494455 13001 net.cpp:409] inception_4c/5x5_reduce -> inception_4c/5x5_reduce_raw
I1219 03:09:33.494668 13001 net.cpp:144] Setting up inception_4c/5x5_reduce
I1219 03:09:33.494673 13001 net.cpp:151] Top shape: 1 24 30 60 (43200)
I1219 03:09:33.494674 13001 net.cpp:159] Memory required for data: 577724416
I1219 03:09:33.494699 13001 layer_factory.hpp:77] Creating layer inception_4c/5x5_reduce_BatchNorm
I1219 03:09:33.494709 13001 net.cpp:94] Creating Layer inception_4c/5x5_reduce_BatchNorm
I1219 03:09:33.494711 13001 net.cpp:435] inception_4c/5x5_reduce_BatchNorm <- inception_4c/5x5_reduce_raw
I1219 03:09:33.494714 13001 net.cpp:409] inception_4c/5x5_reduce_BatchNorm -> inception_4c/5x5_reduce
I1219 03:09:33.495187 13001 net.cpp:144] Setting up inception_4c/5x5_reduce_BatchNorm
I1219 03:09:33.495195 13001 net.cpp:151] Top shape: 1 24 30 60 (43200)
I1219 03:09:33.495199 13001 net.cpp:159] Memory required for data: 577897216
I1219 03:09:33.495208 13001 layer_factory.hpp:77] Creating layer inception_4c/relu_5x5_reduce
I1219 03:09:33.495214 13001 net.cpp:94] Creating Layer inception_4c/relu_5x5_reduce
I1219 03:09:33.495218 13001 net.cpp:435] inception_4c/relu_5x5_reduce <- inception_4c/5x5_reduce
I1219 03:09:33.495221 13001 net.cpp:396] inception_4c/relu_5x5_reduce -> inception_4c/5x5_reduce (in-place)
I1219 03:09:33.495226 13001 net.cpp:144] Setting up inception_4c/relu_5x5_reduce
I1219 03:09:33.495229 13001 net.cpp:151] Top shape: 1 24 30 60 (43200)
I1219 03:09:33.495232 13001 net.cpp:159] Memory required for data: 578070016
I1219 03:09:33.495234 13001 layer_factory.hpp:77] Creating layer inception_4c/5x5
I1219 03:09:33.495240 13001 net.cpp:94] Creating Layer inception_4c/5x5
I1219 03:09:33.495244 13001 net.cpp:435] inception_4c/5x5 <- inception_4c/5x5_reduce
I1219 03:09:33.495247 13001 net.cpp:409] inception_4c/5x5 -> inception_4c/5x5_raw
I1219 03:09:33.495770 13001 net.cpp:144] Setting up inception_4c/5x5
I1219 03:09:33.495776 13001 net.cpp:151] Top shape: 1 64 30 60 (115200)
I1219 03:09:33.495782 13001 net.cpp:159] Memory required for data: 578530816
I1219 03:09:33.495788 13001 layer_factory.hpp:77] Creating layer inception_4c/5x5_BatchNorm
I1219 03:09:33.495795 13001 net.cpp:94] Creating Layer inception_4c/5x5_BatchNorm
I1219 03:09:33.495798 13001 net.cpp:435] inception_4c/5x5_BatchNorm <- inception_4c/5x5_raw
I1219 03:09:33.495802 13001 net.cpp:409] inception_4c/5x5_BatchNorm -> inception_4c/5x5
I1219 03:09:33.496377 13001 net.cpp:144] Setting up inception_4c/5x5_BatchNorm
I1219 03:09:33.496383 13001 net.cpp:151] Top shape: 1 64 30 60 (115200)
I1219 03:09:33.496387 13001 net.cpp:159] Memory required for data: 578991616
I1219 03:09:33.496395 13001 layer_factory.hpp:77] Creating layer inception_4c/relu_5x5
I1219 03:09:33.496399 13001 net.cpp:94] Creating Layer inception_4c/relu_5x5
I1219 03:09:33.496402 13001 net.cpp:435] inception_4c/relu_5x5 <- inception_4c/5x5
I1219 03:09:33.496407 13001 net.cpp:396] inception_4c/relu_5x5 -> inception_4c/5x5 (in-place)
I1219 03:09:33.496410 13001 net.cpp:144] Setting up inception_4c/relu_5x5
I1219 03:09:33.496412 13001 net.cpp:151] Top shape: 1 64 30 60 (115200)
I1219 03:09:33.496417 13001 net.cpp:159] Memory required for data: 579452416
I1219 03:09:33.496418 13001 layer_factory.hpp:77] Creating layer inception_4c/pool
I1219 03:09:33.496423 13001 net.cpp:94] Creating Layer inception_4c/pool
I1219 03:09:33.496426 13001 net.cpp:435] inception_4c/pool <- inception_4b/output_inception_4b/output_0_split_3
I1219 03:09:33.496430 13001 net.cpp:409] inception_4c/pool -> inception_4c/pool
I1219 03:09:33.496457 13001 net.cpp:144] Setting up inception_4c/pool
I1219 03:09:33.496460 13001 net.cpp:151] Top shape: 1 512 30 60 (921600)
I1219 03:09:33.496464 13001 net.cpp:159] Memory required for data: 583138816
I1219 03:09:33.496466 13001 layer_factory.hpp:77] Creating layer inception_4c/pool_proj
I1219 03:09:33.496471 13001 net.cpp:94] Creating Layer inception_4c/pool_proj
I1219 03:09:33.496474 13001 net.cpp:435] inception_4c/pool_proj <- inception_4c/pool
I1219 03:09:33.496479 13001 net.cpp:409] inception_4c/pool_proj -> inception_4c/pool_proj_raw
I1219 03:09:33.496950 13001 net.cpp:144] Setting up inception_4c/pool_proj
I1219 03:09:33.496955 13001 net.cpp:151] Top shape: 1 64 30 60 (115200)
I1219 03:09:33.496959 13001 net.cpp:159] Memory required for data: 583599616
I1219 03:09:33.496963 13001 layer_factory.hpp:77] Creating layer inception_4c/pool_proj_BatchNorm
I1219 03:09:33.496969 13001 net.cpp:94] Creating Layer inception_4c/pool_proj_BatchNorm
I1219 03:09:33.496973 13001 net.cpp:435] inception_4c/pool_proj_BatchNorm <- inception_4c/pool_proj_raw
I1219 03:09:33.496976 13001 net.cpp:409] inception_4c/pool_proj_BatchNorm -> inception_4c/pool_proj
I1219 03:09:33.497535 13001 net.cpp:144] Setting up inception_4c/pool_proj_BatchNorm
I1219 03:09:33.497541 13001 net.cpp:151] Top shape: 1 64 30 60 (115200)
I1219 03:09:33.497545 13001 net.cpp:159] Memory required for data: 584060416
I1219 03:09:33.497553 13001 layer_factory.hpp:77] Creating layer inception_4c/relu_pool_proj
I1219 03:09:33.497557 13001 net.cpp:94] Creating Layer inception_4c/relu_pool_proj
I1219 03:09:33.497560 13001 net.cpp:435] inception_4c/relu_pool_proj <- inception_4c/pool_proj
I1219 03:09:33.497565 13001 net.cpp:396] inception_4c/relu_pool_proj -> inception_4c/pool_proj (in-place)
I1219 03:09:33.497568 13001 net.cpp:144] Setting up inception_4c/relu_pool_proj
I1219 03:09:33.497571 13001 net.cpp:151] Top shape: 1 64 30 60 (115200)
I1219 03:09:33.497575 13001 net.cpp:159] Memory required for data: 584521216
I1219 03:09:33.497577 13001 layer_factory.hpp:77] Creating layer inception_4c/output
I1219 03:09:33.497581 13001 net.cpp:94] Creating Layer inception_4c/output
I1219 03:09:33.497583 13001 net.cpp:435] inception_4c/output <- inception_4c/1x1
I1219 03:09:33.497586 13001 net.cpp:435] inception_4c/output <- inception_4c/3x3
I1219 03:09:33.497589 13001 net.cpp:435] inception_4c/output <- inception_4c/5x5
I1219 03:09:33.497592 13001 net.cpp:435] inception_4c/output <- inception_4c/pool_proj
I1219 03:09:33.497596 13001 net.cpp:409] inception_4c/output -> inception_4c/output
I1219 03:09:33.497614 13001 net.cpp:144] Setting up inception_4c/output
I1219 03:09:33.497617 13001 net.cpp:151] Top shape: 1 512 30 60 (921600)
I1219 03:09:33.497622 13001 net.cpp:159] Memory required for data: 588207616
I1219 03:09:33.497623 13001 layer_factory.hpp:77] Creating layer inception_4c/output_inception_4c/output_0_split
I1219 03:09:33.497628 13001 net.cpp:94] Creating Layer inception_4c/output_inception_4c/output_0_split
I1219 03:09:33.497632 13001 net.cpp:435] inception_4c/output_inception_4c/output_0_split <- inception_4c/output
I1219 03:09:33.497635 13001 net.cpp:409] inception_4c/output_inception_4c/output_0_split -> inception_4c/output_inception_4c/output_0_split_0
I1219 03:09:33.497639 13001 net.cpp:409] inception_4c/output_inception_4c/output_0_split -> inception_4c/output_inception_4c/output_0_split_1
I1219 03:09:33.497644 13001 net.cpp:409] inception_4c/output_inception_4c/output_0_split -> inception_4c/output_inception_4c/output_0_split_2
I1219 03:09:33.497648 13001 net.cpp:409] inception_4c/output_inception_4c/output_0_split -> inception_4c/output_inception_4c/output_0_split_3
I1219 03:09:33.497692 13001 net.cpp:144] Setting up inception_4c/output_inception_4c/output_0_split
I1219 03:09:33.497696 13001 net.cpp:151] Top shape: 1 512 30 60 (921600)
I1219 03:09:33.497699 13001 net.cpp:151] Top shape: 1 512 30 60 (921600)
I1219 03:09:33.497704 13001 net.cpp:151] Top shape: 1 512 30 60 (921600)
I1219 03:09:33.497707 13001 net.cpp:151] Top shape: 1 512 30 60 (921600)
I1219 03:09:33.497710 13001 net.cpp:159] Memory required for data: 602953216
I1219 03:09:33.497714 13001 layer_factory.hpp:77] Creating layer inception_4d/1x1
I1219 03:09:33.497720 13001 net.cpp:94] Creating Layer inception_4d/1x1
I1219 03:09:33.497722 13001 net.cpp:435] inception_4d/1x1 <- inception_4c/output_inception_4c/output_0_split_0
I1219 03:09:33.497726 13001 net.cpp:409] inception_4d/1x1 -> inception_4d/1x1_raw
I1219 03:09:33.498395 13001 net.cpp:144] Setting up inception_4d/1x1
I1219 03:09:33.498400 13001 net.cpp:151] Top shape: 1 112 30 60 (201600)
I1219 03:09:33.498404 13001 net.cpp:159] Memory required for data: 603759616
I1219 03:09:33.498409 13001 layer_factory.hpp:77] Creating layer inception_4d/1x1_BatchNorm
I1219 03:09:33.498414 13001 net.cpp:94] Creating Layer inception_4d/1x1_BatchNorm
I1219 03:09:33.498417 13001 net.cpp:435] inception_4d/1x1_BatchNorm <- inception_4d/1x1_raw
I1219 03:09:33.498421 13001 net.cpp:409] inception_4d/1x1_BatchNorm -> inception_4d/1x1
I1219 03:09:33.499006 13001 net.cpp:144] Setting up inception_4d/1x1_BatchNorm
I1219 03:09:33.499011 13001 net.cpp:151] Top shape: 1 112 30 60 (201600)
I1219 03:09:33.499017 13001 net.cpp:159] Memory required for data: 604566016
I1219 03:09:33.499023 13001 layer_factory.hpp:77] Creating layer inception_4d/relu_1x1
I1219 03:09:33.499028 13001 net.cpp:94] Creating Layer inception_4d/relu_1x1
I1219 03:09:33.499032 13001 net.cpp:435] inception_4d/relu_1x1 <- inception_4d/1x1
I1219 03:09:33.499034 13001 net.cpp:396] inception_4d/relu_1x1 -> inception_4d/1x1 (in-place)
I1219 03:09:33.499039 13001 net.cpp:144] Setting up inception_4d/relu_1x1
I1219 03:09:33.499042 13001 net.cpp:151] Top shape: 1 112 30 60 (201600)
I1219 03:09:33.499045 13001 net.cpp:159] Memory required for data: 605372416
I1219 03:09:33.499047 13001 layer_factory.hpp:77] Creating layer inception_4d/3x3_reduce
I1219 03:09:33.499053 13001 net.cpp:94] Creating Layer inception_4d/3x3_reduce
I1219 03:09:33.499056 13001 net.cpp:435] inception_4d/3x3_reduce <- inception_4c/output_inception_4c/output_0_split_1
I1219 03:09:33.499060 13001 net.cpp:409] inception_4d/3x3_reduce -> inception_4d/3x3_reduce_raw
I1219 03:09:33.499855 13001 net.cpp:144] Setting up inception_4d/3x3_reduce
I1219 03:09:33.499861 13001 net.cpp:151] Top shape: 1 144 30 60 (259200)
I1219 03:09:33.499864 13001 net.cpp:159] Memory required for data: 606409216
I1219 03:09:33.499869 13001 layer_factory.hpp:77] Creating layer inception_4d/3x3_reduce_BatchNorm
I1219 03:09:33.499874 13001 net.cpp:94] Creating Layer inception_4d/3x3_reduce_BatchNorm
I1219 03:09:33.499878 13001 net.cpp:435] inception_4d/3x3_reduce_BatchNorm <- inception_4d/3x3_reduce_raw
I1219 03:09:33.499882 13001 net.cpp:409] inception_4d/3x3_reduce_BatchNorm -> inception_4d/3x3_reduce
I1219 03:09:33.500437 13001 net.cpp:144] Setting up inception_4d/3x3_reduce_BatchNorm
I1219 03:09:33.500444 13001 net.cpp:151] Top shape: 1 144 30 60 (259200)
I1219 03:09:33.500448 13001 net.cpp:159] Memory required for data: 607446016
I1219 03:09:33.500456 13001 layer_factory.hpp:77] Creating layer inception_4d/relu_3x3_reduce
I1219 03:09:33.500460 13001 net.cpp:94] Creating Layer inception_4d/relu_3x3_reduce
I1219 03:09:33.500463 13001 net.cpp:435] inception_4d/relu_3x3_reduce <- inception_4d/3x3_reduce
I1219 03:09:33.500468 13001 net.cpp:396] inception_4d/relu_3x3_reduce -> inception_4d/3x3_reduce (in-place)
I1219 03:09:33.500471 13001 net.cpp:144] Setting up inception_4d/relu_3x3_reduce
I1219 03:09:33.500474 13001 net.cpp:151] Top shape: 1 144 30 60 (259200)
I1219 03:09:33.500478 13001 net.cpp:159] Memory required for data: 608482816
I1219 03:09:33.500480 13001 layer_factory.hpp:77] Creating layer inception_4d/3x3
I1219 03:09:33.500488 13001 net.cpp:94] Creating Layer inception_4d/3x3
I1219 03:09:33.500491 13001 net.cpp:435] inception_4d/3x3 <- inception_4d/3x3_reduce
I1219 03:09:33.500496 13001 net.cpp:409] inception_4d/3x3 -> inception_4d/3x3_raw
I1219 03:09:33.505246 13001 net.cpp:144] Setting up inception_4d/3x3
I1219 03:09:33.505264 13001 net.cpp:151] Top shape: 1 288 30 60 (518400)
I1219 03:09:33.505270 13001 net.cpp:159] Memory required for data: 610556416
I1219 03:09:33.505280 13001 layer_factory.hpp:77] Creating layer inception_4d/3x3_BatchNorm
I1219 03:09:33.505290 13001 net.cpp:94] Creating Layer inception_4d/3x3_BatchNorm
I1219 03:09:33.505293 13001 net.cpp:435] inception_4d/3x3_BatchNorm <- inception_4d/3x3_raw
I1219 03:09:33.505298 13001 net.cpp:409] inception_4d/3x3_BatchNorm -> inception_4d/3x3
I1219 03:09:33.505718 13001 net.cpp:144] Setting up inception_4d/3x3_BatchNorm
I1219 03:09:33.505723 13001 net.cpp:151] Top shape: 1 288 30 60 (518400)
I1219 03:09:33.505726 13001 net.cpp:159] Memory required for data: 612630016
I1219 03:09:33.505731 13001 layer_factory.hpp:77] Creating layer inception_4d/relu_3x3
I1219 03:09:33.505735 13001 net.cpp:94] Creating Layer inception_4d/relu_3x3
I1219 03:09:33.505738 13001 net.cpp:435] inception_4d/relu_3x3 <- inception_4d/3x3
I1219 03:09:33.505739 13001 net.cpp:396] inception_4d/relu_3x3 -> inception_4d/3x3 (in-place)
I1219 03:09:33.505744 13001 net.cpp:144] Setting up inception_4d/relu_3x3
I1219 03:09:33.505745 13001 net.cpp:151] Top shape: 1 288 30 60 (518400)
I1219 03:09:33.505748 13001 net.cpp:159] Memory required for data: 614703616
I1219 03:09:33.505750 13001 layer_factory.hpp:77] Creating layer inception_4d/5x5_reduce
I1219 03:09:33.505755 13001 net.cpp:94] Creating Layer inception_4d/5x5_reduce
I1219 03:09:33.505759 13001 net.cpp:435] inception_4d/5x5_reduce <- inception_4c/output_inception_4c/output_0_split_2
I1219 03:09:33.505761 13001 net.cpp:409] inception_4d/5x5_reduce -> inception_4d/5x5_reduce_raw
I1219 03:09:33.506001 13001 net.cpp:144] Setting up inception_4d/5x5_reduce
I1219 03:09:33.506006 13001 net.cpp:151] Top shape: 1 32 30 60 (57600)
I1219 03:09:33.506008 13001 net.cpp:159] Memory required for data: 614934016
I1219 03:09:33.506011 13001 layer_factory.hpp:77] Creating layer inception_4d/5x5_reduce_BatchNorm
I1219 03:09:33.506016 13001 net.cpp:94] Creating Layer inception_4d/5x5_reduce_BatchNorm
I1219 03:09:33.506019 13001 net.cpp:435] inception_4d/5x5_reduce_BatchNorm <- inception_4d/5x5_reduce_raw
I1219 03:09:33.506023 13001 net.cpp:409] inception_4d/5x5_reduce_BatchNorm -> inception_4d/5x5_reduce
I1219 03:09:33.506398 13001 net.cpp:144] Setting up inception_4d/5x5_reduce_BatchNorm
I1219 03:09:33.506402 13001 net.cpp:151] Top shape: 1 32 30 60 (57600)
I1219 03:09:33.506405 13001 net.cpp:159] Memory required for data: 615164416
I1219 03:09:33.506417 13001 layer_factory.hpp:77] Creating layer inception_4d/relu_5x5_reduce
I1219 03:09:33.506420 13001 net.cpp:94] Creating Layer inception_4d/relu_5x5_reduce
I1219 03:09:33.506422 13001 net.cpp:435] inception_4d/relu_5x5_reduce <- inception_4d/5x5_reduce
I1219 03:09:33.506425 13001 net.cpp:396] inception_4d/relu_5x5_reduce -> inception_4d/5x5_reduce (in-place)
I1219 03:09:33.506428 13001 net.cpp:144] Setting up inception_4d/relu_5x5_reduce
I1219 03:09:33.506429 13001 net.cpp:151] Top shape: 1 32 30 60 (57600)
I1219 03:09:33.506433 13001 net.cpp:159] Memory required for data: 615394816
I1219 03:09:33.506433 13001 layer_factory.hpp:77] Creating layer inception_4d/5x5
I1219 03:09:33.506438 13001 net.cpp:94] Creating Layer inception_4d/5x5
I1219 03:09:33.506439 13001 net.cpp:435] inception_4d/5x5 <- inception_4d/5x5_reduce
I1219 03:09:33.506443 13001 net.cpp:409] inception_4d/5x5 -> inception_4d/5x5_raw
I1219 03:09:33.506881 13001 net.cpp:144] Setting up inception_4d/5x5
I1219 03:09:33.506886 13001 net.cpp:151] Top shape: 1 64 30 60 (115200)
I1219 03:09:33.506889 13001 net.cpp:159] Memory required for data: 615855616
I1219 03:09:33.506892 13001 layer_factory.hpp:77] Creating layer inception_4d/5x5_BatchNorm
I1219 03:09:33.506896 13001 net.cpp:94] Creating Layer inception_4d/5x5_BatchNorm
I1219 03:09:33.506898 13001 net.cpp:435] inception_4d/5x5_BatchNorm <- inception_4d/5x5_raw
I1219 03:09:33.506901 13001 net.cpp:409] inception_4d/5x5_BatchNorm -> inception_4d/5x5
I1219 03:09:33.507290 13001 net.cpp:144] Setting up inception_4d/5x5_BatchNorm
I1219 03:09:33.507294 13001 net.cpp:151] Top shape: 1 64 30 60 (115200)
I1219 03:09:33.507297 13001 net.cpp:159] Memory required for data: 616316416
I1219 03:09:33.507302 13001 layer_factory.hpp:77] Creating layer inception_4d/relu_5x5
I1219 03:09:33.507305 13001 net.cpp:94] Creating Layer inception_4d/relu_5x5
I1219 03:09:33.507308 13001 net.cpp:435] inception_4d/relu_5x5 <- inception_4d/5x5
I1219 03:09:33.507310 13001 net.cpp:396] inception_4d/relu_5x5 -> inception_4d/5x5 (in-place)
I1219 03:09:33.507313 13001 net.cpp:144] Setting up inception_4d/relu_5x5
I1219 03:09:33.507314 13001 net.cpp:151] Top shape: 1 64 30 60 (115200)
I1219 03:09:33.507318 13001 net.cpp:159] Memory required for data: 616777216
I1219 03:09:33.507318 13001 layer_factory.hpp:77] Creating layer inception_4d/pool
I1219 03:09:33.507323 13001 net.cpp:94] Creating Layer inception_4d/pool
I1219 03:09:33.507325 13001 net.cpp:435] inception_4d/pool <- inception_4c/output_inception_4c/output_0_split_3
I1219 03:09:33.507329 13001 net.cpp:409] inception_4d/pool -> inception_4d/pool
I1219 03:09:33.507355 13001 net.cpp:144] Setting up inception_4d/pool
I1219 03:09:33.507359 13001 net.cpp:151] Top shape: 1 512 30 60 (921600)
I1219 03:09:33.507362 13001 net.cpp:159] Memory required for data: 620463616
I1219 03:09:33.507364 13001 layer_factory.hpp:77] Creating layer inception_4d/pool_proj
I1219 03:09:33.507370 13001 net.cpp:94] Creating Layer inception_4d/pool_proj
I1219 03:09:33.507372 13001 net.cpp:435] inception_4d/pool_proj <- inception_4d/pool
I1219 03:09:33.507376 13001 net.cpp:409] inception_4d/pool_proj -> inception_4d/pool_proj_raw
I1219 03:09:33.507726 13001 net.cpp:144] Setting up inception_4d/pool_proj
I1219 03:09:33.507732 13001 net.cpp:151] Top shape: 1 64 30 60 (115200)
I1219 03:09:33.507735 13001 net.cpp:159] Memory required for data: 620924416
I1219 03:09:33.507740 13001 layer_factory.hpp:77] Creating layer inception_4d/pool_proj_BatchNorm
I1219 03:09:33.507745 13001 net.cpp:94] Creating Layer inception_4d/pool_proj_BatchNorm
I1219 03:09:33.507750 13001 net.cpp:435] inception_4d/pool_proj_BatchNorm <- inception_4d/pool_proj_raw
I1219 03:09:33.507755 13001 net.cpp:409] inception_4d/pool_proj_BatchNorm -> inception_4d/pool_proj
I1219 03:09:33.508159 13001 net.cpp:144] Setting up inception_4d/pool_proj_BatchNorm
I1219 03:09:33.508164 13001 net.cpp:151] Top shape: 1 64 30 60 (115200)
I1219 03:09:33.508167 13001 net.cpp:159] Memory required for data: 621385216
I1219 03:09:33.508174 13001 layer_factory.hpp:77] Creating layer inception_4d/relu_pool_proj
I1219 03:09:33.508179 13001 net.cpp:94] Creating Layer inception_4d/relu_pool_proj
I1219 03:09:33.508183 13001 net.cpp:435] inception_4d/relu_pool_proj <- inception_4d/pool_proj
I1219 03:09:33.508186 13001 net.cpp:396] inception_4d/relu_pool_proj -> inception_4d/pool_proj (in-place)
I1219 03:09:33.508191 13001 net.cpp:144] Setting up inception_4d/relu_pool_proj
I1219 03:09:33.508195 13001 net.cpp:151] Top shape: 1 64 30 60 (115200)
I1219 03:09:33.508199 13001 net.cpp:159] Memory required for data: 621846016
I1219 03:09:33.508203 13001 layer_factory.hpp:77] Creating layer inception_4d/output
I1219 03:09:33.508206 13001 net.cpp:94] Creating Layer inception_4d/output
I1219 03:09:33.508209 13001 net.cpp:435] inception_4d/output <- inception_4d/1x1
I1219 03:09:33.508213 13001 net.cpp:435] inception_4d/output <- inception_4d/3x3
I1219 03:09:33.508215 13001 net.cpp:435] inception_4d/output <- inception_4d/5x5
I1219 03:09:33.508219 13001 net.cpp:435] inception_4d/output <- inception_4d/pool_proj
I1219 03:09:33.508222 13001 net.cpp:409] inception_4d/output -> inception_4d/output
I1219 03:09:33.508242 13001 net.cpp:144] Setting up inception_4d/output
I1219 03:09:33.508245 13001 net.cpp:151] Top shape: 1 528 30 60 (950400)
I1219 03:09:33.508249 13001 net.cpp:159] Memory required for data: 625647616
I1219 03:09:33.508250 13001 layer_factory.hpp:77] Creating layer inception_4d/output_inception_4d/output_0_split
I1219 03:09:33.508255 13001 net.cpp:94] Creating Layer inception_4d/output_inception_4d/output_0_split
I1219 03:09:33.508258 13001 net.cpp:435] inception_4d/output_inception_4d/output_0_split <- inception_4d/output
I1219 03:09:33.508262 13001 net.cpp:409] inception_4d/output_inception_4d/output_0_split -> inception_4d/output_inception_4d/output_0_split_0
I1219 03:09:33.508267 13001 net.cpp:409] inception_4d/output_inception_4d/output_0_split -> inception_4d/output_inception_4d/output_0_split_1
I1219 03:09:33.508273 13001 net.cpp:409] inception_4d/output_inception_4d/output_0_split -> inception_4d/output_inception_4d/output_0_split_2
I1219 03:09:33.508278 13001 net.cpp:409] inception_4d/output_inception_4d/output_0_split -> inception_4d/output_inception_4d/output_0_split_3
I1219 03:09:33.508318 13001 net.cpp:144] Setting up inception_4d/output_inception_4d/output_0_split
I1219 03:09:33.508322 13001 net.cpp:151] Top shape: 1 528 30 60 (950400)
I1219 03:09:33.508325 13001 net.cpp:151] Top shape: 1 528 30 60 (950400)
I1219 03:09:33.508328 13001 net.cpp:151] Top shape: 1 528 30 60 (950400)
I1219 03:09:33.508332 13001 net.cpp:151] Top shape: 1 528 30 60 (950400)
I1219 03:09:33.508335 13001 net.cpp:159] Memory required for data: 640854016
I1219 03:09:33.508337 13001 layer_factory.hpp:77] Creating layer inception_4e/1x1
I1219 03:09:33.508344 13001 net.cpp:94] Creating Layer inception_4e/1x1
I1219 03:09:33.508348 13001 net.cpp:435] inception_4e/1x1 <- inception_4d/output_inception_4d/output_0_split_0
I1219 03:09:33.508353 13001 net.cpp:409] inception_4e/1x1 -> inception_4e/1x1_raw
I1219 03:09:33.510164 13001 net.cpp:144] Setting up inception_4e/1x1
I1219 03:09:33.510174 13001 net.cpp:151] Top shape: 1 256 30 60 (460800)
I1219 03:09:33.510177 13001 net.cpp:159] Memory required for data: 642697216
I1219 03:09:33.510181 13001 layer_factory.hpp:77] Creating layer inception_4e/1x1_BatchNorm
I1219 03:09:33.510186 13001 net.cpp:94] Creating Layer inception_4e/1x1_BatchNorm
I1219 03:09:33.510188 13001 net.cpp:435] inception_4e/1x1_BatchNorm <- inception_4e/1x1_raw
I1219 03:09:33.510192 13001 net.cpp:409] inception_4e/1x1_BatchNorm -> inception_4e/1x1
I1219 03:09:33.510612 13001 net.cpp:144] Setting up inception_4e/1x1_BatchNorm
I1219 03:09:33.510619 13001 net.cpp:151] Top shape: 1 256 30 60 (460800)
I1219 03:09:33.510623 13001 net.cpp:159] Memory required for data: 644540416
I1219 03:09:33.510629 13001 layer_factory.hpp:77] Creating layer inception_4e/relu_1x1
I1219 03:09:33.510633 13001 net.cpp:94] Creating Layer inception_4e/relu_1x1
I1219 03:09:33.510637 13001 net.cpp:435] inception_4e/relu_1x1 <- inception_4e/1x1
I1219 03:09:33.510641 13001 net.cpp:396] inception_4e/relu_1x1 -> inception_4e/1x1 (in-place)
I1219 03:09:33.510648 13001 net.cpp:144] Setting up inception_4e/relu_1x1
I1219 03:09:33.510650 13001 net.cpp:151] Top shape: 1 256 30 60 (460800)
I1219 03:09:33.510654 13001 net.cpp:159] Memory required for data: 646383616
I1219 03:09:33.510656 13001 layer_factory.hpp:77] Creating layer inception_4e/3x3_reduce
I1219 03:09:33.510663 13001 net.cpp:94] Creating Layer inception_4e/3x3_reduce
I1219 03:09:33.510668 13001 net.cpp:435] inception_4e/3x3_reduce <- inception_4d/output_inception_4d/output_0_split_1
I1219 03:09:33.510671 13001 net.cpp:409] inception_4e/3x3_reduce -> inception_4e/3x3_reduce_raw
I1219 03:09:33.511312 13001 net.cpp:144] Setting up inception_4e/3x3_reduce
I1219 03:09:33.511319 13001 net.cpp:151] Top shape: 1 160 30 60 (288000)
I1219 03:09:33.511322 13001 net.cpp:159] Memory required for data: 647535616
I1219 03:09:33.511327 13001 layer_factory.hpp:77] Creating layer inception_4e/3x3_reduce_BatchNorm
I1219 03:09:33.511330 13001 net.cpp:94] Creating Layer inception_4e/3x3_reduce_BatchNorm
I1219 03:09:33.511333 13001 net.cpp:435] inception_4e/3x3_reduce_BatchNorm <- inception_4e/3x3_reduce_raw
I1219 03:09:33.511338 13001 net.cpp:409] inception_4e/3x3_reduce_BatchNorm -> inception_4e/3x3_reduce
I1219 03:09:33.511732 13001 net.cpp:144] Setting up inception_4e/3x3_reduce_BatchNorm
I1219 03:09:33.511739 13001 net.cpp:151] Top shape: 1 160 30 60 (288000)
I1219 03:09:33.511741 13001 net.cpp:159] Memory required for data: 648687616
I1219 03:09:33.511749 13001 layer_factory.hpp:77] Creating layer inception_4e/relu_3x3_reduce
I1219 03:09:33.511754 13001 net.cpp:94] Creating Layer inception_4e/relu_3x3_reduce
I1219 03:09:33.511757 13001 net.cpp:435] inception_4e/relu_3x3_reduce <- inception_4e/3x3_reduce
I1219 03:09:33.511761 13001 net.cpp:396] inception_4e/relu_3x3_reduce -> inception_4e/3x3_reduce (in-place)
I1219 03:09:33.511766 13001 net.cpp:144] Setting up inception_4e/relu_3x3_reduce
I1219 03:09:33.511770 13001 net.cpp:151] Top shape: 1 160 30 60 (288000)
I1219 03:09:33.511773 13001 net.cpp:159] Memory required for data: 649839616
I1219 03:09:33.511775 13001 layer_factory.hpp:77] Creating layer inception_4e/3x3
I1219 03:09:33.511782 13001 net.cpp:94] Creating Layer inception_4e/3x3
I1219 03:09:33.511787 13001 net.cpp:435] inception_4e/3x3 <- inception_4e/3x3_reduce
I1219 03:09:33.511792 13001 net.cpp:409] inception_4e/3x3 -> inception_4e/3x3_raw
I1219 03:09:33.515431 13001 net.cpp:144] Setting up inception_4e/3x3
I1219 03:09:33.515441 13001 net.cpp:151] Top shape: 1 320 30 60 (576000)
I1219 03:09:33.515445 13001 net.cpp:159] Memory required for data: 652143616
I1219 03:09:33.515450 13001 layer_factory.hpp:77] Creating layer inception_4e/3x3_BatchNorm
I1219 03:09:33.515458 13001 net.cpp:94] Creating Layer inception_4e/3x3_BatchNorm
I1219 03:09:33.515465 13001 net.cpp:435] inception_4e/3x3_BatchNorm <- inception_4e/3x3_raw
I1219 03:09:33.515471 13001 net.cpp:409] inception_4e/3x3_BatchNorm -> inception_4e/3x3
I1219 03:09:33.515931 13001 net.cpp:144] Setting up inception_4e/3x3_BatchNorm
I1219 03:09:33.515938 13001 net.cpp:151] Top shape: 1 320 30 60 (576000)
I1219 03:09:33.515942 13001 net.cpp:159] Memory required for data: 654447616
I1219 03:09:33.515949 13001 layer_factory.hpp:77] Creating layer inception_4e/relu_3x3
I1219 03:09:33.515954 13001 net.cpp:94] Creating Layer inception_4e/relu_3x3
I1219 03:09:33.515956 13001 net.cpp:435] inception_4e/relu_3x3 <- inception_4e/3x3
I1219 03:09:33.515960 13001 net.cpp:396] inception_4e/relu_3x3 -> inception_4e/3x3 (in-place)
I1219 03:09:33.515966 13001 net.cpp:144] Setting up inception_4e/relu_3x3
I1219 03:09:33.515969 13001 net.cpp:151] Top shape: 1 320 30 60 (576000)
I1219 03:09:33.515974 13001 net.cpp:159] Memory required for data: 656751616
I1219 03:09:33.515975 13001 layer_factory.hpp:77] Creating layer inception_4e/5x5_reduce
I1219 03:09:33.515982 13001 net.cpp:94] Creating Layer inception_4e/5x5_reduce
I1219 03:09:33.515986 13001 net.cpp:435] inception_4e/5x5_reduce <- inception_4d/output_inception_4d/output_0_split_2
I1219 03:09:33.515991 13001 net.cpp:409] inception_4e/5x5_reduce -> inception_4e/5x5_reduce_raw
I1219 03:09:33.516247 13001 net.cpp:144] Setting up inception_4e/5x5_reduce
I1219 03:09:33.516252 13001 net.cpp:151] Top shape: 1 32 30 60 (57600)
I1219 03:09:33.516255 13001 net.cpp:159] Memory required for data: 656982016
I1219 03:09:33.516259 13001 layer_factory.hpp:77] Creating layer inception_4e/5x5_reduce_BatchNorm
I1219 03:09:33.516265 13001 net.cpp:94] Creating Layer inception_4e/5x5_reduce_BatchNorm
I1219 03:09:33.516268 13001 net.cpp:435] inception_4e/5x5_reduce_BatchNorm <- inception_4e/5x5_reduce_raw
I1219 03:09:33.516273 13001 net.cpp:409] inception_4e/5x5_reduce_BatchNorm -> inception_4e/5x5_reduce
I1219 03:09:33.516678 13001 net.cpp:144] Setting up inception_4e/5x5_reduce_BatchNorm
I1219 03:09:33.516683 13001 net.cpp:151] Top shape: 1 32 30 60 (57600)
I1219 03:09:33.516686 13001 net.cpp:159] Memory required for data: 657212416
I1219 03:09:33.516692 13001 layer_factory.hpp:77] Creating layer inception_4e/relu_5x5_reduce
I1219 03:09:33.516695 13001 net.cpp:94] Creating Layer inception_4e/relu_5x5_reduce
I1219 03:09:33.516697 13001 net.cpp:435] inception_4e/relu_5x5_reduce <- inception_4e/5x5_reduce
I1219 03:09:33.516701 13001 net.cpp:396] inception_4e/relu_5x5_reduce -> inception_4e/5x5_reduce (in-place)
I1219 03:09:33.516705 13001 net.cpp:144] Setting up inception_4e/relu_5x5_reduce
I1219 03:09:33.516708 13001 net.cpp:151] Top shape: 1 32 30 60 (57600)
I1219 03:09:33.516711 13001 net.cpp:159] Memory required for data: 657442816
I1219 03:09:33.516714 13001 layer_factory.hpp:77] Creating layer inception_4e/5x5
I1219 03:09:33.516719 13001 net.cpp:94] Creating Layer inception_4e/5x5
I1219 03:09:33.516722 13001 net.cpp:435] inception_4e/5x5 <- inception_4e/5x5_reduce
I1219 03:09:33.516727 13001 net.cpp:409] inception_4e/5x5 -> inception_4e/5x5_raw
I1219 03:09:33.517477 13001 net.cpp:144] Setting up inception_4e/5x5
I1219 03:09:33.517484 13001 net.cpp:151] Top shape: 1 128 30 60 (230400)
I1219 03:09:33.517488 13001 net.cpp:159] Memory required for data: 658364416
I1219 03:09:33.517493 13001 layer_factory.hpp:77] Creating layer inception_4e/5x5_BatchNorm
I1219 03:09:33.517496 13001 net.cpp:94] Creating Layer inception_4e/5x5_BatchNorm
I1219 03:09:33.517499 13001 net.cpp:435] inception_4e/5x5_BatchNorm <- inception_4e/5x5_raw
I1219 03:09:33.517504 13001 net.cpp:409] inception_4e/5x5_BatchNorm -> inception_4e/5x5
I1219 03:09:33.517850 13001 net.cpp:144] Setting up inception_4e/5x5_BatchNorm
I1219 03:09:33.517858 13001 net.cpp:151] Top shape: 1 128 30 60 (230400)
I1219 03:09:33.517861 13001 net.cpp:159] Memory required for data: 659286016
I1219 03:09:33.517866 13001 layer_factory.hpp:77] Creating layer inception_4e/relu_5x5
I1219 03:09:33.517870 13001 net.cpp:94] Creating Layer inception_4e/relu_5x5
I1219 03:09:33.517874 13001 net.cpp:435] inception_4e/relu_5x5 <- inception_4e/5x5
I1219 03:09:33.517876 13001 net.cpp:396] inception_4e/relu_5x5 -> inception_4e/5x5 (in-place)
I1219 03:09:33.517880 13001 net.cpp:144] Setting up inception_4e/relu_5x5
I1219 03:09:33.517884 13001 net.cpp:151] Top shape: 1 128 30 60 (230400)
I1219 03:09:33.517886 13001 net.cpp:159] Memory required for data: 660207616
I1219 03:09:33.517889 13001 layer_factory.hpp:77] Creating layer inception_4e/pool
I1219 03:09:33.517892 13001 net.cpp:94] Creating Layer inception_4e/pool
I1219 03:09:33.517895 13001 net.cpp:435] inception_4e/pool <- inception_4d/output_inception_4d/output_0_split_3
I1219 03:09:33.517899 13001 net.cpp:409] inception_4e/pool -> inception_4e/pool
I1219 03:09:33.517920 13001 net.cpp:144] Setting up inception_4e/pool
I1219 03:09:33.517922 13001 net.cpp:151] Top shape: 1 528 30 60 (950400)
I1219 03:09:33.517925 13001 net.cpp:159] Memory required for data: 664009216
I1219 03:09:33.517926 13001 layer_factory.hpp:77] Creating layer inception_4e/pool_proj
I1219 03:09:33.517931 13001 net.cpp:94] Creating Layer inception_4e/pool_proj
I1219 03:09:33.517935 13001 net.cpp:435] inception_4e/pool_proj <- inception_4e/pool
I1219 03:09:33.517937 13001 net.cpp:409] inception_4e/pool_proj -> inception_4e/pool_proj_raw
I1219 03:09:33.519186 13001 net.cpp:144] Setting up inception_4e/pool_proj
I1219 03:09:33.519196 13001 net.cpp:151] Top shape: 1 128 30 60 (230400)
I1219 03:09:33.519201 13001 net.cpp:159] Memory required for data: 664930816
I1219 03:09:33.519204 13001 layer_factory.hpp:77] Creating layer inception_4e/pool_proj_BatchNorm
I1219 03:09:33.519210 13001 net.cpp:94] Creating Layer inception_4e/pool_proj_BatchNorm
I1219 03:09:33.519213 13001 net.cpp:435] inception_4e/pool_proj_BatchNorm <- inception_4e/pool_proj_raw
I1219 03:09:33.519217 13001 net.cpp:409] inception_4e/pool_proj_BatchNorm -> inception_4e/pool_proj
I1219 03:09:33.519553 13001 net.cpp:144] Setting up inception_4e/pool_proj_BatchNorm
I1219 03:09:33.519557 13001 net.cpp:151] Top shape: 1 128 30 60 (230400)
I1219 03:09:33.519560 13001 net.cpp:159] Memory required for data: 665852416
I1219 03:09:33.519565 13001 layer_factory.hpp:77] Creating layer inception_4e/relu_pool_proj
I1219 03:09:33.519568 13001 net.cpp:94] Creating Layer inception_4e/relu_pool_proj
I1219 03:09:33.519570 13001 net.cpp:435] inception_4e/relu_pool_proj <- inception_4e/pool_proj
I1219 03:09:33.519573 13001 net.cpp:396] inception_4e/relu_pool_proj -> inception_4e/pool_proj (in-place)
I1219 03:09:33.519577 13001 net.cpp:144] Setting up inception_4e/relu_pool_proj
I1219 03:09:33.519578 13001 net.cpp:151] Top shape: 1 128 30 60 (230400)
I1219 03:09:33.519582 13001 net.cpp:159] Memory required for data: 666774016
I1219 03:09:33.519584 13001 layer_factory.hpp:77] Creating layer inception_4e/output
I1219 03:09:33.519587 13001 net.cpp:94] Creating Layer inception_4e/output
I1219 03:09:33.519589 13001 net.cpp:435] inception_4e/output <- inception_4e/1x1
I1219 03:09:33.519593 13001 net.cpp:435] inception_4e/output <- inception_4e/3x3
I1219 03:09:33.519595 13001 net.cpp:435] inception_4e/output <- inception_4e/5x5
I1219 03:09:33.519598 13001 net.cpp:435] inception_4e/output <- inception_4e/pool_proj
I1219 03:09:33.519599 13001 net.cpp:409] inception_4e/output -> inception_4e/output
I1219 03:09:33.519611 13001 net.cpp:144] Setting up inception_4e/output
I1219 03:09:33.519614 13001 net.cpp:151] Top shape: 1 832 30 60 (1497600)
I1219 03:09:33.519616 13001 net.cpp:159] Memory required for data: 672764416
I1219 03:09:33.519618 13001 layer_factory.hpp:77] Creating layer inception_4e/output_inception_4e/output_0_split
I1219 03:09:33.519621 13001 net.cpp:94] Creating Layer inception_4e/output_inception_4e/output_0_split
I1219 03:09:33.519624 13001 net.cpp:435] inception_4e/output_inception_4e/output_0_split <- inception_4e/output
I1219 03:09:33.519627 13001 net.cpp:409] inception_4e/output_inception_4e/output_0_split -> inception_4e/output_inception_4e/output_0_split_0
I1219 03:09:33.519630 13001 net.cpp:409] inception_4e/output_inception_4e/output_0_split -> inception_4e/output_inception_4e/output_0_split_1
I1219 03:09:33.519650 13001 net.cpp:144] Setting up inception_4e/output_inception_4e/output_0_split
I1219 03:09:33.519654 13001 net.cpp:151] Top shape: 1 832 30 60 (1497600)
I1219 03:09:33.519655 13001 net.cpp:151] Top shape: 1 832 30 60 (1497600)
I1219 03:09:33.519659 13001 net.cpp:159] Memory required for data: 684745216
I1219 03:09:33.519661 13001 layer_factory.hpp:77] Creating layer pool4/3x3_s2
I1219 03:09:33.519665 13001 net.cpp:94] Creating Layer pool4/3x3_s2
I1219 03:09:33.519667 13001 net.cpp:435] pool4/3x3_s2 <- inception_4e/output_inception_4e/output_0_split_0
I1219 03:09:33.519670 13001 net.cpp:409] pool4/3x3_s2 -> pool4/3x3_s2
I1219 03:09:33.519690 13001 net.cpp:144] Setting up pool4/3x3_s2
I1219 03:09:33.519691 13001 net.cpp:151] Top shape: 1 832 15 30 (374400)
I1219 03:09:33.519695 13001 net.cpp:159] Memory required for data: 686242816
I1219 03:09:33.519696 13001 layer_factory.hpp:77] Creating layer pool4/3x3_s2_pool4/3x3_s2_0_split
I1219 03:09:33.519699 13001 net.cpp:94] Creating Layer pool4/3x3_s2_pool4/3x3_s2_0_split
I1219 03:09:33.519701 13001 net.cpp:435] pool4/3x3_s2_pool4/3x3_s2_0_split <- pool4/3x3_s2
I1219 03:09:33.519706 13001 net.cpp:409] pool4/3x3_s2_pool4/3x3_s2_0_split -> pool4/3x3_s2_pool4/3x3_s2_0_split_0
I1219 03:09:33.519708 13001 net.cpp:409] pool4/3x3_s2_pool4/3x3_s2_0_split -> pool4/3x3_s2_pool4/3x3_s2_0_split_1
I1219 03:09:33.519711 13001 net.cpp:409] pool4/3x3_s2_pool4/3x3_s2_0_split -> pool4/3x3_s2_pool4/3x3_s2_0_split_2
I1219 03:09:33.519714 13001 net.cpp:409] pool4/3x3_s2_pool4/3x3_s2_0_split -> pool4/3x3_s2_pool4/3x3_s2_0_split_3
I1219 03:09:33.519743 13001 net.cpp:144] Setting up pool4/3x3_s2_pool4/3x3_s2_0_split
I1219 03:09:33.519745 13001 net.cpp:151] Top shape: 1 832 15 30 (374400)
I1219 03:09:33.519748 13001 net.cpp:151] Top shape: 1 832 15 30 (374400)
I1219 03:09:33.519750 13001 net.cpp:151] Top shape: 1 832 15 30 (374400)
I1219 03:09:33.519752 13001 net.cpp:151] Top shape: 1 832 15 30 (374400)
I1219 03:09:33.519755 13001 net.cpp:159] Memory required for data: 692233216
I1219 03:09:33.519757 13001 layer_factory.hpp:77] Creating layer inception_5a/1x1
I1219 03:09:33.519762 13001 net.cpp:94] Creating Layer inception_5a/1x1
I1219 03:09:33.519764 13001 net.cpp:435] inception_5a/1x1 <- pool4/3x3_s2_pool4/3x3_s2_0_split_0
I1219 03:09:33.519768 13001 net.cpp:409] inception_5a/1x1 -> inception_5a/1x1_raw
I1219 03:09:33.521610 13001 net.cpp:144] Setting up inception_5a/1x1
I1219 03:09:33.521616 13001 net.cpp:151] Top shape: 1 256 15 30 (115200)
I1219 03:09:33.521620 13001 net.cpp:159] Memory required for data: 692694016
I1219 03:09:33.521625 13001 layer_factory.hpp:77] Creating layer inception_5a/1x1_BatchNorm
I1219 03:09:33.521629 13001 net.cpp:94] Creating Layer inception_5a/1x1_BatchNorm
I1219 03:09:33.521631 13001 net.cpp:435] inception_5a/1x1_BatchNorm <- inception_5a/1x1_raw
I1219 03:09:33.521634 13001 net.cpp:409] inception_5a/1x1_BatchNorm -> inception_5a/1x1
I1219 03:09:33.521992 13001 net.cpp:144] Setting up inception_5a/1x1_BatchNorm
I1219 03:09:33.521996 13001 net.cpp:151] Top shape: 1 256 15 30 (115200)
I1219 03:09:33.521999 13001 net.cpp:159] Memory required for data: 693154816
I1219 03:09:33.522006 13001 layer_factory.hpp:77] Creating layer inception_5a/relu_1x1
I1219 03:09:33.522009 13001 net.cpp:94] Creating Layer inception_5a/relu_1x1
I1219 03:09:33.522012 13001 net.cpp:435] inception_5a/relu_1x1 <- inception_5a/1x1
I1219 03:09:33.522015 13001 net.cpp:396] inception_5a/relu_1x1 -> inception_5a/1x1 (in-place)
I1219 03:09:33.522019 13001 net.cpp:144] Setting up inception_5a/relu_1x1
I1219 03:09:33.522022 13001 net.cpp:151] Top shape: 1 256 15 30 (115200)
I1219 03:09:33.522025 13001 net.cpp:159] Memory required for data: 693615616
I1219 03:09:33.522027 13001 layer_factory.hpp:77] Creating layer inception_5a/3x3_reduce
I1219 03:09:33.522032 13001 net.cpp:94] Creating Layer inception_5a/3x3_reduce
I1219 03:09:33.522034 13001 net.cpp:435] inception_5a/3x3_reduce <- pool4/3x3_s2_pool4/3x3_s2_0_split_1
I1219 03:09:33.522037 13001 net.cpp:409] inception_5a/3x3_reduce -> inception_5a/3x3_reduce_raw
I1219 03:09:33.522891 13001 net.cpp:144] Setting up inception_5a/3x3_reduce
I1219 03:09:33.522897 13001 net.cpp:151] Top shape: 1 160 15 30 (72000)
I1219 03:09:33.522899 13001 net.cpp:159] Memory required for data: 693903616
I1219 03:09:33.522902 13001 layer_factory.hpp:77] Creating layer inception_5a/3x3_reduce_BatchNorm
I1219 03:09:33.522907 13001 net.cpp:94] Creating Layer inception_5a/3x3_reduce_BatchNorm
I1219 03:09:33.522908 13001 net.cpp:435] inception_5a/3x3_reduce_BatchNorm <- inception_5a/3x3_reduce_raw
I1219 03:09:33.522912 13001 net.cpp:409] inception_5a/3x3_reduce_BatchNorm -> inception_5a/3x3_reduce
I1219 03:09:33.523293 13001 net.cpp:144] Setting up inception_5a/3x3_reduce_BatchNorm
I1219 03:09:33.523296 13001 net.cpp:151] Top shape: 1 160 15 30 (72000)
I1219 03:09:33.523299 13001 net.cpp:159] Memory required for data: 694191616
I1219 03:09:33.523304 13001 layer_factory.hpp:77] Creating layer inception_5a/relu_3x3_reduce
I1219 03:09:33.523308 13001 net.cpp:94] Creating Layer inception_5a/relu_3x3_reduce
I1219 03:09:33.523309 13001 net.cpp:435] inception_5a/relu_3x3_reduce <- inception_5a/3x3_reduce
I1219 03:09:33.523311 13001 net.cpp:396] inception_5a/relu_3x3_reduce -> inception_5a/3x3_reduce (in-place)
I1219 03:09:33.523315 13001 net.cpp:144] Setting up inception_5a/relu_3x3_reduce
I1219 03:09:33.523317 13001 net.cpp:151] Top shape: 1 160 15 30 (72000)
I1219 03:09:33.523321 13001 net.cpp:159] Memory required for data: 694479616
I1219 03:09:33.523324 13001 layer_factory.hpp:77] Creating layer inception_5a/3x3
I1219 03:09:33.523327 13001 net.cpp:94] Creating Layer inception_5a/3x3
I1219 03:09:33.523329 13001 net.cpp:435] inception_5a/3x3 <- inception_5a/3x3_reduce
I1219 03:09:33.523332 13001 net.cpp:409] inception_5a/3x3 -> inception_5a/3x3_raw
I1219 03:09:33.527830 13001 net.cpp:144] Setting up inception_5a/3x3
I1219 03:09:33.527845 13001 net.cpp:151] Top shape: 1 320 15 30 (144000)
I1219 03:09:33.527850 13001 net.cpp:159] Memory required for data: 695055616
I1219 03:09:33.527858 13001 layer_factory.hpp:77] Creating layer inception_5a/3x3_BatchNorm
I1219 03:09:33.527866 13001 net.cpp:94] Creating Layer inception_5a/3x3_BatchNorm
I1219 03:09:33.527870 13001 net.cpp:435] inception_5a/3x3_BatchNorm <- inception_5a/3x3_raw
I1219 03:09:33.527875 13001 net.cpp:409] inception_5a/3x3_BatchNorm -> inception_5a/3x3
I1219 03:09:33.528285 13001 net.cpp:144] Setting up inception_5a/3x3_BatchNorm
I1219 03:09:33.528290 13001 net.cpp:151] Top shape: 1 320 15 30 (144000)
I1219 03:09:33.528292 13001 net.cpp:159] Memory required for data: 695631616
I1219 03:09:33.528299 13001 layer_factory.hpp:77] Creating layer inception_5a/relu_3x3
I1219 03:09:33.528306 13001 net.cpp:94] Creating Layer inception_5a/relu_3x3
I1219 03:09:33.528307 13001 net.cpp:435] inception_5a/relu_3x3 <- inception_5a/3x3
I1219 03:09:33.528309 13001 net.cpp:396] inception_5a/relu_3x3 -> inception_5a/3x3 (in-place)
I1219 03:09:33.528313 13001 net.cpp:144] Setting up inception_5a/relu_3x3
I1219 03:09:33.528316 13001 net.cpp:151] Top shape: 1 320 15 30 (144000)
I1219 03:09:33.528317 13001 net.cpp:159] Memory required for data: 696207616
I1219 03:09:33.528319 13001 layer_factory.hpp:77] Creating layer inception_5a/5x5_reduce
I1219 03:09:33.528324 13001 net.cpp:94] Creating Layer inception_5a/5x5_reduce
I1219 03:09:33.528326 13001 net.cpp:435] inception_5a/5x5_reduce <- pool4/3x3_s2_pool4/3x3_s2_0_split_2
I1219 03:09:33.528329 13001 net.cpp:409] inception_5a/5x5_reduce -> inception_5a/5x5_reduce_raw
I1219 03:09:33.528628 13001 net.cpp:144] Setting up inception_5a/5x5_reduce
I1219 03:09:33.528632 13001 net.cpp:151] Top shape: 1 32 15 30 (14400)
I1219 03:09:33.528635 13001 net.cpp:159] Memory required for data: 696265216
I1219 03:09:33.528638 13001 layer_factory.hpp:77] Creating layer inception_5a/5x5_reduce_BatchNorm
I1219 03:09:33.528643 13001 net.cpp:94] Creating Layer inception_5a/5x5_reduce_BatchNorm
I1219 03:09:33.528645 13001 net.cpp:435] inception_5a/5x5_reduce_BatchNorm <- inception_5a/5x5_reduce_raw
I1219 03:09:33.528650 13001 net.cpp:409] inception_5a/5x5_reduce_BatchNorm -> inception_5a/5x5_reduce
I1219 03:09:33.529042 13001 net.cpp:144] Setting up inception_5a/5x5_reduce_BatchNorm
I1219 03:09:33.529047 13001 net.cpp:151] Top shape: 1 32 15 30 (14400)
I1219 03:09:33.529049 13001 net.cpp:159] Memory required for data: 696322816
I1219 03:09:33.529054 13001 layer_factory.hpp:77] Creating layer inception_5a/relu_5x5_reduce
I1219 03:09:33.529057 13001 net.cpp:94] Creating Layer inception_5a/relu_5x5_reduce
I1219 03:09:33.529059 13001 net.cpp:435] inception_5a/relu_5x5_reduce <- inception_5a/5x5_reduce
I1219 03:09:33.529062 13001 net.cpp:396] inception_5a/relu_5x5_reduce -> inception_5a/5x5_reduce (in-place)
I1219 03:09:33.529064 13001 net.cpp:144] Setting up inception_5a/relu_5x5_reduce
I1219 03:09:33.529067 13001 net.cpp:151] Top shape: 1 32 15 30 (14400)
I1219 03:09:33.529068 13001 net.cpp:159] Memory required for data: 696380416
I1219 03:09:33.529070 13001 layer_factory.hpp:77] Creating layer inception_5a/5x5
I1219 03:09:33.529074 13001 net.cpp:94] Creating Layer inception_5a/5x5
I1219 03:09:33.529076 13001 net.cpp:435] inception_5a/5x5 <- inception_5a/5x5_reduce
I1219 03:09:33.529079 13001 net.cpp:409] inception_5a/5x5 -> inception_5a/5x5_raw
I1219 03:09:33.530381 13001 net.cpp:144] Setting up inception_5a/5x5
I1219 03:09:33.530387 13001 net.cpp:151] Top shape: 1 128 15 30 (57600)
I1219 03:09:33.530390 13001 net.cpp:159] Memory required for data: 696610816
I1219 03:09:33.530395 13001 layer_factory.hpp:77] Creating layer inception_5a/5x5_BatchNorm
I1219 03:09:33.530401 13001 net.cpp:94] Creating Layer inception_5a/5x5_BatchNorm
I1219 03:09:33.530405 13001 net.cpp:435] inception_5a/5x5_BatchNorm <- inception_5a/5x5_raw
I1219 03:09:33.530408 13001 net.cpp:409] inception_5a/5x5_BatchNorm -> inception_5a/5x5
I1219 03:09:33.530758 13001 net.cpp:144] Setting up inception_5a/5x5_BatchNorm
I1219 03:09:33.530763 13001 net.cpp:151] Top shape: 1 128 15 30 (57600)
I1219 03:09:33.530766 13001 net.cpp:159] Memory required for data: 696841216
I1219 03:09:33.530771 13001 layer_factory.hpp:77] Creating layer inception_5a/relu_5x5
I1219 03:09:33.530774 13001 net.cpp:94] Creating Layer inception_5a/relu_5x5
I1219 03:09:33.530776 13001 net.cpp:435] inception_5a/relu_5x5 <- inception_5a/5x5
I1219 03:09:33.530778 13001 net.cpp:396] inception_5a/relu_5x5 -> inception_5a/5x5 (in-place)
I1219 03:09:33.530781 13001 net.cpp:144] Setting up inception_5a/relu_5x5
I1219 03:09:33.530783 13001 net.cpp:151] Top shape: 1 128 15 30 (57600)
I1219 03:09:33.530786 13001 net.cpp:159] Memory required for data: 697071616
I1219 03:09:33.530787 13001 layer_factory.hpp:77] Creating layer inception_5a/pool
I1219 03:09:33.530791 13001 net.cpp:94] Creating Layer inception_5a/pool
I1219 03:09:33.530793 13001 net.cpp:435] inception_5a/pool <- pool4/3x3_s2_pool4/3x3_s2_0_split_3
I1219 03:09:33.530797 13001 net.cpp:409] inception_5a/pool -> inception_5a/pool
I1219 03:09:33.530817 13001 net.cpp:144] Setting up inception_5a/pool
I1219 03:09:33.530819 13001 net.cpp:151] Top shape: 1 832 15 30 (374400)
I1219 03:09:33.530822 13001 net.cpp:159] Memory required for data: 698569216
I1219 03:09:33.530823 13001 layer_factory.hpp:77] Creating layer inception_5a/pool_proj
I1219 03:09:33.530827 13001 net.cpp:94] Creating Layer inception_5a/pool_proj
I1219 03:09:33.530829 13001 net.cpp:435] inception_5a/pool_proj <- inception_5a/pool
I1219 03:09:33.530833 13001 net.cpp:409] inception_5a/pool_proj -> inception_5a/pool_proj_raw
I1219 03:09:33.531522 13001 net.cpp:144] Setting up inception_5a/pool_proj
I1219 03:09:33.531525 13001 net.cpp:151] Top shape: 1 128 15 30 (57600)
I1219 03:09:33.531528 13001 net.cpp:159] Memory required for data: 698799616
I1219 03:09:33.531531 13001 layer_factory.hpp:77] Creating layer inception_5a/pool_proj_BatchNorm
I1219 03:09:33.531535 13001 net.cpp:94] Creating Layer inception_5a/pool_proj_BatchNorm
I1219 03:09:33.531538 13001 net.cpp:435] inception_5a/pool_proj_BatchNorm <- inception_5a/pool_proj_raw
I1219 03:09:33.531540 13001 net.cpp:409] inception_5a/pool_proj_BatchNorm -> inception_5a/pool_proj
I1219 03:09:33.531869 13001 net.cpp:144] Setting up inception_5a/pool_proj_BatchNorm
I1219 03:09:33.531874 13001 net.cpp:151] Top shape: 1 128 15 30 (57600)
I1219 03:09:33.531877 13001 net.cpp:159] Memory required for data: 699030016
I1219 03:09:33.531884 13001 layer_factory.hpp:77] Creating layer inception_5a/relu_pool_proj
I1219 03:09:33.531888 13001 net.cpp:94] Creating Layer inception_5a/relu_pool_proj
I1219 03:09:33.531890 13001 net.cpp:435] inception_5a/relu_pool_proj <- inception_5a/pool_proj
I1219 03:09:33.531893 13001 net.cpp:396] inception_5a/relu_pool_proj -> inception_5a/pool_proj (in-place)
I1219 03:09:33.531898 13001 net.cpp:144] Setting up inception_5a/relu_pool_proj
I1219 03:09:33.531899 13001 net.cpp:151] Top shape: 1 128 15 30 (57600)
I1219 03:09:33.531901 13001 net.cpp:159] Memory required for data: 699260416
I1219 03:09:33.531903 13001 layer_factory.hpp:77] Creating layer inception_5a/output
I1219 03:09:33.531906 13001 net.cpp:94] Creating Layer inception_5a/output
I1219 03:09:33.531908 13001 net.cpp:435] inception_5a/output <- inception_5a/1x1
I1219 03:09:33.531910 13001 net.cpp:435] inception_5a/output <- inception_5a/3x3
I1219 03:09:33.531913 13001 net.cpp:435] inception_5a/output <- inception_5a/5x5
I1219 03:09:33.531915 13001 net.cpp:435] inception_5a/output <- inception_5a/pool_proj
I1219 03:09:33.531919 13001 net.cpp:409] inception_5a/output -> inception_5a/output
I1219 03:09:33.531932 13001 net.cpp:144] Setting up inception_5a/output
I1219 03:09:33.531935 13001 net.cpp:151] Top shape: 1 832 15 30 (374400)
I1219 03:09:33.531939 13001 net.cpp:159] Memory required for data: 700758016
I1219 03:09:33.531939 13001 layer_factory.hpp:77] Creating layer inception_5a/output_inception_5a/output_0_split
I1219 03:09:33.531944 13001 net.cpp:94] Creating Layer inception_5a/output_inception_5a/output_0_split
I1219 03:09:33.531946 13001 net.cpp:435] inception_5a/output_inception_5a/output_0_split <- inception_5a/output
I1219 03:09:33.531950 13001 net.cpp:409] inception_5a/output_inception_5a/output_0_split -> inception_5a/output_inception_5a/output_0_split_0
I1219 03:09:33.531953 13001 net.cpp:409] inception_5a/output_inception_5a/output_0_split -> inception_5a/output_inception_5a/output_0_split_1
I1219 03:09:33.531957 13001 net.cpp:409] inception_5a/output_inception_5a/output_0_split -> inception_5a/output_inception_5a/output_0_split_2
I1219 03:09:33.531961 13001 net.cpp:409] inception_5a/output_inception_5a/output_0_split -> inception_5a/output_inception_5a/output_0_split_3
I1219 03:09:33.531992 13001 net.cpp:144] Setting up inception_5a/output_inception_5a/output_0_split
I1219 03:09:33.531996 13001 net.cpp:151] Top shape: 1 832 15 30 (374400)
I1219 03:09:33.531997 13001 net.cpp:151] Top shape: 1 832 15 30 (374400)
I1219 03:09:33.531999 13001 net.cpp:151] Top shape: 1 832 15 30 (374400)
I1219 03:09:33.532002 13001 net.cpp:151] Top shape: 1 832 15 30 (374400)
I1219 03:09:33.532006 13001 net.cpp:159] Memory required for data: 706748416
I1219 03:09:33.532007 13001 layer_factory.hpp:77] Creating layer inception_5b/1x1
I1219 03:09:33.532012 13001 net.cpp:94] Creating Layer inception_5b/1x1
I1219 03:09:33.532014 13001 net.cpp:435] inception_5b/1x1 <- inception_5a/output_inception_5a/output_0_split_0
I1219 03:09:33.532017 13001 net.cpp:409] inception_5b/1x1 -> inception_5b/1x1_raw
I1219 03:09:33.535486 13001 net.cpp:144] Setting up inception_5b/1x1
I1219 03:09:33.535507 13001 net.cpp:151] Top shape: 1 384 15 30 (172800)
I1219 03:09:33.535514 13001 net.cpp:159] Memory required for data: 707439616
I1219 03:09:33.535526 13001 layer_factory.hpp:77] Creating layer inception_5b/1x1_BatchNorm
I1219 03:09:33.535538 13001 net.cpp:94] Creating Layer inception_5b/1x1_BatchNorm
I1219 03:09:33.535543 13001 net.cpp:435] inception_5b/1x1_BatchNorm <- inception_5b/1x1_raw
I1219 03:09:33.535549 13001 net.cpp:409] inception_5b/1x1_BatchNorm -> inception_5b/1x1
I1219 03:09:33.535956 13001 net.cpp:144] Setting up inception_5b/1x1_BatchNorm
I1219 03:09:33.535961 13001 net.cpp:151] Top shape: 1 384 15 30 (172800)
I1219 03:09:33.535964 13001 net.cpp:159] Memory required for data: 708130816
I1219 03:09:33.535971 13001 layer_factory.hpp:77] Creating layer inception_5b/relu_1x1
I1219 03:09:33.535977 13001 net.cpp:94] Creating Layer inception_5b/relu_1x1
I1219 03:09:33.535982 13001 net.cpp:435] inception_5b/relu_1x1 <- inception_5b/1x1
I1219 03:09:33.535984 13001 net.cpp:396] inception_5b/relu_1x1 -> inception_5b/1x1 (in-place)
I1219 03:09:33.535989 13001 net.cpp:144] Setting up inception_5b/relu_1x1
I1219 03:09:33.535991 13001 net.cpp:151] Top shape: 1 384 15 30 (172800)
I1219 03:09:33.535993 13001 net.cpp:159] Memory required for data: 708822016
I1219 03:09:33.535995 13001 layer_factory.hpp:77] Creating layer inception_5b/3x3_reduce
I1219 03:09:33.536001 13001 net.cpp:94] Creating Layer inception_5b/3x3_reduce
I1219 03:09:33.536003 13001 net.cpp:435] inception_5b/3x3_reduce <- inception_5a/output_inception_5a/output_0_split_1
I1219 03:09:33.536007 13001 net.cpp:409] inception_5b/3x3_reduce -> inception_5b/3x3_reduce_raw
I1219 03:09:33.537036 13001 net.cpp:144] Setting up inception_5b/3x3_reduce
I1219 03:09:33.537040 13001 net.cpp:151] Top shape: 1 192 15 30 (86400)
I1219 03:09:33.537043 13001 net.cpp:159] Memory required for data: 709167616
I1219 03:09:33.537047 13001 layer_factory.hpp:77] Creating layer inception_5b/3x3_reduce_BatchNorm
I1219 03:09:33.537052 13001 net.cpp:94] Creating Layer inception_5b/3x3_reduce_BatchNorm
I1219 03:09:33.537055 13001 net.cpp:435] inception_5b/3x3_reduce_BatchNorm <- inception_5b/3x3_reduce_raw
I1219 03:09:33.537057 13001 net.cpp:409] inception_5b/3x3_reduce_BatchNorm -> inception_5b/3x3_reduce
I1219 03:09:33.537444 13001 net.cpp:144] Setting up inception_5b/3x3_reduce_BatchNorm
I1219 03:09:33.537448 13001 net.cpp:151] Top shape: 1 192 15 30 (86400)
I1219 03:09:33.537451 13001 net.cpp:159] Memory required for data: 709513216
I1219 03:09:33.537457 13001 layer_factory.hpp:77] Creating layer inception_5b/relu_3x3_reduce
I1219 03:09:33.537461 13001 net.cpp:94] Creating Layer inception_5b/relu_3x3_reduce
I1219 03:09:33.537463 13001 net.cpp:435] inception_5b/relu_3x3_reduce <- inception_5b/3x3_reduce
I1219 03:09:33.537467 13001 net.cpp:396] inception_5b/relu_3x3_reduce -> inception_5b/3x3_reduce (in-place)
I1219 03:09:33.537472 13001 net.cpp:144] Setting up inception_5b/relu_3x3_reduce
I1219 03:09:33.537474 13001 net.cpp:151] Top shape: 1 192 15 30 (86400)
I1219 03:09:33.537477 13001 net.cpp:159] Memory required for data: 709858816
I1219 03:09:33.537480 13001 layer_factory.hpp:77] Creating layer inception_5b/3x3
I1219 03:09:33.537485 13001 net.cpp:94] Creating Layer inception_5b/3x3
I1219 03:09:33.537487 13001 net.cpp:435] inception_5b/3x3 <- inception_5b/3x3_reduce
I1219 03:09:33.537492 13001 net.cpp:409] inception_5b/3x3 -> inception_5b/3x3_raw
I1219 03:09:33.542426 13001 net.cpp:144] Setting up inception_5b/3x3
I1219 03:09:33.542438 13001 net.cpp:151] Top shape: 1 384 15 30 (172800)
I1219 03:09:33.542441 13001 net.cpp:159] Memory required for data: 710550016
I1219 03:09:33.542448 13001 layer_factory.hpp:77] Creating layer inception_5b/3x3_BatchNorm
I1219 03:09:33.542454 13001 net.cpp:94] Creating Layer inception_5b/3x3_BatchNorm
I1219 03:09:33.542459 13001 net.cpp:435] inception_5b/3x3_BatchNorm <- inception_5b/3x3_raw
I1219 03:09:33.542464 13001 net.cpp:409] inception_5b/3x3_BatchNorm -> inception_5b/3x3
I1219 03:09:33.542847 13001 net.cpp:144] Setting up inception_5b/3x3_BatchNorm
I1219 03:09:33.542852 13001 net.cpp:151] Top shape: 1 384 15 30 (172800)
I1219 03:09:33.542855 13001 net.cpp:159] Memory required for data: 711241216
I1219 03:09:33.542861 13001 layer_factory.hpp:77] Creating layer inception_5b/relu_3x3
I1219 03:09:33.542865 13001 net.cpp:94] Creating Layer inception_5b/relu_3x3
I1219 03:09:33.542866 13001 net.cpp:435] inception_5b/relu_3x3 <- inception_5b/3x3
I1219 03:09:33.542870 13001 net.cpp:396] inception_5b/relu_3x3 -> inception_5b/3x3 (in-place)
I1219 03:09:33.542874 13001 net.cpp:144] Setting up inception_5b/relu_3x3
I1219 03:09:33.542876 13001 net.cpp:151] Top shape: 1 384 15 30 (172800)
I1219 03:09:33.542878 13001 net.cpp:159] Memory required for data: 711932416
I1219 03:09:33.542881 13001 layer_factory.hpp:77] Creating layer inception_5b/5x5_reduce
I1219 03:09:33.542887 13001 net.cpp:94] Creating Layer inception_5b/5x5_reduce
I1219 03:09:33.542891 13001 net.cpp:435] inception_5b/5x5_reduce <- inception_5a/output_inception_5a/output_0_split_2
I1219 03:09:33.542896 13001 net.cpp:409] inception_5b/5x5_reduce -> inception_5b/5x5_reduce_raw
I1219 03:09:33.543431 13001 net.cpp:144] Setting up inception_5b/5x5_reduce
I1219 03:09:33.543439 13001 net.cpp:151] Top shape: 1 48 15 30 (21600)
I1219 03:09:33.543442 13001 net.cpp:159] Memory required for data: 712018816
I1219 03:09:33.543447 13001 layer_factory.hpp:77] Creating layer inception_5b/5x5_reduce_BatchNorm
I1219 03:09:33.543452 13001 net.cpp:94] Creating Layer inception_5b/5x5_reduce_BatchNorm
I1219 03:09:33.543454 13001 net.cpp:435] inception_5b/5x5_reduce_BatchNorm <- inception_5b/5x5_reduce_raw
I1219 03:09:33.543458 13001 net.cpp:409] inception_5b/5x5_reduce_BatchNorm -> inception_5b/5x5_reduce
I1219 03:09:33.543869 13001 net.cpp:144] Setting up inception_5b/5x5_reduce_BatchNorm
I1219 03:09:33.543874 13001 net.cpp:151] Top shape: 1 48 15 30 (21600)
I1219 03:09:33.543877 13001 net.cpp:159] Memory required for data: 712105216
I1219 03:09:33.543884 13001 layer_factory.hpp:77] Creating layer inception_5b/relu_5x5_reduce
I1219 03:09:33.543886 13001 net.cpp:94] Creating Layer inception_5b/relu_5x5_reduce
I1219 03:09:33.543890 13001 net.cpp:435] inception_5b/relu_5x5_reduce <- inception_5b/5x5_reduce
I1219 03:09:33.543893 13001 net.cpp:396] inception_5b/relu_5x5_reduce -> inception_5b/5x5_reduce (in-place)
I1219 03:09:33.543898 13001 net.cpp:144] Setting up inception_5b/relu_5x5_reduce
I1219 03:09:33.543900 13001 net.cpp:151] Top shape: 1 48 15 30 (21600)
I1219 03:09:33.543903 13001 net.cpp:159] Memory required for data: 712191616
I1219 03:09:33.543905 13001 layer_factory.hpp:77] Creating layer inception_5b/5x5
I1219 03:09:33.543910 13001 net.cpp:94] Creating Layer inception_5b/5x5
I1219 03:09:33.543911 13001 net.cpp:435] inception_5b/5x5 <- inception_5b/5x5_reduce
I1219 03:09:33.543915 13001 net.cpp:409] inception_5b/5x5 -> inception_5b/5x5_raw
I1219 03:09:33.545507 13001 net.cpp:144] Setting up inception_5b/5x5
I1219 03:09:33.545514 13001 net.cpp:151] Top shape: 1 128 15 30 (57600)
I1219 03:09:33.545517 13001 net.cpp:159] Memory required for data: 712422016
I1219 03:09:33.545521 13001 layer_factory.hpp:77] Creating layer inception_5b/5x5_BatchNorm
I1219 03:09:33.545526 13001 net.cpp:94] Creating Layer inception_5b/5x5_BatchNorm
I1219 03:09:33.545528 13001 net.cpp:435] inception_5b/5x5_BatchNorm <- inception_5b/5x5_raw
I1219 03:09:33.545531 13001 net.cpp:409] inception_5b/5x5_BatchNorm -> inception_5b/5x5
I1219 03:09:33.545884 13001 net.cpp:144] Setting up inception_5b/5x5_BatchNorm
I1219 03:09:33.545889 13001 net.cpp:151] Top shape: 1 128 15 30 (57600)
I1219 03:09:33.545892 13001 net.cpp:159] Memory required for data: 712652416
I1219 03:09:33.545897 13001 layer_factory.hpp:77] Creating layer inception_5b/relu_5x5
I1219 03:09:33.545900 13001 net.cpp:94] Creating Layer inception_5b/relu_5x5
I1219 03:09:33.545903 13001 net.cpp:435] inception_5b/relu_5x5 <- inception_5b/5x5
I1219 03:09:33.545907 13001 net.cpp:396] inception_5b/relu_5x5 -> inception_5b/5x5 (in-place)
I1219 03:09:33.545912 13001 net.cpp:144] Setting up inception_5b/relu_5x5
I1219 03:09:33.545914 13001 net.cpp:151] Top shape: 1 128 15 30 (57600)
I1219 03:09:33.545917 13001 net.cpp:159] Memory required for data: 712882816
I1219 03:09:33.545919 13001 layer_factory.hpp:77] Creating layer inception_5b/pool
I1219 03:09:33.545924 13001 net.cpp:94] Creating Layer inception_5b/pool
I1219 03:09:33.545928 13001 net.cpp:435] inception_5b/pool <- inception_5a/output_inception_5a/output_0_split_3
I1219 03:09:33.545931 13001 net.cpp:409] inception_5b/pool -> inception_5b/pool
I1219 03:09:33.545955 13001 net.cpp:144] Setting up inception_5b/pool
I1219 03:09:33.545958 13001 net.cpp:151] Top shape: 1 832 15 30 (374400)
I1219 03:09:33.545962 13001 net.cpp:159] Memory required for data: 714380416
I1219 03:09:33.545964 13001 layer_factory.hpp:77] Creating layer inception_5b/pool_proj
I1219 03:09:33.545970 13001 net.cpp:94] Creating Layer inception_5b/pool_proj
I1219 03:09:33.545972 13001 net.cpp:435] inception_5b/pool_proj <- inception_5b/pool
I1219 03:09:33.545976 13001 net.cpp:409] inception_5b/pool_proj -> inception_5b/pool_proj_raw
I1219 03:09:33.546674 13001 net.cpp:144] Setting up inception_5b/pool_proj
I1219 03:09:33.546696 13001 net.cpp:151] Top shape: 1 128 15 30 (57600)
I1219 03:09:33.546700 13001 net.cpp:159] Memory required for data: 714610816
I1219 03:09:33.546705 13001 layer_factory.hpp:77] Creating layer inception_5b/pool_proj_BatchNorm
I1219 03:09:33.546708 13001 net.cpp:94] Creating Layer inception_5b/pool_proj_BatchNorm
I1219 03:09:33.546710 13001 net.cpp:435] inception_5b/pool_proj_BatchNorm <- inception_5b/pool_proj_raw
I1219 03:09:33.546713 13001 net.cpp:409] inception_5b/pool_proj_BatchNorm -> inception_5b/pool_proj
I1219 03:09:33.547050 13001 net.cpp:144] Setting up inception_5b/pool_proj_BatchNorm
I1219 03:09:33.547055 13001 net.cpp:151] Top shape: 1 128 15 30 (57600)
I1219 03:09:33.547057 13001 net.cpp:159] Memory required for data: 714841216
I1219 03:09:33.547062 13001 layer_factory.hpp:77] Creating layer inception_5b/relu_pool_proj
I1219 03:09:33.547065 13001 net.cpp:94] Creating Layer inception_5b/relu_pool_proj
I1219 03:09:33.547067 13001 net.cpp:435] inception_5b/relu_pool_proj <- inception_5b/pool_proj
I1219 03:09:33.547070 13001 net.cpp:396] inception_5b/relu_pool_proj -> inception_5b/pool_proj (in-place)
I1219 03:09:33.547075 13001 net.cpp:144] Setting up inception_5b/relu_pool_proj
I1219 03:09:33.547076 13001 net.cpp:151] Top shape: 1 128 15 30 (57600)
I1219 03:09:33.547080 13001 net.cpp:159] Memory required for data: 715071616
I1219 03:09:33.547081 13001 layer_factory.hpp:77] Creating layer inception_5b/output
I1219 03:09:33.547086 13001 net.cpp:94] Creating Layer inception_5b/output
I1219 03:09:33.547087 13001 net.cpp:435] inception_5b/output <- inception_5b/1x1
I1219 03:09:33.547089 13001 net.cpp:435] inception_5b/output <- inception_5b/3x3
I1219 03:09:33.547092 13001 net.cpp:435] inception_5b/output <- inception_5b/5x5
I1219 03:09:33.547096 13001 net.cpp:435] inception_5b/output <- inception_5b/pool_proj
I1219 03:09:33.547098 13001 net.cpp:409] inception_5b/output -> inception_5b/output
I1219 03:09:33.547113 13001 net.cpp:144] Setting up inception_5b/output
I1219 03:09:33.547116 13001 net.cpp:151] Top shape: 1 1024 15 30 (460800)
I1219 03:09:33.547118 13001 net.cpp:159] Memory required for data: 716914816
I1219 03:09:33.547120 13001 layer_factory.hpp:77] Creating layer p5
I1219 03:09:33.547125 13001 net.cpp:94] Creating Layer p5
I1219 03:09:33.547128 13001 net.cpp:435] p5 <- inception_5b/output
I1219 03:09:33.547132 13001 net.cpp:409] p5 -> p5
I1219 03:09:33.547484 13001 net.cpp:144] Setting up p5
I1219 03:09:33.547488 13001 net.cpp:151] Top shape: 1 32 15 30 (14400)
I1219 03:09:33.547492 13001 net.cpp:159] Memory required for data: 716972416
I1219 03:09:33.547495 13001 layer_factory.hpp:77] Creating layer latlayer_4f
I1219 03:09:33.547502 13001 net.cpp:94] Creating Layer latlayer_4f
I1219 03:09:33.547504 13001 net.cpp:435] latlayer_4f <- inception_4e/output_inception_4e/output_0_split_1
I1219 03:09:33.547508 13001 net.cpp:409] latlayer_4f -> latlayer_4f
I1219 03:09:33.547819 13001 net.cpp:144] Setting up latlayer_4f
I1219 03:09:33.547823 13001 net.cpp:151] Top shape: 1 32 30 60 (57600)
I1219 03:09:33.547827 13001 net.cpp:159] Memory required for data: 717202816
I1219 03:09:33.547829 13001 layer_factory.hpp:77] Creating layer upsample_p5
I1219 03:09:33.547834 13001 net.cpp:94] Creating Layer upsample_p5
I1219 03:09:33.547837 13001 net.cpp:435] upsample_p5 <- p5
I1219 03:09:33.547842 13001 net.cpp:409] upsample_p5 -> upsample_p5
I1219 03:09:33.548054 13001 net.cpp:144] Setting up upsample_p5
I1219 03:09:33.548058 13001 net.cpp:151] Top shape: 1 32 30 60 (57600)
I1219 03:09:33.548060 13001 net.cpp:159] Memory required for data: 717433216
I1219 03:09:33.548063 13001 layer_factory.hpp:77] Creating layer add_p4
I1219 03:09:33.548067 13001 net.cpp:94] Creating Layer add_p4
I1219 03:09:33.548069 13001 net.cpp:435] add_p4 <- upsample_p5
I1219 03:09:33.548071 13001 net.cpp:435] add_p4 <- latlayer_4f
I1219 03:09:33.548074 13001 net.cpp:409] add_p4 -> add_p4
I1219 03:09:33.548086 13001 net.cpp:144] Setting up add_p4
I1219 03:09:33.548089 13001 net.cpp:151] Top shape: 1 32 30 60 (57600)
I1219 03:09:33.548091 13001 net.cpp:159] Memory required for data: 717663616
I1219 03:09:33.548094 13001 layer_factory.hpp:77] Creating layer toplayer_p4
I1219 03:09:33.548099 13001 net.cpp:94] Creating Layer toplayer_p4
I1219 03:09:33.548100 13001 net.cpp:435] toplayer_p4 <- add_p4
I1219 03:09:33.548103 13001 net.cpp:409] toplayer_p4 -> p4
I1219 03:09:33.548305 13001 net.cpp:144] Setting up toplayer_p4
I1219 03:09:33.548308 13001 net.cpp:151] Top shape: 1 32 30 60 (57600)
I1219 03:09:33.548311 13001 net.cpp:159] Memory required for data: 717894016
I1219 03:09:33.548316 13001 layer_factory.hpp:77] Creating layer latlayer_3d
I1219 03:09:33.548321 13001 net.cpp:94] Creating Layer latlayer_3d
I1219 03:09:33.548324 13001 net.cpp:435] latlayer_3d <- inception_3b/output_inception_3b/output_0_split_1
I1219 03:09:33.548327 13001 net.cpp:409] latlayer_3d -> latlayer_3d
I1219 03:09:33.548569 13001 net.cpp:144] Setting up latlayer_3d
I1219 03:09:33.548574 13001 net.cpp:151] Top shape: 1 32 60 120 (230400)
I1219 03:09:33.548578 13001 net.cpp:159] Memory required for data: 718815616
I1219 03:09:33.548580 13001 layer_factory.hpp:77] Creating layer upsample_p4
I1219 03:09:33.548584 13001 net.cpp:94] Creating Layer upsample_p4
I1219 03:09:33.548588 13001 net.cpp:435] upsample_p4 <- p4
I1219 03:09:33.548591 13001 net.cpp:409] upsample_p4 -> upsample_p4
I1219 03:09:33.548816 13001 net.cpp:144] Setting up upsample_p4
I1219 03:09:33.548820 13001 net.cpp:151] Top shape: 1 32 60 120 (230400)
I1219 03:09:33.548823 13001 net.cpp:159] Memory required for data: 719737216
I1219 03:09:33.548825 13001 layer_factory.hpp:77] Creating layer add_p3
I1219 03:09:33.548830 13001 net.cpp:94] Creating Layer add_p3
I1219 03:09:33.548831 13001 net.cpp:435] add_p3 <- upsample_p4
I1219 03:09:33.548833 13001 net.cpp:435] add_p3 <- latlayer_3d
I1219 03:09:33.548836 13001 net.cpp:409] add_p3 -> add_p3
I1219 03:09:33.548847 13001 net.cpp:144] Setting up add_p3
I1219 03:09:33.548849 13001 net.cpp:151] Top shape: 1 32 60 120 (230400)
I1219 03:09:33.548853 13001 net.cpp:159] Memory required for data: 720658816
I1219 03:09:33.548856 13001 layer_factory.hpp:77] Creating layer toplayer_p3
I1219 03:09:33.548861 13001 net.cpp:94] Creating Layer toplayer_p3
I1219 03:09:33.548862 13001 net.cpp:435] toplayer_p3 <- add_p3
I1219 03:09:33.548866 13001 net.cpp:409] toplayer_p3 -> p3
I1219 03:09:33.549072 13001 net.cpp:144] Setting up toplayer_p3
I1219 03:09:33.549078 13001 net.cpp:151] Top shape: 1 32 60 120 (230400)
I1219 03:09:33.549082 13001 net.cpp:159] Memory required for data: 721580416
I1219 03:09:33.549084 13001 layer_factory.hpp:77] Creating layer latlayer_2c
I1219 03:09:33.549088 13001 net.cpp:94] Creating Layer latlayer_2c
I1219 03:09:33.549090 13001 net.cpp:435] latlayer_2c <- conv2/3x3_conv2/relu_3x3_0_split_1
I1219 03:09:33.549094 13001 net.cpp:409] latlayer_2c -> latlayer_2c
I1219 03:09:33.549300 13001 net.cpp:144] Setting up latlayer_2c
I1219 03:09:33.549304 13001 net.cpp:151] Top shape: 1 32 120 240 (921600)
I1219 03:09:33.549307 13001 net.cpp:159] Memory required for data: 725266816
I1219 03:09:33.549311 13001 layer_factory.hpp:77] Creating layer upsample_p3
I1219 03:09:33.549314 13001 net.cpp:94] Creating Layer upsample_p3
I1219 03:09:33.549316 13001 net.cpp:435] upsample_p3 <- p3
I1219 03:09:33.549319 13001 net.cpp:409] upsample_p3 -> upsample_p3
I1219 03:09:33.549505 13001 net.cpp:144] Setting up upsample_p3
I1219 03:09:33.549510 13001 net.cpp:151] Top shape: 1 32 120 240 (921600)
I1219 03:09:33.549511 13001 net.cpp:159] Memory required for data: 728953216
I1219 03:09:33.549515 13001 layer_factory.hpp:77] Creating layer add_p2
I1219 03:09:33.549516 13001 net.cpp:94] Creating Layer add_p2
I1219 03:09:33.549520 13001 net.cpp:435] add_p2 <- upsample_p3
I1219 03:09:33.549521 13001 net.cpp:435] add_p2 <- latlayer_2c
I1219 03:09:33.549525 13001 net.cpp:409] add_p2 -> add_p2
I1219 03:09:33.549536 13001 net.cpp:144] Setting up add_p2
I1219 03:09:33.549538 13001 net.cpp:151] Top shape: 1 32 120 240 (921600)
I1219 03:09:33.549541 13001 net.cpp:159] Memory required for data: 732639616
I1219 03:09:33.549542 13001 layer_factory.hpp:77] Creating layer toplayer_p2
I1219 03:09:33.549546 13001 net.cpp:94] Creating Layer toplayer_p2
I1219 03:09:33.549548 13001 net.cpp:435] toplayer_p2 <- add_p2
I1219 03:09:33.549551 13001 net.cpp:409] toplayer_p2 -> pred
I1219 03:09:33.551723 13001 net.cpp:144] Setting up toplayer_p2
I1219 03:09:33.551733 13001 net.cpp:151] Top shape: 1 5 480 960 (2304000)
I1219 03:09:33.551736 13001 net.cpp:159] Memory required for data: 741855616
I1219 03:09:33.551741 13001 layer_factory.hpp:77] Creating layer score
I1219 03:09:33.551746 13001 net.cpp:94] Creating Layer score
I1219 03:09:33.551749 13001 net.cpp:435] score <- pred
I1219 03:09:33.551753 13001 net.cpp:409] score -> score
I1219 03:09:33.551805 13001 net.cpp:144] Setting up score
I1219 03:09:33.551807 13001 net.cpp:151] Top shape: 1 5 480 960 (2304000)
I1219 03:09:33.551810 13001 net.cpp:159] Memory required for data: 751071616
I1219 03:09:33.551811 13001 layer_factory.hpp:77] Creating layer accuracy
I1219 03:09:33.551822 13001 net.cpp:94] Creating Layer accuracy
I1219 03:09:33.551826 13001 net.cpp:435] accuracy <- score
I1219 03:09:33.551827 13001 net.cpp:435] accuracy <- label
I1219 03:09:33.551831 13001 net.cpp:409] accuracy -> segmentation_eval
I1219 03:09:33.551844 13001 net.cpp:144] Setting up accuracy
I1219 03:09:33.551847 13001 net.cpp:151] Top shape: 3 5 (15)
I1219 03:09:33.551851 13001 net.cpp:159] Memory required for data: 751071676
I1219 03:09:33.551852 13001 net.cpp:222] accuracy does not need backward computation.
I1219 03:09:33.551854 13001 net.cpp:222] score does not need backward computation.
I1219 03:09:33.551856 13001 net.cpp:222] toplayer_p2 does not need backward computation.
I1219 03:09:33.551858 13001 net.cpp:222] add_p2 does not need backward computation.
…
