…
I1219 08:16:11.379453 29915 net.cpp:323] The NetState phase (1) differed from the phase (0) specified by a rule in layer data
I1219 08:16:11.379572 29915 net.cpp:52] Initializing net from parameters: 
layer {
  name: "data"
  type: "ImageSegData"
  top: "data"
  top: "label"
  include {
    phase: TEST
  }
  transform_param {
    scale: 0.022
    mean_value: 73
    mean_value: 82
    mean_value: 72
  }
  image_data_param {
    source: "/workspace/Vitis-AI-Tutorials/files/Segment/workspace/data/signate/signate_quantize_test.txt"
    batch_size: 1
    shuffle: false
  }
}
layer {
  name: "resize_down"
  type: "DeephiResize"
  bottom: "data"
  top: "data"
  include {
    phase: TEST
  }
  deephi_resize_param {
    resize_type: BILINEAR
    new_height: 480
    new_width: 960
  }
}
layer {
  name: "conv1/7x7_s2"
  type: "Convolution"
  bottom: "data"
  top: "conv1/7x7_s2_raw"
  param {
    lr_mult: 1
    decay_mult: 1
  }
  convolution_param {
    num_output: 64
    pad: 3
    kernel_size: 7
    stride: 2
    weight_filler {
      type: "msra"
    }
    bias_filler {
      type: "constant"
      value: 0.2
    }
  }
}
layer {
  name: "conv1/7x7_s2_BatchNorm"
  type: "BatchNorm"
  bottom: "conv1/7x7_s2_raw"
  top: "conv1/7x7_s2"
  param {
    lr_mult: 1
    decay_mult: 0
  }
  param {
    lr_mult: 1
    decay_mult: 0
  }
  param {
    lr_mult: 0
    decay_mult: 0
  }
  param {
    lr_mult: 0
    decay_mult: 0
  }
  batch_norm_param {
    use_global_stats: false
    eps: 1e-05
    scale_filler {
      type: "constant"
      value: 1
    }
    bias_filler {
      type: "constant"
      value: 0
    }
  }
}
layer {
  name: "conv1/relu_7x7"
  type: "ReLU"
  bottom: "conv1/7x7_s2"
  top: "conv1/7x7_s2"
}
layer {
  name: "pool1/3x3_s2"
  type: "Pooling"
  bottom: "conv1/7x7_s2"
  top: "pool1/3x3_s2"
  pooling_param {
    pool: MAX
    kernel_size: 3
    stride: 2
  }
}
layer {
  name: "conv2/3x3_reduce"
  type: "Convolution"
  bottom: "pool1/3x3_s2"
  top: "conv2/3x3_reduce_raw"
  param {
    lr_mult: 1
    decay_mult: 1
  }
  convolution_param {
    num_output: 64
    kernel_size: 1
    weight_filler {
      type: "msra"
    }
    bias_filler {
      type: "constant"
      value: 0.2
    }
  }
}
layer {
  name: "conv2/3x3_reduce_BatchNorm"
  type: "BatchNorm"
  bottom: "conv2/3x3_reduce_raw"
  top: "conv2/3x3_reduce"
  param {
    lr_mult: 1
    decay_mult: 0
  }
  param {
    lr_mult: 1
    decay_mult: 0
  }
  param {
    lr_mult: 0
    decay_mult: 0
  }
  param {
    lr_mult: 0
    decay_mult: 0
  }
  batch_norm_param {
    use_global_stats: false
    eps: 1e-05
    scale_filler {
      type: "constant"
      value: 1
    }
    bias_filler {
      type: "constant"
      value: 0
    }
  }
}
layer {
  name: "conv2/relu_3x3_reduce"
  type: "ReLU"
  bottom: "conv2/3x3_reduce"
  top: "conv2/3x3_reduce"
}
layer {
  name: "conv2/3x3"
  type: "Convolution"
  bottom: "conv2/3x3_reduce"
  top: "conv2/3x3_raw"
  param {
    lr_mult: 1
    decay_mult: 1
  }
  convolution_param {
    num_output: 192
    pad: 1
    kernel_size: 3
    weight_filler {
      type: "msra"
    }
    bias_filler {
      type: "constant"
      value: 0.2
    }
  }
}
layer {
  name: "conv2/3x3_BatchNorm"
  type: "BatchNorm"
  bottom: "conv2/3x3_raw"
  top: "conv2/3x3"
  param {
    lr_mult: 1
    decay_mult: 0
  }
  param {
    lr_mult: 1
    decay_mult: 0
  }
  param {
    lr_mult: 0
    decay_mult: 0
  }
  param {
    lr_mult: 0
    decay_mult: 0
  }
  batch_norm_param {
    use_global_stats: false
    eps: 1e-05
    scale_filler {
      type: "constant"
      value: 1
    }
    bias_filler {
      type: "constant"
      value: 0
    }
  }
}
layer {
  name: "conv2/relu_3x3"
  type: "ReLU"
  bottom: "conv2/3x3"
  top: "conv2/3x3"
}
layer {
  name: "pool2/3x3_s2"
  type: "Pooling"
  bottom: "conv2/3x3"
  top: "pool2/3x3_s2"
  pooling_param {
    pool: MAX
    kernel_size: 3
    stride: 2
  }
}
layer {
  name: "inception_3a/1x1"
  type: "Convolution"
  bottom: "pool2/3x3_s2"
  top: "inception_3a/1x1_raw"
  param {
    lr_mult: 1
    decay_mult: 1
  }
  convolution_param {
    num_output: 64
    kernel_size: 1
    weight_filler {
      type: "msra"
    }
    bias_filler {
      type: "constant"
      value: 0.2
    }
  }
}
layer {
  name: "inception_3a/1x1_BatchNorm"
  type: "BatchNorm"
  bottom: "inception_3a/1x1_raw"
  top: "inception_3a/1x1"
  param {
    lr_mult: 1
    decay_mult: 0
  }
  param {
    lr_mult: 1
    decay_mult: 0
  }
  param {
    lr_mult: 0
    decay_mult: 0
  }
  param {
    lr_mult: 0
    decay_mult: 0
  }
  batch_norm_param {
    use_global_stats: false
    eps: 1e-05
    scale_filler {
      type: "constant"
      value: 1
    }
    bias_filler {
      type: "constant"
      value: 0
    }
  }
}
layer {
  name: "inception_3a/relu_1x1"
  type: "ReLU"
  bottom: "inception_3a/1x1"
  top: "inception_3a/1x1"
}
layer {
  name: "inception_3a/3x3_reduce"
  type: "Convolution"
  bottom: "pool2/3x3_s2"
  top: "inception_3a/3x3_reduce_raw"
  param {
    lr_mult: 1
    decay_mult: 1
  }
  convolution_param {
    num_output: 96
    kernel_size: 1
    weight_filler {
      type: "msra"
    }
    bias_filler {
      type: "constant"
      value: 0.2
    }
  }
}
layer {
  name: "inception_3a/3x3_reduce_BatchNorm"
  type: "BatchNorm"
  bottom: "inception_3a/3x3_reduce_raw"
  top: "inception_3a/3x3_reduce"
  param {
    lr_mult: 1
    decay_mult: 0
  }
  param {
    lr_mult: 1
    decay_mult: 0
  }
  param {
    lr_mult: 0
    decay_mult: 0
  }
  param {
    lr_mult: 0
    decay_mult: 0
  }
  batch_norm_param {
    use_global_stats: false
    eps: 1e-05
    scale_filler {
      type: "constant"
      value: 1
    }
    bias_filler {
      type: "constant"
      value: 0
    }
  }
}
layer {
  name: "inception_3a/relu_3x3_reduce"
  type: "ReLU"
  bottom: "inception_3a/3x3_reduce"
  top: "inception_3a/3x3_reduce"
}
layer {
  name: "inception_3a/3x3"
  type: "Convolution"
  bottom: "inception_3a/3x3_reduce"
  top: "inception_3a/3x3_raw"
  param {
    lr_mult: 1
    decay_mult: 1
  }
  convolution_param {
    num_output: 128
    pad: 1
    kernel_size: 3
    weight_filler {
      type: "msra"
    }
    bias_filler {
      type: "constant"
      value: 0.2
    }
  }
}
layer {
  name: "inception_3a/3x3_BatchNorm"
  type: "BatchNorm"
  bottom: "inception_3a/3x3_raw"
  top: "inception_3a/3x3"
  param {
    lr_mult: 1
    decay_mult: 0
  }
  param {
    lr_mult: 1
    decay_mult: 0
  }
  param {
    lr_mult: 0
    decay_mult: 0
  }
  param {
    lr_mult: 0
    decay_mult: 0
  }
  batch_norm_param {
    use_global_stats: false
    eps: 1e-05
    scale_filler {
      type: "constant"
      value: 1
    }
    bias_filler {
      type: "constant"
      value: 0
    }
  }
}
layer {
  name: "inception_3a/relu_3x3"
  type: "ReLU"
  bottom: "inception_3a/3x3"
  top: "inception_3a/3x3"
}
layer {
  name: "inception_3a/5x5_reduce"
  type: "Convolution"
  bottom: "pool2/3x3_s2"
  top: "inception_3a/5x5_reduce_raw"
  param {
    lr_mult: 1
    decay_mult: 1
  }
  convolution_param {
    num_output: 16
    kernel_size: 1
    weight_filler {
      type: "msra"
    }
    bias_filler {
      type: "constant"
      value: 0.2
    }
  }
}
layer {
  name: "inception_3a/5x5_reduce_BatchNorm"
  type: "BatchNorm"
  bottom: "inception_3a/5x5_reduce_raw"
  top: "inception_3a/5x5_reduce"
  param {
    lr_mult: 1
    decay_mult: 0
  }
  param {
    lr_mult: 1
    decay_mult: 0
  }
  param {
    lr_mult: 0
    decay_mult: 0
  }
  param {
    lr_mult: 0
    decay_mult: 0
  }
  batch_norm_param {
    use_global_stats: false
    eps: 1e-05
    scale_filler {
      type: "constant"
      value: 1
    }
    bias_filler {
      type: "constant"
      value: 0
    }
  }
}
layer {
  name: "inception_3a/relu_5x5_reduce"
  type: "ReLU"
  bottom: "inception_3a/5x5_reduce"
  top: "inception_3a/5x5_reduce"
}
layer {
  name: "inception_3a/5x5"
  type: "Convolution"
  bottom: "inception_3a/5x5_reduce"
  top: "inception_3a/5x5_raw"
  param {
    lr_mult: 1
    decay_mult: 1
  }
  convolution_param {
    num_output: 32
    pad: 2
    kernel_size: 5
    weight_filler {
      type: "msra"
    }
    bias_filler {
      type: "constant"
      value: 0.2
    }
  }
}
layer {
  name: "inception_3a/5x5_BatchNorm"
  type: "BatchNorm"
  bottom: "inception_3a/5x5_raw"
  top: "inception_3a/5x5"
  param {
    lr_mult: 1
    decay_mult: 0
  }
  param {
    lr_mult: 1
    decay_mult: 0
  }
  param {
    lr_mult: 0
    decay_mult: 0
  }
  param {
    lr_mult: 0
    decay_mult: 0
  }
  batch_norm_param {
    use_global_stats: false
    eps: 1e-05
    scale_filler {
      type: "constant"
      value: 1
    }
    bias_filler {
      type: "constant"
      value: 0
    }
  }
}
layer {
  name: "inception_3a/relu_5x5"
  type: "ReLU"
  bottom: "inception_3a/5x5"
  top: "inception_3a/5x5"
}
layer {
  name: "inception_3a/pool"
  type: "Pooling"
  bottom: "pool2/3x3_s2"
  top: "inception_3a/pool"
  pooling_param {
    pool: MAX
    kernel_size: 3
    stride: 1
    pad: 1
  }
}
layer {
  name: "inception_3a/pool_proj"
  type: "Convolution"
  bottom: "inception_3a/pool"
  top: "inception_3a/pool_proj_raw"
  param {
    lr_mult: 1
    decay_mult: 1
  }
  convolution_param {
    num_output: 32
    kernel_size: 1
    weight_filler {
      type: "msra"
    }
    bias_filler {
      type: "constant"
      value: 0.2
    }
  }
}
layer {
  name: "inception_3a/pool_proj_BatchNorm"
  type: "BatchNorm"
  bottom: "inception_3a/pool_proj_raw"
  top: "inception_3a/pool_proj"
  param {
    lr_mult: 1
    decay_mult: 0
  }
  param {
    lr_mult: 1
    decay_mult: 0
  }
  param {
    lr_mult: 0
    decay_mult: 0
  }
  param {
    lr_mult: 0
    decay_mult: 0
  }
  batch_norm_param {
    use_global_stats: false
    eps: 1e-05
    scale_filler {
      type: "constant"
      value: 1
    }
    bias_filler {
      type: "constant"
      value: 0
    }
  }
}
layer {
  name: "inception_3a/relu_pool_proj"
  type: "ReLU"
  bottom: "inception_3a/pool_proj"
  top: "inception_3a/pool_proj"
}
layer {
  name: "inception_3a/output"
  type: "Concat"
  bottom: "inception_3a/1x1"
  bottom: "inception_3a/3x3"
  bottom: "inception_3a/5x5"
  bottom: "inception_3a/pool_proj"
  top: "inception_3a/output"
}
layer {
  name: "inception_3b/1x1"
  type: "Convolution"
  bottom: "inception_3a/output"
  top: "inception_3b/1x1_raw"
  param {
    lr_mult: 1
    decay_mult: 1
  }
  convolution_param {
    num_output: 128
    kernel_size: 1
    weight_filler {
      type: "msra"
    }
    bias_filler {
      type: "constant"
      value: 0.2
    }
  }
}
layer {
  name: "inception_3b/1x1_BatchNorm"
  type: "BatchNorm"
  bottom: "inception_3b/1x1_raw"
  top: "inception_3b/1x1"
  param {
    lr_mult: 1
    decay_mult: 0
  }
  param {
    lr_mult: 1
    decay_mult: 0
  }
  param {
    lr_mult: 0
    decay_mult: 0
  }
  param {
    lr_mult: 0
    decay_mult: 0
  }
  batch_norm_param {
    use_global_stats: false
    eps: 1e-05
    scale_filler {
      type: "constant"
      value: 1
    }
    bias_filler {
      type: "constant"
      value: 0
    }
  }
}
layer {
  name: "inception_3b/relu_1x1"
  type: "ReLU"
  bottom: "inception_3b/1x1"
  top: "inception_3b/1x1"
}
layer {
  name: "inception_3b/3x3_reduce"
  type: "Convolution"
  bottom: "inception_3a/output"
  top: "inception_3b/3x3_reduce_raw"
  param {
    lr_mult: 1
    decay_mult: 1
  }
  convolution_param {
    num_output: 128
    kernel_size: 1
    weight_filler {
      type: "msra"
    }
    bias_filler {
      type: "constant"
      value: 0.2
    }
  }
}
layer {
  name: "inception_3b/3x3_reduce_BatchNorm"
  type: "BatchNorm"
  bottom: "inception_3b/3x3_reduce_raw"
  top: "inception_3b/3x3_reduce"
  param {
    lr_mult: 1
    decay_mult: 0
  }
  param {
    lr_mult: 1
    decay_mult: 0
  }
  param {
    lr_mult: 0
    decay_mult: 0
  }
  param {
    lr_mult: 0
    decay_mult: 0
  }
  batch_norm_param {
    use_global_stats: false
    eps: 1e-05
    scale_filler {
      type: "constant"
      value: 1
    }
    bias_filler {
      type: "constant"
      value: 0
    }
  }
}
layer {
  name: "inception_3b/relu_3x3_reduce"
  type: "ReLU"
  bottom: "inception_3b/3x3_reduce"
  top: "inception_3b/3x3_reduce"
}
layer {
  name: "inception_3b/3x3"
  type: "Convolution"
  bottom: "inception_3b/3x3_reduce"
  top: "inception_3b/3x3_raw"
  param {
    lr_mult: 1
    decay_mult: 1
  }
  convolution_param {
    num_output: 192
    pad: 1
    kernel_size: 3
    weight_filler {
      type: "msra"
    }
    bias_filler {
      type: "constant"
      value: 0.2
    }
  }
}
layer {
  name: "inception_3b/3x3_BatchNorm"
  type: "BatchNorm"
  bottom: "inception_3b/3x3_raw"
  top: "inception_3b/3x3"
  param {
    lr_mult: 1
    decay_mult: 0
  }
  param {
    lr_mult: 1
    decay_mult: 0
  }
  param {
    lr_mult: 0
    decay_mult: 0
  }
  param {
    lr_mult: 0
    decay_mult: 0
  }
  batch_norm_param {
    use_global_stats: false
    eps: 1e-05
    scale_filler {
      type: "constant"
      value: 1
    }
    bias_filler {
      type: "constant"
      value: 0
    }
  }
}
layer {
  name: "inception_3b/relu_3x3"
  type: "ReLU"
  bottom: "inception_3b/3x3"
  top: "inception_3b/3x3"
}
layer {
  name: "inception_3b/5x5_reduce"
  type: "Convolution"
  bottom: "inception_3a/output"
  top: "inception_3b/5x5_reduce_raw"
  param {
    lr_mult: 1
    decay_mult: 1
  }
  convolution_param {
    num_output: 32
    kernel_size: 1
    weight_filler {
      type: "msra"
    }
    bias_filler {
      type: "constant"
      value: 0.2
    }
  }
}
layer {
  name: "inception_3b/5x5_reduce_BatchNorm"
  type: "BatchNorm"
  bottom: "inception_3b/5x5_reduce_raw"
  top: "inception_3b/5x5_reduce"
  param {
    lr_mult: 1
    decay_mult: 0
  }
  param {
    lr_mult: 1
    decay_mult: 0
  }
  param {
    lr_mult: 0
    decay_mult: 0
  }
  param {
    lr_mult: 0
    decay_mult: 0
  }
  batch_norm_param {
    use_global_stats: false
    eps: 1e-05
    scale_filler {
      type: "constant"
      value: 1
    }
    bias_filler {
      type: "constant"
      value: 0
    }
  }
}
layer {
  name: "inception_3b/relu_5x5_reduce"
  type: "ReLU"
  bottom: "inception_3b/5x5_reduce"
  top: "inception_3b/5x5_reduce"
}
layer {
  name: "inception_3b/5x5"
  type: "Convolution"
  bottom: "inception_3b/5x5_reduce"
  top: "inception_3b/5x5_raw"
  param {
    lr_mult: 1
    decay_mult: 1
  }
  convolution_param {
    num_output: 96
    pad: 2
    kernel_size: 5
    weight_filler {
      type: "msra"
    }
    bias_filler {
      type: "constant"
      value: 0.2
    }
  }
}
layer {
  name: "inception_3b/5x5_BatchNorm"
  type: "BatchNorm"
  bottom: "inception_3b/5x5_raw"
  top: "inception_3b/5x5"
  param {
    lr_mult: 1
    decay_mult: 0
  }
  param {
    lr_mult: 1
    decay_mult: 0
  }
  param {
    lr_mult: 0
    decay_mult: 0
  }
  param {
    lr_mult: 0
    decay_mult: 0
  }
  batch_norm_param {
    use_global_stats: false
    eps: 1e-05
    scale_filler {
      type: "constant"
      value: 1
    }
    bias_filler {
      type: "constant"
      value: 0
    }
  }
}
layer {
  name: "inception_3b/relu_5x5"
  type: "ReLU"
  bottom: "inception_3b/5x5"
  top: "inception_3b/5x5"
}
layer {
  name: "inception_3b/pool"
  type: "Pooling"
  bottom: "inception_3a/output"
  top: "inception_3b/pool"
  pooling_param {
    pool: MAX
    kernel_size: 3
    stride: 1
    pad: 1
  }
}
layer {
  name: "inception_3b/pool_proj"
  type: "Convolution"
  bottom: "inception_3b/pool"
  top: "inception_3b/pool_proj_raw"
  param {
    lr_mult: 1
    decay_mult: 1
  }
  convolution_param {
    num_output: 64
    kernel_size: 1
    weight_filler {
      type: "msra"
    }
    bias_filler {
      type: "constant"
      value: 0.2
    }
  }
}
layer {
  name: "inception_3b/pool_proj_BatchNorm"
  type: "BatchNorm"
  bottom: "inception_3b/pool_proj_raw"
  top: "inception_3b/pool_proj"
  param {
    lr_mult: 1
    decay_mult: 0
  }
  param {
    lr_mult: 1
    decay_mult: 0
  }
  param {
    lr_mult: 0
    decay_mult: 0
  }
  param {
    lr_mult: 0
    decay_mult: 0
  }
  batch_norm_param {
    use_global_stats: false
    eps: 1e-05
    scale_filler {
      type: "constant"
      value: 1
    }
    bias_filler {
      type: "constant"
      value: 0
    }
  }
}
layer {
  name: "inception_3b/relu_pool_proj"
  type: "ReLU"
  bottom: "inception_3b/pool_proj"
  top: "inception_3b/pool_proj"
}
layer {
  name: "inception_3b/output"
  type: "Concat"
  bottom: "inception_3b/1x1"
  bottom: "inception_3b/3x3"
  bottom: "inception_3b/5x5"
  bottom: "inception_3b/pool_proj"
  top: "inception_3b/output"
}
layer {
  name: "pool3/3x3_s2"
  type: "Pooling"
  bottom: "inception_3b/output"
  top: "pool3/3x3_s2"
  pooling_param {
    pool: MAX
    kernel_size: 3
    stride: 2
  }
}
layer {
  name: "inception_4a/1x1"
  type: "Convolution"
  bottom: "pool3/3x3_s2"
  top: "inception_4a/1x1_raw"
  param {
    lr_mult: 1
    decay_mult: 1
  }
  convolution_param {
    num_output: 192
    kernel_size: 1
    weight_filler {
      type: "msra"
    }
    bias_filler {
      type: "constant"
      value: 0.2
    }
  }
}
layer {
  name: "inception_4a/1x1_BatchNorm"
  type: "BatchNorm"
  bottom: "inception_4a/1x1_raw"
  top: "inception_4a/1x1"
  param {
    lr_mult: 1
    decay_mult: 0
  }
  param {
    lr_mult: 1
    decay_mult: 0
  }
  param {
    lr_mult: 0
    decay_mult: 0
  }
  param {
    lr_mult: 0
    decay_mult: 0
  }
  batch_norm_param {
    use_global_stats: false
    eps: 1e-05
    scale_filler {
      type: "constant"
      value: 1
    }
    bias_filler {
      type: "constant"
      value: 0
    }
  }
}
layer {
  name: "inception_4a/relu_1x1"
  type: "ReLU"
  bottom: "inception_4a/1x1"
  top: "inception_4a/1x1"
}
layer {
  name: "inception_4a/3x3_reduce"
  type: "Convolution"
  bottom: "pool3/3x3_s2"
  top: "inception_4a/3x3_reduce_raw"
  param {
    lr_mult: 1
    decay_mult: 1
  }
  convolution_param {
    num_output: 96
    kernel_size: 1
    weight_filler {
      type: "msra"
    }
    bias_filler {
      type: "constant"
      value: 0.2
    }
  }
}
layer {
  name: "inception_4a/3x3_reduce_BatchNorm"
  type: "BatchNorm"
  bottom: "inception_4a/3x3_reduce_raw"
  top: "inception_4a/3x3_reduce"
  param {
    lr_mult: 1
    decay_mult: 0
  }
  param {
    lr_mult: 1
    decay_mult: 0
  }
  param {
    lr_mult: 0
    decay_mult: 0
  }
  param {
    lr_mult: 0
    decay_mult: 0
  }
  batch_norm_param {
    use_global_stats: false
    eps: 1e-05
    scale_filler {
      type: "constant"
      value: 1
    }
    bias_filler {
      type: "constant"
      value: 0
    }
  }
}
layer {
  name: "inception_4a/relu_3x3_reduce"
  type: "ReLU"
  bottom: "inception_4a/3x3_reduce"
  top: "inception_4a/3x3_reduce"
}
layer {
  name: "inception_4a/3x3"
  type: "Convolution"
  bottom: "inception_4a/3x3_reduce"
  top: "inception_4a/3x3_raw"
  param {
    lr_mult: 1
    decay_mult: 1
  }
  convolution_param {
    num_output: 208
    pad: 1
    kernel_size: 3
    weight_filler {
      type: "msra"
    }
    bias_filler {
      type: "constant"
      value: 0.2
    }
  }
}
layer {
  name: "inception_4a/3x3_BatchNorm"
  type: "BatchNorm"
  bottom: "inception_4a/3x3_raw"
  top: "inception_4a/3x3"
  param {
    lr_mult: 1
    decay_mult: 0
  }
  param {
    lr_mult: 1
    decay_mult: 0
  }
  param {
    lr_mult: 0
    decay_mult: 0
  }
  param {
    lr_mult: 0
    decay_mult: 0
  }
  batch_norm_param {
    use_global_stats: false
    eps: 1e-05
    scale_filler {
      type: "constant"
      value: 1
    }
    bias_filler {
      type: "constant"
      value: 0
    }
  }
}
layer {
  name: "inception_4a/relu_3x3"
  type: "ReLU"
  bottom: "inception_4a/3x3"
  top: "inception_4a/3x3"
}
layer {
  name: "inception_4a/5x5_reduce"
  type: "Convolution"
  bottom: "pool3/3x3_s2"
  top: "inception_4a/5x5_reduce_raw"
  param {
    lr_mult: 1
    decay_mult: 1
  }
  convolution_param {
    num_output: 16
    kernel_size: 1
    weight_filler {
      type: "msra"
    }
    bias_filler {
      type: "constant"
      value: 0.2
    }
  }
}
layer {
  name: "inception_4a/5x5_reduce_BatchNorm"
  type: "BatchNorm"
  bottom: "inception_4a/5x5_reduce_raw"
  top: "inception_4a/5x5_reduce"
  param {
    lr_mult: 1
    decay_mult: 0
  }
  param {
    lr_mult: 1
    decay_mult: 0
  }
  param {
    lr_mult: 0
    decay_mult: 0
  }
  param {
    lr_mult: 0
    decay_mult: 0
  }
  batch_norm_param {
    use_global_stats: false
    eps: 1e-05
    scale_filler {
      type: "constant"
      value: 1
    }
    bias_filler {
      type: "constant"
      value: 0
    }
  }
}
layer {
  name: "inception_4a/relu_5x5_reduce"
  type: "ReLU"
  bottom: "inception_4a/5x5_reduce"
  top: "inception_4a/5x5_reduce"
}
layer {
  name: "inception_4a/5x5"
  type: "Convolution"
  bottom: "inception_4a/5x5_reduce"
  top: "inception_4a/5x5_raw"
  param {
    lr_mult: 1
    decay_mult: 1
  }
  convolution_param {
    num_output: 48
    pad: 2
    kernel_size: 5
    weight_filler {
      type: "msra"
    }
    bias_filler {
      type: "constant"
      value: 0.2
    }
  }
}
layer {
  name: "inception_4a/5x5_BatchNorm"
  type: "BatchNorm"
  bottom: "inception_4a/5x5_raw"
  top: "inception_4a/5x5"
  param {
    lr_mult: 1
    decay_mult: 0
  }
  param {
    lr_mult: 1
    decay_mult: 0
  }
  param {
    lr_mult: 0
    decay_mult: 0
  }
  param {
    lr_mult: 0
    decay_mult: 0
  }
  batch_norm_param {
    use_global_stats: false
    eps: 1e-05
    scale_filler {
      type: "constant"
      value: 1
    }
    bias_filler {
      type: "constant"
      value: 0
    }
  }
}
layer {
  name: "inception_4a/relu_5x5"
  type: "ReLU"
  bottom: "inception_4a/5x5"
  top: "inception_4a/5x5"
}
layer {
  name: "inception_4a/pool"
  type: "Pooling"
  bottom: "pool3/3x3_s2"
  top: "inception_4a/pool"
  pooling_param {
    pool: MAX
    kernel_size: 3
    stride: 1
    pad: 1
  }
}
layer {
  name: "inception_4a/pool_proj"
  type: "Convolution"
  bottom: "inception_4a/pool"
  top: "inception_4a/pool_proj_raw"
  param {
    lr_mult: 1
    decay_mult: 1
  }
  convolution_param {
    num_output: 64
    kernel_size: 1
    weight_filler {
      type: "msra"
    }
    bias_filler {
      type: "constant"
      value: 0.2
    }
  }
}
layer {
  name: "inception_4a/pool_proj_BatchNorm"
  type: "BatchNorm"
  bottom: "inception_4a/pool_proj_raw"
  top: "inception_4a/pool_proj"
  param {
    lr_mult: 1
    decay_mult: 0
  }
  param {
    lr_mult: 1
    decay_mult: 0
  }
  param {
    lr_mult: 0
    decay_mult: 0
  }
  param {
    lr_mult: 0
    decay_mult: 0
  }
  batch_norm_param {
    use_global_stats: false
    eps: 1e-05
    scale_filler {
      type: "constant"
      value: 1
    }
    bias_filler {
      type: "constant"
      value: 0
    }
  }
}
layer {
  name: "inception_4a/relu_pool_proj"
  type: "ReLU"
  bottom: "inception_4a/pool_proj"
  top: "inception_4a/pool_proj"
}
layer {
  name: "inception_4a/output"
  type: "Concat"
  bottom: "inception_4a/1x1"
  bottom: "inception_4a/3x3"
  bottom: "inception_4a/5x5"
  bottom: "inception_4a/pool_proj"
  top: "inception_4a/output"
}
layer {
  name: "inception_4b/1x1"
  type: "Convolution"
  bottom: "inception_4a/output"
  top: "inception_4b/1x1_raw"
  param {
    lr_mult: 1
    decay_mult: 1
  }
  convolution_param {
    num_output: 160
    kernel_size: 1
    weight_filler {
      type: "msra"
    }
    bias_filler {
      type: "constant"
      value: 0.2
    }
  }
}
layer {
  name: "inception_4b/1x1_BatchNorm"
  type: "BatchNorm"
  bottom: "inception_4b/1x1_raw"
  top: "inception_4b/1x1"
  param {
    lr_mult: 1
    decay_mult: 0
  }
  param {
    lr_mult: 1
    decay_mult: 0
  }
  param {
    lr_mult: 0
    decay_mult: 0
  }
  param {
    lr_mult: 0
    decay_mult: 0
  }
  batch_norm_param {
    use_global_stats: false
    eps: 1e-05
    scale_filler {
      type: "constant"
      value: 1
    }
    bias_filler {
      type: "constant"
      value: 0
    }
  }
}
layer {
  name: "inception_4b/relu_1x1"
  type: "ReLU"
  bottom: "inception_4b/1x1"
  top: "inception_4b/1x1"
}
layer {
  name: "inception_4b/3x3_reduce"
  type: "Convolution"
  bottom: "inception_4a/output"
  top: "inception_4b/3x3_reduce_raw"
  param {
    lr_mult: 1
    decay_mult: 1
  }
  convolution_param {
    num_output: 112
    kernel_size: 1
    weight_filler {
      type: "msra"
    }
    bias_filler {
      type: "constant"
      value: 0.2
    }
  }
}
layer {
  name: "inception_4b/3x3_reduce_BatchNorm"
  type: "BatchNorm"
  bottom: "inception_4b/3x3_reduce_raw"
  top: "inception_4b/3x3_reduce"
  param {
    lr_mult: 1
    decay_mult: 0
  }
  param {
    lr_mult: 1
    decay_mult: 0
  }
  param {
    lr_mult: 0
    decay_mult: 0
  }
  param {
    lr_mult: 0
    decay_mult: 0
  }
  batch_norm_param {
    use_global_stats: false
    eps: 1e-05
    scale_filler {
      type: "constant"
      value: 1
    }
    bias_filler {
      type: "constant"
      value: 0
    }
  }
}
layer {
  name: "inception_4b/relu_3x3_reduce"
  type: "ReLU"
  bottom: "inception_4b/3x3_reduce"
  top: "inception_4b/3x3_reduce"
}
layer {
  name: "inception_4b/3x3"
  type: "Convolution"
  bottom: "inception_4b/3x3_reduce"
  top: "inception_4b/3x3_raw"
  param {
    lr_mult: 1
    decay_mult: 1
  }
  convolution_param {
    num_output: 224
    pad: 1
    kernel_size: 3
    weight_filler {
      type: "msra"
    }
    bias_filler {
      type: "constant"
      value: 0.2
    }
  }
}
layer {
  name: "inception_4b/3x3_BatchNorm"
  type: "BatchNorm"
  bottom: "inception_4b/3x3_raw"
  top: "inception_4b/3x3"
  param {
    lr_mult: 1
    decay_mult: 0
  }
  param {
    lr_mult: 1
    decay_mult: 0
  }
  param {
    lr_mult: 0
    decay_mult: 0
  }
  param {
    lr_mult: 0
    decay_mult: 0
  }
  batch_norm_param {
    use_global_stats: false
    eps: 1e-05
    scale_filler {
      type: "constant"
      value: 1
    }
    bias_filler {
      type: "constant"
      value: 0
    }
  }
}
layer {
  name: "inception_4b/relu_3x3"
  type: "ReLU"
  bottom: "inception_4b/3x3"
  top: "inception_4b/3x3"
}
layer {
  name: "inception_4b/5x5_reduce"
  type: "Convolution"
  bottom: "inception_4a/output"
  top: "inception_4b/5x5_reduce_raw"
  param {
    lr_mult: 1
    decay_mult: 1
  }
  convolution_param {
    num_output: 24
    kernel_size: 1
    weight_filler {
      type: "msra"
    }
    bias_filler {
      type: "constant"
      value: 0.2
    }
  }
}
layer {
  name: "inception_4b/5x5_reduce_BatchNorm"
  type: "BatchNorm"
  bottom: "inception_4b/5x5_reduce_raw"
  top: "inception_4b/5x5_reduce"
  param {
    lr_mult: 1
    decay_mult: 0
  }
  param {
    lr_mult: 1
    decay_mult: 0
  }
  param {
    lr_mult: 0
    decay_mult: 0
  }
  param {
    lr_mult: 0
    decay_mult: 0
  }
  batch_norm_param {
    use_global_stats: false
    eps: 1e-05
    scale_filler {
      type: "constant"
      value: 1
    }
    bias_filler {
      type: "constant"
      value: 0
    }
  }
}
layer {
  name: "inception_4b/relu_5x5_reduce"
  type: "ReLU"
  bottom: "inception_4b/5x5_reduce"
  top: "inception_4b/5x5_reduce"
}
layer {
  name: "inception_4b/5x5"
  type: "Convolution"
  bottom: "inception_4b/5x5_reduce"
  top: "inception_4b/5x5_raw"
  param {
    lr_mult: 1
    decay_mult: 1
  }
  convolution_param {
    num_output: 64
    pad: 2
    kernel_size: 5
    weight_filler {
      type: "msra"
    }
    bias_filler {
      type: "constant"
      value: 0.2
    }
  }
}
layer {
  name: "inception_4b/5x5_BatchNorm"
  type: "BatchNorm"
  bottom: "inception_4b/5x5_raw"
  top: "inception_4b/5x5"
  param {
    lr_mult: 1
    decay_mult: 0
  }
  param {
    lr_mult: 1
    decay_mult: 0
  }
  param {
    lr_mult: 0
    decay_mult: 0
  }
  param {
    lr_mult: 0
    decay_mult: 0
  }
  batch_norm_param {
    use_global_stats: false
    eps: 1e-05
    scale_filler {
      type: "constant"
      value: 1
    }
    bias_filler {
      type: "constant"
      value: 0
    }
  }
}
layer {
  name: "inception_4b/relu_5x5"
  type: "ReLU"
  bottom: "inception_4b/5x5"
  top: "inception_4b/5x5"
}
layer {
  name: "inception_4b/pool"
  type: "Pooling"
  bottom: "inception_4a/output"
  top: "inception_4b/pool"
  pooling_param {
    pool: MAX
    kernel_size: 3
    stride: 1
    pad: 1
  }
}
layer {
  name: "inception_4b/pool_proj"
  type: "Convolution"
  bottom: "inception_4b/pool"
  top: "inception_4b/pool_proj_raw"
  param {
    lr_mult: 1
    decay_mult: 1
  }
  convolution_param {
    num_output: 64
    kernel_size: 1
    weight_filler {
      type: "msra"
    }
    bias_filler {
      type: "constant"
      value: 0.2
    }
  }
}
layer {
  name: "inception_4b/pool_proj_BatchNorm"
  type: "BatchNorm"
  bottom: "inception_4b/pool_proj_raw"
  top: "inception_4b/pool_proj"
  param {
    lr_mult: 1
    decay_mult: 0
  }
  param {
    lr_mult: 1
    decay_mult: 0
  }
  param {
    lr_mult: 0
    decay_mult: 0
  }
  param {
    lr_mult: 0
    decay_mult: 0
  }
  batch_norm_param {
    use_global_stats: false
    eps: 1e-05
    scale_filler {
      type: "constant"
      value: 1
    }
    bias_filler {
      type: "constant"
      value: 0
    }
  }
}
layer {
  name: "inception_4b/relu_pool_proj"
  type: "ReLU"
  bottom: "inception_4b/pool_proj"
  top: "inception_4b/pool_proj"
}
layer {
  name: "inception_4b/output"
  type: "Concat"
  bottom: "inception_4b/1x1"
  bottom: "inception_4b/3x3"
  bottom: "inception_4b/5x5"
  bottom: "inception_4b/pool_proj"
  top: "inception_4b/output"
}
layer {
  name: "inception_4c/1x1"
  type: "Convolution"
  bottom: "inception_4b/output"
  top: "inception_4c/1x1_raw"
  param {
    lr_mult: 1
    decay_mult: 1
  }
  convolution_param {
    num_output: 128
    kernel_size: 1
    weight_filler {
      type: "msra"
    }
    bias_filler {
      type: "constant"
      value: 0.2
    }
  }
}
layer {
  name: "inception_4c/1x1_BatchNorm"
  type: "BatchNorm"
  bottom: "inception_4c/1x1_raw"
  top: "inception_4c/1x1"
  param {
    lr_mult: 1
    decay_mult: 0
  }
  param {
    lr_mult: 1
    decay_mult: 0
  }
  param {
    lr_mult: 0
    decay_mult: 0
  }
  param {
    lr_mult: 0
    decay_mult: 0
  }
  batch_norm_param 
I1219 08:16:11.381908 29915 layer_factory.hpp:77] Creating layer data
I1219 08:16:11.381930 29915 net.cpp:94] Creating Layer data
I1219 08:16:11.381934 29915 net.cpp:409] data -> data
I1219 08:16:11.381949 29915 net.cpp:409] data -> label
I1219 08:16:11.381960 29915 image_seg_data_layer.cpp:46] Opening file /workspace/Vitis-AI-Tutorials/files/Segment/workspace/data/signate/signate_quantize_test.txt
I1219 08:16:11.384745 29915 image_seg_data_layer.cpp:68] A total of 2243 images.
I1219 08:16:11.407299 29915 image_seg_data_layer.cpp:97] output data size: 1,3,1216,1936
I1219 08:16:11.542248 29915 internal_thread.cpp:27] Starting internal thread(s) on GPU 0
I1219 08:16:11.542416 29915 net.cpp:144] Setting up data
I1219 08:16:11.542420 29915 net.cpp:151] Top shape: 1 3 1216 1936 (7062528)
I1219 08:16:11.542429 29915 net.cpp:151] Top shape: 1 1 1216 1936 (2354176)
I1219 08:16:11.542433 29915 net.cpp:159] Memory required for data: 37666816
I1219 08:16:11.542435 29915 layer_factory.hpp:77] Creating layer resize_down
I1219 08:16:11.542459 29915 net.cpp:94] Creating Layer resize_down
I1219 08:16:11.542464 29915 net.cpp:435] resize_down <- data
I1219 08:16:11.542469 29915 net.cpp:396] resize_down -> data (in-place)
I1219 08:16:11.542479 29915 net.cpp:144] Setting up resize_down
I1219 08:16:11.542481 29915 net.cpp:151] Top shape: 1 3 480 960 (1382400)
I1219 08:16:11.542484 29915 net.cpp:159] Memory required for data: 43196416
I1219 08:16:11.542485 29915 layer_factory.hpp:77] Creating layer conv1/7x7_s2
I1219 08:16:11.542495 29915 net.cpp:94] Creating Layer conv1/7x7_s2
I1219 08:16:11.542496 29915 net.cpp:435] conv1/7x7_s2 <- data
I1219 08:16:11.542500 29915 net.cpp:409] conv1/7x7_s2 -> conv1/7x7_s2_raw
I1219 08:16:11.543140 29915 net.cpp:144] Setting up conv1/7x7_s2
I1219 08:16:11.543146 29915 net.cpp:151] Top shape: 1 64 240 480 (7372800)
I1219 08:16:11.543149 29915 net.cpp:159] Memory required for data: 72687616
I1219 08:16:11.543169 29915 layer_factory.hpp:77] Creating layer conv1/7x7_s2_BatchNorm
I1219 08:16:11.543175 29915 net.cpp:94] Creating Layer conv1/7x7_s2_BatchNorm
I1219 08:16:11.543176 29915 net.cpp:435] conv1/7x7_s2_BatchNorm <- conv1/7x7_s2_raw
I1219 08:16:11.543179 29915 net.cpp:409] conv1/7x7_s2_BatchNorm -> conv1/7x7_s2
I1219 08:16:11.543658 29915 net.cpp:144] Setting up conv1/7x7_s2_BatchNorm
I1219 08:16:11.543661 29915 net.cpp:151] Top shape: 1 64 240 480 (7372800)
I1219 08:16:11.543664 29915 net.cpp:159] Memory required for data: 102178816
I1219 08:16:11.543671 29915 layer_factory.hpp:77] Creating layer conv1/relu_7x7
I1219 08:16:11.543675 29915 net.cpp:94] Creating Layer conv1/relu_7x7
I1219 08:16:11.543678 29915 net.cpp:435] conv1/relu_7x7 <- conv1/7x7_s2
I1219 08:16:11.543679 29915 net.cpp:396] conv1/relu_7x7 -> conv1/7x7_s2 (in-place)
I1219 08:16:11.543686 29915 net.cpp:144] Setting up conv1/relu_7x7
I1219 08:16:11.543689 29915 net.cpp:151] Top shape: 1 64 240 480 (7372800)
I1219 08:16:11.543691 29915 net.cpp:159] Memory required for data: 131670016
I1219 08:16:11.543694 29915 layer_factory.hpp:77] Creating layer pool1/3x3_s2
I1219 08:16:11.543697 29915 net.cpp:94] Creating Layer pool1/3x3_s2
I1219 08:16:11.543699 29915 net.cpp:435] pool1/3x3_s2 <- conv1/7x7_s2
I1219 08:16:11.543701 29915 net.cpp:409] pool1/3x3_s2 -> pool1/3x3_s2
I1219 08:16:11.543720 29915 net.cpp:144] Setting up pool1/3x3_s2
I1219 08:16:11.543723 29915 net.cpp:151] Top shape: 1 64 120 240 (1843200)
I1219 08:16:11.543726 29915 net.cpp:159] Memory required for data: 139042816
I1219 08:16:11.543727 29915 layer_factory.hpp:77] Creating layer conv2/3x3_reduce
I1219 08:16:11.543731 29915 net.cpp:94] Creating Layer conv2/3x3_reduce
I1219 08:16:11.543733 29915 net.cpp:435] conv2/3x3_reduce <- pool1/3x3_s2
I1219 08:16:11.543735 29915 net.cpp:409] conv2/3x3_reduce -> conv2/3x3_reduce_raw
I1219 08:16:11.543898 29915 net.cpp:144] Setting up conv2/3x3_reduce
I1219 08:16:11.543901 29915 net.cpp:151] Top shape: 1 64 120 240 (1843200)
I1219 08:16:11.543905 29915 net.cpp:159] Memory required for data: 146415616
I1219 08:16:11.543907 29915 layer_factory.hpp:77] Creating layer conv2/3x3_reduce_BatchNorm
I1219 08:16:11.543911 29915 net.cpp:94] Creating Layer conv2/3x3_reduce_BatchNorm
I1219 08:16:11.543913 29915 net.cpp:435] conv2/3x3_reduce_BatchNorm <- conv2/3x3_reduce_raw
I1219 08:16:11.543916 29915 net.cpp:409] conv2/3x3_reduce_BatchNorm -> conv2/3x3_reduce
I1219 08:16:11.544337 29915 net.cpp:144] Setting up conv2/3x3_reduce_BatchNorm
I1219 08:16:11.544342 29915 net.cpp:151] Top shape: 1 64 120 240 (1843200)
I1219 08:16:11.544344 29915 net.cpp:159] Memory required for data: 153788416
I1219 08:16:11.544349 29915 layer_factory.hpp:77] Creating layer conv2/relu_3x3_reduce
I1219 08:16:11.544353 29915 net.cpp:94] Creating Layer conv2/relu_3x3_reduce
I1219 08:16:11.544355 29915 net.cpp:435] conv2/relu_3x3_reduce <- conv2/3x3_reduce
I1219 08:16:11.544358 29915 net.cpp:396] conv2/relu_3x3_reduce -> conv2/3x3_reduce (in-place)
I1219 08:16:11.544361 29915 net.cpp:144] Setting up conv2/relu_3x3_reduce
I1219 08:16:11.544363 29915 net.cpp:151] Top shape: 1 64 120 240 (1843200)
I1219 08:16:11.544365 29915 net.cpp:159] Memory required for data: 161161216
I1219 08:16:11.544366 29915 layer_factory.hpp:77] Creating layer conv2/3x3
I1219 08:16:11.544370 29915 net.cpp:94] Creating Layer conv2/3x3
I1219 08:16:11.544373 29915 net.cpp:435] conv2/3x3 <- conv2/3x3_reduce
I1219 08:16:11.544375 29915 net.cpp:409] conv2/3x3 -> conv2/3x3_raw
I1219 08:16:11.545717 29915 net.cpp:144] Setting up conv2/3x3
I1219 08:16:11.545723 29915 net.cpp:151] Top shape: 1 192 120 240 (5529600)
I1219 08:16:11.545727 29915 net.cpp:159] Memory required for data: 183279616
I1219 08:16:11.545730 29915 layer_factory.hpp:77] Creating layer conv2/3x3_BatchNorm
I1219 08:16:11.545734 29915 net.cpp:94] Creating Layer conv2/3x3_BatchNorm
I1219 08:16:11.545737 29915 net.cpp:435] conv2/3x3_BatchNorm <- conv2/3x3_raw
I1219 08:16:11.545739 29915 net.cpp:409] conv2/3x3_BatchNorm -> conv2/3x3
I1219 08:16:11.546098 29915 net.cpp:144] Setting up conv2/3x3_BatchNorm
I1219 08:16:11.546103 29915 net.cpp:151] Top shape: 1 192 120 240 (5529600)
I1219 08:16:11.546105 29915 net.cpp:159] Memory required for data: 205398016
I1219 08:16:11.546111 29915 layer_factory.hpp:77] Creating layer conv2/relu_3x3
I1219 08:16:11.546114 29915 net.cpp:94] Creating Layer conv2/relu_3x3
I1219 08:16:11.546116 29915 net.cpp:435] conv2/relu_3x3 <- conv2/3x3
I1219 08:16:11.546118 29915 net.cpp:396] conv2/relu_3x3 -> conv2/3x3 (in-place)
I1219 08:16:11.546121 29915 net.cpp:144] Setting up conv2/relu_3x3
I1219 08:16:11.546123 29915 net.cpp:151] Top shape: 1 192 120 240 (5529600)
I1219 08:16:11.546125 29915 net.cpp:159] Memory required for data: 227516416
I1219 08:16:11.546128 29915 layer_factory.hpp:77] Creating layer conv2/3x3_conv2/relu_3x3_0_split
I1219 08:16:11.546133 29915 net.cpp:94] Creating Layer conv2/3x3_conv2/relu_3x3_0_split
I1219 08:16:11.546135 29915 net.cpp:435] conv2/3x3_conv2/relu_3x3_0_split <- conv2/3x3
I1219 08:16:11.546137 29915 net.cpp:409] conv2/3x3_conv2/relu_3x3_0_split -> conv2/3x3_conv2/relu_3x3_0_split_0
I1219 08:16:11.546140 29915 net.cpp:409] conv2/3x3_conv2/relu_3x3_0_split -> conv2/3x3_conv2/relu_3x3_0_split_1
I1219 08:16:11.546157 29915 net.cpp:144] Setting up conv2/3x3_conv2/relu_3x3_0_split
I1219 08:16:11.546160 29915 net.cpp:151] Top shape: 1 192 120 240 (5529600)
I1219 08:16:11.546162 29915 net.cpp:151] Top shape: 1 192 120 240 (5529600)
I1219 08:16:11.546164 29915 net.cpp:159] Memory required for data: 271753216
I1219 08:16:11.546166 29915 layer_factory.hpp:77] Creating layer pool2/3x3_s2
I1219 08:16:11.546169 29915 net.cpp:94] Creating Layer pool2/3x3_s2
I1219 08:16:11.546171 29915 net.cpp:435] pool2/3x3_s2 <- conv2/3x3_conv2/relu_3x3_0_split_0
I1219 08:16:11.546173 29915 net.cpp:409] pool2/3x3_s2 -> pool2/3x3_s2
I1219 08:16:11.546190 29915 net.cpp:144] Setting up pool2/3x3_s2
I1219 08:16:11.546191 29915 net.cpp:151] Top shape: 1 192 60 120 (1382400)
I1219 08:16:11.546195 29915 net.cpp:159] Memory required for data: 277282816
I1219 08:16:11.546195 29915 layer_factory.hpp:77] Creating layer pool2/3x3_s2_pool2/3x3_s2_0_split
I1219 08:16:11.546198 29915 net.cpp:94] Creating Layer pool2/3x3_s2_pool2/3x3_s2_0_split
I1219 08:16:11.546200 29915 net.cpp:435] pool2/3x3_s2_pool2/3x3_s2_0_split <- pool2/3x3_s2
I1219 08:16:11.546202 29915 net.cpp:409] pool2/3x3_s2_pool2/3x3_s2_0_split -> pool2/3x3_s2_pool2/3x3_s2_0_split_0
I1219 08:16:11.546205 29915 net.cpp:409] pool2/3x3_s2_pool2/3x3_s2_0_split -> pool2/3x3_s2_pool2/3x3_s2_0_split_1
I1219 08:16:11.546208 29915 net.cpp:409] pool2/3x3_s2_pool2/3x3_s2_0_split -> pool2/3x3_s2_pool2/3x3_s2_0_split_2
I1219 08:16:11.546211 29915 net.cpp:409] pool2/3x3_s2_pool2/3x3_s2_0_split -> pool2/3x3_s2_pool2/3x3_s2_0_split_3
I1219 08:16:11.546238 29915 net.cpp:144] Setting up pool2/3x3_s2_pool2/3x3_s2_0_split
I1219 08:16:11.546241 29915 net.cpp:151] Top shape: 1 192 60 120 (1382400)
I1219 08:16:11.546243 29915 net.cpp:151] Top shape: 1 192 60 120 (1382400)
I1219 08:16:11.546245 29915 net.cpp:151] Top shape: 1 192 60 120 (1382400)
I1219 08:16:11.546247 29915 net.cpp:151] Top shape: 1 192 60 120 (1382400)
I1219 08:16:11.546250 29915 net.cpp:159] Memory required for data: 299401216
I1219 08:16:11.546252 29915 layer_factory.hpp:77] Creating layer inception_3a/1x1
I1219 08:16:11.546257 29915 net.cpp:94] Creating Layer inception_3a/1x1
I1219 08:16:11.546257 29915 net.cpp:435] inception_3a/1x1 <- pool2/3x3_s2_pool2/3x3_s2_0_split_0
I1219 08:16:11.546260 29915 net.cpp:409] inception_3a/1x1 -> inception_3a/1x1_raw
I1219 08:16:11.546459 29915 net.cpp:144] Setting up inception_3a/1x1
I1219 08:16:11.546463 29915 net.cpp:151] Top shape: 1 64 60 120 (460800)
I1219 08:16:11.546465 29915 net.cpp:159] Memory required for data: 301244416
I1219 08:16:11.546468 29915 layer_factory.hpp:77] Creating layer inception_3a/1x1_BatchNorm
I1219 08:16:11.546473 29915 net.cpp:94] Creating Layer inception_3a/1x1_BatchNorm
I1219 08:16:11.546474 29915 net.cpp:435] inception_3a/1x1_BatchNorm <- inception_3a/1x1_raw
I1219 08:16:11.546478 29915 net.cpp:409] inception_3a/1x1_BatchNorm -> inception_3a/1x1
I1219 08:16:11.546875 29915 net.cpp:144] Setting up inception_3a/1x1_BatchNorm
I1219 08:16:11.546880 29915 net.cpp:151] Top shape: 1 64 60 120 (460800)
I1219 08:16:11.546882 29915 net.cpp:159] Memory required for data: 303087616
I1219 08:16:11.546887 29915 layer_factory.hpp:77] Creating layer inception_3a/relu_1x1
I1219 08:16:11.546890 29915 net.cpp:94] Creating Layer inception_3a/relu_1x1
I1219 08:16:11.546892 29915 net.cpp:435] inception_3a/relu_1x1 <- inception_3a/1x1
I1219 08:16:11.546895 29915 net.cpp:396] inception_3a/relu_1x1 -> inception_3a/1x1 (in-place)
I1219 08:16:11.546898 29915 net.cpp:144] Setting up inception_3a/relu_1x1
I1219 08:16:11.546900 29915 net.cpp:151] Top shape: 1 64 60 120 (460800)
I1219 08:16:11.546902 29915 net.cpp:159] Memory required for data: 304930816
I1219 08:16:11.546903 29915 layer_factory.hpp:77] Creating layer inception_3a/3x3_reduce
I1219 08:16:11.546908 29915 net.cpp:94] Creating Layer inception_3a/3x3_reduce
I1219 08:16:11.546909 29915 net.cpp:435] inception_3a/3x3_reduce <- pool2/3x3_s2_pool2/3x3_s2_0_split_1
I1219 08:16:11.546912 29915 net.cpp:409] inception_3a/3x3_reduce -> inception_3a/3x3_reduce_raw
I1219 08:16:11.547152 29915 net.cpp:144] Setting up inception_3a/3x3_reduce
I1219 08:16:11.547155 29915 net.cpp:151] Top shape: 1 96 60 120 (691200)
I1219 08:16:11.547158 29915 net.cpp:159] Memory required for data: 307695616
I1219 08:16:11.547161 29915 layer_factory.hpp:77] Creating layer inception_3a/3x3_reduce_BatchNorm
I1219 08:16:11.547164 29915 net.cpp:94] Creating Layer inception_3a/3x3_reduce_BatchNorm
I1219 08:16:11.547166 29915 net.cpp:435] inception_3a/3x3_reduce_BatchNorm <- inception_3a/3x3_reduce_raw
I1219 08:16:11.547169 29915 net.cpp:409] inception_3a/3x3_reduce_BatchNorm -> inception_3a/3x3_reduce
I1219 08:16:11.547538 29915 net.cpp:144] Setting up inception_3a/3x3_reduce_BatchNorm
I1219 08:16:11.547541 29915 net.cpp:151] Top shape: 1 96 60 120 (691200)
I1219 08:16:11.547544 29915 net.cpp:159] Memory required for data: 310460416
I1219 08:16:11.547550 29915 layer_factory.hpp:77] Creating layer inception_3a/relu_3x3_reduce
I1219 08:16:11.547554 29915 net.cpp:94] Creating Layer inception_3a/relu_3x3_reduce
I1219 08:16:11.547555 29915 net.cpp:435] inception_3a/relu_3x3_reduce <- inception_3a/3x3_reduce
I1219 08:16:11.547557 29915 net.cpp:396] inception_3a/relu_3x3_reduce -> inception_3a/3x3_reduce (in-place)
I1219 08:16:11.547560 29915 net.cpp:144] Setting up inception_3a/relu_3x3_reduce
I1219 08:16:11.547562 29915 net.cpp:151] Top shape: 1 96 60 120 (691200)
I1219 08:16:11.547564 29915 net.cpp:159] Memory required for data: 313225216
I1219 08:16:11.547566 29915 layer_factory.hpp:77] Creating layer inception_3a/3x3
I1219 08:16:11.547570 29915 net.cpp:94] Creating Layer inception_3a/3x3
I1219 08:16:11.547572 29915 net.cpp:435] inception_3a/3x3 <- inception_3a/3x3_reduce
I1219 08:16:11.547575 29915 net.cpp:409] inception_3a/3x3 -> inception_3a/3x3_raw
I1219 08:16:11.548576 29915 net.cpp:144] Setting up inception_3a/3x3
I1219 08:16:11.548588 29915 net.cpp:151] Top shape: 1 128 60 120 (921600)
I1219 08:16:11.548591 29915 net.cpp:159] Memory required for data: 316911616
I1219 08:16:11.548596 29915 layer_factory.hpp:77] Creating layer inception_3a/3x3_BatchNorm
I1219 08:16:11.548602 29915 net.cpp:94] Creating Layer inception_3a/3x3_BatchNorm
I1219 08:16:11.548605 29915 net.cpp:435] inception_3a/3x3_BatchNorm <- inception_3a/3x3_raw
I1219 08:16:11.548609 29915 net.cpp:409] inception_3a/3x3_BatchNorm -> inception_3a/3x3
I1219 08:16:11.549047 29915 net.cpp:144] Setting up inception_3a/3x3_BatchNorm
I1219 08:16:11.549055 29915 net.cpp:151] Top shape: 1 128 60 120 (921600)
I1219 08:16:11.549058 29915 net.cpp:159] Memory required for data: 320598016
I1219 08:16:11.549064 29915 layer_factory.hpp:77] Creating layer inception_3a/relu_3x3
I1219 08:16:11.549067 29915 net.cpp:94] Creating Layer inception_3a/relu_3x3
I1219 08:16:11.549069 29915 net.cpp:435] inception_3a/relu_3x3 <- inception_3a/3x3
I1219 08:16:11.549072 29915 net.cpp:396] inception_3a/relu_3x3 -> inception_3a/3x3 (in-place)
I1219 08:16:11.549077 29915 net.cpp:144] Setting up inception_3a/relu_3x3
I1219 08:16:11.549077 29915 net.cpp:151] Top shape: 1 128 60 120 (921600)
I1219 08:16:11.549080 29915 net.cpp:159] Memory required for data: 324284416
I1219 08:16:11.549082 29915 layer_factory.hpp:77] Creating layer inception_3a/5x5_reduce
I1219 08:16:11.549086 29915 net.cpp:94] Creating Layer inception_3a/5x5_reduce
I1219 08:16:11.549088 29915 net.cpp:435] inception_3a/5x5_reduce <- pool2/3x3_s2_pool2/3x3_s2_0_split_2
I1219 08:16:11.549090 29915 net.cpp:409] inception_3a/5x5_reduce -> inception_3a/5x5_reduce_raw
I1219 08:16:11.549249 29915 net.cpp:144] Setting up inception_3a/5x5_reduce
I1219 08:16:11.549253 29915 net.cpp:151] Top shape: 1 16 60 120 (115200)
I1219 08:16:11.549255 29915 net.cpp:159] Memory required for data: 324745216
I1219 08:16:11.549259 29915 layer_factory.hpp:77] Creating layer inception_3a/5x5_reduce_BatchNorm
I1219 08:16:11.549263 29915 net.cpp:94] Creating Layer inception_3a/5x5_reduce_BatchNorm
I1219 08:16:11.549265 29915 net.cpp:435] inception_3a/5x5_reduce_BatchNorm <- inception_3a/5x5_reduce_raw
I1219 08:16:11.549268 29915 net.cpp:409] inception_3a/5x5_reduce_BatchNorm -> inception_3a/5x5_reduce
I1219 08:16:11.549633 29915 net.cpp:144] Setting up inception_3a/5x5_reduce_BatchNorm
I1219 08:16:11.549638 29915 net.cpp:151] Top shape: 1 16 60 120 (115200)
I1219 08:16:11.549640 29915 net.cpp:159] Memory required for data: 325206016
I1219 08:16:11.549645 29915 layer_factory.hpp:77] Creating layer inception_3a/relu_5x5_reduce
I1219 08:16:11.549649 29915 net.cpp:94] Creating Layer inception_3a/relu_5x5_reduce
I1219 08:16:11.549650 29915 net.cpp:435] inception_3a/relu_5x5_reduce <- inception_3a/5x5_reduce
I1219 08:16:11.549652 29915 net.cpp:396] inception_3a/relu_5x5_reduce -> inception_3a/5x5_reduce (in-place)
I1219 08:16:11.549656 29915 net.cpp:144] Setting up inception_3a/relu_5x5_reduce
I1219 08:16:11.549657 29915 net.cpp:151] Top shape: 1 16 60 120 (115200)
I1219 08:16:11.549659 29915 net.cpp:159] Memory required for data: 325666816
I1219 08:16:11.549661 29915 layer_factory.hpp:77] Creating layer inception_3a/5x5
I1219 08:16:11.549665 29915 net.cpp:94] Creating Layer inception_3a/5x5
I1219 08:16:11.549667 29915 net.cpp:435] inception_3a/5x5 <- inception_3a/5x5_reduce
I1219 08:16:11.549670 29915 net.cpp:409] inception_3a/5x5 -> inception_3a/5x5_raw
I1219 08:16:11.549881 29915 net.cpp:144] Setting up inception_3a/5x5
I1219 08:16:11.549885 29915 net.cpp:151] Top shape: 1 32 60 120 (230400)
I1219 08:16:11.549887 29915 net.cpp:159] Memory required for data: 326588416
I1219 08:16:11.549891 29915 layer_factory.hpp:77] Creating layer inception_3a/5x5_BatchNorm
I1219 08:16:11.549894 29915 net.cpp:94] Creating Layer inception_3a/5x5_BatchNorm
I1219 08:16:11.549896 29915 net.cpp:435] inception_3a/5x5_BatchNorm <- inception_3a/5x5_raw
I1219 08:16:11.549899 29915 net.cpp:409] inception_3a/5x5_BatchNorm -> inception_3a/5x5
I1219 08:16:11.550266 29915 net.cpp:144] Setting up inception_3a/5x5_BatchNorm
I1219 08:16:11.550269 29915 net.cpp:151] Top shape: 1 32 60 120 (230400)
I1219 08:16:11.550272 29915 net.cpp:159] Memory required for data: 327510016
I1219 08:16:11.550277 29915 layer_factory.hpp:77] Creating layer inception_3a/relu_5x5
I1219 08:16:11.550280 29915 net.cpp:94] Creating Layer inception_3a/relu_5x5
I1219 08:16:11.550282 29915 net.cpp:435] inception_3a/relu_5x5 <- inception_3a/5x5
I1219 08:16:11.550285 29915 net.cpp:396] inception_3a/relu_5x5 -> inception_3a/5x5 (in-place)
I1219 08:16:11.550288 29915 net.cpp:144] Setting up inception_3a/relu_5x5
I1219 08:16:11.550289 29915 net.cpp:151] Top shape: 1 32 60 120 (230400)
I1219 08:16:11.550292 29915 net.cpp:159] Memory required for data: 328431616
I1219 08:16:11.550293 29915 layer_factory.hpp:77] Creating layer inception_3a/pool
I1219 08:16:11.550297 29915 net.cpp:94] Creating Layer inception_3a/pool
I1219 08:16:11.550299 29915 net.cpp:435] inception_3a/pool <- pool2/3x3_s2_pool2/3x3_s2_0_split_3
I1219 08:16:11.550302 29915 net.cpp:409] inception_3a/pool -> inception_3a/pool
I1219 08:16:11.550320 29915 net.cpp:144] Setting up inception_3a/pool
I1219 08:16:11.550323 29915 net.cpp:151] Top shape: 1 192 60 120 (1382400)
I1219 08:16:11.550328 29915 net.cpp:159] Memory required for data: 333961216
I1219 08:16:11.550329 29915 layer_factory.hpp:77] Creating layer inception_3a/pool_proj
I1219 08:16:11.550334 29915 net.cpp:94] Creating Layer inception_3a/pool_proj
I1219 08:16:11.550338 29915 net.cpp:435] inception_3a/pool_proj <- inception_3a/pool
I1219 08:16:11.550339 29915 net.cpp:409] inception_3a/pool_proj -> inception_3a/pool_proj_raw
I1219 08:16:11.551282 29915 net.cpp:144] Setting up inception_3a/pool_proj
I1219 08:16:11.551290 29915 net.cpp:151] Top shape: 1 32 60 120 (230400)
I1219 08:16:11.551293 29915 net.cpp:159] Memory required for data: 334882816
I1219 08:16:11.551297 29915 layer_factory.hpp:77] Creating layer inception_3a/pool_proj_BatchNorm
I1219 08:16:11.551304 29915 net.cpp:94] Creating Layer inception_3a/pool_proj_BatchNorm
I1219 08:16:11.551306 29915 net.cpp:435] inception_3a/pool_proj_BatchNorm <- inception_3a/pool_proj_raw
I1219 08:16:11.551309 29915 net.cpp:409] inception_3a/pool_proj_BatchNorm -> inception_3a/pool_proj
I1219 08:16:11.551683 29915 net.cpp:144] Setting up inception_3a/pool_proj_BatchNorm
I1219 08:16:11.551687 29915 net.cpp:151] Top shape: 1 32 60 120 (230400)
I1219 08:16:11.551690 29915 net.cpp:159] Memory required for data: 335804416
I1219 08:16:11.551697 29915 layer_factory.hpp:77] Creating layer inception_3a/relu_pool_proj
I1219 08:16:11.551699 29915 net.cpp:94] Creating Layer inception_3a/relu_pool_proj
I1219 08:16:11.551702 29915 net.cpp:435] inception_3a/relu_pool_proj <- inception_3a/pool_proj
I1219 08:16:11.551704 29915 net.cpp:396] inception_3a/relu_pool_proj -> inception_3a/pool_proj (in-place)
I1219 08:16:11.551707 29915 net.cpp:144] Setting up inception_3a/relu_pool_proj
I1219 08:16:11.551709 29915 net.cpp:151] Top shape: 1 32 60 120 (230400)
I1219 08:16:11.551712 29915 net.cpp:159] Memory required for data: 336726016
I1219 08:16:11.551712 29915 layer_factory.hpp:77] Creating layer inception_3a/output
I1219 08:16:11.551720 29915 net.cpp:94] Creating Layer inception_3a/output
I1219 08:16:11.551723 29915 net.cpp:435] inception_3a/output <- inception_3a/1x1
I1219 08:16:11.551724 29915 net.cpp:435] inception_3a/output <- inception_3a/3x3
I1219 08:16:11.551726 29915 net.cpp:435] inception_3a/output <- inception_3a/5x5
I1219 08:16:11.551728 29915 net.cpp:435] inception_3a/output <- inception_3a/pool_proj
I1219 08:16:11.551730 29915 net.cpp:409] inception_3a/output -> inception_3a/output
I1219 08:16:11.551743 29915 net.cpp:144] Setting up inception_3a/output
I1219 08:16:11.551745 29915 net.cpp:151] Top shape: 1 256 60 120 (1843200)
I1219 08:16:11.551748 29915 net.cpp:159] Memory required for data: 344098816
I1219 08:16:11.551749 29915 layer_factory.hpp:77] Creating layer inception_3a/output_inception_3a/output_0_split
I1219 08:16:11.551753 29915 net.cpp:94] Creating Layer inception_3a/output_inception_3a/output_0_split
I1219 08:16:11.551754 29915 net.cpp:435] inception_3a/output_inception_3a/output_0_split <- inception_3a/output
I1219 08:16:11.551756 29915 net.cpp:409] inception_3a/output_inception_3a/output_0_split -> inception_3a/output_inception_3a/output_0_split_0
I1219 08:16:11.551759 29915 net.cpp:409] inception_3a/output_inception_3a/output_0_split -> inception_3a/output_inception_3a/output_0_split_1
I1219 08:16:11.551762 29915 net.cpp:409] inception_3a/output_inception_3a/output_0_split -> inception_3a/output_inception_3a/output_0_split_2
I1219 08:16:11.551766 29915 net.cpp:409] inception_3a/output_inception_3a/output_0_split -> inception_3a/output_inception_3a/output_0_split_3
I1219 08:16:11.551796 29915 net.cpp:144] Setting up inception_3a/output_inception_3a/output_0_split
I1219 08:16:11.551800 29915 net.cpp:151] Top shape: 1 256 60 120 (1843200)
I1219 08:16:11.551801 29915 net.cpp:151] Top shape: 1 256 60 120 (1843200)
I1219 08:16:11.551805 29915 net.cpp:151] Top shape: 1 256 60 120 (1843200)
I1219 08:16:11.551806 29915 net.cpp:151] Top shape: 1 256 60 120 (1843200)
I1219 08:16:11.551808 29915 net.cpp:159] Memory required for data: 373590016
I1219 08:16:11.551810 29915 layer_factory.hpp:77] Creating layer inception_3b/1x1
I1219 08:16:11.551815 29915 net.cpp:94] Creating Layer inception_3b/1x1
I1219 08:16:11.551816 29915 net.cpp:435] inception_3b/1x1 <- inception_3a/output_inception_3a/output_0_split_0
I1219 08:16:11.551818 29915 net.cpp:409] inception_3b/1x1 -> inception_3b/1x1_raw
I1219 08:16:11.552126 29915 net.cpp:144] Setting up inception_3b/1x1
I1219 08:16:11.552130 29915 net.cpp:151] Top shape: 1 128 60 120 (921600)
I1219 08:16:11.552134 29915 net.cpp:159] Memory required for data: 377276416
I1219 08:16:11.552139 29915 layer_factory.hpp:77] Creating layer inception_3b/1x1_BatchNorm
I1219 08:16:11.552142 29915 net.cpp:94] Creating Layer inception_3b/1x1_BatchNorm
I1219 08:16:11.552145 29915 net.cpp:435] inception_3b/1x1_BatchNorm <- inception_3b/1x1_raw
I1219 08:16:11.552146 29915 net.cpp:409] inception_3b/1x1_BatchNorm -> inception_3b/1x1
I1219 08:16:11.552471 29915 net.cpp:144] Setting up inception_3b/1x1_BatchNorm
I1219 08:16:11.552475 29915 net.cpp:151] Top shape: 1 128 60 120 (921600)
I1219 08:16:11.552479 29915 net.cpp:159] Memory required for data: 380962816
I1219 08:16:11.552484 29915 layer_factory.hpp:77] Creating layer inception_3b/relu_1x1
I1219 08:16:11.552487 29915 net.cpp:94] Creating Layer inception_3b/relu_1x1
I1219 08:16:11.552489 29915 net.cpp:435] inception_3b/relu_1x1 <- inception_3b/1x1
I1219 08:16:11.552491 29915 net.cpp:396] inception_3b/relu_1x1 -> inception_3b/1x1 (in-place)
I1219 08:16:11.552495 29915 net.cpp:144] Setting up inception_3b/relu_1x1
I1219 08:16:11.552496 29915 net.cpp:151] Top shape: 1 128 60 120 (921600)
I1219 08:16:11.552498 29915 net.cpp:159] Memory required for data: 384649216
I1219 08:16:11.552500 29915 layer_factory.hpp:77] Creating layer inception_3b/3x3_reduce
I1219 08:16:11.552505 29915 net.cpp:94] Creating Layer inception_3b/3x3_reduce
I1219 08:16:11.552506 29915 net.cpp:435] inception_3b/3x3_reduce <- inception_3a/output_inception_3a/output_0_split_1
I1219 08:16:11.552508 29915 net.cpp:409] inception_3b/3x3_reduce -> inception_3b/3x3_reduce_raw
I1219 08:16:11.552810 29915 net.cpp:144] Setting up inception_3b/3x3_reduce
I1219 08:16:11.552814 29915 net.cpp:151] Top shape: 1 128 60 120 (921600)
I1219 08:16:11.552816 29915 net.cpp:159] Memory required for data: 388335616
I1219 08:16:11.552819 29915 layer_factory.hpp:77] Creating layer inception_3b/3x3_reduce_BatchNorm
I1219 08:16:11.552824 29915 net.cpp:94] Creating Layer inception_3b/3x3_reduce_BatchNorm
I1219 08:16:11.552825 29915 net.cpp:435] inception_3b/3x3_reduce_BatchNorm <- inception_3b/3x3_reduce_raw
I1219 08:16:11.552827 29915 net.cpp:409] inception_3b/3x3_reduce_BatchNorm -> inception_3b/3x3_reduce
I1219 08:16:11.553131 29915 net.cpp:144] Setting up inception_3b/3x3_reduce_BatchNorm
I1219 08:16:11.553135 29915 net.cpp:151] Top shape: 1 128 60 120 (921600)
I1219 08:16:11.553138 29915 net.cpp:159] Memory required for data: 392022016
I1219 08:16:11.553143 29915 layer_factory.hpp:77] Creating layer inception_3b/relu_3x3_reduce
I1219 08:16:11.553145 29915 net.cpp:94] Creating Layer inception_3b/relu_3x3_reduce
I1219 08:16:11.553148 29915 net.cpp:435] inception_3b/relu_3x3_reduce <- inception_3b/3x3_reduce
I1219 08:16:11.553149 29915 net.cpp:396] inception_3b/relu_3x3_reduce -> inception_3b/3x3_reduce (in-place)
I1219 08:16:11.553153 29915 net.cpp:144] Setting up inception_3b/relu_3x3_reduce
I1219 08:16:11.553154 29915 net.cpp:151] Top shape: 1 128 60 120 (921600)
I1219 08:16:11.553156 29915 net.cpp:159] Memory required for data: 395708416
I1219 08:16:11.553158 29915 layer_factory.hpp:77] Creating layer inception_3b/3x3
I1219 08:16:11.553162 29915 net.cpp:94] Creating Layer inception_3b/3x3
I1219 08:16:11.553164 29915 net.cpp:435] inception_3b/3x3 <- inception_3b/3x3_reduce
I1219 08:16:11.553166 29915 net.cpp:409] inception_3b/3x3 -> inception_3b/3x3_raw
I1219 08:16:11.555008 29915 net.cpp:144] Setting up inception_3b/3x3
I1219 08:16:11.555014 29915 net.cpp:151] Top shape: 1 192 60 120 (1382400)
I1219 08:16:11.555017 29915 net.cpp:159] Memory required for data: 401238016
I1219 08:16:11.555022 29915 layer_factory.hpp:77] Creating layer inception_3b/3x3_BatchNorm
I1219 08:16:11.555025 29915 net.cpp:94] Creating Layer inception_3b/3x3_BatchNorm
I1219 08:16:11.555027 29915 net.cpp:435] inception_3b/3x3_BatchNorm <- inception_3b/3x3_raw
I1219 08:16:11.555030 29915 net.cpp:409] inception_3b/3x3_BatchNorm -> inception_3b/3x3
I1219 08:16:11.555392 29915 net.cpp:144] Setting up inception_3b/3x3_BatchNorm
I1219 08:16:11.555394 29915 net.cpp:151] Top shape: 1 192 60 120 (1382400)
I1219 08:16:11.555397 29915 net.cpp:159] Memory required for data: 406767616
I1219 08:16:11.555402 29915 layer_factory.hpp:77] Creating layer inception_3b/relu_3x3
I1219 08:16:11.555408 29915 net.cpp:94] Creating Layer inception_3b/relu_3x3
I1219 08:16:11.555408 29915 net.cpp:435] inception_3b/relu_3x3 <- inception_3b/3x3
I1219 08:16:11.555411 29915 net.cpp:396] inception_3b/relu_3x3 -> inception_3b/3x3 (in-place)
I1219 08:16:11.555414 29915 net.cpp:144] Setting up inception_3b/relu_3x3
I1219 08:16:11.555416 29915 net.cpp:151] Top shape: 1 192 60 120 (1382400)
I1219 08:16:11.555418 29915 net.cpp:159] Memory required for data: 412297216
I1219 08:16:11.555419 29915 layer_factory.hpp:77] Creating layer inception_3b/5x5_reduce
I1219 08:16:11.555423 29915 net.cpp:94] Creating Layer inception_3b/5x5_reduce
I1219 08:16:11.555425 29915 net.cpp:435] inception_3b/5x5_reduce <- inception_3a/output_inception_3a/output_0_split_2
I1219 08:16:11.555428 29915 net.cpp:409] inception_3b/5x5_reduce -> inception_3b/5x5_reduce_raw
I1219 08:16:11.555608 29915 net.cpp:144] Setting up inception_3b/5x5_reduce
I1219 08:16:11.555613 29915 net.cpp:151] Top shape: 1 32 60 120 (230400)
I1219 08:16:11.555614 29915 net.cpp:159] Memory required for data: 413218816
I1219 08:16:11.555619 29915 layer_factory.hpp:77] Creating layer inception_3b/5x5_reduce_BatchNorm
I1219 08:16:11.555624 29915 net.cpp:94] Creating Layer inception_3b/5x5_reduce_BatchNorm
I1219 08:16:11.555625 29915 net.cpp:435] inception_3b/5x5_reduce_BatchNorm <- inception_3b/5x5_reduce_raw
I1219 08:16:11.555629 29915 net.cpp:409] inception_3b/5x5_reduce_BatchNorm -> inception_3b/5x5_reduce
I1219 08:16:11.555989 29915 net.cpp:144] Setting up inception_3b/5x5_reduce_BatchNorm
I1219 08:16:11.555992 29915 net.cpp:151] Top shape: 1 32 60 120 (230400)
I1219 08:16:11.555994 29915 net.cpp:159] Memory required for data: 414140416
I1219 08:16:11.555999 29915 layer_factory.hpp:77] Creating layer inception_3b/relu_5x5_reduce
I1219 08:16:11.556002 29915 net.cpp:94] Creating Layer inception_3b/relu_5x5_reduce
I1219 08:16:11.556005 29915 net.cpp:435] inception_3b/relu_5x5_reduce <- inception_3b/5x5_reduce
I1219 08:16:11.556006 29915 net.cpp:396] inception_3b/relu_5x5_reduce -> inception_3b/5x5_reduce (in-place)
I1219 08:16:11.556010 29915 net.cpp:144] Setting up inception_3b/relu_5x5_reduce
I1219 08:16:11.556011 29915 net.cpp:151] Top shape: 1 32 60 120 (230400)
I1219 08:16:11.556013 29915 net.cpp:159] Memory required for data: 415062016
I1219 08:16:11.556015 29915 layer_factory.hpp:77] Creating layer inception_3b/5x5
I1219 08:16:11.556020 29915 net.cpp:94] Creating Layer inception_3b/5x5
I1219 08:16:11.556021 29915 net.cpp:435] inception_3b/5x5 <- inception_3b/5x5_reduce
I1219 08:16:11.556025 29915 net.cpp:409] inception_3b/5x5 -> inception_3b/5x5_raw
I1219 08:16:11.556567 29915 net.cpp:144] Setting up inception_3b/5x5
I1219 08:16:11.556571 29915 net.cpp:151] Top shape: 1 96 60 120 (691200)
I1219 08:16:11.556573 29915 net.cpp:159] Memory required for data: 417826816
I1219 08:16:11.556576 29915 layer_factory.hpp:77] Creating layer inception_3b/5x5_BatchNorm
I1219 08:16:11.556581 29915 net.cpp:94] Creating Layer inception_3b/5x5_BatchNorm
I1219 08:16:11.556581 29915 net.cpp:435] inception_3b/5x5_BatchNorm <- inception_3b/5x5_raw
I1219 08:16:11.556584 29915 net.cpp:409] inception_3b/5x5_BatchNorm -> inception_3b/5x5
I1219 08:16:11.556954 29915 net.cpp:144] Setting up inception_3b/5x5_BatchNorm
I1219 08:16:11.556958 29915 net.cpp:151] Top shape: 1 96 60 120 (691200)
I1219 08:16:11.556962 29915 net.cpp:159] Memory required for data: 420591616
I1219 08:16:11.556967 29915 layer_factory.hpp:77] Creating layer inception_3b/relu_5x5
I1219 08:16:11.556970 29915 net.cpp:94] Creating Layer inception_3b/relu_5x5
I1219 08:16:11.556972 29915 net.cpp:435] inception_3b/relu_5x5 <- inception_3b/5x5
I1219 08:16:11.556974 29915 net.cpp:396] inception_3b/relu_5x5 -> inception_3b/5x5 (in-place)
I1219 08:16:11.556977 29915 net.cpp:144] Setting up inception_3b/relu_5x5
I1219 08:16:11.556978 29915 net.cpp:151] Top shape: 1 96 60 120 (691200)
I1219 08:16:11.556982 29915 net.cpp:159] Memory required for data: 423356416
I1219 08:16:11.556982 29915 layer_factory.hpp:77] Creating layer inception_3b/pool
I1219 08:16:11.556986 29915 net.cpp:94] Creating Layer inception_3b/pool
I1219 08:16:11.556988 29915 net.cpp:435] inception_3b/pool <- inception_3a/output_inception_3a/output_0_split_3
I1219 08:16:11.556991 29915 net.cpp:409] inception_3b/pool -> inception_3b/pool
I1219 08:16:11.557009 29915 net.cpp:144] Setting up inception_3b/pool
I1219 08:16:11.557013 29915 net.cpp:151] Top shape: 1 256 60 120 (1843200)
I1219 08:16:11.557014 29915 net.cpp:159] Memory required for data: 430729216
I1219 08:16:11.557015 29915 layer_factory.hpp:77] Creating layer inception_3b/pool_proj
I1219 08:16:11.557019 29915 net.cpp:94] Creating Layer inception_3b/pool_proj
I1219 08:16:11.557021 29915 net.cpp:435] inception_3b/pool_proj <- inception_3b/pool
I1219 08:16:11.557024 29915 net.cpp:409] inception_3b/pool_proj -> inception_3b/pool_proj_raw
I1219 08:16:11.557245 29915 net.cpp:144] Setting up inception_3b/pool_proj
I1219 08:16:11.557248 29915 net.cpp:151] Top shape: 1 64 60 120 (460800)
I1219 08:16:11.557250 29915 net.cpp:159] Memory required for data: 432572416
I1219 08:16:11.557253 29915 layer_factory.hpp:77] Creating layer inception_3b/pool_proj_BatchNorm
I1219 08:16:11.557257 29915 net.cpp:94] Creating Layer inception_3b/pool_proj_BatchNorm
I1219 08:16:11.557260 29915 net.cpp:435] inception_3b/pool_proj_BatchNorm <- inception_3b/pool_proj_raw
I1219 08:16:11.557262 29915 net.cpp:409] inception_3b/pool_proj_BatchNorm -> inception_3b/pool_proj
I1219 08:16:11.557622 29915 net.cpp:144] Setting up inception_3b/pool_proj_BatchNorm
I1219 08:16:11.557627 29915 net.cpp:151] Top shape: 1 64 60 120 (460800)
I1219 08:16:11.557629 29915 net.cpp:159] Memory required for data: 434415616
I1219 08:16:11.557636 29915 layer_factory.hpp:77] Creating layer inception_3b/relu_pool_proj
I1219 08:16:11.557637 29915 net.cpp:94] Creating Layer inception_3b/relu_pool_proj
I1219 08:16:11.557639 29915 net.cpp:435] inception_3b/relu_pool_proj <- inception_3b/pool_proj
I1219 08:16:11.557641 29915 net.cpp:396] inception_3b/relu_pool_proj -> inception_3b/pool_proj (in-place)
I1219 08:16:11.557646 29915 net.cpp:144] Setting up inception_3b/relu_pool_proj
I1219 08:16:11.557651 29915 net.cpp:151] Top shape: 1 64 60 120 (460800)
I1219 08:16:11.557657 29915 net.cpp:159] Memory required for data: 436258816
I1219 08:16:11.557658 29915 layer_factory.hpp:77] Creating layer inception_3b/output
I1219 08:16:11.557664 29915 net.cpp:94] Creating Layer inception_3b/output
I1219 08:16:11.557667 29915 net.cpp:435] inception_3b/output <- inception_3b/1x1
I1219 08:16:11.557670 29915 net.cpp:435] inception_3b/output <- inception_3b/3x3
I1219 08:16:11.557673 29915 net.cpp:435] inception_3b/output <- inception_3b/5x5
I1219 08:16:11.557677 29915 net.cpp:435] inception_3b/output <- inception_3b/pool_proj
I1219 08:16:11.557680 29915 net.cpp:409] inception_3b/output -> inception_3b/output
I1219 08:16:11.557704 29915 net.cpp:144] Setting up inception_3b/output
I1219 08:16:11.557710 29915 net.cpp:151] Top shape: 1 480 60 120 (3456000)
I1219 08:16:11.557713 29915 net.cpp:159] Memory required for data: 450082816
I1219 08:16:11.557715 29915 layer_factory.hpp:77] Creating layer inception_3b/output_inception_3b/output_0_split
I1219 08:16:11.557719 29915 net.cpp:94] Creating Layer inception_3b/output_inception_3b/output_0_split
I1219 08:16:11.557721 29915 net.cpp:435] inception_3b/output_inception_3b/output_0_split <- inception_3b/output
I1219 08:16:11.557725 29915 net.cpp:409] inception_3b/output_inception_3b/output_0_split -> inception_3b/output_inception_3b/output_0_split_0
I1219 08:16:11.557730 29915 net.cpp:409] inception_3b/output_inception_3b/output_0_split -> inception_3b/output_inception_3b/output_0_split_1
I1219 08:16:11.557757 29915 net.cpp:144] Setting up inception_3b/output_inception_3b/output_0_split
I1219 08:16:11.557761 29915 net.cpp:151] Top shape: 1 480 60 120 (3456000)
I1219 08:16:11.557765 29915 net.cpp:151] Top shape: 1 480 60 120 (3456000)
I1219 08:16:11.557766 29915 net.cpp:159] Memory required for data: 477730816
I1219 08:16:11.557768 29915 layer_factory.hpp:77] Creating layer pool3/3x3_s2
I1219 08:16:11.557773 29915 net.cpp:94] Creating Layer pool3/3x3_s2
I1219 08:16:11.557776 29915 net.cpp:435] pool3/3x3_s2 <- inception_3b/output_inception_3b/output_0_split_0
I1219 08:16:11.557780 29915 net.cpp:409] pool3/3x3_s2 -> pool3/3x3_s2
I1219 08:16:11.557808 29915 net.cpp:144] Setting up pool3/3x3_s2
I1219 08:16:11.557812 29915 net.cpp:151] Top shape: 1 480 30 60 (864000)
I1219 08:16:11.557816 29915 net.cpp:159] Memory required for data: 481186816
I1219 08:16:11.557816 29915 layer_factory.hpp:77] Creating layer pool3/3x3_s2_pool3/3x3_s2_0_split
I1219 08:16:11.557821 29915 net.cpp:94] Creating Layer pool3/3x3_s2_pool3/3x3_s2_0_split
I1219 08:16:11.557823 29915 net.cpp:435] pool3/3x3_s2_pool3/3x3_s2_0_split <- pool3/3x3_s2
I1219 08:16:11.557827 29915 net.cpp:409] pool3/3x3_s2_pool3/3x3_s2_0_split -> pool3/3x3_s2_pool3/3x3_s2_0_split_0
I1219 08:16:11.557832 29915 net.cpp:409] pool3/3x3_s2_pool3/3x3_s2_0_split -> pool3/3x3_s2_pool3/3x3_s2_0_split_1
I1219 08:16:11.557837 29915 net.cpp:409] pool3/3x3_s2_pool3/3x3_s2_0_split -> pool3/3x3_s2_pool3/3x3_s2_0_split_2
I1219 08:16:11.557842 29915 net.cpp:409] pool3/3x3_s2_pool3/3x3_s2_0_split -> pool3/3x3_s2_pool3/3x3_s2_0_split_3
I1219 08:16:11.557883 29915 net.cpp:144] Setting up pool3/3x3_s2_pool3/3x3_s2_0_split
I1219 08:16:11.557886 29915 net.cpp:151] Top shape: 1 480 30 60 (864000)
I1219 08:16:11.557889 29915 net.cpp:151] Top shape: 1 480 30 60 (864000)
I1219 08:16:11.557893 29915 net.cpp:151] Top shape: 1 480 30 60 (864000)
I1219 08:16:11.557896 29915 net.cpp:151] Top shape: 1 480 30 60 (864000)
I1219 08:16:11.557899 29915 net.cpp:159] Memory required for data: 495010816
I1219 08:16:11.557902 29915 layer_factory.hpp:77] Creating layer inception_4a/1x1
I1219 08:16:11.557909 29915 net.cpp:94] Creating Layer inception_4a/1x1
I1219 08:16:11.557914 29915 net.cpp:435] inception_4a/1x1 <- pool3/3x3_s2_pool3/3x3_s2_0_split_0
I1219 08:16:11.557919 29915 net.cpp:409] inception_4a/1x1 -> inception_4a/1x1_raw
I1219 08:16:11.559135 29915 net.cpp:144] Setting up inception_4a/1x1
I1219 08:16:11.559146 29915 net.cpp:151] Top shape: 1 192 30 60 (345600)
I1219 08:16:11.559152 29915 net.cpp:159] Memory required for data: 496393216
I1219 08:16:11.559157 29915 layer_factory.hpp:77] Creating layer inception_4a/1x1_BatchNorm
I1219 08:16:11.559163 29915 net.cpp:94] Creating Layer inception_4a/1x1_BatchNorm
I1219 08:16:11.559166 29915 net.cpp:435] inception_4a/1x1_BatchNorm <- inception_4a/1x1_raw
I1219 08:16:11.559170 29915 net.cpp:409] inception_4a/1x1_BatchNorm -> inception_4a/1x1
I1219 08:16:11.559617 29915 net.cpp:144] Setting up inception_4a/1x1_BatchNorm
I1219 08:16:11.559623 29915 net.cpp:151] Top shape: 1 192 30 60 (345600)
I1219 08:16:11.559628 29915 net.cpp:159] Memory required for data: 497775616
I1219 08:16:11.559633 29915 layer_factory.hpp:77] Creating layer inception_4a/relu_1x1
I1219 08:16:11.559638 29915 net.cpp:94] Creating Layer inception_4a/relu_1x1
I1219 08:16:11.559639 29915 net.cpp:435] inception_4a/relu_1x1 <- inception_4a/1x1
I1219 08:16:11.559643 29915 net.cpp:396] inception_4a/relu_1x1 -> inception_4a/1x1 (in-place)
I1219 08:16:11.559649 29915 net.cpp:144] Setting up inception_4a/relu_1x1
I1219 08:16:11.559651 29915 net.cpp:151] Top shape: 1 192 30 60 (345600)
I1219 08:16:11.559655 29915 net.cpp:159] Memory required for data: 499158016
I1219 08:16:11.559659 29915 layer_factory.hpp:77] Creating layer inception_4a/3x3_reduce
I1219 08:16:11.559664 29915 net.cpp:94] Creating Layer inception_4a/3x3_reduce
I1219 08:16:11.559667 29915 net.cpp:435] inception_4a/3x3_reduce <- pool3/3x3_s2_pool3/3x3_s2_0_split_1
I1219 08:16:11.559671 29915 net.cpp:409] inception_4a/3x3_reduce -> inception_4a/3x3_reduce_raw
I1219 08:16:11.560081 29915 net.cpp:144] Setting up inception_4a/3x3_reduce
I1219 08:16:11.560086 29915 net.cpp:151] Top shape: 1 96 30 60 (172800)
I1219 08:16:11.560089 29915 net.cpp:159] Memory required for data: 499849216
I1219 08:16:11.560093 29915 layer_factory.hpp:77] Creating layer inception_4a/3x3_reduce_BatchNorm
I1219 08:16:11.560099 29915 net.cpp:94] Creating Layer inception_4a/3x3_reduce_BatchNorm
I1219 08:16:11.560101 29915 net.cpp:435] inception_4a/3x3_reduce_BatchNorm <- inception_4a/3x3_reduce_raw
I1219 08:16:11.560106 29915 net.cpp:409] inception_4a/3x3_reduce_BatchNorm -> inception_4a/3x3_reduce
I1219 08:16:11.560492 29915 net.cpp:144] Setting up inception_4a/3x3_reduce_BatchNorm
I1219 08:16:11.560498 29915 net.cpp:151] Top shape: 1 96 30 60 (172800)
I1219 08:16:11.560501 29915 net.cpp:159] Memory required for data: 500540416
I1219 08:16:11.560508 29915 layer_factory.hpp:77] Creating layer inception_4a/relu_3x3_reduce
I1219 08:16:11.560514 29915 net.cpp:94] Creating Layer inception_4a/relu_3x3_reduce
I1219 08:16:11.560518 29915 net.cpp:435] inception_4a/relu_3x3_reduce <- inception_4a/3x3_reduce
I1219 08:16:11.560521 29915 net.cpp:396] inception_4a/relu_3x3_reduce -> inception_4a/3x3_reduce (in-place)
I1219 08:16:11.560526 29915 net.cpp:144] Setting up inception_4a/relu_3x3_reduce
I1219 08:16:11.560529 29915 net.cpp:151] Top shape: 1 96 30 60 (172800)
I1219 08:16:11.560534 29915 net.cpp:159] Memory required for data: 501231616
I1219 08:16:11.560536 29915 layer_factory.hpp:77] Creating layer inception_4a/3x3
I1219 08:16:11.560542 29915 net.cpp:94] Creating Layer inception_4a/3x3
I1219 08:16:11.560546 29915 net.cpp:435] inception_4a/3x3 <- inception_4a/3x3_reduce
I1219 08:16:11.560551 29915 net.cpp:409] inception_4a/3x3 -> inception_4a/3x3_raw
I1219 08:16:11.562218 29915 net.cpp:144] Setting up inception_4a/3x3
I1219 08:16:11.562225 29915 net.cpp:151] Top shape: 1 208 30 60 (374400)
I1219 08:16:11.562228 29915 net.cpp:159] Memory required for data: 502729216
I1219 08:16:11.562233 29915 layer_factory.hpp:77] Creating layer inception_4a/3x3_BatchNorm
I1219 08:16:11.562239 29915 net.cpp:94] Creating Layer inception_4a/3x3_BatchNorm
I1219 08:16:11.562243 29915 net.cpp:435] inception_4a/3x3_BatchNorm <- inception_4a/3x3_raw
I1219 08:16:11.562247 29915 net.cpp:409] inception_4a/3x3_BatchNorm -> inception_4a/3x3
I1219 08:16:11.562696 29915 net.cpp:144] Setting up inception_4a/3x3_BatchNorm
I1219 08:16:11.562703 29915 net.cpp:151] Top shape: 1 208 30 60 (374400)
I1219 08:16:11.562706 29915 net.cpp:159] Memory required for data: 504226816
I1219 08:16:11.562712 29915 layer_factory.hpp:77] Creating layer inception_4a/relu_3x3
I1219 08:16:11.562716 29915 net.cpp:94] Creating Layer inception_4a/relu_3x3
I1219 08:16:11.562718 29915 net.cpp:435] inception_4a/relu_3x3 <- inception_4a/3x3
I1219 08:16:11.562721 29915 net.cpp:396] inception_4a/relu_3x3 -> inception_4a/3x3 (in-place)
I1219 08:16:11.562727 29915 net.cpp:144] Setting up inception_4a/relu_3x3
I1219 08:16:11.562729 29915 net.cpp:151] Top shape: 1 208 30 60 (374400)
I1219 08:16:11.562733 29915 net.cpp:159] Memory required for data: 505724416
I1219 08:16:11.562736 29915 layer_factory.hpp:77] Creating layer inception_4a/5x5_reduce
I1219 08:16:11.562742 29915 net.cpp:94] Creating Layer inception_4a/5x5_reduce
I1219 08:16:11.562745 29915 net.cpp:435] inception_4a/5x5_reduce <- pool3/3x3_s2_pool3/3x3_s2_0_split_2
I1219 08:16:11.562749 29915 net.cpp:409] inception_4a/5x5_reduce -> inception_4a/5x5_reduce_raw
I1219 08:16:11.563001 29915 net.cpp:144] Setting up inception_4a/5x5_reduce
I1219 08:16:11.563009 29915 net.cpp:151] Top shape: 1 16 30 60 (28800)
I1219 08:16:11.563012 29915 net.cpp:159] Memory required for data: 505839616
I1219 08:16:11.563016 29915 layer_factory.hpp:77] Creating layer inception_4a/5x5_reduce_BatchNorm
I1219 08:16:11.563020 29915 net.cpp:94] Creating Layer inception_4a/5x5_reduce_BatchNorm
I1219 08:16:11.563024 29915 net.cpp:435] inception_4a/5x5_reduce_BatchNorm <- inception_4a/5x5_reduce_raw
I1219 08:16:11.563027 29915 net.cpp:409] inception_4a/5x5_reduce_BatchNorm -> inception_4a/5x5_reduce
I1219 08:16:11.563416 29915 net.cpp:144] Setting up inception_4a/5x5_reduce_BatchNorm
I1219 08:16:11.563422 29915 net.cpp:151] Top shape: 1 16 30 60 (28800)
I1219 08:16:11.563426 29915 net.cpp:159] Memory required for data: 505954816
I1219 08:16:11.563436 29915 layer_factory.hpp:77] Creating layer inception_4a/relu_5x5_reduce
I1219 08:16:11.563442 29915 net.cpp:94] Creating Layer inception_4a/relu_5x5_reduce
I1219 08:16:11.563446 29915 net.cpp:435] inception_4a/relu_5x5_reduce <- inception_4a/5x5_reduce
I1219 08:16:11.563448 29915 net.cpp:396] inception_4a/relu_5x5_reduce -> inception_4a/5x5_reduce (in-place)
I1219 08:16:11.563453 29915 net.cpp:144] Setting up inception_4a/relu_5x5_reduce
I1219 08:16:11.563457 29915 net.cpp:151] Top shape: 1 16 30 60 (28800)
I1219 08:16:11.563460 29915 net.cpp:159] Memory required for data: 506070016
I1219 08:16:11.563462 29915 layer_factory.hpp:77] Creating layer inception_4a/5x5
I1219 08:16:11.563468 29915 net.cpp:94] Creating Layer inception_4a/5x5
I1219 08:16:11.563472 29915 net.cpp:435] inception_4a/5x5 <- inception_4a/5x5_reduce
I1219 08:16:11.563477 29915 net.cpp:409] inception_4a/5x5 -> inception_4a/5x5_raw
I1219 08:16:11.563740 29915 net.cpp:144] Setting up inception_4a/5x5
I1219 08:16:11.563745 29915 net.cpp:151] Top shape: 1 48 30 60 (86400)
I1219 08:16:11.563748 29915 net.cpp:159] Memory required for data: 506415616
I1219 08:16:11.563753 29915 layer_factory.hpp:77] Creating layer inception_4a/5x5_BatchNorm
I1219 08:16:11.563760 29915 net.cpp:94] Creating Layer inception_4a/5x5_BatchNorm
I1219 08:16:11.563764 29915 net.cpp:435] inception_4a/5x5_BatchNorm <- inception_4a/5x5_raw
I1219 08:16:11.563769 29915 net.cpp:409] inception_4a/5x5_BatchNorm -> inception_4a/5x5
I1219 08:16:11.564160 29915 net.cpp:144] Setting up inception_4a/5x5_BatchNorm
I1219 08:16:11.564165 29915 net.cpp:151] Top shape: 1 48 30 60 (86400)
I1219 08:16:11.564169 29915 net.cpp:159] Memory required for data: 506761216
I1219 08:16:11.564177 29915 layer_factory.hpp:77] Creating layer inception_4a/relu_5x5
I1219 08:16:11.564182 29915 net.cpp:94] Creating Layer inception_4a/relu_5x5
I1219 08:16:11.564185 29915 net.cpp:435] inception_4a/relu_5x5 <- inception_4a/5x5
I1219 08:16:11.564189 29915 net.cpp:396] inception_4a/relu_5x5 -> inception_4a/5x5 (in-place)
I1219 08:16:11.564194 29915 net.cpp:144] Setting up inception_4a/relu_5x5
I1219 08:16:11.564198 29915 net.cpp:151] Top shape: 1 48 30 60 (86400)
I1219 08:16:11.564200 29915 net.cpp:159] Memory required for data: 507106816
I1219 08:16:11.564203 29915 layer_factory.hpp:77] Creating layer inception_4a/pool
I1219 08:16:11.564208 29915 net.cpp:94] Creating Layer inception_4a/pool
I1219 08:16:11.564211 29915 net.cpp:435] inception_4a/pool <- pool3/3x3_s2_pool3/3x3_s2_0_split_3
I1219 08:16:11.564215 29915 net.cpp:409] inception_4a/pool -> inception_4a/pool
I1219 08:16:11.564245 29915 net.cpp:144] Setting up inception_4a/pool
I1219 08:16:11.564250 29915 net.cpp:151] Top shape: 1 480 30 60 (864000)
I1219 08:16:11.564252 29915 net.cpp:159] Memory required for data: 510562816
I1219 08:16:11.564255 29915 layer_factory.hpp:77] Creating layer inception_4a/pool_proj
I1219 08:16:11.564261 29915 net.cpp:94] Creating Layer inception_4a/pool_proj
I1219 08:16:11.564265 29915 net.cpp:435] inception_4a/pool_proj <- inception_4a/pool
I1219 08:16:11.564268 29915 net.cpp:409] inception_4a/pool_proj -> inception_4a/pool_proj_raw
I1219 08:16:11.564617 29915 net.cpp:144] Setting up inception_4a/pool_proj
I1219 08:16:11.564625 29915 net.cpp:151] Top shape: 1 64 30 60 (115200)
I1219 08:16:11.564628 29915 net.cpp:159] Memory required for data: 511023616
I1219 08:16:11.564632 29915 layer_factory.hpp:77] Creating layer inception_4a/pool_proj_BatchNorm
I1219 08:16:11.564640 29915 net.cpp:94] Creating Layer inception_4a/pool_proj_BatchNorm
I1219 08:16:11.564647 29915 net.cpp:435] inception_4a/pool_proj_BatchNorm <- inception_4a/pool_proj_raw
I1219 08:16:11.564652 29915 net.cpp:409] inception_4a/pool_proj_BatchNorm -> inception_4a/pool_proj
I1219 08:16:11.565062 29915 net.cpp:144] Setting up inception_4a/pool_proj_BatchNorm
I1219 08:16:11.565066 29915 net.cpp:151] Top shape: 1 64 30 60 (115200)
I1219 08:16:11.565070 29915 net.cpp:159] Memory required for data: 511484416
I1219 08:16:11.565076 29915 layer_factory.hpp:77] Creating layer inception_4a/relu_pool_proj
I1219 08:16:11.565079 29915 net.cpp:94] Creating Layer inception_4a/relu_pool_proj
I1219 08:16:11.565081 29915 net.cpp:435] inception_4a/relu_pool_proj <- inception_4a/pool_proj
I1219 08:16:11.565084 29915 net.cpp:396] inception_4a/relu_pool_proj -> inception_4a/pool_proj (in-place)
I1219 08:16:11.565089 29915 net.cpp:144] Setting up inception_4a/relu_pool_proj
I1219 08:16:11.565093 29915 net.cpp:151] Top shape: 1 64 30 60 (115200)
I1219 08:16:11.565095 29915 net.cpp:159] Memory required for data: 511945216
I1219 08:16:11.565099 29915 layer_factory.hpp:77] Creating layer inception_4a/output
I1219 08:16:11.565102 29915 net.cpp:94] Creating Layer inception_4a/output
I1219 08:16:11.565105 29915 net.cpp:435] inception_4a/output <- inception_4a/1x1
I1219 08:16:11.565109 29915 net.cpp:435] inception_4a/output <- inception_4a/3x3
I1219 08:16:11.565111 29915 net.cpp:435] inception_4a/output <- inception_4a/5x5
I1219 08:16:11.565114 29915 net.cpp:435] inception_4a/output <- inception_4a/pool_proj
I1219 08:16:11.565119 29915 net.cpp:409] inception_4a/output -> inception_4a/output
I1219 08:16:11.565138 29915 net.cpp:144] Setting up inception_4a/output
I1219 08:16:11.565142 29915 net.cpp:151] Top shape: 1 512 30 60 (921600)
I1219 08:16:11.565145 29915 net.cpp:159] Memory required for data: 515631616
I1219 08:16:11.565147 29915 layer_factory.hpp:77] Creating layer inception_4a/output_inception_4a/output_0_split
I1219 08:16:11.565150 29915 net.cpp:94] Creating Layer inception_4a/output_inception_4a/output_0_split
I1219 08:16:11.565153 29915 net.cpp:435] inception_4a/output_inception_4a/output_0_split <- inception_4a/output
I1219 08:16:11.565157 29915 net.cpp:409] inception_4a/output_inception_4a/output_0_split -> inception_4a/output_inception_4a/output_0_split_0
I1219 08:16:11.565163 29915 net.cpp:409] inception_4a/output_inception_4a/output_0_split -> inception_4a/output_inception_4a/output_0_split_1
I1219 08:16:11.565167 29915 net.cpp:409] inception_4a/output_inception_4a/output_0_split -> inception_4a/output_inception_4a/output_0_split_2
I1219 08:16:11.565172 29915 net.cpp:409] inception_4a/output_inception_4a/output_0_split -> inception_4a/output_inception_4a/output_0_split_3
I1219 08:16:11.565213 29915 net.cpp:144] Setting up inception_4a/output_inception_4a/output_0_split
I1219 08:16:11.565217 29915 net.cpp:151] Top shape: 1 512 30 60 (921600)
I1219 08:16:11.565220 29915 net.cpp:151] Top shape: 1 512 30 60 (921600)
I1219 08:16:11.565222 29915 net.cpp:151] Top shape: 1 512 30 60 (921600)
I1219 08:16:11.565227 29915 net.cpp:151] Top shape: 1 512 30 60 (921600)
I1219 08:16:11.565229 29915 net.cpp:159] Memory required for data: 530377216
I1219 08:16:11.565232 29915 layer_factory.hpp:77] Creating layer inception_4b/1x1
I1219 08:16:11.565238 29915 net.cpp:94] Creating Layer inception_4b/1x1
I1219 08:16:11.565243 29915 net.cpp:435] inception_4b/1x1 <- inception_4a/output_inception_4a/output_0_split_0
I1219 08:16:11.565248 29915 net.cpp:409] inception_4b/1x1 -> inception_4b/1x1_raw
I1219 08:16:11.565848 29915 net.cpp:144] Setting up inception_4b/1x1
I1219 08:16:11.565853 29915 net.cpp:151] Top shape: 1 160 30 60 (288000)
I1219 08:16:11.565856 29915 net.cpp:159] Memory required for data: 531529216
I1219 08:16:11.565860 29915 layer_factory.hpp:77] Creating layer inception_4b/1x1_BatchNorm
I1219 08:16:11.565866 29915 net.cpp:94] Creating Layer inception_4b/1x1_BatchNorm
I1219 08:16:11.565868 29915 net.cpp:435] inception_4b/1x1_BatchNorm <- inception_4b/1x1_raw
I1219 08:16:11.565873 29915 net.cpp:409] inception_4b/1x1_BatchNorm -> inception_4b/1x1
I1219 08:16:11.566247 29915 net.cpp:144] Setting up inception_4b/1x1_BatchNorm
I1219 08:16:11.566253 29915 net.cpp:151] Top shape: 1 160 30 60 (288000)
I1219 08:16:11.566256 29915 net.cpp:159] Memory required for data: 532681216
I1219 08:16:11.566262 29915 layer_factory.hpp:77] Creating layer inception_4b/relu_1x1
I1219 08:16:11.566267 29915 net.cpp:94] Creating Layer inception_4b/relu_1x1
I1219 08:16:11.566269 29915 net.cpp:435] inception_4b/relu_1x1 <- inception_4b/1x1
I1219 08:16:11.566273 29915 net.cpp:396] inception_4b/relu_1x1 -> inception_4b/1x1 (in-place)
I1219 08:16:11.566277 29915 net.cpp:144] Setting up inception_4b/relu_1x1
I1219 08:16:11.566280 29915 net.cpp:151] Top shape: 1 160 30 60 (288000)
I1219 08:16:11.566284 29915 net.cpp:159] Memory required for data: 533833216
I1219 08:16:11.566287 29915 layer_factory.hpp:77] Creating layer inception_4b/3x3_reduce
I1219 08:16:11.566293 29915 net.cpp:94] Creating Layer inception_4b/3x3_reduce
I1219 08:16:11.566295 29915 net.cpp:435] inception_4b/3x3_reduce <- inception_4a/output_inception_4a/output_0_split_1
I1219 08:16:11.566299 29915 net.cpp:409] inception_4b/3x3_reduce -> inception_4b/3x3_reduce_raw
I1219 08:16:11.566776 29915 net.cpp:144] Setting up inception_4b/3x3_reduce
I1219 08:16:11.566782 29915 net.cpp:151] Top shape: 1 112 30 60 (201600)
I1219 08:16:11.566785 29915 net.cpp:159] Memory required for data: 534639616
I1219 08:16:11.566789 29915 layer_factory.hpp:77] Creating layer inception_4b/3x3_reduce_BatchNorm
I1219 08:16:11.566794 29915 net.cpp:94] Creating Layer inception_4b/3x3_reduce_BatchNorm
I1219 08:16:11.566797 29915 net.cpp:435] inception_4b/3x3_reduce_BatchNorm <- inception_4b/3x3_reduce_raw
I1219 08:16:11.566802 29915 net.cpp:409] inception_4b/3x3_reduce_BatchNorm -> inception_4b/3x3_reduce
I1219 08:16:11.567188 29915 net.cpp:144] Setting up inception_4b/3x3_reduce_BatchNorm
I1219 08:16:11.567193 29915 net.cpp:151] Top shape: 1 112 30 60 (201600)
I1219 08:16:11.567195 29915 net.cpp:159] Memory required for data: 535446016
I1219 08:16:11.567200 29915 layer_factory.hpp:77] Creating layer inception_4b/relu_3x3_reduce
I1219 08:16:11.567205 29915 net.cpp:94] Creating Layer inception_4b/relu_3x3_reduce
I1219 08:16:11.567207 29915 net.cpp:435] inception_4b/relu_3x3_reduce <- inception_4b/3x3_reduce
I1219 08:16:11.567211 29915 net.cpp:396] inception_4b/relu_3x3_reduce -> inception_4b/3x3_reduce (in-place)
I1219 08:16:11.567216 29915 net.cpp:144] Setting up inception_4b/relu_3x3_reduce
I1219 08:16:11.567219 29915 net.cpp:151] Top shape: 1 112 30 60 (201600)
I1219 08:16:11.567222 29915 net.cpp:159] Memory required for data: 536252416
I1219 08:16:11.567224 29915 layer_factory.hpp:77] Creating layer inception_4b/3x3
I1219 08:16:11.567230 29915 net.cpp:94] Creating Layer inception_4b/3x3
I1219 08:16:11.567234 29915 net.cpp:435] inception_4b/3x3 <- inception_4b/3x3_reduce
I1219 08:16:11.567237 29915 net.cpp:409] inception_4b/3x3 -> inception_4b/3x3_raw
I1219 08:16:11.569263 29915 net.cpp:144] Setting up inception_4b/3x3
I1219 08:16:11.569272 29915 net.cpp:151] Top shape: 1 224 30 60 (403200)
I1219 08:16:11.569275 29915 net.cpp:159] Memory required for data: 537865216
I1219 08:16:11.569279 29915 layer_factory.hpp:77] Creating layer inception_4b/3x3_BatchNorm
I1219 08:16:11.569284 29915 net.cpp:94] Creating Layer inception_4b/3x3_BatchNorm
I1219 08:16:11.569288 29915 net.cpp:435] inception_4b/3x3_BatchNorm <- inception_4b/3x3_raw
I1219 08:16:11.569291 29915 net.cpp:409] inception_4b/3x3_BatchNorm -> inception_4b/3x3
I1219 08:16:11.569708 29915 net.cpp:144] Setting up inception_4b/3x3_BatchNorm
I1219 08:16:11.569716 29915 net.cpp:151] Top shape: 1 224 30 60 (403200)
I1219 08:16:11.569720 29915 net.cpp:159] Memory required for data: 539478016
I1219 08:16:11.569725 29915 layer_factory.hpp:77] Creating layer inception_4b/relu_3x3
I1219 08:16:11.569730 29915 net.cpp:94] Creating Layer inception_4b/relu_3x3
I1219 08:16:11.569732 29915 net.cpp:435] inception_4b/relu_3x3 <- inception_4b/3x3
I1219 08:16:11.569736 29915 net.cpp:396] inception_4b/relu_3x3 -> inception_4b/3x3 (in-place)
I1219 08:16:11.569741 29915 net.cpp:144] Setting up inception_4b/relu_3x3
I1219 08:16:11.569743 29915 net.cpp:151] Top shape: 1 224 30 60 (403200)
I1219 08:16:11.569747 29915 net.cpp:159] Memory required for data: 541090816
I1219 08:16:11.569751 29915 layer_factory.hpp:77] Creating layer inception_4b/5x5_reduce
I1219 08:16:11.569756 29915 net.cpp:94] Creating Layer inception_4b/5x5_reduce
I1219 08:16:11.569759 29915 net.cpp:435] inception_4b/5x5_reduce <- inception_4a/output_inception_4a/output_0_split_2
I1219 08:16:11.569764 29915 net.cpp:409] inception_4b/5x5_reduce -> inception_4b/5x5_reduce_raw
I1219 08:16:11.569984 29915 net.cpp:144] Setting up inception_4b/5x5_reduce
I1219 08:16:11.569990 29915 net.cpp:151] Top shape: 1 24 30 60 (43200)
I1219 08:16:11.569993 29915 net.cpp:159] Memory required for data: 541263616
I1219 08:16:11.569996 29915 layer_factory.hpp:77] Creating layer inception_4b/5x5_reduce_BatchNorm
I1219 08:16:11.570003 29915 net.cpp:94] Creating Layer inception_4b/5x5_reduce_BatchNorm
I1219 08:16:11.570005 29915 net.cpp:435] inception_4b/5x5_reduce_BatchNorm <- inception_4b/5x5_reduce_raw
I1219 08:16:11.570010 29915 net.cpp:409] inception_4b/5x5_reduce_BatchNorm -> inception_4b/5x5_reduce
I1219 08:16:11.570391 29915 net.cpp:144] Setting up inception_4b/5x5_reduce_BatchNorm
I1219 08:16:11.570396 29915 net.cpp:151] Top shape: 1 24 30 60 (43200)
I1219 08:16:11.570399 29915 net.cpp:159] Memory required for data: 541436416
I1219 08:16:11.570406 29915 layer_factory.hpp:77] Creating layer inception_4b/relu_5x5_reduce
I1219 08:16:11.570412 29915 net.cpp:94] Creating Layer inception_4b/relu_5x5_reduce
I1219 08:16:11.570415 29915 net.cpp:435] inception_4b/relu_5x5_reduce <- inception_4b/5x5_reduce
I1219 08:16:11.570420 29915 net.cpp:396] inception_4b/relu_5x5_reduce -> inception_4b/5x5_reduce (in-place)
I1219 08:16:11.570425 29915 net.cpp:144] Setting up inception_4b/relu_5x5_reduce
I1219 08:16:11.570426 29915 net.cpp:151] Top shape: 1 24 30 60 (43200)
I1219 08:16:11.570430 29915 net.cpp:159] Memory required for data: 541609216
I1219 08:16:11.570433 29915 layer_factory.hpp:77] Creating layer inception_4b/5x5
I1219 08:16:11.570439 29915 net.cpp:94] Creating Layer inception_4b/5x5
I1219 08:16:11.570442 29915 net.cpp:435] inception_4b/5x5 <- inception_4b/5x5_reduce
I1219 08:16:11.570446 29915 net.cpp:409] inception_4b/5x5 -> inception_4b/5x5_raw
I1219 08:16:11.571382 29915 net.cpp:144] Setting up inception_4b/5x5
I1219 08:16:11.571388 29915 net.cpp:151] Top shape: 1 64 30 60 (115200)
I1219 08:16:11.571391 29915 net.cpp:159] Memory required for data: 542070016
I1219 08:16:11.571395 29915 layer_factory.hpp:77] Creating layer inception_4b/5x5_BatchNorm
I1219 08:16:11.571401 29915 net.cpp:94] Creating Layer inception_4b/5x5_BatchNorm
I1219 08:16:11.571404 29915 net.cpp:435] inception_4b/5x5_BatchNorm <- inception_4b/5x5_raw
I1219 08:16:11.571409 29915 net.cpp:409] inception_4b/5x5_BatchNorm -> inception_4b/5x5
I1219 08:16:11.571820 29915 net.cpp:144] Setting up inception_4b/5x5_BatchNorm
I1219 08:16:11.571825 29915 net.cpp:151] Top shape: 1 64 30 60 (115200)
I1219 08:16:11.571830 29915 net.cpp:159] Memory required for data: 542530816
I1219 08:16:11.571835 29915 layer_factory.hpp:77] Creating layer inception_4b/relu_5x5
I1219 08:16:11.571838 29915 net.cpp:94] Creating Layer inception_4b/relu_5x5
I1219 08:16:11.571841 29915 net.cpp:435] inception_4b/relu_5x5 <- inception_4b/5x5
I1219 08:16:11.571846 29915 net.cpp:396] inception_4b/relu_5x5 -> inception_4b/5x5 (in-place)
I1219 08:16:11.571851 29915 net.cpp:144] Setting up inception_4b/relu_5x5
I1219 08:16:11.571852 29915 net.cpp:151] Top shape: 1 64 30 60 (115200)
I1219 08:16:11.571856 29915 net.cpp:159] Memory required for data: 542991616
I1219 08:16:11.571858 29915 layer_factory.hpp:77] Creating layer inception_4b/pool
I1219 08:16:11.571864 29915 net.cpp:94] Creating Layer inception_4b/pool
I1219 08:16:11.571866 29915 net.cpp:435] inception_4b/pool <- inception_4a/output_inception_4a/output_0_split_3
I1219 08:16:11.571871 29915 net.cpp:409] inception_4b/pool -> inception_4b/pool
I1219 08:16:11.571900 29915 net.cpp:144] Setting up inception_4b/pool
I1219 08:16:11.571904 29915 net.cpp:151] Top shape: 1 512 30 60 (921600)
I1219 08:16:11.571907 29915 net.cpp:159] Memory required for data: 546678016
I1219 08:16:11.571909 29915 layer_factory.hpp:77] Creating layer inception_4b/pool_proj
I1219 08:16:11.571914 29915 net.cpp:94] Creating Layer inception_4b/pool_proj
I1219 08:16:11.571918 29915 net.cpp:435] inception_4b/pool_proj <- inception_4b/pool
I1219 08:16:11.571921 29915 net.cpp:409] inception_4b/pool_proj -> inception_4b/pool_proj_raw
I1219 08:16:11.572254 29915 net.cpp:144] Setting up inception_4b/pool_proj
I1219 08:16:11.572259 29915 net.cpp:151] Top shape: 1 64 30 60 (115200)
I1219 08:16:11.572263 29915 net.cpp:159] Memory required for data: 547138816
I1219 08:16:11.572266 29915 layer_factory.hpp:77] Creating layer inception_4b/pool_proj_BatchNorm
I1219 08:16:11.572271 29915 net.cpp:94] Creating Layer inception_4b/pool_proj_BatchNorm
I1219 08:16:11.572278 29915 net.cpp:435] inception_4b/pool_proj_BatchNorm <- inception_4b/pool_proj_raw
I1219 08:16:11.572281 29915 net.cpp:409] inception_4b/pool_proj_BatchNorm -> inception_4b/pool_proj
I1219 08:16:11.572741 29915 net.cpp:144] Setting up inception_4b/pool_proj_BatchNorm
I1219 08:16:11.572747 29915 net.cpp:151] Top shape: 1 64 30 60 (115200)
I1219 08:16:11.572751 29915 net.cpp:159] Memory required for data: 547599616
I1219 08:16:11.572757 29915 layer_factory.hpp:77] Creating layer inception_4b/relu_pool_proj
I1219 08:16:11.572760 29915 net.cpp:94] Creating Layer inception_4b/relu_pool_proj
I1219 08:16:11.572763 29915 net.cpp:435] inception_4b/relu_pool_proj <- inception_4b/pool_proj
I1219 08:16:11.572767 29915 net.cpp:396] inception_4b/relu_pool_proj -> inception_4b/pool_proj (in-place)
I1219 08:16:11.572772 29915 net.cpp:144] Setting up inception_4b/relu_pool_proj
I1219 08:16:11.572775 29915 net.cpp:151] Top shape: 1 64 30 60 (115200)
I1219 08:16:11.572779 29915 net.cpp:159] Memory required for data: 548060416
I1219 08:16:11.572782 29915 layer_factory.hpp:77] Creating layer inception_4b/output
I1219 08:16:11.572785 29915 net.cpp:94] Creating Layer inception_4b/output
I1219 08:16:11.572788 29915 net.cpp:435] inception_4b/output <- inception_4b/1x1
I1219 08:16:11.572791 29915 net.cpp:435] inception_4b/output <- inception_4b/3x3
I1219 08:16:11.572794 29915 net.cpp:435] inception_4b/output <- inception_4b/5x5
I1219 08:16:11.572798 29915 net.cpp:435] inception_4b/output <- inception_4b/pool_proj
I1219 08:16:11.572800 29915 net.cpp:409] inception_4b/output -> inception_4b/output
I1219 08:16:11.572821 29915 net.cpp:144] Setting up inception_4b/output
I1219 08:16:11.572825 29915 net.cpp:151] Top shape: 1 512 30 60 (921600)
I1219 08:16:11.572829 29915 net.cpp:159] Memory required for data: 551746816
I1219 08:16:11.572830 29915 layer_factory.hpp:77] Creating layer inception_4b/output_inception_4b/output_0_split
I1219 08:16:11.572835 29915 net.cpp:94] Creating Layer inception_4b/output_inception_4b/output_0_split
I1219 08:16:11.572837 29915 net.cpp:435] inception_4b/output_inception_4b/output_0_split <- inception_4b/output
I1219 08:16:11.572841 29915 net.cpp:409] inception_4b/output_inception_4b/output_0_split -> inception_4b/output_inception_4b/output_0_split_0
I1219 08:16:11.572845 29915 net.cpp:409] inception_4b/output_inception_4b/output_0_split -> inception_4b/output_inception_4b/output_0_split_1
I1219 08:16:11.572849 29915 net.cpp:409] inception_4b/output_inception_4b/output_0_split -> inception_4b/output_inception_4b/output_0_split_2
I1219 08:16:11.572854 29915 net.cpp:409] inception_4b/output_inception_4b/output_0_split -> inception_4b/output_inception_4b/output_0_split_3
I1219 08:16:11.572892 29915 net.cpp:144] Setting up inception_4b/output_inception_4b/output_0_split
I1219 08:16:11.572896 29915 net.cpp:151] Top shape: 1 512 30 60 (921600)
I1219 08:16:11.572901 29915 net.cpp:151] Top shape: 1 512 30 60 (921600)
I1219 08:16:11.572903 29915 net.cpp:151] Top shape: 1 512 30 60 (921600)
I1219 08:16:11.572907 29915 net.cpp:151] Top shape: 1 512 30 60 (921600)
I1219 08:16:11.572911 29915 net.cpp:159] Memory required for data: 566492416
I1219 08:16:11.572912 29915 layer_factory.hpp:77] Creating layer inception_4c/1x1
I1219 08:16:11.572917 29915 net.cpp:94] Creating Layer inception_4c/1x1
I1219 08:16:11.572921 29915 net.cpp:435] inception_4c/1x1 <- inception_4b/output_inception_4b/output_0_split_0
I1219 08:16:11.572923 29915 net.cpp:409] inception_4c/1x1 -> inception_4c/1x1_raw
I1219 08:16:11.576581 29915 net.cpp:144] Setting up inception_4c/1x1
I1219 08:16:11.576591 29915 net.cpp:151] Top shape: 1 128 30 60 (230400)
I1219 08:16:11.576596 29915 net.cpp:159] Memory required for data: 567414016
I1219 08:16:11.576601 29915 layer_factory.hpp:77] Creating layer inception_4c/1x1_BatchNorm
I1219 08:16:11.576608 29915 net.cpp:94] Creating Layer inception_4c/1x1_BatchNorm
I1219 08:16:11.576612 29915 net.cpp:435] inception_4c/1x1_BatchNorm <- inception_4c/1x1_raw
I1219 08:16:11.576619 29915 net.cpp:409] inception_4c/1x1_BatchNorm -> inception_4c/1x1
I1219 08:16:11.577041 29915 net.cpp:144] Setting up inception_4c/1x1_BatchNorm
I1219 08:16:11.577050 29915 net.cpp:151] Top shape: 1 128 30 60 (230400)
I1219 08:16:11.577054 29915 net.cpp:159] Memory required for data: 568335616
I1219 08:16:11.577061 29915 layer_factory.hpp:77] Creating layer inception_4c/relu_1x1
I1219 08:16:11.577069 29915 net.cpp:94] Creating Layer inception_4c/relu_1x1
I1219 08:16:11.577077 29915 net.cpp:435] inception_4c/relu_1x1 <- inception_4c/1x1
I1219 08:16:11.577083 29915 net.cpp:396] inception_4c/relu_1x1 -> inception_4c/1x1 (in-place)
I1219 08:16:11.577090 29915 net.cpp:144] Setting up inception_4c/relu_1x1
I1219 08:16:11.577095 29915 net.cpp:151] Top shape: 1 128 30 60 (230400)
I1219 08:16:11.577100 29915 net.cpp:159] Memory required for data: 569257216
I1219 08:16:11.577105 29915 layer_factory.hpp:77] Creating layer inception_4c/3x3_reduce
I1219 08:16:11.577111 29915 net.cpp:94] Creating Layer inception_4c/3x3_reduce
I1219 08:16:11.577116 29915 net.cpp:435] inception_4c/3x3_reduce <- inception_4b/output_inception_4b/output_0_split_1
I1219 08:16:11.577122 29915 net.cpp:409] inception_4c/3x3_reduce -> inception_4c/3x3_reduce_raw
I1219 08:16:11.577710 29915 net.cpp:144] Setting up inception_4c/3x3_reduce
I1219 08:16:11.577715 29915 net.cpp:151] Top shape: 1 128 30 60 (230400)
I1219 08:16:11.577718 29915 net.cpp:159] Memory required for data: 570178816
I1219 08:16:11.577723 29915 layer_factory.hpp:77] Creating layer inception_4c/3x3_reduce_BatchNorm
I1219 08:16:11.577728 29915 net.cpp:94] Creating Layer inception_4c/3x3_reduce_BatchNorm
I1219 08:16:11.577731 29915 net.cpp:435] inception_4c/3x3_reduce_BatchNorm <- inception_4c/3x3_reduce_raw
I1219 08:16:11.577735 29915 net.cpp:409] inception_4c/3x3_reduce_BatchNorm -> inception_4c/3x3_reduce
I1219 08:16:11.578104 29915 net.cpp:144] Setting up inception_4c/3x3_reduce_BatchNorm
I1219 08:16:11.578111 29915 net.cpp:151] Top shape: 1 128 30 60 (230400)
I1219 08:16:11.578114 29915 net.cpp:159] Memory required for data: 571100416
I1219 08:16:11.578120 29915 layer_factory.hpp:77] Creating layer inception_4c/relu_3x3_reduce
I1219 08:16:11.578124 29915 net.cpp:94] Creating Layer inception_4c/relu_3x3_reduce
I1219 08:16:11.578126 29915 net.cpp:435] inception_4c/relu_3x3_reduce <- inception_4c/3x3_reduce
I1219 08:16:11.578130 29915 net.cpp:396] inception_4c/relu_3x3_reduce -> inception_4c/3x3_reduce (in-place)
I1219 08:16:11.578135 29915 net.cpp:144] Setting up inception_4c/relu_3x3_reduce
I1219 08:16:11.578137 29915 net.cpp:151] Top shape: 1 128 30 60 (230400)
I1219 08:16:11.578141 29915 net.cpp:159] Memory required for data: 572022016
I1219 08:16:11.578145 29915 layer_factory.hpp:77] Creating layer inception_4c/3x3
I1219 08:16:11.578150 29915 net.cpp:94] Creating Layer inception_4c/3x3
I1219 08:16:11.578155 29915 net.cpp:435] inception_4c/3x3 <- inception_4c/3x3_reduce
I1219 08:16:11.578159 29915 net.cpp:409] inception_4c/3x3 -> inception_4c/3x3_raw
I1219 08:16:11.581099 29915 net.cpp:144] Setting up inception_4c/3x3
I1219 08:16:11.581107 29915 net.cpp:151] Top shape: 1 256 30 60 (460800)
I1219 08:16:11.581111 29915 net.cpp:159] Memory required for data: 573865216
I1219 08:16:11.581115 29915 layer_factory.hpp:77] Creating layer inception_4c/3x3_BatchNorm
I1219 08:16:11.581121 29915 net.cpp:94] Creating Layer inception_4c/3x3_BatchNorm
I1219 08:16:11.581128 29915 net.cpp:435] inception_4c/3x3_BatchNorm <- inception_4c/3x3_raw
I1219 08:16:11.581135 29915 net.cpp:409] inception_4c/3x3_BatchNorm -> inception_4c/3x3
I1219 08:16:11.581511 29915 net.cpp:144] Setting up inception_4c/3x3_BatchNorm
I1219 08:16:11.581519 29915 net.cpp:151] Top shape: 1 256 30 60 (460800)
I1219 08:16:11.581522 29915 net.cpp:159] Memory required for data: 575708416
I1219 08:16:11.581528 29915 layer_factory.hpp:77] Creating layer inception_4c/relu_3x3
I1219 08:16:11.581533 29915 net.cpp:94] Creating Layer inception_4c/relu_3x3
I1219 08:16:11.581539 29915 net.cpp:435] inception_4c/relu_3x3 <- inception_4c/3x3
I1219 08:16:11.581544 29915 net.cpp:396] inception_4c/relu_3x3 -> inception_4c/3x3 (in-place)
I1219 08:16:11.581555 29915 net.cpp:144] Setting up inception_4c/relu_3x3
I1219 08:16:11.581558 29915 net.cpp:151] Top shape: 1 256 30 60 (460800)
I1219 08:16:11.581565 29915 net.cpp:159] Memory required for data: 577551616
I1219 08:16:11.581568 29915 layer_factory.hpp:77] Creating layer inception_4c/5x5_reduce
I1219 08:16:11.581574 29915 net.cpp:94] Creating Layer inception_4c/5x5_reduce
I1219 08:16:11.581580 29915 net.cpp:435] inception_4c/5x5_reduce <- inception_4b/output_inception_4b/output_0_split_2
I1219 08:16:11.581585 29915 net.cpp:409] inception_4c/5x5_reduce -> inception_4c/5x5_reduce_raw
I1219 08:16:11.581818 29915 net.cpp:144] Setting up inception_4c/5x5_reduce
I1219 08:16:11.581823 29915 net.cpp:151] Top shape: 1 24 30 60 (43200)
I1219 08:16:11.581826 29915 net.cpp:159] Memory required for data: 577724416
I1219 08:16:11.581831 29915 layer_factory.hpp:77] Creating layer inception_4c/5x5_reduce_BatchNorm
I1219 08:16:11.581837 29915 net.cpp:94] Creating Layer inception_4c/5x5_reduce_BatchNorm
I1219 08:16:11.581842 29915 net.cpp:435] inception_4c/5x5_reduce_BatchNorm <- inception_4c/5x5_reduce_raw
I1219 08:16:11.581847 29915 net.cpp:409] inception_4c/5x5_reduce_BatchNorm -> inception_4c/5x5_reduce
I1219 08:16:11.582260 29915 net.cpp:144] Setting up inception_4c/5x5_reduce_BatchNorm
I1219 08:16:11.582267 29915 net.cpp:151] Top shape: 1 24 30 60 (43200)
I1219 08:16:11.582276 29915 net.cpp:159] Memory required for data: 577897216
I1219 08:16:11.582288 29915 layer_factory.hpp:77] Creating layer inception_4c/relu_5x5_reduce
I1219 08:16:11.582294 29915 net.cpp:94] Creating Layer inception_4c/relu_5x5_reduce
I1219 08:16:11.582298 29915 net.cpp:435] inception_4c/relu_5x5_reduce <- inception_4c/5x5_reduce
I1219 08:16:11.582301 29915 net.cpp:396] inception_4c/relu_5x5_reduce -> inception_4c/5x5_reduce (in-place)
I1219 08:16:11.582306 29915 net.cpp:144] Setting up inception_4c/relu_5x5_reduce
I1219 08:16:11.582310 29915 net.cpp:151] Top shape: 1 24 30 60 (43200)
I1219 08:16:11.582314 29915 net.cpp:159] Memory required for data: 578070016
I1219 08:16:11.582316 29915 layer_factory.hpp:77] Creating layer inception_4c/5x5
I1219 08:16:11.582324 29915 net.cpp:94] Creating Layer inception_4c/5x5
I1219 08:16:11.582326 29915 net.cpp:435] inception_4c/5x5 <- inception_4c/5x5_reduce
I1219 08:16:11.582331 29915 net.cpp:409] inception_4c/5x5 -> inception_4c/5x5_raw
I1219 08:16:11.582803 29915 net.cpp:144] Setting up inception_4c/5x5
I1219 08:16:11.582810 29915 net.cpp:151] Top shape: 1 64 30 60 (115200)
I1219 08:16:11.582813 29915 net.cpp:159] Memory required for data: 578530816
I1219 08:16:11.582818 29915 layer_factory.hpp:77] Creating layer inception_4c/5x5_BatchNorm
I1219 08:16:11.582823 29915 net.cpp:94] Creating Layer inception_4c/5x5_BatchNorm
I1219 08:16:11.582829 29915 net.cpp:435] inception_4c/5x5_BatchNorm <- inception_4c/5x5_raw
I1219 08:16:11.582836 29915 net.cpp:409] inception_4c/5x5_BatchNorm -> inception_4c/5x5
I1219 08:16:11.583250 29915 net.cpp:144] Setting up inception_4c/5x5_BatchNorm
I1219 08:16:11.583254 29915 net.cpp:151] Top shape: 1 64 30 60 (115200)
I1219 08:16:11.583257 29915 net.cpp:159] Memory required for data: 578991616
I1219 08:16:11.583266 29915 layer_factory.hpp:77] Creating layer inception_4c/relu_5x5
I1219 08:16:11.583271 29915 net.cpp:94] Creating Layer inception_4c/relu_5x5
I1219 08:16:11.583273 29915 net.cpp:435] inception_4c/relu_5x5 <- inception_4c/5x5
I1219 08:16:11.583277 29915 net.cpp:396] inception_4c/relu_5x5 -> inception_4c/5x5 (in-place)
I1219 08:16:11.583282 29915 net.cpp:144] Setting up inception_4c/relu_5x5
I1219 08:16:11.583284 29915 net.cpp:151] Top shape: 1 64 30 60 (115200)
I1219 08:16:11.583288 29915 net.cpp:159] Memory required for data: 579452416
I1219 08:16:11.583290 29915 layer_factory.hpp:77] Creating layer inception_4c/pool
I1219 08:16:11.583295 29915 net.cpp:94] Creating Layer inception_4c/pool
I1219 08:16:11.583298 29915 net.cpp:435] inception_4c/pool <- inception_4b/output_inception_4b/output_0_split_3
I1219 08:16:11.583303 29915 net.cpp:409] inception_4c/pool -> inception_4c/pool
I1219 08:16:11.583331 29915 net.cpp:144] Setting up inception_4c/pool
I1219 08:16:11.583335 29915 net.cpp:151] Top shape: 1 512 30 60 (921600)
I1219 08:16:11.583338 29915 net.cpp:159] Memory required for data: 583138816
I1219 08:16:11.583340 29915 layer_factory.hpp:77] Creating layer inception_4c/pool_proj
I1219 08:16:11.583346 29915 net.cpp:94] Creating Layer inception_4c/pool_proj
I1219 08:16:11.583349 29915 net.cpp:435] inception_4c/pool_proj <- inception_4c/pool
I1219 08:16:11.583353 29915 net.cpp:409] inception_4c/pool_proj -> inception_4c/pool_proj_raw
I1219 08:16:11.583712 29915 net.cpp:144] Setting up inception_4c/pool_proj
I1219 08:16:11.583719 29915 net.cpp:151] Top shape: 1 64 30 60 (115200)
I1219 08:16:11.583724 29915 net.cpp:159] Memory required for data: 583599616
I1219 08:16:11.583732 29915 layer_factory.hpp:77] Creating layer inception_4c/pool_proj_BatchNorm
I1219 08:16:11.583741 29915 net.cpp:94] Creating Layer inception_4c/pool_proj_BatchNorm
I1219 08:16:11.583745 29915 net.cpp:435] inception_4c/pool_proj_BatchNorm <- inception_4c/pool_proj_raw
I1219 08:16:11.583750 29915 net.cpp:409] inception_4c/pool_proj_BatchNorm -> inception_4c/pool_proj
I1219 08:16:11.584156 29915 net.cpp:144] Setting up inception_4c/pool_proj_BatchNorm
I1219 08:16:11.584161 29915 net.cpp:151] Top shape: 1 64 30 60 (115200)
I1219 08:16:11.584164 29915 net.cpp:159] Memory required for data: 584060416
I1219 08:16:11.584172 29915 layer_factory.hpp:77] Creating layer inception_4c/relu_pool_proj
I1219 08:16:11.584177 29915 net.cpp:94] Creating Layer inception_4c/relu_pool_proj
I1219 08:16:11.584180 29915 net.cpp:435] inception_4c/relu_pool_proj <- inception_4c/pool_proj
I1219 08:16:11.584184 29915 net.cpp:396] inception_4c/relu_pool_proj -> inception_4c/pool_proj (in-place)
I1219 08:16:11.584189 29915 net.cpp:144] Setting up inception_4c/relu_pool_proj
I1219 08:16:11.584192 29915 net.cpp:151] Top shape: 1 64 30 60 (115200)
I1219 08:16:11.584197 29915 net.cpp:159] Memory required for data: 584521216
I1219 08:16:11.584198 29915 layer_factory.hpp:77] Creating layer inception_4c/output
I1219 08:16:11.584203 29915 net.cpp:94] Creating Layer inception_4c/output
I1219 08:16:11.584205 29915 net.cpp:435] inception_4c/output <- inception_4c/1x1
I1219 08:16:11.584209 29915 net.cpp:435] inception_4c/output <- inception_4c/3x3
I1219 08:16:11.584213 29915 net.cpp:435] inception_4c/output <- inception_4c/5x5
I1219 08:16:11.584215 29915 net.cpp:435] inception_4c/output <- inception_4c/pool_proj
I1219 08:16:11.584219 29915 net.cpp:409] inception_4c/output -> inception_4c/output
I1219 08:16:11.584240 29915 net.cpp:144] Setting up inception_4c/output
I1219 08:16:11.584244 29915 net.cpp:151] Top shape: 1 512 30 60 (921600)
I1219 08:16:11.584247 29915 net.cpp:159] Memory required for data: 588207616
I1219 08:16:11.584249 29915 layer_factory.hpp:77] Creating layer inception_4c/output_inception_4c/output_0_split
I1219 08:16:11.584254 29915 net.cpp:94] Creating Layer inception_4c/output_inception_4c/output_0_split
I1219 08:16:11.584257 29915 net.cpp:435] inception_4c/output_inception_4c/output_0_split <- inception_4c/output
I1219 08:16:11.584261 29915 net.cpp:409] inception_4c/output_inception_4c/output_0_split -> inception_4c/output_inception_4c/output_0_split_0
I1219 08:16:11.584267 29915 net.cpp:409] inception_4c/output_inception_4c/output_0_split -> inception_4c/output_inception_4c/output_0_split_1
I1219 08:16:11.584271 29915 net.cpp:409] inception_4c/output_inception_4c/output_0_split -> inception_4c/output_inception_4c/output_0_split_2
I1219 08:16:11.584276 29915 net.cpp:409] inception_4c/output_inception_4c/output_0_split -> inception_4c/output_inception_4c/output_0_split_3
I1219 08:16:11.584318 29915 net.cpp:144] Setting up inception_4c/output_inception_4c/output_0_split
I1219 08:16:11.584323 29915 net.cpp:151] Top shape: 1 512 30 60 (921600)
I1219 08:16:11.584326 29915 net.cpp:151] Top shape: 1 512 30 60 (921600)
I1219 08:16:11.584329 29915 net.cpp:151] Top shape: 1 512 30 60 (921600)
I1219 08:16:11.584333 29915 net.cpp:151] Top shape: 1 512 30 60 (921600)
I1219 08:16:11.584336 29915 net.cpp:159] Memory required for data: 602953216
I1219 08:16:11.584339 29915 layer_factory.hpp:77] Creating layer inception_4d/1x1
I1219 08:16:11.584345 29915 net.cpp:94] Creating Layer inception_4d/1x1
I1219 08:16:11.584350 29915 net.cpp:435] inception_4d/1x1 <- inception_4c/output_inception_4c/output_0_split_0
I1219 08:16:11.584354 29915 net.cpp:409] inception_4d/1x1 -> inception_4d/1x1_raw
I1219 08:16:11.584839 29915 net.cpp:144] Setting up inception_4d/1x1
I1219 08:16:11.584843 29915 net.cpp:151] Top shape: 1 112 30 60 (201600)
I1219 08:16:11.584846 29915 net.cpp:159] Memory required for data: 603759616
I1219 08:16:11.584851 29915 layer_factory.hpp:77] Creating layer inception_4d/1x1_BatchNorm
I1219 08:16:11.584858 29915 net.cpp:94] Creating Layer inception_4d/1x1_BatchNorm
I1219 08:16:11.584863 29915 net.cpp:435] inception_4d/1x1_BatchNorm <- inception_4d/1x1_raw
I1219 08:16:11.584868 29915 net.cpp:409] inception_4d/1x1_BatchNorm -> inception_4d/1x1
I1219 08:16:11.585258 29915 net.cpp:144] Setting up inception_4d/1x1_BatchNorm
I1219 08:16:11.585263 29915 net.cpp:151] Top shape: 1 112 30 60 (201600)
I1219 08:16:11.585266 29915 net.cpp:159] Memory required for data: 604566016
I1219 08:16:11.585274 29915 layer_factory.hpp:77] Creating layer inception_4d/relu_1x1
I1219 08:16:11.585279 29915 net.cpp:94] Creating Layer inception_4d/relu_1x1
I1219 08:16:11.585283 29915 net.cpp:435] inception_4d/relu_1x1 <- inception_4d/1x1
I1219 08:16:11.585286 29915 net.cpp:396] inception_4d/relu_1x1 -> inception_4d/1x1 (in-place)
I1219 08:16:11.585291 29915 net.cpp:144] Setting up inception_4d/relu_1x1
I1219 08:16:11.585294 29915 net.cpp:151] Top shape: 1 112 30 60 (201600)
I1219 08:16:11.585297 29915 net.cpp:159] Memory required for data: 605372416
I1219 08:16:11.585300 29915 layer_factory.hpp:77] Creating layer inception_4d/3x3_reduce
I1219 08:16:11.585305 29915 net.cpp:94] Creating Layer inception_4d/3x3_reduce
I1219 08:16:11.585309 29915 net.cpp:435] inception_4d/3x3_reduce <- inception_4c/output_inception_4c/output_0_split_1
I1219 08:16:11.585314 29915 net.cpp:409] inception_4d/3x3_reduce -> inception_4d/3x3_reduce_raw
I1219 08:16:11.585896 29915 net.cpp:144] Setting up inception_4d/3x3_reduce
I1219 08:16:11.585904 29915 net.cpp:151] Top shape: 1 144 30 60 (259200)
I1219 08:16:11.585907 29915 net.cpp:159] Memory required for data: 606409216
I1219 08:16:11.585911 29915 layer_factory.hpp:77] Creating layer inception_4d/3x3_reduce_BatchNorm
I1219 08:16:11.585918 29915 net.cpp:94] Creating Layer inception_4d/3x3_reduce_BatchNorm
I1219 08:16:11.585924 29915 net.cpp:435] inception_4d/3x3_reduce_BatchNorm <- inception_4d/3x3_reduce_raw
I1219 08:16:11.585930 29915 net.cpp:409] inception_4d/3x3_reduce_BatchNorm -> inception_4d/3x3_reduce
I1219 08:16:11.586320 29915 net.cpp:144] Setting up inception_4d/3x3_reduce_BatchNorm
I1219 08:16:11.586326 29915 net.cpp:151] Top shape: 1 144 30 60 (259200)
I1219 08:16:11.586330 29915 net.cpp:159] Memory required for data: 607446016
I1219 08:16:11.586336 29915 layer_factory.hpp:77] Creating layer inception_4d/relu_3x3_reduce
I1219 08:16:11.586340 29915 net.cpp:94] Creating Layer inception_4d/relu_3x3_reduce
I1219 08:16:11.586344 29915 net.cpp:435] inception_4d/relu_3x3_reduce <- inception_4d/3x3_reduce
I1219 08:16:11.586346 29915 net.cpp:396] inception_4d/relu_3x3_reduce -> inception_4d/3x3_reduce (in-place)
I1219 08:16:11.586351 29915 net.cpp:144] Setting up inception_4d/relu_3x3_reduce
I1219 08:16:11.586354 29915 net.cpp:151] Top shape: 1 144 30 60 (259200)
I1219 08:16:11.586357 29915 net.cpp:159] Memory required for data: 608482816
I1219 08:16:11.586360 29915 layer_factory.hpp:77] Creating layer inception_4d/3x3
I1219 08:16:11.586369 29915 net.cpp:94] Creating Layer inception_4d/3x3
I1219 08:16:11.586374 29915 net.cpp:435] inception_4d/3x3 <- inception_4d/3x3_reduce
I1219 08:16:11.586380 29915 net.cpp:409] inception_4d/3x3 -> inception_4d/3x3_raw
I1219 08:16:11.590076 29915 net.cpp:144] Setting up inception_4d/3x3
I1219 08:16:11.590085 29915 net.cpp:151] Top shape: 1 288 30 60 (518400)
I1219 08:16:11.590088 29915 net.cpp:159] Memory required for data: 610556416
I1219 08:16:11.590093 29915 layer_factory.hpp:77] Creating layer inception_4d/3x3_BatchNorm
I1219 08:16:11.590098 29915 net.cpp:94] Creating Layer inception_4d/3x3_BatchNorm
I1219 08:16:11.590101 29915 net.cpp:435] inception_4d/3x3_BatchNorm <- inception_4d/3x3_raw
I1219 08:16:11.590104 29915 net.cpp:409] inception_4d/3x3_BatchNorm -> inception_4d/3x3
I1219 08:16:11.590518 29915 net.cpp:144] Setting up inception_4d/3x3_BatchNorm
I1219 08:16:11.590524 29915 net.cpp:151] Top shape: 1 288 30 60 (518400)
I1219 08:16:11.590528 29915 net.cpp:159] Memory required for data: 612630016
I1219 08:16:11.590535 29915 layer_factory.hpp:77] Creating layer inception_4d/relu_3x3
I1219 08:16:11.590539 29915 net.cpp:94] Creating Layer inception_4d/relu_3x3
I1219 08:16:11.590543 29915 net.cpp:435] inception_4d/relu_3x3 <- inception_4d/3x3
I1219 08:16:11.590546 29915 net.cpp:396] inception_4d/relu_3x3 -> inception_4d/3x3 (in-place)
I1219 08:16:11.590553 29915 net.cpp:144] Setting up inception_4d/relu_3x3
I1219 08:16:11.590556 29915 net.cpp:151] Top shape: 1 288 30 60 (518400)
I1219 08:16:11.590560 29915 net.cpp:159] Memory required for data: 614703616
I1219 08:16:11.590562 29915 layer_factory.hpp:77] Creating layer inception_4d/5x5_reduce
I1219 08:16:11.590569 29915 net.cpp:94] Creating Layer inception_4d/5x5_reduce
I1219 08:16:11.590574 29915 net.cpp:435] inception_4d/5x5_reduce <- inception_4c/output_inception_4c/output_0_split_2
I1219 08:16:11.590579 29915 net.cpp:409] inception_4d/5x5_reduce -> inception_4d/5x5_reduce_raw
I1219 08:16:11.590844 29915 net.cpp:144] Setting up inception_4d/5x5_reduce
I1219 08:16:11.590850 29915 net.cpp:151] Top shape: 1 32 30 60 (57600)
I1219 08:16:11.590853 29915 net.cpp:159] Memory required for data: 614934016
I1219 08:16:11.590857 29915 layer_factory.hpp:77] Creating layer inception_4d/5x5_reduce_BatchNorm
I1219 08:16:11.590862 29915 net.cpp:94] Creating Layer inception_4d/5x5_reduce_BatchNorm
I1219 08:16:11.590865 29915 net.cpp:435] inception_4d/5x5_reduce_BatchNorm <- inception_4d/5x5_reduce_raw
I1219 08:16:11.590870 29915 net.cpp:409] inception_4d/5x5_reduce_BatchNorm -> inception_4d/5x5_reduce
I1219 08:16:11.591269 29915 net.cpp:144] Setting up inception_4d/5x5_reduce_BatchNorm
I1219 08:16:11.591274 29915 net.cpp:151] Top shape: 1 32 30 60 (57600)
I1219 08:16:11.591277 29915 net.cpp:159] Memory required for data: 615164416
I1219 08:16:11.591296 29915 layer_factory.hpp:77] Creating layer inception_4d/relu_5x5_reduce
I1219 08:16:11.591306 29915 net.cpp:94] Creating Layer inception_4d/relu_5x5_reduce
I1219 08:16:11.591310 29915 net.cpp:435] inception_4d/relu_5x5_reduce <- inception_4d/5x5_reduce
I1219 08:16:11.591312 29915 net.cpp:396] inception_4d/relu_5x5_reduce -> inception_4d/5x5_reduce (in-place)
I1219 08:16:11.591317 29915 net.cpp:144] Setting up inception_4d/relu_5x5_reduce
I1219 08:16:11.591320 29915 net.cpp:151] Top shape: 1 32 30 60 (57600)
I1219 08:16:11.591323 29915 net.cpp:159] Memory required for data: 615394816
I1219 08:16:11.591326 29915 layer_factory.hpp:77] Creating layer inception_4d/5x5
I1219 08:16:11.591331 29915 net.cpp:94] Creating Layer inception_4d/5x5
I1219 08:16:11.591334 29915 net.cpp:435] inception_4d/5x5 <- inception_4d/5x5_reduce
I1219 08:16:11.591337 29915 net.cpp:409] inception_4d/5x5 -> inception_4d/5x5_raw
I1219 08:16:11.591833 29915 net.cpp:144] Setting up inception_4d/5x5
I1219 08:16:11.591840 29915 net.cpp:151] Top shape: 1 64 30 60 (115200)
I1219 08:16:11.591843 29915 net.cpp:159] Memory required for data: 615855616
I1219 08:16:11.591848 29915 layer_factory.hpp:77] Creating layer inception_4d/5x5_BatchNorm
I1219 08:16:11.591853 29915 net.cpp:94] Creating Layer inception_4d/5x5_BatchNorm
I1219 08:16:11.591856 29915 net.cpp:435] inception_4d/5x5_BatchNorm <- inception_4d/5x5_raw
I1219 08:16:11.591861 29915 net.cpp:409] inception_4d/5x5_BatchNorm -> inception_4d/5x5
I1219 08:16:11.592317 29915 net.cpp:144] Setting up inception_4d/5x5_BatchNorm
I1219 08:16:11.592326 29915 net.cpp:151] Top shape: 1 64 30 60 (115200)
I1219 08:16:11.592329 29915 net.cpp:159] Memory required for data: 616316416
I1219 08:16:11.592335 29915 layer_factory.hpp:77] Creating layer inception_4d/relu_5x5
I1219 08:16:11.592339 29915 net.cpp:94] Creating Layer inception_4d/relu_5x5
I1219 08:16:11.592340 29915 net.cpp:435] inception_4d/relu_5x5 <- inception_4d/5x5
I1219 08:16:11.592344 29915 net.cpp:396] inception_4d/relu_5x5 -> inception_4d/5x5 (in-place)
I1219 08:16:11.592347 29915 net.cpp:144] Setting up inception_4d/relu_5x5
I1219 08:16:11.592348 29915 net.cpp:151] Top shape: 1 64 30 60 (115200)
I1219 08:16:11.592351 29915 net.cpp:159] Memory required for data: 616777216
I1219 08:16:11.592352 29915 layer_factory.hpp:77] Creating layer inception_4d/pool
I1219 08:16:11.592356 29915 net.cpp:94] Creating Layer inception_4d/pool
I1219 08:16:11.592358 29915 net.cpp:435] inception_4d/pool <- inception_4c/output_inception_4c/output_0_split_3
I1219 08:16:11.592361 29915 net.cpp:409] inception_4d/pool -> inception_4d/pool
I1219 08:16:11.592383 29915 net.cpp:144] Setting up inception_4d/pool
I1219 08:16:11.592386 29915 net.cpp:151] Top shape: 1 512 30 60 (921600)
I1219 08:16:11.592389 29915 net.cpp:159] Memory required for data: 620463616
I1219 08:16:11.592391 29915 layer_factory.hpp:77] Creating layer inception_4d/pool_proj
I1219 08:16:11.592396 29915 net.cpp:94] Creating Layer inception_4d/pool_proj
I1219 08:16:11.592399 29915 net.cpp:435] inception_4d/pool_proj <- inception_4d/pool
I1219 08:16:11.592403 29915 net.cpp:409] inception_4d/pool_proj -> inception_4d/pool_proj_raw
I1219 08:16:11.592744 29915 net.cpp:144] Setting up inception_4d/pool_proj
I1219 08:16:11.592749 29915 net.cpp:151] Top shape: 1 64 30 60 (115200)
I1219 08:16:11.592752 29915 net.cpp:159] Memory required for data: 620924416
I1219 08:16:11.592756 29915 layer_factory.hpp:77] Creating layer inception_4d/pool_proj_BatchNorm
I1219 08:16:11.592761 29915 net.cpp:94] Creating Layer inception_4d/pool_proj_BatchNorm
I1219 08:16:11.592763 29915 net.cpp:435] inception_4d/pool_proj_BatchNorm <- inception_4d/pool_proj_raw
I1219 08:16:11.592767 29915 net.cpp:409] inception_4d/pool_proj_BatchNorm -> inception_4d/pool_proj
I1219 08:16:11.593174 29915 net.cpp:144] Setting up inception_4d/pool_proj_BatchNorm
I1219 08:16:11.593181 29915 net.cpp:151] Top shape: 1 64 30 60 (115200)
I1219 08:16:11.593185 29915 net.cpp:159] Memory required for data: 621385216
I1219 08:16:11.593191 29915 layer_factory.hpp:77] Creating layer inception_4d/relu_pool_proj
I1219 08:16:11.593195 29915 net.cpp:94] Creating Layer inception_4d/relu_pool_proj
I1219 08:16:11.593197 29915 net.cpp:435] inception_4d/relu_pool_proj <- inception_4d/pool_proj
I1219 08:16:11.593201 29915 net.cpp:396] inception_4d/relu_pool_proj -> inception_4d/pool_proj (in-place)
I1219 08:16:11.593206 29915 net.cpp:144] Setting up inception_4d/relu_pool_proj
I1219 08:16:11.593207 29915 net.cpp:151] Top shape: 1 64 30 60 (115200)
I1219 08:16:11.593211 29915 net.cpp:159] Memory required for data: 621846016
I1219 08:16:11.593214 29915 layer_factory.hpp:77] Creating layer inception_4d/output
I1219 08:16:11.593216 29915 net.cpp:94] Creating Layer inception_4d/output
I1219 08:16:11.593219 29915 net.cpp:435] inception_4d/output <- inception_4d/1x1
I1219 08:16:11.593222 29915 net.cpp:435] inception_4d/output <- inception_4d/3x3
I1219 08:16:11.593225 29915 net.cpp:435] inception_4d/output <- inception_4d/5x5
I1219 08:16:11.593227 29915 net.cpp:435] inception_4d/output <- inception_4d/pool_proj
I1219 08:16:11.593230 29915 net.cpp:409] inception_4d/output -> inception_4d/output
I1219 08:16:11.593245 29915 net.cpp:144] Setting up inception_4d/output
I1219 08:16:11.593247 29915 net.cpp:151] Top shape: 1 528 30 60 (950400)
I1219 08:16:11.593250 29915 net.cpp:159] Memory required for data: 625647616
I1219 08:16:11.593252 29915 layer_factory.hpp:77] Creating layer inception_4d/output_inception_4d/output_0_split
I1219 08:16:11.593257 29915 net.cpp:94] Creating Layer inception_4d/output_inception_4d/output_0_split
I1219 08:16:11.593259 29915 net.cpp:435] inception_4d/output_inception_4d/output_0_split <- inception_4d/output
I1219 08:16:11.593262 29915 net.cpp:409] inception_4d/output_inception_4d/output_0_split -> inception_4d/output_inception_4d/output_0_split_0
I1219 08:16:11.593266 29915 net.cpp:409] inception_4d/output_inception_4d/output_0_split -> inception_4d/output_inception_4d/output_0_split_1
I1219 08:16:11.593271 29915 net.cpp:409] inception_4d/output_inception_4d/output_0_split -> inception_4d/output_inception_4d/output_0_split_2
I1219 08:16:11.593274 29915 net.cpp:409] inception_4d/output_inception_4d/output_0_split -> inception_4d/output_inception_4d/output_0_split_3
I1219 08:16:11.593308 29915 net.cpp:144] Setting up inception_4d/output_inception_4d/output_0_split
I1219 08:16:11.593312 29915 net.cpp:151] Top shape: 1 528 30 60 (950400)
I1219 08:16:11.593314 29915 net.cpp:151] Top shape: 1 528 30 60 (950400)
I1219 08:16:11.593317 29915 net.cpp:151] Top shape: 1 528 30 60 (950400)
I1219 08:16:11.593319 29915 net.cpp:151] Top shape: 1 528 30 60 (950400)
I1219 08:16:11.593322 29915 net.cpp:159] Memory required for data: 640854016
I1219 08:16:11.593323 29915 layer_factory.hpp:77] Creating layer inception_4e/1x1
I1219 08:16:11.593329 29915 net.cpp:94] Creating Layer inception_4e/1x1
I1219 08:16:11.593331 29915 net.cpp:435] inception_4e/1x1 <- inception_4d/output_inception_4d/output_0_split_0
I1219 08:16:11.593335 29915 net.cpp:409] inception_4e/1x1 -> inception_4e/1x1_raw
I1219 08:16:11.594825 29915 net.cpp:144] Setting up inception_4e/1x1
I1219 08:16:11.594832 29915 net.cpp:151] Top shape: 1 256 30 60 (460800)
I1219 08:16:11.594835 29915 net.cpp:159] Memory required for data: 642697216
I1219 08:16:11.594839 29915 layer_factory.hpp:77] Creating layer inception_4e/1x1_BatchNorm
I1219 08:16:11.594844 29915 net.cpp:94] Creating Layer inception_4e/1x1_BatchNorm
I1219 08:16:11.594846 29915 net.cpp:435] inception_4e/1x1_BatchNorm <- inception_4e/1x1_raw
I1219 08:16:11.594849 29915 net.cpp:409] inception_4e/1x1_BatchNorm -> inception_4e/1x1
I1219 08:16:11.595214 29915 net.cpp:144] Setting up inception_4e/1x1_BatchNorm
I1219 08:16:11.595221 29915 net.cpp:151] Top shape: 1 256 30 60 (460800)
I1219 08:16:11.595223 29915 net.cpp:159] Memory required for data: 644540416
I1219 08:16:11.595229 29915 layer_factory.hpp:77] Creating layer inception_4e/relu_1x1
I1219 08:16:11.595233 29915 net.cpp:94] Creating Layer inception_4e/relu_1x1
I1219 08:16:11.595237 29915 net.cpp:435] inception_4e/relu_1x1 <- inception_4e/1x1
I1219 08:16:11.595238 29915 net.cpp:396] inception_4e/relu_1x1 -> inception_4e/1x1 (in-place)
I1219 08:16:11.595242 29915 net.cpp:144] Setting up inception_4e/relu_1x1
I1219 08:16:11.595244 29915 net.cpp:151] Top shape: 1 256 30 60 (460800)
I1219 08:16:11.595248 29915 net.cpp:159] Memory required for data: 646383616
I1219 08:16:11.595250 29915 layer_factory.hpp:77] Creating layer inception_4e/3x3_reduce
I1219 08:16:11.595255 29915 net.cpp:94] Creating Layer inception_4e/3x3_reduce
I1219 08:16:11.595257 29915 net.cpp:435] inception_4e/3x3_reduce <- inception_4d/output_inception_4d/output_0_split_1
I1219 08:16:11.595260 29915 net.cpp:409] inception_4e/3x3_reduce -> inception_4e/3x3_reduce_raw
I1219 08:16:11.595887 29915 net.cpp:144] Setting up inception_4e/3x3_reduce
I1219 08:16:11.595893 29915 net.cpp:151] Top shape: 1 160 30 60 (288000)
I1219 08:16:11.595897 29915 net.cpp:159] Memory required for data: 647535616
I1219 08:16:11.595901 29915 layer_factory.hpp:77] Creating layer inception_4e/3x3_reduce_BatchNorm
I1219 08:16:11.595906 29915 net.cpp:94] Creating Layer inception_4e/3x3_reduce_BatchNorm
I1219 08:16:11.595909 29915 net.cpp:435] inception_4e/3x3_reduce_BatchNorm <- inception_4e/3x3_reduce_raw
I1219 08:16:11.595913 29915 net.cpp:409] inception_4e/3x3_reduce_BatchNorm -> inception_4e/3x3_reduce
I1219 08:16:11.596305 29915 net.cpp:144] Setting up inception_4e/3x3_reduce_BatchNorm
I1219 08:16:11.596312 29915 net.cpp:151] Top shape: 1 160 30 60 (288000)
I1219 08:16:11.596314 29915 net.cpp:159] Memory required for data: 648687616
I1219 08:16:11.596319 29915 layer_factory.hpp:77] Creating layer inception_4e/relu_3x3_reduce
I1219 08:16:11.596323 29915 net.cpp:94] Creating Layer inception_4e/relu_3x3_reduce
I1219 08:16:11.596325 29915 net.cpp:435] inception_4e/relu_3x3_reduce <- inception_4e/3x3_reduce
I1219 08:16:11.596328 29915 net.cpp:396] inception_4e/relu_3x3_reduce -> inception_4e/3x3_reduce (in-place)
I1219 08:16:11.596333 29915 net.cpp:144] Setting up inception_4e/relu_3x3_reduce
I1219 08:16:11.596334 29915 net.cpp:151] Top shape: 1 160 30 60 (288000)
I1219 08:16:11.596336 29915 net.cpp:159] Memory required for data: 649839616
I1219 08:16:11.596338 29915 layer_factory.hpp:77] Creating layer inception_4e/3x3
I1219 08:16:11.596343 29915 net.cpp:94] Creating Layer inception_4e/3x3
I1219 08:16:11.596345 29915 net.cpp:435] inception_4e/3x3 <- inception_4e/3x3_reduce
I1219 08:16:11.596349 29915 net.cpp:409] inception_4e/3x3 -> inception_4e/3x3_raw
I1219 08:16:11.601284 29915 net.cpp:144] Setting up inception_4e/3x3
I1219 08:16:11.601298 29915 net.cpp:151] Top shape: 1 320 30 60 (576000)
I1219 08:16:11.601305 29915 net.cpp:159] Memory required for data: 652143616
I1219 08:16:11.601312 29915 layer_factory.hpp:77] Creating layer inception_4e/3x3_BatchNorm
I1219 08:16:11.601325 29915 net.cpp:94] Creating Layer inception_4e/3x3_BatchNorm
I1219 08:16:11.601330 29915 net.cpp:435] inception_4e/3x3_BatchNorm <- inception_4e/3x3_raw
I1219 08:16:11.601336 29915 net.cpp:409] inception_4e/3x3_BatchNorm -> inception_4e/3x3
I1219 08:16:11.601769 29915 net.cpp:144] Setting up inception_4e/3x3_BatchNorm
I1219 08:16:11.601774 29915 net.cpp:151] Top shape: 1 320 30 60 (576000)
I1219 08:16:11.601778 29915 net.cpp:159] Memory required for data: 654447616
I1219 08:16:11.601783 29915 layer_factory.hpp:77] Creating layer inception_4e/relu_3x3
I1219 08:16:11.601786 29915 net.cpp:94] Creating Layer inception_4e/relu_3x3
I1219 08:16:11.601788 29915 net.cpp:435] inception_4e/relu_3x3 <- inception_4e/3x3
I1219 08:16:11.601790 29915 net.cpp:396] inception_4e/relu_3x3 -> inception_4e/3x3 (in-place)
I1219 08:16:11.601795 29915 net.cpp:144] Setting up inception_4e/relu_3x3
I1219 08:16:11.601797 29915 net.cpp:151] Top shape: 1 320 30 60 (576000)
I1219 08:16:11.601799 29915 net.cpp:159] Memory required for data: 656751616
I1219 08:16:11.601801 29915 layer_factory.hpp:77] Creating layer inception_4e/5x5_reduce
I1219 08:16:11.601806 29915 net.cpp:94] Creating Layer inception_4e/5x5_reduce
I1219 08:16:11.601809 29915 net.cpp:435] inception_4e/5x5_reduce <- inception_4d/output_inception_4d/output_0_split_2
I1219 08:16:11.601814 29915 net.cpp:409] inception_4e/5x5_reduce -> inception_4e/5x5_reduce_raw
I1219 08:16:11.602079 29915 net.cpp:144] Setting up inception_4e/5x5_reduce
I1219 08:16:11.602084 29915 net.cpp:151] Top shape: 1 32 30 60 (57600)
I1219 08:16:11.602087 29915 net.cpp:159] Memory required for data: 656982016
I1219 08:16:11.602092 29915 layer_factory.hpp:77] Creating layer inception_4e/5x5_reduce_BatchNorm
I1219 08:16:11.602097 29915 net.cpp:94] Creating Layer inception_4e/5x5_reduce_BatchNorm
I1219 08:16:11.602098 29915 net.cpp:435] inception_4e/5x5_reduce_BatchNorm <- inception_4e/5x5_reduce_raw
I1219 08:16:11.602102 29915 net.cpp:409] inception_4e/5x5_reduce_BatchNorm -> inception_4e/5x5_reduce
I1219 08:16:11.602514 29915 net.cpp:144] Setting up inception_4e/5x5_reduce_BatchNorm
I1219 08:16:11.602519 29915 net.cpp:151] Top shape: 1 32 30 60 (57600)
I1219 08:16:11.602521 29915 net.cpp:159] Memory required for data: 657212416
I1219 08:16:11.602530 29915 layer_factory.hpp:77] Creating layer inception_4e/relu_5x5_reduce
I1219 08:16:11.602532 29915 net.cpp:94] Creating Layer inception_4e/relu_5x5_reduce
I1219 08:16:11.602535 29915 net.cpp:435] inception_4e/relu_5x5_reduce <- inception_4e/5x5_reduce
I1219 08:16:11.602537 29915 net.cpp:396] inception_4e/relu_5x5_reduce -> inception_4e/5x5_reduce (in-place)
I1219 08:16:11.602541 29915 net.cpp:144] Setting up inception_4e/relu_5x5_reduce
I1219 08:16:11.602543 29915 net.cpp:151] Top shape: 1 32 30 60 (57600)
I1219 08:16:11.602545 29915 net.cpp:159] Memory required for data: 657442816
I1219 08:16:11.602547 29915 layer_factory.hpp:77] Creating layer inception_4e/5x5
I1219 08:16:11.602552 29915 net.cpp:94] Creating Layer inception_4e/5x5
I1219 08:16:11.602555 29915 net.cpp:435] inception_4e/5x5 <- inception_4e/5x5_reduce
I1219 08:16:11.602557 29915 net.cpp:409] inception_4e/5x5 -> inception_4e/5x5_raw
I1219 08:16:11.603293 29915 net.cpp:144] Setting up inception_4e/5x5
I1219 08:16:11.603298 29915 net.cpp:151] Top shape: 1 128 30 60 (230400)
I1219 08:16:11.603302 29915 net.cpp:159] Memory required for data: 658364416
I1219 08:16:11.603304 29915 layer_factory.hpp:77] Creating layer inception_4e/5x5_BatchNorm
I1219 08:16:11.603308 29915 net.cpp:94] Creating Layer inception_4e/5x5_BatchNorm
I1219 08:16:11.603310 29915 net.cpp:435] inception_4e/5x5_BatchNorm <- inception_4e/5x5_raw
I1219 08:16:11.603313 29915 net.cpp:409] inception_4e/5x5_BatchNorm -> inception_4e/5x5
I1219 08:16:11.603652 29915 net.cpp:144] Setting up inception_4e/5x5_BatchNorm
I1219 08:16:11.603655 29915 net.cpp:151] Top shape: 1 128 30 60 (230400)
I1219 08:16:11.603658 29915 net.cpp:159] Memory required for data: 659286016
I1219 08:16:11.603663 29915 layer_factory.hpp:77] Creating layer inception_4e/relu_5x5
I1219 08:16:11.603667 29915 net.cpp:94] Creating Layer inception_4e/relu_5x5
I1219 08:16:11.603668 29915 net.cpp:435] inception_4e/relu_5x5 <- inception_4e/5x5
I1219 08:16:11.603670 29915 net.cpp:396] inception_4e/relu_5x5 -> inception_4e/5x5 (in-place)
I1219 08:16:11.603674 29915 net.cpp:144] Setting up inception_4e/relu_5x5
I1219 08:16:11.603675 29915 net.cpp:151] Top shape: 1 128 30 60 (230400)
I1219 08:16:11.603678 29915 net.cpp:159] Memory required for data: 660207616
I1219 08:16:11.603679 29915 layer_factory.hpp:77] Creating layer inception_4e/pool
I1219 08:16:11.603683 29915 net.cpp:94] Creating Layer inception_4e/pool
I1219 08:16:11.603685 29915 net.cpp:435] inception_4e/pool <- inception_4d/output_inception_4d/output_0_split_3
I1219 08:16:11.603688 29915 net.cpp:409] inception_4e/pool -> inception_4e/pool
I1219 08:16:11.603710 29915 net.cpp:144] Setting up inception_4e/pool
I1219 08:16:11.603713 29915 net.cpp:151] Top shape: 1 528 30 60 (950400)
I1219 08:16:11.603715 29915 net.cpp:159] Memory required for data: 664009216
I1219 08:16:11.603718 29915 layer_factory.hpp:77] Creating layer inception_4e/pool_proj
I1219 08:16:11.603721 29915 net.cpp:94] Creating Layer inception_4e/pool_proj
I1219 08:16:11.603724 29915 net.cpp:435] inception_4e/pool_proj <- inception_4e/pool
I1219 08:16:11.603727 29915 net.cpp:409] inception_4e/pool_proj -> inception_4e/pool_proj_raw
I1219 08:16:11.604789 29915 net.cpp:144] Setting up inception_4e/pool_proj
I1219 08:16:11.604796 29915 net.cpp:151] Top shape: 1 128 30 60 (230400)
I1219 08:16:11.604799 29915 net.cpp:159] Memory required for data: 664930816
I1219 08:16:11.604804 29915 layer_factory.hpp:77] Creating layer inception_4e/pool_proj_BatchNorm
I1219 08:16:11.604807 29915 net.cpp:94] Creating Layer inception_4e/pool_proj_BatchNorm
I1219 08:16:11.604809 29915 net.cpp:435] inception_4e/pool_proj_BatchNorm <- inception_4e/pool_proj_raw
I1219 08:16:11.604813 29915 net.cpp:409] inception_4e/pool_proj_BatchNorm -> inception_4e/pool_proj
I1219 08:16:11.605159 29915 net.cpp:144] Setting up inception_4e/pool_proj_BatchNorm
I1219 08:16:11.605162 29915 net.cpp:151] Top shape: 1 128 30 60 (230400)
I1219 08:16:11.605165 29915 net.cpp:159] Memory required for data: 665852416
I1219 08:16:11.605171 29915 layer_factory.hpp:77] Creating layer inception_4e/relu_pool_proj
I1219 08:16:11.605175 29915 net.cpp:94] Creating Layer inception_4e/relu_pool_proj
I1219 08:16:11.605176 29915 net.cpp:435] inception_4e/relu_pool_proj <- inception_4e/pool_proj
I1219 08:16:11.605180 29915 net.cpp:396] inception_4e/relu_pool_proj -> inception_4e/pool_proj (in-place)
I1219 08:16:11.605183 29915 net.cpp:144] Setting up inception_4e/relu_pool_proj
I1219 08:16:11.605185 29915 net.cpp:151] Top shape: 1 128 30 60 (230400)
I1219 08:16:11.605188 29915 net.cpp:159] Memory required for data: 666774016
I1219 08:16:11.605190 29915 layer_factory.hpp:77] Creating layer inception_4e/output
I1219 08:16:11.605195 29915 net.cpp:94] Creating Layer inception_4e/output
I1219 08:16:11.605196 29915 net.cpp:435] inception_4e/output <- inception_4e/1x1
I1219 08:16:11.605198 29915 net.cpp:435] inception_4e/output <- inception_4e/3x3
I1219 08:16:11.605201 29915 net.cpp:435] inception_4e/output <- inception_4e/5x5
I1219 08:16:11.605203 29915 net.cpp:435] inception_4e/output <- inception_4e/pool_proj
I1219 08:16:11.605207 29915 net.cpp:409] inception_4e/output -> inception_4e/output
I1219 08:16:11.605222 29915 net.cpp:144] Setting up inception_4e/output
I1219 08:16:11.605224 29915 net.cpp:151] Top shape: 1 832 30 60 (1497600)
I1219 08:16:11.605227 29915 net.cpp:159] Memory required for data: 672764416
I1219 08:16:11.605229 29915 layer_factory.hpp:77] Creating layer inception_4e/output_inception_4e/output_0_split
I1219 08:16:11.605232 29915 net.cpp:94] Creating Layer inception_4e/output_inception_4e/output_0_split
I1219 08:16:11.605235 29915 net.cpp:435] inception_4e/output_inception_4e/output_0_split <- inception_4e/output
I1219 08:16:11.605238 29915 net.cpp:409] inception_4e/output_inception_4e/output_0_split -> inception_4e/output_inception_4e/output_0_split_0
I1219 08:16:11.605242 29915 net.cpp:409] inception_4e/output_inception_4e/output_0_split -> inception_4e/output_inception_4e/output_0_split_1
I1219 08:16:11.605262 29915 net.cpp:144] Setting up inception_4e/output_inception_4e/output_0_split
I1219 08:16:11.605268 29915 net.cpp:151] Top shape: 1 832 30 60 (1497600)
I1219 08:16:11.605269 29915 net.cpp:151] Top shape: 1 832 30 60 (1497600)
I1219 08:16:11.605273 29915 net.cpp:159] Memory required for data: 684745216
I1219 08:16:11.605274 29915 layer_factory.hpp:77] Creating layer pool4/3x3_s2
I1219 08:16:11.605278 29915 net.cpp:94] Creating Layer pool4/3x3_s2
I1219 08:16:11.605280 29915 net.cpp:435] pool4/3x3_s2 <- inception_4e/output_inception_4e/output_0_split_0
I1219 08:16:11.605284 29915 net.cpp:409] pool4/3x3_s2 -> pool4/3x3_s2
I1219 08:16:11.605305 29915 net.cpp:144] Setting up pool4/3x3_s2
I1219 08:16:11.605309 29915 net.cpp:151] Top shape: 1 832 15 30 (374400)
I1219 08:16:11.605310 29915 net.cpp:159] Memory required for data: 686242816
I1219 08:16:11.605312 29915 layer_factory.hpp:77] Creating layer pool4/3x3_s2_pool4/3x3_s2_0_split
I1219 08:16:11.605315 29915 net.cpp:94] Creating Layer pool4/3x3_s2_pool4/3x3_s2_0_split
I1219 08:16:11.605316 29915 net.cpp:435] pool4/3x3_s2_pool4/3x3_s2_0_split <- pool4/3x3_s2
I1219 08:16:11.605320 29915 net.cpp:409] pool4/3x3_s2_pool4/3x3_s2_0_split -> pool4/3x3_s2_pool4/3x3_s2_0_split_0
I1219 08:16:11.605324 29915 net.cpp:409] pool4/3x3_s2_pool4/3x3_s2_0_split -> pool4/3x3_s2_pool4/3x3_s2_0_split_1
I1219 08:16:11.605326 29915 net.cpp:409] pool4/3x3_s2_pool4/3x3_s2_0_split -> pool4/3x3_s2_pool4/3x3_s2_0_split_2
I1219 08:16:11.605331 29915 net.cpp:409] pool4/3x3_s2_pool4/3x3_s2_0_split -> pool4/3x3_s2_pool4/3x3_s2_0_split_3
I1219 08:16:11.605365 29915 net.cpp:144] Setting up pool4/3x3_s2_pool4/3x3_s2_0_split
I1219 08:16:11.605367 29915 net.cpp:151] Top shape: 1 832 15 30 (374400)
I1219 08:16:11.605370 29915 net.cpp:151] Top shape: 1 832 15 30 (374400)
I1219 08:16:11.605372 29915 net.cpp:151] Top shape: 1 832 15 30 (374400)
I1219 08:16:11.605376 29915 net.cpp:151] Top shape: 1 832 15 30 (374400)
I1219 08:16:11.605378 29915 net.cpp:159] Memory required for data: 692233216
I1219 08:16:11.605381 29915 layer_factory.hpp:77] Creating layer inception_5a/1x1
I1219 08:16:11.605386 29915 net.cpp:94] Creating Layer inception_5a/1x1
I1219 08:16:11.605389 29915 net.cpp:435] inception_5a/1x1 <- pool4/3x3_s2_pool4/3x3_s2_0_split_0
I1219 08:16:11.605392 29915 net.cpp:409] inception_5a/1x1 -> inception_5a/1x1_raw
I1219 08:16:11.607542 29915 net.cpp:144] Setting up inception_5a/1x1
I1219 08:16:11.607556 29915 net.cpp:151] Top shape: 1 256 15 30 (115200)
I1219 08:16:11.607563 29915 net.cpp:159] Memory required for data: 692694016
I1219 08:16:11.607571 29915 layer_factory.hpp:77] Creating layer inception_5a/1x1_BatchNorm
I1219 08:16:11.607580 29915 net.cpp:94] Creating Layer inception_5a/1x1_BatchNorm
I1219 08:16:11.607585 29915 net.cpp:435] inception_5a/1x1_BatchNorm <- inception_5a/1x1_raw
I1219 08:16:11.607591 29915 net.cpp:409] inception_5a/1x1_BatchNorm -> inception_5a/1x1
I1219 08:16:11.608275 29915 net.cpp:144] Setting up inception_5a/1x1_BatchNorm
I1219 08:16:11.608283 29915 net.cpp:151] Top shape: 1 256 15 30 (115200)
I1219 08:16:11.608289 29915 net.cpp:159] Memory required for data: 693154816
I1219 08:16:11.608300 29915 layer_factory.hpp:77] Creating layer inception_5a/relu_1x1
I1219 08:16:11.608305 29915 net.cpp:94] Creating Layer inception_5a/relu_1x1
I1219 08:16:11.608309 29915 net.cpp:435] inception_5a/relu_1x1 <- inception_5a/1x1
I1219 08:16:11.608314 29915 net.cpp:396] inception_5a/relu_1x1 -> inception_5a/1x1 (in-place)
I1219 08:16:11.608321 29915 net.cpp:144] Setting up inception_5a/relu_1x1
I1219 08:16:11.608325 29915 net.cpp:151] Top shape: 1 256 15 30 (115200)
I1219 08:16:11.608328 29915 net.cpp:159] Memory required for data: 693615616
I1219 08:16:11.608332 29915 layer_factory.hpp:77] Creating layer inception_5a/3x3_reduce
I1219 08:16:11.608340 29915 net.cpp:94] Creating Layer inception_5a/3x3_reduce
I1219 08:16:11.608343 29915 net.cpp:435] inception_5a/3x3_reduce <- pool4/3x3_s2_pool4/3x3_s2_0_split_1
I1219 08:16:11.608350 29915 net.cpp:409] inception_5a/3x3_reduce -> inception_5a/3x3_reduce_raw
I1219 08:16:11.610062 29915 net.cpp:144] Setting up inception_5a/3x3_reduce
I1219 08:16:11.610070 29915 net.cpp:151] Top shape: 1 160 15 30 (72000)
I1219 08:16:11.610075 29915 net.cpp:159] Memory required for data: 693903616
I1219 08:16:11.610081 29915 layer_factory.hpp:77] Creating layer inception_5a/3x3_reduce_BatchNorm
I1219 08:16:11.610090 29915 net.cpp:94] Creating Layer inception_5a/3x3_reduce_BatchNorm
I1219 08:16:11.610095 29915 net.cpp:435] inception_5a/3x3_reduce_BatchNorm <- inception_5a/3x3_reduce_raw
I1219 08:16:11.610105 29915 net.cpp:409] inception_5a/3x3_reduce_BatchNorm -> inception_5a/3x3_reduce
I1219 08:16:11.610889 29915 net.cpp:144] Setting up inception_5a/3x3_reduce_BatchNorm
I1219 08:16:11.610899 29915 net.cpp:151] Top shape: 1 160 15 30 (72000)
I1219 08:16:11.610905 29915 net.cpp:159] Memory required for data: 694191616
I1219 08:16:11.610915 29915 layer_factory.hpp:77] Creating layer inception_5a/relu_3x3_reduce
I1219 08:16:11.610921 29915 net.cpp:94] Creating Layer inception_5a/relu_3x3_reduce
I1219 08:16:11.610925 29915 net.cpp:435] inception_5a/relu_3x3_reduce <- inception_5a/3x3_reduce
I1219 08:16:11.610930 29915 net.cpp:396] inception_5a/relu_3x3_reduce -> inception_5a/3x3_reduce (in-place)
I1219 08:16:11.610937 29915 net.cpp:144] Setting up inception_5a/relu_3x3_reduce
I1219 08:16:11.610940 29915 net.cpp:151] Top shape: 1 160 15 30 (72000)
I1219 08:16:11.610945 29915 net.cpp:159] Memory required for data: 694479616
I1219 08:16:11.610949 29915 layer_factory.hpp:77] Creating layer inception_5a/3x3
I1219 08:16:11.610955 29915 net.cpp:94] Creating Layer inception_5a/3x3
I1219 08:16:11.610960 29915 net.cpp:435] inception_5a/3x3 <- inception_5a/3x3_reduce
I1219 08:16:11.610965 29915 net.cpp:409] inception_5a/3x3 -> inception_5a/3x3_raw
I1219 08:16:11.617471 29915 net.cpp:144] Setting up inception_5a/3x3
I1219 08:16:11.617486 29915 net.cpp:151] Top shape: 1 320 15 30 (144000)
I1219 08:16:11.617491 29915 net.cpp:159] Memory required for data: 695055616
I1219 08:16:11.617498 29915 layer_factory.hpp:77] Creating layer inception_5a/3x3_BatchNorm
I1219 08:16:11.617507 29915 net.cpp:94] Creating Layer inception_5a/3x3_BatchNorm
I1219 08:16:11.617511 29915 net.cpp:435] inception_5a/3x3_BatchNorm <- inception_5a/3x3_raw
I1219 08:16:11.617517 29915 net.cpp:409] inception_5a/3x3_BatchNorm -> inception_5a/3x3
I1219 08:16:11.618211 29915 net.cpp:144] Setting up inception_5a/3x3_BatchNorm
I1219 08:16:11.618218 29915 net.cpp:151] Top shape: 1 320 15 30 (144000)
I1219 08:16:11.618224 29915 net.cpp:159] Memory required for data: 695631616
I1219 08:16:11.618233 29915 layer_factory.hpp:77] Creating layer inception_5a/relu_3x3
I1219 08:16:11.618238 29915 net.cpp:94] Creating Layer inception_5a/relu_3x3
I1219 08:16:11.618242 29915 net.cpp:435] inception_5a/relu_3x3 <- inception_5a/3x3
I1219 08:16:11.618247 29915 net.cpp:396] inception_5a/relu_3x3 -> inception_5a/3x3 (in-place)
I1219 08:16:11.618252 29915 net.cpp:144] Setting up inception_5a/relu_3x3
I1219 08:16:11.618255 29915 net.cpp:151] Top shape: 1 320 15 30 (144000)
I1219 08:16:11.618259 29915 net.cpp:159] Memory required for data: 696207616
I1219 08:16:11.618263 29915 layer_factory.hpp:77] Creating layer inception_5a/5x5_reduce
I1219 08:16:11.618269 29915 net.cpp:94] Creating Layer inception_5a/5x5_reduce
I1219 08:16:11.618273 29915 net.cpp:435] inception_5a/5x5_reduce <- pool4/3x3_s2_pool4/3x3_s2_0_split_2
I1219 08:16:11.618278 29915 net.cpp:409] inception_5a/5x5_reduce -> inception_5a/5x5_reduce_raw
I1219 08:16:11.618829 29915 net.cpp:144] Setting up inception_5a/5x5_reduce
I1219 08:16:11.618837 29915 net.cpp:151] Top shape: 1 32 15 30 (14400)
I1219 08:16:11.618841 29915 net.cpp:159] Memory required for data: 696265216
I1219 08:16:11.618847 29915 layer_factory.hpp:77] Creating layer inception_5a/5x5_reduce_BatchNorm
I1219 08:16:11.618854 29915 net.cpp:94] Creating Layer inception_5a/5x5_reduce_BatchNorm
I1219 08:16:11.618858 29915 net.cpp:435] inception_5a/5x5_reduce_BatchNorm <- inception_5a/5x5_reduce_raw
I1219 08:16:11.618863 29915 net.cpp:409] inception_5a/5x5_reduce_BatchNorm -> inception_5a/5x5_reduce
I1219 08:16:11.619547 29915 net.cpp:144] Setting up inception_5a/5x5_reduce_BatchNorm
I1219 08:16:11.619554 29915 net.cpp:151] Top shape: 1 32 15 30 (14400)
I1219 08:16:11.619560 29915 net.cpp:159] Memory required for data: 696322816
I1219 08:16:11.619570 29915 layer_factory.hpp:77] Creating layer inception_5a/relu_5x5_reduce
I1219 08:16:11.619575 29915 net.cpp:94] Creating Layer inception_5a/relu_5x5_reduce
I1219 08:16:11.619578 29915 net.cpp:435] inception_5a/relu_5x5_reduce <- inception_5a/5x5_reduce
I1219 08:16:11.619582 29915 net.cpp:396] inception_5a/relu_5x5_reduce -> inception_5a/5x5_reduce (in-place)
I1219 08:16:11.619588 29915 net.cpp:144] Setting up inception_5a/relu_5x5_reduce
I1219 08:16:11.619590 29915 net.cpp:151] Top shape: 1 32 15 30 (14400)
I1219 08:16:11.619594 29915 net.cpp:159] Memory required for data: 696380416
I1219 08:16:11.619597 29915 layer_factory.hpp:77] Creating layer inception_5a/5x5
I1219 08:16:11.619604 29915 net.cpp:94] Creating Layer inception_5a/5x5
I1219 08:16:11.619607 29915 net.cpp:435] inception_5a/5x5 <- inception_5a/5x5_reduce
I1219 08:16:11.619612 29915 net.cpp:409] inception_5a/5x5 -> inception_5a/5x5_raw
I1219 08:16:11.621455 29915 net.cpp:144] Setting up inception_5a/5x5
I1219 08:16:11.621464 29915 net.cpp:151] Top shape: 1 128 15 30 (57600)
I1219 08:16:11.621469 29915 net.cpp:159] Memory required for data: 696610816
I1219 08:16:11.621475 29915 layer_factory.hpp:77] Creating layer inception_5a/5x5_BatchNorm
I1219 08:16:11.621484 29915 net.cpp:94] Creating Layer inception_5a/5x5_BatchNorm
I1219 08:16:11.621488 29915 net.cpp:435] inception_5a/5x5_BatchNorm <- inception_5a/5x5_raw
I1219 08:16:11.621495 29915 net.cpp:409] inception_5a/5x5_BatchNorm -> inception_5a/5x5
I1219 08:16:11.622004 29915 net.cpp:144] Setting up inception_5a/5x5_BatchNorm
I1219 08:16:11.622009 29915 net.cpp:151] Top shape: 1 128 15 30 (57600)
I1219 08:16:11.622014 29915 net.cpp:159] Memory required for data: 696841216
I1219 08:16:11.622023 29915 layer_factory.hpp:77] Creating layer inception_5a/relu_5x5
I1219 08:16:11.622030 29915 net.cpp:94] Creating Layer inception_5a/relu_5x5
I1219 08:16:11.622033 29915 net.cpp:435] inception_5a/relu_5x5 <- inception_5a/5x5
I1219 08:16:11.622037 29915 net.cpp:396] inception_5a/relu_5x5 -> inception_5a/5x5 (in-place)
I1219 08:16:11.622045 29915 net.cpp:144] Setting up inception_5a/relu_5x5
I1219 08:16:11.622046 29915 net.cpp:151] Top shape: 1 128 15 30 (57600)
I1219 08:16:11.622051 29915 net.cpp:159] Memory required for data: 697071616
I1219 08:16:11.622054 29915 layer_factory.hpp:77] Creating layer inception_5a/pool
I1219 08:16:11.622062 29915 net.cpp:94] Creating Layer inception_5a/pool
I1219 08:16:11.622066 29915 net.cpp:435] inception_5a/pool <- pool4/3x3_s2_pool4/3x3_s2_0_split_3
I1219 08:16:11.622073 29915 net.cpp:409] inception_5a/pool -> inception_5a/pool
I1219 08:16:11.622105 29915 net.cpp:144] Setting up inception_5a/pool
I1219 08:16:11.622110 29915 net.cpp:151] Top shape: 1 832 15 30 (374400)
I1219 08:16:11.622114 29915 net.cpp:159] Memory required for data: 698569216
I1219 08:16:11.622117 29915 layer_factory.hpp:77] Creating layer inception_5a/pool_proj
I1219 08:16:11.622123 29915 net.cpp:94] Creating Layer inception_5a/pool_proj
I1219 08:16:11.622126 29915 net.cpp:435] inception_5a/pool_proj <- inception_5a/pool
I1219 08:16:11.622131 29915 net.cpp:409] inception_5a/pool_proj -> inception_5a/pool_proj_raw
I1219 08:16:11.623230 29915 net.cpp:144] Setting up inception_5a/pool_proj
I1219 08:16:11.623239 29915 net.cpp:151] Top shape: 1 128 15 30 (57600)
I1219 08:16:11.623242 29915 net.cpp:159] Memory required for data: 698799616
I1219 08:16:11.623248 29915 layer_factory.hpp:77] Creating layer inception_5a/pool_proj_BatchNorm
I1219 08:16:11.623255 29915 net.cpp:94] Creating Layer inception_5a/pool_proj_BatchNorm
I1219 08:16:11.623258 29915 net.cpp:435] inception_5a/pool_proj_BatchNorm <- inception_5a/pool_proj_raw
I1219 08:16:11.623265 29915 net.cpp:409] inception_5a/pool_proj_BatchNorm -> inception_5a/pool_proj
I1219 08:16:11.623780 29915 net.cpp:144] Setting up inception_5a/pool_proj_BatchNorm
I1219 08:16:11.623787 29915 net.cpp:151] Top shape: 1 128 15 30 (57600)
I1219 08:16:11.623790 29915 net.cpp:159] Memory required for data: 699030016
I1219 08:16:11.623796 29915 layer_factory.hpp:77] Creating layer inception_5a/relu_pool_proj
I1219 08:16:11.623801 29915 net.cpp:94] Creating Layer inception_5a/relu_pool_proj
I1219 08:16:11.623803 29915 net.cpp:435] inception_5a/relu_pool_proj <- inception_5a/pool_proj
I1219 08:16:11.623806 29915 net.cpp:396] inception_5a/relu_pool_proj -> inception_5a/pool_proj (in-place)
I1219 08:16:11.623811 29915 net.cpp:144] Setting up inception_5a/relu_pool_proj
I1219 08:16:11.623812 29915 net.cpp:151] Top shape: 1 128 15 30 (57600)
I1219 08:16:11.623816 29915 net.cpp:159] Memory required for data: 699260416
I1219 08:16:11.623818 29915 layer_factory.hpp:77] Creating layer inception_5a/output
I1219 08:16:11.623821 29915 net.cpp:94] Creating Layer inception_5a/output
I1219 08:16:11.623823 29915 net.cpp:435] inception_5a/output <- inception_5a/1x1
I1219 08:16:11.623826 29915 net.cpp:435] inception_5a/output <- inception_5a/3x3
I1219 08:16:11.623828 29915 net.cpp:435] inception_5a/output <- inception_5a/5x5
I1219 08:16:11.623831 29915 net.cpp:435] inception_5a/output <- inception_5a/pool_proj
I1219 08:16:11.623832 29915 net.cpp:409] inception_5a/output -> inception_5a/output
I1219 08:16:11.623849 29915 net.cpp:144] Setting up inception_5a/output
I1219 08:16:11.623852 29915 net.cpp:151] Top shape: 1 832 15 30 (374400)
I1219 08:16:11.623860 29915 net.cpp:159] Memory required for data: 700758016
I1219 08:16:11.623862 29915 layer_factory.hpp:77] Creating layer inception_5a/output_inception_5a/output_0_split
I1219 08:16:11.623867 29915 net.cpp:94] Creating Layer inception_5a/output_inception_5a/output_0_split
I1219 08:16:11.623872 29915 net.cpp:435] inception_5a/output_inception_5a/output_0_split <- inception_5a/output
I1219 08:16:11.623875 29915 net.cpp:409] inception_5a/output_inception_5a/output_0_split -> inception_5a/output_inception_5a/output_0_split_0
I1219 08:16:11.623881 29915 net.cpp:409] inception_5a/output_inception_5a/output_0_split -> inception_5a/output_inception_5a/output_0_split_1
I1219 08:16:11.623885 29915 net.cpp:409] inception_5a/output_inception_5a/output_0_split -> inception_5a/output_inception_5a/output_0_split_2
I1219 08:16:11.623890 29915 net.cpp:409] inception_5a/output_inception_5a/output_0_split -> inception_5a/output_inception_5a/output_0_split_3
I1219 08:16:11.623929 29915 net.cpp:144] Setting up inception_5a/output_inception_5a/output_0_split
I1219 08:16:11.623932 29915 net.cpp:151] Top shape: 1 832 15 30 (374400)
I1219 08:16:11.623935 29915 net.cpp:151] Top shape: 1 832 15 30 (374400)
I1219 08:16:11.623937 29915 net.cpp:151] Top shape: 1 832 15 30 (374400)
I1219 08:16:11.623939 29915 net.cpp:151] Top shape: 1 832 15 30 (374400)
I1219 08:16:11.623942 29915 net.cpp:159] Memory required for data: 706748416
I1219 08:16:11.623944 29915 layer_factory.hpp:77] Creating layer inception_5b/1x1
I1219 08:16:11.623948 29915 net.cpp:94] Creating Layer inception_5b/1x1
I1219 08:16:11.623950 29915 net.cpp:435] inception_5b/1x1 <- inception_5a/output_inception_5a/output_0_split_0
I1219 08:16:11.623953 29915 net.cpp:409] inception_5b/1x1 -> inception_5b/1x1_raw
I1219 08:16:11.626865 29915 net.cpp:144] Setting up inception_5b/1x1
I1219 08:16:11.626873 29915 net.cpp:151] Top shape: 1 384 15 30 (172800)
I1219 08:16:11.626875 29915 net.cpp:159] Memory required for data: 707439616
I1219 08:16:11.626879 29915 layer_factory.hpp:77] Creating layer inception_5b/1x1_BatchNorm
I1219 08:16:11.626884 29915 net.cpp:94] Creating Layer inception_5b/1x1_BatchNorm
I1219 08:16:11.626888 29915 net.cpp:435] inception_5b/1x1_BatchNorm <- inception_5b/1x1_raw
I1219 08:16:11.626890 29915 net.cpp:409] inception_5b/1x1_BatchNorm -> inception_5b/1x1
I1219 08:16:11.627251 29915 net.cpp:144] Setting up inception_5b/1x1_BatchNorm
I1219 08:16:11.627255 29915 net.cpp:151] Top shape: 1 384 15 30 (172800)
I1219 08:16:11.627259 29915 net.cpp:159] Memory required for data: 708130816
I1219 08:16:11.627264 29915 layer_factory.hpp:77] Creating layer inception_5b/relu_1x1
I1219 08:16:11.627267 29915 net.cpp:94] Creating Layer inception_5b/relu_1x1
I1219 08:16:11.627269 29915 net.cpp:435] inception_5b/relu_1x1 <- inception_5b/1x1
I1219 08:16:11.627272 29915 net.cpp:396] inception_5b/relu_1x1 -> inception_5b/1x1 (in-place)
I1219 08:16:11.627275 29915 net.cpp:144] Setting up inception_5b/relu_1x1
I1219 08:16:11.627277 29915 net.cpp:151] Top shape: 1 384 15 30 (172800)
I1219 08:16:11.627279 29915 net.cpp:159] Memory required for data: 708822016
I1219 08:16:11.627281 29915 layer_factory.hpp:77] Creating layer inception_5b/3x3_reduce
I1219 08:16:11.627285 29915 net.cpp:94] Creating Layer inception_5b/3x3_reduce
I1219 08:16:11.627287 29915 net.cpp:435] inception_5b/3x3_reduce <- inception_5a/output_inception_5a/output_0_split_1
I1219 08:16:11.627290 29915 net.cpp:409] inception_5b/3x3_reduce -> inception_5b/3x3_reduce_raw
I1219 08:16:11.628307 29915 net.cpp:144] Setting up inception_5b/3x3_reduce
I1219 08:16:11.628312 29915 net.cpp:151] Top shape: 1 192 15 30 (86400)
I1219 08:16:11.628314 29915 net.cpp:159] Memory required for data: 709167616
I1219 08:16:11.628319 29915 layer_factory.hpp:77] Creating layer inception_5b/3x3_reduce_BatchNorm
I1219 08:16:11.628322 29915 net.cpp:94] Creating Layer inception_5b/3x3_reduce_BatchNorm
I1219 08:16:11.628324 29915 net.cpp:435] inception_5b/3x3_reduce_BatchNorm <- inception_5b/3x3_reduce_raw
I1219 08:16:11.628327 29915 net.cpp:409] inception_5b/3x3_reduce_BatchNorm -> inception_5b/3x3_reduce
I1219 08:16:11.628800 29915 net.cpp:144] Setting up inception_5b/3x3_reduce_BatchNorm
I1219 08:16:11.628808 29915 net.cpp:151] Top shape: 1 192 15 30 (86400)
I1219 08:16:11.628811 29915 net.cpp:159] Memory required for data: 709513216
I1219 08:16:11.628818 29915 layer_factory.hpp:77] Creating layer inception_5b/relu_3x3_reduce
I1219 08:16:11.628821 29915 net.cpp:94] Creating Layer inception_5b/relu_3x3_reduce
I1219 08:16:11.628823 29915 net.cpp:435] inception_5b/relu_3x3_reduce <- inception_5b/3x3_reduce
I1219 08:16:11.628826 29915 net.cpp:396] inception_5b/relu_3x3_reduce -> inception_5b/3x3_reduce (in-place)
I1219 08:16:11.628830 29915 net.cpp:144] Setting up inception_5b/relu_3x3_reduce
I1219 08:16:11.628832 29915 net.cpp:151] Top shape: 1 192 15 30 (86400)
I1219 08:16:11.628834 29915 net.cpp:159] Memory required for data: 709858816
I1219 08:16:11.628836 29915 layer_factory.hpp:77] Creating layer inception_5b/3x3
I1219 08:16:11.628845 29915 net.cpp:94] Creating Layer inception_5b/3x3
I1219 08:16:11.628849 29915 net.cpp:435] inception_5b/3x3 <- inception_5b/3x3_reduce
I1219 08:16:11.628852 29915 net.cpp:409] inception_5b/3x3 -> inception_5b/3x3_raw
I1219 08:16:11.635049 29915 net.cpp:144] Setting up inception_5b/3x3
I1219 08:16:11.635061 29915 net.cpp:151] Top shape: 1 384 15 30 (172800)
I1219 08:16:11.635064 29915 net.cpp:159] Memory required for data: 710550016
I1219 08:16:11.635071 29915 layer_factory.hpp:77] Creating layer inception_5b/3x3_BatchNorm
I1219 08:16:11.635079 29915 net.cpp:94] Creating Layer inception_5b/3x3_BatchNorm
I1219 08:16:11.635082 29915 net.cpp:435] inception_5b/3x3_BatchNorm <- inception_5b/3x3_raw
I1219 08:16:11.635087 29915 net.cpp:409] inception_5b/3x3_BatchNorm -> inception_5b/3x3
I1219 08:16:11.638058 29915 net.cpp:144] Setting up inception_5b/3x3_BatchNorm
I1219 08:16:11.638065 29915 net.cpp:151] Top shape: 1 384 15 30 (172800)
I1219 08:16:11.638069 29915 net.cpp:159] Memory required for data: 711241216
I1219 08:16:11.638075 29915 layer_factory.hpp:77] Creating layer inception_5b/relu_3x3
I1219 08:16:11.638079 29915 net.cpp:94] Creating Layer inception_5b/relu_3x3
I1219 08:16:11.638082 29915 net.cpp:435] inception_5b/relu_3x3 <- inception_5b/3x3
I1219 08:16:11.638084 29915 net.cpp:396] inception_5b/relu_3x3 -> inception_5b/3x3 (in-place)
I1219 08:16:11.638089 29915 net.cpp:144] Setting up inception_5b/relu_3x3
I1219 08:16:11.638092 29915 net.cpp:151] Top shape: 1 384 15 30 (172800)
I1219 08:16:11.638093 29915 net.cpp:159] Memory required for data: 711932416
I1219 08:16:11.638095 29915 layer_factory.hpp:77] Creating layer inception_5b/5x5_reduce
I1219 08:16:11.638100 29915 net.cpp:94] Creating Layer inception_5b/5x5_reduce
I1219 08:16:11.638103 29915 net.cpp:435] inception_5b/5x5_reduce <- inception_5a/output_inception_5a/output_0_split_2
I1219 08:16:11.638106 29915 net.cpp:409] inception_5b/5x5_reduce -> inception_5b/5x5_reduce_raw
I1219 08:16:11.638512 29915 net.cpp:144] Setting up inception_5b/5x5_reduce
I1219 08:16:11.638516 29915 net.cpp:151] Top shape: 1 48 15 30 (21600)
I1219 08:16:11.638520 29915 net.cpp:159] Memory required for data: 712018816
I1219 08:16:11.638522 29915 layer_factory.hpp:77] Creating layer inception_5b/5x5_reduce_BatchNorm
I1219 08:16:11.638526 29915 net.cpp:94] Creating Layer inception_5b/5x5_reduce_BatchNorm
I1219 08:16:11.638528 29915 net.cpp:435] inception_5b/5x5_reduce_BatchNorm <- inception_5b/5x5_reduce_raw
I1219 08:16:11.638531 29915 net.cpp:409] inception_5b/5x5_reduce_BatchNorm -> inception_5b/5x5_reduce
I1219 08:16:11.638957 29915 net.cpp:144] Setting up inception_5b/5x5_reduce_BatchNorm
I1219 08:16:11.638962 29915 net.cpp:151] Top shape: 1 48 15 30 (21600)
I1219 08:16:11.638965 29915 net.cpp:159] Memory required for data: 712105216
I1219 08:16:11.638972 29915 layer_factory.hpp:77] Creating layer inception_5b/relu_5x5_reduce
I1219 08:16:11.638974 29915 net.cpp:94] Creating Layer inception_5b/relu_5x5_reduce
I1219 08:16:11.638976 29915 net.cpp:435] inception_5b/relu_5x5_reduce <- inception_5b/5x5_reduce
I1219 08:16:11.638978 29915 net.cpp:396] inception_5b/relu_5x5_reduce -> inception_5b/5x5_reduce (in-place)
I1219 08:16:11.638983 29915 net.cpp:144] Setting up inception_5b/relu_5x5_reduce
I1219 08:16:11.638984 29915 net.cpp:151] Top shape: 1 48 15 30 (21600)
I1219 08:16:11.638986 29915 net.cpp:159] Memory required for data: 712191616
I1219 08:16:11.638988 29915 layer_factory.hpp:77] Creating layer inception_5b/5x5
I1219 08:16:11.638993 29915 net.cpp:94] Creating Layer inception_5b/5x5
I1219 08:16:11.638993 29915 net.cpp:435] inception_5b/5x5 <- inception_5b/5x5_reduce
I1219 08:16:11.638996 29915 net.cpp:409] inception_5b/5x5 -> inception_5b/5x5_raw
I1219 08:16:11.640636 29915 net.cpp:144] Setting up inception_5b/5x5
I1219 08:16:11.640645 29915 net.cpp:151] Top shape: 1 128 15 30 (57600)
I1219 08:16:11.640647 29915 net.cpp:159] Memory required for data: 712422016
I1219 08:16:11.640652 29915 layer_factory.hpp:77] Creating layer inception_5b/5x5_BatchNorm
I1219 08:16:11.640656 29915 net.cpp:94] Creating Layer inception_5b/5x5_BatchNorm
I1219 08:16:11.640659 29915 net.cpp:435] inception_5b/5x5_BatchNorm <- inception_5b/5x5_raw
I1219 08:16:11.640662 29915 net.cpp:409] inception_5b/5x5_BatchNorm -> inception_5b/5x5
I1219 08:16:11.641029 29915 net.cpp:144] Setting up inception_5b/5x5_BatchNorm
I1219 08:16:11.641033 29915 net.cpp:151] Top shape: 1 128 15 30 (57600)
I1219 08:16:11.641036 29915 net.cpp:159] Memory required for data: 712652416
I1219 08:16:11.641041 29915 layer_factory.hpp:77] Creating layer inception_5b/relu_5x5
I1219 08:16:11.641044 29915 net.cpp:94] Creating Layer inception_5b/relu_5x5
I1219 08:16:11.641047 29915 net.cpp:435] inception_5b/relu_5x5 <- inception_5b/5x5
I1219 08:16:11.641048 29915 net.cpp:396] inception_5b/relu_5x5 -> inception_5b/5x5 (in-place)
I1219 08:16:11.641052 29915 net.cpp:144] Setting up inception_5b/relu_5x5
I1219 08:16:11.641053 29915 net.cpp:151] Top shape: 1 128 15 30 (57600)
I1219 08:16:11.641055 29915 net.cpp:159] Memory required for data: 712882816
I1219 08:16:11.641057 29915 layer_factory.hpp:77] Creating layer inception_5b/pool
I1219 08:16:11.641062 29915 net.cpp:94] Creating Layer inception_5b/pool
I1219 08:16:11.641063 29915 net.cpp:435] inception_5b/pool <- inception_5a/output_inception_5a/output_0_split_3
I1219 08:16:11.641067 29915 net.cpp:409] inception_5b/pool -> inception_5b/pool
I1219 08:16:11.641086 29915 net.cpp:144] Setting up inception_5b/pool
I1219 08:16:11.641088 29915 net.cpp:151] Top shape: 1 832 15 30 (374400)
I1219 08:16:11.641091 29915 net.cpp:159] Memory required for data: 714380416
I1219 08:16:11.641093 29915 layer_factory.hpp:77] Creating layer inception_5b/pool_proj
I1219 08:16:11.641098 29915 net.cpp:94] Creating Layer inception_5b/pool_proj
I1219 08:16:11.641098 29915 net.cpp:435] inception_5b/pool_proj <- inception_5b/pool
I1219 08:16:11.641101 29915 net.cpp:409] inception_5b/pool_proj -> inception_5b/pool_proj_raw
I1219 08:16:11.641830 29915 net.cpp:144] Setting up inception_5b/pool_proj
I1219 08:16:11.641834 29915 net.cpp:151] Top shape: 1 128 15 30 (57600)
I1219 08:16:11.641836 29915 net.cpp:159] Memory required for data: 714610816
I1219 08:16:11.641840 29915 layer_factory.hpp:77] Creating layer inception_5b/pool_proj_BatchNorm
I1219 08:16:11.641844 29915 net.cpp:94] Creating Layer inception_5b/pool_proj_BatchNorm
I1219 08:16:11.641845 29915 net.cpp:435] inception_5b/pool_proj_BatchNorm <- inception_5b/pool_proj_raw
I1219 08:16:11.641849 29915 net.cpp:409] inception_5b/pool_proj_BatchNorm -> inception_5b/pool_proj
I1219 08:16:11.642186 29915 net.cpp:144] Setting up inception_5b/pool_proj_BatchNorm
I1219 08:16:11.642191 29915 net.cpp:151] Top shape: 1 128 15 30 (57600)
I1219 08:16:11.642194 29915 net.cpp:159] Memory required for data: 714841216
I1219 08:16:11.642199 29915 layer_factory.hpp:77] Creating layer inception_5b/relu_pool_proj
I1219 08:16:11.642202 29915 net.cpp:94] Creating Layer inception_5b/relu_pool_proj
I1219 08:16:11.642204 29915 net.cpp:435] inception_5b/relu_pool_proj <- inception_5b/pool_proj
I1219 08:16:11.642207 29915 net.cpp:396] inception_5b/relu_pool_proj -> inception_5b/pool_proj (in-place)
I1219 08:16:11.642210 29915 net.cpp:144] Setting up inception_5b/relu_pool_proj
I1219 08:16:11.642211 29915 net.cpp:151] Top shape: 1 128 15 30 (57600)
I1219 08:16:11.642215 29915 net.cpp:159] Memory required for data: 715071616
I1219 08:16:11.642215 29915 layer_factory.hpp:77] Creating layer inception_5b/output
I1219 08:16:11.642218 29915 net.cpp:94] Creating Layer inception_5b/output
I1219 08:16:11.642220 29915 net.cpp:435] inception_5b/output <- inception_5b/1x1
I1219 08:16:11.642222 29915 net.cpp:435] inception_5b/output <- inception_5b/3x3
I1219 08:16:11.642225 29915 net.cpp:435] inception_5b/output <- inception_5b/5x5
I1219 08:16:11.642226 29915 net.cpp:435] inception_5b/output <- inception_5b/pool_proj
I1219 08:16:11.642230 29915 net.cpp:409] inception_5b/output -> inception_5b/output
I1219 08:16:11.642242 29915 net.cpp:144] Setting up inception_5b/output
I1219 08:16:11.642244 29915 net.cpp:151] Top shape: 1 1024 15 30 (460800)
I1219 08:16:11.642247 29915 net.cpp:159] Memory required for data: 716914816
I1219 08:16:11.642248 29915 layer_factory.hpp:77] Creating layer p5
I1219 08:16:11.642252 29915 net.cpp:94] Creating Layer p5
I1219 08:16:11.642254 29915 net.cpp:435] p5 <- inception_5b/output
I1219 08:16:11.642257 29915 net.cpp:409] p5 -> p5
I1219 08:16:11.642611 29915 net.cpp:144] Setting up p5
I1219 08:16:11.642614 29915 net.cpp:151] Top shape: 1 32 15 30 (14400)
I1219 08:16:11.642616 29915 net.cpp:159] Memory required for data: 716972416
I1219 08:16:11.642621 29915 layer_factory.hpp:77] Creating layer latlayer_4f
I1219 08:16:11.642624 29915 net.cpp:94] Creating Layer latlayer_4f
I1219 08:16:11.642627 29915 net.cpp:435] latlayer_4f <- inception_4e/output_inception_4e/output_0_split_1
I1219 08:16:11.642629 29915 net.cpp:409] latlayer_4f -> latlayer_4f
I1219 08:16:11.642959 29915 net.cpp:144] Setting up latlayer_4f
I1219 08:16:11.642966 29915 net.cpp:151] Top shape: 1 32 30 60 (57600)
I1219 08:16:11.642971 29915 net.cpp:159] Memory required for data: 717202816
I1219 08:16:11.642974 29915 layer_factory.hpp:77] Creating layer upsample_p5
I1219 08:16:11.642979 29915 net.cpp:94] Creating Layer upsample_p5
I1219 08:16:11.642982 29915 net.cpp:435] upsample_p5 <- p5
I1219 08:16:11.642984 29915 net.cpp:409] upsample_p5 -> upsample_p5
I1219 08:16:11.643208 29915 net.cpp:144] Setting up upsample_p5
I1219 08:16:11.643211 29915 net.cpp:151] Top shape: 1 32 30 60 (57600)
I1219 08:16:11.643213 29915 net.cpp:159] Memory required for data: 717433216
I1219 08:16:11.643216 29915 layer_factory.hpp:77] Creating layer add_p4
I1219 08:16:11.643220 29915 net.cpp:94] Creating Layer add_p4
I1219 08:16:11.643221 29915 net.cpp:435] add_p4 <- upsample_p5
I1219 08:16:11.643224 29915 net.cpp:435] add_p4 <- latlayer_4f
I1219 08:16:11.643226 29915 net.cpp:409] add_p4 -> add_p4
I1219 08:16:11.643239 29915 net.cpp:144] Setting up add_p4
I1219 08:16:11.643241 29915 net.cpp:151] Top shape: 1 32 30 60 (57600)
I1219 08:16:11.643244 29915 net.cpp:159] Memory required for data: 717663616
I1219 08:16:11.643245 29915 layer_factory.hpp:77] Creating layer toplayer_p4
I1219 08:16:11.643249 29915 net.cpp:94] Creating Layer toplayer_p4
I1219 08:16:11.643251 29915 net.cpp:435] toplayer_p4 <- add_p4
I1219 08:16:11.643254 29915 net.cpp:409] toplayer_p4 -> p4
I1219 08:16:11.643460 29915 net.cpp:144] Setting up toplayer_p4
I1219 08:16:11.643462 29915 net.cpp:151] Top shape: 1 32 30 60 (57600)
I1219 08:16:11.643465 29915 net.cpp:159] Memory required for data: 717894016
I1219 08:16:11.643468 29915 layer_factory.hpp:77] Creating layer latlayer_3d
I1219 08:16:11.643472 29915 net.cpp:94] Creating Layer latlayer_3d
I1219 08:16:11.643476 29915 net.cpp:435] latlayer_3d <- inception_3b/output_inception_3b/output_0_split_1
I1219 08:16:11.643478 29915 net.cpp:409] latlayer_3d -> latlayer_3d
I1219 08:16:11.643719 29915 net.cpp:144] Setting up latlayer_3d
I1219 08:16:11.643723 29915 net.cpp:151] Top shape: 1 32 60 120 (230400)
I1219 08:16:11.643725 29915 net.cpp:159] Memory required for data: 718815616
I1219 08:16:11.643728 29915 layer_factory.hpp:77] Creating layer upsample_p4
I1219 08:16:11.643733 29915 net.cpp:94] Creating Layer upsample_p4
I1219 08:16:11.643734 29915 net.cpp:435] upsample_p4 <- p4
I1219 08:16:11.643738 29915 net.cpp:409] upsample_p4 -> upsample_p4
I1219 08:16:11.643936 29915 net.cpp:144] Setting up upsample_p4
I1219 08:16:11.643939 29915 net.cpp:151] Top shape: 1 32 60 120 (230400)
I1219 08:16:11.643942 29915 net.cpp:159] Memory required for data: 719737216
I1219 08:16:11.643945 29915 layer_factory.hpp:77] Creating layer add_p3
I1219 08:16:11.643947 29915 net.cpp:94] Creating Layer add_p3
I1219 08:16:11.643949 29915 net.cpp:435] add_p3 <- upsample_p4
I1219 08:16:11.643951 29915 net.cpp:435] add_p3 <- latlayer_3d
I1219 08:16:11.643954 29915 net.cpp:409] add_p3 -> add_p3
I1219 08:16:11.643966 29915 net.cpp:144] Setting up add_p3
I1219 08:16:11.643968 29915 net.cpp:151] Top shape: 1 32 60 120 (230400)
I1219 08:16:11.643971 29915 net.cpp:159] Memory required for data: 720658816
I1219 08:16:11.643972 29915 layer_factory.hpp:77] Creating layer toplayer_p3
I1219 08:16:11.643976 29915 net.cpp:94] Creating Layer toplayer_p3
I1219 08:16:11.643978 29915 net.cpp:435] toplayer_p3 <- add_p3
I1219 08:16:11.643980 29915 net.cpp:409] toplayer_p3 -> p3
I1219 08:16:11.644183 29915 net.cpp:144] Setting up toplayer_p3
I1219 08:16:11.644187 29915 net.cpp:151] Top shape: 1 32 60 120 (230400)
I1219 08:16:11.644191 29915 net.cpp:159] Memory required for data: 721580416
I1219 08:16:11.644193 29915 layer_factory.hpp:77] Creating layer latlayer_2c
I1219 08:16:11.644196 29915 net.cpp:94] Creating Layer latlayer_2c
I1219 08:16:11.644199 29915 net.cpp:435] latlayer_2c <- conv2/3x3_conv2/relu_3x3_0_split_1
I1219 08:16:11.644201 29915 net.cpp:409] latlayer_2c -> latlayer_2c
I1219 08:16:11.644378 29915 net.cpp:144] Setting up latlayer_2c
I1219 08:16:11.644382 29915 net.cpp:151] Top shape: 1 32 120 240 (921600)
I1219 08:16:11.644385 29915 net.cpp:159] Memory required for data: 725266816
I1219 08:16:11.644388 29915 layer_factory.hpp:77] Creating layer upsample_p3
I1219 08:16:11.644392 29915 net.cpp:94] Creating Layer upsample_p3
I1219 08:16:11.644394 29915 net.cpp:435] upsample_p3 <- p3
I1219 08:16:11.644397 29915 net.cpp:409] upsample_p3 -> upsample_p3
I1219 08:16:11.644590 29915 net.cpp:144] Setting up upsample_p3
I1219 08:16:11.644594 29915 net.cpp:151] Top shape: 1 32 120 240 (921600)
I1219 08:16:11.644598 29915 net.cpp:159] Memory required for data: 728953216
I1219 08:16:11.644600 29915 layer_factory.hpp:77] Creating layer add_p2
I1219 08:16:11.644603 29915 net.cpp:94] Creating Layer add_p2
I1219 08:16:11.644604 29915 net.cpp:435] add_p2 <- upsample_p3
I1219 08:16:11.644606 29915 net.cpp:435] add_p2 <- latlayer_2c
I1219 08:16:11.644609 29915 net.cpp:409] add_p2 -> add_p2
I1219 08:16:11.644619 29915 net.cpp:144] Setting up add_p2
I1219 08:16:11.644623 29915 net.cpp:151] Top shape: 1 32 120 240 (921600)
I1219 08:16:11.644624 29915 net.cpp:159] Memory required for data: 732639616
I1219 08:16:11.644626 29915 layer_factory.hpp:77] Creating layer toplayer_p2
I1219 08:16:11.644629 29915 net.cpp:94] Creating Layer toplayer_p2
I1219 08:16:11.644631 29915 net.cpp:435] toplayer_p2 <- add_p2
I1219 08:16:11.644634 29915 net.cpp:409] toplayer_p2 -> pred
I1219 08:16:11.645375 29915 net.cpp:144] Setting up toplayer_p2
I1219 08:16:11.645380 29915 net.cpp:151] Top shape: 1 5 480 960 (2304000)
I1219 08:16:11.645383 29915 net.cpp:159] Memory required for data: 741855616
I1219 08:16:11.645387 29915 layer_factory.hpp:77] Creating layer score
I1219 08:16:11.645390 29915 net.cpp:94] Creating Layer score
I1219 08:16:11.645392 29915 net.cpp:435] score <- pred
I1219 08:16:11.645395 29915 net.cpp:409] score -> score
I1219 08:16:11.645437 29915 net.cpp:144] Setting up score
I1219 08:16:11.645440 29915 net.cpp:151] Top shape: 1 5 480 960 (2304000)
I1219 08:16:11.645442 29915 net.cpp:159] Memory required for data: 751071616
I1219 08:16:11.645444 29915 layer_factory.hpp:77] Creating layer accuracy
I1219 08:16:11.645452 29915 net.cpp:94] Creating Layer accuracy
I1219 08:16:11.645453 29915 net.cpp:435] accuracy <- score
I1219 08:16:11.645455 29915 net.cpp:435] accuracy <- label
I1219 08:16:11.645458 29915 net.cpp:409] accuracy -> segmentation_eval
I1219 08:16:11.645469 29915 net.cpp:144] Setting up accuracy
I1219 08:16:11.645473 29915 net.cpp:151] Top shape: 3 5 (15)
I1219 08:16:11.645475 29915 net.cpp:159] Memory required for data: 751071676
I1219 08:16:11.645476 29915 net.cpp:222] accuracy does not need backward computation.
I1219 08:16:11.645479 29915 net.cpp:222] score does not need backward computation.
I1219 08:16:11.645480 29915 net.cpp:222] toplayer_p2 does not need backward computation.
I1219 08:16:11.645483 29915 net.cpp:222] add_p2 does not need backward computation.
…
