…
I1227 18:31:16.483173 11661 net.cpp:323] The NetState phase (1) differed from the phase (0) specified by a rule in layer data
I1227 18:31:16.483258 11661 net.cpp:52] Initializing net from parameters: 
layer {
  name: "data"
  type: "ImageSegData"
  top: "data"
  top: "label"
  include {
    phase: TEST
  }
  transform_param {
    scale: 0.022
    mean_value: 73
    mean_value: 82
    mean_value: 72
  }
  image_data_param {
    source: "/workspace/Vitis-AI-Tutorials/files/Segment/workspace/data/signate/signate_quantize_test.txt"
    batch_size: 1
    shuffle: false
  }
}
layer {
  name: "resize_down"
  type: "DeephiResize"
  bottom: "data"
  top: "data"
  include {
    phase: TEST
  }
  deephi_resize_param {
    resize_type: BILINEAR
    new_height: 480
    new_width: 960
  }
}
layer {
  name: "conv1/7x7_s2"
  type: "Convolution"
  bottom: "data"
  top: "conv1/7x7_s2_raw"
  param {
    lr_mult: 1
    decay_mult: 1
  }
  convolution_param {
    num_output: 64
    pad: 3
    kernel_size: 7
    stride: 2
    weight_filler {
      type: "msra"
    }
    bias_filler {
      type: "constant"
      value: 0.2
    }
  }
}
layer {
  name: "conv1/7x7_s2_BatchNorm"
  type: "BatchNorm"
  bottom: "conv1/7x7_s2_raw"
  top: "conv1/7x7_s2"
  param {
    lr_mult: 1
    decay_mult: 0
  }
  param {
    lr_mult: 1
    decay_mult: 0
  }
  param {
    lr_mult: 0
    decay_mult: 0
  }
  param {
    lr_mult: 0
    decay_mult: 0
  }
  batch_norm_param {
    use_global_stats: false
    eps: 1e-05
    scale_filler {
      type: "constant"
      value: 1
    }
    bias_filler {
      type: "constant"
      value: 0
    }
  }
}
layer {
  name: "conv1/relu_7x7"
  type: "ReLU"
  bottom: "conv1/7x7_s2"
  top: "conv1/7x7_s2"
}
layer {
  name: "pool1/3x3_s2"
  type: "Pooling"
  bottom: "conv1/7x7_s2"
  top: "pool1/3x3_s2"
  pooling_param {
    pool: MAX
    kernel_size: 3
    stride: 2
  }
}
layer {
  name: "conv2/3x3_reduce"
  type: "Convolution"
  bottom: "pool1/3x3_s2"
  top: "conv2/3x3_reduce_raw"
  param {
    lr_mult: 1
    decay_mult: 1
  }
  convolution_param {
    num_output: 64
    kernel_size: 1
    weight_filler {
      type: "msra"
    }
    bias_filler {
      type: "constant"
      value: 0.2
    }
  }
}
layer {
  name: "conv2/3x3_reduce_BatchNorm"
  type: "BatchNorm"
  bottom: "conv2/3x3_reduce_raw"
  top: "conv2/3x3_reduce"
  param {
    lr_mult: 1
    decay_mult: 0
  }
  param {
    lr_mult: 1
    decay_mult: 0
  }
  param {
    lr_mult: 0
    decay_mult: 0
  }
  param {
    lr_mult: 0
    decay_mult: 0
  }
  batch_norm_param {
    use_global_stats: false
    eps: 1e-05
    scale_filler {
      type: "constant"
      value: 1
    }
    bias_filler {
      type: "constant"
      value: 0
    }
  }
}
layer {
  name: "conv2/relu_3x3_reduce"
  type: "ReLU"
  bottom: "conv2/3x3_reduce"
  top: "conv2/3x3_reduce"
}
layer {
  name: "conv2/3x3"
  type: "Convolution"
  bottom: "conv2/3x3_reduce"
  top: "conv2/3x3_raw"
  param {
    lr_mult: 1
    decay_mult: 1
  }
  convolution_param {
    num_output: 192
    pad: 1
    kernel_size: 3
    weight_filler {
      type: "msra"
    }
    bias_filler {
      type: "constant"
      value: 0.2
    }
  }
}
layer {
  name: "conv2/3x3_BatchNorm"
  type: "BatchNorm"
  bottom: "conv2/3x3_raw"
  top: "conv2/3x3"
  param {
    lr_mult: 1
    decay_mult: 0
  }
  param {
    lr_mult: 1
    decay_mult: 0
  }
  param {
    lr_mult: 0
    decay_mult: 0
  }
  param {
    lr_mult: 0
    decay_mult: 0
  }
  batch_norm_param {
    use_global_stats: false
    eps: 1e-05
    scale_filler {
      type: "constant"
      value: 1
    }
    bias_filler {
      type: "constant"
      value: 0
    }
  }
}
layer {
  name: "conv2/relu_3x3"
  type: "ReLU"
  bottom: "conv2/3x3"
  top: "conv2/3x3"
}
layer {
  name: "pool2/3x3_s2"
  type: "Pooling"
  bottom: "conv2/3x3"
  top: "pool2/3x3_s2"
  pooling_param {
    pool: MAX
    kernel_size: 3
    stride: 2
  }
}
layer {
  name: "inception_3a/1x1"
  type: "Convolution"
  bottom: "pool2/3x3_s2"
  top: "inception_3a/1x1_raw"
  param {
    lr_mult: 1
    decay_mult: 1
  }
  convolution_param {
    num_output: 64
    kernel_size: 1
    weight_filler {
      type: "msra"
    }
    bias_filler {
      type: "constant"
      value: 0.2
    }
  }
}
layer {
  name: "inception_3a/1x1_BatchNorm"
  type: "BatchNorm"
  bottom: "inception_3a/1x1_raw"
  top: "inception_3a/1x1"
  param {
    lr_mult: 1
    decay_mult: 0
  }
  param {
    lr_mult: 1
    decay_mult: 0
  }
  param {
    lr_mult: 0
    decay_mult: 0
  }
  param {
    lr_mult: 0
    decay_mult: 0
  }
  batch_norm_param {
    use_global_stats: false
    eps: 1e-05
    scale_filler {
      type: "constant"
      value: 1
    }
    bias_filler {
      type: "constant"
      value: 0
    }
  }
}
layer {
  name: "inception_3a/relu_1x1"
  type: "ReLU"
  bottom: "inception_3a/1x1"
  top: "inception_3a/1x1"
}
layer {
  name: "inception_3a/3x3_reduce"
  type: "Convolution"
  bottom: "pool2/3x3_s2"
  top: "inception_3a/3x3_reduce_raw"
  param {
    lr_mult: 1
    decay_mult: 1
  }
  convolution_param {
    num_output: 96
    kernel_size: 1
    weight_filler {
      type: "msra"
    }
    bias_filler {
      type: "constant"
      value: 0.2
    }
  }
}
layer {
  name: "inception_3a/3x3_reduce_BatchNorm"
  type: "BatchNorm"
  bottom: "inception_3a/3x3_reduce_raw"
  top: "inception_3a/3x3_reduce"
  param {
    lr_mult: 1
    decay_mult: 0
  }
  param {
    lr_mult: 1
    decay_mult: 0
  }
  param {
    lr_mult: 0
    decay_mult: 0
  }
  param {
    lr_mult: 0
    decay_mult: 0
  }
  batch_norm_param {
    use_global_stats: false
    eps: 1e-05
    scale_filler {
      type: "constant"
      value: 1
    }
    bias_filler {
      type: "constant"
      value: 0
    }
  }
}
layer {
  name: "inception_3a/relu_3x3_reduce"
  type: "ReLU"
  bottom: "inception_3a/3x3_reduce"
  top: "inception_3a/3x3_reduce"
}
layer {
  name: "inception_3a/3x3"
  type: "Convolution"
  bottom: "inception_3a/3x3_reduce"
  top: "inception_3a/3x3_raw"
  param {
    lr_mult: 1
    decay_mult: 1
  }
  convolution_param {
    num_output: 128
    pad: 1
    kernel_size: 3
    weight_filler {
      type: "msra"
    }
    bias_filler {
      type: "constant"
      value: 0.2
    }
  }
}
layer {
  name: "inception_3a/3x3_BatchNorm"
  type: "BatchNorm"
  bottom: "inception_3a/3x3_raw"
  top: "inception_3a/3x3"
  param {
    lr_mult: 1
    decay_mult: 0
  }
  param {
    lr_mult: 1
    decay_mult: 0
  }
  param {
    lr_mult: 0
    decay_mult: 0
  }
  param {
    lr_mult: 0
    decay_mult: 0
  }
  batch_norm_param {
    use_global_stats: false
    eps: 1e-05
    scale_filler {
      type: "constant"
      value: 1
    }
    bias_filler {
      type: "constant"
      value: 0
    }
  }
}
layer {
  name: "inception_3a/relu_3x3"
  type: "ReLU"
  bottom: "inception_3a/3x3"
  top: "inception_3a/3x3"
}
layer {
  name: "inception_3a/5x5_reduce"
  type: "Convolution"
  bottom: "pool2/3x3_s2"
  top: "inception_3a/5x5_reduce_raw"
  param {
    lr_mult: 1
    decay_mult: 1
  }
  convolution_param {
    num_output: 16
    kernel_size: 1
    weight_filler {
      type: "msra"
    }
    bias_filler {
      type: "constant"
      value: 0.2
    }
  }
}
layer {
  name: "inception_3a/5x5_reduce_BatchNorm"
  type: "BatchNorm"
  bottom: "inception_3a/5x5_reduce_raw"
  top: "inception_3a/5x5_reduce"
  param {
    lr_mult: 1
    decay_mult: 0
  }
  param {
    lr_mult: 1
    decay_mult: 0
  }
  param {
    lr_mult: 0
    decay_mult: 0
  }
  param {
    lr_mult: 0
    decay_mult: 0
  }
  batch_norm_param {
    use_global_stats: false
    eps: 1e-05
    scale_filler {
      type: "constant"
      value: 1
    }
    bias_filler {
      type: "constant"
      value: 0
    }
  }
}
layer {
  name: "inception_3a/relu_5x5_reduce"
  type: "ReLU"
  bottom: "inception_3a/5x5_reduce"
  top: "inception_3a/5x5_reduce"
}
layer {
  name: "inception_3a/5x5"
  type: "Convolution"
  bottom: "inception_3a/5x5_reduce"
  top: "inception_3a/5x5_raw"
  param {
    lr_mult: 1
    decay_mult: 1
  }
  convolution_param {
    num_output: 32
    pad: 2
    kernel_size: 5
    weight_filler {
      type: "msra"
    }
    bias_filler {
      type: "constant"
      value: 0.2
    }
  }
}
layer {
  name: "inception_3a/5x5_BatchNorm"
  type: "BatchNorm"
  bottom: "inception_3a/5x5_raw"
  top: "inception_3a/5x5"
  param {
    lr_mult: 1
    decay_mult: 0
  }
  param {
    lr_mult: 1
    decay_mult: 0
  }
  param {
    lr_mult: 0
    decay_mult: 0
  }
  param {
    lr_mult: 0
    decay_mult: 0
  }
  batch_norm_param {
    use_global_stats: false
    eps: 1e-05
    scale_filler {
      type: "constant"
      value: 1
    }
    bias_filler {
      type: "constant"
      value: 0
    }
  }
}
layer {
  name: "inception_3a/relu_5x5"
  type: "ReLU"
  bottom: "inception_3a/5x5"
  top: "inception_3a/5x5"
}
layer {
  name: "inception_3a/pool"
  type: "Pooling"
  bottom: "pool2/3x3_s2"
  top: "inception_3a/pool"
  pooling_param {
    pool: MAX
    kernel_size: 3
    stride: 1
    pad: 1
  }
}
layer {
  name: "inception_3a/pool_proj"
  type: "Convolution"
  bottom: "inception_3a/pool"
  top: "inception_3a/pool_proj_raw"
  param {
    lr_mult: 1
    decay_mult: 1
  }
  convolution_param {
    num_output: 32
    kernel_size: 1
    weight_filler {
      type: "msra"
    }
    bias_filler {
      type: "constant"
      value: 0.2
    }
  }
}
layer {
  name: "inception_3a/pool_proj_BatchNorm"
  type: "BatchNorm"
  bottom: "inception_3a/pool_proj_raw"
  top: "inception_3a/pool_proj"
  param {
    lr_mult: 1
    decay_mult: 0
  }
  param {
    lr_mult: 1
    decay_mult: 0
  }
  param {
    lr_mult: 0
    decay_mult: 0
  }
  param {
    lr_mult: 0
    decay_mult: 0
  }
  batch_norm_param {
    use_global_stats: false
    eps: 1e-05
    scale_filler {
      type: "constant"
      value: 1
    }
    bias_filler {
      type: "constant"
      value: 0
    }
  }
}
layer {
  name: "inception_3a/relu_pool_proj"
  type: "ReLU"
  bottom: "inception_3a/pool_proj"
  top: "inception_3a/pool_proj"
}
layer {
  name: "inception_3a/output"
  type: "Concat"
  bottom: "inception_3a/1x1"
  bottom: "inception_3a/3x3"
  bottom: "inception_3a/5x5"
  bottom: "inception_3a/pool_proj"
  top: "inception_3a/output"
}
layer {
  name: "inception_3b/1x1"
  type: "Convolution"
  bottom: "inception_3a/output"
  top: "inception_3b/1x1_raw"
  param {
    lr_mult: 1
    decay_mult: 1
  }
  convolution_param {
    num_output: 128
    kernel_size: 1
    weight_filler {
      type: "msra"
    }
    bias_filler {
      type: "constant"
      value: 0.2
    }
  }
}
layer {
  name: "inception_3b/1x1_BatchNorm"
  type: "BatchNorm"
  bottom: "inception_3b/1x1_raw"
  top: "inception_3b/1x1"
  param {
    lr_mult: 1
    decay_mult: 0
  }
  param {
    lr_mult: 1
    decay_mult: 0
  }
  param {
    lr_mult: 0
    decay_mult: 0
  }
  param {
    lr_mult: 0
    decay_mult: 0
  }
  batch_norm_param {
    use_global_stats: false
    eps: 1e-05
    scale_filler {
      type: "constant"
      value: 1
    }
    bias_filler {
      type: "constant"
      value: 0
    }
  }
}
layer {
  name: "inception_3b/relu_1x1"
  type: "ReLU"
  bottom: "inception_3b/1x1"
  top: "inception_3b/1x1"
}
layer {
  name: "inception_3b/3x3_reduce"
  type: "Convolution"
  bottom: "inception_3a/output"
  top: "inception_3b/3x3_reduce_raw"
  param {
    lr_mult: 1
    decay_mult: 1
  }
  convolution_param {
    num_output: 128
    kernel_size: 1
    weight_filler {
      type: "msra"
    }
    bias_filler {
      type: "constant"
      value: 0.2
    }
  }
}
layer {
  name: "inception_3b/3x3_reduce_BatchNorm"
  type: "BatchNorm"
  bottom: "inception_3b/3x3_reduce_raw"
  top: "inception_3b/3x3_reduce"
  param {
    lr_mult: 1
    decay_mult: 0
  }
  param {
    lr_mult: 1
    decay_mult: 0
  }
  param {
    lr_mult: 0
    decay_mult: 0
  }
  param {
    lr_mult: 0
    decay_mult: 0
  }
  batch_norm_param {
    use_global_stats: false
    eps: 1e-05
    scale_filler {
      type: "constant"
      value: 1
    }
    bias_filler {
      type: "constant"
      value: 0
    }
  }
}
layer {
  name: "inception_3b/relu_3x3_reduce"
  type: "ReLU"
  bottom: "inception_3b/3x3_reduce"
  top: "inception_3b/3x3_reduce"
}
layer {
  name: "inception_3b/3x3"
  type: "Convolution"
  bottom: "inception_3b/3x3_reduce"
  top: "inception_3b/3x3_raw"
  param {
    lr_mult: 1
    decay_mult: 1
  }
  convolution_param {
    num_output: 192
    pad: 1
    kernel_size: 3
    weight_filler {
      type: "msra"
    }
    bias_filler {
      type: "constant"
      value: 0.2
    }
  }
}
layer {
  name: "inception_3b/3x3_BatchNorm"
  type: "BatchNorm"
  bottom: "inception_3b/3x3_raw"
  top: "inception_3b/3x3"
  param {
    lr_mult: 1
    decay_mult: 0
  }
  param {
    lr_mult: 1
    decay_mult: 0
  }
  param {
    lr_mult: 0
    decay_mult: 0
  }
  param {
    lr_mult: 0
    decay_mult: 0
  }
  batch_norm_param {
    use_global_stats: false
    eps: 1e-05
    scale_filler {
      type: "constant"
      value: 1
    }
    bias_filler {
      type: "constant"
      value: 0
    }
  }
}
layer {
  name: "inception_3b/relu_3x3"
  type: "ReLU"
  bottom: "inception_3b/3x3"
  top: "inception_3b/3x3"
}
layer {
  name: "inception_3b/5x5_reduce"
  type: "Convolution"
  bottom: "inception_3a/output"
  top: "inception_3b/5x5_reduce_raw"
  param {
    lr_mult: 1
    decay_mult: 1
  }
  convolution_param {
    num_output: 32
    kernel_size: 1
    weight_filler {
      type: "msra"
    }
    bias_filler {
      type: "constant"
      value: 0.2
    }
  }
}
layer {
  name: "inception_3b/5x5_reduce_BatchNorm"
  type: "BatchNorm"
  bottom: "inception_3b/5x5_reduce_raw"
  top: "inception_3b/5x5_reduce"
  param {
    lr_mult: 1
    decay_mult: 0
  }
  param {
    lr_mult: 1
    decay_mult: 0
  }
  param {
    lr_mult: 0
    decay_mult: 0
  }
  param {
    lr_mult: 0
    decay_mult: 0
  }
  batch_norm_param {
    use_global_stats: false
    eps: 1e-05
    scale_filler {
      type: "constant"
      value: 1
    }
    bias_filler {
      type: "constant"
      value: 0
    }
  }
}
layer {
  name: "inception_3b/relu_5x5_reduce"
  type: "ReLU"
  bottom: "inception_3b/5x5_reduce"
  top: "inception_3b/5x5_reduce"
}
layer {
  name: "inception_3b/5x5"
  type: "Convolution"
  bottom: "inception_3b/5x5_reduce"
  top: "inception_3b/5x5_raw"
  param {
    lr_mult: 1
    decay_mult: 1
  }
  convolution_param {
    num_output: 96
    pad: 2
    kernel_size: 5
    weight_filler {
      type: "msra"
    }
    bias_filler {
      type: "constant"
      value: 0.2
    }
  }
}
layer {
  name: "inception_3b/5x5_BatchNorm"
  type: "BatchNorm"
  bottom: "inception_3b/5x5_raw"
  top: "inception_3b/5x5"
  param {
    lr_mult: 1
    decay_mult: 0
  }
  param {
    lr_mult: 1
    decay_mult: 0
  }
  param {
    lr_mult: 0
    decay_mult: 0
  }
  param {
    lr_mult: 0
    decay_mult: 0
  }
  batch_norm_param {
    use_global_stats: false
    eps: 1e-05
    scale_filler {
      type: "constant"
      value: 1
    }
    bias_filler {
      type: "constant"
      value: 0
    }
  }
}
layer {
  name: "inception_3b/relu_5x5"
  type: "ReLU"
  bottom: "inception_3b/5x5"
  top: "inception_3b/5x5"
}
layer {
  name: "inception_3b/pool"
  type: "Pooling"
  bottom: "inception_3a/output"
  top: "inception_3b/pool"
  pooling_param {
    pool: MAX
    kernel_size: 3
    stride: 1
    pad: 1
  }
}
layer {
  name: "inception_3b/pool_proj"
  type: "Convolution"
  bottom: "inception_3b/pool"
  top: "inception_3b/pool_proj_raw"
  param {
    lr_mult: 1
    decay_mult: 1
  }
  convolution_param {
    num_output: 64
    kernel_size: 1
    weight_filler {
      type: "msra"
    }
    bias_filler {
      type: "constant"
      value: 0.2
    }
  }
}
layer {
  name: "inception_3b/pool_proj_BatchNorm"
  type: "BatchNorm"
  bottom: "inception_3b/pool_proj_raw"
  top: "inception_3b/pool_proj"
  param {
    lr_mult: 1
    decay_mult: 0
  }
  param {
    lr_mult: 1
    decay_mult: 0
  }
  param {
    lr_mult: 0
    decay_mult: 0
  }
  param {
    lr_mult: 0
    decay_mult: 0
  }
  batch_norm_param {
    use_global_stats: false
    eps: 1e-05
    scale_filler {
      type: "constant"
      value: 1
    }
    bias_filler {
      type: "constant"
      value: 0
    }
  }
}
layer {
  name: "inception_3b/relu_pool_proj"
  type: "ReLU"
  bottom: "inception_3b/pool_proj"
  top: "inception_3b/pool_proj"
}
layer {
  name: "inception_3b/output"
  type: "Concat"
  bottom: "inception_3b/1x1"
  bottom: "inception_3b/3x3"
  bottom: "inception_3b/5x5"
  bottom: "inception_3b/pool_proj"
  top: "inception_3b/output"
}
layer {
  name: "pool3/3x3_s2"
  type: "Pooling"
  bottom: "inception_3b/output"
  top: "pool3/3x3_s2"
  pooling_param {
    pool: MAX
    kernel_size: 3
    stride: 2
  }
}
layer {
  name: "inception_4a/1x1"
  type: "Convolution"
  bottom: "pool3/3x3_s2"
  top: "inception_4a/1x1_raw"
  param {
    lr_mult: 1
    decay_mult: 1
  }
  convolution_param {
    num_output: 192
    kernel_size: 1
    weight_filler {
      type: "msra"
    }
    bias_filler {
      type: "constant"
      value: 0.2
    }
  }
}
layer {
  name: "inception_4a/1x1_BatchNorm"
  type: "BatchNorm"
  bottom: "inception_4a/1x1_raw"
  top: "inception_4a/1x1"
  param {
    lr_mult: 1
    decay_mult: 0
  }
  param {
    lr_mult: 1
    decay_mult: 0
  }
  param {
    lr_mult: 0
    decay_mult: 0
  }
  param {
    lr_mult: 0
    decay_mult: 0
  }
  batch_norm_param {
    use_global_stats: false
    eps: 1e-05
    scale_filler {
      type: "constant"
      value: 1
    }
    bias_filler {
      type: "constant"
      value: 0
    }
  }
}
layer {
  name: "inception_4a/relu_1x1"
  type: "ReLU"
  bottom: "inception_4a/1x1"
  top: "inception_4a/1x1"
}
layer {
  name: "inception_4a/3x3_reduce"
  type: "Convolution"
  bottom: "pool3/3x3_s2"
  top: "inception_4a/3x3_reduce_raw"
  param {
    lr_mult: 1
    decay_mult: 1
  }
  convolution_param {
    num_output: 96
    kernel_size: 1
    weight_filler {
      type: "msra"
    }
    bias_filler {
      type: "constant"
      value: 0.2
    }
  }
}
layer {
  name: "inception_4a/3x3_reduce_BatchNorm"
  type: "BatchNorm"
  bottom: "inception_4a/3x3_reduce_raw"
  top: "inception_4a/3x3_reduce"
  param {
    lr_mult: 1
    decay_mult: 0
  }
  param {
    lr_mult: 1
    decay_mult: 0
  }
  param {
    lr_mult: 0
    decay_mult: 0
  }
  param {
    lr_mult: 0
    decay_mult: 0
  }
  batch_norm_param {
    use_global_stats: false
    eps: 1e-05
    scale_filler {
      type: "constant"
      value: 1
    }
    bias_filler {
      type: "constant"
      value: 0
    }
  }
}
layer {
  name: "inception_4a/relu_3x3_reduce"
  type: "ReLU"
  bottom: "inception_4a/3x3_reduce"
  top: "inception_4a/3x3_reduce"
}
layer {
  name: "inception_4a/3x3"
  type: "Convolution"
  bottom: "inception_4a/3x3_reduce"
  top: "inception_4a/3x3_raw"
  param {
    lr_mult: 1
    decay_mult: 1
  }
  convolution_param {
    num_output: 208
    pad: 1
    kernel_size: 3
    weight_filler {
      type: "msra"
    }
    bias_filler {
      type: "constant"
      value: 0.2
    }
  }
}
layer {
  name: "inception_4a/3x3_BatchNorm"
  type: "BatchNorm"
  bottom: "inception_4a/3x3_raw"
  top: "inception_4a/3x3"
  param {
    lr_mult: 1
    decay_mult: 0
  }
  param {
    lr_mult: 1
    decay_mult: 0
  }
  param {
    lr_mult: 0
    decay_mult: 0
  }
  param {
    lr_mult: 0
    decay_mult: 0
  }
  batch_norm_param {
    use_global_stats: false
    eps: 1e-05
    scale_filler {
      type: "constant"
      value: 1
    }
    bias_filler {
      type: "constant"
      value: 0
    }
  }
}
layer {
  name: "inception_4a/relu_3x3"
  type: "ReLU"
  bottom: "inception_4a/3x3"
  top: "inception_4a/3x3"
}
layer {
  name: "inception_4a/5x5_reduce"
  type: "Convolution"
  bottom: "pool3/3x3_s2"
  top: "inception_4a/5x5_reduce_raw"
  param {
    lr_mult: 1
    decay_mult: 1
  }
  convolution_param {
    num_output: 16
    kernel_size: 1
    weight_filler {
      type: "msra"
    }
    bias_filler {
      type: "constant"
      value: 0.2
    }
  }
}
layer {
  name: "inception_4a/5x5_reduce_BatchNorm"
  type: "BatchNorm"
  bottom: "inception_4a/5x5_reduce_raw"
  top: "inception_4a/5x5_reduce"
  param {
    lr_mult: 1
    decay_mult: 0
  }
  param {
    lr_mult: 1
    decay_mult: 0
  }
  param {
    lr_mult: 0
    decay_mult: 0
  }
  param {
    lr_mult: 0
    decay_mult: 0
  }
  batch_norm_param {
    use_global_stats: false
    eps: 1e-05
    scale_filler {
      type: "constant"
      value: 1
    }
    bias_filler {
      type: "constant"
      value: 0
    }
  }
}
layer {
  name: "inception_4a/relu_5x5_reduce"
  type: "ReLU"
  bottom: "inception_4a/5x5_reduce"
  top: "inception_4a/5x5_reduce"
}
layer {
  name: "inception_4a/5x5"
  type: "Convolution"
  bottom: "inception_4a/5x5_reduce"
  top: "inception_4a/5x5_raw"
  param {
    lr_mult: 1
    decay_mult: 1
  }
  convolution_param {
    num_output: 48
    pad: 2
    kernel_size: 5
    weight_filler {
      type: "msra"
    }
    bias_filler {
      type: "constant"
      value: 0.2
    }
  }
}
layer {
  name: "inception_4a/5x5_BatchNorm"
  type: "BatchNorm"
  bottom: "inception_4a/5x5_raw"
  top: "inception_4a/5x5"
  param {
    lr_mult: 1
    decay_mult: 0
  }
  param {
    lr_mult: 1
    decay_mult: 0
  }
  param {
    lr_mult: 0
    decay_mult: 0
  }
  param {
    lr_mult: 0
    decay_mult: 0
  }
  batch_norm_param {
    use_global_stats: false
    eps: 1e-05
    scale_filler {
      type: "constant"
      value: 1
    }
    bias_filler {
      type: "constant"
      value: 0
    }
  }
}
layer {
  name: "inception_4a/relu_5x5"
  type: "ReLU"
  bottom: "inception_4a/5x5"
  top: "inception_4a/5x5"
}
layer {
  name: "inception_4a/pool"
  type: "Pooling"
  bottom: "pool3/3x3_s2"
  top: "inception_4a/pool"
  pooling_param {
    pool: MAX
    kernel_size: 3
    stride: 1
    pad: 1
  }
}
layer {
  name: "inception_4a/pool_proj"
  type: "Convolution"
  bottom: "inception_4a/pool"
  top: "inception_4a/pool_proj_raw"
  param {
    lr_mult: 1
    decay_mult: 1
  }
  convolution_param {
    num_output: 64
    kernel_size: 1
    weight_filler {
      type: "msra"
    }
    bias_filler {
      type: "constant"
      value: 0.2
    }
  }
}
layer {
  name: "inception_4a/pool_proj_BatchNorm"
  type: "BatchNorm"
  bottom: "inception_4a/pool_proj_raw"
  top: "inception_4a/pool_proj"
  param {
    lr_mult: 1
    decay_mult: 0
  }
  param {
    lr_mult: 1
    decay_mult: 0
  }
  param {
    lr_mult: 0
    decay_mult: 0
  }
  param {
    lr_mult: 0
    decay_mult: 0
  }
  batch_norm_param {
    use_global_stats: false
    eps: 1e-05
    scale_filler {
      type: "constant"
      value: 1
    }
    bias_filler {
      type: "constant"
      value: 0
    }
  }
}
layer {
  name: "inception_4a/relu_pool_proj"
  type: "ReLU"
  bottom: "inception_4a/pool_proj"
  top: "inception_4a/pool_proj"
}
layer {
  name: "inception_4a/output"
  type: "Concat"
  bottom: "inception_4a/1x1"
  bottom: "inception_4a/3x3"
  bottom: "inception_4a/5x5"
  bottom: "inception_4a/pool_proj"
  top: "inception_4a/output"
}
layer {
  name: "inception_4b/1x1"
  type: "Convolution"
  bottom: "inception_4a/output"
  top: "inception_4b/1x1_raw"
  param {
    lr_mult: 1
    decay_mult: 1
  }
  convolution_param {
    num_output: 160
    kernel_size: 1
    weight_filler {
      type: "msra"
    }
    bias_filler {
      type: "constant"
      value: 0.2
    }
  }
}
layer {
  name: "inception_4b/1x1_BatchNorm"
  type: "BatchNorm"
  bottom: "inception_4b/1x1_raw"
  top: "inception_4b/1x1"
  param {
    lr_mult: 1
    decay_mult: 0
  }
  param {
    lr_mult: 1
    decay_mult: 0
  }
  param {
    lr_mult: 0
    decay_mult: 0
  }
  param {
    lr_mult: 0
    decay_mult: 0
  }
  batch_norm_param {
    use_global_stats: false
    eps: 1e-05
    scale_filler {
      type: "constant"
      value: 1
    }
    bias_filler {
      type: "constant"
      value: 0
    }
  }
}
layer {
  name: "inception_4b/relu_1x1"
  type: "ReLU"
  bottom: "inception_4b/1x1"
  top: "inception_4b/1x1"
}
layer {
  name: "inception_4b/3x3_reduce"
  type: "Convolution"
  bottom: "inception_4a/output"
  top: "inception_4b/3x3_reduce_raw"
  param {
    lr_mult: 1
    decay_mult: 1
  }
  convolution_param {
    num_output: 112
    kernel_size: 1
    weight_filler {
      type: "msra"
    }
    bias_filler {
      type: "constant"
      value: 0.2
    }
  }
}
layer {
  name: "inception_4b/3x3_reduce_BatchNorm"
  type: "BatchNorm"
  bottom: "inception_4b/3x3_reduce_raw"
  top: "inception_4b/3x3_reduce"
  param {
    lr_mult: 1
    decay_mult: 0
  }
  param {
    lr_mult: 1
    decay_mult: 0
  }
  param {
    lr_mult: 0
    decay_mult: 0
  }
  param {
    lr_mult: 0
    decay_mult: 0
  }
  batch_norm_param {
    use_global_stats: false
    eps: 1e-05
    scale_filler {
      type: "constant"
      value: 1
    }
    bias_filler {
      type: "constant"
      value: 0
    }
  }
}
layer {
  name: "inception_4b/relu_3x3_reduce"
  type: "ReLU"
  bottom: "inception_4b/3x3_reduce"
  top: "inception_4b/3x3_reduce"
}
layer {
  name: "inception_4b/3x3"
  type: "Convolution"
  bottom: "inception_4b/3x3_reduce"
  top: "inception_4b/3x3_raw"
  param {
    lr_mult: 1
    decay_mult: 1
  }
  convolution_param {
    num_output: 224
    pad: 1
    kernel_size: 3
    weight_filler {
      type: "msra"
    }
    bias_filler {
      type: "constant"
      value: 0.2
    }
  }
}
layer {
  name: "inception_4b/3x3_BatchNorm"
  type: "BatchNorm"
  bottom: "inception_4b/3x3_raw"
  top: "inception_4b/3x3"
  param {
    lr_mult: 1
    decay_mult: 0
  }
  param {
    lr_mult: 1
    decay_mult: 0
  }
  param {
    lr_mult: 0
    decay_mult: 0
  }
  param {
    lr_mult: 0
    decay_mult: 0
  }
  batch_norm_param {
    use_global_stats: false
    eps: 1e-05
    scale_filler {
      type: "constant"
      value: 1
    }
    bias_filler {
      type: "constant"
      value: 0
    }
  }
}
layer {
  name: "inception_4b/relu_3x3"
  type: "ReLU"
  bottom: "inception_4b/3x3"
  top: "inception_4b/3x3"
}
layer {
  name: "inception_4b/5x5_reduce"
  type: "Convolution"
  bottom: "inception_4a/output"
  top: "inception_4b/5x5_reduce_raw"
  param {
    lr_mult: 1
    decay_mult: 1
  }
  convolution_param {
    num_output: 24
    kernel_size: 1
    weight_filler {
      type: "msra"
    }
    bias_filler {
      type: "constant"
      value: 0.2
    }
  }
}
layer {
  name: "inception_4b/5x5_reduce_BatchNorm"
  type: "BatchNorm"
  bottom: "inception_4b/5x5_reduce_raw"
  top: "inception_4b/5x5_reduce"
  param {
    lr_mult: 1
    decay_mult: 0
  }
  param {
    lr_mult: 1
    decay_mult: 0
  }
  param {
    lr_mult: 0
    decay_mult: 0
  }
  param {
    lr_mult: 0
    decay_mult: 0
  }
  batch_norm_param {
    use_global_stats: false
    eps: 1e-05
    scale_filler {
      type: "constant"
      value: 1
    }
    bias_filler {
      type: "constant"
      value: 0
    }
  }
}
layer {
  name: "inception_4b/relu_5x5_reduce"
  type: "ReLU"
  bottom: "inception_4b/5x5_reduce"
  top: "inception_4b/5x5_reduce"
}
layer {
  name: "inception_4b/5x5"
  type: "Convolution"
  bottom: "inception_4b/5x5_reduce"
  top: "inception_4b/5x5_raw"
  param {
    lr_mult: 1
    decay_mult: 1
  }
  convolution_param {
    num_output: 64
    pad: 2
    kernel_size: 5
    weight_filler {
      type: "msra"
    }
    bias_filler {
      type: "constant"
      value: 0.2
    }
  }
}
layer {
  name: "inception_4b/5x5_BatchNorm"
  type: "BatchNorm"
  bottom: "inception_4b/5x5_raw"
  top: "inception_4b/5x5"
  param {
    lr_mult: 1
    decay_mult: 0
  }
  param {
    lr_mult: 1
    decay_mult: 0
  }
  param {
    lr_mult: 0
    decay_mult: 0
  }
  param {
    lr_mult: 0
    decay_mult: 0
  }
  batch_norm_param {
    use_global_stats: false
    eps: 1e-05
    scale_filler {
      type: "constant"
      value: 1
    }
    bias_filler {
      type: "constant"
      value: 0
    }
  }
}
layer {
  name: "inception_4b/relu_5x5"
  type: "ReLU"
  bottom: "inception_4b/5x5"
  top: "inception_4b/5x5"
}
layer {
  name: "inception_4b/pool"
  type: "Pooling"
  bottom: "inception_4a/output"
  top: "inception_4b/pool"
  pooling_param {
    pool: MAX
    kernel_size: 3
    stride: 1
    pad: 1
  }
}
layer {
  name: "inception_4b/pool_proj"
  type: "Convolution"
  bottom: "inception_4b/pool"
  top: "inception_4b/pool_proj_raw"
  param {
    lr_mult: 1
    decay_mult: 1
  }
  convolution_param {
    num_output: 64
    kernel_size: 1
    weight_filler {
      type: "msra"
    }
    bias_filler {
      type: "constant"
      value: 0.2
    }
  }
}
layer {
  name: "inception_4b/pool_proj_BatchNorm"
  type: "BatchNorm"
  bottom: "inception_4b/pool_proj_raw"
  top: "inception_4b/pool_proj"
  param {
    lr_mult: 1
    decay_mult: 0
  }
  param {
    lr_mult: 1
    decay_mult: 0
  }
  param {
    lr_mult: 0
    decay_mult: 0
  }
  param {
    lr_mult: 0
    decay_mult: 0
  }
  batch_norm_param {
    use_global_stats: false
    eps: 1e-05
    scale_filler {
      type: "constant"
      value: 1
    }
    bias_filler {
      type: "constant"
      value: 0
    }
  }
}
layer {
  name: "inception_4b/relu_pool_proj"
  type: "ReLU"
  bottom: "inception_4b/pool_proj"
  top: "inception_4b/pool_proj"
}
layer {
  name: "inception_4b/output"
  type: "Concat"
  bottom: "inception_4b/1x1"
  bottom: "inception_4b/3x3"
  bottom: "inception_4b/5x5"
  bottom: "inception_4b/pool_proj"
  top: "inception_4b/output"
}
layer {
  name: "inception_4c/1x1"
  type: "Convolution"
  bottom: "inception_4b/output"
  top: "inception_4c/1x1_raw"
  param {
    lr_mult: 1
    decay_mult: 1
  }
  convolution_param {
    num_output: 128
    kernel_size: 1
    weight_filler {
      type: "msra"
    }
    bias_filler {
      type: "constant"
      value: 0.2
    }
  }
}
layer {
  name: "inception_4c/1x1_BatchNorm"
  type: "BatchNorm"
  bottom: "inception_4c/1x1_raw"
  top: "inception_4c/1x1"
  param {
    lr_mult: 1
    decay_mult: 0
  }
  param {
    lr_mult: 1
    decay_mult: 0
  }
  param {
    lr_mult: 0
    decay_mult: 0
  }
  param {
    lr_mult: 0
    decay_mult: 0
  }
  batch_norm_param 
I1227 18:31:16.485532 11661 layer_factory.hpp:77] Creating layer data
I1227 18:31:16.485551 11661 net.cpp:94] Creating Layer data
I1227 18:31:16.485555 11661 net.cpp:409] data -> data
I1227 18:31:16.485565 11661 net.cpp:409] data -> label
I1227 18:31:16.485764 11661 image_seg_data_layer.cpp:46] Opening file /workspace/Vitis-AI-Tutorials/files/Segment/workspace/data/signate/signate_quantize_test.txt
I1227 18:31:16.488744 11661 image_seg_data_layer.cpp:68] A total of 2243 images.
I1227 18:31:16.513624 11661 image_seg_data_layer.cpp:97] output data size: 1,3,1216,1936
I1227 18:31:16.657727 11661 internal_thread.cpp:27] Starting internal thread(s) on GPU 0
I1227 18:31:16.657905 11661 net.cpp:144] Setting up data
I1227 18:31:16.657909 11661 net.cpp:151] Top shape: 1 3 1216 1936 (7062528)
I1227 18:31:16.657918 11661 net.cpp:151] Top shape: 1 1 1216 1936 (2354176)
I1227 18:31:16.657922 11661 net.cpp:159] Memory required for data: 37666816
I1227 18:31:16.657925 11661 layer_factory.hpp:77] Creating layer resize_down
I1227 18:31:16.657948 11661 net.cpp:94] Creating Layer resize_down
I1227 18:31:16.657953 11661 net.cpp:435] resize_down <- data
I1227 18:31:16.657958 11661 net.cpp:396] resize_down -> data (in-place)
I1227 18:31:16.657969 11661 net.cpp:144] Setting up resize_down
I1227 18:31:16.657971 11661 net.cpp:151] Top shape: 1 3 480 960 (1382400)
I1227 18:31:16.657974 11661 net.cpp:159] Memory required for data: 43196416
I1227 18:31:16.657975 11661 layer_factory.hpp:77] Creating layer conv1/7x7_s2
I1227 18:31:16.657989 11661 net.cpp:94] Creating Layer conv1/7x7_s2
I1227 18:31:16.657989 11661 net.cpp:435] conv1/7x7_s2 <- data
I1227 18:31:16.657992 11661 net.cpp:409] conv1/7x7_s2 -> conv1/7x7_s2_raw
I1227 18:31:16.658601 11661 net.cpp:144] Setting up conv1/7x7_s2
I1227 18:31:16.658605 11661 net.cpp:151] Top shape: 1 64 240 480 (7372800)
I1227 18:31:16.658608 11661 net.cpp:159] Memory required for data: 72687616
I1227 18:31:16.658627 11661 layer_factory.hpp:77] Creating layer conv1/7x7_s2_BatchNorm
I1227 18:31:16.658632 11661 net.cpp:94] Creating Layer conv1/7x7_s2_BatchNorm
I1227 18:31:16.658634 11661 net.cpp:435] conv1/7x7_s2_BatchNorm <- conv1/7x7_s2_raw
I1227 18:31:16.658636 11661 net.cpp:409] conv1/7x7_s2_BatchNorm -> conv1/7x7_s2
I1227 18:31:16.659101 11661 net.cpp:144] Setting up conv1/7x7_s2_BatchNorm
I1227 18:31:16.659106 11661 net.cpp:151] Top shape: 1 64 240 480 (7372800)
I1227 18:31:16.659108 11661 net.cpp:159] Memory required for data: 102178816
I1227 18:31:16.659114 11661 layer_factory.hpp:77] Creating layer conv1/relu_7x7
I1227 18:31:16.659118 11661 net.cpp:94] Creating Layer conv1/relu_7x7
I1227 18:31:16.659121 11661 net.cpp:435] conv1/relu_7x7 <- conv1/7x7_s2
I1227 18:31:16.659122 11661 net.cpp:396] conv1/relu_7x7 -> conv1/7x7_s2 (in-place)
I1227 18:31:16.659126 11661 net.cpp:144] Setting up conv1/relu_7x7
I1227 18:31:16.659128 11661 net.cpp:151] Top shape: 1 64 240 480 (7372800)
I1227 18:31:16.659132 11661 net.cpp:159] Memory required for data: 131670016
I1227 18:31:16.659132 11661 layer_factory.hpp:77] Creating layer pool1/3x3_s2
I1227 18:31:16.659137 11661 net.cpp:94] Creating Layer pool1/3x3_s2
I1227 18:31:16.659137 11661 net.cpp:435] pool1/3x3_s2 <- conv1/7x7_s2
I1227 18:31:16.659140 11661 net.cpp:409] pool1/3x3_s2 -> pool1/3x3_s2
I1227 18:31:16.659198 11661 net.cpp:144] Setting up pool1/3x3_s2
I1227 18:31:16.659201 11661 net.cpp:151] Top shape: 1 64 120 240 (1843200)
I1227 18:31:16.659204 11661 net.cpp:159] Memory required for data: 139042816
I1227 18:31:16.659205 11661 layer_factory.hpp:77] Creating layer conv2/3x3_reduce
I1227 18:31:16.659209 11661 net.cpp:94] Creating Layer conv2/3x3_reduce
I1227 18:31:16.659211 11661 net.cpp:435] conv2/3x3_reduce <- pool1/3x3_s2
I1227 18:31:16.659214 11661 net.cpp:409] conv2/3x3_reduce -> conv2/3x3_reduce_raw
I1227 18:31:16.659482 11661 net.cpp:144] Setting up conv2/3x3_reduce
I1227 18:31:16.659487 11661 net.cpp:151] Top shape: 1 64 120 240 (1843200)
I1227 18:31:16.659488 11661 net.cpp:159] Memory required for data: 146415616
I1227 18:31:16.659492 11661 layer_factory.hpp:77] Creating layer conv2/3x3_reduce_BatchNorm
I1227 18:31:16.659497 11661 net.cpp:94] Creating Layer conv2/3x3_reduce_BatchNorm
I1227 18:31:16.659498 11661 net.cpp:435] conv2/3x3_reduce_BatchNorm <- conv2/3x3_reduce_raw
I1227 18:31:16.659502 11661 net.cpp:409] conv2/3x3_reduce_BatchNorm -> conv2/3x3_reduce
I1227 18:31:16.659894 11661 net.cpp:144] Setting up conv2/3x3_reduce_BatchNorm
I1227 18:31:16.659898 11661 net.cpp:151] Top shape: 1 64 120 240 (1843200)
I1227 18:31:16.659901 11661 net.cpp:159] Memory required for data: 153788416
I1227 18:31:16.659906 11661 layer_factory.hpp:77] Creating layer conv2/relu_3x3_reduce
I1227 18:31:16.659910 11661 net.cpp:94] Creating Layer conv2/relu_3x3_reduce
I1227 18:31:16.659912 11661 net.cpp:435] conv2/relu_3x3_reduce <- conv2/3x3_reduce
I1227 18:31:16.659916 11661 net.cpp:396] conv2/relu_3x3_reduce -> conv2/3x3_reduce (in-place)
I1227 18:31:16.659920 11661 net.cpp:144] Setting up conv2/relu_3x3_reduce
I1227 18:31:16.659922 11661 net.cpp:151] Top shape: 1 64 120 240 (1843200)
I1227 18:31:16.659925 11661 net.cpp:159] Memory required for data: 161161216
I1227 18:31:16.659927 11661 layer_factory.hpp:77] Creating layer conv2/3x3
I1227 18:31:16.659932 11661 net.cpp:94] Creating Layer conv2/3x3
I1227 18:31:16.659934 11661 net.cpp:435] conv2/3x3 <- conv2/3x3_reduce
I1227 18:31:16.659938 11661 net.cpp:409] conv2/3x3 -> conv2/3x3_raw
I1227 18:31:16.661239 11661 net.cpp:144] Setting up conv2/3x3
I1227 18:31:16.661245 11661 net.cpp:151] Top shape: 1 192 120 240 (5529600)
I1227 18:31:16.661248 11661 net.cpp:159] Memory required for data: 183279616
I1227 18:31:16.661252 11661 layer_factory.hpp:77] Creating layer conv2/3x3_BatchNorm
I1227 18:31:16.661258 11661 net.cpp:94] Creating Layer conv2/3x3_BatchNorm
I1227 18:31:16.661262 11661 net.cpp:435] conv2/3x3_BatchNorm <- conv2/3x3_raw
I1227 18:31:16.661264 11661 net.cpp:409] conv2/3x3_BatchNorm -> conv2/3x3
I1227 18:31:16.661626 11661 net.cpp:144] Setting up conv2/3x3_BatchNorm
I1227 18:31:16.661630 11661 net.cpp:151] Top shape: 1 192 120 240 (5529600)
I1227 18:31:16.661633 11661 net.cpp:159] Memory required for data: 205398016
I1227 18:31:16.661641 11661 layer_factory.hpp:77] Creating layer conv2/relu_3x3
I1227 18:31:16.661645 11661 net.cpp:94] Creating Layer conv2/relu_3x3
I1227 18:31:16.661646 11661 net.cpp:435] conv2/relu_3x3 <- conv2/3x3
I1227 18:31:16.661649 11661 net.cpp:396] conv2/relu_3x3 -> conv2/3x3 (in-place)
I1227 18:31:16.661653 11661 net.cpp:144] Setting up conv2/relu_3x3
I1227 18:31:16.661653 11661 net.cpp:151] Top shape: 1 192 120 240 (5529600)
I1227 18:31:16.661656 11661 net.cpp:159] Memory required for data: 227516416
I1227 18:31:16.661657 11661 layer_factory.hpp:77] Creating layer conv2/3x3_conv2/relu_3x3_0_split
I1227 18:31:16.661664 11661 net.cpp:94] Creating Layer conv2/3x3_conv2/relu_3x3_0_split
I1227 18:31:16.661666 11661 net.cpp:435] conv2/3x3_conv2/relu_3x3_0_split <- conv2/3x3
I1227 18:31:16.661670 11661 net.cpp:409] conv2/3x3_conv2/relu_3x3_0_split -> conv2/3x3_conv2/relu_3x3_0_split_0
I1227 18:31:16.661674 11661 net.cpp:409] conv2/3x3_conv2/relu_3x3_0_split -> conv2/3x3_conv2/relu_3x3_0_split_1
I1227 18:31:16.661695 11661 net.cpp:144] Setting up conv2/3x3_conv2/relu_3x3_0_split
I1227 18:31:16.661697 11661 net.cpp:151] Top shape: 1 192 120 240 (5529600)
I1227 18:31:16.661700 11661 net.cpp:151] Top shape: 1 192 120 240 (5529600)
I1227 18:31:16.661702 11661 net.cpp:159] Memory required for data: 271753216
I1227 18:31:16.661705 11661 layer_factory.hpp:77] Creating layer pool2/3x3_s2
I1227 18:31:16.661708 11661 net.cpp:94] Creating Layer pool2/3x3_s2
I1227 18:31:16.661711 11661 net.cpp:435] pool2/3x3_s2 <- conv2/3x3_conv2/relu_3x3_0_split_0
I1227 18:31:16.661715 11661 net.cpp:409] pool2/3x3_s2 -> pool2/3x3_s2
I1227 18:31:16.661731 11661 net.cpp:144] Setting up pool2/3x3_s2
I1227 18:31:16.661733 11661 net.cpp:151] Top shape: 1 192 60 120 (1382400)
I1227 18:31:16.661736 11661 net.cpp:159] Memory required for data: 277282816
I1227 18:31:16.661738 11661 layer_factory.hpp:77] Creating layer pool2/3x3_s2_pool2/3x3_s2_0_split
I1227 18:31:16.661741 11661 net.cpp:94] Creating Layer pool2/3x3_s2_pool2/3x3_s2_0_split
I1227 18:31:16.661743 11661 net.cpp:435] pool2/3x3_s2_pool2/3x3_s2_0_split <- pool2/3x3_s2
I1227 18:31:16.661746 11661 net.cpp:409] pool2/3x3_s2_pool2/3x3_s2_0_split -> pool2/3x3_s2_pool2/3x3_s2_0_split_0
I1227 18:31:16.661749 11661 net.cpp:409] pool2/3x3_s2_pool2/3x3_s2_0_split -> pool2/3x3_s2_pool2/3x3_s2_0_split_1
I1227 18:31:16.661752 11661 net.cpp:409] pool2/3x3_s2_pool2/3x3_s2_0_split -> pool2/3x3_s2_pool2/3x3_s2_0_split_2
I1227 18:31:16.661756 11661 net.cpp:409] pool2/3x3_s2_pool2/3x3_s2_0_split -> pool2/3x3_s2_pool2/3x3_s2_0_split_3
I1227 18:31:16.661787 11661 net.cpp:144] Setting up pool2/3x3_s2_pool2/3x3_s2_0_split
I1227 18:31:16.661788 11661 net.cpp:151] Top shape: 1 192 60 120 (1382400)
I1227 18:31:16.661792 11661 net.cpp:151] Top shape: 1 192 60 120 (1382400)
I1227 18:31:16.661793 11661 net.cpp:151] Top shape: 1 192 60 120 (1382400)
I1227 18:31:16.661798 11661 net.cpp:151] Top shape: 1 192 60 120 (1382400)
I1227 18:31:16.661800 11661 net.cpp:159] Memory required for data: 299401216
I1227 18:31:16.661803 11661 layer_factory.hpp:77] Creating layer inception_3a/1x1
I1227 18:31:16.661808 11661 net.cpp:94] Creating Layer inception_3a/1x1
I1227 18:31:16.661810 11661 net.cpp:435] inception_3a/1x1 <- pool2/3x3_s2_pool2/3x3_s2_0_split_0
I1227 18:31:16.661813 11661 net.cpp:409] inception_3a/1x1 -> inception_3a/1x1_raw
I1227 18:31:16.662014 11661 net.cpp:144] Setting up inception_3a/1x1
I1227 18:31:16.662019 11661 net.cpp:151] Top shape: 1 64 60 120 (460800)
I1227 18:31:16.662021 11661 net.cpp:159] Memory required for data: 301244416
I1227 18:31:16.662024 11661 layer_factory.hpp:77] Creating layer inception_3a/1x1_BatchNorm
I1227 18:31:16.662030 11661 net.cpp:94] Creating Layer inception_3a/1x1_BatchNorm
I1227 18:31:16.662031 11661 net.cpp:435] inception_3a/1x1_BatchNorm <- inception_3a/1x1_raw
I1227 18:31:16.662035 11661 net.cpp:409] inception_3a/1x1_BatchNorm -> inception_3a/1x1
I1227 18:31:16.662407 11661 net.cpp:144] Setting up inception_3a/1x1_BatchNorm
I1227 18:31:16.662411 11661 net.cpp:151] Top shape: 1 64 60 120 (460800)
I1227 18:31:16.662415 11661 net.cpp:159] Memory required for data: 303087616
I1227 18:31:16.662420 11661 layer_factory.hpp:77] Creating layer inception_3a/relu_1x1
I1227 18:31:16.662423 11661 net.cpp:94] Creating Layer inception_3a/relu_1x1
I1227 18:31:16.662425 11661 net.cpp:435] inception_3a/relu_1x1 <- inception_3a/1x1
I1227 18:31:16.662428 11661 net.cpp:396] inception_3a/relu_1x1 -> inception_3a/1x1 (in-place)
I1227 18:31:16.662432 11661 net.cpp:144] Setting up inception_3a/relu_1x1
I1227 18:31:16.662433 11661 net.cpp:151] Top shape: 1 64 60 120 (460800)
I1227 18:31:16.662436 11661 net.cpp:159] Memory required for data: 304930816
I1227 18:31:16.662437 11661 layer_factory.hpp:77] Creating layer inception_3a/3x3_reduce
I1227 18:31:16.662442 11661 net.cpp:94] Creating Layer inception_3a/3x3_reduce
I1227 18:31:16.662444 11661 net.cpp:435] inception_3a/3x3_reduce <- pool2/3x3_s2_pool2/3x3_s2_0_split_1
I1227 18:31:16.662448 11661 net.cpp:409] inception_3a/3x3_reduce -> inception_3a/3x3_reduce_raw
I1227 18:31:16.662685 11661 net.cpp:144] Setting up inception_3a/3x3_reduce
I1227 18:31:16.662690 11661 net.cpp:151] Top shape: 1 96 60 120 (691200)
I1227 18:31:16.662693 11661 net.cpp:159] Memory required for data: 307695616
I1227 18:31:16.662696 11661 layer_factory.hpp:77] Creating layer inception_3a/3x3_reduce_BatchNorm
I1227 18:31:16.662701 11661 net.cpp:94] Creating Layer inception_3a/3x3_reduce_BatchNorm
I1227 18:31:16.662703 11661 net.cpp:435] inception_3a/3x3_reduce_BatchNorm <- inception_3a/3x3_reduce_raw
I1227 18:31:16.662706 11661 net.cpp:409] inception_3a/3x3_reduce_BatchNorm -> inception_3a/3x3_reduce
I1227 18:31:16.663067 11661 net.cpp:144] Setting up inception_3a/3x3_reduce_BatchNorm
I1227 18:31:16.663071 11661 net.cpp:151] Top shape: 1 96 60 120 (691200)
I1227 18:31:16.663074 11661 net.cpp:159] Memory required for data: 310460416
I1227 18:31:16.663081 11661 layer_factory.hpp:77] Creating layer inception_3a/relu_3x3_reduce
I1227 18:31:16.663085 11661 net.cpp:94] Creating Layer inception_3a/relu_3x3_reduce
I1227 18:31:16.663087 11661 net.cpp:435] inception_3a/relu_3x3_reduce <- inception_3a/3x3_reduce
I1227 18:31:16.663091 11661 net.cpp:396] inception_3a/relu_3x3_reduce -> inception_3a/3x3_reduce (in-place)
I1227 18:31:16.663095 11661 net.cpp:144] Setting up inception_3a/relu_3x3_reduce
I1227 18:31:16.663097 11661 net.cpp:151] Top shape: 1 96 60 120 (691200)
I1227 18:31:16.663100 11661 net.cpp:159] Memory required for data: 313225216
I1227 18:31:16.663102 11661 layer_factory.hpp:77] Creating layer inception_3a/3x3
I1227 18:31:16.663107 11661 net.cpp:94] Creating Layer inception_3a/3x3
I1227 18:31:16.663110 11661 net.cpp:435] inception_3a/3x3 <- inception_3a/3x3_reduce
I1227 18:31:16.663113 11661 net.cpp:409] inception_3a/3x3 -> inception_3a/3x3_raw
I1227 18:31:16.663792 11661 net.cpp:144] Setting up inception_3a/3x3
I1227 18:31:16.663796 11661 net.cpp:151] Top shape: 1 128 60 120 (921600)
I1227 18:31:16.663800 11661 net.cpp:159] Memory required for data: 316911616
I1227 18:31:16.663802 11661 layer_factory.hpp:77] Creating layer inception_3a/3x3_BatchNorm
I1227 18:31:16.663806 11661 net.cpp:94] Creating Layer inception_3a/3x3_BatchNorm
I1227 18:31:16.663808 11661 net.cpp:435] inception_3a/3x3_BatchNorm <- inception_3a/3x3_raw
I1227 18:31:16.663811 11661 net.cpp:409] inception_3a/3x3_BatchNorm -> inception_3a/3x3
I1227 18:31:16.664116 11661 net.cpp:144] Setting up inception_3a/3x3_BatchNorm
I1227 18:31:16.664120 11661 net.cpp:151] Top shape: 1 128 60 120 (921600)
I1227 18:31:16.664124 11661 net.cpp:159] Memory required for data: 320598016
I1227 18:31:16.664129 11661 layer_factory.hpp:77] Creating layer inception_3a/relu_3x3
I1227 18:31:16.664132 11661 net.cpp:94] Creating Layer inception_3a/relu_3x3
I1227 18:31:16.664134 11661 net.cpp:435] inception_3a/relu_3x3 <- inception_3a/3x3
I1227 18:31:16.664137 11661 net.cpp:396] inception_3a/relu_3x3 -> inception_3a/3x3 (in-place)
I1227 18:31:16.664141 11661 net.cpp:144] Setting up inception_3a/relu_3x3
I1227 18:31:16.664144 11661 net.cpp:151] Top shape: 1 128 60 120 (921600)
I1227 18:31:16.664146 11661 net.cpp:159] Memory required for data: 324284416
I1227 18:31:16.664149 11661 layer_factory.hpp:77] Creating layer inception_3a/5x5_reduce
I1227 18:31:16.664153 11661 net.cpp:94] Creating Layer inception_3a/5x5_reduce
I1227 18:31:16.664156 11661 net.cpp:435] inception_3a/5x5_reduce <- pool2/3x3_s2_pool2/3x3_s2_0_split_2
I1227 18:31:16.664160 11661 net.cpp:409] inception_3a/5x5_reduce -> inception_3a/5x5_reduce_raw
I1227 18:31:16.664311 11661 net.cpp:144] Setting up inception_3a/5x5_reduce
I1227 18:31:16.664314 11661 net.cpp:151] Top shape: 1 16 60 120 (115200)
I1227 18:31:16.664317 11661 net.cpp:159] Memory required for data: 324745216
I1227 18:31:16.664320 11661 layer_factory.hpp:77] Creating layer inception_3a/5x5_reduce_BatchNorm
I1227 18:31:16.664325 11661 net.cpp:94] Creating Layer inception_3a/5x5_reduce_BatchNorm
I1227 18:31:16.664328 11661 net.cpp:435] inception_3a/5x5_reduce_BatchNorm <- inception_3a/5x5_reduce_raw
I1227 18:31:16.664331 11661 net.cpp:409] inception_3a/5x5_reduce_BatchNorm -> inception_3a/5x5_reduce
I1227 18:31:16.664706 11661 net.cpp:144] Setting up inception_3a/5x5_reduce_BatchNorm
I1227 18:31:16.664713 11661 net.cpp:151] Top shape: 1 16 60 120 (115200)
I1227 18:31:16.664717 11661 net.cpp:159] Memory required for data: 325206016
I1227 18:31:16.664723 11661 layer_factory.hpp:77] Creating layer inception_3a/relu_5x5_reduce
I1227 18:31:16.664726 11661 net.cpp:94] Creating Layer inception_3a/relu_5x5_reduce
I1227 18:31:16.664729 11661 net.cpp:435] inception_3a/relu_5x5_reduce <- inception_3a/5x5_reduce
I1227 18:31:16.664732 11661 net.cpp:396] inception_3a/relu_5x5_reduce -> inception_3a/5x5_reduce (in-place)
I1227 18:31:16.664737 11661 net.cpp:144] Setting up inception_3a/relu_5x5_reduce
I1227 18:31:16.664739 11661 net.cpp:151] Top shape: 1 16 60 120 (115200)
I1227 18:31:16.664741 11661 net.cpp:159] Memory required for data: 325666816
I1227 18:31:16.664743 11661 layer_factory.hpp:77] Creating layer inception_3a/5x5
I1227 18:31:16.664748 11661 net.cpp:94] Creating Layer inception_3a/5x5
I1227 18:31:16.664749 11661 net.cpp:435] inception_3a/5x5 <- inception_3a/5x5_reduce
I1227 18:31:16.664753 11661 net.cpp:409] inception_3a/5x5 -> inception_3a/5x5_raw
I1227 18:31:16.664964 11661 net.cpp:144] Setting up inception_3a/5x5
I1227 18:31:16.664969 11661 net.cpp:151] Top shape: 1 32 60 120 (230400)
I1227 18:31:16.664971 11661 net.cpp:159] Memory required for data: 326588416
I1227 18:31:16.664975 11661 layer_factory.hpp:77] Creating layer inception_3a/5x5_BatchNorm
I1227 18:31:16.664980 11661 net.cpp:94] Creating Layer inception_3a/5x5_BatchNorm
I1227 18:31:16.664983 11661 net.cpp:435] inception_3a/5x5_BatchNorm <- inception_3a/5x5_raw
I1227 18:31:16.664986 11661 net.cpp:409] inception_3a/5x5_BatchNorm -> inception_3a/5x5
I1227 18:31:16.665345 11661 net.cpp:144] Setting up inception_3a/5x5_BatchNorm
I1227 18:31:16.665350 11661 net.cpp:151] Top shape: 1 32 60 120 (230400)
I1227 18:31:16.665352 11661 net.cpp:159] Memory required for data: 327510016
I1227 18:31:16.665359 11661 layer_factory.hpp:77] Creating layer inception_3a/relu_5x5
I1227 18:31:16.665361 11661 net.cpp:94] Creating Layer inception_3a/relu_5x5
I1227 18:31:16.665364 11661 net.cpp:435] inception_3a/relu_5x5 <- inception_3a/5x5
I1227 18:31:16.665366 11661 net.cpp:396] inception_3a/relu_5x5 -> inception_3a/5x5 (in-place)
I1227 18:31:16.665369 11661 net.cpp:144] Setting up inception_3a/relu_5x5
I1227 18:31:16.665371 11661 net.cpp:151] Top shape: 1 32 60 120 (230400)
I1227 18:31:16.665374 11661 net.cpp:159] Memory required for data: 328431616
I1227 18:31:16.665375 11661 layer_factory.hpp:77] Creating layer inception_3a/pool
I1227 18:31:16.665380 11661 net.cpp:94] Creating Layer inception_3a/pool
I1227 18:31:16.665380 11661 net.cpp:435] inception_3a/pool <- pool2/3x3_s2_pool2/3x3_s2_0_split_3
I1227 18:31:16.665385 11661 net.cpp:409] inception_3a/pool -> inception_3a/pool
I1227 18:31:16.665405 11661 net.cpp:144] Setting up inception_3a/pool
I1227 18:31:16.665406 11661 net.cpp:151] Top shape: 1 192 60 120 (1382400)
I1227 18:31:16.665410 11661 net.cpp:159] Memory required for data: 333961216
I1227 18:31:16.665411 11661 layer_factory.hpp:77] Creating layer inception_3a/pool_proj
I1227 18:31:16.665416 11661 net.cpp:94] Creating Layer inception_3a/pool_proj
I1227 18:31:16.665418 11661 net.cpp:435] inception_3a/pool_proj <- inception_3a/pool
I1227 18:31:16.665421 11661 net.cpp:409] inception_3a/pool_proj -> inception_3a/pool_proj_raw
I1227 18:31:16.666173 11661 net.cpp:144] Setting up inception_3a/pool_proj
I1227 18:31:16.666179 11661 net.cpp:151] Top shape: 1 32 60 120 (230400)
I1227 18:31:16.666182 11661 net.cpp:159] Memory required for data: 334882816
I1227 18:31:16.666186 11661 layer_factory.hpp:77] Creating layer inception_3a/pool_proj_BatchNorm
I1227 18:31:16.666193 11661 net.cpp:94] Creating Layer inception_3a/pool_proj_BatchNorm
I1227 18:31:16.666195 11661 net.cpp:435] inception_3a/pool_proj_BatchNorm <- inception_3a/pool_proj_raw
I1227 18:31:16.666198 11661 net.cpp:409] inception_3a/pool_proj_BatchNorm -> inception_3a/pool_proj
I1227 18:31:16.666589 11661 net.cpp:144] Setting up inception_3a/pool_proj_BatchNorm
I1227 18:31:16.666594 11661 net.cpp:151] Top shape: 1 32 60 120 (230400)
I1227 18:31:16.666597 11661 net.cpp:159] Memory required for data: 335804416
I1227 18:31:16.666602 11661 layer_factory.hpp:77] Creating layer inception_3a/relu_pool_proj
I1227 18:31:16.666606 11661 net.cpp:94] Creating Layer inception_3a/relu_pool_proj
I1227 18:31:16.666608 11661 net.cpp:435] inception_3a/relu_pool_proj <- inception_3a/pool_proj
I1227 18:31:16.666611 11661 net.cpp:396] inception_3a/relu_pool_proj -> inception_3a/pool_proj (in-place)
I1227 18:31:16.666616 11661 net.cpp:144] Setting up inception_3a/relu_pool_proj
I1227 18:31:16.666618 11661 net.cpp:151] Top shape: 1 32 60 120 (230400)
I1227 18:31:16.666621 11661 net.cpp:159] Memory required for data: 336726016
I1227 18:31:16.666623 11661 layer_factory.hpp:77] Creating layer inception_3a/output
I1227 18:31:16.666632 11661 net.cpp:94] Creating Layer inception_3a/output
I1227 18:31:16.666635 11661 net.cpp:435] inception_3a/output <- inception_3a/1x1
I1227 18:31:16.666636 11661 net.cpp:435] inception_3a/output <- inception_3a/3x3
I1227 18:31:16.666640 11661 net.cpp:435] inception_3a/output <- inception_3a/5x5
I1227 18:31:16.666641 11661 net.cpp:435] inception_3a/output <- inception_3a/pool_proj
I1227 18:31:16.666644 11661 net.cpp:409] inception_3a/output -> inception_3a/output
I1227 18:31:16.666658 11661 net.cpp:144] Setting up inception_3a/output
I1227 18:31:16.666661 11661 net.cpp:151] Top shape: 1 256 60 120 (1843200)
I1227 18:31:16.666664 11661 net.cpp:159] Memory required for data: 344098816
I1227 18:31:16.666666 11661 layer_factory.hpp:77] Creating layer inception_3a/output_inception_3a/output_0_split
I1227 18:31:16.666669 11661 net.cpp:94] Creating Layer inception_3a/output_inception_3a/output_0_split
I1227 18:31:16.666671 11661 net.cpp:435] inception_3a/output_inception_3a/output_0_split <- inception_3a/output
I1227 18:31:16.666674 11661 net.cpp:409] inception_3a/output_inception_3a/output_0_split -> inception_3a/output_inception_3a/output_0_split_0
I1227 18:31:16.666678 11661 net.cpp:409] inception_3a/output_inception_3a/output_0_split -> inception_3a/output_inception_3a/output_0_split_1
I1227 18:31:16.666682 11661 net.cpp:409] inception_3a/output_inception_3a/output_0_split -> inception_3a/output_inception_3a/output_0_split_2
I1227 18:31:16.666685 11661 net.cpp:409] inception_3a/output_inception_3a/output_0_split -> inception_3a/output_inception_3a/output_0_split_3
I1227 18:31:16.666714 11661 net.cpp:144] Setting up inception_3a/output_inception_3a/output_0_split
I1227 18:31:16.666718 11661 net.cpp:151] Top shape: 1 256 60 120 (1843200)
I1227 18:31:16.666720 11661 net.cpp:151] Top shape: 1 256 60 120 (1843200)
I1227 18:31:16.666723 11661 net.cpp:151] Top shape: 1 256 60 120 (1843200)
I1227 18:31:16.666725 11661 net.cpp:151] Top shape: 1 256 60 120 (1843200)
I1227 18:31:16.666728 11661 net.cpp:159] Memory required for data: 373590016
I1227 18:31:16.666729 11661 layer_factory.hpp:77] Creating layer inception_3b/1x1
I1227 18:31:16.666734 11661 net.cpp:94] Creating Layer inception_3b/1x1
I1227 18:31:16.666736 11661 net.cpp:435] inception_3b/1x1 <- inception_3a/output_inception_3a/output_0_split_0
I1227 18:31:16.666739 11661 net.cpp:409] inception_3b/1x1 -> inception_3b/1x1_raw
I1227 18:31:16.667043 11661 net.cpp:144] Setting up inception_3b/1x1
I1227 18:31:16.667047 11661 net.cpp:151] Top shape: 1 128 60 120 (921600)
I1227 18:31:16.667050 11661 net.cpp:159] Memory required for data: 377276416
I1227 18:31:16.667057 11661 layer_factory.hpp:77] Creating layer inception_3b/1x1_BatchNorm
I1227 18:31:16.667063 11661 net.cpp:94] Creating Layer inception_3b/1x1_BatchNorm
I1227 18:31:16.667065 11661 net.cpp:435] inception_3b/1x1_BatchNorm <- inception_3b/1x1_raw
I1227 18:31:16.667069 11661 net.cpp:409] inception_3b/1x1_BatchNorm -> inception_3b/1x1
I1227 18:31:16.667387 11661 net.cpp:144] Setting up inception_3b/1x1_BatchNorm
I1227 18:31:16.667392 11661 net.cpp:151] Top shape: 1 128 60 120 (921600)
I1227 18:31:16.667394 11661 net.cpp:159] Memory required for data: 380962816
I1227 18:31:16.667402 11661 layer_factory.hpp:77] Creating layer inception_3b/relu_1x1
I1227 18:31:16.667404 11661 net.cpp:94] Creating Layer inception_3b/relu_1x1
I1227 18:31:16.667407 11661 net.cpp:435] inception_3b/relu_1x1 <- inception_3b/1x1
I1227 18:31:16.667409 11661 net.cpp:396] inception_3b/relu_1x1 -> inception_3b/1x1 (in-place)
I1227 18:31:16.667412 11661 net.cpp:144] Setting up inception_3b/relu_1x1
I1227 18:31:16.667414 11661 net.cpp:151] Top shape: 1 128 60 120 (921600)
I1227 18:31:16.667418 11661 net.cpp:159] Memory required for data: 384649216
I1227 18:31:16.667419 11661 layer_factory.hpp:77] Creating layer inception_3b/3x3_reduce
I1227 18:31:16.667424 11661 net.cpp:94] Creating Layer inception_3b/3x3_reduce
I1227 18:31:16.667426 11661 net.cpp:435] inception_3b/3x3_reduce <- inception_3a/output_inception_3a/output_0_split_1
I1227 18:31:16.667430 11661 net.cpp:409] inception_3b/3x3_reduce -> inception_3b/3x3_reduce_raw
I1227 18:31:16.667727 11661 net.cpp:144] Setting up inception_3b/3x3_reduce
I1227 18:31:16.667732 11661 net.cpp:151] Top shape: 1 128 60 120 (921600)
I1227 18:31:16.667734 11661 net.cpp:159] Memory required for data: 388335616
I1227 18:31:16.667737 11661 layer_factory.hpp:77] Creating layer inception_3b/3x3_reduce_BatchNorm
I1227 18:31:16.667742 11661 net.cpp:94] Creating Layer inception_3b/3x3_reduce_BatchNorm
I1227 18:31:16.667744 11661 net.cpp:435] inception_3b/3x3_reduce_BatchNorm <- inception_3b/3x3_reduce_raw
I1227 18:31:16.667747 11661 net.cpp:409] inception_3b/3x3_reduce_BatchNorm -> inception_3b/3x3_reduce
I1227 18:31:16.668062 11661 net.cpp:144] Setting up inception_3b/3x3_reduce_BatchNorm
I1227 18:31:16.668066 11661 net.cpp:151] Top shape: 1 128 60 120 (921600)
I1227 18:31:16.668069 11661 net.cpp:159] Memory required for data: 392022016
I1227 18:31:16.668076 11661 layer_factory.hpp:77] Creating layer inception_3b/relu_3x3_reduce
I1227 18:31:16.668078 11661 net.cpp:94] Creating Layer inception_3b/relu_3x3_reduce
I1227 18:31:16.668081 11661 net.cpp:435] inception_3b/relu_3x3_reduce <- inception_3b/3x3_reduce
I1227 18:31:16.668083 11661 net.cpp:396] inception_3b/relu_3x3_reduce -> inception_3b/3x3_reduce (in-place)
I1227 18:31:16.668087 11661 net.cpp:144] Setting up inception_3b/relu_3x3_reduce
I1227 18:31:16.668088 11661 net.cpp:151] Top shape: 1 128 60 120 (921600)
I1227 18:31:16.668090 11661 net.cpp:159] Memory required for data: 395708416
I1227 18:31:16.668092 11661 layer_factory.hpp:77] Creating layer inception_3b/3x3
I1227 18:31:16.668097 11661 net.cpp:94] Creating Layer inception_3b/3x3
I1227 18:31:16.668099 11661 net.cpp:435] inception_3b/3x3 <- inception_3b/3x3_reduce
I1227 18:31:16.668102 11661 net.cpp:409] inception_3b/3x3 -> inception_3b/3x3_raw
I1227 18:31:16.669903 11661 net.cpp:144] Setting up inception_3b/3x3
I1227 18:31:16.669910 11661 net.cpp:151] Top shape: 1 192 60 120 (1382400)
I1227 18:31:16.669914 11661 net.cpp:159] Memory required for data: 401238016
I1227 18:31:16.669917 11661 layer_factory.hpp:77] Creating layer inception_3b/3x3_BatchNorm
I1227 18:31:16.669922 11661 net.cpp:94] Creating Layer inception_3b/3x3_BatchNorm
I1227 18:31:16.669924 11661 net.cpp:435] inception_3b/3x3_BatchNorm <- inception_3b/3x3_raw
I1227 18:31:16.669927 11661 net.cpp:409] inception_3b/3x3_BatchNorm -> inception_3b/3x3
I1227 18:31:16.670298 11661 net.cpp:144] Setting up inception_3b/3x3_BatchNorm
I1227 18:31:16.670303 11661 net.cpp:151] Top shape: 1 192 60 120 (1382400)
I1227 18:31:16.670306 11661 net.cpp:159] Memory required for data: 406767616
I1227 18:31:16.670313 11661 layer_factory.hpp:77] Creating layer inception_3b/relu_3x3
I1227 18:31:16.670316 11661 net.cpp:94] Creating Layer inception_3b/relu_3x3
I1227 18:31:16.670318 11661 net.cpp:435] inception_3b/relu_3x3 <- inception_3b/3x3
I1227 18:31:16.670320 11661 net.cpp:396] inception_3b/relu_3x3 -> inception_3b/3x3 (in-place)
I1227 18:31:16.670325 11661 net.cpp:144] Setting up inception_3b/relu_3x3
I1227 18:31:16.670326 11661 net.cpp:151] Top shape: 1 192 60 120 (1382400)
I1227 18:31:16.670329 11661 net.cpp:159] Memory required for data: 412297216
I1227 18:31:16.670331 11661 layer_factory.hpp:77] Creating layer inception_3b/5x5_reduce
I1227 18:31:16.670336 11661 net.cpp:94] Creating Layer inception_3b/5x5_reduce
I1227 18:31:16.670338 11661 net.cpp:435] inception_3b/5x5_reduce <- inception_3a/output_inception_3a/output_0_split_2
I1227 18:31:16.670341 11661 net.cpp:409] inception_3b/5x5_reduce -> inception_3b/5x5_reduce_raw
I1227 18:31:16.670516 11661 net.cpp:144] Setting up inception_3b/5x5_reduce
I1227 18:31:16.670518 11661 net.cpp:151] Top shape: 1 32 60 120 (230400)
I1227 18:31:16.670521 11661 net.cpp:159] Memory required for data: 413218816
I1227 18:31:16.670524 11661 layer_factory.hpp:77] Creating layer inception_3b/5x5_reduce_BatchNorm
I1227 18:31:16.670528 11661 net.cpp:94] Creating Layer inception_3b/5x5_reduce_BatchNorm
I1227 18:31:16.670531 11661 net.cpp:435] inception_3b/5x5_reduce_BatchNorm <- inception_3b/5x5_reduce_raw
I1227 18:31:16.670533 11661 net.cpp:409] inception_3b/5x5_reduce_BatchNorm -> inception_3b/5x5_reduce
I1227 18:31:16.670912 11661 net.cpp:144] Setting up inception_3b/5x5_reduce_BatchNorm
I1227 18:31:16.670917 11661 net.cpp:151] Top shape: 1 32 60 120 (230400)
I1227 18:31:16.670919 11661 net.cpp:159] Memory required for data: 414140416
I1227 18:31:16.670924 11661 layer_factory.hpp:77] Creating layer inception_3b/relu_5x5_reduce
I1227 18:31:16.670928 11661 net.cpp:94] Creating Layer inception_3b/relu_5x5_reduce
I1227 18:31:16.670930 11661 net.cpp:435] inception_3b/relu_5x5_reduce <- inception_3b/5x5_reduce
I1227 18:31:16.670933 11661 net.cpp:396] inception_3b/relu_5x5_reduce -> inception_3b/5x5_reduce (in-place)
I1227 18:31:16.670938 11661 net.cpp:144] Setting up inception_3b/relu_5x5_reduce
I1227 18:31:16.670939 11661 net.cpp:151] Top shape: 1 32 60 120 (230400)
I1227 18:31:16.670943 11661 net.cpp:159] Memory required for data: 415062016
I1227 18:31:16.670945 11661 layer_factory.hpp:77] Creating layer inception_3b/5x5
I1227 18:31:16.670950 11661 net.cpp:94] Creating Layer inception_3b/5x5
I1227 18:31:16.670955 11661 net.cpp:435] inception_3b/5x5 <- inception_3b/5x5_reduce
I1227 18:31:16.670958 11661 net.cpp:409] inception_3b/5x5 -> inception_3b/5x5_raw
I1227 18:31:16.671489 11661 net.cpp:144] Setting up inception_3b/5x5
I1227 18:31:16.671494 11661 net.cpp:151] Top shape: 1 96 60 120 (691200)
I1227 18:31:16.671495 11661 net.cpp:159] Memory required for data: 417826816
I1227 18:31:16.671499 11661 layer_factory.hpp:77] Creating layer inception_3b/5x5_BatchNorm
I1227 18:31:16.671504 11661 net.cpp:94] Creating Layer inception_3b/5x5_BatchNorm
I1227 18:31:16.671507 11661 net.cpp:435] inception_3b/5x5_BatchNorm <- inception_3b/5x5_raw
I1227 18:31:16.671510 11661 net.cpp:409] inception_3b/5x5_BatchNorm -> inception_3b/5x5
I1227 18:31:16.671887 11661 net.cpp:144] Setting up inception_3b/5x5_BatchNorm
I1227 18:31:16.671891 11661 net.cpp:151] Top shape: 1 96 60 120 (691200)
I1227 18:31:16.671895 11661 net.cpp:159] Memory required for data: 420591616
I1227 18:31:16.671900 11661 layer_factory.hpp:77] Creating layer inception_3b/relu_5x5
I1227 18:31:16.671902 11661 net.cpp:94] Creating Layer inception_3b/relu_5x5
I1227 18:31:16.671905 11661 net.cpp:435] inception_3b/relu_5x5 <- inception_3b/5x5
I1227 18:31:16.671908 11661 net.cpp:396] inception_3b/relu_5x5 -> inception_3b/5x5 (in-place)
I1227 18:31:16.671912 11661 net.cpp:144] Setting up inception_3b/relu_5x5
I1227 18:31:16.671913 11661 net.cpp:151] Top shape: 1 96 60 120 (691200)
I1227 18:31:16.671916 11661 net.cpp:159] Memory required for data: 423356416
I1227 18:31:16.671917 11661 layer_factory.hpp:77] Creating layer inception_3b/pool
I1227 18:31:16.671921 11661 net.cpp:94] Creating Layer inception_3b/pool
I1227 18:31:16.671923 11661 net.cpp:435] inception_3b/pool <- inception_3a/output_inception_3a/output_0_split_3
I1227 18:31:16.671927 11661 net.cpp:409] inception_3b/pool -> inception_3b/pool
I1227 18:31:16.671945 11661 net.cpp:144] Setting up inception_3b/pool
I1227 18:31:16.671947 11661 net.cpp:151] Top shape: 1 256 60 120 (1843200)
I1227 18:31:16.671950 11661 net.cpp:159] Memory required for data: 430729216
I1227 18:31:16.671952 11661 layer_factory.hpp:77] Creating layer inception_3b/pool_proj
I1227 18:31:16.671957 11661 net.cpp:94] Creating Layer inception_3b/pool_proj
I1227 18:31:16.671958 11661 net.cpp:435] inception_3b/pool_proj <- inception_3b/pool
I1227 18:31:16.671962 11661 net.cpp:409] inception_3b/pool_proj -> inception_3b/pool_proj_raw
I1227 18:31:16.672186 11661 net.cpp:144] Setting up inception_3b/pool_proj
I1227 18:31:16.672191 11661 net.cpp:151] Top shape: 1 64 60 120 (460800)
I1227 18:31:16.672194 11661 net.cpp:159] Memory required for data: 432572416
I1227 18:31:16.672197 11661 layer_factory.hpp:77] Creating layer inception_3b/pool_proj_BatchNorm
I1227 18:31:16.672200 11661 net.cpp:94] Creating Layer inception_3b/pool_proj_BatchNorm
I1227 18:31:16.672204 11661 net.cpp:435] inception_3b/pool_proj_BatchNorm <- inception_3b/pool_proj_raw
I1227 18:31:16.672206 11661 net.cpp:409] inception_3b/pool_proj_BatchNorm -> inception_3b/pool_proj
I1227 18:31:16.672574 11661 net.cpp:144] Setting up inception_3b/pool_proj_BatchNorm
I1227 18:31:16.672577 11661 net.cpp:151] Top shape: 1 64 60 120 (460800)
I1227 18:31:16.672580 11661 net.cpp:159] Memory required for data: 434415616
I1227 18:31:16.672585 11661 layer_factory.hpp:77] Creating layer inception_3b/relu_pool_proj
I1227 18:31:16.672588 11661 net.cpp:94] Creating Layer inception_3b/relu_pool_proj
I1227 18:31:16.672591 11661 net.cpp:435] inception_3b/relu_pool_proj <- inception_3b/pool_proj
I1227 18:31:16.672593 11661 net.cpp:396] inception_3b/relu_pool_proj -> inception_3b/pool_proj (in-place)
I1227 18:31:16.672597 11661 net.cpp:144] Setting up inception_3b/relu_pool_proj
I1227 18:31:16.672600 11661 net.cpp:151] Top shape: 1 64 60 120 (460800)
I1227 18:31:16.672603 11661 net.cpp:159] Memory required for data: 436258816
I1227 18:31:16.672605 11661 layer_factory.hpp:77] Creating layer inception_3b/output
I1227 18:31:16.672608 11661 net.cpp:94] Creating Layer inception_3b/output
I1227 18:31:16.672610 11661 net.cpp:435] inception_3b/output <- inception_3b/1x1
I1227 18:31:16.672612 11661 net.cpp:435] inception_3b/output <- inception_3b/3x3
I1227 18:31:16.672614 11661 net.cpp:435] inception_3b/output <- inception_3b/5x5
I1227 18:31:16.672616 11661 net.cpp:435] inception_3b/output <- inception_3b/pool_proj
I1227 18:31:16.672619 11661 net.cpp:409] inception_3b/output -> inception_3b/output
I1227 18:31:16.672633 11661 net.cpp:144] Setting up inception_3b/output
I1227 18:31:16.672634 11661 net.cpp:151] Top shape: 1 480 60 120 (3456000)
I1227 18:31:16.672637 11661 net.cpp:159] Memory required for data: 450082816
I1227 18:31:16.672639 11661 layer_factory.hpp:77] Creating layer inception_3b/output_inception_3b/output_0_split
I1227 18:31:16.672642 11661 net.cpp:94] Creating Layer inception_3b/output_inception_3b/output_0_split
I1227 18:31:16.672644 11661 net.cpp:435] inception_3b/output_inception_3b/output_0_split <- inception_3b/output
I1227 18:31:16.672647 11661 net.cpp:409] inception_3b/output_inception_3b/output_0_split -> inception_3b/output_inception_3b/output_0_split_0
I1227 18:31:16.672652 11661 net.cpp:409] inception_3b/output_inception_3b/output_0_split -> inception_3b/output_inception_3b/output_0_split_1
I1227 18:31:16.672669 11661 net.cpp:144] Setting up inception_3b/output_inception_3b/output_0_split
I1227 18:31:16.672672 11661 net.cpp:151] Top shape: 1 480 60 120 (3456000)
I1227 18:31:16.672675 11661 net.cpp:151] Top shape: 1 480 60 120 (3456000)
I1227 18:31:16.672677 11661 net.cpp:159] Memory required for data: 477730816
I1227 18:31:16.672678 11661 layer_factory.hpp:77] Creating layer pool3/3x3_s2
I1227 18:31:16.672683 11661 net.cpp:94] Creating Layer pool3/3x3_s2
I1227 18:31:16.672684 11661 net.cpp:435] pool3/3x3_s2 <- inception_3b/output_inception_3b/output_0_split_0
I1227 18:31:16.672688 11661 net.cpp:409] pool3/3x3_s2 -> pool3/3x3_s2
I1227 18:31:16.672708 11661 net.cpp:144] Setting up pool3/3x3_s2
I1227 18:31:16.672709 11661 net.cpp:151] Top shape: 1 480 30 60 (864000)
I1227 18:31:16.672713 11661 net.cpp:159] Memory required for data: 481186816
I1227 18:31:16.672713 11661 layer_factory.hpp:77] Creating layer pool3/3x3_s2_pool3/3x3_s2_0_split
I1227 18:31:16.672716 11661 net.cpp:94] Creating Layer pool3/3x3_s2_pool3/3x3_s2_0_split
I1227 18:31:16.672719 11661 net.cpp:435] pool3/3x3_s2_pool3/3x3_s2_0_split <- pool3/3x3_s2
I1227 18:31:16.672721 11661 net.cpp:409] pool3/3x3_s2_pool3/3x3_s2_0_split -> pool3/3x3_s2_pool3/3x3_s2_0_split_0
I1227 18:31:16.672725 11661 net.cpp:409] pool3/3x3_s2_pool3/3x3_s2_0_split -> pool3/3x3_s2_pool3/3x3_s2_0_split_1
I1227 18:31:16.672727 11661 net.cpp:409] pool3/3x3_s2_pool3/3x3_s2_0_split -> pool3/3x3_s2_pool3/3x3_s2_0_split_2
I1227 18:31:16.672731 11661 net.cpp:409] pool3/3x3_s2_pool3/3x3_s2_0_split -> pool3/3x3_s2_pool3/3x3_s2_0_split_3
I1227 18:31:16.672765 11661 net.cpp:144] Setting up pool3/3x3_s2_pool3/3x3_s2_0_split
I1227 18:31:16.672767 11661 net.cpp:151] Top shape: 1 480 30 60 (864000)
I1227 18:31:16.672770 11661 net.cpp:151] Top shape: 1 480 30 60 (864000)
I1227 18:31:16.672772 11661 net.cpp:151] Top shape: 1 480 30 60 (864000)
I1227 18:31:16.672775 11661 net.cpp:151] Top shape: 1 480 30 60 (864000)
I1227 18:31:16.672776 11661 net.cpp:159] Memory required for data: 495010816
I1227 18:31:16.672780 11661 layer_factory.hpp:77] Creating layer inception_4a/1x1
I1227 18:31:16.672783 11661 net.cpp:94] Creating Layer inception_4a/1x1
I1227 18:31:16.672785 11661 net.cpp:435] inception_4a/1x1 <- pool3/3x3_s2_pool3/3x3_s2_0_split_0
I1227 18:31:16.672789 11661 net.cpp:409] inception_4a/1x1 -> inception_4a/1x1_raw
I1227 18:31:16.673975 11661 net.cpp:144] Setting up inception_4a/1x1
I1227 18:31:16.673981 11661 net.cpp:151] Top shape: 1 192 30 60 (345600)
I1227 18:31:16.673985 11661 net.cpp:159] Memory required for data: 496393216
I1227 18:31:16.673991 11661 layer_factory.hpp:77] Creating layer inception_4a/1x1_BatchNorm
I1227 18:31:16.673996 11661 net.cpp:94] Creating Layer inception_4a/1x1_BatchNorm
I1227 18:31:16.674000 11661 net.cpp:435] inception_4a/1x1_BatchNorm <- inception_4a/1x1_raw
I1227 18:31:16.674003 11661 net.cpp:409] inception_4a/1x1_BatchNorm -> inception_4a/1x1
I1227 18:31:16.674384 11661 net.cpp:144] Setting up inception_4a/1x1_BatchNorm
I1227 18:31:16.674388 11661 net.cpp:151] Top shape: 1 192 30 60 (345600)
I1227 18:31:16.674392 11661 net.cpp:159] Memory required for data: 497775616
I1227 18:31:16.674399 11661 layer_factory.hpp:77] Creating layer inception_4a/relu_1x1
I1227 18:31:16.674403 11661 net.cpp:94] Creating Layer inception_4a/relu_1x1
I1227 18:31:16.674405 11661 net.cpp:435] inception_4a/relu_1x1 <- inception_4a/1x1
I1227 18:31:16.674407 11661 net.cpp:396] inception_4a/relu_1x1 -> inception_4a/1x1 (in-place)
I1227 18:31:16.674412 11661 net.cpp:144] Setting up inception_4a/relu_1x1
I1227 18:31:16.674413 11661 net.cpp:151] Top shape: 1 192 30 60 (345600)
I1227 18:31:16.674415 11661 net.cpp:159] Memory required for data: 499158016
I1227 18:31:16.674417 11661 layer_factory.hpp:77] Creating layer inception_4a/3x3_reduce
I1227 18:31:16.674422 11661 net.cpp:94] Creating Layer inception_4a/3x3_reduce
I1227 18:31:16.674424 11661 net.cpp:435] inception_4a/3x3_reduce <- pool3/3x3_s2_pool3/3x3_s2_0_split_1
I1227 18:31:16.674427 11661 net.cpp:409] inception_4a/3x3_reduce -> inception_4a/3x3_reduce_raw
I1227 18:31:16.674842 11661 net.cpp:144] Setting up inception_4a/3x3_reduce
I1227 18:31:16.674849 11661 net.cpp:151] Top shape: 1 96 30 60 (172800)
I1227 18:31:16.674852 11661 net.cpp:159] Memory required for data: 499849216
I1227 18:31:16.674857 11661 layer_factory.hpp:77] Creating layer inception_4a/3x3_reduce_BatchNorm
I1227 18:31:16.674862 11661 net.cpp:94] Creating Layer inception_4a/3x3_reduce_BatchNorm
I1227 18:31:16.674865 11661 net.cpp:435] inception_4a/3x3_reduce_BatchNorm <- inception_4a/3x3_reduce_raw
I1227 18:31:16.674870 11661 net.cpp:409] inception_4a/3x3_reduce_BatchNorm -> inception_4a/3x3_reduce
I1227 18:31:16.675278 11661 net.cpp:144] Setting up inception_4a/3x3_reduce_BatchNorm
I1227 18:31:16.675284 11661 net.cpp:151] Top shape: 1 96 30 60 (172800)
I1227 18:31:16.675287 11661 net.cpp:159] Memory required for data: 500540416
I1227 18:31:16.675293 11661 layer_factory.hpp:77] Creating layer inception_4a/relu_3x3_reduce
I1227 18:31:16.675300 11661 net.cpp:94] Creating Layer inception_4a/relu_3x3_reduce
I1227 18:31:16.675302 11661 net.cpp:435] inception_4a/relu_3x3_reduce <- inception_4a/3x3_reduce
I1227 18:31:16.675307 11661 net.cpp:396] inception_4a/relu_3x3_reduce -> inception_4a/3x3_reduce (in-place)
I1227 18:31:16.675312 11661 net.cpp:144] Setting up inception_4a/relu_3x3_reduce
I1227 18:31:16.675313 11661 net.cpp:151] Top shape: 1 96 30 60 (172800)
I1227 18:31:16.675316 11661 net.cpp:159] Memory required for data: 501231616
I1227 18:31:16.675318 11661 layer_factory.hpp:77] Creating layer inception_4a/3x3
I1227 18:31:16.675324 11661 net.cpp:94] Creating Layer inception_4a/3x3
I1227 18:31:16.675328 11661 net.cpp:435] inception_4a/3x3 <- inception_4a/3x3_reduce
I1227 18:31:16.675330 11661 net.cpp:409] inception_4a/3x3 -> inception_4a/3x3_raw
I1227 18:31:16.677057 11661 net.cpp:144] Setting up inception_4a/3x3
I1227 18:31:16.677063 11661 net.cpp:151] Top shape: 1 208 30 60 (374400)
I1227 18:31:16.677067 11661 net.cpp:159] Memory required for data: 502729216
I1227 18:31:16.677071 11661 layer_factory.hpp:77] Creating layer inception_4a/3x3_BatchNorm
I1227 18:31:16.677076 11661 net.cpp:94] Creating Layer inception_4a/3x3_BatchNorm
I1227 18:31:16.677079 11661 net.cpp:435] inception_4a/3x3_BatchNorm <- inception_4a/3x3_raw
I1227 18:31:16.677083 11661 net.cpp:409] inception_4a/3x3_BatchNorm -> inception_4a/3x3
I1227 18:31:16.677459 11661 net.cpp:144] Setting up inception_4a/3x3_BatchNorm
I1227 18:31:16.677461 11661 net.cpp:151] Top shape: 1 208 30 60 (374400)
I1227 18:31:16.677464 11661 net.cpp:159] Memory required for data: 504226816
I1227 18:31:16.677469 11661 layer_factory.hpp:77] Creating layer inception_4a/relu_3x3
I1227 18:31:16.677472 11661 net.cpp:94] Creating Layer inception_4a/relu_3x3
I1227 18:31:16.677474 11661 net.cpp:435] inception_4a/relu_3x3 <- inception_4a/3x3
I1227 18:31:16.677477 11661 net.cpp:396] inception_4a/relu_3x3 -> inception_4a/3x3 (in-place)
I1227 18:31:16.677480 11661 net.cpp:144] Setting up inception_4a/relu_3x3
I1227 18:31:16.677481 11661 net.cpp:151] Top shape: 1 208 30 60 (374400)
I1227 18:31:16.677484 11661 net.cpp:159] Memory required for data: 505724416
I1227 18:31:16.677485 11661 layer_factory.hpp:77] Creating layer inception_4a/5x5_reduce
I1227 18:31:16.677489 11661 net.cpp:94] Creating Layer inception_4a/5x5_reduce
I1227 18:31:16.677491 11661 net.cpp:435] inception_4a/5x5_reduce <- pool3/3x3_s2_pool3/3x3_s2_0_split_2
I1227 18:31:16.677495 11661 net.cpp:409] inception_4a/5x5_reduce -> inception_4a/5x5_reduce_raw
I1227 18:31:16.677678 11661 net.cpp:144] Setting up inception_4a/5x5_reduce
I1227 18:31:16.677681 11661 net.cpp:151] Top shape: 1 16 30 60 (28800)
I1227 18:31:16.677685 11661 net.cpp:159] Memory required for data: 505839616
I1227 18:31:16.677687 11661 layer_factory.hpp:77] Creating layer inception_4a/5x5_reduce_BatchNorm
I1227 18:31:16.677691 11661 net.cpp:94] Creating Layer inception_4a/5x5_reduce_BatchNorm
I1227 18:31:16.677693 11661 net.cpp:435] inception_4a/5x5_reduce_BatchNorm <- inception_4a/5x5_reduce_raw
I1227 18:31:16.677696 11661 net.cpp:409] inception_4a/5x5_reduce_BatchNorm -> inception_4a/5x5_reduce
I1227 18:31:16.678056 11661 net.cpp:144] Setting up inception_4a/5x5_reduce_BatchNorm
I1227 18:31:16.678061 11661 net.cpp:151] Top shape: 1 16 30 60 (28800)
I1227 18:31:16.678062 11661 net.cpp:159] Memory required for data: 505954816
I1227 18:31:16.678072 11661 layer_factory.hpp:77] Creating layer inception_4a/relu_5x5_reduce
I1227 18:31:16.678076 11661 net.cpp:94] Creating Layer inception_4a/relu_5x5_reduce
I1227 18:31:16.678077 11661 net.cpp:435] inception_4a/relu_5x5_reduce <- inception_4a/5x5_reduce
I1227 18:31:16.678081 11661 net.cpp:396] inception_4a/relu_5x5_reduce -> inception_4a/5x5_reduce (in-place)
I1227 18:31:16.678083 11661 net.cpp:144] Setting up inception_4a/relu_5x5_reduce
I1227 18:31:16.678084 11661 net.cpp:151] Top shape: 1 16 30 60 (28800)
I1227 18:31:16.678086 11661 net.cpp:159] Memory required for data: 506070016
I1227 18:31:16.678088 11661 layer_factory.hpp:77] Creating layer inception_4a/5x5
I1227 18:31:16.678092 11661 net.cpp:94] Creating Layer inception_4a/5x5
I1227 18:31:16.678093 11661 net.cpp:435] inception_4a/5x5 <- inception_4a/5x5_reduce
I1227 18:31:16.678097 11661 net.cpp:409] inception_4a/5x5 -> inception_4a/5x5_raw
I1227 18:31:16.678333 11661 net.cpp:144] Setting up inception_4a/5x5
I1227 18:31:16.678337 11661 net.cpp:151] Top shape: 1 48 30 60 (86400)
I1227 18:31:16.678339 11661 net.cpp:159] Memory required for data: 506415616
I1227 18:31:16.678342 11661 layer_factory.hpp:77] Creating layer inception_4a/5x5_BatchNorm
I1227 18:31:16.678346 11661 net.cpp:94] Creating Layer inception_4a/5x5_BatchNorm
I1227 18:31:16.678349 11661 net.cpp:435] inception_4a/5x5_BatchNorm <- inception_4a/5x5_raw
I1227 18:31:16.678351 11661 net.cpp:409] inception_4a/5x5_BatchNorm -> inception_4a/5x5
I1227 18:31:16.678740 11661 net.cpp:144] Setting up inception_4a/5x5_BatchNorm
I1227 18:31:16.678745 11661 net.cpp:151] Top shape: 1 48 30 60 (86400)
I1227 18:31:16.678747 11661 net.cpp:159] Memory required for data: 506761216
I1227 18:31:16.678752 11661 layer_factory.hpp:77] Creating layer inception_4a/relu_5x5
I1227 18:31:16.678755 11661 net.cpp:94] Creating Layer inception_4a/relu_5x5
I1227 18:31:16.678757 11661 net.cpp:435] inception_4a/relu_5x5 <- inception_4a/5x5
I1227 18:31:16.678759 11661 net.cpp:396] inception_4a/relu_5x5 -> inception_4a/5x5 (in-place)
I1227 18:31:16.678762 11661 net.cpp:144] Setting up inception_4a/relu_5x5
I1227 18:31:16.678764 11661 net.cpp:151] Top shape: 1 48 30 60 (86400)
I1227 18:31:16.678766 11661 net.cpp:159] Memory required for data: 507106816
I1227 18:31:16.678768 11661 layer_factory.hpp:77] Creating layer inception_4a/pool
I1227 18:31:16.678771 11661 net.cpp:94] Creating Layer inception_4a/pool
I1227 18:31:16.678773 11661 net.cpp:435] inception_4a/pool <- pool3/3x3_s2_pool3/3x3_s2_0_split_3
I1227 18:31:16.678776 11661 net.cpp:409] inception_4a/pool -> inception_4a/pool
I1227 18:31:16.678794 11661 net.cpp:144] Setting up inception_4a/pool
I1227 18:31:16.678797 11661 net.cpp:151] Top shape: 1 480 30 60 (864000)
I1227 18:31:16.678799 11661 net.cpp:159] Memory required for data: 510562816
I1227 18:31:16.678800 11661 layer_factory.hpp:77] Creating layer inception_4a/pool_proj
I1227 18:31:16.678804 11661 net.cpp:94] Creating Layer inception_4a/pool_proj
I1227 18:31:16.678807 11661 net.cpp:435] inception_4a/pool_proj <- inception_4a/pool
I1227 18:31:16.678809 11661 net.cpp:409] inception_4a/pool_proj -> inception_4a/pool_proj_raw
I1227 18:31:16.679109 11661 net.cpp:144] Setting up inception_4a/pool_proj
I1227 18:31:16.679113 11661 net.cpp:151] Top shape: 1 64 30 60 (115200)
I1227 18:31:16.679116 11661 net.cpp:159] Memory required for data: 511023616
I1227 18:31:16.679121 11661 layer_factory.hpp:77] Creating layer inception_4a/pool_proj_BatchNorm
I1227 18:31:16.679123 11661 net.cpp:94] Creating Layer inception_4a/pool_proj_BatchNorm
I1227 18:31:16.679126 11661 net.cpp:435] inception_4a/pool_proj_BatchNorm <- inception_4a/pool_proj_raw
I1227 18:31:16.679128 11661 net.cpp:409] inception_4a/pool_proj_BatchNorm -> inception_4a/pool_proj
I1227 18:31:16.679513 11661 net.cpp:144] Setting up inception_4a/pool_proj_BatchNorm
I1227 18:31:16.679519 11661 net.cpp:151] Top shape: 1 64 30 60 (115200)
I1227 18:31:16.679522 11661 net.cpp:159] Memory required for data: 511484416
I1227 18:31:16.679527 11661 layer_factory.hpp:77] Creating layer inception_4a/relu_pool_proj
I1227 18:31:16.679530 11661 net.cpp:94] Creating Layer inception_4a/relu_pool_proj
I1227 18:31:16.679533 11661 net.cpp:435] inception_4a/relu_pool_proj <- inception_4a/pool_proj
I1227 18:31:16.679534 11661 net.cpp:396] inception_4a/relu_pool_proj -> inception_4a/pool_proj (in-place)
I1227 18:31:16.679538 11661 net.cpp:144] Setting up inception_4a/relu_pool_proj
I1227 18:31:16.679539 11661 net.cpp:151] Top shape: 1 64 30 60 (115200)
I1227 18:31:16.679543 11661 net.cpp:159] Memory required for data: 511945216
I1227 18:31:16.679543 11661 layer_factory.hpp:77] Creating layer inception_4a/output
I1227 18:31:16.679546 11661 net.cpp:94] Creating Layer inception_4a/output
I1227 18:31:16.679548 11661 net.cpp:435] inception_4a/output <- inception_4a/1x1
I1227 18:31:16.679550 11661 net.cpp:435] inception_4a/output <- inception_4a/3x3
I1227 18:31:16.679553 11661 net.cpp:435] inception_4a/output <- inception_4a/5x5
I1227 18:31:16.679554 11661 net.cpp:435] inception_4a/output <- inception_4a/pool_proj
I1227 18:31:16.679558 11661 net.cpp:409] inception_4a/output -> inception_4a/output
I1227 18:31:16.679569 11661 net.cpp:144] Setting up inception_4a/output
I1227 18:31:16.679572 11661 net.cpp:151] Top shape: 1 512 30 60 (921600)
I1227 18:31:16.679574 11661 net.cpp:159] Memory required for data: 515631616
I1227 18:31:16.679576 11661 layer_factory.hpp:77] Creating layer inception_4a/output_inception_4a/output_0_split
I1227 18:31:16.679580 11661 net.cpp:94] Creating Layer inception_4a/output_inception_4a/output_0_split
I1227 18:31:16.679582 11661 net.cpp:435] inception_4a/output_inception_4a/output_0_split <- inception_4a/output
I1227 18:31:16.679584 11661 net.cpp:409] inception_4a/output_inception_4a/output_0_split -> inception_4a/output_inception_4a/output_0_split_0
I1227 18:31:16.679587 11661 net.cpp:409] inception_4a/output_inception_4a/output_0_split -> inception_4a/output_inception_4a/output_0_split_1
I1227 18:31:16.679590 11661 net.cpp:409] inception_4a/output_inception_4a/output_0_split -> inception_4a/output_inception_4a/output_0_split_2
I1227 18:31:16.679594 11661 net.cpp:409] inception_4a/output_inception_4a/output_0_split -> inception_4a/output_inception_4a/output_0_split_3
I1227 18:31:16.679621 11661 net.cpp:144] Setting up inception_4a/output_inception_4a/output_0_split
I1227 18:31:16.679625 11661 net.cpp:151] Top shape: 1 512 30 60 (921600)
I1227 18:31:16.679626 11661 net.cpp:151] Top shape: 1 512 30 60 (921600)
I1227 18:31:16.679630 11661 net.cpp:151] Top shape: 1 512 30 60 (921600)
I1227 18:31:16.679631 11661 net.cpp:151] Top shape: 1 512 30 60 (921600)
I1227 18:31:16.679633 11661 net.cpp:159] Memory required for data: 530377216
I1227 18:31:16.679636 11661 layer_factory.hpp:77] Creating layer inception_4b/1x1
I1227 18:31:16.679638 11661 net.cpp:94] Creating Layer inception_4b/1x1
I1227 18:31:16.679641 11661 net.cpp:435] inception_4b/1x1 <- inception_4a/output_inception_4a/output_0_split_0
I1227 18:31:16.679643 11661 net.cpp:409] inception_4b/1x1 -> inception_4b/1x1_raw
I1227 18:31:16.680212 11661 net.cpp:144] Setting up inception_4b/1x1
I1227 18:31:16.680214 11661 net.cpp:151] Top shape: 1 160 30 60 (288000)
I1227 18:31:16.680217 11661 net.cpp:159] Memory required for data: 531529216
I1227 18:31:16.680220 11661 layer_factory.hpp:77] Creating layer inception_4b/1x1_BatchNorm
I1227 18:31:16.680224 11661 net.cpp:94] Creating Layer inception_4b/1x1_BatchNorm
I1227 18:31:16.680227 11661 net.cpp:435] inception_4b/1x1_BatchNorm <- inception_4b/1x1_raw
I1227 18:31:16.680229 11661 net.cpp:409] inception_4b/1x1_BatchNorm -> inception_4b/1x1
I1227 18:31:16.680593 11661 net.cpp:144] Setting up inception_4b/1x1_BatchNorm
I1227 18:31:16.680598 11661 net.cpp:151] Top shape: 1 160 30 60 (288000)
I1227 18:31:16.680599 11661 net.cpp:159] Memory required for data: 532681216
I1227 18:31:16.680604 11661 layer_factory.hpp:77] Creating layer inception_4b/relu_1x1
I1227 18:31:16.680608 11661 net.cpp:94] Creating Layer inception_4b/relu_1x1
I1227 18:31:16.680609 11661 net.cpp:435] inception_4b/relu_1x1 <- inception_4b/1x1
I1227 18:31:16.680611 11661 net.cpp:396] inception_4b/relu_1x1 -> inception_4b/1x1 (in-place)
I1227 18:31:16.680614 11661 net.cpp:144] Setting up inception_4b/relu_1x1
I1227 18:31:16.680615 11661 net.cpp:151] Top shape: 1 160 30 60 (288000)
I1227 18:31:16.680619 11661 net.cpp:159] Memory required for data: 533833216
I1227 18:31:16.680619 11661 layer_factory.hpp:77] Creating layer inception_4b/3x3_reduce
I1227 18:31:16.680624 11661 net.cpp:94] Creating Layer inception_4b/3x3_reduce
I1227 18:31:16.680625 11661 net.cpp:435] inception_4b/3x3_reduce <- inception_4a/output_inception_4a/output_0_split_1
I1227 18:31:16.680629 11661 net.cpp:409] inception_4b/3x3_reduce -> inception_4b/3x3_reduce_raw
I1227 18:31:16.681073 11661 net.cpp:144] Setting up inception_4b/3x3_reduce
I1227 18:31:16.681077 11661 net.cpp:151] Top shape: 1 112 30 60 (201600)
I1227 18:31:16.681079 11661 net.cpp:159] Memory required for data: 534639616
I1227 18:31:16.681082 11661 layer_factory.hpp:77] Creating layer inception_4b/3x3_reduce_BatchNorm
I1227 18:31:16.681087 11661 net.cpp:94] Creating Layer inception_4b/3x3_reduce_BatchNorm
I1227 18:31:16.681088 11661 net.cpp:435] inception_4b/3x3_reduce_BatchNorm <- inception_4b/3x3_reduce_raw
I1227 18:31:16.681092 11661 net.cpp:409] inception_4b/3x3_reduce_BatchNorm -> inception_4b/3x3_reduce
I1227 18:31:16.681465 11661 net.cpp:144] Setting up inception_4b/3x3_reduce_BatchNorm
I1227 18:31:16.681469 11661 net.cpp:151] Top shape: 1 112 30 60 (201600)
I1227 18:31:16.681471 11661 net.cpp:159] Memory required for data: 535446016
I1227 18:31:16.681476 11661 layer_factory.hpp:77] Creating layer inception_4b/relu_3x3_reduce
I1227 18:31:16.681479 11661 net.cpp:94] Creating Layer inception_4b/relu_3x3_reduce
I1227 18:31:16.681481 11661 net.cpp:435] inception_4b/relu_3x3_reduce <- inception_4b/3x3_reduce
I1227 18:31:16.681484 11661 net.cpp:396] inception_4b/relu_3x3_reduce -> inception_4b/3x3_reduce (in-place)
I1227 18:31:16.681488 11661 net.cpp:144] Setting up inception_4b/relu_3x3_reduce
I1227 18:31:16.681488 11661 net.cpp:151] Top shape: 1 112 30 60 (201600)
I1227 18:31:16.681491 11661 net.cpp:159] Memory required for data: 536252416
I1227 18:31:16.681493 11661 layer_factory.hpp:77] Creating layer inception_4b/3x3
I1227 18:31:16.681496 11661 net.cpp:94] Creating Layer inception_4b/3x3
I1227 18:31:16.681499 11661 net.cpp:435] inception_4b/3x3 <- inception_4b/3x3_reduce
I1227 18:31:16.681501 11661 net.cpp:409] inception_4b/3x3 -> inception_4b/3x3_raw
I1227 18:31:16.683409 11661 net.cpp:144] Setting up inception_4b/3x3
I1227 18:31:16.683415 11661 net.cpp:151] Top shape: 1 224 30 60 (403200)
I1227 18:31:16.683418 11661 net.cpp:159] Memory required for data: 537865216
I1227 18:31:16.683423 11661 layer_factory.hpp:77] Creating layer inception_4b/3x3_BatchNorm
I1227 18:31:16.683426 11661 net.cpp:94] Creating Layer inception_4b/3x3_BatchNorm
I1227 18:31:16.683429 11661 net.cpp:435] inception_4b/3x3_BatchNorm <- inception_4b/3x3_raw
I1227 18:31:16.683432 11661 net.cpp:409] inception_4b/3x3_BatchNorm -> inception_4b/3x3
I1227 18:31:16.683806 11661 net.cpp:144] Setting up inception_4b/3x3_BatchNorm
I1227 18:31:16.683809 11661 net.cpp:151] Top shape: 1 224 30 60 (403200)
I1227 18:31:16.683812 11661 net.cpp:159] Memory required for data: 539478016
I1227 18:31:16.683817 11661 layer_factory.hpp:77] Creating layer inception_4b/relu_3x3
I1227 18:31:16.683820 11661 net.cpp:94] Creating Layer inception_4b/relu_3x3
I1227 18:31:16.683822 11661 net.cpp:435] inception_4b/relu_3x3 <- inception_4b/3x3
I1227 18:31:16.683825 11661 net.cpp:396] inception_4b/relu_3x3 -> inception_4b/3x3 (in-place)
I1227 18:31:16.683827 11661 net.cpp:144] Setting up inception_4b/relu_3x3
I1227 18:31:16.683830 11661 net.cpp:151] Top shape: 1 224 30 60 (403200)
I1227 18:31:16.683831 11661 net.cpp:159] Memory required for data: 541090816
I1227 18:31:16.683833 11661 layer_factory.hpp:77] Creating layer inception_4b/5x5_reduce
I1227 18:31:16.683837 11661 net.cpp:94] Creating Layer inception_4b/5x5_reduce
I1227 18:31:16.683840 11661 net.cpp:435] inception_4b/5x5_reduce <- inception_4a/output_inception_4a/output_0_split_2
I1227 18:31:16.683842 11661 net.cpp:409] inception_4b/5x5_reduce -> inception_4b/5x5_reduce_raw
I1227 18:31:16.684046 11661 net.cpp:144] Setting up inception_4b/5x5_reduce
I1227 18:31:16.684049 11661 net.cpp:151] Top shape: 1 24 30 60 (43200)
I1227 18:31:16.684052 11661 net.cpp:159] Memory required for data: 541263616
I1227 18:31:16.684056 11661 layer_factory.hpp:77] Creating layer inception_4b/5x5_reduce_BatchNorm
I1227 18:31:16.684059 11661 net.cpp:94] Creating Layer inception_4b/5x5_reduce_BatchNorm
I1227 18:31:16.684060 11661 net.cpp:435] inception_4b/5x5_reduce_BatchNorm <- inception_4b/5x5_reduce_raw
I1227 18:31:16.684063 11661 net.cpp:409] inception_4b/5x5_reduce_BatchNorm -> inception_4b/5x5_reduce
I1227 18:31:16.684456 11661 net.cpp:144] Setting up inception_4b/5x5_reduce_BatchNorm
I1227 18:31:16.684463 11661 net.cpp:151] Top shape: 1 24 30 60 (43200)
I1227 18:31:16.684465 11661 net.cpp:159] Memory required for data: 541436416
I1227 18:31:16.684471 11661 layer_factory.hpp:77] Creating layer inception_4b/relu_5x5_reduce
I1227 18:31:16.684474 11661 net.cpp:94] Creating Layer inception_4b/relu_5x5_reduce
I1227 18:31:16.684476 11661 net.cpp:435] inception_4b/relu_5x5_reduce <- inception_4b/5x5_reduce
I1227 18:31:16.684478 11661 net.cpp:396] inception_4b/relu_5x5_reduce -> inception_4b/5x5_reduce (in-place)
I1227 18:31:16.684482 11661 net.cpp:144] Setting up inception_4b/relu_5x5_reduce
I1227 18:31:16.684485 11661 net.cpp:151] Top shape: 1 24 30 60 (43200)
I1227 18:31:16.684487 11661 net.cpp:159] Memory required for data: 541609216
I1227 18:31:16.684489 11661 layer_factory.hpp:77] Creating layer inception_4b/5x5
I1227 18:31:16.684494 11661 net.cpp:94] Creating Layer inception_4b/5x5
I1227 18:31:16.684495 11661 net.cpp:435] inception_4b/5x5 <- inception_4b/5x5_reduce
I1227 18:31:16.684497 11661 net.cpp:409] inception_4b/5x5 -> inception_4b/5x5_raw
I1227 18:31:16.685395 11661 net.cpp:144] Setting up inception_4b/5x5
I1227 18:31:16.685400 11661 net.cpp:151] Top shape: 1 64 30 60 (115200)
I1227 18:31:16.685403 11661 net.cpp:159] Memory required for data: 542070016
I1227 18:31:16.685407 11661 layer_factory.hpp:77] Creating layer inception_4b/5x5_BatchNorm
I1227 18:31:16.685411 11661 net.cpp:94] Creating Layer inception_4b/5x5_BatchNorm
I1227 18:31:16.685415 11661 net.cpp:435] inception_4b/5x5_BatchNorm <- inception_4b/5x5_raw
I1227 18:31:16.685417 11661 net.cpp:409] inception_4b/5x5_BatchNorm -> inception_4b/5x5
I1227 18:31:16.685796 11661 net.cpp:144] Setting up inception_4b/5x5_BatchNorm
I1227 18:31:16.685799 11661 net.cpp:151] Top shape: 1 64 30 60 (115200)
I1227 18:31:16.685801 11661 net.cpp:159] Memory required for data: 542530816
I1227 18:31:16.685806 11661 layer_factory.hpp:77] Creating layer inception_4b/relu_5x5
I1227 18:31:16.685809 11661 net.cpp:94] Creating Layer inception_4b/relu_5x5
I1227 18:31:16.685811 11661 net.cpp:435] inception_4b/relu_5x5 <- inception_4b/5x5
I1227 18:31:16.685813 11661 net.cpp:396] inception_4b/relu_5x5 -> inception_4b/5x5 (in-place)
I1227 18:31:16.685817 11661 net.cpp:144] Setting up inception_4b/relu_5x5
I1227 18:31:16.685818 11661 net.cpp:151] Top shape: 1 64 30 60 (115200)
I1227 18:31:16.685820 11661 net.cpp:159] Memory required for data: 542991616
I1227 18:31:16.685822 11661 layer_factory.hpp:77] Creating layer inception_4b/pool
I1227 18:31:16.685827 11661 net.cpp:94] Creating Layer inception_4b/pool
I1227 18:31:16.685828 11661 net.cpp:435] inception_4b/pool <- inception_4a/output_inception_4a/output_0_split_3
I1227 18:31:16.685832 11661 net.cpp:409] inception_4b/pool -> inception_4b/pool
I1227 18:31:16.685849 11661 net.cpp:144] Setting up inception_4b/pool
I1227 18:31:16.685853 11661 net.cpp:151] Top shape: 1 512 30 60 (921600)
I1227 18:31:16.685854 11661 net.cpp:159] Memory required for data: 546678016
I1227 18:31:16.685856 11661 layer_factory.hpp:77] Creating layer inception_4b/pool_proj
I1227 18:31:16.685859 11661 net.cpp:94] Creating Layer inception_4b/pool_proj
I1227 18:31:16.685861 11661 net.cpp:435] inception_4b/pool_proj <- inception_4b/pool
I1227 18:31:16.685864 11661 net.cpp:409] inception_4b/pool_proj -> inception_4b/pool_proj_raw
I1227 18:31:16.686180 11661 net.cpp:144] Setting up inception_4b/pool_proj
I1227 18:31:16.686183 11661 net.cpp:151] Top shape: 1 64 30 60 (115200)
I1227 18:31:16.686187 11661 net.cpp:159] Memory required for data: 547138816
I1227 18:31:16.686189 11661 layer_factory.hpp:77] Creating layer inception_4b/pool_proj_BatchNorm
I1227 18:31:16.686193 11661 net.cpp:94] Creating Layer inception_4b/pool_proj_BatchNorm
I1227 18:31:16.686195 11661 net.cpp:435] inception_4b/pool_proj_BatchNorm <- inception_4b/pool_proj_raw
I1227 18:31:16.686198 11661 net.cpp:409] inception_4b/pool_proj_BatchNorm -> inception_4b/pool_proj
I1227 18:31:16.686587 11661 net.cpp:144] Setting up inception_4b/pool_proj_BatchNorm
I1227 18:31:16.686592 11661 net.cpp:151] Top shape: 1 64 30 60 (115200)
I1227 18:31:16.686595 11661 net.cpp:159] Memory required for data: 547599616
I1227 18:31:16.686600 11661 layer_factory.hpp:77] Creating layer inception_4b/relu_pool_proj
I1227 18:31:16.686604 11661 net.cpp:94] Creating Layer inception_4b/relu_pool_proj
I1227 18:31:16.686605 11661 net.cpp:435] inception_4b/relu_pool_proj <- inception_4b/pool_proj
I1227 18:31:16.686607 11661 net.cpp:396] inception_4b/relu_pool_proj -> inception_4b/pool_proj (in-place)
I1227 18:31:16.686610 11661 net.cpp:144] Setting up inception_4b/relu_pool_proj
I1227 18:31:16.686612 11661 net.cpp:151] Top shape: 1 64 30 60 (115200)
I1227 18:31:16.686614 11661 net.cpp:159] Memory required for data: 548060416
I1227 18:31:16.686616 11661 layer_factory.hpp:77] Creating layer inception_4b/output
I1227 18:31:16.686619 11661 net.cpp:94] Creating Layer inception_4b/output
I1227 18:31:16.686621 11661 net.cpp:435] inception_4b/output <- inception_4b/1x1
I1227 18:31:16.686623 11661 net.cpp:435] inception_4b/output <- inception_4b/3x3
I1227 18:31:16.686625 11661 net.cpp:435] inception_4b/output <- inception_4b/5x5
I1227 18:31:16.686627 11661 net.cpp:435] inception_4b/output <- inception_4b/pool_proj
I1227 18:31:16.686630 11661 net.cpp:409] inception_4b/output -> inception_4b/output
I1227 18:31:16.686642 11661 net.cpp:144] Setting up inception_4b/output
I1227 18:31:16.686645 11661 net.cpp:151] Top shape: 1 512 30 60 (921600)
I1227 18:31:16.686647 11661 net.cpp:159] Memory required for data: 551746816
I1227 18:31:16.686650 11661 layer_factory.hpp:77] Creating layer inception_4b/output_inception_4b/output_0_split
I1227 18:31:16.686652 11661 net.cpp:94] Creating Layer inception_4b/output_inception_4b/output_0_split
I1227 18:31:16.686655 11661 net.cpp:435] inception_4b/output_inception_4b/output_0_split <- inception_4b/output
I1227 18:31:16.686656 11661 net.cpp:409] inception_4b/output_inception_4b/output_0_split -> inception_4b/output_inception_4b/output_0_split_0
I1227 18:31:16.686661 11661 net.cpp:409] inception_4b/output_inception_4b/output_0_split -> inception_4b/output_inception_4b/output_0_split_1
I1227 18:31:16.686663 11661 net.cpp:409] inception_4b/output_inception_4b/output_0_split -> inception_4b/output_inception_4b/output_0_split_2
I1227 18:31:16.686666 11661 net.cpp:409] inception_4b/output_inception_4b/output_0_split -> inception_4b/output_inception_4b/output_0_split_3
I1227 18:31:16.686695 11661 net.cpp:144] Setting up inception_4b/output_inception_4b/output_0_split
I1227 18:31:16.686697 11661 net.cpp:151] Top shape: 1 512 30 60 (921600)
I1227 18:31:16.686700 11661 net.cpp:151] Top shape: 1 512 30 60 (921600)
I1227 18:31:16.686702 11661 net.cpp:151] Top shape: 1 512 30 60 (921600)
I1227 18:31:16.686704 11661 net.cpp:151] Top shape: 1 512 30 60 (921600)
I1227 18:31:16.686707 11661 net.cpp:159] Memory required for data: 566492416
I1227 18:31:16.686708 11661 layer_factory.hpp:77] Creating layer inception_4c/1x1
I1227 18:31:16.686712 11661 net.cpp:94] Creating Layer inception_4c/1x1
I1227 18:31:16.686714 11661 net.cpp:435] inception_4c/1x1 <- inception_4b/output_inception_4b/output_0_split_0
I1227 18:31:16.686717 11661 net.cpp:409] inception_4c/1x1 -> inception_4c/1x1_raw
I1227 18:31:16.687191 11661 net.cpp:144] Setting up inception_4c/1x1
I1227 18:31:16.687194 11661 net.cpp:151] Top shape: 1 128 30 60 (230400)
I1227 18:31:16.687197 11661 net.cpp:159] Memory required for data: 567414016
I1227 18:31:16.687201 11661 layer_factory.hpp:77] Creating layer inception_4c/1x1_BatchNorm
I1227 18:31:16.687204 11661 net.cpp:94] Creating Layer inception_4c/1x1_BatchNorm
I1227 18:31:16.687206 11661 net.cpp:435] inception_4c/1x1_BatchNorm <- inception_4c/1x1_raw
I1227 18:31:16.687209 11661 net.cpp:409] inception_4c/1x1_BatchNorm -> inception_4c/1x1
I1227 18:31:16.689812 11661 net.cpp:144] Setting up inception_4c/1x1_BatchNorm
I1227 18:31:16.689817 11661 net.cpp:151] Top shape: 1 128 30 60 (230400)
I1227 18:31:16.689821 11661 net.cpp:159] Memory required for data: 568335616
I1227 18:31:16.689826 11661 layer_factory.hpp:77] Creating layer inception_4c/relu_1x1
I1227 18:31:16.689829 11661 net.cpp:94] Creating Layer inception_4c/relu_1x1
I1227 18:31:16.689831 11661 net.cpp:435] inception_4c/relu_1x1 <- inception_4c/1x1
I1227 18:31:16.689833 11661 net.cpp:396] inception_4c/relu_1x1 -> inception_4c/1x1 (in-place)
I1227 18:31:16.689836 11661 net.cpp:144] Setting up inception_4c/relu_1x1
I1227 18:31:16.689838 11661 net.cpp:151] Top shape: 1 128 30 60 (230400)
I1227 18:31:16.689841 11661 net.cpp:159] Memory required for data: 569257216
I1227 18:31:16.689842 11661 layer_factory.hpp:77] Creating layer inception_4c/3x3_reduce
I1227 18:31:16.689846 11661 net.cpp:94] Creating Layer inception_4c/3x3_reduce
I1227 18:31:16.689848 11661 net.cpp:435] inception_4c/3x3_reduce <- inception_4b/output_inception_4b/output_0_split_1
I1227 18:31:16.689851 11661 net.cpp:409] inception_4c/3x3_reduce -> inception_4c/3x3_reduce_raw
I1227 18:31:16.691025 11661 net.cpp:144] Setting up inception_4c/3x3_reduce
I1227 18:31:16.691031 11661 net.cpp:151] Top shape: 1 128 30 60 (230400)
I1227 18:31:16.691035 11661 net.cpp:159] Memory required for data: 570178816
I1227 18:31:16.691037 11661 layer_factory.hpp:77] Creating layer inception_4c/3x3_reduce_BatchNorm
I1227 18:31:16.691041 11661 net.cpp:94] Creating Layer inception_4c/3x3_reduce_BatchNorm
I1227 18:31:16.691043 11661 net.cpp:435] inception_4c/3x3_reduce_BatchNorm <- inception_4c/3x3_reduce_raw
I1227 18:31:16.691046 11661 net.cpp:409] inception_4c/3x3_reduce_BatchNorm -> inception_4c/3x3_reduce
I1227 18:31:16.691363 11661 net.cpp:144] Setting up inception_4c/3x3_reduce_BatchNorm
I1227 18:31:16.691368 11661 net.cpp:151] Top shape: 1 128 30 60 (230400)
I1227 18:31:16.691371 11661 net.cpp:159] Memory required for data: 571100416
I1227 18:31:16.691376 11661 layer_factory.hpp:77] Creating layer inception_4c/relu_3x3_reduce
I1227 18:31:16.691378 11661 net.cpp:94] Creating Layer inception_4c/relu_3x3_reduce
I1227 18:31:16.691380 11661 net.cpp:435] inception_4c/relu_3x3_reduce <- inception_4c/3x3_reduce
I1227 18:31:16.691383 11661 net.cpp:396] inception_4c/relu_3x3_reduce -> inception_4c/3x3_reduce (in-place)
I1227 18:31:16.691386 11661 net.cpp:144] Setting up inception_4c/relu_3x3_reduce
I1227 18:31:16.691387 11661 net.cpp:151] Top shape: 1 128 30 60 (230400)
I1227 18:31:16.691390 11661 net.cpp:159] Memory required for data: 572022016
I1227 18:31:16.691391 11661 layer_factory.hpp:77] Creating layer inception_4c/3x3
I1227 18:31:16.691395 11661 net.cpp:94] Creating Layer inception_4c/3x3
I1227 18:31:16.691397 11661 net.cpp:435] inception_4c/3x3 <- inception_4c/3x3_reduce
I1227 18:31:16.691401 11661 net.cpp:409] inception_4c/3x3 -> inception_4c/3x3_raw
I1227 18:31:16.694262 11661 net.cpp:144] Setting up inception_4c/3x3
I1227 18:31:16.694272 11661 net.cpp:151] Top shape: 1 256 30 60 (460800)
I1227 18:31:16.694276 11661 net.cpp:159] Memory required for data: 573865216
I1227 18:31:16.694283 11661 layer_factory.hpp:77] Creating layer inception_4c/3x3_BatchNorm
I1227 18:31:16.694290 11661 net.cpp:94] Creating Layer inception_4c/3x3_BatchNorm
I1227 18:31:16.694294 11661 net.cpp:435] inception_4c/3x3_BatchNorm <- inception_4c/3x3_raw
I1227 18:31:16.694299 11661 net.cpp:409] inception_4c/3x3_BatchNorm -> inception_4c/3x3
I1227 18:31:16.694700 11661 net.cpp:144] Setting up inception_4c/3x3_BatchNorm
I1227 18:31:16.694707 11661 net.cpp:151] Top shape: 1 256 30 60 (460800)
I1227 18:31:16.694710 11661 net.cpp:159] Memory required for data: 575708416
I1227 18:31:16.694718 11661 layer_factory.hpp:77] Creating layer inception_4c/relu_3x3
I1227 18:31:16.694723 11661 net.cpp:94] Creating Layer inception_4c/relu_3x3
I1227 18:31:16.694726 11661 net.cpp:435] inception_4c/relu_3x3 <- inception_4c/3x3
I1227 18:31:16.694730 11661 net.cpp:396] inception_4c/relu_3x3 -> inception_4c/3x3 (in-place)
I1227 18:31:16.694736 11661 net.cpp:144] Setting up inception_4c/relu_3x3
I1227 18:31:16.694738 11661 net.cpp:151] Top shape: 1 256 30 60 (460800)
I1227 18:31:16.694741 11661 net.cpp:159] Memory required for data: 577551616
I1227 18:31:16.694743 11661 layer_factory.hpp:77] Creating layer inception_4c/5x5_reduce
I1227 18:31:16.694749 11661 net.cpp:94] Creating Layer inception_4c/5x5_reduce
I1227 18:31:16.694752 11661 net.cpp:435] inception_4c/5x5_reduce <- inception_4b/output_inception_4b/output_0_split_2
I1227 18:31:16.694756 11661 net.cpp:409] inception_4c/5x5_reduce -> inception_4c/5x5_reduce_raw
I1227 18:31:16.694988 11661 net.cpp:144] Setting up inception_4c/5x5_reduce
I1227 18:31:16.694991 11661 net.cpp:151] Top shape: 1 24 30 60 (43200)
I1227 18:31:16.694994 11661 net.cpp:159] Memory required for data: 577724416
I1227 18:31:16.694998 11661 layer_factory.hpp:77] Creating layer inception_4c/5x5_reduce_BatchNorm
I1227 18:31:16.695001 11661 net.cpp:94] Creating Layer inception_4c/5x5_reduce_BatchNorm
I1227 18:31:16.695003 11661 net.cpp:435] inception_4c/5x5_reduce_BatchNorm <- inception_4c/5x5_reduce_raw
I1227 18:31:16.695006 11661 net.cpp:409] inception_4c/5x5_reduce_BatchNorm -> inception_4c/5x5_reduce
I1227 18:31:16.695399 11661 net.cpp:144] Setting up inception_4c/5x5_reduce_BatchNorm
I1227 18:31:16.695405 11661 net.cpp:151] Top shape: 1 24 30 60 (43200)
I1227 18:31:16.695407 11661 net.cpp:159] Memory required for data: 577897216
I1227 18:31:16.695413 11661 layer_factory.hpp:77] Creating layer inception_4c/relu_5x5_reduce
I1227 18:31:16.695416 11661 net.cpp:94] Creating Layer inception_4c/relu_5x5_reduce
I1227 18:31:16.695418 11661 net.cpp:435] inception_4c/relu_5x5_reduce <- inception_4c/5x5_reduce
I1227 18:31:16.695421 11661 net.cpp:396] inception_4c/relu_5x5_reduce -> inception_4c/5x5_reduce (in-place)
I1227 18:31:16.695425 11661 net.cpp:144] Setting up inception_4c/relu_5x5_reduce
I1227 18:31:16.695426 11661 net.cpp:151] Top shape: 1 24 30 60 (43200)
I1227 18:31:16.695428 11661 net.cpp:159] Memory required for data: 578070016
I1227 18:31:16.695430 11661 layer_factory.hpp:77] Creating layer inception_4c/5x5
I1227 18:31:16.695434 11661 net.cpp:94] Creating Layer inception_4c/5x5
I1227 18:31:16.695436 11661 net.cpp:435] inception_4c/5x5 <- inception_4c/5x5_reduce
I1227 18:31:16.695439 11661 net.cpp:409] inception_4c/5x5 -> inception_4c/5x5_raw
I1227 18:31:16.695787 11661 net.cpp:144] Setting up inception_4c/5x5
I1227 18:31:16.695791 11661 net.cpp:151] Top shape: 1 64 30 60 (115200)
I1227 18:31:16.695793 11661 net.cpp:159] Memory required for data: 578530816
I1227 18:31:16.695796 11661 layer_factory.hpp:77] Creating layer inception_4c/5x5_BatchNorm
I1227 18:31:16.695801 11661 net.cpp:94] Creating Layer inception_4c/5x5_BatchNorm
I1227 18:31:16.695802 11661 net.cpp:435] inception_4c/5x5_BatchNorm <- inception_4c/5x5_raw
I1227 18:31:16.695804 11661 net.cpp:409] inception_4c/5x5_BatchNorm -> inception_4c/5x5
I1227 18:31:16.696179 11661 net.cpp:144] Setting up inception_4c/5x5_BatchNorm
I1227 18:31:16.696183 11661 net.cpp:151] Top shape: 1 64 30 60 (115200)
I1227 18:31:16.696187 11661 net.cpp:159] Memory required for data: 578991616
I1227 18:31:16.696192 11661 layer_factory.hpp:77] Creating layer inception_4c/relu_5x5
I1227 18:31:16.696193 11661 net.cpp:94] Creating Layer inception_4c/relu_5x5
I1227 18:31:16.696195 11661 net.cpp:435] inception_4c/relu_5x5 <- inception_4c/5x5
I1227 18:31:16.696198 11661 net.cpp:396] inception_4c/relu_5x5 -> inception_4c/5x5 (in-place)
I1227 18:31:16.696202 11661 net.cpp:144] Setting up inception_4c/relu_5x5
I1227 18:31:16.696202 11661 net.cpp:151] Top shape: 1 64 30 60 (115200)
I1227 18:31:16.696204 11661 net.cpp:159] Memory required for data: 579452416
I1227 18:31:16.696206 11661 layer_factory.hpp:77] Creating layer inception_4c/pool
I1227 18:31:16.696210 11661 net.cpp:94] Creating Layer inception_4c/pool
I1227 18:31:16.696211 11661 net.cpp:435] inception_4c/pool <- inception_4b/output_inception_4b/output_0_split_3
I1227 18:31:16.696214 11661 net.cpp:409] inception_4c/pool -> inception_4c/pool
I1227 18:31:16.696233 11661 net.cpp:144] Setting up inception_4c/pool
I1227 18:31:16.696235 11661 net.cpp:151] Top shape: 1 512 30 60 (921600)
I1227 18:31:16.696238 11661 net.cpp:159] Memory required for data: 583138816
I1227 18:31:16.696239 11661 layer_factory.hpp:77] Creating layer inception_4c/pool_proj
I1227 18:31:16.696242 11661 net.cpp:94] Creating Layer inception_4c/pool_proj
I1227 18:31:16.696244 11661 net.cpp:435] inception_4c/pool_proj <- inception_4c/pool
I1227 18:31:16.696247 11661 net.cpp:409] inception_4c/pool_proj -> inception_4c/pool_proj_raw
I1227 18:31:16.696558 11661 net.cpp:144] Setting up inception_4c/pool_proj
I1227 18:31:16.696561 11661 net.cpp:151] Top shape: 1 64 30 60 (115200)
I1227 18:31:16.696564 11661 net.cpp:159] Memory required for data: 583599616
I1227 18:31:16.696568 11661 layer_factory.hpp:77] Creating layer inception_4c/pool_proj_BatchNorm
I1227 18:31:16.696571 11661 net.cpp:94] Creating Layer inception_4c/pool_proj_BatchNorm
I1227 18:31:16.696573 11661 net.cpp:435] inception_4c/pool_proj_BatchNorm <- inception_4c/pool_proj_raw
I1227 18:31:16.696575 11661 net.cpp:409] inception_4c/pool_proj_BatchNorm -> inception_4c/pool_proj
I1227 18:31:16.696949 11661 net.cpp:144] Setting up inception_4c/pool_proj_BatchNorm
I1227 18:31:16.696952 11661 net.cpp:151] Top shape: 1 64 30 60 (115200)
I1227 18:31:16.696955 11661 net.cpp:159] Memory required for data: 584060416
I1227 18:31:16.696959 11661 layer_factory.hpp:77] Creating layer inception_4c/relu_pool_proj
I1227 18:31:16.696962 11661 net.cpp:94] Creating Layer inception_4c/relu_pool_proj
I1227 18:31:16.696964 11661 net.cpp:435] inception_4c/relu_pool_proj <- inception_4c/pool_proj
I1227 18:31:16.696966 11661 net.cpp:396] inception_4c/relu_pool_proj -> inception_4c/pool_proj (in-place)
I1227 18:31:16.696969 11661 net.cpp:144] Setting up inception_4c/relu_pool_proj
I1227 18:31:16.696971 11661 net.cpp:151] Top shape: 1 64 30 60 (115200)
I1227 18:31:16.696974 11661 net.cpp:159] Memory required for data: 584521216
I1227 18:31:16.696975 11661 layer_factory.hpp:77] Creating layer inception_4c/output
I1227 18:31:16.696979 11661 net.cpp:94] Creating Layer inception_4c/output
I1227 18:31:16.696980 11661 net.cpp:435] inception_4c/output <- inception_4c/1x1
I1227 18:31:16.696982 11661 net.cpp:435] inception_4c/output <- inception_4c/3x3
I1227 18:31:16.696985 11661 net.cpp:435] inception_4c/output <- inception_4c/5x5
I1227 18:31:16.696985 11661 net.cpp:435] inception_4c/output <- inception_4c/pool_proj
I1227 18:31:16.696988 11661 net.cpp:409] inception_4c/output -> inception_4c/output
I1227 18:31:16.697000 11661 net.cpp:144] Setting up inception_4c/output
I1227 18:31:16.697002 11661 net.cpp:151] Top shape: 1 512 30 60 (921600)
I1227 18:31:16.697005 11661 net.cpp:159] Memory required for data: 588207616
I1227 18:31:16.697006 11661 layer_factory.hpp:77] Creating layer inception_4c/output_inception_4c/output_0_split
I1227 18:31:16.697010 11661 net.cpp:94] Creating Layer inception_4c/output_inception_4c/output_0_split
I1227 18:31:16.697012 11661 net.cpp:435] inception_4c/output_inception_4c/output_0_split <- inception_4c/output
I1227 18:31:16.697014 11661 net.cpp:409] inception_4c/output_inception_4c/output_0_split -> inception_4c/output_inception_4c/output_0_split_0
I1227 18:31:16.697017 11661 net.cpp:409] inception_4c/output_inception_4c/output_0_split -> inception_4c/output_inception_4c/output_0_split_1
I1227 18:31:16.697021 11661 net.cpp:409] inception_4c/output_inception_4c/output_0_split -> inception_4c/output_inception_4c/output_0_split_2
I1227 18:31:16.697023 11661 net.cpp:409] inception_4c/output_inception_4c/output_0_split -> inception_4c/output_inception_4c/output_0_split_3
I1227 18:31:16.697053 11661 net.cpp:144] Setting up inception_4c/output_inception_4c/output_0_split
I1227 18:31:16.697057 11661 net.cpp:151] Top shape: 1 512 30 60 (921600)
I1227 18:31:16.697062 11661 net.cpp:151] Top shape: 1 512 30 60 (921600)
I1227 18:31:16.697064 11661 net.cpp:151] Top shape: 1 512 30 60 (921600)
I1227 18:31:16.697067 11661 net.cpp:151] Top shape: 1 512 30 60 (921600)
I1227 18:31:16.697072 11661 net.cpp:159] Memory required for data: 602953216
I1227 18:31:16.697073 11661 layer_factory.hpp:77] Creating layer inception_4d/1x1
I1227 18:31:16.697079 11661 net.cpp:94] Creating Layer inception_4d/1x1
I1227 18:31:16.697082 11661 net.cpp:435] inception_4d/1x1 <- inception_4c/output_inception_4c/output_0_split_0
I1227 18:31:16.697086 11661 net.cpp:409] inception_4d/1x1 -> inception_4d/1x1_raw
I1227 18:31:16.697536 11661 net.cpp:144] Setting up inception_4d/1x1
I1227 18:31:16.697541 11661 net.cpp:151] Top shape: 1 112 30 60 (201600)
I1227 18:31:16.697543 11661 net.cpp:159] Memory required for data: 603759616
I1227 18:31:16.697547 11661 layer_factory.hpp:77] Creating layer inception_4d/1x1_BatchNorm
I1227 18:31:16.697551 11661 net.cpp:94] Creating Layer inception_4d/1x1_BatchNorm
I1227 18:31:16.697553 11661 net.cpp:435] inception_4d/1x1_BatchNorm <- inception_4d/1x1_raw
I1227 18:31:16.697556 11661 net.cpp:409] inception_4d/1x1_BatchNorm -> inception_4d/1x1
I1227 18:31:16.697926 11661 net.cpp:144] Setting up inception_4d/1x1_BatchNorm
I1227 18:31:16.697930 11661 net.cpp:151] Top shape: 1 112 30 60 (201600)
I1227 18:31:16.697933 11661 net.cpp:159] Memory required for data: 604566016
I1227 18:31:16.697938 11661 layer_factory.hpp:77] Creating layer inception_4d/relu_1x1
I1227 18:31:16.697942 11661 net.cpp:94] Creating Layer inception_4d/relu_1x1
I1227 18:31:16.697943 11661 net.cpp:435] inception_4d/relu_1x1 <- inception_4d/1x1
I1227 18:31:16.697945 11661 net.cpp:396] inception_4d/relu_1x1 -> inception_4d/1x1 (in-place)
I1227 18:31:16.697948 11661 net.cpp:144] Setting up inception_4d/relu_1x1
I1227 18:31:16.697950 11661 net.cpp:151] Top shape: 1 112 30 60 (201600)
I1227 18:31:16.697952 11661 net.cpp:159] Memory required for data: 605372416
I1227 18:31:16.697954 11661 layer_factory.hpp:77] Creating layer inception_4d/3x3_reduce
I1227 18:31:16.697957 11661 net.cpp:94] Creating Layer inception_4d/3x3_reduce
I1227 18:31:16.697959 11661 net.cpp:435] inception_4d/3x3_reduce <- inception_4c/output_inception_4c/output_0_split_1
I1227 18:31:16.697962 11661 net.cpp:409] inception_4d/3x3_reduce -> inception_4d/3x3_reduce_raw
I1227 18:31:16.698490 11661 net.cpp:144] Setting up inception_4d/3x3_reduce
I1227 18:31:16.698494 11661 net.cpp:151] Top shape: 1 144 30 60 (259200)
I1227 18:31:16.698498 11661 net.cpp:159] Memory required for data: 606409216
I1227 18:31:16.698500 11661 layer_factory.hpp:77] Creating layer inception_4d/3x3_reduce_BatchNorm
I1227 18:31:16.698503 11661 net.cpp:94] Creating Layer inception_4d/3x3_reduce_BatchNorm
I1227 18:31:16.698505 11661 net.cpp:435] inception_4d/3x3_reduce_BatchNorm <- inception_4d/3x3_reduce_raw
I1227 18:31:16.698508 11661 net.cpp:409] inception_4d/3x3_reduce_BatchNorm -> inception_4d/3x3_reduce
I1227 18:31:16.698896 11661 net.cpp:144] Setting up inception_4d/3x3_reduce_BatchNorm
I1227 18:31:16.698900 11661 net.cpp:151] Top shape: 1 144 30 60 (259200)
I1227 18:31:16.698904 11661 net.cpp:159] Memory required for data: 607446016
I1227 18:31:16.698909 11661 layer_factory.hpp:77] Creating layer inception_4d/relu_3x3_reduce
I1227 18:31:16.698911 11661 net.cpp:94] Creating Layer inception_4d/relu_3x3_reduce
I1227 18:31:16.698913 11661 net.cpp:435] inception_4d/relu_3x3_reduce <- inception_4d/3x3_reduce
I1227 18:31:16.698916 11661 net.cpp:396] inception_4d/relu_3x3_reduce -> inception_4d/3x3_reduce (in-place)
I1227 18:31:16.698920 11661 net.cpp:144] Setting up inception_4d/relu_3x3_reduce
I1227 18:31:16.698920 11661 net.cpp:151] Top shape: 1 144 30 60 (259200)
I1227 18:31:16.698923 11661 net.cpp:159] Memory required for data: 608482816
I1227 18:31:16.698925 11661 layer_factory.hpp:77] Creating layer inception_4d/3x3
I1227 18:31:16.698931 11661 net.cpp:94] Creating Layer inception_4d/3x3
I1227 18:31:16.698932 11661 net.cpp:435] inception_4d/3x3 <- inception_4d/3x3_reduce
I1227 18:31:16.698935 11661 net.cpp:409] inception_4d/3x3 -> inception_4d/3x3_raw
I1227 18:31:16.702181 11661 net.cpp:144] Setting up inception_4d/3x3
I1227 18:31:16.702190 11661 net.cpp:151] Top shape: 1 288 30 60 (518400)
I1227 18:31:16.702195 11661 net.cpp:159] Memory required for data: 610556416
I1227 18:31:16.702200 11661 layer_factory.hpp:77] Creating layer inception_4d/3x3_BatchNorm
I1227 18:31:16.702205 11661 net.cpp:94] Creating Layer inception_4d/3x3_BatchNorm
I1227 18:31:16.702208 11661 net.cpp:435] inception_4d/3x3_BatchNorm <- inception_4d/3x3_raw
I1227 18:31:16.702212 11661 net.cpp:409] inception_4d/3x3_BatchNorm -> inception_4d/3x3
I1227 18:31:16.702618 11661 net.cpp:144] Setting up inception_4d/3x3_BatchNorm
I1227 18:31:16.702622 11661 net.cpp:151] Top shape: 1 288 30 60 (518400)
I1227 18:31:16.702625 11661 net.cpp:159] Memory required for data: 612630016
I1227 18:31:16.702631 11661 layer_factory.hpp:77] Creating layer inception_4d/relu_3x3
I1227 18:31:16.702634 11661 net.cpp:94] Creating Layer inception_4d/relu_3x3
I1227 18:31:16.702636 11661 net.cpp:435] inception_4d/relu_3x3 <- inception_4d/3x3
I1227 18:31:16.702638 11661 net.cpp:396] inception_4d/relu_3x3 -> inception_4d/3x3 (in-place)
I1227 18:31:16.702643 11661 net.cpp:144] Setting up inception_4d/relu_3x3
I1227 18:31:16.702644 11661 net.cpp:151] Top shape: 1 288 30 60 (518400)
I1227 18:31:16.702647 11661 net.cpp:159] Memory required for data: 614703616
I1227 18:31:16.702648 11661 layer_factory.hpp:77] Creating layer inception_4d/5x5_reduce
I1227 18:31:16.702653 11661 net.cpp:94] Creating Layer inception_4d/5x5_reduce
I1227 18:31:16.702656 11661 net.cpp:435] inception_4d/5x5_reduce <- inception_4c/output_inception_4c/output_0_split_2
I1227 18:31:16.702658 11661 net.cpp:409] inception_4d/5x5_reduce -> inception_4d/5x5_reduce_raw
I1227 18:31:16.702893 11661 net.cpp:144] Setting up inception_4d/5x5_reduce
I1227 18:31:16.702898 11661 net.cpp:151] Top shape: 1 32 30 60 (57600)
I1227 18:31:16.702899 11661 net.cpp:159] Memory required for data: 614934016
I1227 18:31:16.702903 11661 layer_factory.hpp:77] Creating layer inception_4d/5x5_reduce_BatchNorm
I1227 18:31:16.702908 11661 net.cpp:94] Creating Layer inception_4d/5x5_reduce_BatchNorm
I1227 18:31:16.702909 11661 net.cpp:435] inception_4d/5x5_reduce_BatchNorm <- inception_4d/5x5_reduce_raw
I1227 18:31:16.702911 11661 net.cpp:409] inception_4d/5x5_reduce_BatchNorm -> inception_4d/5x5_reduce
I1227 18:31:16.703285 11661 net.cpp:144] Setting up inception_4d/5x5_reduce_BatchNorm
I1227 18:31:16.703289 11661 net.cpp:151] Top shape: 1 32 30 60 (57600)
I1227 18:31:16.703292 11661 net.cpp:159] Memory required for data: 615164416
I1227 18:31:16.703302 11661 layer_factory.hpp:77] Creating layer inception_4d/relu_5x5_reduce
I1227 18:31:16.703305 11661 net.cpp:94] Creating Layer inception_4d/relu_5x5_reduce
I1227 18:31:16.703307 11661 net.cpp:435] inception_4d/relu_5x5_reduce <- inception_4d/5x5_reduce
I1227 18:31:16.703310 11661 net.cpp:396] inception_4d/relu_5x5_reduce -> inception_4d/5x5_reduce (in-place)
I1227 18:31:16.703313 11661 net.cpp:144] Setting up inception_4d/relu_5x5_reduce
I1227 18:31:16.703315 11661 net.cpp:151] Top shape: 1 32 30 60 (57600)
I1227 18:31:16.703317 11661 net.cpp:159] Memory required for data: 615394816
I1227 18:31:16.703318 11661 layer_factory.hpp:77] Creating layer inception_4d/5x5
I1227 18:31:16.703323 11661 net.cpp:94] Creating Layer inception_4d/5x5
I1227 18:31:16.703325 11661 net.cpp:435] inception_4d/5x5 <- inception_4d/5x5_reduce
I1227 18:31:16.703327 11661 net.cpp:409] inception_4d/5x5 -> inception_4d/5x5_raw
I1227 18:31:16.703739 11661 net.cpp:144] Setting up inception_4d/5x5
I1227 18:31:16.703743 11661 net.cpp:151] Top shape: 1 64 30 60 (115200)
I1227 18:31:16.703747 11661 net.cpp:159] Memory required for data: 615855616
I1227 18:31:16.703749 11661 layer_factory.hpp:77] Creating layer inception_4d/5x5_BatchNorm
I1227 18:31:16.703753 11661 net.cpp:94] Creating Layer inception_4d/5x5_BatchNorm
I1227 18:31:16.703755 11661 net.cpp:435] inception_4d/5x5_BatchNorm <- inception_4d/5x5_raw
I1227 18:31:16.703758 11661 net.cpp:409] inception_4d/5x5_BatchNorm -> inception_4d/5x5
I1227 18:31:16.704142 11661 net.cpp:144] Setting up inception_4d/5x5_BatchNorm
I1227 18:31:16.704146 11661 net.cpp:151] Top shape: 1 64 30 60 (115200)
I1227 18:31:16.704149 11661 net.cpp:159] Memory required for data: 616316416
I1227 18:31:16.704154 11661 layer_factory.hpp:77] Creating layer inception_4d/relu_5x5
I1227 18:31:16.704156 11661 net.cpp:94] Creating Layer inception_4d/relu_5x5
I1227 18:31:16.704159 11661 net.cpp:435] inception_4d/relu_5x5 <- inception_4d/5x5
I1227 18:31:16.704161 11661 net.cpp:396] inception_4d/relu_5x5 -> inception_4d/5x5 (in-place)
I1227 18:31:16.704164 11661 net.cpp:144] Setting up inception_4d/relu_5x5
I1227 18:31:16.704165 11661 net.cpp:151] Top shape: 1 64 30 60 (115200)
I1227 18:31:16.704169 11661 net.cpp:159] Memory required for data: 616777216
I1227 18:31:16.704169 11661 layer_factory.hpp:77] Creating layer inception_4d/pool
I1227 18:31:16.704174 11661 net.cpp:94] Creating Layer inception_4d/pool
I1227 18:31:16.704175 11661 net.cpp:435] inception_4d/pool <- inception_4c/output_inception_4c/output_0_split_3
I1227 18:31:16.704177 11661 net.cpp:409] inception_4d/pool -> inception_4d/pool
I1227 18:31:16.704195 11661 net.cpp:144] Setting up inception_4d/pool
I1227 18:31:16.704200 11661 net.cpp:151] Top shape: 1 512 30 60 (921600)
I1227 18:31:16.704201 11661 net.cpp:159] Memory required for data: 620463616
I1227 18:31:16.704202 11661 layer_factory.hpp:77] Creating layer inception_4d/pool_proj
I1227 18:31:16.704207 11661 net.cpp:94] Creating Layer inception_4d/pool_proj
I1227 18:31:16.704210 11661 net.cpp:435] inception_4d/pool_proj <- inception_4d/pool
I1227 18:31:16.704211 11661 net.cpp:409] inception_4d/pool_proj -> inception_4d/pool_proj_raw
I1227 18:31:16.704526 11661 net.cpp:144] Setting up inception_4d/pool_proj
I1227 18:31:16.704530 11661 net.cpp:151] Top shape: 1 64 30 60 (115200)
I1227 18:31:16.704532 11661 net.cpp:159] Memory required for data: 620924416
I1227 18:31:16.704535 11661 layer_factory.hpp:77] Creating layer inception_4d/pool_proj_BatchNorm
I1227 18:31:16.704540 11661 net.cpp:94] Creating Layer inception_4d/pool_proj_BatchNorm
I1227 18:31:16.704541 11661 net.cpp:435] inception_4d/pool_proj_BatchNorm <- inception_4d/pool_proj_raw
I1227 18:31:16.704545 11661 net.cpp:409] inception_4d/pool_proj_BatchNorm -> inception_4d/pool_proj
I1227 18:31:16.704949 11661 net.cpp:144] Setting up inception_4d/pool_proj_BatchNorm
I1227 18:31:16.704957 11661 net.cpp:151] Top shape: 1 64 30 60 (115200)
I1227 18:31:16.704959 11661 net.cpp:159] Memory required for data: 621385216
I1227 18:31:16.704964 11661 layer_factory.hpp:77] Creating layer inception_4d/relu_pool_proj
I1227 18:31:16.704967 11661 net.cpp:94] Creating Layer inception_4d/relu_pool_proj
I1227 18:31:16.704969 11661 net.cpp:435] inception_4d/relu_pool_proj <- inception_4d/pool_proj
I1227 18:31:16.704972 11661 net.cpp:396] inception_4d/relu_pool_proj -> inception_4d/pool_proj (in-place)
I1227 18:31:16.704975 11661 net.cpp:144] Setting up inception_4d/relu_pool_proj
I1227 18:31:16.704977 11661 net.cpp:151] Top shape: 1 64 30 60 (115200)
I1227 18:31:16.704979 11661 net.cpp:159] Memory required for data: 621846016
I1227 18:31:16.704982 11661 layer_factory.hpp:77] Creating layer inception_4d/output
I1227 18:31:16.704984 11661 net.cpp:94] Creating Layer inception_4d/output
I1227 18:31:16.704986 11661 net.cpp:435] inception_4d/output <- inception_4d/1x1
I1227 18:31:16.704988 11661 net.cpp:435] inception_4d/output <- inception_4d/3x3
I1227 18:31:16.704990 11661 net.cpp:435] inception_4d/output <- inception_4d/5x5
I1227 18:31:16.704993 11661 net.cpp:435] inception_4d/output <- inception_4d/pool_proj
I1227 18:31:16.704994 11661 net.cpp:409] inception_4d/output -> inception_4d/output
I1227 18:31:16.705008 11661 net.cpp:144] Setting up inception_4d/output
I1227 18:31:16.705010 11661 net.cpp:151] Top shape: 1 528 30 60 (950400)
I1227 18:31:16.705013 11661 net.cpp:159] Memory required for data: 625647616
I1227 18:31:16.705014 11661 layer_factory.hpp:77] Creating layer inception_4d/output_inception_4d/output_0_split
I1227 18:31:16.705018 11661 net.cpp:94] Creating Layer inception_4d/output_inception_4d/output_0_split
I1227 18:31:16.705019 11661 net.cpp:435] inception_4d/output_inception_4d/output_0_split <- inception_4d/output
I1227 18:31:16.705022 11661 net.cpp:409] inception_4d/output_inception_4d/output_0_split -> inception_4d/output_inception_4d/output_0_split_0
I1227 18:31:16.705025 11661 net.cpp:409] inception_4d/output_inception_4d/output_0_split -> inception_4d/output_inception_4d/output_0_split_1
I1227 18:31:16.705029 11661 net.cpp:409] inception_4d/output_inception_4d/output_0_split -> inception_4d/output_inception_4d/output_0_split_2
I1227 18:31:16.705032 11661 net.cpp:409] inception_4d/output_inception_4d/output_0_split -> inception_4d/output_inception_4d/output_0_split_3
I1227 18:31:16.705061 11661 net.cpp:144] Setting up inception_4d/output_inception_4d/output_0_split
I1227 18:31:16.705065 11661 net.cpp:151] Top shape: 1 528 30 60 (950400)
I1227 18:31:16.705066 11661 net.cpp:151] Top shape: 1 528 30 60 (950400)
I1227 18:31:16.705070 11661 net.cpp:151] Top shape: 1 528 30 60 (950400)
I1227 18:31:16.705071 11661 net.cpp:151] Top shape: 1 528 30 60 (950400)
I1227 18:31:16.705073 11661 net.cpp:159] Memory required for data: 640854016
I1227 18:31:16.705075 11661 layer_factory.hpp:77] Creating layer inception_4e/1x1
I1227 18:31:16.705080 11661 net.cpp:94] Creating Layer inception_4e/1x1
I1227 18:31:16.705082 11661 net.cpp:435] inception_4e/1x1 <- inception_4d/output_inception_4d/output_0_split_0
I1227 18:31:16.705085 11661 net.cpp:409] inception_4e/1x1 -> inception_4e/1x1_raw
I1227 18:31:16.706527 11661 net.cpp:144] Setting up inception_4e/1x1
I1227 18:31:16.706533 11661 net.cpp:151] Top shape: 1 256 30 60 (460800)
I1227 18:31:16.706537 11661 net.cpp:159] Memory required for data: 642697216
I1227 18:31:16.706542 11661 layer_factory.hpp:77] Creating layer inception_4e/1x1_BatchNorm
I1227 18:31:16.706547 11661 net.cpp:94] Creating Layer inception_4e/1x1_BatchNorm
I1227 18:31:16.706566 11661 net.cpp:435] inception_4e/1x1_BatchNorm <- inception_4e/1x1_raw
I1227 18:31:16.706571 11661 net.cpp:409] inception_4e/1x1_BatchNorm -> inception_4e/1x1
I1227 18:31:16.706903 11661 net.cpp:144] Setting up inception_4e/1x1_BatchNorm
I1227 18:31:16.706908 11661 net.cpp:151] Top shape: 1 256 30 60 (460800)
I1227 18:31:16.706912 11661 net.cpp:159] Memory required for data: 644540416
I1227 18:31:16.706916 11661 layer_factory.hpp:77] Creating layer inception_4e/relu_1x1
I1227 18:31:16.706919 11661 net.cpp:94] Creating Layer inception_4e/relu_1x1
I1227 18:31:16.706921 11661 net.cpp:435] inception_4e/relu_1x1 <- inception_4e/1x1
I1227 18:31:16.706923 11661 net.cpp:396] inception_4e/relu_1x1 -> inception_4e/1x1 (in-place)
I1227 18:31:16.706928 11661 net.cpp:144] Setting up inception_4e/relu_1x1
I1227 18:31:16.706928 11661 net.cpp:151] Top shape: 1 256 30 60 (460800)
I1227 18:31:16.706930 11661 net.cpp:159] Memory required for data: 646383616
I1227 18:31:16.706933 11661 layer_factory.hpp:77] Creating layer inception_4e/3x3_reduce
I1227 18:31:16.706938 11661 net.cpp:94] Creating Layer inception_4e/3x3_reduce
I1227 18:31:16.706940 11661 net.cpp:435] inception_4e/3x3_reduce <- inception_4d/output_inception_4d/output_0_split_1
I1227 18:31:16.706943 11661 net.cpp:409] inception_4e/3x3_reduce -> inception_4e/3x3_reduce_raw
I1227 18:31:16.707561 11661 net.cpp:144] Setting up inception_4e/3x3_reduce
I1227 18:31:16.707566 11661 net.cpp:151] Top shape: 1 160 30 60 (288000)
I1227 18:31:16.707568 11661 net.cpp:159] Memory required for data: 647535616
I1227 18:31:16.707572 11661 layer_factory.hpp:77] Creating layer inception_4e/3x3_reduce_BatchNorm
I1227 18:31:16.707576 11661 net.cpp:94] Creating Layer inception_4e/3x3_reduce_BatchNorm
I1227 18:31:16.707581 11661 net.cpp:435] inception_4e/3x3_reduce_BatchNorm <- inception_4e/3x3_reduce_raw
I1227 18:31:16.707583 11661 net.cpp:409] inception_4e/3x3_reduce_BatchNorm -> inception_4e/3x3_reduce
I1227 18:31:16.707969 11661 net.cpp:144] Setting up inception_4e/3x3_reduce_BatchNorm
I1227 18:31:16.707974 11661 net.cpp:151] Top shape: 1 160 30 60 (288000)
I1227 18:31:16.707976 11661 net.cpp:159] Memory required for data: 648687616
I1227 18:31:16.707983 11661 layer_factory.hpp:77] Creating layer inception_4e/relu_3x3_reduce
I1227 18:31:16.707985 11661 net.cpp:94] Creating Layer inception_4e/relu_3x3_reduce
I1227 18:31:16.707988 11661 net.cpp:435] inception_4e/relu_3x3_reduce <- inception_4e/3x3_reduce
I1227 18:31:16.707989 11661 net.cpp:396] inception_4e/relu_3x3_reduce -> inception_4e/3x3_reduce (in-place)
I1227 18:31:16.707993 11661 net.cpp:144] Setting up inception_4e/relu_3x3_reduce
I1227 18:31:16.707994 11661 net.cpp:151] Top shape: 1 160 30 60 (288000)
I1227 18:31:16.707996 11661 net.cpp:159] Memory required for data: 649839616
I1227 18:31:16.707998 11661 layer_factory.hpp:77] Creating layer inception_4e/3x3
I1227 18:31:16.708003 11661 net.cpp:94] Creating Layer inception_4e/3x3
I1227 18:31:16.708004 11661 net.cpp:435] inception_4e/3x3 <- inception_4e/3x3_reduce
I1227 18:31:16.708007 11661 net.cpp:409] inception_4e/3x3 -> inception_4e/3x3_raw
I1227 18:31:16.711696 11661 net.cpp:144] Setting up inception_4e/3x3
I1227 18:31:16.711709 11661 net.cpp:151] Top shape: 1 320 30 60 (576000)
I1227 18:31:16.711714 11661 net.cpp:159] Memory required for data: 652143616
I1227 18:31:16.711720 11661 layer_factory.hpp:77] Creating layer inception_4e/3x3_BatchNorm
I1227 18:31:16.711728 11661 net.cpp:94] Creating Layer inception_4e/3x3_BatchNorm
I1227 18:31:16.711731 11661 net.cpp:435] inception_4e/3x3_BatchNorm <- inception_4e/3x3_raw
I1227 18:31:16.711736 11661 net.cpp:409] inception_4e/3x3_BatchNorm -> inception_4e/3x3
I1227 18:31:16.712136 11661 net.cpp:144] Setting up inception_4e/3x3_BatchNorm
I1227 18:31:16.712139 11661 net.cpp:151] Top shape: 1 320 30 60 (576000)
I1227 18:31:16.712142 11661 net.cpp:159] Memory required for data: 654447616
I1227 18:31:16.712147 11661 layer_factory.hpp:77] Creating layer inception_4e/relu_3x3
I1227 18:31:16.712150 11661 net.cpp:94] Creating Layer inception_4e/relu_3x3
I1227 18:31:16.712152 11661 net.cpp:435] inception_4e/relu_3x3 <- inception_4e/3x3
I1227 18:31:16.712154 11661 net.cpp:396] inception_4e/relu_3x3 -> inception_4e/3x3 (in-place)
I1227 18:31:16.712158 11661 net.cpp:144] Setting up inception_4e/relu_3x3
I1227 18:31:16.712160 11661 net.cpp:151] Top shape: 1 320 30 60 (576000)
I1227 18:31:16.712163 11661 net.cpp:159] Memory required for data: 656751616
I1227 18:31:16.712168 11661 layer_factory.hpp:77] Creating layer inception_4e/5x5_reduce
I1227 18:31:16.712177 11661 net.cpp:94] Creating Layer inception_4e/5x5_reduce
I1227 18:31:16.712180 11661 net.cpp:435] inception_4e/5x5_reduce <- inception_4d/output_inception_4d/output_0_split_2
I1227 18:31:16.712185 11661 net.cpp:409] inception_4e/5x5_reduce -> inception_4e/5x5_reduce_raw
I1227 18:31:16.712520 11661 net.cpp:144] Setting up inception_4e/5x5_reduce
I1227 18:31:16.712529 11661 net.cpp:151] Top shape: 1 32 30 60 (57600)
I1227 18:31:16.712534 11661 net.cpp:159] Memory required for data: 656982016
I1227 18:31:16.712539 11661 layer_factory.hpp:77] Creating layer inception_4e/5x5_reduce_BatchNorm
I1227 18:31:16.712546 11661 net.cpp:94] Creating Layer inception_4e/5x5_reduce_BatchNorm
I1227 18:31:16.712549 11661 net.cpp:435] inception_4e/5x5_reduce_BatchNorm <- inception_4e/5x5_reduce_raw
I1227 18:31:16.712554 11661 net.cpp:409] inception_4e/5x5_reduce_BatchNorm -> inception_4e/5x5_reduce
I1227 18:31:16.712972 11661 net.cpp:144] Setting up inception_4e/5x5_reduce_BatchNorm
I1227 18:31:16.712977 11661 net.cpp:151] Top shape: 1 32 30 60 (57600)
I1227 18:31:16.712980 11661 net.cpp:159] Memory required for data: 657212416
I1227 18:31:16.712986 11661 layer_factory.hpp:77] Creating layer inception_4e/relu_5x5_reduce
I1227 18:31:16.712990 11661 net.cpp:94] Creating Layer inception_4e/relu_5x5_reduce
I1227 18:31:16.712991 11661 net.cpp:435] inception_4e/relu_5x5_reduce <- inception_4e/5x5_reduce
I1227 18:31:16.712993 11661 net.cpp:396] inception_4e/relu_5x5_reduce -> inception_4e/5x5_reduce (in-place)
I1227 18:31:16.712997 11661 net.cpp:144] Setting up inception_4e/relu_5x5_reduce
I1227 18:31:16.712998 11661 net.cpp:151] Top shape: 1 32 30 60 (57600)
I1227 18:31:16.713001 11661 net.cpp:159] Memory required for data: 657442816
I1227 18:31:16.713002 11661 layer_factory.hpp:77] Creating layer inception_4e/5x5
I1227 18:31:16.713007 11661 net.cpp:94] Creating Layer inception_4e/5x5
I1227 18:31:16.713008 11661 net.cpp:435] inception_4e/5x5 <- inception_4e/5x5_reduce
I1227 18:31:16.713011 11661 net.cpp:409] inception_4e/5x5 -> inception_4e/5x5_raw
I1227 18:31:16.713692 11661 net.cpp:144] Setting up inception_4e/5x5
I1227 18:31:16.713696 11661 net.cpp:151] Top shape: 1 128 30 60 (230400)
I1227 18:31:16.713699 11661 net.cpp:159] Memory required for data: 658364416
I1227 18:31:16.713702 11661 layer_factory.hpp:77] Creating layer inception_4e/5x5_BatchNorm
I1227 18:31:16.713706 11661 net.cpp:94] Creating Layer inception_4e/5x5_BatchNorm
I1227 18:31:16.713708 11661 net.cpp:435] inception_4e/5x5_BatchNorm <- inception_4e/5x5_raw
I1227 18:31:16.713711 11661 net.cpp:409] inception_4e/5x5_BatchNorm -> inception_4e/5x5
I1227 18:31:16.714035 11661 net.cpp:144] Setting up inception_4e/5x5_BatchNorm
I1227 18:31:16.714037 11661 net.cpp:151] Top shape: 1 128 30 60 (230400)
I1227 18:31:16.714040 11661 net.cpp:159] Memory required for data: 659286016
I1227 18:31:16.714046 11661 layer_factory.hpp:77] Creating layer inception_4e/relu_5x5
I1227 18:31:16.714048 11661 net.cpp:94] Creating Layer inception_4e/relu_5x5
I1227 18:31:16.714051 11661 net.cpp:435] inception_4e/relu_5x5 <- inception_4e/5x5
I1227 18:31:16.714052 11661 net.cpp:396] inception_4e/relu_5x5 -> inception_4e/5x5 (in-place)
I1227 18:31:16.714056 11661 net.cpp:144] Setting up inception_4e/relu_5x5
I1227 18:31:16.714057 11661 net.cpp:151] Top shape: 1 128 30 60 (230400)
I1227 18:31:16.714059 11661 net.cpp:159] Memory required for data: 660207616
I1227 18:31:16.714061 11661 layer_factory.hpp:77] Creating layer inception_4e/pool
I1227 18:31:16.714066 11661 net.cpp:94] Creating Layer inception_4e/pool
I1227 18:31:16.714067 11661 net.cpp:435] inception_4e/pool <- inception_4d/output_inception_4d/output_0_split_3
I1227 18:31:16.714071 11661 net.cpp:409] inception_4e/pool -> inception_4e/pool
I1227 18:31:16.714088 11661 net.cpp:144] Setting up inception_4e/pool
I1227 18:31:16.714090 11661 net.cpp:151] Top shape: 1 528 30 60 (950400)
I1227 18:31:16.714093 11661 net.cpp:159] Memory required for data: 664009216
I1227 18:31:16.714094 11661 layer_factory.hpp:77] Creating layer inception_4e/pool_proj
I1227 18:31:16.714098 11661 net.cpp:94] Creating Layer inception_4e/pool_proj
I1227 18:31:16.714100 11661 net.cpp:435] inception_4e/pool_proj <- inception_4e/pool
I1227 18:31:16.714103 11661 net.cpp:409] inception_4e/pool_proj -> inception_4e/pool_proj_raw
I1227 18:31:16.715365 11661 net.cpp:144] Setting up inception_4e/pool_proj
I1227 18:31:16.715371 11661 net.cpp:151] Top shape: 1 128 30 60 (230400)
I1227 18:31:16.715375 11661 net.cpp:159] Memory required for data: 664930816
I1227 18:31:16.715379 11661 layer_factory.hpp:77] Creating layer inception_4e/pool_proj_BatchNorm
I1227 18:31:16.715384 11661 net.cpp:94] Creating Layer inception_4e/pool_proj_BatchNorm
I1227 18:31:16.715386 11661 net.cpp:435] inception_4e/pool_proj_BatchNorm <- inception_4e/pool_proj_raw
I1227 18:31:16.715389 11661 net.cpp:409] inception_4e/pool_proj_BatchNorm -> inception_4e/pool_proj
I1227 18:31:16.715721 11661 net.cpp:144] Setting up inception_4e/pool_proj_BatchNorm
I1227 18:31:16.715725 11661 net.cpp:151] Top shape: 1 128 30 60 (230400)
I1227 18:31:16.715728 11661 net.cpp:159] Memory required for data: 665852416
I1227 18:31:16.715734 11661 layer_factory.hpp:77] Creating layer inception_4e/relu_pool_proj
I1227 18:31:16.715735 11661 net.cpp:94] Creating Layer inception_4e/relu_pool_proj
I1227 18:31:16.715737 11661 net.cpp:435] inception_4e/relu_pool_proj <- inception_4e/pool_proj
I1227 18:31:16.715740 11661 net.cpp:396] inception_4e/relu_pool_proj -> inception_4e/pool_proj (in-place)
I1227 18:31:16.715744 11661 net.cpp:144] Setting up inception_4e/relu_pool_proj
I1227 18:31:16.715745 11661 net.cpp:151] Top shape: 1 128 30 60 (230400)
I1227 18:31:16.715747 11661 net.cpp:159] Memory required for data: 666774016
I1227 18:31:16.715749 11661 layer_factory.hpp:77] Creating layer inception_4e/output
I1227 18:31:16.715751 11661 net.cpp:94] Creating Layer inception_4e/output
I1227 18:31:16.715754 11661 net.cpp:435] inception_4e/output <- inception_4e/1x1
I1227 18:31:16.715756 11661 net.cpp:435] inception_4e/output <- inception_4e/3x3
I1227 18:31:16.715759 11661 net.cpp:435] inception_4e/output <- inception_4e/5x5
I1227 18:31:16.715760 11661 net.cpp:435] inception_4e/output <- inception_4e/pool_proj
I1227 18:31:16.715762 11661 net.cpp:409] inception_4e/output -> inception_4e/output
I1227 18:31:16.715775 11661 net.cpp:144] Setting up inception_4e/output
I1227 18:31:16.715776 11661 net.cpp:151] Top shape: 1 832 30 60 (1497600)
I1227 18:31:16.715780 11661 net.cpp:159] Memory required for data: 672764416
I1227 18:31:16.715781 11661 layer_factory.hpp:77] Creating layer inception_4e/output_inception_4e/output_0_split
I1227 18:31:16.715785 11661 net.cpp:94] Creating Layer inception_4e/output_inception_4e/output_0_split
I1227 18:31:16.715786 11661 net.cpp:435] inception_4e/output_inception_4e/output_0_split <- inception_4e/output
I1227 18:31:16.715788 11661 net.cpp:409] inception_4e/output_inception_4e/output_0_split -> inception_4e/output_inception_4e/output_0_split_0
I1227 18:31:16.715792 11661 net.cpp:409] inception_4e/output_inception_4e/output_0_split -> inception_4e/output_inception_4e/output_0_split_1
I1227 18:31:16.715808 11661 net.cpp:144] Setting up inception_4e/output_inception_4e/output_0_split
I1227 18:31:16.715811 11661 net.cpp:151] Top shape: 1 832 30 60 (1497600)
I1227 18:31:16.715813 11661 net.cpp:151] Top shape: 1 832 30 60 (1497600)
I1227 18:31:16.715816 11661 net.cpp:159] Memory required for data: 684745216
I1227 18:31:16.715817 11661 layer_factory.hpp:77] Creating layer pool4/3x3_s2
I1227 18:31:16.715821 11661 net.cpp:94] Creating Layer pool4/3x3_s2
I1227 18:31:16.715821 11661 net.cpp:435] pool4/3x3_s2 <- inception_4e/output_inception_4e/output_0_split_0
I1227 18:31:16.715824 11661 net.cpp:409] pool4/3x3_s2 -> pool4/3x3_s2
I1227 18:31:16.715840 11661 net.cpp:144] Setting up pool4/3x3_s2
I1227 18:31:16.715843 11661 net.cpp:151] Top shape: 1 832 15 30 (374400)
I1227 18:31:16.715845 11661 net.cpp:159] Memory required for data: 686242816
I1227 18:31:16.715847 11661 layer_factory.hpp:77] Creating layer pool4/3x3_s2_pool4/3x3_s2_0_split
I1227 18:31:16.715850 11661 net.cpp:94] Creating Layer pool4/3x3_s2_pool4/3x3_s2_0_split
I1227 18:31:16.715852 11661 net.cpp:435] pool4/3x3_s2_pool4/3x3_s2_0_split <- pool4/3x3_s2
I1227 18:31:16.715854 11661 net.cpp:409] pool4/3x3_s2_pool4/3x3_s2_0_split -> pool4/3x3_s2_pool4/3x3_s2_0_split_0
I1227 18:31:16.715858 11661 net.cpp:409] pool4/3x3_s2_pool4/3x3_s2_0_split -> pool4/3x3_s2_pool4/3x3_s2_0_split_1
I1227 18:31:16.715862 11661 net.cpp:409] pool4/3x3_s2_pool4/3x3_s2_0_split -> pool4/3x3_s2_pool4/3x3_s2_0_split_2
I1227 18:31:16.715863 11661 net.cpp:409] pool4/3x3_s2_pool4/3x3_s2_0_split -> pool4/3x3_s2_pool4/3x3_s2_0_split_3
I1227 18:31:16.715891 11661 net.cpp:144] Setting up pool4/3x3_s2_pool4/3x3_s2_0_split
I1227 18:31:16.715894 11661 net.cpp:151] Top shape: 1 832 15 30 (374400)
I1227 18:31:16.715896 11661 net.cpp:151] Top shape: 1 832 15 30 (374400)
I1227 18:31:16.715898 11661 net.cpp:151] Top shape: 1 832 15 30 (374400)
I1227 18:31:16.715901 11661 net.cpp:151] Top shape: 1 832 15 30 (374400)
I1227 18:31:16.715903 11661 net.cpp:159] Memory required for data: 692233216
I1227 18:31:16.715905 11661 layer_factory.hpp:77] Creating layer inception_5a/1x1
I1227 18:31:16.715909 11661 net.cpp:94] Creating Layer inception_5a/1x1
I1227 18:31:16.715911 11661 net.cpp:435] inception_5a/1x1 <- pool4/3x3_s2_pool4/3x3_s2_0_split_0
I1227 18:31:16.715914 11661 net.cpp:409] inception_5a/1x1 -> inception_5a/1x1_raw
I1227 18:31:16.717772 11661 net.cpp:144] Setting up inception_5a/1x1
I1227 18:31:16.717779 11661 net.cpp:151] Top shape: 1 256 15 30 (115200)
I1227 18:31:16.717783 11661 net.cpp:159] Memory required for data: 692694016
I1227 18:31:16.717787 11661 layer_factory.hpp:77] Creating layer inception_5a/1x1_BatchNorm
I1227 18:31:16.717792 11661 net.cpp:94] Creating Layer inception_5a/1x1_BatchNorm
I1227 18:31:16.717794 11661 net.cpp:435] inception_5a/1x1_BatchNorm <- inception_5a/1x1_raw
I1227 18:31:16.717798 11661 net.cpp:409] inception_5a/1x1_BatchNorm -> inception_5a/1x1
I1227 18:31:16.718144 11661 net.cpp:144] Setting up inception_5a/1x1_BatchNorm
I1227 18:31:16.718148 11661 net.cpp:151] Top shape: 1 256 15 30 (115200)
I1227 18:31:16.718152 11661 net.cpp:159] Memory required for data: 693154816
I1227 18:31:16.718156 11661 layer_factory.hpp:77] Creating layer inception_5a/relu_1x1
I1227 18:31:16.718158 11661 net.cpp:94] Creating Layer inception_5a/relu_1x1
I1227 18:31:16.718160 11661 net.cpp:435] inception_5a/relu_1x1 <- inception_5a/1x1
I1227 18:31:16.718163 11661 net.cpp:396] inception_5a/relu_1x1 -> inception_5a/1x1 (in-place)
I1227 18:31:16.718166 11661 net.cpp:144] Setting up inception_5a/relu_1x1
I1227 18:31:16.718168 11661 net.cpp:151] Top shape: 1 256 15 30 (115200)
I1227 18:31:16.718170 11661 net.cpp:159] Memory required for data: 693615616
I1227 18:31:16.718173 11661 layer_factory.hpp:77] Creating layer inception_5a/3x3_reduce
I1227 18:31:16.718176 11661 net.cpp:94] Creating Layer inception_5a/3x3_reduce
I1227 18:31:16.718178 11661 net.cpp:435] inception_5a/3x3_reduce <- pool4/3x3_s2_pool4/3x3_s2_0_split_1
I1227 18:31:16.718181 11661 net.cpp:409] inception_5a/3x3_reduce -> inception_5a/3x3_reduce_raw
I1227 18:31:16.719028 11661 net.cpp:144] Setting up inception_5a/3x3_reduce
I1227 18:31:16.719033 11661 net.cpp:151] Top shape: 1 160 15 30 (72000)
I1227 18:31:16.719036 11661 net.cpp:159] Memory required for data: 693903616
I1227 18:31:16.719039 11661 layer_factory.hpp:77] Creating layer inception_5a/3x3_reduce_BatchNorm
I1227 18:31:16.719043 11661 net.cpp:94] Creating Layer inception_5a/3x3_reduce_BatchNorm
I1227 18:31:16.719045 11661 net.cpp:435] inception_5a/3x3_reduce_BatchNorm <- inception_5a/3x3_reduce_raw
I1227 18:31:16.719048 11661 net.cpp:409] inception_5a/3x3_reduce_BatchNorm -> inception_5a/3x3_reduce
I1227 18:31:16.719419 11661 net.cpp:144] Setting up inception_5a/3x3_reduce_BatchNorm
I1227 18:31:16.719422 11661 net.cpp:151] Top shape: 1 160 15 30 (72000)
I1227 18:31:16.719425 11661 net.cpp:159] Memory required for data: 694191616
I1227 18:31:16.719430 11661 layer_factory.hpp:77] Creating layer inception_5a/relu_3x3_reduce
I1227 18:31:16.719434 11661 net.cpp:94] Creating Layer inception_5a/relu_3x3_reduce
I1227 18:31:16.719435 11661 net.cpp:435] inception_5a/relu_3x3_reduce <- inception_5a/3x3_reduce
I1227 18:31:16.719439 11661 net.cpp:396] inception_5a/relu_3x3_reduce -> inception_5a/3x3_reduce (in-place)
I1227 18:31:16.719441 11661 net.cpp:144] Setting up inception_5a/relu_3x3_reduce
I1227 18:31:16.719442 11661 net.cpp:151] Top shape: 1 160 15 30 (72000)
I1227 18:31:16.719445 11661 net.cpp:159] Memory required for data: 694479616
I1227 18:31:16.719446 11661 layer_factory.hpp:77] Creating layer inception_5a/3x3
I1227 18:31:16.719450 11661 net.cpp:94] Creating Layer inception_5a/3x3
I1227 18:31:16.719452 11661 net.cpp:435] inception_5a/3x3 <- inception_5a/3x3_reduce
I1227 18:31:16.719455 11661 net.cpp:409] inception_5a/3x3 -> inception_5a/3x3_raw
I1227 18:31:16.723048 11661 net.cpp:144] Setting up inception_5a/3x3
I1227 18:31:16.723055 11661 net.cpp:151] Top shape: 1 320 15 30 (144000)
I1227 18:31:16.723059 11661 net.cpp:159] Memory required for data: 695055616
I1227 18:31:16.723063 11661 layer_factory.hpp:77] Creating layer inception_5a/3x3_BatchNorm
I1227 18:31:16.723068 11661 net.cpp:94] Creating Layer inception_5a/3x3_BatchNorm
I1227 18:31:16.723071 11661 net.cpp:435] inception_5a/3x3_BatchNorm <- inception_5a/3x3_raw
I1227 18:31:16.723074 11661 net.cpp:409] inception_5a/3x3_BatchNorm -> inception_5a/3x3
I1227 18:31:16.723495 11661 net.cpp:144] Setting up inception_5a/3x3_BatchNorm
I1227 18:31:16.723503 11661 net.cpp:151] Top shape: 1 320 15 30 (144000)
I1227 18:31:16.723507 11661 net.cpp:159] Memory required for data: 695631616
I1227 18:31:16.723513 11661 layer_factory.hpp:77] Creating layer inception_5a/relu_3x3
I1227 18:31:16.723516 11661 net.cpp:94] Creating Layer inception_5a/relu_3x3
I1227 18:31:16.723518 11661 net.cpp:435] inception_5a/relu_3x3 <- inception_5a/3x3
I1227 18:31:16.723521 11661 net.cpp:396] inception_5a/relu_3x3 -> inception_5a/3x3 (in-place)
I1227 18:31:16.723526 11661 net.cpp:144] Setting up inception_5a/relu_3x3
I1227 18:31:16.723527 11661 net.cpp:151] Top shape: 1 320 15 30 (144000)
I1227 18:31:16.723529 11661 net.cpp:159] Memory required for data: 696207616
I1227 18:31:16.723531 11661 layer_factory.hpp:77] Creating layer inception_5a/5x5_reduce
I1227 18:31:16.723536 11661 net.cpp:94] Creating Layer inception_5a/5x5_reduce
I1227 18:31:16.723537 11661 net.cpp:435] inception_5a/5x5_reduce <- pool4/3x3_s2_pool4/3x3_s2_0_split_2
I1227 18:31:16.723541 11661 net.cpp:409] inception_5a/5x5_reduce -> inception_5a/5x5_reduce_raw
I1227 18:31:16.723837 11661 net.cpp:144] Setting up inception_5a/5x5_reduce
I1227 18:31:16.723841 11661 net.cpp:151] Top shape: 1 32 15 30 (14400)
I1227 18:31:16.723845 11661 net.cpp:159] Memory required for data: 696265216
I1227 18:31:16.723847 11661 layer_factory.hpp:77] Creating layer inception_5a/5x5_reduce_BatchNorm
I1227 18:31:16.723851 11661 net.cpp:94] Creating Layer inception_5a/5x5_reduce_BatchNorm
I1227 18:31:16.723853 11661 net.cpp:435] inception_5a/5x5_reduce_BatchNorm <- inception_5a/5x5_reduce_raw
I1227 18:31:16.723856 11661 net.cpp:409] inception_5a/5x5_reduce_BatchNorm -> inception_5a/5x5_reduce
I1227 18:31:16.724236 11661 net.cpp:144] Setting up inception_5a/5x5_reduce_BatchNorm
I1227 18:31:16.724241 11661 net.cpp:151] Top shape: 1 32 15 30 (14400)
I1227 18:31:16.724243 11661 net.cpp:159] Memory required for data: 696322816
I1227 18:31:16.724248 11661 layer_factory.hpp:77] Creating layer inception_5a/relu_5x5_reduce
I1227 18:31:16.724251 11661 net.cpp:94] Creating Layer inception_5a/relu_5x5_reduce
I1227 18:31:16.724253 11661 net.cpp:435] inception_5a/relu_5x5_reduce <- inception_5a/5x5_reduce
I1227 18:31:16.724256 11661 net.cpp:396] inception_5a/relu_5x5_reduce -> inception_5a/5x5_reduce (in-place)
I1227 18:31:16.724258 11661 net.cpp:144] Setting up inception_5a/relu_5x5_reduce
I1227 18:31:16.724261 11661 net.cpp:151] Top shape: 1 32 15 30 (14400)
I1227 18:31:16.724262 11661 net.cpp:159] Memory required for data: 696380416
I1227 18:31:16.724264 11661 layer_factory.hpp:77] Creating layer inception_5a/5x5
I1227 18:31:16.724267 11661 net.cpp:94] Creating Layer inception_5a/5x5
I1227 18:31:16.724269 11661 net.cpp:435] inception_5a/5x5 <- inception_5a/5x5_reduce
I1227 18:31:16.724272 11661 net.cpp:409] inception_5a/5x5 -> inception_5a/5x5_raw
I1227 18:31:16.725713 11661 net.cpp:144] Setting up inception_5a/5x5
I1227 18:31:16.725721 11661 net.cpp:151] Top shape: 1 128 15 30 (57600)
I1227 18:31:16.725724 11661 net.cpp:159] Memory required for data: 696610816
I1227 18:31:16.725729 11661 layer_factory.hpp:77] Creating layer inception_5a/5x5_BatchNorm
I1227 18:31:16.725735 11661 net.cpp:94] Creating Layer inception_5a/5x5_BatchNorm
I1227 18:31:16.725737 11661 net.cpp:435] inception_5a/5x5_BatchNorm <- inception_5a/5x5_raw
I1227 18:31:16.725741 11661 net.cpp:409] inception_5a/5x5_BatchNorm -> inception_5a/5x5
I1227 18:31:16.726080 11661 net.cpp:144] Setting up inception_5a/5x5_BatchNorm
I1227 18:31:16.726083 11661 net.cpp:151] Top shape: 1 128 15 30 (57600)
I1227 18:31:16.726086 11661 net.cpp:159] Memory required for data: 696841216
I1227 18:31:16.726091 11661 layer_factory.hpp:77] Creating layer inception_5a/relu_5x5
I1227 18:31:16.726095 11661 net.cpp:94] Creating Layer inception_5a/relu_5x5
I1227 18:31:16.726097 11661 net.cpp:435] inception_5a/relu_5x5 <- inception_5a/5x5
I1227 18:31:16.726099 11661 net.cpp:396] inception_5a/relu_5x5 -> inception_5a/5x5 (in-place)
I1227 18:31:16.726104 11661 net.cpp:144] Setting up inception_5a/relu_5x5
I1227 18:31:16.726104 11661 net.cpp:151] Top shape: 1 128 15 30 (57600)
I1227 18:31:16.726106 11661 net.cpp:159] Memory required for data: 697071616
I1227 18:31:16.726109 11661 layer_factory.hpp:77] Creating layer inception_5a/pool
I1227 18:31:16.726112 11661 net.cpp:94] Creating Layer inception_5a/pool
I1227 18:31:16.726114 11661 net.cpp:435] inception_5a/pool <- pool4/3x3_s2_pool4/3x3_s2_0_split_3
I1227 18:31:16.726117 11661 net.cpp:409] inception_5a/pool -> inception_5a/pool
I1227 18:31:16.726136 11661 net.cpp:144] Setting up inception_5a/pool
I1227 18:31:16.726137 11661 net.cpp:151] Top shape: 1 832 15 30 (374400)
I1227 18:31:16.726140 11661 net.cpp:159] Memory required for data: 698569216
I1227 18:31:16.726141 11661 layer_factory.hpp:77] Creating layer inception_5a/pool_proj
I1227 18:31:16.726145 11661 net.cpp:94] Creating Layer inception_5a/pool_proj
I1227 18:31:16.726147 11661 net.cpp:435] inception_5a/pool_proj <- inception_5a/pool
I1227 18:31:16.726150 11661 net.cpp:409] inception_5a/pool_proj -> inception_5a/pool_proj_raw
I1227 18:31:16.726851 11661 net.cpp:144] Setting up inception_5a/pool_proj
I1227 18:31:16.726855 11661 net.cpp:151] Top shape: 1 128 15 30 (57600)
I1227 18:31:16.726858 11661 net.cpp:159] Memory required for data: 698799616
I1227 18:31:16.726861 11661 layer_factory.hpp:77] Creating layer inception_5a/pool_proj_BatchNorm
I1227 18:31:16.726866 11661 net.cpp:94] Creating Layer inception_5a/pool_proj_BatchNorm
I1227 18:31:16.726867 11661 net.cpp:435] inception_5a/pool_proj_BatchNorm <- inception_5a/pool_proj_raw
I1227 18:31:16.726871 11661 net.cpp:409] inception_5a/pool_proj_BatchNorm -> inception_5a/pool_proj
I1227 18:31:16.727191 11661 net.cpp:144] Setting up inception_5a/pool_proj_BatchNorm
I1227 18:31:16.727196 11661 net.cpp:151] Top shape: 1 128 15 30 (57600)
I1227 18:31:16.727198 11661 net.cpp:159] Memory required for data: 699030016
I1227 18:31:16.727205 11661 layer_factory.hpp:77] Creating layer inception_5a/relu_pool_proj
I1227 18:31:16.727206 11661 net.cpp:94] Creating Layer inception_5a/relu_pool_proj
I1227 18:31:16.727208 11661 net.cpp:435] inception_5a/relu_pool_proj <- inception_5a/pool_proj
I1227 18:31:16.727211 11661 net.cpp:396] inception_5a/relu_pool_proj -> inception_5a/pool_proj (in-place)
I1227 18:31:16.727214 11661 net.cpp:144] Setting up inception_5a/relu_pool_proj
I1227 18:31:16.727216 11661 net.cpp:151] Top shape: 1 128 15 30 (57600)
I1227 18:31:16.727218 11661 net.cpp:159] Memory required for data: 699260416
I1227 18:31:16.727219 11661 layer_factory.hpp:77] Creating layer inception_5a/output
I1227 18:31:16.727222 11661 net.cpp:94] Creating Layer inception_5a/output
I1227 18:31:16.727224 11661 net.cpp:435] inception_5a/output <- inception_5a/1x1
I1227 18:31:16.727226 11661 net.cpp:435] inception_5a/output <- inception_5a/3x3
I1227 18:31:16.727228 11661 net.cpp:435] inception_5a/output <- inception_5a/5x5
I1227 18:31:16.727231 11661 net.cpp:435] inception_5a/output <- inception_5a/pool_proj
I1227 18:31:16.727233 11661 net.cpp:409] inception_5a/output -> inception_5a/output
I1227 18:31:16.727246 11661 net.cpp:144] Setting up inception_5a/output
I1227 18:31:16.727246 11661 net.cpp:151] Top shape: 1 832 15 30 (374400)
I1227 18:31:16.727249 11661 net.cpp:159] Memory required for data: 700758016
I1227 18:31:16.727250 11661 layer_factory.hpp:77] Creating layer inception_5a/output_inception_5a/output_0_split
I1227 18:31:16.727254 11661 net.cpp:94] Creating Layer inception_5a/output_inception_5a/output_0_split
I1227 18:31:16.727255 11661 net.cpp:435] inception_5a/output_inception_5a/output_0_split <- inception_5a/output
I1227 18:31:16.727258 11661 net.cpp:409] inception_5a/output_inception_5a/output_0_split -> inception_5a/output_inception_5a/output_0_split_0
I1227 18:31:16.727262 11661 net.cpp:409] inception_5a/output_inception_5a/output_0_split -> inception_5a/output_inception_5a/output_0_split_1
I1227 18:31:16.727264 11661 net.cpp:409] inception_5a/output_inception_5a/output_0_split -> inception_5a/output_inception_5a/output_0_split_2
I1227 18:31:16.727267 11661 net.cpp:409] inception_5a/output_inception_5a/output_0_split -> inception_5a/output_inception_5a/output_0_split_3
I1227 18:31:16.727296 11661 net.cpp:144] Setting up inception_5a/output_inception_5a/output_0_split
I1227 18:31:16.727298 11661 net.cpp:151] Top shape: 1 832 15 30 (374400)
I1227 18:31:16.727300 11661 net.cpp:151] Top shape: 1 832 15 30 (374400)
I1227 18:31:16.727303 11661 net.cpp:151] Top shape: 1 832 15 30 (374400)
I1227 18:31:16.727304 11661 net.cpp:151] Top shape: 1 832 15 30 (374400)
I1227 18:31:16.727306 11661 net.cpp:159] Memory required for data: 706748416
I1227 18:31:16.727308 11661 layer_factory.hpp:77] Creating layer inception_5b/1x1
I1227 18:31:16.727313 11661 net.cpp:94] Creating Layer inception_5b/1x1
I1227 18:31:16.727314 11661 net.cpp:435] inception_5b/1x1 <- inception_5a/output_inception_5a/output_0_split_0
I1227 18:31:16.727317 11661 net.cpp:409] inception_5b/1x1 -> inception_5b/1x1_raw
I1227 18:31:16.730440 11661 net.cpp:144] Setting up inception_5b/1x1
I1227 18:31:16.730451 11661 net.cpp:151] Top shape: 1 384 15 30 (172800)
I1227 18:31:16.730456 11661 net.cpp:159] Memory required for data: 707439616
I1227 18:31:16.730463 11661 layer_factory.hpp:77] Creating layer inception_5b/1x1_BatchNorm
I1227 18:31:16.730469 11661 net.cpp:94] Creating Layer inception_5b/1x1_BatchNorm
I1227 18:31:16.730473 11661 net.cpp:435] inception_5b/1x1_BatchNorm <- inception_5b/1x1_raw
I1227 18:31:16.730477 11661 net.cpp:409] inception_5b/1x1_BatchNorm -> inception_5b/1x1
I1227 18:31:16.730859 11661 net.cpp:144] Setting up inception_5b/1x1_BatchNorm
I1227 18:31:16.730865 11661 net.cpp:151] Top shape: 1 384 15 30 (172800)
I1227 18:31:16.730867 11661 net.cpp:159] Memory required for data: 708130816
I1227 18:31:16.730872 11661 layer_factory.hpp:77] Creating layer inception_5b/relu_1x1
I1227 18:31:16.730876 11661 net.cpp:94] Creating Layer inception_5b/relu_1x1
I1227 18:31:16.730878 11661 net.cpp:435] inception_5b/relu_1x1 <- inception_5b/1x1
I1227 18:31:16.730880 11661 net.cpp:396] inception_5b/relu_1x1 -> inception_5b/1x1 (in-place)
I1227 18:31:16.730885 11661 net.cpp:144] Setting up inception_5b/relu_1x1
I1227 18:31:16.730886 11661 net.cpp:151] Top shape: 1 384 15 30 (172800)
I1227 18:31:16.730890 11661 net.cpp:159] Memory required for data: 708822016
I1227 18:31:16.730890 11661 layer_factory.hpp:77] Creating layer inception_5b/3x3_reduce
I1227 18:31:16.730897 11661 net.cpp:94] Creating Layer inception_5b/3x3_reduce
I1227 18:31:16.730899 11661 net.cpp:435] inception_5b/3x3_reduce <- inception_5a/output_inception_5a/output_0_split_1
I1227 18:31:16.730902 11661 net.cpp:409] inception_5b/3x3_reduce -> inception_5b/3x3_reduce_raw
I1227 18:31:16.731910 11661 net.cpp:144] Setting up inception_5b/3x3_reduce
I1227 18:31:16.731914 11661 net.cpp:151] Top shape: 1 192 15 30 (86400)
I1227 18:31:16.731916 11661 net.cpp:159] Memory required for data: 709167616
I1227 18:31:16.731920 11661 layer_factory.hpp:77] Creating layer inception_5b/3x3_reduce_BatchNorm
I1227 18:31:16.731923 11661 net.cpp:94] Creating Layer inception_5b/3x3_reduce_BatchNorm
I1227 18:31:16.731925 11661 net.cpp:435] inception_5b/3x3_reduce_BatchNorm <- inception_5b/3x3_reduce_raw
I1227 18:31:16.731928 11661 net.cpp:409] inception_5b/3x3_reduce_BatchNorm -> inception_5b/3x3_reduce
I1227 18:31:16.732316 11661 net.cpp:144] Setting up inception_5b/3x3_reduce_BatchNorm
I1227 18:31:16.732319 11661 net.cpp:151] Top shape: 1 192 15 30 (86400)
I1227 18:31:16.732322 11661 net.cpp:159] Memory required for data: 709513216
I1227 18:31:16.732327 11661 layer_factory.hpp:77] Creating layer inception_5b/relu_3x3_reduce
I1227 18:31:16.732331 11661 net.cpp:94] Creating Layer inception_5b/relu_3x3_reduce
I1227 18:31:16.732332 11661 net.cpp:435] inception_5b/relu_3x3_reduce <- inception_5b/3x3_reduce
I1227 18:31:16.732334 11661 net.cpp:396] inception_5b/relu_3x3_reduce -> inception_5b/3x3_reduce (in-place)
I1227 18:31:16.732337 11661 net.cpp:144] Setting up inception_5b/relu_3x3_reduce
I1227 18:31:16.732339 11661 net.cpp:151] Top shape: 1 192 15 30 (86400)
I1227 18:31:16.732342 11661 net.cpp:159] Memory required for data: 709858816
I1227 18:31:16.732343 11661 layer_factory.hpp:77] Creating layer inception_5b/3x3
I1227 18:31:16.732347 11661 net.cpp:94] Creating Layer inception_5b/3x3
I1227 18:31:16.732348 11661 net.cpp:435] inception_5b/3x3 <- inception_5b/3x3_reduce
I1227 18:31:16.732352 11661 net.cpp:409] inception_5b/3x3 -> inception_5b/3x3_raw
I1227 18:31:16.737320 11661 net.cpp:144] Setting up inception_5b/3x3
I1227 18:31:16.737331 11661 net.cpp:151] Top shape: 1 384 15 30 (172800)
I1227 18:31:16.737334 11661 net.cpp:159] Memory required for data: 710550016
I1227 18:31:16.737339 11661 layer_factory.hpp:77] Creating layer inception_5b/3x3_BatchNorm
I1227 18:31:16.737344 11661 net.cpp:94] Creating Layer inception_5b/3x3_BatchNorm
I1227 18:31:16.737349 11661 net.cpp:435] inception_5b/3x3_BatchNorm <- inception_5b/3x3_raw
I1227 18:31:16.737351 11661 net.cpp:409] inception_5b/3x3_BatchNorm -> inception_5b/3x3
I1227 18:31:16.737706 11661 net.cpp:144] Setting up inception_5b/3x3_BatchNorm
I1227 18:31:16.737710 11661 net.cpp:151] Top shape: 1 384 15 30 (172800)
I1227 18:31:16.737712 11661 net.cpp:159] Memory required for data: 711241216
I1227 18:31:16.737717 11661 layer_factory.hpp:77] Creating layer inception_5b/relu_3x3
I1227 18:31:16.737720 11661 net.cpp:94] Creating Layer inception_5b/relu_3x3
I1227 18:31:16.737722 11661 net.cpp:435] inception_5b/relu_3x3 <- inception_5b/3x3
I1227 18:31:16.737725 11661 net.cpp:396] inception_5b/relu_3x3 -> inception_5b/3x3 (in-place)
I1227 18:31:16.737730 11661 net.cpp:144] Setting up inception_5b/relu_3x3
I1227 18:31:16.737731 11661 net.cpp:151] Top shape: 1 384 15 30 (172800)
I1227 18:31:16.737733 11661 net.cpp:159] Memory required for data: 711932416
I1227 18:31:16.737735 11661 layer_factory.hpp:77] Creating layer inception_5b/5x5_reduce
I1227 18:31:16.737740 11661 net.cpp:94] Creating Layer inception_5b/5x5_reduce
I1227 18:31:16.737741 11661 net.cpp:435] inception_5b/5x5_reduce <- inception_5a/output_inception_5a/output_0_split_2
I1227 18:31:16.737744 11661 net.cpp:409] inception_5b/5x5_reduce -> inception_5b/5x5_reduce_raw
I1227 18:31:16.738132 11661 net.cpp:144] Setting up inception_5b/5x5_reduce
I1227 18:31:16.738137 11661 net.cpp:151] Top shape: 1 48 15 30 (21600)
I1227 18:31:16.738139 11661 net.cpp:159] Memory required for data: 712018816
I1227 18:31:16.738142 11661 layer_factory.hpp:77] Creating layer inception_5b/5x5_reduce_BatchNorm
I1227 18:31:16.738147 11661 net.cpp:94] Creating Layer inception_5b/5x5_reduce_BatchNorm
I1227 18:31:16.738149 11661 net.cpp:435] inception_5b/5x5_reduce_BatchNorm <- inception_5b/5x5_reduce_raw
I1227 18:31:16.738152 11661 net.cpp:409] inception_5b/5x5_reduce_BatchNorm -> inception_5b/5x5_reduce
I1227 18:31:16.738545 11661 net.cpp:144] Setting up inception_5b/5x5_reduce_BatchNorm
I1227 18:31:16.738570 11661 net.cpp:151] Top shape: 1 48 15 30 (21600)
I1227 18:31:16.738580 11661 net.cpp:159] Memory required for data: 712105216
I1227 18:31:16.738585 11661 layer_factory.hpp:77] Creating layer inception_5b/relu_5x5_reduce
I1227 18:31:16.738588 11661 net.cpp:94] Creating Layer inception_5b/relu_5x5_reduce
I1227 18:31:16.738590 11661 net.cpp:435] inception_5b/relu_5x5_reduce <- inception_5b/5x5_reduce
I1227 18:31:16.738593 11661 net.cpp:396] inception_5b/relu_5x5_reduce -> inception_5b/5x5_reduce (in-place)
I1227 18:31:16.738596 11661 net.cpp:144] Setting up inception_5b/relu_5x5_reduce
I1227 18:31:16.738597 11661 net.cpp:151] Top shape: 1 48 15 30 (21600)
I1227 18:31:16.738600 11661 net.cpp:159] Memory required for data: 712191616
I1227 18:31:16.738601 11661 layer_factory.hpp:77] Creating layer inception_5b/5x5
I1227 18:31:16.738606 11661 net.cpp:94] Creating Layer inception_5b/5x5
I1227 18:31:16.738607 11661 net.cpp:435] inception_5b/5x5 <- inception_5b/5x5_reduce
I1227 18:31:16.738610 11661 net.cpp:409] inception_5b/5x5 -> inception_5b/5x5_raw
I1227 18:31:16.740342 11661 net.cpp:144] Setting up inception_5b/5x5
I1227 18:31:16.740350 11661 net.cpp:151] Top shape: 1 128 15 30 (57600)
I1227 18:31:16.740352 11661 net.cpp:159] Memory required for data: 712422016
I1227 18:31:16.740356 11661 layer_factory.hpp:77] Creating layer inception_5b/5x5_BatchNorm
I1227 18:31:16.740363 11661 net.cpp:94] Creating Layer inception_5b/5x5_BatchNorm
I1227 18:31:16.740365 11661 net.cpp:435] inception_5b/5x5_BatchNorm <- inception_5b/5x5_raw
I1227 18:31:16.740368 11661 net.cpp:409] inception_5b/5x5_BatchNorm -> inception_5b/5x5
I1227 18:31:16.740778 11661 net.cpp:144] Setting up inception_5b/5x5_BatchNorm
I1227 18:31:16.740785 11661 net.cpp:151] Top shape: 1 128 15 30 (57600)
I1227 18:31:16.740789 11661 net.cpp:159] Memory required for data: 712652416
I1227 18:31:16.740794 11661 layer_factory.hpp:77] Creating layer inception_5b/relu_5x5
I1227 18:31:16.740797 11661 net.cpp:94] Creating Layer inception_5b/relu_5x5
I1227 18:31:16.740799 11661 net.cpp:435] inception_5b/relu_5x5 <- inception_5b/5x5
I1227 18:31:16.740803 11661 net.cpp:396] inception_5b/relu_5x5 -> inception_5b/5x5 (in-place)
I1227 18:31:16.740806 11661 net.cpp:144] Setting up inception_5b/relu_5x5
I1227 18:31:16.740808 11661 net.cpp:151] Top shape: 1 128 15 30 (57600)
I1227 18:31:16.740810 11661 net.cpp:159] Memory required for data: 712882816
I1227 18:31:16.740811 11661 layer_factory.hpp:77] Creating layer inception_5b/pool
I1227 18:31:16.740815 11661 net.cpp:94] Creating Layer inception_5b/pool
I1227 18:31:16.740818 11661 net.cpp:435] inception_5b/pool <- inception_5a/output_inception_5a/output_0_split_3
I1227 18:31:16.740821 11661 net.cpp:409] inception_5b/pool -> inception_5b/pool
I1227 18:31:16.740842 11661 net.cpp:144] Setting up inception_5b/pool
I1227 18:31:16.740845 11661 net.cpp:151] Top shape: 1 832 15 30 (374400)
I1227 18:31:16.740847 11661 net.cpp:159] Memory required for data: 714380416
I1227 18:31:16.740849 11661 layer_factory.hpp:77] Creating layer inception_5b/pool_proj
I1227 18:31:16.740854 11661 net.cpp:94] Creating Layer inception_5b/pool_proj
I1227 18:31:16.740855 11661 net.cpp:435] inception_5b/pool_proj <- inception_5b/pool
I1227 18:31:16.740859 11661 net.cpp:409] inception_5b/pool_proj -> inception_5b/pool_proj_raw
I1227 18:31:16.741557 11661 net.cpp:144] Setting up inception_5b/pool_proj
I1227 18:31:16.741561 11661 net.cpp:151] Top shape: 1 128 15 30 (57600)
I1227 18:31:16.741564 11661 net.cpp:159] Memory required for data: 714610816
I1227 18:31:16.741566 11661 layer_factory.hpp:77] Creating layer inception_5b/pool_proj_BatchNorm
I1227 18:31:16.741570 11661 net.cpp:94] Creating Layer inception_5b/pool_proj_BatchNorm
I1227 18:31:16.741572 11661 net.cpp:435] inception_5b/pool_proj_BatchNorm <- inception_5b/pool_proj_raw
I1227 18:31:16.741575 11661 net.cpp:409] inception_5b/pool_proj_BatchNorm -> inception_5b/pool_proj
I1227 18:31:16.741909 11661 net.cpp:144] Setting up inception_5b/pool_proj_BatchNorm
I1227 18:31:16.741914 11661 net.cpp:151] Top shape: 1 128 15 30 (57600)
I1227 18:31:16.741916 11661 net.cpp:159] Memory required for data: 714841216
I1227 18:31:16.741921 11661 layer_factory.hpp:77] Creating layer inception_5b/relu_pool_proj
I1227 18:31:16.741925 11661 net.cpp:94] Creating Layer inception_5b/relu_pool_proj
I1227 18:31:16.741927 11661 net.cpp:435] inception_5b/relu_pool_proj <- inception_5b/pool_proj
I1227 18:31:16.741930 11661 net.cpp:396] inception_5b/relu_pool_proj -> inception_5b/pool_proj (in-place)
I1227 18:31:16.741932 11661 net.cpp:144] Setting up inception_5b/relu_pool_proj
I1227 18:31:16.741935 11661 net.cpp:151] Top shape: 1 128 15 30 (57600)
I1227 18:31:16.741936 11661 net.cpp:159] Memory required for data: 715071616
I1227 18:31:16.741938 11661 layer_factory.hpp:77] Creating layer inception_5b/output
I1227 18:31:16.741941 11661 net.cpp:94] Creating Layer inception_5b/output
I1227 18:31:16.741943 11661 net.cpp:435] inception_5b/output <- inception_5b/1x1
I1227 18:31:16.741945 11661 net.cpp:435] inception_5b/output <- inception_5b/3x3
I1227 18:31:16.741947 11661 net.cpp:435] inception_5b/output <- inception_5b/5x5
I1227 18:31:16.741950 11661 net.cpp:435] inception_5b/output <- inception_5b/pool_proj
I1227 18:31:16.741953 11661 net.cpp:409] inception_5b/output -> inception_5b/output
I1227 18:31:16.741968 11661 net.cpp:144] Setting up inception_5b/output
I1227 18:31:16.741971 11661 net.cpp:151] Top shape: 1 1024 15 30 (460800)
I1227 18:31:16.741973 11661 net.cpp:159] Memory required for data: 716914816
I1227 18:31:16.741976 11661 layer_factory.hpp:77] Creating layer p5
I1227 18:31:16.741981 11661 net.cpp:94] Creating Layer p5
I1227 18:31:16.741984 11661 net.cpp:435] p5 <- inception_5b/output
I1227 18:31:16.741988 11661 net.cpp:409] p5 -> p5
I1227 18:31:16.742352 11661 net.cpp:144] Setting up p5
I1227 18:31:16.742357 11661 net.cpp:151] Top shape: 1 32 15 30 (14400)
I1227 18:31:16.742359 11661 net.cpp:159] Memory required for data: 716972416
I1227 18:31:16.742363 11661 layer_factory.hpp:77] Creating layer latlayer_4f
I1227 18:31:16.742367 11661 net.cpp:94] Creating Layer latlayer_4f
I1227 18:31:16.742372 11661 net.cpp:435] latlayer_4f <- inception_4e/output_inception_4e/output_0_split_1
I1227 18:31:16.742381 11661 net.cpp:409] latlayer_4f -> latlayer_4f
I1227 18:31:16.742779 11661 net.cpp:144] Setting up latlayer_4f
I1227 18:31:16.742785 11661 net.cpp:151] Top shape: 1 32 30 60 (57600)
I1227 18:31:16.742789 11661 net.cpp:159] Memory required for data: 717202816
I1227 18:31:16.742794 11661 layer_factory.hpp:77] Creating layer upsample_p5
I1227 18:31:16.742799 11661 net.cpp:94] Creating Layer upsample_p5
I1227 18:31:16.742800 11661 net.cpp:435] upsample_p5 <- p5
I1227 18:31:16.742805 11661 net.cpp:409] upsample_p5 -> upsample_p5
I1227 18:31:16.743012 11661 net.cpp:144] Setting up upsample_p5
I1227 18:31:16.743016 11661 net.cpp:151] Top shape: 1 32 30 60 (57600)
I1227 18:31:16.743018 11661 net.cpp:159] Memory required for data: 717433216
I1227 18:31:16.743021 11661 layer_factory.hpp:77] Creating layer add_p4
I1227 18:31:16.743024 11661 net.cpp:94] Creating Layer add_p4
I1227 18:31:16.743026 11661 net.cpp:435] add_p4 <- upsample_p5
I1227 18:31:16.743028 11661 net.cpp:435] add_p4 <- latlayer_4f
I1227 18:31:16.743031 11661 net.cpp:409] add_p4 -> add_p4
I1227 18:31:16.743044 11661 net.cpp:144] Setting up add_p4
I1227 18:31:16.743046 11661 net.cpp:151] Top shape: 1 32 30 60 (57600)
I1227 18:31:16.743049 11661 net.cpp:159] Memory required for data: 717663616
I1227 18:31:16.743050 11661 layer_factory.hpp:77] Creating layer toplayer_p4
I1227 18:31:16.743055 11661 net.cpp:94] Creating Layer toplayer_p4
I1227 18:31:16.743057 11661 net.cpp:435] toplayer_p4 <- add_p4
I1227 18:31:16.743059 11661 net.cpp:409] toplayer_p4 -> p4
I1227 18:31:16.743257 11661 net.cpp:144] Setting up toplayer_p4
I1227 18:31:16.743260 11661 net.cpp:151] Top shape: 1 32 30 60 (57600)
I1227 18:31:16.743263 11661 net.cpp:159] Memory required for data: 717894016
I1227 18:31:16.743266 11661 layer_factory.hpp:77] Creating layer latlayer_3d
I1227 18:31:16.743270 11661 net.cpp:94] Creating Layer latlayer_3d
I1227 18:31:16.743273 11661 net.cpp:435] latlayer_3d <- inception_3b/output_inception_3b/output_0_split_1
I1227 18:31:16.743276 11661 net.cpp:409] latlayer_3d -> latlayer_3d
I1227 18:31:16.743505 11661 net.cpp:144] Setting up latlayer_3d
I1227 18:31:16.743508 11661 net.cpp:151] Top shape: 1 32 60 120 (230400)
I1227 18:31:16.743511 11661 net.cpp:159] Memory required for data: 718815616
I1227 18:31:16.743515 11661 layer_factory.hpp:77] Creating layer upsample_p4
I1227 18:31:16.743517 11661 net.cpp:94] Creating Layer upsample_p4
I1227 18:31:16.743520 11661 net.cpp:435] upsample_p4 <- p4
I1227 18:31:16.743522 11661 net.cpp:409] upsample_p4 -> upsample_p4
I1227 18:31:16.743711 11661 net.cpp:144] Setting up upsample_p4
I1227 18:31:16.743714 11661 net.cpp:151] Top shape: 1 32 60 120 (230400)
I1227 18:31:16.743716 11661 net.cpp:159] Memory required for data: 719737216
I1227 18:31:16.743719 11661 layer_factory.hpp:77] Creating layer add_p3
I1227 18:31:16.743722 11661 net.cpp:94] Creating Layer add_p3
I1227 18:31:16.743724 11661 net.cpp:435] add_p3 <- upsample_p4
I1227 18:31:16.743726 11661 net.cpp:435] add_p3 <- latlayer_3d
I1227 18:31:16.743728 11661 net.cpp:409] add_p3 -> add_p3
I1227 18:31:16.743738 11661 net.cpp:144] Setting up add_p3
I1227 18:31:16.743741 11661 net.cpp:151] Top shape: 1 32 60 120 (230400)
I1227 18:31:16.743743 11661 net.cpp:159] Memory required for data: 720658816
I1227 18:31:16.743746 11661 layer_factory.hpp:77] Creating layer toplayer_p3
I1227 18:31:16.743749 11661 net.cpp:94] Creating Layer toplayer_p3
I1227 18:31:16.743750 11661 net.cpp:435] toplayer_p3 <- add_p3
I1227 18:31:16.743753 11661 net.cpp:409] toplayer_p3 -> p3
I1227 18:31:16.743954 11661 net.cpp:144] Setting up toplayer_p3
I1227 18:31:16.743958 11661 net.cpp:151] Top shape: 1 32 60 120 (230400)
I1227 18:31:16.743960 11661 net.cpp:159] Memory required for data: 721580416
I1227 18:31:16.743963 11661 layer_factory.hpp:77] Creating layer latlayer_2c
I1227 18:31:16.743968 11661 net.cpp:94] Creating Layer latlayer_2c
I1227 18:31:16.743969 11661 net.cpp:435] latlayer_2c <- conv2/3x3_conv2/relu_3x3_0_split_1
I1227 18:31:16.743971 11661 net.cpp:409] latlayer_2c -> latlayer_2c
I1227 18:31:16.744150 11661 net.cpp:144] Setting up latlayer_2c
I1227 18:31:16.744154 11661 net.cpp:151] Top shape: 1 32 120 240 (921600)
I1227 18:31:16.744156 11661 net.cpp:159] Memory required for data: 725266816
I1227 18:31:16.744159 11661 layer_factory.hpp:77] Creating layer upsample_p3
I1227 18:31:16.744163 11661 net.cpp:94] Creating Layer upsample_p3
I1227 18:31:16.744164 11661 net.cpp:435] upsample_p3 <- p3
I1227 18:31:16.744168 11661 net.cpp:409] upsample_p3 -> upsample_p3
I1227 18:31:16.744349 11661 net.cpp:144] Setting up upsample_p3
I1227 18:31:16.744352 11661 net.cpp:151] Top shape: 1 32 120 240 (921600)
I1227 18:31:16.744355 11661 net.cpp:159] Memory required for data: 728953216
I1227 18:31:16.744357 11661 layer_factory.hpp:77] Creating layer add_p2
I1227 18:31:16.744360 11661 net.cpp:94] Creating Layer add_p2
I1227 18:31:16.744361 11661 net.cpp:435] add_p2 <- upsample_p3
I1227 18:31:16.744364 11661 net.cpp:435] add_p2 <- latlayer_2c
I1227 18:31:16.744366 11661 net.cpp:409] add_p2 -> add_p2
I1227 18:31:16.744376 11661 net.cpp:144] Setting up add_p2
I1227 18:31:16.744379 11661 net.cpp:151] Top shape: 1 32 120 240 (921600)
I1227 18:31:16.744381 11661 net.cpp:159] Memory required for data: 732639616
I1227 18:31:16.744383 11661 layer_factory.hpp:77] Creating layer toplayer_p2
I1227 18:31:16.744386 11661 net.cpp:94] Creating Layer toplayer_p2
I1227 18:31:16.744387 11661 net.cpp:435] toplayer_p2 <- add_p2
I1227 18:31:16.744390 11661 net.cpp:409] toplayer_p2 -> pred
I1227 18:31:16.745201 11661 net.cpp:144] Setting up toplayer_p2
I1227 18:31:16.745206 11661 net.cpp:151] Top shape: 1 5 480 960 (2304000)
I1227 18:31:16.745209 11661 net.cpp:159] Memory required for data: 741855616
I1227 18:31:16.745213 11661 layer_factory.hpp:77] Creating layer score
I1227 18:31:16.745218 11661 net.cpp:94] Creating Layer score
I1227 18:31:16.745219 11661 net.cpp:435] score <- pred
I1227 18:31:16.745221 11661 net.cpp:409] score -> score
I1227 18:31:16.745265 11661 net.cpp:144] Setting up score
I1227 18:31:16.745267 11661 net.cpp:151] Top shape: 1 5 480 960 (2304000)
I1227 18:31:16.745270 11661 net.cpp:159] Memory required for data: 751071616
I1227 18:31:16.745271 11661 layer_factory.hpp:77] Creating layer accuracy
I1227 18:31:16.745280 11661 net.cpp:94] Creating Layer accuracy
I1227 18:31:16.745283 11661 net.cpp:435] accuracy <- score
I1227 18:31:16.745285 11661 net.cpp:435] accuracy <- label
I1227 18:31:16.745287 11661 net.cpp:409] accuracy -> segmentation_eval
I1227 18:31:16.745299 11661 net.cpp:144] Setting up accuracy
I1227 18:31:16.745302 11661 net.cpp:151] Top shape: 3 5 (15)
I1227 18:31:16.745304 11661 net.cpp:159] Memory required for data: 751071676
I1227 18:31:16.745306 11661 net.cpp:222] accuracy does not need backward computation.
I1227 18:31:16.745308 11661 net.cpp:222] score does not need backward computation.
I1227 18:31:16.745311 11661 net.cpp:222] toplayer_p2 does not need backward computation.
I1227 18:31:16.745312 11661 net.cpp:222] add_p2 does not need backward computation.
…
