…
  top: "label"
  include {
    phase: TRAIN
  }
  transform_param {
    scale: 0.022
    mean_value: 73
    mean_value: 82
    mean_value: 72
    resize_param {
      prob: 1
      resize_mode: WARP
      height: 480
      width: 960
    }
  }
  image_data_param {
    source: "/workspace/Vitis-AI-Tutorials/files/Segment/workspace/data/signate/signate_test_calibration.txt"
    batch_size: 1
    shuffle: true
    new_height: 480
    new_width: 960
    root_folder: "/workspace/Vitis-AI-Tutorials/files/Segment/workspace/data/signate/seg_test_images/"
  }
}
layer {
  name: "conv1/7x7_s2"
  type: "Convolution"
  bottom: "data"
  top: "conv1/7x7_s2_raw"
  param {
    lr_mult: 1
    decay_mult: 1
  }
  convolution_param {
    num_output: 64
    pad: 3
    kernel_size: 7
    stride: 2
    weight_filler {
      type: "msra"
    }
    bias_filler {
      type: "constant"
      value: 0.2
    }
  }
}
layer {
  name: "conv1/7x7_s2_BatchNorm"
  type: "BatchNorm"
  bottom: "conv1/7x7_s2_raw"
  top: "conv1/7x7_s2"
  param {
    lr_mult: 1
    decay_mult: 0
  }
  param {
    lr_mult: 1
    decay_mult: 0
  }
  param {
    lr_mult: 0
    decay_mult: 0
  }
  param {
    lr_mult: 0
    decay_mult: 0
  }
  batch_norm_param {
    use_global_stats: false
    eps: 1e-05
    scale_filler {
      type: "constant"
      value: 1
    }
    bias_filler {
      type: "constant"
      value: 0
    }
  }
}
layer {
  name: "conv1/relu_7x7"
  type: "ReLU"
  bottom: "conv1/7x7_s2"
  top: "conv1/7x7_s2"
}
layer {
  name: "pool1/3x3_s2"
  type: "Pooling"
  bottom: "conv1/7x7_s2"
  top: "pool1/3x3_s2"
  pooling_param {
    pool: MAX
    kernel_size: 3
    stride: 2
  }
}
layer {
  name: "conv2/3x3_reduce"
  type: "Convolution"
  bottom: "pool1/3x3_s2"
  top: "conv2/3x3_reduce_raw"
  param {
    lr_mult: 1
    decay_mult: 1
  }
  convolution_param {
    num_output: 64
    kernel_size: 1
    weight_filler {
      type: "msra"
    }
    bias_filler {
      type: "constant"
      value: 0.2
    }
  }
}
layer {
  name: "conv2/3x3_reduce_BatchNorm"
  type: "BatchNorm"
  bottom: "conv2/3x3_reduce_raw"
  top: "conv2/3x3_reduce"
  param {
    lr_mult: 1
    decay_mult: 0
  }
  param {
    lr_mult: 1
    decay_mult: 0
  }
  param {
    lr_mult: 0
    decay_mult: 0
  }
  param {
    lr_mult: 0
    decay_mult: 0
  }
  batch_norm_param {
    use_global_stats: false
    eps: 1e-05
    scale_filler {
      type: "constant"
      value: 1
    }
    bias_filler {
      type: "constant"
      value: 0
    }
  }
}
layer {
  name: "conv2/relu_3x3_reduce"
  type: "ReLU"
  bottom: "conv2/3x3_reduce"
  top: "conv2/3x3_reduce"
}
layer {
  name: "conv2/3x3"
  type: "Convolution"
  bottom: "conv2/3x3_reduce"
  top: "conv2/3x3_raw"
  param {
    lr_mult: 1
    decay_mult: 1
  }
  convolution_param {
    num_output: 192
    pad: 1
    kernel_size: 3
    weight_filler {
      type: "msra"
    }
    bias_filler {
      type: "constant"
      value: 0.2
    }
  }
}
layer {
  name: "conv2/3x3_BatchNorm"
  type: "BatchNorm"
  bottom: "conv2/3x3_raw"
  top: "conv2/3x3"
  param {
    lr_mult: 1
    decay_mult: 0
  }
  param {
    lr_mult: 1
    decay_mult: 0
  }
  param {
    lr_mult: 0
    decay_mult: 0
  }
  param {
    lr_mult: 0
    decay_mult: 0
  }
  batch_norm_param {
    use_global_stats: false
    eps: 1e-05
    scale_filler {
      type: "constant"
      value: 1
    }
    bias_filler {
      type: "constant"
      value: 0
    }
  }
}
layer {
  name: "conv2/relu_3x3"
  type: "ReLU"
  bottom: "conv2/3x3"
  top: "conv2/3x3"
}
layer {
  name: "pool2/3x3_s2"
  type: "Pooling"
  bottom: "conv2/3x3"
  top: "pool2/3x3_s2"
  pooling_param {
    pool: MAX
    kernel_size: 3
    stride: 2
  }
}
layer {
  name: "inception_3a/1x1"
  type: "Convolution"
  bottom: "pool2/3x3_s2"
  top: "inception_3a/1x1_raw"
  param {
    lr_mult: 1
    decay_mult: 1
  }
  convolution_param {
    num_output: 64
    kernel_size: 1
    weight_filler {
      type: "msra"
    }
    bias_filler {
      type: "constant"
      value: 0.2
    }
  }
}
layer {
  name: "inception_3a/1x1_BatchNorm"
  type: "BatchNorm"
  bottom: "inception_3a/1x1_raw"
  top: "inception_3a/1x1"
  param {
    lr_mult: 1
    decay_mult: 0
  }
  param {
    lr_mult: 1
    decay_mult: 0
  }
  param {
    lr_mult: 0
    decay_mult: 0
  }
  param {
    lr_mult: 0
    decay_mult: 0
  }
  batch_norm_param {
    use_global_stats: false
    eps: 1e-05
    scale_filler {
      type: "constant"
      value: 1
    }
    bias_filler {
      type: "constant"
      value: 0
    }
  }
}
layer {
  name: "inception_3a/relu_1x1"
  type: "ReLU"
  bottom: "inception_3a/1x1"
  top: "inception_3a/1x1"
}
layer {
  name: "inception_3a/3x3_reduce"
  type: "Convolution"
  bottom: "pool2/3x3_s2"
  top: "inception_3a/3x3_reduce_raw"
  param {
    lr_mult: 1
    decay_mult: 1
  }
  convolution_param {
    num_output: 96
    kernel_size: 1
    weight_filler {
      type: "msra"
    }
    bias_filler {
      type: "constant"
      value: 0.2
    }
  }
}
layer {
  name: "inception_3a/3x3_reduce_BatchNorm"
  type: "BatchNorm"
  bottom: "inception_3a/3x3_reduce_raw"
  top: "inception_3a/3x3_reduce"
  param {
    lr_mult: 1
    decay_mult: 0
  }
  param {
    lr_mult: 1
    decay_mult: 0
  }
  param {
    lr_mult: 0
    decay_mult: 0
  }
  param {
    lr_mult: 0
    decay_mult: 0
  }
  batch_norm_param {
    use_global_stats: false
    eps: 1e-05
    scale_filler {
      type: "constant"
      value: 1
    }
    bias_filler {
      type: "constant"
      value: 0
    }
  }
}
layer {
  name: "inception_3a/relu_3x3_reduce"
  type: "ReLU"
  bottom: "inception_3a/3x3_reduce"
  top: "inception_3a/3x3_reduce"
}
layer {
  name: "inception_3a/3x3"
  type: "Convolution"
  bottom: "inception_3a/3x3_reduce"
  top: "inception_3a/3x3_raw"
  param {
    lr_mult: 1
    decay_mult: 1
  }
  convolution_param {
    num_output: 128
    pad: 1
    kernel_size: 3
    weight_filler {
      type: "msra"
    }
    bias_filler {
      type: "constant"
      value: 0.2
    }
  }
}
layer {
  name: "inception_3a/3x3_BatchNorm"
  type: "BatchNorm"
  bottom: "inception_3a/3x3_raw"
  top: "inception_3a/3x3"
  param {
    lr_mult: 1
    decay_mult: 0
  }
  param {
    lr_mult: 1
    decay_mult: 0
  }
  param {
    lr_mult: 0
    decay_mult: 0
  }
  param {
    lr_mult: 0
    decay_mult: 0
  }
  batch_norm_param {
    use_global_stats: false
    eps: 1e-05
    scale_filler {
      type: "constant"
      value: 1
    }
    bias_filler {
      type: "constant"
      value: 0
    }
  }
}
layer {
  name: "inception_3a/relu_3x3"
  type: "ReLU"
  bottom: "inception_3a/3x3"
  top: "inception_3a/3x3"
}
layer {
  name: "inception_3a/5x5_reduce"
  type: "Convolution"
  bottom: "pool2/3x3_s2"
  top: "inception_3a/5x5_reduce_raw"
  param {
    lr_mult: 1
    decay_mult: 1
  }
  convolution_param {
    num_output: 16
    kernel_size: 1
    weight_filler {
      type: "msra"
    }
    bias_filler {
      type: "constant"
      value: 0.2
    }
  }
}
layer {
  name: "inception_3a/5x5_reduce_BatchNorm"
  type: "BatchNorm"
  bottom: "inception_3a/5x5_reduce_raw"
  top: "inception_3a/5x5_reduce"
  param {
    lr_mult: 1
    decay_mult: 0
  }
  param {
    lr_mult: 1
    decay_mult: 0
  }
  param {
    lr_mult: 0
    decay_mult: 0
  }
  param {
    lr_mult: 0
    decay_mult: 0
  }
  batch_norm_param {
    use_global_stats: false
    eps: 1e-05
    scale_filler {
      type: "constant"
      value: 1
    }
    bias_filler {
      type: "constant"
      value: 0
    }
  }
}
layer {
  name: "inception_3a/relu_5x5_reduce"
  type: "ReLU"
  bottom: "inception_3a/5x5_reduce"
  top: "inception_3a/5x5_reduce"
}
layer {
  name: "inception_3a/5x5"
  type: "Convolution"
  bottom: "inception_3a/5x5_reduce"
  top: "inception_3a/5x5_raw"
  param {
    lr_mult: 1
    decay_mult: 1
  }
  convolution_param {
    num_output: 32
    pad: 2
    kernel_size: 5
    weight_filler {
      type: "msra"
    }
    bias_filler {
      type: "constant"
      value: 0.2
    }
  }
}
layer {
  name: "inception_3a/5x5_BatchNorm"
  type: "BatchNorm"
  bottom: "inception_3a/5x5_raw"
  top: "inception_3a/5x5"
  param {
    lr_mult: 1
    decay_mult: 0
  }
  param {
    lr_mult: 1
    decay_mult: 0
  }
  param {
    lr_mult: 0
    decay_mult: 0
  }
  param {
    lr_mult: 0
    decay_mult: 0
  }
  batch_norm_param {
    use_global_stats: false
    eps: 1e-05
    scale_filler {
      type: "constant"
      value: 1
    }
    bias_filler {
      type: "constant"
      value: 0
    }
  }
}
layer {
  name: "inception_3a/relu_5x5"
  type: "ReLU"
  bottom: "inception_3a/5x5"
  top: "inception_3a/5x5"
}
layer {
  name: "inception_3a/pool"
  type: "Pooling"
  bottom: "pool2/3x3_s2"
  top: "inception_3a/pool"
  pooling_param {
    pool: MAX
    kernel_size: 3
    stride: 1
    pad: 1
  }
}
layer {
  name: "inception_3a/pool_proj"
  type: "Convolution"
  bottom: "inception_3a/pool"
  top: "inception_3a/pool_proj_raw"
  param {
    lr_mult: 1
    decay_mult: 1
  }
  convolution_param {
    num_output: 32
    kernel_size: 1
    weight_filler {
      type: "msra"
    }
    bias_filler {
      type: "constant"
      value: 0.2
    }
  }
}
layer {
  name: "inception_3a/pool_proj_BatchNorm"
  type: "BatchNorm"
  bottom: "inception_3a/pool_proj_raw"
  top: "inception_3a/pool_proj"
  param {
    lr_mult: 1
    decay_mult: 0
  }
  param {
    lr_mult: 1
    decay_mult: 0
  }
  param {
    lr_mult: 0
    decay_mult: 0
  }
  param {
    lr_mult: 0
    decay_mult: 0
  }
  batch_norm_param {
    use_global_stats: false
    eps: 1e-05
    scale_filler {
      type: "constant"
      value: 1
    }
    bias_filler {
      type: "constant"
      value: 0
    }
  }
}
layer {
  name: "inception_3a/relu_pool_proj"
  type: "ReLU"
  bottom: "inception_3a/pool_proj"
  top: "inception_3a/pool_proj"
}
layer {
  name: "inception_3a/output"
  type: "Concat"
  bottom: "inception_3a/1x1"
  bottom: "inception_3a/3x3"
  bottom: "inception_3a/5x5"
  bottom: "inception_3a/pool_proj"
  top: "inception_3a/output"
}
layer {
  name: "inception_3b/1x1"
  type: "Convolution"
  bottom: "inception_3a/output"
  top: "inception_3b/1x1_raw"
  param {
    lr_mult: 1
    decay_mult: 1
  }
  convolution_param {
    num_output: 128
    kernel_size: 1
    weight_filler {
      type: "msra"
    }
    bias_filler {
      type: "constant"
      value: 0.2
    }
  }
}
layer {
  name: "inception_3b/1x1_BatchNorm"
  type: "BatchNorm"
  bottom: "inception_3b/1x1_raw"
  top: "inception_3b/1x1"
  param {
    lr_mult: 1
    decay_mult: 0
  }
  param {
    lr_mult: 1
    decay_mult: 0
  }
  param {
    lr_mult: 0
    decay_mult: 0
  }
  param {
    lr_mult: 0
    decay_mult: 0
  }
  batch_norm_param {
    use_global_stats: false
    eps: 1e-05
    scale_filler {
      type: "constant"
      value: 1
    }
    bias_filler {
      type: "constant"
      value: 0
    }
  }
}
layer {
  name: "inception_3b/relu_1x1"
  type: "ReLU"
  bottom: "inception_3b/1x1"
  top: "inception_3b/1x1"
}
layer {
  name: "inception_3b/3x3_reduce"
  type: "Convolution"
  bottom: "inception_3a/output"
  top: "inception_3b/3x3_reduce_raw"
  param {
    lr_mult: 1
    decay_mult: 1
  }
  convolution_param {
    num_output: 128
    kernel_size: 1
    weight_filler {
      type: "msra"
    }
    bias_filler {
      type: "constant"
      value: 0.2
    }
  }
}
layer {
  name: "inception_3b/3x3_reduce_BatchNorm"
  type: "BatchNorm"
  bottom: "inception_3b/3x3_reduce_raw"
  top: "inception_3b/3x3_reduce"
  param {
    lr_mult: 1
    decay_mult: 0
  }
  param {
    lr_mult: 1
    decay_mult: 0
  }
  param {
    lr_mult: 0
    decay_mult: 0
  }
  param {
    lr_mult: 0
    decay_mult: 0
  }
  batch_norm_param {
    use_global_stats: false
    eps: 1e-05
    scale_filler {
      type: "constant"
      value: 1
    }
    bias_filler {
      type: "constant"
      value: 0
    }
  }
}
layer {
  name: "inception_3b/relu_3x3_reduce"
  type: "ReLU"
  bottom: "inception_3b/3x3_reduce"
  top: "inception_3b/3x3_reduce"
}
layer {
  name: "inception_3b/3x3"
  type: "Convolution"
  bottom: "inception_3b/3x3_reduce"
  top: "inception_3b/3x3_raw"
  param {
    lr_mult: 1
    decay_mult: 1
  }
  convolution_param {
    num_output: 192
    pad: 1
    kernel_size: 3
    weight_filler {
      type: "msra"
    }
    bias_filler {
      type: "constant"
      value: 0.2
    }
  }
}
layer {
  name: "inception_3b/3x3_BatchNorm"
  type: "BatchNorm"
  bottom: "inception_3b/3x3_raw"
  top: "inception_3b/3x3"
  param {
    lr_mult: 1
    decay_mult: 0
  }
  param {
    lr_mult: 1
    decay_mult: 0
  }
  param {
    lr_mult: 0
    decay_mult: 0
  }
  param {
    lr_mult: 0
    decay_mult: 0
  }
  batch_norm_param {
    use_global_stats: false
    eps: 1e-05
    scale_filler {
      type: "constant"
      value: 1
    }
    bias_filler {
      type: "constant"
      value: 0
    }
  }
}
layer {
  name: "inception_3b/relu_3x3"
  type: "ReLU"
  bottom: "inception_3b/3x3"
  top: "inception_3b/3x3"
}
layer {
  name: "inception_3b/5x5_reduce"
  type: "Convolution"
  bottom: "inception_3a/output"
  top: "inception_3b/5x5_reduce_raw"
  param {
    lr_mult: 1
    decay_mult: 1
  }
  convolution_param {
    num_output: 32
    kernel_size: 1
    weight_filler {
      type: "msra"
    }
    bias_filler {
      type: "constant"
      value: 0.2
    }
  }
}
layer {
  name: "inception_3b/5x5_reduce_BatchNorm"
  type: "BatchNorm"
  bottom: "inception_3b/5x5_reduce_raw"
  top: "inception_3b/5x5_reduce"
  param {
    lr_mult: 1
    decay_mult: 0
  }
  param {
    lr_mult: 1
    decay_mult: 0
  }
  param {
    lr_mult: 0
    decay_mult: 0
  }
  param {
    lr_mult: 0
    decay_mult: 0
  }
  batch_norm_param {
    use_global_stats: false
    eps: 1e-05
    scale_filler {
      type: "constant"
      value: 1
    }
    bias_filler {
      type: "constant"
      value: 0
    }
  }
}
layer {
  name: "inception_3b/relu_5x5_reduce"
  type: "ReLU"
  bottom: "inception_3b/5x5_reduce"
  top: "inception_3b/5x5_reduce"
}
layer {
  name: "inception_3b/5x5"
  type: "Convolution"
  bottom: "inception_3b/5x5_reduce"
  top: "inception_3b/5x5_raw"
  param {
    lr_mult: 1
    decay_mult: 1
  }
  convolution_param {
    num_output: 96
    pad: 2
    kernel_size: 5
    weight_filler {
      type: "msra"
    }
    bias_filler {
      type: "constant"
      value: 0.2
    }
  }
}
layer {
  name: "inception_3b/5x5_BatchNorm"
  type: "BatchNorm"
  bottom: "inception_3b/5x5_raw"
  top: "inception_3b/5x5"
  param {
    lr_mult: 1
    decay_mult: 0
  }
  param {
    lr_mult: 1
    decay_mult: 0
  }
  param {
    lr_mult: 0
    decay_mult: 0
  }
  param {
    lr_mult: 0
    decay_mult: 0
  }
  batch_norm_param {
    use_global_stats: false
    eps: 1e-05
    scale_filler {
      type: "constant"
      value: 1
    }
    bias_filler {
      type: "constant"
      value: 0
    }
  }
}
layer {
  name: "inception_3b/relu_5x5"
  type: "ReLU"
  bottom: "inception_3b/5x5"
  top: "inception_3b/5x5"
}
layer {
  name: "inception_3b/pool"
  type: "Pooling"
  bottom: "inception_3a/output"
  top: "inception_3b/pool"
  pooling_param {
    pool: MAX
    kernel_size: 3
    stride: 1
    pad: 1
  }
}
layer {
  name: "inception_3b/pool_proj"
  type: "Convolution"
  bottom: "inception_3b/pool"
  top: "inception_3b/pool_proj_raw"
  param {
    lr_mult: 1
    decay_mult: 1
  }
  convolution_param {
    num_output: 64
    kernel_size: 1
    weight_filler {
      type: "msra"
    }
    bias_filler {
      type: "constant"
      value: 0.2
    }
  }
}
layer {
  name: "inception_3b/pool_proj_BatchNorm"
  type: "BatchNorm"
  bottom: "inception_3b/pool_proj_raw"
  top: "inception_3b/pool_proj"
  param {
    lr_mult: 1
    decay_mult: 0
  }
  param {
    lr_mult: 1
    decay_mult: 0
  }
  param {
    lr_mult: 0
    decay_mult: 0
  }
  param {
    lr_mult: 0
    decay_mult: 0
  }
  batch_norm_param {
    use_global_stats: false
    eps: 1e-05
    scale_filler {
      type: "constant"
      value: 1
    }
    bias_filler {
      type: "constant"
      value: 0
    }
  }
}
layer {
  name: "inception_3b/relu_pool_proj"
  type: "ReLU"
  bottom: "inception_3b/pool_proj"
  top: "inception_3b/pool_proj"
}
layer {
  name: "inception_3b/output"
  type: "Concat"
  bottom: "inception_3b/1x1"
  bottom: "inception_3b/3x3"
  bottom: "inception_3b/5x5"
  bottom: "inception_3b/pool_proj"
  top: "inception_3b/output"
}
layer {
  name: "pool3/3x3_s2"
  type: "Pooling"
  bottom: "inception_3b/output"
  top: "pool3/3x3_s2"
  pooling_param {
    pool: MAX
    kernel_size: 3
    stride: 2
  }
}
layer {
  name: "inception_4a/1x1"
  type: "Convolution"
  bottom: "pool3/3x3_s2"
  top: "inception_4a/1x1_raw"
  param {
    lr_mult: 1
    decay_mult: 1
  }
  convolution_param {
    num_output: 192
    kernel_size: 1
    weight_filler {
      type: "msra"
    }
    bias_filler {
      type: "constant"
      value: 0.2
    }
  }
}
layer {
  name: "inception_4a/1x1_BatchNorm"
  type: "BatchNorm"
  bottom: "inception_4a/1x1_raw"
  top: "inception_4a/1x1"
  param {
    lr_mult: 1
    decay_mult: 0
  }
  param {
    lr_mult: 1
    decay_mult: 0
  }
  param {
    lr_mult: 0
    decay_mult: 0
  }
  param {
    lr_mult: 0
    decay_mult: 0
  }
  batch_norm_param {
    use_global_stats: false
    eps: 1e-05
    scale_filler {
      type: "constant"
      value: 1
    }
    bias_filler {
      type: "constant"
      value: 0
    }
  }
}
layer {
  name: "inception_4a/relu_1x1"
  type: "ReLU"
  bottom: "inception_4a/1x1"
  top: "inception_4a/1x1"
}
layer {
  name: "inception_4a/3x3_reduce"
  type: "Convolution"
  bottom: "pool3/3x3_s2"
  top: "inception_4a/3x3_reduce_raw"
  param {
    lr_mult: 1
    decay_mult: 1
  }
  convolution_param {
    num_output: 96
    kernel_size: 1
    weight_filler {
      type: "msra"
    }
    bias_filler {
      type: "constant"
      value: 0.2
    }
  }
}
layer {
  name: "inception_4a/3x3_reduce_BatchNorm"
  type: "BatchNorm"
  bottom: "inception_4a/3x3_reduce_raw"
  top: "inception_4a/3x3_reduce"
  param {
    lr_mult: 1
    decay_mult: 0
  }
  param {
    lr_mult: 1
    decay_mult: 0
  }
  param {
    lr_mult: 0
    decay_mult: 0
  }
  param {
    lr_mult: 0
    decay_mult: 0
  }
  batch_norm_param {
    use_global_stats: false
    eps: 1e-05
    scale_filler {
      type: "constant"
      value: 1
    }
    bias_filler {
      type: "constant"
      value: 0
    }
  }
}
layer {
  name: "inception_4a/relu_3x3_reduce"
  type: "ReLU"
  bottom: "inception_4a/3x3_reduce"
  top: "inception_4a/3x3_reduce"
}
layer {
  name: "inception_4a/3x3"
  type: "Convolution"
  bottom: "inception_4a/3x3_reduce"
  top: "inception_4a/3x3_raw"
  param {
    lr_mult: 1
    decay_mult: 1
  }
  convolution_param {
    num_output: 208
    pad: 1
    kernel_size: 3
    weight_filler {
      type: "msra"
    }
    bias_filler {
      type: "constant"
      value: 0.2
    }
  }
}
layer {
  name: "inception_4a/3x3_BatchNorm"
  type: "BatchNorm"
  bottom: "inception_4a/3x3_raw"
  top: "inception_4a/3x3"
  param {
    lr_mult: 1
    decay_mult: 0
  }
  param {
    lr_mult: 1
    decay_mult: 0
  }
  param {
    lr_mult: 0
    decay_mult: 0
  }
  param {
    lr_mult: 0
    decay_mult: 0
  }
  batch_norm_param {
    use_global_stats: false
    eps: 1e-05
    scale_filler {
      type: "constant"
      value: 1
    }
    bias_filler {
      type: "constant"
      value: 0
    }
  }
}
layer {
  name: "inception_4a/relu_3x3"
  type: "ReLU"
  bottom: "inception_4a/3x3"
  top: "inception_4a/3x3"
}
layer {
  name: "inception_4a/5x5_reduce"
  type: "Convolution"
  bottom: "pool3/3x3_s2"
  top: "inception_4a/5x5_reduce_raw"
  param {
    lr_mult: 1
    decay_mult: 1
  }
  convolution_param {
    num_output: 16
    kernel_size: 1
    weight_filler {
      type: "msra"
    }
    bias_filler {
      type: "constant"
      value: 0.2
    }
  }
}
layer {
  name: "inception_4a/5x5_reduce_BatchNorm"
  type: "BatchNorm"
  bottom: "inception_4a/5x5_reduce_raw"
  top: "inception_4a/5x5_reduce"
  param {
    lr_mult: 1
    decay_mult: 0
  }
  param {
    lr_mult: 1
    decay_mult: 0
  }
  param {
    lr_mult: 0
    decay_mult: 0
  }
  param {
    lr_mult: 0
    decay_mult: 0
  }
  batch_norm_param {
    use_global_stats: false
    eps: 1e-05
    scale_filler {
      type: "constant"
      value: 1
    }
    bias_filler {
      type: "constant"
      value: 0
    }
  }
}
layer {
  name: "inception_4a/relu_5x5_reduce"
  type: "ReLU"
  bottom: "inception_4a/5x5_reduce"
  top: "inception_4a/5x5_reduce"
}
layer {
  name: "inception_4a/5x5"
  type: "Convolution"
  bottom: "inception_4a/5x5_reduce"
  top: "inception_4a/5x5_raw"
  param {
    lr_mult: 1
    decay_mult: 1
  }
  convolution_param {
    num_output: 48
    pad: 2
    kernel_size: 5
    weight_filler {
      type: "msra"
    }
    bias_filler {
      type: "constant"
      value: 0.2
    }
  }
}
layer {
  name: "inception_4a/5x5_BatchNorm"
  type: "BatchNorm"
  bottom: "inception_4a/5x5_raw"
  top: "inception_4a/5x5"
  param {
    lr_mult: 1
    decay_mult: 0
  }
  param {
    lr_mult: 1
    decay_mult: 0
  }
  param {
    lr_mult: 0
    decay_mult: 0
  }
  param {
    lr_mult: 0
    decay_mult: 0
  }
  batch_norm_param {
    use_global_stats: false
    eps: 1e-05
    scale_filler {
      type: "constant"
      value: 1
    }
    bias_filler {
      type: "constant"
      value: 0
    }
  }
}
layer {
  name: "inception_4a/relu_5x5"
  type: "ReLU"
  bottom: "inception_4a/5x5"
  top: "inception_4a/5x5"
}
layer {
  name: "inception_4a/pool"
  type: "Pooling"
  bottom: "pool3/3x3_s2"
  top: "inception_4a/pool"
  pooling_param {
    pool: MAX
    kernel_size: 3
    stride: 1
    pad: 1
  }
}
layer {
  name: "inception_4a/pool_proj"
  type: "Convolution"
  bottom: "inception_4a/pool"
  top: "inception_4a/pool_proj_raw"
  param {
    lr_mult: 1
    decay_mult: 1
  }
  convolution_param {
    num_output: 64
    kernel_size: 1
    weight_filler {
      type: "msra"
    }
    bias_filler {
      type: "constant"
      value: 0.2
    }
  }
}
layer {
  name: "inception_4a/pool_proj_BatchNorm"
  type: "BatchNorm"
  bottom: "inception_4a/pool_proj_raw"
  top: "inception_4a/pool_proj"
  param {
    lr_mult: 1
    decay_mult: 0
  }
  param {
    lr_mult: 1
    decay_mult: 0
  }
  param {
    lr_mult: 0
    decay_mult: 0
  }
  param {
    lr_mult: 0
    decay_mult: 0
  }
  batch_norm_param {
    use_global_stats: false
    eps: 1e-05
    scale_filler {
      type: "constant"
      value: 1
    }
    bias_filler {
      type: "constant"
      value: 0
    }
  }
}
layer {
  name: "inception_4a/relu_pool_proj"
  type: "ReLU"
  bottom: "inception_4a/pool_proj"
  top: "inception_4a/pool_proj"
}
layer {
  name: "inception_4a/output"
  type: "Concat"
  bottom: "inception_4a/1x1"
  bottom: "inception_4a/3x3"
  bottom: "inception_4a/5x5"
  bottom: "inception_4a/pool_proj"
  top: "inception_4a/output"
}
layer {
  name: "inception_4b/1x1"
  type: "Convolution"
  bottom: "inception_4a/output"
  top: "inception_4b/1x1_raw"
  param {
    lr_mult: 1
    decay_mult: 1
  }
  convolution_param {
    num_output: 160
    kernel_size: 1
    weight_filler {
      type: "msra"
    }
    bias_filler {
      type: "constant"
      value: 0.2
    }
  }
}
layer {
  name: "inception_4b/1x1_BatchNorm"
  type: "BatchNorm"
  bottom: "inception_4b/1x1_raw"
  top: "inception_4b/1x1"
  param {
    lr_mult: 1
    decay_mult: 0
  }
  param {
    lr_mult: 1
    decay_mult: 0
  }
  param {
    lr_mult: 0
    decay_mult: 0
  }
  param {
    lr_mult: 0
    decay_mult: 0
  }
  batch_norm_param {
    use_global_stats: false
    eps: 1e-05
    scale_filler {
      type: "constant"
      value: 1
    }
    bias_filler {
      type: "constant"
      value: 0
    }
  }
}
layer {
  name: "inception_4b/relu_1x1"
  type: "ReLU"
  bottom: "inception_4b/1x1"
  top: "inception_4b/1x1"
}
layer {
  name: "inception_4b/3x3_reduce"
  type: "Convolution"
  bottom: "inception_4a/output"
  top: "inception_4b/3x3_reduce_raw"
  param {
    lr_mult: 1
    decay_mult: 1
  }
  convolution_param {
    num_output: 112
    kernel_size: 1
    weight_filler {
      type: "msra"
    }
    bias_filler {
      type: "constant"
      value: 0.2
    }
  }
}
layer {
  name: "inception_4b/3x3_reduce_BatchNorm"
  type: "BatchNorm"
  bottom: "inception_4b/3x3_reduce_raw"
  top: "inception_4b/3x3_reduce"
  param {
    lr_mult: 1
    decay_mult: 0
  }
  param {
    lr_mult: 1
    decay_mult: 0
  }
  param {
    lr_mult: 0
    decay_mult: 0
  }
  param {
    lr_mult: 0
    decay_mult: 0
  }
  batch_norm_param {
    use_global_stats: false
    eps: 1e-05
    scale_filler {
      type: "constant"
      value: 1
    }
    bias_filler {
      type: "constant"
      value: 0
    }
  }
}
layer {
  name: "inception_4b/relu_3x3_reduce"
  type: "ReLU"
  bottom: "inception_4b/3x3_reduce"
  top: "inception_4b/3x3_reduce"
}
layer {
  name: "inception_4b/3x3"
  type: "Convolution"
  bottom: "inception_4b/3x3_reduce"
  top: "inception_4b/3x3_raw"
  param {
    lr_mult: 1
    decay_mult: 1
  }
  convolution_param {
    num_output: 224
    pad: 1
    kernel_size: 3
    weight_filler {
      type: "msra"
    }
    bias_filler {
      type: "constant"
      value: 0.2
    }
  }
}
layer {
  name: "inception_4b/3x3_BatchNorm"
  type: "BatchNorm"
  bottom: "inception_4b/3x3_raw"
  top: "inception_4b/3x3"
  param {
    lr_mult: 1
    decay_mult: 0
  }
  param {
    lr_mult: 1
    decay_mult: 0
  }
  param {
    lr_mult: 0
    decay_mult: 0
  }
  param {
    lr_mult: 0
    decay_mult: 0
  }
  batch_norm_param {
    use_global_stats: false
    eps: 1e-05
    scale_filler {
      type: "constant"
      value: 1
    }
    bias_filler {
      type: "constant"
      value: 0
    }
  }
}
layer {
  name: "inception_4b/relu_3x3"
  type: "ReLU"
  bottom: "inception_4b/3x3"
  top: "inception_4b/3x3"
}
layer {
  name: "inception_4b/5x5_reduce"
  type: "Convolution"
  bottom: "inception_4a/output"
  top: "inception_4b/5x5_reduce_raw"
  param {
    lr_mult: 1
    decay_mult: 1
  }
  convolution_param {
    num_output: 24
    kernel_size: 1
    weight_filler {
      type: "msra"
    }
    bias_filler {
      type: "constant"
      value: 0.2
    }
  }
}
layer {
  name: "inception_4b/5x5_reduce_BatchNorm"
  type: "BatchNorm"
  bottom: "inception_4b/5x5_reduce_raw"
  top: "inception_4b/5x5_reduce"
  param {
    lr_mult: 1
    decay_mult: 0
  }
  param {
    lr_mult: 1
    decay_mult: 0
  }
  param {
    lr_mult: 0
    decay_mult: 0
  }
  param {
    lr_mult: 0
    decay_mult: 0
  }
  batch_norm_param {
    use_global_stats: false
    eps: 1e-05
    scale_filler {
      type: "constant"
      value: 1
    }
    bias_filler {
      type: "constant"
      value: 0
    }
  }
}
layer {
  name: "inception_4b/relu_5x5_reduce"
  type: "ReLU"
  bottom: "inception_4b/5x5_reduce"
  top: "inception_4b/5x5_reduce"
}
layer {
  name: "inception_4b/5x5"
  type: "Convolution"
  bottom: "inception_4b/5x5_reduce"
  top: "inception_4b/5x5_raw"
  param {
    lr_mult: 1
    decay_mult: 1
  }
  convolution_param {
    num_output: 64
    pad: 2
    kernel_size: 5
    weight_filler {
      type: "msra"
    }
    bias_filler {
      type: "constant"
      value: 0.2
    }
  }
}
layer {
  name: "inception_4b/5x5_BatchNorm"
  type: "BatchNorm"
  bottom: "inception_4b/5x5_raw"
  top: "inception_4b/5x5"
  param {
    lr_mult: 1
    decay_mult: 0
  }
  param {
    lr_mult: 1
    decay_mult: 0
  }
  param {
    lr_mult: 0
    decay_mult: 0
  }
  param {
    lr_mult: 0
    decay_mult: 0
  }
  batch_norm_param {
    use_global_stats: false
    eps: 1e-05
    scale_filler {
      type: "constant"
      value: 1
    }
    bias_filler {
      type: "constant"
      value: 0
    }
  }
}
layer {
  name: "inception_4b/relu_5x5"
  type: "ReLU"
  bottom: "inception_4b/5x5"
  top: "inception_4b/5x5"
}
layer {
  name: "inception_4b/pool"
  type: "Pooling"
  bottom: "inception_4a/output"
  top: "inception_4b/pool"
  pooling_param {
    pool: MAX
    kernel_size: 3
    stride: 1
    pad: 1
  }
}
layer {
  name: "inception_4b/pool_proj"
  type: "Convolution"
  bottom: "inception_4b/pool"
  top: "inception_4b/pool_proj_raw"
  param {
    lr_mult: 1
    decay_mult: 1
  }
  convolution_param {
    num_output: 64
    kernel_size: 1
    weight_filler {
      type: "msra"
    }
    bias_filler {
      type: "constant"
      value: 0.2
    }
  }
}
layer {
  name: "inception_4b/pool_proj_BatchNorm"
  type: "BatchNorm"
  bottom: "inception_4b/pool_proj_raw"
  top: "inception_4b/pool_proj"
  param {
    lr_mult: 1
    decay_mult: 0
  }
  param {
    lr_mult: 1
    decay_mult: 0
  }
  param {
    lr_mult: 0
    decay_mult: 0
  }
  param {
    lr_mult: 0
    decay_mult: 0
  }
  batch_norm_param {
    use_global_stats: false
    eps: 1e-05
    scale_filler {
      type: "constant"
      value: 1
    }
    bias_filler {
      type: "constant"
      value: 0
    }
  }
}
layer {
  name: "inception_4b/relu_pool_proj"
  type: "ReLU"
  bottom: "inception_4b/pool_proj"
  top: "inception_4b/pool_proj"
}
layer {
  name: "inception_4b/output"
  type: "Concat"
  bottom: "inception_4b/1x1"
  bottom: "inception_4b/3x3"
  bottom: "inception_4b/5x5"
  bottom: "inception_4b/pool_proj"
  top: "inception_4b/output"
}
layer {
  name: "inception_4c/1x1"
  type: "Convolution"
  bottom: "inception_4b/output"
  top: "inception_4c/1x1_raw"
  param {
    lr_mult: 1
    decay_mult: 1
  }
  convolution_param {
    num_output: 128
    kernel_size: 1
    weight_filler {
      type: "msra"
    }
    bias_filler {
      type: "constant"
      value: 0.2
    }
  }
}
layer {
  name: "inception_4c/1x1_BatchNorm"
  type: "BatchNorm"
  bottom: "inception_4c/1x1_raw"
  top: "inception_4c/1x1"
  param {
    lr_mult: 1
    decay_mult: 0
  }
  param {
    lr_mult: 1
    decay_mult: 0
  }
  param {
    lr_mult: 0
    decay_mult: 0
  }
  param {
  
I1219 08:19:06.607347 31210 layer_factory.hpp:77] Creating layer data
I1219 08:19:06.607364 31210 net.cpp:94] Creating Layer data
I1219 08:19:06.607368 31210 net.cpp:409] data -> data
I1219 08:19:06.607378 31210 net.cpp:409] data -> label
I1219 08:19:06.607388 31210 image_data_layer.cpp:41] Opening file /workspace/Vitis-AI-Tutorials/files/Segment/workspace/data/signate/signate_test_calibration.txt
I1219 08:19:06.607607 31210 image_data_layer.cpp:51] Shuffling data
I1219 08:19:06.607730 31210 image_data_layer.cpp:56] A total of 649 images.
I1219 08:19:06.638025 31210 image_data_layer.cpp:84] output data size: 1,3,480,960
I1219 08:19:06.661029 31210 internal_thread.cpp:27] Starting internal thread(s) on GPU 0
I1219 08:19:06.661120 31210 net.cpp:144] Setting up data
I1219 08:19:06.661126 31210 net.cpp:151] Top shape: 1 3 480 960 (1382400)
I1219 08:19:06.661137 31210 net.cpp:151] Top shape: 1 (1)
I1219 08:19:06.661142 31210 net.cpp:159] Memory required for data: 5529604
I1219 08:19:06.661147 31210 layer_factory.hpp:77] Creating layer conv1/7x7_s2
I1219 08:19:06.661170 31210 net.cpp:94] Creating Layer conv1/7x7_s2
I1219 08:19:06.661175 31210 net.cpp:435] conv1/7x7_s2 <- data
I1219 08:19:06.661181 31210 net.cpp:409] conv1/7x7_s2 -> conv1/7x7_s2_raw
I1219 08:19:06.661968 31210 net.cpp:144] Setting up conv1/7x7_s2
I1219 08:19:06.661975 31210 net.cpp:151] Top shape: 1 64 240 480 (7372800)
I1219 08:19:06.661980 31210 net.cpp:159] Memory required for data: 35020804
I1219 08:19:06.662003 31210 layer_factory.hpp:77] Creating layer conv1/7x7_s2_BatchNorm
I1219 08:19:06.662010 31210 net.cpp:94] Creating Layer conv1/7x7_s2_BatchNorm
I1219 08:19:06.662014 31210 net.cpp:435] conv1/7x7_s2_BatchNorm <- conv1/7x7_s2_raw
I1219 08:19:06.662017 31210 net.cpp:409] conv1/7x7_s2_BatchNorm -> conv1/7x7_s2
I1219 08:19:06.662804 31210 net.cpp:144] Setting up conv1/7x7_s2_BatchNorm
I1219 08:19:06.662811 31210 net.cpp:151] Top shape: 1 64 240 480 (7372800)
I1219 08:19:06.662815 31210 net.cpp:159] Memory required for data: 64512004
I1219 08:19:06.662827 31210 layer_factory.hpp:77] Creating layer conv1/relu_7x7
I1219 08:19:06.662832 31210 net.cpp:94] Creating Layer conv1/relu_7x7
I1219 08:19:06.662833 31210 net.cpp:435] conv1/relu_7x7 <- conv1/7x7_s2
I1219 08:19:06.662837 31210 net.cpp:396] conv1/relu_7x7 -> conv1/7x7_s2 (in-place)
I1219 08:19:06.662843 31210 net.cpp:144] Setting up conv1/relu_7x7
I1219 08:19:06.662847 31210 net.cpp:151] Top shape: 1 64 240 480 (7372800)
I1219 08:19:06.662849 31210 net.cpp:159] Memory required for data: 94003204
I1219 08:19:06.662853 31210 layer_factory.hpp:77] Creating layer pool1/3x3_s2
I1219 08:19:06.662858 31210 net.cpp:94] Creating Layer pool1/3x3_s2
I1219 08:19:06.662860 31210 net.cpp:435] pool1/3x3_s2 <- conv1/7x7_s2
I1219 08:19:06.662864 31210 net.cpp:409] pool1/3x3_s2 -> pool1/3x3_s2
I1219 08:19:06.662906 31210 net.cpp:144] Setting up pool1/3x3_s2
I1219 08:19:06.662910 31210 net.cpp:151] Top shape: 1 64 120 240 (1843200)
I1219 08:19:06.662914 31210 net.cpp:159] Memory required for data: 101376004
I1219 08:19:06.662916 31210 layer_factory.hpp:77] Creating layer conv2/3x3_reduce
I1219 08:19:06.662922 31210 net.cpp:94] Creating Layer conv2/3x3_reduce
I1219 08:19:06.662925 31210 net.cpp:435] conv2/3x3_reduce <- pool1/3x3_s2
I1219 08:19:06.662930 31210 net.cpp:409] conv2/3x3_reduce -> conv2/3x3_reduce_raw
I1219 08:19:06.663233 31210 net.cpp:144] Setting up conv2/3x3_reduce
I1219 08:19:06.663239 31210 net.cpp:151] Top shape: 1 64 120 240 (1843200)
I1219 08:19:06.663242 31210 net.cpp:159] Memory required for data: 108748804
I1219 08:19:06.663249 31210 layer_factory.hpp:77] Creating layer conv2/3x3_reduce_BatchNorm
I1219 08:19:06.663255 31210 net.cpp:94] Creating Layer conv2/3x3_reduce_BatchNorm
I1219 08:19:06.663259 31210 net.cpp:435] conv2/3x3_reduce_BatchNorm <- conv2/3x3_reduce_raw
I1219 08:19:06.663262 31210 net.cpp:409] conv2/3x3_reduce_BatchNorm -> conv2/3x3_reduce
I1219 08:19:06.663861 31210 net.cpp:144] Setting up conv2/3x3_reduce_BatchNorm
I1219 08:19:06.663866 31210 net.cpp:151] Top shape: 1 64 120 240 (1843200)
I1219 08:19:06.663868 31210 net.cpp:159] Memory required for data: 116121604
I1219 08:19:06.663873 31210 layer_factory.hpp:77] Creating layer conv2/relu_3x3_reduce
I1219 08:19:06.663877 31210 net.cpp:94] Creating Layer conv2/relu_3x3_reduce
I1219 08:19:06.663878 31210 net.cpp:435] conv2/relu_3x3_reduce <- conv2/3x3_reduce
I1219 08:19:06.663880 31210 net.cpp:396] conv2/relu_3x3_reduce -> conv2/3x3_reduce (in-place)
I1219 08:19:06.663883 31210 net.cpp:144] Setting up conv2/relu_3x3_reduce
I1219 08:19:06.663885 31210 net.cpp:151] Top shape: 1 64 120 240 (1843200)
I1219 08:19:06.663887 31210 net.cpp:159] Memory required for data: 123494404
I1219 08:19:06.663889 31210 layer_factory.hpp:77] Creating layer conv2/3x3
I1219 08:19:06.663894 31210 net.cpp:94] Creating Layer conv2/3x3
I1219 08:19:06.663895 31210 net.cpp:435] conv2/3x3 <- conv2/3x3_reduce
I1219 08:19:06.663898 31210 net.cpp:409] conv2/3x3 -> conv2/3x3_raw
I1219 08:19:06.665158 31210 net.cpp:144] Setting up conv2/3x3
I1219 08:19:06.665163 31210 net.cpp:151] Top shape: 1 192 120 240 (5529600)
I1219 08:19:06.665166 31210 net.cpp:159] Memory required for data: 145612804
I1219 08:19:06.665170 31210 layer_factory.hpp:77] Creating layer conv2/3x3_BatchNorm
I1219 08:19:06.665174 31210 net.cpp:94] Creating Layer conv2/3x3_BatchNorm
I1219 08:19:06.665176 31210 net.cpp:435] conv2/3x3_BatchNorm <- conv2/3x3_raw
I1219 08:19:06.665179 31210 net.cpp:409] conv2/3x3_BatchNorm -> conv2/3x3
I1219 08:19:06.665546 31210 net.cpp:144] Setting up conv2/3x3_BatchNorm
I1219 08:19:06.665550 31210 net.cpp:151] Top shape: 1 192 120 240 (5529600)
I1219 08:19:06.665553 31210 net.cpp:159] Memory required for data: 167731204
I1219 08:19:06.665560 31210 layer_factory.hpp:77] Creating layer conv2/relu_3x3
I1219 08:19:06.665563 31210 net.cpp:94] Creating Layer conv2/relu_3x3
I1219 08:19:06.665565 31210 net.cpp:435] conv2/relu_3x3 <- conv2/3x3
I1219 08:19:06.665567 31210 net.cpp:396] conv2/relu_3x3 -> conv2/3x3 (in-place)
I1219 08:19:06.665570 31210 net.cpp:144] Setting up conv2/relu_3x3
I1219 08:19:06.665571 31210 net.cpp:151] Top shape: 1 192 120 240 (5529600)
I1219 08:19:06.665575 31210 net.cpp:159] Memory required for data: 189849604
I1219 08:19:06.665575 31210 layer_factory.hpp:77] Creating layer conv2/3x3_conv2/relu_3x3_0_split
I1219 08:19:06.665582 31210 net.cpp:94] Creating Layer conv2/3x3_conv2/relu_3x3_0_split
I1219 08:19:06.665583 31210 net.cpp:435] conv2/3x3_conv2/relu_3x3_0_split <- conv2/3x3
I1219 08:19:06.665586 31210 net.cpp:409] conv2/3x3_conv2/relu_3x3_0_split -> conv2/3x3_conv2/relu_3x3_0_split_0
I1219 08:19:06.665589 31210 net.cpp:409] conv2/3x3_conv2/relu_3x3_0_split -> conv2/3x3_conv2/relu_3x3_0_split_1
I1219 08:19:06.665606 31210 net.cpp:144] Setting up conv2/3x3_conv2/relu_3x3_0_split
I1219 08:19:06.665608 31210 net.cpp:151] Top shape: 1 192 120 240 (5529600)
I1219 08:19:06.665611 31210 net.cpp:151] Top shape: 1 192 120 240 (5529600)
I1219 08:19:06.665613 31210 net.cpp:159] Memory required for data: 234086404
I1219 08:19:06.665616 31210 layer_factory.hpp:77] Creating layer pool2/3x3_s2
I1219 08:19:06.665618 31210 net.cpp:94] Creating Layer pool2/3x3_s2
I1219 08:19:06.665621 31210 net.cpp:435] pool2/3x3_s2 <- conv2/3x3_conv2/relu_3x3_0_split_0
I1219 08:19:06.665622 31210 net.cpp:409] pool2/3x3_s2 -> pool2/3x3_s2
I1219 08:19:06.665639 31210 net.cpp:144] Setting up pool2/3x3_s2
I1219 08:19:06.665642 31210 net.cpp:151] Top shape: 1 192 60 120 (1382400)
I1219 08:19:06.665643 31210 net.cpp:159] Memory required for data: 239616004
I1219 08:19:06.665645 31210 layer_factory.hpp:77] Creating layer pool2/3x3_s2_pool2/3x3_s2_0_split
I1219 08:19:06.665648 31210 net.cpp:94] Creating Layer pool2/3x3_s2_pool2/3x3_s2_0_split
I1219 08:19:06.665650 31210 net.cpp:435] pool2/3x3_s2_pool2/3x3_s2_0_split <- pool2/3x3_s2
I1219 08:19:06.665652 31210 net.cpp:409] pool2/3x3_s2_pool2/3x3_s2_0_split -> pool2/3x3_s2_pool2/3x3_s2_0_split_0
I1219 08:19:06.665655 31210 net.cpp:409] pool2/3x3_s2_pool2/3x3_s2_0_split -> pool2/3x3_s2_pool2/3x3_s2_0_split_1
I1219 08:19:06.665658 31210 net.cpp:409] pool2/3x3_s2_pool2/3x3_s2_0_split -> pool2/3x3_s2_pool2/3x3_s2_0_split_2
I1219 08:19:06.665661 31210 net.cpp:409] pool2/3x3_s2_pool2/3x3_s2_0_split -> pool2/3x3_s2_pool2/3x3_s2_0_split_3
I1219 08:19:06.665688 31210 net.cpp:144] Setting up pool2/3x3_s2_pool2/3x3_s2_0_split
I1219 08:19:06.665691 31210 net.cpp:151] Top shape: 1 192 60 120 (1382400)
I1219 08:19:06.665693 31210 net.cpp:151] Top shape: 1 192 60 120 (1382400)
I1219 08:19:06.665696 31210 net.cpp:151] Top shape: 1 192 60 120 (1382400)
I1219 08:19:06.665699 31210 net.cpp:151] Top shape: 1 192 60 120 (1382400)
I1219 08:19:06.665700 31210 net.cpp:159] Memory required for data: 261734404
I1219 08:19:06.665702 31210 layer_factory.hpp:77] Creating layer inception_3a/1x1
I1219 08:19:06.665707 31210 net.cpp:94] Creating Layer inception_3a/1x1
I1219 08:19:06.665709 31210 net.cpp:435] inception_3a/1x1 <- pool2/3x3_s2_pool2/3x3_s2_0_split_0
I1219 08:19:06.665711 31210 net.cpp:409] inception_3a/1x1 -> inception_3a/1x1_raw
I1219 08:19:06.665912 31210 net.cpp:144] Setting up inception_3a/1x1
I1219 08:19:06.665916 31210 net.cpp:151] Top shape: 1 64 60 120 (460800)
I1219 08:19:06.665918 31210 net.cpp:159] Memory required for data: 263577604
I1219 08:19:06.665922 31210 layer_factory.hpp:77] Creating layer inception_3a/1x1_BatchNorm
I1219 08:19:06.665925 31210 net.cpp:94] Creating Layer inception_3a/1x1_BatchNorm
I1219 08:19:06.665927 31210 net.cpp:435] inception_3a/1x1_BatchNorm <- inception_3a/1x1_raw
I1219 08:19:06.665930 31210 net.cpp:409] inception_3a/1x1_BatchNorm -> inception_3a/1x1
I1219 08:19:06.666311 31210 net.cpp:144] Setting up inception_3a/1x1_BatchNorm
I1219 08:19:06.666316 31210 net.cpp:151] Top shape: 1 64 60 120 (460800)
I1219 08:19:06.666317 31210 net.cpp:159] Memory required for data: 265420804
I1219 08:19:06.666323 31210 layer_factory.hpp:77] Creating layer inception_3a/relu_1x1
I1219 08:19:06.666326 31210 net.cpp:94] Creating Layer inception_3a/relu_1x1
I1219 08:19:06.666328 31210 net.cpp:435] inception_3a/relu_1x1 <- inception_3a/1x1
I1219 08:19:06.666332 31210 net.cpp:396] inception_3a/relu_1x1 -> inception_3a/1x1 (in-place)
I1219 08:19:06.666334 31210 net.cpp:144] Setting up inception_3a/relu_1x1
I1219 08:19:06.666335 31210 net.cpp:151] Top shape: 1 64 60 120 (460800)
I1219 08:19:06.666338 31210 net.cpp:159] Memory required for data: 267264004
I1219 08:19:06.666339 31210 layer_factory.hpp:77] Creating layer inception_3a/3x3_reduce
I1219 08:19:06.666343 31210 net.cpp:94] Creating Layer inception_3a/3x3_reduce
I1219 08:19:06.666345 31210 net.cpp:435] inception_3a/3x3_reduce <- pool2/3x3_s2_pool2/3x3_s2_0_split_1
I1219 08:19:06.666348 31210 net.cpp:409] inception_3a/3x3_reduce -> inception_3a/3x3_reduce_raw
I1219 08:19:06.666574 31210 net.cpp:144] Setting up inception_3a/3x3_reduce
I1219 08:19:06.666577 31210 net.cpp:151] Top shape: 1 96 60 120 (691200)
I1219 08:19:06.666580 31210 net.cpp:159] Memory required for data: 270028804
I1219 08:19:06.666584 31210 layer_factory.hpp:77] Creating layer inception_3a/3x3_reduce_BatchNorm
I1219 08:19:06.666587 31210 net.cpp:94] Creating Layer inception_3a/3x3_reduce_BatchNorm
I1219 08:19:06.666589 31210 net.cpp:435] inception_3a/3x3_reduce_BatchNorm <- inception_3a/3x3_reduce_raw
I1219 08:19:06.666591 31210 net.cpp:409] inception_3a/3x3_reduce_BatchNorm -> inception_3a/3x3_reduce
I1219 08:19:06.666977 31210 net.cpp:144] Setting up inception_3a/3x3_reduce_BatchNorm
I1219 08:19:06.666981 31210 net.cpp:151] Top shape: 1 96 60 120 (691200)
I1219 08:19:06.666985 31210 net.cpp:159] Memory required for data: 272793604
I1219 08:19:06.666991 31210 layer_factory.hpp:77] Creating layer inception_3a/relu_3x3_reduce
I1219 08:19:06.666994 31210 net.cpp:94] Creating Layer inception_3a/relu_3x3_reduce
I1219 08:19:06.666996 31210 net.cpp:435] inception_3a/relu_3x3_reduce <- inception_3a/3x3_reduce
I1219 08:19:06.666999 31210 net.cpp:396] inception_3a/relu_3x3_reduce -> inception_3a/3x3_reduce (in-place)
I1219 08:19:06.667002 31210 net.cpp:144] Setting up inception_3a/relu_3x3_reduce
I1219 08:19:06.667003 31210 net.cpp:151] Top shape: 1 96 60 120 (691200)
I1219 08:19:06.667006 31210 net.cpp:159] Memory required for data: 275558404
I1219 08:19:06.667007 31210 layer_factory.hpp:77] Creating layer inception_3a/3x3
I1219 08:19:06.667012 31210 net.cpp:94] Creating Layer inception_3a/3x3
I1219 08:19:06.667013 31210 net.cpp:435] inception_3a/3x3 <- inception_3a/3x3_reduce
I1219 08:19:06.667016 31210 net.cpp:409] inception_3a/3x3 -> inception_3a/3x3_raw
I1219 08:19:06.667696 31210 net.cpp:144] Setting up inception_3a/3x3
I1219 08:19:06.667701 31210 net.cpp:151] Top shape: 1 128 60 120 (921600)
I1219 08:19:06.667703 31210 net.cpp:159] Memory required for data: 279244804
I1219 08:19:06.667706 31210 layer_factory.hpp:77] Creating layer inception_3a/3x3_BatchNorm
I1219 08:19:06.667711 31210 net.cpp:94] Creating Layer inception_3a/3x3_BatchNorm
I1219 08:19:06.667712 31210 net.cpp:435] inception_3a/3x3_BatchNorm <- inception_3a/3x3_raw
I1219 08:19:06.667716 31210 net.cpp:409] inception_3a/3x3_BatchNorm -> inception_3a/3x3
I1219 08:19:06.668030 31210 net.cpp:144] Setting up inception_3a/3x3_BatchNorm
I1219 08:19:06.668035 31210 net.cpp:151] Top shape: 1 128 60 120 (921600)
I1219 08:19:06.668037 31210 net.cpp:159] Memory required for data: 282931204
I1219 08:19:06.668043 31210 layer_factory.hpp:77] Creating layer inception_3a/relu_3x3
I1219 08:19:06.668046 31210 net.cpp:94] Creating Layer inception_3a/relu_3x3
I1219 08:19:06.668048 31210 net.cpp:435] inception_3a/relu_3x3 <- inception_3a/3x3
I1219 08:19:06.668051 31210 net.cpp:396] inception_3a/relu_3x3 -> inception_3a/3x3 (in-place)
I1219 08:19:06.668053 31210 net.cpp:144] Setting up inception_3a/relu_3x3
I1219 08:19:06.668056 31210 net.cpp:151] Top shape: 1 128 60 120 (921600)
I1219 08:19:06.668057 31210 net.cpp:159] Memory required for data: 286617604
I1219 08:19:06.668059 31210 layer_factory.hpp:77] Creating layer inception_3a/5x5_reduce
I1219 08:19:06.668063 31210 net.cpp:94] Creating Layer inception_3a/5x5_reduce
I1219 08:19:06.668066 31210 net.cpp:435] inception_3a/5x5_reduce <- pool2/3x3_s2_pool2/3x3_s2_0_split_2
I1219 08:19:06.668067 31210 net.cpp:409] inception_3a/5x5_reduce -> inception_3a/5x5_reduce_raw
I1219 08:19:06.668236 31210 net.cpp:144] Setting up inception_3a/5x5_reduce
I1219 08:19:06.668243 31210 net.cpp:151] Top shape: 1 16 60 120 (115200)
I1219 08:19:06.668246 31210 net.cpp:159] Memory required for data: 287078404
I1219 08:19:06.668251 31210 layer_factory.hpp:77] Creating layer inception_3a/5x5_reduce_BatchNorm
I1219 08:19:06.668256 31210 net.cpp:94] Creating Layer inception_3a/5x5_reduce_BatchNorm
I1219 08:19:06.668257 31210 net.cpp:435] inception_3a/5x5_reduce_BatchNorm <- inception_3a/5x5_reduce_raw
I1219 08:19:06.668260 31210 net.cpp:409] inception_3a/5x5_reduce_BatchNorm -> inception_3a/5x5_reduce
I1219 08:19:06.668630 31210 net.cpp:144] Setting up inception_3a/5x5_reduce_BatchNorm
I1219 08:19:06.668634 31210 net.cpp:151] Top shape: 1 16 60 120 (115200)
I1219 08:19:06.668637 31210 net.cpp:159] Memory required for data: 287539204
I1219 08:19:06.668642 31210 layer_factory.hpp:77] Creating layer inception_3a/relu_5x5_reduce
I1219 08:19:06.668645 31210 net.cpp:94] Creating Layer inception_3a/relu_5x5_reduce
I1219 08:19:06.668648 31210 net.cpp:435] inception_3a/relu_5x5_reduce <- inception_3a/5x5_reduce
I1219 08:19:06.668649 31210 net.cpp:396] inception_3a/relu_5x5_reduce -> inception_3a/5x5_reduce (in-place)
I1219 08:19:06.668653 31210 net.cpp:144] Setting up inception_3a/relu_5x5_reduce
I1219 08:19:06.668654 31210 net.cpp:151] Top shape: 1 16 60 120 (115200)
I1219 08:19:06.668656 31210 net.cpp:159] Memory required for data: 288000004
I1219 08:19:06.668658 31210 layer_factory.hpp:77] Creating layer inception_3a/5x5
I1219 08:19:06.668663 31210 net.cpp:94] Creating Layer inception_3a/5x5
I1219 08:19:06.668664 31210 net.cpp:435] inception_3a/5x5 <- inception_3a/5x5_reduce
I1219 08:19:06.668668 31210 net.cpp:409] inception_3a/5x5 -> inception_3a/5x5_raw
I1219 08:19:06.668865 31210 net.cpp:144] Setting up inception_3a/5x5
I1219 08:19:06.668869 31210 net.cpp:151] Top shape: 1 32 60 120 (230400)
I1219 08:19:06.668871 31210 net.cpp:159] Memory required for data: 288921604
I1219 08:19:06.668874 31210 layer_factory.hpp:77] Creating layer inception_3a/5x5_BatchNorm
I1219 08:19:06.668879 31210 net.cpp:94] Creating Layer inception_3a/5x5_BatchNorm
I1219 08:19:06.668880 31210 net.cpp:435] inception_3a/5x5_BatchNorm <- inception_3a/5x5_raw
I1219 08:19:06.668882 31210 net.cpp:409] inception_3a/5x5_BatchNorm -> inception_3a/5x5
I1219 08:19:06.669250 31210 net.cpp:144] Setting up inception_3a/5x5_BatchNorm
I1219 08:19:06.669255 31210 net.cpp:151] Top shape: 1 32 60 120 (230400)
I1219 08:19:06.669257 31210 net.cpp:159] Memory required for data: 289843204
I1219 08:19:06.669262 31210 layer_factory.hpp:77] Creating layer inception_3a/relu_5x5
I1219 08:19:06.669265 31210 net.cpp:94] Creating Layer inception_3a/relu_5x5
I1219 08:19:06.669267 31210 net.cpp:435] inception_3a/relu_5x5 <- inception_3a/5x5
I1219 08:19:06.669270 31210 net.cpp:396] inception_3a/relu_5x5 -> inception_3a/5x5 (in-place)
I1219 08:19:06.669272 31210 net.cpp:144] Setting up inception_3a/relu_5x5
I1219 08:19:06.669275 31210 net.cpp:151] Top shape: 1 32 60 120 (230400)
I1219 08:19:06.669276 31210 net.cpp:159] Memory required for data: 290764804
I1219 08:19:06.669278 31210 layer_factory.hpp:77] Creating layer inception_3a/pool
I1219 08:19:06.669281 31210 net.cpp:94] Creating Layer inception_3a/pool
I1219 08:19:06.669283 31210 net.cpp:435] inception_3a/pool <- pool2/3x3_s2_pool2/3x3_s2_0_split_3
I1219 08:19:06.669286 31210 net.cpp:409] inception_3a/pool -> inception_3a/pool
I1219 08:19:06.669302 31210 net.cpp:144] Setting up inception_3a/pool
I1219 08:19:06.669306 31210 net.cpp:151] Top shape: 1 192 60 120 (1382400)
I1219 08:19:06.669308 31210 net.cpp:159] Memory required for data: 296294404
I1219 08:19:06.669309 31210 layer_factory.hpp:77] Creating layer inception_3a/pool_proj
I1219 08:19:06.669313 31210 net.cpp:94] Creating Layer inception_3a/pool_proj
I1219 08:19:06.669315 31210 net.cpp:435] inception_3a/pool_proj <- inception_3a/pool
I1219 08:19:06.669318 31210 net.cpp:409] inception_3a/pool_proj -> inception_3a/pool_proj_raw
I1219 08:19:06.670377 31210 net.cpp:144] Setting up inception_3a/pool_proj
I1219 08:19:06.670384 31210 net.cpp:151] Top shape: 1 32 60 120 (230400)
I1219 08:19:06.670388 31210 net.cpp:159] Memory required for data: 297216004
I1219 08:19:06.670392 31210 layer_factory.hpp:77] Creating layer inception_3a/pool_proj_BatchNorm
I1219 08:19:06.670397 31210 net.cpp:94] Creating Layer inception_3a/pool_proj_BatchNorm
I1219 08:19:06.670399 31210 net.cpp:435] inception_3a/pool_proj_BatchNorm <- inception_3a/pool_proj_raw
I1219 08:19:06.670403 31210 net.cpp:409] inception_3a/pool_proj_BatchNorm -> inception_3a/pool_proj
I1219 08:19:06.670805 31210 net.cpp:144] Setting up inception_3a/pool_proj_BatchNorm
I1219 08:19:06.670810 31210 net.cpp:151] Top shape: 1 32 60 120 (230400)
I1219 08:19:06.670814 31210 net.cpp:159] Memory required for data: 298137604
I1219 08:19:06.670819 31210 layer_factory.hpp:77] Creating layer inception_3a/relu_pool_proj
I1219 08:19:06.670823 31210 net.cpp:94] Creating Layer inception_3a/relu_pool_proj
I1219 08:19:06.670825 31210 net.cpp:435] inception_3a/relu_pool_proj <- inception_3a/pool_proj
I1219 08:19:06.670828 31210 net.cpp:396] inception_3a/relu_pool_proj -> inception_3a/pool_proj (in-place)
I1219 08:19:06.670832 31210 net.cpp:144] Setting up inception_3a/relu_pool_proj
I1219 08:19:06.670833 31210 net.cpp:151] Top shape: 1 32 60 120 (230400)
I1219 08:19:06.670836 31210 net.cpp:159] Memory required for data: 299059204
I1219 08:19:06.670838 31210 layer_factory.hpp:77] Creating layer inception_3a/output
I1219 08:19:06.670845 31210 net.cpp:94] Creating Layer inception_3a/output
I1219 08:19:06.670846 31210 net.cpp:435] inception_3a/output <- inception_3a/1x1
I1219 08:19:06.670850 31210 net.cpp:435] inception_3a/output <- inception_3a/3x3
I1219 08:19:06.670851 31210 net.cpp:435] inception_3a/output <- inception_3a/5x5
I1219 08:19:06.670853 31210 net.cpp:435] inception_3a/output <- inception_3a/pool_proj
I1219 08:19:06.670855 31210 net.cpp:409] inception_3a/output -> inception_3a/output
I1219 08:19:06.670867 31210 net.cpp:144] Setting up inception_3a/output
I1219 08:19:06.670871 31210 net.cpp:151] Top shape: 1 256 60 120 (1843200)
I1219 08:19:06.670872 31210 net.cpp:159] Memory required for data: 306432004
I1219 08:19:06.670874 31210 layer_factory.hpp:77] Creating layer inception_3a/output_inception_3a/output_0_split
I1219 08:19:06.670877 31210 net.cpp:94] Creating Layer inception_3a/output_inception_3a/output_0_split
I1219 08:19:06.670879 31210 net.cpp:435] inception_3a/output_inception_3a/output_0_split <- inception_3a/output
I1219 08:19:06.670882 31210 net.cpp:409] inception_3a/output_inception_3a/output_0_split -> inception_3a/output_inception_3a/output_0_split_0
I1219 08:19:06.670886 31210 net.cpp:409] inception_3a/output_inception_3a/output_0_split -> inception_3a/output_inception_3a/output_0_split_1
I1219 08:19:06.670888 31210 net.cpp:409] inception_3a/output_inception_3a/output_0_split -> inception_3a/output_inception_3a/output_0_split_2
I1219 08:19:06.670893 31210 net.cpp:409] inception_3a/output_inception_3a/output_0_split -> inception_3a/output_inception_3a/output_0_split_3
I1219 08:19:06.670920 31210 net.cpp:144] Setting up inception_3a/output_inception_3a/output_0_split
I1219 08:19:06.670923 31210 net.cpp:151] Top shape: 1 256 60 120 (1843200)
I1219 08:19:06.670925 31210 net.cpp:151] Top shape: 1 256 60 120 (1843200)
I1219 08:19:06.670928 31210 net.cpp:151] Top shape: 1 256 60 120 (1843200)
I1219 08:19:06.670930 31210 net.cpp:151] Top shape: 1 256 60 120 (1843200)
I1219 08:19:06.670933 31210 net.cpp:159] Memory required for data: 335923204
I1219 08:19:06.670934 31210 layer_factory.hpp:77] Creating layer inception_3b/1x1
I1219 08:19:06.670939 31210 net.cpp:94] Creating Layer inception_3b/1x1
I1219 08:19:06.670941 31210 net.cpp:435] inception_3b/1x1 <- inception_3a/output_inception_3a/output_0_split_0
I1219 08:19:06.670944 31210 net.cpp:409] inception_3b/1x1 -> inception_3b/1x1_raw
I1219 08:19:06.671270 31210 net.cpp:144] Setting up inception_3b/1x1
I1219 08:19:06.671275 31210 net.cpp:151] Top shape: 1 128 60 120 (921600)
I1219 08:19:06.671278 31210 net.cpp:159] Memory required for data: 339609604
I1219 08:19:06.671284 31210 layer_factory.hpp:77] Creating layer inception_3b/1x1_BatchNorm
I1219 08:19:06.671289 31210 net.cpp:94] Creating Layer inception_3b/1x1_BatchNorm
I1219 08:19:06.671291 31210 net.cpp:435] inception_3b/1x1_BatchNorm <- inception_3b/1x1_raw
I1219 08:19:06.671294 31210 net.cpp:409] inception_3b/1x1_BatchNorm -> inception_3b/1x1
I1219 08:19:06.671613 31210 net.cpp:144] Setting up inception_3b/1x1_BatchNorm
I1219 08:19:06.671617 31210 net.cpp:151] Top shape: 1 128 60 120 (921600)
I1219 08:19:06.671620 31210 net.cpp:159] Memory required for data: 343296004
I1219 08:19:06.671627 31210 layer_factory.hpp:77] Creating layer inception_3b/relu_1x1
I1219 08:19:06.671629 31210 net.cpp:94] Creating Layer inception_3b/relu_1x1
I1219 08:19:06.671631 31210 net.cpp:435] inception_3b/relu_1x1 <- inception_3b/1x1
I1219 08:19:06.671633 31210 net.cpp:396] inception_3b/relu_1x1 -> inception_3b/1x1 (in-place)
I1219 08:19:06.671636 31210 net.cpp:144] Setting up inception_3b/relu_1x1
I1219 08:19:06.671638 31210 net.cpp:151] Top shape: 1 128 60 120 (921600)
I1219 08:19:06.671640 31210 net.cpp:159] Memory required for data: 346982404
I1219 08:19:06.671643 31210 layer_factory.hpp:77] Creating layer inception_3b/3x3_reduce
I1219 08:19:06.671646 31210 net.cpp:94] Creating Layer inception_3b/3x3_reduce
I1219 08:19:06.671648 31210 net.cpp:435] inception_3b/3x3_reduce <- inception_3a/output_inception_3a/output_0_split_1
I1219 08:19:06.671651 31210 net.cpp:409] inception_3b/3x3_reduce -> inception_3b/3x3_reduce_raw
I1219 08:19:06.671950 31210 net.cpp:144] Setting up inception_3b/3x3_reduce
I1219 08:19:06.671954 31210 net.cpp:151] Top shape: 1 128 60 120 (921600)
I1219 08:19:06.671957 31210 net.cpp:159] Memory required for data: 350668804
I1219 08:19:06.671960 31210 layer_factory.hpp:77] Creating layer inception_3b/3x3_reduce_BatchNorm
I1219 08:19:06.671963 31210 net.cpp:94] Creating Layer inception_3b/3x3_reduce_BatchNorm
I1219 08:19:06.671965 31210 net.cpp:435] inception_3b/3x3_reduce_BatchNorm <- inception_3b/3x3_reduce_raw
I1219 08:19:06.671968 31210 net.cpp:409] inception_3b/3x3_reduce_BatchNorm -> inception_3b/3x3_reduce
I1219 08:19:06.672288 31210 net.cpp:144] Setting up inception_3b/3x3_reduce_BatchNorm
I1219 08:19:06.672292 31210 net.cpp:151] Top shape: 1 128 60 120 (921600)
I1219 08:19:06.672294 31210 net.cpp:159] Memory required for data: 354355204
I1219 08:19:06.672300 31210 layer_factory.hpp:77] Creating layer inception_3b/relu_3x3_reduce
I1219 08:19:06.672303 31210 net.cpp:94] Creating Layer inception_3b/relu_3x3_reduce
I1219 08:19:06.672305 31210 net.cpp:435] inception_3b/relu_3x3_reduce <- inception_3b/3x3_reduce
I1219 08:19:06.672307 31210 net.cpp:396] inception_3b/relu_3x3_reduce -> inception_3b/3x3_reduce (in-place)
I1219 08:19:06.672310 31210 net.cpp:144] Setting up inception_3b/relu_3x3_reduce
I1219 08:19:06.672312 31210 net.cpp:151] Top shape: 1 128 60 120 (921600)
I1219 08:19:06.672314 31210 net.cpp:159] Memory required for data: 358041604
I1219 08:19:06.672317 31210 layer_factory.hpp:77] Creating layer inception_3b/3x3
I1219 08:19:06.672320 31210 net.cpp:94] Creating Layer inception_3b/3x3
I1219 08:19:06.672322 31210 net.cpp:435] inception_3b/3x3 <- inception_3b/3x3_reduce
I1219 08:19:06.672324 31210 net.cpp:409] inception_3b/3x3 -> inception_3b/3x3_raw
I1219 08:19:06.674136 31210 net.cpp:144] Setting up inception_3b/3x3
I1219 08:19:06.674144 31210 net.cpp:151] Top shape: 1 192 60 120 (1382400)
I1219 08:19:06.674146 31210 net.cpp:159] Memory required for data: 363571204
I1219 08:19:06.674150 31210 layer_factory.hpp:77] Creating layer inception_3b/3x3_BatchNorm
I1219 08:19:06.674154 31210 net.cpp:94] Creating Layer inception_3b/3x3_BatchNorm
I1219 08:19:06.674156 31210 net.cpp:435] inception_3b/3x3_BatchNorm <- inception_3b/3x3_raw
I1219 08:19:06.674160 31210 net.cpp:409] inception_3b/3x3_BatchNorm -> inception_3b/3x3
I1219 08:19:06.674537 31210 net.cpp:144] Setting up inception_3b/3x3_BatchNorm
I1219 08:19:06.674541 31210 net.cpp:151] Top shape: 1 192 60 120 (1382400)
I1219 08:19:06.674544 31210 net.cpp:159] Memory required for data: 369100804
I1219 08:19:06.674549 31210 layer_factory.hpp:77] Creating layer inception_3b/relu_3x3
I1219 08:19:06.674552 31210 net.cpp:94] Creating Layer inception_3b/relu_3x3
I1219 08:19:06.674554 31210 net.cpp:435] inception_3b/relu_3x3 <- inception_3b/3x3
I1219 08:19:06.674557 31210 net.cpp:396] inception_3b/relu_3x3 -> inception_3b/3x3 (in-place)
I1219 08:19:06.674561 31210 net.cpp:144] Setting up inception_3b/relu_3x3
I1219 08:19:06.674561 31210 net.cpp:151] Top shape: 1 192 60 120 (1382400)
I1219 08:19:06.674564 31210 net.cpp:159] Memory required for data: 374630404
I1219 08:19:06.674566 31210 layer_factory.hpp:77] Creating layer inception_3b/5x5_reduce
I1219 08:19:06.674571 31210 net.cpp:94] Creating Layer inception_3b/5x5_reduce
I1219 08:19:06.674572 31210 net.cpp:435] inception_3b/5x5_reduce <- inception_3a/output_inception_3a/output_0_split_2
I1219 08:19:06.674574 31210 net.cpp:409] inception_3b/5x5_reduce -> inception_3b/5x5_reduce_raw
I1219 08:19:06.674773 31210 net.cpp:144] Setting up inception_3b/5x5_reduce
I1219 08:19:06.674777 31210 net.cpp:151] Top shape: 1 32 60 120 (230400)
I1219 08:19:06.674780 31210 net.cpp:159] Memory required for data: 375552004
I1219 08:19:06.674784 31210 layer_factory.hpp:77] Creating layer inception_3b/5x5_reduce_BatchNorm
I1219 08:19:06.674787 31210 net.cpp:94] Creating Layer inception_3b/5x5_reduce_BatchNorm
I1219 08:19:06.674789 31210 net.cpp:435] inception_3b/5x5_reduce_BatchNorm <- inception_3b/5x5_reduce_raw
I1219 08:19:06.674793 31210 net.cpp:409] inception_3b/5x5_reduce_BatchNorm -> inception_3b/5x5_reduce
I1219 08:19:06.675169 31210 net.cpp:144] Setting up inception_3b/5x5_reduce_BatchNorm
I1219 08:19:06.675173 31210 net.cpp:151] Top shape: 1 32 60 120 (230400)
I1219 08:19:06.675176 31210 net.cpp:159] Memory required for data: 376473604
I1219 08:19:06.675181 31210 layer_factory.hpp:77] Creating layer inception_3b/relu_5x5_reduce
I1219 08:19:06.675184 31210 net.cpp:94] Creating Layer inception_3b/relu_5x5_reduce
I1219 08:19:06.675185 31210 net.cpp:435] inception_3b/relu_5x5_reduce <- inception_3b/5x5_reduce
I1219 08:19:06.675189 31210 net.cpp:396] inception_3b/relu_5x5_reduce -> inception_3b/5x5_reduce (in-place)
I1219 08:19:06.675191 31210 net.cpp:144] Setting up inception_3b/relu_5x5_reduce
I1219 08:19:06.675194 31210 net.cpp:151] Top shape: 1 32 60 120 (230400)
I1219 08:19:06.675195 31210 net.cpp:159] Memory required for data: 377395204
I1219 08:19:06.675197 31210 layer_factory.hpp:77] Creating layer inception_3b/5x5
I1219 08:19:06.675201 31210 net.cpp:94] Creating Layer inception_3b/5x5
I1219 08:19:06.675204 31210 net.cpp:435] inception_3b/5x5 <- inception_3b/5x5_reduce
I1219 08:19:06.675206 31210 net.cpp:409] inception_3b/5x5 -> inception_3b/5x5_raw
I1219 08:19:06.675734 31210 net.cpp:144] Setting up inception_3b/5x5
I1219 08:19:06.675737 31210 net.cpp:151] Top shape: 1 96 60 120 (691200)
I1219 08:19:06.675740 31210 net.cpp:159] Memory required for data: 380160004
I1219 08:19:06.675743 31210 layer_factory.hpp:77] Creating layer inception_3b/5x5_BatchNorm
I1219 08:19:06.675746 31210 net.cpp:94] Creating Layer inception_3b/5x5_BatchNorm
I1219 08:19:06.675748 31210 net.cpp:435] inception_3b/5x5_BatchNorm <- inception_3b/5x5_raw
I1219 08:19:06.675751 31210 net.cpp:409] inception_3b/5x5_BatchNorm -> inception_3b/5x5
I1219 08:19:06.676136 31210 net.cpp:144] Setting up inception_3b/5x5_BatchNorm
I1219 08:19:06.676141 31210 net.cpp:151] Top shape: 1 96 60 120 (691200)
I1219 08:19:06.676143 31210 net.cpp:159] Memory required for data: 382924804
I1219 08:19:06.676148 31210 layer_factory.hpp:77] Creating layer inception_3b/relu_5x5
I1219 08:19:06.676151 31210 net.cpp:94] Creating Layer inception_3b/relu_5x5
I1219 08:19:06.676153 31210 net.cpp:435] inception_3b/relu_5x5 <- inception_3b/5x5
I1219 08:19:06.676156 31210 net.cpp:396] inception_3b/relu_5x5 -> inception_3b/5x5 (in-place)
I1219 08:19:06.676158 31210 net.cpp:144] Setting up inception_3b/relu_5x5
I1219 08:19:06.676160 31210 net.cpp:151] Top shape: 1 96 60 120 (691200)
I1219 08:19:06.676162 31210 net.cpp:159] Memory required for data: 385689604
I1219 08:19:06.676164 31210 layer_factory.hpp:77] Creating layer inception_3b/pool
I1219 08:19:06.676168 31210 net.cpp:94] Creating Layer inception_3b/pool
I1219 08:19:06.676169 31210 net.cpp:435] inception_3b/pool <- inception_3a/output_inception_3a/output_0_split_3
I1219 08:19:06.676172 31210 net.cpp:409] inception_3b/pool -> inception_3b/pool
I1219 08:19:06.676192 31210 net.cpp:144] Setting up inception_3b/pool
I1219 08:19:06.676194 31210 net.cpp:151] Top shape: 1 256 60 120 (1843200)
I1219 08:19:06.676196 31210 net.cpp:159] Memory required for data: 393062404
I1219 08:19:06.676198 31210 layer_factory.hpp:77] Creating layer inception_3b/pool_proj
I1219 08:19:06.676203 31210 net.cpp:94] Creating Layer inception_3b/pool_proj
I1219 08:19:06.676204 31210 net.cpp:435] inception_3b/pool_proj <- inception_3b/pool
I1219 08:19:06.676208 31210 net.cpp:409] inception_3b/pool_proj -> inception_3b/pool_proj_raw
I1219 08:19:06.676430 31210 net.cpp:144] Setting up inception_3b/pool_proj
I1219 08:19:06.676434 31210 net.cpp:151] Top shape: 1 64 60 120 (460800)
I1219 08:19:06.676436 31210 net.cpp:159] Memory required for data: 394905604
I1219 08:19:06.676440 31210 layer_factory.hpp:77] Creating layer inception_3b/pool_proj_BatchNorm
I1219 08:19:06.676443 31210 net.cpp:94] Creating Layer inception_3b/pool_proj_BatchNorm
I1219 08:19:06.676445 31210 net.cpp:435] inception_3b/pool_proj_BatchNorm <- inception_3b/pool_proj_raw
I1219 08:19:06.676448 31210 net.cpp:409] inception_3b/pool_proj_BatchNorm -> inception_3b/pool_proj
I1219 08:19:06.676834 31210 net.cpp:144] Setting up inception_3b/pool_proj_BatchNorm
I1219 08:19:06.676838 31210 net.cpp:151] Top shape: 1 64 60 120 (460800)
I1219 08:19:06.676841 31210 net.cpp:159] Memory required for data: 396748804
I1219 08:19:06.676846 31210 layer_factory.hpp:77] Creating layer inception_3b/relu_pool_proj
I1219 08:19:06.676849 31210 net.cpp:94] Creating Layer inception_3b/relu_pool_proj
I1219 08:19:06.676851 31210 net.cpp:435] inception_3b/relu_pool_proj <- inception_3b/pool_proj
I1219 08:19:06.676853 31210 net.cpp:396] inception_3b/relu_pool_proj -> inception_3b/pool_proj (in-place)
I1219 08:19:06.676857 31210 net.cpp:144] Setting up inception_3b/relu_pool_proj
I1219 08:19:06.676858 31210 net.cpp:151] Top shape: 1 64 60 120 (460800)
I1219 08:19:06.676862 31210 net.cpp:159] Memory required for data: 398592004
I1219 08:19:06.676862 31210 layer_factory.hpp:77] Creating layer inception_3b/output
I1219 08:19:06.676865 31210 net.cpp:94] Creating Layer inception_3b/output
I1219 08:19:06.676867 31210 net.cpp:435] inception_3b/output <- inception_3b/1x1
I1219 08:19:06.676869 31210 net.cpp:435] inception_3b/output <- inception_3b/3x3
I1219 08:19:06.676872 31210 net.cpp:435] inception_3b/output <- inception_3b/5x5
I1219 08:19:06.676873 31210 net.cpp:435] inception_3b/output <- inception_3b/pool_proj
I1219 08:19:06.676877 31210 net.cpp:409] inception_3b/output -> inception_3b/output
I1219 08:19:06.676887 31210 net.cpp:144] Setting up inception_3b/output
I1219 08:19:06.676889 31210 net.cpp:151] Top shape: 1 480 60 120 (3456000)
I1219 08:19:06.676892 31210 net.cpp:159] Memory required for data: 412416004
I1219 08:19:06.676893 31210 layer_factory.hpp:77] Creating layer inception_3b/output_inception_3b/output_0_split
I1219 08:19:06.676896 31210 net.cpp:94] Creating Layer inception_3b/output_inception_3b/output_0_split
I1219 08:19:06.676898 31210 net.cpp:435] inception_3b/output_inception_3b/output_0_split <- inception_3b/output
I1219 08:19:06.676901 31210 net.cpp:409] inception_3b/output_inception_3b/output_0_split -> inception_3b/output_inception_3b/output_0_split_0
I1219 08:19:06.676904 31210 net.cpp:409] inception_3b/output_inception_3b/output_0_split -> inception_3b/output_inception_3b/output_0_split_1
I1219 08:19:06.676921 31210 net.cpp:144] Setting up inception_3b/output_inception_3b/output_0_split
I1219 08:19:06.676924 31210 net.cpp:151] Top shape: 1 480 60 120 (3456000)
I1219 08:19:06.676926 31210 net.cpp:151] Top shape: 1 480 60 120 (3456000)
I1219 08:19:06.676929 31210 net.cpp:159] Memory required for data: 440064004
I1219 08:19:06.676930 31210 layer_factory.hpp:77] Creating layer pool3/3x3_s2
I1219 08:19:06.676934 31210 net.cpp:94] Creating Layer pool3/3x3_s2
I1219 08:19:06.676935 31210 net.cpp:435] pool3/3x3_s2 <- inception_3b/output_inception_3b/output_0_split_0
I1219 08:19:06.676939 31210 net.cpp:409] pool3/3x3_s2 -> pool3/3x3_s2
I1219 08:19:06.676954 31210 net.cpp:144] Setting up pool3/3x3_s2
I1219 08:19:06.676957 31210 net.cpp:151] Top shape: 1 480 30 60 (864000)
I1219 08:19:06.676959 31210 net.cpp:159] Memory required for data: 443520004
I1219 08:19:06.676961 31210 layer_factory.hpp:77] Creating layer pool3/3x3_s2_pool3/3x3_s2_0_split
I1219 08:19:06.676964 31210 net.cpp:94] Creating Layer pool3/3x3_s2_pool3/3x3_s2_0_split
I1219 08:19:06.676966 31210 net.cpp:435] pool3/3x3_s2_pool3/3x3_s2_0_split <- pool3/3x3_s2
I1219 08:19:06.676968 31210 net.cpp:409] pool3/3x3_s2_pool3/3x3_s2_0_split -> pool3/3x3_s2_pool3/3x3_s2_0_split_0
I1219 08:19:06.676972 31210 net.cpp:409] pool3/3x3_s2_pool3/3x3_s2_0_split -> pool3/3x3_s2_pool3/3x3_s2_0_split_1
I1219 08:19:06.676975 31210 net.cpp:409] pool3/3x3_s2_pool3/3x3_s2_0_split -> pool3/3x3_s2_pool3/3x3_s2_0_split_2
I1219 08:19:06.676977 31210 net.cpp:409] pool3/3x3_s2_pool3/3x3_s2_0_split -> pool3/3x3_s2_pool3/3x3_s2_0_split_3
I1219 08:19:06.677006 31210 net.cpp:144] Setting up pool3/3x3_s2_pool3/3x3_s2_0_split
I1219 08:19:06.677008 31210 net.cpp:151] Top shape: 1 480 30 60 (864000)
I1219 08:19:06.677011 31210 net.cpp:151] Top shape: 1 480 30 60 (864000)
I1219 08:19:06.677012 31210 net.cpp:151] Top shape: 1 480 30 60 (864000)
I1219 08:19:06.677016 31210 net.cpp:151] Top shape: 1 480 30 60 (864000)
I1219 08:19:06.677017 31210 net.cpp:159] Memory required for data: 457344004
I1219 08:19:06.677019 31210 layer_factory.hpp:77] Creating layer inception_4a/1x1
I1219 08:19:06.677023 31210 net.cpp:94] Creating Layer inception_4a/1x1
I1219 08:19:06.677026 31210 net.cpp:435] inception_4a/1x1 <- pool3/3x3_s2_pool3/3x3_s2_0_split_0
I1219 08:19:06.677028 31210 net.cpp:409] inception_4a/1x1 -> inception_4a/1x1_raw
I1219 08:19:06.678175 31210 net.cpp:144] Setting up inception_4a/1x1
I1219 08:19:06.678181 31210 net.cpp:151] Top shape: 1 192 30 60 (345600)
I1219 08:19:06.678184 31210 net.cpp:159] Memory required for data: 458726404
I1219 08:19:06.678189 31210 layer_factory.hpp:77] Creating layer inception_4a/1x1_BatchNorm
I1219 08:19:06.678192 31210 net.cpp:94] Creating Layer inception_4a/1x1_BatchNorm
I1219 08:19:06.678194 31210 net.cpp:435] inception_4a/1x1_BatchNorm <- inception_4a/1x1_raw
I1219 08:19:06.678198 31210 net.cpp:409] inception_4a/1x1_BatchNorm -> inception_4a/1x1
I1219 08:19:06.678570 31210 net.cpp:144] Setting up inception_4a/1x1_BatchNorm
I1219 08:19:06.678573 31210 net.cpp:151] Top shape: 1 192 30 60 (345600)
I1219 08:19:06.678576 31210 net.cpp:159] Memory required for data: 460108804
I1219 08:19:06.678581 31210 layer_factory.hpp:77] Creating layer inception_4a/relu_1x1
I1219 08:19:06.678584 31210 net.cpp:94] Creating Layer inception_4a/relu_1x1
I1219 08:19:06.678586 31210 net.cpp:435] inception_4a/relu_1x1 <- inception_4a/1x1
I1219 08:19:06.678589 31210 net.cpp:396] inception_4a/relu_1x1 -> inception_4a/1x1 (in-place)
I1219 08:19:06.678592 31210 net.cpp:144] Setting up inception_4a/relu_1x1
I1219 08:19:06.678594 31210 net.cpp:151] Top shape: 1 192 30 60 (345600)
I1219 08:19:06.678596 31210 net.cpp:159] Memory required for data: 461491204
I1219 08:19:06.678598 31210 layer_factory.hpp:77] Creating layer inception_4a/3x3_reduce
I1219 08:19:06.678602 31210 net.cpp:94] Creating Layer inception_4a/3x3_reduce
I1219 08:19:06.678604 31210 net.cpp:435] inception_4a/3x3_reduce <- pool3/3x3_s2_pool3/3x3_s2_0_split_1
I1219 08:19:06.678606 31210 net.cpp:409] inception_4a/3x3_reduce -> inception_4a/3x3_reduce_raw
I1219 08:19:06.679000 31210 net.cpp:144] Setting up inception_4a/3x3_reduce
I1219 08:19:06.679004 31210 net.cpp:151] Top shape: 1 96 30 60 (172800)
I1219 08:19:06.679008 31210 net.cpp:159] Memory required for data: 462182404
I1219 08:19:06.679011 31210 layer_factory.hpp:77] Creating layer inception_4a/3x3_reduce_BatchNorm
I1219 08:19:06.679015 31210 net.cpp:94] Creating Layer inception_4a/3x3_reduce_BatchNorm
I1219 08:19:06.679018 31210 net.cpp:435] inception_4a/3x3_reduce_BatchNorm <- inception_4a/3x3_reduce_raw
I1219 08:19:06.679020 31210 net.cpp:409] inception_4a/3x3_reduce_BatchNorm -> inception_4a/3x3_reduce
I1219 08:19:06.679395 31210 net.cpp:144] Setting up inception_4a/3x3_reduce_BatchNorm
I1219 08:19:06.679399 31210 net.cpp:151] Top shape: 1 96 30 60 (172800)
I1219 08:19:06.679402 31210 net.cpp:159] Memory required for data: 462873604
I1219 08:19:06.679409 31210 layer_factory.hpp:77] Creating layer inception_4a/relu_3x3_reduce
I1219 08:19:06.679411 31210 net.cpp:94] Creating Layer inception_4a/relu_3x3_reduce
I1219 08:19:06.679414 31210 net.cpp:435] inception_4a/relu_3x3_reduce <- inception_4a/3x3_reduce
I1219 08:19:06.679415 31210 net.cpp:396] inception_4a/relu_3x3_reduce -> inception_4a/3x3_reduce (in-place)
I1219 08:19:06.679419 31210 net.cpp:144] Setting up inception_4a/relu_3x3_reduce
I1219 08:19:06.679420 31210 net.cpp:151] Top shape: 1 96 30 60 (172800)
I1219 08:19:06.679423 31210 net.cpp:159] Memory required for data: 463564804
I1219 08:19:06.679425 31210 layer_factory.hpp:77] Creating layer inception_4a/3x3
I1219 08:19:06.679430 31210 net.cpp:94] Creating Layer inception_4a/3x3
I1219 08:19:06.679432 31210 net.cpp:435] inception_4a/3x3 <- inception_4a/3x3_reduce
I1219 08:19:06.679435 31210 net.cpp:409] inception_4a/3x3 -> inception_4a/3x3_raw
I1219 08:19:06.681041 31210 net.cpp:144] Setting up inception_4a/3x3
I1219 08:19:06.681048 31210 net.cpp:151] Top shape: 1 208 30 60 (374400)
I1219 08:19:06.681051 31210 net.cpp:159] Memory required for data: 465062404
I1219 08:19:06.681056 31210 layer_factory.hpp:77] Creating layer inception_4a/3x3_BatchNorm
I1219 08:19:06.681059 31210 net.cpp:94] Creating Layer inception_4a/3x3_BatchNorm
I1219 08:19:06.681061 31210 net.cpp:435] inception_4a/3x3_BatchNorm <- inception_4a/3x3_raw
I1219 08:19:06.681066 31210 net.cpp:409] inception_4a/3x3_BatchNorm -> inception_4a/3x3
I1219 08:19:06.681445 31210 net.cpp:144] Setting up inception_4a/3x3_BatchNorm
I1219 08:19:06.681449 31210 net.cpp:151] Top shape: 1 208 30 60 (374400)
I1219 08:19:06.681452 31210 net.cpp:159] Memory required for data: 466560004
I1219 08:19:06.681457 31210 layer_factory.hpp:77] Creating layer inception_4a/relu_3x3
I1219 08:19:06.681460 31210 net.cpp:94] Creating Layer inception_4a/relu_3x3
I1219 08:19:06.681463 31210 net.cpp:435] inception_4a/relu_3x3 <- inception_4a/3x3
I1219 08:19:06.681464 31210 net.cpp:396] inception_4a/relu_3x3 -> inception_4a/3x3 (in-place)
I1219 08:19:06.681468 31210 net.cpp:144] Setting up inception_4a/relu_3x3
I1219 08:19:06.681469 31210 net.cpp:151] Top shape: 1 208 30 60 (374400)
I1219 08:19:06.681473 31210 net.cpp:159] Memory required for data: 468057604
I1219 08:19:06.681474 31210 layer_factory.hpp:77] Creating layer inception_4a/5x5_reduce
I1219 08:19:06.681478 31210 net.cpp:94] Creating Layer inception_4a/5x5_reduce
I1219 08:19:06.681479 31210 net.cpp:435] inception_4a/5x5_reduce <- pool3/3x3_s2_pool3/3x3_s2_0_split_2
I1219 08:19:06.681483 31210 net.cpp:409] inception_4a/5x5_reduce -> inception_4a/5x5_reduce_raw
I1219 08:19:06.681669 31210 net.cpp:144] Setting up inception_4a/5x5_reduce
I1219 08:19:06.681672 31210 net.cpp:151] Top shape: 1 16 30 60 (28800)
I1219 08:19:06.681675 31210 net.cpp:159] Memory required for data: 468172804
I1219 08:19:06.681679 31210 layer_factory.hpp:77] Creating layer inception_4a/5x5_reduce_BatchNorm
I1219 08:19:06.681682 31210 net.cpp:94] Creating Layer inception_4a/5x5_reduce_BatchNorm
I1219 08:19:06.681684 31210 net.cpp:435] inception_4a/5x5_reduce_BatchNorm <- inception_4a/5x5_reduce_raw
I1219 08:19:06.681686 31210 net.cpp:409] inception_4a/5x5_reduce_BatchNorm -> inception_4a/5x5_reduce
I1219 08:19:06.682050 31210 net.cpp:144] Setting up inception_4a/5x5_reduce_BatchNorm
I1219 08:19:06.682055 31210 net.cpp:151] Top shape: 1 16 30 60 (28800)
I1219 08:19:06.682057 31210 net.cpp:159] Memory required for data: 468288004
I1219 08:19:06.682066 31210 layer_factory.hpp:77] Creating layer inception_4a/relu_5x5_reduce
I1219 08:19:06.682070 31210 net.cpp:94] Creating Layer inception_4a/relu_5x5_reduce
I1219 08:19:06.682072 31210 net.cpp:435] inception_4a/relu_5x5_reduce <- inception_4a/5x5_reduce
I1219 08:19:06.682075 31210 net.cpp:396] inception_4a/relu_5x5_reduce -> inception_4a/5x5_reduce (in-place)
I1219 08:19:06.682077 31210 net.cpp:144] Setting up inception_4a/relu_5x5_reduce
I1219 08:19:06.682080 31210 net.cpp:151] Top shape: 1 16 30 60 (28800)
I1219 08:19:06.682081 31210 net.cpp:159] Memory required for data: 468403204
I1219 08:19:06.682083 31210 layer_factory.hpp:77] Creating layer inception_4a/5x5
I1219 08:19:06.682087 31210 net.cpp:94] Creating Layer inception_4a/5x5
I1219 08:19:06.682090 31210 net.cpp:435] inception_4a/5x5 <- inception_4a/5x5_reduce
I1219 08:19:06.682092 31210 net.cpp:409] inception_4a/5x5 -> inception_4a/5x5_raw
I1219 08:19:06.682329 31210 net.cpp:144] Setting up inception_4a/5x5
I1219 08:19:06.682333 31210 net.cpp:151] Top shape: 1 48 30 60 (86400)
I1219 08:19:06.682335 31210 net.cpp:159] Memory required for data: 468748804
I1219 08:19:06.682339 31210 layer_factory.hpp:77] Creating layer inception_4a/5x5_BatchNorm
I1219 08:19:06.682343 31210 net.cpp:94] Creating Layer inception_4a/5x5_BatchNorm
I1219 08:19:06.682345 31210 net.cpp:435] inception_4a/5x5_BatchNorm <- inception_4a/5x5_raw
I1219 08:19:06.682348 31210 net.cpp:409] inception_4a/5x5_BatchNorm -> inception_4a/5x5
I1219 08:19:06.682737 31210 net.cpp:144] Setting up inception_4a/5x5_BatchNorm
I1219 08:19:06.682742 31210 net.cpp:151] Top shape: 1 48 30 60 (86400)
I1219 08:19:06.682745 31210 net.cpp:159] Memory required for data: 469094404
I1219 08:19:06.682751 31210 layer_factory.hpp:77] Creating layer inception_4a/relu_5x5
I1219 08:19:06.682754 31210 net.cpp:94] Creating Layer inception_4a/relu_5x5
I1219 08:19:06.682756 31210 net.cpp:435] inception_4a/relu_5x5 <- inception_4a/5x5
I1219 08:19:06.682758 31210 net.cpp:396] inception_4a/relu_5x5 -> inception_4a/5x5 (in-place)
I1219 08:19:06.682761 31210 net.cpp:144] Setting up inception_4a/relu_5x5
I1219 08:19:06.682763 31210 net.cpp:151] Top shape: 1 48 30 60 (86400)
I1219 08:19:06.682765 31210 net.cpp:159] Memory required for data: 469440004
I1219 08:19:06.682767 31210 layer_factory.hpp:77] Creating layer inception_4a/pool
I1219 08:19:06.682771 31210 net.cpp:94] Creating Layer inception_4a/pool
I1219 08:19:06.682772 31210 net.cpp:435] inception_4a/pool <- pool3/3x3_s2_pool3/3x3_s2_0_split_3
I1219 08:19:06.682775 31210 net.cpp:409] inception_4a/pool -> inception_4a/pool
I1219 08:19:06.682792 31210 net.cpp:144] Setting up inception_4a/pool
I1219 08:19:06.682796 31210 net.cpp:151] Top shape: 1 480 30 60 (864000)
I1219 08:19:06.682798 31210 net.cpp:159] Memory required for data: 472896004
I1219 08:19:06.682801 31210 layer_factory.hpp:77] Creating layer inception_4a/pool_proj
I1219 08:19:06.682804 31210 net.cpp:94] Creating Layer inception_4a/pool_proj
I1219 08:19:06.682806 31210 net.cpp:435] inception_4a/pool_proj <- inception_4a/pool
I1219 08:19:06.682809 31210 net.cpp:409] inception_4a/pool_proj -> inception_4a/pool_proj_raw
I1219 08:19:06.683109 31210 net.cpp:144] Setting up inception_4a/pool_proj
I1219 08:19:06.683113 31210 net.cpp:151] Top shape: 1 64 30 60 (115200)
I1219 08:19:06.683115 31210 net.cpp:159] Memory required for data: 473356804
I1219 08:19:06.683120 31210 layer_factory.hpp:77] Creating layer inception_4a/pool_proj_BatchNorm
I1219 08:19:06.683123 31210 net.cpp:94] Creating Layer inception_4a/pool_proj_BatchNorm
I1219 08:19:06.683125 31210 net.cpp:435] inception_4a/pool_proj_BatchNorm <- inception_4a/pool_proj_raw
I1219 08:19:06.683128 31210 net.cpp:409] inception_4a/pool_proj_BatchNorm -> inception_4a/pool_proj
I1219 08:19:06.683499 31210 net.cpp:144] Setting up inception_4a/pool_proj_BatchNorm
I1219 08:19:06.683503 31210 net.cpp:151] Top shape: 1 64 30 60 (115200)
I1219 08:19:06.683506 31210 net.cpp:159] Memory required for data: 473817604
I1219 08:19:06.683511 31210 layer_factory.hpp:77] Creating layer inception_4a/relu_pool_proj
I1219 08:19:06.683514 31210 net.cpp:94] Creating Layer inception_4a/relu_pool_proj
I1219 08:19:06.683516 31210 net.cpp:435] inception_4a/relu_pool_proj <- inception_4a/pool_proj
I1219 08:19:06.683518 31210 net.cpp:396] inception_4a/relu_pool_proj -> inception_4a/pool_proj (in-place)
I1219 08:19:06.683521 31210 net.cpp:144] Setting up inception_4a/relu_pool_proj
I1219 08:19:06.683523 31210 net.cpp:151] Top shape: 1 64 30 60 (115200)
I1219 08:19:06.683526 31210 net.cpp:159] Memory required for data: 474278404
I1219 08:19:06.683527 31210 layer_factory.hpp:77] Creating layer inception_4a/output
I1219 08:19:06.683531 31210 net.cpp:94] Creating Layer inception_4a/output
I1219 08:19:06.683532 31210 net.cpp:435] inception_4a/output <- inception_4a/1x1
I1219 08:19:06.683535 31210 net.cpp:435] inception_4a/output <- inception_4a/3x3
I1219 08:19:06.683537 31210 net.cpp:435] inception_4a/output <- inception_4a/5x5
I1219 08:19:06.683539 31210 net.cpp:435] inception_4a/output <- inception_4a/pool_proj
I1219 08:19:06.683542 31210 net.cpp:409] inception_4a/output -> inception_4a/output
I1219 08:19:06.683553 31210 net.cpp:144] Setting up inception_4a/output
I1219 08:19:06.683554 31210 net.cpp:151] Top shape: 1 512 30 60 (921600)
I1219 08:19:06.683557 31210 net.cpp:159] Memory required for data: 477964804
I1219 08:19:06.683558 31210 layer_factory.hpp:77] Creating layer inception_4a/output_inception_4a/output_0_split
I1219 08:19:06.683562 31210 net.cpp:94] Creating Layer inception_4a/output_inception_4a/output_0_split
I1219 08:19:06.683564 31210 net.cpp:435] inception_4a/output_inception_4a/output_0_split <- inception_4a/output
I1219 08:19:06.683566 31210 net.cpp:409] inception_4a/output_inception_4a/output_0_split -> inception_4a/output_inception_4a/output_0_split_0
I1219 08:19:06.683570 31210 net.cpp:409] inception_4a/output_inception_4a/output_0_split -> inception_4a/output_inception_4a/output_0_split_1
I1219 08:19:06.683573 31210 net.cpp:409] inception_4a/output_inception_4a/output_0_split -> inception_4a/output_inception_4a/output_0_split_2
I1219 08:19:06.683575 31210 net.cpp:409] inception_4a/output_inception_4a/output_0_split -> inception_4a/output_inception_4a/output_0_split_3
I1219 08:19:06.683605 31210 net.cpp:144] Setting up inception_4a/output_inception_4a/output_0_split
I1219 08:19:06.683609 31210 net.cpp:151] Top shape: 1 512 30 60 (921600)
I1219 08:19:06.683610 31210 net.cpp:151] Top shape: 1 512 30 60 (921600)
I1219 08:19:06.683612 31210 net.cpp:151] Top shape: 1 512 30 60 (921600)
I1219 08:19:06.683615 31210 net.cpp:151] Top shape: 1 512 30 60 (921600)
I1219 08:19:06.683617 31210 net.cpp:159] Memory required for data: 492710404
I1219 08:19:06.683619 31210 layer_factory.hpp:77] Creating layer inception_4b/1x1
I1219 08:19:06.683624 31210 net.cpp:94] Creating Layer inception_4b/1x1
I1219 08:19:06.683625 31210 net.cpp:435] inception_4b/1x1 <- inception_4a/output_inception_4a/output_0_split_0
I1219 08:19:06.683629 31210 net.cpp:409] inception_4b/1x1 -> inception_4b/1x1_raw
I1219 08:19:06.684206 31210 net.cpp:144] Setting up inception_4b/1x1
I1219 08:19:06.684211 31210 net.cpp:151] Top shape: 1 160 30 60 (288000)
I1219 08:19:06.684212 31210 net.cpp:159] Memory required for data: 493862404
I1219 08:19:06.684216 31210 layer_factory.hpp:77] Creating layer inception_4b/1x1_BatchNorm
I1219 08:19:06.684219 31210 net.cpp:94] Creating Layer inception_4b/1x1_BatchNorm
I1219 08:19:06.684221 31210 net.cpp:435] inception_4b/1x1_BatchNorm <- inception_4b/1x1_raw
I1219 08:19:06.684224 31210 net.cpp:409] inception_4b/1x1_BatchNorm -> inception_4b/1x1
I1219 08:19:06.684605 31210 net.cpp:144] Setting up inception_4b/1x1_BatchNorm
I1219 08:19:06.684609 31210 net.cpp:151] Top shape: 1 160 30 60 (288000)
I1219 08:19:06.684612 31210 net.cpp:159] Memory required for data: 495014404
I1219 08:19:06.684618 31210 layer_factory.hpp:77] Creating layer inception_4b/relu_1x1
I1219 08:19:06.684621 31210 net.cpp:94] Creating Layer inception_4b/relu_1x1
I1219 08:19:06.684623 31210 net.cpp:435] inception_4b/relu_1x1 <- inception_4b/1x1
I1219 08:19:06.684625 31210 net.cpp:396] inception_4b/relu_1x1 -> inception_4b/1x1 (in-place)
I1219 08:19:06.684628 31210 net.cpp:144] Setting up inception_4b/relu_1x1
I1219 08:19:06.684630 31210 net.cpp:151] Top shape: 1 160 30 60 (288000)
I1219 08:19:06.684633 31210 net.cpp:159] Memory required for data: 496166404
I1219 08:19:06.684634 31210 layer_factory.hpp:77] Creating layer inception_4b/3x3_reduce
I1219 08:19:06.684638 31210 net.cpp:94] Creating Layer inception_4b/3x3_reduce
I1219 08:19:06.684640 31210 net.cpp:435] inception_4b/3x3_reduce <- inception_4a/output_inception_4a/output_0_split_1
I1219 08:19:06.684643 31210 net.cpp:409] inception_4b/3x3_reduce -> inception_4b/3x3_reduce_raw
I1219 08:19:06.685097 31210 net.cpp:144] Setting up inception_4b/3x3_reduce
I1219 08:19:06.685102 31210 net.cpp:151] Top shape: 1 112 30 60 (201600)
I1219 08:19:06.685104 31210 net.cpp:159] Memory required for data: 496972804
I1219 08:19:06.685108 31210 layer_factory.hpp:77] Creating layer inception_4b/3x3_reduce_BatchNorm
I1219 08:19:06.685112 31210 net.cpp:94] Creating Layer inception_4b/3x3_reduce_BatchNorm
I1219 08:19:06.685114 31210 net.cpp:435] inception_4b/3x3_reduce_BatchNorm <- inception_4b/3x3_reduce_raw
I1219 08:19:06.685117 31210 net.cpp:409] inception_4b/3x3_reduce_BatchNorm -> inception_4b/3x3_reduce
I1219 08:19:06.685523 31210 net.cpp:144] Setting up inception_4b/3x3_reduce_BatchNorm
I1219 08:19:06.685528 31210 net.cpp:151] Top shape: 1 112 30 60 (201600)
I1219 08:19:06.685530 31210 net.cpp:159] Memory required for data: 497779204
I1219 08:19:06.685536 31210 layer_factory.hpp:77] Creating layer inception_4b/relu_3x3_reduce
I1219 08:19:06.685540 31210 net.cpp:94] Creating Layer inception_4b/relu_3x3_reduce
I1219 08:19:06.685542 31210 net.cpp:435] inception_4b/relu_3x3_reduce <- inception_4b/3x3_reduce
I1219 08:19:06.685545 31210 net.cpp:396] inception_4b/relu_3x3_reduce -> inception_4b/3x3_reduce (in-place)
I1219 08:19:06.685549 31210 net.cpp:144] Setting up inception_4b/relu_3x3_reduce
I1219 08:19:06.685550 31210 net.cpp:151] Top shape: 1 112 30 60 (201600)
I1219 08:19:06.685552 31210 net.cpp:159] Memory required for data: 498585604
I1219 08:19:06.685554 31210 layer_factory.hpp:77] Creating layer inception_4b/3x3
I1219 08:19:06.685559 31210 net.cpp:94] Creating Layer inception_4b/3x3
I1219 08:19:06.685560 31210 net.cpp:435] inception_4b/3x3 <- inception_4b/3x3_reduce
I1219 08:19:06.685564 31210 net.cpp:409] inception_4b/3x3 -> inception_4b/3x3_raw
I1219 08:19:06.688235 31210 net.cpp:144] Setting up inception_4b/3x3
I1219 08:19:06.688248 31210 net.cpp:151] Top shape: 1 224 30 60 (403200)
I1219 08:19:06.688256 31210 net.cpp:159] Memory required for data: 500198404
I1219 08:19:06.688263 31210 layer_factory.hpp:77] Creating layer inception_4b/3x3_BatchNorm
I1219 08:19:06.688271 31210 net.cpp:94] Creating Layer inception_4b/3x3_BatchNorm
I1219 08:19:06.688277 31210 net.cpp:435] inception_4b/3x3_BatchNorm <- inception_4b/3x3_raw
I1219 08:19:06.688287 31210 net.cpp:409] inception_4b/3x3_BatchNorm -> inception_4b/3x3
I1219 08:19:06.688697 31210 net.cpp:144] Setting up inception_4b/3x3_BatchNorm
I1219 08:19:06.688701 31210 net.cpp:151] Top shape: 1 224 30 60 (403200)
I1219 08:19:06.688704 31210 net.cpp:159] Memory required for data: 501811204
I1219 08:19:06.688709 31210 layer_factory.hpp:77] Creating layer inception_4b/relu_3x3
I1219 08:19:06.688714 31210 net.cpp:94] Creating Layer inception_4b/relu_3x3
I1219 08:19:06.688715 31210 net.cpp:435] inception_4b/relu_3x3 <- inception_4b/3x3
I1219 08:19:06.688717 31210 net.cpp:396] inception_4b/relu_3x3 -> inception_4b/3x3 (in-place)
I1219 08:19:06.688721 31210 net.cpp:144] Setting up inception_4b/relu_3x3
I1219 08:19:06.688724 31210 net.cpp:151] Top shape: 1 224 30 60 (403200)
I1219 08:19:06.688725 31210 net.cpp:159] Memory required for data: 503424004
I1219 08:19:06.688727 31210 layer_factory.hpp:77] Creating layer inception_4b/5x5_reduce
I1219 08:19:06.688732 31210 net.cpp:94] Creating Layer inception_4b/5x5_reduce
I1219 08:19:06.688735 31210 net.cpp:435] inception_4b/5x5_reduce <- inception_4a/output_inception_4a/output_0_split_2
I1219 08:19:06.688738 31210 net.cpp:409] inception_4b/5x5_reduce -> inception_4b/5x5_reduce_raw
I1219 08:19:06.688953 31210 net.cpp:144] Setting up inception_4b/5x5_reduce
I1219 08:19:06.688957 31210 net.cpp:151] Top shape: 1 24 30 60 (43200)
I1219 08:19:06.688961 31210 net.cpp:159] Memory required for data: 503596804
I1219 08:19:06.688963 31210 layer_factory.hpp:77] Creating layer inception_4b/5x5_reduce_BatchNorm
I1219 08:19:06.688967 31210 net.cpp:94] Creating Layer inception_4b/5x5_reduce_BatchNorm
I1219 08:19:06.688969 31210 net.cpp:435] inception_4b/5x5_reduce_BatchNorm <- inception_4b/5x5_reduce_raw
I1219 08:19:06.688972 31210 net.cpp:409] inception_4b/5x5_reduce_BatchNorm -> inception_4b/5x5_reduce
I1219 08:19:06.689342 31210 net.cpp:144] Setting up inception_4b/5x5_reduce_BatchNorm
I1219 08:19:06.689347 31210 net.cpp:151] Top shape: 1 24 30 60 (43200)
I1219 08:19:06.689349 31210 net.cpp:159] Memory required for data: 503769604
I1219 08:19:06.689354 31210 layer_factory.hpp:77] Creating layer inception_4b/relu_5x5_reduce
I1219 08:19:06.689357 31210 net.cpp:94] Creating Layer inception_4b/relu_5x5_reduce
I1219 08:19:06.689359 31210 net.cpp:435] inception_4b/relu_5x5_reduce <- inception_4b/5x5_reduce
I1219 08:19:06.689361 31210 net.cpp:396] inception_4b/relu_5x5_reduce -> inception_4b/5x5_reduce (in-place)
I1219 08:19:06.689365 31210 net.cpp:144] Setting up inception_4b/relu_5x5_reduce
I1219 08:19:06.689366 31210 net.cpp:151] Top shape: 1 24 30 60 (43200)
I1219 08:19:06.689369 31210 net.cpp:159] Memory required for data: 503942404
I1219 08:19:06.689371 31210 layer_factory.hpp:77] Creating layer inception_4b/5x5
I1219 08:19:06.689375 31210 net.cpp:94] Creating Layer inception_4b/5x5
I1219 08:19:06.689378 31210 net.cpp:435] inception_4b/5x5 <- inception_4b/5x5_reduce
I1219 08:19:06.689380 31210 net.cpp:409] inception_4b/5x5 -> inception_4b/5x5_raw
I1219 08:19:06.690285 31210 net.cpp:144] Setting up inception_4b/5x5
I1219 08:19:06.690292 31210 net.cpp:151] Top shape: 1 64 30 60 (115200)
I1219 08:19:06.690299 31210 net.cpp:159] Memory required for data: 504403204
I1219 08:19:06.690305 31210 layer_factory.hpp:77] Creating layer inception_4b/5x5_BatchNorm
I1219 08:19:06.690311 31210 net.cpp:94] Creating Layer inception_4b/5x5_BatchNorm
I1219 08:19:06.690315 31210 net.cpp:435] inception_4b/5x5_BatchNorm <- inception_4b/5x5_raw
I1219 08:19:06.690320 31210 net.cpp:409] inception_4b/5x5_BatchNorm -> inception_4b/5x5
I1219 08:19:06.690764 31210 net.cpp:144] Setting up inception_4b/5x5_BatchNorm
I1219 08:19:06.690771 31210 net.cpp:151] Top shape: 1 64 30 60 (115200)
I1219 08:19:06.690778 31210 net.cpp:159] Memory required for data: 504864004
I1219 08:19:06.690788 31210 layer_factory.hpp:77] Creating layer inception_4b/relu_5x5
I1219 08:19:06.690793 31210 net.cpp:94] Creating Layer inception_4b/relu_5x5
I1219 08:19:06.690801 31210 net.cpp:435] inception_4b/relu_5x5 <- inception_4b/5x5
I1219 08:19:06.690805 31210 net.cpp:396] inception_4b/relu_5x5 -> inception_4b/5x5 (in-place)
I1219 08:19:06.690810 31210 net.cpp:144] Setting up inception_4b/relu_5x5
I1219 08:19:06.690814 31210 net.cpp:151] Top shape: 1 64 30 60 (115200)
I1219 08:19:06.690819 31210 net.cpp:159] Memory required for data: 505324804
I1219 08:19:06.690820 31210 layer_factory.hpp:77] Creating layer inception_4b/pool
I1219 08:19:06.690826 31210 net.cpp:94] Creating Layer inception_4b/pool
I1219 08:19:06.690830 31210 net.cpp:435] inception_4b/pool <- inception_4a/output_inception_4a/output_0_split_3
I1219 08:19:06.690834 31210 net.cpp:409] inception_4b/pool -> inception_4b/pool
I1219 08:19:06.690860 31210 net.cpp:144] Setting up inception_4b/pool
I1219 08:19:06.690865 31210 net.cpp:151] Top shape: 1 512 30 60 (921600)
I1219 08:19:06.690868 31210 net.cpp:159] Memory required for data: 509011204
I1219 08:19:06.690871 31210 layer_factory.hpp:77] Creating layer inception_4b/pool_proj
I1219 08:19:06.690876 31210 net.cpp:94] Creating Layer inception_4b/pool_proj
I1219 08:19:06.690879 31210 net.cpp:435] inception_4b/pool_proj <- inception_4b/pool
I1219 08:19:06.690883 31210 net.cpp:409] inception_4b/pool_proj -> inception_4b/pool_proj_raw
I1219 08:19:06.691218 31210 net.cpp:144] Setting up inception_4b/pool_proj
I1219 08:19:06.691222 31210 net.cpp:151] Top shape: 1 64 30 60 (115200)
I1219 08:19:06.691226 31210 net.cpp:159] Memory required for data: 509472004
I1219 08:19:06.691231 31210 layer_factory.hpp:77] Creating layer inception_4b/pool_proj_BatchNorm
I1219 08:19:06.691237 31210 net.cpp:94] Creating Layer inception_4b/pool_proj_BatchNorm
I1219 08:19:06.691241 31210 net.cpp:435] inception_4b/pool_proj_BatchNorm <- inception_4b/pool_proj_raw
I1219 08:19:06.691246 31210 net.cpp:409] inception_4b/pool_proj_BatchNorm -> inception_4b/pool_proj
I1219 08:19:06.691637 31210 net.cpp:144] Setting up inception_4b/pool_proj_BatchNorm
I1219 08:19:06.691642 31210 net.cpp:151] Top shape: 1 64 30 60 (115200)
I1219 08:19:06.691646 31210 net.cpp:159] Memory required for data: 509932804
I1219 08:19:06.691653 31210 layer_factory.hpp:77] Creating layer inception_4b/relu_pool_proj
I1219 08:19:06.691658 31210 net.cpp:94] Creating Layer inception_4b/relu_pool_proj
I1219 08:19:06.691661 31210 net.cpp:435] inception_4b/relu_pool_proj <- inception_4b/pool_proj
I1219 08:19:06.691665 31210 net.cpp:396] inception_4b/relu_pool_proj -> inception_4b/pool_proj (in-place)
I1219 08:19:06.691670 31210 net.cpp:144] Setting up inception_4b/relu_pool_proj
I1219 08:19:06.691673 31210 net.cpp:151] Top shape: 1 64 30 60 (115200)
I1219 08:19:06.691677 31210 net.cpp:159] Memory required for data: 510393604
I1219 08:19:06.691679 31210 layer_factory.hpp:77] Creating layer inception_4b/output
I1219 08:19:06.691684 31210 net.cpp:94] Creating Layer inception_4b/output
I1219 08:19:06.691686 31210 net.cpp:435] inception_4b/output <- inception_4b/1x1
I1219 08:19:06.691689 31210 net.cpp:435] inception_4b/output <- inception_4b/3x3
I1219 08:19:06.691692 31210 net.cpp:435] inception_4b/output <- inception_4b/5x5
I1219 08:19:06.691695 31210 net.cpp:435] inception_4b/output <- inception_4b/pool_proj
I1219 08:19:06.691699 31210 net.cpp:409] inception_4b/output -> inception_4b/output
I1219 08:19:06.691716 31210 net.cpp:144] Setting up inception_4b/output
I1219 08:19:06.691720 31210 net.cpp:151] Top shape: 1 512 30 60 (921600)
I1219 08:19:06.691723 31210 net.cpp:159] Memory required for data: 514080004
I1219 08:19:06.691725 31210 layer_factory.hpp:77] Creating layer inception_4b/output_inception_4b/output_0_split
I1219 08:19:06.691730 31210 net.cpp:94] Creating Layer inception_4b/output_inception_4b/output_0_split
I1219 08:19:06.691733 31210 net.cpp:435] inception_4b/output_inception_4b/output_0_split <- inception_4b/output
I1219 08:19:06.691737 31210 net.cpp:409] inception_4b/output_inception_4b/output_0_split -> inception_4b/output_inception_4b/output_0_split_0
I1219 08:19:06.691742 31210 net.cpp:409] inception_4b/output_inception_4b/output_0_split -> inception_4b/output_inception_4b/output_0_split_1
I1219 08:19:06.691747 31210 net.cpp:409] inception_4b/output_inception_4b/output_0_split -> inception_4b/output_inception_4b/output_0_split_2
I1219 08:19:06.691753 31210 net.cpp:409] inception_4b/output_inception_4b/output_0_split -> inception_4b/output_inception_4b/output_0_split_3
I1219 08:19:06.691790 31210 net.cpp:144] Setting up inception_4b/output_inception_4b/output_0_split
I1219 08:19:06.691793 31210 net.cpp:151] Top shape: 1 512 30 60 (921600)
I1219 08:19:06.691797 31210 net.cpp:151] Top shape: 1 512 30 60 (921600)
I1219 08:19:06.691802 31210 net.cpp:151] Top shape: 1 512 30 60 (921600)
I1219 08:19:06.691807 31210 net.cpp:151] Top shape: 1 512 30 60 (921600)
I1219 08:19:06.691809 31210 net.cpp:159] Memory required for data: 528825604
I1219 08:19:06.691812 31210 layer_factory.hpp:77] Creating layer inception_4c/1x1
I1219 08:19:06.691818 31210 net.cpp:94] Creating Layer inception_4c/1x1
I1219 08:19:06.691821 31210 net.cpp:435] inception_4c/1x1 <- inception_4b/output_inception_4b/output_0_split_0
I1219 08:19:06.691825 31210 net.cpp:409] inception_4c/1x1 -> inception_4c/1x1_raw
I1219 08:19:06.692314 31210 net.cpp:144] Setting up inception_4c/1x1
I1219 08:19:06.692319 31210 net.cpp:151] Top shape: 1 128 30 60 (230400)
I1219 08:19:06.692323 31210 net.cpp:159] Memory required for data: 529747204
I1219 08:19:06.692328 31210 layer_factory.hpp:77] Creating layer inception_4c/1x1_BatchNorm
I1219 08:19:06.692334 31210 net.cpp:94] Creating Layer inception_4c/1x1_BatchNorm
I1219 08:19:06.692338 31210 net.cpp:435] inception_4c/1x1_BatchNorm <- inception_4c/1x1_raw
I1219 08:19:06.692342 31210 net.cpp:409] inception_4c/1x1_BatchNorm -> inception_4c/1x1
I1219 08:19:06.692762 31210 net.cpp:144] Setting up inception_4c/1x1_BatchNorm
I1219 08:19:06.692770 31210 net.cpp:151] Top shape: 1 128 30 60 (230400)
I1219 08:19:06.692777 31210 net.cpp:159] Memory required for data: 530668804
I1219 08:19:06.692785 31210 layer_factory.hpp:77] Creating layer inception_4c/relu_1x1
I1219 08:19:06.692792 31210 net.cpp:94] Creating Layer inception_4c/relu_1x1
I1219 08:19:06.692795 31210 net.cpp:435] inception_4c/relu_1x1 <- inception_4c/1x1
I1219 08:19:06.692800 31210 net.cpp:396] inception_4c/relu_1x1 -> inception_4c/1x1 (in-place)
I1219 08:19:06.692806 31210 net.cpp:144] Setting up inception_4c/relu_1x1
I1219 08:19:06.692811 31210 net.cpp:151] Top shape: 1 128 30 60 (230400)
I1219 08:19:06.692814 31210 net.cpp:159] Memory required for data: 531590404
I1219 08:19:06.692817 31210 layer_factory.hpp:77] Creating layer inception_4c/3x3_reduce
I1219 08:19:06.692824 31210 net.cpp:94] Creating Layer inception_4c/3x3_reduce
I1219 08:19:06.692828 31210 net.cpp:435] inception_4c/3x3_reduce <- inception_4b/output_inception_4b/output_0_split_1
I1219 08:19:06.692833 31210 net.cpp:409] inception_4c/3x3_reduce -> inception_4c/3x3_reduce_raw
I1219 08:19:06.693727 31210 net.cpp:144] Setting up inception_4c/3x3_reduce
I1219 08:19:06.693732 31210 net.cpp:151] Top shape: 1 128 30 60 (230400)
I1219 08:19:06.693737 31210 net.cpp:159] Memory required for data: 532512004
I1219 08:19:06.693742 31210 layer_factory.hpp:77] Creating layer inception_4c/3x3_reduce_BatchNorm
I1219 08:19:06.693748 31210 net.cpp:94] Creating Layer inception_4c/3x3_reduce_BatchNorm
I1219 08:19:06.693753 31210 net.cpp:435] inception_4c/3x3_reduce_BatchNorm <- inception_4c/3x3_reduce_raw
I1219 08:19:06.693756 31210 net.cpp:409] inception_4c/3x3_reduce_BatchNorm -> inception_4c/3x3_reduce
I1219 08:19:06.694094 31210 net.cpp:144] Setting up inception_4c/3x3_reduce_BatchNorm
I1219 08:19:06.694099 31210 net.cpp:151] Top shape: 1 128 30 60 (230400)
I1219 08:19:06.694103 31210 net.cpp:159] Memory required for data: 533433604
I1219 08:19:06.694111 31210 layer_factory.hpp:77] Creating layer inception_4c/relu_3x3_reduce
I1219 08:19:06.694116 31210 net.cpp:94] Creating Layer inception_4c/relu_3x3_reduce
I1219 08:19:06.694118 31210 net.cpp:435] inception_4c/relu_3x3_reduce <- inception_4c/3x3_reduce
I1219 08:19:06.694123 31210 net.cpp:396] inception_4c/relu_3x3_reduce -> inception_4c/3x3_reduce (in-place)
I1219 08:19:06.694128 31210 net.cpp:144] Setting up inception_4c/relu_3x3_reduce
I1219 08:19:06.694130 31210 net.cpp:151] Top shape: 1 128 30 60 (230400)
I1219 08:19:06.694134 31210 net.cpp:159] Memory required for data: 534355204
I1219 08:19:06.694136 31210 layer_factory.hpp:77] Creating layer inception_4c/3x3
I1219 08:19:06.694142 31210 net.cpp:94] Creating Layer inception_4c/3x3
I1219 08:19:06.694145 31210 net.cpp:435] inception_4c/3x3 <- inception_4c/3x3_reduce
I1219 08:19:06.694150 31210 net.cpp:409] inception_4c/3x3 -> inception_4c/3x3_raw
I1219 08:19:06.696905 31210 net.cpp:144] Setting up inception_4c/3x3
I1219 08:19:06.696913 31210 net.cpp:151] Top shape: 1 256 30 60 (460800)
I1219 08:19:06.696918 31210 net.cpp:159] Memory required for data: 536198404
I1219 08:19:06.696923 31210 layer_factory.hpp:77] Creating layer inception_4c/3x3_BatchNorm
I1219 08:19:06.696930 31210 net.cpp:94] Creating Layer inception_4c/3x3_BatchNorm
I1219 08:19:06.696933 31210 net.cpp:435] inception_4c/3x3_BatchNorm <- inception_4c/3x3_raw
I1219 08:19:06.696938 31210 net.cpp:409] inception_4c/3x3_BatchNorm -> inception_4c/3x3
I1219 08:19:06.697283 31210 net.cpp:144] Setting up inception_4c/3x3_BatchNorm
I1219 08:19:06.697288 31210 net.cpp:151] Top shape: 1 256 30 60 (460800)
I1219 08:19:06.697293 31210 net.cpp:159] Memory required for data: 538041604
I1219 08:19:06.697299 31210 layer_factory.hpp:77] Creating layer inception_4c/relu_3x3
I1219 08:19:06.697305 31210 net.cpp:94] Creating Layer inception_4c/relu_3x3
I1219 08:19:06.697309 31210 net.cpp:435] inception_4c/relu_3x3 <- inception_4c/3x3
I1219 08:19:06.697314 31210 net.cpp:396] inception_4c/relu_3x3 -> inception_4c/3x3 (in-place)
I1219 08:19:06.697319 31210 net.cpp:144] Setting up inception_4c/relu_3x3
I1219 08:19:06.697321 31210 net.cpp:151] Top shape: 1 256 30 60 (460800)
I1219 08:19:06.697324 31210 net.cpp:159] Memory required for data: 539884804
I1219 08:19:06.697327 31210 layer_factory.hpp:77] Creating layer inception_4c/5x5_reduce
I1219 08:19:06.697333 31210 net.cpp:94] Creating Layer inception_4c/5x5_reduce
I1219 08:19:06.697338 31210 net.cpp:435] inception_4c/5x5_reduce <- inception_4b/output_inception_4b/output_0_split_2
I1219 08:19:06.697342 31210 net.cpp:409] inception_4c/5x5_reduce -> inception_4c/5x5_reduce_raw
I1219 08:19:06.697563 31210 net.cpp:144] Setting up inception_4c/5x5_reduce
I1219 08:19:06.697568 31210 net.cpp:151] Top shape: 1 24 30 60 (43200)
I1219 08:19:06.697572 31210 net.cpp:159] Memory required for data: 540057604
I1219 08:19:06.697577 31210 layer_factory.hpp:77] Creating layer inception_4c/5x5_reduce_BatchNorm
I1219 08:19:06.697582 31210 net.cpp:94] Creating Layer inception_4c/5x5_reduce_BatchNorm
I1219 08:19:06.697587 31210 net.cpp:435] inception_4c/5x5_reduce_BatchNorm <- inception_4c/5x5_reduce_raw
I1219 08:19:06.697592 31210 net.cpp:409] inception_4c/5x5_reduce_BatchNorm -> inception_4c/5x5_reduce
I1219 08:19:06.697976 31210 net.cpp:144] Setting up inception_4c/5x5_reduce_BatchNorm
I1219 08:19:06.697981 31210 net.cpp:151] Top shape: 1 24 30 60 (43200)
I1219 08:19:06.697985 31210 net.cpp:159] Memory required for data: 540230404
I1219 08:19:06.697993 31210 layer_factory.hpp:77] Creating layer inception_4c/relu_5x5_reduce
I1219 08:19:06.697999 31210 net.cpp:94] Creating Layer inception_4c/relu_5x5_reduce
I1219 08:19:06.698001 31210 net.cpp:435] inception_4c/relu_5x5_reduce <- inception_4c/5x5_reduce
I1219 08:19:06.698004 31210 net.cpp:396] inception_4c/relu_5x5_reduce -> inception_4c/5x5_reduce (in-place)
I1219 08:19:06.698009 31210 net.cpp:144] Setting up inception_4c/relu_5x5_reduce
I1219 08:19:06.698012 31210 net.cpp:151] Top shape: 1 24 30 60 (43200)
I1219 08:19:06.698016 31210 net.cpp:159] Memory required for data: 540403204
I1219 08:19:06.698019 31210 layer_factory.hpp:77] Creating layer inception_4c/5x5
I1219 08:19:06.698024 31210 net.cpp:94] Creating Layer inception_4c/5x5
I1219 08:19:06.698029 31210 net.cpp:435] inception_4c/5x5 <- inception_4c/5x5_reduce
I1219 08:19:06.698033 31210 net.cpp:409] inception_4c/5x5 -> inception_4c/5x5_raw
I1219 08:19:06.698397 31210 net.cpp:144] Setting up inception_4c/5x5
I1219 08:19:06.698402 31210 net.cpp:151] Top shape: 1 64 30 60 (115200)
I1219 08:19:06.698405 31210 net.cpp:159] Memory required for data: 540864004
I1219 08:19:06.698410 31210 layer_factory.hpp:77] Creating layer inception_4c/5x5_BatchNorm
I1219 08:19:06.698417 31210 net.cpp:94] Creating Layer inception_4c/5x5_BatchNorm
I1219 08:19:06.698421 31210 net.cpp:435] inception_4c/5x5_BatchNorm <- inception_4c/5x5_raw
I1219 08:19:06.698426 31210 net.cpp:409] inception_4c/5x5_BatchNorm -> inception_4c/5x5
I1219 08:19:06.698822 31210 net.cpp:144] Setting up inception_4c/5x5_BatchNorm
I1219 08:19:06.698829 31210 net.cpp:151] Top shape: 1 64 30 60 (115200)
I1219 08:19:06.698834 31210 net.cpp:159] Memory required for data: 541324804
I1219 08:19:06.698843 31210 layer_factory.hpp:77] Creating layer inception_4c/relu_5x5
I1219 08:19:06.698849 31210 net.cpp:94] Creating Layer inception_4c/relu_5x5
I1219 08:19:06.698853 31210 net.cpp:435] inception_4c/relu_5x5 <- inception_4c/5x5
I1219 08:19:06.698856 31210 net.cpp:396] inception_4c/relu_5x5 -> inception_4c/5x5 (in-place)
I1219 08:19:06.698861 31210 net.cpp:144] Setting up inception_4c/relu_5x5
I1219 08:19:06.698863 31210 net.cpp:151] Top shape: 1 64 30 60 (115200)
I1219 08:19:06.698868 31210 net.cpp:159] Memory required for data: 541785604
I1219 08:19:06.698869 31210 layer_factory.hpp:77] Creating layer inception_4c/pool
I1219 08:19:06.698874 31210 net.cpp:94] Creating Layer inception_4c/pool
I1219 08:19:06.698879 31210 net.cpp:435] inception_4c/pool <- inception_4b/output_inception_4b/output_0_split_3
I1219 08:19:06.698882 31210 net.cpp:409] inception_4c/pool -> inception_4c/pool
I1219 08:19:06.698905 31210 net.cpp:144] Setting up inception_4c/pool
I1219 08:19:06.698909 31210 net.cpp:151] Top shape: 1 512 30 60 (921600)
I1219 08:19:06.698912 31210 net.cpp:159] Memory required for data: 545472004
I1219 08:19:06.698915 31210 layer_factory.hpp:77] Creating layer inception_4c/pool_proj
I1219 08:19:06.698920 31210 net.cpp:94] Creating Layer inception_4c/pool_proj
I1219 08:19:06.698925 31210 net.cpp:435] inception_4c/pool_proj <- inception_4c/pool
I1219 08:19:06.698928 31210 net.cpp:409] inception_4c/pool_proj -> inception_4c/pool_proj_raw
I1219 08:19:06.699270 31210 net.cpp:144] Setting up inception_4c/pool_proj
I1219 08:19:06.699278 31210 net.cpp:151] Top shape: 1 64 30 60 (115200)
I1219 08:19:06.699291 31210 net.cpp:159] Memory required for data: 545932804
I1219 08:19:06.699297 31210 layer_factory.hpp:77] Creating layer inception_4c/pool_proj_BatchNorm
I1219 08:19:06.699303 31210 net.cpp:94] Creating Layer inception_4c/pool_proj_BatchNorm
I1219 08:19:06.699308 31210 net.cpp:435] inception_4c/pool_proj_BatchNorm <- inception_4c/pool_proj_raw
I1219 08:19:06.699313 31210 net.cpp:409] inception_4c/pool_proj_BatchNorm -> inception_4c/pool_proj
I1219 08:19:06.699707 31210 net.cpp:144] Setting up inception_4c/pool_proj_BatchNorm
I1219 08:19:06.699712 31210 net.cpp:151] Top shape: 1 64 30 60 (115200)
I1219 08:19:06.699717 31210 net.cpp:159] Memory required for data: 546393604
I1219 08:19:06.699723 31210 layer_factory.hpp:77] Creating layer inception_4c/relu_pool_proj
I1219 08:19:06.699728 31210 net.cpp:94] Creating Layer inception_4c/relu_pool_proj
I1219 08:19:06.699731 31210 net.cpp:435] inception_4c/relu_pool_proj <- inception_4c/pool_proj
I1219 08:19:06.699735 31210 net.cpp:396] inception_4c/relu_pool_proj -> inception_4c/pool_proj (in-place)
I1219 08:19:06.699740 31210 net.cpp:144] Setting up inception_4c/relu_pool_proj
I1219 08:19:06.699743 31210 net.cpp:151] Top shape: 1 64 30 60 (115200)
I1219 08:19:06.699748 31210 net.cpp:159] Memory required for data: 546854404
I1219 08:19:06.699750 31210 layer_factory.hpp:77] Creating layer inception_4c/output
I1219 08:19:06.699754 31210 net.cpp:94] Creating Layer inception_4c/output
I1219 08:19:06.699759 31210 net.cpp:435] inception_4c/output <- inception_4c/1x1
I1219 08:19:06.699761 31210 net.cpp:435] inception_4c/output <- inception_4c/3x3
I1219 08:19:06.699764 31210 net.cpp:435] inception_4c/output <- inception_4c/5x5
I1219 08:19:06.699767 31210 net.cpp:435] inception_4c/output <- inception_4c/pool_proj
I1219 08:19:06.699771 31210 net.cpp:409] inception_4c/output -> inception_4c/output
I1219 08:19:06.699787 31210 net.cpp:144] Setting up inception_4c/output
I1219 08:19:06.699790 31210 net.cpp:151] Top shape: 1 512 30 60 (921600)
I1219 08:19:06.699795 31210 net.cpp:159] Memory required for data: 550540804
I1219 08:19:06.699796 31210 layer_factory.hpp:77] Creating layer inception_4c/output_inception_4c/output_0_split
I1219 08:19:06.699801 31210 net.cpp:94] Creating Layer inception_4c/output_inception_4c/output_0_split
I1219 08:19:06.699805 31210 net.cpp:435] inception_4c/output_inception_4c/output_0_split <- inception_4c/output
I1219 08:19:06.699808 31210 net.cpp:409] inception_4c/output_inception_4c/output_0_split -> inception_4c/output_inception_4c/output_0_split_0
I1219 08:19:06.699813 31210 net.cpp:409] inception_4c/output_inception_4c/output_0_split -> inception_4c/output_inception_4c/output_0_split_1
I1219 08:19:06.699817 31210 net.cpp:409] inception_4c/output_inception_4c/output_0_split -> inception_4c/output_inception_4c/output_0_split_2
I1219 08:19:06.699821 31210 net.cpp:409] inception_4c/output_inception_4c/output_0_split -> inception_4c/output_inception_4c/output_0_split_3
I1219 08:19:06.699856 31210 net.cpp:144] Setting up inception_4c/output_inception_4c/output_0_split
I1219 08:19:06.699859 31210 net.cpp:151] Top shape: 1 512 30 60 (921600)
I1219 08:19:06.699863 31210 net.cpp:151] Top shape: 1 512 30 60 (921600)
I1219 08:19:06.699867 31210 net.cpp:151] Top shape: 1 512 30 60 (921600)
I1219 08:19:06.699870 31210 net.cpp:151] Top shape: 1 512 30 60 (921600)
I1219 08:19:06.699873 31210 net.cpp:159] Memory required for data: 565286404
I1219 08:19:06.699877 31210 layer_factory.hpp:77] Creating layer inception_4d/1x1
I1219 08:19:06.699882 31210 net.cpp:94] Creating Layer inception_4d/1x1
I1219 08:19:06.699887 31210 net.cpp:435] inception_4d/1x1 <- inception_4c/output_inception_4c/output_0_split_0
I1219 08:19:06.699892 31210 net.cpp:409] inception_4d/1x1 -> inception_4d/1x1_raw
I1219 08:19:06.700353 31210 net.cpp:144] Setting up inception_4d/1x1
I1219 08:19:06.700357 31210 net.cpp:151] Top shape: 1 112 30 60 (201600)
I1219 08:19:06.700361 31210 net.cpp:159] Memory required for data: 566092804
I1219 08:19:06.700366 31210 layer_factory.hpp:77] Creating layer inception_4d/1x1_BatchNorm
I1219 08:19:06.700373 31210 net.cpp:94] Creating Layer inception_4d/1x1_BatchNorm
I1219 08:19:06.700377 31210 net.cpp:435] inception_4d/1x1_BatchNorm <- inception_4d/1x1_raw
I1219 08:19:06.700381 31210 net.cpp:409] inception_4d/1x1_BatchNorm -> inception_4d/1x1
I1219 08:19:06.700776 31210 net.cpp:144] Setting up inception_4d/1x1_BatchNorm
I1219 08:19:06.700781 31210 net.cpp:151] Top shape: 1 112 30 60 (201600)
I1219 08:19:06.700785 31210 net.cpp:159] Memory required for data: 566899204
I1219 08:19:06.700793 31210 layer_factory.hpp:77] Creating layer inception_4d/relu_1x1
I1219 08:19:06.700798 31210 net.cpp:94] Creating Layer inception_4d/relu_1x1
I1219 08:19:06.700801 31210 net.cpp:435] inception_4d/relu_1x1 <- inception_4d/1x1
I1219 08:19:06.700805 31210 net.cpp:396] inception_4d/relu_1x1 -> inception_4d/1x1 (in-place)
I1219 08:19:06.700811 31210 net.cpp:144] Setting up inception_4d/relu_1x1
I1219 08:19:06.700814 31210 net.cpp:151] Top shape: 1 112 30 60 (201600)
I1219 08:19:06.700819 31210 net.cpp:159] Memory required for data: 567705604
I1219 08:19:06.700820 31210 layer_factory.hpp:77] Creating layer inception_4d/3x3_reduce
I1219 08:19:06.700826 31210 net.cpp:94] Creating Layer inception_4d/3x3_reduce
I1219 08:19:06.700830 31210 net.cpp:435] inception_4d/3x3_reduce <- inception_4c/output_inception_4c/output_0_split_1
I1219 08:19:06.700834 31210 net.cpp:409] inception_4d/3x3_reduce -> inception_4d/3x3_reduce_raw
I1219 08:19:06.701395 31210 net.cpp:144] Setting up inception_4d/3x3_reduce
I1219 08:19:06.701404 31210 net.cpp:151] Top shape: 1 144 30 60 (259200)
I1219 08:19:06.701411 31210 net.cpp:159] Memory required for data: 568742404
I1219 08:19:06.701416 31210 layer_factory.hpp:77] Creating layer inception_4d/3x3_reduce_BatchNorm
I1219 08:19:06.701423 31210 net.cpp:94] Creating Layer inception_4d/3x3_reduce_BatchNorm
I1219 08:19:06.701428 31210 net.cpp:435] inception_4d/3x3_reduce_BatchNorm <- inception_4d/3x3_reduce_raw
I1219 08:19:06.701433 31210 net.cpp:409] inception_4d/3x3_reduce_BatchNorm -> inception_4d/3x3_reduce
I1219 08:19:06.701822 31210 net.cpp:144] Setting up inception_4d/3x3_reduce_BatchNorm
I1219 08:19:06.701826 31210 net.cpp:151] Top shape: 1 144 30 60 (259200)
I1219 08:19:06.701830 31210 net.cpp:159] Memory required for data: 569779204
I1219 08:19:06.701838 31210 layer_factory.hpp:77] Creating layer inception_4d/relu_3x3_reduce
I1219 08:19:06.701841 31210 net.cpp:94] Creating Layer inception_4d/relu_3x3_reduce
I1219 08:19:06.701844 31210 net.cpp:435] inception_4d/relu_3x3_reduce <- inception_4d/3x3_reduce
I1219 08:19:06.701848 31210 net.cpp:396] inception_4d/relu_3x3_reduce -> inception_4d/3x3_reduce (in-place)
I1219 08:19:06.701853 31210 net.cpp:144] Setting up inception_4d/relu_3x3_reduce
I1219 08:19:06.701854 31210 net.cpp:151] Top shape: 1 144 30 60 (259200)
I1219 08:19:06.701858 31210 net.cpp:159] Memory required for data: 570816004
I1219 08:19:06.701860 31210 layer_factory.hpp:77] Creating layer inception_4d/3x3
I1219 08:19:06.701866 31210 net.cpp:94] Creating Layer inception_4d/3x3
I1219 08:19:06.701869 31210 net.cpp:435] inception_4d/3x3 <- inception_4d/3x3_reduce
I1219 08:19:06.701874 31210 net.cpp:409] inception_4d/3x3 -> inception_4d/3x3_raw
I1219 08:19:06.705626 31210 net.cpp:144] Setting up inception_4d/3x3
I1219 08:19:06.705641 31210 net.cpp:151] Top shape: 1 288 30 60 (518400)
I1219 08:19:06.705651 31210 net.cpp:159] Memory required for data: 572889604
I1219 08:19:06.705660 31210 layer_factory.hpp:77] Creating layer inception_4d/3x3_BatchNorm
I1219 08:19:06.705674 31210 net.cpp:94] Creating Layer inception_4d/3x3_BatchNorm
I1219 08:19:06.705680 31210 net.cpp:435] inception_4d/3x3_BatchNorm <- inception_4d/3x3_raw
I1219 08:19:06.705687 31210 net.cpp:409] inception_4d/3x3_BatchNorm -> inception_4d/3x3
I1219 08:19:06.706108 31210 net.cpp:144] Setting up inception_4d/3x3_BatchNorm
I1219 08:19:06.706115 31210 net.cpp:151] Top shape: 1 288 30 60 (518400)
I1219 08:19:06.706118 31210 net.cpp:159] Memory required for data: 574963204
I1219 08:19:06.706126 31210 layer_factory.hpp:77] Creating layer inception_4d/relu_3x3
I1219 08:19:06.706132 31210 net.cpp:94] Creating Layer inception_4d/relu_3x3
I1219 08:19:06.706135 31210 net.cpp:435] inception_4d/relu_3x3 <- inception_4d/3x3
I1219 08:19:06.706140 31210 net.cpp:396] inception_4d/relu_3x3 -> inception_4d/3x3 (in-place)
I1219 08:19:06.706146 31210 net.cpp:144] Setting up inception_4d/relu_3x3
I1219 08:19:06.706148 31210 net.cpp:151] Top shape: 1 288 30 60 (518400)
I1219 08:19:06.706152 31210 net.cpp:159] Memory required for data: 577036804
I1219 08:19:06.706154 31210 layer_factory.hpp:77] Creating layer inception_4d/5x5_reduce
I1219 08:19:06.706161 31210 net.cpp:94] Creating Layer inception_4d/5x5_reduce
I1219 08:19:06.706166 31210 net.cpp:435] inception_4d/5x5_reduce <- inception_4c/output_inception_4c/output_0_split_2
I1219 08:19:06.706171 31210 net.cpp:409] inception_4d/5x5_reduce -> inception_4d/5x5_reduce_raw
I1219 08:19:06.706423 31210 net.cpp:144] Setting up inception_4d/5x5_reduce
I1219 08:19:06.706429 31210 net.cpp:151] Top shape: 1 32 30 60 (57600)
I1219 08:19:06.706432 31210 net.cpp:159] Memory required for data: 577267204
I1219 08:19:06.706436 31210 layer_factory.hpp:77] Creating layer inception_4d/5x5_reduce_BatchNorm
I1219 08:19:06.706442 31210 net.cpp:94] Creating Layer inception_4d/5x5_reduce_BatchNorm
I1219 08:19:06.706446 31210 net.cpp:435] inception_4d/5x5_reduce_BatchNorm <- inception_4d/5x5_reduce_raw
I1219 08:19:06.706450 31210 net.cpp:409] inception_4d/5x5_reduce_BatchNorm -> inception_4d/5x5_reduce
I1219 08:19:06.706867 31210 net.cpp:144] Setting up inception_4d/5x5_reduce_BatchNorm
I1219 08:19:06.706872 31210 net.cpp:151] Top shape: 1 32 30 60 (57600)
I1219 08:19:06.706876 31210 net.cpp:159] Memory required for data: 577497604
I1219 08:19:06.706892 31210 layer_factory.hpp:77] Creating layer inception_4d/relu_5x5_reduce
I1219 08:19:06.706898 31210 net.cpp:94] Creating Layer inception_4d/relu_5x5_reduce
I1219 08:19:06.706902 31210 net.cpp:435] inception_4d/relu_5x5_reduce <- inception_4d/5x5_reduce
I1219 08:19:06.706905 31210 net.cpp:396] inception_4d/relu_5x5_reduce -> inception_4d/5x5_reduce (in-place)
I1219 08:19:06.706912 31210 net.cpp:144] Setting up inception_4d/relu_5x5_reduce
I1219 08:19:06.706915 31210 net.cpp:151] Top shape: 1 32 30 60 (57600)
I1219 08:19:06.706919 31210 net.cpp:159] Memory required for data: 577728004
I1219 08:19:06.706923 31210 layer_factory.hpp:77] Creating layer inception_4d/5x5
I1219 08:19:06.706929 31210 net.cpp:94] Creating Layer inception_4d/5x5
I1219 08:19:06.706933 31210 net.cpp:435] inception_4d/5x5 <- inception_4d/5x5_reduce
I1219 08:19:06.706938 31210 net.cpp:409] inception_4d/5x5 -> inception_4d/5x5_raw
I1219 08:19:06.707382 31210 net.cpp:144] Setting up inception_4d/5x5
I1219 08:19:06.707387 31210 net.cpp:151] Top shape: 1 64 30 60 (115200)
I1219 08:19:06.707391 31210 net.cpp:159] Memory required for data: 578188804
I1219 08:19:06.707396 31210 layer_factory.hpp:77] Creating layer inception_4d/5x5_BatchNorm
I1219 08:19:06.707401 31210 net.cpp:94] Creating Layer inception_4d/5x5_BatchNorm
I1219 08:19:06.707406 31210 net.cpp:435] inception_4d/5x5_BatchNorm <- inception_4d/5x5_raw
I1219 08:19:06.707409 31210 net.cpp:409] inception_4d/5x5_BatchNorm -> inception_4d/5x5
I1219 08:19:06.707813 31210 net.cpp:144] Setting up inception_4d/5x5_BatchNorm
I1219 08:19:06.707816 31210 net.cpp:151] Top shape: 1 64 30 60 (115200)
I1219 08:19:06.707820 31210 net.cpp:159] Memory required for data: 578649604
I1219 08:19:06.707828 31210 layer_factory.hpp:77] Creating layer inception_4d/relu_5x5
I1219 08:19:06.707834 31210 net.cpp:94] Creating Layer inception_4d/relu_5x5
I1219 08:19:06.707836 31210 net.cpp:435] inception_4d/relu_5x5 <- inception_4d/5x5
I1219 08:19:06.707840 31210 net.cpp:396] inception_4d/relu_5x5 -> inception_4d/5x5 (in-place)
I1219 08:19:06.707845 31210 net.cpp:144] Setting up inception_4d/relu_5x5
I1219 08:19:06.707849 31210 net.cpp:151] Top shape: 1 64 30 60 (115200)
I1219 08:19:06.707852 31210 net.cpp:159] Memory required for data: 579110404
I1219 08:19:06.707854 31210 layer_factory.hpp:77] Creating layer inception_4d/pool
I1219 08:19:06.707860 31210 net.cpp:94] Creating Layer inception_4d/pool
I1219 08:19:06.707864 31210 net.cpp:435] inception_4d/pool <- inception_4c/output_inception_4c/output_0_split_3
I1219 08:19:06.707868 31210 net.cpp:409] inception_4d/pool -> inception_4d/pool
I1219 08:19:06.707891 31210 net.cpp:144] Setting up inception_4d/pool
I1219 08:19:06.707895 31210 net.cpp:151] Top shape: 1 512 30 60 (921600)
I1219 08:19:06.707899 31210 net.cpp:159] Memory required for data: 582796804
I1219 08:19:06.707901 31210 layer_factory.hpp:77] Creating layer inception_4d/pool_proj
I1219 08:19:06.707907 31210 net.cpp:94] Creating Layer inception_4d/pool_proj
I1219 08:19:06.707911 31210 net.cpp:435] inception_4d/pool_proj <- inception_4d/pool
I1219 08:19:06.707916 31210 net.cpp:409] inception_4d/pool_proj -> inception_4d/pool_proj_raw
I1219 08:19:06.708245 31210 net.cpp:144] Setting up inception_4d/pool_proj
I1219 08:19:06.708250 31210 net.cpp:151] Top shape: 1 64 30 60 (115200)
I1219 08:19:06.708254 31210 net.cpp:159] Memory required for data: 583257604
I1219 08:19:06.708259 31210 layer_factory.hpp:77] Creating layer inception_4d/pool_proj_BatchNorm
I1219 08:19:06.708266 31210 net.cpp:94] Creating Layer inception_4d/pool_proj_BatchNorm
I1219 08:19:06.708269 31210 net.cpp:435] inception_4d/pool_proj_BatchNorm <- inception_4d/pool_proj_raw
I1219 08:19:06.708274 31210 net.cpp:409] inception_4d/pool_proj_BatchNorm -> inception_4d/pool_proj
I1219 08:19:06.708668 31210 net.cpp:144] Setting up inception_4d/pool_proj_BatchNorm
I1219 08:19:06.708673 31210 net.cpp:151] Top shape: 1 64 30 60 (115200)
I1219 08:19:06.708678 31210 net.cpp:159] Memory required for data: 583718404
I1219 08:19:06.708685 31210 layer_factory.hpp:77] Creating layer inception_4d/relu_pool_proj
I1219 08:19:06.708690 31210 net.cpp:94] Creating Layer inception_4d/relu_pool_proj
I1219 08:19:06.708693 31210 net.cpp:435] inception_4d/relu_pool_proj <- inception_4d/pool_proj
I1219 08:19:06.708696 31210 net.cpp:396] inception_4d/relu_pool_proj -> inception_4d/pool_proj (in-place)
I1219 08:19:06.708701 31210 net.cpp:144] Setting up inception_4d/relu_pool_proj
I1219 08:19:06.708704 31210 net.cpp:151] Top shape: 1 64 30 60 (115200)
I1219 08:19:06.708709 31210 net.cpp:159] Memory required for data: 584179204
I1219 08:19:06.708711 31210 layer_factory.hpp:77] Creating layer inception_4d/output
I1219 08:19:06.708715 31210 net.cpp:94] Creating Layer inception_4d/output
I1219 08:19:06.708717 31210 net.cpp:435] inception_4d/output <- inception_4d/1x1
I1219 08:19:06.708720 31210 net.cpp:435] inception_4d/output <- inception_4d/3x3
I1219 08:19:06.708724 31210 net.cpp:435] inception_4d/output <- inception_4d/5x5
I1219 08:19:06.708726 31210 net.cpp:435] inception_4d/output <- inception_4d/pool_proj
I1219 08:19:06.708730 31210 net.cpp:409] inception_4d/output -> inception_4d/output
I1219 08:19:06.708746 31210 net.cpp:144] Setting up inception_4d/output
I1219 08:19:06.708750 31210 net.cpp:151] Top shape: 1 528 30 60 (950400)
I1219 08:19:06.708753 31210 net.cpp:159] Memory required for data: 587980804
I1219 08:19:06.708756 31210 layer_factory.hpp:77] Creating layer inception_4d/output_inception_4d/output_0_split
I1219 08:19:06.708760 31210 net.cpp:94] Creating Layer inception_4d/output_inception_4d/output_0_split
I1219 08:19:06.708763 31210 net.cpp:435] inception_4d/output_inception_4d/output_0_split <- inception_4d/output
I1219 08:19:06.708767 31210 net.cpp:409] inception_4d/output_inception_4d/output_0_split -> inception_4d/output_inception_4d/output_0_split_0
I1219 08:19:06.708772 31210 net.cpp:409] inception_4d/output_inception_4d/output_0_split -> inception_4d/output_inception_4d/output_0_split_1
I1219 08:19:06.708776 31210 net.cpp:409] inception_4d/output_inception_4d/output_0_split -> inception_4d/output_inception_4d/output_0_split_2
I1219 08:19:06.708782 31210 net.cpp:409] inception_4d/output_inception_4d/output_0_split -> inception_4d/output_inception_4d/output_0_split_3
I1219 08:19:06.708819 31210 net.cpp:144] Setting up inception_4d/output_inception_4d/output_0_split
I1219 08:19:06.708822 31210 net.cpp:151] Top shape: 1 528 30 60 (950400)
I1219 08:19:06.708827 31210 net.cpp:151] Top shape: 1 528 30 60 (950400)
I1219 08:19:06.708829 31210 net.cpp:151] Top shape: 1 528 30 60 (950400)
I1219 08:19:06.708833 31210 net.cpp:151] Top shape: 1 528 30 60 (950400)
I1219 08:19:06.708837 31210 net.cpp:159] Memory required for data: 603187204
I1219 08:19:06.708839 31210 layer_factory.hpp:77] Creating layer inception_4e/1x1
I1219 08:19:06.708847 31210 net.cpp:94] Creating Layer inception_4e/1x1
I1219 08:19:06.708851 31210 net.cpp:435] inception_4e/1x1 <- inception_4d/output_inception_4d/output_0_split_0
I1219 08:19:06.708856 31210 net.cpp:409] inception_4e/1x1 -> inception_4e/1x1_raw
I1219 08:19:06.710286 31210 net.cpp:144] Setting up inception_4e/1x1
I1219 08:19:06.710294 31210 net.cpp:151] Top shape: 1 256 30 60 (460800)
I1219 08:19:06.710299 31210 net.cpp:159] Memory required for data: 605030404
I1219 08:19:06.710304 31210 layer_factory.hpp:77] Creating layer inception_4e/1x1_BatchNorm
I1219 08:19:06.710310 31210 net.cpp:94] Creating Layer inception_4e/1x1_BatchNorm
I1219 08:19:06.710314 31210 net.cpp:435] inception_4e/1x1_BatchNorm <- inception_4e/1x1_raw
I1219 08:19:06.710319 31210 net.cpp:409] inception_4e/1x1_BatchNorm -> inception_4e/1x1
I1219 08:19:06.710671 31210 net.cpp:144] Setting up inception_4e/1x1_BatchNorm
I1219 08:19:06.710692 31210 net.cpp:151] Top shape: 1 256 30 60 (460800)
I1219 08:19:06.710697 31210 net.cpp:159] Memory required for data: 606873604
I1219 08:19:06.710705 31210 layer_factory.hpp:77] Creating layer inception_4e/relu_1x1
I1219 08:19:06.710711 31210 net.cpp:94] Creating Layer inception_4e/relu_1x1
I1219 08:19:06.710713 31210 net.cpp:435] inception_4e/relu_1x1 <- inception_4e/1x1
I1219 08:19:06.710716 31210 net.cpp:396] inception_4e/relu_1x1 -> inception_4e/1x1 (in-place)
I1219 08:19:06.710721 31210 net.cpp:144] Setting up inception_4e/relu_1x1
I1219 08:19:06.710726 31210 net.cpp:151] Top shape: 1 256 30 60 (460800)
I1219 08:19:06.710728 31210 net.cpp:159] Memory required for data: 608716804
I1219 08:19:06.710731 31210 layer_factory.hpp:77] Creating layer inception_4e/3x3_reduce
I1219 08:19:06.710737 31210 net.cpp:94] Creating Layer inception_4e/3x3_reduce
I1219 08:19:06.710741 31210 net.cpp:435] inception_4e/3x3_reduce <- inception_4d/output_inception_4d/output_0_split_1
I1219 08:19:06.710745 31210 net.cpp:409] inception_4e/3x3_reduce -> inception_4e/3x3_reduce_raw
I1219 08:19:06.711342 31210 net.cpp:144] Setting up inception_4e/3x3_reduce
I1219 08:19:06.711347 31210 net.cpp:151] Top shape: 1 160 30 60 (288000)
I1219 08:19:06.711351 31210 net.cpp:159] Memory required for data: 609868804
I1219 08:19:06.711356 31210 layer_factory.hpp:77] Creating layer inception_4e/3x3_reduce_BatchNorm
I1219 08:19:06.711362 31210 net.cpp:94] Creating Layer inception_4e/3x3_reduce_BatchNorm
I1219 08:19:06.711365 31210 net.cpp:435] inception_4e/3x3_reduce_BatchNorm <- inception_4e/3x3_reduce_raw
I1219 08:19:06.711370 31210 net.cpp:409] inception_4e/3x3_reduce_BatchNorm -> inception_4e/3x3_reduce
I1219 08:19:06.711758 31210 net.cpp:144] Setting up inception_4e/3x3_reduce_BatchNorm
I1219 08:19:06.711763 31210 net.cpp:151] Top shape: 1 160 30 60 (288000)
I1219 08:19:06.711767 31210 net.cpp:159] Memory required for data: 611020804
I1219 08:19:06.711774 31210 layer_factory.hpp:77] Creating layer inception_4e/relu_3x3_reduce
I1219 08:19:06.711779 31210 net.cpp:94] Creating Layer inception_4e/relu_3x3_reduce
I1219 08:19:06.711782 31210 net.cpp:435] inception_4e/relu_3x3_reduce <- inception_4e/3x3_reduce
I1219 08:19:06.711786 31210 net.cpp:396] inception_4e/relu_3x3_reduce -> inception_4e/3x3_reduce (in-place)
I1219 08:19:06.711791 31210 net.cpp:144] Setting up inception_4e/relu_3x3_reduce
I1219 08:19:06.711794 31210 net.cpp:151] Top shape: 1 160 30 60 (288000)
I1219 08:19:06.711797 31210 net.cpp:159] Memory required for data: 612172804
I1219 08:19:06.711800 31210 layer_factory.hpp:77] Creating layer inception_4e/3x3
I1219 08:19:06.711807 31210 net.cpp:94] Creating Layer inception_4e/3x3
I1219 08:19:06.711812 31210 net.cpp:435] inception_4e/3x3 <- inception_4e/3x3_reduce
I1219 08:19:06.711817 31210 net.cpp:409] inception_4e/3x3 -> inception_4e/3x3_raw
I1219 08:19:06.715385 31210 net.cpp:144] Setting up inception_4e/3x3
I1219 08:19:06.715394 31210 net.cpp:151] Top shape: 1 320 30 60 (576000)
I1219 08:19:06.715399 31210 net.cpp:159] Memory required for data: 614476804
I1219 08:19:06.715405 31210 layer_factory.hpp:77] Creating layer inception_4e/3x3_BatchNorm
I1219 08:19:06.715411 31210 net.cpp:94] Creating Layer inception_4e/3x3_BatchNorm
I1219 08:19:06.715415 31210 net.cpp:435] inception_4e/3x3_BatchNorm <- inception_4e/3x3_raw
I1219 08:19:06.715420 31210 net.cpp:409] inception_4e/3x3_BatchNorm -> inception_4e/3x3
I1219 08:19:06.715803 31210 net.cpp:144] Setting up inception_4e/3x3_BatchNorm
I1219 08:19:06.715808 31210 net.cpp:151] Top shape: 1 320 30 60 (576000)
I1219 08:19:06.715812 31210 net.cpp:159] Memory required for data: 616780804
I1219 08:19:06.715821 31210 layer_factory.hpp:77] Creating layer inception_4e/relu_3x3
I1219 08:19:06.715826 31210 net.cpp:94] Creating Layer inception_4e/relu_3x3
I1219 08:19:06.715828 31210 net.cpp:435] inception_4e/relu_3x3 <- inception_4e/3x3
I1219 08:19:06.715831 31210 net.cpp:396] inception_4e/relu_3x3 -> inception_4e/3x3 (in-place)
I1219 08:19:06.715837 31210 net.cpp:144] Setting up inception_4e/relu_3x3
I1219 08:19:06.715840 31210 net.cpp:151] Top shape: 1 320 30 60 (576000)
I1219 08:19:06.715843 31210 net.cpp:159] Memory required for data: 619084804
I1219 08:19:06.715847 31210 layer_factory.hpp:77] Creating layer inception_4e/5x5_reduce
I1219 08:19:06.715852 31210 net.cpp:94] Creating Layer inception_4e/5x5_reduce
I1219 08:19:06.715855 31210 net.cpp:435] inception_4e/5x5_reduce <- inception_4d/output_inception_4d/output_0_split_2
I1219 08:19:06.715860 31210 net.cpp:409] inception_4e/5x5_reduce -> inception_4e/5x5_reduce_raw
I1219 08:19:06.716101 31210 net.cpp:144] Setting up inception_4e/5x5_reduce
I1219 08:19:06.716105 31210 net.cpp:151] Top shape: 1 32 30 60 (57600)
I1219 08:19:06.716109 31210 net.cpp:159] Memory required for data: 619315204
I1219 08:19:06.716114 31210 layer_factory.hpp:77] Creating layer inception_4e/5x5_reduce_BatchNorm
I1219 08:19:06.716120 31210 net.cpp:94] Creating Layer inception_4e/5x5_reduce_BatchNorm
I1219 08:19:06.716123 31210 net.cpp:435] inception_4e/5x5_reduce_BatchNorm <- inception_4e/5x5_reduce_raw
I1219 08:19:06.716128 31210 net.cpp:409] inception_4e/5x5_reduce_BatchNorm -> inception_4e/5x5_reduce
I1219 08:19:06.716538 31210 net.cpp:144] Setting up inception_4e/5x5_reduce_BatchNorm
I1219 08:19:06.716544 31210 net.cpp:151] Top shape: 1 32 30 60 (57600)
I1219 08:19:06.716548 31210 net.cpp:159] Memory required for data: 619545604
I1219 08:19:06.716555 31210 layer_factory.hpp:77] Creating layer inception_4e/relu_5x5_reduce
I1219 08:19:06.716560 31210 net.cpp:94] Creating Layer inception_4e/relu_5x5_reduce
I1219 08:19:06.716562 31210 net.cpp:435] inception_4e/relu_5x5_reduce <- inception_4e/5x5_reduce
I1219 08:19:06.716567 31210 net.cpp:396] inception_4e/relu_5x5_reduce -> inception_4e/5x5_reduce (in-place)
I1219 08:19:06.716572 31210 net.cpp:144] Setting up inception_4e/relu_5x5_reduce
I1219 08:19:06.716574 31210 net.cpp:151] Top shape: 1 32 30 60 (57600)
I1219 08:19:06.716578 31210 net.cpp:159] Memory required for data: 619776004
I1219 08:19:06.716581 31210 layer_factory.hpp:77] Creating layer inception_4e/5x5
I1219 08:19:06.716588 31210 net.cpp:94] Creating Layer inception_4e/5x5
I1219 08:19:06.716590 31210 net.cpp:435] inception_4e/5x5 <- inception_4e/5x5_reduce
I1219 08:19:06.716595 31210 net.cpp:409] inception_4e/5x5 -> inception_4e/5x5_raw
I1219 08:19:06.717291 31210 net.cpp:144] Setting up inception_4e/5x5
I1219 08:19:06.717295 31210 net.cpp:151] Top shape: 1 128 30 60 (230400)
I1219 08:19:06.717299 31210 net.cpp:159] Memory required for data: 620697604
I1219 08:19:06.717304 31210 layer_factory.hpp:77] Creating layer inception_4e/5x5_BatchNorm
I1219 08:19:06.717310 31210 net.cpp:94] Creating Layer inception_4e/5x5_BatchNorm
I1219 08:19:06.717314 31210 net.cpp:435] inception_4e/5x5_BatchNorm <- inception_4e/5x5_raw
I1219 08:19:06.717319 31210 net.cpp:409] inception_4e/5x5_BatchNorm -> inception_4e/5x5
I1219 08:19:06.717658 31210 net.cpp:144] Setting up inception_4e/5x5_BatchNorm
I1219 08:19:06.717662 31210 net.cpp:151] Top shape: 1 128 30 60 (230400)
I1219 08:19:06.717666 31210 net.cpp:159] Memory required for data: 621619204
I1219 08:19:06.717674 31210 layer_factory.hpp:77] Creating layer inception_4e/relu_5x5
I1219 08:19:06.717679 31210 net.cpp:94] Creating Layer inception_4e/relu_5x5
I1219 08:19:06.717681 31210 net.cpp:435] inception_4e/relu_5x5 <- inception_4e/5x5
I1219 08:19:06.717685 31210 net.cpp:396] inception_4e/relu_5x5 -> inception_4e/5x5 (in-place)
I1219 08:19:06.717691 31210 net.cpp:144] Setting up inception_4e/relu_5x5
I1219 08:19:06.717695 31210 net.cpp:151] Top shape: 1 128 30 60 (230400)
I1219 08:19:06.717700 31210 net.cpp:159] Memory required for data: 622540804
I1219 08:19:06.717701 31210 layer_factory.hpp:77] Creating layer inception_4e/pool
I1219 08:19:06.717706 31210 net.cpp:94] Creating Layer inception_4e/pool
I1219 08:19:06.717710 31210 net.cpp:435] inception_4e/pool <- inception_4d/output_inception_4d/output_0_split_3
I1219 08:19:06.717715 31210 net.cpp:409] inception_4e/pool -> inception_4e/pool
I1219 08:19:06.717746 31210 net.cpp:144] Setting up inception_4e/pool
I1219 08:19:06.717748 31210 net.cpp:151] Top shape: 1 528 30 60 (950400)
I1219 08:19:06.717752 31210 net.cpp:159] Memory required for data: 626342404
I1219 08:19:06.717754 31210 layer_factory.hpp:77] Creating layer inception_4e/pool_proj
I1219 08:19:06.717761 31210 net.cpp:94] Creating Layer inception_4e/pool_proj
I1219 08:19:06.717764 31210 net.cpp:435] inception_4e/pool_proj <- inception_4e/pool
I1219 08:19:06.717768 31210 net.cpp:409] inception_4e/pool_proj -> inception_4e/pool_proj_raw
I1219 08:19:06.718850 31210 net.cpp:144] Setting up inception_4e/pool_proj
I1219 08:19:06.718859 31210 net.cpp:151] Top shape: 1 128 30 60 (230400)
I1219 08:19:06.718866 31210 net.cpp:159] Memory required for data: 627264004
I1219 08:19:06.718873 31210 layer_factory.hpp:77] Creating layer inception_4e/pool_proj_BatchNorm
I1219 08:19:06.718880 31210 net.cpp:94] Creating Layer inception_4e/pool_proj_BatchNorm
I1219 08:19:06.718886 31210 net.cpp:435] inception_4e/pool_proj_BatchNorm <- inception_4e/pool_proj_raw
I1219 08:19:06.718892 31210 net.cpp:409] inception_4e/pool_proj_BatchNorm -> inception_4e/pool_proj
I1219 08:19:06.719242 31210 net.cpp:144] Setting up inception_4e/pool_proj_BatchNorm
I1219 08:19:06.719247 31210 net.cpp:151] Top shape: 1 128 30 60 (230400)
I1219 08:19:06.719251 31210 net.cpp:159] Memory required for data: 628185604
I1219 08:19:06.719259 31210 layer_factory.hpp:77] Creating layer inception_4e/relu_pool_proj
I1219 08:19:06.719264 31210 net.cpp:94] Creating Layer inception_4e/relu_pool_proj
I1219 08:19:06.719267 31210 net.cpp:435] inception_4e/relu_pool_proj <- inception_4e/pool_proj
I1219 08:19:06.719271 31210 net.cpp:396] inception_4e/relu_pool_proj -> inception_4e/pool_proj (in-place)
I1219 08:19:06.719276 31210 net.cpp:144] Setting up inception_4e/relu_pool_proj
I1219 08:19:06.719280 31210 net.cpp:151] Top shape: 1 128 30 60 (230400)
I1219 08:19:06.719283 31210 net.cpp:159] Memory required for data: 629107204
I1219 08:19:06.719286 31210 layer_factory.hpp:77] Creating layer inception_4e/output
I1219 08:19:06.719290 31210 net.cpp:94] Creating Layer inception_4e/output
I1219 08:19:06.719292 31210 net.cpp:435] inception_4e/output <- inception_4e/1x1
I1219 08:19:06.719295 31210 net.cpp:435] inception_4e/output <- inception_4e/3x3
I1219 08:19:06.719298 31210 net.cpp:435] inception_4e/output <- inception_4e/5x5
I1219 08:19:06.719301 31210 net.cpp:435] inception_4e/output <- inception_4e/pool_proj
I1219 08:19:06.719305 31210 net.cpp:409] inception_4e/output -> inception_4e/output
I1219 08:19:06.719321 31210 net.cpp:144] Setting up inception_4e/output
I1219 08:19:06.719324 31210 net.cpp:151] Top shape: 1 832 30 60 (1497600)
I1219 08:19:06.719327 31210 net.cpp:159] Memory required for data: 635097604
I1219 08:19:06.719331 31210 layer_factory.hpp:77] Creating layer inception_4e/output_inception_4e/output_0_split
I1219 08:19:06.719334 31210 net.cpp:94] Creating Layer inception_4e/output_inception_4e/output_0_split
I1219 08:19:06.719341 31210 net.cpp:435] inception_4e/output_inception_4e/output_0_split <- inception_4e/output
I1219 08:19:06.719343 31210 net.cpp:409] inception_4e/output_inception_4e/output_0_split -> inception_4e/output_inception_4e/output_0_split_0
I1219 08:19:06.719348 31210 net.cpp:409] inception_4e/output_inception_4e/output_0_split -> inception_4e/output_inception_4e/output_0_split_1
I1219 08:19:06.719372 31210 net.cpp:144] Setting up inception_4e/output_inception_4e/output_0_split
I1219 08:19:06.719374 31210 net.cpp:151] Top shape: 1 832 30 60 (1497600)
I1219 08:19:06.719378 31210 net.cpp:151] Top shape: 1 832 30 60 (1497600)
I1219 08:19:06.719381 31210 net.cpp:159] Memory required for data: 647078404
I1219 08:19:06.719384 31210 layer_factory.hpp:77] Creating layer pool4/3x3_s2
I1219 08:19:06.719388 31210 net.cpp:94] Creating Layer pool4/3x3_s2
I1219 08:19:06.719391 31210 net.cpp:435] pool4/3x3_s2 <- inception_4e/output_inception_4e/output_0_split_0
I1219 08:19:06.719395 31210 net.cpp:409] pool4/3x3_s2 -> pool4/3x3_s2
I1219 08:19:06.719416 31210 net.cpp:144] Setting up pool4/3x3_s2
I1219 08:19:06.719420 31210 net.cpp:151] Top shape: 1 832 15 30 (374400)
I1219 08:19:06.719424 31210 net.cpp:159] Memory required for data: 648576004
I1219 08:19:06.719426 31210 layer_factory.hpp:77] Creating layer pool4/3x3_s2_pool4/3x3_s2_0_split
I1219 08:19:06.719430 31210 net.cpp:94] Creating Layer pool4/3x3_s2_pool4/3x3_s2_0_split
I1219 08:19:06.719434 31210 net.cpp:435] pool4/3x3_s2_pool4/3x3_s2_0_split <- pool4/3x3_s2
I1219 08:19:06.719437 31210 net.cpp:409] pool4/3x3_s2_pool4/3x3_s2_0_split -> pool4/3x3_s2_pool4/3x3_s2_0_split_0
I1219 08:19:06.719441 31210 net.cpp:409] pool4/3x3_s2_pool4/3x3_s2_0_split -> pool4/3x3_s2_pool4/3x3_s2_0_split_1
I1219 08:19:06.719449 31210 net.cpp:409] pool4/3x3_s2_pool4/3x3_s2_0_split -> pool4/3x3_s2_pool4/3x3_s2_0_split_2
I1219 08:19:06.719455 31210 net.cpp:409] pool4/3x3_s2_pool4/3x3_s2_0_split -> pool4/3x3_s2_pool4/3x3_s2_0_split_3
I1219 08:19:06.719506 31210 net.cpp:144] Setting up pool4/3x3_s2_pool4/3x3_s2_0_split
I1219 08:19:06.719516 31210 net.cpp:151] Top shape: 1 832 15 30 (374400)
I1219 08:19:06.719519 31210 net.cpp:151] Top shape: 1 832 15 30 (374400)
I1219 08:19:06.719523 31210 net.cpp:151] Top shape: 1 832 15 30 (374400)
I1219 08:19:06.719527 31210 net.cpp:151] Top shape: 1 832 15 30 (374400)
I1219 08:19:06.719529 31210 net.cpp:159] Memory required for data: 654566404
I1219 08:19:06.719532 31210 layer_factory.hpp:77] Creating layer inception_5a/1x1
I1219 08:19:06.719539 31210 net.cpp:94] Creating Layer inception_5a/1x1
I1219 08:19:06.719542 31210 net.cpp:435] inception_5a/1x1 <- pool4/3x3_s2_pool4/3x3_s2_0_split_0
I1219 08:19:06.719547 31210 net.cpp:409] inception_5a/1x1 -> inception_5a/1x1_raw
I1219 08:19:06.721429 31210 net.cpp:144] Setting up inception_5a/1x1
I1219 08:19:06.721439 31210 net.cpp:151] Top shape: 1 256 15 30 (115200)
I1219 08:19:06.721443 31210 net.cpp:159] Memory required for data: 655027204
I1219 08:19:06.721448 31210 layer_factory.hpp:77] Creating layer inception_5a/1x1_BatchNorm
I1219 08:19:06.721457 31210 net.cpp:94] Creating Layer inception_5a/1x1_BatchNorm
I1219 08:19:06.721463 31210 net.cpp:435] inception_5a/1x1_BatchNorm <- inception_5a/1x1_raw
I1219 08:19:06.721469 31210 net.cpp:409] inception_5a/1x1_BatchNorm -> inception_5a/1x1
I1219 08:19:06.721906 31210 net.cpp:144] Setting up inception_5a/1x1_BatchNorm
I1219 08:19:06.721916 31210 net.cpp:151] Top shape: 1 256 15 30 (115200)
I1219 08:19:06.721923 31210 net.cpp:159] Memory required for data: 655488004
I1219 08:19:06.721932 31210 layer_factory.hpp:77] Creating layer inception_5a/relu_1x1
I1219 08:19:06.721940 31210 net.cpp:94] Creating Layer inception_5a/relu_1x1
I1219 08:19:06.721942 31210 net.cpp:435] inception_5a/relu_1x1 <- inception_5a/1x1
I1219 08:19:06.721946 31210 net.cpp:396] inception_5a/relu_1x1 -> inception_5a/1x1 (in-place)
I1219 08:19:06.721951 31210 net.cpp:144] Setting up inception_5a/relu_1x1
I1219 08:19:06.721953 31210 net.cpp:151] Top shape: 1 256 15 30 (115200)
I1219 08:19:06.721957 31210 net.cpp:159] Memory required for data: 655948804
I1219 08:19:06.721961 31210 layer_factory.hpp:77] Creating layer inception_5a/3x3_reduce
I1219 08:19:06.721966 31210 net.cpp:94] Creating Layer inception_5a/3x3_reduce
I1219 08:19:06.721972 31210 net.cpp:435] inception_5a/3x3_reduce <- pool4/3x3_s2_pool4/3x3_s2_0_split_1
I1219 08:19:06.721977 31210 net.cpp:409] inception_5a/3x3_reduce -> inception_5a/3x3_reduce_raw
I1219 08:19:06.722893 31210 net.cpp:144] Setting up inception_5a/3x3_reduce
I1219 08:19:06.722900 31210 net.cpp:151] Top shape: 1 160 15 30 (72000)
I1219 08:19:06.722908 31210 net.cpp:159] Memory required for data: 656236804
I1219 08:19:06.722914 31210 layer_factory.hpp:77] Creating layer inception_5a/3x3_reduce_BatchNorm
I1219 08:19:06.722921 31210 net.cpp:94] Creating Layer inception_5a/3x3_reduce_BatchNorm
I1219 08:19:06.722927 31210 net.cpp:435] inception_5a/3x3_reduce_BatchNorm <- inception_5a/3x3_reduce_raw
I1219 08:19:06.722932 31210 net.cpp:409] inception_5a/3x3_reduce_BatchNorm -> inception_5a/3x3_reduce
I1219 08:19:06.723333 31210 net.cpp:144] Setting up inception_5a/3x3_reduce_BatchNorm
I1219 08:19:06.723338 31210 net.cpp:151] Top shape: 1 160 15 30 (72000)
I1219 08:19:06.723342 31210 net.cpp:159] Memory required for data: 656524804
I1219 08:19:06.723351 31210 layer_factory.hpp:77] Creating layer inception_5a/relu_3x3_reduce
I1219 08:19:06.723354 31210 net.cpp:94] Creating Layer inception_5a/relu_3x3_reduce
I1219 08:19:06.723357 31210 net.cpp:435] inception_5a/relu_3x3_reduce <- inception_5a/3x3_reduce
I1219 08:19:06.723361 31210 net.cpp:396] inception_5a/relu_3x3_reduce -> inception_5a/3x3_reduce (in-place)
I1219 08:19:06.723368 31210 net.cpp:144] Setting up inception_5a/relu_3x3_reduce
I1219 08:19:06.723371 31210 net.cpp:151] Top shape: 1 160 15 30 (72000)
I1219 08:19:06.723376 31210 net.cpp:159] Memory required for data: 656812804
I1219 08:19:06.723377 31210 layer_factory.hpp:77] Creating layer inception_5a/3x3
I1219 08:19:06.723383 31210 net.cpp:94] Creating Layer inception_5a/3x3
I1219 08:19:06.723387 31210 net.cpp:435] inception_5a/3x3 <- inception_5a/3x3_reduce
I1219 08:19:06.723392 31210 net.cpp:409] inception_5a/3x3 -> inception_5a/3x3_raw
I1219 08:19:06.727183 31210 net.cpp:144] Setting up inception_5a/3x3
I1219 08:19:06.727196 31210 net.cpp:151] Top shape: 1 320 15 30 (144000)
I1219 08:19:06.727205 31210 net.cpp:159] Memory required for data: 657388804
I1219 08:19:06.727212 31210 layer_factory.hpp:77] Creating layer inception_5a/3x3_BatchNorm
I1219 08:19:06.727222 31210 net.cpp:94] Creating Layer inception_5a/3x3_BatchNorm
I1219 08:19:06.727228 31210 net.cpp:435] inception_5a/3x3_BatchNorm <- inception_5a/3x3_raw
I1219 08:19:06.727234 31210 net.cpp:409] inception_5a/3x3_BatchNorm -> inception_5a/3x3
I1219 08:19:06.727702 31210 net.cpp:144] Setting up inception_5a/3x3_BatchNorm
I1219 08:19:06.727707 31210 net.cpp:151] Top shape: 1 320 15 30 (144000)
I1219 08:19:06.727711 31210 net.cpp:159] Memory required for data: 657964804
I1219 08:19:06.727720 31210 layer_factory.hpp:77] Creating layer inception_5a/relu_3x3
I1219 08:19:06.727725 31210 net.cpp:94] Creating Layer inception_5a/relu_3x3
I1219 08:19:06.727730 31210 net.cpp:435] inception_5a/relu_3x3 <- inception_5a/3x3
I1219 08:19:06.727732 31210 net.cpp:396] inception_5a/relu_3x3 -> inception_5a/3x3 (in-place)
I1219 08:19:06.727738 31210 net.cpp:144] Setting up inception_5a/relu_3x3
I1219 08:19:06.727741 31210 net.cpp:151] Top shape: 1 320 15 30 (144000)
I1219 08:19:06.727746 31210 net.cpp:159] Memory required for data: 658540804
I1219 08:19:06.727748 31210 layer_factory.hpp:77] Creating layer inception_5a/5x5_reduce
I1219 08:19:06.727754 31210 net.cpp:94] Creating Layer inception_5a/5x5_reduce
I1219 08:19:06.727758 31210 net.cpp:435] inception_5a/5x5_reduce <- pool4/3x3_s2_pool4/3x3_s2_0_split_2
I1219 08:19:06.727762 31210 net.cpp:409] inception_5a/5x5_reduce -> inception_5a/5x5_reduce_raw
I1219 08:19:06.728091 31210 net.cpp:144] Setting up inception_5a/5x5_reduce
I1219 08:19:06.728094 31210 net.cpp:151] Top shape: 1 32 15 30 (14400)
I1219 08:19:06.728098 31210 net.cpp:159] Memory required for data: 658598404
I1219 08:19:06.728103 31210 layer_factory.hpp:77] Creating layer inception_5a/5x5_reduce_BatchNorm
I1219 08:19:06.728109 31210 net.cpp:94] Creating Layer inception_5a/5x5_reduce_BatchNorm
I1219 08:19:06.728113 31210 net.cpp:435] inception_5a/5x5_reduce_BatchNorm <- inception_5a/5x5_reduce_raw
I1219 08:19:06.728118 31210 net.cpp:409] inception_5a/5x5_reduce_BatchNorm -> inception_5a/5x5_reduce
I1219 08:19:06.728575 31210 net.cpp:144] Setting up inception_5a/5x5_reduce_BatchNorm
I1219 08:19:06.728579 31210 net.cpp:151] Top shape: 1 32 15 30 (14400)
I1219 08:19:06.728583 31210 net.cpp:159] Memory required for data: 658656004
I1219 08:19:06.728591 31210 layer_factory.hpp:77] Creating layer inception_5a/relu_5x5_reduce
I1219 08:19:06.728595 31210 net.cpp:94] Creating Layer inception_5a/relu_5x5_reduce
I1219 08:19:06.728600 31210 net.cpp:435] inception_5a/relu_5x5_reduce <- inception_5a/5x5_reduce
I1219 08:19:06.728603 31210 net.cpp:396] inception_5a/relu_5x5_reduce -> inception_5a/5x5_reduce (in-place)
I1219 08:19:06.728608 31210 net.cpp:144] Setting up inception_5a/relu_5x5_reduce
I1219 08:19:06.728612 31210 net.cpp:151] Top shape: 1 32 15 30 (14400)
I1219 08:19:06.728615 31210 net.cpp:159] Memory required for data: 658713604
I1219 08:19:06.728618 31210 layer_factory.hpp:77] Creating layer inception_5a/5x5
I1219 08:19:06.728626 31210 net.cpp:94] Creating Layer inception_5a/5x5
I1219 08:19:06.728628 31210 net.cpp:435] inception_5a/5x5 <- inception_5a/5x5_reduce
I1219 08:19:06.728633 31210 net.cpp:409] inception_5a/5x5 -> inception_5a/5x5_raw
I1219 08:19:06.729872 31210 net.cpp:144] Setting up inception_5a/5x5
I1219 08:19:06.729878 31210 net.cpp:151] Top shape: 1 128 15 30 (57600)
I1219 08:19:06.729882 31210 net.cpp:159] Memory required for data: 658944004
I1219 08:19:06.729888 31210 layer_factory.hpp:77] Creating layer inception_5a/5x5_BatchNorm
I1219 08:19:06.729894 31210 net.cpp:94] Creating Layer inception_5a/5x5_BatchNorm
I1219 08:19:06.729899 31210 net.cpp:435] inception_5a/5x5_BatchNorm <- inception_5a/5x5_raw
I1219 08:19:06.729904 31210 net.cpp:409] inception_5a/5x5_BatchNorm -> inception_5a/5x5
I1219 08:19:06.730253 31210 net.cpp:144] Setting up inception_5a/5x5_BatchNorm
I1219 08:19:06.730258 31210 net.cpp:151] Top shape: 1 128 15 30 (57600)
I1219 08:19:06.730262 31210 net.cpp:159] Memory required for data: 659174404
I1219 08:19:06.730270 31210 layer_factory.hpp:77] Creating layer inception_5a/relu_5x5
I1219 08:19:06.730274 31210 net.cpp:94] Creating Layer inception_5a/relu_5x5
I1219 08:19:06.730278 31210 net.cpp:435] inception_5a/relu_5x5 <- inception_5a/5x5
I1219 08:19:06.730281 31210 net.cpp:396] inception_5a/relu_5x5 -> inception_5a/5x5 (in-place)
I1219 08:19:06.730286 31210 net.cpp:144] Setting up inception_5a/relu_5x5
I1219 08:19:06.730289 31210 net.cpp:151] Top shape: 1 128 15 30 (57600)
I1219 08:19:06.730293 31210 net.cpp:159] Memory required for data: 659404804
I1219 08:19:06.730295 31210 layer_factory.hpp:77] Creating layer inception_5a/pool
I1219 08:19:06.730301 31210 net.cpp:94] Creating Layer inception_5a/pool
I1219 08:19:06.730305 31210 net.cpp:435] inception_5a/pool <- pool4/3x3_s2_pool4/3x3_s2_0_split_3
I1219 08:19:06.730309 31210 net.cpp:409] inception_5a/pool -> inception_5a/pool
I1219 08:19:06.730334 31210 net.cpp:144] Setting up inception_5a/pool
I1219 08:19:06.730338 31210 net.cpp:151] Top shape: 1 832 15 30 (374400)
I1219 08:19:06.730342 31210 net.cpp:159] Memory required for data: 660902404
I1219 08:19:06.730345 31210 layer_factory.hpp:77] Creating layer inception_5a/pool_proj
I1219 08:19:06.730350 31210 net.cpp:94] Creating Layer inception_5a/pool_proj
I1219 08:19:06.730355 31210 net.cpp:435] inception_5a/pool_proj <- inception_5a/pool
I1219 08:19:06.730358 31210 net.cpp:409] inception_5a/pool_proj -> inception_5a/pool_proj_raw
I1219 08:19:06.731061 31210 net.cpp:144] Setting up inception_5a/pool_proj
I1219 08:19:06.731067 31210 net.cpp:151] Top shape: 1 128 15 30 (57600)
I1219 08:19:06.731071 31210 net.cpp:159] Memory required for data: 661132804
I1219 08:19:06.731076 31210 layer_factory.hpp:77] Creating layer inception_5a/pool_proj_BatchNorm
I1219 08:19:06.731081 31210 net.cpp:94] Creating Layer inception_5a/pool_proj_BatchNorm
I1219 08:19:06.731084 31210 net.cpp:435] inception_5a/pool_proj_BatchNorm <- inception_5a/pool_proj_raw
I1219 08:19:06.731088 31210 net.cpp:409] inception_5a/pool_proj_BatchNorm -> inception_5a/pool_proj
I1219 08:19:06.731421 31210 net.cpp:144] Setting up inception_5a/pool_proj_BatchNorm
I1219 08:19:06.731426 31210 net.cpp:151] Top shape: 1 128 15 30 (57600)
I1219 08:19:06.731429 31210 net.cpp:159] Memory required for data: 661363204
I1219 08:19:06.731437 31210 layer_factory.hpp:77] Creating layer inception_5a/relu_pool_proj
I1219 08:19:06.731442 31210 net.cpp:94] Creating Layer inception_5a/relu_pool_proj
I1219 08:19:06.731446 31210 net.cpp:435] inception_5a/relu_pool_proj <- inception_5a/pool_proj
I1219 08:19:06.731451 31210 net.cpp:396] inception_5a/relu_pool_proj -> inception_5a/pool_proj (in-place)
I1219 08:19:06.731456 31210 net.cpp:144] Setting up inception_5a/relu_pool_proj
I1219 08:19:06.731458 31210 net.cpp:151] Top shape: 1 128 15 30 (57600)
I1219 08:19:06.731462 31210 net.cpp:159] Memory required for data: 661593604
I1219 08:19:06.731465 31210 layer_factory.hpp:77] Creating layer inception_5a/output
I1219 08:19:06.731469 31210 net.cpp:94] Creating Layer inception_5a/output
I1219 08:19:06.731472 31210 net.cpp:435] inception_5a/output <- inception_5a/1x1
I1219 08:19:06.731475 31210 net.cpp:435] inception_5a/output <- inception_5a/3x3
I1219 08:19:06.731478 31210 net.cpp:435] inception_5a/output <- inception_5a/5x5
I1219 08:19:06.731482 31210 net.cpp:435] inception_5a/output <- inception_5a/pool_proj
I1219 08:19:06.731484 31210 net.cpp:409] inception_5a/output -> inception_5a/output
I1219 08:19:06.731501 31210 net.cpp:144] Setting up inception_5a/output
I1219 08:19:06.731504 31210 net.cpp:151] Top shape: 1 832 15 30 (374400)
I1219 08:19:06.731508 31210 net.cpp:159] Memory required for data: 663091204
I1219 08:19:06.731511 31210 layer_factory.hpp:77] Creating layer inception_5a/output_inception_5a/output_0_split
I1219 08:19:06.731515 31210 net.cpp:94] Creating Layer inception_5a/output_inception_5a/output_0_split
I1219 08:19:06.731518 31210 net.cpp:435] inception_5a/output_inception_5a/output_0_split <- inception_5a/output
I1219 08:19:06.731523 31210 net.cpp:409] inception_5a/output_inception_5a/output_0_split -> inception_5a/output_inception_5a/output_0_split_0
I1219 08:19:06.731528 31210 net.cpp:409] inception_5a/output_inception_5a/output_0_split -> inception_5a/output_inception_5a/output_0_split_1
I1219 08:19:06.731532 31210 net.cpp:409] inception_5a/output_inception_5a/output_0_split -> inception_5a/output_inception_5a/output_0_split_2
I1219 08:19:06.731536 31210 net.cpp:409] inception_5a/output_inception_5a/output_0_split -> inception_5a/output_inception_5a/output_0_split_3
I1219 08:19:06.731573 31210 net.cpp:144] Setting up inception_5a/output_inception_5a/output_0_split
I1219 08:19:06.731577 31210 net.cpp:151] Top shape: 1 832 15 30 (374400)
I1219 08:19:06.731581 31210 net.cpp:151] Top shape: 1 832 15 30 (374400)
I1219 08:19:06.731585 31210 net.cpp:151] Top shape: 1 832 15 30 (374400)
I1219 08:19:06.731590 31210 net.cpp:151] Top shape: 1 832 15 30 (374400)
I1219 08:19:06.731595 31210 net.cpp:159] Memory required for data: 669081604
I1219 08:19:06.731597 31210 layer_factory.hpp:77] Creating layer inception_5b/1x1
I1219 08:19:06.731603 31210 net.cpp:94] Creating Layer inception_5b/1x1
I1219 08:19:06.731607 31210 net.cpp:435] inception_5b/1x1 <- inception_5a/output_inception_5a/output_0_split_0
I1219 08:19:06.731612 31210 net.cpp:409] inception_5b/1x1 -> inception_5b/1x1_raw
I1219 08:19:06.734406 31210 net.cpp:144] Setting up inception_5b/1x1
I1219 08:19:06.734414 31210 net.cpp:151] Top shape: 1 384 15 30 (172800)
I1219 08:19:06.734418 31210 net.cpp:159] Memory required for data: 669772804
I1219 08:19:06.734423 31210 layer_factory.hpp:77] Creating layer inception_5b/1x1_BatchNorm
I1219 08:19:06.734429 31210 net.cpp:94] Creating Layer inception_5b/1x1_BatchNorm
I1219 08:19:06.734432 31210 net.cpp:435] inception_5b/1x1_BatchNorm <- inception_5b/1x1_raw
I1219 08:19:06.734437 31210 net.cpp:409] inception_5b/1x1_BatchNorm -> inception_5b/1x1
I1219 08:19:06.734818 31210 net.cpp:144] Setting up inception_5b/1x1_BatchNorm
I1219 08:19:06.734827 31210 net.cpp:151] Top shape: 1 384 15 30 (172800)
I1219 08:19:06.734833 31210 net.cpp:159] Memory required for data: 670464004
I1219 08:19:06.734843 31210 layer_factory.hpp:77] Creating layer inception_5b/relu_1x1
I1219 08:19:06.734850 31210 net.cpp:94] Creating Layer inception_5b/relu_1x1
I1219 08:19:06.734853 31210 net.cpp:435] inception_5b/relu_1x1 <- inception_5b/1x1
I1219 08:19:06.734859 31210 net.cpp:396] inception_5b/relu_1x1 -> inception_5b/1x1 (in-place)
I1219 08:19:06.734864 31210 net.cpp:144] Setting up inception_5b/relu_1x1
I1219 08:19:06.734869 31210 net.cpp:151] Top shape: 1 384 15 30 (172800)
I1219 08:19:06.734871 31210 net.cpp:159] Memory required for data: 671155204
I1219 08:19:06.734874 31210 layer_factory.hpp:77] Creating layer inception_5b/3x3_reduce
I1219 08:19:06.734880 31210 net.cpp:94] Creating Layer inception_5b/3x3_reduce
I1219 08:19:06.734884 31210 net.cpp:435] inception_5b/3x3_reduce <- inception_5a/output_inception_5a/output_0_split_1
I1219 08:19:06.734889 31210 net.cpp:409] inception_5b/3x3_reduce -> inception_5b/3x3_reduce_raw
I1219 08:19:06.735877 31210 net.cpp:144] Setting up inception_5b/3x3_reduce
I1219 08:19:06.735882 31210 net.cpp:151] Top shape: 1 192 15 30 (86400)
…
I1219 08:20:00.922338 31210 layer_factory.hpp:77] Creating layer inception_4e/3x3_reduce
I1219 08:20:00.922345 31210 net.cpp:94] Creating Layer inception_4e/3x3_reduce
I1219 08:20:00.922348 31210 net.cpp:435] inception_4e/3x3_reduce <- inception_4d/output_inception_4d/output_fixed_0_split_1
I1219 08:20:00.922351 31210 net.cpp:409] inception_4e/3x3_reduce -> inception_4e/3x3_reduce
I1219 08:20:00.922920 31210 layer_factory.hpp:77] Creating layer inception_4e/3x3_reduce
I1219 08:20:00.924171 31210 net.cpp:144] Setting up inception_4e/3x3_reduce
I1219 08:20:00.924177 31210 net.cpp:151] Top shape: 1 160 30 60 (288000)
I1219 08:20:00.924181 31210 net.cpp:159] Memory required for data: 629103616
I1219 08:20:00.924186 31210 layer_factory.hpp:77] Creating layer inception_4e/relu_3x3_reduce
I1219 08:20:00.924190 31210 net.cpp:94] Creating Layer inception_4e/relu_3x3_reduce
I1219 08:20:00.924193 31210 net.cpp:435] inception_4e/relu_3x3_reduce <- inception_4e/3x3_reduce
I1219 08:20:00.924197 31210 net.cpp:396] inception_4e/relu_3x3_reduce -> inception_4e/3x3_reduce (in-place)
I1219 08:20:00.924202 31210 net.cpp:144] Setting up inception_4e/relu_3x3_reduce
I1219 08:20:00.924204 31210 net.cpp:151] Top shape: 1 160 30 60 (288000)
I1219 08:20:00.924207 31210 net.cpp:159] Memory required for data: 630255616
I1219 08:20:00.924211 31210 layer_factory.hpp:77] Creating layer inception_4e/3x3_reduce_fixed
I1219 08:20:00.924214 31210 net.cpp:94] Creating Layer inception_4e/3x3_reduce_fixed
I1219 08:20:00.924216 31210 net.cpp:435] inception_4e/3x3_reduce_fixed <- inception_4e/3x3_reduce
I1219 08:20:00.924219 31210 net.cpp:396] inception_4e/3x3_reduce_fixed -> inception_4e/3x3_reduce (in-place)
I1219 08:20:00.924242 31210 net.cpp:144] Setting up inception_4e/3x3_reduce_fixed
I1219 08:20:00.924244 31210 net.cpp:151] Top shape: 1 160 30 60 (288000)
I1219 08:20:00.924247 31210 net.cpp:159] Memory required for data: 631407616
I1219 08:20:00.924249 31210 layer_factory.hpp:77] Creating layer inception_4e/3x3
I1219 08:20:00.924253 31210 net.cpp:94] Creating Layer inception_4e/3x3
I1219 08:20:00.924255 31210 net.cpp:435] inception_4e/3x3 <- inception_4e/3x3_reduce
I1219 08:20:00.924259 31210 net.cpp:409] inception_4e/3x3 -> inception_4e/3x3
I1219 08:20:00.927852 31210 layer_factory.hpp:77] Creating layer inception_4e/3x3
I1219 08:20:00.931588 31210 net.cpp:144] Setting up inception_4e/3x3
I1219 08:20:00.931596 31210 net.cpp:151] Top shape: 1 320 30 60 (576000)
I1219 08:20:00.931602 31210 net.cpp:159] Memory required for data: 633711616
I1219 08:20:00.931609 31210 layer_factory.hpp:77] Creating layer inception_4e/relu_3x3
I1219 08:20:00.931615 31210 net.cpp:94] Creating Layer inception_4e/relu_3x3
I1219 08:20:00.931620 31210 net.cpp:435] inception_4e/relu_3x3 <- inception_4e/3x3
I1219 08:20:00.931627 31210 net.cpp:396] inception_4e/relu_3x3 -> inception_4e/3x3 (in-place)
I1219 08:20:00.931633 31210 net.cpp:144] Setting up inception_4e/relu_3x3
I1219 08:20:00.931636 31210 net.cpp:151] Top shape: 1 320 30 60 (576000)
I1219 08:20:00.931640 31210 net.cpp:159] Memory required for data: 636015616
I1219 08:20:00.931643 31210 layer_factory.hpp:77] Creating layer inception_4e/5x5_reduce
I1219 08:20:00.931649 31210 net.cpp:94] Creating Layer inception_4e/5x5_reduce
I1219 08:20:00.931653 31210 net.cpp:435] inception_4e/5x5_reduce <- inception_4d/output_inception_4d/output_fixed_0_split_2
I1219 08:20:00.931655 31210 net.cpp:409] inception_4e/5x5_reduce -> inception_4e/5x5_reduce
I1219 08:20:00.931875 31210 layer_factory.hpp:77] Creating layer inception_4e/5x5_reduce
I1219 08:20:00.932168 31210 net.cpp:144] Setting up inception_4e/5x5_reduce
I1219 08:20:00.932173 31210 net.cpp:151] Top shape: 1 32 30 60 (57600)
I1219 08:20:00.932176 31210 net.cpp:159] Memory required for data: 636246016
I1219 08:20:00.932180 31210 layer_factory.hpp:77] Creating layer inception_4e/relu_5x5_reduce
I1219 08:20:00.932185 31210 net.cpp:94] Creating Layer inception_4e/relu_5x5_reduce
I1219 08:20:00.932188 31210 net.cpp:435] inception_4e/relu_5x5_reduce <- inception_4e/5x5_reduce
I1219 08:20:00.932190 31210 net.cpp:396] inception_4e/relu_5x5_reduce -> inception_4e/5x5_reduce (in-place)
I1219 08:20:00.932195 31210 net.cpp:144] Setting up inception_4e/relu_5x5_reduce
I1219 08:20:00.932197 31210 net.cpp:151] Top shape: 1 32 30 60 (57600)
I1219 08:20:00.932200 31210 net.cpp:159] Memory required for data: 636476416
I1219 08:20:00.932202 31210 layer_factory.hpp:77] Creating layer inception_4e/5x5_reduce_fixed
I1219 08:20:00.932206 31210 net.cpp:94] Creating Layer inception_4e/5x5_reduce_fixed
I1219 08:20:00.932210 31210 net.cpp:435] inception_4e/5x5_reduce_fixed <- inception_4e/5x5_reduce
I1219 08:20:00.932212 31210 net.cpp:396] inception_4e/5x5_reduce_fixed -> inception_4e/5x5_reduce (in-place)
I1219 08:20:00.932237 31210 net.cpp:144] Setting up inception_4e/5x5_reduce_fixed
I1219 08:20:00.932240 31210 net.cpp:151] Top shape: 1 32 30 60 (57600)
I1219 08:20:00.932242 31210 net.cpp:159] Memory required for data: 636706816
I1219 08:20:00.932245 31210 layer_factory.hpp:77] Creating layer inception_4e/5x5
I1219 08:20:00.932251 31210 net.cpp:94] Creating Layer inception_4e/5x5
I1219 08:20:00.932255 31210 net.cpp:435] inception_4e/5x5 <- inception_4e/5x5_reduce
I1219 08:20:00.932257 31210 net.cpp:409] inception_4e/5x5 -> inception_4e/5x5
I1219 08:20:00.932914 31210 layer_factory.hpp:77] Creating layer inception_4e/5x5
I1219 08:20:00.934167 31210 net.cpp:144] Setting up inception_4e/5x5
I1219 08:20:00.934175 31210 net.cpp:151] Top shape: 1 128 30 60 (230400)
I1219 08:20:00.934177 31210 net.cpp:159] Memory required for data: 637628416
I1219 08:20:00.934182 31210 layer_factory.hpp:77] Creating layer inception_4e/relu_5x5
I1219 08:20:00.934187 31210 net.cpp:94] Creating Layer inception_4e/relu_5x5
I1219 08:20:00.934190 31210 net.cpp:435] inception_4e/relu_5x5 <- inception_4e/5x5
I1219 08:20:00.934193 31210 net.cpp:396] inception_4e/relu_5x5 -> inception_4e/5x5 (in-place)
I1219 08:20:00.934196 31210 net.cpp:144] Setting up inception_4e/relu_5x5
I1219 08:20:00.934199 31210 net.cpp:151] Top shape: 1 128 30 60 (230400)
I1219 08:20:00.934202 31210 net.cpp:159] Memory required for data: 638550016
I1219 08:20:00.934203 31210 layer_factory.hpp:77] Creating layer inception_4e/pool
I1219 08:20:00.934207 31210 net.cpp:94] Creating Layer inception_4e/pool
I1219 08:20:00.934209 31210 net.cpp:435] inception_4e/pool <- inception_4d/output_inception_4d/output_fixed_0_split_3
I1219 08:20:00.934212 31210 net.cpp:409] inception_4e/pool -> inception_4e/pool
I1219 08:20:00.934234 31210 net.cpp:144] Setting up inception_4e/pool
I1219 08:20:00.934237 31210 net.cpp:151] Top shape: 1 528 30 60 (950400)
I1219 08:20:00.934239 31210 net.cpp:159] Memory required for data: 642351616
I1219 08:20:00.934242 31210 layer_factory.hpp:77] Creating layer inception_4e/pool_proj
I1219 08:20:00.934245 31210 net.cpp:94] Creating Layer inception_4e/pool_proj
I1219 08:20:00.934248 31210 net.cpp:435] inception_4e/pool_proj <- inception_4e/pool
I1219 08:20:00.934252 31210 net.cpp:409] inception_4e/pool_proj -> inception_4e/pool_proj
I1219 08:20:00.934715 31210 layer_factory.hpp:77] Creating layer inception_4e/pool_proj
I1219 08:20:00.935248 31210 net.cpp:144] Setting up inception_4e/pool_proj
I1219 08:20:00.935252 31210 net.cpp:151] Top shape: 1 128 30 60 (230400)
I1219 08:20:00.935256 31210 net.cpp:159] Memory required for data: 643273216
I1219 08:20:00.935258 31210 layer_factory.hpp:77] Creating layer inception_4e/relu_pool_proj
I1219 08:20:00.935261 31210 net.cpp:94] Creating Layer inception_4e/relu_pool_proj
I1219 08:20:00.935264 31210 net.cpp:435] inception_4e/relu_pool_proj <- inception_4e/pool_proj
I1219 08:20:00.935266 31210 net.cpp:396] inception_4e/relu_pool_proj -> inception_4e/pool_proj (in-place)
I1219 08:20:00.935271 31210 net.cpp:144] Setting up inception_4e/relu_pool_proj
I1219 08:20:00.935271 31210 net.cpp:151] Top shape: 1 128 30 60 (230400)
I1219 08:20:00.935274 31210 net.cpp:159] Memory required for data: 644194816
I1219 08:20:00.935276 31210 layer_factory.hpp:77] Creating layer inception_4e/output
I1219 08:20:00.935278 31210 net.cpp:94] Creating Layer inception_4e/output
I1219 08:20:00.935281 31210 net.cpp:435] inception_4e/output <- inception_4e/1x1
I1219 08:20:00.935284 31210 net.cpp:435] inception_4e/output <- inception_4e/3x3
I1219 08:20:00.935286 31210 net.cpp:435] inception_4e/output <- inception_4e/5x5
I1219 08:20:00.935287 31210 net.cpp:435] inception_4e/output <- inception_4e/pool_proj
I1219 08:20:00.935290 31210 net.cpp:409] inception_4e/output -> inception_4e/output
I1219 08:20:00.935302 31210 net.cpp:144] Setting up inception_4e/output
I1219 08:20:00.935305 31210 net.cpp:151] Top shape: 1 832 30 60 (1497600)
I1219 08:20:00.935307 31210 net.cpp:159] Memory required for data: 650185216
I1219 08:20:00.935309 31210 layer_factory.hpp:77] Creating layer inception_4e/output_fixed
I1219 08:20:00.935313 31210 net.cpp:94] Creating Layer inception_4e/output_fixed
I1219 08:20:00.935317 31210 net.cpp:435] inception_4e/output_fixed <- inception_4e/output
I1219 08:20:00.935320 31210 net.cpp:396] inception_4e/output_fixed -> inception_4e/output (in-place)
I1219 08:20:00.935341 31210 net.cpp:144] Setting up inception_4e/output_fixed
I1219 08:20:00.935343 31210 net.cpp:151] Top shape: 1 832 30 60 (1497600)
I1219 08:20:00.935346 31210 net.cpp:159] Memory required for data: 656175616
I1219 08:20:00.935350 31210 layer_factory.hpp:77] Creating layer inception_4e/output_inception_4e/output_fixed_0_split
I1219 08:20:00.935354 31210 net.cpp:94] Creating Layer inception_4e/output_inception_4e/output_fixed_0_split
I1219 08:20:00.935357 31210 net.cpp:435] inception_4e/output_inception_4e/output_fixed_0_split <- inception_4e/output
I1219 08:20:00.935360 31210 net.cpp:409] inception_4e/output_inception_4e/output_fixed_0_split -> inception_4e/output_inception_4e/output_fixed_0_split_0
I1219 08:20:00.935364 31210 net.cpp:409] inception_4e/output_inception_4e/output_fixed_0_split -> inception_4e/output_inception_4e/output_fixed_0_split_1
I1219 08:20:00.935384 31210 net.cpp:144] Setting up inception_4e/output_inception_4e/output_fixed_0_split
I1219 08:20:00.935386 31210 net.cpp:151] Top shape: 1 832 30 60 (1497600)
I1219 08:20:00.935390 31210 net.cpp:151] Top shape: 1 832 30 60 (1497600)
I1219 08:20:00.935393 31210 net.cpp:159] Memory required for data: 668156416
I1219 08:20:00.935395 31210 layer_factory.hpp:77] Creating layer pool4/3x3_s2
I1219 08:20:00.935397 31210 net.cpp:94] Creating Layer pool4/3x3_s2
I1219 08:20:00.935400 31210 net.cpp:435] pool4/3x3_s2 <- inception_4e/output_inception_4e/output_fixed_0_split_0
I1219 08:20:00.935402 31210 net.cpp:409] pool4/3x3_s2 -> pool4/3x3_s2
I1219 08:20:00.935420 31210 net.cpp:144] Setting up pool4/3x3_s2
I1219 08:20:00.935422 31210 net.cpp:151] Top shape: 1 832 15 30 (374400)
I1219 08:20:00.935425 31210 net.cpp:159] Memory required for data: 669654016
I1219 08:20:00.935426 31210 layer_factory.hpp:77] Creating layer pool4/3x3_s2_pool4/3x3_s2_0_split
I1219 08:20:00.935429 31210 net.cpp:94] Creating Layer pool4/3x3_s2_pool4/3x3_s2_0_split
I1219 08:20:00.935431 31210 net.cpp:435] pool4/3x3_s2_pool4/3x3_s2_0_split <- pool4/3x3_s2
I1219 08:20:00.935433 31210 net.cpp:409] pool4/3x3_s2_pool4/3x3_s2_0_split -> pool4/3x3_s2_pool4/3x3_s2_0_split_0
I1219 08:20:00.935437 31210 net.cpp:409] pool4/3x3_s2_pool4/3x3_s2_0_split -> pool4/3x3_s2_pool4/3x3_s2_0_split_1
I1219 08:20:00.935441 31210 net.cpp:409] pool4/3x3_s2_pool4/3x3_s2_0_split -> pool4/3x3_s2_pool4/3x3_s2_0_split_2
I1219 08:20:00.935443 31210 net.cpp:409] pool4/3x3_s2_pool4/3x3_s2_0_split -> pool4/3x3_s2_pool4/3x3_s2_0_split_3
I1219 08:20:00.935472 31210 net.cpp:144] Setting up pool4/3x3_s2_pool4/3x3_s2_0_split
I1219 08:20:00.935473 31210 net.cpp:151] Top shape: 1 832 15 30 (374400)
I1219 08:20:00.935477 31210 net.cpp:151] Top shape: 1 832 15 30 (374400)
I1219 08:20:00.935478 31210 net.cpp:151] Top shape: 1 832 15 30 (374400)
I1219 08:20:00.935480 31210 net.cpp:151] Top shape: 1 832 15 30 (374400)
I1219 08:20:00.935483 31210 net.cpp:159] Memory required for data: 675644416
I1219 08:20:00.935485 31210 layer_factory.hpp:77] Creating layer inception_5a/1x1
I1219 08:20:00.935489 31210 net.cpp:94] Creating Layer inception_5a/1x1
I1219 08:20:00.935492 31210 net.cpp:435] inception_5a/1x1 <- pool4/3x3_s2_pool4/3x3_s2_0_split_0
I1219 08:20:00.935494 31210 net.cpp:409] inception_5a/1x1 -> inception_5a/1x1
I1219 08:20:00.937624 31210 layer_factory.hpp:77] Creating layer inception_5a/1x1
I1219 08:20:00.939426 31210 net.cpp:144] Setting up inception_5a/1x1
I1219 08:20:00.939432 31210 net.cpp:151] Top shape: 1 256 15 30 (115200)
I1219 08:20:00.939436 31210 net.cpp:159] Memory required for data: 676105216
I1219 08:20:00.939441 31210 layer_factory.hpp:77] Creating layer inception_5a/relu_1x1
I1219 08:20:00.939446 31210 net.cpp:94] Creating Layer inception_5a/relu_1x1
I1219 08:20:00.939450 31210 net.cpp:435] inception_5a/relu_1x1 <- inception_5a/1x1
I1219 08:20:00.939452 31210 net.cpp:396] inception_5a/relu_1x1 -> inception_5a/1x1 (in-place)
I1219 08:20:00.939457 31210 net.cpp:144] Setting up inception_5a/relu_1x1
I1219 08:20:00.939460 31210 net.cpp:151] Top shape: 1 256 15 30 (115200)
I1219 08:20:00.939463 31210 net.cpp:159] Memory required for data: 676566016
I1219 08:20:00.939465 31210 layer_factory.hpp:77] Creating layer inception_5a/3x3_reduce
I1219 08:20:00.939471 31210 net.cpp:94] Creating Layer inception_5a/3x3_reduce
I1219 08:20:00.939476 31210 net.cpp:435] inception_5a/3x3_reduce <- pool4/3x3_s2_pool4/3x3_s2_0_split_1
I1219 08:20:00.939479 31210 net.cpp:409] inception_5a/3x3_reduce -> inception_5a/3x3_reduce
I1219 08:20:00.940819 31210 layer_factory.hpp:77] Creating layer inception_5a/3x3_reduce
I1219 08:20:00.941706 31210 net.cpp:144] Setting up inception_5a/3x3_reduce
I1219 08:20:00.941710 31210 net.cpp:151] Top shape: 1 160 15 30 (72000)
I1219 08:20:00.941713 31210 net.cpp:159] Memory required for data: 676854016
I1219 08:20:00.941718 31210 layer_factory.hpp:77] Creating layer inception_5a/relu_3x3_reduce
I1219 08:20:00.941723 31210 net.cpp:94] Creating Layer inception_5a/relu_3x3_reduce
I1219 08:20:00.941726 31210 net.cpp:435] inception_5a/relu_3x3_reduce <- inception_5a/3x3_reduce
I1219 08:20:00.941730 31210 net.cpp:396] inception_5a/relu_3x3_reduce -> inception_5a/3x3_reduce (in-place)
I1219 08:20:00.941732 31210 net.cpp:144] Setting up inception_5a/relu_3x3_reduce
I1219 08:20:00.941735 31210 net.cpp:151] Top shape: 1 160 15 30 (72000)
I1219 08:20:00.941737 31210 net.cpp:159] Memory required for data: 677142016
I1219 08:20:00.941740 31210 layer_factory.hpp:77] Creating layer inception_5a/3x3_reduce_fixed
I1219 08:20:00.941745 31210 net.cpp:94] Creating Layer inception_5a/3x3_reduce_fixed
I1219 08:20:00.941747 31210 net.cpp:435] inception_5a/3x3_reduce_fixed <- inception_5a/3x3_reduce
I1219 08:20:00.941751 31210 net.cpp:396] inception_5a/3x3_reduce_fixed -> inception_5a/3x3_reduce (in-place)
I1219 08:20:00.941773 31210 net.cpp:144] Setting up inception_5a/3x3_reduce_fixed
I1219 08:20:00.941776 31210 net.cpp:151] Top shape: 1 160 15 30 (72000)
I1219 08:20:00.941778 31210 net.cpp:159] Memory required for data: 677430016
I1219 08:20:00.941781 31210 layer_factory.hpp:77] Creating layer inception_5a/3x3
I1219 08:20:00.941787 31210 net.cpp:94] Creating Layer inception_5a/3x3
I1219 08:20:00.941789 31210 net.cpp:435] inception_5a/3x3 <- inception_5a/3x3_reduce
I1219 08:20:00.941792 31210 net.cpp:409] inception_5a/3x3 -> inception_5a/3x3
I1219 08:20:00.945248 31210 layer_factory.hpp:77] Creating layer inception_5a/3x3
I1219 08:20:00.950089 31210 net.cpp:144] Setting up inception_5a/3x3
I1219 08:20:00.950096 31210 net.cpp:151] Top shape: 1 320 15 30 (144000)
I1219 08:20:00.950101 31210 net.cpp:159] Memory required for data: 678006016
I1219 08:20:00.950107 31210 layer_factory.hpp:77] Creating layer inception_5a/relu_3x3
I1219 08:20:00.950111 31210 net.cpp:94] Creating Layer inception_5a/relu_3x3
I1219 08:20:00.950114 31210 net.cpp:435] inception_5a/relu_3x3 <- inception_5a/3x3
I1219 08:20:00.950117 31210 net.cpp:396] inception_5a/relu_3x3 -> inception_5a/3x3 (in-place)
I1219 08:20:00.950121 31210 net.cpp:144] Setting up inception_5a/relu_3x3
I1219 08:20:00.950124 31210 net.cpp:151] Top shape: 1 320 15 30 (144000)
I1219 08:20:00.950126 31210 net.cpp:159] Memory required for data: 678582016
I1219 08:20:00.950127 31210 layer_factory.hpp:77] Creating layer inception_5a/5x5_reduce
I1219 08:20:00.950132 31210 net.cpp:94] Creating Layer inception_5a/5x5_reduce
I1219 08:20:00.950135 31210 net.cpp:435] inception_5a/5x5_reduce <- pool4/3x3_s2_pool4/3x3_s2_0_split_2
I1219 08:20:00.950139 31210 net.cpp:409] inception_5a/5x5_reduce -> inception_5a/5x5_reduce
I1219 08:20:00.950393 31210 layer_factory.hpp:77] Creating layer inception_5a/5x5_reduce
I1219 08:20:00.950760 31210 net.cpp:144] Setting up inception_5a/5x5_reduce
I1219 08:20:00.950764 31210 net.cpp:151] Top shape: 1 32 15 30 (14400)
I1219 08:20:00.950767 31210 net.cpp:159] Memory required for data: 678639616
I1219 08:20:00.950770 31210 layer_factory.hpp:77] Creating layer inception_5a/relu_5x5_reduce
I1219 08:20:00.950774 31210 net.cpp:94] Creating Layer inception_5a/relu_5x5_reduce
I1219 08:20:00.950778 31210 net.cpp:435] inception_5a/relu_5x5_reduce <- inception_5a/5x5_reduce
I1219 08:20:00.950780 31210 net.cpp:396] inception_5a/relu_5x5_reduce -> inception_5a/5x5_reduce (in-place)
I1219 08:20:00.950784 31210 net.cpp:144] Setting up inception_5a/relu_5x5_reduce
I1219 08:20:00.950786 31210 net.cpp:151] Top shape: 1 32 15 30 (14400)
I1219 08:20:00.950788 31210 net.cpp:159] Memory required for data: 678697216
I1219 08:20:00.950791 31210 layer_factory.hpp:77] Creating layer inception_5a/5x5_reduce_fixed
I1219 08:20:00.950795 31210 net.cpp:94] Creating Layer inception_5a/5x5_reduce_fixed
I1219 08:20:00.950798 31210 net.cpp:435] inception_5a/5x5_reduce_fixed <- inception_5a/5x5_reduce
I1219 08:20:00.950800 31210 net.cpp:396] inception_5a/5x5_reduce_fixed -> inception_5a/5x5_reduce (in-place)
I1219 08:20:00.950824 31210 net.cpp:144] Setting up inception_5a/5x5_reduce_fixed
I1219 08:20:00.950825 31210 net.cpp:151] Top shape: 1 32 15 30 (14400)
I1219 08:20:00.950829 31210 net.cpp:159] Memory required for data: 678754816
I1219 08:20:00.950831 31210 layer_factory.hpp:77] Creating layer inception_5a/5x5
I1219 08:20:00.950839 31210 net.cpp:94] Creating Layer inception_5a/5x5
I1219 08:20:00.950845 31210 net.cpp:435] inception_5a/5x5 <- inception_5a/5x5_reduce
I1219 08:20:00.950848 31210 net.cpp:409] inception_5a/5x5 -> inception_5a/5x5
I1219 08:20:00.952145 31210 layer_factory.hpp:77] Creating layer inception_5a/5x5
I1219 08:20:00.952864 31210 net.cpp:144] Setting up inception_5a/5x5
I1219 08:20:00.952869 31210 net.cpp:151] Top shape: 1 128 15 30 (57600)
I1219 08:20:00.952872 31210 net.cpp:159] Memory required for data: 678985216
I1219 08:20:00.952877 31210 layer_factory.hpp:77] Creating layer inception_5a/relu_5x5
I1219 08:20:00.952880 31210 net.cpp:94] Creating Layer inception_5a/relu_5x5
I1219 08:20:00.952883 31210 net.cpp:435] inception_5a/relu_5x5 <- inception_5a/5x5
I1219 08:20:00.952885 31210 net.cpp:396] inception_5a/relu_5x5 -> inception_5a/5x5 (in-place)
I1219 08:20:00.952889 31210 net.cpp:144] Setting up inception_5a/relu_5x5
I1219 08:20:00.952891 31210 net.cpp:151] Top shape: 1 128 15 30 (57600)
I1219 08:20:00.952893 31210 net.cpp:159] Memory required for data: 679215616
I1219 08:20:00.952895 31210 layer_factory.hpp:77] Creating layer inception_5a/pool
I1219 08:20:00.952899 31210 net.cpp:94] Creating Layer inception_5a/pool
I1219 08:20:00.952901 31210 net.cpp:435] inception_5a/pool <- pool4/3x3_s2_pool4/3x3_s2_0_split_3
I1219 08:20:00.952904 31210 net.cpp:409] inception_5a/pool -> inception_5a/pool
I1219 08:20:00.952924 31210 net.cpp:144] Setting up inception_5a/pool
I1219 08:20:00.952926 31210 net.cpp:151] Top shape: 1 832 15 30 (374400)
I1219 08:20:00.952929 31210 net.cpp:159] Memory required for data: 680713216
I1219 08:20:00.952930 31210 layer_factory.hpp:77] Creating layer inception_5a/pool_proj
I1219 08:20:00.952934 31210 net.cpp:94] Creating Layer inception_5a/pool_proj
I1219 08:20:00.952935 31210 net.cpp:435] inception_5a/pool_proj <- inception_5a/pool
I1219 08:20:00.952939 31210 net.cpp:409] inception_5a/pool_proj -> inception_5a/pool_proj
I1219 08:20:00.953593 31210 layer_factory.hpp:77] Creating layer inception_5a/pool_proj
I1219 08:20:00.954864 31210 net.cpp:144] Setting up inception_5a/pool_proj
I1219 08:20:00.954869 31210 net.cpp:151] Top shape: 1 128 15 30 (57600)
I1219 08:20:00.954872 31210 net.cpp:159] Memory required for data: 680943616
I1219 08:20:00.954880 31210 layer_factory.hpp:77] Creating layer inception_5a/relu_pool_proj
I1219 08:20:00.954883 31210 net.cpp:94] Creating Layer inception_5a/relu_pool_proj
I1219 08:20:00.954885 31210 net.cpp:435] inception_5a/relu_pool_proj <- inception_5a/pool_proj
I1219 08:20:00.954888 31210 net.cpp:396] inception_5a/relu_pool_proj -> inception_5a/pool_proj (in-place)
I1219 08:20:00.954892 31210 net.cpp:144] Setting up inception_5a/relu_pool_proj
I1219 08:20:00.954893 31210 net.cpp:151] Top shape: 1 128 15 30 (57600)
I1219 08:20:00.954896 31210 net.cpp:159] Memory required for data: 681174016
I1219 08:20:00.954897 31210 layer_factory.hpp:77] Creating layer inception_5a/output
I1219 08:20:00.954900 31210 net.cpp:94] Creating Layer inception_5a/output
I1219 08:20:00.954902 31210 net.cpp:435] inception_5a/output <- inception_5a/1x1
I1219 08:20:00.954905 31210 net.cpp:435] inception_5a/output <- inception_5a/3x3
I1219 08:20:00.954907 31210 net.cpp:435] inception_5a/output <- inception_5a/5x5
I1219 08:20:00.954910 31210 net.cpp:435] inception_5a/output <- inception_5a/pool_proj
I1219 08:20:00.954911 31210 net.cpp:409] inception_5a/output -> inception_5a/output
I1219 08:20:00.954924 31210 net.cpp:144] Setting up inception_5a/output
I1219 08:20:00.954926 31210 net.cpp:151] Top shape: 1 832 15 30 (374400)
I1219 08:20:00.954928 31210 net.cpp:159] Memory required for data: 682671616
I1219 08:20:00.954931 31210 layer_factory.hpp:77] Creating layer inception_5a/output_fixed
I1219 08:20:00.954934 31210 net.cpp:94] Creating Layer inception_5a/output_fixed
I1219 08:20:00.954936 31210 net.cpp:435] inception_5a/output_fixed <- inception_5a/output
I1219 08:20:00.954938 31210 net.cpp:396] inception_5a/output_fixed -> inception_5a/output (in-place)
I1219 08:20:00.954962 31210 net.cpp:144] Setting up inception_5a/output_fixed
I1219 08:20:00.954962 31210 net.cpp:151] Top shape: 1 832 15 30 (374400)
I1219 08:20:00.954965 31210 net.cpp:159] Memory required for data: 684169216
I1219 08:20:00.954967 31210 layer_factory.hpp:77] Creating layer inception_5a/output_inception_5a/output_fixed_0_split
I1219 08:20:00.954972 31210 net.cpp:94] Creating Layer inception_5a/output_inception_5a/output_fixed_0_split
I1219 08:20:00.954974 31210 net.cpp:435] inception_5a/output_inception_5a/output_fixed_0_split <- inception_5a/output
I1219 08:20:00.954978 31210 net.cpp:409] inception_5a/output_inception_5a/output_fixed_0_split -> inception_5a/output_inception_5a/output_fixed_0_split_0
I1219 08:20:00.954982 31210 net.cpp:409] inception_5a/output_inception_5a/output_fixed_0_split -> inception_5a/output_inception_5a/output_fixed_0_split_1
I1219 08:20:00.954988 31210 net.cpp:409] inception_5a/output_inception_5a/output_fixed_0_split -> inception_5a/output_inception_5a/output_fixed_0_split_2
I1219 08:20:00.954991 31210 net.cpp:409] inception_5a/output_inception_5a/output_fixed_0_split -> inception_5a/output_inception_5a/output_fixed_0_split_3
I1219 08:20:00.955029 31210 net.cpp:144] Setting up inception_5a/output_inception_5a/output_fixed_0_split
I1219 08:20:00.955032 31210 net.cpp:151] Top shape: 1 832 15 30 (374400)
I1219 08:20:00.955035 31210 net.cpp:151] Top shape: 1 832 15 30 (374400)
I1219 08:20:00.955037 31210 net.cpp:151] Top shape: 1 832 15 30 (374400)
I1219 08:20:00.955040 31210 net.cpp:151] Top shape: 1 832 15 30 (374400)
I1219 08:20:00.955044 31210 net.cpp:159] Memory required for data: 690159616
I1219 08:20:00.955045 31210 layer_factory.hpp:77] Creating layer inception_5b/1x1
I1219 08:20:00.955050 31210 net.cpp:94] Creating Layer inception_5b/1x1
I1219 08:20:00.955054 31210 net.cpp:435] inception_5b/1x1 <- inception_5a/output_inception_5a/output_fixed_0_split_0
I1219 08:20:00.955056 31210 net.cpp:409] inception_5b/1x1 -> inception_5b/1x1
I1219 08:20:00.957862 31210 layer_factory.hpp:77] Creating layer inception_5b/1x1
I1219 08:20:00.960769 31210 net.cpp:144] Setting up inception_5b/1x1
I1219 08:20:00.960779 31210 net.cpp:151] Top shape: 1 384 15 30 (172800)
I1219 08:20:00.960785 31210 net.cpp:159] Memory required for data: 690850816
I1219 08:20:00.960793 31210 layer_factory.hpp:77] Creating layer inception_5b/relu_1x1
I1219 08:20:00.960798 31210 net.cpp:94] Creating Layer inception_5b/relu_1x1
I1219 08:20:00.960801 31210 net.cpp:435] inception_5b/relu_1x1 <- inception_5b/1x1
I1219 08:20:00.960806 31210 net.cpp:396] inception_5b/relu_1x1 -> inception_5b/1x1 (in-place)
I1219 08:20:00.960811 31210 net.cpp:144] Setting up inception_5b/relu_1x1
I1219 08:20:00.960813 31210 net.cpp:151] Top shape: 1 384 15 30 (172800)
I1219 08:20:00.960815 31210 net.cpp:159] Memory required for data: 691542016
I1219 08:20:00.960817 31210 layer_factory.hpp:77] Creating layer inception_5b/3x3_reduce
I1219 08:20:00.960824 31210 net.cpp:94] Creating Layer inception_5b/3x3_reduce
I1219 08:20:00.960827 31210 net.cpp:435] inception_5b/3x3_reduce <- inception_5a/output_inception_5a/output_fixed_0_split_1
I1219 08:20:00.960832 31210 net.cpp:409] inception_5b/3x3_reduce -> inception_5b/3x3_reduce
I1219 08:20:00.961786 31210 layer_factory.hpp:77] Creating layer inception_5b/3x3_reduce
I1219 08:20:00.962826 31210 net.cpp:144] Setting up inception_5b/3x3_reduce
I1219 08:20:00.962829 31210 net.cpp:151] Top shape: 1 192 15 30 (86400)
I1219 08:20:00.962832 31210 net.cpp:159] Memory required for data: 691887616
I1219 08:20:00.962836 31210 layer_factory.hpp:77] Creating layer inception_5b/relu_3x3_reduce
I1219 08:20:00.962839 31210 net.cpp:94] Creating Layer inception_5b/relu_3x3_reduce
I1219 08:20:00.962841 31210 net.cpp:435] inception_5b/relu_3x3_reduce <- inception_5b/3x3_reduce
I1219 08:20:00.962843 31210 net.cpp:396] inception_5b/relu_3x3_reduce -> inception_5b/3x3_reduce (in-place)
I1219 08:20:00.962847 31210 net.cpp:144] Setting up inception_5b/relu_3x3_reduce
I1219 08:20:00.962848 31210 net.cpp:151] Top shape: 1 192 15 30 (86400)
I1219 08:20:00.962852 31210 net.cpp:159] Memory required for data: 692233216
I1219 08:20:00.962852 31210 layer_factory.hpp:77] Creating layer inception_5b/3x3_reduce_fixed
I1219 08:20:00.962857 31210 net.cpp:94] Creating Layer inception_5b/3x3_reduce_fixed
I1219 08:20:00.962858 31210 net.cpp:435] inception_5b/3x3_reduce_fixed <- inception_5b/3x3_reduce
I1219 08:20:00.962862 31210 net.cpp:396] inception_5b/3x3_reduce_fixed -> inception_5b/3x3_reduce (in-place)
I1219 08:20:00.962885 31210 net.cpp:144] Setting up inception_5b/3x3_reduce_fixed
I1219 08:20:00.962888 31210 net.cpp:151] Top shape: 1 192 15 30 (86400)
I1219 08:20:00.962890 31210 net.cpp:159] Memory required for data: 692578816
I1219 08:20:00.962893 31210 layer_factory.hpp:77] Creating layer inception_5b/3x3
I1219 08:20:00.962898 31210 net.cpp:94] Creating Layer inception_5b/3x3
I1219 08:20:00.962899 31210 net.cpp:435] inception_5b/3x3 <- inception_5b/3x3_reduce
I1219 08:20:00.962903 31210 net.cpp:409] inception_5b/3x3 -> inception_5b/3x3
I1219 08:20:00.967705 31210 layer_factory.hpp:77] Creating layer inception_5b/3x3
I1219 08:20:00.974800 31210 net.cpp:144] Setting up inception_5b/3x3
I1219 08:20:00.974824 31210 net.cpp:151] Top shape: 1 384 15 30 (172800)
I1219 08:20:00.974833 31210 net.cpp:159] Memory required for data: 693270016
I1219 08:20:00.974844 31210 layer_factory.hpp:77] Creating layer inception_5b/relu_3x3
I1219 08:20:00.974853 31210 net.cpp:94] Creating Layer inception_5b/relu_3x3
I1219 08:20:00.974858 31210 net.cpp:435] inception_5b/relu_3x3 <- inception_5b/3x3
I1219 08:20:00.974864 31210 net.cpp:396] inception_5b/relu_3x3 -> inception_5b/3x3 (in-place)
I1219 08:20:00.974871 31210 net.cpp:144] Setting up inception_5b/relu_3x3
I1219 08:20:00.974874 31210 net.cpp:151] Top shape: 1 384 15 30 (172800)
I1219 08:20:00.974876 31210 net.cpp:159] Memory required for data: 693961216
I1219 08:20:00.974879 31210 layer_factory.hpp:77] Creating layer inception_5b/5x5_reduce
I1219 08:20:00.974889 31210 net.cpp:94] Creating Layer inception_5b/5x5_reduce
I1219 08:20:00.974896 31210 net.cpp:435] inception_5b/5x5_reduce <- inception_5a/output_inception_5a/output_fixed_0_split_2
I1219 08:20:00.974901 31210 net.cpp:409] inception_5b/5x5_reduce -> inception_5b/5x5_reduce
I1219 08:20:00.975379 31210 layer_factory.hpp:77] Creating layer inception_5b/5x5_reduce
I1219 08:20:00.975972 31210 net.cpp:144] Setting up inception_5b/5x5_reduce
I1219 08:20:00.975977 31210 net.cpp:151] Top shape: 1 48 15 30 (21600)
I1219 08:20:00.975981 31210 net.cpp:159] Memory required for data: 694047616
I1219 08:20:00.975986 31210 layer_factory.hpp:77] Creating layer inception_5b/relu_5x5_reduce
I1219 08:20:00.975991 31210 net.cpp:94] Creating Layer inception_5b/relu_5x5_reduce
I1219 08:20:00.975993 31210 net.cpp:435] inception_5b/relu_5x5_reduce <- inception_5b/5x5_reduce
I1219 08:20:00.975996 31210 net.cpp:396] inception_5b/relu_5x5_reduce -> inception_5b/5x5_reduce (in-place)
I1219 08:20:00.976001 31210 net.cpp:144] Setting up inception_5b/relu_5x5_reduce
I1219 08:20:00.976003 31210 net.cpp:151] Top shape: 1 48 15 30 (21600)
I1219 08:20:00.976006 31210 net.cpp:159] Memory required for data: 694134016
I1219 08:20:00.976008 31210 layer_factory.hpp:77] Creating layer inception_5b/5x5_reduce_fixed
I1219 08:20:00.976013 31210 net.cpp:94] Creating Layer inception_5b/5x5_reduce_fixed
I1219 08:20:00.976016 31210 net.cpp:435] inception_5b/5x5_reduce_fixed <- inception_5b/5x5_reduce
I1219 08:20:00.976018 31210 net.cpp:396] inception_5b/5x5_reduce_fixed -> inception_5b/5x5_reduce (in-place)
I1219 08:20:00.976045 31210 net.cpp:144] Setting up inception_5b/5x5_reduce_fixed
I1219 08:20:00.976049 31210 net.cpp:151] Top shape: 1 48 15 30 (21600)
I1219 08:20:00.976052 31210 net.cpp:159] Memory required for data: 694220416
I1219 08:20:00.976056 31210 layer_factory.hpp:77] Creating layer inception_5b/5x5
I1219 08:20:00.976061 31210 net.cpp:94] Creating Layer inception_5b/5x5
I1219 08:20:00.976068 31210 net.cpp:435] inception_5b/5x5 <- inception_5b/5x5_reduce
I1219 08:20:00.976071 31210 net.cpp:409] inception_5b/5x5 -> inception_5b/5x5
I1219 08:20:00.977452 31210 layer_factory.hpp:77] Creating layer inception_5b/5x5
I1219 08:20:00.982087 31210 net.cpp:144] Setting up inception_5b/5x5
I1219 08:20:00.982106 31210 net.cpp:151] Top shape: 1 128 15 30 (57600)
I1219 08:20:00.982115 31210 net.cpp:159] Memory required for data: 694450816
I1219 08:20:00.982126 31210 layer_factory.hpp:77] Creating layer inception_5b/relu_5x5
I1219 08:20:00.982136 31210 net.cpp:94] Creating Layer inception_5b/relu_5x5
I1219 08:20:00.982141 31210 net.cpp:435] inception_5b/relu_5x5 <- inception_5b/5x5
I1219 08:20:00.982146 31210 net.cpp:396] inception_5b/relu_5x5 -> inception_5b/5x5 (in-place)
I1219 08:20:00.982153 31210 net.cpp:144] Setting up inception_5b/relu_5x5
I1219 08:20:00.982156 31210 net.cpp:151] Top shape: 1 128 15 30 (57600)
I1219 08:20:00.982158 31210 net.cpp:159] Memory required for data: 694681216
I1219 08:20:00.982161 31210 layer_factory.hpp:77] Creating layer inception_5b/pool
I1219 08:20:00.982167 31210 net.cpp:94] Creating Layer inception_5b/pool
I1219 08:20:00.982170 31210 net.cpp:435] inception_5b/pool <- inception_5a/output_inception_5a/output_fixed_0_split_3
I1219 08:20:00.982174 31210 net.cpp:409] inception_5b/pool -> inception_5b/pool
I1219 08:20:00.982209 31210 net.cpp:144] Setting up inception_5b/pool
I1219 08:20:00.982213 31210 net.cpp:151] Top shape: 1 832 15 30 (374400)
I1219 08:20:00.982216 31210 net.cpp:159] Memory required for data: 696178816
I1219 08:20:00.982218 31210 layer_factory.hpp:77] Creating layer inception_5b/pool_proj
I1219 08:20:00.982228 31210 net.cpp:94] Creating Layer inception_5b/pool_proj
I1219 08:20:00.982230 31210 net.cpp:435] inception_5b/pool_proj <- inception_5b/pool
I1219 08:20:00.982234 31210 net.cpp:409] inception_5b/pool_proj -> inception_5b/pool_proj
I1219 08:20:00.983279 31210 layer_factory.hpp:77] Creating layer inception_5b/pool_proj
I1219 08:20:00.985249 31210 net.cpp:144] Setting up inception_5b/pool_proj
I1219 08:20:00.985267 31210 net.cpp:151] Top shape: 1 128 15 30 (57600)
I1219 08:20:00.985275 31210 net.cpp:159] Memory required for data: 696409216
I1219 08:20:00.985285 31210 layer_factory.hpp:77] Creating layer inception_5b/relu_pool_proj
I1219 08:20:00.985292 31210 net.cpp:94] Creating Layer inception_5b/relu_pool_proj
I1219 08:20:00.985297 31210 net.cpp:435] inception_5b/relu_pool_proj <- inception_5b/pool_proj
I1219 08:20:00.985303 31210 net.cpp:396] inception_5b/relu_pool_proj -> inception_5b/pool_proj (in-place)
I1219 08:20:00.985311 31210 net.cpp:144] Setting up inception_5b/relu_pool_proj
I1219 08:20:00.985314 31210 net.cpp:151] Top shape: 1 128 15 30 (57600)
I1219 08:20:00.985317 31210 net.cpp:159] Memory required for data: 696639616
I1219 08:20:00.985319 31210 layer_factory.hpp:77] Creating layer inception_5b/output
I1219 08:20:00.985324 31210 net.cpp:94] Creating Layer inception_5b/output
I1219 08:20:00.985327 31210 net.cpp:435] inception_5b/output <- inception_5b/1x1
I1219 08:20:00.985330 31210 net.cpp:435] inception_5b/output <- inception_5b/3x3
I1219 08:20:00.985333 31210 net.cpp:435] inception_5b/output <- inception_5b/5x5
I1219 08:20:00.985335 31210 net.cpp:435] inception_5b/output <- inception_5b/pool_proj
I1219 08:20:00.985339 31210 net.cpp:409] inception_5b/output -> inception_5b/output
I1219 08:20:00.985361 31210 net.cpp:144] Setting up inception_5b/output
I1219 08:20:00.985364 31210 net.cpp:151] Top shape: 1 1024 15 30 (460800)
I1219 08:20:00.985368 31210 net.cpp:159] Memory required for data: 698482816
I1219 08:20:00.985370 31210 layer_factory.hpp:77] Creating layer inception_5b/output_fixed
I1219 08:20:00.985378 31210 net.cpp:94] Creating Layer inception_5b/output_fixed
I1219 08:20:00.985379 31210 net.cpp:435] inception_5b/output_fixed <- inception_5b/output
I1219 08:20:00.985383 31210 net.cpp:396] inception_5b/output_fixed -> inception_5b/output (in-place)
I1219 08:20:00.985415 31210 net.cpp:144] Setting up inception_5b/output_fixed
I1219 08:20:00.985419 31210 net.cpp:151] Top shape: 1 1024 15 30 (460800)
I1219 08:20:00.985422 31210 net.cpp:159] Memory required for data: 700326016
I1219 08:20:00.985426 31210 layer_factory.hpp:77] Creating layer p5
I1219 08:20:00.985432 31210 net.cpp:94] Creating Layer p5
I1219 08:20:00.985435 31210 net.cpp:435] p5 <- inception_5b/output
I1219 08:20:00.985440 31210 net.cpp:409] p5 -> p5
I1219 08:20:00.985879 31210 layer_factory.hpp:77] Creating layer p5
I1219 08:20:00.986456 31210 net.cpp:144] Setting up p5
I1219 08:20:00.986462 31210 net.cpp:151] Top shape: 1 32 15 30 (14400)
I1219 08:20:00.986467 31210 net.cpp:159] Memory required for data: 700383616
I1219 08:20:00.986472 31210 layer_factory.hpp:77] Creating layer p5_fixed
I1219 08:20:00.986476 31210 net.cpp:94] Creating Layer p5_fixed
I1219 08:20:00.986480 31210 net.cpp:435] p5_fixed <- p5
I1219 08:20:00.986483 31210 net.cpp:396] p5_fixed -> p5 (in-place)
I1219 08:20:00.986511 31210 net.cpp:144] Setting up p5_fixed
I1219 08:20:00.986513 31210 net.cpp:151] Top shape: 1 32 15 30 (14400)
I1219 08:20:00.986516 31210 net.cpp:159] Memory required for data: 700441216
I1219 08:20:00.986521 31210 layer_factory.hpp:77] Creating layer latlayer_4f
I1219 08:20:00.986526 31210 net.cpp:94] Creating Layer latlayer_4f
I1219 08:20:00.986529 31210 net.cpp:435] latlayer_4f <- inception_4e/output_inception_4e/output_fixed_0_split_1
I1219 08:20:00.986533 31210 net.cpp:409] latlayer_4f -> latlayer_4f
I1219 08:20:00.986910 31210 layer_factory.hpp:77] Creating layer latlayer_4f
I1219 08:20:00.987411 31210 net.cpp:144] Setting up latlayer_4f
I1219 08:20:00.987418 31210 net.cpp:151] Top shape: 1 32 30 60 (57600)
I1219 08:20:00.987422 31210 net.cpp:159] Memory required for data: 700671616
I1219 08:20:00.987427 31210 layer_factory.hpp:77] Creating layer latlayer_4f_fixed
I1219 08:20:00.987432 31210 net.cpp:94] Creating Layer latlayer_4f_fixed
I1219 08:20:00.987435 31210 net.cpp:435] latlayer_4f_fixed <- latlayer_4f
I1219 08:20:00.987438 31210 net.cpp:396] latlayer_4f_fixed -> latlayer_4f (in-place)
I1219 08:20:00.987466 31210 net.cpp:144] Setting up latlayer_4f_fixed
I1219 08:20:00.987470 31210 net.cpp:151] Top shape: 1 32 30 60 (57600)
I1219 08:20:00.987474 31210 net.cpp:159] Memory required for data: 700902016
I1219 08:20:00.987478 31210 layer_factory.hpp:77] Creating layer upsample_p5
I1219 08:20:00.987483 31210 net.cpp:94] Creating Layer upsample_p5
I1219 08:20:00.987485 31210 net.cpp:435] upsample_p5 <- p5
I1219 08:20:00.987489 31210 net.cpp:409] upsample_p5 -> upsample_p5
I1219 08:20:00.987737 31210 layer_factory.hpp:77] Creating layer upsample_p5
I1219 08:20:00.988062 31210 net.cpp:144] Setting up upsample_p5
I1219 08:20:00.988066 31210 net.cpp:151] Top shape: 1 32 30 60 (57600)
I1219 08:20:00.988070 31210 net.cpp:159] Memory required for data: 701132416
I1219 08:20:00.988075 31210 layer_factory.hpp:77] Creating layer upsample_p5_fixed
I1219 08:20:00.988078 31210 net.cpp:94] Creating Layer upsample_p5_fixed
I1219 08:20:00.988081 31210 net.cpp:435] upsample_p5_fixed <- upsample_p5
I1219 08:20:00.988085 31210 net.cpp:396] upsample_p5_fixed -> upsample_p5 (in-place)
I1219 08:20:00.988111 31210 net.cpp:144] Setting up upsample_p5_fixed
I1219 08:20:00.988114 31210 net.cpp:151] Top shape: 1 32 30 60 (57600)
I1219 08:20:00.988117 31210 net.cpp:159] Memory required for data: 701362816
I1219 08:20:00.988121 31210 layer_factory.hpp:77] Creating layer add_p4
I1219 08:20:00.988126 31210 net.cpp:94] Creating Layer add_p4
I1219 08:20:00.988127 31210 net.cpp:435] add_p4 <- upsample_p5
I1219 08:20:00.988131 31210 net.cpp:435] add_p4 <- latlayer_4f
I1219 08:20:00.988134 31210 net.cpp:409] add_p4 -> add_p4
I1219 08:20:00.988150 31210 net.cpp:144] Setting up add_p4
I1219 08:20:00.988153 31210 net.cpp:151] Top shape: 1 32 30 60 (57600)
I1219 08:20:00.988157 31210 net.cpp:159] Memory required for data: 701593216
I1219 08:20:00.988159 31210 layer_factory.hpp:77] Creating layer add_p4_fixed
I1219 08:20:00.988162 31210 net.cpp:94] Creating Layer add_p4_fixed
I1219 08:20:00.988165 31210 net.cpp:435] add_p4_fixed <- add_p4
I1219 08:20:00.988168 31210 net.cpp:396] add_p4_fixed -> add_p4 (in-place)
I1219 08:20:00.988194 31210 net.cpp:144] Setting up add_p4_fixed
I1219 08:20:00.988198 31210 net.cpp:151] Top shape: 1 32 30 60 (57600)
I1219 08:20:00.988201 31210 net.cpp:159] Memory required for data: 701823616
I1219 08:20:00.988204 31210 layer_factory.hpp:77] Creating layer toplayer_p4
I1219 08:20:00.988210 31210 net.cpp:94] Creating Layer toplayer_p4
I1219 08:20:00.988214 31210 net.cpp:435] toplayer_p4 <- add_p4
I1219 08:20:00.988216 31210 net.cpp:409] toplayer_p4 -> p4
I1219 08:20:00.988443 31210 layer_factory.hpp:77] Creating layer toplayer_p4
I1219 08:20:00.988788 31210 net.cpp:144] Setting up toplayer_p4
I1219 08:20:00.988795 31210 net.cpp:151] Top shape: 1 32 30 60 (57600)
I1219 08:20:00.988798 31210 net.cpp:159] Memory required for data: 702054016
I1219 08:20:00.988803 31210 layer_factory.hpp:77] Creating layer p4_fixed
I1219 08:20:00.988807 31210 net.cpp:94] Creating Layer p4_fixed
I1219 08:20:00.988809 31210 net.cpp:435] p4_fixed <- p4
I1219 08:20:00.988813 31210 net.cpp:396] p4_fixed -> p4 (in-place)
I1219 08:20:00.988838 31210 net.cpp:144] Setting up p4_fixed
I1219 08:20:00.988842 31210 net.cpp:151] Top shape: 1 32 30 60 (57600)
I1219 08:20:00.988845 31210 net.cpp:159] Memory required for data: 702284416
I1219 08:20:00.988848 31210 layer_factory.hpp:77] Creating layer latlayer_3d
I1219 08:20:00.988853 31210 net.cpp:94] Creating Layer latlayer_3d
I1219 08:20:00.988857 31210 net.cpp:435] latlayer_3d <- inception_3b/output_inception_3b/output_fixed_0_split_1
I1219 08:20:00.988860 31210 net.cpp:409] latlayer_3d -> latlayer_3d
I1219 08:20:00.989135 31210 layer_factory.hpp:77] Creating layer latlayer_3d
I1219 08:20:00.989522 31210 net.cpp:144] Setting up latlayer_3d
I1219 08:20:00.989527 31210 net.cpp:151] Top shape: 1 32 60 120 (230400)
I1219 08:20:00.989531 31210 net.cpp:159] Memory required for data: 703206016
I1219 08:20:00.989535 31210 layer_factory.hpp:77] Creating layer latlayer_3d_fixed
I1219 08:20:00.989539 31210 net.cpp:94] Creating Layer latlayer_3d_fixed
I1219 08:20:00.989542 31210 net.cpp:435] latlayer_3d_fixed <- latlayer_3d
I1219 08:20:00.989545 31210 net.cpp:396] latlayer_3d_fixed -> latlayer_3d (in-place)
I1219 08:20:00.989570 31210 net.cpp:144] Setting up latlayer_3d_fixed
I1219 08:20:00.989573 31210 net.cpp:151] Top shape: 1 32 60 120 (230400)
I1219 08:20:00.989578 31210 net.cpp:159] Memory required for data: 704127616
I1219 08:20:00.989580 31210 layer_factory.hpp:77] Creating layer upsample_p4
I1219 08:20:00.989584 31210 net.cpp:94] Creating Layer upsample_p4
I1219 08:20:00.989588 31210 net.cpp:435] upsample_p4 <- p4
I1219 08:20:00.989590 31210 net.cpp:409] upsample_p4 -> upsample_p4
I1219 08:20:00.989830 31210 layer_factory.hpp:77] Creating layer upsample_p4
I1219 08:20:00.990144 31210 net.cpp:144] Setting up upsample_p4
I1219 08:20:00.990150 31210 net.cpp:151] Top shape: 1 32 60 120 (230400)
I1219 08:20:00.990154 31210 net.cpp:159] Memory required for data: 705049216
I1219 08:20:00.990157 31210 layer_factory.hpp:77] Creating layer upsample_p4_fixed
I1219 08:20:00.990161 31210 net.cpp:94] Creating Layer upsample_p4_fixed
I1219 08:20:00.990164 31210 net.cpp:435] upsample_p4_fixed <- upsample_p4
I1219 08:20:00.990167 31210 net.cpp:396] upsample_p4_fixed -> upsample_p4 (in-place)
I1219 08:20:00.990191 31210 net.cpp:144] Setting up upsample_p4_fixed
I1219 08:20:00.990195 31210 net.cpp:151] Top shape: 1 32 60 120 (230400)
I1219 08:20:00.990198 31210 net.cpp:159] Memory required for data: 705970816
I1219 08:20:00.990201 31210 layer_factory.hpp:77] Creating layer add_p3
I1219 08:20:00.990206 31210 net.cpp:94] Creating Layer add_p3
I1219 08:20:00.990207 31210 net.cpp:435] add_p3 <- upsample_p4
I1219 08:20:00.990211 31210 net.cpp:435] add_p3 <- latlayer_3d
I1219 08:20:00.990214 31210 net.cpp:409] add_p3 -> add_p3
I1219 08:20:00.990229 31210 net.cpp:144] Setting up add_p3
I1219 08:20:00.990232 31210 net.cpp:151] Top shape: 1 32 60 120 (230400)
I1219 08:20:00.990236 31210 net.cpp:159] Memory required for data: 706892416
I1219 08:20:00.990237 31210 layer_factory.hpp:77] Creating layer add_p3_fixed
I1219 08:20:00.990242 31210 net.cpp:94] Creating Layer add_p3_fixed
I1219 08:20:00.990243 31210 net.cpp:435] add_p3_fixed <- add_p3
I1219 08:20:00.990247 31210 net.cpp:396] add_p3_fixed -> add_p3 (in-place)
I1219 08:20:00.990272 31210 net.cpp:144] Setting up add_p3_fixed
I1219 08:20:00.990275 31210 net.cpp:151] Top shape: 1 32 60 120 (230400)
I1219 08:20:00.990278 31210 net.cpp:159] Memory required for data: 707814016
I1219 08:20:00.990283 31210 layer_factory.hpp:77] Creating layer toplayer_p3
I1219 08:20:00.990288 31210 net.cpp:94] Creating Layer toplayer_p3
I1219 08:20:00.990290 31210 net.cpp:435] toplayer_p3 <- add_p3
I1219 08:20:00.990293 31210 net.cpp:409] toplayer_p3 -> p3
I1219 08:20:00.990506 31210 layer_factory.hpp:77] Creating layer toplayer_p3
I1219 08:20:00.990869 31210 net.cpp:144] Setting up toplayer_p3
I1219 08:20:00.990875 31210 net.cpp:151] Top shape: 1 32 60 120 (230400)
I1219 08:20:00.990880 31210 net.cpp:159] Memory required for data: 708735616
I1219 08:20:00.990883 31210 layer_factory.hpp:77] Creating layer p3_fixed
I1219 08:20:00.990887 31210 net.cpp:94] Creating Layer p3_fixed
I1219 08:20:00.990890 31210 net.cpp:435] p3_fixed <- p3
I1219 08:20:00.990893 31210 net.cpp:396] p3_fixed -> p3 (in-place)
I1219 08:20:00.990918 31210 net.cpp:144] Setting up p3_fixed
I1219 08:20:00.990921 31210 net.cpp:151] Top shape: 1 32 60 120 (230400)
I1219 08:20:00.990924 31210 net.cpp:159] Memory required for data: 709657216
I1219 08:20:00.990928 31210 layer_factory.hpp:77] Creating layer latlayer_2c
I1219 08:20:00.990934 31210 net.cpp:94] Creating Layer latlayer_2c
I1219 08:20:00.990937 31210 net.cpp:435] latlayer_2c <- conv2/3x3_conv2/3x3_fixed_0_split_1
I1219 08:20:00.990940 31210 net.cpp:409] latlayer_2c -> latlayer_2c
I1219 08:20:00.991129 31210 layer_factory.hpp:77] Creating layer latlayer_2c
I1219 08:20:00.991453 31210 net.cpp:144] Setting up latlayer_2c
I1219 08:20:00.991459 31210 net.cpp:151] Top shape: 1 32 120 240 (921600)
I1219 08:20:00.991464 31210 net.cpp:159] Memory required for data: 713343616
I1219 08:20:00.991469 31210 layer_factory.hpp:77] Creating layer latlayer_2c_fixed
I1219 08:20:00.991473 31210 net.cpp:94] Creating Layer latlayer_2c_fixed
I1219 08:20:00.991478 31210 net.cpp:435] latlayer_2c_fixed <- latlayer_2c
I1219 08:20:00.991482 31210 net.cpp:396] latlayer_2c_fixed -> latlayer_2c (in-place)
I1219 08:20:00.991508 31210 net.cpp:144] Setting up latlayer_2c_fixed
I1219 08:20:00.991513 31210 net.cpp:151] Top shape: 1 32 120 240 (921600)
I1219 08:20:00.991516 31210 net.cpp:159] Memory required for data: 717030016
I1219 08:20:00.991519 31210 layer_factory.hpp:77] Creating layer upsample_p3
I1219 08:20:00.991524 31210 net.cpp:94] Creating Layer upsample_p3
I1219 08:20:00.991526 31210 net.cpp:435] upsample_p3 <- p3
I1219 08:20:00.991530 31210 net.cpp:409] upsample_p3 -> upsample_p3
I1219 08:20:00.991765 31210 layer_factory.hpp:77] Creating layer upsample_p3
I1219 08:20:00.992067 31210 net.cpp:144] Setting up upsample_p3
I1219 08:20:00.992072 31210 net.cpp:151] Top shape: 1 32 120 240 (921600)
I1219 08:20:00.992076 31210 net.cpp:159] Memory required for data: 720716416
I1219 08:20:00.992079 31210 layer_factory.hpp:77] Creating layer upsample_p3_fixed
I1219 08:20:00.992084 31210 net.cpp:94] Creating Layer upsample_p3_fixed
I1219 08:20:00.992086 31210 net.cpp:435] upsample_p3_fixed <- upsample_p3
I1219 08:20:00.992090 31210 net.cpp:396] upsample_p3_fixed -> upsample_p3 (in-place)
I1219 08:20:00.992113 31210 net.cpp:144] Setting up upsample_p3_fixed
I1219 08:20:00.992116 31210 net.cpp:151] Top shape: 1 32 120 240 (921600)
I1219 08:20:00.992120 31210 net.cpp:159] Memory required for data: 724402816
I1219 08:20:00.992122 31210 layer_factory.hpp:77] Creating layer add_p2
I1219 08:20:00.992127 31210 net.cpp:94] Creating Layer add_p2
I1219 08:20:00.992130 31210 net.cpp:435] add_p2 <- upsample_p3
I1219 08:20:00.992132 31210 net.cpp:435] add_p2 <- latlayer_2c
I1219 08:20:00.992136 31210 net.cpp:409] add_p2 -> add_p2
I1219 08:20:00.992149 31210 net.cpp:144] Setting up add_p2
I1219 08:20:00.992153 31210 net.cpp:151] Top shape: 1 32 120 240 (921600)
I1219 08:20:00.992156 31210 net.cpp:159] Memory required for data: 728089216
I1219 08:20:00.992158 31210 layer_factory.hpp:77] Creating layer add_p2_fixed
I1219 08:20:00.992162 31210 net.cpp:94] Creating Layer add_p2_fixed
I1219 08:20:00.992164 31210 net.cpp:435] add_p2_fixed <- add_p2
I1219 08:20:00.992167 31210 net.cpp:396] add_p2_fixed -> add_p2 (in-place)
I1219 08:20:00.992190 31210 net.cpp:144] Setting up add_p2_fixed
I1219 08:20:00.992193 31210 net.cpp:151] Top shape: 1 32 120 240 (921600)
I1219 08:20:00.992197 31210 net.cpp:159] Memory required for data: 731775616
I1219 08:20:00.992200 31210 layer_factory.hpp:77] Creating layer toplayer_p2
I1219 08:20:00.992204 31210 net.cpp:94] Creating Layer toplayer_p2
I1219 08:20:00.992206 31210 net.cpp:435] toplayer_p2 <- add_p2
I1219 08:20:00.992210 31210 net.cpp:409] toplayer_p2 -> pred
I1219 08:20:00.992369 31210 layer_factory.hpp:77] Creating layer toplayer_p2
I1219 08:20:00.994379 31210 net.cpp:144] Setting up toplayer_p2
I1219 08:20:00.994397 31210 net.cpp:151] Top shape: 1 5 480 960 (2304000)
I1219 08:20:00.994405 31210 net.cpp:159] Memory required for data: 740991616
I1219 08:20:00.994413 31210 layer_factory.hpp:77] Creating layer pred_fixed
I1219 08:20:00.994423 31210 net.cpp:94] Creating Layer pred_fixed
I1219 08:20:00.994428 31210 net.cpp:435] pred_fixed <- pred
I1219 08:20:00.994433 31210 net.cpp:396] pred_fixed -> pred (in-place)
I1219 08:20:00.994477 31210 net.cpp:144] Setting up pred_fixed
I1219 08:20:00.994480 31210 net.cpp:151] Top shape: 1 5 480 960 (2304000)
I1219 08:20:00.994483 31210 net.cpp:159] Memory required for data: 750207616
I1219 08:20:00.994486 31210 layer_factory.hpp:77] Creating layer score
I1219 08:20:00.994491 31210 net.cpp:94] Creating Layer score
I1219 08:20:00.994493 31210 net.cpp:435] score <- pred
I1219 08:20:00.994498 31210 net.cpp:409] score -> score
I1219 08:20:00.994565 31210 net.cpp:144] Setting up score
I1219 08:20:00.994568 31210 net.cpp:151] Top shape: 1 5 480 960 (2304000)
I1219 08:20:00.994572 31210 net.cpp:159] Memory required for data: 759423616
I1219 08:20:00.994575 31210 layer_factory.hpp:77] Creating layer accuracy
I1219 08:20:00.994591 31210 net.cpp:94] Creating Layer accuracy
I1219 08:20:00.994594 31210 net.cpp:435] accuracy <- score
I1219 08:20:00.994598 31210 net.cpp:435] accuracy <- label
I1219 08:20:00.994602 31210 net.cpp:409] accuracy -> segmentation_eval
I1219 08:20:00.994621 31210 net.cpp:144] Setting up accuracy
I1219 08:20:00.994624 31210 net.cpp:151] Top shape: 3 5 (15)
I1219 08:20:00.994628 31210 net.cpp:159] Memory required for data: 759423676
I1219 08:20:00.994632 31210 net.cpp:222] accuracy does not need backward computation.
I1219 08:20:00.994634 31210 net.cpp:222] score does not need backward computation.
I1219 08:20:00.994637 31210 net.cpp:222] pred_fixed does not need backward computation.
I1219 08:20:00.994638 31210 net.cpp:222] toplayer_p2 does not need backward computation.
…
