…
  top: "label"
  include {
    phase: TRAIN
  }
  transform_param {
    scale: 0.022
    mean_value: 73
    mean_value: 82
    mean_value: 72
    resize_param {
      prob: 1
      resize_mode: WARP
      height: 480
      width: 960
    }
  }
  image_data_param {
    source: "/workspace/Vitis-AI-Tutorials/files/Segment/workspace/data/signate/signate_test_calibration.txt"
    batch_size: 1
    shuffle: true
    new_height: 480
    new_width: 960
    root_folder: "/workspace/Vitis-AI-Tutorials/files/Segment/workspace/data/signate/seg_test_images/"
  }
}
layer {
  name: "conv1/7x7_s2"
  type: "Convolution"
  bottom: "data"
  top: "conv1/7x7_s2_raw"
  param {
    lr_mult: 1
    decay_mult: 1
  }
  convolution_param {
    num_output: 64
    pad: 3
    kernel_size: 7
    stride: 2
    weight_filler {
      type: "msra"
    }
    bias_filler {
      type: "constant"
      value: 0.2
    }
  }
}
layer {
  name: "conv1/7x7_s2_BatchNorm"
  type: "BatchNorm"
  bottom: "conv1/7x7_s2_raw"
  top: "conv1/7x7_s2"
  param {
    lr_mult: 1
    decay_mult: 0
  }
  param {
    lr_mult: 1
    decay_mult: 0
  }
  param {
    lr_mult: 0
    decay_mult: 0
  }
  param {
    lr_mult: 0
    decay_mult: 0
  }
  batch_norm_param {
    use_global_stats: false
    eps: 1e-05
    scale_filler {
      type: "constant"
      value: 1
    }
    bias_filler {
      type: "constant"
      value: 0
    }
  }
}
layer {
  name: "conv1/relu_7x7"
  type: "ReLU"
  bottom: "conv1/7x7_s2"
  top: "conv1/7x7_s2"
}
layer {
  name: "pool1/3x3_s2"
  type: "Pooling"
  bottom: "conv1/7x7_s2"
  top: "pool1/3x3_s2"
  pooling_param {
    pool: MAX
    kernel_size: 3
    stride: 2
  }
}
layer {
  name: "conv2/3x3_reduce"
  type: "Convolution"
  bottom: "pool1/3x3_s2"
  top: "conv2/3x3_reduce_raw"
  param {
    lr_mult: 1
    decay_mult: 1
  }
  convolution_param {
    num_output: 64
    kernel_size: 1
    weight_filler {
      type: "msra"
    }
    bias_filler {
      type: "constant"
      value: 0.2
    }
  }
}
layer {
  name: "conv2/3x3_reduce_BatchNorm"
  type: "BatchNorm"
  bottom: "conv2/3x3_reduce_raw"
  top: "conv2/3x3_reduce"
  param {
    lr_mult: 1
    decay_mult: 0
  }
  param {
    lr_mult: 1
    decay_mult: 0
  }
  param {
    lr_mult: 0
    decay_mult: 0
  }
  param {
    lr_mult: 0
    decay_mult: 0
  }
  batch_norm_param {
    use_global_stats: false
    eps: 1e-05
    scale_filler {
      type: "constant"
      value: 1
    }
    bias_filler {
      type: "constant"
      value: 0
    }
  }
}
layer {
  name: "conv2/relu_3x3_reduce"
  type: "ReLU"
  bottom: "conv2/3x3_reduce"
  top: "conv2/3x3_reduce"
}
layer {
  name: "conv2/3x3"
  type: "Convolution"
  bottom: "conv2/3x3_reduce"
  top: "conv2/3x3_raw"
  param {
    lr_mult: 1
    decay_mult: 1
  }
  convolution_param {
    num_output: 192
    pad: 1
    kernel_size: 3
    weight_filler {
      type: "msra"
    }
    bias_filler {
      type: "constant"
      value: 0.2
    }
  }
}
layer {
  name: "conv2/3x3_BatchNorm"
  type: "BatchNorm"
  bottom: "conv2/3x3_raw"
  top: "conv2/3x3"
  param {
    lr_mult: 1
    decay_mult: 0
  }
  param {
    lr_mult: 1
    decay_mult: 0
  }
  param {
    lr_mult: 0
    decay_mult: 0
  }
  param {
    lr_mult: 0
    decay_mult: 0
  }
  batch_norm_param {
    use_global_stats: false
    eps: 1e-05
    scale_filler {
      type: "constant"
      value: 1
    }
    bias_filler {
      type: "constant"
      value: 0
    }
  }
}
layer {
  name: "conv2/relu_3x3"
  type: "ReLU"
  bottom: "conv2/3x3"
  top: "conv2/3x3"
}
layer {
  name: "pool2/3x3_s2"
  type: "Pooling"
  bottom: "conv2/3x3"
  top: "pool2/3x3_s2"
  pooling_param {
    pool: MAX
    kernel_size: 3
    stride: 2
  }
}
layer {
  name: "inception_3a/1x1"
  type: "Convolution"
  bottom: "pool2/3x3_s2"
  top: "inception_3a/1x1_raw"
  param {
    lr_mult: 1
    decay_mult: 1
  }
  convolution_param {
    num_output: 64
    kernel_size: 1
    weight_filler {
      type: "msra"
    }
    bias_filler {
      type: "constant"
      value: 0.2
    }
  }
}
layer {
  name: "inception_3a/1x1_BatchNorm"
  type: "BatchNorm"
  bottom: "inception_3a/1x1_raw"
  top: "inception_3a/1x1"
  param {
    lr_mult: 1
    decay_mult: 0
  }
  param {
    lr_mult: 1
    decay_mult: 0
  }
  param {
    lr_mult: 0
    decay_mult: 0
  }
  param {
    lr_mult: 0
    decay_mult: 0
  }
  batch_norm_param {
    use_global_stats: false
    eps: 1e-05
    scale_filler {
      type: "constant"
      value: 1
    }
    bias_filler {
      type: "constant"
      value: 0
    }
  }
}
layer {
  name: "inception_3a/relu_1x1"
  type: "ReLU"
  bottom: "inception_3a/1x1"
  top: "inception_3a/1x1"
}
layer {
  name: "inception_3a/3x3_reduce"
  type: "Convolution"
  bottom: "pool2/3x3_s2"
  top: "inception_3a/3x3_reduce_raw"
  param {
    lr_mult: 1
    decay_mult: 1
  }
  convolution_param {
    num_output: 96
    kernel_size: 1
    weight_filler {
      type: "msra"
    }
    bias_filler {
      type: "constant"
      value: 0.2
    }
  }
}
layer {
  name: "inception_3a/3x3_reduce_BatchNorm"
  type: "BatchNorm"
  bottom: "inception_3a/3x3_reduce_raw"
  top: "inception_3a/3x3_reduce"
  param {
    lr_mult: 1
    decay_mult: 0
  }
  param {
    lr_mult: 1
    decay_mult: 0
  }
  param {
    lr_mult: 0
    decay_mult: 0
  }
  param {
    lr_mult: 0
    decay_mult: 0
  }
  batch_norm_param {
    use_global_stats: false
    eps: 1e-05
    scale_filler {
      type: "constant"
      value: 1
    }
    bias_filler {
      type: "constant"
      value: 0
    }
  }
}
layer {
  name: "inception_3a/relu_3x3_reduce"
  type: "ReLU"
  bottom: "inception_3a/3x3_reduce"
  top: "inception_3a/3x3_reduce"
}
layer {
  name: "inception_3a/3x3"
  type: "Convolution"
  bottom: "inception_3a/3x3_reduce"
  top: "inception_3a/3x3_raw"
  param {
    lr_mult: 1
    decay_mult: 1
  }
  convolution_param {
    num_output: 128
    pad: 1
    kernel_size: 3
    weight_filler {
      type: "msra"
    }
    bias_filler {
      type: "constant"
      value: 0.2
    }
  }
}
layer {
  name: "inception_3a/3x3_BatchNorm"
  type: "BatchNorm"
  bottom: "inception_3a/3x3_raw"
  top: "inception_3a/3x3"
  param {
    lr_mult: 1
    decay_mult: 0
  }
  param {
    lr_mult: 1
    decay_mult: 0
  }
  param {
    lr_mult: 0
    decay_mult: 0
  }
  param {
    lr_mult: 0
    decay_mult: 0
  }
  batch_norm_param {
    use_global_stats: false
    eps: 1e-05
    scale_filler {
      type: "constant"
      value: 1
    }
    bias_filler {
      type: "constant"
      value: 0
    }
  }
}
layer {
  name: "inception_3a/relu_3x3"
  type: "ReLU"
  bottom: "inception_3a/3x3"
  top: "inception_3a/3x3"
}
layer {
  name: "inception_3a/5x5_reduce"
  type: "Convolution"
  bottom: "pool2/3x3_s2"
  top: "inception_3a/5x5_reduce_raw"
  param {
    lr_mult: 1
    decay_mult: 1
  }
  convolution_param {
    num_output: 16
    kernel_size: 1
    weight_filler {
      type: "msra"
    }
    bias_filler {
      type: "constant"
      value: 0.2
    }
  }
}
layer {
  name: "inception_3a/5x5_reduce_BatchNorm"
  type: "BatchNorm"
  bottom: "inception_3a/5x5_reduce_raw"
  top: "inception_3a/5x5_reduce"
  param {
    lr_mult: 1
    decay_mult: 0
  }
  param {
    lr_mult: 1
    decay_mult: 0
  }
  param {
    lr_mult: 0
    decay_mult: 0
  }
  param {
    lr_mult: 0
    decay_mult: 0
  }
  batch_norm_param {
    use_global_stats: false
    eps: 1e-05
    scale_filler {
      type: "constant"
      value: 1
    }
    bias_filler {
      type: "constant"
      value: 0
    }
  }
}
layer {
  name: "inception_3a/relu_5x5_reduce"
  type: "ReLU"
  bottom: "inception_3a/5x5_reduce"
  top: "inception_3a/5x5_reduce"
}
layer {
  name: "inception_3a/5x5"
  type: "Convolution"
  bottom: "inception_3a/5x5_reduce"
  top: "inception_3a/5x5_raw"
  param {
    lr_mult: 1
    decay_mult: 1
  }
  convolution_param {
    num_output: 32
    pad: 2
    kernel_size: 5
    weight_filler {
      type: "msra"
    }
    bias_filler {
      type: "constant"
      value: 0.2
    }
  }
}
layer {
  name: "inception_3a/5x5_BatchNorm"
  type: "BatchNorm"
  bottom: "inception_3a/5x5_raw"
  top: "inception_3a/5x5"
  param {
    lr_mult: 1
    decay_mult: 0
  }
  param {
    lr_mult: 1
    decay_mult: 0
  }
  param {
    lr_mult: 0
    decay_mult: 0
  }
  param {
    lr_mult: 0
    decay_mult: 0
  }
  batch_norm_param {
    use_global_stats: false
    eps: 1e-05
    scale_filler {
      type: "constant"
      value: 1
    }
    bias_filler {
      type: "constant"
      value: 0
    }
  }
}
layer {
  name: "inception_3a/relu_5x5"
  type: "ReLU"
  bottom: "inception_3a/5x5"
  top: "inception_3a/5x5"
}
layer {
  name: "inception_3a/pool"
  type: "Pooling"
  bottom: "pool2/3x3_s2"
  top: "inception_3a/pool"
  pooling_param {
    pool: MAX
    kernel_size: 3
    stride: 1
    pad: 1
  }
}
layer {
  name: "inception_3a/pool_proj"
  type: "Convolution"
  bottom: "inception_3a/pool"
  top: "inception_3a/pool_proj_raw"
  param {
    lr_mult: 1
    decay_mult: 1
  }
  convolution_param {
    num_output: 32
    kernel_size: 1
    weight_filler {
      type: "msra"
    }
    bias_filler {
      type: "constant"
      value: 0.2
    }
  }
}
layer {
  name: "inception_3a/pool_proj_BatchNorm"
  type: "BatchNorm"
  bottom: "inception_3a/pool_proj_raw"
  top: "inception_3a/pool_proj"
  param {
    lr_mult: 1
    decay_mult: 0
  }
  param {
    lr_mult: 1
    decay_mult: 0
  }
  param {
    lr_mult: 0
    decay_mult: 0
  }
  param {
    lr_mult: 0
    decay_mult: 0
  }
  batch_norm_param {
    use_global_stats: false
    eps: 1e-05
    scale_filler {
      type: "constant"
      value: 1
    }
    bias_filler {
      type: "constant"
      value: 0
    }
  }
}
layer {
  name: "inception_3a/relu_pool_proj"
  type: "ReLU"
  bottom: "inception_3a/pool_proj"
  top: "inception_3a/pool_proj"
}
layer {
  name: "inception_3a/output"
  type: "Concat"
  bottom: "inception_3a/1x1"
  bottom: "inception_3a/3x3"
  bottom: "inception_3a/5x5"
  bottom: "inception_3a/pool_proj"
  top: "inception_3a/output"
}
layer {
  name: "inception_3b/1x1"
  type: "Convolution"
  bottom: "inception_3a/output"
  top: "inception_3b/1x1_raw"
  param {
    lr_mult: 1
    decay_mult: 1
  }
  convolution_param {
    num_output: 128
    kernel_size: 1
    weight_filler {
      type: "msra"
    }
    bias_filler {
      type: "constant"
      value: 0.2
    }
  }
}
layer {
  name: "inception_3b/1x1_BatchNorm"
  type: "BatchNorm"
  bottom: "inception_3b/1x1_raw"
  top: "inception_3b/1x1"
  param {
    lr_mult: 1
    decay_mult: 0
  }
  param {
    lr_mult: 1
    decay_mult: 0
  }
  param {
    lr_mult: 0
    decay_mult: 0
  }
  param {
    lr_mult: 0
    decay_mult: 0
  }
  batch_norm_param {
    use_global_stats: false
    eps: 1e-05
    scale_filler {
      type: "constant"
      value: 1
    }
    bias_filler {
      type: "constant"
      value: 0
    }
  }
}
layer {
  name: "inception_3b/relu_1x1"
  type: "ReLU"
  bottom: "inception_3b/1x1"
  top: "inception_3b/1x1"
}
layer {
  name: "inception_3b/3x3_reduce"
  type: "Convolution"
  bottom: "inception_3a/output"
  top: "inception_3b/3x3_reduce_raw"
  param {
    lr_mult: 1
    decay_mult: 1
  }
  convolution_param {
    num_output: 128
    kernel_size: 1
    weight_filler {
      type: "msra"
    }
    bias_filler {
      type: "constant"
      value: 0.2
    }
  }
}
layer {
  name: "inception_3b/3x3_reduce_BatchNorm"
  type: "BatchNorm"
  bottom: "inception_3b/3x3_reduce_raw"
  top: "inception_3b/3x3_reduce"
  param {
    lr_mult: 1
    decay_mult: 0
  }
  param {
    lr_mult: 1
    decay_mult: 0
  }
  param {
    lr_mult: 0
    decay_mult: 0
  }
  param {
    lr_mult: 0
    decay_mult: 0
  }
  batch_norm_param {
    use_global_stats: false
    eps: 1e-05
    scale_filler {
      type: "constant"
      value: 1
    }
    bias_filler {
      type: "constant"
      value: 0
    }
  }
}
layer {
  name: "inception_3b/relu_3x3_reduce"
  type: "ReLU"
  bottom: "inception_3b/3x3_reduce"
  top: "inception_3b/3x3_reduce"
}
layer {
  name: "inception_3b/3x3"
  type: "Convolution"
  bottom: "inception_3b/3x3_reduce"
  top: "inception_3b/3x3_raw"
  param {
    lr_mult: 1
    decay_mult: 1
  }
  convolution_param {
    num_output: 192
    pad: 1
    kernel_size: 3
    weight_filler {
      type: "msra"
    }
    bias_filler {
      type: "constant"
      value: 0.2
    }
  }
}
layer {
  name: "inception_3b/3x3_BatchNorm"
  type: "BatchNorm"
  bottom: "inception_3b/3x3_raw"
  top: "inception_3b/3x3"
  param {
    lr_mult: 1
    decay_mult: 0
  }
  param {
    lr_mult: 1
    decay_mult: 0
  }
  param {
    lr_mult: 0
    decay_mult: 0
  }
  param {
    lr_mult: 0
    decay_mult: 0
  }
  batch_norm_param {
    use_global_stats: false
    eps: 1e-05
    scale_filler {
      type: "constant"
      value: 1
    }
    bias_filler {
      type: "constant"
      value: 0
    }
  }
}
layer {
  name: "inception_3b/relu_3x3"
  type: "ReLU"
  bottom: "inception_3b/3x3"
  top: "inception_3b/3x3"
}
layer {
  name: "inception_3b/5x5_reduce"
  type: "Convolution"
  bottom: "inception_3a/output"
  top: "inception_3b/5x5_reduce_raw"
  param {
    lr_mult: 1
    decay_mult: 1
  }
  convolution_param {
    num_output: 32
    kernel_size: 1
    weight_filler {
      type: "msra"
    }
    bias_filler {
      type: "constant"
      value: 0.2
    }
  }
}
layer {
  name: "inception_3b/5x5_reduce_BatchNorm"
  type: "BatchNorm"
  bottom: "inception_3b/5x5_reduce_raw"
  top: "inception_3b/5x5_reduce"
  param {
    lr_mult: 1
    decay_mult: 0
  }
  param {
    lr_mult: 1
    decay_mult: 0
  }
  param {
    lr_mult: 0
    decay_mult: 0
  }
  param {
    lr_mult: 0
    decay_mult: 0
  }
  batch_norm_param {
    use_global_stats: false
    eps: 1e-05
    scale_filler {
      type: "constant"
      value: 1
    }
    bias_filler {
      type: "constant"
      value: 0
    }
  }
}
layer {
  name: "inception_3b/relu_5x5_reduce"
  type: "ReLU"
  bottom: "inception_3b/5x5_reduce"
  top: "inception_3b/5x5_reduce"
}
layer {
  name: "inception_3b/5x5"
  type: "Convolution"
  bottom: "inception_3b/5x5_reduce"
  top: "inception_3b/5x5_raw"
  param {
    lr_mult: 1
    decay_mult: 1
  }
  convolution_param {
    num_output: 96
    pad: 2
    kernel_size: 5
    weight_filler {
      type: "msra"
    }
    bias_filler {
      type: "constant"
      value: 0.2
    }
  }
}
layer {
  name: "inception_3b/5x5_BatchNorm"
  type: "BatchNorm"
  bottom: "inception_3b/5x5_raw"
  top: "inception_3b/5x5"
  param {
    lr_mult: 1
    decay_mult: 0
  }
  param {
    lr_mult: 1
    decay_mult: 0
  }
  param {
    lr_mult: 0
    decay_mult: 0
  }
  param {
    lr_mult: 0
    decay_mult: 0
  }
  batch_norm_param {
    use_global_stats: false
    eps: 1e-05
    scale_filler {
      type: "constant"
      value: 1
    }
    bias_filler {
      type: "constant"
      value: 0
    }
  }
}
layer {
  name: "inception_3b/relu_5x5"
  type: "ReLU"
  bottom: "inception_3b/5x5"
  top: "inception_3b/5x5"
}
layer {
  name: "inception_3b/pool"
  type: "Pooling"
  bottom: "inception_3a/output"
  top: "inception_3b/pool"
  pooling_param {
    pool: MAX
    kernel_size: 3
    stride: 1
    pad: 1
  }
}
layer {
  name: "inception_3b/pool_proj"
  type: "Convolution"
  bottom: "inception_3b/pool"
  top: "inception_3b/pool_proj_raw"
  param {
    lr_mult: 1
    decay_mult: 1
  }
  convolution_param {
    num_output: 64
    kernel_size: 1
    weight_filler {
      type: "msra"
    }
    bias_filler {
      type: "constant"
      value: 0.2
    }
  }
}
layer {
  name: "inception_3b/pool_proj_BatchNorm"
  type: "BatchNorm"
  bottom: "inception_3b/pool_proj_raw"
  top: "inception_3b/pool_proj"
  param {
    lr_mult: 1
    decay_mult: 0
  }
  param {
    lr_mult: 1
    decay_mult: 0
  }
  param {
    lr_mult: 0
    decay_mult: 0
  }
  param {
    lr_mult: 0
    decay_mult: 0
  }
  batch_norm_param {
    use_global_stats: false
    eps: 1e-05
    scale_filler {
      type: "constant"
      value: 1
    }
    bias_filler {
      type: "constant"
      value: 0
    }
  }
}
layer {
  name: "inception_3b/relu_pool_proj"
  type: "ReLU"
  bottom: "inception_3b/pool_proj"
  top: "inception_3b/pool_proj"
}
layer {
  name: "inception_3b/output"
  type: "Concat"
  bottom: "inception_3b/1x1"
  bottom: "inception_3b/3x3"
  bottom: "inception_3b/5x5"
  bottom: "inception_3b/pool_proj"
  top: "inception_3b/output"
}
layer {
  name: "pool3/3x3_s2"
  type: "Pooling"
  bottom: "inception_3b/output"
  top: "pool3/3x3_s2"
  pooling_param {
    pool: MAX
    kernel_size: 3
    stride: 2
  }
}
layer {
  name: "inception_4a/1x1"
  type: "Convolution"
  bottom: "pool3/3x3_s2"
  top: "inception_4a/1x1_raw"
  param {
    lr_mult: 1
    decay_mult: 1
  }
  convolution_param {
    num_output: 192
    kernel_size: 1
    weight_filler {
      type: "msra"
    }
    bias_filler {
      type: "constant"
      value: 0.2
    }
  }
}
layer {
  name: "inception_4a/1x1_BatchNorm"
  type: "BatchNorm"
  bottom: "inception_4a/1x1_raw"
  top: "inception_4a/1x1"
  param {
    lr_mult: 1
    decay_mult: 0
  }
  param {
    lr_mult: 1
    decay_mult: 0
  }
  param {
    lr_mult: 0
    decay_mult: 0
  }
  param {
    lr_mult: 0
    decay_mult: 0
  }
  batch_norm_param {
    use_global_stats: false
    eps: 1e-05
    scale_filler {
      type: "constant"
      value: 1
    }
    bias_filler {
      type: "constant"
      value: 0
    }
  }
}
layer {
  name: "inception_4a/relu_1x1"
  type: "ReLU"
  bottom: "inception_4a/1x1"
  top: "inception_4a/1x1"
}
layer {
  name: "inception_4a/3x3_reduce"
  type: "Convolution"
  bottom: "pool3/3x3_s2"
  top: "inception_4a/3x3_reduce_raw"
  param {
    lr_mult: 1
    decay_mult: 1
  }
  convolution_param {
    num_output: 96
    kernel_size: 1
    weight_filler {
      type: "msra"
    }
    bias_filler {
      type: "constant"
      value: 0.2
    }
  }
}
layer {
  name: "inception_4a/3x3_reduce_BatchNorm"
  type: "BatchNorm"
  bottom: "inception_4a/3x3_reduce_raw"
  top: "inception_4a/3x3_reduce"
  param {
    lr_mult: 1
    decay_mult: 0
  }
  param {
    lr_mult: 1
    decay_mult: 0
  }
  param {
    lr_mult: 0
    decay_mult: 0
  }
  param {
    lr_mult: 0
    decay_mult: 0
  }
  batch_norm_param {
    use_global_stats: false
    eps: 1e-05
    scale_filler {
      type: "constant"
      value: 1
    }
    bias_filler {
      type: "constant"
      value: 0
    }
  }
}
layer {
  name: "inception_4a/relu_3x3_reduce"
  type: "ReLU"
  bottom: "inception_4a/3x3_reduce"
  top: "inception_4a/3x3_reduce"
}
layer {
  name: "inception_4a/3x3"
  type: "Convolution"
  bottom: "inception_4a/3x3_reduce"
  top: "inception_4a/3x3_raw"
  param {
    lr_mult: 1
    decay_mult: 1
  }
  convolution_param {
    num_output: 208
    pad: 1
    kernel_size: 3
    weight_filler {
      type: "msra"
    }
    bias_filler {
      type: "constant"
      value: 0.2
    }
  }
}
layer {
  name: "inception_4a/3x3_BatchNorm"
  type: "BatchNorm"
  bottom: "inception_4a/3x3_raw"
  top: "inception_4a/3x3"
  param {
    lr_mult: 1
    decay_mult: 0
  }
  param {
    lr_mult: 1
    decay_mult: 0
  }
  param {
    lr_mult: 0
    decay_mult: 0
  }
  param {
    lr_mult: 0
    decay_mult: 0
  }
  batch_norm_param {
    use_global_stats: false
    eps: 1e-05
    scale_filler {
      type: "constant"
      value: 1
    }
    bias_filler {
      type: "constant"
      value: 0
    }
  }
}
layer {
  name: "inception_4a/relu_3x3"
  type: "ReLU"
  bottom: "inception_4a/3x3"
  top: "inception_4a/3x3"
}
layer {
  name: "inception_4a/5x5_reduce"
  type: "Convolution"
  bottom: "pool3/3x3_s2"
  top: "inception_4a/5x5_reduce_raw"
  param {
    lr_mult: 1
    decay_mult: 1
  }
  convolution_param {
    num_output: 16
    kernel_size: 1
    weight_filler {
      type: "msra"
    }
    bias_filler {
      type: "constant"
      value: 0.2
    }
  }
}
layer {
  name: "inception_4a/5x5_reduce_BatchNorm"
  type: "BatchNorm"
  bottom: "inception_4a/5x5_reduce_raw"
  top: "inception_4a/5x5_reduce"
  param {
    lr_mult: 1
    decay_mult: 0
  }
  param {
    lr_mult: 1
    decay_mult: 0
  }
  param {
    lr_mult: 0
    decay_mult: 0
  }
  param {
    lr_mult: 0
    decay_mult: 0
  }
  batch_norm_param {
    use_global_stats: false
    eps: 1e-05
    scale_filler {
      type: "constant"
      value: 1
    }
    bias_filler {
      type: "constant"
      value: 0
    }
  }
}
layer {
  name: "inception_4a/relu_5x5_reduce"
  type: "ReLU"
  bottom: "inception_4a/5x5_reduce"
  top: "inception_4a/5x5_reduce"
}
layer {
  name: "inception_4a/5x5"
  type: "Convolution"
  bottom: "inception_4a/5x5_reduce"
  top: "inception_4a/5x5_raw"
  param {
    lr_mult: 1
    decay_mult: 1
  }
  convolution_param {
    num_output: 48
    pad: 2
    kernel_size: 5
    weight_filler {
      type: "msra"
    }
    bias_filler {
      type: "constant"
      value: 0.2
    }
  }
}
layer {
  name: "inception_4a/5x5_BatchNorm"
  type: "BatchNorm"
  bottom: "inception_4a/5x5_raw"
  top: "inception_4a/5x5"
  param {
    lr_mult: 1
    decay_mult: 0
  }
  param {
    lr_mult: 1
    decay_mult: 0
  }
  param {
    lr_mult: 0
    decay_mult: 0
  }
  param {
    lr_mult: 0
    decay_mult: 0
  }
  batch_norm_param {
    use_global_stats: false
    eps: 1e-05
    scale_filler {
      type: "constant"
      value: 1
    }
    bias_filler {
      type: "constant"
      value: 0
    }
  }
}
layer {
  name: "inception_4a/relu_5x5"
  type: "ReLU"
  bottom: "inception_4a/5x5"
  top: "inception_4a/5x5"
}
layer {
  name: "inception_4a/pool"
  type: "Pooling"
  bottom: "pool3/3x3_s2"
  top: "inception_4a/pool"
  pooling_param {
    pool: MAX
    kernel_size: 3
    stride: 1
    pad: 1
  }
}
layer {
  name: "inception_4a/pool_proj"
  type: "Convolution"
  bottom: "inception_4a/pool"
  top: "inception_4a/pool_proj_raw"
  param {
    lr_mult: 1
    decay_mult: 1
  }
  convolution_param {
    num_output: 64
    kernel_size: 1
    weight_filler {
      type: "msra"
    }
    bias_filler {
      type: "constant"
      value: 0.2
    }
  }
}
layer {
  name: "inception_4a/pool_proj_BatchNorm"
  type: "BatchNorm"
  bottom: "inception_4a/pool_proj_raw"
  top: "inception_4a/pool_proj"
  param {
    lr_mult: 1
    decay_mult: 0
  }
  param {
    lr_mult: 1
    decay_mult: 0
  }
  param {
    lr_mult: 0
    decay_mult: 0
  }
  param {
    lr_mult: 0
    decay_mult: 0
  }
  batch_norm_param {
    use_global_stats: false
    eps: 1e-05
    scale_filler {
      type: "constant"
      value: 1
    }
    bias_filler {
      type: "constant"
      value: 0
    }
  }
}
layer {
  name: "inception_4a/relu_pool_proj"
  type: "ReLU"
  bottom: "inception_4a/pool_proj"
  top: "inception_4a/pool_proj"
}
layer {
  name: "inception_4a/output"
  type: "Concat"
  bottom: "inception_4a/1x1"
  bottom: "inception_4a/3x3"
  bottom: "inception_4a/5x5"
  bottom: "inception_4a/pool_proj"
  top: "inception_4a/output"
}
layer {
  name: "inception_4b/1x1"
  type: "Convolution"
  bottom: "inception_4a/output"
  top: "inception_4b/1x1_raw"
  param {
    lr_mult: 1
    decay_mult: 1
  }
  convolution_param {
    num_output: 160
    kernel_size: 1
    weight_filler {
      type: "msra"
    }
    bias_filler {
      type: "constant"
      value: 0.2
    }
  }
}
layer {
  name: "inception_4b/1x1_BatchNorm"
  type: "BatchNorm"
  bottom: "inception_4b/1x1_raw"
  top: "inception_4b/1x1"
  param {
    lr_mult: 1
    decay_mult: 0
  }
  param {
    lr_mult: 1
    decay_mult: 0
  }
  param {
    lr_mult: 0
    decay_mult: 0
  }
  param {
    lr_mult: 0
    decay_mult: 0
  }
  batch_norm_param {
    use_global_stats: false
    eps: 1e-05
    scale_filler {
      type: "constant"
      value: 1
    }
    bias_filler {
      type: "constant"
      value: 0
    }
  }
}
layer {
  name: "inception_4b/relu_1x1"
  type: "ReLU"
  bottom: "inception_4b/1x1"
  top: "inception_4b/1x1"
}
layer {
  name: "inception_4b/3x3_reduce"
  type: "Convolution"
  bottom: "inception_4a/output"
  top: "inception_4b/3x3_reduce_raw"
  param {
    lr_mult: 1
    decay_mult: 1
  }
  convolution_param {
    num_output: 112
    kernel_size: 1
    weight_filler {
      type: "msra"
    }
    bias_filler {
      type: "constant"
      value: 0.2
    }
  }
}
layer {
  name: "inception_4b/3x3_reduce_BatchNorm"
  type: "BatchNorm"
  bottom: "inception_4b/3x3_reduce_raw"
  top: "inception_4b/3x3_reduce"
  param {
    lr_mult: 1
    decay_mult: 0
  }
  param {
    lr_mult: 1
    decay_mult: 0
  }
  param {
    lr_mult: 0
    decay_mult: 0
  }
  param {
    lr_mult: 0
    decay_mult: 0
  }
  batch_norm_param {
    use_global_stats: false
    eps: 1e-05
    scale_filler {
      type: "constant"
      value: 1
    }
    bias_filler {
      type: "constant"
      value: 0
    }
  }
}
layer {
  name: "inception_4b/relu_3x3_reduce"
  type: "ReLU"
  bottom: "inception_4b/3x3_reduce"
  top: "inception_4b/3x3_reduce"
}
layer {
  name: "inception_4b/3x3"
  type: "Convolution"
  bottom: "inception_4b/3x3_reduce"
  top: "inception_4b/3x3_raw"
  param {
    lr_mult: 1
    decay_mult: 1
  }
  convolution_param {
    num_output: 224
    pad: 1
    kernel_size: 3
    weight_filler {
      type: "msra"
    }
    bias_filler {
      type: "constant"
      value: 0.2
    }
  }
}
layer {
  name: "inception_4b/3x3_BatchNorm"
  type: "BatchNorm"
  bottom: "inception_4b/3x3_raw"
  top: "inception_4b/3x3"
  param {
    lr_mult: 1
    decay_mult: 0
  }
  param {
    lr_mult: 1
    decay_mult: 0
  }
  param {
    lr_mult: 0
    decay_mult: 0
  }
  param {
    lr_mult: 0
    decay_mult: 0
  }
  batch_norm_param {
    use_global_stats: false
    eps: 1e-05
    scale_filler {
      type: "constant"
      value: 1
    }
    bias_filler {
      type: "constant"
      value: 0
    }
  }
}
layer {
  name: "inception_4b/relu_3x3"
  type: "ReLU"
  bottom: "inception_4b/3x3"
  top: "inception_4b/3x3"
}
layer {
  name: "inception_4b/5x5_reduce"
  type: "Convolution"
  bottom: "inception_4a/output"
  top: "inception_4b/5x5_reduce_raw"
  param {
    lr_mult: 1
    decay_mult: 1
  }
  convolution_param {
    num_output: 24
    kernel_size: 1
    weight_filler {
      type: "msra"
    }
    bias_filler {
      type: "constant"
      value: 0.2
    }
  }
}
layer {
  name: "inception_4b/5x5_reduce_BatchNorm"
  type: "BatchNorm"
  bottom: "inception_4b/5x5_reduce_raw"
  top: "inception_4b/5x5_reduce"
  param {
    lr_mult: 1
    decay_mult: 0
  }
  param {
    lr_mult: 1
    decay_mult: 0
  }
  param {
    lr_mult: 0
    decay_mult: 0
  }
  param {
    lr_mult: 0
    decay_mult: 0
  }
  batch_norm_param {
    use_global_stats: false
    eps: 1e-05
    scale_filler {
      type: "constant"
      value: 1
    }
    bias_filler {
      type: "constant"
      value: 0
    }
  }
}
layer {
  name: "inception_4b/relu_5x5_reduce"
  type: "ReLU"
  bottom: "inception_4b/5x5_reduce"
  top: "inception_4b/5x5_reduce"
}
layer {
  name: "inception_4b/5x5"
  type: "Convolution"
  bottom: "inception_4b/5x5_reduce"
  top: "inception_4b/5x5_raw"
  param {
    lr_mult: 1
    decay_mult: 1
  }
  convolution_param {
    num_output: 64
    pad: 2
    kernel_size: 5
    weight_filler {
      type: "msra"
    }
    bias_filler {
      type: "constant"
      value: 0.2
    }
  }
}
layer {
  name: "inception_4b/5x5_BatchNorm"
  type: "BatchNorm"
  bottom: "inception_4b/5x5_raw"
  top: "inception_4b/5x5"
  param {
    lr_mult: 1
    decay_mult: 0
  }
  param {
    lr_mult: 1
    decay_mult: 0
  }
  param {
    lr_mult: 0
    decay_mult: 0
  }
  param {
    lr_mult: 0
    decay_mult: 0
  }
  batch_norm_param {
    use_global_stats: false
    eps: 1e-05
    scale_filler {
      type: "constant"
      value: 1
    }
    bias_filler {
      type: "constant"
      value: 0
    }
  }
}
layer {
  name: "inception_4b/relu_5x5"
  type: "ReLU"
  bottom: "inception_4b/5x5"
  top: "inception_4b/5x5"
}
layer {
  name: "inception_4b/pool"
  type: "Pooling"
  bottom: "inception_4a/output"
  top: "inception_4b/pool"
  pooling_param {
    pool: MAX
    kernel_size: 3
    stride: 1
    pad: 1
  }
}
layer {
  name: "inception_4b/pool_proj"
  type: "Convolution"
  bottom: "inception_4b/pool"
  top: "inception_4b/pool_proj_raw"
  param {
    lr_mult: 1
    decay_mult: 1
  }
  convolution_param {
    num_output: 64
    kernel_size: 1
    weight_filler {
      type: "msra"
    }
    bias_filler {
      type: "constant"
      value: 0.2
    }
  }
}
layer {
  name: "inception_4b/pool_proj_BatchNorm"
  type: "BatchNorm"
  bottom: "inception_4b/pool_proj_raw"
  top: "inception_4b/pool_proj"
  param {
    lr_mult: 1
    decay_mult: 0
  }
  param {
    lr_mult: 1
    decay_mult: 0
  }
  param {
    lr_mult: 0
    decay_mult: 0
  }
  param {
    lr_mult: 0
    decay_mult: 0
  }
  batch_norm_param {
    use_global_stats: false
    eps: 1e-05
    scale_filler {
      type: "constant"
      value: 1
    }
    bias_filler {
      type: "constant"
      value: 0
    }
  }
}
layer {
  name: "inception_4b/relu_pool_proj"
  type: "ReLU"
  bottom: "inception_4b/pool_proj"
  top: "inception_4b/pool_proj"
}
layer {
  name: "inception_4b/output"
  type: "Concat"
  bottom: "inception_4b/1x1"
  bottom: "inception_4b/3x3"
  bottom: "inception_4b/5x5"
  bottom: "inception_4b/pool_proj"
  top: "inception_4b/output"
}
layer {
  name: "inception_4c/1x1"
  type: "Convolution"
  bottom: "inception_4b/output"
  top: "inception_4c/1x1_raw"
  param {
    lr_mult: 1
    decay_mult: 1
  }
  convolution_param {
    num_output: 128
    kernel_size: 1
    weight_filler {
      type: "msra"
    }
    bias_filler {
      type: "constant"
      value: 0.2
    }
  }
}
layer {
  name: "inception_4c/1x1_BatchNorm"
  type: "BatchNorm"
  bottom: "inception_4c/1x1_raw"
  top: "inception_4c/1x1"
  param {
    lr_mult: 1
    decay_mult: 0
  }
  param {
    lr_mult: 1
    decay_mult: 0
  }
  param {
    lr_mult: 0
    decay_mult: 0
  }
  param {
  
I1219 03:12:29.386255 15597 layer_factory.hpp:77] Creating layer data
I1219 03:12:29.386272 15597 net.cpp:94] Creating Layer data
I1219 03:12:29.386276 15597 net.cpp:409] data -> data
I1219 03:12:29.386286 15597 net.cpp:409] data -> label
I1219 03:12:29.386296 15597 image_data_layer.cpp:41] Opening file /workspace/Vitis-AI-Tutorials/files/Segment/workspace/data/signate/signate_test_calibration.txt
I1219 03:12:29.386488 15597 image_data_layer.cpp:51] Shuffling data
I1219 03:12:29.386602 15597 image_data_layer.cpp:56] A total of 649 images.
I1219 03:12:29.415649 15597 image_data_layer.cpp:84] output data size: 1,3,480,960
I1219 03:12:29.436250 15597 internal_thread.cpp:27] Starting internal thread(s) on GPU 0
I1219 03:12:29.436334 15597 net.cpp:144] Setting up data
I1219 03:12:29.436339 15597 net.cpp:151] Top shape: 1 3 480 960 (1382400)
I1219 03:12:29.436349 15597 net.cpp:151] Top shape: 1 (1)
I1219 03:12:29.436352 15597 net.cpp:159] Memory required for data: 5529604
I1219 03:12:29.436355 15597 layer_factory.hpp:77] Creating layer conv1/7x7_s2
I1219 03:12:29.436372 15597 net.cpp:94] Creating Layer conv1/7x7_s2
I1219 03:12:29.436376 15597 net.cpp:435] conv1/7x7_s2 <- data
I1219 03:12:29.436383 15597 net.cpp:409] conv1/7x7_s2 -> conv1/7x7_s2_raw
I1219 03:12:29.436913 15597 net.cpp:144] Setting up conv1/7x7_s2
I1219 03:12:29.436916 15597 net.cpp:151] Top shape: 1 64 240 480 (7372800)
I1219 03:12:29.436919 15597 net.cpp:159] Memory required for data: 35020804
I1219 03:12:29.436937 15597 layer_factory.hpp:77] Creating layer conv1/7x7_s2_BatchNorm
I1219 03:12:29.436944 15597 net.cpp:94] Creating Layer conv1/7x7_s2_BatchNorm
I1219 03:12:29.436945 15597 net.cpp:435] conv1/7x7_s2_BatchNorm <- conv1/7x7_s2_raw
I1219 03:12:29.436949 15597 net.cpp:409] conv1/7x7_s2_BatchNorm -> conv1/7x7_s2
I1219 03:12:29.437458 15597 net.cpp:144] Setting up conv1/7x7_s2_BatchNorm
I1219 03:12:29.437463 15597 net.cpp:151] Top shape: 1 64 240 480 (7372800)
I1219 03:12:29.437466 15597 net.cpp:159] Memory required for data: 64512004
I1219 03:12:29.437474 15597 layer_factory.hpp:77] Creating layer conv1/relu_7x7
I1219 03:12:29.437477 15597 net.cpp:94] Creating Layer conv1/relu_7x7
I1219 03:12:29.437479 15597 net.cpp:435] conv1/relu_7x7 <- conv1/7x7_s2
I1219 03:12:29.437481 15597 net.cpp:396] conv1/relu_7x7 -> conv1/7x7_s2 (in-place)
I1219 03:12:29.437487 15597 net.cpp:144] Setting up conv1/relu_7x7
I1219 03:12:29.437489 15597 net.cpp:151] Top shape: 1 64 240 480 (7372800)
I1219 03:12:29.437491 15597 net.cpp:159] Memory required for data: 94003204
I1219 03:12:29.437494 15597 layer_factory.hpp:77] Creating layer pool1/3x3_s2
I1219 03:12:29.437497 15597 net.cpp:94] Creating Layer pool1/3x3_s2
I1219 03:12:29.437499 15597 net.cpp:435] pool1/3x3_s2 <- conv1/7x7_s2
I1219 03:12:29.437501 15597 net.cpp:409] pool1/3x3_s2 -> pool1/3x3_s2
I1219 03:12:29.437536 15597 net.cpp:144] Setting up pool1/3x3_s2
I1219 03:12:29.437538 15597 net.cpp:151] Top shape: 1 64 120 240 (1843200)
I1219 03:12:29.437541 15597 net.cpp:159] Memory required for data: 101376004
I1219 03:12:29.437542 15597 layer_factory.hpp:77] Creating layer conv2/3x3_reduce
I1219 03:12:29.437547 15597 net.cpp:94] Creating Layer conv2/3x3_reduce
I1219 03:12:29.437549 15597 net.cpp:435] conv2/3x3_reduce <- pool1/3x3_s2
I1219 03:12:29.437552 15597 net.cpp:409] conv2/3x3_reduce -> conv2/3x3_reduce_raw
I1219 03:12:29.437731 15597 net.cpp:144] Setting up conv2/3x3_reduce
I1219 03:12:29.437734 15597 net.cpp:151] Top shape: 1 64 120 240 (1843200)
I1219 03:12:29.437737 15597 net.cpp:159] Memory required for data: 108748804
I1219 03:12:29.437741 15597 layer_factory.hpp:77] Creating layer conv2/3x3_reduce_BatchNorm
I1219 03:12:29.437747 15597 net.cpp:94] Creating Layer conv2/3x3_reduce_BatchNorm
I1219 03:12:29.437748 15597 net.cpp:435] conv2/3x3_reduce_BatchNorm <- conv2/3x3_reduce_raw
I1219 03:12:29.437752 15597 net.cpp:409] conv2/3x3_reduce_BatchNorm -> conv2/3x3_reduce
I1219 03:12:29.438146 15597 net.cpp:144] Setting up conv2/3x3_reduce_BatchNorm
I1219 03:12:29.438150 15597 net.cpp:151] Top shape: 1 64 120 240 (1843200)
I1219 03:12:29.438153 15597 net.cpp:159] Memory required for data: 116121604
I1219 03:12:29.438158 15597 layer_factory.hpp:77] Creating layer conv2/relu_3x3_reduce
I1219 03:12:29.438163 15597 net.cpp:94] Creating Layer conv2/relu_3x3_reduce
I1219 03:12:29.438165 15597 net.cpp:435] conv2/relu_3x3_reduce <- conv2/3x3_reduce
I1219 03:12:29.438167 15597 net.cpp:396] conv2/relu_3x3_reduce -> conv2/3x3_reduce (in-place)
I1219 03:12:29.438170 15597 net.cpp:144] Setting up conv2/relu_3x3_reduce
I1219 03:12:29.438172 15597 net.cpp:151] Top shape: 1 64 120 240 (1843200)
I1219 03:12:29.438174 15597 net.cpp:159] Memory required for data: 123494404
I1219 03:12:29.438176 15597 layer_factory.hpp:77] Creating layer conv2/3x3
I1219 03:12:29.438181 15597 net.cpp:94] Creating Layer conv2/3x3
I1219 03:12:29.438184 15597 net.cpp:435] conv2/3x3 <- conv2/3x3_reduce
I1219 03:12:29.438186 15597 net.cpp:409] conv2/3x3 -> conv2/3x3_raw
I1219 03:12:29.439447 15597 net.cpp:144] Setting up conv2/3x3
I1219 03:12:29.439453 15597 net.cpp:151] Top shape: 1 192 120 240 (5529600)
I1219 03:12:29.439457 15597 net.cpp:159] Memory required for data: 145612804
I1219 03:12:29.439461 15597 layer_factory.hpp:77] Creating layer conv2/3x3_BatchNorm
I1219 03:12:29.439465 15597 net.cpp:94] Creating Layer conv2/3x3_BatchNorm
I1219 03:12:29.439468 15597 net.cpp:435] conv2/3x3_BatchNorm <- conv2/3x3_raw
I1219 03:12:29.439471 15597 net.cpp:409] conv2/3x3_BatchNorm -> conv2/3x3
I1219 03:12:29.439833 15597 net.cpp:144] Setting up conv2/3x3_BatchNorm
I1219 03:12:29.439838 15597 net.cpp:151] Top shape: 1 192 120 240 (5529600)
I1219 03:12:29.439841 15597 net.cpp:159] Memory required for data: 167731204
I1219 03:12:29.439847 15597 layer_factory.hpp:77] Creating layer conv2/relu_3x3
I1219 03:12:29.439851 15597 net.cpp:94] Creating Layer conv2/relu_3x3
I1219 03:12:29.439852 15597 net.cpp:435] conv2/relu_3x3 <- conv2/3x3
I1219 03:12:29.439855 15597 net.cpp:396] conv2/relu_3x3 -> conv2/3x3 (in-place)
I1219 03:12:29.439858 15597 net.cpp:144] Setting up conv2/relu_3x3
I1219 03:12:29.439859 15597 net.cpp:151] Top shape: 1 192 120 240 (5529600)
I1219 03:12:29.439862 15597 net.cpp:159] Memory required for data: 189849604
I1219 03:12:29.439863 15597 layer_factory.hpp:77] Creating layer conv2/3x3_conv2/relu_3x3_0_split
I1219 03:12:29.439869 15597 net.cpp:94] Creating Layer conv2/3x3_conv2/relu_3x3_0_split
I1219 03:12:29.439872 15597 net.cpp:435] conv2/3x3_conv2/relu_3x3_0_split <- conv2/3x3
I1219 03:12:29.439874 15597 net.cpp:409] conv2/3x3_conv2/relu_3x3_0_split -> conv2/3x3_conv2/relu_3x3_0_split_0
I1219 03:12:29.439878 15597 net.cpp:409] conv2/3x3_conv2/relu_3x3_0_split -> conv2/3x3_conv2/relu_3x3_0_split_1
I1219 03:12:29.439895 15597 net.cpp:144] Setting up conv2/3x3_conv2/relu_3x3_0_split
I1219 03:12:29.439898 15597 net.cpp:151] Top shape: 1 192 120 240 (5529600)
I1219 03:12:29.439900 15597 net.cpp:151] Top shape: 1 192 120 240 (5529600)
I1219 03:12:29.439903 15597 net.cpp:159] Memory required for data: 234086404
I1219 03:12:29.439903 15597 layer_factory.hpp:77] Creating layer pool2/3x3_s2
I1219 03:12:29.439906 15597 net.cpp:94] Creating Layer pool2/3x3_s2
I1219 03:12:29.439908 15597 net.cpp:435] pool2/3x3_s2 <- conv2/3x3_conv2/relu_3x3_0_split_0
I1219 03:12:29.439911 15597 net.cpp:409] pool2/3x3_s2 -> pool2/3x3_s2
I1219 03:12:29.439929 15597 net.cpp:144] Setting up pool2/3x3_s2
I1219 03:12:29.439930 15597 net.cpp:151] Top shape: 1 192 60 120 (1382400)
I1219 03:12:29.439932 15597 net.cpp:159] Memory required for data: 239616004
I1219 03:12:29.439934 15597 layer_factory.hpp:77] Creating layer pool2/3x3_s2_pool2/3x3_s2_0_split
I1219 03:12:29.439937 15597 net.cpp:94] Creating Layer pool2/3x3_s2_pool2/3x3_s2_0_split
I1219 03:12:29.439939 15597 net.cpp:435] pool2/3x3_s2_pool2/3x3_s2_0_split <- pool2/3x3_s2
I1219 03:12:29.439941 15597 net.cpp:409] pool2/3x3_s2_pool2/3x3_s2_0_split -> pool2/3x3_s2_pool2/3x3_s2_0_split_0
I1219 03:12:29.439944 15597 net.cpp:409] pool2/3x3_s2_pool2/3x3_s2_0_split -> pool2/3x3_s2_pool2/3x3_s2_0_split_1
I1219 03:12:29.439947 15597 net.cpp:409] pool2/3x3_s2_pool2/3x3_s2_0_split -> pool2/3x3_s2_pool2/3x3_s2_0_split_2
I1219 03:12:29.439950 15597 net.cpp:409] pool2/3x3_s2_pool2/3x3_s2_0_split -> pool2/3x3_s2_pool2/3x3_s2_0_split_3
I1219 03:12:29.439976 15597 net.cpp:144] Setting up pool2/3x3_s2_pool2/3x3_s2_0_split
I1219 03:12:29.439980 15597 net.cpp:151] Top shape: 1 192 60 120 (1382400)
I1219 03:12:29.439981 15597 net.cpp:151] Top shape: 1 192 60 120 (1382400)
I1219 03:12:29.439983 15597 net.cpp:151] Top shape: 1 192 60 120 (1382400)
I1219 03:12:29.439985 15597 net.cpp:151] Top shape: 1 192 60 120 (1382400)
I1219 03:12:29.439988 15597 net.cpp:159] Memory required for data: 261734404
I1219 03:12:29.439990 15597 layer_factory.hpp:77] Creating layer inception_3a/1x1
I1219 03:12:29.439994 15597 net.cpp:94] Creating Layer inception_3a/1x1
I1219 03:12:29.439996 15597 net.cpp:435] inception_3a/1x1 <- pool2/3x3_s2_pool2/3x3_s2_0_split_0
I1219 03:12:29.439999 15597 net.cpp:409] inception_3a/1x1 -> inception_3a/1x1_raw
I1219 03:12:29.440225 15597 net.cpp:144] Setting up inception_3a/1x1
I1219 03:12:29.440232 15597 net.cpp:151] Top shape: 1 64 60 120 (460800)
I1219 03:12:29.440237 15597 net.cpp:159] Memory required for data: 263577604
I1219 03:12:29.440240 15597 layer_factory.hpp:77] Creating layer inception_3a/1x1_BatchNorm
I1219 03:12:29.440246 15597 net.cpp:94] Creating Layer inception_3a/1x1_BatchNorm
I1219 03:12:29.440248 15597 net.cpp:435] inception_3a/1x1_BatchNorm <- inception_3a/1x1_raw
I1219 03:12:29.440253 15597 net.cpp:409] inception_3a/1x1_BatchNorm -> inception_3a/1x1
I1219 03:12:29.440632 15597 net.cpp:144] Setting up inception_3a/1x1_BatchNorm
I1219 03:12:29.440637 15597 net.cpp:151] Top shape: 1 64 60 120 (460800)
I1219 03:12:29.440640 15597 net.cpp:159] Memory required for data: 265420804
I1219 03:12:29.440645 15597 layer_factory.hpp:77] Creating layer inception_3a/relu_1x1
I1219 03:12:29.440649 15597 net.cpp:94] Creating Layer inception_3a/relu_1x1
I1219 03:12:29.440654 15597 net.cpp:435] inception_3a/relu_1x1 <- inception_3a/1x1
I1219 03:12:29.440656 15597 net.cpp:396] inception_3a/relu_1x1 -> inception_3a/1x1 (in-place)
I1219 03:12:29.440659 15597 net.cpp:144] Setting up inception_3a/relu_1x1
I1219 03:12:29.440660 15597 net.cpp:151] Top shape: 1 64 60 120 (460800)
I1219 03:12:29.440663 15597 net.cpp:159] Memory required for data: 267264004
I1219 03:12:29.440665 15597 layer_factory.hpp:77] Creating layer inception_3a/3x3_reduce
I1219 03:12:29.440670 15597 net.cpp:94] Creating Layer inception_3a/3x3_reduce
I1219 03:12:29.440670 15597 net.cpp:435] inception_3a/3x3_reduce <- pool2/3x3_s2_pool2/3x3_s2_0_split_1
I1219 03:12:29.440673 15597 net.cpp:409] inception_3a/3x3_reduce -> inception_3a/3x3_reduce_raw
I1219 03:12:29.440907 15597 net.cpp:144] Setting up inception_3a/3x3_reduce
I1219 03:12:29.440912 15597 net.cpp:151] Top shape: 1 96 60 120 (691200)
I1219 03:12:29.440915 15597 net.cpp:159] Memory required for data: 270028804
I1219 03:12:29.440920 15597 layer_factory.hpp:77] Creating layer inception_3a/3x3_reduce_BatchNorm
I1219 03:12:29.440924 15597 net.cpp:94] Creating Layer inception_3a/3x3_reduce_BatchNorm
I1219 03:12:29.440927 15597 net.cpp:435] inception_3a/3x3_reduce_BatchNorm <- inception_3a/3x3_reduce_raw
I1219 03:12:29.440928 15597 net.cpp:409] inception_3a/3x3_reduce_BatchNorm -> inception_3a/3x3_reduce
I1219 03:12:29.441290 15597 net.cpp:144] Setting up inception_3a/3x3_reduce_BatchNorm
I1219 03:12:29.441294 15597 net.cpp:151] Top shape: 1 96 60 120 (691200)
I1219 03:12:29.441298 15597 net.cpp:159] Memory required for data: 272793604
I1219 03:12:29.441303 15597 layer_factory.hpp:77] Creating layer inception_3a/relu_3x3_reduce
I1219 03:12:29.441308 15597 net.cpp:94] Creating Layer inception_3a/relu_3x3_reduce
I1219 03:12:29.441309 15597 net.cpp:435] inception_3a/relu_3x3_reduce <- inception_3a/3x3_reduce
I1219 03:12:29.441311 15597 net.cpp:396] inception_3a/relu_3x3_reduce -> inception_3a/3x3_reduce (in-place)
I1219 03:12:29.441314 15597 net.cpp:144] Setting up inception_3a/relu_3x3_reduce
I1219 03:12:29.441315 15597 net.cpp:151] Top shape: 1 96 60 120 (691200)
I1219 03:12:29.441318 15597 net.cpp:159] Memory required for data: 275558404
I1219 03:12:29.441320 15597 layer_factory.hpp:77] Creating layer inception_3a/3x3
I1219 03:12:29.441324 15597 net.cpp:94] Creating Layer inception_3a/3x3
I1219 03:12:29.441325 15597 net.cpp:435] inception_3a/3x3 <- inception_3a/3x3_reduce
I1219 03:12:29.441329 15597 net.cpp:409] inception_3a/3x3 -> inception_3a/3x3_raw
I1219 03:12:29.442067 15597 net.cpp:144] Setting up inception_3a/3x3
I1219 03:12:29.442075 15597 net.cpp:151] Top shape: 1 128 60 120 (921600)
I1219 03:12:29.442080 15597 net.cpp:159] Memory required for data: 279244804
I1219 03:12:29.442083 15597 layer_factory.hpp:77] Creating layer inception_3a/3x3_BatchNorm
I1219 03:12:29.442090 15597 net.cpp:94] Creating Layer inception_3a/3x3_BatchNorm
I1219 03:12:29.442092 15597 net.cpp:435] inception_3a/3x3_BatchNorm <- inception_3a/3x3_raw
I1219 03:12:29.442097 15597 net.cpp:409] inception_3a/3x3_BatchNorm -> inception_3a/3x3
I1219 03:12:29.442420 15597 net.cpp:144] Setting up inception_3a/3x3_BatchNorm
I1219 03:12:29.442426 15597 net.cpp:151] Top shape: 1 128 60 120 (921600)
I1219 03:12:29.442430 15597 net.cpp:159] Memory required for data: 282931204
I1219 03:12:29.442435 15597 layer_factory.hpp:77] Creating layer inception_3a/relu_3x3
I1219 03:12:29.442437 15597 net.cpp:94] Creating Layer inception_3a/relu_3x3
I1219 03:12:29.442440 15597 net.cpp:435] inception_3a/relu_3x3 <- inception_3a/3x3
I1219 03:12:29.442443 15597 net.cpp:396] inception_3a/relu_3x3 -> inception_3a/3x3 (in-place)
I1219 03:12:29.442446 15597 net.cpp:144] Setting up inception_3a/relu_3x3
I1219 03:12:29.442448 15597 net.cpp:151] Top shape: 1 128 60 120 (921600)
I1219 03:12:29.442451 15597 net.cpp:159] Memory required for data: 286617604
I1219 03:12:29.442452 15597 layer_factory.hpp:77] Creating layer inception_3a/5x5_reduce
I1219 03:12:29.442457 15597 net.cpp:94] Creating Layer inception_3a/5x5_reduce
I1219 03:12:29.442458 15597 net.cpp:435] inception_3a/5x5_reduce <- pool2/3x3_s2_pool2/3x3_s2_0_split_2
I1219 03:12:29.442461 15597 net.cpp:409] inception_3a/5x5_reduce -> inception_3a/5x5_reduce_raw
I1219 03:12:29.442620 15597 net.cpp:144] Setting up inception_3a/5x5_reduce
I1219 03:12:29.442625 15597 net.cpp:151] Top shape: 1 16 60 120 (115200)
I1219 03:12:29.442627 15597 net.cpp:159] Memory required for data: 287078404
I1219 03:12:29.442631 15597 layer_factory.hpp:77] Creating layer inception_3a/5x5_reduce_BatchNorm
I1219 03:12:29.442636 15597 net.cpp:94] Creating Layer inception_3a/5x5_reduce_BatchNorm
I1219 03:12:29.442637 15597 net.cpp:435] inception_3a/5x5_reduce_BatchNorm <- inception_3a/5x5_reduce_raw
I1219 03:12:29.442639 15597 net.cpp:409] inception_3a/5x5_reduce_BatchNorm -> inception_3a/5x5_reduce
I1219 03:12:29.443014 15597 net.cpp:144] Setting up inception_3a/5x5_reduce_BatchNorm
I1219 03:12:29.443019 15597 net.cpp:151] Top shape: 1 16 60 120 (115200)
I1219 03:12:29.443022 15597 net.cpp:159] Memory required for data: 287539204
I1219 03:12:29.443028 15597 layer_factory.hpp:77] Creating layer inception_3a/relu_5x5_reduce
I1219 03:12:29.443032 15597 net.cpp:94] Creating Layer inception_3a/relu_5x5_reduce
I1219 03:12:29.443035 15597 net.cpp:435] inception_3a/relu_5x5_reduce <- inception_3a/5x5_reduce
I1219 03:12:29.443038 15597 net.cpp:396] inception_3a/relu_5x5_reduce -> inception_3a/5x5_reduce (in-place)
I1219 03:12:29.443042 15597 net.cpp:144] Setting up inception_3a/relu_5x5_reduce
I1219 03:12:29.443044 15597 net.cpp:151] Top shape: 1 16 60 120 (115200)
I1219 03:12:29.443046 15597 net.cpp:159] Memory required for data: 288000004
I1219 03:12:29.443048 15597 layer_factory.hpp:77] Creating layer inception_3a/5x5
I1219 03:12:29.443053 15597 net.cpp:94] Creating Layer inception_3a/5x5
I1219 03:12:29.443054 15597 net.cpp:435] inception_3a/5x5 <- inception_3a/5x5_reduce
I1219 03:12:29.443056 15597 net.cpp:409] inception_3a/5x5 -> inception_3a/5x5_raw
I1219 03:12:29.443261 15597 net.cpp:144] Setting up inception_3a/5x5
I1219 03:12:29.443265 15597 net.cpp:151] Top shape: 1 32 60 120 (230400)
I1219 03:12:29.443269 15597 net.cpp:159] Memory required for data: 288921604
I1219 03:12:29.443275 15597 layer_factory.hpp:77] Creating layer inception_3a/5x5_BatchNorm
I1219 03:12:29.443280 15597 net.cpp:94] Creating Layer inception_3a/5x5_BatchNorm
I1219 03:12:29.443282 15597 net.cpp:435] inception_3a/5x5_BatchNorm <- inception_3a/5x5_raw
I1219 03:12:29.443286 15597 net.cpp:409] inception_3a/5x5_BatchNorm -> inception_3a/5x5
I1219 03:12:29.443660 15597 net.cpp:144] Setting up inception_3a/5x5_BatchNorm
I1219 03:12:29.443665 15597 net.cpp:151] Top shape: 1 32 60 120 (230400)
I1219 03:12:29.443668 15597 net.cpp:159] Memory required for data: 289843204
I1219 03:12:29.443673 15597 layer_factory.hpp:77] Creating layer inception_3a/relu_5x5
I1219 03:12:29.443676 15597 net.cpp:94] Creating Layer inception_3a/relu_5x5
I1219 03:12:29.443678 15597 net.cpp:435] inception_3a/relu_5x5 <- inception_3a/5x5
I1219 03:12:29.443681 15597 net.cpp:396] inception_3a/relu_5x5 -> inception_3a/5x5 (in-place)
I1219 03:12:29.443683 15597 net.cpp:144] Setting up inception_3a/relu_5x5
I1219 03:12:29.443686 15597 net.cpp:151] Top shape: 1 32 60 120 (230400)
I1219 03:12:29.443687 15597 net.cpp:159] Memory required for data: 290764804
I1219 03:12:29.443689 15597 layer_factory.hpp:77] Creating layer inception_3a/pool
I1219 03:12:29.443693 15597 net.cpp:94] Creating Layer inception_3a/pool
I1219 03:12:29.443694 15597 net.cpp:435] inception_3a/pool <- pool2/3x3_s2_pool2/3x3_s2_0_split_3
I1219 03:12:29.443697 15597 net.cpp:409] inception_3a/pool -> inception_3a/pool
I1219 03:12:29.443714 15597 net.cpp:144] Setting up inception_3a/pool
I1219 03:12:29.443717 15597 net.cpp:151] Top shape: 1 192 60 120 (1382400)
I1219 03:12:29.443719 15597 net.cpp:159] Memory required for data: 296294404
I1219 03:12:29.443722 15597 layer_factory.hpp:77] Creating layer inception_3a/pool_proj
I1219 03:12:29.443725 15597 net.cpp:94] Creating Layer inception_3a/pool_proj
I1219 03:12:29.443728 15597 net.cpp:435] inception_3a/pool_proj <- inception_3a/pool
I1219 03:12:29.443732 15597 net.cpp:409] inception_3a/pool_proj -> inception_3a/pool_proj_raw
I1219 03:12:29.444478 15597 net.cpp:144] Setting up inception_3a/pool_proj
I1219 03:12:29.444483 15597 net.cpp:151] Top shape: 1 32 60 120 (230400)
I1219 03:12:29.444487 15597 net.cpp:159] Memory required for data: 297216004
I1219 03:12:29.444492 15597 layer_factory.hpp:77] Creating layer inception_3a/pool_proj_BatchNorm
I1219 03:12:29.444497 15597 net.cpp:94] Creating Layer inception_3a/pool_proj_BatchNorm
I1219 03:12:29.444500 15597 net.cpp:435] inception_3a/pool_proj_BatchNorm <- inception_3a/pool_proj_raw
I1219 03:12:29.444504 15597 net.cpp:409] inception_3a/pool_proj_BatchNorm -> inception_3a/pool_proj
I1219 03:12:29.444885 15597 net.cpp:144] Setting up inception_3a/pool_proj_BatchNorm
I1219 03:12:29.444888 15597 net.cpp:151] Top shape: 1 32 60 120 (230400)
I1219 03:12:29.444891 15597 net.cpp:159] Memory required for data: 298137604
I1219 03:12:29.444898 15597 layer_factory.hpp:77] Creating layer inception_3a/relu_pool_proj
I1219 03:12:29.444905 15597 net.cpp:94] Creating Layer inception_3a/relu_pool_proj
I1219 03:12:29.444908 15597 net.cpp:435] inception_3a/relu_pool_proj <- inception_3a/pool_proj
I1219 03:12:29.444911 15597 net.cpp:396] inception_3a/relu_pool_proj -> inception_3a/pool_proj (in-place)
I1219 03:12:29.444916 15597 net.cpp:144] Setting up inception_3a/relu_pool_proj
I1219 03:12:29.444917 15597 net.cpp:151] Top shape: 1 32 60 120 (230400)
I1219 03:12:29.444921 15597 net.cpp:159] Memory required for data: 299059204
I1219 03:12:29.444922 15597 layer_factory.hpp:77] Creating layer inception_3a/output
I1219 03:12:29.444931 15597 net.cpp:94] Creating Layer inception_3a/output
I1219 03:12:29.444934 15597 net.cpp:435] inception_3a/output <- inception_3a/1x1
I1219 03:12:29.444937 15597 net.cpp:435] inception_3a/output <- inception_3a/3x3
I1219 03:12:29.444941 15597 net.cpp:435] inception_3a/output <- inception_3a/5x5
I1219 03:12:29.444942 15597 net.cpp:435] inception_3a/output <- inception_3a/pool_proj
I1219 03:12:29.444945 15597 net.cpp:409] inception_3a/output -> inception_3a/output
I1219 03:12:29.444962 15597 net.cpp:144] Setting up inception_3a/output
I1219 03:12:29.444964 15597 net.cpp:151] Top shape: 1 256 60 120 (1843200)
I1219 03:12:29.444967 15597 net.cpp:159] Memory required for data: 306432004
I1219 03:12:29.444968 15597 layer_factory.hpp:77] Creating layer inception_3a/output_inception_3a/output_0_split
I1219 03:12:29.444972 15597 net.cpp:94] Creating Layer inception_3a/output_inception_3a/output_0_split
I1219 03:12:29.444973 15597 net.cpp:435] inception_3a/output_inception_3a/output_0_split <- inception_3a/output
I1219 03:12:29.444977 15597 net.cpp:409] inception_3a/output_inception_3a/output_0_split -> inception_3a/output_inception_3a/output_0_split_0
I1219 03:12:29.444979 15597 net.cpp:409] inception_3a/output_inception_3a/output_0_split -> inception_3a/output_inception_3a/output_0_split_1
I1219 03:12:29.444983 15597 net.cpp:409] inception_3a/output_inception_3a/output_0_split -> inception_3a/output_inception_3a/output_0_split_2
I1219 03:12:29.444986 15597 net.cpp:409] inception_3a/output_inception_3a/output_0_split -> inception_3a/output_inception_3a/output_0_split_3
I1219 03:12:29.445015 15597 net.cpp:144] Setting up inception_3a/output_inception_3a/output_0_split
I1219 03:12:29.445017 15597 net.cpp:151] Top shape: 1 256 60 120 (1843200)
I1219 03:12:29.445019 15597 net.cpp:151] Top shape: 1 256 60 120 (1843200)
I1219 03:12:29.445024 15597 net.cpp:151] Top shape: 1 256 60 120 (1843200)
I1219 03:12:29.445026 15597 net.cpp:151] Top shape: 1 256 60 120 (1843200)
I1219 03:12:29.445029 15597 net.cpp:159] Memory required for data: 335923204
I1219 03:12:29.445031 15597 layer_factory.hpp:77] Creating layer inception_3b/1x1
I1219 03:12:29.445037 15597 net.cpp:94] Creating Layer inception_3b/1x1
I1219 03:12:29.445040 15597 net.cpp:435] inception_3b/1x1 <- inception_3a/output_inception_3a/output_0_split_0
I1219 03:12:29.445045 15597 net.cpp:409] inception_3b/1x1 -> inception_3b/1x1_raw
I1219 03:12:29.445346 15597 net.cpp:144] Setting up inception_3b/1x1
I1219 03:12:29.445349 15597 net.cpp:151] Top shape: 1 128 60 120 (921600)
I1219 03:12:29.445353 15597 net.cpp:159] Memory required for data: 339609604
I1219 03:12:29.445361 15597 layer_factory.hpp:77] Creating layer inception_3b/1x1_BatchNorm
I1219 03:12:29.445366 15597 net.cpp:94] Creating Layer inception_3b/1x1_BatchNorm
I1219 03:12:29.445370 15597 net.cpp:435] inception_3b/1x1_BatchNorm <- inception_3b/1x1_raw
I1219 03:12:29.445374 15597 net.cpp:409] inception_3b/1x1_BatchNorm -> inception_3b/1x1
I1219 03:12:29.445690 15597 net.cpp:144] Setting up inception_3b/1x1_BatchNorm
I1219 03:12:29.445693 15597 net.cpp:151] Top shape: 1 128 60 120 (921600)
I1219 03:12:29.445696 15597 net.cpp:159] Memory required for data: 343296004
I1219 03:12:29.445703 15597 layer_factory.hpp:77] Creating layer inception_3b/relu_1x1
I1219 03:12:29.445705 15597 net.cpp:94] Creating Layer inception_3b/relu_1x1
I1219 03:12:29.445706 15597 net.cpp:435] inception_3b/relu_1x1 <- inception_3b/1x1
I1219 03:12:29.445709 15597 net.cpp:396] inception_3b/relu_1x1 -> inception_3b/1x1 (in-place)
I1219 03:12:29.445713 15597 net.cpp:144] Setting up inception_3b/relu_1x1
I1219 03:12:29.445715 15597 net.cpp:151] Top shape: 1 128 60 120 (921600)
I1219 03:12:29.445719 15597 net.cpp:159] Memory required for data: 346982404
I1219 03:12:29.445721 15597 layer_factory.hpp:77] Creating layer inception_3b/3x3_reduce
I1219 03:12:29.445726 15597 net.cpp:94] Creating Layer inception_3b/3x3_reduce
I1219 03:12:29.445729 15597 net.cpp:435] inception_3b/3x3_reduce <- inception_3a/output_inception_3a/output_0_split_1
I1219 03:12:29.445731 15597 net.cpp:409] inception_3b/3x3_reduce -> inception_3b/3x3_reduce_raw
I1219 03:12:29.446027 15597 net.cpp:144] Setting up inception_3b/3x3_reduce
I1219 03:12:29.446031 15597 net.cpp:151] Top shape: 1 128 60 120 (921600)
I1219 03:12:29.446034 15597 net.cpp:159] Memory required for data: 350668804
I1219 03:12:29.446038 15597 layer_factory.hpp:77] Creating layer inception_3b/3x3_reduce_BatchNorm
I1219 03:12:29.446041 15597 net.cpp:94] Creating Layer inception_3b/3x3_reduce_BatchNorm
I1219 03:12:29.446043 15597 net.cpp:435] inception_3b/3x3_reduce_BatchNorm <- inception_3b/3x3_reduce_raw
I1219 03:12:29.446046 15597 net.cpp:409] inception_3b/3x3_reduce_BatchNorm -> inception_3b/3x3_reduce
I1219 03:12:29.446358 15597 net.cpp:144] Setting up inception_3b/3x3_reduce_BatchNorm
I1219 03:12:29.446362 15597 net.cpp:151] Top shape: 1 128 60 120 (921600)
I1219 03:12:29.446365 15597 net.cpp:159] Memory required for data: 354355204
I1219 03:12:29.446370 15597 layer_factory.hpp:77] Creating layer inception_3b/relu_3x3_reduce
I1219 03:12:29.446372 15597 net.cpp:94] Creating Layer inception_3b/relu_3x3_reduce
I1219 03:12:29.446374 15597 net.cpp:435] inception_3b/relu_3x3_reduce <- inception_3b/3x3_reduce
I1219 03:12:29.446377 15597 net.cpp:396] inception_3b/relu_3x3_reduce -> inception_3b/3x3_reduce (in-place)
I1219 03:12:29.446380 15597 net.cpp:144] Setting up inception_3b/relu_3x3_reduce
I1219 03:12:29.446382 15597 net.cpp:151] Top shape: 1 128 60 120 (921600)
I1219 03:12:29.446383 15597 net.cpp:159] Memory required for data: 358041604
I1219 03:12:29.446385 15597 layer_factory.hpp:77] Creating layer inception_3b/3x3
I1219 03:12:29.446389 15597 net.cpp:94] Creating Layer inception_3b/3x3
I1219 03:12:29.446391 15597 net.cpp:435] inception_3b/3x3 <- inception_3b/3x3_reduce
I1219 03:12:29.446394 15597 net.cpp:409] inception_3b/3x3 -> inception_3b/3x3_raw
I1219 03:12:29.448283 15597 net.cpp:144] Setting up inception_3b/3x3
I1219 03:12:29.448292 15597 net.cpp:151] Top shape: 1 192 60 120 (1382400)
I1219 03:12:29.448295 15597 net.cpp:159] Memory required for data: 363571204
I1219 03:12:29.448299 15597 layer_factory.hpp:77] Creating layer inception_3b/3x3_BatchNorm
I1219 03:12:29.448305 15597 net.cpp:94] Creating Layer inception_3b/3x3_BatchNorm
I1219 03:12:29.448309 15597 net.cpp:435] inception_3b/3x3_BatchNorm <- inception_3b/3x3_raw
I1219 03:12:29.448313 15597 net.cpp:409] inception_3b/3x3_BatchNorm -> inception_3b/3x3
I1219 03:12:29.448693 15597 net.cpp:144] Setting up inception_3b/3x3_BatchNorm
I1219 03:12:29.448698 15597 net.cpp:151] Top shape: 1 192 60 120 (1382400)
I1219 03:12:29.448700 15597 net.cpp:159] Memory required for data: 369100804
I1219 03:12:29.448706 15597 layer_factory.hpp:77] Creating layer inception_3b/relu_3x3
I1219 03:12:29.448709 15597 net.cpp:94] Creating Layer inception_3b/relu_3x3
I1219 03:12:29.448711 15597 net.cpp:435] inception_3b/relu_3x3 <- inception_3b/3x3
I1219 03:12:29.448714 15597 net.cpp:396] inception_3b/relu_3x3 -> inception_3b/3x3 (in-place)
I1219 03:12:29.448719 15597 net.cpp:144] Setting up inception_3b/relu_3x3
I1219 03:12:29.448719 15597 net.cpp:151] Top shape: 1 192 60 120 (1382400)
I1219 03:12:29.448721 15597 net.cpp:159] Memory required for data: 374630404
I1219 03:12:29.448724 15597 layer_factory.hpp:77] Creating layer inception_3b/5x5_reduce
I1219 03:12:29.448727 15597 net.cpp:94] Creating Layer inception_3b/5x5_reduce
I1219 03:12:29.448731 15597 net.cpp:435] inception_3b/5x5_reduce <- inception_3a/output_inception_3a/output_0_split_2
I1219 03:12:29.448734 15597 net.cpp:409] inception_3b/5x5_reduce -> inception_3b/5x5_reduce_raw
I1219 03:12:29.448917 15597 net.cpp:144] Setting up inception_3b/5x5_reduce
I1219 03:12:29.448920 15597 net.cpp:151] Top shape: 1 32 60 120 (230400)
I1219 03:12:29.448923 15597 net.cpp:159] Memory required for data: 375552004
I1219 03:12:29.448926 15597 layer_factory.hpp:77] Creating layer inception_3b/5x5_reduce_BatchNorm
I1219 03:12:29.448931 15597 net.cpp:94] Creating Layer inception_3b/5x5_reduce_BatchNorm
I1219 03:12:29.448933 15597 net.cpp:435] inception_3b/5x5_reduce_BatchNorm <- inception_3b/5x5_reduce_raw
I1219 03:12:29.448936 15597 net.cpp:409] inception_3b/5x5_reduce_BatchNorm -> inception_3b/5x5_reduce
I1219 03:12:29.449306 15597 net.cpp:144] Setting up inception_3b/5x5_reduce_BatchNorm
I1219 03:12:29.449311 15597 net.cpp:151] Top shape: 1 32 60 120 (230400)
I1219 03:12:29.449312 15597 net.cpp:159] Memory required for data: 376473604
I1219 03:12:29.449317 15597 layer_factory.hpp:77] Creating layer inception_3b/relu_5x5_reduce
I1219 03:12:29.449321 15597 net.cpp:94] Creating Layer inception_3b/relu_5x5_reduce
I1219 03:12:29.449322 15597 net.cpp:435] inception_3b/relu_5x5_reduce <- inception_3b/5x5_reduce
I1219 03:12:29.449326 15597 net.cpp:396] inception_3b/relu_5x5_reduce -> inception_3b/5x5_reduce (in-place)
I1219 03:12:29.449328 15597 net.cpp:144] Setting up inception_3b/relu_5x5_reduce
I1219 03:12:29.449331 15597 net.cpp:151] Top shape: 1 32 60 120 (230400)
I1219 03:12:29.449334 15597 net.cpp:159] Memory required for data: 377395204
I1219 03:12:29.449337 15597 layer_factory.hpp:77] Creating layer inception_3b/5x5
I1219 03:12:29.449342 15597 net.cpp:94] Creating Layer inception_3b/5x5
I1219 03:12:29.449344 15597 net.cpp:435] inception_3b/5x5 <- inception_3b/5x5_reduce
I1219 03:12:29.449348 15597 net.cpp:409] inception_3b/5x5 -> inception_3b/5x5_raw
I1219 03:12:29.449898 15597 net.cpp:144] Setting up inception_3b/5x5
I1219 03:12:29.449903 15597 net.cpp:151] Top shape: 1 96 60 120 (691200)
I1219 03:12:29.449905 15597 net.cpp:159] Memory required for data: 380160004
I1219 03:12:29.449909 15597 layer_factory.hpp:77] Creating layer inception_3b/5x5_BatchNorm
I1219 03:12:29.449914 15597 net.cpp:94] Creating Layer inception_3b/5x5_BatchNorm
I1219 03:12:29.449918 15597 net.cpp:435] inception_3b/5x5_BatchNorm <- inception_3b/5x5_raw
I1219 03:12:29.449920 15597 net.cpp:409] inception_3b/5x5_BatchNorm -> inception_3b/5x5
I1219 03:12:29.450296 15597 net.cpp:144] Setting up inception_3b/5x5_BatchNorm
I1219 03:12:29.450300 15597 net.cpp:151] Top shape: 1 96 60 120 (691200)
I1219 03:12:29.450302 15597 net.cpp:159] Memory required for data: 382924804
I1219 03:12:29.450309 15597 layer_factory.hpp:77] Creating layer inception_3b/relu_5x5
I1219 03:12:29.450311 15597 net.cpp:94] Creating Layer inception_3b/relu_5x5
I1219 03:12:29.450314 15597 net.cpp:435] inception_3b/relu_5x5 <- inception_3b/5x5
I1219 03:12:29.450315 15597 net.cpp:396] inception_3b/relu_5x5 -> inception_3b/5x5 (in-place)
I1219 03:12:29.450318 15597 net.cpp:144] Setting up inception_3b/relu_5x5
I1219 03:12:29.450320 15597 net.cpp:151] Top shape: 1 96 60 120 (691200)
I1219 03:12:29.450322 15597 net.cpp:159] Memory required for data: 385689604
I1219 03:12:29.450325 15597 layer_factory.hpp:77] Creating layer inception_3b/pool
I1219 03:12:29.450328 15597 net.cpp:94] Creating Layer inception_3b/pool
I1219 03:12:29.450330 15597 net.cpp:435] inception_3b/pool <- inception_3a/output_inception_3a/output_0_split_3
I1219 03:12:29.450335 15597 net.cpp:409] inception_3b/pool -> inception_3b/pool
I1219 03:12:29.450356 15597 net.cpp:144] Setting up inception_3b/pool
I1219 03:12:29.450357 15597 net.cpp:151] Top shape: 1 256 60 120 (1843200)
I1219 03:12:29.450361 15597 net.cpp:159] Memory required for data: 393062404
I1219 03:12:29.450363 15597 layer_factory.hpp:77] Creating layer inception_3b/pool_proj
I1219 03:12:29.450368 15597 net.cpp:94] Creating Layer inception_3b/pool_proj
I1219 03:12:29.450371 15597 net.cpp:435] inception_3b/pool_proj <- inception_3b/pool
I1219 03:12:29.450374 15597 net.cpp:409] inception_3b/pool_proj -> inception_3b/pool_proj_raw
I1219 03:12:29.450603 15597 net.cpp:144] Setting up inception_3b/pool_proj
I1219 03:12:29.450606 15597 net.cpp:151] Top shape: 1 64 60 120 (460800)
I1219 03:12:29.450609 15597 net.cpp:159] Memory required for data: 394905604
I1219 03:12:29.450614 15597 layer_factory.hpp:77] Creating layer inception_3b/pool_proj_BatchNorm
I1219 03:12:29.450620 15597 net.cpp:94] Creating Layer inception_3b/pool_proj_BatchNorm
I1219 03:12:29.450623 15597 net.cpp:435] inception_3b/pool_proj_BatchNorm <- inception_3b/pool_proj_raw
I1219 03:12:29.450628 15597 net.cpp:409] inception_3b/pool_proj_BatchNorm -> inception_3b/pool_proj
I1219 03:12:29.451093 15597 net.cpp:144] Setting up inception_3b/pool_proj_BatchNorm
I1219 03:12:29.451103 15597 net.cpp:151] Top shape: 1 64 60 120 (460800)
I1219 03:12:29.451107 15597 net.cpp:159] Memory required for data: 396748804
I1219 03:12:29.451115 15597 layer_factory.hpp:77] Creating layer inception_3b/relu_pool_proj
I1219 03:12:29.451122 15597 net.cpp:94] Creating Layer inception_3b/relu_pool_proj
I1219 03:12:29.451124 15597 net.cpp:435] inception_3b/relu_pool_proj <- inception_3b/pool_proj
I1219 03:12:29.451129 15597 net.cpp:396] inception_3b/relu_pool_proj -> inception_3b/pool_proj (in-place)
I1219 03:12:29.451134 15597 net.cpp:144] Setting up inception_3b/relu_pool_proj
I1219 03:12:29.451138 15597 net.cpp:151] Top shape: 1 64 60 120 (460800)
I1219 03:12:29.451141 15597 net.cpp:159] Memory required for data: 398592004
I1219 03:12:29.451143 15597 layer_factory.hpp:77] Creating layer inception_3b/output
I1219 03:12:29.451148 15597 net.cpp:94] Creating Layer inception_3b/output
I1219 03:12:29.451150 15597 net.cpp:435] inception_3b/output <- inception_3b/1x1
I1219 03:12:29.451153 15597 net.cpp:435] inception_3b/output <- inception_3b/3x3
I1219 03:12:29.451155 15597 net.cpp:435] inception_3b/output <- inception_3b/5x5
I1219 03:12:29.451159 15597 net.cpp:435] inception_3b/output <- inception_3b/pool_proj
I1219 03:12:29.451161 15597 net.cpp:409] inception_3b/output -> inception_3b/output
I1219 03:12:29.451181 15597 net.cpp:144] Setting up inception_3b/output
I1219 03:12:29.451185 15597 net.cpp:151] Top shape: 1 480 60 120 (3456000)
I1219 03:12:29.451189 15597 net.cpp:159] Memory required for data: 412416004
I1219 03:12:29.451190 15597 layer_factory.hpp:77] Creating layer inception_3b/output_inception_3b/output_0_split
I1219 03:12:29.451195 15597 net.cpp:94] Creating Layer inception_3b/output_inception_3b/output_0_split
I1219 03:12:29.451197 15597 net.cpp:435] inception_3b/output_inception_3b/output_0_split <- inception_3b/output
I1219 03:12:29.451200 15597 net.cpp:409] inception_3b/output_inception_3b/output_0_split -> inception_3b/output_inception_3b/output_0_split_0
I1219 03:12:29.451205 15597 net.cpp:409] inception_3b/output_inception_3b/output_0_split -> inception_3b/output_inception_3b/output_0_split_1
I1219 03:12:29.451231 15597 net.cpp:144] Setting up inception_3b/output_inception_3b/output_0_split
I1219 03:12:29.451234 15597 net.cpp:151] Top shape: 1 480 60 120 (3456000)
I1219 03:12:29.451237 15597 net.cpp:151] Top shape: 1 480 60 120 (3456000)
I1219 03:12:29.451241 15597 net.cpp:159] Memory required for data: 440064004
I1219 03:12:29.451242 15597 layer_factory.hpp:77] Creating layer pool3/3x3_s2
I1219 03:12:29.451246 15597 net.cpp:94] Creating Layer pool3/3x3_s2
I1219 03:12:29.451249 15597 net.cpp:435] pool3/3x3_s2 <- inception_3b/output_inception_3b/output_0_split_0
I1219 03:12:29.451252 15597 net.cpp:409] pool3/3x3_s2 -> pool3/3x3_s2
I1219 03:12:29.451273 15597 net.cpp:144] Setting up pool3/3x3_s2
I1219 03:12:29.451275 15597 net.cpp:151] Top shape: 1 480 30 60 (864000)
I1219 03:12:29.451278 15597 net.cpp:159] Memory required for data: 443520004
I1219 03:12:29.451282 15597 layer_factory.hpp:77] Creating layer pool3/3x3_s2_pool3/3x3_s2_0_split
I1219 03:12:29.451284 15597 net.cpp:94] Creating Layer pool3/3x3_s2_pool3/3x3_s2_0_split
I1219 03:12:29.451287 15597 net.cpp:435] pool3/3x3_s2_pool3/3x3_s2_0_split <- pool3/3x3_s2
I1219 03:12:29.451289 15597 net.cpp:409] pool3/3x3_s2_pool3/3x3_s2_0_split -> pool3/3x3_s2_pool3/3x3_s2_0_split_0
I1219 03:12:29.451293 15597 net.cpp:409] pool3/3x3_s2_pool3/3x3_s2_0_split -> pool3/3x3_s2_pool3/3x3_s2_0_split_1
I1219 03:12:29.451298 15597 net.cpp:409] pool3/3x3_s2_pool3/3x3_s2_0_split -> pool3/3x3_s2_pool3/3x3_s2_0_split_2
I1219 03:12:29.451303 15597 net.cpp:409] pool3/3x3_s2_pool3/3x3_s2_0_split -> pool3/3x3_s2_pool3/3x3_s2_0_split_3
I1219 03:12:29.451337 15597 net.cpp:144] Setting up pool3/3x3_s2_pool3/3x3_s2_0_split
I1219 03:12:29.451339 15597 net.cpp:151] Top shape: 1 480 30 60 (864000)
I1219 03:12:29.451344 15597 net.cpp:151] Top shape: 1 480 30 60 (864000)
I1219 03:12:29.451345 15597 net.cpp:151] Top shape: 1 480 30 60 (864000)
I1219 03:12:29.451349 15597 net.cpp:151] Top shape: 1 480 30 60 (864000)
I1219 03:12:29.451351 15597 net.cpp:159] Memory required for data: 457344004
I1219 03:12:29.451354 15597 layer_factory.hpp:77] Creating layer inception_4a/1x1
I1219 03:12:29.451359 15597 net.cpp:94] Creating Layer inception_4a/1x1
I1219 03:12:29.451362 15597 net.cpp:435] inception_4a/1x1 <- pool3/3x3_s2_pool3/3x3_s2_0_split_0
I1219 03:12:29.451365 15597 net.cpp:409] inception_4a/1x1 -> inception_4a/1x1_raw
I1219 03:12:29.452811 15597 net.cpp:144] Setting up inception_4a/1x1
I1219 03:12:29.452818 15597 net.cpp:151] Top shape: 1 192 30 60 (345600)
I1219 03:12:29.452822 15597 net.cpp:159] Memory required for data: 458726404
I1219 03:12:29.452828 15597 layer_factory.hpp:77] Creating layer inception_4a/1x1_BatchNorm
I1219 03:12:29.452834 15597 net.cpp:94] Creating Layer inception_4a/1x1_BatchNorm
I1219 03:12:29.452837 15597 net.cpp:435] inception_4a/1x1_BatchNorm <- inception_4a/1x1_raw
I1219 03:12:29.452841 15597 net.cpp:409] inception_4a/1x1_BatchNorm -> inception_4a/1x1
I1219 03:12:29.453222 15597 net.cpp:144] Setting up inception_4a/1x1_BatchNorm
I1219 03:12:29.453227 15597 net.cpp:151] Top shape: 1 192 30 60 (345600)
I1219 03:12:29.453228 15597 net.cpp:159] Memory required for data: 460108804
I1219 03:12:29.453233 15597 layer_factory.hpp:77] Creating layer inception_4a/relu_1x1
I1219 03:12:29.453238 15597 net.cpp:94] Creating Layer inception_4a/relu_1x1
I1219 03:12:29.453239 15597 net.cpp:435] inception_4a/relu_1x1 <- inception_4a/1x1
I1219 03:12:29.453241 15597 net.cpp:396] inception_4a/relu_1x1 -> inception_4a/1x1 (in-place)
I1219 03:12:29.453244 15597 net.cpp:144] Setting up inception_4a/relu_1x1
I1219 03:12:29.453246 15597 net.cpp:151] Top shape: 1 192 30 60 (345600)
I1219 03:12:29.453248 15597 net.cpp:159] Memory required for data: 461491204
I1219 03:12:29.453250 15597 layer_factory.hpp:77] Creating layer inception_4a/3x3_reduce
I1219 03:12:29.453254 15597 net.cpp:94] Creating Layer inception_4a/3x3_reduce
I1219 03:12:29.453256 15597 net.cpp:435] inception_4a/3x3_reduce <- pool3/3x3_s2_pool3/3x3_s2_0_split_1
I1219 03:12:29.453259 15597 net.cpp:409] inception_4a/3x3_reduce -> inception_4a/3x3_reduce_raw
I1219 03:12:29.453645 15597 net.cpp:144] Setting up inception_4a/3x3_reduce
I1219 03:12:29.453650 15597 net.cpp:151] Top shape: 1 96 30 60 (172800)
I1219 03:12:29.453652 15597 net.cpp:159] Memory required for data: 462182404
I1219 03:12:29.453656 15597 layer_factory.hpp:77] Creating layer inception_4a/3x3_reduce_BatchNorm
I1219 03:12:29.453660 15597 net.cpp:94] Creating Layer inception_4a/3x3_reduce_BatchNorm
I1219 03:12:29.453662 15597 net.cpp:435] inception_4a/3x3_reduce_BatchNorm <- inception_4a/3x3_reduce_raw
I1219 03:12:29.453665 15597 net.cpp:409] inception_4a/3x3_reduce_BatchNorm -> inception_4a/3x3_reduce
I1219 03:12:29.454043 15597 net.cpp:144] Setting up inception_4a/3x3_reduce_BatchNorm
I1219 03:12:29.454048 15597 net.cpp:151] Top shape: 1 96 30 60 (172800)
I1219 03:12:29.454051 15597 net.cpp:159] Memory required for data: 462873604
I1219 03:12:29.454056 15597 layer_factory.hpp:77] Creating layer inception_4a/relu_3x3_reduce
I1219 03:12:29.454058 15597 net.cpp:94] Creating Layer inception_4a/relu_3x3_reduce
I1219 03:12:29.454061 15597 net.cpp:435] inception_4a/relu_3x3_reduce <- inception_4a/3x3_reduce
I1219 03:12:29.454063 15597 net.cpp:396] inception_4a/relu_3x3_reduce -> inception_4a/3x3_reduce (in-place)
I1219 03:12:29.454066 15597 net.cpp:144] Setting up inception_4a/relu_3x3_reduce
I1219 03:12:29.454067 15597 net.cpp:151] Top shape: 1 96 30 60 (172800)
I1219 03:12:29.454069 15597 net.cpp:159] Memory required for data: 463564804
I1219 03:12:29.454071 15597 layer_factory.hpp:77] Creating layer inception_4a/3x3
I1219 03:12:29.454077 15597 net.cpp:94] Creating Layer inception_4a/3x3
I1219 03:12:29.454079 15597 net.cpp:435] inception_4a/3x3 <- inception_4a/3x3_reduce
I1219 03:12:29.454082 15597 net.cpp:409] inception_4a/3x3 -> inception_4a/3x3_raw
I1219 03:12:29.455678 15597 net.cpp:144] Setting up inception_4a/3x3
I1219 03:12:29.455687 15597 net.cpp:151] Top shape: 1 208 30 60 (374400)
I1219 03:12:29.455689 15597 net.cpp:159] Memory required for data: 465062404
I1219 03:12:29.455694 15597 layer_factory.hpp:77] Creating layer inception_4a/3x3_BatchNorm
I1219 03:12:29.455698 15597 net.cpp:94] Creating Layer inception_4a/3x3_BatchNorm
I1219 03:12:29.455700 15597 net.cpp:435] inception_4a/3x3_BatchNorm <- inception_4a/3x3_raw
I1219 03:12:29.455703 15597 net.cpp:409] inception_4a/3x3_BatchNorm -> inception_4a/3x3
I1219 03:12:29.456084 15597 net.cpp:144] Setting up inception_4a/3x3_BatchNorm
I1219 03:12:29.456087 15597 net.cpp:151] Top shape: 1 208 30 60 (374400)
I1219 03:12:29.456090 15597 net.cpp:159] Memory required for data: 466560004
I1219 03:12:29.456095 15597 layer_factory.hpp:77] Creating layer inception_4a/relu_3x3
I1219 03:12:29.456099 15597 net.cpp:94] Creating Layer inception_4a/relu_3x3
I1219 03:12:29.456100 15597 net.cpp:435] inception_4a/relu_3x3 <- inception_4a/3x3
I1219 03:12:29.456104 15597 net.cpp:396] inception_4a/relu_3x3 -> inception_4a/3x3 (in-place)
I1219 03:12:29.456106 15597 net.cpp:144] Setting up inception_4a/relu_3x3
I1219 03:12:29.456107 15597 net.cpp:151] Top shape: 1 208 30 60 (374400)
I1219 03:12:29.456110 15597 net.cpp:159] Memory required for data: 468057604
I1219 03:12:29.456111 15597 layer_factory.hpp:77] Creating layer inception_4a/5x5_reduce
I1219 03:12:29.456116 15597 net.cpp:94] Creating Layer inception_4a/5x5_reduce
I1219 03:12:29.456118 15597 net.cpp:435] inception_4a/5x5_reduce <- pool3/3x3_s2_pool3/3x3_s2_0_split_2
I1219 03:12:29.456121 15597 net.cpp:409] inception_4a/5x5_reduce -> inception_4a/5x5_reduce_raw
I1219 03:12:29.456302 15597 net.cpp:144] Setting up inception_4a/5x5_reduce
I1219 03:12:29.456305 15597 net.cpp:151] Top shape: 1 16 30 60 (28800)
I1219 03:12:29.456307 15597 net.cpp:159] Memory required for data: 468172804
I1219 03:12:29.456311 15597 layer_factory.hpp:77] Creating layer inception_4a/5x5_reduce_BatchNorm
I1219 03:12:29.456315 15597 net.cpp:94] Creating Layer inception_4a/5x5_reduce_BatchNorm
I1219 03:12:29.456316 15597 net.cpp:435] inception_4a/5x5_reduce_BatchNorm <- inception_4a/5x5_reduce_raw
I1219 03:12:29.456319 15597 net.cpp:409] inception_4a/5x5_reduce_BatchNorm -> inception_4a/5x5_reduce
I1219 03:12:29.456678 15597 net.cpp:144] Setting up inception_4a/5x5_reduce_BatchNorm
I1219 03:12:29.456683 15597 net.cpp:151] Top shape: 1 16 30 60 (28800)
I1219 03:12:29.456686 15597 net.cpp:159] Memory required for data: 468288004
I1219 03:12:29.456696 15597 layer_factory.hpp:77] Creating layer inception_4a/relu_5x5_reduce
I1219 03:12:29.456701 15597 net.cpp:94] Creating Layer inception_4a/relu_5x5_reduce
I1219 03:12:29.456703 15597 net.cpp:435] inception_4a/relu_5x5_reduce <- inception_4a/5x5_reduce
I1219 03:12:29.456707 15597 net.cpp:396] inception_4a/relu_5x5_reduce -> inception_4a/5x5_reduce (in-place)
I1219 03:12:29.456712 15597 net.cpp:144] Setting up inception_4a/relu_5x5_reduce
I1219 03:12:29.456714 15597 net.cpp:151] Top shape: 1 16 30 60 (28800)
I1219 03:12:29.456717 15597 net.cpp:159] Memory required for data: 468403204
I1219 03:12:29.456719 15597 layer_factory.hpp:77] Creating layer inception_4a/5x5
I1219 03:12:29.456724 15597 net.cpp:94] Creating Layer inception_4a/5x5
I1219 03:12:29.456727 15597 net.cpp:435] inception_4a/5x5 <- inception_4a/5x5_reduce
I1219 03:12:29.456730 15597 net.cpp:409] inception_4a/5x5 -> inception_4a/5x5_raw
I1219 03:12:29.457001 15597 net.cpp:144] Setting up inception_4a/5x5
I1219 03:12:29.457005 15597 net.cpp:151] Top shape: 1 48 30 60 (86400)
I1219 03:12:29.457008 15597 net.cpp:159] Memory required for data: 468748804
I1219 03:12:29.457012 15597 layer_factory.hpp:77] Creating layer inception_4a/5x5_BatchNorm
I1219 03:12:29.457017 15597 net.cpp:94] Creating Layer inception_4a/5x5_BatchNorm
I1219 03:12:29.457020 15597 net.cpp:435] inception_4a/5x5_BatchNorm <- inception_4a/5x5_raw
I1219 03:12:29.457022 15597 net.cpp:409] inception_4a/5x5_BatchNorm -> inception_4a/5x5
I1219 03:12:29.457403 15597 net.cpp:144] Setting up inception_4a/5x5_BatchNorm
I1219 03:12:29.457408 15597 net.cpp:151] Top shape: 1 48 30 60 (86400)
I1219 03:12:29.457410 15597 net.cpp:159] Memory required for data: 469094404
I1219 03:12:29.457417 15597 layer_factory.hpp:77] Creating layer inception_4a/relu_5x5
I1219 03:12:29.457419 15597 net.cpp:94] Creating Layer inception_4a/relu_5x5
I1219 03:12:29.457422 15597 net.cpp:435] inception_4a/relu_5x5 <- inception_4a/5x5
I1219 03:12:29.457424 15597 net.cpp:396] inception_4a/relu_5x5 -> inception_4a/5x5 (in-place)
I1219 03:12:29.457427 15597 net.cpp:144] Setting up inception_4a/relu_5x5
I1219 03:12:29.457429 15597 net.cpp:151] Top shape: 1 48 30 60 (86400)
I1219 03:12:29.457432 15597 net.cpp:159] Memory required for data: 469440004
I1219 03:12:29.457433 15597 layer_factory.hpp:77] Creating layer inception_4a/pool
I1219 03:12:29.457437 15597 net.cpp:94] Creating Layer inception_4a/pool
I1219 03:12:29.457439 15597 net.cpp:435] inception_4a/pool <- pool3/3x3_s2_pool3/3x3_s2_0_split_3
I1219 03:12:29.457442 15597 net.cpp:409] inception_4a/pool -> inception_4a/pool
I1219 03:12:29.457460 15597 net.cpp:144] Setting up inception_4a/pool
I1219 03:12:29.457463 15597 net.cpp:151] Top shape: 1 480 30 60 (864000)
I1219 03:12:29.457465 15597 net.cpp:159] Memory required for data: 472896004
I1219 03:12:29.457466 15597 layer_factory.hpp:77] Creating layer inception_4a/pool_proj
I1219 03:12:29.457470 15597 net.cpp:94] Creating Layer inception_4a/pool_proj
I1219 03:12:29.457473 15597 net.cpp:435] inception_4a/pool_proj <- inception_4a/pool
I1219 03:12:29.457475 15597 net.cpp:409] inception_4a/pool_proj -> inception_4a/pool_proj_raw
I1219 03:12:29.457772 15597 net.cpp:144] Setting up inception_4a/pool_proj
I1219 03:12:29.457775 15597 net.cpp:151] Top shape: 1 64 30 60 (115200)
I1219 03:12:29.457778 15597 net.cpp:159] Memory required for data: 473356804
I1219 03:12:29.457782 15597 layer_factory.hpp:77] Creating layer inception_4a/pool_proj_BatchNorm
I1219 03:12:29.457787 15597 net.cpp:94] Creating Layer inception_4a/pool_proj_BatchNorm
I1219 03:12:29.457788 15597 net.cpp:435] inception_4a/pool_proj_BatchNorm <- inception_4a/pool_proj_raw
I1219 03:12:29.457792 15597 net.cpp:409] inception_4a/pool_proj_BatchNorm -> inception_4a/pool_proj
I1219 03:12:29.458163 15597 net.cpp:144] Setting up inception_4a/pool_proj_BatchNorm
I1219 03:12:29.458168 15597 net.cpp:151] Top shape: 1 64 30 60 (115200)
I1219 03:12:29.458169 15597 net.cpp:159] Memory required for data: 473817604
I1219 03:12:29.458174 15597 layer_factory.hpp:77] Creating layer inception_4a/relu_pool_proj
I1219 03:12:29.458178 15597 net.cpp:94] Creating Layer inception_4a/relu_pool_proj
I1219 03:12:29.458179 15597 net.cpp:435] inception_4a/relu_pool_proj <- inception_4a/pool_proj
I1219 03:12:29.458182 15597 net.cpp:396] inception_4a/relu_pool_proj -> inception_4a/pool_proj (in-place)
I1219 03:12:29.458185 15597 net.cpp:144] Setting up inception_4a/relu_pool_proj
I1219 03:12:29.458186 15597 net.cpp:151] Top shape: 1 64 30 60 (115200)
I1219 03:12:29.458189 15597 net.cpp:159] Memory required for data: 474278404
I1219 03:12:29.458190 15597 layer_factory.hpp:77] Creating layer inception_4a/output
I1219 03:12:29.458194 15597 net.cpp:94] Creating Layer inception_4a/output
I1219 03:12:29.458195 15597 net.cpp:435] inception_4a/output <- inception_4a/1x1
I1219 03:12:29.458197 15597 net.cpp:435] inception_4a/output <- inception_4a/3x3
I1219 03:12:29.458199 15597 net.cpp:435] inception_4a/output <- inception_4a/5x5
I1219 03:12:29.458201 15597 net.cpp:435] inception_4a/output <- inception_4a/pool_proj
I1219 03:12:29.458204 15597 net.cpp:409] inception_4a/output -> inception_4a/output
I1219 03:12:29.458218 15597 net.cpp:144] Setting up inception_4a/output
I1219 03:12:29.458222 15597 net.cpp:151] Top shape: 1 512 30 60 (921600)
I1219 03:12:29.458225 15597 net.cpp:159] Memory required for data: 477964804
I1219 03:12:29.458227 15597 layer_factory.hpp:77] Creating layer inception_4a/output_inception_4a/output_0_split
I1219 03:12:29.458232 15597 net.cpp:94] Creating Layer inception_4a/output_inception_4a/output_0_split
I1219 03:12:29.458236 15597 net.cpp:435] inception_4a/output_inception_4a/output_0_split <- inception_4a/output
I1219 03:12:29.458240 15597 net.cpp:409] inception_4a/output_inception_4a/output_0_split -> inception_4a/output_inception_4a/output_0_split_0
I1219 03:12:29.458245 15597 net.cpp:409] inception_4a/output_inception_4a/output_0_split -> inception_4a/output_inception_4a/output_0_split_1
I1219 03:12:29.458250 15597 net.cpp:409] inception_4a/output_inception_4a/output_0_split -> inception_4a/output_inception_4a/output_0_split_2
I1219 03:12:29.458254 15597 net.cpp:409] inception_4a/output_inception_4a/output_0_split -> inception_4a/output_inception_4a/output_0_split_3
I1219 03:12:29.458292 15597 net.cpp:144] Setting up inception_4a/output_inception_4a/output_0_split
I1219 03:12:29.458295 15597 net.cpp:151] Top shape: 1 512 30 60 (921600)
I1219 03:12:29.458299 15597 net.cpp:151] Top shape: 1 512 30 60 (921600)
I1219 03:12:29.458302 15597 net.cpp:151] Top shape: 1 512 30 60 (921600)
I1219 03:12:29.458305 15597 net.cpp:151] Top shape: 1 512 30 60 (921600)
I1219 03:12:29.458308 15597 net.cpp:159] Memory required for data: 492710404
I1219 03:12:29.458310 15597 layer_factory.hpp:77] Creating layer inception_4b/1x1
I1219 03:12:29.458317 15597 net.cpp:94] Creating Layer inception_4b/1x1
I1219 03:12:29.458320 15597 net.cpp:435] inception_4b/1x1 <- inception_4a/output_inception_4a/output_0_split_0
I1219 03:12:29.458324 15597 net.cpp:409] inception_4b/1x1 -> inception_4b/1x1_raw
I1219 03:12:29.459194 15597 net.cpp:144] Setting up inception_4b/1x1
I1219 03:12:29.459204 15597 net.cpp:151] Top shape: 1 160 30 60 (288000)
I1219 03:12:29.459209 15597 net.cpp:159] Memory required for data: 493862404
I1219 03:12:29.459214 15597 layer_factory.hpp:77] Creating layer inception_4b/1x1_BatchNorm
I1219 03:12:29.459223 15597 net.cpp:94] Creating Layer inception_4b/1x1_BatchNorm
I1219 03:12:29.459226 15597 net.cpp:435] inception_4b/1x1_BatchNorm <- inception_4b/1x1_raw
I1219 03:12:29.459231 15597 net.cpp:409] inception_4b/1x1_BatchNorm -> inception_4b/1x1
I1219 03:12:29.459735 15597 net.cpp:144] Setting up inception_4b/1x1_BatchNorm
I1219 03:12:29.459743 15597 net.cpp:151] Top shape: 1 160 30 60 (288000)
I1219 03:12:29.459746 15597 net.cpp:159] Memory required for data: 495014404
I1219 03:12:29.459753 15597 layer_factory.hpp:77] Creating layer inception_4b/relu_1x1
I1219 03:12:29.459756 15597 net.cpp:94] Creating Layer inception_4b/relu_1x1
I1219 03:12:29.459758 15597 net.cpp:435] inception_4b/relu_1x1 <- inception_4b/1x1
I1219 03:12:29.459761 15597 net.cpp:396] inception_4b/relu_1x1 -> inception_4b/1x1 (in-place)
I1219 03:12:29.459765 15597 net.cpp:144] Setting up inception_4b/relu_1x1
I1219 03:12:29.459767 15597 net.cpp:151] Top shape: 1 160 30 60 (288000)
I1219 03:12:29.459769 15597 net.cpp:159] Memory required for data: 496166404
I1219 03:12:29.459771 15597 layer_factory.hpp:77] Creating layer inception_4b/3x3_reduce
I1219 03:12:29.459776 15597 net.cpp:94] Creating Layer inception_4b/3x3_reduce
I1219 03:12:29.459779 15597 net.cpp:435] inception_4b/3x3_reduce <- inception_4a/output_inception_4a/output_0_split_1
I1219 03:12:29.459781 15597 net.cpp:409] inception_4b/3x3_reduce -> inception_4b/3x3_reduce_raw
I1219 03:12:29.460235 15597 net.cpp:144] Setting up inception_4b/3x3_reduce
I1219 03:12:29.460238 15597 net.cpp:151] Top shape: 1 112 30 60 (201600)
I1219 03:12:29.460242 15597 net.cpp:159] Memory required for data: 496972804
I1219 03:12:29.460244 15597 layer_factory.hpp:77] Creating layer inception_4b/3x3_reduce_BatchNorm
I1219 03:12:29.460248 15597 net.cpp:94] Creating Layer inception_4b/3x3_reduce_BatchNorm
I1219 03:12:29.460250 15597 net.cpp:435] inception_4b/3x3_reduce_BatchNorm <- inception_4b/3x3_reduce_raw
I1219 03:12:29.460255 15597 net.cpp:409] inception_4b/3x3_reduce_BatchNorm -> inception_4b/3x3_reduce
I1219 03:12:29.460650 15597 net.cpp:144] Setting up inception_4b/3x3_reduce_BatchNorm
I1219 03:12:29.460655 15597 net.cpp:151] Top shape: 1 112 30 60 (201600)
I1219 03:12:29.460659 15597 net.cpp:159] Memory required for data: 497779204
I1219 03:12:29.460665 15597 layer_factory.hpp:77] Creating layer inception_4b/relu_3x3_reduce
I1219 03:12:29.460671 15597 net.cpp:94] Creating Layer inception_4b/relu_3x3_reduce
I1219 03:12:29.460673 15597 net.cpp:435] inception_4b/relu_3x3_reduce <- inception_4b/3x3_reduce
I1219 03:12:29.460677 15597 net.cpp:396] inception_4b/relu_3x3_reduce -> inception_4b/3x3_reduce (in-place)
I1219 03:12:29.460681 15597 net.cpp:144] Setting up inception_4b/relu_3x3_reduce
I1219 03:12:29.460683 15597 net.cpp:151] Top shape: 1 112 30 60 (201600)
I1219 03:12:29.460685 15597 net.cpp:159] Memory required for data: 498585604
I1219 03:12:29.460687 15597 layer_factory.hpp:77] Creating layer inception_4b/3x3
I1219 03:12:29.460692 15597 net.cpp:94] Creating Layer inception_4b/3x3
I1219 03:12:29.460695 15597 net.cpp:435] inception_4b/3x3 <- inception_4b/3x3_reduce
I1219 03:12:29.460696 15597 net.cpp:409] inception_4b/3x3 -> inception_4b/3x3_raw
I1219 03:12:29.462877 15597 net.cpp:144] Setting up inception_4b/3x3
I1219 03:12:29.462893 15597 net.cpp:151] Top shape: 1 224 30 60 (403200)
I1219 03:12:29.462900 15597 net.cpp:159] Memory required for data: 500198404
I1219 03:12:29.462908 15597 layer_factory.hpp:77] Creating layer inception_4b/3x3_BatchNorm
I1219 03:12:29.462918 15597 net.cpp:94] Creating Layer inception_4b/3x3_BatchNorm
I1219 03:12:29.462922 15597 net.cpp:435] inception_4b/3x3_BatchNorm <- inception_4b/3x3_raw
I1219 03:12:29.462927 15597 net.cpp:409] inception_4b/3x3_BatchNorm -> inception_4b/3x3
I1219 03:12:29.463445 15597 net.cpp:144] Setting up inception_4b/3x3_BatchNorm
I1219 03:12:29.463454 15597 net.cpp:151] Top shape: 1 224 30 60 (403200)
I1219 03:12:29.463457 15597 net.cpp:159] Memory required for data: 501811204
I1219 03:12:29.463464 15597 layer_factory.hpp:77] Creating layer inception_4b/relu_3x3
I1219 03:12:29.463467 15597 net.cpp:94] Creating Layer inception_4b/relu_3x3
I1219 03:12:29.463471 15597 net.cpp:435] inception_4b/relu_3x3 <- inception_4b/3x3
I1219 03:12:29.463474 15597 net.cpp:396] inception_4b/relu_3x3 -> inception_4b/3x3 (in-place)
I1219 03:12:29.463479 15597 net.cpp:144] Setting up inception_4b/relu_3x3
I1219 03:12:29.463480 15597 net.cpp:151] Top shape: 1 224 30 60 (403200)
I1219 03:12:29.463483 15597 net.cpp:159] Memory required for data: 503424004
I1219 03:12:29.463485 15597 layer_factory.hpp:77] Creating layer inception_4b/5x5_reduce
I1219 03:12:29.463491 15597 net.cpp:94] Creating Layer inception_4b/5x5_reduce
I1219 03:12:29.463493 15597 net.cpp:435] inception_4b/5x5_reduce <- inception_4a/output_inception_4a/output_0_split_2
I1219 03:12:29.463496 15597 net.cpp:409] inception_4b/5x5_reduce -> inception_4b/5x5_reduce_raw
I1219 03:12:29.463717 15597 net.cpp:144] Setting up inception_4b/5x5_reduce
I1219 03:12:29.463721 15597 net.cpp:151] Top shape: 1 24 30 60 (43200)
I1219 03:12:29.463723 15597 net.cpp:159] Memory required for data: 503596804
I1219 03:12:29.463726 15597 layer_factory.hpp:77] Creating layer inception_4b/5x5_reduce_BatchNorm
I1219 03:12:29.463732 15597 net.cpp:94] Creating Layer inception_4b/5x5_reduce_BatchNorm
I1219 03:12:29.463733 15597 net.cpp:435] inception_4b/5x5_reduce_BatchNorm <- inception_4b/5x5_reduce_raw
I1219 03:12:29.463737 15597 net.cpp:409] inception_4b/5x5_reduce_BatchNorm -> inception_4b/5x5_reduce
I1219 03:12:29.464123 15597 net.cpp:144] Setting up inception_4b/5x5_reduce_BatchNorm
I1219 03:12:29.464128 15597 net.cpp:151] Top shape: 1 24 30 60 (43200)
I1219 03:12:29.464130 15597 net.cpp:159] Memory required for data: 503769604
I1219 03:12:29.464136 15597 layer_factory.hpp:77] Creating layer inception_4b/relu_5x5_reduce
I1219 03:12:29.464139 15597 net.cpp:94] Creating Layer inception_4b/relu_5x5_reduce
I1219 03:12:29.464141 15597 net.cpp:435] inception_4b/relu_5x5_reduce <- inception_4b/5x5_reduce
I1219 03:12:29.464143 15597 net.cpp:396] inception_4b/relu_5x5_reduce -> inception_4b/5x5_reduce (in-place)
I1219 03:12:29.464148 15597 net.cpp:144] Setting up inception_4b/relu_5x5_reduce
I1219 03:12:29.464148 15597 net.cpp:151] Top shape: 1 24 30 60 (43200)
I1219 03:12:29.464150 15597 net.cpp:159] Memory required for data: 503942404
I1219 03:12:29.464152 15597 layer_factory.hpp:77] Creating layer inception_4b/5x5
I1219 03:12:29.464156 15597 net.cpp:94] Creating Layer inception_4b/5x5
I1219 03:12:29.464159 15597 net.cpp:435] inception_4b/5x5 <- inception_4b/5x5_reduce
I1219 03:12:29.464161 15597 net.cpp:409] inception_4b/5x5 -> inception_4b/5x5_raw
I1219 03:12:29.465129 15597 net.cpp:144] Setting up inception_4b/5x5
I1219 03:12:29.465135 15597 net.cpp:151] Top shape: 1 64 30 60 (115200)
I1219 03:12:29.465138 15597 net.cpp:159] Memory required for data: 504403204
I1219 03:12:29.465143 15597 layer_factory.hpp:77] Creating layer inception_4b/5x5_BatchNorm
I1219 03:12:29.465147 15597 net.cpp:94] Creating Layer inception_4b/5x5_BatchNorm
I1219 03:12:29.465152 15597 net.cpp:435] inception_4b/5x5_BatchNorm <- inception_4b/5x5_raw
I1219 03:12:29.465154 15597 net.cpp:409] inception_4b/5x5_BatchNorm -> inception_4b/5x5
I1219 03:12:29.465540 15597 net.cpp:144] Setting up inception_4b/5x5_BatchNorm
I1219 03:12:29.465543 15597 net.cpp:151] Top shape: 1 64 30 60 (115200)
I1219 03:12:29.465546 15597 net.cpp:159] Memory required for data: 504864004
I1219 03:12:29.465551 15597 layer_factory.hpp:77] Creating layer inception_4b/relu_5x5
I1219 03:12:29.465555 15597 net.cpp:94] Creating Layer inception_4b/relu_5x5
I1219 03:12:29.465557 15597 net.cpp:435] inception_4b/relu_5x5 <- inception_4b/5x5
I1219 03:12:29.465559 15597 net.cpp:396] inception_4b/relu_5x5 -> inception_4b/5x5 (in-place)
I1219 03:12:29.465562 15597 net.cpp:144] Setting up inception_4b/relu_5x5
I1219 03:12:29.465564 15597 net.cpp:151] Top shape: 1 64 30 60 (115200)
I1219 03:12:29.465566 15597 net.cpp:159] Memory required for data: 505324804
I1219 03:12:29.465569 15597 layer_factory.hpp:77] Creating layer inception_4b/pool
I1219 03:12:29.465572 15597 net.cpp:94] Creating Layer inception_4b/pool
I1219 03:12:29.465574 15597 net.cpp:435] inception_4b/pool <- inception_4a/output_inception_4a/output_0_split_3
I1219 03:12:29.465577 15597 net.cpp:409] inception_4b/pool -> inception_4b/pool
I1219 03:12:29.465597 15597 net.cpp:144] Setting up inception_4b/pool
I1219 03:12:29.465600 15597 net.cpp:151] Top shape: 1 512 30 60 (921600)
I1219 03:12:29.465602 15597 net.cpp:159] Memory required for data: 509011204
I1219 03:12:29.465603 15597 layer_factory.hpp:77] Creating layer inception_4b/pool_proj
I1219 03:12:29.465607 15597 net.cpp:94] Creating Layer inception_4b/pool_proj
I1219 03:12:29.465610 15597 net.cpp:435] inception_4b/pool_proj <- inception_4b/pool
I1219 03:12:29.465612 15597 net.cpp:409] inception_4b/pool_proj -> inception_4b/pool_proj_raw
I1219 03:12:29.465930 15597 net.cpp:144] Setting up inception_4b/pool_proj
I1219 03:12:29.465934 15597 net.cpp:151] Top shape: 1 64 30 60 (115200)
I1219 03:12:29.465936 15597 net.cpp:159] Memory required for data: 509472004
I1219 03:12:29.465940 15597 layer_factory.hpp:77] Creating layer inception_4b/pool_proj_BatchNorm
I1219 03:12:29.465945 15597 net.cpp:94] Creating Layer inception_4b/pool_proj_BatchNorm
I1219 03:12:29.465946 15597 net.cpp:435] inception_4b/pool_proj_BatchNorm <- inception_4b/pool_proj_raw
I1219 03:12:29.465950 15597 net.cpp:409] inception_4b/pool_proj_BatchNorm -> inception_4b/pool_proj
I1219 03:12:29.466328 15597 net.cpp:144] Setting up inception_4b/pool_proj_BatchNorm
I1219 03:12:29.466332 15597 net.cpp:151] Top shape: 1 64 30 60 (115200)
I1219 03:12:29.466336 15597 net.cpp:159] Memory required for data: 509932804
I1219 03:12:29.466341 15597 layer_factory.hpp:77] Creating layer inception_4b/relu_pool_proj
I1219 03:12:29.466344 15597 net.cpp:94] Creating Layer inception_4b/relu_pool_proj
I1219 03:12:29.466346 15597 net.cpp:435] inception_4b/relu_pool_proj <- inception_4b/pool_proj
I1219 03:12:29.466348 15597 net.cpp:396] inception_4b/relu_pool_proj -> inception_4b/pool_proj (in-place)
I1219 03:12:29.466351 15597 net.cpp:144] Setting up inception_4b/relu_pool_proj
I1219 03:12:29.466353 15597 net.cpp:151] Top shape: 1 64 30 60 (115200)
I1219 03:12:29.466356 15597 net.cpp:159] Memory required for data: 510393604
I1219 03:12:29.466357 15597 layer_factory.hpp:77] Creating layer inception_4b/output
I1219 03:12:29.466361 15597 net.cpp:94] Creating Layer inception_4b/output
I1219 03:12:29.466362 15597 net.cpp:435] inception_4b/output <- inception_4b/1x1
I1219 03:12:29.466364 15597 net.cpp:435] inception_4b/output <- inception_4b/3x3
I1219 03:12:29.466367 15597 net.cpp:435] inception_4b/output <- inception_4b/5x5
I1219 03:12:29.466369 15597 net.cpp:435] inception_4b/output <- inception_4b/pool_proj
I1219 03:12:29.466373 15597 net.cpp:409] inception_4b/output -> inception_4b/output
I1219 03:12:29.466387 15597 net.cpp:144] Setting up inception_4b/output
I1219 03:12:29.466390 15597 net.cpp:151] Top shape: 1 512 30 60 (921600)
I1219 03:12:29.466393 15597 net.cpp:159] Memory required for data: 514080004
I1219 03:12:29.466394 15597 layer_factory.hpp:77] Creating layer inception_4b/output_inception_4b/output_0_split
I1219 03:12:29.466398 15597 net.cpp:94] Creating Layer inception_4b/output_inception_4b/output_0_split
I1219 03:12:29.466400 15597 net.cpp:435] inception_4b/output_inception_4b/output_0_split <- inception_4b/output
I1219 03:12:29.466403 15597 net.cpp:409] inception_4b/output_inception_4b/output_0_split -> inception_4b/output_inception_4b/output_0_split_0
I1219 03:12:29.466406 15597 net.cpp:409] inception_4b/output_inception_4b/output_0_split -> inception_4b/output_inception_4b/output_0_split_1
I1219 03:12:29.466410 15597 net.cpp:409] inception_4b/output_inception_4b/output_0_split -> inception_4b/output_inception_4b/output_0_split_2
I1219 03:12:29.466413 15597 net.cpp:409] inception_4b/output_inception_4b/output_0_split -> inception_4b/output_inception_4b/output_0_split_3
I1219 03:12:29.466444 15597 net.cpp:144] Setting up inception_4b/output_inception_4b/output_0_split
I1219 03:12:29.466445 15597 net.cpp:151] Top shape: 1 512 30 60 (921600)
I1219 03:12:29.466449 15597 net.cpp:151] Top shape: 1 512 30 60 (921600)
I1219 03:12:29.466450 15597 net.cpp:151] Top shape: 1 512 30 60 (921600)
I1219 03:12:29.466452 15597 net.cpp:151] Top shape: 1 512 30 60 (921600)
I1219 03:12:29.466454 15597 net.cpp:159] Memory required for data: 528825604
I1219 03:12:29.466456 15597 layer_factory.hpp:77] Creating layer inception_4c/1x1
I1219 03:12:29.466460 15597 net.cpp:94] Creating Layer inception_4c/1x1
I1219 03:12:29.466462 15597 net.cpp:435] inception_4c/1x1 <- inception_4b/output_inception_4b/output_0_split_0
I1219 03:12:29.466465 15597 net.cpp:409] inception_4c/1x1 -> inception_4c/1x1_raw
I1219 03:12:29.466941 15597 net.cpp:144] Setting up inception_4c/1x1
I1219 03:12:29.466945 15597 net.cpp:151] Top shape: 1 128 30 60 (230400)
I1219 03:12:29.466948 15597 net.cpp:159] Memory required for data: 529747204
I1219 03:12:29.466953 15597 layer_factory.hpp:77] Creating layer inception_4c/1x1_BatchNorm
I1219 03:12:29.466955 15597 net.cpp:94] Creating Layer inception_4c/1x1_BatchNorm
I1219 03:12:29.466958 15597 net.cpp:435] inception_4c/1x1_BatchNorm <- inception_4c/1x1_raw
I1219 03:12:29.466961 15597 net.cpp:409] inception_4c/1x1_BatchNorm -> inception_4c/1x1
I1219 03:12:29.467285 15597 net.cpp:144] Setting up inception_4c/1x1_BatchNorm
I1219 03:12:29.467288 15597 net.cpp:151] Top shape: 1 128 30 60 (230400)
I1219 03:12:29.467291 15597 net.cpp:159] Memory required for data: 530668804
I1219 03:12:29.467296 15597 layer_factory.hpp:77] Creating layer inception_4c/relu_1x1
I1219 03:12:29.467301 15597 net.cpp:94] Creating Layer inception_4c/relu_1x1
I1219 03:12:29.467303 15597 net.cpp:435] inception_4c/relu_1x1 <- inception_4c/1x1
I1219 03:12:29.467305 15597 net.cpp:396] inception_4c/relu_1x1 -> inception_4c/1x1 (in-place)
I1219 03:12:29.467309 15597 net.cpp:144] Setting up inception_4c/relu_1x1
I1219 03:12:29.467311 15597 net.cpp:151] Top shape: 1 128 30 60 (230400)
I1219 03:12:29.467314 15597 net.cpp:159] Memory required for data: 531590404
I1219 03:12:29.467315 15597 layer_factory.hpp:77] Creating layer inception_4c/3x3_reduce
I1219 03:12:29.467319 15597 net.cpp:94] Creating Layer inception_4c/3x3_reduce
I1219 03:12:29.467322 15597 net.cpp:435] inception_4c/3x3_reduce <- inception_4b/output_inception_4b/output_0_split_1
I1219 03:12:29.467324 15597 net.cpp:409] inception_4c/3x3_reduce -> inception_4c/3x3_reduce_raw
I1219 03:12:29.467797 15597 net.cpp:144] Setting up inception_4c/3x3_reduce
I1219 03:12:29.467799 15597 net.cpp:151] Top shape: 1 128 30 60 (230400)
I1219 03:12:29.467803 15597 net.cpp:159] Memory required for data: 532512004
I1219 03:12:29.467805 15597 layer_factory.hpp:77] Creating layer inception_4c/3x3_reduce_BatchNorm
I1219 03:12:29.467810 15597 net.cpp:94] Creating Layer inception_4c/3x3_reduce_BatchNorm
I1219 03:12:29.467813 15597 net.cpp:435] inception_4c/3x3_reduce_BatchNorm <- inception_4c/3x3_reduce_raw
I1219 03:12:29.467815 15597 net.cpp:409] inception_4c/3x3_reduce_BatchNorm -> inception_4c/3x3_reduce
I1219 03:12:29.468165 15597 net.cpp:144] Setting up inception_4c/3x3_reduce_BatchNorm
I1219 03:12:29.468173 15597 net.cpp:151] Top shape: 1 128 30 60 (230400)
I1219 03:12:29.468176 15597 net.cpp:159] Memory required for data: 533433604
I1219 03:12:29.468183 15597 layer_factory.hpp:77] Creating layer inception_4c/relu_3x3_reduce
I1219 03:12:29.468186 15597 net.cpp:94] Creating Layer inception_4c/relu_3x3_reduce
I1219 03:12:29.468191 15597 net.cpp:435] inception_4c/relu_3x3_reduce <- inception_4c/3x3_reduce
I1219 03:12:29.468195 15597 net.cpp:396] inception_4c/relu_3x3_reduce -> inception_4c/3x3_reduce (in-place)
I1219 03:12:29.468201 15597 net.cpp:144] Setting up inception_4c/relu_3x3_reduce
I1219 03:12:29.468204 15597 net.cpp:151] Top shape: 1 128 30 60 (230400)
I1219 03:12:29.468209 15597 net.cpp:159] Memory required for data: 534355204
I1219 03:12:29.468212 15597 layer_factory.hpp:77] Creating layer inception_4c/3x3
I1219 03:12:29.468219 15597 net.cpp:94] Creating Layer inception_4c/3x3
I1219 03:12:29.468223 15597 net.cpp:435] inception_4c/3x3 <- inception_4c/3x3_reduce
I1219 03:12:29.468230 15597 net.cpp:409] inception_4c/3x3 -> inception_4c/3x3_raw
I1219 03:12:29.470999 15597 net.cpp:144] Setting up inception_4c/3x3
I1219 03:12:29.471007 15597 net.cpp:151] Top shape: 1 256 30 60 (460800)
I1219 03:12:29.471011 15597 net.cpp:159] Memory required for data: 536198404
I1219 03:12:29.471017 15597 layer_factory.hpp:77] Creating layer inception_4c/3x3_BatchNorm
I1219 03:12:29.471027 15597 net.cpp:94] Creating Layer inception_4c/3x3_BatchNorm
I1219 03:12:29.471035 15597 net.cpp:435] inception_4c/3x3_BatchNorm <- inception_4c/3x3_raw
I1219 03:12:29.471041 15597 net.cpp:409] inception_4c/3x3_BatchNorm -> inception_4c/3x3
I1219 03:12:29.471426 15597 net.cpp:144] Setting up inception_4c/3x3_BatchNorm
I1219 03:12:29.471432 15597 net.cpp:151] Top shape: 1 256 30 60 (460800)
I1219 03:12:29.471436 15597 net.cpp:159] Memory required for data: 538041604
I1219 03:12:29.471443 15597 layer_factory.hpp:77] Creating layer inception_4c/relu_3x3
I1219 03:12:29.471448 15597 net.cpp:94] Creating Layer inception_4c/relu_3x3
I1219 03:12:29.471454 15597 net.cpp:435] inception_4c/relu_3x3 <- inception_4c/3x3
I1219 03:12:29.471459 15597 net.cpp:396] inception_4c/relu_3x3 -> inception_4c/3x3 (in-place)
I1219 03:12:29.471465 15597 net.cpp:144] Setting up inception_4c/relu_3x3
I1219 03:12:29.471470 15597 net.cpp:151] Top shape: 1 256 30 60 (460800)
I1219 03:12:29.471474 15597 net.cpp:159] Memory required for data: 539884804
I1219 03:12:29.471477 15597 layer_factory.hpp:77] Creating layer inception_4c/5x5_reduce
I1219 03:12:29.471484 15597 net.cpp:94] Creating Layer inception_4c/5x5_reduce
I1219 03:12:29.471489 15597 net.cpp:435] inception_4c/5x5_reduce <- inception_4b/output_inception_4b/output_0_split_2
I1219 03:12:29.471494 15597 net.cpp:409] inception_4c/5x5_reduce -> inception_4c/5x5_reduce_raw
I1219 03:12:29.471731 15597 net.cpp:144] Setting up inception_4c/5x5_reduce
I1219 03:12:29.471737 15597 net.cpp:151] Top shape: 1 24 30 60 (43200)
I1219 03:12:29.471740 15597 net.cpp:159] Memory required for data: 540057604
I1219 03:12:29.471745 15597 layer_factory.hpp:77] Creating layer inception_4c/5x5_reduce_BatchNorm
I1219 03:12:29.471750 15597 net.cpp:94] Creating Layer inception_4c/5x5_reduce_BatchNorm
I1219 03:12:29.471753 15597 net.cpp:435] inception_4c/5x5_reduce_BatchNorm <- inception_4c/5x5_reduce_raw
I1219 03:12:29.471758 15597 net.cpp:409] inception_4c/5x5_reduce_BatchNorm -> inception_4c/5x5_reduce
I1219 03:12:29.472151 15597 net.cpp:144] Setting up inception_4c/5x5_reduce_BatchNorm
I1219 03:12:29.472155 15597 net.cpp:151] Top shape: 1 24 30 60 (43200)
I1219 03:12:29.472159 15597 net.cpp:159] Memory required for data: 540230404
I1219 03:12:29.472167 15597 layer_factory.hpp:77] Creating layer inception_4c/relu_5x5_reduce
I1219 03:12:29.472172 15597 net.cpp:94] Creating Layer inception_4c/relu_5x5_reduce
I1219 03:12:29.472175 15597 net.cpp:435] inception_4c/relu_5x5_reduce <- inception_4c/5x5_reduce
I1219 03:12:29.472179 15597 net.cpp:396] inception_4c/relu_5x5_reduce -> inception_4c/5x5_reduce (in-place)
I1219 03:12:29.472184 15597 net.cpp:144] Setting up inception_4c/relu_5x5_reduce
I1219 03:12:29.472188 15597 net.cpp:151] Top shape: 1 24 30 60 (43200)
I1219 03:12:29.472193 15597 net.cpp:159] Memory required for data: 540403204
I1219 03:12:29.472194 15597 layer_factory.hpp:77] Creating layer inception_4c/5x5
I1219 03:12:29.472201 15597 net.cpp:94] Creating Layer inception_4c/5x5
I1219 03:12:29.472204 15597 net.cpp:435] inception_4c/5x5 <- inception_4c/5x5_reduce
I1219 03:12:29.472208 15597 net.cpp:409] inception_4c/5x5 -> inception_4c/5x5_raw
I1219 03:12:29.472633 15597 net.cpp:144] Setting up inception_4c/5x5
I1219 03:12:29.472641 15597 net.cpp:151] Top shape: 1 64 30 60 (115200)
I1219 03:12:29.472648 15597 net.cpp:159] Memory required for data: 540864004
I1219 03:12:29.472654 15597 layer_factory.hpp:77] Creating layer inception_4c/5x5_BatchNorm
I1219 03:12:29.472661 15597 net.cpp:94] Creating Layer inception_4c/5x5_BatchNorm
I1219 03:12:29.472666 15597 net.cpp:435] inception_4c/5x5_BatchNorm <- inception_4c/5x5_raw
I1219 03:12:29.472671 15597 net.cpp:409] inception_4c/5x5_BatchNorm -> inception_4c/5x5
I1219 03:12:29.473079 15597 net.cpp:144] Setting up inception_4c/5x5_BatchNorm
I1219 03:12:29.473088 15597 net.cpp:151] Top shape: 1 64 30 60 (115200)
I1219 03:12:29.473095 15597 net.cpp:159] Memory required for data: 541324804
I1219 03:12:29.473104 15597 layer_factory.hpp:77] Creating layer inception_4c/relu_5x5
I1219 03:12:29.473110 15597 net.cpp:94] Creating Layer inception_4c/relu_5x5
I1219 03:12:29.473114 15597 net.cpp:435] inception_4c/relu_5x5 <- inception_4c/5x5
I1219 03:12:29.473116 15597 net.cpp:396] inception_4c/relu_5x5 -> inception_4c/5x5 (in-place)
I1219 03:12:29.473122 15597 net.cpp:144] Setting up inception_4c/relu_5x5
I1219 03:12:29.473124 15597 net.cpp:151] Top shape: 1 64 30 60 (115200)
I1219 03:12:29.473127 15597 net.cpp:159] Memory required for data: 541785604
I1219 03:12:29.473130 15597 layer_factory.hpp:77] Creating layer inception_4c/pool
I1219 03:12:29.473135 15597 net.cpp:94] Creating Layer inception_4c/pool
I1219 03:12:29.473140 15597 net.cpp:435] inception_4c/pool <- inception_4b/output_inception_4b/output_0_split_3
I1219 03:12:29.473145 15597 net.cpp:409] inception_4c/pool -> inception_4c/pool
I1219 03:12:29.473608 15597 net.cpp:144] Setting up inception_4c/pool
I1219 03:12:29.473615 15597 net.cpp:151] Top shape: 1 512 30 60 (921600)
I1219 03:12:29.473623 15597 net.cpp:159] Memory required for data: 545472004
I1219 03:12:29.473624 15597 layer_factory.hpp:77] Creating layer inception_4c/pool_proj
I1219 03:12:29.473631 15597 net.cpp:94] Creating Layer inception_4c/pool_proj
I1219 03:12:29.473636 15597 net.cpp:435] inception_4c/pool_proj <- inception_4c/pool
I1219 03:12:29.473641 15597 net.cpp:409] inception_4c/pool_proj -> inception_4c/pool_proj_raw
I1219 03:12:29.473974 15597 net.cpp:144] Setting up inception_4c/pool_proj
I1219 03:12:29.473978 15597 net.cpp:151] Top shape: 1 64 30 60 (115200)
I1219 03:12:29.473982 15597 net.cpp:159] Memory required for data: 545932804
I1219 03:12:29.473987 15597 layer_factory.hpp:77] Creating layer inception_4c/pool_proj_BatchNorm
I1219 03:12:29.473994 15597 net.cpp:94] Creating Layer inception_4c/pool_proj_BatchNorm
I1219 03:12:29.473997 15597 net.cpp:435] inception_4c/pool_proj_BatchNorm <- inception_4c/pool_proj_raw
I1219 03:12:29.474001 15597 net.cpp:409] inception_4c/pool_proj_BatchNorm -> inception_4c/pool_proj
I1219 03:12:29.474388 15597 net.cpp:144] Setting up inception_4c/pool_proj_BatchNorm
I1219 03:12:29.474393 15597 net.cpp:151] Top shape: 1 64 30 60 (115200)
I1219 03:12:29.474397 15597 net.cpp:159] Memory required for data: 546393604
I1219 03:12:29.474404 15597 layer_factory.hpp:77] Creating layer inception_4c/relu_pool_proj
I1219 03:12:29.474409 15597 net.cpp:94] Creating Layer inception_4c/relu_pool_proj
I1219 03:12:29.474412 15597 net.cpp:435] inception_4c/relu_pool_proj <- inception_4c/pool_proj
I1219 03:12:29.474416 15597 net.cpp:396] inception_4c/relu_pool_proj -> inception_4c/pool_proj (in-place)
I1219 03:12:29.474421 15597 net.cpp:144] Setting up inception_4c/relu_pool_proj
I1219 03:12:29.474426 15597 net.cpp:151] Top shape: 1 64 30 60 (115200)
I1219 03:12:29.474428 15597 net.cpp:159] Memory required for data: 546854404
I1219 03:12:29.474431 15597 layer_factory.hpp:77] Creating layer inception_4c/output
I1219 03:12:29.474436 15597 net.cpp:94] Creating Layer inception_4c/output
I1219 03:12:29.474437 15597 net.cpp:435] inception_4c/output <- inception_4c/1x1
I1219 03:12:29.474440 15597 net.cpp:435] inception_4c/output <- inception_4c/3x3
I1219 03:12:29.474443 15597 net.cpp:435] inception_4c/output <- inception_4c/5x5
I1219 03:12:29.474447 15597 net.cpp:435] inception_4c/output <- inception_4c/pool_proj
I1219 03:12:29.474450 15597 net.cpp:409] inception_4c/output -> inception_4c/output
I1219 03:12:29.474465 15597 net.cpp:144] Setting up inception_4c/output
I1219 03:12:29.474468 15597 net.cpp:151] Top shape: 1 512 30 60 (921600)
I1219 03:12:29.474472 15597 net.cpp:159] Memory required for data: 550540804
I1219 03:12:29.474474 15597 layer_factory.hpp:77] Creating layer inception_4c/output_inception_4c/output_0_split
I1219 03:12:29.474479 15597 net.cpp:94] Creating Layer inception_4c/output_inception_4c/output_0_split
I1219 03:12:29.474483 15597 net.cpp:435] inception_4c/output_inception_4c/output_0_split <- inception_4c/output
I1219 03:12:29.474486 15597 net.cpp:409] inception_4c/output_inception_4c/output_0_split -> inception_4c/output_inception_4c/output_0_split_0
I1219 03:12:29.474491 15597 net.cpp:409] inception_4c/output_inception_4c/output_0_split -> inception_4c/output_inception_4c/output_0_split_1
I1219 03:12:29.474495 15597 net.cpp:409] inception_4c/output_inception_4c/output_0_split -> inception_4c/output_inception_4c/output_0_split_2
I1219 03:12:29.474499 15597 net.cpp:409] inception_4c/output_inception_4c/output_0_split -> inception_4c/output_inception_4c/output_0_split_3
I1219 03:12:29.474532 15597 net.cpp:144] Setting up inception_4c/output_inception_4c/output_0_split
I1219 03:12:29.474535 15597 net.cpp:151] Top shape: 1 512 30 60 (921600)
I1219 03:12:29.474539 15597 net.cpp:151] Top shape: 1 512 30 60 (921600)
I1219 03:12:29.474543 15597 net.cpp:151] Top shape: 1 512 30 60 (921600)
I1219 03:12:29.474548 15597 net.cpp:151] Top shape: 1 512 30 60 (921600)
I1219 03:12:29.474551 15597 net.cpp:159] Memory required for data: 565286404
I1219 03:12:29.474555 15597 layer_factory.hpp:77] Creating layer inception_4d/1x1
I1219 03:12:29.474560 15597 net.cpp:94] Creating Layer inception_4d/1x1
I1219 03:12:29.474563 15597 net.cpp:435] inception_4d/1x1 <- inception_4c/output_inception_4c/output_0_split_0
I1219 03:12:29.474567 15597 net.cpp:409] inception_4d/1x1 -> inception_4d/1x1_raw
I1219 03:12:29.475114 15597 net.cpp:144] Setting up inception_4d/1x1
I1219 03:12:29.475124 15597 net.cpp:151] Top shape: 1 112 30 60 (201600)
I1219 03:12:29.475128 15597 net.cpp:159] Memory required for data: 566092804
I1219 03:12:29.475133 15597 layer_factory.hpp:77] Creating layer inception_4d/1x1_BatchNorm
I1219 03:12:29.475139 15597 net.cpp:94] Creating Layer inception_4d/1x1_BatchNorm
I1219 03:12:29.475142 15597 net.cpp:435] inception_4d/1x1_BatchNorm <- inception_4d/1x1_raw
I1219 03:12:29.475147 15597 net.cpp:409] inception_4d/1x1_BatchNorm -> inception_4d/1x1
I1219 03:12:29.475677 15597 net.cpp:144] Setting up inception_4d/1x1_BatchNorm
I1219 03:12:29.475684 15597 net.cpp:151] Top shape: 1 112 30 60 (201600)
I1219 03:12:29.475689 15597 net.cpp:159] Memory required for data: 566899204
I1219 03:12:29.475699 15597 layer_factory.hpp:77] Creating layer inception_4d/relu_1x1
I1219 03:12:29.475704 15597 net.cpp:94] Creating Layer inception_4d/relu_1x1
I1219 03:12:29.475708 15597 net.cpp:435] inception_4d/relu_1x1 <- inception_4d/1x1
I1219 03:12:29.475711 15597 net.cpp:396] inception_4d/relu_1x1 -> inception_4d/1x1 (in-place)
I1219 03:12:29.475718 15597 net.cpp:144] Setting up inception_4d/relu_1x1
I1219 03:12:29.475721 15597 net.cpp:151] Top shape: 1 112 30 60 (201600)
I1219 03:12:29.475726 15597 net.cpp:159] Memory required for data: 567705604
I1219 03:12:29.475728 15597 layer_factory.hpp:77] Creating layer inception_4d/3x3_reduce
I1219 03:12:29.475735 15597 net.cpp:94] Creating Layer inception_4d/3x3_reduce
I1219 03:12:29.475739 15597 net.cpp:435] inception_4d/3x3_reduce <- inception_4c/output_inception_4c/output_0_split_1
I1219 03:12:29.475744 15597 net.cpp:409] inception_4d/3x3_reduce -> inception_4d/3x3_reduce_raw
I1219 03:12:29.476449 15597 net.cpp:144] Setting up inception_4d/3x3_reduce
I1219 03:12:29.476457 15597 net.cpp:151] Top shape: 1 144 30 60 (259200)
I1219 03:12:29.476460 15597 net.cpp:159] Memory required for data: 568742404
I1219 03:12:29.476464 15597 layer_factory.hpp:77] Creating layer inception_4d/3x3_reduce_BatchNorm
I1219 03:12:29.476469 15597 net.cpp:94] Creating Layer inception_4d/3x3_reduce_BatchNorm
I1219 03:12:29.476471 15597 net.cpp:435] inception_4d/3x3_reduce_BatchNorm <- inception_4d/3x3_reduce_raw
I1219 03:12:29.476475 15597 net.cpp:409] inception_4d/3x3_reduce_BatchNorm -> inception_4d/3x3_reduce
I1219 03:12:29.476866 15597 net.cpp:144] Setting up inception_4d/3x3_reduce_BatchNorm
I1219 03:12:29.476871 15597 net.cpp:151] Top shape: 1 144 30 60 (259200)
I1219 03:12:29.476874 15597 net.cpp:159] Memory required for data: 569779204
I1219 03:12:29.476879 15597 layer_factory.hpp:77] Creating layer inception_4d/relu_3x3_reduce
I1219 03:12:29.476882 15597 net.cpp:94] Creating Layer inception_4d/relu_3x3_reduce
I1219 03:12:29.476884 15597 net.cpp:435] inception_4d/relu_3x3_reduce <- inception_4d/3x3_reduce
I1219 03:12:29.476887 15597 net.cpp:396] inception_4d/relu_3x3_reduce -> inception_4d/3x3_reduce (in-place)
I1219 03:12:29.476891 15597 net.cpp:144] Setting up inception_4d/relu_3x3_reduce
I1219 03:12:29.476892 15597 net.cpp:151] Top shape: 1 144 30 60 (259200)
I1219 03:12:29.476894 15597 net.cpp:159] Memory required for data: 570816004
I1219 03:12:29.476897 15597 layer_factory.hpp:77] Creating layer inception_4d/3x3
I1219 03:12:29.476902 15597 net.cpp:94] Creating Layer inception_4d/3x3
I1219 03:12:29.476902 15597 net.cpp:435] inception_4d/3x3 <- inception_4d/3x3_reduce
I1219 03:12:29.476905 15597 net.cpp:409] inception_4d/3x3 -> inception_4d/3x3_raw
I1219 03:12:29.480201 15597 net.cpp:144] Setting up inception_4d/3x3
I1219 03:12:29.480212 15597 net.cpp:151] Top shape: 1 288 30 60 (518400)
I1219 03:12:29.480216 15597 net.cpp:159] Memory required for data: 572889604
I1219 03:12:29.480222 15597 layer_factory.hpp:77] Creating layer inception_4d/3x3_BatchNorm
I1219 03:12:29.480232 15597 net.cpp:94] Creating Layer inception_4d/3x3_BatchNorm
I1219 03:12:29.480235 15597 net.cpp:435] inception_4d/3x3_BatchNorm <- inception_4d/3x3_raw
I1219 03:12:29.480239 15597 net.cpp:409] inception_4d/3x3_BatchNorm -> inception_4d/3x3
I1219 03:12:29.480633 15597 net.cpp:144] Setting up inception_4d/3x3_BatchNorm
I1219 03:12:29.480636 15597 net.cpp:151] Top shape: 1 288 30 60 (518400)
I1219 03:12:29.480639 15597 net.cpp:159] Memory required for data: 574963204
I1219 03:12:29.480644 15597 layer_factory.hpp:77] Creating layer inception_4d/relu_3x3
I1219 03:12:29.480648 15597 net.cpp:94] Creating Layer inception_4d/relu_3x3
I1219 03:12:29.480650 15597 net.cpp:435] inception_4d/relu_3x3 <- inception_4d/3x3
I1219 03:12:29.480652 15597 net.cpp:396] inception_4d/relu_3x3 -> inception_4d/3x3 (in-place)
I1219 03:12:29.480657 15597 net.cpp:144] Setting up inception_4d/relu_3x3
I1219 03:12:29.480659 15597 net.cpp:151] Top shape: 1 288 30 60 (518400)
I1219 03:12:29.480660 15597 net.cpp:159] Memory required for data: 577036804
I1219 03:12:29.480662 15597 layer_factory.hpp:77] Creating layer inception_4d/5x5_reduce
I1219 03:12:29.480669 15597 net.cpp:94] Creating Layer inception_4d/5x5_reduce
I1219 03:12:29.480670 15597 net.cpp:435] inception_4d/5x5_reduce <- inception_4c/output_inception_4c/output_0_split_2
I1219 03:12:29.480674 15597 net.cpp:409] inception_4d/5x5_reduce -> inception_4d/5x5_reduce_raw
I1219 03:12:29.480914 15597 net.cpp:144] Setting up inception_4d/5x5_reduce
I1219 03:12:29.480917 15597 net.cpp:151] Top shape: 1 32 30 60 (57600)
I1219 03:12:29.480921 15597 net.cpp:159] Memory required for data: 577267204
I1219 03:12:29.480923 15597 layer_factory.hpp:77] Creating layer inception_4d/5x5_reduce_BatchNorm
I1219 03:12:29.480926 15597 net.cpp:94] Creating Layer inception_4d/5x5_reduce_BatchNorm
I1219 03:12:29.480928 15597 net.cpp:435] inception_4d/5x5_reduce_BatchNorm <- inception_4d/5x5_reduce_raw
I1219 03:12:29.480931 15597 net.cpp:409] inception_4d/5x5_reduce_BatchNorm -> inception_4d/5x5_reduce
I1219 03:12:29.481315 15597 net.cpp:144] Setting up inception_4d/5x5_reduce_BatchNorm
I1219 03:12:29.481319 15597 net.cpp:151] Top shape: 1 32 30 60 (57600)
I1219 03:12:29.481321 15597 net.cpp:159] Memory required for data: 577497604
I1219 03:12:29.481333 15597 layer_factory.hpp:77] Creating layer inception_4d/relu_5x5_reduce
I1219 03:12:29.481336 15597 net.cpp:94] Creating Layer inception_4d/relu_5x5_reduce
I1219 03:12:29.481338 15597 net.cpp:435] inception_4d/relu_5x5_reduce <- inception_4d/5x5_reduce
I1219 03:12:29.481341 15597 net.cpp:396] inception_4d/relu_5x5_reduce -> inception_4d/5x5_reduce (in-place)
I1219 03:12:29.481344 15597 net.cpp:144] Setting up inception_4d/relu_5x5_reduce
I1219 03:12:29.481345 15597 net.cpp:151] Top shape: 1 32 30 60 (57600)
I1219 03:12:29.481348 15597 net.cpp:159] Memory required for data: 577728004
I1219 03:12:29.481349 15597 layer_factory.hpp:77] Creating layer inception_4d/5x5
I1219 03:12:29.481354 15597 net.cpp:94] Creating Layer inception_4d/5x5
I1219 03:12:29.481355 15597 net.cpp:435] inception_4d/5x5 <- inception_4d/5x5_reduce
I1219 03:12:29.481359 15597 net.cpp:409] inception_4d/5x5 -> inception_4d/5x5_raw
I1219 03:12:29.481810 15597 net.cpp:144] Setting up inception_4d/5x5
I1219 03:12:29.481815 15597 net.cpp:151] Top shape: 1 64 30 60 (115200)
I1219 03:12:29.481820 15597 net.cpp:159] Memory required for data: 578188804
I1219 03:12:29.481825 15597 layer_factory.hpp:77] Creating layer inception_4d/5x5_BatchNorm
I1219 03:12:29.481832 15597 net.cpp:94] Creating Layer inception_4d/5x5_BatchNorm
I1219 03:12:29.481837 15597 net.cpp:435] inception_4d/5x5_BatchNorm <- inception_4d/5x5_raw
I1219 03:12:29.481839 15597 net.cpp:409] inception_4d/5x5_BatchNorm -> inception_4d/5x5
I1219 03:12:29.482336 15597 net.cpp:144] Setting up inception_4d/5x5_BatchNorm
I1219 03:12:29.482344 15597 net.cpp:151] Top shape: 1 64 30 60 (115200)
I1219 03:12:29.482348 15597 net.cpp:159] Memory required for data: 578649604
I1219 03:12:29.482357 15597 layer_factory.hpp:77] Creating layer inception_4d/relu_5x5
I1219 03:12:29.482362 15597 net.cpp:94] Creating Layer inception_4d/relu_5x5
I1219 03:12:29.482363 15597 net.cpp:435] inception_4d/relu_5x5 <- inception_4d/5x5
I1219 03:12:29.482367 15597 net.cpp:396] inception_4d/relu_5x5 -> inception_4d/5x5 (in-place)
I1219 03:12:29.482372 15597 net.cpp:144] Setting up inception_4d/relu_5x5
I1219 03:12:29.482374 15597 net.cpp:151] Top shape: 1 64 30 60 (115200)
I1219 03:12:29.482378 15597 net.cpp:159] Memory required for data: 579110404
I1219 03:12:29.482380 15597 layer_factory.hpp:77] Creating layer inception_4d/pool
I1219 03:12:29.482385 15597 net.cpp:94] Creating Layer inception_4d/pool
I1219 03:12:29.482388 15597 net.cpp:435] inception_4d/pool <- inception_4c/output_inception_4c/output_0_split_3
I1219 03:12:29.482393 15597 net.cpp:409] inception_4d/pool -> inception_4d/pool
I1219 03:12:29.482419 15597 net.cpp:144] Setting up inception_4d/pool
I1219 03:12:29.482424 15597 net.cpp:151] Top shape: 1 512 30 60 (921600)
I1219 03:12:29.482426 15597 net.cpp:159] Memory required for data: 582796804
I1219 03:12:29.482429 15597 layer_factory.hpp:77] Creating layer inception_4d/pool_proj
I1219 03:12:29.482434 15597 net.cpp:94] Creating Layer inception_4d/pool_proj
I1219 03:12:29.482437 15597 net.cpp:435] inception_4d/pool_proj <- inception_4d/pool
I1219 03:12:29.482441 15597 net.cpp:409] inception_4d/pool_proj -> inception_4d/pool_proj_raw
I1219 03:12:29.482897 15597 net.cpp:144] Setting up inception_4d/pool_proj
I1219 03:12:29.482904 15597 net.cpp:151] Top shape: 1 64 30 60 (115200)
I1219 03:12:29.482908 15597 net.cpp:159] Memory required for data: 583257604
I1219 03:12:29.482911 15597 layer_factory.hpp:77] Creating layer inception_4d/pool_proj_BatchNorm
I1219 03:12:29.482916 15597 net.cpp:94] Creating Layer inception_4d/pool_proj_BatchNorm
I1219 03:12:29.482918 15597 net.cpp:435] inception_4d/pool_proj_BatchNorm <- inception_4d/pool_proj_raw
I1219 03:12:29.482921 15597 net.cpp:409] inception_4d/pool_proj_BatchNorm -> inception_4d/pool_proj
I1219 03:12:29.483311 15597 net.cpp:144] Setting up inception_4d/pool_proj_BatchNorm
I1219 03:12:29.483315 15597 net.cpp:151] Top shape: 1 64 30 60 (115200)
I1219 03:12:29.483319 15597 net.cpp:159] Memory required for data: 583718404
I1219 03:12:29.483323 15597 layer_factory.hpp:77] Creating layer inception_4d/relu_pool_proj
I1219 03:12:29.483326 15597 net.cpp:94] Creating Layer inception_4d/relu_pool_proj
I1219 03:12:29.483328 15597 net.cpp:435] inception_4d/relu_pool_proj <- inception_4d/pool_proj
I1219 03:12:29.483331 15597 net.cpp:396] inception_4d/relu_pool_proj -> inception_4d/pool_proj (in-place)
I1219 03:12:29.483335 15597 net.cpp:144] Setting up inception_4d/relu_pool_proj
I1219 03:12:29.483336 15597 net.cpp:151] Top shape: 1 64 30 60 (115200)
I1219 03:12:29.483338 15597 net.cpp:159] Memory required for data: 584179204
I1219 03:12:29.483340 15597 layer_factory.hpp:77] Creating layer inception_4d/output
I1219 03:12:29.483343 15597 net.cpp:94] Creating Layer inception_4d/output
I1219 03:12:29.483345 15597 net.cpp:435] inception_4d/output <- inception_4d/1x1
I1219 03:12:29.483347 15597 net.cpp:435] inception_4d/output <- inception_4d/3x3
I1219 03:12:29.483350 15597 net.cpp:435] inception_4d/output <- inception_4d/5x5
I1219 03:12:29.483350 15597 net.cpp:435] inception_4d/output <- inception_4d/pool_proj
I1219 03:12:29.483353 15597 net.cpp:409] inception_4d/output -> inception_4d/output
I1219 03:12:29.483366 15597 net.cpp:144] Setting up inception_4d/output
I1219 03:12:29.483366 15597 net.cpp:151] Top shape: 1 528 30 60 (950400)
I1219 03:12:29.483369 15597 net.cpp:159] Memory required for data: 587980804
I1219 03:12:29.483371 15597 layer_factory.hpp:77] Creating layer inception_4d/output_inception_4d/output_0_split
I1219 03:12:29.483374 15597 net.cpp:94] Creating Layer inception_4d/output_inception_4d/output_0_split
I1219 03:12:29.483376 15597 net.cpp:435] inception_4d/output_inception_4d/output_0_split <- inception_4d/output
I1219 03:12:29.483378 15597 net.cpp:409] inception_4d/output_inception_4d/output_0_split -> inception_4d/output_inception_4d/output_0_split_0
I1219 03:12:29.483382 15597 net.cpp:409] inception_4d/output_inception_4d/output_0_split -> inception_4d/output_inception_4d/output_0_split_1
I1219 03:12:29.483387 15597 net.cpp:409] inception_4d/output_inception_4d/output_0_split -> inception_4d/output_inception_4d/output_0_split_2
I1219 03:12:29.483392 15597 net.cpp:409] inception_4d/output_inception_4d/output_0_split -> inception_4d/output_inception_4d/output_0_split_3
I1219 03:12:29.483425 15597 net.cpp:144] Setting up inception_4d/output_inception_4d/output_0_split
I1219 03:12:29.483428 15597 net.cpp:151] Top shape: 1 528 30 60 (950400)
I1219 03:12:29.483431 15597 net.cpp:151] Top shape: 1 528 30 60 (950400)
I1219 03:12:29.483433 15597 net.cpp:151] Top shape: 1 528 30 60 (950400)
I1219 03:12:29.483435 15597 net.cpp:151] Top shape: 1 528 30 60 (950400)
I1219 03:12:29.483438 15597 net.cpp:159] Memory required for data: 603187204
I1219 03:12:29.483439 15597 layer_factory.hpp:77] Creating layer inception_4e/1x1
I1219 03:12:29.483444 15597 net.cpp:94] Creating Layer inception_4e/1x1
I1219 03:12:29.483446 15597 net.cpp:435] inception_4e/1x1 <- inception_4d/output_inception_4d/output_0_split_0
I1219 03:12:29.483449 15597 net.cpp:409] inception_4e/1x1 -> inception_4e/1x1_raw
I1219 03:12:29.484900 15597 net.cpp:144] Setting up inception_4e/1x1
I1219 03:12:29.484906 15597 net.cpp:151] Top shape: 1 256 30 60 (460800)
I1219 03:12:29.484910 15597 net.cpp:159] Memory required for data: 605030404
I1219 03:12:29.484913 15597 layer_factory.hpp:77] Creating layer inception_4e/1x1_BatchNorm
I1219 03:12:29.484918 15597 net.cpp:94] Creating Layer inception_4e/1x1_BatchNorm
I1219 03:12:29.484922 15597 net.cpp:435] inception_4e/1x1_BatchNorm <- inception_4e/1x1_raw
I1219 03:12:29.484925 15597 net.cpp:409] inception_4e/1x1_BatchNorm -> inception_4e/1x1
I1219 03:12:29.485260 15597 net.cpp:144] Setting up inception_4e/1x1_BatchNorm
I1219 03:12:29.485263 15597 net.cpp:151] Top shape: 1 256 30 60 (460800)
I1219 03:12:29.485266 15597 net.cpp:159] Memory required for data: 606873604
I1219 03:12:29.485271 15597 layer_factory.hpp:77] Creating layer inception_4e/relu_1x1
I1219 03:12:29.485275 15597 net.cpp:94] Creating Layer inception_4e/relu_1x1
I1219 03:12:29.485277 15597 net.cpp:435] inception_4e/relu_1x1 <- inception_4e/1x1
I1219 03:12:29.485280 15597 net.cpp:396] inception_4e/relu_1x1 -> inception_4e/1x1 (in-place)
I1219 03:12:29.485282 15597 net.cpp:144] Setting up inception_4e/relu_1x1
I1219 03:12:29.485285 15597 net.cpp:151] Top shape: 1 256 30 60 (460800)
I1219 03:12:29.485286 15597 net.cpp:159] Memory required for data: 608716804
I1219 03:12:29.485288 15597 layer_factory.hpp:77] Creating layer inception_4e/3x3_reduce
I1219 03:12:29.485292 15597 net.cpp:94] Creating Layer inception_4e/3x3_reduce
I1219 03:12:29.485294 15597 net.cpp:435] inception_4e/3x3_reduce <- inception_4d/output_inception_4d/output_0_split_1
I1219 03:12:29.485297 15597 net.cpp:409] inception_4e/3x3_reduce -> inception_4e/3x3_reduce_raw
I1219 03:12:29.485878 15597 net.cpp:144] Setting up inception_4e/3x3_reduce
I1219 03:12:29.485883 15597 net.cpp:151] Top shape: 1 160 30 60 (288000)
I1219 03:12:29.485885 15597 net.cpp:159] Memory required for data: 609868804
I1219 03:12:29.485889 15597 layer_factory.hpp:77] Creating layer inception_4e/3x3_reduce_BatchNorm
I1219 03:12:29.485893 15597 net.cpp:94] Creating Layer inception_4e/3x3_reduce_BatchNorm
I1219 03:12:29.485895 15597 net.cpp:435] inception_4e/3x3_reduce_BatchNorm <- inception_4e/3x3_reduce_raw
I1219 03:12:29.485898 15597 net.cpp:409] inception_4e/3x3_reduce_BatchNorm -> inception_4e/3x3_reduce
I1219 03:12:29.486276 15597 net.cpp:144] Setting up inception_4e/3x3_reduce_BatchNorm
I1219 03:12:29.486280 15597 net.cpp:151] Top shape: 1 160 30 60 (288000)
I1219 03:12:29.486284 15597 net.cpp:159] Memory required for data: 611020804
I1219 03:12:29.486289 15597 layer_factory.hpp:77] Creating layer inception_4e/relu_3x3_reduce
I1219 03:12:29.486291 15597 net.cpp:94] Creating Layer inception_4e/relu_3x3_reduce
I1219 03:12:29.486294 15597 net.cpp:435] inception_4e/relu_3x3_reduce <- inception_4e/3x3_reduce
I1219 03:12:29.486295 15597 net.cpp:396] inception_4e/relu_3x3_reduce -> inception_4e/3x3_reduce (in-place)
I1219 03:12:29.486299 15597 net.cpp:144] Setting up inception_4e/relu_3x3_reduce
I1219 03:12:29.486300 15597 net.cpp:151] Top shape: 1 160 30 60 (288000)
I1219 03:12:29.486302 15597 net.cpp:159] Memory required for data: 612172804
I1219 03:12:29.486304 15597 layer_factory.hpp:77] Creating layer inception_4e/3x3
I1219 03:12:29.486308 15597 net.cpp:94] Creating Layer inception_4e/3x3
I1219 03:12:29.486310 15597 net.cpp:435] inception_4e/3x3 <- inception_4e/3x3_reduce
I1219 03:12:29.486313 15597 net.cpp:409] inception_4e/3x3 -> inception_4e/3x3_raw
I1219 03:12:29.489850 15597 net.cpp:144] Setting up inception_4e/3x3
I1219 03:12:29.489857 15597 net.cpp:151] Top shape: 1 320 30 60 (576000)
I1219 03:12:29.489861 15597 net.cpp:159] Memory required for data: 614476804
I1219 03:12:29.489866 15597 layer_factory.hpp:77] Creating layer inception_4e/3x3_BatchNorm
I1219 03:12:29.489869 15597 net.cpp:94] Creating Layer inception_4e/3x3_BatchNorm
I1219 03:12:29.489872 15597 net.cpp:435] inception_4e/3x3_BatchNorm <- inception_4e/3x3_raw
I1219 03:12:29.489876 15597 net.cpp:409] inception_4e/3x3_BatchNorm -> inception_4e/3x3
I1219 03:12:29.490258 15597 net.cpp:144] Setting up inception_4e/3x3_BatchNorm
I1219 03:12:29.490262 15597 net.cpp:151] Top shape: 1 320 30 60 (576000)
I1219 03:12:29.490265 15597 net.cpp:159] Memory required for data: 616780804
I1219 03:12:29.490270 15597 layer_factory.hpp:77] Creating layer inception_4e/relu_3x3
I1219 03:12:29.490274 15597 net.cpp:94] Creating Layer inception_4e/relu_3x3
I1219 03:12:29.490276 15597 net.cpp:435] inception_4e/relu_3x3 <- inception_4e/3x3
I1219 03:12:29.490278 15597 net.cpp:396] inception_4e/relu_3x3 -> inception_4e/3x3 (in-place)
I1219 03:12:29.490281 15597 net.cpp:144] Setting up inception_4e/relu_3x3
I1219 03:12:29.490283 15597 net.cpp:151] Top shape: 1 320 30 60 (576000)
I1219 03:12:29.490285 15597 net.cpp:159] Memory required for data: 619084804
I1219 03:12:29.490288 15597 layer_factory.hpp:77] Creating layer inception_4e/5x5_reduce
I1219 03:12:29.490291 15597 net.cpp:94] Creating Layer inception_4e/5x5_reduce
I1219 03:12:29.490293 15597 net.cpp:435] inception_4e/5x5_reduce <- inception_4d/output_inception_4d/output_0_split_2
I1219 03:12:29.490296 15597 net.cpp:409] inception_4e/5x5_reduce -> inception_4e/5x5_reduce_raw
I1219 03:12:29.490530 15597 net.cpp:144] Setting up inception_4e/5x5_reduce
I1219 03:12:29.490535 15597 net.cpp:151] Top shape: 1 32 30 60 (57600)
I1219 03:12:29.490536 15597 net.cpp:159] Memory required for data: 619315204
I1219 03:12:29.490540 15597 layer_factory.hpp:77] Creating layer inception_4e/5x5_reduce_BatchNorm
I1219 03:12:29.490543 15597 net.cpp:94] Creating Layer inception_4e/5x5_reduce_BatchNorm
I1219 03:12:29.490545 15597 net.cpp:435] inception_4e/5x5_reduce_BatchNorm <- inception_4e/5x5_reduce_raw
I1219 03:12:29.490548 15597 net.cpp:409] inception_4e/5x5_reduce_BatchNorm -> inception_4e/5x5_reduce
I1219 03:12:29.490972 15597 net.cpp:144] Setting up inception_4e/5x5_reduce_BatchNorm
I1219 03:12:29.490976 15597 net.cpp:151] Top shape: 1 32 30 60 (57600)
I1219 03:12:29.490979 15597 net.cpp:159] Memory required for data: 619545604
I1219 03:12:29.490985 15597 layer_factory.hpp:77] Creating layer inception_4e/relu_5x5_reduce
I1219 03:12:29.490988 15597 net.cpp:94] Creating Layer inception_4e/relu_5x5_reduce
I1219 03:12:29.490989 15597 net.cpp:435] inception_4e/relu_5x5_reduce <- inception_4e/5x5_reduce
I1219 03:12:29.490993 15597 net.cpp:396] inception_4e/relu_5x5_reduce -> inception_4e/5x5_reduce (in-place)
I1219 03:12:29.490995 15597 net.cpp:144] Setting up inception_4e/relu_5x5_reduce
I1219 03:12:29.490998 15597 net.cpp:151] Top shape: 1 32 30 60 (57600)
I1219 03:12:29.490999 15597 net.cpp:159] Memory required for data: 619776004
I1219 03:12:29.491001 15597 layer_factory.hpp:77] Creating layer inception_4e/5x5
I1219 03:12:29.491005 15597 net.cpp:94] Creating Layer inception_4e/5x5
I1219 03:12:29.491008 15597 net.cpp:435] inception_4e/5x5 <- inception_4e/5x5_reduce
I1219 03:12:29.491010 15597 net.cpp:409] inception_4e/5x5 -> inception_4e/5x5_raw
I1219 03:12:29.491724 15597 net.cpp:144] Setting up inception_4e/5x5
I1219 03:12:29.491729 15597 net.cpp:151] Top shape: 1 128 30 60 (230400)
I1219 03:12:29.491732 15597 net.cpp:159] Memory required for data: 620697604
I1219 03:12:29.491736 15597 layer_factory.hpp:77] Creating layer inception_4e/5x5_BatchNorm
I1219 03:12:29.491740 15597 net.cpp:94] Creating Layer inception_4e/5x5_BatchNorm
I1219 03:12:29.491744 15597 net.cpp:435] inception_4e/5x5_BatchNorm <- inception_4e/5x5_raw
I1219 03:12:29.491746 15597 net.cpp:409] inception_4e/5x5_BatchNorm -> inception_4e/5x5
I1219 03:12:29.492081 15597 net.cpp:144] Setting up inception_4e/5x5_BatchNorm
I1219 03:12:29.492085 15597 net.cpp:151] Top shape: 1 128 30 60 (230400)
I1219 03:12:29.492089 15597 net.cpp:159] Memory required for data: 621619204
I1219 03:12:29.492094 15597 layer_factory.hpp:77] Creating layer inception_4e/relu_5x5
I1219 03:12:29.492096 15597 net.cpp:94] Creating Layer inception_4e/relu_5x5
I1219 03:12:29.492098 15597 net.cpp:435] inception_4e/relu_5x5 <- inception_4e/5x5
I1219 03:12:29.492100 15597 net.cpp:396] inception_4e/relu_5x5 -> inception_4e/5x5 (in-place)
I1219 03:12:29.492103 15597 net.cpp:144] Setting up inception_4e/relu_5x5
I1219 03:12:29.492105 15597 net.cpp:151] Top shape: 1 128 30 60 (230400)
I1219 03:12:29.492107 15597 net.cpp:159] Memory required for data: 622540804
I1219 03:12:29.492110 15597 layer_factory.hpp:77] Creating layer inception_4e/pool
I1219 03:12:29.492113 15597 net.cpp:94] Creating Layer inception_4e/pool
I1219 03:12:29.492115 15597 net.cpp:435] inception_4e/pool <- inception_4d/output_inception_4d/output_0_split_3
I1219 03:12:29.492118 15597 net.cpp:409] inception_4e/pool -> inception_4e/pool
I1219 03:12:29.492137 15597 net.cpp:144] Setting up inception_4e/pool
I1219 03:12:29.492139 15597 net.cpp:151] Top shape: 1 528 30 60 (950400)
I1219 03:12:29.492142 15597 net.cpp:159] Memory required for data: 626342404
I1219 03:12:29.492143 15597 layer_factory.hpp:77] Creating layer inception_4e/pool_proj
I1219 03:12:29.492147 15597 net.cpp:94] Creating Layer inception_4e/pool_proj
I1219 03:12:29.492149 15597 net.cpp:435] inception_4e/pool_proj <- inception_4e/pool
I1219 03:12:29.492152 15597 net.cpp:409] inception_4e/pool_proj -> inception_4e/pool_proj_raw
I1219 03:12:29.493198 15597 net.cpp:144] Setting up inception_4e/pool_proj
I1219 03:12:29.493203 15597 net.cpp:151] Top shape: 1 128 30 60 (230400)
I1219 03:12:29.493206 15597 net.cpp:159] Memory required for data: 627264004
I1219 03:12:29.493211 15597 layer_factory.hpp:77] Creating layer inception_4e/pool_proj_BatchNorm
I1219 03:12:29.493216 15597 net.cpp:94] Creating Layer inception_4e/pool_proj_BatchNorm
I1219 03:12:29.493218 15597 net.cpp:435] inception_4e/pool_proj_BatchNorm <- inception_4e/pool_proj_raw
I1219 03:12:29.493221 15597 net.cpp:409] inception_4e/pool_proj_BatchNorm -> inception_4e/pool_proj
I1219 03:12:29.493552 15597 net.cpp:144] Setting up inception_4e/pool_proj_BatchNorm
I1219 03:12:29.493556 15597 net.cpp:151] Top shape: 1 128 30 60 (230400)
I1219 03:12:29.493559 15597 net.cpp:159] Memory required for data: 628185604
I1219 03:12:29.493564 15597 layer_factory.hpp:77] Creating layer inception_4e/relu_pool_proj
I1219 03:12:29.493567 15597 net.cpp:94] Creating Layer inception_4e/relu_pool_proj
I1219 03:12:29.493568 15597 net.cpp:435] inception_4e/relu_pool_proj <- inception_4e/pool_proj
I1219 03:12:29.493571 15597 net.cpp:396] inception_4e/relu_pool_proj -> inception_4e/pool_proj (in-place)
I1219 03:12:29.493574 15597 net.cpp:144] Setting up inception_4e/relu_pool_proj
I1219 03:12:29.493575 15597 net.cpp:151] Top shape: 1 128 30 60 (230400)
I1219 03:12:29.493578 15597 net.cpp:159] Memory required for data: 629107204
I1219 03:12:29.493579 15597 layer_factory.hpp:77] Creating layer inception_4e/output
I1219 03:12:29.493582 15597 net.cpp:94] Creating Layer inception_4e/output
I1219 03:12:29.493584 15597 net.cpp:435] inception_4e/output <- inception_4e/1x1
I1219 03:12:29.493587 15597 net.cpp:435] inception_4e/output <- inception_4e/3x3
I1219 03:12:29.493588 15597 net.cpp:435] inception_4e/output <- inception_4e/5x5
I1219 03:12:29.493590 15597 net.cpp:435] inception_4e/output <- inception_4e/pool_proj
I1219 03:12:29.493593 15597 net.cpp:409] inception_4e/output -> inception_4e/output
I1219 03:12:29.493605 15597 net.cpp:144] Setting up inception_4e/output
I1219 03:12:29.493607 15597 net.cpp:151] Top shape: 1 832 30 60 (1497600)
I1219 03:12:29.493609 15597 net.cpp:159] Memory required for data: 635097604
I1219 03:12:29.493611 15597 layer_factory.hpp:77] Creating layer inception_4e/output_inception_4e/output_0_split
I1219 03:12:29.493614 15597 net.cpp:94] Creating Layer inception_4e/output_inception_4e/output_0_split
I1219 03:12:29.493616 15597 net.cpp:435] inception_4e/output_inception_4e/output_0_split <- inception_4e/output
I1219 03:12:29.493619 15597 net.cpp:409] inception_4e/output_inception_4e/output_0_split -> inception_4e/output_inception_4e/output_0_split_0
I1219 03:12:29.493623 15597 net.cpp:409] inception_4e/output_inception_4e/output_0_split -> inception_4e/output_inception_4e/output_0_split_1
I1219 03:12:29.493638 15597 net.cpp:144] Setting up inception_4e/output_inception_4e/output_0_split
I1219 03:12:29.493641 15597 net.cpp:151] Top shape: 1 832 30 60 (1497600)
I1219 03:12:29.493644 15597 net.cpp:151] Top shape: 1 832 30 60 (1497600)
I1219 03:12:29.493646 15597 net.cpp:159] Memory required for data: 647078404
I1219 03:12:29.493649 15597 layer_factory.hpp:77] Creating layer pool4/3x3_s2
I1219 03:12:29.493651 15597 net.cpp:94] Creating Layer pool4/3x3_s2
I1219 03:12:29.493654 15597 net.cpp:435] pool4/3x3_s2 <- inception_4e/output_inception_4e/output_0_split_0
I1219 03:12:29.493656 15597 net.cpp:409] pool4/3x3_s2 -> pool4/3x3_s2
I1219 03:12:29.493674 15597 net.cpp:144] Setting up pool4/3x3_s2
I1219 03:12:29.493675 15597 net.cpp:151] Top shape: 1 832 15 30 (374400)
I1219 03:12:29.493677 15597 net.cpp:159] Memory required for data: 648576004
I1219 03:12:29.493680 15597 layer_factory.hpp:77] Creating layer pool4/3x3_s2_pool4/3x3_s2_0_split
I1219 03:12:29.493682 15597 net.cpp:94] Creating Layer pool4/3x3_s2_pool4/3x3_s2_0_split
I1219 03:12:29.493685 15597 net.cpp:435] pool4/3x3_s2_pool4/3x3_s2_0_split <- pool4/3x3_s2
I1219 03:12:29.493687 15597 net.cpp:409] pool4/3x3_s2_pool4/3x3_s2_0_split -> pool4/3x3_s2_pool4/3x3_s2_0_split_0
I1219 03:12:29.493690 15597 net.cpp:409] pool4/3x3_s2_pool4/3x3_s2_0_split -> pool4/3x3_s2_pool4/3x3_s2_0_split_1
I1219 03:12:29.493693 15597 net.cpp:409] pool4/3x3_s2_pool4/3x3_s2_0_split -> pool4/3x3_s2_pool4/3x3_s2_0_split_2
I1219 03:12:29.493696 15597 net.cpp:409] pool4/3x3_s2_pool4/3x3_s2_0_split -> pool4/3x3_s2_pool4/3x3_s2_0_split_3
I1219 03:12:29.493726 15597 net.cpp:144] Setting up pool4/3x3_s2_pool4/3x3_s2_0_split
I1219 03:12:29.493728 15597 net.cpp:151] Top shape: 1 832 15 30 (374400)
I1219 03:12:29.493731 15597 net.cpp:151] Top shape: 1 832 15 30 (374400)
I1219 03:12:29.493733 15597 net.cpp:151] Top shape: 1 832 15 30 (374400)
I1219 03:12:29.493736 15597 net.cpp:151] Top shape: 1 832 15 30 (374400)
I1219 03:12:29.493738 15597 net.cpp:159] Memory required for data: 654566404
I1219 03:12:29.493739 15597 layer_factory.hpp:77] Creating layer inception_5a/1x1
I1219 03:12:29.493744 15597 net.cpp:94] Creating Layer inception_5a/1x1
I1219 03:12:29.493746 15597 net.cpp:435] inception_5a/1x1 <- pool4/3x3_s2_pool4/3x3_s2_0_split_0
I1219 03:12:29.493749 15597 net.cpp:409] inception_5a/1x1 -> inception_5a/1x1_raw
I1219 03:12:29.495609 15597 net.cpp:144] Setting up inception_5a/1x1
I1219 03:12:29.495616 15597 net.cpp:151] Top shape: 1 256 15 30 (115200)
I1219 03:12:29.495620 15597 net.cpp:159] Memory required for data: 655027204
I1219 03:12:29.495625 15597 layer_factory.hpp:77] Creating layer inception_5a/1x1_BatchNorm
I1219 03:12:29.495628 15597 net.cpp:94] Creating Layer inception_5a/1x1_BatchNorm
I1219 03:12:29.495631 15597 net.cpp:435] inception_5a/1x1_BatchNorm <- inception_5a/1x1_raw
I1219 03:12:29.495635 15597 net.cpp:409] inception_5a/1x1_BatchNorm -> inception_5a/1x1
I1219 03:12:29.495985 15597 net.cpp:144] Setting up inception_5a/1x1_BatchNorm
I1219 03:12:29.495991 15597 net.cpp:151] Top shape: 1 256 15 30 (115200)
I1219 03:12:29.495993 15597 net.cpp:159] Memory required for data: 655488004
I1219 03:12:29.495999 15597 layer_factory.hpp:77] Creating layer inception_5a/relu_1x1
I1219 03:12:29.496002 15597 net.cpp:94] Creating Layer inception_5a/relu_1x1
I1219 03:12:29.496003 15597 net.cpp:435] inception_5a/relu_1x1 <- inception_5a/1x1
I1219 03:12:29.496006 15597 net.cpp:396] inception_5a/relu_1x1 -> inception_5a/1x1 (in-place)
I1219 03:12:29.496009 15597 net.cpp:144] Setting up inception_5a/relu_1x1
I1219 03:12:29.496011 15597 net.cpp:151] Top shape: 1 256 15 30 (115200)
I1219 03:12:29.496013 15597 net.cpp:159] Memory required for data: 655948804
I1219 03:12:29.496014 15597 layer_factory.hpp:77] Creating layer inception_5a/3x3_reduce
I1219 03:12:29.496019 15597 net.cpp:94] Creating Layer inception_5a/3x3_reduce
I1219 03:12:29.496021 15597 net.cpp:435] inception_5a/3x3_reduce <- pool4/3x3_s2_pool4/3x3_s2_0_split_1
I1219 03:12:29.496024 15597 net.cpp:409] inception_5a/3x3_reduce -> inception_5a/3x3_reduce_raw
I1219 03:12:29.496891 15597 net.cpp:144] Setting up inception_5a/3x3_reduce
I1219 03:12:29.496896 15597 net.cpp:151] Top shape: 1 160 15 30 (72000)
I1219 03:12:29.496898 15597 net.cpp:159] Memory required for data: 656236804
I1219 03:12:29.496901 15597 layer_factory.hpp:77] Creating layer inception_5a/3x3_reduce_BatchNorm
I1219 03:12:29.496906 15597 net.cpp:94] Creating Layer inception_5a/3x3_reduce_BatchNorm
I1219 03:12:29.496908 15597 net.cpp:435] inception_5a/3x3_reduce_BatchNorm <- inception_5a/3x3_reduce_raw
I1219 03:12:29.496912 15597 net.cpp:409] inception_5a/3x3_reduce_BatchNorm -> inception_5a/3x3_reduce
I1219 03:12:29.497295 15597 net.cpp:144] Setting up inception_5a/3x3_reduce_BatchNorm
I1219 03:12:29.497299 15597 net.cpp:151] Top shape: 1 160 15 30 (72000)
I1219 03:12:29.497303 15597 net.cpp:159] Memory required for data: 656524804
I1219 03:12:29.497308 15597 layer_factory.hpp:77] Creating layer inception_5a/relu_3x3_reduce
I1219 03:12:29.497310 15597 net.cpp:94] Creating Layer inception_5a/relu_3x3_reduce
I1219 03:12:29.497313 15597 net.cpp:435] inception_5a/relu_3x3_reduce <- inception_5a/3x3_reduce
I1219 03:12:29.497315 15597 net.cpp:396] inception_5a/relu_3x3_reduce -> inception_5a/3x3_reduce (in-place)
I1219 03:12:29.497318 15597 net.cpp:144] Setting up inception_5a/relu_3x3_reduce
I1219 03:12:29.497320 15597 net.cpp:151] Top shape: 1 160 15 30 (72000)
I1219 03:12:29.497323 15597 net.cpp:159] Memory required for data: 656812804
I1219 03:12:29.497323 15597 layer_factory.hpp:77] Creating layer inception_5a/3x3
I1219 03:12:29.497328 15597 net.cpp:94] Creating Layer inception_5a/3x3
I1219 03:12:29.497329 15597 net.cpp:435] inception_5a/3x3 <- inception_5a/3x3_reduce
I1219 03:12:29.497332 15597 net.cpp:409] inception_5a/3x3 -> inception_5a/3x3_raw
I1219 03:12:29.501377 15597 net.cpp:144] Setting up inception_5a/3x3
I1219 03:12:29.501390 15597 net.cpp:151] Top shape: 1 320 15 30 (144000)
I1219 03:12:29.501396 15597 net.cpp:159] Memory required for data: 657388804
I1219 03:12:29.501405 15597 layer_factory.hpp:77] Creating layer inception_5a/3x3_BatchNorm
I1219 03:12:29.501412 15597 net.cpp:94] Creating Layer inception_5a/3x3_BatchNorm
I1219 03:12:29.501416 15597 net.cpp:435] inception_5a/3x3_BatchNorm <- inception_5a/3x3_raw
I1219 03:12:29.501421 15597 net.cpp:409] inception_5a/3x3_BatchNorm -> inception_5a/3x3
I1219 03:12:29.501832 15597 net.cpp:144] Setting up inception_5a/3x3_BatchNorm
I1219 03:12:29.501837 15597 net.cpp:151] Top shape: 1 320 15 30 (144000)
I1219 03:12:29.501839 15597 net.cpp:159] Memory required for data: 657964804
I1219 03:12:29.501844 15597 layer_factory.hpp:77] Creating layer inception_5a/relu_3x3
I1219 03:12:29.501847 15597 net.cpp:94] Creating Layer inception_5a/relu_3x3
I1219 03:12:29.501849 15597 net.cpp:435] inception_5a/relu_3x3 <- inception_5a/3x3
I1219 03:12:29.501852 15597 net.cpp:396] inception_5a/relu_3x3 -> inception_5a/3x3 (in-place)
I1219 03:12:29.501857 15597 net.cpp:144] Setting up inception_5a/relu_3x3
I1219 03:12:29.501858 15597 net.cpp:151] Top shape: 1 320 15 30 (144000)
I1219 03:12:29.501860 15597 net.cpp:159] Memory required for data: 658540804
I1219 03:12:29.501863 15597 layer_factory.hpp:77] Creating layer inception_5a/5x5_reduce
I1219 03:12:29.501868 15597 net.cpp:94] Creating Layer inception_5a/5x5_reduce
I1219 03:12:29.501869 15597 net.cpp:435] inception_5a/5x5_reduce <- pool4/3x3_s2_pool4/3x3_s2_0_split_2
I1219 03:12:29.501873 15597 net.cpp:409] inception_5a/5x5_reduce -> inception_5a/5x5_reduce_raw
I1219 03:12:29.502192 15597 net.cpp:144] Setting up inception_5a/5x5_reduce
I1219 03:12:29.502195 15597 net.cpp:151] Top shape: 1 32 15 30 (14400)
I1219 03:12:29.502198 15597 net.cpp:159] Memory required for data: 658598404
I1219 03:12:29.502202 15597 layer_factory.hpp:77] Creating layer inception_5a/5x5_reduce_BatchNorm
I1219 03:12:29.502207 15597 net.cpp:94] Creating Layer inception_5a/5x5_reduce_BatchNorm
I1219 03:12:29.502208 15597 net.cpp:435] inception_5a/5x5_reduce_BatchNorm <- inception_5a/5x5_reduce_raw
I1219 03:12:29.502211 15597 net.cpp:409] inception_5a/5x5_reduce_BatchNorm -> inception_5a/5x5_reduce
I1219 03:12:29.502619 15597 net.cpp:144] Setting up inception_5a/5x5_reduce_BatchNorm
I1219 03:12:29.502627 15597 net.cpp:151] Top shape: 1 32 15 30 (14400)
I1219 03:12:29.502632 15597 net.cpp:159] Memory required for data: 658656004
I1219 03:12:29.502640 15597 layer_factory.hpp:77] Creating layer inception_5a/relu_5x5_reduce
I1219 03:12:29.502645 15597 net.cpp:94] Creating Layer inception_5a/relu_5x5_reduce
I1219 03:12:29.502647 15597 net.cpp:435] inception_5a/relu_5x5_reduce <- inception_5a/5x5_reduce
I1219 03:12:29.502651 15597 net.cpp:396] inception_5a/relu_5x5_reduce -> inception_5a/5x5_reduce (in-place)
I1219 03:12:29.502657 15597 net.cpp:144] Setting up inception_5a/relu_5x5_reduce
I1219 03:12:29.502660 15597 net.cpp:151] Top shape: 1 32 15 30 (14400)
I1219 03:12:29.502663 15597 net.cpp:159] Memory required for data: 658713604
I1219 03:12:29.502665 15597 layer_factory.hpp:77] Creating layer inception_5a/5x5
I1219 03:12:29.502672 15597 net.cpp:94] Creating Layer inception_5a/5x5
I1219 03:12:29.502674 15597 net.cpp:435] inception_5a/5x5 <- inception_5a/5x5_reduce
I1219 03:12:29.502686 15597 net.cpp:409] inception_5a/5x5 -> inception_5a/5x5_raw
I1219 03:12:29.504237 15597 net.cpp:144] Setting up inception_5a/5x5
I1219 03:12:29.504245 15597 net.cpp:151] Top shape: 1 128 15 30 (57600)
I1219 03:12:29.504247 15597 net.cpp:159] Memory required for data: 658944004
I1219 03:12:29.504251 15597 layer_factory.hpp:77] Creating layer inception_5a/5x5_BatchNorm
I1219 03:12:29.504256 15597 net.cpp:94] Creating Layer inception_5a/5x5_BatchNorm
I1219 03:12:29.504258 15597 net.cpp:435] inception_5a/5x5_BatchNorm <- inception_5a/5x5_raw
I1219 03:12:29.504262 15597 net.cpp:409] inception_5a/5x5_BatchNorm -> inception_5a/5x5
I1219 03:12:29.504595 15597 net.cpp:144] Setting up inception_5a/5x5_BatchNorm
I1219 03:12:29.504598 15597 net.cpp:151] Top shape: 1 128 15 30 (57600)
I1219 03:12:29.504601 15597 net.cpp:159] Memory required for data: 659174404
I1219 03:12:29.504607 15597 layer_factory.hpp:77] Creating layer inception_5a/relu_5x5
I1219 03:12:29.504611 15597 net.cpp:94] Creating Layer inception_5a/relu_5x5
I1219 03:12:29.504612 15597 net.cpp:435] inception_5a/relu_5x5 <- inception_5a/5x5
I1219 03:12:29.504614 15597 net.cpp:396] inception_5a/relu_5x5 -> inception_5a/5x5 (in-place)
I1219 03:12:29.504617 15597 net.cpp:144] Setting up inception_5a/relu_5x5
I1219 03:12:29.504619 15597 net.cpp:151] Top shape: 1 128 15 30 (57600)
I1219 03:12:29.504622 15597 net.cpp:159] Memory required for data: 659404804
I1219 03:12:29.504626 15597 layer_factory.hpp:77] Creating layer inception_5a/pool
I1219 03:12:29.504633 15597 net.cpp:94] Creating Layer inception_5a/pool
I1219 03:12:29.504637 15597 net.cpp:435] inception_5a/pool <- pool4/3x3_s2_pool4/3x3_s2_0_split_3
I1219 03:12:29.504642 15597 net.cpp:409] inception_5a/pool -> inception_5a/pool
I1219 03:12:29.504670 15597 net.cpp:144] Setting up inception_5a/pool
I1219 03:12:29.504673 15597 net.cpp:151] Top shape: 1 832 15 30 (374400)
I1219 03:12:29.504676 15597 net.cpp:159] Memory required for data: 660902404
I1219 03:12:29.504678 15597 layer_factory.hpp:77] Creating layer inception_5a/pool_proj
I1219 03:12:29.504683 15597 net.cpp:94] Creating Layer inception_5a/pool_proj
I1219 03:12:29.504685 15597 net.cpp:435] inception_5a/pool_proj <- inception_5a/pool
I1219 03:12:29.504688 15597 net.cpp:409] inception_5a/pool_proj -> inception_5a/pool_proj_raw
I1219 03:12:29.505362 15597 net.cpp:144] Setting up inception_5a/pool_proj
I1219 03:12:29.505364 15597 net.cpp:151] Top shape: 1 128 15 30 (57600)
I1219 03:12:29.505367 15597 net.cpp:159] Memory required for data: 661132804
I1219 03:12:29.505371 15597 layer_factory.hpp:77] Creating layer inception_5a/pool_proj_BatchNorm
I1219 03:12:29.505375 15597 net.cpp:94] Creating Layer inception_5a/pool_proj_BatchNorm
I1219 03:12:29.505378 15597 net.cpp:435] inception_5a/pool_proj_BatchNorm <- inception_5a/pool_proj_raw
I1219 03:12:29.505380 15597 net.cpp:409] inception_5a/pool_proj_BatchNorm -> inception_5a/pool_proj
I1219 03:12:29.505709 15597 net.cpp:144] Setting up inception_5a/pool_proj_BatchNorm
I1219 03:12:29.505713 15597 net.cpp:151] Top shape: 1 128 15 30 (57600)
I1219 03:12:29.505717 15597 net.cpp:159] Memory required for data: 661363204
I1219 03:12:29.505722 15597 layer_factory.hpp:77] Creating layer inception_5a/relu_pool_proj
I1219 03:12:29.505724 15597 net.cpp:94] Creating Layer inception_5a/relu_pool_proj
I1219 03:12:29.505726 15597 net.cpp:435] inception_5a/relu_pool_proj <- inception_5a/pool_proj
I1219 03:12:29.505728 15597 net.cpp:396] inception_5a/relu_pool_proj -> inception_5a/pool_proj (in-place)
I1219 03:12:29.505731 15597 net.cpp:144] Setting up inception_5a/relu_pool_proj
I1219 03:12:29.505733 15597 net.cpp:151] Top shape: 1 128 15 30 (57600)
I1219 03:12:29.505735 15597 net.cpp:159] Memory required for data: 661593604
I1219 03:12:29.505738 15597 layer_factory.hpp:77] Creating layer inception_5a/output
I1219 03:12:29.505740 15597 net.cpp:94] Creating Layer inception_5a/output
I1219 03:12:29.505743 15597 net.cpp:435] inception_5a/output <- inception_5a/1x1
I1219 03:12:29.505744 15597 net.cpp:435] inception_5a/output <- inception_5a/3x3
I1219 03:12:29.505746 15597 net.cpp:435] inception_5a/output <- inception_5a/5x5
I1219 03:12:29.505748 15597 net.cpp:435] inception_5a/output <- inception_5a/pool_proj
I1219 03:12:29.505750 15597 net.cpp:409] inception_5a/output -> inception_5a/output
I1219 03:12:29.505762 15597 net.cpp:144] Setting up inception_5a/output
I1219 03:12:29.505764 15597 net.cpp:151] Top shape: 1 832 15 30 (374400)
I1219 03:12:29.505766 15597 net.cpp:159] Memory required for data: 663091204
I1219 03:12:29.505769 15597 layer_factory.hpp:77] Creating layer inception_5a/output_inception_5a/output_0_split
I1219 03:12:29.505771 15597 net.cpp:94] Creating Layer inception_5a/output_inception_5a/output_0_split
I1219 03:12:29.505774 15597 net.cpp:435] inception_5a/output_inception_5a/output_0_split <- inception_5a/output
I1219 03:12:29.505776 15597 net.cpp:409] inception_5a/output_inception_5a/output_0_split -> inception_5a/output_inception_5a/output_0_split_0
I1219 03:12:29.505779 15597 net.cpp:409] inception_5a/output_inception_5a/output_0_split -> inception_5a/output_inception_5a/output_0_split_1
I1219 03:12:29.505782 15597 net.cpp:409] inception_5a/output_inception_5a/output_0_split -> inception_5a/output_inception_5a/output_0_split_2
I1219 03:12:29.505785 15597 net.cpp:409] inception_5a/output_inception_5a/output_0_split -> inception_5a/output_inception_5a/output_0_split_3
I1219 03:12:29.505815 15597 net.cpp:144] Setting up inception_5a/output_inception_5a/output_0_split
I1219 03:12:29.505818 15597 net.cpp:151] Top shape: 1 832 15 30 (374400)
I1219 03:12:29.505820 15597 net.cpp:151] Top shape: 1 832 15 30 (374400)
I1219 03:12:29.505823 15597 net.cpp:151] Top shape: 1 832 15 30 (374400)
I1219 03:12:29.505825 15597 net.cpp:151] Top shape: 1 832 15 30 (374400)
I1219 03:12:29.505827 15597 net.cpp:159] Memory required for data: 669081604
I1219 03:12:29.505829 15597 layer_factory.hpp:77] Creating layer inception_5b/1x1
I1219 03:12:29.505833 15597 net.cpp:94] Creating Layer inception_5b/1x1
I1219 03:12:29.505836 15597 net.cpp:435] inception_5b/1x1 <- inception_5a/output_inception_5a/output_0_split_0
I1219 03:12:29.505837 15597 net.cpp:409] inception_5b/1x1 -> inception_5b/1x1_raw
I1219 03:12:29.508672 15597 net.cpp:144] Setting up inception_5b/1x1
I1219 03:12:29.508682 15597 net.cpp:151] Top shape: 1 384 15 30 (172800)
I1219 03:12:29.508685 15597 net.cpp:159] Memory required for data: 669772804
I1219 03:12:29.508690 15597 layer_factory.hpp:77] Creating layer inception_5b/1x1_BatchNorm
I1219 03:12:29.508694 15597 net.cpp:94] Creating Layer inception_5b/1x1_BatchNorm
I1219 03:12:29.508697 15597 net.cpp:435] inception_5b/1x1_BatchNorm <- inception_5b/1x1_raw
I1219 03:12:29.508702 15597 net.cpp:409] inception_5b/1x1_BatchNorm -> inception_5b/1x1
I1219 03:12:29.509058 15597 net.cpp:144] Setting up inception_5b/1x1_BatchNorm
I1219 03:12:29.509063 15597 net.cpp:151] Top shape: 1 384 15 30 (172800)
I1219 03:12:29.509065 15597 net.cpp:159] Memory required for data: 670464004
I1219 03:12:29.509070 15597 layer_factory.hpp:77] Creating layer inception_5b/relu_1x1
I1219 03:12:29.509073 15597 net.cpp:94] Creating Layer inception_5b/relu_1x1
I1219 03:12:29.509074 15597 net.cpp:435] inception_5b/relu_1x1 <- inception_5b/1x1
I1219 03:12:29.509078 15597 net.cpp:396] inception_5b/relu_1x1 -> inception_5b/1x1 (in-place)
I1219 03:12:29.509080 15597 net.cpp:144] Setting up inception_5b/relu_1x1
I1219 03:12:29.509083 15597 net.cpp:151] Top shape: 1 384 15 30 (172800)
I1219 03:12:29.509084 15597 net.cpp:159] Memory required for data: 671155204
I1219 03:12:29.509086 15597 layer_factory.hpp:77] Creating layer inception_5b/3x3_reduce
I1219 03:12:29.509091 15597 net.cpp:94] Creating Layer inception_5b/3x3_reduce
I1219 03:12:29.509093 15597 net.cpp:435] inception_5b/3x3_reduce <- inception_5a/output_inception_5a/output_0_split_1
I1219 03:12:29.509096 15597 net.cpp:409] inception_5b/3x3_reduce -> inception_5b/3x3_reduce_raw
I1219 03:12:29.510092 15597 net.cpp:144] Setting up inception_5b/3x3_reduce
I1219 03:12:29.510097 15597 net.cpp:151] Top shape: 1 192 15 30 (86400)
…
I1219 03:13:24.119926 15597 layer_factory.hpp:77] Creating layer inception_4e/3x3_reduce
I1219 03:13:24.119932 15597 net.cpp:94] Creating Layer inception_4e/3x3_reduce
I1219 03:13:24.119935 15597 net.cpp:435] inception_4e/3x3_reduce <- inception_4d/output_inception_4d/output_fixed_0_split_1
I1219 03:13:24.119936 15597 net.cpp:409] inception_4e/3x3_reduce -> inception_4e/3x3_reduce
I1219 03:13:24.120491 15597 layer_factory.hpp:77] Creating layer inception_4e/3x3_reduce
I1219 03:13:24.121994 15597 net.cpp:144] Setting up inception_4e/3x3_reduce
I1219 03:13:24.121999 15597 net.cpp:151] Top shape: 1 160 30 60 (288000)
I1219 03:13:24.122004 15597 net.cpp:159] Memory required for data: 629103616
I1219 03:13:24.122007 15597 layer_factory.hpp:77] Creating layer inception_4e/relu_3x3_reduce
I1219 03:13:24.122010 15597 net.cpp:94] Creating Layer inception_4e/relu_3x3_reduce
I1219 03:13:24.122014 15597 net.cpp:435] inception_4e/relu_3x3_reduce <- inception_4e/3x3_reduce
I1219 03:13:24.122015 15597 net.cpp:396] inception_4e/relu_3x3_reduce -> inception_4e/3x3_reduce (in-place)
I1219 03:13:24.122020 15597 net.cpp:144] Setting up inception_4e/relu_3x3_reduce
I1219 03:13:24.122021 15597 net.cpp:151] Top shape: 1 160 30 60 (288000)
I1219 03:13:24.122023 15597 net.cpp:159] Memory required for data: 630255616
I1219 03:13:24.122025 15597 layer_factory.hpp:77] Creating layer inception_4e/3x3_reduce_fixed
I1219 03:13:24.122028 15597 net.cpp:94] Creating Layer inception_4e/3x3_reduce_fixed
I1219 03:13:24.122030 15597 net.cpp:435] inception_4e/3x3_reduce_fixed <- inception_4e/3x3_reduce
I1219 03:13:24.122033 15597 net.cpp:396] inception_4e/3x3_reduce_fixed -> inception_4e/3x3_reduce (in-place)
I1219 03:13:24.122052 15597 net.cpp:144] Setting up inception_4e/3x3_reduce_fixed
I1219 03:13:24.122054 15597 net.cpp:151] Top shape: 1 160 30 60 (288000)
I1219 03:13:24.122057 15597 net.cpp:159] Memory required for data: 631407616
I1219 03:13:24.122059 15597 layer_factory.hpp:77] Creating layer inception_4e/3x3
I1219 03:13:24.122063 15597 net.cpp:94] Creating Layer inception_4e/3x3
I1219 03:13:24.122066 15597 net.cpp:435] inception_4e/3x3 <- inception_4e/3x3_reduce
I1219 03:13:24.122068 15597 net.cpp:409] inception_4e/3x3 -> inception_4e/3x3
I1219 03:13:24.125717 15597 layer_factory.hpp:77] Creating layer inception_4e/3x3
I1219 03:13:24.129860 15597 net.cpp:144] Setting up inception_4e/3x3
I1219 03:13:24.129875 15597 net.cpp:151] Top shape: 1 320 30 60 (576000)
I1219 03:13:24.129882 15597 net.cpp:159] Memory required for data: 633711616
I1219 03:13:24.129890 15597 layer_factory.hpp:77] Creating layer inception_4e/relu_3x3
I1219 03:13:24.129897 15597 net.cpp:94] Creating Layer inception_4e/relu_3x3
I1219 03:13:24.129901 15597 net.cpp:435] inception_4e/relu_3x3 <- inception_4e/3x3
I1219 03:13:24.129906 15597 net.cpp:396] inception_4e/relu_3x3 -> inception_4e/3x3 (in-place)
I1219 03:13:24.129912 15597 net.cpp:144] Setting up inception_4e/relu_3x3
I1219 03:13:24.129914 15597 net.cpp:151] Top shape: 1 320 30 60 (576000)
I1219 03:13:24.129916 15597 net.cpp:159] Memory required for data: 636015616
I1219 03:13:24.129918 15597 layer_factory.hpp:77] Creating layer inception_4e/5x5_reduce
I1219 03:13:24.129925 15597 net.cpp:94] Creating Layer inception_4e/5x5_reduce
I1219 03:13:24.129927 15597 net.cpp:435] inception_4e/5x5_reduce <- inception_4d/output_inception_4d/output_fixed_0_split_2
I1219 03:13:24.129930 15597 net.cpp:409] inception_4e/5x5_reduce -> inception_4e/5x5_reduce
I1219 03:13:24.130153 15597 layer_factory.hpp:77] Creating layer inception_4e/5x5_reduce
I1219 03:13:24.130450 15597 net.cpp:144] Setting up inception_4e/5x5_reduce
I1219 03:13:24.130452 15597 net.cpp:151] Top shape: 1 32 30 60 (57600)
I1219 03:13:24.130455 15597 net.cpp:159] Memory required for data: 636246016
I1219 03:13:24.130458 15597 layer_factory.hpp:77] Creating layer inception_4e/relu_5x5_reduce
I1219 03:13:24.130461 15597 net.cpp:94] Creating Layer inception_4e/relu_5x5_reduce
I1219 03:13:24.130463 15597 net.cpp:435] inception_4e/relu_5x5_reduce <- inception_4e/5x5_reduce
I1219 03:13:24.130466 15597 net.cpp:396] inception_4e/relu_5x5_reduce -> inception_4e/5x5_reduce (in-place)
I1219 03:13:24.130470 15597 net.cpp:144] Setting up inception_4e/relu_5x5_reduce
I1219 03:13:24.130470 15597 net.cpp:151] Top shape: 1 32 30 60 (57600)
I1219 03:13:24.130473 15597 net.cpp:159] Memory required for data: 636476416
I1219 03:13:24.130475 15597 layer_factory.hpp:77] Creating layer inception_4e/5x5_reduce_fixed
I1219 03:13:24.130478 15597 net.cpp:94] Creating Layer inception_4e/5x5_reduce_fixed
I1219 03:13:24.130481 15597 net.cpp:435] inception_4e/5x5_reduce_fixed <- inception_4e/5x5_reduce
I1219 03:13:24.130482 15597 net.cpp:396] inception_4e/5x5_reduce_fixed -> inception_4e/5x5_reduce (in-place)
I1219 03:13:24.130501 15597 net.cpp:144] Setting up inception_4e/5x5_reduce_fixed
I1219 03:13:24.130503 15597 net.cpp:151] Top shape: 1 32 30 60 (57600)
I1219 03:13:24.130506 15597 net.cpp:159] Memory required for data: 636706816
I1219 03:13:24.130508 15597 layer_factory.hpp:77] Creating layer inception_4e/5x5
I1219 03:13:24.130512 15597 net.cpp:94] Creating Layer inception_4e/5x5
I1219 03:13:24.130515 15597 net.cpp:435] inception_4e/5x5 <- inception_4e/5x5_reduce
I1219 03:13:24.130518 15597 net.cpp:409] inception_4e/5x5 -> inception_4e/5x5
I1219 03:13:24.131207 15597 layer_factory.hpp:77] Creating layer inception_4e/5x5
I1219 03:13:24.132591 15597 net.cpp:144] Setting up inception_4e/5x5
I1219 03:13:24.132596 15597 net.cpp:151] Top shape: 1 128 30 60 (230400)
I1219 03:13:24.132599 15597 net.cpp:159] Memory required for data: 637628416
I1219 03:13:24.132603 15597 layer_factory.hpp:77] Creating layer inception_4e/relu_5x5
I1219 03:13:24.132607 15597 net.cpp:94] Creating Layer inception_4e/relu_5x5
I1219 03:13:24.132609 15597 net.cpp:435] inception_4e/relu_5x5 <- inception_4e/5x5
I1219 03:13:24.132612 15597 net.cpp:396] inception_4e/relu_5x5 -> inception_4e/5x5 (in-place)
I1219 03:13:24.132616 15597 net.cpp:144] Setting up inception_4e/relu_5x5
I1219 03:13:24.132617 15597 net.cpp:151] Top shape: 1 128 30 60 (230400)
I1219 03:13:24.132619 15597 net.cpp:159] Memory required for data: 638550016
I1219 03:13:24.132622 15597 layer_factory.hpp:77] Creating layer inception_4e/pool
I1219 03:13:24.132625 15597 net.cpp:94] Creating Layer inception_4e/pool
I1219 03:13:24.132627 15597 net.cpp:435] inception_4e/pool <- inception_4d/output_inception_4d/output_fixed_0_split_3
I1219 03:13:24.132630 15597 net.cpp:409] inception_4e/pool -> inception_4e/pool
I1219 03:13:24.132652 15597 net.cpp:144] Setting up inception_4e/pool
I1219 03:13:24.132654 15597 net.cpp:151] Top shape: 1 528 30 60 (950400)
I1219 03:13:24.132658 15597 net.cpp:159] Memory required for data: 642351616
I1219 03:13:24.132658 15597 layer_factory.hpp:77] Creating layer inception_4e/pool_proj
I1219 03:13:24.132663 15597 net.cpp:94] Creating Layer inception_4e/pool_proj
I1219 03:13:24.132665 15597 net.cpp:435] inception_4e/pool_proj <- inception_4e/pool
I1219 03:13:24.132668 15597 net.cpp:409] inception_4e/pool_proj -> inception_4e/pool_proj
I1219 03:13:24.133108 15597 layer_factory.hpp:77] Creating layer inception_4e/pool_proj
I1219 03:13:24.133649 15597 net.cpp:144] Setting up inception_4e/pool_proj
I1219 03:13:24.133652 15597 net.cpp:151] Top shape: 1 128 30 60 (230400)
I1219 03:13:24.133656 15597 net.cpp:159] Memory required for data: 643273216
I1219 03:13:24.133659 15597 layer_factory.hpp:77] Creating layer inception_4e/relu_pool_proj
I1219 03:13:24.133662 15597 net.cpp:94] Creating Layer inception_4e/relu_pool_proj
I1219 03:13:24.133664 15597 net.cpp:435] inception_4e/relu_pool_proj <- inception_4e/pool_proj
I1219 03:13:24.133666 15597 net.cpp:396] inception_4e/relu_pool_proj -> inception_4e/pool_proj (in-place)
I1219 03:13:24.133669 15597 net.cpp:144] Setting up inception_4e/relu_pool_proj
I1219 03:13:24.133671 15597 net.cpp:151] Top shape: 1 128 30 60 (230400)
I1219 03:13:24.133673 15597 net.cpp:159] Memory required for data: 644194816
I1219 03:13:24.133675 15597 layer_factory.hpp:77] Creating layer inception_4e/output
I1219 03:13:24.133678 15597 net.cpp:94] Creating Layer inception_4e/output
I1219 03:13:24.133680 15597 net.cpp:435] inception_4e/output <- inception_4e/1x1
I1219 03:13:24.133682 15597 net.cpp:435] inception_4e/output <- inception_4e/3x3
I1219 03:13:24.133684 15597 net.cpp:435] inception_4e/output <- inception_4e/5x5
I1219 03:13:24.133687 15597 net.cpp:435] inception_4e/output <- inception_4e/pool_proj
I1219 03:13:24.133688 15597 net.cpp:409] inception_4e/output -> inception_4e/output
I1219 03:13:24.133700 15597 net.cpp:144] Setting up inception_4e/output
I1219 03:13:24.133703 15597 net.cpp:151] Top shape: 1 832 30 60 (1497600)
I1219 03:13:24.133706 15597 net.cpp:159] Memory required for data: 650185216
I1219 03:13:24.133708 15597 layer_factory.hpp:77] Creating layer inception_4e/output_fixed
I1219 03:13:24.133711 15597 net.cpp:94] Creating Layer inception_4e/output_fixed
I1219 03:13:24.133713 15597 net.cpp:435] inception_4e/output_fixed <- inception_4e/output
I1219 03:13:24.133715 15597 net.cpp:396] inception_4e/output_fixed -> inception_4e/output (in-place)
I1219 03:13:24.133733 15597 net.cpp:144] Setting up inception_4e/output_fixed
I1219 03:13:24.133735 15597 net.cpp:151] Top shape: 1 832 30 60 (1497600)
I1219 03:13:24.133738 15597 net.cpp:159] Memory required for data: 656175616
I1219 03:13:24.133740 15597 layer_factory.hpp:77] Creating layer inception_4e/output_inception_4e/output_fixed_0_split
I1219 03:13:24.133744 15597 net.cpp:94] Creating Layer inception_4e/output_inception_4e/output_fixed_0_split
I1219 03:13:24.133745 15597 net.cpp:435] inception_4e/output_inception_4e/output_fixed_0_split <- inception_4e/output
I1219 03:13:24.133749 15597 net.cpp:409] inception_4e/output_inception_4e/output_fixed_0_split -> inception_4e/output_inception_4e/output_fixed_0_split_0
I1219 03:13:24.133751 15597 net.cpp:409] inception_4e/output_inception_4e/output_fixed_0_split -> inception_4e/output_inception_4e/output_fixed_0_split_1
I1219 03:13:24.133769 15597 net.cpp:144] Setting up inception_4e/output_inception_4e/output_fixed_0_split
I1219 03:13:24.133771 15597 net.cpp:151] Top shape: 1 832 30 60 (1497600)
I1219 03:13:24.133774 15597 net.cpp:151] Top shape: 1 832 30 60 (1497600)
I1219 03:13:24.133776 15597 net.cpp:159] Memory required for data: 668156416
I1219 03:13:24.133778 15597 layer_factory.hpp:77] Creating layer pool4/3x3_s2
I1219 03:13:24.133781 15597 net.cpp:94] Creating Layer pool4/3x3_s2
I1219 03:13:24.133783 15597 net.cpp:435] pool4/3x3_s2 <- inception_4e/output_inception_4e/output_fixed_0_split_0
I1219 03:13:24.133786 15597 net.cpp:409] pool4/3x3_s2 -> pool4/3x3_s2
I1219 03:13:24.133802 15597 net.cpp:144] Setting up pool4/3x3_s2
I1219 03:13:24.133805 15597 net.cpp:151] Top shape: 1 832 15 30 (374400)
I1219 03:13:24.133807 15597 net.cpp:159] Memory required for data: 669654016
I1219 03:13:24.133810 15597 layer_factory.hpp:77] Creating layer pool4/3x3_s2_pool4/3x3_s2_0_split
I1219 03:13:24.133812 15597 net.cpp:94] Creating Layer pool4/3x3_s2_pool4/3x3_s2_0_split
I1219 03:13:24.133814 15597 net.cpp:435] pool4/3x3_s2_pool4/3x3_s2_0_split <- pool4/3x3_s2
I1219 03:13:24.133816 15597 net.cpp:409] pool4/3x3_s2_pool4/3x3_s2_0_split -> pool4/3x3_s2_pool4/3x3_s2_0_split_0
I1219 03:13:24.133821 15597 net.cpp:409] pool4/3x3_s2_pool4/3x3_s2_0_split -> pool4/3x3_s2_pool4/3x3_s2_0_split_1
I1219 03:13:24.133822 15597 net.cpp:409] pool4/3x3_s2_pool4/3x3_s2_0_split -> pool4/3x3_s2_pool4/3x3_s2_0_split_2
I1219 03:13:24.133826 15597 net.cpp:409] pool4/3x3_s2_pool4/3x3_s2_0_split -> pool4/3x3_s2_pool4/3x3_s2_0_split_3
I1219 03:13:24.133854 15597 net.cpp:144] Setting up pool4/3x3_s2_pool4/3x3_s2_0_split
I1219 03:13:24.133857 15597 net.cpp:151] Top shape: 1 832 15 30 (374400)
I1219 03:13:24.133859 15597 net.cpp:151] Top shape: 1 832 15 30 (374400)
I1219 03:13:24.133862 15597 net.cpp:151] Top shape: 1 832 15 30 (374400)
I1219 03:13:24.133863 15597 net.cpp:151] Top shape: 1 832 15 30 (374400)
I1219 03:13:24.133867 15597 net.cpp:159] Memory required for data: 675644416
I1219 03:13:24.133867 15597 layer_factory.hpp:77] Creating layer inception_5a/1x1
I1219 03:13:24.133872 15597 net.cpp:94] Creating Layer inception_5a/1x1
I1219 03:13:24.133873 15597 net.cpp:435] inception_5a/1x1 <- pool4/3x3_s2_pool4/3x3_s2_0_split_0
I1219 03:13:24.133877 15597 net.cpp:409] inception_5a/1x1 -> inception_5a/1x1
I1219 03:13:24.135696 15597 layer_factory.hpp:77] Creating layer inception_5a/1x1
I1219 03:13:24.137977 15597 net.cpp:144] Setting up inception_5a/1x1
I1219 03:13:24.137986 15597 net.cpp:151] Top shape: 1 256 15 30 (115200)
I1219 03:13:24.137992 15597 net.cpp:159] Memory required for data: 676105216
I1219 03:13:24.137998 15597 layer_factory.hpp:77] Creating layer inception_5a/relu_1x1
I1219 03:13:24.138003 15597 net.cpp:94] Creating Layer inception_5a/relu_1x1
I1219 03:13:24.138007 15597 net.cpp:435] inception_5a/relu_1x1 <- inception_5a/1x1
I1219 03:13:24.138011 15597 net.cpp:396] inception_5a/relu_1x1 -> inception_5a/1x1 (in-place)
I1219 03:13:24.138015 15597 net.cpp:144] Setting up inception_5a/relu_1x1
I1219 03:13:24.138017 15597 net.cpp:151] Top shape: 1 256 15 30 (115200)
I1219 03:13:24.138020 15597 net.cpp:159] Memory required for data: 676566016
I1219 03:13:24.138021 15597 layer_factory.hpp:77] Creating layer inception_5a/3x3_reduce
I1219 03:13:24.138027 15597 net.cpp:94] Creating Layer inception_5a/3x3_reduce
I1219 03:13:24.138029 15597 net.cpp:435] inception_5a/3x3_reduce <- pool4/3x3_s2_pool4/3x3_s2_0_split_1
I1219 03:13:24.138033 15597 net.cpp:409] inception_5a/3x3_reduce -> inception_5a/3x3_reduce
I1219 03:13:24.139547 15597 layer_factory.hpp:77] Creating layer inception_5a/3x3_reduce
I1219 03:13:24.140460 15597 net.cpp:144] Setting up inception_5a/3x3_reduce
I1219 03:13:24.140463 15597 net.cpp:151] Top shape: 1 160 15 30 (72000)
I1219 03:13:24.140467 15597 net.cpp:159] Memory required for data: 676854016
I1219 03:13:24.140472 15597 layer_factory.hpp:77] Creating layer inception_5a/relu_3x3_reduce
I1219 03:13:24.140476 15597 net.cpp:94] Creating Layer inception_5a/relu_3x3_reduce
I1219 03:13:24.140480 15597 net.cpp:435] inception_5a/relu_3x3_reduce <- inception_5a/3x3_reduce
I1219 03:13:24.140482 15597 net.cpp:396] inception_5a/relu_3x3_reduce -> inception_5a/3x3_reduce (in-place)
I1219 03:13:24.140486 15597 net.cpp:144] Setting up inception_5a/relu_3x3_reduce
I1219 03:13:24.140487 15597 net.cpp:151] Top shape: 1 160 15 30 (72000)
I1219 03:13:24.140489 15597 net.cpp:159] Memory required for data: 677142016
I1219 03:13:24.140491 15597 layer_factory.hpp:77] Creating layer inception_5a/3x3_reduce_fixed
I1219 03:13:24.140494 15597 net.cpp:94] Creating Layer inception_5a/3x3_reduce_fixed
I1219 03:13:24.140496 15597 net.cpp:435] inception_5a/3x3_reduce_fixed <- inception_5a/3x3_reduce
I1219 03:13:24.140498 15597 net.cpp:396] inception_5a/3x3_reduce_fixed -> inception_5a/3x3_reduce (in-place)
I1219 03:13:24.140519 15597 net.cpp:144] Setting up inception_5a/3x3_reduce_fixed
I1219 03:13:24.140522 15597 net.cpp:151] Top shape: 1 160 15 30 (72000)
I1219 03:13:24.140525 15597 net.cpp:159] Memory required for data: 677430016
I1219 03:13:24.140527 15597 layer_factory.hpp:77] Creating layer inception_5a/3x3
I1219 03:13:24.140532 15597 net.cpp:94] Creating Layer inception_5a/3x3
I1219 03:13:24.140534 15597 net.cpp:435] inception_5a/3x3 <- inception_5a/3x3_reduce
I1219 03:13:24.140537 15597 net.cpp:409] inception_5a/3x3 -> inception_5a/3x3
I1219 03:13:24.144466 15597 layer_factory.hpp:77] Creating layer inception_5a/3x3
I1219 03:13:24.148370 15597 net.cpp:144] Setting up inception_5a/3x3
I1219 03:13:24.148382 15597 net.cpp:151] Top shape: 1 320 15 30 (144000)
I1219 03:13:24.148389 15597 net.cpp:159] Memory required for data: 678006016
I1219 03:13:24.148399 15597 layer_factory.hpp:77] Creating layer inception_5a/relu_3x3
I1219 03:13:24.148406 15597 net.cpp:94] Creating Layer inception_5a/relu_3x3
I1219 03:13:24.148409 15597 net.cpp:435] inception_5a/relu_3x3 <- inception_5a/3x3
I1219 03:13:24.148420 15597 net.cpp:396] inception_5a/relu_3x3 -> inception_5a/3x3 (in-place)
I1219 03:13:24.148427 15597 net.cpp:144] Setting up inception_5a/relu_3x3
I1219 03:13:24.148428 15597 net.cpp:151] Top shape: 1 320 15 30 (144000)
I1219 03:13:24.148430 15597 net.cpp:159] Memory required for data: 678582016
I1219 03:13:24.148432 15597 layer_factory.hpp:77] Creating layer inception_5a/5x5_reduce
I1219 03:13:24.148439 15597 net.cpp:94] Creating Layer inception_5a/5x5_reduce
I1219 03:13:24.148442 15597 net.cpp:435] inception_5a/5x5_reduce <- pool4/3x3_s2_pool4/3x3_s2_0_split_2
I1219 03:13:24.148445 15597 net.cpp:409] inception_5a/5x5_reduce -> inception_5a/5x5_reduce
I1219 03:13:24.148715 15597 layer_factory.hpp:77] Creating layer inception_5a/5x5_reduce
I1219 03:13:24.149077 15597 net.cpp:144] Setting up inception_5a/5x5_reduce
I1219 03:13:24.149082 15597 net.cpp:151] Top shape: 1 32 15 30 (14400)
I1219 03:13:24.149085 15597 net.cpp:159] Memory required for data: 678639616
I1219 03:13:24.149088 15597 layer_factory.hpp:77] Creating layer inception_5a/relu_5x5_reduce
I1219 03:13:24.149091 15597 net.cpp:94] Creating Layer inception_5a/relu_5x5_reduce
I1219 03:13:24.149093 15597 net.cpp:435] inception_5a/relu_5x5_reduce <- inception_5a/5x5_reduce
I1219 03:13:24.149096 15597 net.cpp:396] inception_5a/relu_5x5_reduce -> inception_5a/5x5_reduce (in-place)
I1219 03:13:24.149098 15597 net.cpp:144] Setting up inception_5a/relu_5x5_reduce
I1219 03:13:24.149101 15597 net.cpp:151] Top shape: 1 32 15 30 (14400)
I1219 03:13:24.149102 15597 net.cpp:159] Memory required for data: 678697216
I1219 03:13:24.149104 15597 layer_factory.hpp:77] Creating layer inception_5a/5x5_reduce_fixed
I1219 03:13:24.149108 15597 net.cpp:94] Creating Layer inception_5a/5x5_reduce_fixed
I1219 03:13:24.149111 15597 net.cpp:435] inception_5a/5x5_reduce_fixed <- inception_5a/5x5_reduce
I1219 03:13:24.149113 15597 net.cpp:396] inception_5a/5x5_reduce_fixed -> inception_5a/5x5_reduce (in-place)
I1219 03:13:24.149137 15597 net.cpp:144] Setting up inception_5a/5x5_reduce_fixed
I1219 03:13:24.149139 15597 net.cpp:151] Top shape: 1 32 15 30 (14400)
I1219 03:13:24.149142 15597 net.cpp:159] Memory required for data: 678754816
I1219 03:13:24.149144 15597 layer_factory.hpp:77] Creating layer inception_5a/5x5
I1219 03:13:24.149150 15597 net.cpp:94] Creating Layer inception_5a/5x5
I1219 03:13:24.149154 15597 net.cpp:435] inception_5a/5x5 <- inception_5a/5x5_reduce
I1219 03:13:24.149158 15597 net.cpp:409] inception_5a/5x5 -> inception_5a/5x5
I1219 03:13:24.151062 15597 layer_factory.hpp:77] Creating layer inception_5a/5x5
I1219 03:13:24.151821 15597 net.cpp:144] Setting up inception_5a/5x5
I1219 03:13:24.151827 15597 net.cpp:151] Top shape: 1 128 15 30 (57600)
I1219 03:13:24.151830 15597 net.cpp:159] Memory required for data: 678985216
I1219 03:13:24.151835 15597 layer_factory.hpp:77] Creating layer inception_5a/relu_5x5
I1219 03:13:24.151840 15597 net.cpp:94] Creating Layer inception_5a/relu_5x5
I1219 03:13:24.151844 15597 net.cpp:435] inception_5a/relu_5x5 <- inception_5a/5x5
I1219 03:13:24.151846 15597 net.cpp:396] inception_5a/relu_5x5 -> inception_5a/5x5 (in-place)
I1219 03:13:24.151850 15597 net.cpp:144] Setting up inception_5a/relu_5x5
I1219 03:13:24.151852 15597 net.cpp:151] Top shape: 1 128 15 30 (57600)
I1219 03:13:24.151855 15597 net.cpp:159] Memory required for data: 679215616
I1219 03:13:24.151859 15597 layer_factory.hpp:77] Creating layer inception_5a/pool
I1219 03:13:24.151863 15597 net.cpp:94] Creating Layer inception_5a/pool
I1219 03:13:24.151865 15597 net.cpp:435] inception_5a/pool <- pool4/3x3_s2_pool4/3x3_s2_0_split_3
I1219 03:13:24.151868 15597 net.cpp:409] inception_5a/pool -> inception_5a/pool
I1219 03:13:24.151893 15597 net.cpp:144] Setting up inception_5a/pool
I1219 03:13:24.151896 15597 net.cpp:151] Top shape: 1 832 15 30 (374400)
I1219 03:13:24.151898 15597 net.cpp:159] Memory required for data: 680713216
I1219 03:13:24.151901 15597 layer_factory.hpp:77] Creating layer inception_5a/pool_proj
I1219 03:13:24.151906 15597 net.cpp:94] Creating Layer inception_5a/pool_proj
I1219 03:13:24.151908 15597 net.cpp:435] inception_5a/pool_proj <- inception_5a/pool
I1219 03:13:24.151912 15597 net.cpp:409] inception_5a/pool_proj -> inception_5a/pool_proj
I1219 03:13:24.152583 15597 layer_factory.hpp:77] Creating layer inception_5a/pool_proj
I1219 03:13:24.154812 15597 net.cpp:144] Setting up inception_5a/pool_proj
I1219 03:13:24.154821 15597 net.cpp:151] Top shape: 1 128 15 30 (57600)
I1219 03:13:24.154825 15597 net.cpp:159] Memory required for data: 680943616
I1219 03:13:24.154836 15597 layer_factory.hpp:77] Creating layer inception_5a/relu_pool_proj
I1219 03:13:24.154841 15597 net.cpp:94] Creating Layer inception_5a/relu_pool_proj
I1219 03:13:24.154844 15597 net.cpp:435] inception_5a/relu_pool_proj <- inception_5a/pool_proj
I1219 03:13:24.154848 15597 net.cpp:396] inception_5a/relu_pool_proj -> inception_5a/pool_proj (in-place)
I1219 03:13:24.154853 15597 net.cpp:144] Setting up inception_5a/relu_pool_proj
I1219 03:13:24.154855 15597 net.cpp:151] Top shape: 1 128 15 30 (57600)
I1219 03:13:24.154857 15597 net.cpp:159] Memory required for data: 681174016
I1219 03:13:24.154858 15597 layer_factory.hpp:77] Creating layer inception_5a/output
I1219 03:13:24.154862 15597 net.cpp:94] Creating Layer inception_5a/output
I1219 03:13:24.154865 15597 net.cpp:435] inception_5a/output <- inception_5a/1x1
I1219 03:13:24.154866 15597 net.cpp:435] inception_5a/output <- inception_5a/3x3
I1219 03:13:24.154868 15597 net.cpp:435] inception_5a/output <- inception_5a/5x5
I1219 03:13:24.154870 15597 net.cpp:435] inception_5a/output <- inception_5a/pool_proj
I1219 03:13:24.154873 15597 net.cpp:409] inception_5a/output -> inception_5a/output
I1219 03:13:24.154889 15597 net.cpp:144] Setting up inception_5a/output
I1219 03:13:24.154891 15597 net.cpp:151] Top shape: 1 832 15 30 (374400)
I1219 03:13:24.154893 15597 net.cpp:159] Memory required for data: 682671616
I1219 03:13:24.154894 15597 layer_factory.hpp:77] Creating layer inception_5a/output_fixed
I1219 03:13:24.154898 15597 net.cpp:94] Creating Layer inception_5a/output_fixed
I1219 03:13:24.154901 15597 net.cpp:435] inception_5a/output_fixed <- inception_5a/output
I1219 03:13:24.154903 15597 net.cpp:396] inception_5a/output_fixed -> inception_5a/output (in-place)
I1219 03:13:24.154927 15597 net.cpp:144] Setting up inception_5a/output_fixed
I1219 03:13:24.154929 15597 net.cpp:151] Top shape: 1 832 15 30 (374400)
I1219 03:13:24.154932 15597 net.cpp:159] Memory required for data: 684169216
I1219 03:13:24.154934 15597 layer_factory.hpp:77] Creating layer inception_5a/output_inception_5a/output_fixed_0_split
I1219 03:13:24.154938 15597 net.cpp:94] Creating Layer inception_5a/output_inception_5a/output_fixed_0_split
I1219 03:13:24.154940 15597 net.cpp:435] inception_5a/output_inception_5a/output_fixed_0_split <- inception_5a/output
I1219 03:13:24.154942 15597 net.cpp:409] inception_5a/output_inception_5a/output_fixed_0_split -> inception_5a/output_inception_5a/output_fixed_0_split_0
I1219 03:13:24.154945 15597 net.cpp:409] inception_5a/output_inception_5a/output_fixed_0_split -> inception_5a/output_inception_5a/output_fixed_0_split_1
I1219 03:13:24.154949 15597 net.cpp:409] inception_5a/output_inception_5a/output_fixed_0_split -> inception_5a/output_inception_5a/output_fixed_0_split_2
I1219 03:13:24.154953 15597 net.cpp:409] inception_5a/output_inception_5a/output_fixed_0_split -> inception_5a/output_inception_5a/output_fixed_0_split_3
I1219 03:13:24.154985 15597 net.cpp:144] Setting up inception_5a/output_inception_5a/output_fixed_0_split
I1219 03:13:24.154987 15597 net.cpp:151] Top shape: 1 832 15 30 (374400)
I1219 03:13:24.154989 15597 net.cpp:151] Top shape: 1 832 15 30 (374400)
I1219 03:13:24.154992 15597 net.cpp:151] Top shape: 1 832 15 30 (374400)
I1219 03:13:24.154994 15597 net.cpp:151] Top shape: 1 832 15 30 (374400)
I1219 03:13:24.154996 15597 net.cpp:159] Memory required for data: 690159616
I1219 03:13:24.154999 15597 layer_factory.hpp:77] Creating layer inception_5b/1x1
I1219 03:13:24.155002 15597 net.cpp:94] Creating Layer inception_5b/1x1
I1219 03:13:24.155004 15597 net.cpp:435] inception_5b/1x1 <- inception_5a/output_inception_5a/output_fixed_0_split_0
I1219 03:13:24.155007 15597 net.cpp:409] inception_5b/1x1 -> inception_5b/1x1
I1219 03:13:24.157848 15597 layer_factory.hpp:77] Creating layer inception_5b/1x1
I1219 03:13:24.161155 15597 net.cpp:144] Setting up inception_5b/1x1
I1219 03:13:24.161170 15597 net.cpp:151] Top shape: 1 384 15 30 (172800)
I1219 03:13:24.161175 15597 net.cpp:159] Memory required for data: 690850816
I1219 03:13:24.161183 15597 layer_factory.hpp:77] Creating layer inception_5b/relu_1x1
I1219 03:13:24.161190 15597 net.cpp:94] Creating Layer inception_5b/relu_1x1
I1219 03:13:24.161193 15597 net.cpp:435] inception_5b/relu_1x1 <- inception_5b/1x1
I1219 03:13:24.161199 15597 net.cpp:396] inception_5b/relu_1x1 -> inception_5b/1x1 (in-place)
I1219 03:13:24.161206 15597 net.cpp:144] Setting up inception_5b/relu_1x1
I1219 03:13:24.161208 15597 net.cpp:151] Top shape: 1 384 15 30 (172800)
I1219 03:13:24.161211 15597 net.cpp:159] Memory required for data: 691542016
I1219 03:13:24.161214 15597 layer_factory.hpp:77] Creating layer inception_5b/3x3_reduce
I1219 03:13:24.161222 15597 net.cpp:94] Creating Layer inception_5b/3x3_reduce
I1219 03:13:24.161226 15597 net.cpp:435] inception_5b/3x3_reduce <- inception_5a/output_inception_5a/output_fixed_0_split_1
I1219 03:13:24.161229 15597 net.cpp:409] inception_5b/3x3_reduce -> inception_5b/3x3_reduce
I1219 03:13:24.162226 15597 layer_factory.hpp:77] Creating layer inception_5b/3x3_reduce
I1219 03:13:24.163313 15597 net.cpp:144] Setting up inception_5b/3x3_reduce
I1219 03:13:24.163317 15597 net.cpp:151] Top shape: 1 192 15 30 (86400)
I1219 03:13:24.163321 15597 net.cpp:159] Memory required for data: 691887616
I1219 03:13:24.163327 15597 layer_factory.hpp:77] Creating layer inception_5b/relu_3x3_reduce
I1219 03:13:24.163331 15597 net.cpp:94] Creating Layer inception_5b/relu_3x3_reduce
I1219 03:13:24.163333 15597 net.cpp:435] inception_5b/relu_3x3_reduce <- inception_5b/3x3_reduce
I1219 03:13:24.163336 15597 net.cpp:396] inception_5b/relu_3x3_reduce -> inception_5b/3x3_reduce (in-place)
I1219 03:13:24.163342 15597 net.cpp:144] Setting up inception_5b/relu_3x3_reduce
I1219 03:13:24.163347 15597 net.cpp:151] Top shape: 1 192 15 30 (86400)
I1219 03:13:24.163352 15597 net.cpp:159] Memory required for data: 692233216
I1219 03:13:24.163354 15597 layer_factory.hpp:77] Creating layer inception_5b/3x3_reduce_fixed
I1219 03:13:24.163360 15597 net.cpp:94] Creating Layer inception_5b/3x3_reduce_fixed
I1219 03:13:24.163364 15597 net.cpp:435] inception_5b/3x3_reduce_fixed <- inception_5b/3x3_reduce
I1219 03:13:24.163368 15597 net.cpp:396] inception_5b/3x3_reduce_fixed -> inception_5b/3x3_reduce (in-place)
I1219 03:13:24.163405 15597 net.cpp:144] Setting up inception_5b/3x3_reduce_fixed
I1219 03:13:24.163409 15597 net.cpp:151] Top shape: 1 192 15 30 (86400)
I1219 03:13:24.163412 15597 net.cpp:159] Memory required for data: 692578816
I1219 03:13:24.163415 15597 layer_factory.hpp:77] Creating layer inception_5b/3x3
I1219 03:13:24.163421 15597 net.cpp:94] Creating Layer inception_5b/3x3
I1219 03:13:24.163424 15597 net.cpp:435] inception_5b/3x3 <- inception_5b/3x3_reduce
I1219 03:13:24.163429 15597 net.cpp:409] inception_5b/3x3 -> inception_5b/3x3
I1219 03:13:24.168445 15597 layer_factory.hpp:77] Creating layer inception_5b/3x3
I1219 03:13:24.173493 15597 net.cpp:144] Setting up inception_5b/3x3
I1219 03:13:24.173508 15597 net.cpp:151] Top shape: 1 384 15 30 (172800)
I1219 03:13:24.173516 15597 net.cpp:159] Memory required for data: 693270016
I1219 03:13:24.173524 15597 layer_factory.hpp:77] Creating layer inception_5b/relu_3x3
I1219 03:13:24.173532 15597 net.cpp:94] Creating Layer inception_5b/relu_3x3
I1219 03:13:24.173539 15597 net.cpp:435] inception_5b/relu_3x3 <- inception_5b/3x3
I1219 03:13:24.173547 15597 net.cpp:396] inception_5b/relu_3x3 -> inception_5b/3x3 (in-place)
I1219 03:13:24.173554 15597 net.cpp:144] Setting up inception_5b/relu_3x3
I1219 03:13:24.173560 15597 net.cpp:151] Top shape: 1 384 15 30 (172800)
I1219 03:13:24.173564 15597 net.cpp:159] Memory required for data: 693961216
I1219 03:13:24.173568 15597 layer_factory.hpp:77] Creating layer inception_5b/5x5_reduce
I1219 03:13:24.173576 15597 net.cpp:94] Creating Layer inception_5b/5x5_reduce
I1219 03:13:24.173580 15597 net.cpp:435] inception_5b/5x5_reduce <- inception_5a/output_inception_5a/output_fixed_0_split_2
I1219 03:13:24.173586 15597 net.cpp:409] inception_5b/5x5_reduce -> inception_5b/5x5_reduce
I1219 03:13:24.174006 15597 layer_factory.hpp:77] Creating layer inception_5b/5x5_reduce
I1219 03:13:24.174477 15597 net.cpp:144] Setting up inception_5b/5x5_reduce
I1219 03:13:24.174485 15597 net.cpp:151] Top shape: 1 48 15 30 (21600)
I1219 03:13:24.174489 15597 net.cpp:159] Memory required for data: 694047616
I1219 03:13:24.174494 15597 layer_factory.hpp:77] Creating layer inception_5b/relu_5x5_reduce
I1219 03:13:24.174501 15597 net.cpp:94] Creating Layer inception_5b/relu_5x5_reduce
I1219 03:13:24.174510 15597 net.cpp:435] inception_5b/relu_5x5_reduce <- inception_5b/5x5_reduce
I1219 03:13:24.174515 15597 net.cpp:396] inception_5b/relu_5x5_reduce -> inception_5b/5x5_reduce (in-place)
I1219 03:13:24.174522 15597 net.cpp:144] Setting up inception_5b/relu_5x5_reduce
I1219 03:13:24.174526 15597 net.cpp:151] Top shape: 1 48 15 30 (21600)
I1219 03:13:24.174532 15597 net.cpp:159] Memory required for data: 694134016
I1219 03:13:24.174535 15597 layer_factory.hpp:77] Creating layer inception_5b/5x5_reduce_fixed
I1219 03:13:24.174542 15597 net.cpp:94] Creating Layer inception_5b/5x5_reduce_fixed
I1219 03:13:24.174547 15597 net.cpp:435] inception_5b/5x5_reduce_fixed <- inception_5b/5x5_reduce
I1219 03:13:24.174551 15597 net.cpp:396] inception_5b/5x5_reduce_fixed -> inception_5b/5x5_reduce (in-place)
I1219 03:13:24.174583 15597 net.cpp:144] Setting up inception_5b/5x5_reduce_fixed
I1219 03:13:24.174587 15597 net.cpp:151] Top shape: 1 48 15 30 (21600)
I1219 03:13:24.174590 15597 net.cpp:159] Memory required for data: 694220416
I1219 03:13:24.174594 15597 layer_factory.hpp:77] Creating layer inception_5b/5x5
I1219 03:13:24.174602 15597 net.cpp:94] Creating Layer inception_5b/5x5
I1219 03:13:24.174605 15597 net.cpp:435] inception_5b/5x5 <- inception_5b/5x5_reduce
I1219 03:13:24.174609 15597 net.cpp:409] inception_5b/5x5 -> inception_5b/5x5
I1219 03:13:24.175608 15597 layer_factory.hpp:77] Creating layer inception_5b/5x5
I1219 03:13:24.177234 15597 net.cpp:144] Setting up inception_5b/5x5
I1219 03:13:24.177242 15597 net.cpp:151] Top shape: 1 128 15 30 (57600)
I1219 03:13:24.177246 15597 net.cpp:159] Memory required for data: 694450816
I1219 03:13:24.177251 15597 layer_factory.hpp:77] Creating layer inception_5b/relu_5x5
I1219 03:13:24.177254 15597 net.cpp:94] Creating Layer inception_5b/relu_5x5
I1219 03:13:24.177258 15597 net.cpp:435] inception_5b/relu_5x5 <- inception_5b/5x5
I1219 03:13:24.177261 15597 net.cpp:396] inception_5b/relu_5x5 -> inception_5b/5x5 (in-place)
I1219 03:13:24.177271 15597 net.cpp:144] Setting up inception_5b/relu_5x5
I1219 03:13:24.177273 15597 net.cpp:151] Top shape: 1 128 15 30 (57600)
I1219 03:13:24.177284 15597 net.cpp:159] Memory required for data: 694681216
I1219 03:13:24.177286 15597 layer_factory.hpp:77] Creating layer inception_5b/pool
I1219 03:13:24.177292 15597 net.cpp:94] Creating Layer inception_5b/pool
I1219 03:13:24.177296 15597 net.cpp:435] inception_5b/pool <- inception_5a/output_inception_5a/output_fixed_0_split_3
I1219 03:13:24.177301 15597 net.cpp:409] inception_5b/pool -> inception_5b/pool
I1219 03:13:24.177340 15597 net.cpp:144] Setting up inception_5b/pool
I1219 03:13:24.177343 15597 net.cpp:151] Top shape: 1 832 15 30 (374400)
I1219 03:13:24.177346 15597 net.cpp:159] Memory required for data: 696178816
I1219 03:13:24.177348 15597 layer_factory.hpp:77] Creating layer inception_5b/pool_proj
I1219 03:13:24.177356 15597 net.cpp:94] Creating Layer inception_5b/pool_proj
I1219 03:13:24.177361 15597 net.cpp:435] inception_5b/pool_proj <- inception_5b/pool
I1219 03:13:24.177366 15597 net.cpp:409] inception_5b/pool_proj -> inception_5b/pool_proj
I1219 03:13:24.178032 15597 layer_factory.hpp:77] Creating layer inception_5b/pool_proj
I1219 03:13:24.182471 15597 net.cpp:144] Setting up inception_5b/pool_proj
I1219 03:13:24.182479 15597 net.cpp:151] Top shape: 1 128 15 30 (57600)
I1219 03:13:24.182484 15597 net.cpp:159] Memory required for data: 696409216
I1219 03:13:24.182490 15597 layer_factory.hpp:77] Creating layer inception_5b/relu_pool_proj
I1219 03:13:24.182494 15597 net.cpp:94] Creating Layer inception_5b/relu_pool_proj
I1219 03:13:24.182498 15597 net.cpp:435] inception_5b/relu_pool_proj <- inception_5b/pool_proj
I1219 03:13:24.182503 15597 net.cpp:396] inception_5b/relu_pool_proj -> inception_5b/pool_proj (in-place)
I1219 03:13:24.182509 15597 net.cpp:144] Setting up inception_5b/relu_pool_proj
I1219 03:13:24.182512 15597 net.cpp:151] Top shape: 1 128 15 30 (57600)
I1219 03:13:24.182515 15597 net.cpp:159] Memory required for data: 696639616
I1219 03:13:24.182518 15597 layer_factory.hpp:77] Creating layer inception_5b/output
I1219 03:13:24.182523 15597 net.cpp:94] Creating Layer inception_5b/output
I1219 03:13:24.182525 15597 net.cpp:435] inception_5b/output <- inception_5b/1x1
I1219 03:13:24.182528 15597 net.cpp:435] inception_5b/output <- inception_5b/3x3
I1219 03:13:24.182533 15597 net.cpp:435] inception_5b/output <- inception_5b/5x5
I1219 03:13:24.182535 15597 net.cpp:435] inception_5b/output <- inception_5b/pool_proj
I1219 03:13:24.182539 15597 net.cpp:409] inception_5b/output -> inception_5b/output
I1219 03:13:24.182566 15597 net.cpp:144] Setting up inception_5b/output
I1219 03:13:24.182570 15597 net.cpp:151] Top shape: 1 1024 15 30 (460800)
I1219 03:13:24.182574 15597 net.cpp:159] Memory required for data: 698482816
I1219 03:13:24.182575 15597 layer_factory.hpp:77] Creating layer inception_5b/output_fixed
I1219 03:13:24.182581 15597 net.cpp:94] Creating Layer inception_5b/output_fixed
I1219 03:13:24.182585 15597 net.cpp:435] inception_5b/output_fixed <- inception_5b/output
I1219 03:13:24.182588 15597 net.cpp:396] inception_5b/output_fixed -> inception_5b/output (in-place)
I1219 03:13:24.182619 15597 net.cpp:144] Setting up inception_5b/output_fixed
I1219 03:13:24.182622 15597 net.cpp:151] Top shape: 1 1024 15 30 (460800)
I1219 03:13:24.182626 15597 net.cpp:159] Memory required for data: 700326016
I1219 03:13:24.182629 15597 layer_factory.hpp:77] Creating layer p5
I1219 03:13:24.182636 15597 net.cpp:94] Creating Layer p5
I1219 03:13:24.182641 15597 net.cpp:435] p5 <- inception_5b/output
I1219 03:13:24.182644 15597 net.cpp:409] p5 -> p5
I1219 03:13:24.183445 15597 layer_factory.hpp:77] Creating layer p5
I1219 03:13:24.184675 15597 net.cpp:144] Setting up p5
I1219 03:13:24.184693 15597 net.cpp:151] Top shape: 1 32 15 30 (14400)
I1219 03:13:24.184706 15597 net.cpp:159] Memory required for data: 700383616
I1219 03:13:24.184718 15597 layer_factory.hpp:77] Creating layer p5_fixed
I1219 03:13:24.184731 15597 net.cpp:94] Creating Layer p5_fixed
I1219 03:13:24.184739 15597 net.cpp:435] p5_fixed <- p5
I1219 03:13:24.184751 15597 net.cpp:396] p5_fixed -> p5 (in-place)
I1219 03:13:24.184816 15597 net.cpp:144] Setting up p5_fixed
I1219 03:13:24.184825 15597 net.cpp:151] Top shape: 1 32 15 30 (14400)
I1219 03:13:24.184834 15597 net.cpp:159] Memory required for data: 700441216
I1219 03:13:24.184842 15597 layer_factory.hpp:77] Creating layer latlayer_4f
I1219 03:13:24.184856 15597 net.cpp:94] Creating Layer latlayer_4f
I1219 03:13:24.184865 15597 net.cpp:435] latlayer_4f <- inception_4e/output_inception_4e/output_fixed_0_split_1
I1219 03:13:24.184875 15597 net.cpp:409] latlayer_4f -> latlayer_4f
I1219 03:13:24.185444 15597 layer_factory.hpp:77] Creating layer latlayer_4f
I1219 03:13:24.186215 15597 net.cpp:144] Setting up latlayer_4f
I1219 03:13:24.186224 15597 net.cpp:151] Top shape: 1 32 30 60 (57600)
I1219 03:13:24.186233 15597 net.cpp:159] Memory required for data: 700671616
I1219 03:13:24.186240 15597 layer_factory.hpp:77] Creating layer latlayer_4f_fixed
I1219 03:13:24.186249 15597 net.cpp:94] Creating Layer latlayer_4f_fixed
I1219 03:13:24.186255 15597 net.cpp:435] latlayer_4f_fixed <- latlayer_4f
I1219 03:13:24.186262 15597 net.cpp:396] latlayer_4f_fixed -> latlayer_4f (in-place)
I1219 03:13:24.186308 15597 net.cpp:144] Setting up latlayer_4f_fixed
I1219 03:13:24.186314 15597 net.cpp:151] Top shape: 1 32 30 60 (57600)
I1219 03:13:24.186321 15597 net.cpp:159] Memory required for data: 700902016
I1219 03:13:24.186326 15597 layer_factory.hpp:77] Creating layer upsample_p5
I1219 03:13:24.186333 15597 net.cpp:94] Creating Layer upsample_p5
I1219 03:13:24.186337 15597 net.cpp:435] upsample_p5 <- p5
I1219 03:13:24.186344 15597 net.cpp:409] upsample_p5 -> upsample_p5
I1219 03:13:24.186776 15597 layer_factory.hpp:77] Creating layer upsample_p5
I1219 03:13:24.187278 15597 net.cpp:144] Setting up upsample_p5
I1219 03:13:24.187285 15597 net.cpp:151] Top shape: 1 32 30 60 (57600)
I1219 03:13:24.187294 15597 net.cpp:159] Memory required for data: 701132416
I1219 03:13:24.187299 15597 layer_factory.hpp:77] Creating layer upsample_p5_fixed
I1219 03:13:24.187306 15597 net.cpp:94] Creating Layer upsample_p5_fixed
I1219 03:13:24.187311 15597 net.cpp:435] upsample_p5_fixed <- upsample_p5
I1219 03:13:24.187317 15597 net.cpp:396] upsample_p5_fixed -> upsample_p5 (in-place)
I1219 03:13:24.187361 15597 net.cpp:144] Setting up upsample_p5_fixed
I1219 03:13:24.187367 15597 net.cpp:151] Top shape: 1 32 30 60 (57600)
I1219 03:13:24.187372 15597 net.cpp:159] Memory required for data: 701362816
I1219 03:13:24.187377 15597 layer_factory.hpp:77] Creating layer add_p4
I1219 03:13:24.187383 15597 net.cpp:94] Creating Layer add_p4
I1219 03:13:24.187387 15597 net.cpp:435] add_p4 <- upsample_p5
I1219 03:13:24.187392 15597 net.cpp:435] add_p4 <- latlayer_4f
I1219 03:13:24.187398 15597 net.cpp:409] add_p4 -> add_p4
I1219 03:13:24.187424 15597 net.cpp:144] Setting up add_p4
I1219 03:13:24.187431 15597 net.cpp:151] Top shape: 1 32 30 60 (57600)
I1219 03:13:24.187439 15597 net.cpp:159] Memory required for data: 701593216
I1219 03:13:24.187443 15597 layer_factory.hpp:77] Creating layer add_p4_fixed
I1219 03:13:24.187448 15597 net.cpp:94] Creating Layer add_p4_fixed
I1219 03:13:24.187453 15597 net.cpp:435] add_p4_fixed <- add_p4
I1219 03:13:24.187458 15597 net.cpp:396] add_p4_fixed -> add_p4 (in-place)
I1219 03:13:24.187489 15597 net.cpp:144] Setting up add_p4_fixed
I1219 03:13:24.187495 15597 net.cpp:151] Top shape: 1 32 30 60 (57600)
I1219 03:13:24.187507 15597 net.cpp:159] Memory required for data: 701823616
I1219 03:13:24.187513 15597 layer_factory.hpp:77] Creating layer toplayer_p4
I1219 03:13:24.187523 15597 net.cpp:94] Creating Layer toplayer_p4
I1219 03:13:24.187527 15597 net.cpp:435] toplayer_p4 <- add_p4
I1219 03:13:24.187534 15597 net.cpp:409] toplayer_p4 -> p4
I1219 03:13:24.187811 15597 layer_factory.hpp:77] Creating layer toplayer_p4
I1219 03:13:24.188220 15597 net.cpp:144] Setting up toplayer_p4
I1219 03:13:24.188225 15597 net.cpp:151] Top shape: 1 32 30 60 (57600)
I1219 03:13:24.188231 15597 net.cpp:159] Memory required for data: 702054016
I1219 03:13:24.188236 15597 layer_factory.hpp:77] Creating layer p4_fixed
I1219 03:13:24.188242 15597 net.cpp:94] Creating Layer p4_fixed
I1219 03:13:24.188247 15597 net.cpp:435] p4_fixed <- p4
I1219 03:13:24.188253 15597 net.cpp:396] p4_fixed -> p4 (in-place)
I1219 03:13:24.188290 15597 net.cpp:144] Setting up p4_fixed
I1219 03:13:24.188294 15597 net.cpp:151] Top shape: 1 32 30 60 (57600)
I1219 03:13:24.188298 15597 net.cpp:159] Memory required for data: 702284416
I1219 03:13:24.188302 15597 layer_factory.hpp:77] Creating layer latlayer_3d
I1219 03:13:24.188308 15597 net.cpp:94] Creating Layer latlayer_3d
I1219 03:13:24.188313 15597 net.cpp:435] latlayer_3d <- inception_3b/output_inception_3b/output_fixed_0_split_1
I1219 03:13:24.188318 15597 net.cpp:409] latlayer_3d -> latlayer_3d
I1219 03:13:24.188612 15597 layer_factory.hpp:77] Creating layer latlayer_3d
I1219 03:13:24.189038 15597 net.cpp:144] Setting up latlayer_3d
I1219 03:13:24.189044 15597 net.cpp:151] Top shape: 1 32 60 120 (230400)
I1219 03:13:24.189050 15597 net.cpp:159] Memory required for data: 703206016
I1219 03:13:24.189057 15597 layer_factory.hpp:77] Creating layer latlayer_3d_fixed
I1219 03:13:24.189065 15597 net.cpp:94] Creating Layer latlayer_3d_fixed
I1219 03:13:24.189069 15597 net.cpp:435] latlayer_3d_fixed <- latlayer_3d
I1219 03:13:24.189075 15597 net.cpp:396] latlayer_3d_fixed -> latlayer_3d (in-place)
I1219 03:13:24.189111 15597 net.cpp:144] Setting up latlayer_3d_fixed
I1219 03:13:24.189116 15597 net.cpp:151] Top shape: 1 32 60 120 (230400)
I1219 03:13:24.189119 15597 net.cpp:159] Memory required for data: 704127616
I1219 03:13:24.189126 15597 layer_factory.hpp:77] Creating layer upsample_p4
I1219 03:13:24.189131 15597 net.cpp:94] Creating Layer upsample_p4
I1219 03:13:24.189137 15597 net.cpp:435] upsample_p4 <- p4
I1219 03:13:24.189142 15597 net.cpp:409] upsample_p4 -> upsample_p4
I1219 03:13:24.189405 15597 layer_factory.hpp:77] Creating layer upsample_p4
I1219 03:13:24.189747 15597 net.cpp:144] Setting up upsample_p4
I1219 03:13:24.189754 15597 net.cpp:151] Top shape: 1 32 60 120 (230400)
I1219 03:13:24.189759 15597 net.cpp:159] Memory required for data: 705049216
I1219 03:13:24.189764 15597 layer_factory.hpp:77] Creating layer upsample_p4_fixed
I1219 03:13:24.189770 15597 net.cpp:94] Creating Layer upsample_p4_fixed
I1219 03:13:24.189776 15597 net.cpp:435] upsample_p4_fixed <- upsample_p4
I1219 03:13:24.189781 15597 net.cpp:396] upsample_p4_fixed -> upsample_p4 (in-place)
I1219 03:13:24.189815 15597 net.cpp:144] Setting up upsample_p4_fixed
I1219 03:13:24.189818 15597 net.cpp:151] Top shape: 1 32 60 120 (230400)
I1219 03:13:24.189822 15597 net.cpp:159] Memory required for data: 705970816
I1219 03:13:24.189828 15597 layer_factory.hpp:77] Creating layer add_p3
I1219 03:13:24.189834 15597 net.cpp:94] Creating Layer add_p3
I1219 03:13:24.189841 15597 net.cpp:435] add_p3 <- upsample_p4
I1219 03:13:24.189844 15597 net.cpp:435] add_p3 <- latlayer_3d
I1219 03:13:24.189851 15597 net.cpp:409] add_p3 -> add_p3
I1219 03:13:24.189870 15597 net.cpp:144] Setting up add_p3
I1219 03:13:24.189874 15597 net.cpp:151] Top shape: 1 32 60 120 (230400)
I1219 03:13:24.189879 15597 net.cpp:159] Memory required for data: 706892416
I1219 03:13:24.189883 15597 layer_factory.hpp:77] Creating layer add_p3_fixed
I1219 03:13:24.189889 15597 net.cpp:94] Creating Layer add_p3_fixed
I1219 03:13:24.189893 15597 net.cpp:435] add_p3_fixed <- add_p3
I1219 03:13:24.189898 15597 net.cpp:396] add_p3_fixed -> add_p3 (in-place)
I1219 03:13:24.189929 15597 net.cpp:144] Setting up add_p3_fixed
I1219 03:13:24.189934 15597 net.cpp:151] Top shape: 1 32 60 120 (230400)
I1219 03:13:24.189939 15597 net.cpp:159] Memory required for data: 707814016
I1219 03:13:24.189944 15597 layer_factory.hpp:77] Creating layer toplayer_p3
I1219 03:13:24.189952 15597 net.cpp:94] Creating Layer toplayer_p3
I1219 03:13:24.189956 15597 net.cpp:435] toplayer_p3 <- add_p3
I1219 03:13:24.189961 15597 net.cpp:409] toplayer_p3 -> p3
I1219 03:13:24.190201 15597 layer_factory.hpp:77] Creating layer toplayer_p3
I1219 03:13:24.190575 15597 net.cpp:144] Setting up toplayer_p3
I1219 03:13:24.190582 15597 net.cpp:151] Top shape: 1 32 60 120 (230400)
I1219 03:13:24.190587 15597 net.cpp:159] Memory required for data: 708735616
I1219 03:13:24.190594 15597 layer_factory.hpp:77] Creating layer p3_fixed
I1219 03:13:24.190600 15597 net.cpp:94] Creating Layer p3_fixed
I1219 03:13:24.190605 15597 net.cpp:435] p3_fixed <- p3
I1219 03:13:24.190609 15597 net.cpp:396] p3_fixed -> p3 (in-place)
I1219 03:13:24.190639 15597 net.cpp:144] Setting up p3_fixed
I1219 03:13:24.190641 15597 net.cpp:151] Top shape: 1 32 60 120 (230400)
I1219 03:13:24.190645 15597 net.cpp:159] Memory required for data: 709657216
I1219 03:13:24.190649 15597 layer_factory.hpp:77] Creating layer latlayer_2c
I1219 03:13:24.190655 15597 net.cpp:94] Creating Layer latlayer_2c
I1219 03:13:24.190660 15597 net.cpp:435] latlayer_2c <- conv2/3x3_conv2/3x3_fixed_0_split_1
I1219 03:13:24.190668 15597 net.cpp:409] latlayer_2c -> latlayer_2c
I1219 03:13:24.190893 15597 layer_factory.hpp:77] Creating layer latlayer_2c
I1219 03:13:24.191257 15597 net.cpp:144] Setting up latlayer_2c
I1219 03:13:24.191263 15597 net.cpp:151] Top shape: 1 32 120 240 (921600)
I1219 03:13:24.191269 15597 net.cpp:159] Memory required for data: 713343616
I1219 03:13:24.191277 15597 layer_factory.hpp:77] Creating layer latlayer_2c_fixed
I1219 03:13:24.191284 15597 net.cpp:94] Creating Layer latlayer_2c_fixed
I1219 03:13:24.191288 15597 net.cpp:435] latlayer_2c_fixed <- latlayer_2c
I1219 03:13:24.191295 15597 net.cpp:396] latlayer_2c_fixed -> latlayer_2c (in-place)
I1219 03:13:24.191327 15597 net.cpp:144] Setting up latlayer_2c_fixed
I1219 03:13:24.191331 15597 net.cpp:151] Top shape: 1 32 120 240 (921600)
I1219 03:13:24.191336 15597 net.cpp:159] Memory required for data: 717030016
I1219 03:13:24.191341 15597 layer_factory.hpp:77] Creating layer upsample_p3
I1219 03:13:24.191349 15597 net.cpp:94] Creating Layer upsample_p3
I1219 03:13:24.191354 15597 net.cpp:435] upsample_p3 <- p3
I1219 03:13:24.191359 15597 net.cpp:409] upsample_p3 -> upsample_p3
I1219 03:13:24.191608 15597 layer_factory.hpp:77] Creating layer upsample_p3
I1219 03:13:24.191979 15597 net.cpp:144] Setting up upsample_p3
I1219 03:13:24.191988 15597 net.cpp:151] Top shape: 1 32 120 240 (921600)
I1219 03:13:24.191992 15597 net.cpp:159] Memory required for data: 720716416
I1219 03:13:24.191998 15597 layer_factory.hpp:77] Creating layer upsample_p3_fixed
I1219 03:13:24.192003 15597 net.cpp:94] Creating Layer upsample_p3_fixed
I1219 03:13:24.192008 15597 net.cpp:435] upsample_p3_fixed <- upsample_p3
I1219 03:13:24.192014 15597 net.cpp:396] upsample_p3_fixed -> upsample_p3 (in-place)
I1219 03:13:24.192050 15597 net.cpp:144] Setting up upsample_p3_fixed
I1219 03:13:24.192057 15597 net.cpp:151] Top shape: 1 32 120 240 (921600)
I1219 03:13:24.192063 15597 net.cpp:159] Memory required for data: 724402816
I1219 03:13:24.192068 15597 layer_factory.hpp:77] Creating layer add_p2
I1219 03:13:24.192073 15597 net.cpp:94] Creating Layer add_p2
I1219 03:13:24.192078 15597 net.cpp:435] add_p2 <- upsample_p3
I1219 03:13:24.192085 15597 net.cpp:435] add_p2 <- latlayer_2c
I1219 03:13:24.192090 15597 net.cpp:409] add_p2 -> add_p2
I1219 03:13:24.192111 15597 net.cpp:144] Setting up add_p2
I1219 03:13:24.192114 15597 net.cpp:151] Top shape: 1 32 120 240 (921600)
I1219 03:13:24.192118 15597 net.cpp:159] Memory required for data: 728089216
I1219 03:13:24.192121 15597 layer_factory.hpp:77] Creating layer add_p2_fixed
I1219 03:13:24.192126 15597 net.cpp:94] Creating Layer add_p2_fixed
I1219 03:13:24.192129 15597 net.cpp:435] add_p2_fixed <- add_p2
I1219 03:13:24.192132 15597 net.cpp:396] add_p2_fixed -> add_p2 (in-place)
I1219 03:13:24.192160 15597 net.cpp:144] Setting up add_p2_fixed
I1219 03:13:24.192163 15597 net.cpp:151] Top shape: 1 32 120 240 (921600)
I1219 03:13:24.192167 15597 net.cpp:159] Memory required for data: 731775616
I1219 03:13:24.192171 15597 layer_factory.hpp:77] Creating layer toplayer_p2
I1219 03:13:24.192176 15597 net.cpp:94] Creating Layer toplayer_p2
I1219 03:13:24.192178 15597 net.cpp:435] toplayer_p2 <- add_p2
I1219 03:13:24.192183 15597 net.cpp:409] toplayer_p2 -> pred
I1219 03:13:24.192351 15597 layer_factory.hpp:77] Creating layer toplayer_p2
I1219 03:13:24.194541 15597 net.cpp:144] Setting up toplayer_p2
I1219 03:13:24.194556 15597 net.cpp:151] Top shape: 1 5 480 960 (2304000)
I1219 03:13:24.194563 15597 net.cpp:159] Memory required for data: 740991616
I1219 03:13:24.194571 15597 layer_factory.hpp:77] Creating layer pred_fixed
I1219 03:13:24.194579 15597 net.cpp:94] Creating Layer pred_fixed
I1219 03:13:24.194584 15597 net.cpp:435] pred_fixed <- pred
I1219 03:13:24.194589 15597 net.cpp:396] pred_fixed -> pred (in-place)
I1219 03:13:24.194636 15597 net.cpp:144] Setting up pred_fixed
I1219 03:13:24.194643 15597 net.cpp:151] Top shape: 1 5 480 960 (2304000)
I1219 03:13:24.194648 15597 net.cpp:159] Memory required for data: 750207616
I1219 03:13:24.194653 15597 layer_factory.hpp:77] Creating layer score
I1219 03:13:24.194659 15597 net.cpp:94] Creating Layer score
I1219 03:13:24.194664 15597 net.cpp:435] score <- pred
I1219 03:13:24.194669 15597 net.cpp:409] score -> score
I1219 03:13:24.194784 15597 net.cpp:144] Setting up score
I1219 03:13:24.194790 15597 net.cpp:151] Top shape: 1 5 480 960 (2304000)
I1219 03:13:24.194795 15597 net.cpp:159] Memory required for data: 759423616
I1219 03:13:24.194798 15597 layer_factory.hpp:77] Creating layer accuracy
I1219 03:13:24.194818 15597 net.cpp:94] Creating Layer accuracy
I1219 03:13:24.194823 15597 net.cpp:435] accuracy <- score
I1219 03:13:24.194829 15597 net.cpp:435] accuracy <- label
I1219 03:13:24.194834 15597 net.cpp:409] accuracy -> segmentation_eval
I1219 03:13:24.194860 15597 net.cpp:144] Setting up accuracy
I1219 03:13:24.194864 15597 net.cpp:151] Top shape: 3 5 (15)
I1219 03:13:24.194869 15597 net.cpp:159] Memory required for data: 759423676
I1219 03:13:24.194871 15597 net.cpp:222] accuracy does not need backward computation.
I1219 03:13:24.194875 15597 net.cpp:222] score does not need backward computation.
I1219 03:13:24.194877 15597 net.cpp:222] pred_fixed does not need backward computation.
I1219 03:13:24.194880 15597 net.cpp:222] toplayer_p2 does not need backward computation.
…
